beer/experiments/DQN_0.15/models/dqn_agent_firm_1_episode_3000.pth (torch, 101224 bytes, 24 tensors)

fc1.weight f4 [64, 3]
-0.061989427 -0.2081702 -0.21355215 0.48752308 0.20117554 0.06253888 -0.016214132 -0.3017945
-0.40841103 0.03238448 0.22124134 0.023449011 -0.5285999 -0.26549324 -0.40557155 -1.1496662
-0.2862525 -0.017103357 -0.29668546 -0.033195436 -0.36827838 0.22525287 0.40259647 0.3224452
-0.20578383 -0.26686683 0.08122455 0.014450245 0.21791972 0.15868509 -0.06769627 -0.026601434
-0.5543586 -0.44112757 -0.42957574 -0.3553539 -0.054202877 0.08522926 -0.5870121 -0.456835
-0.008711636 -0.13847983 -0.2722897 -0.20051394 0.06936235 -0.15390334 0.29482162 0.21356641
0.33914834 -0.07605172 0.015483907 -0.006329119 -0.38400823 -0.08125761 0.18101881 -0.082999445
-0.50474375 -0.4163414 -0.4167249 0.18792388 -0.33930203 0.061896864 -0.004943747 -0.09244633
0.18010515 0.041451477 -0.023678869 0.075852744 0.049361926 0.0043635513 -1.4228874 0.04540245
0.050861154 0.008380049 -0.21787468 -0.21631211 -0.97326976 0.09599832 -0.21478714 -0.71974707
-0.052796002 -0.3387066 -0.08706784 -0.51900965 0.4424576 0.09538693 0.12432601 0.2731563
-0.4059807 0.22418854 0.33750907 -0.32947108 0.16242178 -0.32153872 -0.1903373 0.10801711
0.17113534 0.34855172 0.3697918 0.5138328 -0.55393827 -0.49220738 -0.028354244 0.34493023
-0.5631222 0.09602787 -0.0033886493 -0.08270892 0.3408929 -0.49178106 0.050747722 -0.32177997
-0.2970441 0.0064299502 0.20996845 -0.13485238 -0.3043255 0.30631712 0.06505932 -0.10554269
-0.22458124 -0.2849513 0.036717206 0.29048976 0.25110024 -0.23084573 0.46884972 -0.6203998
0.048111595 -0.64616334 -1.1733347 0.06375343 0.16781121 0.06476003 0.15084575 -0.16671863
-0.47344282 0.14110975 -0.16646956 0.102907516 -0.075270385 -0.4349207 0.10210039 -0.008758716
-0.0542868 -0.0797969 0.059485223 -0.78534544 -0.41487917 0.18344009 -0.2050125 0.35127354
0.06403771 0.19265313 -0.24353611 0.057077613 -0.5087954 -0.4839624 0.33353084 0.41923642
0.40111664 0.05565199 0.12412352 0.3439866 -0.15234935 -0.39958853 -0.001504004 -0.25652212
-0.19965668 -0.008119721 0.045400146 -0.19765425 0.13352725 0.017087236 -0.11964551 -0.45038694
0.037594274 0.3448374 0.4572498 0.4129526 -0.07000059 -0.049410045 -0.32443878 -1.0709264
0.2608906 -0.17404014 -0.40841296 0.017235683 0.16086686 -0.18881972 0.19666669 -0.18907002
00000000: a0e8 7dbd 922a 55be 6aad 5abe a09c f93e
00000010: f600 4e3e 6214 803d 80d3 84bc cf84 9abe
00000020: 401b d1be 97a5 043d 178d 623e 2418 c03c
00000030: 5352 07bf bbee 87be 13a7 cfbe 4328 93bf
00000040: b08f 92be 571c 8cbc 28e7 97be f0f7 07bd
00000050: fc8e bcbe b0a8 663e 2021 ce3e 8a17 a53e
00000060: ffb8 52be c5a2 88be 0f59 a63d b8c0 6c3c
00000070: 5926 5f3e 587e 223e 58a4 8abd 40eb d9bc
00000080: 72ea 0dbf 79db e1be 5af1 dbbe f2f0 b5be
00000090: d603 5ebd ae8c ae3d 6d46 16bf 47e6 e9be
000000a0: 40bb 0ebc a8cd 0dbe 8e69 8bbe 8753 4dbe
000000b0: d90d 8e3d d698 1dbe dcf2 963e 27b1 5a3e
000000c0: daa4 ad3e 01c1 9bbd 37b0 7d3c 8064 cfbb
000000d0: ba9c c4be 646a a6bd ff5c 393e 9dfb a9bd
000000e0: e336 01bf b32a d5be f75c d5be 1e6f 403e
000000f0: ffb8 adbe 9187 7d3d 28ff a1bb 8054 bdbd
00000100: 7c6d 383e 06c9 293d 30fa c1bc af58 9b3d
00000110: bb2f 4a3d 1ffc 8e3b 2d21 b6bf ebf7 393d
00000120: c953 503d 794c 093c 8a1a 5fbe ec80 5dbe
00000130: 3528 79bf c49a c43d 29f1 5bbe 5841 38bf
00000140: 9f40 58bd f46a adbe a050 b2bd d1dd 04bf
00000150: cd89 e23e 395a c33d a39e fe3d 24db 8b3e
00000160: b4dc cfbe ae91 653e fdcd ac3e 6fb0 a8be
00000170: e551 263e b9a0 a4be c8e7 42be 1338 dd3d
00000180: 1a3e 2f3e 5f75 b23e 5a55 bd3e 8c8a 033f
00000190: e6ce 0dbf 9b02 fcbe 2947 e8bc b29a b03e
000001a0: c728 10bf 43aa c43d 1a14 5ebb 4b63 a9bd
000001b0: 8489 ae3e baca fbbe d8dc 4f3d 58c0 a4be
000001c0: 2a16 98be 55b2 d23b f801 573e be16 0abe
000001d0: 8dd0 9bbe 99d5 9c3e d23d 853d c426 d8bd
000001e0: a0f8 65be 23e5 91be c864 163d 13bb 943e
000001f0: 3690 803e d362 6cbe 120d f03e 85d2 1ebf
00000200: aa10 453d f66a 25bf d52f 96bf 2991 823d
00000210: b4d6 2b3e e8a0 843d 4f77 1a3e 4ab8 2abe
00000220: 1967 f2be 137f 103e ff76 2abe 2dc1 d23d
00000230: 5c27 9abd edad debe 021a d13d b880 0fbc
00000240: d65b 5ebd 8f6c a3bd c7a6 733d 660c 49bf
00000250: 0b6b d4be b8d7 3b3e ccee 51be 20da b33e
00000260: 3426 833d dd46 453e 8861 79be 37ca 693d
00000270: 6a40 02bf ebc9 f7be 8ec4 aa3e 28a6 d63e
00000280: 295f cd3e 57f3 633d 7934 fe3d 031f b03e
00000290: 7801 1cbe de96 ccbe 0022 c5ba de56 83be
000002a0: cd72 4cbe 9408 05bc 81f5 393d e065 4abe
000002b0: 5ebb 083e 88fa 8b3c b508 f5bd 1e99 e6be
000002c0: 74fc 193d 878e b03e a51c ea3e 866e d33e
000002d0: 785c 8fbd 3062 4abd d71c a6be 1e14 89bf
000002e0: 7493 853e 9437 32be 811b d1be d931 8d3c
000002f0: 48ba 243e f559 41be fe62 493e 929b 41be

fc1.bias f4 [64]
-0.28833532 2.9286423 0.2495997 3.1177146 0.13675773 1.4470743 -0.14700854 -2.4930043
3.58094 2.7752373 -0.23971081 0.50412714 2.820418 0.37805057 3.9875753 -1.0359473
0.2916621 0.4117546 0.39491916 -3.292413 2.3764234 3.2582994 3.2064836 -0.96054196
3.5452332 -1.1551092 3.4674883 -0.086294174 -1.5173924 -3.4745147 3.8833094 2.8031607
-1.9130594 -0.56608033 -0.4230686 3.7969725 -2.4593558 -0.8683157 -0.24860692 2.2503827
4.161613 3.4175718 2.651834 -4.0418744 -1.9067361 -1.988334 -1.1873254 2.8846896
3.8722808 -3.7524981 3.7087798 3.6225102 -2.8380196 3.5551813 3.5229652 -0.22936785
3.5277045 2.8527308 4.266026 -2.9700732 0.03332436 -1.3145734 4.5086617 3.2029932
00000000: b0a0 93be e06e 3b40 1097 7f3e a388 4740
00000010: 380a 0c3e bb39 b93f 6889 16be 628d 1fc0
00000020: 1f2e 6540 7d9d 3140 c076 75be 7a0e 013f
00000030: ba81 3440 d88f c13e 6f34 7f40 ec99 84bf
00000040: bc54 953e 80d1 d23e d832 ca3e e5b6 52c0
00000050: 5217 1840 fa87 5040 0737 4d40 14e6 75bf
00000060: 1ae5 6240 9eda 93bf 54eb 5d40 00bb b0bd
00000070: ea39 c2bf 735e 5ec0 2488 7840 fc66 3340
00000080: 21df f4bf a4ea 10bf 739c d8be 9901 7340
00000090: 1666 1dc0 f049 5ebf d092 7ebe 4506 1040
000000a0: ef2b 8540 7fb9 5a40 a6b7 2940 0957 81c0
000000b0: ee0f f4bf ba81 febf 47fa 97bf c19e 3840
000000c0: 73d3 7740 ee28 70c0 a65c 6d40 35d7 6740
000000d0: 1da2 35c0 1788 6340 4378 6140 68df 6abe
000000e0: e9c5 6140 2493 3640 4983 8840 ae15 3ec0
000000f0: 207f 083d f143 a8bf f546 9040 d7fd 4c40

fc2.weight f4 [64, 64]
-0.0038418174 -0.15134285 0.10151638 -0.28854793 0.05893515 -0.8288407 -0.009956583 0.034858223
-0.25822794 -0.0096048815 -0.11569017 0.084757924 0.009096283 -0.043868244 -0.6013966 -0.07238262
-0.21527392 -0.022700712 -0.0025948565 0.11986228 -0.33621353 -0.12514187 -0.29635552 -0.93485016
1.3423089 -0.7123008 -0.08575788 -0.10368958 0.21471274 0.14338842 0.047967833 -0.04976254
0.14083594 -0.11827104 0.041633397 1.7145556 0.27962276 -0.28483632 0.07432009 -0.23445311
-0.38458884 0.43756747 -0.21550225 0.1465269 0.15431179 -0.092966884 0.019685943 -0.21843131
-0.24805626 0.07903706 -0.27134442 0.079003446 -0.04869879 -0.13185532 0.67226756 -0.014116436
-0.5154683 -0.2526761 0.015731946 0.14393704 -0.07164858 -0.23196715 -0.22570851 0.94762456
-0.020625249 -0.13117526 -0.07349628 -0.0040854663 0.014381245 0.069113605 0.009203881 -0.031111991
-0.027544906 0.114060864 -0.07172763 -0.117724985 0.07393527 -0.045725107 -0.10251409 -0.0048093623
-0.0783484 -0.020051524 -0.12103 0.08258927 -0.047526184 -0.0041462923 -0.027168388 0.057407036
-0.10557455 0.05661288 -0.12063545 0.081866965 -0.09807514 0.09118241 0.005434826 -0.04603802
-0.111706644 0.007559195 -0.04907662 0.068060234 0.10769211 0.0069090277 0.060011894 0.07493131
-0.046122875 0.054728083 -0.07993576 -0.037099153 -0.12668133 -0.1138034 -0.019386224 0.07811986
0.0708413 -0.046530426 -0.12535058 0.11253597 0.068380535 0.06346211 -0.066654935 -0.03981015
0.07843734 0.045829277 -0.1144447 -0.08753705 0.04305598 -0.11760433 -0.10020465 0.045572903
-0.06934926 -0.015404432 -0.018557593 0.14478119 0.051597863 0.81580883 -0.119080946 -0.69634175
0.9493097 0.03999039 0.075901106 0.010001406 0.6639316 0.0651156 1.5852865 -0.34598574
0.0491269 0.0078074634 -0.06405162 -1.015162 0.14593951 0.41711175 0.49621105 -0.15284383
0.98477614 -1.5936145 1.661644 -0.0046919435 -0.3357735 -0.74196464 1.0409472 0.36938772
-0.5436901 0.08321984 -0.14647453 2.3581593 -0.6131891 -0.6137423 0.029666811 0.0695909
1.630459 0.5763083 0.69105446 -1.2613393 -0.31327528 -2.1748366 -0.1188088 0.34869835
1.0772027 -0.20389679 0.549876 0.6052288 -0.8165529 -0.023096705 0.63142854 -0.07507813
0.93309444 0.23755918 1.5205181 -0.6396403 -0.013914019 0.3057124 1.408541 0.4374061
-0.122433275 0.036074523 -0.08656469 -0.048304077 -0.120093614 0.05337822 -0.025521427 0.007231721
-0.03150548 0.08439003 0.1215425 0.080189645 -0.06413011 -0.07497066 0.043956738 0.064345665
0.003051956 -0.11857641 -0.1112562 0.00423257 -0.011701353 -0.1429611 -0.038314804 -0.111899376
-0.07818435 -0.06586887 0.09342925 0.031241551 0.052477177 -0.05440936 -0.031430796 -0.07506285
-0.036599115 -0.05233811 0.09676965 -0.046327844 -0.14479557 -0.093688 0.056866214 -0.028776184
-0.13533902 -0.060456455 0.06975423 0.0014738488 -0.10853278 -0.022310093 0.050923105 -0.12687969
0.033604745 0.079456665 -0.0046062367 0.05932142 -0.11611017 -0.084352046 -0.025085166 -0.060950547
0.062486243 -0.013079599 0.037913494 -0.0073690214 -0.09386568 0.09290466 -0.09635579 0.07170665
00000000: 00c7 7bbb 9ff9 1abe d2e7 cf3d 8ebc 93be
00000010: fc65 713d e72e 54bf f020 23bc 7fc7 0e3d
00000020: 7436 84be cb5d 1dbc f8ee ecbd 9095 ad3d
00000030: 9408 153c 30af 33bd 21f5 19bf 573d 94bd
00000040: c470 5cbe d8f6 b9bc 780e 2abb 5b7a f53d
00000050: 2e24 acbe 3125 00be e9bb 97be 5752 6fbf
00000060: c7d0 ab3f 5859 36bf d4a1 afbd 345b d4bd
00000070: a8dd 5b3e 6ad4 123e eb79 443d ced3 4bbd
00000080: 4c37 103e 1638 f2bd c887 2a3d 8f76 db3f
00000090: b72a 8f3e 11d6 91be 2235 983d 7a14 70be
000000a0: d4e8 c4be d808 e03e 9fac 5cbe 260b 163e
000000b0: e903 1e3e 6c65 bebd 6a44 a13c 75ac 5fbe
000000c0: 7602 7ebe 2fde a13d a8ed 8abe 8fcc a13d
000000d0: 6278 47bd 1505 07be ba19 2c3f a048 67bc
000000e0: bbf5 03bf c35e 81be 48e0 803c 3b64 133e
000000f0: 7ebc 92bd cc88 6dbe 2220 67be 8697 723f
00000100: 48f6 a8bc cf52 06be 3885 96bd 60df 85bb
00000110: 509f 6b3c 6f8b 8d3d e0cb 163c 93de febc
00000120: dba5 e1bc be98 e93d f0e5 92bd cc19 f1bd
00000130: 606b 973d 404a 3bbd e8f2 d1bd db97 9dbb
00000140: 2075 a0bd 1843 a4bc 94de f7bd 9024 a93d
00000150: d1aa 42bd 9fdd 87bb 3d90 debc a423 6b3d
00000160: 7837 d8bd e8e2 673d b80f f7bd dea9 a73d
00000170: 9edb c8bd d8bd ba3d a016 b23b 5d92 3cbd
00000180: 74c6 e4bd 20b3 f73b 9104 49bd 2a63 8b3d
00000190: ae8d dc3d 2065 e23b 08cf 753d 9675 993d
000001a0: 57eb 3cbd 8e2a 603d 5cb5 a3bd 48f5 17bd
000001b0: c0b8 01be c211 e9bd dccf 9ebc 4efd 9f3d
000001c0: 3e15 913d b096 3ebd e75b 00be 4279 e63d
000001d0: 180b 8c3d 6cf8 813d 6282 88bd f80f 23bd
000001e0: c2a3 a03d 7bb7 3b3d fc61 eabd a046 b3bd
000001f0: 785b 303d 8ada f0bd 1838 cdbd a7aa 3a3d
00000200: fc06 8ebd df62 7cbc 1806 98bc 8541 143e
00000210: 4858 533d d9d8 503f b6e0 f3bd 7443 32bf
00000220: f605 733f f7cc 233d 0a72 9b3d f0dc 233c
00000230: 6cf7 293f 545b 853d abea ca3f 0b25 b1be
00000240: 4a39 493d c0d5 ff3b 7f2d 83bd d4f0 81bf
00000250: 2b71 153e ac8f d53e 600f fe3e 1883 1cbe
00000260: 4a1a 7c3f 8ffb cbbf c0b0 d43f e0be 99bb
00000270: 81ea abbe 65f1 3dbf c23d 853f 6320 bd3e
00000280: 462f 0bbf 2a6f aa3d 6bfd 15be 15ec 1640
00000290: f6f9 1cbf 371e 1dbf d007 f33c ac85 8e3d
000002a0: e1b2 d03f f188 133f f2e8 303f 9173 a1bf
000002b0: 9e65 a0be 8630 0bc0 0752 f3bd 9788 b23e
000002c0: c7e1 893f 52ca 50be acc4 0c3f 46f0 1a3f
000002d0: 9c09 51bf 4d35 bdbc 4da5 213f 90c2 99bd
000002e0: 47df 6e3f b742 733e 56a0 c23f 77bf 23bf
000002f0: a0f7 63bc 5686 9c3e 124b b43f b1f3 df3e
00000300: 4cbe fabd e1c2 133d d448 b1bd 7fda 45bd
00000310: a4f3 f5bd 1fa3 5a3d 5012 d1bc 13f8 ec3b
00000320: e40b 01bd aed4 ac3d 46eb f83d 783a a43d
00000330: a656 83bd 388a 99bd fb0b 343d a9c7 833d
00000340: 5303 483b 30d8 f2bd 4ada e3bd 5fb1 8a3b
00000350: 08b7 3fbc 6564 12be fcef 1cbd 802b e5bd
00000360: 1e1f a0bd 42e6 86bd d657 bf3d 48ee ff3c
00000370: 4ff2 563d 59dc 5ebd 94bd 00bd 8dba 99bd
00000380: f4e8 15bd 7c60 56bd 2b2f c63d 44c2 3dbd
00000390: 4a45 14be 7fdf bfbd 8cec 683d 08bc ebbc
000003a0: 5096 0abe 30a1 77bd 4edb 8e3d 292e c13a
000003b0: 6f46 debd a8c3 b6bc bf94 503d c0ec 01be
000003c0: 21a5 093d 2dba a23d eaef 96bb 04fb 723d
000003d0: 2bcb edbd c4c0 acbd 687f cdbc 48a7 79bd
000003e0: 93f1 7f3d d04b 56bc 2e4b 1b3d d577 f1bb
000003f0: a63c c0bd cc44 be3d 2f56 c5bd f0da 923d

fc2.bias f4 [64]
0.45969775 -0.041217674 1.7238874 0.060838085 1.8868166 1.6314665 -0.029861126 2.3646526
-0.084842265 -0.51869935 -1.4299903 0.075061835 0.039359774 0.08085041 1.4492077 0.07610507
0.7732045 2.1371472 1.0107657 2.5668838 0.24726756 2.3795278 0.06506454 0.10502716
1.6406844 0.8872539 -0.9324605 0.03426263 -0.13203277 -0.081813596 2.2936342 -0.067905374
1.7913747 -0.06604694 0.0039900644 -0.5980178 1.7052296 -0.16379704 0.0770556 1.210365
1.4522547 -0.014787327 2.500044 2.5438151 -2.703889 1.7481797 0.10047239 -0.03595745
-0.07878916 -0.106870376 -0.12724303 0.5970447 1.903702 -0.012108922 -0.07994038 2.4643471
-1.0981658 -0.046524175 2.5875864 -0.00023681729 -0.105689466 2.3506436 0.016774073 1.091863
00000000: 815d eb3e ddd3 28bd 58a8 dc3f 5b31 793d
00000010: 3583 f13f e5d3 d03f 529f f4bc 7856 1740
00000020: c8c1 adbd 7bc9 04bf ec09 b7bf 05ba 993d
00000030: b737 213d e694 a53d a37f b93f fadc 9b3d
00000040: bbf0 453f 05c7 0840 c560 813f d347 2440
00000050: b533 7d3e 2f4a 1840 8f40 853d 7b18 d73d
00000060: f201 d23f 1223 633f bbb5 6ebf f956 0c3d
00000070: 9933 07be e38d a7bd e7ca 1240 f911 8bbd
00000080: c44b e53f 9e43 87bd 16bf 823b b217 19bf
00000090: f744 da3f 69ba 27be 54cf 9d3d 3eed 9a3f
000000a0: 7be3 b93f 8b46 72bc b900 2040 decd 2240
000000b0: 840c 2dc0 5ac4 df3f 78c4 cd3d 1e48 13bd
000000c0: 365c a1bd dbde dabd ff4b 02be ecd7 183f
000000d0: 82ac f33f 8064 46bc c8b7 a3bd ddb7 1d40
000000e0: b290 8cbf 2290 3ebd 049b 2540 2852 78b9
000000f0: b873 d8bd f270 1640 c869 893c 2bc2 8b3f

fc3.weight f4 [20, 64]
-0.0028489414 -0.08143988 0.03693766 -0.07131446 0.35672528 0.11582385 0.114109054 0.49494204
0.11836594 -0.14666489 -0.40764537 -0.121826 -0.09622935 -0.037481733 0.12201801 -0.08034716
-0.62601024 -0.96373886 -0.20986342 0.64796627 -0.07574329 0.4260628 -0.014177694 -0.0027095554
0.06488138 0.07157649 -0.17891414 -0.11482383 -0.102304846 -0.039643563 -0.9402511 0.07429124
0.21672267 -0.04630644 -0.020372761 -0.36864474 -1.0747471 0.03976638 -0.10423558 -0.47778055
0.21365462 -0.08257662 0.44992566 0.65458614 -0.60413533 0.24345149 0.1131872 -0.013932472
0.108726114 0.065331206 0.04080606 -0.68210506 0.2807922 -0.06758727 -0.10099086 0.50800896
-0.10417034 -0.010834068 0.5174125 0.060054988 -0.05741611 0.6653168 0.03354381 0.37462187
0.33691156 -0.07000315 -0.46154875 -0.03572869 0.18611471 0.12008271 -0.004673019 0.5275443
0.05860302 -0.15217824 -0.16216874 -0.02283305 -0.09430746 0.10480396 0.19456226 -0.11086117
-0.32895386 -1.0194756 0.13873886 0.45967153 0.09059929 0.5367535 0.14354153 -0.06376298
0.09655857 -0.03416469 -0.20680158 -0.17363597 -0.11940132 0.16856705 -0.8674118 0.0113719255
0.31846383 -0.08202605 -0.074606225 -0.21757936 -0.4052818 -0.037636157 0.015966441 -0.45786765
0.056115776 -0.047375545 0.3902139 0.5303999 -0.4029744 0.18342903 0.05807033 -0.1516342
-0.116164654 -0.039134365 -0.071311876 -0.41464156 0.1728402 -0.08483861 0.06187836 0.5511588
-0.09167352 0.12115869 0.56543314 -0.07108525 0.12331401 0.6041898 0.003180772 0.2219966
0.3417933 -0.09968822 -0.3483097 -0.010293493 0.26372102 0.14354661 0.006425947 0.53565
0.065160856 -0.17682295 -0.16969024 -0.0080150515 -0.104279645 -0.049990244 0.166071 -0.030667378
-0.32956272 -0.8488218 0.25375196 0.5838128 0.010034793 0.42602655 0.008241208 0.043263346
0.022086397 0.124884166 -0.08483974 -0.56263715 0.0637864 -0.07417976 -0.90827036 0.07831757
0.2102742 0.074663505 -0.117549986 -0.262664 -0.6195361 -0.05186471 -0.069153085 -0.31814998
-0.046698093 -0.032427534 0.49038765 0.55998266 -0.575485 0.27640885 0.12918016 0.09929952
-0.08439158 -0.01952016 -0.10013624 -0.38095793 0.2348288 0.14785351 0.036374204 0.5916812
-0.1395545 -0.033334583 0.577163 -0.06666286 0.07135855 0.39129946 -0.06929265 0.0901173
0.055920664 0.014175385 -0.5860921 -0.032742325 0.17487678 0.11766967 -0.051395237 0.49793133
0.0488088 0.1241488 -0.077888004 -0.09418197 0.06273853 -0.0862035 0.25590342 0.08862846
-0.34683204 -0.7369974 0.015769364 0.4673455 0.19541499 0.38163564 0.03172418 0.061988708
0.17213945 0.37577376 0.028400162 -0.120179795 -0.08173397 -0.03549276 -0.7521648 0.10016842
0.15042795 -0.051872656 -0.0024198443 0.3693212 -0.5855586 0.17874737 0.13041821 -0.076108076
0.15079731 0.0402219 0.46322137 0.5907991 -0.15954474 0.18963605 0.0112770405 0.05246434
-0.106278524 0.10841858 0.114309765 -0.09688224 0.2859596 0.055215813 0.009473839 0.505848
-0.30726212 -0.040558293 0.5747375 0.12052947 0.036210224 0.60581475 0.03323829 0.078135654
00000000: 4eb5 3abb f4c9 a6bd f24b 173d 510d 92bd
00000010: b2a4 b63e 0e35 ed3d 02b2 e93d 0b69 fd3e
00000020: d869 f23d 522f 16be e5b6 d0be e97f f9bd
00000030: e513 c5bd 7286 19bd 94e4 f93d 0d8d a4bd
00000040: 3542 20bf 97b7 76bf 70e6 56be 1ee1 253f
00000050: 4c1f 9bbd e724 da3e 8f49 68bc cc92 31bb
00000060: 87e0 843d b296 923d 4535 37be c228 ebbd
00000070: 3485 d1bd 4a61 22bd 4cb4 70bf 0126 983d
00000080: 8cec 5d3e d2ab 3dbd c7e4 a6bc 01bf bcbe
00000090: 5091 89bf 12e2 223d 7779 d5bd a79f f4be
000000a0: 47c8 5a3e ee1d a9bd a85c e63e f592 273f
000000b0: 9da8 1abf 594b 793e b1ce e73d 0645 64bc
000000c0: ccab de3d 5ecc 853d 4124 273d 709e 2ebf
000000d0: ffc3 8f3e 326b 8abd 4cd4 cebd e00c 023f
000000e0: 4257 d5bd 6081 31bc 2575 043f 38fc 753d
000000f0: 282d 6bbd 3452 2a3f 3c65 093d 70ce bf3e
00000100: ac7f ac3e d05d 8fbd 1e50 ecbe 3f58 12bd
00000110: db94 3e3e eded f53d 2020 99bb 250d 073f
00000120: b809 703d 9dd4 1bbe 900f 26be 600c bbbc
00000130: 4524 c1bd 75a3 d63d 543b 473e 2e0b e3bd
00000140: a46c a8be 2d7e 82bf 8f11 0e3e 115a eb3e
00000150: 1f8c b93d ad68 093f 8dfc 123e 2a96 82bd
00000160: 80c0 c53d 46f0 0bbd cbc3 53be a1cd 31be
00000170: ae88 f4bd d79c 2c3e b30e 5ebf 5051 3a3c
00000180: b10d a33e 46fd a7bd 26cb 98bd 20cd 5ebe
00000190: 1981 cfbe 5f28 1abd 0ecc 823c a16d eabe
000001a0: a8d9 653d dc0c 42bd 1eca c73e 4ac8 073f
000001b0: a952 cebe d2d4 3b3e 28db 6d3d ff45 1bbe
000001c0: bce7 edbd 5b4b 20bd f60b 92bd e64b d4be
000001d0: 05fd 303e ddbf adbd 2a74 7d3d be18 0d3f
000001e0: 54bf bbbd 0c22 f83d 3ac0 103f 2595 91bd
000001f0: 0e8c fc3d 2fac 1a3f 8074 503b 1453 633e
00000200: 88ff ae3e 5629 ccbd a655 b2be 0aa6 28bc
00000210: 7106 873e e2fd 123e c090 d23b 5c20 093f
00000220: 0e73 853d 1311 35be 47c3 2dbe 9051 03bc
00000230: 9190 d5bd 92c2 4cbd 840e 2a3e 273a fbbc
00000240: 72bc a8be 634c 59bf c7eb 813e c174 153f
00000250: f968 243c 2720 da3e 2206 073c e834 313d
00000260: 88ee b43c 45c3 ff3d 75c0 adbd fd08 10bf
00000270: 72a2 823d 8feb 97bd 6884 68bf f664 a03d
00000280: 1f52 573e 2ee9 983d 0cbe f0bd e57b 86be
00000290: eb99 1ebf 1770 54bd 22a0 8dbd 8ee4 a2be
000002a0: 8046 3fbd bcd2 04bd 1714 fb3e 065b 0f3f
000002b0: fc52 13bf 7685 8d3e ce47 043e 8c5d cb3d
000002c0: 7ed5 acbd bee8 9fbc 3b14 cdbd eb0c c3be
000002d0: f676 703e e966 173e 1efd 143d 6b78 173f
000002e0: 60e7 0ebe d889 08bd f4c0 133f 8a86 88bd
000002f0: 6e24 923d 6758 c83e 4ee9 8dbd 6b8f b83d
00000300: 110d 653d e03f 683c 220a 16bf d11c 06bd
00000310: e612 333e ccfc f03d d083 52bd dbf0 fe3e
00000320: bceb 473d ba41 fe3d bf83 9fbd 7ae2 c0bd
00000330: 0f7d 803d 768b b0bd c605 833e d782 b53d
00000340: f893 b1be ddab 3cbf c12e 813c e947 ef3e
00000350: de1a 483e bf65 c33e 37f1 013d dfe7 7d3d
00000360: 5345 303e 6b65 c03e 75a7 e83c d320 f6bd
00000370: 2464 a7bd db60 11bd df8d 40bf 1a25 cd3d
00000380: c909 1a3e 6c78 54bd 4096 1ebb ab17 bd3e
00000390: 2be7 15bf 8d09 373e 5a8c 053e 8dde 9bbd
000003a0: 9c6a 1a3e b8bf 243d 5a2b ed3e 9c3e 173f
000003b0: b25f 23be f42f 423e 56c3 383c d9e4 563d
000003c0: 8ea8 d9bd 8f0a de3d 3d1b ea3d 326a c6bd
000003d0: 4c69 923e fa29 623d 2938 1b3c 417f 013f
000003e0: 7651 9dbe 7420 26bd ff21 133f 28d8 f63d
000003f0: 2c51 143d ad16 1b3f e024 083d 9605 a03d

fc3.bias f4 [20]
1.9668368 0.881465 0.93588334 0.7724395 0.77682215 0.67715037 0.56648326 0.6263512
0.20930764 0.28751656 0.3848111 0.17290783 0.2582523 0.15548764 -0.15916549 0.05960819
0.008968996 -0.0053519197 -0.072774634 -0.056947686
00000000: 4fc1 fb3f b1a7 613f 0d96 6f3f 98be 453f
00000010: d1dd 463f ba59 2d3f 0c05 113f 8d58 203f
00000020: be54 563e 5f35 933e f605 c53e c00e 313e
00000030: a539 843e 2738 1f3e 47fc 22be b827 743d
00000040: b2f2 123c 285f afbb de0a 95bd fa41 69bd

fc1.weight f4 [64, 3]
-0.061989427 -0.2081702 -0.21355215 0.4881848 0.1988902 0.05533891 -0.016214132 -0.30179712
-0.40841103 0.038931716 0.23077911 0.021379199 -0.5285999 -0.26549324 -0.40557155 -1.1449546
-0.2846591 -0.014004899 -0.29668546 -0.033195436 -0.36827838 0.22175981 0.39992148 0.3202629
-0.21274826 -0.2406286 0.10064387 0.018157167 0.22774792 0.15813802 -0.06769627 -0.02660171
-0.55436015 -0.44112757 -0.42957574 -0.3553539 -0.043532412 0.029698081 -0.6395149 -0.456835
-0.008711636 -0.13847983 -0.2808686 -0.1820473 0.06890176 -0.15637861 0.29704607 0.21496369
0.41345522 -0.055017628 0.023088071 -0.006329119 -0.38400823 -0.08125761 0.18102908 -0.082996815
-0.5047089 -0.35788307 -0.37738898 0.2038595 -0.23719506 0.077315114 -0.009582959 -0.09388305
0.1864866 0.03665458 -0.026300525 0.08169108 0.044603318 0.06529303 -1.3719312 0.061559994
0.023562353 -0.0064400015 -0.22233161 -0.21213412 -0.9472346 0.08707763 -0.22758797 -0.64817804
-0.05285091 -0.3387066 -0.08706784 -0.5190142 0.4443857 0.092099674 0.12604268 0.26427168
-0.40920365 0.23529378 0.33542377 -0.32611287 0.15830535 -0.392213 -0.17844017 0.124001294
0.16727914 0.34609264 0.36765105 0.5138328 -0.5539429 -0.49220738 0.0004999702 0.38231638
-0.49140176 0.100312464 -0.0026216498 -0.089249454 0.32219797 -0.49915823 0.062185004 -0.32176495
-0.2970287 0.006432698 0.20996845 -0.13485238 -0.3043255 0.33492622 0.114427954 -0.12016661
-0.22068278 -0.27720398 0.037149087 0.28652278 0.24964026 -0.25983927 0.47276783 -0.59151435
0.061401006 -0.4817283 -1.0372132 0.11021188 0.1692424 0.06751116 0.15579574 -0.15505373
-0.44319588 0.13588865 -0.10778411 0.114870586 -0.03593717 -0.34523904 0.11634994 -0.008484892
-0.060126156 -0.07672963 0.053342994 -0.6891482 -0.35651642 0.16925538 -0.20730248 0.35821077
0.059526045 0.1967625 -0.24047093 0.055401035 -0.45517585 -0.46395424 0.3400198 0.41887832
0.40474486 0.04929458 0.114187144 0.3463535 -0.15545054 -0.39958853 -0.001504004 -0.25652212
-0.20060176 0.009388115 0.04308262 -0.16698976 0.1680395 0.019172534 -0.15733635 -0.4312729
0.033116106 0.34212247 0.45518124 0.41193366 -0.07000059 -0.049410045 -0.32443878 -1.0673926
0.23883016 -0.22874823 -0.41603237 0.03342568 0.15752971 -0.18795002 0.20485984 -0.16312262
00000000: a0e8 7dbd 922a 55be 6aad 5abe 5cf3 f93e
00000010: dfa9 4b3e 0eab 623d 80d3 84bc 2785 9abe
00000020: 401b d1be dd76 1f3d 5c51 6c3e 6e23 af3c
00000030: 5352 07bf bbee 87be 13a7 cfbe df8d 92bf
00000040: d6be 91be ce74 65bc 28e7 97be f0f7 07bd
00000050: fc8e bcbe 0115 633e 82c2 cc3e 80f9 a33e
00000060: aeda 59be 5867 76be 601e ce3d 57be 943c
00000070: c036 693e efee 213e 58a4 8abd d4eb d9bc
00000080: 8cea 0dbf 79db e1be 5af1 dbbe f2f0 b5be
00000090: 0b4f 32bd 6449 f33c 40b7 23bf 47e6 e9be
000000a0: 40bb 0ebc a8cd 0dbe 02ce 8fbe 9b6a 3abe
000000b0: 5e1c 8d3d b721 20be 6c16 983e 711f 5c3e
000000c0: 67b0 d33e 2a5a 61bd 3223 bd3c 8064 cfbb
000000d0: ba9c c4be 646a a6bd b05f 393e 3cfa a9bd
000000e0: 9a34 01bf 733c b7be 2139 c1be 8bc0 503e
000000f0: 43e3 72be 6357 9e3d d801 1dbc c245 c0bd
00000100: 58f6 3e3e 1d23 163d 3374 d7bc a74d a73d
00000110: f8b1 363d 5ab8 853d 719b afbf 5526 7c3d
00000120: d605 c13c a606 d3bb e6aa 63be b039 59be
00000130: f77d 72bf c255 b23d d20c 69be ffee 25bf
00000140: 327a 58bd f46a adbe a050 b2bd 1dde 04bf
00000150: 8686 e33e c19e bc3d 5511 013e 9e4e 873e
00000160: 2483 d1be daf0 703e aabc ab3e 44f8 a6be
00000170: cc1a 223e 24d0 c8be 05b9 36be 64f4 fd3d
00000180: 394b 2b3e 0e33 b13e c23c bc3e 8c8a 033f
00000190: 34cf 0dbf 9b02 fcbe 6f10 033a f9be c33e
000001a0: 0399 fbbe 9f70 cd3d fccf 2bbb 6bc8 b6bd
000001b0: 22f7 a43e ab91 ffbe b4b5 7e3d 60be a4be
000001c0: 2514 98be 62c9 d23b f801 573e be16 0abe
000001d0: 8dd0 9bbe 737b ab3e 3459 ea3d e919 f6bd
000001e0: abfa 61be aeed 8dbe a429 183d 1db3 923e
000001f0: b2a1 7f3e a709 85be a00e f23e 7c6d 17bf
00000200: 9f7f 7b3d 17a5 f6be 67c3 84bf c4b6 e13d
00000210: e14d 2d3e 4b43 8a3d eb88 1f3e 68c6 1ebe
00000220: 92ea e2be 6526 0b3e eabd dcbd 4541 eb3d
00000230: db32 13bd 2cc3 b0be e148 ee3d 3704 0bbc
00000240: d846 76bd 6d24 9dbd 2f7e 5a3d 046c 30bf
00000250: 5289 b6be 4851 2d3e 1a47 54be 6767 b73e
00000260: 95d1 733d 1c7c 493e 033e 76be 32ec 623d
00000270: cf0c e9be 698b edbe 1317 ae3e 3877 d63e
00000280: b83a cf3e 1de9 493d f3da e93d 3f55 b13e
00000290: 6d2e 1fbe de96 ccbe 0022 c5ba de56 83be
000002a0: 8c6a 4dbe 9cd0 193c 6777 303d 5dff 2abe
000002b0: 8c12 2c3e b80f 9d3c c81c 21be cdcf dcbe
000002c0: c1a4 073d ad2a af3e 840d e93e f8e8 d23e
000002d0: 785c 8fbd 3062 4abd d71c a6be 52a0 88bf
000002e0: e58f 743e fa3c 6abe 3202 d5be 5ee9 083d
000002f0: 784f 213e f875 40be c7c6 513e 9e09 27be

fc1.bias f4 [64]
-0.28833532 2.9323373 0.2495997 3.1388707 0.13675773 1.4502593 -0.14700931 -2.5002358
3.62564 2.7859 -0.23971081 0.50412714 2.7241647 0.37805057 4.0098786 -1.0392821
0.33734363 0.4117546 0.39493054 -3.2552292 2.4023259 3.271556 3.2173588 -0.9123307
3.525207 -1.1183043 3.4723778 -0.086294174 -1.5243113 -3.4660728 3.8931637 2.8271806
-1.9175448 -0.56608033 -0.4217551 3.7883375 -2.4760337 -0.86830187 -0.24860692 2.2526705
4.182362 3.392751 2.694673 -3.9942517 -1.9115633 -1.9704454 -1.1777872 2.9087217
3.878709 -3.752306 3.7194383 3.637253 -2.826747 3.5603101 3.5161173 -0.22936909
3.5484746 2.9092119 4.297298 -2.975755 0.03332436 -1.3166376 4.5279884 3.2116327
00000000: b0a0 93be 6aab 3b40 1097 7f3e 42e3 4840
00000010: 380a 0c3e 19a2 b93f 9c89 16be dd03 20c0
00000020: 7c0a 6840 304c 3240 c076 75be 7a0e 013f
00000030: b758 2e40 d88f c13e ed50 8040 3207 85bf
00000040: 4eb8 ac3e 80d1 d23e 5634 ca3e ad55 50c0
00000050: b5bf 1940 2c61 5140 35e9 4d40 818e 69bf
00000060: fe9c 6140 9824 8fbf 703b 5e40 00bb b0bd
00000070: a21c c3bf 23d4 5dc0 9829 7940 87f0 3440
00000080: 1c72 f5bf a4ea 10bf 49f0 d7be 1f74 7240
00000090: 5677 1ec0 0849 5ebf d092 7ebe c12b 1040
000000a0: e9d5 8540 d522 5940 8675 2c40 d2a1 7fc0
000000b0: 1bae f4bf 8e37 fcbf bbc1 96bf 7f28 3a40
000000c0: c53c 7840 c825 70c0 470b 6e40 c1c8 6840
000000d0: 6ce9 34c0 1fdc 6340 1108 6140 bbdf 6abe
000000e0: 351a 6340 8730 3a40 7783 8940 c572 3ec0
000000f0: 207f 083d 9587 a8bf 48e5 9040 648b 4d40

fc2.weight f4 [64, 64]
-0.0038418174 -0.14780413 0.10151638 -0.2870596 0.05893515 -0.82549685 -0.009956583 0.026965393
-0.21823181 -0.0053724307 -0.11569038 0.084757924 0.009231481 -0.043868244 -0.52916855 -0.09022612
-0.20439933 -0.022700712 -0.0025950472 0.15945214 -0.38191715 -0.12007745 -0.28239283 -0.935108
1.3173617 -0.6873037 -0.18626016 -0.10368958 0.21587004 0.12828253 0.07384129 -0.053304937
0.13598238 -0.11827104 -0.046061665 1.7233977 0.30216244 -0.2848394 0.07432009 -0.23935027
-0.40778062 0.42797485 -0.2163532 0.15810896 0.15467058 -0.058600195 0.0083616255 -0.2576054
-0.21252258 0.09291808 -0.2760609 0.11148078 -0.011401695 -0.13259955 0.65425473 -0.014116436
-0.47837475 -0.2630934 0.00977777 0.1376388 -0.07164943 -0.07699969 -0.1983857 0.87745124
-0.020625249 -0.13116917 -0.073497206 -0.0040850663 0.014381245 0.0691162 0.009203915 -0.031111233
-0.02754422 0.11406613 -0.07172763 -0.117724985 0.07393678 -0.045725107 -0.10251014 -0.004809179
-0.07834759 -0.020051524 -0.12103 0.08258927 -0.047526006 -0.004146069 -0.027167961 0.057407036
-0.10557455 0.05661288 -0.12063018 0.081866965 -0.09807514 0.09118241 0.005434826 -0.04603587
-0.111704275 0.007559195 -0.049075745 0.068060234 0.10769211 0.0069090277 0.060011894 0.074935175
-0.046121553 0.054730806 -0.07993576 -0.037099153 -0.12666896 -0.1138034 -0.019385729 0.07812406
0.070844755 -0.046530426 -0.12534274 0.11253597 0.068380535 0.06346858 -0.06665003 -0.03981015
0.07844444 0.045830972 -0.11444612 -0.08753428 0.04305598 -0.11760521 -0.10020043 0.045573924
-0.06934926 0.0027576587 -0.018557593 0.16205229 0.051597863 0.8112012 -0.119080946 -0.67002374
0.95727545 0.061419196 0.075901106 0.010001406 0.5868037 0.0651156 1.5890638 -0.32054934
0.05717774 0.0078074634 -0.064057186 -1.0272217 0.16414505 0.4345224 0.5107656 -0.06370622
0.9996275 -1.552773 1.7023162 -0.0046919435 -0.31990394 -0.7520675 1.0527402 0.37690675
-0.51732844 0.08322033 -0.16413093 2.3884318 -0.6079624 -0.6137867 0.029666811 0.08973656
1.6092434 0.60765177 0.7003742 -1.2395447 -0.3008228 -2.1861594 -0.16017327 0.36847648
1.0858759 -0.26507935 0.5710732 0.6112115 -0.7987 -0.0029776294 0.66177 -0.07507813
0.94449335 0.25952148 1.5267007 -0.61284775 -0.013914019 0.32108986 1.428527 0.46957856
-0.122433275 0.036078036 -0.08656569 -0.0483046 -0.12009373 0.053382233 -0.025521427 0.0072320453
-0.031503323 0.08439753 0.1215425 0.080189645 -0.06413011 -0.07497066 0.04396085 0.06434777
0.0030520996 -0.11857641 -0.11125723 0.0042326828 -0.011700822 -0.14295614 -0.038314804 -0.11189799
-0.07818435 -0.06586771 0.093435206 0.031241618 0.0524807 -0.054406706 -0.031430796 -0.07506184
-0.036595866 -0.05233811 0.09677311 -0.046327844 -0.14478901 -0.09368853 0.056866214 -0.028775444
-0.13532664 -0.060456652 0.06975423 0.0014738952 -0.10853028 -0.022310121 0.050927237 -0.12687758
0.03360814 0.07945774 -0.004606148 0.05932415 -0.11610762 -0.084352836 -0.025085166 -0.060950547
0.062490683 -0.013079599 0.03791463 -0.007368952 -0.09386568 0.09290621 -0.09635588 0.07170665
00000000: 00c7 7bbb f759 17be d2e7 cf3d 7af9 92be
00000010: fc65 713d c353 53bf f020 23bc 87e6 dc3c
00000020: 2978 5fbe 370b b0bb 14ef ecbd 9095 ad3d
00000030: a33f 173c 30af 33bd 9777 07bf 79c8 b8bd
00000040: 0f4e 51be d8f6 b9bc ab11 2abb 6c47 233e
00000050: a58a c3be 2beb f5bd cb95 90be 3d63 6fbf
00000060: 4f9f a83f 23f3 2fbf fcba 3ebe 345b d4bd
00000070: 090d 5d3e 7f5c 033e 1a3a 973d 4756 5abd
00000080: f73e 0b3e 1638 f2bd 28ab 3cbd 4c98 dc3f
00000090: 09b5 9a3e 78d6 91be 2235 983d 3d18 75be
000000a0: 9fc8 d0be 851f db3e b18b 5dbe 51e7 213e
000000b0: f761 1e3e c206 70bd 33ff 083c dbe4 83be
000000c0: 859f 59be d64b be3d db57 8dbe 0950 e43d
000000d0: 2dce 3abc 2dc8 07be 3d7d 273f a048 67bc
000000e0: 89ed f4be 2eb4 86be f132 203c 30f1 0c3e
000000f0: f0bc 92bd 03b2 9dbd 9f25 4bbe a5a0 603f
00000100: 48f6 a8bc 3651 06be b485 96bd 05dc 85bb
00000110: 509f 6b3c cb8c 8d3d 04cc 163c fcdc febc
00000120: 6ba4 e1bc 819b e93d f0e5 92bd cc19 f1bd
00000130: 2b6c 973d 404a 3bbd d6f0 d1bd 5196 9dbb
00000140: b474 a0bd 1843 a4bc 94de f7bd 9024 a93d
00000150: a1aa 42bd bfdb 87bb 588f debc a423 6b3d
00000160: 7837 d8bd e8e2 673d f50c f7bd dea9 a73d
00000170: 9edb c8bd d8bd ba3d a016 b23b 1c90 3cbd
00000180: 36c5 e4bd 20b3 f73b a603 49bd 2a63 8b3d
00000190: ae8d dc3d 2065 e23b 08cf 753d 9d77 993d
000001a0: f4e9 3cbd 692d 603d 5cb5 a3bd 48f5 17bd
000001b0: 82b5 01be c211 e9bd d2ce 9ebc 82ff 9f3d
000001c0: 0e17 913d b096 3ebd d959 00be 4279 e63d
000001d0: 180b 8c3d d1fb 813d d07f 88bd f80f 23bd
000001e0: 7ba7 a03d 42b9 3b3d ba62 eabd 2c45 b3bd
000001f0: 785b 303d 00db f0bd e235 cdbd b9ab 3a3d
00000200: fc06 8ebd d6b9 343b 1806 98bc 09f1 253e
00000210: 4858 533d e2aa 4f3f b6e0 f3bd ad86 2bbf
00000220: 0110 753f b292 7b3d 0a72 9b3d f0dc 233c
00000230: c438 163f 545b 853d 7166 cb3f 0b1f a4be
00000240: 3533 6a3d c0d5 ff3b 6a30 83bd 007c 83bf
00000250: a415 283e b879 de3e 89c1 023f 6878 82bd
00000260: 96e7 7f3f 44c1 c6bf 7fe5 d93f e0be 99bb
00000270: 73ca a3be 7f87 40bf 31c0 863f ecf9 c03e
00000280: a36f 04bf 6c6f aa3d f011 28be 11dc 1840
00000290: 6da3 1bbf 2021 1dbf d007 f33c cdc7 b73d
000002a0: b0fb cd3f 118f 1b3f b94b 333f 67a9 9ebf
000002b0: 7205 9abe 09ea 0bc0 7604 24be f3a8 bc3e
000002c0: fbfd 8a3f 7bb8 87be da31 123f 5b78 1c3f
000002d0: 9a77 4cbf 5524 43bb c269 293f 90c2 99bd
000002e0: 51ca 713f 00e0 843e ee6a c33f 97e3 1cbf
000002f0: a0f7 63bc e465 a43e f9d9 b63f 9a6c f03e
00000300: 4cbe fabd 90c6 133d 5a49 b1bd 0bdb 45bd
00000310: b4f3 f5bd 54a7 5a3d 5012 d1bc cbfa ec3b
00000320: a109 01bd 9dd8 ac3d 46eb f83d 783a a43d
00000330: a656 83bd 388a 99bd 4b10 343d c3c8 833d
00000340: bc05 483b 30d8 f2bd d5da e3bd 51b2 8a3b
00000350: ceb4 3fbc 1863 12be fcef 1cbd c62a e5bd
00000360: 1e1f a0bd a6e5 86bd f55a bf3d 6cee ff3c
00000370: 01f6 563d 91d9 5ebd 94bd 00bd 06ba 99bd
00000380: 8ce5 15bd 7c60 56bd fb30 c63d 44c2 3dbd
00000390: 9243 14be c6df bfbd 8cec 683d 7bba ebbc
000003a0: 1193 0abe 65a1 77bd 4edb 8e3d b72f c13a
000003b0: 2045 debd b7c3 b6bc 1499 503d 32ec 01be
000003c0: b0a8 093d bdba a23d 2cef 96bb e1fd 723d
000003d0: d5c9 edbd 2ec1 acbd 687f cdbc 48a7 79bd
000003e0: 3bf6 7f3d d04b 56bc 5f4c 1b3d 4077 f1bb
000003f0: a63c c0bd 9c45 be3d 3b56 c5bd f0da 923d

fc2.bias f4 [64]
0.47872734 -0.041215282 1.7419454 0.06084036 1.8916467 1.6328424 -0.029861381 2.3608515
-0.08483713 -0.51865655 -1.4299935 0.075069286 0.039363787 0.08085846 1.4703099 0.07611238
0.7817228 2.1631052 1.006718 2.561715 0.25596386 2.3747046 0.06507048 0.10503591
1.6627173 0.8873649 -0.9324373 0.079765625 -0.13203345 -0.09263917 2.2830877 -0.067901745
1.794987 -0.06604653 0.0039905356 -0.5806958 1.7271316 -0.16378823 0.07705862 1.2138706
1.453326 -0.010907035 2.4995255 2.5336668 -2.703821 1.7461797 0.10047609 -0.021280311
-0.07878916 -0.10686878 -0.1272352 0.6091088 1.9053338 -0.012057263 -0.07993459 2.4575377
-1.0776769 -0.046523888 2.5802026 -0.00023681365 -0.105684124 2.3433223 0.016774267 1.0954762
00000000: c01b f53e 5bd1 28bd 11f8 de3f be33 793d
00000010: 7b21 f23f fb00 d13f db9f f4bc 3118 1740
00000020: 17bf adbd adc6 04bf 070a b7bf edbd 993d
00000030: ec3b 213d 1f99 a53d 1d33 bc3f cfe0 9b3d
00000040: fc1e 483f 5170 0a40 23dc 803f 23f3 2340
00000050: b20d 833e 29fb 1740 ac43 853d 111d d73d
00000060: ecd3 d43f 592a 633f 36b4 6ebf 295c a33d
00000070: c733 07be 9bb9 bdbd 1c1e 1240 1210 8bbd
00000080: 22c2 e53f 6743 87bd 0ac3 823b 7ba8 14bf
00000090: a612 dd3f 1ab8 27be e9d0 9d3d 1d60 9b3f
000000a0: 9606 ba3f 6cb3 32bc 3af8 1f40 9927 2240
000000b0: 670b 2dc0 d182 df3f 69c6 cd3d 0c54 aebc
000000c0: 365c a1bd 05de dabd f249 02be 8eee 1b3f
000000d0: fae1 f33f d48b 45bc bfb4 a3bd 4c48 1d40
000000e0: 51f1 89bf d58f 3ebd 0a22 2540 2e51 78b9
000000f0: eb70 d8bd fef8 1540 306a 893c 9038 8c3f

fc3.weight f4 [20, 64]
-0.052071087 -0.08143988 0.048312567 -0.0713216 0.35988763 0.093148984 0.114109054 0.49511755
0.11836594 -0.14668146 -0.4076563 -0.12182229 -0.09623666 -0.037478767 0.10003662 -0.080351815
-0.6200145 -0.9932908 -0.21962787 0.6498735 -0.07708682 0.4257068 -0.014178171 -0.0027105785
0.0681663 0.0715599 -0.17893332 -0.018695964 -0.102304846 0.03500516 -0.8994817 0.07429442
0.21803662 -0.046307817 -0.020374805 -0.38655344 -1.1132419 0.039766125 -0.10423869 -0.47752774
0.17958364 -0.08257662 0.45008424 0.655033 -0.6042969 0.24534032 0.113186955 0.012293309
0.108726114 0.06533126 0.040805496 -0.6564432 0.28346372 -0.067588806 -0.10099086 0.50892246
-0.10582353 -0.010834068 0.5162451 0.060054988 -0.057416778 0.6656602 0.03354381 0.42953217
0.33686948 -0.07000315 -0.44657838 -0.03573158 0.18741867 0.14263366 -0.004673019 0.53082246
0.05860302 -0.15218008 -0.16216399 -0.02283305 -0.09431438 0.10481239 0.23360252 -0.11086979
-0.33170167 -1.0180591 0.10823151 0.46149224 0.09068024 0.53865975 0.1435373 -0.06376661
0.12851831 -0.034032416 -0.2067913 0.020688137 -0.11940132 0.24410988 -0.87099093 0.011372061
0.31972912 -0.08202605 -0.074606225 -0.18710186 -0.4051201 -0.037635233 0.01596587 -0.36898306
0.10651051 -0.047375545 0.39190248 0.5319554 -0.40295234 0.18290341 0.05806871 -0.13114297
-0.116164654 -0.03913654 -0.07131415 -0.4354335 0.17220609 -0.08483713 0.061876006 0.55245316
-0.088485606 0.12115918 0.56750774 -0.071090624 0.12331401 0.60735244 0.003180772 0.21438126
0.3092008 -0.09968822 -0.35652715 -0.010293576 0.26476595 0.11597341 0.006425976 0.5398625
0.065160856 -0.17681201 -0.16972198 -0.0080150515 -0.10428339 -0.049992174 0.15190375 -0.030667914
-0.37119594 -0.85566777 0.23292424 0.58524084 0.0063336003 0.42849368 0.008240914 0.043264214
0.03898438 0.12498519 -0.08487099 -0.5058709 0.0637864 -0.15998587 -0.8980496 0.07831779
0.20849809 0.074663505 -0.117549986 -0.18795644 -0.63209534 -0.05186602 -0.0691609 -0.26083487
-0.03694032 -0.032427534 0.49034238 0.5618396 -0.5753335 0.28242174 0.12917238 0.04189617
-0.08439158 -0.019521702 -0.10014082 -0.3721034 0.23827301 0.14784378 0.03637234 0.59263444
-0.13169225 -0.033334583 0.5789632 -0.06666286 0.07135886 0.39387414 -0.06929265 0.061584752
0.044952292 0.014175385 -0.6066871 -0.03274386 0.1664893 0.05379924 -0.051395237 0.49023363
0.0488088 0.1241469 -0.07790476 -0.09418197 0.062738426 -0.0862006 0.17878926 0.08862953
-0.3574638 -0.7565491 0.0659866 0.4680375 0.20599216 0.37919915 0.03172312 0.06198777
0.08585491 0.3758313 0.028394364 0.016787319 -0.08173397 -0.018896237 -0.7743638 0.10016842
0.15736425 -0.051872656 -0.0024198443 0.23365776 -0.5924692 0.17874919 0.1304092 -0.09516779
0.14836933 0.0402219 0.463227 0.5880811 -0.15952 0.18015543 0.011277065 0.075014085
-0.106278524 0.108418524 0.11430456 -0.06890298 0.28302687 0.055218823 0.00947307 0.50733864
-0.30986503 -0.040558293 0.57304406 0.12052947 0.03621215 0.5986254 0.03323829 0.059550945
00000000: 7e48 55bd f4c9 a6bd 66e3 453d 0f11 92bd
00000010: 3143 b83e e5c4 be3d 02b2 e93d 0c80 fd3e
00000020: d869 f23d aa33 16be 54b8 d0be f77d f9bd
00000030: ba17 c5bd 5683 19bd 00e0 cc3d 7e8f a4bd
00000040: 45b9 1ebf 4e48 7ebf 21e6 60be 1c5e 263f
00000050: b2df 9dbd 3ef6 d93e 8f4b 68bc f6a3 31bb
00000060: c69a 8b3d ff8d 923d 4c3a 37be 4728 99bc
00000070: 3485 d1bd 9261 0f3d 6f44 66bf ac27 983d
00000080: fe44 5f3e 44ad 3dbd 10e9 a6bc 55ea c5be
00000090: b67e 8ebf cee1 223d 187b d5bd 847e f4be
000000a0: c6e4 373e ee1d a9bd 7171 e63e 3eb0 273f
000000b0: 34b3 1abf 7e3a 7b3e 90ce e73d e069 493c
000000c0: ccab de3d 65cc 853d aa23 273d a90c 28bf
000000d0: 2822 913e 006c 8abd 4cd4 cebd be48 023f
000000e0: 02ba d8bd 6081 31bc a428 043f 38fc 753d
000000f0: db2d 6bbd b568 2a3f 3c65 093d a4eb db3e
00000100: 287a ac3e d05d 8fbd eca5 e4be 475b 12bd
00000110: aeea 3f3e 8f0e 123e 2020 99bb fbe3 073f
00000120: b809 703d 18d5 1bbe 510e 26be 600c bbbc
00000130: e627 c1bd e1a7 d63d 8035 6f3e b30f e3bd
00000140: cdd4 a9be c34f 82bf 7ba8 dd3d b648 ec3e
00000150: 90b6 b93d 9be5 093f 71fb 123e 1298 82bd
00000160: 4e9a 033e 9365 0bbd 19c1 53be 2b7a a93c
00000170: ae88 f4bd f1f7 793e 43f9 5ebf e251 3a3c
00000180: 89b3 a33e 46fd a7bd 26cb 98bd a197 3fbe
00000190: e76b cfbe 6727 1abd dbca 823c 59eb bcbe
000001a0: 2f22 da3d dc0c 42bd 71a7 c83e 3b2e 083f
000001b0: c54f cebe 084b 3b3e 75d9 6d3d 584a 06be
000001c0: bce7 edbd a34d 20bd 270d 92bd 24f1 debe
000001d0: cb56 303e 17bf adbd b271 7d3d 926d 0d3f
000001e0: f137 b5bd 4e22 f83d 3048 113f f697 91bd
000001f0: 0e8c fc3d 737b 1b3f 8074 503b c386 5b3e
00000200: 914f 9e3e 5629 ccbd ba8a b6be 63a6 28bc
00000210: 678f 873e 7883 ed3d fe90 d23b 6e34 0a3f
00000220: 0e73 853d 350e 35be 99cb 2dbe 9051 03bc
00000230: 8892 d5bd 98c4 4cbd a88c 1b3e 473b fbbc
00000240: 650d bebe 0b0d 5bbf b183 6e3e 58d2 153f
00000250: 178a cf3b 8663 db3e e604 073c d135 313d
00000260: 16ae 1f3d 3cf8 ff3d d7d0 adbd c180 01bf
00000270: 72a2 823d 56d3 23be 94e6 65bf 1465 a03d
00000280: 8680 553e 2ee9 983d 0cbe f0bd a777 40be
00000290: 00d1 21bf 7771 54bd 3ba4 8dbd 268c 85be
000002a0: bc4e 17bd bcd2 04bd 280e fb3e b8d4 0f3f
000002b0: 0e49 13bf 9599 903e c445 043e 519b 2b3d
000002c0: 7ed5 acbd faeb 9fbc a116 cdbd 5684 bebe
000002d0: d7fd 733e 5c64 173e 2afb 143d e4b6 173f
000002e0: 55da 06be d889 08bd ef36 143f 8a86 88bd
000002f0: 9824 923d dfa9 c93e 4ee9 8dbd 4b40 7c3d
00000300: e51f 383d e03f 683c d94f 1bbf 6d1e 06bd
00000310: 2c7c 2a3e 985c 5c3d d083 52bd e7ff fa3e
00000320: bceb 473d bb40 fe3d 888c 9fbd 7ae2 c0bd
00000330: 017d 803d f189 b0bd 8814 373e 6683 b53d
00000340: 7f05 b7be 34ad 41bf fc23 873d 9ca2 ef3e
00000350: 9cef 523e 6426 c23e 1af0 013d e3e6 7d3d
00000360: b3d4 af3d f66c c03e 4c9b e83c 8f85 893c
00000370: 2464 a7bd 48cc 9abc b53c 46bf 1a25 cd3d
00000380: 1824 213e 6c78 54bd 4096 1ebb fb43 6f3e
00000390: 10ac 17bf 070a 373e fd89 053e 55e7 c2bd
000003a0: 21ee 173e b8bf 243d 172c ed3e 7c8c 163f
000003b0: 3659 23be aa7a 383e 70c3 383c fca0 993d
000003c0: 8ea8 d9bd 880a de3d 8218 ea3d 011d 8dbd
000003d0: e6e8 903e 222d 623d ef34 1b3c f2e0 013f
000003e0: a1a6 9ebe 7420 26bd 04b3 123f 28d8 f63d
000003f0: 3153 143d 843f 193f e024 083d b1eb 733d

fc3.bias f4 [20]
1.9603028 0.87955254 0.94003916 0.7736037 0.75816935 0.6381116 0.5491533 0.60794884
0.20414074 0.2890849 0.38202274 0.14674878 0.2545306 0.14979991 -0.16354555 0.079036206
-0.017882483 -0.023904199 -0.055167463 -0.060762014
00000000: 34eb fa3f 5b2a 613f 68a6 703f e40a 463f
00000010: 6317 423f 485b 233f 5095 0c3f 89a2 1b3f
00000020: 450a 513e f002 943e 7c98 c33e 5045 163e
00000030: d651 823e 2665 193e 7c78 27be bcdd a13d
00000040: 497e 92bc bdd2 c3bc 47f7 61bd 97e1 78bd

exp_avg f4 [64, 3]
0.0 0.0 0.0 11.847342 3.5434623 -73.78504 0.0 0.0
0.0 4.561817 1.5405846 -39.56006 0.0 0.0 0.0 6e-45
6e-45 6e-45 0.0 0.0 0.0 22.273289 8.465498 -41.258465
-5.7305245 -3.7500184 -35.797543 10.513747 3.0368624 -44.840748 0.0 0.0
0.0 0.0 0.0 0.0 0.39809242 3.4100888 -0.17564595 0.0
0.0 0.0 4.0892873 -5.156992 -166.6932 17.829615 6.3377056 -43.751595
-0.17247346 -0.37765056 -8.6248045 0.0 0.0 0.0 6e-45 6e-45
6e-45 0.3221012 -4.28282 -17.000158 -0.035442818 -0.0189108 -3.0842574 10.061273
1.7582561 -87.43897 14.732379 3.4727252 -114.84159 0.044735406 0.06468049 11.30527
-37.903023 -34.470303 -59.56842 1.3414096 0.3239653 18.644709 -0.5298473 -0.48413593
-3.9879653 0.0 0.0 0.0 13.689304 6.3999777 -18.56291 12.492627
3.6203876 -13.863688 23.493933 5.561957 -188.81744 -0.6147097 -1.538448 -23.123789
23.870165 9.393484 -53.23163 0.0 0.0 0.0 0.124146715 1.4302288
0.036208425 -142.4542 -103.98793 -216.69292 2.2667449 1.6177709 10.970223 6e-45
6e-45 6e-45 0.0 0.0 0.0 -6.3745527 -4.686381 -14.688851
-2.9314106 -9.20054 -166.48367 -53.296623 -48.073986 -122.448456 3.4720407 3.0666666
-22.082771 0.12024338 0.24048418 28.830221 10.048281 4.563415 -20.123466 -0.05164437
-1.2799817 -1.9000255 0.010129224 0.16237892 0.033415414 0.050646517 -0.77120996 -15.139879
34.15936 6.3500466 -275.14633 1.9216688 1.7896242 49.25524 15.528485 2.9911397
-119.90283 9.356916 1.3859311 -101.490616 -3.2398753 -13.269218 -87.202415 15.190503
4.7725573 -80.97337 -71.90815 -52.820694 -94.882614 0.0 0.0 0.0
7.68352 -0.9091977 -116.60681 -1.3267825 -0.031013269 -5.9430304 -3.4753547 -6.8617773
-102.7254 23.429638 9.8673725 -34.69235 0.0 0.0 0.0 0.072700754
0.44606224 -0.9791873 12.886536 -1.422808 -178.62749 -18.21285 -17.289995 -30.414154
00000000: 0000 0000 0000 0000 0000 0000 b68e 3d41
00000010: 16c8 6240 f191 93c2 0000 0000 0000 0000
00000020: 0000 0000 68fa 9140 e031 c53f 803d 1ec2
00000030: 0000 0000 0000 0000 0000 0000 0400 0000
00000040: 0400 0000 0400 0000 0000 0000 0000 0000
00000050: 0000 0000 b22f b241 ae72 0741 ab08 25c2
00000060: 7560 b7c0 4d00 70c0 af30 0fc2 4f38 2841
00000070: f45b 4240 ed5c 33c2 0000 0000 0000 0000
00000080: 0000 0000 0000 0000 0000 0000 0000 0000
00000090: c5d2 cb3e e53e 5a40 88dc 33be 0000 0000
000000a0: 0000 0000 0000 0000 71db 8240 1406 a5c0
000000b0: 76b1 26c3 0da3 8e41 7cce ca40 a201 2fc2
000000c0: e29c 30be 6a5b c1be 33ff 09c1 0000 0000
000000d0: 0000 0000 0000 0000 0400 0000 0400 0000
000000e0: 0400 0000 73ea a43e dd0c 89c0 5300 88c1
000000f0: 7d2c 11bd d2ea 9abc 7964 45c0 f9fa 2041
00000100: 890e e13f c1e0 aec2 d3b7 6b41 2141 5e40
00000110: e5ae e5c2 793c 373d 3477 843d 63e2 3441
00000120: b29c 17c2 97e1 09c2 1046 6ec2 4fb3 ab3f
00000130: c8de a53e 5d28 9541 13a4 07bf aae0 f7be
00000140: d33a 7fc0 0000 0000 0000 0000 0000 0000
00000150: 6407 5b41 9ecc cc40 d780 94c1 cde1 4741
00000160: 6eb4 6740 abd1 5dc1 93f3 bb41 8dfb b140
00000170: 44d1 3cc3 9d5d 1dbf ddeb c4bf 85fd b8c1
00000180: 19f6 be41 b64b 1641 30ed 54c2 0000 0000
00000190: 0000 0000 0000 0000 a240 fe3d bd11 b73f
000001a0: 494f 143d 4674 0ec3 d2f9 cfc2 63b1 58c3
000001b0: 5912 1140 1e13 cf3f 0986 2f41 0400 0000
000001c0: 0400 0000 0400 0000 0000 0000 0000 0000
000001d0: 0000 0000 56fc cbc0 d5f6 95c0 8905 6bc1
000001e0: 3b9c 3bc0 6935 13c1 d27b 26c3 be2f 55c2
000001f0: c34b 40c2 9ce5 f4c2 ea35 5e40 4444 4440
00000200: 84a9 b0c1 2942 f63d 7c41 763e 4ba4 e641
00000210: c2c5 2041 7f07 9240 dcfc a0c1 0c89 53bd
00000220: 71d6 a3bf 0934 f3bf 0bf5 253c a946 263e
00000230: 9ade 083d b972 4f3d 046e 45bf f23c 72c1
00000240: 2fa3 0842 9533 cb40 bb92 89c3 3ef9 f53f
00000250: 6812 e53f 5e05 4542 ad74 7841 d56e 3f40
00000260: 40ce efc2 eeb5 1541 3166 b13f 32fb cac2
00000270: 1e5a 4fc0 b84e 54c1 a367 aec2 4d0c 7341
00000280: cab8 9840 5ef2 a1c2 f9d0 8fc2 6448 53c2
00000290: e6c3 bdc2 0000 0000 0000 0000 0000 0000
000002a0: 65df f540 2ec1 68bf b036 e9c2 02d4 a9bf
000002b0: 8a0f febc 4e2d bec0 366c 5ec0 ae93 dbc0
000002c0: 6873 cdc2 e66f bb41 c2e0 1d41 f7c4 0ac2
000002d0: 0000 0000 0000 0000 0000 0000 22e4 943d
000002e0: 4562 e43e 05ac 7abf 402f 4e41 931e b6bf
000002f0: a3a0 32c3 ebb3 91c1 e951 8ac1 3050 f3c1

exp_avg_sq f4 [64, 3]
0.0 0.0 0.0 3000.0713 3495.7732 67885.234 0.0 0.0
0.0 807.0682 1020.1508 21584.186 0.0 0.0 0.0 1.1472636e-06
1.1663677e-05 0.022559412 0.0 0.0 0.0 6669.6772 6800.58 63477.836
621.9869 453.7783 13733.8125 1624.6344 1772.2303 31409.113 0.0 0.0
0.0 0.0 0.0 0.0 30.792683 795.96497 51.818733 0.0
0.0 0.0 1290.7355 2468.8203 215385.48 4024.5225 4187.7715 49802.67
59.666214 140.50636 904.193 0.0 0.0 0.0 2.5193411e-37 6.0922475e-37
2.5193411e-37 30.155985 187.80795 7959.696 5.762437 26.313229 841.10913 2306.6548
2816.4558 88609.17 4617.083 5536.116 149287.05 9.7464 1.0223584 3537.9673
24986.455 41199.62 41676.344 8.860733 3.71924 4541.138 20.586363 4.1749663
2273.8845 0.0 0.0 0.0 2535.7656 2609.5784 20995.406 2439.194
786.7317 19618.05 7795.155 9095.774 363455.9 20.257414 50.496006 3407.1755
7425.446 7623.1646 82713.17 0.0 0.0 0.0 15.661261 156.23303
24.518055 254656.81 240984.34 1.059598e+06 190.17244 25.549448 1675.35 4.4525147e-17
3.2736362e-16 1.01917274e-13 0.0 0.0 0.0 265.63556 136.17484 1264.6603
575.05566 1695.4302 186573.03 32136.654 30307.385 99531.75 225.52309 177.8185
17328.89 2.1661935 2.361305 13372.569 1398.8853 1377.7935 13467.622 69.471985
89.32241 8364.3545 0.20768613 6.2127485 1.3664389 5.8572903 48.80181 4638.849
21371.588 25325.195 789230.7 24.132313 154.04709 15797.699 4838.5664 5778.2104
156458.28 1557.8204 1983.1249 101160.06 267.71466 734.60626 30044.441 4125.315
4652.63 89248.734 67661.81 66202.875 273982.7 0.0 0.0 0.0
1616.4542 2371.1558 126370.664 68.55804 63.105892 2040.1522 268.17245 344.50858
56720.79 6951.1484 7141.3325 62959.242 0.0 0.0 0.0 0.9718231
156.21869 11.291025 3490.709 5095.6562 278796.8 6213.025 17165.861 18520.365
00000000: 0000 0000 0000 0000 0000 0000 2481 3b45
00000010: 5f7c 5a45 9e96 8447 0000 0000 0000 0000
00000020: 0000 0000 5dc4 4944 a709 7f44 5fa0 a846
00000030: 0000 0000 0000 0000 0000 0000 adfb 9935
00000040: 1caf 4337 84ce b83c 0000 0000 0000 0000
00000050: 0000 0000 6b6d d045 a484 d445 d6f5 7747
00000060: 297f 1b44 9fe3 e243 4097 5646 4d14 cb44
00000070: 5f87 dd44 3a62 f546 0000 0000 0000 0000
00000080: 0000 0000 0000 0000 0000 0000 0000 0000
00000090: 6a57 f641 c2fd 4644 6246 4f42 0000 0000
000000a0: 0000 0000 0000 0000 8957 a144 204d 1a45
000000b0: 5f56 5248 5c88 7b45 2cde 8245 ac8a 4247
000000c0: 34aa 6e42 a181 0c43 5a0c 6244 0000 0000
000000d0: 0000 0000 0000 0000 1d75 ab02 f64e 4f03
000000e0: 1d75 ab02 753f f141 d6ce 3b43 91bd f845
000000f0: e265 b840 7e81 d241 fc46 5244 7a2a 1045
00000100: 4b07 3045 9610 ad47 aa48 9045 ee00 ad45
00000110: c3c9 1148 41f1 1b41 a4dc 823f 7a1f 5d45
00000120: e934 c346 9fef 2047 58cc 2247 90c5 0d41
00000130: 0708 6e40 1be9 8d45 dfb0 a441 5399 8540
00000140: 271e 0e45 0000 0000 0000 0000 0000 0000
00000150: 407c 1e45 4119 2345 d006 a446 1b73 1845
00000160: d4ae 4444 1a44 9946 3d99 f345 191f 0e46
00000170: fd77 b148 2f0f a241 e9fb 4942 cff2 5445
00000180: 910b e845 5139 ee45 968c a147 0000 0000
00000190: 0000 0000 0000 0000 8694 7a41 a83b 1c43
000001a0: fa24 c441 34b0 7848 1656 6b48 7058 8149
000001b0: 252c 3e43 4565 cc41 336b d144 0456 4d24
000001c0: 58b6 bc25 4f7f e529 0000 0000 0000 0000
000001d0: 0000 0000 5ad1 8443 c22c 0843 2115 9e44
000001e0: 90c3 0f44 c4ed d344 4233 3648 4f11 fb46
000001f0: c5c6 ec46 e065 c247 e985 6143 89d1 3143
00000200: c861 8746 eaa2 0a40 9f1f 1740 47f2 5046
00000210: 54dc ae44 6439 ac44 7d6e 5246 a8f1 8a42
00000220: 13a5 b242 6bb1 0246 acab 543e d6ce c640
00000230: 78e7 ae3f ec6e bb40 0e35 4342 cbf6 9045
00000240: 2df7 a646 64da c546 ebae 4049 fa0e c141
00000250: 0e0c 1a43 ccd6 7646 8834 9745 af91 b445
00000260: 92ca 1848 41ba c244 ffe3 f744 0894 c547
00000270: 7adb 8543 cda6 3744 e2b8 ea46 85ea 8045
00000280: 0a65 9145 5e50 ae47 e826 8447 704d 8147
00000290: d6c7 8548 0000 0000 0000 0000 0000 0000
000002a0: 890e ca44 7e32 1445 55d1 f647 b71d 8942
000002b0: 6f6c 7c42 df04 ff44 1316 8643 1941 ac43
000002c0: ca90 5d47 3039 d945 a92a df45 3eef 7547
000002d0: 0000 0000 0000 0000 0000 0000 66c9 783f
000002e0: fc37 1c43 0aa8 3441 582b 5a45 403d 9f45
000002f0: 9a21 8848 3328 c245 b91b 8646 bbb0 9046
