beer/experiments/vanilla_DQN/eps_0.12/models/dqn_agent_firm_1_episode_6000.pth (torch, 101224 bytes, 24 tensors)

fc1.weight f4 [64, 3]
00000000: 8850 2e3e c8fa 8e3e 2776 5ebe f6e0 a0bf
00000010: 72f9 003d 1e48 a7bd ac83 893e 00e1 09bf
00000020: fe2b b9be 7c31 06bf ccc5 96bd 4a86 0bbc
00000030: 0b5d d5be b83d 05bf 46c9 01bf c2dc 423d
00000040: a991 063c fff9 40be 3d3c f53c 3a82 e9bc
00000050: 61ba d43d 976f bd3d 1e51 083f d7bc 0c3e
00000060: 1019 c4be 8768 e3be d864 6bbe 81aa 173e
00000070: 49da a33e ddab 59bf 3b70 dcbd d0d2 203e
00000080: 1d6c f6bd baaa f3be 2198 0cbf 33d5 1cbd
00000090: f22e e1be 646d aa3e a3de 8abe 3ec3 0c3d
000000a0: dded 513e cfeb 093e 74d7 5bbe 324a 84be
000000b0: f86e a4be 7692 bfbe 82c2 fdbd 595f 493c
000000c0: e0eb c4be 8624 973e e35e ab3d 2624 3f3e
000000d0: 4274 cfbd 3a84 05be 1a7d 033e 7902 0f3f
000000e0: 18c4 f03e 1666 10bf c520 acbe 5c8c 70be
000000f0: ea1a eebe f6dd c2be 56e6 fdbd ce17 38be
00000100: e232 58bf 7454 8b3b 6a50 4abc 8284 e8be
00000110: 14a0 193c 08dc 133e 8b5c 8fbe 374a bb3d
00000120: a7f8 9ebe a4a0 e9be a131 cfbe c7a5 b2be
00000130: 3dfd a93d 234e b23d 8402 b4be 986c c7be
00000140: 38a9 b4be 8dbc 013f a80b 003f 44fd 1d3e
00000150: 0b94 833d 907a 1e3e 6bd1 c8bd aedc f5be
00000160: 3e8c efbe b896 0dbf ec87 88be f6f1 c4be
00000170: 26b3 323d ee10 48bd bb75 ddbe 244b 8e3c
00000180: cdcc ac3e 446d d3be 4cea 523e 01bb 623e
00000190: c9bc 0d3e 1e63 893c 34b7 113f e37b e4bd
000001a0: d9e6 4ebe 0c07 0b3f a6f9 95be b6e2 10bf
000001b0: a4c5 46be 7246 92bd b553 033e b2f6 d7bf
000001c0: c416 0b3e b0b3 46be 44ff 5a3e 446a 63be
000001d0: 9cb1 80be 34f7 a2be 1f5b 87be 4245 5cbe
000001e0: ac94 1d3e f0d0 ebbd 16d3 e8be 365e 23be
000001f0: cac5 c5be e30d 003d 4e36 b63e 9954 bc3e
00000200: ea2f 7c3e a8b0 92bd e02f d9be 58f6 eebd
00000210: 1125 76be 13a5 cbbe 1fea f13d 8c78 6a3e
00000220: fde3 c9be 8624 abbe ae27 5e3e e7ff 793e
00000230: 7ba1 813d 8dcc 38bf 2e7c ffbe 86ef 63bd
00000240: d3f8 21bf 7a83 32bf 4a92 0dbd 4908 603e
00000250: 669e 8ebe 13fc e63d 22f6 a0be 32ea c5be
00000260: 2961 833e 9a90 813e 4dcc 00c0 213a 19be
00000270: 897b 16be 5037 5e3e 3408 51bf cfc6 84bf
00000280: 4c45 dabf 66af f33c 9814 393e 56fa 65be
00000290: 55e8 01bf 00d2 523d 6272 633c 82e3 98be
000002a0: 9582 0ebe 7694 013f 5e7d ea3e 4e0c 11be
000002b0: 502e 03be 2e54 1cbe 86e2 ee3e 6ce2 823e
000002c0: 6a1d dfbd d681 edbc b794 c13d 419d 53be
000002d0: b4d2 df3d ebf4 3cbe e397 f43d 9285 ae3e
000002e0: c114 6abe fc65 a5be 8fc8 1b3e f355 603e
000002f0: 3d5b 42bf 88a7 97bd 1ce4 f5bd a26f 09bf
0.17022908 0.27925706 -0.21724759 -1.2568653 0.03148789 -0.08168052 0.2685827 -0.5385895
-0.36166376 -0.5241926 -0.073619455 -0.008515904 -0.4167255 -0.520473 -0.50697744 0.047573812
0.008213439 -0.18845366 0.02993595 -0.02850448 0.103871115 0.092498 0.53248775 0.13743912
-0.3830037 -0.44415686 -0.22987688 0.14811136 0.32002476 -0.8502787 -0.10763594 0.15705419
-0.1203234 -0.47591192 -0.5491963 -0.03828926 -0.4398113 0.33286583 -0.27122983 0.034365885
0.20500894 0.1346886 -0.21468908 -0.25837857 -0.32115912 -0.37416428 -0.12390615 0.012290799
-0.38461208 0.29520053 0.083677076 0.18666133 -0.10129596 -0.13038722 0.12840691 0.5586315
0.47024608 -0.5640577 -0.3361875 -0.23491043 -0.4650491 -0.38059968 -0.12397449 -0.17977831
-0.8445264 0.004252011 -0.012348274 -0.45413595 0.0093765445 0.14439404 -0.28000292 0.09145015
-0.31049082 -0.45630372 -0.4046755 -0.34892103 0.083002545 0.0870631 -0.3515817 -0.38950038
-0.35285354 0.5067833 0.50017786 0.15428644 0.06424721 0.15476441 -0.09805568 -0.48019928
-0.46786684 -0.55308104 -0.266662 -0.38465852 0.04362788 -0.04884427 -0.43253884 0.017369814
0.3375 -0.412943 0.2059719 0.22141649 0.13841547 0.016770896 0.5692017 -0.11156442
-0.20205249 0.5430763 -0.2929203 -0.56595933 -0.19411331 -0.071423426 0.128249 -1.687216
0.13582903 -0.19404483 0.21386439 -0.22208506 -0.25135505 -0.31829226 -0.26436707 -0.21510795
0.15388745 -0.11514461 -0.45473546 -0.15953907 -0.38627464 0.031263243 0.35588306 0.36783293
0.24627653 -0.07162601 -0.42419338 -0.1166808 -0.24037577 -0.3977438 0.11812233 0.22897547
-0.39431754 -0.33426303 0.21694824 0.24414025 0.06329628 -0.7218712 -0.4989943 -0.05564835
-0.632703 -0.6973187 -0.03456334 0.2187816 -0.27855223 0.11278548 -0.31437784 -0.3865524
0.25660065 0.25305635 -2.0124695 -0.1496358 -0.14695562 0.21700788 -0.8165314 -1.0373172
-1.7052398 0.029746722 0.18074262 -0.22458777 -0.50745136 0.051469803 0.013882251 -0.29861075
-0.13917 0.5061716 0.45798773 -0.1416485 -0.12810636 -0.15266487 0.466572 0.2556337
-0.10894282 -0.028992575 0.09452193 -0.20665456 0.1092886 -0.18452804 0.119430326 0.3408628
-0.2285948 -0.3230437 0.15213226 0.21907787 -0.7592047 -0.07405001 -0.12006399 -0.53685963

fc1.bias f4 [64]
00000000: 9210 9440 842c 323f 5484 253e d680 113f
00000010: 9eaf ed3f 8337 5340 c3c4 7040 8db8 1c40
00000020: 6071 3f3e 960f 63be 3263 6540 d182 3540
00000030: 7a39 22bf 135a d5bf 007c 77bc c316 3d40
00000040: 0597 5d40 2ee0 85bf fbfd 2fc0 908c 5c3e
00000050: 182d 6840 6002 29bf a07f 80bf ac2b 24c0
00000060: ca5e b7be 062e 3f40 a055 8140 5c55 2640
00000070: d668 9a40 d09e ee3e a4e3 1740 4e4a 05c0
00000080: 4e0b 7b40 1dd6 f73f ae8b 8bbc 08b0 313e
00000090: ef91 7440 ee85 59bf 5c0d febe 70ed 36be
000000a0: a6de b73e ac4a 3040 3140 26c0 d8e7 083f
000000b0: 4261 8ec0 209d b33e daa2 f9bf cb33 7c40
000000c0: 7b91 3440 a4a9 6140 8e52 8ac0 ae18 c5bc
000000d0: d4fe 65bf bead 56c0 0877 ad3e 6ec8 7940
000000e0: 8932 c4bf 341e 7240 c249 3b40 57b6 3e40
000000f0: 4656 6040 e83c 0fbf 7a37 3e40 5800 97be
4.6270227 0.69599175 0.1616376 0.56837213 1.8569219 3.3002632 3.7620094 2.448764
0.18695593 -0.22173914 3.5841794 2.8361094 -0.6336895 -1.6668113 -0.0151052475 2.9545143
3.4623425 -1.0459039 -2.7498767 0.21537995 3.6277523 -0.6601925 -1.0038948 -2.5651655
-0.35814506 2.987184 4.0417023 2.59896 4.8252974 0.4660554 2.373269 -2.0826602
3.922565 1.9362217 -0.017034378 0.17352307 3.821407 -0.84969985 -0.49619567 -0.17864013
0.35912055 2.7545576 -2.597668 0.53478765 -4.4493723 0.35080814 -1.9502823 3.9406612
2.8213794 3.525979 -4.3225775 -0.02405962 -0.8984196 -3.3543544 0.33879876 3.9028583
-1.5327922 3.7830935 2.9263768 2.9798791 3.5052657 -0.5595231 2.972136 -0.2949245

fc2.weight f4 [64, 64]
00000000: c366 96bd ebbd 4b3c c037 66bd d3f4 9b3d
00000010: 7d4a 08be 7b30 b1bc 4572 a6bc 3050 d6bd
00000020: 54c8 54bd ad87 fdbd 7411 ad3d 4eda 113d
00000030: febd c2bd 21b4 84bd b4be 813d b020 733c
00000040: 71a2 f7bd b436 ecbc 5c43 1ebc 962a d73d
00000050: 20ca 14bd e025 84bd 07a1 553d 2bbf 8e3d
00000060: 24de 55bd bbcc 12be 005b f4bd d721 27be
00000070: 27d2 a5bd 1abf c63d a4a8 723d 79f4 13bd
00000080: 8288 7db8 6d65 e23c 6629 59be c080 923c
00000090: 62ac 09bd e81e edbc 6c89 293d fc02 f03d
000000a0: a88a 6fbd 0476 a3bd 64df d83c 485a 313d
000000b0: 438e 01be b83c d73d 2286 0dbe 1e9f 98bd
000000c0: 4183 c93c a04c 8bbd f0ff 6abd b557 b43d
000000d0: 3260 7abd 57b5 b7bc 58ae 81bc 7468 08be
000000e0: 4946 8abc 6520 a93a 93ac 9cbd 17a9 9ebd
000000f0: 5c4f a03b a069 e83d 2ec3 8bb9 a036 743d
00000100: 84d2 af3d 8afd 06be cc77 093d 0a78 f53c
00000110: 3379 b1bd 9e20 fd3c 35b0 98bd d582 92bc
00000120: a0c4 b2bb 9af7 36be 009b 56bd 481b 82bc
00000130: fbd8 353d cae3 bebd b04b af3d cdbb bcbd
00000140: 5d74 98bb 0883 a83c 30d2 6e3d 8e74 d6bd
00000150: bfc5 98bc 1304 06bd ea12 49bd fd8a 1dbe
00000160: 9e39 ca3d 2501 313d 9572 e8bb 7cee ad3d
00000170: 30ec 593d decd a63d 2361 27bd ef66 bd3c
00000180: ae59 cebd cf47 95bd b37d 1cbe 24ee bebd
00000190: 0055 c23d 093a 27bd e6d8 ccbd d83b e83d
000001a0: 8823 d6bc 78c9 b5bd d6d6 c3bd dcbf 003d
000001b0: ee53 81bd 44b1 febd 502d d53c 5ad5 13be
000001c0: 71f8 d8bd 7851 dfbd cb1d 993d 3cca c33d
000001d0: 6746 ad3d db56 9f3d 708e c7bc cfd6 b6bd
000001e0: 7f17 16be 2ed7 15be 964f 70bc 5d70 fabd
000001f0: 20e7 94bd ecf3 0bbd cedd 533c de25 c83d
00000200: 7629 963f 6050 dabd 5067 9c3c 3e12 103e
00000210: 7729 cdbd 73e6 a1be 0575 b5bf e47b c5be
00000220: a046 0d3d ef77 56be a52a 9a3f 0c74 b7bf
00000230: e217 33bd 94d9 823d 84b0 ce3d 2e52 ccbf
00000240: cc21 aabe 65cb fabd c255 263e 4832 c93d
00000250: 546c 81be 3456 b53c b15d 8b3e 1828 5d3e
00000260: d6a0 ba3d fecf 83be 3f05 83be 6ebb a5be
00000270: 4f06 9c3f d821 8dbc fd33 7f3e d538 b03e
00000280: e21e 22bf 9e37 dabe 1d5b 9fbe a465 f1bd
00000290: 9ac8 aabf b41b 97be 6ee9 dfbd 809b ed3d
000002a0: 70b9 3e3d d5e9 d53d 0ba0 183d 5c08 163d
000002b0: 2479 e83e cc4e a7bd 5205 923c 5c30 bfbe
000002c0: c6d5 06be 716a 44bf 6d6e d33e 0637 e93e
000002d0: 76ca 0d3e d80b 2a3e 96c7 ee3d 0ac2 363f
000002e0: e97a ea3c e490 aebe da2c a3bd d5ca 1dbf
000002f0: 1be0 a1bf 6d8f bcbd 6176 26bf 4cdd cbbd
00000300: 253a babf ed55 1fbe ae9b 8abd 5964 003d
00000310: a2f3 30bf abcb 57bc 8180 623f b8e0 de3e
00000320: b0ac 2f3c 818b 8dbe 5b75 49bf f361 a33e
00000330: 6947 bbba d62f 0f3d 30d9 1bbd 8490 653f
00000340: 4640 313f f42a 08bd 365c 8a3e 30ab 11bc
00000350: 432e 7f3f 8075 d0bd 2445 c23c ccd6 903c
00000360: f007 e6bc e13f 5f3f 7d00 b03e 42e2 ec3e
00000370: b7ff fbbf 049b 343d 2b67 183e 7b04 e4bd
00000380: 817d 8d3f 7fef af3c 2ada 8ebc 30d3 b7bd
00000390: 1953 c73f 5062 1dbb 9add a63d c01d dd3c
000003a0: c4f0 ed3d a7d8 103e 2461 8c3e b063 2bbd
000003b0: 3009 05bf ece6 153d 55e3 2c3e b1b5 f23e
000003c0: f8ab ad3e 4225 2e3f 8aaf edbd bd1c 863e
000003d0: 9229 063e cbb9 7bbe e0e0 12bd 8e3c 6ebe
000003e0: a0ff 993e 0f8f 2c3e 44f5 86be c147 bd3e
000003f0: 4e41 773f af8e 533c 5f9f cc3c a640 f33d
-0.07343819 0.012435417 -0.05620551 0.07615056 -0.13309665 -0.021629563 -0.02031816 -0.10464513
-0.05194886 -0.12379394 0.084505945 0.035608582 -0.095088944 -0.06479669 0.06335202 0.014839336
-0.1209153 -0.028834678 -0.009659614 0.105061695 -0.036325574 -0.064525366 0.05215552 0.06970056
-0.052213803 -0.14335911 -0.119314194 -0.16321503 -0.08096724 0.097044185 0.05924286 -0.03612182
-6.0447033e-05 0.027636254 -0.21207199 0.017883658 -0.033611663 -0.028945401 0.04139082 0.11719319
-0.058481842 -0.07981494 0.026473708 0.04329899 -0.12651925 0.10509628 -0.13820699 -0.07452224
0.02459872 -0.068017244 -0.057372987 0.08805791 -0.061126895 -0.022425337 -0.015830204 -0.13321096
-0.016879218 0.0012903331 -0.076501034 -0.07747095 0.004892273 0.11348271 -0.00026657566 0.059622407
0.085850745 -0.13182655 0.033561513 0.029964466 -0.08665695 0.030899342 -0.07455484 -0.017884651
-0.0054555684 -0.1786789 -0.052393913 -0.01588215 0.04439638 -0.09320791 0.08559358 -0.09215508
-0.0046525435 0.020570293 0.05830592 -0.1047145 -0.01864898 -0.03271873 -0.049090303 -0.15385051
0.09874271 0.043213982 -0.0070937374 0.08492753 0.05320376 0.08144735 -0.04086412 0.023120372
-0.10075699 -0.07289087 -0.15282325 -0.093227655 0.09488869 -0.04082683 -0.100023076 0.11339539
-0.02613999 -0.08876318 -0.09562461 0.03143297 -0.063148364 -0.124361545 0.026022583 -0.14436856
-0.105942614 -0.10904211 0.07476386 0.095600575 0.08460694 0.07780238 -0.024359912 -0.0892769
-0.146574 -0.14632866 -0.014667412 -0.12228463 -0.07270646 -0.03416817 0.0129313 0.097728476
1.1731403 -0.106598616 0.019092232 0.14069459 -0.100176744 -0.3162113 -1.4176337 -0.38571084
0.03449118 -0.20944189 1.2044264 -1.433229 -0.04372395 0.06389156 0.100922614 -1.5962579
-0.3322891 -0.12245826 0.16243652 0.098240435 -0.2527796 0.022135831 0.27219918 0.21597326
0.09112708 -0.25744623 -0.2558994 -0.3236956 1.2189425 -0.017228052 0.24922176 0.3441836
-0.63328373 -0.42620558 -0.311242 -0.117869645 -1.3342469 -0.29513323 -0.10933195 0.11601925
0.046563566 0.104449905 0.037262004 0.036629066 0.45404923 -0.08169326 0.017824803 -0.37341583
-0.13167486 -0.76724917 0.41295186 0.45549792 0.13846764 0.1660608 0.11659162 0.7138983
0.028623061 -0.34094918 -0.07967539 -0.6163762 -1.2646517 -0.09207044 -0.6502438 -0.099543184
-1.4548994 -0.15560122 -0.06767975 0.0313457 -0.69121754 -0.013171117 0.8847733 0.43530822
0.010722324 -0.27645496 -0.78694695 0.31910667 -0.001428825 0.03495773 -0.038048923 0.8967364
0.692387 -0.03324409 0.27023476 -0.008890912 0.99679965 -0.10178661 0.02371461 0.017680548
-0.028079957 0.87206846 0.34375373 0.4626637 -1.9687413 0.044093147 0.14883105 -0.11133667
1.1053926 0.021476505 -0.017438013 -0.08975828 1.5572234 -0.0024014898 0.08147736 0.026991725
0.11618188 0.14145146 0.27417862 -0.041843116 -0.51967144 0.036597177 0.16883595 0.47404245
0.33920264 0.680256 -0.11605747 0.261938 0.13101795 -0.24582593 -0.03585899 -0.23265287
0.3007784 0.16851448 -0.26358998 0.36968806 0.9658402 0.012912436 0.024978338 0.11877565

fc2.bias f4 [64]
00000000: 896a 0a3d c39d 1d3d 619e 79bf 90b2 1340
00000010: f494 693f 0baf f93f beb0 f2bd 5fc8 483f
00000020: bf3b a6bf afd3 a63f fdff 2040 a0fe 0840
00000030: 2004 fdbf 03c9 1040 1f7b bb3f d7ca 9d3c
00000040: 9495 1140 fda5 c63f b06c 2340 34e5 8dbe
00000050: ac5d 9dbf 59a8 21bc b2e6 68bc f891 c0bf
00000060: 5ab1 f73f 80fb 0dbd 3a59 dd3d da67 1bbe
00000070: af2c 0e40 693f 2fbe 3742 d53f a9e9 a63f
00000080: 9c91 cd3f 3433 56bd 3116 19bd f66a 843f
00000090: 6574 5bbf 6fa0 793d 5c61 3a3d c1bd a6bd
000000a0: 80e8 ecbd e9c8 1840 fded 08be 077b 083d
000000b0: 007a 843f 67e2 86bd 82a9 893f 28e0 8f3f
000000c0: 4e97 ecbd 0b37 fcbc 1b2e 55bd 7869 c7bd
000000d0: 2ae7 1640 c85d 4abd 86d0 4c3d 2ee8 1940
000000e0: 3233 2c3f fc9b 523f ebba cabb 2732 2840
000000f0: 39f1 52bc 4fb1 95bd 60ae da3f f58e 5b3d
0.033793006 0.03848053 -0.9750729 2.3077736 0.9124291 1.9506544 -0.11850117 0.7843074
-1.2986983 1.3033351 2.5156243 2.140541 -1.9766884 2.2622688 1.4646949 0.01926176
2.2747545 1.5519406 2.5535088 -0.2771393 -1.2294211 -0.009866797 -0.014215158 -1.5044546
1.9350998 -0.034663677 0.10808034 -0.15176335 2.2214773 -0.17114033 1.6660832 1.3040057
1.6060061 -0.052294925 -0.03737468 1.0345142 -0.8572448 0.060944017 0.045503005 -0.081416614
-0.11567783 2.3872626 -0.13372035 0.033320453 1.0349731 -0.065861516 1.0754855 1.1240282
-0.115522966 -0.030787965 -0.052045923 -0.097369134 2.3578591 -0.049405843 0.05000355 2.4047961
0.6726562 0.82269263 -0.006186833 2.628061 -0.012874895 -0.073092096 1.7084465 0.05360313

fc3.weight f4 [20, 64]
00000000: 7013 8f3d 00d6 923d 05d5 2fbe 29c6 0e3f
00000010: 0664 46bf 2415 9b3e a1a2 243d ac8d 89be
00000020: b19e ccbe c976 9cbc cc22 56bf 5b57 4c3e
00000030: 2865 89be 7bb3 a03e 44c0 cfbe f266 d83d
00000040: c0de 8bbf f641 9dbe f55b fb3e 3e12 d43d
00000050: 7fdf 7ebe e345 f63d ca81 36bd 640f 3e3e
00000060: 8373 4fbd 8c4e a23d b851 6bbd 3c80 60bd
00000070: 0fd8 c63e a289 59bc 04d5 bbbe e008 6bbe
00000080: 0faf f03e 9808 0f3c 1d65 de3b 1ca6 723d
00000090: 5404 e7be 2c6b b13c 187b 963d 970e 49bb
000000a0: c3c9 ccbd a2ff 103f 9c6b e13d f269 38bd
000000b0: e664 9dbd 5c9f 4d3d 4116 6d3e 3071 8b3d
000000c0: 1a12 4ebd a5f3 c23d bb98 8abb d03c 7ebd
000000d0: 276c 0c3f e27e 003e 4e11 493d e399 1a3f
000000e0: d9c4 c53d 0884 8abd 5bc9 9abc 6487 1b3f
000000f0: c7fe 9cbd bc88 f03b e15c db3e e237 b73d
00000100: 2d5c 69bd de00 e93d 6a82 3e3b cad2 053f
00000110: 26c5 36bf 7ae1 a23e c0c6 debd 18ee afbe
00000120: 439f a1bd 0a67 413d c823 5bbf 86db 533e
00000130: 639a b2bd ceaa a43e 2c02 22bf 6610 97bd
00000140: 5289 2dbf e54b c03e 9cd0 0d3f 43a1 9abc
00000150: fefc 4dbe 00da 16bd cd7c c9bd 0a18 b5bd
00000160: 5e3b 42bc e2f4 e73d cd32 dcbb 6d05 c73d
00000170: 5b7c 9f3e 0796 0e3e 7c61 29bf 1c4b 113f
00000180: ec83 923d db34 233e 31fc 56bc 3d06 053e
00000190: 6c49 133e c2ff f6bd 10f2 903c ea81 48bd
000001a0: ca22 743d 1462 0e3f 39d5 1fbe d89b 393d
000001b0: d5da 663e a097 3f3c 60aa 18bd 7755 703d
000001c0: 790d 713d ace1 833d 1f16 90bd 905e 9ebc
000001d0: c35e 253f a870 4fbd 0c6f e23d f6b6 cc3e
000001e0: 2836 56bd 2fd9 403e 40a2 a13d f74a 103f
000001f0: 62e8 7abd 5014 2b3c 7c66 e33e b0c3 f23d
00000200: 3857 99bb 48b0 8fbd 13b4 babe 7a9c 063f
00000210: 5ff4 17bf af4b b63e f887 763d 148d 49be
00000220: f5ce d6be 4770 0f3e cc18 39bf b149 4e3e
00000230: 71a9 e9be 1cef a33e 2298 90be bc5a 233d
00000240: b5f4 31bf f89d a1bd 92ad d83e e1af 07bb
00000250: 0860 5cbd e3d0 33bd 675a cdbd 29d9 babe
00000260: 05fc 873e b8fb b03d 2597 2c3d 3c22 60ba
00000270: ee86 a73e 5fb8 2abd 1b78 1ebf 20b5 5a3e
00000280: 6c81 7fbd 8d69 153c 1274 7c3d 5808 d83d
00000290: 7142 6fbe 001f c1bb b0e5 0b3c 8194 ca3d
000002a0: 9ad1 7bbd ac30 173f 787b b23c 80a5 89ba
000002b0: c193 0dbe c15d 6cbc 2961 6abe 1443 5c3e
000002c0: 31ad 003e 2436 c8bd f0a2 623c 98e4 a53d
000002d0: 5537 f03e 21a5 773d b57a cbbc 210d 033f
000002e0: 474e 43bf a564 b2bd 2c2d a03d 720d 0a3f
000002f0: 57a5 04bc f2dc b83d 5018 133f 40d9 d2bc
00000300: 054d e2bd 7c50 4cbd 506a 0a3e 80fb 083f
00000310: 73e7 cabe f06b db3e f800 1fbd 4363 9dbe
00000320: bdee 76be 5cbe ea3d e943 50bf 1933 853e
00000330: aa4c 83be 7fdf 083e 3333 c2be ee3a e9bd
00000340: dbb9 38bf 8a34 f13d c520 d63e 68a3 b3bd
00000350: ad19 9cbe 7810 a73d 7cc5 623c 6c0d b13e
00000360: df41 d23e 9c5c 5dbd a6a5 ef3a 2c66 9cbd
00000370: 57e3 833e 029c debd 9565 2dbf 2962 0a3e
00000380: af16 3e3e ede6 68bd b419 04bd 4577 3cbe
00000390: bee2 013f 06e4 d1bd 1c39 ef3d 9c2a b1bd
000003a0: 87f6 20bd ad99 0e3f 3942 7fbc 1426 d7bd
000003b0: 9d2b 29bb bcc3 1a3d 686b 01bc a42a 1ebd
000003c0: 67c7 bc3b c3bf c2bd d1e7 b93d cee2 f8bd
000003d0: d270 0b3f 90ac c3bd e0c5 04bc 7c58 fe3e
000003e0: 69f8 2fbe 1e8c 853e 3e38 ccbd 33a7 093f
000003f0: 29f2 c3bd 6032 d73c a29d dd3e a01b f8bc
0.06986129 0.071697235 -0.17171104 0.5577112 -0.77496374 0.30289567 0.040194158 -0.268659
-0.39964822 -0.01909961 -0.83646846 0.19955198 -0.2683499 0.31386933 -0.40576375 0.1056651
-1.0927353 -0.30714387 0.49093595 0.10355042 -0.24889944 0.120250486 -0.04455737 0.18560559
-0.05064727 0.07925138 -0.05745098 -0.054809794 0.38836715 -0.013277443 -0.36685956 -0.22952604
0.4700856 0.008730076 0.006786956 0.059240445 -0.4512049 0.021657549 0.07347697 -0.0030678862
-0.099994205 0.56640065 0.11006853 -0.045022912 -0.076852605 0.050200805 0.2315302 0.06808698
-0.05031023 0.09519128 -0.0042296327 -0.062069714 0.5485253 0.12548402 0.04908877 0.6039106
0.09656686 -0.06763464 -0.018894842 0.60753465 -0.076657824 0.0073405188 0.42844298 0.08946206
-0.05697267 0.113771185 0.0029069432 0.52274764 -0.71394575 0.3181265 -0.10877752 -0.3436134
-0.07891705 0.047217406 -0.8560147 0.2068921 -0.08720853 0.32161564 -0.63284564 -0.07376175
-0.6778766 0.37557903 0.5539644 -0.018875724 -0.2011604 -0.036828995 -0.09838257 -0.08842476
-0.011854975 0.113260046 -0.006719923 0.09717832 0.31149563 0.13924418 -0.66164374 0.5675523
0.07154068 0.15938132 -0.013121651 0.12990661 0.14383477 -0.12060501 0.01769355 -0.04895202
0.05960349 0.55618405 -0.15608682 0.04531464 0.22544415 0.011693865 -0.037271857 0.058675256
0.05885074 0.06439528 -0.07035469 -0.0193322 0.6459772 -0.050644547 0.11056337 0.39983338
-0.05229774 0.18832849 0.07892275 0.5636439 -0.061256774 0.010441855 0.44414127 0.11853731
-0.0046795867 -0.07016045 -0.3646551 0.52582514 -0.59357256 0.35604617 0.060188264 -0.19682723
-0.4195477 0.14007674 -0.7230346 0.20145299 -0.45637086 0.32018363 -0.28241068 0.039881453
-0.6951402 -0.07891458 0.42319924 -0.0020704197 -0.05380252 -0.04390038 -0.100270085 -0.36493805
0.26559463 0.086417615 0.04213633 -0.0008550023 0.3272013 -0.041679736 -0.61902016 0.21358156
-0.062379286 0.009119404 0.06163413 0.105484664 -0.23365189 -0.005893588 0.0085386485 0.09891606
-0.06147919 0.5905864 0.02178739 -0.0010501593 -0.13825895 -0.01442665 -0.22888626 0.21509963
0.12566067 -0.097759515 0.013832793 0.081002414 0.46917215 0.060460214 -0.024838785 0.5119191
-0.76291317 -0.08710603 0.07821116 0.53926766 -0.008096061 0.09026517 0.5745897 -0.025738358
-0.110498466 -0.049881443 0.13517118 0.5350876 -0.39629707 0.42855787 -0.038819283 -0.30739793
-0.24114509 0.114620894 -0.8135362 0.26015547 -0.25644428 0.13366507 -0.37929687 -0.11388193
-0.7215859 0.11777599 0.41821876 -0.08771402 -0.3048834 0.08157438 0.013841029 0.34580553
0.4106588 -0.054043397 0.001828362 -0.07636675 0.25759384 -0.108696 -0.67733127 0.13514008
0.1856334 -0.056860853 -0.032251075 -0.18404873 0.50736606 -0.1024857 0.116808146 -0.08650705
-0.039297607 0.5570324 -0.015579754 -0.1050531 -0.002581335 0.037784323 -0.007899143 -0.038614884
0.0057610753 -0.09509232 0.090774186 -0.121526346 0.54469025 -0.09554398 -0.008103818 0.49676883
-0.17184605 0.26083463 -0.09971665 0.5377075 -0.09567673 0.026269138 0.43284327 -0.03028661

fc3.bias f4 [20]
00000000: 0cd5 1c40 6512 713f 2aac 313f 37c0 253f
00000010: 49d7 1e3f 1cb6 003f aa95 193f af2f fe3e
00000020: 6507 db3e cce7 693e 4c2c 143e 6098 243e
00000030: 40b5 7cbd bed6 773d dd07 ba3d 93af a83d
00000040: 9f3e 353e 413e bfbe 8b0e 94be e2a8 9ebe
2.4505033 0.9416869 0.69403327 0.6474642 0.6204725 0.50277877 0.59993994 0.49645755
0.4277908 0.2284233 0.14470023 0.16073751 -0.06169629 0.06050753 0.09083531 0.08236613
0.1769967 -0.37352183 -0.28917345 -0.30988222

fc1.weight f4 [64, 3]
00000000: 6384 353e 7abe 903e fbbb 5cbe 2cde a0bf
00000010: 5000 013d d246 a7bd ac83 893e 00e1 09bf
00000020: fe2b b9be 0e2e 06bf 1bc8 96bd 4285 0bbc
00000030: f75a d5be dd3b 05bf 0ac9 01bf 1f8a 613d
00000040: 48b3 c53b c208 41be 9158 0a3d b070 e4bc
00000050: 04ba d63d f83d c83d 5db2 093f d050 0e3e
00000060: 1019 c4be 8768 e3be d864 6bbe 6fe9 043e
00000070: 53ba a33e 607d 52bf 49a3 c2bd de63 1e3e
00000080: 6824 16be f271 dfbe 79a5 e1be c05c f5bc
00000090: 8b63 0abf 4d0a 9d3e 2a73 83be 27e2 173d
000000a0: 44a4 543e 0086 113e 06d8 5bbe 324a 84be
000000b0: f86e a4be 51ed abbe 4c8b 0ebe 1d4a d73c
000000c0: 2751 cabe 8914 9d3e 23b2 b03d f7c3 403e
000000d0: 04f0 cabd 7519 03be 50bb 043e 8b7e 0e3f
000000e0: 7156 f03e 1666 10bf 0621 acbe df8c 70be
000000f0: e135 febe 36de ecbe ca1e 70be 9017 38be
00000100: 6b32 58bf 6156 8b3b 9653 4abc 4182 e8be
00000110: 95a2 193c 3375 3e3e 16ff 98be a5a8 db3d
00000120: a7f8 9ebe a4a0 e9be b331 cfbe d283 b8be
00000130: d6ba ba3d 1a82 b93d 4197 91be 3d35 d6be
00000140: 366d aebe a07a 013f cf8c ff3e 9212 1d3e
00000150: ab10 833d 24a4 213e 2e32 d8bd aedc f5be
00000160: 3e8c efbe b896 0dbf 64b6 91be 342d debe
00000170: f9c8 ea3c 7511 48bd 1776 ddbe 344c 8e3c
00000180: 4c20 ad3e bf64 d3be 5de7 513e 3ee0 7d3e
00000190: d44e 193e f543 1d3d f2cd 123f 14a4 d2bd
000001a0: b970 31be 0c07 0b3f a6f9 95be b6e2 10bf
000001b0: 9b76 44be cf17 90bd f969 043e 608d d7bf
000001c0: a252 0e3e 59b3 45be 44ff 5a3e 446a 63be
000001d0: 9cb1 80be 34f7 a2be 1f5b 87be 6645 5cbe
000001e0: ac94 1d3e f0d0 ebbd 16d3 e8be 4992 6fbe
000001f0: ea5a c5be 04d8 0d3d 230c b73e a12b bc3e
00000200: 07da 7c3e a8b0 92bd 5430 d9be 9ef6 eebd
00000210: 3bb6 00be 6c06 d8be 592d 103e 8c78 6a3e
00000220: fde3 c9be 8624 abbe fd78 653e 35f3 803e
00000230: 36dc 943d 511e 25bf ebc7 dbbe 2722 65bd
00000240: 87d0 28bf ddac 32bf 2026 69bc 66f4 673e
00000250: 6ec2 87be 26ad ea3d 8141 b0be 9de8 c5be
00000260: 8a9c 813e 70ec 813e c3b8 00c0 6bef 17be
00000270: 6540 28be e8e0 6f3e 1218 41bf adc6 84bf
00000280: ad45 dabf eec8 f33c 9814 393e 56fa 65be
00000290: 55e8 01bf b056 343d d0ee b53b ad76 96be
000002a0: 6fdf 0ebe edc9 003f 2a51 ea3e 2ee3 81be
000002b0: 21b8 2abe f15c b9bd 8027 e93e c0df 833e
000002c0: 0f46 1cbe c257 b0bd 16a8 af3d 9599 5dbe
000002d0: f495 e53d 8d86 3bbe a71c f73d 4f86 ae3e
000002e0: 9a14 6abe 5866 a5be 2b23 183e a7bd 653e
000002f0: 4580 3dbf 88a7 97bd 1ce4 f5bd a26f 09bf
0.17726283 0.28270322 -0.21556084 -1.2567801 0.03149444 -0.08167805 0.2685827 -0.5385895
-0.36166376 -0.52414024 -0.07362386 -0.008515658 -0.41670963 -0.5204447 -0.50697386 0.055063363
0.006033335 -0.18850997 0.03377587 -0.027885765 0.104846984 0.097774446 0.53787786 0.13898015
-0.3830037 -0.44415686 -0.22987688 0.12979673 0.31978092 -0.8222256 -0.095038004 0.15467784
-0.14662325 -0.4364162 -0.44071558 -0.029951453 -0.5405814 0.3067192 -0.256738 0.03708091
0.20765787 0.14211273 -0.21469125 -0.25837857 -0.32115912 -0.33579496 -0.13920325 0.026280457
-0.3951504 0.3067973 0.08627727 0.18824755 -0.099090606 -0.1280268 0.12962079 0.5566184
0.4694095 -0.5640577 -0.33618945 -0.23491238 -0.4965048 -0.46263283 -0.23449245 -0.17977738
-0.8445193 0.0042522405 -0.01234903 -0.45411876 0.0093771415 0.18599395 -0.29882115 0.10725526
-0.31049082 -0.45630372 -0.40467605 -0.3603807 0.091176674 0.09058018 -0.2843571 -0.41837493
-0.34067696 0.50577736 0.49912116 0.15339115 0.063996635 0.15785271 -0.10556446 -0.48019928
-0.46786684 -0.55308104 -0.28459466 -0.43393862 0.028660284 -0.048844773 -0.43254158 0.01737032
0.33813703 -0.412878 0.20498414 0.24792573 0.14971477 0.038394887 0.573455 -0.10285202
-0.17328157 0.5430763 -0.2929203 -0.56595933 -0.1918587 -0.07035791 0.1293105 -1.6840019
0.1389871 -0.19306697 0.21386439 -0.22208506 -0.25135505 -0.31829226 -0.26436707 -0.21510848
0.15388745 -0.11514461 -0.45473546 -0.23395647 -0.38545924 0.034629837 0.35751447 0.36752036
0.24692546 -0.07162601 -0.42419684 -0.11668132 -0.12569515 -0.421924 0.14079799 0.22897547
-0.39431754 -0.33426303 0.22409435 0.25185552 0.072685644 -0.64499384 -0.42925963 -0.055940773
-0.6594319 -0.6979502 -0.014230281 0.22651824 -0.26515526 0.11458807 -0.34424976 -0.38654032
0.25314742 0.253757 -2.011277 -0.14837424 -0.16430815 0.23425639 -0.75427353 -1.0373131
-1.7052513 0.029758897 0.18074262 -0.22458777 -0.50745136 0.044027984 0.0055521503 -0.29387417
-0.1395242 0.50308114 0.45765048 -0.25368637 -0.16671802 -0.0905093 0.4553795 0.25756645
-0.152611 -0.086104885 0.08576982 -0.21640618 0.11210242 -0.18313046 0.12066012 0.34086844
-0.22859421 -0.32304645 0.14857166 0.22435628 -0.7402385 -0.07405001 -0.12006399 -0.53685963

fc1.bias f4 [64]
00000000: f21d 9440 d22f 323f 5484 253e 8780 113f
00000010: 64b2 ed3f ef49 5240 5c17 7140 9e46 1d40
00000020: 6071 3f3e 36bf 89be 2ea8 6440 825b 3640
00000030: 4304 29bf b740 d4bf 007c 77bc eeb6 3c40
00000040: 0824 5e40 b58b 85bf 6fab 2fc0 908c 5c3e
00000050: 6ed0 6140 3b00 29bf 017d 80bf b7cf 22c0
00000060: ca5e b7be 677d 3f40 87ea 8040 6ca1 2640
00000070: 0508 9a40 d09e ee3e e337 1840 9547 05c0
00000080: 2342 7b40 9e4d f73f 0e97 58bd 08b0 313e
00000090: 7ced 7440 dfbe 58bf f30d febe 70ed 36be
000000a0: a6de b73e c74d 2e40 61e0 25c0 d8e7 083f
000000b0: e4cf 8cc0 209d b33e 49cc f7bf cfa0 7d40
000000c0: 56da 3340 e778 6240 65e1 88c0 1873 bbbc
000000d0: c7e1 66bf caab 56c0 0877 ad3e c943 7940
000000e0: ef85 c3bf bfd4 7040 e232 3940 7e58 3c40
000000f0: bcb1 6040 7d3a 0fbf b038 3c40 5800 97be
4.6286554 0.6960422 0.1616376 0.5683674 1.8570065 3.2857625 3.7670507 2.4574351
0.18695593 -0.26903695 3.5727649 2.8493352 -0.6602213 -1.6582249 -0.0151052475 2.9486651
3.4709492 -1.043326 -2.7448385 0.21537995 3.5283465 -0.66015977 -1.0038148 -2.543928
-0.35814506 2.992029 4.028629 2.6036024 4.813479 0.4660554 2.378411 -2.082494
3.9259117 1.9320562 -0.052878432 0.17352307 3.826995 -0.84666246 -0.49620017 -0.17864013
0.35912055 2.7234972 -2.59182 0.53478765 -4.4003773 0.35080814 -1.9359218 3.96294
2.8102012 3.5386293 -4.277514 -0.02288203 -0.9018826 -3.3542352 0.33879876 3.8947623
-1.5275248 3.762985 2.8937306 2.9429011 3.510848 -0.5594862 2.94096 -0.2949245

fc2.weight f4 [64, 64]
00000000: 7366 96bd dfbe 4b3c 4f38 66bd 58f4 9b3d
00000010: 1f49 08be 022e b1bc f96f a6bc 094e d6bd
00000020: 54c8 54bd 3a85 fdbd 7411 ad3d 47de 113d
00000030: 29be c2bd 24b3 84bd b4be 813d f124 733c
00000040: 65a1 f7bd 7c37 ecbc 3242 1ebc 962a d73d
00000050: 62c8 14bd 9c22 84bd 28a2 553d 64c1 8e3d
00000060: 24de 55bd 90cc 12be 8b59 f4bd c21f 27be
00000070: d0cf a5bd 1abf c63d d8ab 723d 89f1 13bd
00000080: 2289 7db8 bb67 e23c 8428 59be c080 923c
00000090: 99ac 09bd dc21 edbc 6c89 293d fc02 f03d
000000a0: 0f8b 6fbd 3e76 a3bd 32e2 d83c 485a 313d
000000b0: 728e 01be b83c d73d fc84 0dbe dd9c 98bd
000000c0: 8e84 c93c aa4a 8bbd fbfe 6abd 845a b43d
000000d0: 8860 7abd e8b5 b7bc 58ae 81bc 6068 08be
000000e0: f144 8abc 6223 a93a f1ab 9cbd c2a7 9ebd
000000f0: 8b51 a03b a069 e83d dabf 8bb9 a036 743d
00000100: d5d7 af3d 16fd 06be cc77 093d 9b7a f53c
00000110: 3a78 b1bd 8b2d fd3c 24af 98bd b177 92bc
00000120: a0c4 b2bb 38f4 36be b694 56bd 481b 82bc
00000130: 56d9 353d 47e0 bebd b04b af3d 14bb bcbd
00000140: 1c50 98bb 2287 a83c 22d8 6e3d 1975 d6bd
00000150: edc3 98bc 1603 06bd 4613 49bd 998a 1dbe
00000160: 9e39 ca3d 5403 313d a172 e8bb caf3 ad3d
00000170: c9f3 593d decd a63d 425e 27bd db6a bd3c
00000180: ae59 cebd cc43 95bd 767b 1cbe 24ee bebd
00000190: 9758 c23d 3237 27bd e6d8 ccbd f03b e83d
000001a0: 8823 d6bc b6c9 b5bd 24d5 c3bd dcbf 003d
000001b0: da53 81bd 03b2 febd 6c3e d53c 49d2 13be
000001c0: bcf5 d8bd c946 dfbd ad21 993d 3cca c33d
000001d0: e649 ad3d 8a57 9f3d 708e c7bc b9d5 b6bd
000001e0: 6b14 16be ebd5 15be d531 70bc 2870 fabd
000001f0: 40e1 94bd ecf3 0bbd f7f8 533c de25 c83d
00000200: ccbb 963f 174d dabd 5067 9c3c 3d15 103e
00000210: 4226 cdbd b028 a0be d5d6 b4bf e101 c3be
00000220: a046 0d3d bfea 54be 5596 9a3f 7f73 b7bf
00000230: 92ac 3abd 250a 8e3d cbb0 ce3d 5e77 ccbf
00000240: ec39 a8be 2d97 f6bd 79f7 2b3e 8632 c93d
00000250: 4a6b 81be 8554 b53c 4a5a 8b3e 1226 5d3e
00000260: d6a0 ba3d 0973 82be 5b09 83be f509 a3be
00000270: 4093 9c3f d821 8dbc d336 7f3e e937 b03e
00000280: afda 21bf e89b d7be 70d2 9dbe a465 f1bd
00000290: 5451 aabf dc94 96be 6ee9 dfbd 809b ed3d
000002a0: 70b9 3e3d 60ec d53d 58cb 303d b308 163d
000002b0: 707a e83e cc4e a7bd 4170 c03c fe2f bfbe
000002c0: 06d6 06be b67d 43bf a66f d33e f135 e93e
000002d0: 0e32 083e c30d 2a3e bec7 ee3d e151 373f
000002e0: 133e 0a3d abe6 adbe c726 99bd 9d6d 1dbf
000002f0: 7115 a1bf 1b90 bcbd 1910 26bf 4cdd cbbd
00000300: be2f bcbf 0253 1fbe ae9b 8abd 9065 003d
00000310: 51f7 30bf dc79 d5bc 57f2 633f b9c9 de3e
00000320: b0ac 2f3c 013b 99be ca30 53bf a56b d03e
00000330: a2b8 debd 2adb 0b3d 30d9 1bbd 9359 6b3f
00000340: 2878 323f f7f1 08bd 8021 873e 7fab 11bc
00000350: 38e8 603f ec75 d0bd 1045 c23c e337 c83c
00000360: f007 e6bc 23c4 603f 5115 b23e 7372 ec3e
00000370: a6bb fcbf 049b 343d 93c3 243e cc05 e4bd
00000380: f995 8d3f 64da c33c 1037 29bd 30d3 b7bd
00000390: 3506 c83f 8edd 87ba 9add a63d c01d dd3c
000003a0: e5f0 ed3d f56f 283e d93e 8a3e b063 2bbd
000003b0: 8059 0abf ece6 153d 9f7d 2d3e 290a ec3e
000003c0: 4b92 a53e 9d84 2f3f ee73 00be 82c0 863e
000003d0: 8d6c f03d a5bc 7bbe e0e0 12bd 0e45 88be
000003e0: 3a12 973e 3818 353e d7f6 89be e3da af3e
000003f0: 92d4 783f e78e 533c aaa6 e43b a640 f33d
-0.073437594 0.012435644 -0.056206044 0.07614964 -0.13309143 -0.021628384 -0.020317065 -0.10464103
-0.05194886 -0.123789266 0.084505945 0.03561237 -0.095089264 -0.06479481 0.06335202 0.0148403505
-0.120913304 -0.02883505 -0.009659337 0.105061695 -0.036323912 -0.06451914 0.052156597 0.0697048
-0.052213803 -0.14335847 -0.119311415 -0.16320708 -0.08096278 0.097044185 0.059245914 -0.036119018
-6.0447615e-05 0.027637353 -0.21206862 0.017883658 -0.033611868 -0.02894681 0.04139082 0.11719319
-0.058482226 -0.07981537 0.026475046 0.04329899 -0.12651995 0.10509628 -0.13820261 -0.07451794
0.02459934 -0.068013504 -0.057372075 0.08806327 -0.061127216 -0.022425607 -0.015830204 -0.13321066
-0.016878577 0.0012904222 -0.07649983 -0.07746841 0.004892533 0.11348271 -0.00026655087 0.059622407
0.085860886 -0.13182482 0.033561513 0.02996569 -0.086655095 0.030905506 -0.074552804 -0.017879339
-0.0054555684 -0.178666 -0.052387916 -0.01588215 0.04439672 -0.09320121 0.08559358 -0.0921537
-0.0046482217 0.020572249 0.05831159 -0.10471553 -0.018648112 -0.032717787 -0.049090646 -0.15384902
0.09874271 0.043216065 -0.007093743 0.08493765 0.053211007 0.08144735 -0.040861376 0.023122242
-0.10075699 -0.07288322 -0.15281472 -0.093227655 0.094895534 -0.040824123 -0.100023076 0.11339557
-0.02613999 -0.08876364 -0.09562138 0.03143297 -0.063148215 -0.12436297 0.026030742 -0.14435686
-0.10593745 -0.10902173 0.07477126 0.095600575 0.08461361 0.077803686 -0.024359912 -0.08927483
-0.14656226 -0.14632384 -0.014660318 -0.12228423 -0.072695255 -0.03416817 0.012937776 0.097728476
1.1776061 -0.10659235 0.019092232 0.14070602 -0.10017063 -0.31281042 -1.4128062 -0.3808737
0.03449118 -0.20792674 1.2077128 -1.4332122 -0.045574732 0.06935529 0.10092314 -1.5973928
-0.3285669 -0.12040553 0.16793622 0.0982409 -0.25277168 0.022135029 0.27217323 0.21596554
0.09112708 -0.2547839 -0.25593075 -0.31843534 1.2232437 -0.017228052 0.24923258 0.34417656
-0.6322431 -0.42111135 -0.30824614 -0.117869645 -1.3306069 -0.29410446 -0.10933195 0.11601925
0.046563566 0.104454756 0.043162674 0.03662939 0.45405912 -0.08169326 0.023491027 -0.37341303
-0.13167581 -0.76363695 0.41296118 0.45548967 0.13300344 0.16606812 0.116591915 0.7160931
0.033750605 -0.33965048 -0.07478099 -0.6149538 -1.2584668 -0.092071734 -0.64868313 -0.099543184
-1.470207 -0.15559009 -0.06767975 0.031346858 -0.69127375 -0.026059084 0.89041656 0.43513277
0.010722324 -0.2992783 -0.8249632 0.40707126 -0.1087506 0.034144558 -0.038048923 0.91933554
0.69714594 -0.03343388 0.26392746 -0.0088909855 0.8785434 -0.10178742 0.023714572 0.024440711
-0.028079957 0.8779928 0.34781888 0.46181068 -1.9744766 0.044093147 0.1609023 -0.11133918
1.1061393 0.023907848 -0.041312277 -0.08975828 1.5626894 -0.0010365711 0.08147736 0.026991725
0.116182126 0.16448958 0.27001074 -0.041843116 -0.54042816 0.036597177 0.16942452 0.46101502
0.32338175 0.68561727 -0.12544224 0.26318747 0.117394544 -0.24583681 -0.03585899 -0.26615185
0.29506093 0.1768502 -0.26946136 0.34346685 0.97199357 0.012912489 0.0069778757 0.11877565

fc2.bias f4 [64]
00000000: 006c 0a3d ada5 1d3d 057e 78bf 91bd 1340
00000010: 2dd6 6c3f 9a57 fa3f c1af f2bd 2225 543f
00000020: 0038 a6bf 88d5 a63f e041 2040 31f7 0840
00000030: 5204 fdbf 2952 1140 f901 bc3f 01cd 9d3c
00000040: 4ff4 1040 9084 c73f f4a0 2340 bce2 8dbe
00000050: b95b 9dbf 65a5 21bc e9e3 68bc 3b88 c0bf
00000060: 928a f43f 80fb 0dbd be5a dd3d b867 1bbe
00000070: 6479 0d40 e83d 2fbe 5d70 d63f c4e2 a93f
00000080: 2ebe cb3f b132 56bd f615 19bd c73f 783f
00000090: 9961 5bbf 06a5 793d 6965 3a3d 19be a6bd
000000a0: 44e7 ecbd 7d95 1840 30ed 08be e77b 083d
000000b0: e716 843f bee1 86bd f482 883f ed17 903f
000000c0: 3c95 ecbd 4935 fcbc f82c 55bd 7d69 c7bd
000000d0: 08b7 1640 675b 4abd 38d4 4c3d 11da 1940
000000e0: 4333 343f b59c 523f 28b9 cabb 5f29 2840
000000f0: beee 52bc dbae 95bd b2b3 da3f b591 5b3d
0.033794403 0.03848808 -0.9706729 2.3084452 0.92514306 1.9557984 -0.11849929 0.8286916
-1.298584 1.3033915 2.5040207 2.1400874 -1.9766943 2.2706397 1.4688102 0.019262793
2.2649114 1.558733 2.5566988 -0.27712047 -1.2293617 -0.009866093 -0.014214494 -1.5041574
1.9104788 -0.034663677 0.10808323 -0.15176284 2.210534 -0.17113459 1.675304 1.3272328
1.5917413 -0.052294437 -0.03737446 0.96972317 -0.856958 0.060948394 0.04550687 -0.08141727
-0.11567548 2.384124 -0.1337173 0.033321287 1.0319489 -0.06586026 1.0664964 1.1257302
-0.11551902 -0.030787127 -0.05204484 -0.09736917 2.3549213 -0.049403574 0.050007075 2.4039347
0.7039072 0.82270366 -0.006186623 2.627525 -0.012874303 -0.07308742 1.7086089 0.053605754

fc3.weight f4 [20, 64]
00000000: 6d13 8f3d 00d6 923d c2c7 33be 7778 0f3f
00000010: 49c3 49bf bfe0 9b3e eea6 243d dd27 8dbe
00000020: 70a1 ccbe 2879 9cbc 7877 55bf 6c65 4e3e
00000030: 4766 89be aa37 a03e 9b60 10bf f266 d83d
00000040: e463 89bf 767f 5dbe 4bdc fc3e cf0f d43d
00000050: e3e0 7ebe bc45 f63d 3685 36bd ed0e 3e3e
00000060: 5fe2 083d 8c4e a23d ea54 6bbd 5983 60bd
00000070: 9dd0 c53e 2c8a 59bc 1787 b2be 400a 02be
00000080: 0954 d73e 9c0b 0f3c 4768 de3b 92a3 123d
00000090: 6f03 e7be 9a68 b13c e27d 963d 5d0f 49bb
000000a0: 68cc ccbd aff2 113f 9c6b e13d 7f6d 38bd
000000b0: f899 ab3c 5c9f 4d3d fd94 f93d d26d 8b3d
000000c0: 8914 4ebd f1f0 c23d f996 8abb d33c 7ebd
000000d0: ff93 0d3f 017d 003e 4513 493d 59b1 1a3f
000000e0: a562 103e 7183 8abd 8fc7 9abc 0f3c 1c3f
000000f0: e001 9dbd de8c f03b 11c8 dd3e e237 b73d
00000100: 005d 69bd de00 e93d 0099 79bb a61b 053f
00000110: 3000 35bf 9797 a13e efc9 debd e252 b0be
00000120: 7ca1 a1bd 4f6a 413d 84e5 56bf 67a6 4b3e
00000130: 4b99 b2bd fdf6 a83e 4aee 1ebf 6610 97bd
00000140: d020 2cbf e53a b23e d5c9 0d3f 7fa0 9abc
00000150: 0101 4ebe a3db 16bd a680 c9bd ec19 b5bd
00000160: 4741 1d3d a0f5 e73d c535 dcbb ec03 c73d
00000170: 471a 9e3e 6d96 0e3e c81b 27bf cb9a 113f
00000180: 9f2b 1b3e d633 233e d1fd 56bc d2b2 723d
00000190: 9149 133e c2ff f6bd 10f2 903c bd82 48bd
000001a0: da22 743d 723b 0e3f 8bd4 1fbe d89b 393d
000001b0: d798 683e a097 3f3c 6d55 b2bc 165a 703d
000001c0: c80d 713d 34e0 833d 2519 90bd 905e 9ebc
000001d0: 6da3 253f 3470 4fbd 8c6f e23d f456 cc3e
000001e0: 4023 e735 c7d9 403e 40a2 a13d 0f8f 103f
000001f0: 3fe9 7abd 5014 2b3c 2c8b e43e b0c3 f23d
00000200: 5d58 99bb 48b0 8fbd ef62 b6be 86df 063f
00000210: 1b6f 18bf b89f b73e 2588 763d 5c90 46be
00000220: d9d2 d6be 466d 0f3e 933a 3ebf db6a 723e
00000230: 3aa7 e9be b902 c83e 11f7 80be e65a 233d
00000240: c845 37bf 0ec6 01be 7242 d93e dfac 07bb
00000250: be60 5cbd cbd1 33bd f15c cdbd b2d6 babe
00000260: 0c36 873e b8fb b03d 3696 2c3d 9925 60ba
00000270: 310e ac3e bdb5 2abd 28d7 20bf e903 5e3e
00000280: 0ff8 053b 8b68 153c ca73 7c3d 0092 1e3d
00000290: d640 6fbe 001f c1bb b0e5 0b3c 1792 ca3d
000002a0: a0d3 7bbd d829 173f f27d b23c 80a5 89ba
000002b0: c673 08be 8b5e 6cbc c119 64be 6545 5c3e
000002c0: e1ab 003e 8438 c8bd 54a2 623c 98e4 a53d
000002d0: 821c f03e 4da5 773d 9078 cbbc 3ec6 043f
000002e0: fbf2 0fbf 9b62 b2bd 2c2d a03d 5b8b 0a3f
000002f0: 6ba7 04bc f2dc b83d 2137 133f 40d9 d2bc
00000300: 634c e2bd 7c50 4cbd 54bc 0e3e ad0d 0c3f
00000310: 9cfb cfbe 488f e23e f800 1fbd ed64 a4be
00000320: 9cf1 76be 93bc ea3d 11b0 56bf 3adc 963e
00000330: aa4f 83be fa6d 4e3e f81a a8be ee3a e9bd
00000340: f7a7 41bf 0616 1a3e 4fd5 db3e eca2 b3bd
00000350: 8017 9cbe 0814 a73d 7cc5 623c c10e b13e
00000360: 1390 a93e 9c5c 5dbd 67a6 ef3a 8769 9cbd
00000370: 6634 8f3e 109b debd b690 32bf 488e 443e
00000380: 4ed6 ef3d e9e3 68bd cb1a 04bd 45fb d8bd
00000390: 7ae0 013f 06e4 d1bd 0639 ef3d 012e b1bd
000003a0: 83f9 20bd cb57 113f 8c42 7fbc 1426 d7bd
000003b0: 6586 b5bb bcc3 1a3d 7cfb f6bb c22a 1ebd
000003c0: b3ca bc3b 10c2 c2bd 50ec b93d cee2 f8bd
000003d0: df0c 0e3f 72ac c3bd e0c5 04bc f2db 033f
000003e0: dbb2 06be fd89 853e 3e38 ccbd 79d9 0c3f
000003f0: a9f6 c3bd 8134 d73c 2777 e33e a01b f8bc
0.06986127 0.071697235 -0.1755667 0.5604319 -0.78813607 0.30444905 0.04019826 -0.27569476
-0.39966917 -0.01910074 -0.8338542 0.20155877 -0.26835844 0.31292468 -0.5639741 0.1056651
-1.0733609 -0.21630654 0.4938682 0.10354578 -0.24890475 0.120250195 -0.044560634 0.18560381
0.03341901 0.07925138 -0.057454027 -0.054812763 0.38635722 -0.013277572 -0.3486869 -0.12699223
0.420563 0.008730795 0.006787333 0.035800524 -0.45119807 0.021656323 0.07348229 -0.0030679323
-0.09999925 0.5701093 0.11006853 -0.0450263 0.020947441 0.050200805 0.121866204 0.06808056
-0.050312553 0.09518612 -0.004229423 -0.062069725 0.5530395 0.12547685 0.049090642 0.6042686
0.1410013 -0.06763352 -0.018893985 0.6102914 -0.07666373 0.0073410114 0.433167 0.08946206
-0.056973457 0.113771185 -0.003808558 0.51995313 -0.7070341 0.31560966 -0.108783595 -0.34438235
-0.07892129 0.047220524 -0.83943963 0.19887696 -0.087206446 0.33000937 -0.6208235 -0.07376175
-0.6723757 0.34810558 0.55386096 -0.018875359 -0.2011757 -0.036830556 -0.09838991 -0.08842835
0.03839233 0.11326146 -0.006720277 0.09717545 0.30879423 0.1392457 -0.65276766 0.5687682
0.15153359 0.15937743 -0.013122038 0.059252568 0.14383532 -0.12060501 0.01769355 -0.048952807
0.05960355 0.55559456 -0.15608422 0.04531464 0.22714554 0.011693865 -0.02176925 0.058679663
0.058851033 0.06439248 -0.07036046 -0.0193322 0.6470249 -0.050644115 0.11056432 0.3991009
1.72211e-06 0.18833075 0.07892275 0.5646829 -0.061257597 0.010441855 0.4463743 0.11853731
-0.004679723 -0.07016045 -0.35622355 0.5268482 -0.59544533 0.35864043 0.06018843 -0.19391006
-0.4195774 0.14006528 -0.7430813 0.23673575 -0.45635396 0.39064577 -0.25188497 0.03988161
-0.7159085 -0.12673208 0.42433506 -0.0020702404 -0.053803198 -0.043901246 -0.10027493 -0.36491925
0.26408422 0.086417615 0.04213544 -0.00085505244 0.33604577 -0.041677225 -0.628283 0.21681179
0.0020442044 0.009119163 0.061633863 0.038713455 -0.23364577 -0.005893588 0.0085386485 0.09891146
-0.06148112 0.59048223 0.021788571 -0.0010501593 -0.13325414 -0.014426838 -0.2227545 0.21510847
0.12565567 -0.097764045 0.013832647 0.081002414 0.4689675 0.060460377 -0.024837762 0.51864994
-0.56230134 -0.08710214 0.07821116 0.5411889 -0.008096556 0.09026517 0.57505995 -0.025738358
-0.11049726 -0.049881443 0.13939029 0.5470837 -0.4062165 0.4424994 -0.038819283 -0.3210825
-0.24115604 0.11461749 -0.83862406 0.29464895 -0.25646716 0.2015914 -0.32833076 -0.11388193
-0.7564692 0.15047464 0.4293618 -0.08771309 -0.3048668 0.081581175 0.013841029 0.3458157
0.33117732 -0.054043397 0.0018283845 -0.07637315 0.27969664 -0.108694196 -0.6975206 0.19194901
0.11710797 -0.056857977 -0.032252114 -0.10594801 0.5073315 -0.1024857 0.11680798 -0.08651353
-0.039300453 0.56774586 -0.015579831 -0.1050531 -0.0055397027 0.037784323 -0.0075373035 -0.038614996
0.0057614683 -0.09509671 0.09078276 -0.121526346 0.5548839 -0.09554376 -0.008103818 0.51507485
-0.13154165 0.2608184 -0.09971665 0.55019337 -0.09568531 0.026270153 0.44426844 -0.03028661

fc3.bias f4 [20]
00000000: 33d7 1c40 f646 6e3f a66c 2e3f f30a 213f
00000010: a597 213f 6944 013f 7b82 143f 307d f93e
00000020: 23f0 e33e 2fee 633e 8a5d fd3d c9ca 1e3e
00000030: 11c0 77bd 654c a43d 27cb 013e ee7b a53d
00000040: 0385 0a3e 2736 d1be eb74 9cbe 5d1e 9ebe
2.4506347 0.9307703 0.68134534 0.6290733 0.63122016 0.5049501 0.580116 0.48728323
0.44519147 0.22258829 0.12371357 0.15507044 -0.060485903 0.080223836 0.12675153 0.08080278
0.13527302 -0.40861627 -0.3055795 -0.3088254

exp_avg f4 [64, 3]
00000000: a040 9ac2 f70e aec2 06fd c6c2 0400 0000
00000010: 0400 0000 0400 0000 0000 0000 0000 0000
00000020: 0000 0000 0400 0000 0400 0000 0400 0000
00000030: 0400 0000 0400 0000 0400 0000 624e 12c2
00000040: b968 07c2 dc24 54c2 92f3 48bf 7537 1641
00000050: 1493 3843 7f54 0941 4be9 4841 f6ad b342
00000060: 0000 0000 0000 0000 0000 0000 c1a9 f7be
00000070: 80bf 14c0 6f3f ffbe 62d0 1ec2 9097 1dc2
00000080: b987 57c2 cc22 fb3c 424b 8e3d 1789 0040
00000090: 8ba0 c43d 9a1b f23d ca61 493e 0151 6f41
000000a0: 1e69 8841 4bfb 3d42 0000 0000 0000 0000
000000b0: 0000 0000 4128 3dbe 63e3 bf40 0b98 1b43
000000c0: 9bf8 a1c0 51ff 443e 13f2 c142 0400 0000
000000d0: 0400 0000 0400 0000 9dbe ed41 2d15 1142
000000e0: 8dd5 dc42 0000 0000 0000 0000 0000 0000
000000f0: f088 ae37 1c89 de3b 9473 843c 0400 0000
00000100: 0400 0000 0400 0000 0400 0000 0400 0000
00000110: 0400 0000 1dba bf3e 348c 183f 89ad 1741
00000120: 0000 0000 0000 0000 0000 0000 6689 36c1
00000130: 6c7c d9c0 d973 ac42 f302 983a 67b2 bcba
00000140: 5803 983a e7a1 4841 7d01 8741 5315 da42
00000150: 9cde cac2 c484 fdc2 30e1 81c3 0000 0000
00000160: 0000 0000 0000 0000 4410 b63f 1bce 1b3f
00000170: ca07 9841 0400 0080 0400 0000 0400 0000
00000180: 90c6 963f ea51 5241 287f 5343 2e5d 1b3f
00000190: 2832 343f f4a7 9941 2457 cdbf d6ce f6be
000001a0: a0f6 4ac0 0000 0000 0000 0000 0000 0000
000001b0: 4f8d aac0 b037 3741 2d97 8a43 0400 0000
000001c0: 0400 0000 0400 0000 0000 0000 0000 0000
000001d0: 0000 0000 0000 0000 0000 0000 0000 0000
000001e0: 0000 0000 0000 0000 0000 0000 3cd7 d33e
000001f0: b98b a23e 4b05 b640 0d19 ab41 aaad ca41
00000200: b70b a542 0000 0000 0000 0000 0000 0000
00000210: 8588 cbbe 7c7d 5e3d e4b6 89c2 0000 0000
00000220: 0000 0000 0000 0000 abed 2541 0cbb 2841
00000230: 18de e241 e9ad b43d 01c8 293e a730 4340
00000240: 543b bf3c bc1a 9dbb 0aae 173e aceb aebe
00000250: e3ab e440 72e8 0743 5c00 e740 4366 8640
00000260: 471d 3842 0400 0000 0400 0000 0400 0000
00000270: 175e bcbe dcc2 0bc0 6031 bbbe 0400 0080
00000280: 0400 0080 0400 0000 0000 0000 0000 0000
00000290: 0000 0000 21ed c3c1 e648 ddc1 4a70 e3c1
000002a0: 7856 e141 92a1 0842 6cd7 eb42 8e8a cebf
000002b0: 4091 a1c0 94ee 11c0 17f6 97c0 cb12 adc0
000002c0: 79f9 8041 9f57 e4c0 1517 0ac1 f80a 12c1
000002d0: b55f debf 8965 0d41 029d 2943 0400 0000
000002e0: 0400 0000 0400 0000 8eea 03c0 49be 9bc0
000002f0: 38ee 04c0 0000 0000 0000 0000 0000 0000
-77.12622 -87.02923 -99.49419 6e-45 6e-45 6e-45 0.0 0.0
0.0 6e-45 6e-45 6e-45 6e-45 6e-45 6e-45 -36.576546
-33.85227 -53.035995 -0.7849666 9.388539 184.57452 8.583129 12.556956 89.83977
0.0 0.0 0.0 -0.483717 -2.3241882 -0.49853083 -39.7035 -39.39801
-53.88254 0.03065624 0.06947948 2.0083673 0.09600934 0.11821671 0.1966621 14.957276
17.051327 47.495403 0.0 0.0 0.0 -0.18472387 5.996507 155.59392
-5.0615973 0.1923802 96.9728 6e-45 6e-45 6e-45 29.718073 36.27068
110.41709 0.0 0.0 0.0 2.0806183e-05 0.006791247 0.016168393 6e-45
6e-45 6e-45 6e-45 6e-45 6e-45 0.3744668 0.59588933 9.479867
0.0 0.0 0.0 -11.408545 -6.796438 86.226265 0.0011597559 -0.001439643
0.0011597676 12.539527 16.875727 109.04165 -101.434784 -126.75931 -259.75928 0.0
0.0 0.0 1.4223714 0.60861367 19.003803 -6e-45 6e-45 6e-45
1.1779346 13.144999 211.4967 0.60689056 0.7038903 19.207008 -1.6042218 -0.48204678
-3.1713028 0.0 0.0 0.0 -5.3297496 11.451096 277.18106 6e-45
6e-45 6e-45 0.0 0.0 0.0 0.0 0.0 0.0
0.0 0.0 0.0 0.41375148 0.31747225 5.688146 21.387232 25.334797
82.52288 0.0 0.0 0.0 -0.39752594 0.05431889 -68.85721 0.0
0.0 0.0 10.370524 10.545666 28.358444 0.08822233 0.16580202 3.0498445
0.02334372 -0.0047944468 0.14812484 -0.34164178 7.1459823 135.90799 7.218794 4.199983
46.02859 6e-45 6e-45 6e-45 -0.36790535 -2.1837683 -0.36561108 -6e-45
-6e-45 6e-45 0.0 0.0 0.0 -24.490786 -27.660595 -28.429829
28.167221 34.157784 117.920746 -1.6136034 -5.0489807 -2.2801867 -4.7487903 -5.408544
16.121813 -7.135696 -8.630635 -9.127678 -1.7372957 8.837289 169.61331 6e-45
6e-45 6e-45 -2.061191 -4.866978 -2.0770397 0.0 0.0 0.0

exp_avg_sq f4 [64, 3]
00000000: 9056 4d47 b2e0 3847 8526 3f48 090b aa22
00000010: 0c44 bf26 0855 4a25 0000 0000 0000 0000
00000020: 0000 0000 f401 0000 f401 0000 f401 0000
00000030: a83d 7024 cd3d 7025 a83d 7024 cda2 7745
00000040: fe6a 8045 3887 fb45 8efd ea44 c8fd 7445
00000050: d820 8248 391a 9a44 c064 bd44 db95 3247
00000060: 0000 0000 0000 0000 0000 0000 770d 8b41
00000070: 605b 8243 3517 d341 42d7 cd45 3de1 fa45
00000080: 2002 b246 5d1e 2d40 56c2 6540 4eb1 6245
00000090: 2a61 f83f 961f 1e42 7b54 0641 16c9 e844
000000a0: b9a3 e944 df2f 7946 0000 0000 0000 0000
000000b0: 0000 0000 da43 f041 faf6 6644 28ab bd47
000000c0: f102 7e43 d697 6044 9751 a047 fc26 7c38
000000d0: 8da4 3837 d5a4 9738 7ef2 0846 08b9 0b46
000000e0: e3de b047 0000 0000 0000 0000 0000 0000
000000f0: a2ce 423e 8c5e 093f bad6 1841 f401 0000
00000100: f401 0000 0325 2800 f401 0000 f401 0000
00000110: f401 0000 4a34 a243 a1ce 1642 facc 3f45
00000120: 0000 0000 0000 0000 0000 0000 b45d b443
00000130: 4170 8644 7661 b247 a04b a03d 9456 313f
00000140: 4fe2 8d3e 2475 eb44 bacf 0745 353b 6047
00000150: c10b ae47 f14b af47 5b40 1149 0000 0000
00000160: 0000 0000 0000 0000 380b bd41 67c8 9e41
00000170: e048 8745 f401 0000 f401 0000 9808 0000
00000180: e98d 2645 7733 9f45 7020 9f48 6e8f de41
00000190: 7351 f541 a541 e344 ecf6 e641 c505 5141
000001a0: a171 c842 0000 0000 0000 0000 0000 0000
000001b0: e2d6 8145 b851 1246 446a 2049 977d 2031
000001c0: b934 4135 a928 c733 0000 0000 0000 0000
000001d0: 0000 0000 0000 0000 0000 0000 0000 0000
000001e0: 0000 0000 0000 0000 0000 0000 642f b442
000001f0: 0c30 d941 5266 4445 9225 7545 c5da 7c45
00000200: b874 1f47 0000 0000 0000 0000 0000 0000
00000210: 4ed7 bd42 7550 4f43 47f5 2747 0000 0000
00000220: 0000 0000 0000 0000 c7a3 1144 aa85 1544
00000230: a8ae 6045 e144 a93f b60f 0740 3a3b 1245
00000240: ca99 ce3c 774b 313d 5fb5 b643 7014 7a44
00000250: 978f 0345 2a17 0948 e726 8e43 ebd6 3d44
00000260: 1a35 4647 c4c7 3435 c5e7 1d31 d28f 9a35
00000270: 9cca 1b3f 5a27 1f42 3cb4 643f e723 5925
00000280: 444c 2325 b7ea 582e 0000 0000 0000 0000
00000290: 0000 0000 d276 2145 ee63 9245 328a 5e45
000002a0: 1560 e845 3717 ee45 df0d a947 d8af 3d41
000002b0: 0f68 0643 fcb7 fa42 4202 9f44 d026 8c44
000002c0: 4c0d 1446 451a 2d43 3d16 ca43 3f31 9543
000002d0: c90b dd44 f62b 6245 ad5c 6248 f401 0000
000002e0: f401 0000 f401 0000 e617 6442 eeba e243
000002f0: 1acc b642 0000 0000 0000 0000 0000 0000
52566.562 47328.695 195738.08 4.6090276e-18 1.3271731e-15 1.7549517e-16 0.0 0.0
0.0 7e-43 7e-43 7e-43 5.209393e-17 2.083762e-16 5.209393e-17 3962.175
4109.374 8048.9023 1879.9236 3919.8613 266502.75 1232.8195 1515.1484 45717.855
0.0 0.0 0.0 17.381575 260.71387 26.386332 6586.907 8028.155
22785.062 2.7049782 3.5899863 3627.0815 1.9404652 39.530846 8.395625 1862.2839
1869.1163 15947.968 0.0 0.0 0.0 30.03313 923.859 97110.31
254.01149 898.37244 82083.18 6.011779e-05 1.1005567e-05 7.2309434e-05 8764.623 8942.258
90557.77 0.0 0.0 0.0 0.19024137 0.5365989 9.5524235 7e-43
7e-43 3.686697e-39 7e-43 7e-43 7e-43 324.4085 37.701786 3068.811
0.0 0.0 0.0 360.73206 1075.5079 91330.92 0.07826924 0.6927273
0.27711722 1883.6606 2172.983 57403.207 89111.51 89751.88 594949.7 0.0
0.0 0.0 23.630478 19.847853 4329.1094 7e-43 7e-43 3.083e-42
2664.8694 5094.433 325891.5 27.820034 30.66477 1818.0514 28.870567 13.063909
100.22193 0.0 0.0 0.0 4154.8604 9364.43 657060.25 2.3354454e-09
7.1974824e-07 9.274056e-08 0.0 0.0 0.0 0.0 0.0 0.0
0.0 0.0 0.0 90.09256 27.14846 3142.395 3922.3481 4045.673
40820.72 0.0 0.0 0.0 94.92052 207.31429 42997.277 0.0
0.0 0.0 582.559 598.0885 3594.916 1.3224145 2.110334 2339.7017
0.025219817 0.04328486 365.41696 1000.31934 2104.9744 140380.66 284.30392 759.3581
50741.1 6.734592e-07 2.2978253e-09 1.1515751e-06 0.6085603 39.78843 0.89337516 1.8833914e-16
1.4163836e-16 4.9321183e-11 0.0 0.0 0.0 2583.4263 4684.491 3560.6372
7436.0103 7618.902 86555.74 11.855431 134.40648 125.359344 1272.0706 1121.2129
9475.324 173.10262 404.17374 298.38474 1768.3683 3618.7476 231794.7 7e-43
7e-43 7e-43 57.02334 453.4604 91.398636 0.0 0.0 0.0
