beer/experiments/vanilla_DQN/eps_0.10/models/dqn_agent_firm_1_episode_2000.pth (torch, 101224 bytes, 24 tensors)

fc1.weight f4 [64, 3]
0.37233007 -0.47329247 -0.3761721 0.061230473 0.14092901 -0.16031857 -0.24002498 -0.33300138
-0.5076332 -0.030566156 -0.27646872 -0.17765221 -0.11748665 -0.37038025 0.08714525 0.52750075
0.16557132 0.010299736 -0.6066208 0.07564204 0.08233271 -0.42756283 -0.35128158 -0.27772418
-0.45933104 -0.56787294 -0.19231728 0.09160569 0.478498 0.339713 -0.23362923 -0.099963635
0.06280504 0.75235486 0.668674 0.37056914 -0.3860703 0.0007712841 -0.49093246 -0.32565653
-0.23507936 0.3992014 -0.436668 -0.27376446 0.3434672 -0.4950119 -0.19737017 -0.50543016
0.02491638 0.46924728 0.109048925 -0.26277947 0.20069894 0.18563755 -0.17955256 -0.037703216
-0.345461 -0.29425055 -0.1864194 0.11968031 0.08718376 0.029278638 0.007927578 -0.4586876
0.19840823 0.28054485 -0.37470207 0.06570843 0.11605023 0.17693682 -0.08920381 0.18507692
-0.402183 -0.5605325 -0.19013736 -0.52674866 -0.39713487 0.22867194 -0.20019299 -0.5288697
-0.15022174 -0.22299033 -0.5696594 -0.02404219 -0.3099598 -0.28002372 0.049673785 0.5638823
0.23301229 0.27747145 -0.27914253 -0.430772 -0.11198419 0.17931706 0.34052834 -0.13918711
-0.09818897 -0.27876014 -0.07131153 -0.44894862 -0.04341513 -0.41020888 0.05502428 -0.8274506
0.12338466 -0.25161287 -0.39021933 -0.555527 0.013416591 -0.4065264 0.23512264 -0.47266412
-0.26955885 -0.39031887 0.4248045 0.40896222 -0.2950203 0.2441445 -0.21365197 0.044912606
-0.17909987 0.014015422 0.0026034957 -0.38478413 -0.24004456 0.14570469 -0.24541758 0.25769907
0.10055664 0.013859235 0.19498155 0.11824769 0.5066954 -0.9753611 -0.18619439 -0.2044196
-0.19177872 0.05945887 0.24400514 -0.8025514 0.18760458 0.1753689 -0.42471972 0.15430105
0.17085516 0.12731263 -0.1400001 -0.048366416 -0.6132554 0.19304597 -0.2131672 0.28477183
0.04224831 -0.50673443 -0.28156027 0.19555923 -0.52072316 -0.36848006 0.21841587 0.7193071
-0.32432818 0.08320497 -0.09889567 -0.082062036 -0.27116847 0.174922 0.055238046 0.32115206
0.055150602 -0.3888944 0.13526125 -0.096051656 -0.40185076 0.15109684 -0.028924646 0.16082427
0.08573526 0.25116295 0.13740657 -0.40956673 0.7300647 0.15348892 0.3208129 0.039423466
-0.50283104 -0.50826013 -0.20490956 0.10155718 0.048354946 -0.019600332 -0.08423391 -0.23184156
00000000: 0ca2 be3e 6453 f2be a199 c0be cecc 7a3d
00000010: b24f 103e 8d2a 24be 1cc9 75be 287f aabe
00000020: 40f4 01bf e065 fabc 4f8d 8dbe 76ea 35be
00000030: d79c f0bd 7ba2 bdbe 3579 b23d 4a0a 073f
00000040: 878b 293e 39c0 283c 804b 1bbf 37ea 9a3d
00000050: 0d9e a83d 84e9 dabe 2edb b3be dd31 8ebe
00000060: 702d ebbe 1f60 11bf d2ee 44be c49b bb3d
00000070: b1fd f43e ddee ad3e 803c 6fbe bcb9 ccbd
00000080: ee9f 803d 549a 403f 382e 2b3f 3dbb bd3e
00000090: 02ab c5be 0030 4a3a 805b fbbe 74bc a6be
000000a0: a5b8 70be 2064 cc3e f392 dfbe db2a 8cbe
000000b0: efda af3e 3372 fdbe 681b 4abe df63 01bf
000000c0: 701d cc3c 2e41 f03e 0b55 df3d 088b 86be
000000d0: 0684 4d3e c517 3e3e a0dc 37be b06e 1abd
000000e0: 44e0 b0be 02a8 96be bae4 3ebe f31a f53d
000000f0: 668d b23d c1d9 ef3c ace2 013c 1ad9 eabe
00000100: 872b 4b3e 93a3 8f3e f3d8 bfbe 2492 863d
00000110: beab ed3d ed2e 353e 7db0 b6bd ce84 3d3e
00000120: eeea cdbe 0f7f 0fbf 5eb3 42be 00d9 06bf
00000130: 4355 cbbe fa28 6a3e 64ff 4cbe 0164 07bf
00000140: bad3 19be 9457 64be 33d5 11bf 20f4 c4bc
00000150: 0db3 9ebe 455f 8fbe bd76 4b3d 975a 103f
00000160: c69a 6e3e bd10 8e3e c5eb 8ebe 268e dcbe
00000170: f857 e5bd e49e 373e bb59 ae3e 1187 0ebe
00000180: 4c17 c9bd a6b9 8ebe c80b 92bd 98dc e5be
00000190: 10d4 31bd e606 d2be 2461 613d cdd3 53bf
000001a0: 19b1 fc3d 67d3 80be d4ca c7be 0437 0ebf
000001b0: 43d1 5b3c 3a24 d0be fdc3 703e 0801 f2be
000001c0: 9e03 8abe e0d7 c7be fa7f d93e 7f63 d13e
000001d0: e70c 97be 0401 7a3e 95c7 5abe 48f6 373d
000001e0: f565 37be f1a0 653c 699f 2a3b 6d02 c5be
000001f0: 3ece 75be 9c33 153e bf4e 7bbe 22f1 833e
00000200: a4f0 cd3d d811 633c 3ea9 473e d82b f23d
00000210: cab6 013f 44b1 79bf bea9 3ebe 5f53 51be
00000220: a461 44be 258b 733d 7cdc 793e 0274 4dbf
00000230: 6a1b 403e e893 333e dd74 d9be 1801 1e3e
00000240: a8f4 2e3e 3e5e 023e 305c 0fbe dd1b 46bd
00000250: 4efe 1cbf d8ad 453e 8148 5abe 9dcd 913e
00000260: 900c 2d3d 59b9 01bf ab28 90be ae40 483e
00000270: 1d4e 05bf 6ba9 bcbe 69a8 5f3e 8324 383f
00000280: 580e a6be 5e67 aa3d d089 cabd 2410 a8bd
00000290: 98d6 8abe c11e 333e 4a41 623d 0b6e a43e
000002a0: 99e5 613d 2b1d c7be ed81 0a3e bbb6 c4bd
000002b0: 62bf cdbe 21b9 1a3e 61f3 ecbc 1eaf 243e
000002c0: f895 af3d 6e98 803e 4fb4 0c3e bbb2 d1be
000002d0: 85e5 3a3f 332c 1d3e 9741 a43e 807a 213d
000002e0: 89b9 00bf 561d 02bf d0d3 51be 36fd cf3d
000002f0: d60f 463d e090 a0bc d482 acbd e067 6dbe

fc1.bias f4 [64]
0.4266789 3.394806 -0.01986152 -0.20790693 4.007336 3.1936617 4.140618 0.13723826
0.116098166 -1.6303204 -3.9224038 -3.4223483 -0.10710332 -1.4576981 3.1387615 0.33642048
2.6585104 3.1833472 0.51214755 -3.9761329 4.230135 2.6471264 3.2205057 1.1709763
0.4110679 -3.3064673 -0.24270493 0.03413737 4.7752943 -2.1835558 -0.17744938 2.5263836
0.40574056 0.36630076 -3.1627688 0.33785868 2.3890126 -0.018494725 1.8871589 4.238862
-0.3828717 -3.908034 0.4709386 1.0920715 1.1098869 3.7395358 2.9391272 4.5233464
4.2764945 -2.2163124 3.7468448 -3.330893 -4.414423 3.335247 0.3618073 2.1823924
-3.7376986 -3.85489 3.081044 3.4897099 -2.8857164 0.10254121 3.6086357 -0.2583643
00000000: a875 da3e 8044 5940 a0b4 a2bc 8ee5 54be
00000010: 193c 8040 f464 4c40 f17f 8440 3088 0c3e
00000020: e0c4 ed3d 57ae d0bf aa08 7bc0 c107 5bc0
00000030: fc58 dbbd da95 babf 78e1 4840 4e3f ac3e
00000040: 0925 2a40 f6bb 4b40 1a1c 033f f678 7ec0
00000050: 445d 8740 856a 2940 c41c 4e40 8de2 953f
00000060: 7e77 d23e 299d 53c0 a487 78be a0d3 0b3d
00000070: 36cf 9840 61bf 0bc0 4ab5 35be 45b0 2140
00000080: 3abd cf3e c68b bb3e ce6a 4ac0 d0fb ac3e
00000090: 95e5 1840 4082 97bc 6c8e f13f c2a4 8740
000000a0: c207 c4be 3b1d 7ac0 dd1e f13e 00c9 8b3f
000000b0: c610 8e3f 8e54 6f40 a91a 3c40 41bf 9040
000000c0: 0bd9 8840 10d8 0dc0 4ecc 6f40 5a2d 55c0
000000d0: f442 8dc0 b074 5540 ce3e b93e 51ac 0b40
000000e0: 7436 6fc0 85b6 76c0 d32f 4540 6857 5f40
000000f0: 94af 38c0 2001 d23d e3f3 6640 5348 84be

fc2.weight f4 [64, 64]
0.12060474 0.11940645 0.103784025 -0.04440038 0.022972956 0.009952962 -0.085865974 -0.011648402
0.0030416697 0.06071514 -0.12194976 -0.07461816 -0.042449936 0.050754488 0.1021215 0.054652214
-0.058800414 -0.10324907 -0.035811216 0.033671767 -0.06897281 0.061327994 -0.024406314 0.03140378
-0.08966459 -0.07298577 -0.12361108 -0.01858829 -0.11653766 -0.11270793 -0.03404376 -0.092240065
0.10635446 -0.0854342 0.025025517 -0.08871062 -0.04255873 -0.016686618 0.08468346 -0.024044216
-0.004942268 -0.07790133 0.027865306 -0.10666032 -0.029969096 -0.048475444 -0.11364113 -0.11150262
0.117335305 0.11650121 -0.10932699 0.0827578 0.06486523 0.107891485 -0.12379941 -0.095787376
-0.05039768 0.123765305 -0.11748627 -0.017633587 -0.052129522 -0.019243255 0.071170315 0.043460757
0.062202867 -0.038975794 -0.0701946 -0.0014039725 0.05888529 0.032753903 -0.1390027 -0.11861454
0.07822886 -0.13783947 -0.010547496 0.075632036 -0.040561005 -0.087815724 0.0067954073 0.11371283
0.05281859 0.055401895 0.03777866 0.021225525 -0.14384745 -0.12470687 -0.03726772 0.005967778
-0.10282773 0.044692654 0.019509077 -0.10380009 -0.13131961 -0.15523173 0.05260536 -0.16259035
-0.10117991 -0.0012677014 -0.06879166 0.021013036 -0.026689712 -0.04726015 -0.005999575 -0.0971852
-0.051626943 0.073100485 -0.06539805 -0.0457657 0.03793328 -0.0956691 -0.048011623 0.0484834
-0.13444722 -0.009495812 -0.22857563 -0.07832501 0.02114581 0.11292036 -0.07759227 -0.060271494
0.06902003 0.050517123 0.062007364 -0.12230919 -0.012504017 0.00095917284 0.051571097 -0.057143122
0.077618144 1.398448 0.12440187 -0.081219584 0.6100339 -0.21450944 0.5097917 0.040744126
0.007270202 -0.37536758 -0.35851145 -0.61324143 -0.09300105 -0.18791091 0.50461143 -0.0028250366
-0.20773412 -0.15173455 0.035500243 -0.21193577 0.16464597 0.060379144 0.15938558 -0.20724054
0.053506255 0.14645264 0.05563885 -0.10234998 1.1720188 -0.61356926 -0.00050599873 0.68696845
-0.10864702 -0.117167786 -0.0008251476 -0.059302747 0.36635232 -0.101889566 -0.185829 0.22185019
-0.061517198 0.13226788 -0.16272293 -0.081510216 0.10945332 0.8881958 0.44015783 0.40628693
2.1233866 -0.7021762 0.025556358 0.022111611 0.36938816 -0.1931394 0.06630406 -0.2335363
0.30707106 0.13023987 0.04687983 1.9523522 -0.5736672 -0.09632389 0.09027627 0.08101021
0.107937686 0.48387465 -0.11763908 0.09397517 0.05390438 -0.37089843 0.35858026 0.021185517
0.057831645 0.023034021 -0.19086145 -0.3095723 0.11946827 0.19074915 0.2640906 0.103584185
-0.06802684 0.17382583 -0.046109974 -0.0409028 0.022759527 0.040664047 0.087957606 0.051894438
-0.09557715 0.25290206 0.061880514 -0.020881772 0.666091 -0.055713702 0.07853849 -0.19444542
0.0659644 0.115807414 0.08639398 0.08348931 -0.04386302 -0.016881153 -0.91351247 0.23642862
-0.046135735 0.076199785 0.12864381 -0.17143482 0.020172972 0.28919685 0.08311678 0.17047149
0.41356426 0.16467246 0.12696005 0.15147994 -0.003200117 -0.24568309 0.021559477 0.103874
0.16813527 -0.008519809 -0.006841436 0.47476146 -0.18617785 -0.058162853 -0.035134114 0.08945878
00000000: 9eff f63d 5e8b f43d b88c d43d 2cdd 35bd
00000010: c831 bc3c c011 233c 80da afbd f0d8 3ebc
00000020: c056 473b 70b0 783d ccc0 f9bd 68d1 98bd
00000030: fcdf 2dbd f0e3 4f3d 1425 d13d 00db 5f3d
00000040: b4d8 70bd 4074 d3bd c8ae 12bd 68eb 093d
00000050: 9e41 8dbd 1033 7b3d c0ef c7bc 40a1 003d
00000060: 12a2 b7bd 9079 95bd ce27 fdbd 7846 98bc
00000070: 4cab eebd 6ad3 e6bd 7871 0bbd 5ce8 bcbd
00000080: 5ed0 d93d 20f8 aebd 5002 cd3c eaad b5bd
00000090: 1052 2ebd 60b2 88bc 866e ad3d 60f8 c4bc
000000a0: c0f2 a1bb bc8a 9fbd c845 e43c ba70 dabd
000000b0: c081 f5bc 308e 46bd aebc e8bd 7c5b e4bd
000000c0: 7e4d f03d 3098 ee3d d4e6 dfbd ec7c a93d
000000d0: 10d8 843d 36f6 dc3d 8c8a fdbd 2c2c c4bd
000000e0: cc6d 4ebd aa78 fd3d a49c f0bd 5074 90bc
000000f0: c485 55bd 08a4 9dbc bec1 913d e803 323d
00000100: 6fc8 7e3d 15a5 1fbd 30c2 8fbd 8005 b8ba
00000110: b431 713d f528 063d b956 0ebe 2eec f2bd
00000120: 7436 a03d ca25 0dbe 68cf 2cbc f8e4 9a3d
00000130: 4c23 26bd bbd8 b3bd 02ac de3b 46e2 e83d
00000140: 4e58 583d 19ed 623d ccbd 1a3d 27e1 ad3c
00000150: bf4c 13be 5166 ffbd 09a6 18bd 5a8d c33b
00000160: 5897 d2bd a50f 373d 80d1 9f3c 2495 d4bd
00000170: a678 06be 11f5 1ebe b878 573d 167e 26be
00000180: 6a37 cfbd 0029 a6ba a4e2 8cbd 8823 ac3c
00000190: 62a4 dabc dc93 41bd 1598 c4bb 0909 c7bd
000001a0: c676 53bd b5b5 953d 6aef 85bd d174 3bbd
000001b0: ed5f 1b3d 29ee c3bd d6a7 44bd 8896 463d
000001c0: 88ac 09be 5294 1bbc bb0f 6abe dd68 a0bd
000001d0: fa39 ad3c ca42 e73d b2e8 9ebd 3edf 76bd
000001e0: 605a 8d3d 0beb 4e3d 6ffb 7d3d 3e7d fabd
000001f0: a6dd 4cbc 0071 7b3a 373c 533d e80e 6abd
00000200: 43f6 9e3d 5800 b33f 68c6 fe3d 7456 a6bd
00000210: 2f2b 1c3f 5da8 5bbe b581 023f 50e3 263d
00000220: e03a ee3b 2e30 c0be d08e b7be 64fd 1cbf
00000230: 5677 bebd b86b 40be 372e 013f 4024 39bb
00000240: 41b8 54be 4d60 1bbe b468 113d b105 59be
00000250: f498 283e 1f50 773d f935 233e dd36 54be
00000260: 6029 5b3d aef7 153e 90e5 633d de9c d1bd
00000270: b604 963f e012 1dbf 00a5 04ba 2add 2f3f
00000280: 5482 debd aaf5 efbd b84e 58ba 70e7 72bd
00000290: 8892 bb3e 7aab d0bd f549 3ebe b22c 633e
000002a0: 75f9 7bbd 3b71 073e d7a0 26be d4ee a6bd
000002b0: 1029 e03d cd60 633f 5e5c e13e d704 d03e
000002c0: 91e5 0740 d2c1 33bf 915b d13c 6923 b53c
000002d0: 7220 bd3e 56c6 45be 6cca 873d 2424 6fbe
000002e0: 6b38 9d3e 9a5d 053e 1105 403d ade6 f93f
000002f0: dbdb 12bf 7645 c5bd c4e2 b83d aee8 a53d
00000300: 6f0e dd3d 6bbe f73e c2ec f0bd 0e76 c03d
00000310: d7ca 5c3d 66e6 bdbe d597 b73e 408d ad3c
00000320: e0e0 6c3d d8b1 bc3c 2f71 43be 4380 9ebe
00000330: c8ab f43d bf53 433e e236 873e f223 d43d
00000340: a851 8bbd 66ff 313e d0dd 3cbd b289 27bd
00000350: 3072 ba3c 588f 263d 1e23 b43d 438f 543d
00000360: f4bd c3bd 617c 813e 6c76 7d3d 4010 abbc
00000370: f184 2a3f 0d34 64bd cad8 a03d b31c 47be
00000380: 5818 873d 702c ed3d 54ef b03d 72fc aa3d
00000390: b6a9 33bd 584a 8abc f4db 69bf 581a 723e
000003a0: d3f8 3cbd a20e 9c3d 34bb 033e 9c8c 2fbe
000003b0: ca41 a53c 9c11 943e 2139 aa3d 1490 2e3e
000003c0: b2be d33e e69f 283e d101 023e 8f1d 1b3e
000003d0: 0eb9 51bb 5994 7bbe 809d b03c e4bb d43d
000003e0: a72b 2c3e ab96 0bbc 202e e0bb ef13 f33e
000003f0: 68a5 3ebe 2c3c 6ebd cae8 0fbd 2a36 b73d

fc2.bias f4 [64]
0.04751405 0.07167268 0.84056765 1.4463723 0.012799579 -0.060823712 0.03322389 1.6139946
0.029051548 2.2194288 -0.019971976 1.5670385 0.06866864 0.018827999 2.3255136 2.0342402
2.6241868 -2.4194896 -0.055424944 2.7854369 2.4859047 0.95012593 2.1489475 0.0012844652
2.8429182 -0.030866886 -0.11790904 1.2278214 -0.12747224 0.10065098 -0.12346071 0.90795094
2.2783446 -0.057579353 0.010763997 -2.351483 -0.120538265 -0.029160213 1.1051304 2.2586849
0.06962857 -0.05947182 -0.008149033 -0.14333414 0.0057708547 1.6506258 2.7037325 2.1411226
0.70326495 0.029387727 2.3301332 1.2063841 -1.4430282 0.11203256 -0.11318512 0.0675852
0.8629475 0.44756556 1.1437938 2.0496087 1.9568906 1.004847 1.7115846 1.5233549
00000000: 189e 423d 20c9 923d 712f 573f ba22 b93f
00000010: 53b5 513c 4922 79bd c615 083d 6097 ce3f
00000020: 83fd ed3c 1f0b 0e40 459c a3bc b894 c83f
00000030: 25a2 8c3d 2d3d 9a3c 37d5 1440 fe30 0240
00000040: adf2 2740 ebd8 1ac0 4405 63bd 9944 3240
00000050: 1019 1f40 743b 733f 5b88 0940 805b a83a
00000060: 5ff2 3540 8ddc fcbc 4b7a f1bd 4029 9d3f
00000070: 1588 02be 1a22 ce3d f8d8 fcbd 796f 683f
00000080: 66d0 1140 54d8 6bbd 7a5b 303c b37e 16c0
00000090: c4dc f6bd 66e1 eebc ea74 8d3f 4b8e 1040
000000a0: 6c99 8e3d b998 73bd 8683 05bc 2fc6 12be
000000b0: 7019 bd3b b547 d33f f409 2d40 2708 0940
000000c0: 2c09 343f 88be f03c e720 1540 cb6a 9a3f
000000d0: 26b5 b8bf 5471 e53d 9acd e7bd 1c6a 8a3d
000000e0: 21ea 5c3f 5027 e53e d667 923f ca2c 0340
000000f0: 647b fa3f d49e 803f 3415 db3f 4bfd c23f

fc3.weight f4 [20, 64]
0.012497827 -0.09545825 -0.2560472 -0.0062596207 -0.05414746 -0.092315204 -0.067825325 -0.9296845
-0.051741347 -0.9576899 -0.02718623 -0.015696876 0.0107908845 0.014947877 0.701331 0.07623166
0.5644898 -0.47015733 -0.04423573 0.52790993 -1.9292752 0.72502124 0.45293322 0.04704693
0.5924265 -0.06016989 -0.05825274 -0.22101785 0.063755766 -0.034374125 0.08653042 -0.01150851
0.6417964 0.019006537 -0.01234749 -0.54769194 0.07601674 -0.022253396 0.04341485 0.5979083
-0.074996896 0.049070776 -0.050382033 -0.07471341 -0.07305575 -0.121520214 0.39059404 0.22409263
-0.15772328 -0.029228553 0.3518451 0.4401937 -0.085919484 0.110510275 -0.062143877 -0.027827427
-0.19313902 0.05185692 -0.08489181 0.27910852 0.22159496 0.2619224 0.32636696 0.51939464
0.04548116 -0.06677709 0.04789439 0.09606709 -0.072546534 -0.08076547 -0.022606984 -0.83294976
0.11973526 -0.63356656 0.00078114466 -0.0010509812 -0.06859756 0.025449473 0.5945256 0.031326342
0.65701735 -0.10975207 0.005024049 0.5286501 -1.1921085 -0.20581985 0.42766687 0.07696238
0.463032 0.06363426 -0.06350552 -0.6545134 0.06004224 0.042286716 -0.02848348 0.15178923
0.59068763 0.014680636 -0.048033282 -0.005236695 -0.09892069 0.1012415 -0.0210939 0.38592982
0.13121395 0.0817358 0.10625555 -0.12083341 0.061991483 -0.2600821 0.41478717 0.20040494
-0.09499792 0.022753403 0.29625338 0.111068904 0.019914635 -0.0709866 -0.06218259 0.09266654
-0.18167561 0.24766427 -0.5544259 0.1628127 0.19157156 -0.0958214 0.28823066 0.68474704
-0.1186655 -0.038042083 -0.39366174 0.034953542 -0.049553238 -0.10421583 -0.011933193 -0.93095964
0.11804713 -0.50923204 -0.027972749 0.2344783 -0.001283735 -0.04660865 0.43579614 0.12291062
0.5873876 -0.23218532 0.04376555 0.47961244 -0.9499607 -0.10041983 0.20787768 -0.016109034
0.48626167 -0.0075565726 0.11680553 -0.31747743 -0.06478963 -0.1069326 0.09679875 0.34523326
0.5198804 0.025678484 -0.03992173 -0.30079532 -0.119481 -0.018850172 -0.060120013 0.61239296
-0.097527504 -0.00947442 -0.010753001 0.08608344 -0.06289498 -0.3920105 0.39418113 0.32702097
-0.08021257 0.020411417 0.26150367 -0.06562724 -0.119079374 0.056932896 0.09541662 -0.09426637
-0.24378443 0.40278465 -0.34501806 0.2756165 0.20953602 0.16533023 0.39023823 0.35140613
0.052653804 -0.05955001 -0.42008275 0.009740532 -0.06504397 -0.051169936 -0.113774806 -1.1620581
-0.08037992 -0.7070729 0.04490895 0.10511365 0.10497461 0.08493504 0.48394427 0.24386314
0.43520838 -0.21954417 -0.013831271 0.5311656 -0.89138925 -0.30026346 0.3128458 0.10997009
0.44835097 -0.073344335 0.031154614 -0.4861069 0.1404347 0.11217711 0.03727846 -0.06863643
0.6798195 -0.06712539 -0.08450432 -0.2703096 -0.08781041 -0.05746191 0.27584323 0.41858286
0.13795952 -0.029921666 0.03687444 0.105642885 -0.040988177 -0.15190564 0.4520794 0.31459916
-0.14274663 -0.1000652 0.2016608 -0.017565865 -0.111002505 0.100821465 -0.0789725 -0.0734202
-0.13074191 0.26310247 -0.24686712 0.3303551 0.31077996 0.4656349 0.3229792 0.6450228
00000000: b0c3 4c3c 9d7f c3bd 9e18 83be 811d cdbb
00000010: bac9 5dbd c10f bdbd 01e8 8abd ceff 6dbf
00000020: bcee 53bd 2a2b 75bf a8b5 debc bc96 80bc
00000030: 40cc 303c f1e7 743c 6e8a 333f 581f 9c3d
00000040: 6782 103f 76b8 f0be 8630 35bd 1b25 073f
00000050: 7df2 f6bf fe9a 393f dde6 e73e 48b4 403d
00000060: 43a9 173f b474 76bd 6d9a 6ebd 8152 62be
00000070: 6292 823d e2cb 0cbd dc36 b13d 318e 3cbc
00000080: c54c 243f 99b3 9b3c 204d 4abc 8a35 0cbf
00000090: aaae 9b3d c14c b6bc c5d3 313d 8510 193f
000000a0: f997 99bd 70fe 483d 645d 4ebd 5803 99bd
000000b0: 419e 95bd 97df f8bd f1fb c73e 8a78 653e
000000c0: 3682 21be b870 efbc 0a25 b43e 1261 e13e
000000d0: 8ef6 afbd 3653 e23d 948a 7ebd 58f6 e3bc
000000e0: 3cc6 45be ec67 543d c2db adbd 50e7 8e3e
000000f0: cae9 623e b11a 863e 9219 a73e 0cf7 043f
00000100: 744a 3a3d 6dc2 88bd e82c 443d d3be c43d
00000110: 4793 94bd 5e68 a5bd 4832 b9bc 323c 55bf
00000120: c337 f53d 6b31 22bf bbc5 4c3a 14c1 89ba
00000130: e17c 8cbd 6a7b d03c d432 183f 0d50 003d
00000140: 4a32 283f b1c5 e0bd c7a0 a43b 9d55 073f
00000150: 0397 98bf 70c2 52be 27f7 da3e 749e 9d3d
00000160: 8812 ed3e ae52 823d 2f0f 82bd 318e 27bf
00000170: daee 753d d634 2d3d 3056 e9bc a36e 1b3e
00000180: 4e37 173f 0d87 703c 8cbe 44bd 9598 abbb
00000190: ee96 cabd b457 cf3d 1dcd acbc 9898 c53e
000001a0: f35c 063e 1965 a73d 839c d93d 8277 f7bd
000001b0: c8ea 7d3d 7b29 85be fc5e d43e f436 4d3e
000001c0: 458e c2bd 5865 ba3c 86ae 973e 1878 e33d
000001d0: 0424 a33c 6c61 91bd 2cb3 7ebd f4c7 bd3d
000001e0: 2c09 3abe b49b 7d3e dbee 0dbf 5fb8 263e
000001f0: 562b 443e 033e c4bd f892 933e 954b 2f3f
00000200: e606 f3bd 04d2 1bbd 088e c9be 722b 0f3d
00000210: 56f8 4abd 1c6f d5bd 7083 43bc 5f53 6ebf
00000220: b2c2 f13d 085d 02bf 1b27 e5bc 141b 703e
00000230: 0043 a8ba b6e8 3ebd ac20 df3e 90b8 fb3d
00000240: 095f 163f fdc1 6dbe 8143 333d c38f f53e
00000250: a030 73bf e9a8 cdbd e3dd 543e 18f7 83bc
00000260: 4af7 f83e 209d f7bb bd37 ef3d 678c a2be
00000270: 6db0 84bd 7bff dabd 6c3e c63d 6ac2 b03e
00000280: e216 053f af5b d23c f884 23bd d801 9abe
00000290: 74b2 f4bd ad6b 9abc 6740 76bd c9c5 1c3f
000002a0: 80bc c7bd 993a 1bbc 5b2d 30bc 844c b03d
000002b0: 15cf 80bd 9ab5 c8be 1cd2 c93e 4b6f a73e
000002c0: 7d46 a4bd d835 a73c cfe3 853e 9367 86bd
000002d0: e3df f3bd 7832 693d ca69 c33d ba0e c1bd
000002e0: a0a2 79be ca39 ce3e 35a6 b0be 9b1d 8d3e
000002f0: 9c90 563e 544c 293e 4ecd c73e 81eb b33e
00000300: 84ab 573d b6ea 73bd 1615 d7be c196 1f3c
00000310: c635 85bd 9197 51bd c402 e9bd 52be 94bf
00000320: 3a9e a4bd bb02 35bf 72f2 373d d345 d73d
00000330: eefc d63d 6cf2 ad3d 8bc7 f73e 42b7 793e
00000340: a2d3 de3e 30d0 60be 8e9c 62bc 78fa 073f
00000350: 1632 64bf 22bc 99be 532d a03e 0038 e13d
00000360: 428e e53e 8e35 96bd f637 ff3c 01e3 f8be
00000370: 1dce 0f3e 1dbd e53d 4cb1 183d 4291 8cbd
00000380: a708 2e3f 0979 89bd 9a10 adbd 0566 8abe
00000390: f2d5 b3bd 2e5d 6bbd 533b 8d3e 7e50 d63e
000003a0: 4345 0d3e 481e f5bc a709 173d 4c5b d83d
000003b0: 38e3 27bd 278d 1bbe f376 e73e 2413 a13e
000003c0: 2c2c 12be fcee ccbd 2b80 4e3e 4ae6 8fbc
000003d0: 4855 e3bd 7c7b ce3d 56bc a1bd 545d 96bd
000003e0: 35e1 05be 5eb5 863e bcca 7cbe 4e24 a93e
000003f0: 8d1e 9f3e b367 ee3e 885d a53e 3720 253f

fc3.bias f4 [20]
1.8261871 1.0044966 1.0463386 0.8354014 0.6884384 0.5763546 0.18842758 0.5310237
0.35062224 0.22756611 0.16760477 0.032629367 0.05839386 -0.05340207 0.15009065 -0.020464953
-0.06084854 -0.21782292 -0.49911976 -0.40605897
00000000: 80c0 e93f 5893 803f 6cee 853f dedc 553f
00000010: 803d 303f fa8b 133f 29f3 403e 2bf1 073f
00000020: c284 b33e 1707 693e 96a0 2b3e 5fa6 053d
00000030: 662e 6f3d 21bc 5abd 5db1 193e 1ea6 a7bc
00000040: 523c 79bd f90c 5fbe a08c ffbe f6e6 cfbe

fc1.weight f4 [64, 3]
0.37234008 -0.4732819 -0.37615487 0.0438905 0.15482327 -0.16169591 -0.24002498 -0.33300138
-0.5076332 -0.030566156 -0.27646872 -0.17765221 -0.07124467 -0.34949365 0.0912965 0.5373224
0.167689 0.0053725867 -0.59426665 0.09629168 0.08417727 -0.42756453 -0.35128158 -0.27772418
-0.45933422 -0.56787294 -0.19231728 0.09039073 0.47946128 0.33730516 -0.18831323 -0.1043343
0.06953667 0.7547202 0.67315614 0.36803406 -0.3860703 0.00077129056 -0.49093246 -0.33477893
-0.23549995 0.40698674 -0.42433935 -0.26183644 0.34940997 -0.4950119 -0.19737017 -0.50543016
0.033614192 0.4789648 0.107533954 -0.25484112 0.21229064 0.18898503 -0.17955387 -0.037703216
-0.345461 -0.27301356 -0.18061723 0.12705323 0.08570521 0.026606563 0.0027465238 -0.4684092
0.20411843 0.28133795 -0.35613132 0.08126036 0.11943113 0.18419081 -0.08840372 0.18816316
-0.402183 -0.5605325 -0.19013736 -0.5251489 -0.38920733 0.23106958 -0.20019299 -0.5288697
-0.15022174 -0.2229913 -0.5696594 -0.024042403 -0.33664197 -0.2856373 0.04341051 0.5682682
0.23909324 0.2793916 -0.27914253 -0.430772 -0.11198419 0.19017203 0.33151194 -0.15401264
-0.09818897 -0.27876014 -0.07131153 -0.44894862 -0.04341513 -0.41020888 0.053723678 -0.7567864
0.14329639 -0.25161287 -0.39022174 -0.555527 0.04242881 -0.40232265 0.24438833 -0.47266412
-0.26955885 -0.39031887 0.4435007 0.45738044 -0.22096373 0.24591649 -0.21527453 0.041102264
-0.17897457 0.014293877 0.0031144812 -0.36059734 -0.23647402 0.1534665 -0.23110598 0.2755574
0.1200261 0.024406658 0.20849317 0.12336767 0.48324898 -0.9943352 -0.19818297 -0.17316428
-0.17852259 0.060266115 0.23286365 -0.83121157 0.19649488 0.19931626 -0.41957745 0.15565577
0.17732663 0.1227725 -0.14716099 -0.044532657 -0.5834326 0.20819052 -0.21387172 0.28587428
0.03885658 -0.4944575 -0.2941136 0.19593114 -0.4926782 -0.3671856 0.22482146 0.7393941
-0.31459367 0.08352486 -0.098896556 -0.082062036 -0.27116847 0.18380858 0.06372957 0.32532668
0.09781785 -0.3772824 0.14569297 -0.07969289 -0.4015979 0.15507445 -0.015936978 0.16892278
0.08630148 0.2496091 0.13264199 -0.41530645 0.73632014 0.15201607 0.32518208 0.039423466
-0.50283104 -0.50826013 -0.20227017 0.104121774 0.046383493 -0.019600332 -0.08423391 -0.23184271
00000000: 5ca3 be3e 0152 f2be 5f97 c0be 86c6 333d
00000010: fe89 1e3e 9d93 25be 1cc9 75be 287f aabe
00000020: 40f4 01bf e065 fabc 4f8d 8dbe 76ea 35be
00000030: bae8 91bd d5f0 b2be a9f9 ba3d f68d 093f
00000040: aab6 2b3e 860c b03b dc21 18bf 9334 c53d
00000050: 2265 ac3d bde9 dabe 2edb b3be dd31 8ebe
00000060: db2d ebbe 1f60 11bf d2ee 44be c61e b93d
00000070: f37b f53e 43b3 ac3e 2fd5 40be 39ad d5bd
00000080: 3e69 8e3d 5835 413f f653 2c3f f66e bc3e
00000090: 02ab c5be 6f30 4a3a 805b fbbe 2568 abbe
000000a0: e626 71be 9160 d03e 0243 d9be 6d0f 86be
000000b0: dde5 b23e 3372 fdbe 681b 4abe df63 01bf
000000c0: 09af 093d e03a f53e c33a dc3d 897a 82be
000000d0: b862 593e 4b85 413e f8dc 37be b06e 1abd
000000e0: 44e0 b0be 6fc8 8bbe b9f3 38be 3e1a 023e
000000f0: 3786 af3d 02f6 d93c 06ff 333b 55d3 efbe
00000100: 6c04 513e 870b 903e d856 b6be d56b a63d
00000110: 4f98 f43d 849c 3c3e 020d b5bd d8ad 403e
00000120: eeea cdbe 0f7f 0fbf 5eb3 42be 2970 06bf
00000130: 2f46 c7be 819d 6c3e 64ff 4cbe 0164 07bf
00000140: bad3 19be d557 64be 33d5 11bf 93f4 c4bc
00000150: 565c acbe 0d3f 92be 38cf 313d 067a 113f
00000160: dcd4 743e 6a0c 8f3e c5eb 8ebe 268e dcbe
00000170: f857 e5bd 75bc 423e efbb a93e 7db5 1dbe
00000180: 4c17 c9bd a6b9 8ebe c80b 92bd 98dc e5be
00000190: 10d4 31bd e606 d2be 5c0d 5c3d c1bc 41bf
000001a0: 4abc 123e 67d3 80be 25cb c7be 0437 0ebf
000001b0: d5c9 2d3d 3cfd cdbe ef40 7a3e 0801 f2be
000001c0: 9e03 8abe e0d7 c7be 8612 e33e c52d ea3e
000001d0: 5144 62be 88d1 7b3e ed70 5cbe d95a 283d
000001e0: 1c45 37be de30 6a3c 531c 4c3b 37a0 b8be
000001f0: 3f26 72be 5226 1d3e 0ca7 6cbe dc15 8d3e
00000200: 3ed0 f53d 79f0 c73c 3c7f 553e 30a8 fc3d
00000210: 696c f73e c08c 7ebf 7af0 4abe fa51 31be
00000220: a0ce 36be 9ad9 763d cf73 6e3e 48ca 54bf
00000230: f435 493e 9019 4c3e dbd2 d6be 3a64 1f3e
00000240: 1d95 353e 2670 fb3d 5fb1 16be e067 36bd
00000250: d75b 15bf e52f 553e 3001 5bbe 1d5e 923e
00000260: 1428 1f3d 8929 fdbe 0f96 96be 2ca2 483e
00000270: 5140 fcbe c0ff bbbe 9937 663e ef48 3d3f
00000280: 6c12 a1be 150f ab3d 478a cabd 2410 a8bd
00000290: 98d6 8abe 5138 3c3e a684 823d 3891 a63e
000002a0: ba54 c83d 292b c1be 8a30 153e 0736 a3bd
000002b0: 3d9e cdbe d6cb 1e3e 448e 82bc 18fa 2c3e
000002c0: d5be b03d 8799 7f3e 4dd3 073e 0ca3 d4be
000002d0: 7a7f 3c3f 1aaa 1b3e 447e a63e 807a 213d
000002e0: 89b9 00bf 561d 02bf e91f 4fbe cc3d d53d
000002f0: 9efc 3d3d e090 a0bc d482 acbd 2d68 6dbe

fc1.bias f4 [64]
0.42670023 3.3848717 -0.01986152 -0.20790693 4.024296 3.198286 4.1446414 0.13723826
0.116098166 -1.6281548 -3.8898613 -3.4140759 -0.10710332 -1.4274879 3.1489735 0.33642048
2.6722527 3.1947443 0.51214755 -3.939272 4.2270303 2.6498272 3.2352047 1.1798543
0.4110679 -3.2845972 -0.24270579 0.03413737 4.764711 -2.1736462 -0.17744938 2.5061812
0.40574056 0.36630076 -3.1209645 0.33785868 2.3982377 -0.018494725 1.95157 4.237318
-0.3824484 -3.8679307 0.49958998 1.1080326 1.1268636 3.7446153 2.9291506 4.5318522
4.264654 -2.2087138 3.747254 -3.300852 -4.3760242 3.344971 0.3618073 2.1962445
-3.6994402 -3.8218744 3.0925188 3.487737 -2.8797135 0.10254121 3.6120918 -0.2583643
00000000: 7478 da3e bda1 5840 a0b4 a2bc 8ee5 54be
00000010: 08c7 8040 b8b0 4c40 e7a0 8440 3088 0c3e
00000020: e0c4 ed3d 6067 d0bf 7df3 78c0 3880 5ac0
00000030: fc58 dbbd ecb7 b6bf c888 4940 4e3f ac3e
00000040: 3006 2b40 b176 4c40 1a1c 033f 081d 7cc0
00000050: d543 8740 c596 2940 980d 4f40 7705 973f
00000060: 7e77 d23e d736 52c0 de87 78be a0d3 0b3d
00000070: 8378 9840 051d 0bc0 4ab5 35be 4665 2040
00000080: 3abd cf3e c68b bb3e e2bd 47c0 d0fb ac3e
00000090: ba7c 1940 4082 97bc 0ccd f93f 1c98 8740
000000a0: 47d0 c3be 2d8c 77c0 42ca ff3e 03d4 8d3f
000000b0: 113d 903f c7a7 6f40 3477 3b40 ef04 9140
000000c0: 0c78 8840 915b 0dc0 02d3 6f40 2941 53c0
000000d0: 6408 8cc0 0114 5640 ce3e b93e 458f 0c40
000000e0: a1c3 6cc0 9799 74c0 d4eb 4540 1537 5f40
000000f0: 3a4d 38c0 2001 d23d 832c 6740 5348 84be

fc2.weight f4 [64, 64]
0.12060474 0.11940645 0.1037842 -0.044400446 0.02297323 0.009952962 -0.085865974 -0.011648402
0.0030416697 0.06071514 -0.12194976 -0.07461816 -0.042449936 0.050754488 0.1021227 0.054652575
-0.058800414 -0.10324907 -0.035811216 0.033671767 -0.06897281 0.06132838 -0.024406314 0.03140378
-0.08966517 -0.07298577 -0.12361108 -0.018588508 -0.11653766 -0.11270793 -0.034044005 -0.092240065
0.10635468 -0.0854342 0.025025517 -0.088711485 -0.04255873 -0.016686723 0.08468346 -0.024044266
-0.004942268 -0.07790133 0.027865306 -0.10666032 -0.029969417 -0.048475966 -0.11364145 -0.1115031
0.117335305 0.11650251 -0.1093275 0.0827584 0.06486523 0.107891485 -0.12379941 -0.095787376
-0.05039824 0.123765305 -0.11748627 -0.017633587 -0.052129522 -0.019243255 0.071170315 0.043460757
0.06220011 -0.038972627 -0.0701946 -0.0014039725 0.058888283 0.032755036 -0.13899238 -0.11861454
0.07822886 -0.13783008 -0.0105468985 0.07563554 -0.040561005 -0.08780995 0.006795715 0.11371283
0.052819706 0.05540509 0.03777866 0.021226045 -0.14383532 -0.1247057 -0.037266422 0.0059683407
-0.10282773 0.044694744 0.019509077 -0.10380009 -0.13131818 -0.15521996 0.05260536 -0.16258122
-0.10117991 -0.0012677014 -0.06878837 0.021013036 -0.026689256 -0.04726015 -0.0059991744 -0.0971829
-0.051627602 0.07310231 -0.06539832 -0.04576392 0.03793698 -0.09566297 -0.048010297 0.048487138
-0.13444747 -0.009495422 -0.22856441 -0.07832524 0.021147814 0.11292618 -0.07759227 -0.060270388
0.06902679 0.050521173 0.062010117 -0.122306585 -0.012503632 0.00095917284 0.051575445 -0.057143122
0.07761743 1.4066179 0.12440187 -0.081219584 0.6101375 -0.19496311 0.469361 0.040744126
0.007270231 -0.38248158 -0.32324857 -0.60123485 -0.09300105 -0.2289582 0.47130454 -0.0028250366
-0.21495286 -0.16971834 0.035500612 -0.23413725 0.16644514 0.03289193 0.13035774 -0.19601974
0.053506255 0.010093464 0.05563885 -0.10234998 1.1233925 -0.59522337 -0.00050599873 0.6932642
-0.10864702 -0.117167786 -0.049258176 -0.059302747 0.36836028 -0.101889566 -0.18946588 0.2461478
-0.061213717 0.024026165 -0.19401759 -0.08907329 0.3134186 0.8746208 0.4708035 0.4361458
2.1470237 -0.7529425 0.0065959054 -0.14411558 0.2102079 -0.1429851 0.06630406 -0.23005624
0.28685674 0.024154216 0.040204223 1.9365531 -0.54679364 -0.09632389 0.07072398 0.08101021
0.10793423 0.21411826 -0.11763908 0.09397517 0.036943126 -0.36130616 0.2955991 0.021185517
0.057831645 0.009823525 -0.19293046 -0.30928978 0.11946827 0.17600982 0.24160637 0.103584185
-0.092669114 0.14553353 -0.046110377 -0.07281557 -0.0023992527 0.010985032 0.049499348 0.048361994
-0.09557715 0.22144066 0.061880514 -0.020881772 0.60856354 -0.051131964 0.07853849 -0.35289574
0.065964565 0.115807414 0.07012129 0.08348931 -0.051146243 -0.016881153 -0.9283791 0.23610157
-0.046275236 0.03655397 0.09923335 -0.1881268 0.11800087 0.25610757 0.09122328 0.16668443
0.2926571 0.15565225 0.07905879 0.11537345 -0.03955467 -0.21716538 0.021559477 0.09373446
0.1511533 -0.038038943 -0.030928552 0.5964996 -0.1773154 -0.058162853 -0.07902132 0.08945878
00000000: 9eff f63d 5e8b f43d d08c d43d 3edd 35bd
00000010: 5b32 bc3c c011 233c 80da afbd f0d8 3ebc
00000020: c056 473b 70b0 783d ccc0 f9bd 68d1 98bd
00000030: fcdf 2dbd f0e3 4f3d b525 d13d 61db 5f3d
00000040: b4d8 70bd 4074 d3bd c8ae 12bd 68eb 093d
00000050: 9e41 8dbd 7833 7b3d c0ef c7bc 40a1 003d
00000060: 5fa2 b7bd 9079 95bd ce27 fdbd ed46 98bc
00000070: 4cab eebd 6ad3 e6bd ba71 0bbd 5ce8 bcbd
00000080: 7cd0 d93d 20f8 aebd 5002 cd3c 5eae b5bd
00000090: 1052 2ebd 98b2 88bc 866e ad3d 7bf8 c4bc
000000a0: c0f2 a1bb bc8a 9fbd c845 e43c ba70 dabd
000000b0: 6c82 f5bc bc8e 46bd d9bc e8bd bd5b e4bd
000000c0: 7e4d f03d de98 ee3d 19e7 dfbd 3c7d a93d
000000d0: 10d8 843d 36f6 dc3d 8c8a fdbd 2c2c c4bd
000000e0: 636e 4ebd aa78 fd3d a49c f0bd 5074 90bc
000000f0: c485 55bd 08a4 9dbc bec1 913d e803 323d
00000100: 8bc5 7e3d c3a1 1fbd 30c2 8fbd 8005 b8ba
00000110: d734 713d 252a 063d 0554 0ebe 2eec f2bd
00000120: 7436 a03d 5423 0dbe e6cc 2cbc cee6 9a3d
00000130: 4c23 26bd b4d5 b3bd 97ae de3b 46e2 e83d
00000140: 7a59 583d 73f0 623d ccbd 1a3d 3ee2 ad3c
00000150: 9149 13be b465 ffbd ada4 18bd 1292 c33b
00000160: 5897 d2bd d611 373d 80d1 9f3c 2495 d4bd
00000170: 4678 06be fbf1 1ebe b878 573d b17b 26be
00000180: 6a37 cfbd 0029 a6ba ebe0 8cbd 8823 ac3c
00000190: 6da3 dabc dc93 41bd b994 c4bb d407 c7bd
000001a0: 7777 53bd aab6 953d 8eef 85bd f372 3bbd
000001b0: cf63 1b3d f2ea c3bd 72a6 44bd 739a 463d
000001c0: 99ac 09be b092 1bbc ca0c 6abe fc68 a0bd
000001d0: 2e3e ad3c d745 e73d b2e8 9ebd 15de 76bd
000001e0: eb5d 8d3d 4aef 4e3d 52fe 7d3d e07b fabd
000001f0: 09dc 4cbc 0071 7b3a c640 533d e80e 6abd
00000200: e3f5 9e3d 0e0c b43f 68c6 fe3d 7456 a6bd
00000210: f931 1c3f 69a4 47be 1650 f03e 50e3 263d
00000220: 1e3b ee3b a0d4 c3be d680 a5be 87ea 19bf
00000230: 5677 bebd 0574 6abe d44e f13e 4024 39bb
00000240: 9a1c 5cbe a5ca 2dbe 1769 113d adc1 6fbe
00000250: 9870 2a3e b0b9 063d 807c 053e 66b9 48be
00000260: 6029 5b3d 0e5f 253c 90e5 633d de9c d1bd
00000270: 53cb 8f3f 8f60 18bf 00a5 04ba c379 313f
00000280: 5482 debd aaf5 efbd f1c2 49bd 70e7 72bd
00000290: b899 bc3e 7aab d0bd 5803 42be 2b0e 7c3e
000002a0: 3cbb 7abd 85d2 c43c 8cac 46be 0f6c b6bd
000002b0: 6778 a03e 26e7 5f3f 280d f13e 814e df3e
000002c0: d668 0940 d7c0 40bf 7722 d83b 0993 13be
000002d0: bd40 573e b06a 12be 6cca 873d dd93 6bbe
000002e0: e3de 923e 10df c53c 2fad 243d f9e0 f73f
000002f0: abfa 0bbf 7645 c5bd bcd7 903d aee8 a53d
00000300: 9f0c dd3d d141 5b3e c2ec f0bd 0e76 c03d
00000310: ad51 173d 1ffd b8be c458 973e 408d ad3c
00000320: e0e0 6c3d daf2 203c 908f 45be 3b5b 9ebe
00000330: c8ab f43d eb3b 343e a967 773e f223 d43d
00000340: 4ec9 bdbd be06 153e 3cde 3cbd 5420 95bd
00000350: c83c 1dbb 90fa 333c d4bf 4a3d 3a17 463d
00000360: f4bd c3bd 57c1 623e 6c76 7d3d 4010 abbc
00000370: d2ca 1b3f c06f 51bd cad8 a03d c0ae b4be
00000380: 6e18 873d 702c ed3d c09b 8f3d 72fc aa3d
00000390: b97e 51bd 584a 8abc 41aa 6dbf 9cc4 713e
000003a0: 1a8b 3dbd 9eb9 153d db3a cb3d 50a4 40be
000003b0: 71aa f13d 8820 833e 45d3 ba3d 53af 2a3e
000003c0: 27d7 953e 4e63 1f3e 93e9 a13d ea48 ec3d
000003d0: 1404 22bd 9a60 5ebe 809d b03c daf7 bf3d
000003e0: eec7 1a3e b9ce 1bbd e05d fdbc 33b4 183f
000003f0: 2b92 35be 2c3c 6ebd eed5 a1bd 2a36 b73d

fc2.bias f4 [64]
0.04751405 0.07167923 0.8392421 1.4052728 0.012799796 -0.060821738 0.033224426 1.6121526
0.02905298 2.2305856 -0.019970609 1.5737591 0.068676606 0.018831484 2.315668 2.03977
2.6177328 -2.3991268 -0.05542372 2.778985 2.5041175 0.9421362 2.132512 0.0012844652
2.8337328 -0.030867223 -0.11790323 1.2001853 -0.12747364 0.10065491 -0.12346144 0.9382889
2.2699077 -0.057576966 0.01478103 -2.3387046 -0.120538265 -0.02906524 1.0993639 2.2480304
0.069630295 -0.059317343 -0.008148712 -0.14332867 0.00577131 1.6471553 2.698456 2.148862
0.68516237 0.029387727 2.3300755 1.1944369 -1.3972092 0.11203256 -0.113179505 0.06759994
0.8289251 0.459593 1.1215671 2.0515993 1.9749455 1.0027986 1.7078383 1.5164075
00000000: 189e 423d 8fcc 923d 92d8 563f fbdf b33f
00000010: 3cb6 513c 3720 79bd 5616 083d 045b ce3f
00000020: 8400 ee3c eac1 0e40 6799 a3bc f070 c93f
00000030: 52a6 8c3d 7c44 9a3c e833 1440 978b 0240
00000040: ef88 2740 4b8b 19c0 fc03 63bd e4da 3140
00000050: 7643 2040 d72f 713f 147b 0840 805b a83a
00000060: e15b 3540 42dd fcbc 4077 f1bd ac9f 993f
00000070: 7388 02be 2924 ce3d 5ad9 fcbd b433 703f
00000080: 2b46 1140 d3d5 6bbd 222c 723c 56ad 15c0
00000090: c4dc f6bd 3a1a eebc f5b7 8c3f bbdf 0f40
000000a0: 549a 8e3d bef6 72bd 2d82 05bc c0c4 12be
000000b0: 421d bd3b fcd5 d23f 81b3 2c40 f486 0940
000000c0: cd66 2f3f 88be f03c f51f 1540 4fe3 983f
000000d0: c0d7 b2bf 5471 e53d a8ca e7bd d671 8a3d
000000e0: 6f34 543f c64f eb3e 838f 8f3f 674d 0340
000000f0: 04cb fc3f b45b 803f 729a da3f a419 c23f

fc3.weight f4 [20, 64]
0.012497827 -0.095461786 -0.28120127 0.008334551 -0.054149654 -0.0923176 -0.06781979 -0.9684819
-0.051741347 -0.98123825 -0.027186586 0.00022325777 0.010790909 0.014947454 0.7194403 0.12676057
0.5741275 -0.4860746 -0.044236526 0.5417267 -1.9443736 0.72813666 0.50559056 0.04704693
0.6039344 -0.06016989 -0.058254976 -0.20210238 0.06375172 -0.034371834 0.08653042 0.015470716
0.6558019 0.019007606 -0.01234749 -0.5699281 0.07601674 -0.022348013 0.035590716 0.6074302
-0.07500223 0.049226925 -0.050383337 -0.07471341 -0.07305761 -0.1396269 0.40467983 0.24551095
-0.21146709 -0.029228553 0.3735485 0.43526465 -0.11367034 0.110510275 -0.06214423 -0.027827427
-0.14983834 0.055184536 -0.07188173 0.29770815 0.2511813 0.2702635 0.33614022 0.5289782
0.04548116 -0.066784136 -0.09641947 0.061210215 -0.07255096 -0.080769055 -0.022606984 -0.8465253
0.1197361 -0.6353056 0.00078110123 0.04817952 -0.0686021 0.025441095 0.59466124 0.038784545
0.6616511 -0.114620715 0.0050238515 0.5324945 -1.1986932 -0.18723992 0.43013817 0.07696238
0.46805915 0.06363426 -0.06351329 -0.57142663 0.060039416 0.042284455 -0.02848348 0.13851115
0.59326214 0.014680161 -0.048033282 -0.038234603 -0.09892069 0.10123607 -0.03907 0.38918346
0.13121387 0.081582434 0.106250376 -0.12083341 0.061991494 -0.27313602 0.41984704 0.20335461
-0.042844754 0.022753436 0.3036798 0.11043771 0.00523537 -0.0709866 -0.06218259 0.09266654
-0.073247984 0.24545194 -0.42471677 0.16730717 0.19169801 -0.06930001 0.29099497 0.687941
-0.1186655 -0.038045015 -0.32703027 0.11802419 -0.04955631 -0.10422379 -0.011933193 -0.9751543
0.11804713 -0.53477585 -0.027974496 0.2785754 -0.001283735 -0.046601538 0.43755713 0.12514378
0.59260416 -0.2446024 0.043767136 0.48160622 -0.95074916 -0.122349136 0.20486873 -0.016109034
0.49044612 -0.007556616 0.116807975 -0.17680158 -0.06478736 -0.106928386 0.09679875 0.3454835
0.52060336 0.025679687 -0.03992173 -0.30627394 -0.119481 -0.018851142 -0.029509453 0.6176443
-0.09753308 -0.009265507 -0.010753654 0.08608344 -0.06290233 -0.4314469 0.3985343 0.32247862
-0.09613784 0.020411417 0.26473725 -0.10083185 -0.084597655 0.056932896 0.09541709 -0.09426637
-0.0509985 0.39383206 -0.21312329 0.27973235 0.19130734 0.13586247 0.39573178 0.3572044
0.052653804 -0.05954767 -0.35116857 0.048218805 -0.06504813 -0.051173106 -0.11377556 -1.1574745
-0.080374174 -0.7140239 0.044907093 0.07578052 0.104976304 0.084930465 0.48073104 0.24359918
0.4308608 -0.21836394 -0.013831715 0.53255427 -0.89244074 -0.32217687 0.3188512 0.10997009
0.44704375 -0.073344335 0.031155935 -0.4239244 0.14042291 0.112181105 0.03727846 -0.046168618
0.67884076 -0.06711942 -0.08450432 -0.26440543 -0.08781041 -0.057465203 0.2289944 0.41521585
0.13794929 -0.0298158 0.036871538 0.105642885 -0.040988177 -0.156664 0.45123374 0.3177352
-0.14362524 -0.10006631 0.20081419 -0.018338619 -0.114737116 0.100821465 -0.07897345 -0.0734202
-0.054988567 0.2666243 -0.18057501 0.32936296 0.32883197 0.45354798 0.31885234 0.64058626
00000000: b0c3 4c3c 7881 c3bd 9df9 8fbe a48d 083c
00000010: 07cc 5dbd 0311 bdbd 1ae5 8abd 6eee 77bf
00000020: bcee 53bd 6e32 7bbf 67b6 debc 4d1a 6a39
00000030: 5acc 303c 2be6 743c 3d2d 383f 86cd 013e
00000040: 05fa 123f c5de f8be 5c31 35bd 9aae 0a3f
00000050: 3ce1 f8bf 2a67 3a3f 626e 013f 48b4 403d
00000060: 729b 1a3f b474 76bd c59c 6ebd edf3 4ebe
00000070: 4390 823d 7bc9 0cbd dc36 b13d e378 7d3c
00000080: a2e2 273f d7b5 9b3c 204d 4abc cfe6 11bf
00000090: aaae 9b3d 2e13 b7bc 92c7 113d 8c80 1b3f
000000a0: c59a 99bd 2ca2 493d c25e 4ebd 5803 99bd
000000b0: 3a9f 95bd 5bfa 0ebe 3232 cf3e 3967 7b3e
000000c0: d48a 58be b870 efbc c041 bf3e 02db de3e
000000d0: ffcb e8bd 3653 e23d f38a 7ebd 58f6 e3bc
000000e0: 396f 19be 2e09 623d ba36 93bd 346d 983e
000000f0: d69a 803e fa5f 8a3e 921a ac3e 1e6b 073f
00000100: 744a 3a3d 1fc6 88bd 9277 c5bd 90b7 7a3d
00000110: 9995 94bd 3f6a a5bd 4832 b9bc e2b5 58bf
00000120: 3338 f53d 63a3 22bf d1c2 4c3a e357 453d
00000130: 427f 8cbd d869 d03c b83b 183f 8bdc 1e3d
00000140: f761 293f 44be eabd 1f9f a43b 8f51 083f
00000150: c76e 99bf d2bb 3fbe 123b dc3e 749e 9d3d
00000160: 73a5 ef3e ae52 823d 4113 82bd 0449 12bf
00000170: e4eb 753d 7732 2d3d 3056 e9bc ded5 0d3e
00000180: 07e0 173f 0f85 703c 8cbe 44bd e39b 1cbd
00000190: ee96 cabd db54 cf3d dd07 20bd 0e43 c73e
000001a0: ee5c 063e b114 a73d cc99 d93d 8277 f7bd
000001b0: cbea 7d3d 7cd8 8bbe 31f6 d63e 313c 503e
000001c0: fb7d 2fbd 6a65 ba3c eb7b 9b3e 2b2d e23d
000001d0: 778d ab3b 6c61 91bd 2cb3 7ebd f4c7 bd3d
000001e0: 0a03 96bd c157 7b3e 7a74 d9be 9252 2b3e
000001f0: 7c4c 443e 2aed 8dbd 4bfd 943e e71c 303f
00000200: e606 f3bd 17d5 1bbd 8370 a7be abb6 f13d
00000210: 8ffb 4abd 4873 d5bd 7083 43bc b6a3 79bf
00000220: b2c2 f13d 12e7 08bf c52a e5bc 6fa1 8e3e
00000230: 0043 a8ba 41e1 3ebd 7d07 e03e b125 003e
00000240: e8b4 173f 0d79 7abe 2b45 333d 1795 f63e
00000250: 4c64 73bf 2f92 fabd 1cc9 513e 18f7 83bc
00000260: c11b fb3e 7d9d f7bb 0539 ef3d 790b 35be
00000270: 3caf 84bd 45fd dabd 6c3e c63d 37e3 b03e
00000280: 4346 053f 355e d23c f884 23bd f0cf 9cbe
00000290: 74b2 f4bd b66d 9abc cfbd f1bc f01d 1e3f
000002a0: 6cbf c7bd 5ace 17bc 1830 30bc 844c b03d
000002b0: f0d2 80bd 9ce6 dcbe b00c cc3e eb1b a53e
000002c0: eae3 c4bd d835 a73c a48b 873e ee80 cebd
000002d0: 8941 adbd 7832 693d 096a c33d ba0e c1bd
000002e0: cee3 50bd 5ba4 c93e fe3c 5abe 1439 8f3e
000002f0: 12e6 433e 881f 0b3e 5b9d ca3e 7fe3 b63e
00000300: 84ab 573d 42e8 73bd 5ecc b3be 1581 453d
00000310: f437 85bd e49a 51bd 2903 e9bd 2028 94bf
00000320: 379b a4bd 45ca 36bf 80f0 373d d132 9b3d
00000330: d1fd d63d 06f0 ad3d 6122 f63e 1072 793e
00000340: c999 dc3e cc9a 5fbe 6b9e 62bc 7a55 083f
00000350: ff76 64bf 5ef4 a4be 7740 a33e 0038 e13d
00000360: ebe2 e43e 8e35 96bd bb3a ff3c 9e0c d9be
00000370: 06cb 0f3e 35bf e53d 4cb1 183d 4e1b 3dbd
00000380: 82c8 2d3f e875 89bd 9a10 adbd 2660 87be
00000390: f2d5 b3bd a260 6bbd 827d 6a3e 2c97 d43e
000003a0: 9442 0d3e 4440 f4bc 9c06 173d 4c5b d83d
000003b0: 38e3 27bd 876c 20be 1c08 e73e 30ae a23e
000003c0: 7f12 13be 91ef ccbd 3ca2 4d3e df3a 96bc
000003d0: 4bfb eabd 7c7b ce3d d5bc a1bd 545d 96bd
000003e0: b13b 61bd fb82 883e a8e8 38be 43a2 a83e
000003f0: aa5c a83e 7137 e83e 9d40 a33e 76fd 233f

fc3.bias f4 [20]
1.7982937 1.0144421 1.0611236 0.817951 0.6982141 0.5760575 0.17563604 0.5277773
0.33434826 0.245833 0.17362186 0.011082935 0.031010669 -0.033833418 0.14765894 -0.06062597
-0.059659597 -0.21546863 -0.4618678 -0.4020202
00000000: 7d2e e63f 3dd9 813f e6d2 873f 3d65 513f
00000010: 29be 323f 8178 133f efd9 333e 6a1c 073f
00000020: b22f ab3e a5bb 7b3e eec9 313e 3395 353c
00000030: 160a fe3c e994 0abd e833 173e f052 78bd
00000040: 9f5d 74bd cfa3 5cbe f079 ecbe 97d5 cdbe

exp_avg f4 [64, 3]
6e-45 6e-45 6e-45 -25.187487 -30.971617 15.728347 0.0 0.0
0.0 0.0 0.0 0.0 -3.7037585 -6.794998 49.47013 1.2438117
4.4820566 46.438507 3.730533 2.3785353 111.09984 0.0 0.0 0.0
0.0 0.0 0.0 0.85781354 17.087393 14.254286 -1.3604144 -9.682592
-95.174644 2.18929 15.622931 -1.8994936 0.0 0.0 0.0 -15.121475
1.2471579 -6.76461 -4.1858587 -1.6267158 28.520615 0.0 0.0 0.0
1.4272408 4.8795524 19.648506 -0.7217933 3.7642899 30.32344 0.0 0.0
0.0 -4.809457 -4.425219 -86.79829 -3.3314364 15.251238 148.54135 -3.2250907
3.8723173 28.235407 -2.4117446 -1.765383 34.240993 0.7586526 6.716274 18.219273
0.0 0.0 0.0 -0.892889 4.983507 -4.405098 0.0 0.0
0.0 0.0 0.0 0.0 5.8721876 9.32336 194.18784 3.6391895
13.340692 8.323281 0.0 0.0 0.0 -1.4316052 -13.432559 27.56335
0.0 0.0 0.0 0.0 0.0 0.0 -1.183864 -0.5081666
-11.702639 0.0 0.0 0.0 -3.9839153 -0.25050458 19.381538 0.0
0.0 0.0 3.817476 3.98223 6.9881883 -4.247094 8.331426 127.13831
6e-45 6e-45 6e-45 -4.35467 -2.2459297 -72.065544 0.20031555 4.241328
10.397691 0.16339695 5.2420673 16.6507 0.663498 0.08853973 1.6206664 -8.262043
-5.2712245 103.91716 -3.3841877 -2.9004638 16.21057 -3.306489 -2.969838 61.747475
0.2883864 -46.022846 116.93171 -4.0769 2.3602653 -4.519104 -1.7609857 7.3112426
91.29599 -1.1580378 6.4549356 -4.3687897 -3.34526 0.41969818 -56.813313 -0.2526674
0.76263684 57.38971 0.0 0.0 0.0 0.683077 6.748869 20.61109
-3.0407045 -1.4711204 -54.37709 -3.225144 -1.736356 -63.708443 0.085002154 3.4082654
31.065672 -43.051453 -40.920322 -44.44567 2.6661892 12.127349 3.4693525 0.0
0.0 0.0 -2.1901033 1.1185476 75.11524 0.0 0.0 0.0
00000000: 0400 0000 0400 0000 0400 0000 f97f c9c1
00000010: dfc5 f7c1 4fa7 7b41 0000 0000 0000 0000
00000020: 0000 0000 0000 0000 0000 0000 0000 0000
00000030: 610a 6dc0 a070 d9c0 6ae1 4542 3935 9f3f
00000040: 026d 8f40 08c1 3942 0dc1 6e40 ec39 1840
00000050: 1e33 de42 0000 0000 0000 0000 0000 0000
00000060: 0000 0000 0000 0000 0000 0000 ab99 5b3f
00000070: fbb2 8841 8e11 6441 0f22 aebf e6eb 1ac1
00000080: 6b59 bec2 541d 0c40 86f7 7941 9b22 f3bf
00000090: 0000 0000 0000 0000 0000 0000 90f1 71c1
000000a0: dfa2 9f3f af77 d8c0 8ef2 85c0 3938 d0bf
000000b0: 382a e441 0000 0000 0000 0000 0000 0000
000000c0: d4af b63f 4b25 9c40 2430 9d41 72c7 38bf
000000d0: 20ea 7040 6896 f241 0000 0000 0000 0000
000000e0: 0000 0000 12e7 99c0 659b 8dc0 b998 adc2
000000f0: 4136 55c0 1205 7441 968a 1443 e367 4ec0
00000100: 0cd4 7740 1de2 e141 065a 1ac0 12f8 e1bf
00000110: c7f6 0842 0f37 423f b7eb d640 12c1 9141
00000120: 0000 0000 0000 0000 0000 0000 6094 64bf
00000130: e478 9f40 90f6 8cc0 0000 0000 0000 0000
00000140: 0000 0000 0000 0000 0000 0000 0000 0000
00000150: f6e8 bb40 7c2c 1541 1630 4243 7be8 6840
00000160: 7973 5541 292c 0541 0000 0000 0000 0000
00000170: 0000 0000 d73e b7bf c3eb 56c1 be81 dc41
00000180: 0000 0000 0000 0000 0000 0000 0000 0000
00000190: 0000 0000 0000 0000 db88 97bf 3517 02bf
000001a0: 023e 3bc1 0000 0000 0000 0000 0000 0000
000001b0: 78f8 7ec0 2342 80be 640d 9b41 0000 0000
000001c0: 0000 0000 0000 0000 8751 7440 dbdc 7e40
000001d0: 3d9f df40 32e8 87c0 854d 0541 d146 fe42
000001e0: 0400 0000 0400 0000 0400 0000 7559 8bc0
000001f0: 50bd 0fc0 8f21 90c2 851f 4d3e f5b8 8740
00000200: f15c 2641 8851 273e 04bf a740 a234 8541
00000210: 01db 293f 5154 b53d ff71 cf3f 5431 04c1
00000220: dfad a8c0 96d5 cf42 8896 58c0 33a1 39c0
00000230: 3faf 8141 849d 53c0 d311 3ec0 6afd 7642
00000240: 62a7 933e 6517 38c2 09dd e942 f775 82c0
00000250: 960e 1740 809c 90c0 fb67 e1bf b3f5 e940
00000260: 8c97 b642 953a 94bf d58e ce40 20cd 8bc0
00000270: bd18 56c0 aee2 d63e d540 63c2 9f5d 81be
00000280: 2b3c 433f 108f 6542 0000 0000 0000 0000
00000290: 0000 0000 22de 2e3f bcf6 d740 83e3 a441
000002a0: e79a 42c0 ac4d bcbf 2482 59c2 c268 4ec0
000002b0: ea40 debf 72d5 7ec2 9c15 ae3d 0521 5a40
000002c0: 7f86 f841 b034 2cc2 69ae 23c2 5ec8 31c2
000002d0: d8a2 2a40 9f09 4241 df09 5e40 0000 0000
000002e0: 0000 0000 0000 0000 a72a 0cc0 912c 8f3f
000002f0: 013b 9642 0000 0000 0000 0000 0000 0000

exp_avg_sq f4 [64, 3]
8.495685e-26 2.3533492e-28 8.495685e-26 66705.805 76735.0 198863.14 0.0 0.0
0.0 0.0 0.0 0.0 989.633 1833.719 282967.34 2238.3225
3408.4167 222682.11 1662.3433 4376.563 740066.3 0.0 0.0 0.0
0.0 0.0 0.0 7827.585 7882.31 62923.523 167.26927 1665.1194
823646.4 5477.615 6195.723 45199.016 0.0 0.0 0.0 3004.7349
2389.0483 50737.457 254.48518 652.8806 93554.055 0.0 0.0 0.0
1611.4038 2015.1136 53624.9 1086.3743 1407.0458 86083.02 0.0 0.0
0.0 607.2476 2023.7665 372407.8 24008.621 30874.0 2.1307838e+06 1539.2472
1723.1945 94959.15 428.91614 926.35974 146522.86 1614.5468 1932.172 35228.254
0.0 0.0 0.0 115.015396 548.9527 50421.36 0.0 0.0
0.0 0.0 0.0 0.0 3213.5688 11282.197 1.9746762e+06 4819.1216
5284.7095 27487.504 0.0 0.0 0.0 17844.8 18398.066 69361.94
0.0 0.0 0.0 0.0 0.0 0.0 27.050795 24.506672
12212.899 0.0 0.0 0.0 219.96587 361.0992 37608.12 0.0
0.0 0.0 170.51952 297.28546 490.5953 12580.75 17834.37 1.5434492e+06
3.916997e-08 4.0096043e-07 5.6102836e-06 508.0281 1624.2115 307872.03 694.4802 840.87646
13499.628 1259.6536 1423.8087 28770.342 214.38156 5.7136455 588.5252 2723.4019
6916.829 1.109827e+06 226.03163 269.70886 35425.145 1102.4242 2517.3167 406695.75
234881.28 246293.05 896457.06 386.94705 164.44931 14208.783 7152.459 10054.852
809270.8 146.46822 847.24994 78203.74 516.4389 1540.7122 281663.97 1660.3962
2686.606 278164.38 0.0 0.0 0.0 1898.3624 2133.6313 47362.348
368.26578 961.0466 189424.53 507.40216 1329.6852 255958.78 1300.4475 1769.6206
112506.92 28308.111 45534.785 42920.727 3573.1814 3990.239 22445.586 0.0
0.0 0.0 2992.5205 5112.256 590148.44 0.0 0.0 0.0
00000000: cd57 d215 4629 9511 cd57 d215 e748 8247
00000010: 80df 9547 c933 4248 0000 0000 0000 0000
00000020: 0000 0000 0000 0000 0000 0000 0000 0000
00000030: 8368 7744 0237 e544 eb2a 8a48 29e5 0b45
00000040: ab06 5545 8776 5948 fcca cf44 81c4 8845
00000050: 25ae 3449 0000 0000 0000 0000 0000 0000
00000060: 0000 0000 0000 0000 0000 0000 ae9c f445
00000070: 7b52 f645 86cb 7547 ef44 2743 d223 d044
00000080: e615 4949 ec2c ab45 c99d c145 048f 3047
00000090: 0000 0000 0000 0000 0000 0000 c2cb 3b45
000000a0: c650 1545 7531 4647 357c 7e43 5c38 2344
000000b0: 07b9 b647 0000 0000 0000 0000 0000 0000
000000c0: ec6c c944 a3e3 fb44 e678 5147 facb 8744
000000d0: 77e1 af44 8321 a847 0000 0000 0000 0000
000000e0: 0000 0000 d9cf 1744 87f8 fc44 fad6 b548
000000f0: 3e91 bb46 0034 f146 7f0d 024a e967 c044
00000100: 3966 d744 9377 b947 4475 d643 0697 6744
00000110: b716 0f48 7fd1 c944 8185 f144 419c 0947
00000120: 0000 0000 0000 0000 0000 0000 e207 e642
00000130: f93c 0944 5cf5 4447 0000 0000 0000 0000
00000140: 0000 0000 0000 0000 0000 0000 0000 0000
00000150: 1ad9 4845 ca48 3046 a20c f149 f998 9645
00000160: ad25 a545 02bf d646 0000 0000 0000 0000
00000170: 0000 0000 9a69 8b46 22bc 8f46 f878 8747
00000180: 0000 0000 0000 0000 0000 0000 0000 0000
00000190: 0000 0000 0000 0000 0768 d841 aa0d c441
000001a0: 99d3 3e46 0000 0000 0000 0000 0000 0000
000001b0: 43f7 5b43 b38c b443 1fe8 1247 0000 0000
000001c0: 0000 0000 0000 0000 ff84 2a43 8aa4 9443
000001d0: 334c f543 0093 4446 bd54 8b46 ca68 bc49
000001e0: d63b 2833 9543 d734 f83f bc36 9903 fe43
000001f0: c506 cb44 0154 9648 bc9e 2d44 1838 5244
00000200: 83ee 5246 ea74 9d44 e1f9 b144 afc4 e046
00000210: ae61 5643 2fd6 b640 9d21 1344 6e36 2a45
00000220: a226 d845 187a 8749 1908 6243 bcda 8643
00000230: 2561 0a47 93cd 8944 1155 1d45 f894 c648
00000240: 5260 6548 4385 7048 91dc 5a49 3979 c143
00000250: 0673 2443 2203 5e46 ac83 df45 681b 1d46
00000260: 6d93 4549 dd77 1243 ffcf 5344 dfbd 9847
00000270: 171c 0144 ca96 c044 ff87 8948 ae8c cf44
00000280: b2e9 2745 8cd2 8748 0000 0000 0000 0000
00000290: 0000 0000 994b ed44 1a5a 0545 5902 3947
000002a0: 0522 b843 fb42 7044 22fc 3848 7ab3 fd43
000002b0: ed35 a644 b2f5 7948 528e a244 dc33 dd44
000002c0: 76bd db47 3928 dd46 c9de 3147 baa8 2747
000002d0: e752 5f45 d363 7945 2c5b af46 0000 0000
000002e0: 0000 0000 0000 0000 5408 3b45 0cc2 9f45
000002f0: 4714 1049 0000 0000 0000 0000 0000 0000
