beer/experiments/vanilla_DQN/eps_0.10/models/dqn_agent_firm_1_episode_1000.pth (torch, 101224 bytes, 24 tensors)

fc1.weight f4 [64, 3]
0	0x3ebea20c	0.37233007
1	0xbef25364	-0.47329247
2	0xbec099a1	-0.3761721
3	0xbd9a5e3f	-0.07537507
4	0x3e490d39	0.1963395
5	0xbe1da7b9	-0.15396012
6	0xbe75c91c	-0.24002498
7	0xbeaa7f28	-0.33300138
8	0xbf01f440	-0.5076332
9	0xbcfa65e0	-0.030566156
10	0xbe8d8d4f	-0.27646872
11	0xbe35ea76	-0.17765221
12	0x3c7c2804	0.0153904
13	0xbe919d3a	-0.28440267
14	0x3dc434aa	0.095803574
15	0x3f186af1	0.5953818
16	0x3e38fb74	0.18064672
17	0xbca5d9cc	-0.020245455
18	0xbf35f004	-0.7106936
19	0x3e366153	0.17810564
20	0x3d7bef4f	0.06150752
21	0xbedae984	-0.42756283
22	0xbeb3db2e	-0.35128158
23	0xbe8e31dd	-0.27772418
24	0xbeeb2d70	-0.45933104
25	0xbf11601f	-0.56787294
26	0xbe44eed2	-0.19231728
27	0x3dcf67f1	0.10127247
28	0x3efc4742	0.49273115
29	0x3ec1b858	0.37835956
30	0xbd91c6ef	-0.07118022
31	0xbd6b1d5c	-0.057401046
32	0x3de20248	0.11035591
33	0x3f477425	0.779116
34	0x3f2d4cc5	0.67695266
35	0x3ecbf552	0.39835602
36	0xbec5ab02	-0.3860703
37	0x3a4a3000	0.0007712841
38	0xbefb5b80	-0.49093246
39	0xbec9a2c3	-0.3938199
40	0xbea77204	-0.32704175
41	0x3ef8ab3a	0.48568135
42	0xbee0847e	-0.43851084
43	0xbe770291	-0.24122073
44	0x3ebd20f6	0.3693921
45	0xbefd7233	-0.4950119
46	0xbe4a1b68	-0.19737017
47	0xbf0163df	-0.50543016
48	0x3dcbf39e	0.09958576
49	0x3f00db33	0.5033447
50	0x3de43777	0.111433916
51	0xbe481f36	-0.19543156
52	0x3e82646b	0.25467238
53	0x3e519c36	0.20469746
54	0xbe37dca0	-0.17955256
55	0xbd1a6eb0	-0.037703216
56	0xbeb0e044	-0.345461
57	0xbe896cf3	-0.26840934
58	0xbe191863	-0.14950709
59	0x3e249d5c	0.16075653
60	0x3dba95b2	0.09110583
61	0x3ceb4bf0	0.028722733
62	0xbcbcb46b	-0.023035249
63	0xbee06be6	-0.4383232
64	0x3e771f76	0.24133095
65	0x3e97749f	0.29581162
66	0xbebb6771	-0.36602357
67	0x3dfaafdc	0.12240574
68	0x3dfa3d21	0.12218691
69	0x3e83a5ae	0.2571234
70	0xbd6cdd74	-0.05782838
71	0x3e6a68d6	0.22891554
72	0xbecdeaee	-0.402183
73	0xbf0f7f0f	-0.5605325
74	0xbe42b35e	-0.19013736
75	0xbed18135	-0.4091889
76	0xbec8949f	-0.3917589
77	0x3e86fb2c	0.26363504
78	0xbe4cff64	-0.20019299
79	0xbf076401	-0.5288697
80	0xbe19d3ba	-0.15022174
81	0xbe645794	-0.22299033
82	0xbf11d533	-0.5696594
83	0xbcc4f420	-0.02404219
84	0xbe629c06	-0.2212983
85	0xbe763a1e	-0.24045607
86	0x3d710d93	0.058850836
87	0x3f187bad	0.59563714
88	0x3e873d73	0.2641407
89	0x3ead5d50	0.33860254
90	0xbe8eebc5	-0.27914253
91	0xbedc8e26	-0.430772
92	0xbde557f8	-0.11198419
93	0x3e30b431	0.17256238
94	0x3e98d163	0.2984725
95	0xbe811d69	-0.2521775
96	0xbdc9174c	-0.09818897
97	0xbe8eb9a6	-0.27876014
98	0xbd920bc8	-0.07131153
99	0xbee5dc98	-0.44894862
100	0xbd31d410	-0.04341513
101	0xbed206e6	-0.41020888
102	0x3e092933	0.13394623
103	0xbf35a6d1	-0.70957667
104	0x3e6a3e0d	0.22875233
105	0xbe80d367	-0.25161287
106	0xbec7cad4	-0.39021933
107	0xbf0e3704	-0.555527
108	0x3e0f5c88	0.14000142
109	0xbebc4acb	-0.36775813
110	0x3e929e87	0.28636572
111	0xbef20108	-0.47266412
112	0xbe8a039e	-0.26955885
113	0xbec7d7e0	-0.39031887
114	0x3f18bb41	0.59660727
115	0x3efdfd27	0.49607202
116	0xbe626f8f	-0.22112869
117	0x3e869b01	0.26290134
118	0xbe555bf3	-0.20835857
119	0x3ca078cc	0.01958885
120	0xbe144927	-0.1448103
121	0x3da024a7	0.07819491
122	0x3dcedc23	0.101005815
123	0xbeb9afca	-0.3626693
124	0xbe56e273	-0.20984821
125	0x3e3a75d7	0.18209015
126	0xbe9f1033	-0.31067047
127	0x3e9f478d	0.31109276
128	0x3e49118e	0.19635603
129	0x3da557cd	0.08073387
130	0x3e83378f	0.25628325
131	0x3e27cd12	0.16386822
132	0x3f369779	0.7132488
133	0xbf584194	-0.84475064
134	0xbdac20ae	-0.08404671
135	0xbe472642	-0.19448188
136	0xbe2c6a07	-0.16837321
137	0x3d451212	0.048112936
138	0x3e87e5d0	0.2654252
139	0xbf52b89f	-0.8231296
140	0x3e8191e8	0.2530663
141	0x3e829e60	0.25511456
142	0xbecef7cd	-0.40423432
143	0x3e19eef2	0.15032557
144	0x3e3b3708	0.18282712
145	0x3dc502ac	0.0961965
146	0xbe67b7c7	-0.22628699
147	0xbe3c7753	-0.18404894
148	0xbf0f595a	-0.55995715
149	0x3e9ac7f9	0.30230692
150	0xbe4ce757	-0.20010124
151	0x3e96503d	0.29358092
152	0x3c9973af	0.01873192
153	0xbe4d90fc	-0.20074838
154	0xbe9ab009	-0.3021243
155	0x3e8212f9	0.254051
156	0xbe93d1f8	-0.2887113
157	0xbe9486d0	-0.29009104
158	0x3e8d5910	0.27607012
159	0x3f4c5e68	0.7983155
160	0xbe96f4fc	-0.29483783
161	0x3d840ef7	0.06448167
162	0xbdca89d0	-0.09889567
163	0xbda81024	-0.082062036
164	0xbe8ad698	-0.27116847
165	0x3e821ee0	0.2541418
166	0x3dcf457e	0.101206765
167	0x3eb931ff	0.36170956
168	0x3e493de8	0.19652522
169	0xbe8ec40a	-0.2788394
170	0x3e4eca65	0.20194395
171	0x3c478560	0.012177795
172	0xbec4b14a	-0.3841651
173	0x3e3da3b1	0.18519475
174	0x3d2d0e57	0.042250004
175	0x3e581a7a	0.2110385
176	0x3db01bd6	0.08599059
177	0x3e8a4adb	0.27010235
178	0x3dea1f72	0.11431779
179	0xbede52ac	-0.4342245
180	0x3f4450a0	0.76685524
181	0x3e231250	0.15924954
182	0x3ebebd4f	0.37253806
183	0x3d217a80	0.039423466
184	0xbf00b989	-0.50283104
185	0xbf021d56	-0.50826013
186	0xbe37207a	-0.17883483
187	0x3df251c8	0.11832005
188	0x3d0262a6	0.03183236
189	0xbca090e0	-0.019600332
190	0xbdac82d4	-0.08423391
191	0xbe6d67e0	-0.23184156

fc1.bias f4 [64]
0	0x3eda75a8	0.4266789
1	0x4051f6f5	3.280698
2	0xbca2b4a0	-0.01986152
3	0xbe54e58e	-0.20790693
4	0x407362b1	3.8028986
5	0x403eff6e	2.9843402
6	0x40795779	3.895964
7	0x3e0c8830	0.13723826
8	0x3dedc4e0	0.116098166
9	0xbfc3e369	-1.5303775
10	0xc05f63ef	-3.4904745
11	0xc04c703d	-3.1943505
12	0xbddb58fc	-0.10710332
13	0xbf9eeff3	-1.2416977
14	0x403b4f55	2.926717
15	0x3eac3f4e	0.33642048
16	0x4025aba0	2.5886002
17	0x40434941	3.051346
18	0x3f031c1a	0.51214755
19	0xc061fa62	-3.5309072
20	0x407fce9e	3.996986
21	0x40202342	2.502152
22	0x404122bb	3.0177448
23	0x3f95b1a7	1.169484
24	0x3ed2777e	0.4110679
25	0xc03a2be7	-2.9089296
26	0xbe7887a4	-0.24270493
27	0x3d0bd3a0	0.03413737
28	0x40904d3f	4.5094295
29	0xbffe6508	-1.9874582
30	0xbe35b54a	-0.17744938
31	0x401610be	2.3447719
32	0x3ecfbd3a	0.40574056
33	0x3ebb8bc6	0.36630076
34	0xc029a70a	-2.6508203
35	0x3eacfbd0	0.33785868
36	0x400e1c6d	2.220485
37	0xbc978240	-0.018494725
38	0x400fe578	2.2483807
39	0x40802db3	4.0055785
40	0xbe9a76fb	-0.301689
41	0xc05d4bd3	-3.457753
42	0x3f08c108	0.5341954
43	0x3f8fef02	1.1244814
44	0x3fae6904	1.3625798
45	0x405e6aae	3.4752612
46	0x402bf198	2.6866207
47	0x40896412	4.2934656
48	0x40849646	4.143344
49	0xbffc3ece	-1.9706666
50	0x40619f9c	3.5253668
51	0xc034f2d5	-2.8273213
52	0xc07b1064	-3.9228754
53	0x4047ea5b	3.123679
54	0x3eb93ece	0.3618073
55	0x400b68f4	2.1782808
56	0xc053db44	-3.310258
57	0xc05b29de	-3.4244304
58	0x403b62b8	2.9279003
59	0x405a857e	3.4143977
60	0xc029e940	-2.6548615
61	0x3dd20120	0.10254121
62	0x40586231	3.3809931
63	0xbe844853	-0.2583643

fc2.weight f4 [64, 64]
0	0x3df6ff9e	0.12060474
1	0x3df48b5e	0.11940645
2	0x3dd48cb8	0.103784025
3	0xbd35dd2c	-0.04440038
4	0x3cbc31c8	0.022972956
5	0x3c2311c0	0.009952962
6	0xbdafda80	-0.085865974
7	0xbc3ed8f0	-0.011648402
8	0x3b4756c0	0.0030416697
9	0x3d78b070	0.06071514
10	0xbdf9c0cc	-0.12194976
11	0xbd98d168	-0.07461816
12	0xbd2ddffc	-0.042449936
13	0x3d4fe3f0	0.050754488
14	0x3dd12514	0.1021215
15	0x3d5fdb00	0.054652214
16	0xbd70d8b4	-0.058800414
17	0xbdd37440	-0.10324907
18	0xbd12aec8	-0.035811216
19	0x3d09eb68	0.033671767
20	0xbd8d419e	-0.06897281
21	0x3d7b3310	0.061327994
22	0xbcc7efc0	-0.024406314
23	0x3d00a140	0.03140378
24	0xbdb7a212	-0.08966459
25	0xbd957990	-0.07298577
26	0xbdfd27ce	-0.12361108
27	0xbc984678	-0.01858829
28	0xbdeeab4c	-0.11653766
29	0xbde6d36a	-0.11270793
30	0xbd0b7178	-0.03404376
31	0xbdbce85c	-0.092240065
32	0x3dd9d05e	0.10635446
33	0xbdaef820	-0.0854342
34	0x3ccd0250	0.025025517
35	0xbdb5adea	-0.08871062
36	0xbd2e5210	-0.04255873
37	0xbc88b260	-0.016686618
38	0x3dad6e86	0.08468346
39	0xbcc4f860	-0.024044216
40	0xbba1f2c0	-0.004942268
41	0xbd9f8abc	-0.07790133
42	0x3ce445c8	0.027865306
43	0xbdda70ba	-0.10666032
44	0xbcf581c0	-0.029969096
45	0xbd468e30	-0.048475444
46	0xbde8bcae	-0.11364113
47	0xbde45b7c	-0.11150262
48	0x3df04d7e	0.117335305
49	0x3dee9830	0.11650121
50	0xbddfe6d4	-0.10932699
51	0x3da97cec	0.0827578
52	0x3d84d810	0.06486523
53	0x3ddcf636	0.107891485
54	0xbdfd8a8c	-0.12379941
55	0xbdc42c2c	-0.095787376
56	0xbd4e6dcc	-0.05039768
57	0x3dfd78aa	0.123765305
58	0xbdf09ca4	-0.11748627
59	0xbc907450	-0.017633587
60	0xbd5585c4	-0.052129522
61	0xbc9da408	-0.019243255
62	0x3d91c1be	0.071170315
63	0x3d3203e8	0.043460757
64	0x3d7ec86f	0.062202867
65	0xbd1fa515	-0.038975794
66	0xbd8fc230	-0.0701946
67	0xbab80580	-0.0014039725
68	0x3d7131b4	0.05888529
69	0x3d0628f5	0.032753903
70	0xbe0e56b9	-0.1390027
71	0xbdf2ec2e	-0.11861454
72	0x3da03674	0.07822886
73	0xbe0d25ca	-0.13783947
74	0xbc2ccf68	-0.010547496
75	0x3d9ae4f8	0.075632036
76	0xbd26234c	-0.040561005
77	0xbdb3d8bb	-0.087815724
78	0x3bdeac02	0.0067954073
79	0x3de8e246	0.11371283
80	0x3d58584e	0.05281859
81	0x3d62ed19	0.055401895
82	0x3d1abdcc	0.03777866
83	0x3cade127	0.021225525
84	0xbe134cbf	-0.14384745
85	0xbdff6651	-0.12470687
86	0xbd18a609	-0.03726772
87	0x3bc38d5a	0.005967778
88	0xbdd29758	-0.10282773
89	0x3d370fa5	0.044692654
90	0x3c9fd180	0.019509077
91	0xbdd49524	-0.10380009
92	0xbe0678a6	-0.13131961
93	0xbe1ef511	-0.15523173
94	0x3d5778b8	0.05260536
95	0xbe267e16	-0.16259035
96	0xbdcf376a	-0.10117991
97	0xbaa62900	-0.0012677014
98	0xbd8ce2a4	-0.06879166
99	0x3cac2388	0.021013036
100	0xbcdaa462	-0.026689712
101	0xbd4193dc	-0.04726015
102	0xbbc49815	-0.005999575
103	0xbdc70909	-0.0971852
104	0xbd5376c6	-0.051626943
105	0x3d95b5b5	0.073100485
106	0xbd85ef6a	-0.06539805
107	0xbd3b74d1	-0.0457657
108	0x3d1b5fed	0.03793328
109	0xbdc3ee29	-0.0956691
110	0xbd44a7d6	-0.048011623
111	0x3d469688	0.0484834
112	0xbe09ac88	-0.13444722
113	0xbc1b9452	-0.009495812
114	0xbe6a0fbb	-0.22857563
115	0xbda068dd	-0.07832501
116	0x3cad39fa	0.02114581
117	0x3de742ca	0.11292036
118	0xbd9ee8b2	-0.07759227
119	0xbd76df3e	-0.060271494
120	0x3d8d5a60	0.06902003
121	0x3d4eeb0b	0.050517123
122	0x3d7dfb6f	0.062007364
123	0xbdfa7d3e	-0.12230919
124	0xbc4cdda6	-0.012504017
125	0x3a7b7100	0.00095917284
126	0x3d533c37	0.051571097
127	0xbd6a0ee8	-0.057143122
128	0x3d9ef643	0.077618144
129	0x3fc515dd	1.5397297
130	0x3dfec668	0.12440187
131	0xbda65674	-0.081219584
132	0x3eaa0cc5	0.33212867
133	0xbe254866	-0.16140899
134	0x3f05bd05	0.52241546
135	0x3d26e350	0.040744126
136	0x3bee3ae0	0.007270202
137	0xbe68a8da	-0.22720662
138	0xbd548865	-0.05188789
139	0xbef058aa	-0.46942645
140	0xbdbe7756	-0.09300105
141	0xbe23a3aa	-0.15980402
142	0x3e9e7901	0.30951694
143	0xbb392440	-0.0028250366
144	0xbdd5253c	-0.104074925
145	0xbd8a7808	-0.067611754
146	0x3d1168b4	0.035500243
147	0x3e01a8f3	0.12662105
148	0x3e1a7372	0.15083101
149	0x3e2e4abb	0.17020695
150	0x3e74af64	0.23895031
151	0xbe61a5e7	-0.22035943
152	0x3d5b2960	0.053506255
153	0xbeaac847	-0.33355924
154	0x3d63e590	0.05563885
155	0xbdd19cde	-0.10234998
156	0x3f41c7d9	0.7569557
157	0xbf01e726	-0.5074333
158	0xba04a500	-0.00050599873
159	0x3f5535b4	0.8328507
160	0xbdde8254	-0.10864702
161	0xbdeff5aa	-0.117167786
162	0xbe092961	-0.13394691
163	0xbd72e770	-0.059302747
164	0x3e284697	0.16433178
165	0xbdd0ab7a	-0.101889566
166	0xbdd970b3	-0.10617199
167	0x3dce3ab1	0.10069788
168	0x3d1adf46	0.037810586
169	0x3db5e6af	0.0888189
170	0xbcb08644	-0.021548398
171	0x3bcf78ae	0.006331525
172	0x3e56c7a6	0.20974597
173	0x3f175688	0.5911641
174	0x3e05efca	0.13079754
175	0x3e847f3a	0.25878316
176	0x400d5a0b	2.2086208
177	0xbf44b9e9	-0.76846176
178	0x3de149c0	0.11000395
179	0xbf14fb3d	-0.5819586
180	0xbe9ef5a1	-0.31046775
181	0xbe777375	-0.24165137
182	0x3d87ca6c	0.06630406
183	0xbe39a11f	-0.18127869
184	0x3d4c1590	0.04982525
185	0xbe4f59d7	-0.20249115
186	0x3de302e7	0.11084538
187	0x40041c80	2.0642395
188	0xbef4a586	-0.47782534
189	0xbdc54576	-0.09632389
190	0x3e096e53	0.13420992
191	0x3da5e8ae	0.08101021
192	0x3ddd0e6f	0.107937686
193	0x3e0a1c82	0.13487437
194	0xbdf0ecc2	-0.11763908
195	0x3dc0760e	0.09397517
196	0x3da49ba7	0.08037501
197	0xbdd9dbc8	-0.10637623
198	0x3df73cf0	0.1207217
199	0x3cad8d40	0.021185517
200	0x3d6ce0e0	0.057831645
201	0x3c12083b	0.008913095
202	0xbe648bb7	-0.22318922
203	0xbe7b00f9	-0.2451209
204	0x3df4abc8	0.11946827
205	0x3df29757	0.11845272
206	0x3e4a9a63	0.19785456
207	0x3dd423f2	0.103584185
208	0xbd5ffcf5	-0.054684598
209	0x3e033c7e	0.12816045
210	0xbd3cddd0	-0.046109974
211	0xbe45e790	-0.19326615
212	0x3e0fbd6f	0.14037107
213	0xbd25fb71	-0.040522996
214	0xbbe79161	-0.007066891
215	0x3de9bc35	0.11412851
216	0xbdc3bdf4	-0.09557715
217	0x3dabc5af	0.083873145
218	0x3d7d766c	0.061880514
219	0xbcab1040	-0.020881772
220	0x3f0c000a	0.5468756
221	0x3c7c27c2	0.015390338
222	0x3da0d8ca	0.07853849
223	0xbebf09b4	-0.3731209
224	0x3d871858	0.0659644
225	0x3ded2c70	0.115807414
226	0x3db878d0	0.09007418
227	0x3daafc72	0.08348931
228	0xbc73c187	-0.0148776835
229	0xbc8a4a58	-0.016881153
230	0xbf174fc7	-0.59106106
231	0x3edaebd9	0.42758062
232	0xbd5a6d7b	-0.053327065
233	0xbdd51d48	-0.104059756
234	0x3d49335b	0.049121242
235	0xbe1a9a39	-0.15097894
236	0x3e2a3f78	0.16625774
237	0x3e817c1f	0.2529001
238	0x3e393f77	0.18090616
239	0x3e848392	0.2588163
240	0x3eba63c8	0.36404252
241	0x3e1d391f	0.15353821
242	0x3d67ec57	0.056621876
243	0xbd0bb9e0	-0.03411281
244	0xbe382188	-0.17981541
245	0x3d265a1c	0.04061328
246	0x3cb09d80	0.021559477
247	0x3e06b3d2	0.13154534
248	0x3e069bfc	0.13145441
249	0xbd9dd1c5	-0.07706026
250	0x3c5657de	0.013082473
251	0x3f23be46	0.6396221
252	0xbdc9cca7	-0.098534875
253	0xbd6e3c2c	-0.058162853
254	0xbdbf40d6	-0.09338538
255	0x3db7362a	0.08945878

fc2.bias f4 [64]
0	0x3d429e18	0.04751405
1	0x3d92c920	0.07167268
2	0x3f51d9d4	0.81973004
3	0x3fb66e2d	1.4252373
4	0x3c51b553	0.012799579
5	0xbd792249	-0.060823712
6	0x3d0815c6	0.03322389
7	0x3fc7278c	1.5558944
8	0x3cedfd83	0.029051548
9	0x400f2c58	2.2370815
10	0xbca39c45	-0.019971976
11	0x3fbbf133	1.4682983
12	0x3d8ca225	0.06866864
13	0x3c9a3d2d	0.018827999
14	0x4006e8a4	2.1079493
15	0x3ff7a719	1.9347869
16	0x401b9f92	2.4316144
17	0xc0072c54	-2.1120806
18	0xbd630544	-0.055424944
19	0x4025cf9d	2.5907967
20	0x402188d5	2.5239766
21	0x3f58e95b	0.8473107
22	0x3ffcc01c	1.9746127
23	0x3aa85b80	0.0012844652
24	0x40290b86	2.6413283
25	0xbcfcdc8d	-0.030866886
26	0xbdf17a4b	-0.11790904
27	0x3f830488	1.0235758
28	0xbe028815	-0.12747224
29	0x3dce221a	0.10065098
30	0xbdfcd8f8	-0.12346071
31	0x3f8566b3	1.0421966
32	0x4004af78	2.0732098
33	0xbd6bd854	-0.057579353
34	0x3d2e32f0	0.042529047
35	0xc003c879	-2.0591109
36	0xbdf6dcc4	-0.120538265
37	0x3b2ac184	0.0026055286
38	0x3f90e2ad	1.1319176
39	0x4003b6ec	2.0580397
40	0x3d8e996c	0.06962857
41	0xbd21cb67	-0.03950062
42	0xbc058386	-0.008149033
43	0xbe12c62f	-0.14333414
44	0x3bbd1970	0.0057708547
45	0x3fc6a222	1.5518229
46	0x4021e149	2.5293753
47	0x400220c6	2.0332503
48	0x3ef9b888	0.487736
49	0x3cf0be88	0.029387727
50	0x400b62a2	2.177895
51	0x3f87d1b0	1.0610867
52	0xbf84be22	-1.0370524
53	0x3de57154	0.11203256
54	0xbde7cd9a	-0.11318512
55	0x3d8a6a1c	0.0675852
56	0x3f407e4a	0.751927
57	0x3edec760	0.43511486
58	0x3f74fd83	0.9569933
59	0x3ff49287	1.9107217
60	0x3fed3a67	1.8533448
61	0x3f610191	0.87893015
62	0x3fc8cc39	1.5687324
63	0x3fabff5b	1.3437303

fc3.weight f4 [20, 64]
0	0x3c4cc3b0	0.012497827
1	0xbdc37f9d	-0.09545825
2	0x3dccf6e2	0.10008027
3	0x3dcedc7b	0.10100647
4	0xbd5dc9ba	-0.05414746
5	0xbdbd0fc1	-0.092315204
6	0xbd8ae801	-0.067825325
7	0xbf94a9a6	-1.1614273
8	0xbd53eebc	-0.051741347
9	0xbf7c5436	-0.98565996
10	0xbcdeb5a8	-0.02718623
11	0x3e120bd4	0.14262325
12	0x3c30cc40	0.0107908845
13	0x3c74e7f1	0.014947877
14	0x3f371b68	0.71526194
15	0x3e8a8eab	0.27061972
16	0x3f10dd99	0.5658813
17	0xbf0fd1b4	-0.56179357
18	0xbd353086	-0.04423573
19	0x3f0cfea1	0.5507603
20	0xbff87415	-1.9410425
21	0x3f2f929f	0.685831
22	0x3f23e016	0.64013803
23	0x3d40b448	0.04704693
24	0x3f1b2128	0.6059747
25	0xbd7674b4	-0.06016989
26	0xbd6e9a6d	-0.05825274
27	0x3d1834b4	0.037159637
28	0x3d829262	0.063755766
29	0xbd0ccbe2	-0.034374125
30	0x3db136dc	0.08653042
31	0xbdc09cd7	-0.09404915
32	0x3f27e9d7	0.65591186
33	0x3c9bb399	0.019006537
34	0xbc4a4d20	-0.01234749
35	0xbf28ac54	-0.6588795
36	0x3d9baeaa	0.07601674
37	0xbd5d3e60	-0.054014564
38	0x3ce93607	0.028468145
39	0x3f19846a	0.5996767
40	0xbd9997f9	-0.074996896
41	0x3d8e423a	0.069462255
42	0xbd4e5d64	-0.050382033
43	0xbd990358	-0.07471341
44	0xbd959e41	-0.07305575
45	0x3b7d21ae	0.003862481
46	0x3ed75a38	0.4206102
47	0x3e86b953	0.26313266
48	0xbce51fbc	-0.027969234
49	0xbcef70b8	-0.029228553
50	0x3ed1213d	0.4084567
51	0x3ef3de12	0.47630364
52	0xbe4a2860	-0.19741964
53	0x3de25336	0.110510275
54	0xbd7e8a94	-0.062143877
55	0xbce3f658	-0.027827427
56	0xbcee61ff	-0.029099463
57	0x3d56ba74	0.05242391
58	0x3db6c3a8	0.08924037
59	0x3ea8d357	0.3297374
60	0x3ea0731f	0.3133783
61	0x3e8e4667	0.27788088
62	0x3ea64226	0.32472342
63	0x3f023fc1	0.5087853
64	0x3d3a4a74	0.04548116
65	0xbd88c26d	-0.06677709
66	0x3bdeaf51	0.0067958017
67	0x3da6952d	0.08133922
68	0xbd949347	-0.072546534
69	0xbda5685e	-0.08076547
70	0xbcb93248	-0.022606984
71	0xbf71bb30	-0.9442625
72	0x3df537c3	0.11973526
73	0xbf2ca477	-0.67438453
74	0x3a4cc5bb	0.00078114466
75	0x3ddaf91c	0.10692045
76	0xbd8c7ce1	-0.06859756
77	0x3cd07b6a	0.025449473
78	0x3f17c373	0.59282607
79	0x3de916e6	0.11381321
80	0x3f27d1cf	0.6555452
81	0xbe2453fc	-0.16047662
82	0x3ba4a0c7	0.005024049
83	0x3f076c7c	0.5289991
84	0xbf9dcaac	-1.2327476
85	0xbe2255e3	-0.15853076
86	0x3ea9f85f	0.33197305
87	0x3d9d9e74	0.07696238
88	0x3eec80db	0.4619206
89	0x3d8252ae	0.06363426
90	0xbd820f2f	-0.06350552
91	0x3cbfaf4d	0.02339902
92	0x3d75eeda	0.06004224
93	0x3d2d34d6	0.042286716
94	0xbce95630	-0.02848348
95	0x3db62d08	0.08895308
96	0x3f15163e	0.58237064
97	0x3c70870d	0.014680636
98	0xbd44be8c	-0.048033282
99	0xbe3876fc	-0.18014139
100	0xbdca96ee	-0.09892069
101	0x3dcf57b4	0.1012415
102	0x3e00ac4a	0.12565723
103	0x3ec3cf24	0.38243973
104	0x3e065cf3	0.13121395
105	0x3d7e2654	0.06204827
106	0x3dd99c83	0.10625555
107	0xbdf77782	-0.12083341
108	0x3d7deac8	0.061991483
109	0xbe4e7a04	-0.20163733
110	0x3ecc6a5c	0.39924896
111	0x3e66d419	0.22541846
112	0x3d616735	0.055030067
113	0x3cba6558	0.022753403
114	0x3ea3a386	0.31960696
115	0xbdad0f3f	-0.084501736
116	0xbe3222b5	-0.17396052
117	0xbd91616c	-0.0709866
118	0xbd7eb32c	-0.06218259
119	0x3dbdc7f4	0.09266654
120	0x3d9dbf3b	0.0770249
121	0x3dbe44e8	0.092904866
122	0xbd84e8ec	-0.06489739
123	0x3e163ebe	0.14672372
124	0x3e519bb1	0.20469548
125	0xbe29f994	-0.16599113
126	0x3e928ebc	0.28624523
127	0x3f332768	0.69982004
128	0xbdf306e6	-0.1186655
129	0xbd1bd204	-0.038042083
130	0xbe9722bc	-0.29518688
131	0x3e134956	0.14383444
132	0xbd4af856	-0.049553238
133	0xbdd56f1c	-0.10421583
134	0xbc438370	-0.011933193
135	0xbf6e0db5	-0.92989665
136	0x3df1c2b2	0.11804713
137	0xbf08cc52	-0.5343677
138	0xbce5271b	-0.027972749
139	0x3ea03ae4	0.3129493
140	0xbaa84300	-0.001283735
141	0xbd3ee8b6	-0.04660865
142	0x3ec2b100	0.38025665
143	0x3de289c8	0.11061436
144	0x3f0f5be1	0.5599957
145	0xbe8eabd6	-0.27865475
146	0x3d334381	0.04376555
147	0x3ee792b8	0.45229125
148	0xbf6923bf	-0.9107017
149	0xbe73242e	-0.2374427
150	0x3e290116	0.1650432
151	0xbc83f718	-0.016109034
152	0x3eea2e37	0.45738384
153	0xbbf79d20	-0.0075565726
154	0x3def37bd	0.11680553
155	0xbd126412	-0.035739966
156	0xbd84b06d	-0.06478963
157	0xbddaff7b	-0.1069326
158	0x3dc63e6c	0.09679875
159	0x3ed343dc	0.4126271
160	0x3ef49f9e	0.47778028
161	0x3cd25baf	0.025678484
162	0xbd2384f8	-0.03992173
163	0xbe67f8b9	-0.22653474
164	0xbdf4b274	-0.119481
165	0xbc9a6bad	-0.018850172
166	0x3e3e21d1	0.18567587
167	0x3f160b81	0.58611304
168	0xbdc7bc80	-0.097527504
169	0x3c90c090	0.017669946
170	0xbc302d5b	-0.010753001
171	0x3db04c84	0.08608344
172	0xbd80cf15	-0.06289498
173	0xbec0176f	-0.37517878
174	0x3ebc0e1d	0.36729518
175	0x3e93964e	0.2882561
176	0x3dc35a98	0.09538764
177	0x3ca735d8	0.020411417
178	0x3e6dcd3d	0.23222823
179	0xbe51f6cd	-0.20504303
180	0xbdafd5e4	-0.08585718
181	0x3d693278	0.056932896
182	0x3dc369ca	0.09541662
183	0xbdc10eba	-0.09426637
184	0x3de69e50	0.112606645
185	0x3eb0ec8a	0.34555465
186	0xbcc6ceb9	-0.024268495
187	0x3e7dbfa2	0.24780133
188	0x3e30644f	0.17225765
189	0xbdec38c8	-0.11534268
190	0x3ebd7dc5	0.37010017
191	0x3ea41ac9	0.32051685
192	0x3d57ab84	0.052653804
193	0xbd73eab6	-0.05955001
194	0x3d56aea6	0.05241265
195	0x3d526409	0.051364932
196	0xbd8535c6	-0.06504397
197	0xbd519791	-0.051169936
198	0xbde902c4	-0.113774806
199	0xbf8d95e1	-1.1061364
200	0xbda49e3a	-0.08037992
201	0xbf355346	-0.7083019
202	0x3d37f272	0.04490895
203	0xbdb57ba4	-0.08861473
204	0x3dd6fcee	0.10497461
205	0x3dadf26c	0.08493504
206	0x3f0010b8	0.5002551
207	0x3e33f45b	0.17573683
208	0x3ed1ccdb	0.40976605
209	0xbead9a7b	-0.33906922
210	0xbc629c8e	-0.013831271
211	0x3f01e752	0.5074359
212	0xbf65364f	-0.89535993
213	0xbec82167	-0.39087984
214	0x3e5270c3	0.20550828
215	0x3de13800	0.10997009
216	0x3ed0c6f8	0.407768
217	0xbd96358e	-0.073344335
218	0x3cff37f6	0.031154614
219	0xbdde4dd3	-0.108546875
220	0x3e0fce1d	0.1404347
221	0x3de5bd1d	0.11217711
222	0x3d18b14c	0.03727846
223	0xbcaf75cf	-0.02141848
224	0x3f2c0050	0.67187977
225	0xbd897909	-0.06712539
226	0xbdad109a	-0.08450432
227	0xbe97aed7	-0.2962558
228	0xbdb3d5f2	-0.08781041
229	0xbd6b5d2e	-0.05746191
230	0x3de8380a	0.113388136
231	0x3ec925e6	0.39286727
232	0x3e0d4543	0.13795952
233	0xbc844b60	-0.016149223
234	0x3d1709a7	0.03687444
235	0x3dd85b4c	0.105642885
236	0xbd27e338	-0.040988177
237	0xbe15eebf	-0.14641856
238	0x3ed7e502	0.42166907
239	0x3e9704b0	0.29495764
240	0x3d69afe0	0.057052493
241	0xbdcceefc	-0.1000652
242	0x3e1a8f64	0.15093762
243	0xbd3e0520	-0.046391606
244	0xbe82bacb	-0.25533137
245	0x3dce7b7c	0.100821465
246	0xbda1bc56	-0.0789725
247	0xbd965d54	-0.0734202
248	0xbd5b33eb	-0.05351631
249	0x3e958294	0.29201186
250	0xbe12c64b	-0.14333455
251	0x3e9c8c6d	0.30575886
252	0x3ea247ab	0.31695303
253	0x3e7102f8	0.23536289
254	0x3ea266e4	0.31719124
255	0x3f1fe93f	0.6246528

fc3.bias f4 [20]
0	0x3fc641b5	1.5488802
1	0x3f7c19a9	0.98476654
2	0x3f80c5f1	1.0060407
3	0x3f3d8193	0.7402584
4	0x3f221fbf	0.6332969
5	0x3f0a0144	0.5390818
6	0x3e20e550	0.15712476
7	0x3f02e13f	0.5112495
8	0x3ea5f3a3	0.32412443
9	0x3e4d8db1	0.20073582
10	0x3e08ada9	0.13347496
11	0xbcb0049e	-0.021486577
12	0xbcaeebd7	-0.021352692
13	0xbc94bf7a	-0.01815771
14	0x3e00e0f8	0.12585819
15	0xbe1000c2	-0.14062789
16	0xbdb9a3a5	-0.09064416
17	0xbe5ea989	-0.2174436
18	0xbef0b042	-0.47009474
19	0xbeeced8e	-0.4627499

fc1.weight f4 [64, 3]
0	0x3ebea4f1	0.37235215
1	0xbef2506d	-0.47326985
2	0xbec095cb	-0.37614283
3	0xbdca4ec9	-0.09878308
4	0x3e60e333	0.2196167
5	0xbe3c3adb	-0.18381827
6	0xbe75c91c	-0.24002498
7	0xbeaa7f28	-0.33300138
8	0xbf01f440	-0.5076332
9	0xbcfa65e0	-0.030566156
10	0xbe8d8d4f	-0.27646872
11	0xbe35ea76	-0.17765221
12	0x3cc6dbad	0.024274671
13	0xbe8b2787	-0.27178594
14	0x3dc8004c	0.097656816
15	0x3f1b8688	0.60752153
16	0x3e3be5d9	0.18349399
17	0xbcf087e7	-0.029361678
18	0xbf207875	-0.626838
19	0x3e455875	0.19272025
20	0x3d91c096	0.07116811
21	0xbedae9bd	-0.42756453
22	0xbeb3db2e	-0.35128158
23	0xbe8e31dd	-0.27772418
24	0xbeeb2ddb	-0.45933422
25	0xbf11601f	-0.56787294
26	0xbe44eed2	-0.19231728
27	0x3dda772f	0.10667264
28	0x3efc3449	0.4925864
29	0x3eca90f6	0.3956372
30	0xbcee11fd	-0.029061312
31	0xbd80aa5c	-0.062824935
32	0x3deb5abe	0.11491917
33	0x3f4836f3	0.78208846
34	0x3f2cbc2c	0.6747463
35	0x3ed01bdf	0.40646264
36	0xbec5ab02	-0.3860703
37	0x3a4a306f	0.00077129056
38	0xbefb5b80	-0.49093246
39	0xbecbe8f6	-0.39826173
40	0xbebf039a	-0.37307435
41	0x3f019ed2	0.50632966
42	0xbee203f8	-0.44143653
43	0xbe6a314b	-0.22870366
44	0x3ec01161	0.3751326
45	0xbefd7233	-0.4950119
46	0xbe4a1b68	-0.19737017
47	0xbf0163df	-0.50543016
48	0x3de579d1	0.11204875
49	0x3f04c914	0.5186932
50	0x3df2a876	0.118485376
51	0xbe3a91ee	-0.1821973
52	0x3e89b839	0.26898363
53	0x3e587806	0.21139535
54	0xbe37dcf8	-0.17955387
55	0xbd1a6eb0	-0.037703216
56	0xbeb0e044	-0.345461
57	0xbea0303f	-0.3128681
58	0xbe1b7960	-0.1518302
59	0x3e249e9c	0.1607613
60	0x3dc05ea4	0.09393051
61	0x3d0622c9	0.032748017
62	0xbcd699bd	-0.026196355
63	0xbee26f27	-0.44225428
64	0x3e832ea9	0.25621536
65	0x3e9a2395	0.30105272
66	0xbebbfc93	-0.36716136
67	0x3e0ad94d	0.13559456
68	0x3e005547	0.1253253
69	0x3e8a1b8e	0.26974148
70	0xbd280cf9	-0.041027997
71	0x3e797ce8	0.24364054
72	0xbecdeaee	-0.402183
73	0xbf0f7f0f	-0.5605325
74	0xbe42b35e	-0.19013736
75	0xbeeb6da1	-0.45982078
76	0xbecc38b2	-0.39887005
77	0x3e8980a5	0.2685596
78	0xbe4cff64	-0.20019299
79	0xbf076401	-0.5288697
80	0xbe19d3ba	-0.15022174
81	0xbe6457d5	-0.2229913
82	0xbf11d533	-0.5696594
83	0xbcc4f493	-0.024042403
84	0xbe5ab63e	-0.21358582
85	0xbe69d878	-0.22836483
86	0x3d70a187	0.058747794
87	0x3f1c6284	0.6108782
88	0x3e86c1a2	0.26319605
89	0x3eb6b867	0.35687563
90	0xbe8eebc5	-0.27914253
91	0xbedc8e26	-0.430772
92	0xbde557f8	-0.11198419
93	0x3e3a10d0	0.18170476
94	0x3e96483a	0.2935198
95	0xbe876a6c	-0.2644838
96	0xbdc9174c	-0.09818897
97	0xbe8eb9a6	-0.27876014
98	0xbd920bc8	-0.07131153
99	0xbee5dc98	-0.44894862
100	0xbd31d410	-0.04341513
101	0xbed206e6	-0.41020888
102	0x3e0b8ae3	0.136272
103	0xbf3610a5	-0.7111915
104	0x3e83bdf6	0.25730866
105	0xbe80d367	-0.25161287
106	0xbec7cb25	-0.39022174
107	0xbf0e3704	-0.555527
108	0x3e2de774	0.16982824
109	0xbeb841d1	-0.35987714
110	0x3e988326	0.29787558
111	0xbef20108	-0.47266412
112	0xbe8a039e	-0.26955885
113	0xbec7d7e0	-0.39031887
114	0x3f177a83	0.59171313
115	0x3f05b609	0.5223089
116	0xbe52a620	-0.20571184
117	0x3e888a22	0.26667887
118	0xbe518217	-0.20459782
119	0x3c8a6377	0.016893132
120	0xbe5967cb	-0.21231
121	0x3de16dec	0.11007294
122	0x3e15d6b0	0.14632678
123	0xbec25955	-0.3795878
124	0xbe5bb739	-0.21456613
125	0x3e3d77fc	0.18502802
126	0xbea5f889	-0.3241618
127	0x3ea38a8a	0.31941634
128	0x3e6248f7	0.22098146
129	0x3db72241	0.0894208
130	0x3e8778fe	0.26459497
131	0x3e351e5e	0.17687365
132	0x3f34a7ee	0.7056874
133	0xbf32401d	-0.6962908
134	0xbda1169c	-0.078656405
135	0xbe3623d5	-0.17787106
136	0xbe203578	-0.15645397
137	0x3d4665a8	0.04843679
138	0x3e7e61f8	0.2484206
139	0xbf570373	-0.8398964
140	0x3e822c05	0.2542421
141	0x3e88a314	0.2668692
142	0xbecd36e9	-0.40080956
143	0x3e19a403	0.15003972
144	0x3e3332eb	0.17499892
145	0x3de4ea23	0.111774705
146	0xbe84322e	-0.25819534
147	0xbe354c5f	-0.17704915
148	0xbf178e79	-0.5920177
149	0x3ea9e727	0.33184168
150	0xbe4b63f7	-0.19862352
151	0x3e99a6aa	0.30009967
152	0x3c85a9f3	0.01631639
153	0xbe581aef	-0.21104024
154	0xbea8c5e3	-0.32963476
155	0x3e830114	0.2558676
156	0xbe878a3e	-0.26472658
157	0xbe93d4b8	-0.2887323
158	0x3e918293	0.28419933
159	0x3f4ed52d	0.8079403
160	0xbe9ebd14	-0.3100363
161	0x3d65bc2e	0.056087665
162	0xbdca8a47	-0.098896556
163	0xbda81024	-0.082062036
164	0xbe8ad698	-0.27116847
165	0x3e8cd457	0.27505752
166	0x3df133c4	0.11777452
167	0x3ebfd5d3	0.37467822
168	0x3e5d0d28	0.2158705
169	0xbe92f3b4	-0.28701556
170	0x3e56cb6b	0.20976035
171	0x3cc26a1b	0.023732236
172	0xbebaa62e	-0.3645491
173	0x3e4c4d90	0.19951463
174	0x3d6150f8	0.05500886
175	0x3e65f3f4	0.22456342
176	0x3db5bc05	0.088737525
177	0x3e91c1e2	0.28468233
178	0x3de53041	0.11190844
179	0xbeeaab7e	-0.45833963
180	0x3f48d45c	0.78449035
181	0x3e1ea91d	0.15494199
182	0x3ec4cab2	0.38435894
183	0x3d217a80	0.039423466
184	0xbf00b989	-0.50283104
185	0xbf021d56	-0.50826013
186	0xbe37aea4	-0.17937714
187	0x3e01ba0b	0.12668626
188	0x3cfbfe14	0.030760802
189	0xbca090e0	-0.019600332
190	0xbdac82d4	-0.08423391
191	0xbe6d682d	-0.23184271

fc1.bias f4 [64]
0	0x3eda7a08	0.42671227
1	0x404c68cc	3.1938963
2	0xbca2b4a0	-0.01986152
3	0xbe54e58e	-0.20790693
4	0x406a225d	3.6583474
5	0x40365831	2.8491328
6	0x40720544	3.7815714
7	0x3e0c8830	0.13723826
8	0x3dedc4e0	0.116098166
9	0xbfb6ada8	-1.4271746
10	0xc05559a7	-3.333597
11	0xc04306d6	-3.0472922
12	0xbddb58fc	-0.10710332
13	0xbf938030	-1.1523495
14	0x40333170	2.7998924
15	0x3eac3f4e	0.33642048
16	0x402049bc	2.5045004
17	0x403cce4c	2.9500914
18	0x3f031c1a	0.51214755
19	0xc0581afe	-3.3766475
20	0x4077fbd7	3.874746
21	0x401a1b8f	2.407932
22	0x403898ea	2.8843331
23	0x3f921db5	1.1415316
24	0x3ed2777e	0.4110679
25	0xc02f685c	-2.7407446
26	0xbe7887de	-0.24270579
27	0x3d0bd3a0	0.03413737
28	0x408befd4	4.373026
29	0xbfed06e7	-1.8517731
30	0xbe35b54a	-0.17744938
31	0x4011b46a	2.2766366
32	0x3ecfbd3a	0.40574056
33	0x3ebb8bc6	0.36630076
34	0xc01b48c1	-2.4263155
35	0x3eacfbd0	0.33785868
36	0x40080201	2.1251223
37	0xbc978240	-0.018494725
38	0x40121c74	2.2829866
39	0x407850ea	3.8799386
40	0xbe7cc7e3	-0.24685626
41	0xc05351ae	-3.3018603
42	0x3f0aad45	0.5417064
43	0x3f8cfdd9	1.1014968
44	0x3fb304bf	1.3985823
45	0x40559cc3	3.337693
46	0x402260c9	2.5371573
47	0x4084ddce	4.152076
48	0x4081d6e4	4.057482
49	0xbfe618f6	-1.7976367
50	0x4059a8b4	3.4009218
51	0xc029f869	-2.6557868
52	0xc07022f9	-3.7521346
53	0x403ebd68	2.9803104
54	0x3eb93ece	0.3618073
55	0x40091c4c	2.142352
56	0xc049b439	-3.151625
57	0xc04fc41b	-3.2463443
58	0x4033f8fc	2.8120718
59	0x405694db	3.3528354
60	0xc0202604	-2.5023203
61	0x3dd20120	0.10254121
62	0x404fcea1	3.2469866
63	0xbe844853	-0.2583643

fc2.weight f4 [64, 64]
0	0x3df6ff9e	0.12060474
1	0x3df48b5e	0.11940645
2	0x3dd48cd0	0.1037842
3	0xbd35dd3e	-0.044400446
4	0x3cbc325b	0.02297323
5	0x3c2311c0	0.009952962
6	0xbdafda80	-0.085865974
7	0xbc3ed8f0	-0.011648402
8	0x3b4756c0	0.0030416697
9	0x3d78b070	0.06071514
10	0xbdf9c0cc	-0.12194976
11	0xbd98d168	-0.07461816
12	0xbd2ddffc	-0.042449936
13	0x3d4fe3f0	0.050754488
14	0x3dd125b5	0.1021227
15	0x3d5fdb61	0.054652575
16	0xbd70d8b4	-0.058800414
17	0xbdd37440	-0.10324907
18	0xbd12aec8	-0.035811216
19	0x3d09eb68	0.033671767
20	0xbd8d419e	-0.06897281
21	0x3d7b3378	0.06132838
22	0xbcc7efc0	-0.024406314
23	0x3d00a140	0.03140378
24	0xbdb7a25f	-0.08966517
25	0xbd957990	-0.07298577
26	0xbdfd27ce	-0.12361108
27	0xbc9846ed	-0.018588508
28	0xbdeeab4c	-0.11653766
29	0xbde6d36a	-0.11270793
30	0xbd0b71ba	-0.034044005
31	0xbdbce85c	-0.092240065
32	0x3dd9d07c	0.10635468
33	0xbdaef820	-0.0854342
34	0x3ccd0250	0.025025517
35	0xbdb5ae5e	-0.088711485
36	0xbd2e5210	-0.04255873
37	0xbc88b298	-0.016686723
38	0x3dad6e86	0.08468346
39	0xbcc4f87b	-0.024044266
40	0xbba1f2c0	-0.004942268
41	0xbd9f8abc	-0.07790133
42	0x3ce445c8	0.027865306
43	0xbdda70ba	-0.10666032
44	0xbcf5826c	-0.029969417
45	0xbd468ebc	-0.048475966
46	0xbde8bcd9	-0.11364145
47	0xbde45bbd	-0.1115031
48	0x3df04d7e	0.117335305
49	0x3dee98de	0.11650251
50	0xbddfe719	-0.1093275
51	0x3da97d3c	0.0827584
52	0x3d84d810	0.06486523
53	0x3ddcf636	0.107891485
54	0xbdfd8a8c	-0.12379941
55	0xbdc42c2c	-0.095787376
56	0xbd4e6e63	-0.05039824
57	0x3dfd78aa	0.123765305
58	0xbdf09ca4	-0.11748627
59	0xbc907450	-0.017633587
60	0xbd5585c4	-0.052129522
61	0xbc9da408	-0.019243255
62	0x3d91c1be	0.071170315
63	0x3d3203e8	0.043460757
64	0x3d7ead16	0.062176786
65	0xbd1f976f	-0.038962778
66	0xbd8fc230	-0.0701946
67	0xbab80580	-0.0014039725
68	0x3d71d88a	0.0590444
69	0x3d07a2b9	0.03311417
70	0xbe0e4bb3	-0.13896064
71	0xbdf2ec2e	-0.11861454
72	0x3da03674	0.07822886
73	0xbe0d0430	-0.13771129
74	0xbc2c52df	-0.010517805
75	0x3d9b54ba	0.0758452
76	0xbd26234c	-0.040561005
77	0xbdb3c05b	-0.08776923
78	0x3be14b65	0.006875443
79	0x3de8e246	0.11371283
80	0x3d58f02c	0.05296342
81	0x3d636f26	0.05552592
82	0x3d1abdcc	0.03777866
83	0x3cae12d1	0.021249207
84	0xbe131aa5	-0.14365633
85	0xbdff580a	-0.12467964
86	0xbd188665	-0.037237544
87	0x3bc94407	0.0061421427
88	0xbdd29758	-0.10282773
89	0x3d372956	0.044717155
90	0x3c9fd180	0.019509077
91	0xbdd49524	-0.10380009
92	0xbe06567d	-0.1311893
93	0xbe1ec45d	-0.15504594
94	0x3d5778b8	0.05260536
95	0xbe2649dd	-0.16239114
96	0xbdcf376a	-0.10117991
97	0xbaa62900	-0.0012677014
98	0xbd8ca29a	-0.06866951
99	0x3cac2388	0.021013036
100	0xbcd94516	-0.0265222
101	0xbd4193dc	-0.04726015
102	0xbbbcfaa7	-0.005767185
103	0xbdc677e2	-0.096908346
104	0xbd5340f2	-0.05157561
105	0x3d95c137	0.073122434
106	0xbd85c711	-0.065321095
107	0xbd3ad982	-0.045617588
108	0x3d1ca4da	0.038243152
109	0xbdc32fce	-0.095306024
110	0xbd43fc49	-0.04784802
111	0x3d47b286	0.048754238
112	0xbe0996d9	-0.1343645
113	0xbc1ab9d4	-0.009443719
114	0xbe69bb3e	-0.22825333
115	0xbda05ff6	-0.07830803
116	0x3cad6cc2	0.021170024
117	0x3de7ac75	0.113121904
118	0xbd9ee8b2	-0.07759227
119	0xbd763444	-0.060108438
120	0x3d8dcbb2	0.069236174
121	0x3d500db8	0.050794333
122	0x3d7eae52	0.062177964
123	0xbdfa6008	-0.12225348
124	0xbc4978e2	-0.012296887
125	0x3a7b7100	0.00095917284
126	0x3d53b68a	0.051687755
127	0xbd6a0ee8	-0.057143122
128	0x3d9ef019	0.07760639
129	0x3fbb3b3c	1.4627452
130	0x3dfec668	0.12440187
131	0xbda65674	-0.081219584
132	0x3e59e0a6	0.21277103
133	0xbe2f7134	-0.17133027
134	0x3ed9d099	0.4254196
135	0x3d26e350	0.040744126
136	0x3bee3b1e	0.007270231
137	0xbe4aec2a	-0.19816652
138	0xbd54da4f	-0.051966008
139	0xbed9eb0b	-0.42562136
140	0xbdbe7756	-0.09300105
141	0xbced7042	-0.028984193
142	0x3e5eb370	0.21748137
143	0xbb392440	-0.0028250366
144	0xbdf29b43	-0.1184602
145	0xbdc501c7	-0.096194796
146	0x3d116917	0.035500612
147	0x3e01a07c	0.12658876
148	0x3db6a284	0.08917716
149	0x3e0d813b	0.13818829
150	0x3e3010b1	0.17193867
151	0xbe57802f	-0.21044992
152	0x3d5b2960	0.053506255
153	0xbe82e6f0	-0.25566816
154	0x3d63e590	0.05563885
155	0xbdd19cde	-0.10234998
156	0x3f0b8974	0.5450661
157	0xbee92402	-0.45535284
158	0xba04a500	-0.00050599873
159	0x3f4b6bf6	0.7946161
160	0xbdde8254	-0.10864702
161	0xbdeff5aa	-0.117167786
162	0xbd870069	-0.06591875
163	0xbd72e770	-0.059302747
164	0x3dec88e6	0.11549549
165	0xbdd0ab7a	-0.101889566
166	0xbdf61c5e	-0.12017129
167	0x3d1372d0	0.035998166
168	0x3d0a4546	0.03375747
169	0x3d8055a6	0.06266336
170	0xbd1c9c6a	-0.038235106
171	0x3aeb0734	0.0017931224
172	0x3e76fe44	0.24120432
173	0x3ec74ab9	0.38924196
174	0x3e639d4c	0.22227973
175	0x3e3463e9	0.17616238
176	0x40087034	2.1318483
177	0xbf08e17f	-0.5346908
178	0x3d741031	0.059585754
179	0xbedb7d59	-0.4286907
180	0xbe33bd05	-0.17552574
181	0xbe8427b7	-0.2581155
182	0x3d87ca6c	0.06630406
183	0xbe372eae	-0.178889
184	0x3e2345f7	0.15944658
185	0xbe380c33	-0.17973404
186	0x3dabdcd5	0.0839173
187	0x3fffd5b5	1.9987093
188	0xbed01609	-0.4064181
189	0xbdc54576	-0.09632389
190	0x3d896550	0.06708777
191	0x3da5e8ae	0.08101021
192	0x3ddd08e4	0.107927114
193	0x3e969e4c	0.29417646
194	0xbdf0ecc2	-0.11763908
195	0x3dc0760e	0.09397517
196	0x3da60b05	0.081075706
197	0xbd0c13c1	-0.034198526
198	0x3da428a7	0.08015566
199	0x3cad8d40	0.021185517
200	0x3d6ce0e0	0.057831645
201	0xbb031b95	-0.0020005454
202	0xbe5457ff	-0.20736693
203	0xbe77f7f6	-0.24215683
204	0x3df4abc8	0.11946827
205	0x3dc97ad4	0.09837881
206	0x3e363482	0.17793468
207	0x3dd423f2	0.103584185
208	0xbd31a353	-0.04336865
209	0x3df877bf	0.12132215
210	0xbd3cde3c	-0.046110377
211	0xbe3ec939	-0.18631448
212	0x3e4958f5	0.1966284
213	0xbd6538ee	-0.055962496
214	0xbcc22c3c	-0.023702733
215	0x3defbd43	0.11706021
216	0xbdc3bdf4	-0.09557715
217	0x3d998dff	0.07497787
218	0x3d7d766c	0.061880514
219	0xbcab1040	-0.020881772
220	0x3f080fa1	0.5314885
221	0x3c676fa0	0.014125735
222	0x3da0d8ca	0.07853849
223	0xbe62273d	-0.2208528
224	0x3d87186e	0.065964565
225	0x3ded2c70	0.115807414
226	0x3dca961e	0.09891914
227	0x3daafc72	0.08348931
228	0xbca814d3	-0.020517742
229	0xbc8a4a58	-0.016881153
230	0xbee6f888	-0.4511149
231	0x3ef0982b	0.46991095
232	0xbd9e9c9f	-0.07744717
233	0xbdcf4114	-0.101198345
234	0x3d07e043	0.033172857
235	0xbe17e93c	-0.14835066
236	0x3e02de19	0.12780036
237	0x3e793d31	0.24339749
238	0x3e36e7c4	0.17861849
239	0x3e876a30	0.26448202
240	0x3f06169e	0.5237826
241	0x3e137abd	0.1440229
242	0x3d835fa3	0.06414726
243	0xbd4019b8	-0.046899527
244	0xbe42da13	-0.19028501
245	0x3dba1cc5	0.090875186
246	0x3cb09d80	0.021559477
247	0x3e054c2f	0.13017343
248	0x3dfd31c6	0.12363009
249	0xbd91fe75	-0.07128612
250	0x3cc811f2	0.02442262
251	0x3f3d6b09	0.7399145
252	0xbdc8299b	-0.097735606
253	0xbd6e3c2c	-0.058162853
254	0xbdb8e8b7	-0.09028762
255	0x3db7362a	0.08945878

fc2.bias f4 [64]
0	0x3d429e18	0.04751405
1	0x3d9338ad	0.071885444
2	0x3f3e7e9f	0.7441196
3	0x3fb631e5	1.4233977
4	0x3c528154	0.012848217
5	0xbd7898fd	-0.060692776
6	0x3d085aec	0.033289835
7	0x3fc08980	1.5041962
8	0x3cee5c13	0.029096639
9	0x400ae166	2.1700072
10	0xbca368f4	-0.019947506
11	0x3fb72d09	1.4310619
12	0x3d8cb5c0	0.068706036
13	0x3ca95bab	0.020673594
14	0x4000f218	2.0147762
15	0x3fef7aec	1.8709388
16	0x4015984a	2.33742
17	0xbffea4c2	-1.989403
18	0xbd62de7c	-0.05538796
19	0x401fed94	2.4988756
20	0x401e1839	2.4702284
21	0x3f485c8d	0.7826622
22	0x3ff33bd1	1.900263
23	0x3aa85b80	0.0012844652
24	0x40234d20	2.5515823
25	0xbcfc101c	-0.0307694
26	0xbdf14df1	-0.11782444
27	0x3f7b3bc1	0.9813805
28	0xbe028141	-0.12744619
29	0x3dce3f7b	0.10070702
30	0xbdfcd95a	-0.12346144
31	0x3f857f52	1.042948
32	0x3ffd49c8	1.9788141
33	0xbd6a7197	-0.057237234
34	0x3d2e32f0	0.042529047
35	0xbff9fc1a	-1.953006
36	0xbdf6dcc4	-0.120538265
37	0x3b316c67	0.002707267
38	0x3f8f358f	1.118822
39	0x3ffbe5ec	1.9679542
40	0x3d8ebd47	0.069696955
41	0xbd21c4a8	-0.039494187
42	0xbc04f8c6	-0.008115953
43	0xbe12b278	-0.14325893
44	0x3bc23249	0.0059264046
45	0x3fbcb9c2	1.4744189
46	0x401c67ee	2.4438434
47	0x3ffa27cc	1.9543395
48	0x3efe606c	0.4968294
49	0x3cf0be88	0.029387727
50	0x40065354	2.098836
51	0x3f7e1608	0.99252367
52	0xbf64f96f	-0.89443105
53	0x3de57154	0.11203256
54	0xbde79fa9	-0.1130975
55	0x3d99e91c	0.07515165
56	0x3f566e93	0.8376247
57	0x3ecdf5f0	0.40226698
58	0x3f70e2cc	0.94096065
59	0x3fea829b	1.8321108
60	0x3fe3cce5	1.7796904
61	0x3f508df4	0.81466603
62	0x3fbe9723	1.4889873
63	0x3fa04f61	1.2524225

fc3.weight f4 [20, 64]
0	0x3c4cc3b0	0.012497827
1	0xbdc3a91d	-0.0955374
2	0x3da3ed3b	0.080042325
3	0x3ded258a	0.11579426
4	0xbd5df0e7	-0.05418482
5	0xbdbd2008	-0.09234625
6	0xbd8abc51	-0.067742
7	0xbf8f15c0	-1.1178513
8	0xbd53eebc	-0.051741347
9	0xbf64d6f3	-0.89390486
10	0xbcdf14d4	-0.027231611
11	0x3e160945	0.14651974
12	0x3c30cc5a	0.010790909
13	0x3c707ecb	0.014678667
14	0x3f24fac0	0.64445114
15	0x3e856537	0.26053783
16	0x3f0c7c8d	0.5487755
17	0xbefdbe51	-0.49559262
18	0xbd354f88	-0.0442653
19	0x3f090dd0	0.535367
20	0xbfe9114e	-1.8208406
21	0x3ee8c616	0.45463628
22	0x3f1e9073	0.6193916
23	0x3d40b448	0.04704693
24	0x3f17b5d5	0.5926183
25	0xbd7674b4	-0.06016989
26	0xbd6ebca1	-0.05828536
27	0x3d527633	0.051382255
28	0x3d8280ea	0.06372245
29	0xbd0c38c9	-0.034233842
30	0x3db136dc	0.08653042
31	0xbd73e1c7	-0.05954149
32	0x3f20e13c	0.6284368
33	0x3c9f8be5	0.019475887
34	0xbc4a4d20	-0.01234749
35	0xbf179846	-0.59216726
36	0x3d9baeaa	0.07601674
37	0xbd5d599f	-0.054040547
38	0x3d4268ee	0.04746335
39	0x3f1648c5	0.5870479
40	0xbd99ad42	-0.075037494
41	0x3d8e423a	0.069462255
42	0xbd4e7e7b	-0.05041359
43	0xbd990358	-0.07471341
44	0xbd960bfc	-0.073265046
45	0xbde00a7f	-0.10939502
46	0x3eced397	0.40395805
47	0x3e7df2ae	0.24799606
48	0xbcc02a64	-0.023457713
49	0xbcef70b8	-0.029228553
50	0x3ecbefaa	0.39831287
51	0x3ea5dee9	0.3239663
52	0xbe2bf487	-0.16792499
53	0x3de25336	0.110510275
54	0xbd7e8af3	-0.06214423
55	0xbce3f658	-0.027827427
56	0xbb4558fa	-0.0030112849
57	0x3d0bfbca	0.03417567
58	0x3dea33fe	0.11435698
59	0x3ea1f7fa	0.31634504
60	0x3e9bcffb	0.30432114
61	0x3e6874ae	0.2270076
62	0x3e99e10c	0.3005451
63	0x3ef944be	0.4868526
64	0x3d3a4a74	0.04548116
65	0xbd88e2de	-0.066838965
66	0xbde3ca81	-0.11122609
67	0x3d83cf97	0.06436079
68	0xbd94a6c9	-0.07258374
69	0xbda578b8	-0.08079666
70	0xbcb93248	-0.022606984
71	0xbf5a4eee	-0.8527669
72	0x3df52c09	0.1197129
73	0xbf1ca027	-0.61181873
74	0x3a45c03e	0.00075436
75	0x3dfdb2dd	0.12387631
76	0xbd8c8356	-0.06860988
77	0x3cac136d	0.021005357
78	0x3f09b3d4	0.5379002
79	0x3dd26c77	0.10274594
80	0x3f1effd7	0.6210913
81	0xbe204732	-0.15652159
82	0x3ba3a51a	0.004994047
83	0x3effbdfd	0.49949637
84	0xbf97de84	-1.1864781
85	0xbe06bb87	-0.13157474
86	0x3ea1631c	0.31520927
87	0x3d9d9e74	0.07696238
88	0x3edc9fb9	0.4309061
89	0x3d8252ae	0.06363426
90	0xbd821754	-0.06352106
91	0xbb995a92	-0.0046799863
92	0x3d75c955	0.06000646
93	0x3d2d2821	0.042274598
94	0xbce95630	-0.02848348
95	0x3e0b07fc	0.13577265
96	0x3f0c056f	0.5469579
97	0x3c7028f0	0.014658198
98	0xbd44be8c	-0.048033282
99	0xbe25a0d4	-0.16174632
100	0xbdca96ee	-0.09892069
101	0x3dcf49bf	0.10121488
102	0x3df3a895	0.11897389
103	0x3eb20f6b	0.34777388
104	0x3e065559	0.13118495
105	0x3d7e2654	0.06204827
106	0x3dd98a73	0.1062211
107	0xbdf77782	-0.12083341
108	0x3d7deacb	0.061991494
109	0xbe4e6d09	-0.20158781
110	0x3ebc722b	0.36805853
111	0x3e4bf5e9	0.19918026
112	0x3d58dea6	0.05294671
113	0x3cba656a	0.022753436
114	0x3e974784	0.2954675
115	0xbda9cfce	-0.08291589
116	0xbe260d22	-0.16215947
117	0xbd91616c	-0.0709866
118	0xbd7eb32c	-0.06218259
119	0x3dbdc7f4	0.09266654
120	0x3d532d70	0.051557004
121	0x3cfdfe23	0.03100497
122	0x3c00519b	0.007831956
123	0x3de15388	0.110022604
124	0x3e38e9b6	0.18057904
125	0xbe167a5c	-0.14695114
126	0x3e7bcfb1	0.24590947
127	0x3f2a0568	0.664145
128	0xbdf306e6	-0.1186655
129	0xbd1c04ed	-0.038090635
130	0xbe4f35db	-0.20235388
131	0x3dbbb151	0.0916468
132	0xbd4b2535	-0.04959603
133	0xbdd58303	-0.10425379
134	0xbc438370	-0.011933193
135	0xbf5a2554	-0.8521321
136	0x3df1c2b2	0.11804713
137	0xbf085430	-0.5325346
138	0xbce53e70	-0.027983874
139	0x3e845fcc	0.25854337
140	0xbaa84300	-0.001283735
141	0xbd31d170	-0.043412626
142	0x3eafe4e6	0.34354323
143	0x3da6dd58	0.08147687
144	0x3f0a1c7c	0.53949714
145	0xbe8facc7	-0.28061506
146	0x3d336803	0.043800365
147	0x3edd3f17	0.43212196
148	0xbf65eb18	-0.8981185
149	0xbe6f8291	-0.23389651
150	0x3e0526e0	0.13003111
151	0xbc83f718	-0.016109034
152	0x3edf4740	0.43609047
153	0xbbf79d7d	-0.007556616
154	0x3def3d19	0.11681575
155	0x3cc4f972	0.024044726
156	0xbd84a71d	-0.06477187
157	0xbddab534	-0.10679093
158	0x3dc63e6c	0.09679875
159	0x3eade053	0.33960208
160	0x3ee8d8ae	0.45477813
161	0x3cd6a2c7	0.026200665
162	0xbd2384f8	-0.03992173
163	0xbe4e0086	-0.20117387
164	0xbdf4b274	-0.119481
165	0xbc9ab6e4	-0.018886037
166	0x3e1af022	0.15130666
167	0x3f10a8d2	0.565076
168	0xbdc7d81d	-0.09758017
169	0x3c90c090	0.017669946
170	0xbc305b82	-0.010764005
171	0x3db04c84	0.08608344
172	0xbd812068	-0.06305009
173	0xbe834494	-0.25638258
174	0x3eb39d87	0.3508112
175	0x3e854a96	0.26033467
176	0x3da863aa	0.082221344
177	0x3ca735d8	0.020411417
178	0x3e4a2730	0.19741511
179	0xbe5362c5	-0.20643146
180	0xbdc5b4b3	-0.09653606
181	0x3d693278	0.056932896
182	0x3dc36a09	0.09541709
183	0xbdc10eba	-0.09426637
184	0x3d4d6065	0.050140757
185	0x3ec41dba	0.3830393
186	0xbd746a57	-0.059671726
187	0x3e68aa5a	0.22721234
188	0x3e143bf1	0.14475991
189	0xbd45c376	-0.04828211
190	0x3eb3af42	0.3509465
191	0x3e96b741	0.29436687
192	0x3d57ab84	0.052653804
193	0xbd73e2c4	-0.059542432
194	0xbc36c7d5	-0.011156042
195	0x3d8f17d0	0.06986964
196	0xbd854b1a	-0.06508465
197	0xbd51bd1d	-0.051205743
198	0xbde90329	-0.11377556
199	0xbf8341db	-1.0254472
200	0xbda48beb	-0.080345
201	0xbf25f9a1	-0.6483403
202	0x3d37d68d	0.044882346
203	0xbd844a5e	-0.06459497
204	0x3dd70945	0.10499815
205	0x3da6ceaa	0.08144887
206	0x3ef0a458	0.47000384
207	0x3e421bf8	0.18955982
208	0x3ec39631	0.38200524
209	0xbe9240f3	-0.28565177
210	0xbc63225b	-0.013863171
211	0x3ef7a37c	0.48366916
212	0xbf567124	-0.8376639
213	0xbed13d75	-0.408672
214	0x3e4d3ff2	0.20043924
215	0x3de13800	0.10997009
216	0x3ec4e164	0.3845321
217	0xbd96358e	-0.073344335
218	0x3d000562	0.031255133
219	0xbdf38ba4	-0.11891869
220	0x3e0fc39d	0.14039464
221	0x3de5c64b	0.11219462
222	0x3d18b14c	0.03727846
223	0xbcb3ee1c	-0.021964125
224	0x3f24f742	0.64439785
225	0xbd896a7b	-0.06709763
226	0xbdad109a	-0.08450432
227	0xbe87cbc4	-0.26522648
228	0xbdb3d5f2	-0.08781041
229	0xbd6b7b3f	-0.057490584
230	0x3db76f25	0.08956746
231	0x3ebbbe7e	0.36668772
232	0x3e0d3946	0.1379138
233	0xbc844b60	-0.016149223
234	0x3d16e632	0.036840625
235	0x3dd85b4c	0.105642885
236	0xbd27e338	-0.040988177
237	0xbe3b0053	-0.18261842
238	0x3ecb69fd	0.397293
239	0x3e914f7b	0.2838095
240	0x3da71acc	0.08159408
241	0xbdccef91	-0.10006631
242	0x3e11f9c0	0.14255428
243	0xbd9d792a	-0.07689126
244	0xbe68b859	-0.22726573
245	0x3dce7b7c	0.100821465
246	0xbda1bcd5	-0.07897345
247	0xbd965d54	-0.0734202
248	0xbd4934b6	-0.049122535
249	0x3e4f4c62	0.20243981
250	0xbe046382	-0.12928584
251	0x3e920e1d	0.28526393
252	0x3ea0bb3c	0.31392848
253	0x3e37a9aa	0.17935815
254	0x3e91937e	0.2843284
255	0x3f18afe0	0.59643364

fc3.bias f4 [20]
0	0x3fbbedf4	1.4681993
1	0x3f71f895	0.9451993
2	0x3f750eec	0.95725894
3	0x3f381ca5	0.7191871
4	0x3f1ac160	0.60451317
5	0x3f07e379	0.5308147
6	0x3e0c8d1d	0.13725705
7	0x3efbff19	0.49218062
8	0x3e9f9d48	0.31174684
9	0x3e3928a5	0.18081911
10	0x3df8c243	0.121464275
11	0xbd2a8785	-0.041633148
12	0xbd3b0010	-0.045654356
13	0xbcac578a	-0.021037836
14	0x3dd0c04f	0.1019293
15	0xbe0b02be	-0.13575265
16	0xbdd68534	-0.10474625
17	0xbe83de6c	-0.25755632
18	0xbefb4853	-0.49078616
19	0xbf042c9e	-0.5163058

exp_avg f4 [64, 3]
0	0x00000004	6e-45
1	0x00000004	6e-45
2	0x00000004	6e-45
3	0x42e53445	114.60209
4	0x42a48918	82.26776
5	0x4309c5bc	137.7724
6	0x00000000	0.0
7	0x00000000	0.0
8	0x00000000	0.0
9	0x00000000	0.0
10	0x00000000	0.0
11	0x00000000	0.0
12	0x41a0798d	20.059351
13	0x3fe292e6	1.770108
14	0x4379b899	249.72108
15	0xc105e73f	-8.368957
16	0xc138d116	-11.551046
17	0x434d8bec	205.54657
18	0x41789d6c	15.538433
19	0xc006e97d	-2.108001
20	0x43e5de3f	459.7363
21	0x00000000	0.0
22	0x00000000	0.0
23	0x00000000	0.0
24	0x00000000	0.0
25	0x00000000	0.0
26	0x00000000	0.0
27	0xc20da04f	-35.40655
28	0xc14ef393	-12.934466
29	0xc1eca672	-29.581272
30	0xc141906b	-12.097758
31	0xbff1db8f	-1.8895129
32	0xc3d38f75	-423.12076
33	0xc1e3b284	-28.462166
34	0xc112ea3f	-9.182189
35	0xc2c3276c	-97.576996
36	0x00000000	0.0
37	0x00000000	0.0
38	0x00000000	0.0
39	0xc16bd7a5	-14.740148
40	0xc04af638	-3.171278
41	0x4217b597	37.927334
42	0x40903a29	4.5070996
43	0x3f5c46b7	0.860454
44	0x42dd1d92	110.557755
45	0x00000000	0.0
46	0x00000000	0.0
47	0x00000000	0.0
48	0xc1272054	-10.445393
49	0xc0fda3fb	-7.926267
50	0x42662c9a	57.543556
51	0xc0ae8e90	-5.4549026
52	0xc095af23	-4.677629
53	0x42c6b5f9	99.355415
54	0x00000000	0.0
55	0x00000000	0.0
56	0x00000000	0.0
57	0xc075ac20	-3.8386307
58	0x40a08ff6	5.0175734
59	0xc373d221	-243.82082
60	0xc21cb0a3	-39.172497
61	0xc211d9ee	-36.462822
62	0x4424d52b	659.33075
63	0xc10bb3aa	-8.731363
64	0xc0a7f090	-5.2481155
65	0x42dbd1b1	109.90955
66	0x401ae0f3	2.4199798
67	0xc06add3b	-3.6697528
68	0x432ae5ef	170.89818
69	0xc16116c0	-14.068054
70	0xc0fdde88	-7.9334145
71	0x4224b288	41.174347
72	0x00000000	0.0
73	0x00000000	0.0
74	0x00000000	0.0
75	0xbf8eadbe	-1.1146772
76	0x40b0df03	5.527223
77	0xc232a802	-44.66407
78	0x00000000	0.0
79	0x00000000	0.0
80	0x00000000	0.0
81	0x00000000	0.0
82	0x00000000	0.0
83	0x00000000	0.0
84	0x409d4a13	4.9152923
85	0xc12e0154	-10.875324
86	0x442ad4fd	683.32794
87	0xc1d27f7d	-26.31225
88	0xc1316f41	-11.089662
89	0xc25a66d3	-54.600414
90	0x00000000	0.0
91	0x00000000	0.0
92	0x00000000	0.0
93	0x42535643	52.83424
94	0x41fc5f59	31.546556
95	0x425eed61	55.731815
96	0x00000000	0.0
97	0x00000000	0.0
98	0x00000000	0.0
99	0x00000000	0.0
100	0x00000000	0.0
101	0x00000000	0.0
102	0xc0948261	-4.6409154
103	0x3f924d7d	1.1429898
104	0xc1fbae13	-31.459997
105	0x00000000	0.0
106	0x00000000	0.0
107	0x00000000	0.0
108	0xbf50dfaf	-0.81591314
109	0xbf472f3d	-0.77806455
110	0x428c2ef0	70.091675
111	0x00000000	0.0
112	0x00000000	0.0
113	0x00000000	0.0
114	0xc099526b	-4.791311
115	0xc070ab3a	-3.7604508
116	0x40b7576e	5.7294226
117	0xc1aa7693	-21.307898
118	0xc1bcd619	-23.60454
119	0x440d4732	565.1124
120	0xc09f08f6	-4.969844
121	0xbf708328	-0.9395013
122	0x41316c88	11.088997
123	0xc0a6a1e7	-5.2072635
124	0x409abb73	4.835382
125	0xc3661cf9	-230.11317
126	0xc1596f1b	-13.589625
127	0xc0c5616a	-6.1681414
128	0x41c8baf3	25.091284
129	0xc14b03ed	-12.688458
130	0xc0c29d79	-6.0817227
131	0x41df08ca	27.879292
132	0x40cba0d9	6.3633847
133	0x40040dc5	2.0633404
134	0x421cfe4a	39.24833
135	0x40ffcb47	7.993564
136	0xc0cbea0a	-6.372319
137	0x43fdb0ba	507.38068
138	0x41292d93	10.5736265
139	0x40786471	3.8811305
140	0x42ab0758	85.51434
141	0x4129ec9c	10.620266
142	0xbfe64f54	-1.7992959
143	0x4383394b	262.4476
144	0x435f8f3b	223.5595
145	0x42ec2757	118.076836
146	0x437ba499	251.64296
147	0xc1233858	-10.201256
148	0x401cb54d	2.4485657
149	0x416892ad	14.5358095
150	0xc188d7b9	-17.105333
151	0xc19612c5	-18.759165
152	0x43c0e7dd	385.81143
153	0xc0ebd802	-7.370118
154	0x408a2348	4.316807
155	0xc26159ea	-56.337807
156	0xc0c42944	-6.1300373
157	0x40684ea2	3.6297994
158	0xc34921ff	-201.1328
159	0x3ffa3d75	1.9550005
160	0xc09d81ce	-4.9220953
161	0x435ead75	222.67757
162	0x00000000	0.0
163	0x00000000	0.0
164	0x00000000	0.0
165	0xc1394484	-11.579227
166	0xc0cb4a64	-6.352831
167	0x42555319	53.33115
168	0xc07bfc57	-3.9372766
169	0x40167cfa	2.351378
170	0xc345d387	-197.82628
171	0xc1059e88	-8.351204
172	0x4110a728	9.04081
173	0xc329add5	-169.67903
174	0xc0e9c277	-7.3049884
175	0xc0f73081	-7.724671
176	0x42fbbe41	125.87159
177	0x42bdc83f	94.891106
178	0x4265b39f	57.42541
179	0x42ac946d	86.289894
180	0xc1ac6ee0	-21.554138
181	0xc0f0200b	-7.5039115
182	0xc2b495e3	-90.29275
183	0x00000000	0.0
184	0x00000000	0.0
185	0x00000000	0.0
186	0xc0920f66	-4.5643797
187	0xc14e5bed	-12.897443
188	0x43b0603c	352.75183
189	0x00000000	0.0
190	0x00000000	0.0
191	0x00000000	0.0
