beer/experiments/vanilla_DQN/eps_0.10/models/dqn_agent_firm_1_episode_8000.pth (torch, 101224 bytes, 24 tensors)

fc1.weight f4 [64, 3]
0.37233007 -0.47329247 -0.3761721 0.1453744 0.048454292 -0.10024958 -0.24002498 -0.33300138
-0.5076332 -0.030566156 -0.27646872 -0.17765221 -0.83749396 -0.58572215 -0.15072899 0.08014943
0.029825985 0.094503306 -0.95846814 -0.034482077 -0.3744216 -0.42756283 -0.35128158 -0.27772418
-0.45933104 -0.56787294 -0.19231728 0.0068278196 0.35256273 0.4460304 -0.27389365 -0.12278345
0.00897519 0.64619696 0.5441184 0.4782018 -0.3860703 0.0007712841 -0.49093246 -0.45489675
-0.4269873 0.23499364 -0.5465074 -0.59855413 0.13002089 -0.4950119 -0.19737017 -0.50543016
-0.3700717 0.1558791 -0.0023339984 -0.19498907 -0.35394415 -0.07192215 -0.17955256 -0.037703216
-0.345461 -0.5750763 -0.72376394 0.04345353 -0.006096557 0.06359311 0.18431406 -0.38506636
0.008351054 0.27307126 -0.535251 -0.3847108 -0.608791 -0.053676046 -0.45677534 -0.15846929
-0.402183 -0.5605325 -0.19013736 -0.17178619 -0.40832973 0.10294875 -0.20019299 -0.5288697
-0.15022174 -0.22299033 -0.5696594 -0.02404219 -1.0290074 -0.93007565 -0.21337304 0.4046051
0.116082184 0.34588024 -0.27914253 -0.430772 -0.11198419 0.116809525 0.15856715 -0.14323506
-0.09818897 -0.27876014 -0.07131153 -0.44894862 -0.04341513 -0.41020888 -0.029419558 -1.0861574
0.031285577 -0.25161287 -0.39021933 -0.555527 -1.0905776 -1.0117854 -0.019803619 -0.47266412
-0.26955885 -0.39031887 -0.047413625 0.2225057 -0.013053196 0.063627414 -0.20150185 0.16850023
-0.17909987 0.014015422 0.0026034957 -1.1358861 -0.54178745 0.040225435 0.23153839 0.2529491
-0.63573277 0.124340765 -6.860237e-05 -0.34872517 0.22181568 -1.615827 -0.24158297 -1.1731102
-0.17698155 -0.7854132 0.022148399 -1.0747375 0.008893899 -0.39051414 -0.54978585 0.0037949386
0.119065255 0.08705248 -0.09346779 -0.17191802 -0.9607973 0.023031719 -0.32109407 0.27403945
0.14218687 -0.3862179 -0.36977214 0.116478816 -1.1250345 -0.64077884 0.047265727 0.22633052
-0.39907968 0.18033913 -0.09889567 -0.082062036 -0.27116847 -0.01808059 -0.11677301 0.31200045
-0.09725101 -0.7177443 0.04108169 -1.0365 -0.49581003 0.11607285 -0.17308718 -0.12114734
-0.059756782 0.19200704 0.22800767 -0.26342636 0.54598737 0.08244179 0.3636794 0.039423466
-0.50283104 -0.50826013 -1.0656215 -0.2496112 0.0343038 -0.019600332 -0.08423391 -0.23184156
00000000: 0ca2 be3e 6453 f2be a199 c0be 07dd 143e
00000010: 0278 463d a74f cdbd 1cc9 75be 287f aabe
00000020: 40f4 01bf e065 fabc 4f8d 8dbe 76ea 35be
00000030: 0166 56bf e3f1 15bf b358 1abe 6225 a43d
00000040: a055 f43c f38a c13d 2b5e 75bf 143d 0dbd
00000050: 30b4 bfbe 84e9 dabe 2edb b3be dd31 8ebe
00000060: 702d ebbe 1f60 11bf d2ee 44be e7bb df3b
00000070: 1a83 b43e 195e e43e ca3b 8cbe e475 fbbd
00000080: ad0c 133c 2a6d 253f 584b 0b3f ded6 f43e
00000090: 02ab c5be 0030 4a3a 805b fbbe 3ae8 e8be
000000a0: 149e dabe 2ca2 703e e9e7 0bbf d83a 19bf
000000b0: 3224 053e 3372 fdbe 681b 4abe df63 01bf
000000c0: 0a7a bdbe c59e 1f3e fff5 18bb 37ab 47be
000000d0: 2b38 b5be ec4b 93bd a0dc 37be b06e 1abd
000000e0: 44e0 b0be 3338 13bf 9848 39bf 54fc 313d
000000f0: a0c5 c7bb 1b3d 823d d3bc 3c3e 6b27 c5be
00000100: dcd2 083c ffcf 8b3e 3606 09bf d0f8 c4be
00000110: bad9 1bbf 6adb 5bbd 75de e9be c645 22be
00000120: eeea cdbe 0f7f 0fbf 5eb3 42be b8e8 2fbe
00000130: 9810 d1be cbd6 d23d 64ff 4cbe 0164 07bf
00000140: bad3 19be 9457 64be 33d5 11bf 20f4 c4bc
00000150: 84b6 83bf 7019 6ebf 767e 5abe 6628 cf3e
00000160: 7fbc ed3d 3717 b13e c5eb 8ebe 268e dcbe
00000170: f857 e5bd d539 ef3d 6d5f 223e 36ac 12be
00000180: 4c17 c9bd a6b9 8ebe c80b 92bd 98dc e5be
00000190: 10d4 31bd e606 d2be 4901 f1bc 3507 8bbf
000001a0: 4e25 003d 67d3 80be d4ca c7be 0437 0ebf
000001b0: 0c98 8bbf 2f82 81bf 333b a2bc 0801 f2be
000001c0: 9e03 8abe e0d7 c7be ca34 42bd 89d8 633e
000001d0: 12dd 55bc 174f 823d 8056 4ebe 538b 2c3e
000001e0: f565 37be f1a0 653c 699f 2a3b b764 91bf
000001f0: 95b2 0abf 6dc3 243d 6618 6d3e 8b82 813e
00000200: 62bf 22bf 5fa6 fe3d 9ede 8fb8 1b8c b2be
00000210: a623 633e 6bd3 cebf 8761 77be 7a28 96bf
00000220: a73a 35be d710 49bf 8f70 b53c 0091 89bf
00000230: b7b7 113c 78f1 c7be c4be 0cbf 81b4 783b
00000240: 7cd8 f33d 9248 b23d 0a6c bfbd 470b 30be
00000250: d0f6 75bf 04ad bc3c 7166 a4be e64e 8c3e
00000260: 6f99 113e 5abe c5be c652 bdbe 728c ee3d
00000270: 2101 90bf 150a 24bf b599 413d 30c3 673e
00000280: 2c54 ccbe d2aa 383e d089 cabd 2410 a8bd
00000290: 98d6 8abe bf1d 94bc b026 efbd 86be 9f3e
000002a0: 8a2b c7bd 17be 37bf 4645 283d 08ac 84bf
000002b0: d0da fdbe 9ab7 ed3d c43d 31be 191c f8bd
000002c0: 87c3 74bd 7e9d 443e d87a 693e d2df 86be
000002d0: d4c5 0b3f 3ed7 a83d 3034 ba3e 807a 213d
000002e0: 89b9 00bf 561d 02bf 4966 88bf 149a 7fbe
000002f0: 2482 0c3d e090 a0bc d482 acbd e067 6dbe

fc1.bias f4 [64]
0.4266789 4.013671 -0.01986152 -0.20790693 3.782522 2.6577258 4.169849 0.13723826
0.116098166 -1.7762786 -3.9741955 -3.5663295 -0.10710332 -2.0214086 2.8992238 0.33642048
2.0977342 2.7876508 0.51214755 -4.5227265 4.0719995 2.3477588 3.0212126 0.7506259
0.4110679 -4.373224 -0.24270493 0.03413737 4.5038276 -2.3767235 -0.17744938 3.2306821
0.40574056 0.36630076 -3.236919 0.33785868 1.9292078 -0.018494725 1.7800378 3.9971106
-0.3828717 -4.1821833 0.9974885 1.5249476 0.89453334 3.5878606 2.3483124 3.8478541
4.8115015 -2.5751004 3.480667 -4.205437 -5.125574 2.8909845 0.3618073 1.7950133
-4.225552 -4.5744505 2.9057403 4.00755 -3.0349703 0.10254121 3.2723498 -0.2583643
00000000: a875 da3e fe6f 8040 a0b4 a2bc 8ee5 54be
00000010: d714 7240 2e18 2a40 676f 8540 3088 0c3e
00000020: e0c4 ed3d 195d e3bf 3859 7ec0 be3e 64c0
00000030: fc58 dbbd c25e 01c0 e28c 3940 4e3f ac3e
00000040: 4741 0640 df68 3240 1a1c 033f 2dba 90c0
00000050: d24d 8240 ae41 1640 8c5b 4140 0529 403f
00000060: 7e77 d23e 73f1 8bc0 a487 78be a0d3 0b3d
00000070: 5b1f 9040 3d1c 18c0 4ab5 35be 7fc3 4e40
00000080: 3abd cf3e c68b bb3e ae29 4fc0 d0fb ac3e
00000090: 48f0 f63f 4082 97bc 47d8 e33f a9d0 7f40
000000a0: c207 c4be 72d4 85c0 685b 7f3f 7c31 c33f
000000b0: 2300 653f 829f 6540 c04a 1640 3e43 7640
000000c0: d2f7 9940 72ce 24c0 40c3 5e40 f192 86c0
000000d0: b404 a4c0 e405 3940 ce3e b93e ffc2 e53f
000000e0: b937 87c0 e661 92c0 a6f7 3940 d93d 8040
000000f0: f43c 42c0 2001 d23d 2e6e 5140 5348 84be

fc2.weight f4 [64, 64]
0.12060474 0.11940645 0.103784025 -0.04440038 0.022972956 0.009952962 -0.085865974 -0.011648402
0.0030416697 0.06071514 -0.12194976 -0.07461816 -0.042449936 0.050754488 0.1021215 0.054652214
-0.058800414 -0.10324907 -0.035811216 0.033671767 -0.06897281 0.061327994 -0.024406314 0.03140378
-0.08966459 -0.07298577 -0.12361108 -0.01858829 -0.11653766 -0.11270793 -0.03404376 -0.092240065
0.10635446 -0.0854342 0.025025517 -0.08871062 -0.04255873 -0.016686618 0.08468346 -0.024044216
-0.004942268 -0.07790133 0.027865306 -0.10666032 -0.029969096 -0.048475444 -0.11364113 -0.11150262
0.117335305 0.11650121 -0.10932699 0.0827578 0.06486523 0.107891485 -0.12379941 -0.095787376
-0.05039768 0.123765305 -0.11748627 -0.017633587 -0.052129522 -0.019243255 0.071170315 0.043460757
0.062202867 -0.038975794 -0.0701946 -0.0014039725 0.05888529 0.032753903 -0.1390027 -0.11861454
0.07822886 -0.13783947 -0.010547496 0.075632036 -0.040561005 -0.087815724 0.0067954073 0.11371283
0.05281859 0.055401895 0.03777866 0.021225525 -0.14384745 -0.12470687 -0.03726772 0.005967778
-0.10282773 0.044692654 0.019509077 -0.10380009 -0.13131961 -0.15523173 0.05260536 -0.16259035
-0.10117991 -0.0012677014 -0.06879166 0.021013036 -0.026689712 -0.04726015 -0.005999575 -0.0971852
-0.051626943 0.073100485 -0.06539805 -0.0457657 0.03793328 -0.0956691 -0.048011623 0.0484834
-0.13444722 -0.009495812 -0.22857563 -0.07832501 0.02114581 0.11292036 -0.07759227 -0.060271494
0.06902003 0.050517123 0.062007364 -0.12230919 -0.012504017 0.00095917284 0.051571097 -0.057143122
0.077618144 1.5458105 0.12440187 -0.081219584 1.4731555 -0.15495275 0.96300626 0.040744126
0.007270202 -0.7615487 -0.37075832 -0.87015754 -0.09300105 1.299352 0.59611356 -0.0028250366
-0.22352171 -0.6045558 0.035500243 -0.27823427 0.21805516 -0.37919018 1.0365889 0.21339141
0.053506255 -0.25865892 0.05563885 -0.10234998 1.9491737 -0.887391 -0.00050599873 0.7201567
-0.10864702 -0.117167786 -0.04420686 -0.059302747 -0.34103617 -0.101889566 0.049985502 0.3051455
-0.061517198 0.06322787 -0.08466916 0.91846645 -0.97836053 1.6138927 1.7526177 -0.097969666
2.2445483 -0.7258686 -0.038189474 -0.51769 0.23807926 0.024085985 0.06630406 -0.4581919
0.17477505 0.18519893 -0.22449769 2.4383926 -0.82476926 -0.09632389 -0.56327987 0.08101021
0.107937686 0.57728755 -0.11763908 0.09397517 -0.04813897 -0.6254327 0.35793617 0.021185517
0.057831645 -0.15056144 -0.19582702 -0.52339065 0.11946827 0.09196859 0.12463512 0.103584185
-0.3250798 -0.047300965 -0.046109974 -0.051884394 -0.22126386 -0.1553019 0.016712751 -0.15975526
-0.09557715 0.23266423 0.061880514 -0.020881772 0.5647828 -0.29075968 0.07853849 -0.28569585
0.0659644 0.115807414 0.14552927 0.08348931 -0.09988538 -0.016881153 -1.2175835 0.02498444
-0.046135735 0.08280757 0.009846518 -0.33661705 -0.3491618 0.36491054 0.10937364 -0.009271904
0.22568648 0.20600256 -0.13555393 0.17531009 -0.016179793 -0.46000567 0.021559477 -0.10833066
0.2741744 0.07543122 -0.19981089 0.37148997 -0.40390682 -0.058162853 -0.22594264 0.08945878
00000000: 9eff f63d 5e8b f43d b88c d43d 2cdd 35bd
00000010: c831 bc3c c011 233c 80da afbd f0d8 3ebc
00000020: c056 473b 70b0 783d ccc0 f9bd 68d1 98bd
00000030: fcdf 2dbd f0e3 4f3d 1425 d13d 00db 5f3d
00000040: b4d8 70bd 4074 d3bd c8ae 12bd 68eb 093d
00000050: 9e41 8dbd 1033 7b3d c0ef c7bc 40a1 003d
00000060: 12a2 b7bd 9079 95bd ce27 fdbd 7846 98bc
00000070: 4cab eebd 6ad3 e6bd 7871 0bbd 5ce8 bcbd
00000080: 5ed0 d93d 20f8 aebd 5002 cd3c eaad b5bd
00000090: 1052 2ebd 60b2 88bc 866e ad3d 60f8 c4bc
000000a0: c0f2 a1bb bc8a 9fbd c845 e43c ba70 dabd
000000b0: c081 f5bc 308e 46bd aebc e8bd 7c5b e4bd
000000c0: 7e4d f03d 3098 ee3d d4e6 dfbd ec7c a93d
000000d0: 10d8 843d 36f6 dc3d 8c8a fdbd 2c2c c4bd
000000e0: cc6d 4ebd aa78 fd3d a49c f0bd 5074 90bc
000000f0: c485 55bd 08a4 9dbc bec1 913d e803 323d
00000100: 6fc8 7e3d 15a5 1fbd 30c2 8fbd 8005 b8ba
00000110: b431 713d f528 063d b956 0ebe 2eec f2bd
00000120: 7436 a03d ca25 0dbe 68cf 2cbc f8e4 9a3d
00000130: 4c23 26bd bbd8 b3bd 02ac de3b 46e2 e83d
00000140: 4e58 583d 19ed 623d ccbd 1a3d 27e1 ad3c
00000150: bf4c 13be 5166 ffbd 09a6 18bd 5a8d c33b
00000160: 5897 d2bd a50f 373d 80d1 9f3c 2495 d4bd
00000170: a678 06be 11f5 1ebe b878 573d 167e 26be
00000180: 6a37 cfbd 0029 a6ba a4e2 8cbd 8823 ac3c
00000190: 62a4 dabc dc93 41bd 1598 c4bb 0909 c7bd
000001a0: c676 53bd b5b5 953d 6aef 85bd d174 3bbd
000001b0: ed5f 1b3d 29ee c3bd d6a7 44bd 8896 463d
000001c0: 88ac 09be 5294 1bbc bb0f 6abe dd68 a0bd
000001d0: fa39 ad3c ca42 e73d b2e8 9ebd 3edf 76bd
000001e0: 605a 8d3d 0beb 4e3d 6ffb 7d3d 3e7d fabd
000001f0: a6dd 4cbc 0071 7b3a 373c 533d e80e 6abd
00000200: 43f6 9e3d 1edd c53f 68c6 fe3d 7456 a6bd
00000210: 5c90 bc3f efab 1ebe 9487 763f 50e3 263d
00000220: e03a ee3b dbf4 42bf 09d4 bdbe a5c2 5ebf
00000230: 5677 bebd 2b51 a63f e69a 183f 4024 39bb
00000240: e0e2 64be 2bc4 1abf b468 113d b974 8ebe
00000250: da49 5f3e 3725 c2be f2ae 843f 4783 5a3e
00000260: 6029 5b3d f16e 84be 90e5 633d de9c d1bd
00000270: 867e f93f 0e2c 63bf 00a5 04ba 315c 383f
00000280: 5482 debd aaf5 efbd 4112 35bd 70e7 72bd
00000290: 4b9c aebe 7aab d0bd 99bd 4c3d 083c 9c3e
000002a0: 75f9 7bbd 9d7d 813d 0667 adbd 9e20 6b3f
000002b0: d675 7abf 0994 ce3f c755 e03f 52a4 c8bd
000002c0: aea6 0f40 86d2 39bf 916c 1cbd 5587 04bf
000002d0: 0dcb 733e f94f c53c 6cca 873d 2198 eabe
000002e0: 3bf8 323e caa4 3d3e b9e2 65be a00e 1c40
000002f0: 1424 53bf 7645 c5bd 1c33 10bf aee8 a53d
00000300: 6f0e dd3d 1ec9 133f c2ec f0bd 0e76 c03d
00000310: 5e2d 45bd 5c1c 20bf 6943 b73e 408d ad3c
00000320: e0e0 6c3d c72c 1abe e186 48be eefc 05bf
00000330: c8ab f43d 075a bc3d b340 ff3d f223 d43d
00000340: dc70 a6be a8be 41bd d0dd 3cbd bb84 54bd
00000350: fe92 62be 7607 1fbe 2ee9 883c e296 23be
00000360: f4bd c3bd 883f 6e3e 6c76 7d3d 4010 abbc
00000370: 9b95 103f 74de 94be cad8 a03d ba46 92be
00000380: 5818 873d 702c ed3d a005 153e 72fc aa3d
00000390: b590 ccbd 584a 8abc c7d9 9bbf 2bac cc3c
000003a0: d3f8 3cbd 0497 a93d 4a53 213c 1259 acbe
000003b0: 56c5 b2be 8ed5 ba3e 49ff df3d 2fe9 17bc
000003c0: 5b1a 673e 56f2 523e a6ce 0abe 7d84 333e
000003d0: 7c8b 84bc dd85 ebbe 809d b03c 77dc ddbd
000003e0: 9660 8c3e af7b 9a3d 3a9b 4cbe ef33 be3e
000003f0: e0cc cebe 2c3c 6ebd 825d 67be 2a36 b73d

fc2.bias f4 [64]
0.04751405 0.07167268 1.080621 1.2795138 0.012799579 -0.08479311 0.03322389 1.8583146
0.012736984 2.059043 -0.019971976 1.908475 0.036903065 0.018827999 2.4019704 1.8061286
2.7329564 -2.4194896 -0.055424944 2.8650658 2.3313751 1.0897983 1.5334238 0.0012844652
2.9492757 -0.06263146 -0.14967403 1.5406884 -0.1603054 0.10065098 -0.12346071 0.76862866
2.3720028 -0.089344874 0.010763997 -2.351483 -0.120538265 -0.029160213 0.93901074 2.3747735
0.06962857 -0.082739 -0.034216892 -0.14333414 0.0057708547 1.8950607 2.600264 1.8402605
0.59303266 0.01443487 1.9542135 1.1582992 -1.5671825 0.11203256 -0.11318512 0.035824236
1.0152826 0.3370248 1.5261627 1.6379904 1.8016129 0.58881044 1.5822003 1.5747268
00000000: 189e 423d 20c9 923d ca51 8a3f 1cc7 a33f
00000010: 53b5 513c 03a8 adbd c615 083d 41dd ed3f
00000020: c8ae 503c 5cc7 0340 459c a3bc e948 f43f
00000030: ab27 173d 2d3d 9a3c e2b9 1940 392f e73f
00000040: c2e8 2e40 ebd8 1ac0 4405 63bd 3d5d 3740
00000050: 4035 1540 837e 8b3f 3b47 c43f 805b a83a
00000060: efc0 3c40 ec44 80bd 2644 19be 4735 c53f
00000070: 1927 24be 1a22 ce3d f8d8 fcbd d9c4 443f
00000080: e5ce 1740 72fa b6bd 7a5b 303c b37e 16c0
00000090: c4dc f6bd 66e1 eebc 0263 703f 4afc 1740
000000a0: 6c99 8e3d 1173 a9bd 0327 0cbd 2fc6 12be
000000b0: 7019 bd3b 5991 f23f ba6a 2640 a88d eb3f
000000c0: fdd0 173f 3c80 6c3c ab23 fa3f 2643 943f
000000d0: 7099 c8bf 5471 e53d 9acd e7bd 6fbc 123d
000000e0: c8f4 813f 848e ac3e 4d59 c33f aba9 d13f
000000f0: 409b e63f 48bc 163f 8a85 ca3f a690 c93f

fc3.weight f4 [20, 64]
0.012497827 -0.09545825 -0.07814983 0.09613393 -0.05414746 -0.071807176 -0.067825325 -0.86898595
-0.09310712 -0.57482827 -0.02718623 -0.51754016 0.0107908845 0.014947877 0.67477745 0.18581031
0.6096184 -0.47015733 -0.04423573 0.5249725 -0.94419515 -0.06255763 -0.07632508 0.04704693
0.61882275 -0.06016989 -0.05825274 -0.33934835 0.063755766 -0.034374125 0.08653042 0.05921656
0.64084446 0.019006537 -0.01234749 -0.54769194 0.07601674 -0.022253396 0.043928802 0.6501898
-0.074996896 0.0023746872 0.07948975 -0.07471341 -0.07305575 -0.16304973 0.24355365 0.047119625
-0.5437307 -0.029228553 0.2631216 0.39536926 0.3989471 0.110510275 -0.062143877 -0.027827427
-0.106721364 0.17401315 -0.58995956 0.23361632 0.32041267 0.09695378 0.3807007 0.5692988
0.04548116 -0.06677709 -0.26527408 -0.07356576 -0.072546534 -0.049000017 -0.022606984 -0.5962021
0.15324076 -0.38887203 0.00078114466 -0.60200316 -0.06859756 0.025449473 0.6326498 0.23943576
0.6875781 -0.10975207 0.005024049 0.5669711 -1.0197577 -0.3382051 0.19058117 0.07696238
0.51025707 0.06363426 -0.032056827 -0.03212597 0.06004224 0.042286716 -0.02848348 0.280381
0.62237614 0.014680636 -0.048033282 -0.005236695 -0.09892069 0.1012415 0.07697968 0.45096734
0.13121395 0.0885143 0.06322934 -0.12083341 0.061991483 -0.17159317 0.40796816 0.25751263
-0.14564887 0.06853942 0.22394142 0.1049182 0.12188905 -0.0709866 -0.06218259 0.09266654
-0.19321544 0.29763657 -0.3963968 0.047727913 -0.14032161 0.05864084 0.33136258 0.72524285
-0.1186655 -0.038042083 -0.17084241 0.19709794 -0.049553238 -0.10421583 -0.011933193 -0.8922031
0.099744916 -0.23091935 -0.027972749 -0.62410945 -0.001283735 -0.04660865 0.5124484 0.3144264
0.6561884 -0.23218532 0.04376555 0.5160096 -0.8247955 -0.09067428 0.05514372 -0.016109034
0.5358275 -0.0075565726 0.11680553 -0.20850614 -0.06478963 -0.1069326 0.09679875 0.28681922
0.58962315 0.025678484 -0.03992173 -0.30079532 -0.119481 -0.018850172 -0.033778246 0.6981175
-0.097527504 0.004577545 0.03903247 0.08608344 -0.06289498 -0.16205208 0.3596993 0.4068892
-0.52695256 -0.011354378 0.17130601 0.19707909 -0.65348804 0.056932896 0.09541662 -0.09426637
-0.6871714 0.47888678 -0.43520874 0.10456546 0.34778914 0.19481699 0.4543943 0.46828884
0.052653804 -0.05955001 -0.3166873 0.06287484 -0.06504397 -0.051169936 -0.113774806 -0.7304682
-0.06523303 -0.35057777 0.04490895 -0.53280276 0.10497461 0.08493504 0.5353031 0.07544935
0.49493814 -0.21954417 -0.013831271 0.50392544 -0.6874508 -0.28015018 0.062689066 0.10997009
0.4544372 -0.073344335 0.031154614 -0.24412404 0.1722 0.11217711 0.03727846 0.2186163
0.7159323 -0.06712539 -0.08450432 -0.2703096 -0.08781041 -0.05746191 0.3528689 0.4884468
0.13795952 0.046846416 -0.042726006 0.105642885 -0.040988177 -0.31610003 0.37991464 -0.061785877
-0.16193058 -0.06829964 0.12848863 0.032074504 -0.3076071 0.100821465 -0.0789725 -0.0734202
-0.2490702 0.31740943 -0.589395 0.3696721 0.34431368 0.2349317 0.39699543 0.7453766
00000000: b0c3 4c3c 9d7f c3bd 050d a0bd dee1 c43d
00000010: bac9 5dbd a40f 93bd 01e8 8abd dd75 5ebf
00000020: f2ae bebd f227 13bf a8b5 debc 837d 04bf
00000030: 40cc 303c f1e7 743c 37be 2c3f 0f45 3e3e
00000040: f40f 1c3f 76b8 f0be 8630 35bd 9964 063f
00000050: c6b6 71bf 371e 80bd 5350 9cbd 48b4 403d
00000060: 2b6b 1e3f b474 76bd 6d9a 6ebd 11bf adbe
00000070: 6292 823d e2cb 0cbd dc36 b13d 108d 723d
00000080: 620e 243f 99b3 9b3c 204d 4abc 8a35 0cbf
00000090: aaae 9b3d c14c b6bc b0ee 333d d772 263f
000000a0: f997 99bd a4a0 1b3b 86cb a23d 5803 99bd
000000b0: 419e 95bd 82f6 26be 2166 793e 8200 413d
000000c0: ef31 0bbf b870 efbc e0b7 863e d76d ca3e
000000d0: cb42 cc3e 3653 e23d 948a 7ebd 58f6 e3bc
000000e0: bb90 dabd 8130 323e 9707 17bf 1e39 6f3e
000000f0: 210d a43e b48f c63d 34eb c23e 91bd 113f
00000100: 744a 3a3d 6dc2 88bd 01d2 87be a5a9 96bd
00000110: 4793 94bd 3eb4 48bd 4832 b9bc b3a0 18bf
00000120: 25eb 1c3e 3c1a c7be bbc5 4c3a e11c 1abf
00000130: e17c 8cbd 6a7b d03c 56f5 213f a62e 753e
00000140: 1e05 303f b1c5 e0bd c7a0 a43b 0525 113f
00000150: 6c87 82bf 3829 adbe b627 433e 749e 9d3d
00000160: 35a0 023f ae52 823d 054e 03bd 8596 03bd
00000170: daee 753d d634 2d3d 3056 e9bc 198e 8f3e
00000180: 0b54 1f3f 0d87 703c 8cbe 44bd 9598 abbb
00000190: ee96 cabd b457 cf3d 86a7 9d3d 31e5 e63e
000001a0: f35c 063e fc46 b53d 627e 813d 8277 f7bd
000001b0: c8ea 7d3d 1fb6 2fbe 34e1 d03e b2d8 833e
000001c0: fa24 15be 655e 8c3d e650 653e 5adf d63d
000001d0: f7a0 f93d 6c61 91bd 2cb3 7ebd f4c7 bd3d
000001e0: 45da 45be d263 983e 85f4 cabe 587e 433d
000001f0: 78b0 0fbe 6131 703d 5ba8 a93e 84a9 393f
00000200: e606 f3bd 04d2 1bbd 50f1 2ebe 0bd4 493e
00000210: 56f8 4abd 1c6f d5bd 7083 43bc 6c67 64bf
00000220: 1047 cc3d 1f76 6cbe 1b27 e5bc a3c5 1fbf
00000230: 0043 a8ba b6e8 3ebd d12f 033f 7ffc a03e
00000240: f7fb 273f fdc1 6dbe 8143 333d 3519 043f
00000250: cc25 53bf 70b3 b9bd 62de 613d 18f7 83bc
00000260: fe2b 093f 209d f7bb bd37 ef3d a282 55be
00000270: 6db0 84bd 7bff dabd 6c3e c63d f8d9 923e
00000280: 8bf1 163f af5b d23c f884 23bd d801 9abe
00000290: 74b2 f4bd ad6b 9abc 0f5b 0abd d4b7 323f
000002a0: 80bc c7bd 3bff 953b 83e0 1f3d 844c b03d
000002b0: 15cf 80bd fbf0 25be 822a b83e c853 d03e
000002c0: 5de6 06bf b707 3abc d86a 2f3e 1acf 493e
000002d0: fe4a 27bf 7832 693d ca69 c33d ba0e c1bd
000002e0: 77ea 2fbf a630 f53e aed3 debe 6a26 d63d
000002f0: 6b11 b23e 1b7e 473e 5fa6 e83e 8ec3 ef3e
00000300: 84ab 573d b6ea 73bd d624 a2be 86c4 803d
00000310: c635 85bd 9197 51bd c402 e9bd f7ff 3abf
00000320: e598 85bd ee7e b3be 72f2 373d c365 08bf
00000330: eefc d63d 6cf2 ad3d a009 093f 3085 9a3d
00000340: 8868 fd3e 30d0 60be 8e9c 62bc 4201 013f
00000350: c7fc 2fbf d86f 8fbe 2063 803d 0038 e13d
00000360: feab e83e 8e35 96bd f637 ff3c a7fb 79be
00000370: 3255 303e 1dbd e53d 4cb1 183d f4dc 5f3e
00000380: 5747 373f 0979 89bd 9a10 adbd 0566 8abe
00000390: f2d5 b3bd 2e5d 6bbd 3cab b43e b315 fa3e
000003a0: 4345 0d3e 07e2 3f3d 7701 2fbd 4c5b d83d
000003b0: 38e3 27bd ddd7 a1be 2c84 c23e 3013 7dbd
000003c0: 21d1 25be afe0 8bbd 8692 033e 8e60 033d
000003d0: ae7e 9dbe 7c7b ce3d 56bc a1bd 545d 96bd
000003e0: 420c 7fbe 7d83 a23e 97e2 16bf a945 bd3e
000003f0: e249 b03e f091 703e fc42 cb3e 00d1 3e3f

fc3.bias f4 [20]
2.4767709 1.1596545 1.3338464 1.1170887 1.1182096 0.73324156 0.42069143 0.7320573
0.40724185 0.29165527 0.22226213 0.06174679 0.16237138 0.017995719 -0.10570649 -0.1556588
-0.29716077 -0.23467168 -0.5915598 -0.5240792
00000000: 6a83 1e40 8f6f 943f 7bbb aa3f c3fc 8e3f
00000010: 7e21 8f3f b8b5 3b3f de64 d73e 1b68 3b3f
00000020: 0182 d03e d753 953e af98 633e 34ea 7c3d
00000030: af44 263e c26b 933c a57c d8bd 0565 1fbe
00000040: 7525 98be c64d 70be 7770 17bf 0e2a 06bf

fc1.weight f4 [64, 3]
0.37234008 -0.4732819 -0.37615487 0.14278468 0.042274337 -0.10189377 -0.24002498 -0.33300138
-0.5076332 -0.030566156 -0.27646872 -0.17765221 -0.9546094 -0.7027837 -0.2577806 0.07769743
0.03858414 0.102353655 -0.98118925 -0.03170841 -0.34900525 -0.42756453 -0.35128158 -0.27772418
-0.45933422 -0.56787294 -0.19231728 0.006838881 0.3527239 0.44039786 -0.273872 -0.12278343
0.008975737 0.64558053 0.5454603 0.47189113 -0.3860703 0.00077129056 -0.49093246 -0.48667014
-0.4108838 0.23115194 -0.55416685 -0.59178925 0.13774908 -0.4950119 -0.19737017 -0.50543016
-0.2800784 0.19949676 0.031859707 -0.19658175 -0.3700006 -0.065340504 -0.17955387 -0.037703216
-0.345461 -0.57504326 -0.72375876 0.043454207 -0.0059233136 0.06841204 0.18469578 -0.40008542
0.017146548 0.27580243 -0.58798456 -0.4066468 -0.6614817 -0.053351212 -0.45649612 -0.15815058
-0.402183 -0.5605325 -0.19013736 -0.16548914 -0.36849764 0.119861074 -0.20019299 -0.5288697
-0.15022174 -0.2229913 -0.5696594 -0.024042403 -1.1384424 -1.0393772 -0.30279022 0.4059729
0.11507829 0.34249622 -0.27914253 -0.430772 -0.11198419 0.12737082 0.16883878 -0.1421656
-0.09818897 -0.27876014 -0.07131153 -0.44894862 -0.04341513 -0.41020888 -0.029419929 -1.0860703
0.031287253 -0.25161287 -0.39022174 -0.555527 -1.090481 -1.0116827 -0.019802967 -0.47266412
-0.26955885 -0.39031887 -0.05341798 0.20613115 -0.010957894 0.06923838 -0.19272266 0.170524
-0.17909192 0.014016119 0.002603662 -1.1359004 -0.54178345 0.040228065 0.21890566 0.25966558
-0.63237476 0.03338635 -0.0037427836 -0.37674397 0.22182898 -1.6158432 -0.24157329 -1.1399906
-0.15023525 -0.75202906 0.095970884 -1.1094456 0.045572087 -0.39725223 -0.56666774 0.0011478218
0.11649743 0.083626315 -0.10309369 -0.17190947 -0.96080947 0.023032835 -0.32096153 0.2802497
0.14581981 -0.37893444 -0.3299659 0.1536834 -1.124933 -0.6407284 0.047268953 0.23630375
-0.38078737 0.18648112 -0.098896556 -0.082062036 -0.27116847 -0.017629594 -0.11148518 0.3132605
-0.07705221 -0.7051857 0.044196326 -1.0785245 -0.612959 0.10214181 -0.19368427 -0.07062316
-0.049604535 0.20835863 0.23526752 -0.2587644 0.54675436 0.08153362 0.3595748 0.039423466
-0.50283104 -0.50826013 -0.97975874 -0.288319 0.034393203 -0.019600332 -0.08423391 -0.23184271
00000000: 5ca3 be3e 0152 f2be 5f97 c0be 2636 123e
00000010: db27 2d3d aead d0bd 1cc9 75be 287f aabe
00000020: 40f4 01bf e065 fabc 4f8d 8dbe 76ea 35be
00000030: 4861 74bf a2e9 33bf d2fb 83be d51f 9f3d
00000040: 670a 1e3d cb9e d13d 382f 7bbf ade0 01bd
00000050: d1b0 b2be bde9 dabe 2edb b3be dd31 8ebe
00000060: db2d ebbe 1f60 11bf d2ee 44be b118 e03b
00000070: 3a98 b43e d47b e13e f338 8cbe e175 fbbd
00000080: f80e 133c c444 253f 49a3 0b3f b79b f13e
00000090: 02ab c5be 6f30 4a3a 805b fbbe d42c f9be
000000a0: 5d5f d2be 18b3 6c3e e1dd 0dbf 807f 17bf
000000b0: 180e 0d3e 3372 fdbe 681b 4abe df63 01bf
000000c0: 7066 8fbe e148 4c3e 537f 023d ba4c 49be
000000d0: b870 bdbe 3ed1 85bd f8dc 37be b06e 1abd
000000e0: 44e0 b0be 0936 13bf 4148 39bf 0afd 313d
000000f0: 5b18 c2bb 9d1b 8c3d e420 3d3e ffd7 ccbe
00000100: eb76 8c3c fa35 8d3e 2886 16bf 0234 d0be
00000110: dd56 29bf cd86 5abd dcb9 e9be 3af2 21be
00000120: eeea cdbe 0f7f 0fbf 5eb3 42be fc75 29be
00000130: b9ab bcbe b979 f53d 64ff 4cbe 0164 07bf
00000140: bad3 19be d557 64be 33d5 11bf 93f4 c4bc
00000150: 7bb8 91bf 500a 85bf 5207 9bbe aedb cf3e
00000160: 2bae eb3d aa5b af3e c5eb 8ebe 268e dcbe
00000170: f857 e5bd 7f6d 023e 13e4 2c3e dc93 11be
00000180: 4c17 c9bd a6b9 8ebe c80b 92bd 98dc e5be
00000190: 10d4 31bd e606 d2be 1002 f1bc 5a04 8bbf
000001a0: 1027 003d 67d3 80be 25cb c7be 0437 0ebf
000001b0: e294 8bbf d27e 81bf d539 a2bc 0801 f2be
000001c0: 9e03 8abe e0d7 c7be d0cc 5abd 0b14 533e
000001d0: bd88 33bc dacc 8d3d 1759 45be d89d 2e3e
000001e0: df63 37be dda3 653c 33a2 2a3b 2f65 91bf
000001f0: 52b2 0abf 2fc6 243d ce28 603e e3f2 843e
00000200: 50e3 21bf 20c0 083d 7d49 75bb 96e4 c0be
00000210: 2327 633e f3d3 cebf fd5e 77be 36eb 91bf
00000220: 45d7 19be fa84 40bf 628c c43d 5002 8ebf
00000230: cca9 3a3d a564 cbbe 2311 11bf 8272 963a
00000240: 3496 ee3d 4644 ab3d c922 d3bd 0909 30be
00000250: 9cf7 75bf 5baf bc3c 1255 a4be e47c 8f3e
00000260: ca51 153e b203 c2be 4af1 a8be 2e5f 1d3e
00000270: cefd 8fbf c706 24bf 179d 413d 9cf9 713e
00000280: 90f6 c2be e8f4 3e3e 478a cabd 2410 a8bd
00000290: 98d6 8abe f06b 90bc 5852 e4bd ae63 a03e
000002a0: 8dcd 9dbd 0d87 34bf 3507 353d 170d 8abf
000002b0: e2ea 1cbf ba2f d13d 2b55 46be e0a2 90bd
000002c0: 202e 4bbd f75b 553e f8e9 703e c47c 84be
000002d0: 18f8 0b3f 19fb a63d 301a b83e 807a 213d
000002e0: 89b9 00bf 561d 02bf 78d1 7abf 8c9e 93be
000002f0: e3df 0c3d e090 a0bc d482 acbd 2d68 6dbe

fc1.bias f4 [64]
0.42670023 4.0038834 -0.01986152 -0.20790693 3.6655135 2.6516106 4.129475 0.13723826
0.116098166 -1.7747619 -3.9741313 -3.5626216 -0.10710332 -2.016617 2.8787146 0.33642048
2.1379762 2.774704 0.51214755 -4.5226207 4.059544 2.343426 2.9685066 0.75090075
0.4110679 -4.3125806 -0.24270579 0.03413737 4.394941 -2.3743474 -0.17744938 3.211433
0.40574056 0.36630076 -3.2369316 0.33785868 1.9292483 -0.018494725 1.7826678 3.9855096
-0.38286048 -4.182154 0.9843641 1.4803038 0.8945878 3.6205711 2.4335096 3.8328066
4.7998652 -2.5750732 3.4682953 -4.127191 -5.1253505 2.8837266 0.3618073 1.7969929
-4.2200465 -4.5801353 2.8868291 3.9916682 -3.0318558 0.10254121 3.244322 -0.2583643
00000000: 7478 da3e d01f 8040 a0b4 a2bc 8ee5 54be
00000010: c697 6a40 fdb3 2940 a924 8440 3088 0c3e
00000020: e0c4 ed3d 662b e3bf 2b58 7ec0 fe01 64c0
00000030: fc58 dbbd 4110 01c0 dc3c 3840 4e3f ac3e
00000040: 9ad4 0840 c094 3140 1a1c 033f 4fb9 90c0
00000050: c9e7 8140 b1fa 1540 03fc 3d40 083b 403f
00000060: 7e77 d23e a900 8ac0 de87 78be a0d3 0b3d
00000070: 5ba3 8c40 4ff5 17c0 4ab5 35be 1e88 4d40
00000080: 3abd cf3e c68b bb3e e329 4fc0 d0fb ac3e
00000090: 9cf1 f63f 4082 97bc 752e e43f 9712 7f40
000000a0: 4a06 c4be 35d4 85c0 49ff 7b3f 987a bd3f
000000b0: b503 653f 70b7 6740 9fbe 1b40 b44c 7540
000000c0: 7f98 9940 00ce 24c0 8df8 5d40 f311 84c0
000000d0: df02 a4c0 fa8e 3840 ce3e b93e dd03 e63f
000000e0: 9f0a 87c0 7890 92c0 cfc1 3840 7e77 7f40
000000f0: ed09 42c0 2001 d23d f9a2 4f40 5348 84be

fc2.weight f4 [64, 64]
0.12060474 0.11940645 0.1037842 -0.044400446 0.02297323 0.009952962 -0.085865974 -0.011648402
0.0030416697 0.06071514 -0.12194976 -0.07461816 -0.042449936 0.050754488 0.1021227 0.054652575
-0.058800414 -0.10324907 -0.035811216 0.033671767 -0.06897281 0.06132838 -0.024406314 0.03140378
-0.08966517 -0.07298577 -0.12361108 -0.018588508 -0.11653766 -0.11270793 -0.034044005 -0.092240065
0.10635468 -0.0854342 0.025025517 -0.088711485 -0.04255873 -0.016686723 0.08468346 -0.024044266
-0.004942268 -0.07790133 0.027865306 -0.10666032 -0.029969417 -0.048475966 -0.11364145 -0.1115031
0.117335305 0.11650251 -0.1093275 0.0827584 0.06486523 0.107891485 -0.12379941 -0.095787376
-0.05039824 0.123765305 -0.11748627 -0.017633587 -0.052129522 -0.019243255 0.071170315 0.043460757
0.06220011 -0.038972627 -0.0701946 -0.0014039725 0.058888283 0.032755036 -0.13899238 -0.11861454
0.07822886 -0.13783008 -0.0105468985 0.07563554 -0.040561005 -0.08780995 0.006795715 0.11371283
0.052819706 0.05540509 0.03777866 0.021226045 -0.14383532 -0.1247057 -0.037266422 0.0059682247
-0.10282773 0.044694744 0.019509077 -0.10380009 -0.13131818 -0.15521996 0.05260536 -0.16258122
-0.10117991 -0.0012677014 -0.06878837 0.021013036 -0.026689256 -0.04726015 -0.0059994245 -0.0971829
-0.051627602 0.07310231 -0.06539832 -0.04576392 0.03793698 -0.09566297 -0.048010297 0.048487138
-0.13444747 -0.009495422 -0.22856441 -0.07832524 0.021147814 0.11292618 -0.07759227 -0.060270388
0.06902679 0.050521173 0.062010117 -0.122306585 -0.012503632 0.00095917284 0.051575445 -0.057143122
0.07761743 1.5548425 0.12440187 -0.081219584 1.334291 -0.15402475 0.96418834 0.040744126
0.007270231 -0.7575775 -0.3707606 -0.8602717 -0.09300105 1.2699488 0.58308226 -0.0028250366
-0.23720846 -0.5342009 0.035500612 -0.27825296 0.21586251 -0.4065605 0.92368305 0.21363673
0.053506255 -0.2586428 0.05563885 -0.10234998 1.8164285 -0.87830824 -0.00050599873 0.73177737
-0.10864702 -0.117167786 -0.044206727 -0.059302747 -0.34101748 -0.101889566 0.045151655 0.3017058
-0.06151465 0.063230164 0.0043433704 0.9133767 -0.978393 1.6839598 1.6253649 -0.044912558
2.2509382 -0.7258449 -0.0426109 -0.5176432 0.23808636 0.028666776 0.06630406 -0.46799105
0.17478542 0.18520147 -0.23328125 2.450694 -0.81409514 -0.09632389 -0.4613717 0.08101021
0.10793423 0.5773082 -0.11763908 0.09397517 -0.04813696 -0.62540984 0.35794538 0.021185517
0.057831645 -0.15055583 -0.19582614 -0.5233654 0.11946827 0.09197487 0.12463864 0.103584185
-0.32507303 -0.04729876 -0.046110377 -0.05188465 -0.22126275 -0.15529446 0.01671466 -0.15974997
-0.09557715 0.23267718 0.061880514 -0.020881772 0.564791 -0.2907403 0.07853849 -0.28567386
0.065964565 0.115807414 0.14551917 0.08348931 -0.09988005 -0.016881153 -1.2175598 0.024984911
-0.04613645 0.08281054 0.009847466 -0.33660668 -0.34918338 0.36491922 0.10937966 -0.009271902
0.22570334 0.20601866 -0.13555017 0.17530698 -0.016178213 -0.45998988 0.021559477 -0.10832912
0.27419978 0.07542693 -0.1998048 0.37150562 -0.4039012 -0.058162853 -0.22594178 0.08945878
00000000: 9eff f63d 5e8b f43d d08c d43d 3edd 35bd
00000010: 5b32 bc3c c011 233c 80da afbd f0d8 3ebc
00000020: c056 473b 70b0 783d ccc0 f9bd 68d1 98bd
00000030: fcdf 2dbd f0e3 4f3d b525 d13d 61db 5f3d
00000040: b4d8 70bd 4074 d3bd c8ae 12bd 68eb 093d
00000050: 9e41 8dbd 7833 7b3d c0ef c7bc 40a1 003d
00000060: 5fa2 b7bd 9079 95bd ce27 fdbd ed46 98bc
00000070: 4cab eebd 6ad3 e6bd ba71 0bbd 5ce8 bcbd
00000080: 7cd0 d93d 20f8 aebd 5002 cd3c 5eae b5bd
00000090: 1052 2ebd 98b2 88bc 866e ad3d 7bf8 c4bc
000000a0: c0f2 a1bb bc8a 9fbd c845 e43c ba70 dabd
000000b0: 6c82 f5bc bc8e 46bd d9bc e8bd bd5b e4bd
000000c0: 7e4d f03d de98 ee3d 19e7 dfbd 3c7d a93d
000000d0: 10d8 843d 36f6 dc3d 8c8a fdbd 2c2c c4bd
000000e0: 636e 4ebd aa78 fd3d a49c f0bd 5074 90bc
000000f0: c485 55bd 08a4 9dbc bec1 913d e803 323d
00000100: 8bc5 7e3d c3a1 1fbd 30c2 8fbd 8005 b8ba
00000110: d734 713d 252a 063d 0554 0ebe 2eec f2bd
00000120: 7436 a03d 5423 0dbe e6cc 2cbc cee6 9a3d
00000130: 4c23 26bd b4d5 b3bd 97ae de3b 46e2 e83d
00000140: 7a59 583d 73f0 623d ccbd 1a3d 3ee2 ad3c
00000150: 9149 13be b465 ffbd ada4 18bd 1991 c33b
00000160: 5897 d2bd d611 373d 80d1 9f3c 2495 d4bd
00000170: 4678 06be fbf1 1ebe b878 573d b17b 26be
00000180: 6a37 cfbd 0029 a6ba ebe0 8cbd 8823 ac3c
00000190: 6da3 dabc dc93 41bd d296 c4bb d407 c7bd
000001a0: 7777 53bd aab6 953d 8eef 85bd f372 3bbd
000001b0: cf63 1b3d f2ea c3bd 72a6 44bd 739a 463d
000001c0: 99ac 09be b092 1bbc ca0c 6abe fc68 a0bd
000001d0: 2e3e ad3c d745 e73d b2e8 9ebd 15de 76bd
000001e0: eb5d 8d3d 4aef 4e3d 52fe 7d3d e07b fabd
000001f0: 09dc 4cbc 0071 7b3a c640 533d e80e 6abd
00000200: e3f5 9e3d 1405 c73f 68c6 fe3d 7456 a6bd
00000210: 0cca aa3f aab8 1dbe 0cd5 763f 50e3 263d
00000220: 1e3b ee3b 99f0 41bf 55d4 bdbe c43a 5cbf
00000230: 5677 bebd af8d a23f e144 153f 4024 39bb
00000240: c6e6 72be 64c1 08bf 1769 113d 2c77 8ebe
00000250: 100b 5d3e b328 d0be 7e76 6c3f 96c3 5a3e
00000260: 6029 5b3d d46c 84be 90e5 633d de9c d1bd
00000270: bb80 e83f cfd8 60bf 00a5 04ba c355 3b3f
00000280: 5482 debd aaf5 efbd 1d12 35bd 70e7 72bd
00000290: d899 aebe 7aab d0bd f1f0 383d 2f79 9a3e
000002a0: c9f6 7bbd d17e 813d d552 8e3b 0ed3 693f
000002b0: f777 7abf ff8b d73f f50b d03f 3bf6 37bd
000002c0: 5f0f 1040 f9d0 39bf c488 2ebd 4484 04bf
000002d0: e9cc 733e 96d6 ea3c 6cca 873d 869c efbe
000002e0: f3fa 323e 74a5 3d3e 48e1 6ebe 2cd8 1c40
000002f0: 8a68 50bf 7645 c5bd e938 ecbe aee8 a53d
00000300: 9f0c dd3d 78ca 133f c2ec f0bd 0e76 c03d
00000310: 432b 45bd dc1a 20bf 9e44 b73e 408d ad3c
00000320: e0e0 6c3d 4f2b 1abe a686 48be 46fb 05bf
00000330: c8ab f43d 525d bc3d 8b42 ff3d f223 d43d
00000340: f96f a6be 58bc 41bd 3cde 3cbd 0085 54bd
00000350: b492 62be 8305 1fbe 2fed 883c 7f95 23be
00000360: f4bd c3bd ed42 6e3e 6c76 7d3d 4010 abbc
00000370: 2596 103f eadb 94be cad8 a03d d843 92be
00000380: 6e18 873d 702c ed3d fa02 153e 72fc aa3d
00000390: e98d ccbd 584a 8abc 00d9 9bbf 28ad cc3c
000003a0: 93f9 3cbd 9398 a93d 4457 213c b657 acbe
000003b0: 2ac8 b2be b1d6 ba3e 7102 e03d 2de9 17bc
000003c0: c71e 673e 8ef6 523e aacd 0abe ac83 333e
000003d0: 2c88 84bc cb83 ebbe 809d b03c a8db ddbd
000003e0: ea63 8c3e 6f79 9a3d a199 4cbe fc35 be3e
000003f0: 23cc cebe 2c3c 6ebd 485d 67be 2a36 b73d

fc2.bias f4 [64]
0.04751405 0.07167923 1.0738965 1.2795494 0.012799796 -0.08479243 0.033224426 1.8589343
0.012737397 2.06562 -0.019970609 1.9013128 0.03690506 0.01882879 2.3937447 1.8224581
2.7252748 -2.4193838 -0.05542372 2.856162 2.3311386 1.0653121 1.567311 0.0012844652
2.9406586 -0.06262667 -0.14966175 1.5614079 -0.13842495 0.10065491 -0.12346144 0.7686416
2.361922 -0.08934479 0.01076483 -2.3514335 -0.120538265 -0.029159155 0.93911743 2.367884
0.069630295 -0.08267694 -0.034215372 -0.14332867 0.005771247 1.8699722 2.5865328 1.840317
0.6184137 0.01443522 1.9542826 1.1414098 -1.5660113 0.11203256 -0.113179505 0.035824712
1.0050789 0.34600237 1.5177385 1.6380162 1.801899 0.6129294 1.5753357 1.5610527
00000000: 189e 423d 8fcc 923d 7175 893f 46c8 a33f
00000010: 3cb6 513c a7a7 adbd 5616 083d 8ff1 ed3f
00000020: 84b0 503c 1e33 0440 6799 a3bc 385e f33f
00000030: c329 173d d63e 9a3c 1d33 1940 4f46 e93f
00000040: e76a 2e40 2fd7 1ac0 fc03 63bd 5ccb 3640
00000050: 6031 1540 265c 883f a69d c83f 805b a83a
00000060: c033 3c40 6942 80bd ee40 19be 37dc c73f
00000070: 45bf 0dbe 2924 ce3d 5ad9 fcbd b2c5 443f
00000080: bb29 1740 67fa b6bd f85e 303c e37d 16c0
00000090: c4dc f6bd 2edf eebc 006a 703f 698b 1740
000000a0: 549a 8e3d 8752 a9bd 6b25 0cbd c0c4 12be
000000b0: bb1c bd3b 405b ef3f c189 2540 828f eb3f
000000c0: 5c50 1e3f b381 6c3c ef25 fa3f b719 923f
000000d0: 0f73 c8bf 5471 e53d a8ca e7bd efbc 123d
000000e0: 6da6 803f 3927 b13e 4145 c23f 84aa d13f
000000f0: a0a4 e63f f1e8 1c3f 9aa4 c93f 93d0 c73f

fc3.weight f4 [20, 64]
0.012497827 -0.095461786 -0.2081292 0.09613236 -0.054149654 -0.071813345 -0.06781979 -0.91354096
-0.09310738 -0.55606586 -0.027186586 -0.3816312 0.010790909 0.014947454 0.6771654 0.18750556
0.6104685 -0.4701824 -0.044236526 0.5261743 -0.93074805 0.042996004 -0.08944092 0.04704693
0.61922765 -0.06016989 -0.058254976 -0.45165452 0.06375172 -0.034371834 0.08653042 0.059216116
0.64326626 0.019007606 -0.01234749 -0.5477439 0.07601674 -0.022254238 0.04393105 0.64981735
-0.07500223 0.002500143 0.07948755 -0.07471341 -0.07305761 -0.15758626 0.2538565 0.047123663
-0.75480205 -0.029228553 0.2631132 0.21403937 0.39902562 0.110510275 -0.06214423 -0.027827427
-0.3438623 0.17452626 -0.64331985 0.23363085 0.32031727 0.112453796 0.380225 0.5705146
0.04548116 -0.066784136 -0.27362454 -0.07356426 -0.07255096 -0.049001236 -0.022606984 -0.5873923
0.15323807 -0.452414 0.0007811278 -0.6113374 -0.0686021 0.025448717 0.63233113 0.17622471
0.687456 -0.109759636 0.0050238515 0.5636076 -1.0078511 -0.2882951 0.15294431 0.07696238
0.5067962 0.06363426 -0.032058395 -0.18396679 0.060039416 0.042284455 -0.02848348 0.28039876
0.62124795 0.014680161 -0.048033282 -0.0052371267 -0.09892069 0.10123607 0.07697667 0.4519596
0.13121387 0.088496156 0.063230164 -0.12083341 0.061991494 -0.21043894 0.40185413 0.2575103
-0.25258285 0.06853505 0.22394498 0.11613231 0.12192037 -0.0709866 -0.06218259 0.09266654
-0.21453281 0.3173196 -0.3642121 0.047730893 -0.13998535 0.018255811 0.33409733 0.72561777
-0.1186655 -0.038045015 -0.18576224 0.19709276 -0.04955631 -0.10422379 -0.011933193 -0.8907264
0.09975338 -0.22266658 -0.027974496 -0.65277714 -0.001283735 -0.046605848 0.51202935 0.31790033
0.65495676 -0.23220032 0.043767136 0.5187753 -0.82710874 -0.079510055 -0.026713481 -0.016109034
0.53237396 -0.007556616 0.116807975 -0.27593333 -0.06478736 -0.106928386 0.09679875 0.28683612
0.5883412 0.025679687 -0.03992173 -0.3008136 -0.119481 -0.018851142 -0.033779502 0.69310474
-0.09753308 0.0045397338 0.039032232 0.08608344 -0.06290233 -0.16523479 0.39452574 0.40688145
-0.5975837 -0.011354365 0.1713134 0.03180004 -0.65345603 0.056932896 0.09541709 -0.09426637
-0.7368744 0.47580066 -0.46255413 0.104573965 0.3477827 0.20855944 0.45138097 0.46522373
0.052653804 -0.05954767 -0.2508661 0.06287254 -0.06504813 -0.051173106 -0.11377556 -0.7500362
-0.06523439 -0.3637609 0.044907093 -0.5061918 0.104976304 0.08493399 0.5281831 0.07252563
0.48870373 -0.21953419 -0.013831715 0.49500546 -0.6920348 -0.27407375 0.091366634 0.10997009
0.4491901 -0.073344335 0.031155935 -0.25344464 0.15102813 0.112181105 0.03727846 0.2186103
0.71155715 -0.06711942 -0.08450432 -0.27029565 -0.08781041 -0.057465203 0.35284916 0.48398852
0.13794929 0.04664025 -0.042724043 0.105642885 -0.040988177 -0.2785821 0.34153113 -0.06179032
-0.13401446 -0.06830408 0.12848693 0.056400362 -0.30893272 0.100821465 -0.07897345 -0.0734202
-0.13634345 0.306632 -0.5473567 0.36965787 0.34501433 0.16631189 0.39223728 0.7424242
00000000: b0c3 4c3c 7881 c3bd d21f 55be 0be1 c43d
00000010: 07cc 5dbd e012 93bd 1ae5 8abd d2dd 69bf
00000020: 15af bebd 555a 0ebf 67b6 debc 2a65 c3be
00000030: 5acc 303c 2be6 743c b65a 2d3f 7501 403e
00000040: aa47 1c3f bfbb f0be 5c31 35bd 5cb3 063f
00000050: 8145 6ebf 941c 303d cd2c b7bd 48b4 403d
00000060: b485 1e3f b474 76bd c59c 6ebd 433f e7be
00000070: 4390 823d 7bc9 0cbd dc36 b13d 998c 723d
00000080: 19ad 243f d7b5 9b3c 204d 4abc f238 0cbf
00000090: aaae 9b3d 854e b6bc 0bf1 333d 6e5a 263f
000000a0: c59a 99bd 70d9 233b 5eca a23d 5803 99bd
000000b0: 3a9f 95bd 4b5e 21be 7bf9 813e be04 413d
000000c0: b53a 41bf b870 efbc c6b6 863e 232d 5b3e
000000d0: 164d cc3e 3653 e23d f38a 7ebd 58f6 e3bc
000000e0: b80e b0be 03b7 323e 9cb0 24bf ed3c 6f3e
000000f0: a000 a43e 2d4e e63d daac c23e 3f0d 123f
00000100: 744a 3a3d 1fc6 88bd 8418 8cbe dca8 96bd
00000110: 9995 94bd 85b5 48bd 4832 b9bc 575f 16bf
00000120: 71ea 1c3e cfa2 e7be 99c4 4c3a 9c80 1cbf
00000130: 427f 8cbd d479 d03c 74e0 213f 4074 343e
00000140: 1efd 2f3f a9c9 e0bd 1f9f a43b 9648 103f
00000150: 4401 81bf 6a9b 93be 6f9d 1c3e 749e 9d3d
00000160: 65bd 013f ae52 823d aa4f 03bd ca61 3cbe
00000170: e4eb 753d 7732 2d3d 3056 e9bc 6d90 8f3e
00000180: 1b0a 1f3f 0f85 703c 8cbe 44bd 349c abbb
00000190: ee96 cabd db54 cf3d f2a5 9d3d 4067 e73e
000001a0: ee5c 063e 793d b53d d17e 813d 8277 f7bd
000001b0: cbea 7d3d 4e7d 57be d3bf cd3e 64d8 833e
000001c0: 8a52 81be 1b5c 8c3d d551 653e c7d6 ed3d
000001d0: 63b1 f93d 6c61 91bd 2cb3 7ebd f4c7 bd3d
000001e0: 7dae 5bbe b777 a23e 027a babe 7881 433d
000001f0: 5258 0fbe 368d 953c ce0e ab3e 16c2 393f
00000200: e606 f3bd 17d5 1bbd 7538 3ebe afd2 493e
00000210: 8ffb 4abd 4873 d5bd 7083 43bc a506 64bf
00000220: 804b cc3d b502 64be c52a e5bc 671c 27bf
00000230: 0043 a8ba c6e5 3ebd 5b14 033f d5c3 a23e
00000240: 3fab 273f ecc5 6dbe 2b45 333d 75ce 043f
00000250: 66bd 53bf 2bd6 a2bd 3bd6 dabc 18f7 83bc
00000260: a949 083f 7d9d f7bb 0539 ef3d 2247 8dbe
00000270: 3caf 84bd 45fd dabd 6c3e c63d 2fdc 923e
00000280: 879d 163f 355e d23c f884 23bd 3d04 9abe
00000290: 74b2 f4bd b66d 9abc 605c 0abd 506f 313f
000002a0: 6cbf c7bd 0cc2 943b 43e0 1f3d 844c b03d
000002b0: f0d2 80bd 4f33 29be 47ff c93e c452 d03e
000002c0: 3ffb 18bf a907 3abc c86c 2f3e c240 023d
000002d0: e548 27bf 7832 693d 096a c33d ba0e c1bd
000002e0: cda3 3cbf 259c f33e e5d3 ecbe e02a d63d
000002f0: 9310 b23e 9b90 553e 681b e73e ce31 ee3e
00000300: 84ab 573d 42e8 73bd 8571 80be 51c3 803d
00000310: f437 85bd e49a 51bd 2903 e9bd 5f02 40bf
00000320: 9c99 85bd de3e babe 80f0 373d c995 01bf
00000330: d1fd d63d dff1 ad3d 0237 073f 5188 943d
00000340: 6037 fa3e 92cd 60be 6b9e 62bc 5b71 fd3e
00000350: 3129 31bf 6553 8cbe 6e1e bb3d 0038 e13d
00000360: 3ffc e53e 8e35 96bd bb3a ff3c 7fc3 81be
00000370: 1ea7 1a3e 35bf e53d 4cb1 183d 61db 5f3e
00000380: 9c28 363f e875 89bd 9a10 adbd 3164 8abe
00000390: f2d5 b3bd a260 6bbd a5a8 b43e 58cd f73e
000003a0: 9442 0d3e d909 3f3d 68ff 2ebd 4c5b d83d
000003b0: 38e3 27bd 50a2 8ebe 2bdd ae3e d917 7dbd
000003c0: 163b 09be 02e3 8bbd 1492 033e 1104 673d
000003d0: 6e2c 9ebe 7c7b ce3d d5bc a1bd 545d 96bd
000003e0: 9e9d 0bbe dffe 9c3e 921f 0cbf cc43 bd3e
000003f0: b8a5 b03e aa4d 2a3e 53d3 c83e 830f 3e3f

fc3.bias f4 [20]
2.4605038 1.1555756 1.3405826 1.1193355 1.0868655 0.71008015 0.41308957 0.74373746
0.40200937 0.30863878 0.22232945 0.04959136 0.19228613 0.0010648814 -0.10420528 -0.1335565
-0.28370526 -0.2851713 -0.6141727 -0.516144
00000000: e578 1d40 e7e9 933f 3698 ab3f 6346 8f3f
00000010: 691e 8b3f d0c7 353f 7a80 d33e 9465 3e3f
00000020: 2cd4 cd3e e705 9e3e 55aa 633e 4f20 4b3d
00000030: a8e6 443e 7e93 8b3a 9469 d5bd 09c3 08be
00000040: d141 91be f901 92be 6c3a 1dbf 0322 04bf

exp_avg f4 [64, 3]
6e-45 6e-45 6e-45 39.997833 44.334534 92.30682 0.0 0.0
0.0 0.0 0.0 0.0 -7.2013063e-06 -1.4402613e-05 -7.2013063e-06 -1.275272
-2.3350108 -15.998512 0.23551965 1.1010491 0.23958212 0.0 0.0 0.0
0.0 0.0 0.0 -21.362597 -26.858555 -65.15866 6e-45 6e-45
6e-45 -20.29311 -25.063328 -57.81526 0.0 0.0 0.0 -2.2004495
-4.1140075 -21.38251 -1.0485986 -2.6921515 -17.955479 0.0 0.0 0.0
0.22046223 0.30207524 -1.21966 0.10706742 0.049676605 1.1753086 0.0 0.0
0.0 -6e-45 -6e-45 6e-45 -14.329326 -19.118767 -89.4414 -8.9661665
-11.499746 -38.208958 -9.4197385e-06 -1.8839477e-05 -9.4197385e-06 6e-45 6e-45 6e-45
0.0 0.0 0.0 0.81726867 -0.5155657 6.900075 0.0 0.0
0.0 0.0 0.0 0.0 -5.347951e-06 -1.0695902e-05 -5.347951e-06 -16.557081
-20.022747 -51.156357 0.0 0.0 0.0 19.846437 19.148731 43.118786
0.0 0.0 0.0 0.0 0.0 0.0 6e-45 6e-45
6e-45 0.0 0.0 0.0 6e-45 6e-45 6e-45 0.0
0.0 0.0 0.17535882 0.08163006 1.4853677 -7.8168626 -10.932164 -63.655064
6e-45 6e-45 6e-45 6e-45 6e-45 6e-45 1.0476435 1.5825758
0.7439619 0.98643464 7.573469 1.4348141 6e-45 6e-45 6e-45 0.28694063
1.7610775 0.28694063 0.18239924 0.0020210461 -2.3626385 -0.0921326 -0.5918402 -13.74045
76.295494 92.35911 176.63368 6e-45 6e-45 6e-45 -4.9973793 -7.306106
-43.321068 0.8717829 -2.6706936 -6.7889056 -6e-45 -6e-45 6e-45 -3.631488
-5.8197365 -31.319443 0.0 0.0 0.0 -10.96059 -14.013168 -41.954556
6e-45 -6e-45 6e-45 0.16589165 0.64985794 13.286182 -0.034509312 1.1631308
2.1548214 29.001886 30.02204 39.943237 -15.825901 -18.554234 -47.184017 0.0
0.0 0.0 0.15003791 0.53843945 -1.6950676 0.0 0.0 0.0
00000000: 0400 0000 0400 0000 0400 0000 c8fd 1f42
00000010: 9056 3142 189d b842 0000 0000 0000 0000
00000020: 0000 0000 0000 0000 0000 0000 0000 0000
00000030: c0a2 f1b6 c0a2 71b7 c0a2 f1b6 1d3c a3bf
00000040: d170 15c0 e8f9 7fc1 102c 713e 2def 8c3f
00000050: 0455 753e 0000 0000 0000 0000 0000 0000
00000060: 0000 0000 0000 0000 0000 0000 99e6 aac1
00000070: 52de d6c1 3c51 82c2 0400 0000 0400 0000
00000080: 0400 0000 4a58 a2c1 b281 c8c1 d442 67c2
00000090: 0000 0000 0000 0000 0000 0000 2ad4 0cc0
000000a0: f3a5 83c0 610f abc1 7b38 86bf 364c 2cc0
000000b0: d2a4 8fc1 0000 0000 0000 0000 0000 0000
000000c0: dac0 613e 9ba9 9a3e d21d 9cbf 2a46 db3d
000000d0: b279 4b3d 8370 963f 0000 0000 0000 0000
000000e0: 0000 0000 0400 0080 0400 0080 0400 0000
000000f0: eb44 65c1 3cf3 98c1 ffe1 b2c2 6b75 0fc1
00000100: f6fe 37c1 f9d5 18c2 7809 1eb7 7809 9eb7
00000110: 7809 1eb7 0400 0000 0400 0000 0400 0000
00000120: 0000 0000 0000 0000 0000 0000 8538 513f
00000130: 1dfc 03bf 6acd dc40 0000 0000 0000 0000
00000140: 0000 0000 0000 0000 0000 0000 0000 0000
00000150: 8d72 b3b6 8d72 33b7 8d72 b3b6 e774 84c1
00000160: 962e a0c1 1ca0 4cc2 0000 0000 0000 0000
00000170: 0000 0000 81c5 9e41 9a30 9941 a379 2c42
00000180: 0000 0000 0000 0000 0000 0000 0000 0000
00000190: 0000 0000 0000 0000 0400 0000 0400 0000
000001a0: 0400 0000 0000 0000 0000 0000 0000 0000
000001b0: 0400 0000 0400 0000 0400 0000 0000 0000
000001c0: 0000 0000 0000 0000 4391 333e a92d a73d
000001d0: 8720 be3f bd23 fac0 25ea 2ec1 c99e 7ec2
000001e0: 0400 0000 0400 0000 0400 0000 0400 0000
000001f0: 0400 0000 0400 0000 2f19 863f d891 ca3f
00000200: 4974 3e3f fb86 7c3f dc59 f240 fda7 b73f
00000210: 0400 0000 0400 0000 0400 0000 e2e9 923e
00000220: fd6a e13f e2e9 923e dec6 3a3e 8773 043b
00000230: 7835 17c0 04b0 bcbd d782 17bf e2d8 5bc1
00000240: 4b97 9842 ddb7 b842 39a2 3043 0400 0000
00000250: 0400 0000 0400 0000 88ea 9fc0 9fcb e9c0
00000260: c648 2dc2 2a2d 5f3f a5ec 2ac0 b73e d9c0
00000270: 0400 0080 0400 0080 0400 0000 4d6a 68c0
00000280: 483b bac0 388e fac1 0000 0000 0000 0000
00000290: 0000 0000 945e 2fc1 f035 60c1 77d1 27c2
000002a0: 0400 0000 0400 0080 0400 0000 80df 293e
000002b0: 175d 263f 3494 5441 a359 0dbd 78e1 943f
000002c0: 98e8 0940 dd03 e841 232d f041 e0c5 1f42
000002d0: e436 7dc1 126f 94c1 6fbc 3cc2 0000 0000
000002e0: 0000 0000 0000 0000 8aa3 193e 2bd7 093f
000002f0: faf7 d8bf 0000 0000 0000 0000 0000 0000

exp_avg_sq f4 [64, 3]
7e-43 7e-43 7e-43 25188.145 25660.34 105223.53 0.0 0.0
0.0 0.0 0.0 0.0 0.0041713794 0.016667614 0.0043608784 116.796844
367.41446 29263.73 0.4927791 27.705202 0.71458435 0.0 0.0 0.0
0.0 0.0 0.0 6750.292 7738.4595 66275.76 7e-43 7e-43
7e-43 6164.9697 7301.199 44699.742 0.0 0.0 0.0 51.876278
296.94113 10149.92 48.374737 263.88727 24819.502 0.0 0.0 0.0
6.1089616 43.73102 3207.921 2.982173 0.9856324 147.22287 0.0 0.0
0.0 8.975297e-33 1.6310074e-32 3.0129055e-28 3455.6458 6463.9062 415545.94 996.8104
1367.7015 47548.754 0.019870454 0.3327921 0.019870454 5.378475e-12 1.3446743e-12 5.378475e-12
0.0 0.0 0.0 22.611998 44.36981 9610.353 0.0 0.0
0.0 0.0 0.0 0.0 0.0021803803 0.00869843 0.0024328534 3988.8274
4778.6855 36300.89 0.0 0.0 0.0 5119.129 5045.642 17701.055
0.0 0.0 0.0 0.0 0.0 0.0 7e-43 7e-43
7e-43 0.0 0.0 0.0 3.6737562e-34 3.8986285e-34 3.909069e-30 0.0
0.0 0.0 20.642414 39.285343 1291.1364 1538.3954 3641.972 271247.03
7e-43 7e-43 7e-43 7e-43 7e-43 7e-43 71.79898 282.5896
83.841736 134.26866 1119.0735 156.7986 7e-43 7e-43 7e-43 0.10212239
5.813074 0.10226675 13.140594 1.1024287 611.69507 3.8601096 13.821143 19051.75
111942.07 118966.68 559469.9 6.27197e-40 3.29378e-40 3.3835856e-36 715.7606 1868.5549
141637.72 31.851591 211.71687 21627.484 1.9013685e-18 3.7974704e-18 2.415143e-13 382.6754
1002.41974 73849.98 0.0 0.0 0.0 1662.9435 2058.45 42925.945
0.038741995 0.0050599757 229.98285 3.8188982 35.660275 36705.113 12.115079 23.65803
382.18594 15487.8955 19333.863 35839.184 3826.661 4516.821 30853.7 0.0
0.0 0.0 5.5603666 268.8357 28171.42 0.0 0.0 0.0
00000000: f401 0000 f401 0000 f401 0000 4ac8 c446
00000010: ae78 c846 c483 cd47 0000 0000 0000 0000
00000020: 0000 0000 0000 0000 0000 0000 0000 0000
00000030: 11b0 883b 858a 883c b3e5 8e3b fc97 e942
00000040: 0db5 b743 769f e446 8b4d fc3e 41a4 dd41
00000050: 00ef 363f 0000 0000 0000 0000 0000 0000
00000060: 0000 0000 0000 0000 0000 0000 56f2 d245
00000070: add3 f145 e171 8147 f401 0000 f401 0000
00000080: f401 0000 c2a7 c045 9829 e445 be9b 2e47
00000090: 0000 0000 0000 0000 0000 0000 4f81 4f42
000000a0: 7778 9443 ae97 1e46 bb7f 4142 92f1 8343
000000b0: 01e7 c146 0000 0000 0000 0000 0000 0000
000000c0: 9d7c c340 91ec 2e42 bc7e 4845 ecdb 3e40
000000d0: 6852 7c3f 0e39 1343 0000 0000 0000 0000
000000e0: 0000 0000 dd68 3a0a 9d5f a90a 30f7 be11
000000f0: 55fa 5745 40ff c945 3ee7 ca48 de33 7944
00000100: 73f6 aa44 c1bc 3947 5dc7 a23c ba63 aa3e
00000110: 5dc7 a23c ff3c bd2c ff3e bd2b ff3c bd2c
00000120: 0000 0000 0000 0000 0000 0000 5fe5 b441
00000130: af7a 3142 6929 1646 0000 0000 0000 0000
00000140: 0000 0000 0000 0000 0000 0000 0000 0000
00000150: b6e4 0e3b dc83 0e3c 8270 1f3b 3d4d 7945
00000160: 7c55 9545 e4cc 0d47 0000 0000 0000 0000
00000170: 0000 0000 08f9 9f45 23ad 9d45 1c4a 8a46
00000180: 0000 0000 0000 0000 0000 0000 0000 0000
00000190: 0000 0000 0000 0000 f401 0000 f401 0000
000001a0: f401 0000 0000 0000 0000 0000 0000 0000
000001b0: b929 f407 dd8d 0108 1892 9e0e 0000 0000
000001c0: 0000 0000 0000 0000 aa23 a541 3124 1d42
000001d0: 5d64 a144 a74c c044 8d9f 6345 e171 8448
000001e0: f401 0000 f401 0000 f401 0000 f401 0000
000001f0: f401 0000 f401 0000 1499 8f42 784b 8d43
00000200: f8ae a742 c744 0643 5ae2 8b44 71cc 1c43
00000210: f401 0000 f401 0000 f401 0000 8b25 d13d
00000220: b404 ba40 3b71 d13d df3f 5241 621c 8d3f
00000230: 7cec 1844 090c 7740 6723 5d41 80d7 9446
00000240: 09a3 da47 575b e847 de96 0849 5fd4 0600
00000250: 2c96 0300 fceb 8f04 aef0 3244 c291 e944
00000260: 6e51 0a48 0fd0 fe41 85b7 5343 f8f6 a846
00000270: d64b 0c22 181a 8c22 e1f5 872a 7456 bf43
00000280: dd9a 7a44 fd3c 9047 0000 0000 0000 0000
00000290: 0000 0000 31de cf44 33a7 0045 f2ad 2747
000002a0: edaf 1e3d 27ce a53b 9cfb 6543 d468 7440
000002b0: 1fa4 0e42 1d61 0f47 5dd7 4141 a543 bd41
000002c0: cd17 bf43 95ff 7146 ba0b 9746 2fff 0b47
000002d0: 932a 6f45 9126 8d45 660b f146 0000 0000
000002e0: 0000 0000 0000 0000 86ee b140 f86a 8643
000002f0: d716 dc46 0000 0000 0000 0000 0000 0000
