beer/experiments/vanilla_DQN/eps_0.10/models/dqn_agent_firm_1_episode_3000.pth (torch, 101224 bytes, 24 tensors)

fc1.weight f4 [64, 3]
00000000: 0ca2 be3e 6453 f2be a199 c0be fb50 163d
00000010: 6e11 b63d 5bd6 15be 1cc9 75be 287f aabe
00000020: 40f4 01bf e065 fabc 4f8d 8dbe 76ea 35be
00000030: 234a 43be ae7b 09bf 3877 133b d5fc d33e
00000040: d9b9 f13d 444d 823d 2e93 51bf 6eac f6bd
00000050: a4a5 e83c 84e9 dabe 2edb b3be dd31 8ebe
00000060: 702d ebbe 1f60 11bf d2ee 44be 4397 c43d
00000070: b029 ea3e d2a6 b23e ca3b 8cbe e475 fbbd
00000080: ad0c 133c 07c4 3f3f 4553 253f 2d73 bd3e
00000090: 02ab c5be 0030 4a3a 805b fbbe 950f a5be
000000a0: 3321 65be 5aed b73e 4e8b d5be 956f 8dbe
000000b0: d024 a93e 3372 fdbe 681b 4abe df63 01bf
000000c0: 5deb 58bd 3421 d03e 1d7c 063e 2b36 a8be
000000d0: 63a3 fa3d cb8c 393e a0dc 37be b06e 1abd
000000e0: 44e0 b0be 9196 99be 203d 47be 02a8 023e
000000f0: 2525 7d3d bd77 d23c 41e1 7e3d 95cd e3be
00000100: da6c 163e 2497 943e a66a 0abf a151 b2bd
00000110: f803 c23d 0fcf 073e 210c d8bd 6b8f 2e3e
00000120: eeea cdbe 0f7f 0fbf 5eb3 42be 6eae dabe
00000130: b5a6 d8be 25ac 3e3e 64ff 4cbe 0164 07bf
00000140: bad3 19be 9457 64be 33d5 11bf 20f4 c4bc
00000150: 1683 9ebe dcba a1be 6636 c63c 0f88 093f
00000160: 2ec9 503e 52ed 8d3e c5eb 8ebe 268e dcbe
00000170: f857 e5bd a301 273e fa0f a13e cb66 1bbe
00000180: 4c17 c9bd a6b9 8ebe c80b 92bd 98dc e5be
00000190: 10d4 31bd e606 d2be 4901 f1bc 3507 8bbf
000001a0: 4e25 003d 67d3 80be d4ca c7be 0437 0ebf
000001b0: 1abd d8bd 2b19 f2be d330 283e 0801 f2be
000001c0: 9e03 8abe e0d7 c7be 802a a83e ef20 833e
000001d0: f059 e8bd 2a28 523e c22d 66be 9c81 b73d
000001e0: f565 37be f1a0 653c 699f 2a3b 4331 21bf
000001f0: db36 a8be bd10 ce3d 5f3e 80be 7228 f73d
00000200: 4764 043d 070d 5fbd 36b7 073e 31f0 cf3d
00000210: 3a03 cb3e 7792 a9bf 6328 0dbe 814a a4be
00000220: 4dc5 68be 0257 903d cdbb 903e 016c 1cbf
00000230: 448b d53d 0794 843c 6bfd d1be 8e4a 303e
00000240: 51bc 443e fcdc e93d b2a3 07be 1f29 45be
00000250: 8dd6 08bf c706 e03d f6be 83be 35aa 863e
00000260: 752c b33d 5fd6 ddbe 0fd0 b4be 3545 3e3e
00000270: 7ad5 17bf 78ab d8be 4c7f 5a3e ee0a 163f
00000280: cb61 8abe b5df 063e d089 cabd 2410 a8bd
00000290: 98d6 8abe eb28 fa3d 4aa0 853b d925 a23e
000002a0: 0bc8 f43d e2b8 f1be 90b1 fe3d a696 32bf
000002b0: a052 0dbf 5b5f 623d b1f4 06be d66c 5e3d
000002c0: 05d3 b63d f99c 763e 8683 2f3e 5860 d4be
000002d0: 37ac 333f 6918 103e 3c2b 9d3e 807a 213d
000002e0: 89b9 00bf 561d 02bf 13ec 9dbe 31e4 363d
000002f0: 4659 b03d e090 a0bc d482 acbd e067 6dbe
0.37233007 -0.47329247 -0.3761721 0.036698323 0.08890043 -0.14632551 -0.24002498 -0.33300138
-0.5076332 -0.030566156 -0.27646872 -0.17765221 -0.1907125 -0.53704345 0.002250148 0.41403833
0.11803026 0.063623935 -0.81865203 -0.12044607 0.028399296 -0.42756283 -0.35128158 -0.27772418
-0.45933104 -0.56787294 -0.19231728 0.095991634 0.4573493 0.348929 -0.27389365 -0.12278345
0.00897519 0.7490849 0.64580184 0.37001935 -0.3860703 0.0007712841 -0.49093246 -0.3223845
-0.22375946 0.35923272 -0.41707844 -0.27624193 0.33035898 -0.4950119 -0.19737017 -0.50543016
-0.052958835 0.40650332 0.13133283 -0.32853827 0.12238195 0.18120115 -0.17955256 -0.037703216
-0.345461 -0.29997686 -0.19456911 0.12759402 0.061803002 0.025691861 0.062226538 -0.44492784
0.14689961 0.2902156 -0.5406898 -0.08706976 0.09473413 0.1326258 -0.105491884 0.17046897
-0.402183 -0.5605325 -0.19013736 -0.42711204 -0.42314687 0.18620355 -0.20019299 -0.5288697
-0.15022174 -0.22299033 -0.5696594 -0.02404219 -0.30959386 -0.31587875 0.024195861 0.53723234
0.20389244 0.27720124 -0.27914253 -0.430772 -0.11198419 0.16309218 0.31457502 -0.15175931
-0.09818897 -0.27876014 -0.07131153 -0.44894862 -0.04341513 -0.41020888 -0.029419558 -1.0861574
0.031285577 -0.25161287 -0.39021933 -0.555527 -0.10582943 -0.47284827 0.16424875 -0.47266412
-0.26955885 -0.39031887 0.32844925 0.25611064 -0.11345279 0.20523134 -0.22478393 0.08960268
-0.17909987 0.014015422 0.0026034957 -0.6296579 -0.3285435 0.10061786 -0.25047585 0.12068261
0.032322194 -0.054455783 0.13253483 0.10153235 0.396509 -1.3247823 -0.13784938 -0.32088092
-0.22731514 0.070478454 0.2826828 -0.611023 0.104269534 0.016183866 -0.41013655 0.1721594
0.19212462 0.114191025 -0.13246039 -0.19253968 -0.5345238 0.10938793 -0.2573163 0.26301733
0.08748714 -0.43327615 -0.35314986 0.18581088 -0.59310114 -0.4231832 0.21337622 0.5861043
-0.27027735 0.13171275 -0.09889567 -0.082062036 -0.27116847 0.12214836 0.004077946 0.316695
0.11952218 -0.47211367 0.12436211 -0.6976112 -0.552042 0.05526672 -0.1317928 0.054303013
0.089269675 0.24083318 0.17140016 -0.41479754 0.70184654 0.14071812 0.30697048 0.039423466
-0.50283104 -0.50826013 -0.30844173 0.044651214 0.086107776 -0.019600332 -0.08423391 -0.23184156

fc1.bias f4 [64]
00000000: a875 da3e f75c 5e40 a0b4 a2bc 8ee5 54be
00000010: 88ba 7340 d720 4240 9fd0 7e40 3088 0c3e
00000020: e0c4 ed3d 4efd d2bf 3859 7ec0 f8fb 5bc0
00000030: fc58 dbbd b799 c0bf 1083 4240 4e3f ac3e
00000040: ff2f 2140 14aa 4140 1a1c 033f 6fd7 84c0
00000050: 8bba 8440 ccf2 2240 e91d 3d40 8cd5 8a3f
00000060: 7e77 d23e df7f 5dc0 a487 78be a0d3 0b3d
00000070: e602 9840 102c 0ec0 4ab5 35be 0bbf 2840
00000080: 3abd cf3e c68b bb3e ae29 4fc0 d0fb ac3e
00000090: 079a 0f40 4082 97bc d838 fb3f 7354 8440
000000a0: c207 c4be 72fc 82c0 996f b53e 43b7 773f
000000b0: 3cd7 913f 19b5 6640 fc5a 3340 0411 8a40
000000c0: 0a39 8b40 515d 15c0 4a67 6840 b770 58c0
000000d0: 3b24 92c0 4f20 4d40 ce3e b93e dfb7 0440
000000e0: 3ad8 78c0 6158 82c0 3fe1 3740 4e72 6240
000000f0: 93c9 39c0 2001 d23d 61fd 5940 5348 84be
0.4266789 3.4744241 -0.01986152 -0.20790693 3.80826 3.0332544 3.9814832 0.13723826
0.116098166 -1.6483552 -3.9741955 -3.437254 -0.10710332 -1.504691 3.0392494 0.33642048
2.5185544 3.0260057 0.51214755 -4.151298 4.1477714 2.5460691 2.9549506 1.0846419
0.4110679 -3.4609296 -0.24270493 0.03413737 4.750354 -2.2214394 -0.17744938 2.6366603
0.40574056 0.36630076 -3.236919 0.33785868 2.243776 -0.018494725 1.9626722 4.1353087
-0.3828717 -4.093316 0.35436705 0.9676401 1.1393809 3.6048033 2.8024282 4.314577
4.350713 -2.3338206 3.6313043 -3.3818796 -4.5669227 3.205097 0.3618073 2.0737226
-3.8881974 -4.0732884 2.873123 3.5382266 -2.902928 0.10254121 3.40609 -0.2583643

fc2.weight f4 [64, 64]
00000000: 9eff f63d 5e8b f43d b88c d43d 2cdd 35bd
00000010: c831 bc3c c011 233c 80da afbd f0d8 3ebc
00000020: c056 473b 70b0 783d ccc0 f9bd 68d1 98bd
00000030: fcdf 2dbd f0e3 4f3d 1425 d13d 00db 5f3d
00000040: b4d8 70bd 4074 d3bd c8ae 12bd 68eb 093d
00000050: 9e41 8dbd 1033 7b3d c0ef c7bc 40a1 003d
00000060: 12a2 b7bd 9079 95bd ce27 fdbd 7846 98bc
00000070: 4cab eebd 6ad3 e6bd 7871 0bbd 5ce8 bcbd
00000080: 5ed0 d93d 20f8 aebd 5002 cd3c eaad b5bd
00000090: 1052 2ebd 60b2 88bc 866e ad3d 60f8 c4bc
000000a0: c0f2 a1bb bc8a 9fbd c845 e43c ba70 dabd
000000b0: c081 f5bc 308e 46bd aebc e8bd 7c5b e4bd
000000c0: 7e4d f03d 3098 ee3d d4e6 dfbd ec7c a93d
000000d0: 10d8 843d 36f6 dc3d 8c8a fdbd 2c2c c4bd
000000e0: cc6d 4ebd aa78 fd3d a49c f0bd 5074 90bc
000000f0: c485 55bd 08a4 9dbc bec1 913d e803 323d
00000100: 6fc8 7e3d 15a5 1fbd 30c2 8fbd 8005 b8ba
00000110: b431 713d f528 063d b956 0ebe 2eec f2bd
00000120: 7436 a03d ca25 0dbe 68cf 2cbc f8e4 9a3d
00000130: 4c23 26bd bbd8 b3bd 02ac de3b 46e2 e83d
00000140: 4e58 583d 19ed 623d ccbd 1a3d 27e1 ad3c
00000150: bf4c 13be 5166 ffbd 09a6 18bd 5a8d c33b
00000160: 5897 d2bd a50f 373d 80d1 9f3c 2495 d4bd
00000170: a678 06be 11f5 1ebe b878 573d 167e 26be
00000180: 6a37 cfbd 0029 a6ba a4e2 8cbd 8823 ac3c
00000190: 62a4 dabc dc93 41bd 1598 c4bb 0909 c7bd
000001a0: c676 53bd b5b5 953d 6aef 85bd d174 3bbd
000001b0: ed5f 1b3d 29ee c3bd d6a7 44bd 8896 463d
000001c0: 88ac 09be 5294 1bbc bb0f 6abe dd68 a0bd
000001d0: fa39 ad3c ca42 e73d b2e8 9ebd 3edf 76bd
000001e0: 605a 8d3d 0beb 4e3d 6ffb 7d3d 3e7d fabd
000001f0: a6dd 4cbc 0071 7b3a 373c 533d e80e 6abd
00000200: 43f6 9e3d fb8a c13f 68c6 fe3d 7456 a6bd
00000210: a391 113f 414e 23be 9b6f 273f 50e3 263d
00000220: e03a ee3b 9e27 ccbe 09d4 bdbe f4f6 1dbf
00000230: 5677 bebd a9f2 7bbe ab9b ef3e 4024 39bb
00000240: b119 31be 8b44 28be b468 113d 046e 8dbe
00000250: a5c5 6f3e ce6f 243c 922b f33d a86c 51be
00000260: 6029 5b3d 4691 9c3e 90e5 633d de9c d1bd
00000270: 17fd 9f3f 5e52 1ebf 00a5 04ba 3311 453f
00000280: 5482 debd aaf5 efbd 4112 35bd 70e7 72bd
00000290: 9e3c 703e 7aab d0bd 7eba 0dbd da32 903e
000002a0: 75f9 7bbd 006d 903d c28c 1ebe 921c 7abd
000002b0: 55e3 52bf 32ec 673f 6656 423e a837 e33e
000002c0: 5272 0e40 b0d0 22bf 44b6 893d 2582 463d
000002d0: a098 a03e 9923 10be 6cca 873d 8dba 78be
000002e0: f84c 8c3e 76b9 563e c432 8f3d 8bd9 0a40
000002f0: 57f9 13bf 7645 c5bd c2e6 d53d aee8 a53d
00000300: 6f0e dd3d aa4e 373f c2ec f0bd 0e76 c03d
00000310: a542 de3d 8f0a e0be 6109 a13e 408d ad3c
00000320: e0e0 6c3d fd15 acbd e186 48be 869f ddbe
00000330: c8ab f43d 49ec 073e 67e5 5f3e f223 d43d
00000340: 1398 39be ab2e bd3d d0dd 3cbd 44ba 54bd
00000350: 779e 1abd 8ee0 16bd afd9 a73c 0506 4ebc
00000360: f4bd c3bd 73cb 7a3e 6c76 7d3d 4010 abbc
00000370: 0661 393f 57f3 23be cad8 a03d b7cb 2abe
00000380: 5818 873d 702c ed3d a005 153e 72fc aa3d
00000390: 4edb 88bd 584a 8abc a164 8bbf 630e 593e
000003a0: d3f8 3cbd 0497 a93d 194e 22bc 7acc 8bbe
000003b0: dd9f e5be 8e45 883e bc7b dc3d 85ec 163e
000003c0: 5d33 bf3e cf91 533e 0b3a b73c f313 e03d
000003d0: 16be 8bbc 0a4c 89be 809d b03c fccc fe3c
000003e0: 784e 8c3e af7b 9a3d 91d3 bcbd cfd1 e33e
000003f0: b841 92be 2c3c 6ebd 4bc0 eebd 2a36 b73d
0.12060474 0.11940645 0.103784025 -0.04440038 0.022972956 0.009952962 -0.085865974 -0.011648402
0.0030416697 0.06071514 -0.12194976 -0.07461816 -0.042449936 0.050754488 0.1021215 0.054652214
-0.058800414 -0.10324907 -0.035811216 0.033671767 -0.06897281 0.061327994 -0.024406314 0.03140378
-0.08966459 -0.07298577 -0.12361108 -0.01858829 -0.11653766 -0.11270793 -0.03404376 -0.092240065
0.10635446 -0.0854342 0.025025517 -0.08871062 -0.04255873 -0.016686618 0.08468346 -0.024044216
-0.004942268 -0.07790133 0.027865306 -0.10666032 -0.029969096 -0.048475444 -0.11364113 -0.11150262
0.117335305 0.11650121 -0.10932699 0.0827578 0.06486523 0.107891485 -0.12379941 -0.095787376
-0.05039768 0.123765305 -0.11748627 -0.017633587 -0.052129522 -0.019243255 0.071170315 0.043460757
0.062202867 -0.038975794 -0.0701946 -0.0014039725 0.05888529 0.032753903 -0.1390027 -0.11861454
0.07822886 -0.13783947 -0.010547496 0.075632036 -0.040561005 -0.087815724 0.0067954073 0.11371283
0.05281859 0.055401895 0.03777866 0.021225525 -0.14384745 -0.12470687 -0.03726772 0.005967778
-0.10282773 0.044692654 0.019509077 -0.10380009 -0.13131961 -0.15523173 0.05260536 -0.16259035
-0.10117991 -0.0012677014 -0.06879166 0.021013036 -0.026689712 -0.04726015 -0.005999575 -0.0971852
-0.051626943 0.073100485 -0.06539805 -0.0457657 0.03793328 -0.0956691 -0.048011623 0.0484834
-0.13444722 -0.009495812 -0.22857563 -0.07832501 0.02114581 0.11292036 -0.07759227 -0.060271494
0.06902003 0.050517123 0.062007364 -0.12230919 -0.012504017 0.00095917284 0.051571097 -0.057143122
0.077618144 1.5120538 0.12440187 -0.081219584 0.5686285 -0.1594782 0.6540467 0.040744126
0.007270202 -0.39873976 -0.37075832 -0.61704946 -0.09300105 -0.24604286 0.46798453 -0.0028250366
-0.17294957 -0.16432397 0.035500243 -0.27622998 0.23415239 0.010036422 0.11873545 -0.20451605
0.053506255 0.30579585 0.05563885 -0.10234998 1.2499112 -0.6184443 -0.00050599873 0.7697937
-0.10864702 -0.117167786 -0.04420686 -0.059302747 0.23460624 -0.101889566 -0.03460168 0.28163797
-0.061517198 0.0705204 -0.15483382 -0.061062403 -0.8237813 0.9059478 0.18978271 0.443784
2.2257276 -0.6359968 0.067242175 0.04846396 0.31366444 -0.1407608 0.06630406 -0.24289913
0.27402472 0.20969185 0.06992105 2.1695278 -0.5780234 -0.09632389 0.10444404 0.08101021
0.107937686 0.71604407 -0.11763908 0.09397517 0.10852555 -0.43758056 0.31452468 0.021185517
0.057831645 -0.084026314 -0.19582702 -0.4328577 0.11946827 0.1327373 0.21864854 0.103584185
-0.18124418 0.09237417 -0.046109974 -0.05193545 -0.03774878 -0.036835246 0.020489542 -0.012574677
-0.09557715 0.24491672 0.061880514 -0.020881772 0.7241367 -0.16010796 0.07853849 -0.16679274
0.0659644 0.115807414 0.14552927 0.08348931 -0.06682454 -0.016881153 -1.0890085 0.21196894
-0.046135735 0.08280757 -0.009906315 -0.2730444 -0.44848529 0.26615566 0.10765788 0.14738663
0.37343875 0.2066109 0.022366544 0.10941305 -0.017058413 -0.26815826 0.021559477 0.031103604
0.27403617 0.07543122 -0.092200406 0.4449601 -0.28565764 -0.058162853 -0.11657771 0.08945878

fc2.bias f4 [64]
00000000: 189e 423d 20c9 923d 338c 6a3f 71da ba3f
00000010: 53b5 513c 4922 79bd c615 083d ea1e d33f
00000020: 83fd ed3c 0fc4 0e40 459c a3bc c248 b73f
00000030: 25a2 8c3d 2d3d 9a3c 1705 1540 d84e eb3f
00000040: 1cba 2740 ebd8 1ac0 4405 63bd 1421 3140
00000050: 65b9 1940 f269 6f3f b36f 0940 805b a83a
00000060: 6426 3640 8ddc fcbc 4b7a f1bd 440e ad3f
00000070: 1588 02be 1a22 ce3d f8d8 fcbd 503e 5f3f
00000080: 8d27 1240 54d8 6bbd 7a5b 303c b37e 16c0
00000090: c4dc f6bd 66e1 eebc ce52 803f 4150 1040
000000a0: 6c99 8e3d b998 73bd 0327 0cbd 2fc6 12be
000000b0: 7019 bd3b 6996 d23f fcbb 2a40 deea 0240
000000c0: 7f67 163f 88be f03c f334 1140 6261 973f
000000d0: d7c6 c3bf 5471 e53d 9acd e7bd 1c6a 8a3d
000000e0: 18df 673f 0b6a c53e d709 923f 8532 fc3f
000000f0: bca2 f53f 951f 7e3f 780f d63f 98bb c13f
0.04751405 0.07167268 0.9162018 1.4597913 0.012799579 -0.060823712 0.03322389 1.6493809
0.029051548 2.2307165 -0.019971976 1.4319079 0.06866864 0.018827999 2.3284357 1.8383436
2.6207342 -2.4194896 -0.055424944 2.767644 2.4019406 0.93521035 2.1474426 0.0012844652
2.8460932 -0.030866886 -0.11790904 1.3519979 -0.12747224 0.10065098 -0.12346071 0.87204456
2.283664 -0.057579353 0.010763997 -2.351483 -0.120538265 -0.029160213 1.002527 2.2548983
0.06962857 -0.05947182 -0.034216892 -0.14333414 0.0057708547 1.6452152 2.6677237 2.0455852
0.5875167 0.029387727 2.2688568 1.1826594 -1.5295056 0.11203256 -0.11318512 0.0675852
0.9057479 0.38557467 1.1409253 1.9702917 1.9190288 0.9926694 1.6723471 1.5135374

fc3.weight f4 [20, 64]
00000000: b0c3 4c3c 9d7f c3bd d2c5 51be b621 893d
00000010: bac9 5dbd c10f bdbd 01e8 8abd 83e2 69bf
00000020: bcee 53bd 5306 5abf a8b5 debc 73c5 ae3d
00000030: 40cc 303c f1e7 743c 0e57 303f 478d 3c3e
00000040: b1b6 103f 76b8 f0be 8630 35bd a77c 043f
00000050: 0521 d4bf 0c49 063f a568 ad3e 48b4 403d
00000060: 092d 153f b474 76bd 6d9a 6ebd dd07 1dbf
00000070: 6292 823d e2cb 0cbd dc36 b13d e6b6 e8bc
00000080: 861c 223f 99b3 9b3c 204d 4abc 8a35 0cbf
00000090: aaae 9b3d c14c b6bc b0ee 333d e7f3 183f
000000a0: f997 99bd 70fe 483d 86cb a23d 5803 99bd
000000b0: 419e 95bd e9e3 47bd 19e0 bf3e e84b 343e
000000c0: bbd7 9bbe b870 efbc e500 983e 9c54 a23e
000000d0: d5f1 afbd 3653 e23d 948a 7ebd 58f6 e3bc
000000e0: 31dd a1be b26c 943d be97 91bd dbae 703e
000000f0: 9b0c 203e b775 563e 7ae7 a93e b5b0 063f
00000100: 744a 3a3d 6dc2 88bd 7020 81bd 017f 97bd
00000110: 4793 94bd 5e68 a5bd 4832 b9bc fbf8 52bf
00000120: c337 f53d 70c7 27bf bbc5 4c3a 40b1 0fbe
00000130: e17c 8cbd 6a7b d03c 6018 193f efc2 b1bc
00000140: 877a 273f b1c5 e0bd c7a0 a43b 9674 063f
00000150: bea8 96bf 331f 03be 5377 a83e 749e 9d3d
00000160: c4d2 ec3e ae52 823d 2f0f 82bd a8be 1bbf
00000170: daee 753d d634 2d3d 3056 e9bc 04bd 363e
00000180: facf 163f 0d87 703c 8cbe 44bd 9598 abbb
00000190: ee96 cabd b457 cf3d 86a7 9d3d 88bf c83e
000001a0: f35c 063e 1965 a73d 627e 813d 8277 f7bd
000001b0: c8ea 7d3d a145 08be bffe cb3e 21f9 653e
000001c0: 9e12 37be 5865 ba3c c609 953e 1b3c ce3d
000001d0: 0424 a33c 6c61 91bd 2cb3 7ebd f4c7 bd3d
000001e0: 952e a5be 7342 633e 4dd3 5dbf 754c 203e
000001f0: 18cf 803e 32e5 91be 6476 953e e426 323f
00000200: e606 f3bd 04d2 1bbd 252e 18be 9ff7 2d3e
00000210: 56f8 4abd 1c6f d5bd 7083 43bc 1ded 5abf
00000220: b2c2 f13d 9770 f3be 1b27 e5bc 7605 8b3e
00000230: 0043 a8ba b6e8 3ebd 5628 d93e 1a1b e6bd
00000240: d88c 153f fdc1 6dbe 8143 333d c850 fd3e
00000250: af48 71bf a401 a4bd 9159 813e 18f7 83bc
00000260: f67d 003f 209d f7bb bd37 ef3d 12c5 f3be
00000270: 6db0 84bd 7bff dabd 6c3e c63d 4e20 cd3e
00000280: 106d 033f af5b d23c f884 23bd d801 9abe
00000290: 74b2 f4bd ad6b 9abc 0f5b 0abd 72d6 1d3f
000002a0: 80bc c7bd 993a 1bbc 83e0 1f3d 844c b03d
000002b0: 15cf 80bd edf6 91be 5e1c c93e 4727 ac3e
000002c0: 6a2c 94be d835 a73c 89dd 8d3e 5d5d efbc
000002d0: e3df f3bd 7832 693d ca69 c33d ba0e c1bd
000002e0: a196 cebe e459 bf3e a8e3 26be 2b5c 873e
000002f0: 8462 833e 944f 283e 4cf4 c43e 8a60 b53e
00000300: 84ab 573d b6ea 73bd b2f6 a6be 8026 cc3d
00000310: c635 85bd 9197 51bd c402 e9bd fb58 84bf
00000320: 3a9e a4bd 9b3f 2dbf 72f2 373d 53d7 86bd
00000330: eefc d63d 6cf2 ad3d 5960 fd3e d880 27bd
00000340: 723d e93e 30d0 60be 8e9c 62bc 9e5d 023f
00000350: 313c 67bf 5327 9ebe ed0e 6c3e 0038 e13d
00000360: f7ea e33e 8e35 96bd f637 ff3c 404e debe
00000370: 1dce 0f3e 1dbd e53d 4cb1 183d 40ce f73d
00000380: b854 2f3f 0979 89bd 9a10 adbd 0566 8abe
00000390: f2d5 b3bd 2e5d 6bbd 3cab b43e 6b23 e03e
000003a0: 4345 0d3e 481e f5bc 7701 2fbd 4c5b d83d
000003b0: 38e3 27bd d059 ebbd 409c e23e 26fa 713e
000003c0: e5f5 55be fcee ccbd ca67 283e c38d 13bc
000003d0: 4855 e3bd 7c7b ce3d 56bc a1bd 545d 96bd
000003e0: c3b8 533d e77b 953e 7dbe 013e 8d04 9c3e
000003f0: 24bd 903e 256b c03e 3e08 b23e f7bb 2d3f
0.012497827 -0.09545825 -0.20485619 0.06695883 -0.05414746 -0.092315204 -0.067825325 -0.91361254
-0.051741347 -0.851659 -0.02718623 0.08533754 0.0107908845 0.014947877 0.68882835 0.18413268
0.56528765 -0.47015733 -0.04423573 0.51752704 -1.6572577 0.5245521 0.338689 0.04704693
0.58271843 -0.06016989 -0.05825274 -0.61340123 0.063755766 -0.034374125 0.08653042 -0.028407525
0.63324773 0.019006537 -0.01234749 -0.54769194 0.07601674 -0.022253396 0.043928802 0.59747165
-0.074996896 0.049070776 0.07948975 -0.07471341 -0.07305575 -0.048801336 0.3747566 0.17607081
-0.30438027 -0.029228553 0.29688182 0.31705177 -0.08591048 0.110510275 -0.062143877 -0.027827427
-0.31614068 0.072472945 -0.07109021 0.23504202 0.15629809 0.20943342 0.33184415 0.52613384
0.04548116 -0.06677709 -0.06305015 -0.07397271 -0.072546534 -0.08076547 -0.022606984 -0.82411164
0.11973526 -0.6553869 0.00078114466 -0.1403246 -0.06859756 0.025449473 0.5980282 -0.021699397
0.65421337 -0.10975207 0.005024049 0.52521646 -1.1770246 -0.1280487 0.32903537 0.07696238
0.4625455 0.06363426 -0.06350552 -0.60837793 0.06004224 0.042286716 -0.02848348 0.17845541
0.589111 0.014680636 -0.048033282 -0.005236695 -0.09892069 0.1012415 0.07697968 0.39208627
0.13121395 0.0817358 0.06322934 -0.12083341 0.061991483 -0.13307811 0.39842793 0.22458316
-0.17878196 0.022753403 0.2910902 0.10070058 0.019914635 -0.0709866 -0.06218259 0.09266654
-0.32262102 0.22193317 -0.86650544 0.15654166 0.25158 -0.28495175 0.29191887 0.6959059
-0.1186655 -0.038042083 -0.14861353 0.16988991 -0.049553238 -0.10421583 -0.011933193 -0.85518056
0.11804713 -0.47546837 -0.027972749 0.27152604 -0.001283735 -0.04660865 0.42413586 -0.11235638
0.58418036 -0.23218532 0.04376555 0.49475694 -0.9425153 -0.080081254 0.25263646 -0.016109034
0.501922 -0.0075565726 0.11680553 -0.4761129 -0.06478963 -0.1069326 0.09679875 0.4006371
0.5133829 0.025678484 -0.03992173 -0.30079532 -0.119481 -0.018850172 -0.033778246 0.6165534
-0.097527504 -0.00947442 0.03903247 0.08608344 -0.06289498 -0.28508702 0.39279455 0.33623716
-0.28940135 0.020411417 0.2770808 -0.029219324 -0.119079374 0.056932896 0.09541662 -0.09426637
-0.40349296 0.3737327 -0.16297781 0.26437506 0.256611 0.16436607 0.38467634 0.35425216
0.052653804 -0.05955001 -0.3261009 0.09968281 -0.06504397 -0.051169936 -0.113774806 -1.0339655
-0.08037992 -0.6767518 0.04490895 -0.065840386 0.10497461 0.08493504 0.4948757 -0.04089436
0.45554692 -0.21954417 -0.013831271 0.509241 -0.9032622 -0.30889377 0.23052569 0.10997009
0.445152 -0.073344335 0.031154614 -0.43419075 0.1404347 0.11217711 0.03727846 0.12099886
0.68488646 -0.06712539 -0.08450432 -0.2703096 -0.08781041 -0.05746191 0.3528689 0.43777022
0.13795952 -0.029921666 -0.042726006 0.105642885 -0.040988177 -0.1149174 0.44259834 0.2363058
-0.20894583 -0.1000652 0.16445842 -0.009005967 -0.111002505 0.100821465 -0.0789725 -0.0734202
0.051689874 0.29196092 0.12670322 0.30472222 0.28269303 0.37581745 0.34771913 0.67864937

fc3.bias f4 [20]
00000000: da8c fb3f c29c 7b3f 3fab 823f 950c 643f
00000010: 4a75 3c3f a885 233f cbff 413e 9967 083f
00000020: 8af9 ad3e b6e8 8a3e 2bf0 043e 9050 423d
00000030: d9a4 ad3d e7c1 473a fb28 223e b051 01bd
00000040: dbf8 1ebe 9e2e 17be 7fc9 0abf bbef d6be
1.965236 0.9828607 1.020851 0.890817 0.7361647 0.6387582 0.18945234 0.5328308
0.33979446 0.2713067 0.12982242 0.04744011 0.08478708 0.0007620141 0.15835945 -0.031572044
-0.15524618 -0.14763877 -0.5421371 -0.41979775

fc1.weight f4 [64, 3]
00000000: 5ca3 be3e 0152 f2be 5f97 c0be 1bd2 0d3d
00000010: 5fdf af3d d829 20be 1cc9 75be 287f aabe
00000020: 40f4 01bf e065 fabc 4f8d 8dbe 76ea 35be
00000030: c041 7bbe c148 f4be 19c9 c63c aa99 dd3e
00000040: 4a20 013e 000c 603d 25f7 47bf 706b a9bd
00000050: b08b 2b3d bde9 dabe 2edb b3be dd31 8ebe
00000060: db2d ebbe 1f60 11bf d2ee 44be 3b41 c23d
00000070: 16c2 ec3e 2c1a b23e 02b8 8bbe 26c8 f9bd
00000080: 1804 243c 43d0 3f3f af0e 273f eb10 bd3e
00000090: 02ab c5be 6f30 4a3a 805b fbbe 3c09 a4be
000000a0: bf69 63be 2603 bd3e dffa e3be 7de6 92be
000000b0: f0ec ab3e 3372 fdbe 681b 4abe df63 01bf
000000c0: 4cff 26bd d420 d73e 73a6 043e 192e a2be
000000d0: 25c2 0c3e 2b59 3e3e f8dc 37be b06e 1abd
000000e0: 44e0 b0be 0320 9cbe f98e 3dbe 9728 f63d
000000f0: 7e0a 863d 44dc e53c f3f7 5e3d f848 e8be
00000100: beae 213e 090b 953e ebb4 fcbe 9f93 75bd
00000110: 2826 e23d e8b5 0c3e bf06 e7bd 24ee 333e
00000120: eeea cdbe 0f7f 0fbf 5eb3 42be f8e8 c9be
00000130: 6a7e c4be d21c 513e 64ff 4cbe 0164 07bf
00000140: bad3 19be d557 64be 33d5 11bf 93f4 c4bc
00000150: acfc bbbe e79a b5be fb87 693c a52f 0b3f
00000160: 0064 583e f1eb 8d3e c5eb 8ebe 268e dcbe
00000170: f857 e5bd 9091 353e 05b5 a13e cfc2 07be
00000180: 4c17 c9bd a6b9 8ebe c80b 92bd 98dc e5be
00000190: 10d4 31bd e606 d2be 56d4 e9bc 42bf 8abf
000001a0: 5f5b 033d 67d3 80be 25cb c7be 0437 0ebf
000001b0: 4cff 18be e5c7 fabe 85c3 353e 0801 f2be
000001c0: 9e03 8abe e0d7 c7be 7eeb a93e 6f8c a83e
000001d0: 134e 08be c94e 583e c746 63be 52b8 ab3d
000001e0: df63 37be f5a3 653c cdb0 2a3b 11d9 03bf
000001f0: b952 8fbe 16b1 ea3d 41f9 80be b3fa 1f3e
00000200: 1c24 4a3d b0eb 38bd 781c 133e 6901 d93d
00000210: c4f6 cf3e fd29 a4bf 29fa 00be 64cb 92be
00000220: f420 59be 02f5 9c3d 2d06 953e 5ee6 23bf
00000230: 401f f73d 9eca 163d 4e7c d9be 4a0a 313e
00000240: 442e 3f3e 9cb0 f13d d705 12be d778 04be
00000250: 8f16 fcbe e163 fb3d 7a05 80be 4a85 893e
00000260: 0809 a73d ef5c dfbe 09e7 9cbe 7fc8 253e
00000270: db80 0abf 38a1 b6be 95bc 5f3e 1cbc 1c3f
00000280: 35a2 8bbe dc2e 003e 478a cabd 2410 a8bd
00000290: 98d6 8abe ed87 053e 9951 4d3c 10b9 a33e
000002a0: 20ed d23d 5fdf edbe fa1a f93d 7fb4 16bf
000002b0: 0b55 03bf ea9a 923d 4e15 e7bd 496f 9d3d
000002c0: 59ef be3d a3be 6a3e f45c 2d3e fe4e d1be
000002d0: c344 353f e808 183e b11d 9e3e 807a 213d
000002e0: 89b9 00bf 561d 02bf ead9 93be eb5a 8a3d
000002f0: 42e3 a93d e090 a0bc d482 acbd 2d68 6dbe
0.37234008 -0.4732819 -0.37615487 0.0346242 0.085875265 -0.15640962 -0.24002498 -0.33300138
-0.5076332 -0.030566156 -0.27646872 -0.17765221 -0.245368 -0.47711757 0.024265813 0.432813
0.12609974 0.054698944 -0.7811149 -0.08272445 0.041881263 -0.42756453 -0.35128158 -0.27772418
-0.45933422 -0.56787294 -0.19231728 0.09485098 0.46241826 0.34785593 -0.27288824 -0.121963784
0.010010742 0.7492716 0.6525678 0.3692697 -0.3860703 0.00077129056 -0.49093246 -0.32038295
-0.22208308 0.36916465 -0.44527337 -0.28691474 0.33579206 -0.4950119 -0.19737017 -0.50543016
-0.040770814 0.42017233 0.1295412 -0.31675795 0.13745935 0.18588702 -0.17955387 -0.037703216
-0.345461 -0.30493173 -0.18511571 0.12019461 0.0654497 0.028059132 0.05443568 -0.4536817
0.15789315 0.29109982 -0.4935678 -0.059955236 0.11042434 0.13741267 -0.112805836 0.17571312
-0.402183 -0.5605325 -0.19013736 -0.39435554 -0.38377696 0.2042115 -0.20019299 -0.5288697
-0.15022174 -0.2229913 -0.5696594 -0.024042403 -0.3671621 -0.35469744 0.014253612 0.54369575
0.21131897 0.27719072 -0.27914253 -0.430772 -0.11198419 0.17731309 0.3158342 -0.13257907
-0.09818897 -0.27876014 -0.07131153 -0.44894862 -0.04341513 -0.41020888 -0.028543632 -1.0839617
0.03206956 -0.25161287 -0.39022174 -0.555527 -0.14941138 -0.48980632 0.17750366 -0.47266412
-0.26955885 -0.39031887 0.3318748 0.32919642 -0.13311033 0.21123804 -0.22194968 0.08384766
-0.17909192 0.014016141 0.0026045323 -0.5150309 -0.279928 0.11459558 -0.25190166 0.15622978
0.049350843 -0.045146644 0.14366329 0.10595972 0.40617955 -1.2825314 -0.12595429 -0.286708
-0.21203977 0.07663919 0.29106274 -0.6402339 0.12066507 0.036814325 -0.4247765 0.17289081
0.18669993 0.11801264 -0.1426004 -0.12936722 -0.4923596 0.1227491 -0.25004178 0.26859504
0.081560194 -0.4362559 -0.30645016 0.16189764 -0.5410287 -0.35669875 0.21849282 0.6122453
-0.27272192 0.12517875 -0.098896556 -0.082062036 -0.27116847 0.13040133 0.012531661 0.3197713
0.10299134 -0.4645948 0.121633485 -0.58869165 -0.5130164 0.07158454 -0.112833604 0.076872416
0.09322996 0.22924285 0.1692999 -0.4088058 0.7080805 0.14847147 0.30882028 0.039423466
-0.50283104 -0.50826013 -0.28877193 0.067556225 0.08295299 -0.019600332 -0.08423391 -0.23184271

fc1.bias f4 [64]
00000000: 7478 da3e 9922 5d40 a0b4 a2bc 8ee5 54be
00000010: 1b18 7640 1885 4340 1a4b 8040 3088 0c3e
00000020: e0c4 ed3d 25d2 d3bf 2849 7ec0 8c63 5cc0
00000030: fc58 dbbd 8a54 bfbf 21ab 4240 4e3f ac3e
00000040: a043 2240 50d1 4240 1a1c 033f c9ff 83c0
00000050: 4cea 8440 bf34 2340 eb5f 3f40 bb8b 8a3f
00000060: 7e77 d23e 4000 5bc0 de87 78be a0d3 0b3d
00000070: 199c 9740 6831 0ec0 4ab5 35be 15c0 2840
00000080: 3abd cf3e c68b bb3e ee1e 4fc0 d0fb ac3e
00000090: 0eb9 0f40 4082 97bc 838e fd3f 25a4 8440
000000a0: 4a06 c4be e810 82c0 1119 b63e 27ca 7a3f
000000b0: c41b 913f 466e 6840 e089 3640 d8f6 8a40
000000c0: d5f7 8a40 f788 14c0 fa3b 6940 34b6 5ac0
000000d0: f854 91c0 9742 4e40 ce3e b93e c129 0540
000000e0: ba6b 77c0 1c5c 81c0 5206 3a40 4a1e 6240
000000f0: 71dd 39c0 2001 d23d 4b64 5c40 5348 84be
0.42670023 3.4552367 -0.01986152 -0.20790693 3.8452213 3.0549984 4.0091677 0.13723826
0.116098166 -1.6548506 -3.973215 -3.4435759 -0.10710332 -1.4947674 3.0416949 0.33642048
2.5353775 3.0440254 0.51214755 -4.124974 4.1536007 2.5500944 2.9902294 1.0823892
0.4110679 -3.4218903 -0.24270579 0.03413737 4.737805 -2.2217655 -0.17744938 2.6367238
0.40574056 0.36630076 -3.2362628 0.33785868 2.2456698 -0.018494725 1.9809116 4.145037
-0.38286048 -4.0645638 0.35566 0.9796471 1.1336598 3.6317306 2.8521652 4.3426323
4.342753 -2.3208597 3.6442857 -3.4173708 -4.541622 3.2228143 0.3618073 2.0806735
-3.86595 -4.042494 2.9066358 3.5330987 -2.9041407 0.10254121 3.4436214 -0.2583643

fc2.weight f4 [64, 64]
00000000: 9eff f63d 5e8b f43d d08c d43d 3edd 35bd
00000010: 5b32 bc3c c011 233c 80da afbd f0d8 3ebc
00000020: c056 473b 70b0 783d ccc0 f9bd 68d1 98bd
00000030: fcdf 2dbd f0e3 4f3d b525 d13d 61db 5f3d
00000040: b4d8 70bd 4074 d3bd c8ae 12bd 68eb 093d
00000050: 9e41 8dbd 7833 7b3d c0ef c7bc 40a1 003d
00000060: 5fa2 b7bd 9079 95bd ce27 fdbd ed46 98bc
00000070: 4cab eebd 6ad3 e6bd ba71 0bbd 5ce8 bcbd
00000080: 7cd0 d93d 20f8 aebd 5002 cd3c 5eae b5bd
00000090: 1052 2ebd 98b2 88bc 866e ad3d 7bf8 c4bc
000000a0: c0f2 a1bb bc8a 9fbd c845 e43c ba70 dabd
000000b0: 6c82 f5bc bc8e 46bd d9bc e8bd bd5b e4bd
000000c0: 7e4d f03d de98 ee3d 19e7 dfbd 3c7d a93d
000000d0: 10d8 843d 36f6 dc3d 8c8a fdbd 2c2c c4bd
000000e0: 636e 4ebd aa78 fd3d a49c f0bd 5074 90bc
000000f0: c485 55bd 08a4 9dbc bec1 913d e803 323d
00000100: 8bc5 7e3d c3a1 1fbd 30c2 8fbd 8005 b8ba
00000110: d734 713d 252a 063d 0554 0ebe 2eec f2bd
00000120: 7436 a03d 5423 0dbe e6cc 2cbc cee6 9a3d
00000130: 4c23 26bd b4d5 b3bd 97ae de3b 46e2 e83d
00000140: 7a59 583d 73f0 623d ccbd 1a3d 3ee2 ad3c
00000150: 9149 13be b465 ffbd ada4 18bd 1991 c33b
00000160: 5897 d2bd d611 373d 80d1 9f3c 2495 d4bd
00000170: 4678 06be fbf1 1ebe b878 573d b17b 26be
00000180: 6a37 cfbd 0029 a6ba ebe0 8cbd 8823 ac3c
00000190: 6da3 dabc dc93 41bd d296 c4bb d407 c7bd
000001a0: 7777 53bd aab6 953d 8eef 85bd f372 3bbd
000001b0: cf63 1b3d f2ea c3bd 72a6 44bd 739a 463d
000001c0: 99ac 09be b092 1bbc ca0c 6abe fc68 a0bd
000001d0: 2e3e ad3c d745 e73d b2e8 9ebd 15de 76bd
000001e0: eb5d 8d3d 4aef 4e3d 52fe 7d3d e07b fabd
000001f0: 09dc 4cbc 0071 7b3a c640 533d e80e 6abd
00000200: e3f5 9e3d e27d bc3f 68c6 fe3d 7456 a6bd
00000210: 18bf 1b3f 4f0d 4fbe 6a61 163f 50e3 263d
00000220: 1e3b ee3b 253d d0be f9c9 bdbe ef43 26bf
00000230: 5677 bebd 4dd8 75be d7e3 013f 4024 39bb
00000240: 72b4 40be 0053 13be 1769 113d 3fcf 8cbe
00000250: 6c94 563e 9c2f 4a3d 95fb 113e 5235 66be
00000260: 6029 5b3d 80cb 823e 90e5 633d de9c d1bd
00000270: c805 a03f 89dd 27bf 00a5 04ba 5190 3b3f
00000280: 5482 debd aaf5 efbd 1ffe 34bd 70e7 72bd
00000290: 1e91 8b3e 7aab d0bd fce1 b8bd b1c2 7d3e
000002a0: c9f6 7bbd b782 813d 185b 06be eb75 8ebd
000002b0: 6082 56bf ccd3 6c3f d1c8 5f3e 05fb e33e
000002c0: 5cae 0b40 e164 22bf ef20 873d 2eb3 bc3d
000002d0: cf3d b13e 5810 49be 6cca 873d a2e8 80be
000002e0: 5a12 923e 51cf 533e a751 883d b6e8 0540
000002f0: 1c77 1fbf 7645 c5bd cf41 013e aee8 a53d
00000300: 9f0c dd3d 9dfd 133f c2ec f0bd 0e76 c03d
00000310: 5925 eb3d 697a d2be 622c b03e 408d ad3c
00000320: e0e0 6c3d 6498 21bd a686 48be 7872 c6be
00000330: c8ab f43d d702 333e 695e 833e f223 d43d
00000340: 2dcd 12be fe5a 053e 3cde 3cbd 3a10 0dbc
00000350: 22e0 33bc ad01 383b e093 633d c044 d63c
00000360: f4bd c3bd 5645 923e 6c76 7d3d 4010 abbc
00000370: b095 3d3f 6fe4 ecbd cad8 a03d fab8 8dbe
00000380: 6e18 873d 702c ed3d 66d6 143e 72fc aa3d
00000390: 45db 03bd 584a 8abc 31c6 94bf 6f5c 743e
000003a0: 93f9 3cbd 3b9f eb3d 4310 193d c3ca 6dbe
000003b0: da63 debe 5393 973e 84ca 093e 8c8a 373e
000003c0: 568e 9e3e 8116 723e 91b1 6b3d f7cc 1f3e
000003d0: 2e27 ca3c 1486 74be 809d b03c 90ea 8e3d
000003e0: 2204 993e 088a 823d 7187 6bbd e352 963e
000003f0: e486 77be 2c3c 6ebd 2351 a8bd 2a36 b73d
0.12060474 0.11940645 0.1037842 -0.044400446 0.02297323 0.009952962 -0.085865974 -0.011648402
0.0030416697 0.06071514 -0.12194976 -0.07461816 -0.042449936 0.050754488 0.1021227 0.054652575
-0.058800414 -0.10324907 -0.035811216 0.033671767 -0.06897281 0.06132838 -0.024406314 0.03140378
-0.08966517 -0.07298577 -0.12361108 -0.018588508 -0.11653766 -0.11270793 -0.034044005 -0.092240065
0.10635468 -0.0854342 0.025025517 -0.088711485 -0.04255873 -0.016686723 0.08468346 -0.024044266
-0.004942268 -0.07790133 0.027865306 -0.10666032 -0.029969417 -0.048475966 -0.11364145 -0.1115031
0.117335305 0.11650251 -0.1093275 0.0827584 0.06486523 0.107891485 -0.12379941 -0.095787376
-0.05039824 0.123765305 -0.11748627 -0.017633587 -0.052129522 -0.019243255 0.071170315 0.043460757
0.06220011 -0.038972627 -0.0701946 -0.0014039725 0.058888283 0.032755036 -0.13899238 -0.11861454
0.07822886 -0.13783008 -0.0105468985 0.07563554 -0.040561005 -0.08780995 0.006795715 0.11371283
0.052819706 0.05540509 0.03777866 0.021226045 -0.14383532 -0.1247057 -0.037266422 0.0059682247
-0.10282773 0.044694744 0.019509077 -0.10380009 -0.13131818 -0.15521996 0.05260536 -0.16258122
-0.10117991 -0.0012677014 -0.06878837 0.021013036 -0.026689256 -0.04726015 -0.0059994245 -0.0971829
-0.051627602 0.07310231 -0.06539832 -0.04576392 0.03793698 -0.09566297 -0.048010297 0.048487138
-0.13444747 -0.009495422 -0.22856441 -0.07832524 0.021147814 0.11292618 -0.07759227 -0.060270388
0.06902679 0.050521173 0.062010117 -0.122306585 -0.012503632 0.00095917284 0.051575445 -0.057143122
0.07761743 1.4725916 0.12440187 -0.081219584 0.6083846 -0.2021992 0.5874239 0.040744126
0.007270231 -0.4067165 -0.37068155 -0.6494741 -0.09300105 -0.24008293 0.5073828 -0.0028250366
-0.18818834 -0.1438713 0.035500612 -0.27501866 0.20955056 0.04936181 0.14256127 -0.22481278
0.053506255 0.25545883 0.05563885 -0.10234998 1.2501764 -0.6557241 -0.00050599873 0.73267084
-0.10864702 -0.117167786 -0.04418766 -0.059302747 0.27259153 -0.101889566 -0.09027478 0.247813
-0.06151465 0.0632376 -0.13120687 -0.06956085 -0.83792686 0.92510676 0.21853949 0.4452745
2.182517 -0.6343518 0.065980785 0.09213863 0.3461747 -0.19635141 0.06630406 -0.25177485
0.28529626 0.20684554 0.06656199 2.0923285 -0.6229112 -0.09632389 0.1262276 0.08101021
0.10793423 0.5780886 -0.11763908 0.09397517 0.11481733 -0.41109017 0.3440886 0.021185517
0.057831645 -0.03945197 -0.19582614 -0.38759208 0.11946827 0.17481552 0.25657967 0.103584185
-0.14336081 0.13022992 -0.046110377 -0.008609826 -0.01097873 0.002807717 0.055560946 0.02615583
-0.09557715 0.28568524 0.061880514 -0.020881772 0.7405653 -0.11567008 0.07853849 -0.27680188
0.065964565 0.115807414 0.14534912 0.08348931 -0.032191534 -0.016881153 -1.1622983 0.23863386
-0.04613645 0.1150498 0.037369024 -0.23221879 -0.43435556 0.29604587 0.1345616 0.17923945
0.3096797 0.23641397 0.057542387 0.15605532 0.024676885 -0.23879272 0.021559477 0.06978333
0.29885966 0.063739836 -0.057502214 0.29360113 -0.2417255 -0.058162853 -0.082186006 0.08945878

fc2.bias f4 [64]
00000000: 189e 423d 8fcc 923d 7d1a 653f 9b15 bb3f
00000010: 3cb6 513c 3720 79bd 5616 083d 7471 d33f
00000020: 8400 ee3c 8a24 0f40 6799 a3bc 9085 ba3f
00000030: 52a6 8c3d d63e 9a3c 4c5d 1440 e062 f33f
00000040: ee51 2740 2fd7 1ac0 fc03 63bd 7d97 3040
00000050: 9946 1b40 763d 713f 3fd0 0840 805b a83a
00000060: 2d79 3540 42dd fcbc 4077 f1bd 3d2d ac3f
00000070: 7388 02be 2924 ce3d 5ad9 fcbd 1270 593f
00000080: 97b0 1140 d3d5 6bbd 757d 303c e37d 16c0
00000090: c4dc f6bd 2edf eebc 82dd 813f 8ccd 0f40
000000a0: 549a 8e3d 3a96 73bd f95d c5bc c0c4 12be
000000b0: bb1c bd3b b2d3 d23f 2d61 2a40 442c 0340
000000c0: b2b9 1a3f 88be f03c 4588 1140 02f8 973f
000000d0: af1e c1bf 5471 e53d a8ca e7bd 006c 8a3d
000000e0: b613 6b3f 3d7f c73e 0890 933f 5f5c fc3f
000000f0: b3d0 f63f a06e 7f3f ccc8 d53f c470 c03f
0.04751405 0.07167923 0.8949354 1.4615968 0.012799796 -0.060821738 0.033224426 1.6518998
0.02905298 2.2366052 -0.019970609 1.457201 0.068676606 0.01882879 2.3181944 1.9014549
2.6143756 -2.4193838 -0.05542372 2.759246 2.426184 0.94234407 2.1377103 0.0012844652
2.835521 -0.030867223 -0.11790323 1.3451306 -0.12747364 0.10065491 -0.12346144 0.8493663
2.2764032 -0.057576966 0.010772099 -2.3514335 -0.120538265 -0.029159155 1.0145724 2.2469206
0.069630295 -0.05946944 -0.024092661 -0.14332867 0.005771247 1.6470854 2.6621811 2.0495768
0.604396 0.029387727 2.2739422 1.1872561 -1.5087489 0.11203256 -0.113179505 0.067588806
0.9182695 0.38964263 1.152833 1.971569 1.928244 0.99778175 1.6701903 1.5034413

fc3.weight f4 [20, 64]
00000000: b0c3 4c3c 7881 c3bd 52e5 53be 71c3 6f3d
00000010: 07cc 5dbd 0311 bdbd 1ae5 8abd a41d 65bf
00000020: bcee 53bd fad9 63bf 67b6 debc 1069 da3d
00000030: 5acc 303c 2be6 743c cbd7 2f3f ca8e 293e
00000040: 3791 0f3f 1bbe f0be 5c31 35bd ccd1 033f
00000050: b402 d9bf a6c8 0f3f 2af0 b33e 48b4 403d
00000060: 1066 143f b474 76bd c59c 6ebd 308d f0be
00000070: 4390 823d 7bc9 0cbd dc36 b13d 99ed aa3c
00000080: c6ad 213f d7b5 9b3c 204d 4abc e739 0cbf
00000090: aaae 9b3d 854e b6bc 0016 343d a3f4 173f
000000a0: c59a 99bd bdff 483d 4846 f13c 5803 99bd
000000b0: 3a9f 95bd f821 4dbd be76 bf3e 0094 403e
000000c0: 9412 7bbe b870 efbc b80d 9b3e fbbf 9f3e
000000d0: 960f b0bd 3653 e23d f38a 7ebd 58f6 e3bc
000000e0: e29c 89be e797 903d 4e81 8c3c 3896 7c3e
000000f0: cb3b 2d3e 0737 3b3e 041f a83e e927 053f
00000100: 744a 3a3d 1fc6 88bd f21d d7bd 8b80 b7bb
00000110: 9995 94bd 3f6a a5bd 4832 b9bc 070b 54bf
00000120: 3338 f53d af4c 25bf 99c4 4c3a f3a5 d4bd
00000130: 427f 8cbd d479 d03c 314e 183f 9e69 46bd
00000140: eaa6 273f cfcc e0bd 1f9f a43b 8809 073f
00000150: 37f8 97bf 90d0 17be e9bf b63e 749e 9d3d
00000160: f52c ee3e ae52 823d 4113 82bd 7b50 10bf
00000170: e4eb 753d 7732 2d3d 3056 e9bc f251 3d3e
00000180: 496e 163f 0f85 703c 8cbe 44bd efae adbb
00000190: ee96 cabd db54 cf3d c103 9d3d 7448 c83e
000001a0: ee5c 063e 2a62 a73d 1b8c a33d 8277 f7bd
000001b0: cbea 7d3d 8f6d 14be 5b11 cd3e fb71 603e
000001c0: c416 99bd 6a65 ba3c 1677 993e 8fe8 b03d
000001d0: e4ea a23c 6c61 91bd 2cb3 7ebd f4c7 bd3d
000001e0: 66b6 8bbe c710 5f3e 9947 3abf 54a0 173e
000001f0: bcd7 803e 4390 62be 7d35 933e 9d18 323f
00000200: e606 f3bd 17d5 1bbd e4ee 8a3b 4563 423e
00000210: 8ffb 4abd 4873 d5bd 7083 43bc e5de 67bf
00000220: b2c2 f13d 6d08 fabe c52a e5bc 1883 6f3e
00000230: 0043 a8ba c6e5 3ebd 03d9 df3e e137 0bbd
00000240: 14ee 183f 36ca 6dbe 2b45 333d 40e7 fd3e
00000250: cdfb 73bf 5d54 d4bd 5016 543e 18f7 83bc
00000260: c8e4 013f 7d9d f7bb 0539 ef3d f114 e2be
00000270: 3caf 84bd 45fd dabd 6c3e c63d 0255 983e
00000280: 87af 053f 355e d23c f884 23bd 3d04 9abe
00000290: 74b2 f4bd b66d 9abc 6970 0abd 8c11 213f
000002a0: 6cbf c7bd d738 1bbc aeaa a23c 844c b03d
000002b0: f0d2 80bd 51cb b3be d31e cb3e 64e9 a13e
000002c0: b1bd a0be d835 a73c 19ca 8a3e cc1c 83bd
000002d0: 92bf f3bd 7832 693d 096a c33d ba0e c1bd
000002e0: e240 e6be 5da4 c23e 164c a9be e988 823e
000002f0: 1717 563e fc6e 293e 5997 cb3e 8bfb bd3e
00000300: 84ab 573d 42e8 73bd 03c5 9fbe 0d8e 953d
00000310: f437 85bd e49a 51bd 2903 e9bd 4c3b 86bf
00000320: 379b a4bd a6b5 2ebf 80f0 373d ff66 b4bc
00000330: d1fd d63d dff1 ad3d 8dfb f93e 2ce8 1f3c
00000340: 06f8 e33e 92cd 60be 6b9e 62bc 474c 023f
00000350: c076 66bf c8d9 9ebe 05cc 763e 0038 e13d
00000360: 1bae e03e 8e35 96bd bb3a ff3c c922 0fbf
00000370: 06cb 0f3e 35bf e53d 4cb1 183d a419 073e
00000380: 0fd2 2d3f e875 89bd 9a10 adbd 3164 8abe
00000390: f2d5 b3bd a260 6bbd fb7f b43e 0cbe da3e
000003a0: 9442 0d3e db1c f5bc f1e1 44bc 4c5b d83d
000003b0: 38e3 27bd 7ab4 fcbd a523 e13e 3fe2 863e
000003c0: 74ac 79be 91ef ccbd d8a7 2f3e fb83 383a
000003d0: 075c e3bd 7c7b ce3d d5bc a1bd 545d 96bd
000003e0: a085 c1bb af75 903e c686 0b3c f4a7 a13e
000003f0: 6faf a03e ddfc c43e a92b ad3e d189 2a3f
0.012497827 -0.095461786 -0.20692948 0.058535997 -0.054149654 -0.0923176 -0.06781979 -0.89498353
-0.051741347 -0.8900448 -0.027186586 0.1066457 0.010790909 0.014947454 0.6868865 0.16558376
0.56080955 -0.4702004 -0.044236526 0.51492 -1.695395 0.5616554 0.35144168 0.04704693
0.57968235 -0.06016989 -0.058254976 -0.46982718 0.06375172 -0.034371834 0.08653042 0.020865249
0.6315578 0.019007606 -0.01234749 -0.5477585 0.07601674 -0.022254238 0.043966293 0.5935766
-0.07500223 0.049072016 0.029452458 -0.07471341 -0.07305761 -0.050081223 0.3739528 0.18806458
-0.24518806 -0.029228553 0.30283904 0.31201157 -0.08596723 0.110510275 -0.06214423 -0.027827427
-0.26877505 0.07060223 0.017151501 0.24666679 0.1691734 0.1828271 0.32836163 0.52014023
0.04548116 -0.066784136 -0.105037585 -0.0056000403 -0.07255096 -0.080769055 -0.022606984 -0.82829326
0.1197361 -0.64570135 0.0007811278 -0.10383215 -0.0686021 0.025448717 0.5949431 -0.04844057
0.65489066 -0.10976564 0.0050238515 0.5274892 -1.1872624 -0.14825654 0.3569329 0.07696238
0.46518674 0.06363426 -0.06351329 -0.56372803 0.060039416 0.042284455 -0.02848348 0.18488291
0.5876203 0.014680161 -0.048033282 -0.0053003947 -0.09892069 0.10123607 0.076667316 0.39117777
0.13121387 0.0817302 0.07985707 -0.12083341 0.061991494 -0.14494918 0.40052304 0.2191848
-0.07475045 0.022753436 0.29973668 0.08638107 0.019887395 -0.0709866 -0.06218259 0.09266654
-0.27287596 0.21783744 -0.727655 0.14807254 0.25164592 -0.22125344 0.28751746 0.69568807
-0.1186655 -0.038045015 0.0042399038 0.18983181 -0.04955631 -0.10422379 -0.011933193 -0.90574485
0.11804713 -0.48834553 -0.027974496 0.23389852 -0.001283735 -0.046605848 0.43720254 -0.033988837
0.5973828 -0.23221669 0.043767136 0.49590492 -0.9530609 -0.103676535 0.20711637 -0.016109034
0.5073972 -0.007556616 0.116807975 -0.44156602 -0.06478736 -0.106928386 0.09679875 0.29752356
0.5222096 0.025679687 -0.03992173 -0.3008136 -0.119481 -0.018851142 -0.03379861 0.629174
-0.09753308 -0.009474001 0.019856777 0.08608344 -0.06290233 -0.35116056 0.39671955 0.31623375
-0.31394723 0.020411417 0.27107313 -0.06401977 -0.119017735 0.056932896 0.09541709 -0.09426637
-0.44971377 0.38016024 -0.3306586 0.2549508 0.20907246 0.16546243 0.39763907 0.37105975
0.052653804 -0.05954767 -0.31204996 0.07302485 -0.06504813 -0.051173106 -0.11377556 -1.0486846
-0.080374174 -0.68245924 0.044907093 -0.022021769 0.104976304 0.08493399 0.4882473 0.009759944
0.44525164 -0.21953419 -0.013831715 0.5089764 -0.9002495 -0.3102553 0.24101265 0.10997009
0.43882832 -0.073344335 0.031155935 -0.5591245 0.14042291 0.112181105 0.03727846 0.13193375
0.6789865 -0.06711942 -0.08450432 -0.27029565 -0.08781041 -0.057465203 0.3525389 0.4272312
0.13794929 -0.029920986 -0.012016759 0.105642885 -0.040988177 -0.12339111 0.43972507 0.26344487
-0.24382192 -0.10006631 0.17153871 0.00070387096 -0.11101537 0.100821465 -0.07897345 -0.0734202
-0.005905822 0.28214785 0.008516019 0.3157345 0.31383845 0.3847417 0.33822373 0.6661654

fc3.bias f4 [20]
00000000: c8a0 f63f ae60 7b3f af24 873f 02d9 5d3f
00000010: 88ce 383f a053 253f f969 3c3e d246 063f
00000020: 97a8 a83e 2352 8d3e b182 1b3e cc95 673d
00000030: 3fcb 773d 76a3 90bb e23b 393e f33d 8abd
00000040: ed12 22be 6c66 23be 42db 02bf fa2e e1be
1.9267817 0.98194396 1.055807 0.8665925 0.7219014 0.64580727 0.183998 0.52451813
0.32941124 0.27601728 0.15186574 0.05653934 0.060496565 -0.0044140173 0.1808925 -0.06750097
-0.15827532 -0.1595704 -0.5111581 -0.43981153

exp_avg f4 [64, 3]
00000000: 0400 0000 0400 0000 0400 0000 dfd8 6dc1
00000010: 1030 2fc2 666e 45c2 0000 0000 0000 0000
00000020: 0000 0000 0000 0000 0000 0000 0000 0000
00000030: 12b9 343e 7e9d 5a3f ac8a a041 93b8 a440
00000040: f073 2d41 4691 7542 f640 bf3f 4e01 d140
00000050: f5d3 8d42 0000 0000 0000 0000 0000 0000
00000060: 0000 0000 0000 0000 0000 0000 e2d6 1541
00000070: f519 e841 68d6 f842 0400 0000 0400 0000
00000080: 0400 0000 93b2 ef40 6949 cc41 b52a c542
00000090: 0000 0000 0000 0000 0000 0000 1025 dc3e
000000a0: 7d81 8541 7ed6 b142 7b2e 1a40 9b19 c740
000000b0: 71bb 6a42 0000 0000 0000 0000 0000 0000
000000c0: 005f 9f40 7189 3b41 cedc 2942 b1fc 9440
000000d0: 0835 3941 e15d 7342 0000 0000 0000 0000
000000e0: 0000 0000 c7b0 4ec0 498d c9c0 a5e2 a6c2
000000f0: 6176 8b41 49cc 2642 80c1 7e43 96f8 bf40
00000100: 4009 7341 d29a a742 cadc 2240 1c75 a840
00000110: 0fcd 4742 8286 8f40 2703 5141 9195 6842
00000120: 0000 0000 0000 0000 0000 0000 2f40 97bf
00000130: c9c6 2940 d17e 9840 0000 0000 0000 0000
00000140: 0000 0000 0000 0000 0000 0000 0000 0000
00000150: d689 89bf 7515 1341 b7fb e642 19a9 0341
00000160: 0eee bf41 104b a542 0000 0000 0000 0000
00000170: 0000 0000 2cdd 14c1 ca15 e7c1 8290 f3c1
00000180: 0000 0000 0000 0000 0000 0000 0000 0000
00000190: 0000 0000 0000 0000 0400 0000 0400 0000
000001a0: 0400 0000 0000 0000 0000 0000 0000 0000
000001b0: 4278 443f 3bcc 3d40 c510 fc41 0000 0000
000001c0: 0000 0000 0000 0000 dff5 3dbd 4baf b53f
000001d0: e1ba 3cc0 425e 4741 71a8 e941 7b4b 4d43
000001e0: 0400 0000 0400 0000 0400 0000 e7f1 4cbf
000001f0: 3971 bec0 4ef1 9cc2 9617 1740 9c5b b340
00000200: 0bf1 2441 ab77 6140 0cf3 0a41 1988 1442
00000210: 90b9 873d 5ba1 cc3c ed5b b43e 3342 8940
00000220: 0aa1 1441 f8ee e542 d0b4 673f 7a80 9e3e
00000230: d6c3 5141 64c3 9840 bd65 de40 35e7 9142
00000240: 1db4 23c2 bb65 b6c2 1152 08c3 9707 38bf
00000250: df6b d2bd faa5 95c0 5524 1e41 9ec4 b741
00000260: b77f 0b43 cd54 bbbf 0376 3e40 4dae 8040
00000270: 9cd0 e9bf 4674 5c3f cb4c cac1 51df dc40
00000280: 5973 8641 5e66 b542 0000 0000 0000 0000
00000290: 0000 0000 f957 c440 3495 8041 a36a 8f42
000002a0: 7b66 0cc0 5906 dec0 646c b1c2 be47 50bc
000002b0: 48a1 50bc 81ef 05c1 9665 6540 c525 e840
000002c0: 7565 2242 4a4d c1c0 805e a0c1 b5e8 2bc1
000002d0: 58ce d440 5a75 a841 9115 9c42 0000 0000
000002e0: 0000 0000 0000 0000 8791 c740 08ba 4041
000002f0: dbef ac42 0000 0000 0000 0000 0000 0000
6e-45 6e-45 6e-45 -14.865447 -43.796936 -49.35781 0.0 0.0
0.0 0.0 0.0 0.0 0.17648724 0.85396564 20.06771 5.147531
10.840805 61.39187 1.49417 6.5314093 70.91398 0.0 0.0 0.0
0.0 0.0 0.0 9.364962 29.012674 124.41876 6e-45 6e-45
6e-45 7.4905486 25.535845 98.58341 0.0 0.0 0.0 0.42997026
16.688227 88.91893 2.409087 6.2218757 58.68305 0.0 0.0 0.0
4.9803467 11.721055 42.46563 4.655846 11.575447 60.84168 0.0 0.0
0.0 -3.2295396 -6.2984967 -83.442665 17.432802 41.699497 254.75586 5.999095
15.189758 83.80238 2.544726 5.2642956 49.950253 4.4851694 13.06327 58.14606
0.0 0.0 0.0 -1.1816462 2.652758 4.7654805 0.0 0.0
0.0 0.0 0.0 0.0 -1.0745189 9.192739 115.49163 8.228784
23.991238 82.64661 0.0 0.0 0.0 -9.303997 -28.88564 -30.44556
0.0 0.0 0.0 0.0 0.0 0.0 6e-45 6e-45
6e-45 0.0 0.0 0.0 0.76746 2.9655902 31.508188 0.0
0.0 0.0 -0.04637706 1.419412 -2.9489062 12.460512 29.207247 205.29485
6e-45 6e-45 6e-45 -0.80056614 -5.951321 -78.4713 2.3608146 5.604933
10.308848 3.522929 8.684338 37.132908 0.0662719 0.024979284 0.35226384 4.289331
9.289316 114.966736 0.9051027 0.30957395 13.1103115 4.7738514 6.949919 72.95158
-40.92589 -91.19869 -136.32057 -0.7188658 -0.10274481 -4.676511 9.88387 22.971004
139.49889 -1.4635254 2.9759529 4.021277 -1.8266788 0.8611492 -25.287497 6.9022603
16.806322 90.699936 0.0 0.0 0.0 6.135739 16.072853 71.708275
-2.193755 -6.938275 -88.7117 -0.012712417 -0.012733765 -8.370973 3.5843253 7.2546105
40.59908 -6.0406847 -20.046143 -10.744313 6.6501884 21.0573 78.04212 0.0
0.0 0.0 6.2365146 12.045418 86.46847 0.0 0.0 0.0

exp_avg_sq f4 [64, 3]
00000000: 8650 c603 5e28 2300 8650 c603 d1c0 0d47
00000010: 41b7 2147 8e95 cd47 0000 0000 0000 0000
00000020: 0000 0000 0000 0000 0000 0000 0000 0000
00000030: 8481 fe41 c95c 9941 fccc 2f46 010c 5544
00000040: db9f 9d44 2413 cd46 2543 8641 a96e 1944
00000050: e1f2 5447 0000 0000 0000 0000 0000 0000
00000060: 0000 0000 0000 0000 0000 0000 2d5f dd45
00000070: 8700 f845 175b e247 79ae 1332 ce54 ba33
00000080: fca3 df38 5b71 a945 6cc5 c845 7b80 8a47
00000090: 0000 0000 0000 0000 0000 0000 716c 0345
000000a0: d0a3 cd44 0d1f 8147 31e3 3143 7ef5 b643
000000b0: e2dd f046 0000 0000 0000 0000 0000 0000
000000c0: 2c46 6144 3dc8 9644 3857 1b46 a11c 1344
000000d0: a149 5044 2c01 c246 0000 0000 0000 0000
000000e0: 0000 0000 6b74 4643 c4ad 3a44 be21 9347
000000f0: baf3 2846 e891 5d46 f975 e648 194f 9b44
00000100: 9986 bf44 87ce 3f47 88ac d842 c127 8443
00000110: 4a7e 8e46 3ec3 7944 d6b9 a744 ca98 ae46
00000120: 0000 0000 0000 0000 0000 0000 eef2 cd42
00000130: d7a3 0243 9b0b 0346 0000 0000 0000 0000
00000140: 0000 0000 0000 0000 0000 0000 0000 0000
00000150: c864 5043 9ea6 a344 c751 3548 0ab4 8e45
00000160: a7b4 aa45 c215 3147 0000 0000 0000 0000
00000170: 0000 0000 f885 3c46 6dbf 4b46 b630 2847
00000180: 0000 0000 0000 0000 0000 0000 0000 0000
00000190: 0000 0000 0000 0000 7816 8d33 da36 a832
000001a0: 408c 5239 0000 0000 0000 0000 0000 0000
000001b0: 05b8 8842 e51a e742 1ec7 1f46 0000 0000
000001c0: 0000 0000 0000 0000 0694 7f43 b0d6 0743
000001d0: 76fa 2c45 1132 a845 7bd5 ed45 1ca3 9f48
000001e0: ff9c 1e21 38f4 ca22 ce7b b124 d587 fc40
000001f0: f89a fb42 a5c0 0a47 13f1 9641 b60c b742
00000200: f42a cd43 c7f1 de43 3800 1544 eab6 0346
00000210: b99d c241 418d 053f e916 8f42 9f9c 1944
00000220: 2bc9 c344 1cf3 0648 1aeb b042 1561 8442
00000230: b932 4c45 9776 aa43 5284 1244 354f 3347
00000240: 843e 2948 c35b 3048 69d1 2e49 ab5f ad41
00000250: 2669 0a41 e561 f444 0473 2845 04ce 7245
00000260: 6c95 0b48 90f5 7b42 a3b3 3a43 a4ca 1d46
00000270: 591f 0d43 3cb2 9f43 ae8c cf46 437d 4c44
00000280: 54f3 a344 000b 6047 0000 0000 0000 0000
00000290: 0000 0000 4e00 d844 13ce 0245 a80f fe46
000002a0: b746 3043 6c24 8c43 2c79 5247 6d97 b23e
000002b0: 850d a03f 011c c746 176c a043 eac3 e543
000002c0: d1b2 2a46 753f 8c46 2407 f546 d73f dc46
000002d0: 7ed3 6445 ba99 8545 875c 2347 0000 0000
000002e0: 0000 0000 0000 0000 04fb 0d44 2b0a 7d44
000002f0: c7c9 6747 0000 0000 0000 0000 0000 0000
1.1655881e-36 3.228723e-39 1.1655881e-36 36288.816 41399.254 105259.11 0.0 0.0
0.0 0.0 0.0 0.0 31.81324 19.170305 11251.246 852.18756
1260.9955 26249.57 16.782785 613.72906 54514.88 0.0 0.0 0.0
0.0 0.0 0.0 7083.897 7936.066 115894.18 8.596197e-09 8.676726e-08
0.00010664013 5422.1694 6424.6777 70912.96 0.0 0.0 0.0 2102.7776
1645.1191 66110.1 177.88747 365.9179 30830.941 0.0 0.0 0.0
901.09644 1206.2574 9941.805 588.4473 833.15045 24832.586 0.0 0.0
0.0 198.45476 746.7151 75331.484 10812.932 14180.477 471983.78 1242.4718
1532.2062 49102.527 108.336975 264.31058 18239.145 999.05066 1341.8074 22348.395
0.0 0.0 0.0 102.97447 130.64 8386.901 0.0 0.0
0.0 0.0 0.0 0.0 208.39368 1309.2068 185671.11 4566.505
5462.5815 45333.758 0.0 0.0 0.0 12065.492 13039.856 43056.71
0.0 0.0 0.0 0.0 0.0 0.0 6.569911e-08 1.9582718e-08
0.00020079408 0.0 0.0 0.0 68.35941 115.55253 10225.779 0.0
0.0 0.0 255.57822 135.83862 2767.6538 5382.2583 7610.685 326936.88
5.3740265e-19 5.5010786e-18 7.697125e-17 7.891581 125.80267 35520.645 18.867712 91.524826
410.33557 445.8889 596.0034 8429.729 24.327013 0.5216866 71.54475 614.4472
1566.2865 138188.44 88.45918 66.18961 3267.1702 340.92648 586.0675 45903.207
173306.06 180591.05 716054.56 21.671713 8.650671 1955.0592 2695.1885 3884.876
142933.69 62.989807 186.7017 10098.66 141.12245 319.39246 26566.34 817.9572
1311.604 57355.0 0.0 0.0 0.0 1728.0095 2092.8796 32519.828
176.27623 280.28455 53881.17 0.34881154 1.2504126 25486.002 320.84445 459.53058
10924.704 17951.729 31363.57 28191.92 3661.2183 4275.216 41820.527 0.0
0.0 0.0 567.9221 1012.1589 59337.777 0.0 0.0 0.0
