beer/experiments/vanilla_DQN/eps_0.08/models/dqn_agent_firm_1_episode_8000.pth (torch, 101224 bytes, 24 tensors)

fc1.weight f4 [64, 3]
-0.34507626 0.03427614 -0.06578605 -0.08050451 -0.566948 -0.52088356 -0.5121121 -0.08029777
-0.52408946 -0.5664542 -0.3744452 -0.010932906 -0.011224963 -0.098450534 -0.053404406 -0.34949175
0.4467431 0.09590372 0.024057621 0.7082165 0.48086712 -0.07819717 -0.00392613 -0.03640396
0.3989577 -0.022551091 0.12235935 -1.3495766 0.06696488 -0.16159622 0.21842878 0.30612347
0.101118445 0.038067766 0.10049953 -0.10939608 0.65290046 -0.5747848 0.043970566 -0.10345929
-0.18730153 0.16746597 0.2735059 0.20575885 -0.73820305 -0.14115632 0.25723478 0.049117263
0.3851387 -0.463424 -0.47131443 -0.28874752 0.11173048 -0.88810956 -0.4619486 0.13870072
-0.11846636 0.027030883 0.048004404 -0.061372053 0.18627629 0.08319271 -0.13060345 0.03419726
0.043339245 -0.032963093 0.22191148 -1.0590445 -0.06599034 -0.10868105 -0.76838213 -0.013782225
0.015427194 0.04756324 0.1657397 0.071083374 0.20159134 -0.26412332 0.12595606 0.330267
0.49083015 -0.83388907 -1.2018766 0.007877559 0.45638028 0.16219403 -0.553294 -0.7796939
-0.18468598 -0.38633543 -0.22233297 -0.18445191 -0.59884095 0.10821223 0.19909927 -0.38991207
0.11693951 0.09287463 -0.080101945 -0.14676331 0.24880524 -0.8097713 0.38462186 -0.8844763
-0.15588138 -0.046742395 -0.10127171 -0.1847805 -0.98811936 -0.10152828 -0.4613296 -1.4860303
0.013955744 -0.19023207 -0.37281382 -0.085325666 0.09165342 -0.91425085 -0.21057841 -0.009341327
-0.038375147 -1.0118831 0.015679963 -0.46468234 -0.6616779 -0.09716463 -0.20933534 -0.69393265
0.20383084 -0.24214698 0.2113106 0.0045628482 0.18878669 -0.34837225 -0.4752472 0.38739762
-0.51155025 -0.0811237 -1.0463831 0.20561153 -0.6105685 0.27344003 -0.077058665 -0.21658187
-0.56476355 -0.41312882 0.07995464 0.10033909 0.14408006 -0.15352191 0.05744839 -0.35324553
0.007934433 0.26815468 -0.6860921 -0.4963862 -0.9035965 -0.45018402 -0.5404996 -0.24746679
0.1527466 -0.17323829 -0.3245578 0.08123146 -0.75262594 -0.14867556 -0.48505193 -0.31755292
0.5149226 -0.22513089 0.21454728 -0.25340047 -0.5736309 -0.16880274 -0.32677808 -0.42744902
-0.2508048 -0.056630377 -0.33935028 0.14431044 -1.5304587 -0.9068125 0.035077725 -0.11349986
-0.03823395 -0.09996088 -0.58285546 -0.63736194 0.030980024 0.62536883 0.1560214 -0.27045685
00000000: d6ad b0be 2365 0c3d d6ba 86bd 8cdf a4bd
00000010: 8123 11bf a058 05bf c719 03bf 2873 a4bd
00000020: ba2a 06bf 2403 11bf 48b7 bfbe ee1f 33bc
00000030: e8e8 37bc 6fa0 c9bd 94be 5abd 95f0 b2be
00000040: 83bb e43e 2b69 c43d 7d14 c53c ad4d 353f
00000050: 3734 f63e d625 a0bd c4a6 80bb 521c 15bd
00000060: 2f44 cc3e 11bd b8bc 8a97 fa3d edbe acbf
00000070: e224 893d 7b79 25be cbab 5f3e 37bc 9c3e
00000080: 3017 cf3d f2ec 1b3d b3d2 cd3d 0d0b e0bd
00000090: 7c24 273f 1925 13bf 7b1a 343d 77e2 d3bd
000000a0: f9cb 3fbe 337c 2b3e f708 8c3e 73b2 523e
000000b0: e0fa 3cbf 488b 10be 47b4 833e 2f2f 493d
000000c0: e630 c53e e945 edbe 2050 f1be b7d6 93be
000000d0: f3d2 e43d 265b 63bf 8784 ecbe 9007 0e3e
000000e0: 7e9e f2bd df6f dd3c 44a0 443d 4361 7bbd
000000f0: 36bf 3e3e f160 aa3d e9bc 05be 6d12 0c3d
00000100: 7e84 313d 4f04 07bd c33c 633e c58e 87bf
00000110: f225 87bd 2c94 debd b1b4 44bf d7ce 61bc
00000120: 57c2 7c3c acd1 423d abb7 293e 2994 913d
00000130: f66d 4e3e 2c3b 87be a0fa 003e c218 a93e
00000140: 174e fb3e c179 55bf 18d7 99bf e110 013c
00000150: adaa e93e 3116 263e ada4 0dbf 059a 47bf
00000160: 521e 3dbe c2cd c5be 41ab 63be f6e0 3cbe
00000170: a44d 19bf 609e dd3d aee0 4b3e 8ea2 c7be
00000180: fb7d ef3d 0e35 be3d 7d0c a4bd 1f49 16be
00000190: cdc6 7e3e 2c4d 4fbf 28ed c43e 0a6d 62bf
000001a0: 5e9f 1fbe f474 3fbd 8b67 cfbd 1937 3dbe
000001b0: 64f5 7cbf 0fee cfbd 6533 ecbe 3e36 bebf
000001c0: a2a6 643c 32cc 42be 74e1 bebe 39bf aebd
000001d0: cab4 bb3d 580c 6abf dea1 57be 5d0c 19bc
000001e0: 422f 1dbd 6385 81bf 4473 803c d8ea edbe
000001f0: b963 29bf 40fe c6bd 015c 56be 92a5 31bf
00000200: 08b9 503e 61f5 77be ce61 583e f283 953b
00000210: 4c51 413e d95d b2be 9a53 f3be fb58 c63e
00000220: f5f4 02bf 2f24 a6bd e2ef 85bf d48b 523e
00000230: 384e 1cbf 5500 8c3e efd0 9dbd a3c7 5dbe
00000240: 5894 10bf 9f85 d3be 42bf a33d 957e cd3d
00000250: b989 133e d934 1dbe 014f 6b3d 99dc b4be
00000260: 6dff 013c 924b 893e bba3 2fbf 5526 febe
00000270: 1a52 67bf 857e e6be 2f5e 0abf ef67 7dbe
00000280: 9b69 1c3e 6165 31be 712c a6be ae5c a63d
00000290: 18ac 40bf 683e 18be ba58 f8be 4c96 a2be
000002a0: f8d1 033f b688 66be 48b2 5b3e b5bd 81be
000002b0: 7ad9 12bf a0da 2cbe 754f a7be 99da dabe
000002c0: 7d69 80be 41f5 67bd 52bf adbe 1ec6 133e
000002d0: 12e6 c3bf dd24 68bf a9ad 0f3d 9d72 e8bd
000002e0: 349b 1cbd 4ab8 ccbd 0436 15bf 272a 23bf
000002f0: d2c9 fd3c 2c18 203f 13c4 1f3e 5279 8abe

fc1.bias f4 [64]
-0.35065216 -0.17618677 0.10980952 0.9439185 3.6035635 3.3005438 -2.3911955 4.078538
3.6907284 1.7428291 -2.1973648 4.2603154 -1.6686252 3.8950267 2.992772 3.0743644
-0.46031088 -1.2766706 -2.3531363 4.2350426 -2.806009 -0.99929947 -3.2193766 2.2369537
3.4168403 3.459425 -2.1827505 -1.4345515 2.8169105 3.2657611 1.7307285 3.54794
3.594254 3.9969876 -3.7359812 4.0288696 3.5885508 1.3549712 3.6419575 0.703956
-1.715156 2.8112843 -4.037461 1.6637822 -0.0050477386 -2.3201027 -1.9916822 -1.1429979
2.359689 4.120364 -1.9735458 2.9782805 2.7905035 2.2407925 2.7542248 0.5127654
3.2842636 2.979287 2.8279731 2.5780904 -3.71158 3.6041327 -3.4140089 1.4252167
00000000: ae88 b3be 4e6a 34be d0e3 e03d a5a4 713f
00000010: c9a0 6640 1c3c 5340 5909 19c0 6283 8240
00000020: e534 6c40 0615 df3f a0a1 0cc0 8154 8840
00000030: 8395 d5bf 1e48 7940 9489 3f40 63c2 4440
00000040: dead ebbe f169 a3bf c999 16c0 7885 8740
00000050: a795 33c0 17d2 7fbf 440a 4ec0 402a 0f40
00000060: 83ad 5a40 3867 5d40 2fb2 0bc0 629f b7bf
00000070: 4348 3440 3b02 5140 8388 dd3f 7311 6340
00000080: 4208 6640 a5ce 7f40 511a 6fc0 80ec 8040
00000090: d1aa 6540 b26f ad3f d515 6940 7636 343f
000000a0: 3b8a dbbf 15ec 3340 e132 81c0 d1f6 d43f
000000b0: 8067 a5bb 907c 14c0 71ef febf c14d 92bf
000000c0: 2505 1740 06da 8340 269d fcbf 269c 3e40
000000d0: 9c97 3240 2569 0f40 3845 3040 9844 033f
000000e0: 6031 5240 a3ac 3e40 83fd 3440 6fff 2440
000000f0: 878a 6dc0 1caa 6640 1f7f 5ac0 806d b63f

fc2.weight f4 [64, 64]
-0.110453784 -0.10662258 0.048155338 -0.0061211432 -0.023673888 -0.09362163 -0.066315934 -0.07330762
0.0085926475 -0.10807895 0.00509406 0.09459308 -0.1167784 -0.032684185 0.04162488 -0.044984832
0.08353202 0.041027196 -0.019397613 -0.09187163 -0.09744419 -0.06546287 -0.024255047 -0.06380951
-0.0010259204 -0.02711475 -0.020818403 0.0052190186 -0.07651685 0.07847223 0.100254096 0.017829707
-0.18482667 0.0645701 0.03861589 -0.09549424 -0.018797982 0.02124454 -0.06079296 0.02437236
-0.06590383 -0.14279647 -0.057041448 0.02526239 0.093217984 -0.15575208 -0.1529529 -0.12505874
0.06950171 -0.15845029 0.079159796 -0.07373528 0.06125656 0.0361453 -0.12386419 0.03980422
0.016855225 -0.008806115 0.055608388 -0.05500371 0.03592915 -0.01699092 0.03136229 -0.03449567
-0.07106835 -0.087679625 -0.103718966 0.108350605 -0.108288564 0.63906157 0.09909602 0.09192805
0.74968237 0.49171975 -0.1587844 -0.8976423 -0.2787677 1.4968358 -0.00022061598 0.41155714
-0.045685366 -0.4379555 0.10189583 -0.8608825 -0.12398046 -0.10304762 -0.15387097 -0.097410426
0.940228 -0.4796878 0.08870864 -0.109348536 -0.3715938 -0.84476435 -0.4543925 -0.39685616
-0.7597836 0.5714805 -0.004503126 -0.24043348 1.0191112 0.09434731 0.73457503 0.03427098
-0.20494246 0.08519868 -0.4454394 0.16507226 -0.0064001083 0.16195667 -0.34983227 -0.14746173
-0.07106296 -0.82186425 0.0050455173 -0.13333935 0.89065653 0.16771823 0.25433722 0.048790276
0.8849601 -0.85090077 -1.3562872 0.67382675 -0.5219691 -0.24730906 -0.55113035 -0.49270537
-0.012753606 -0.06794821 0.037940428 0.28534886 0.20270035 -0.1692272 -0.067352794 0.07851187
-0.0041572056 0.04053828 -0.0064576706 -0.5500096 -0.93477446 0.05031924 -0.7112191 -0.11935328
0.11349158 -0.08250775 0.041431006 -0.25379956 -0.108649366 -0.022814238 0.0050615836 0.07406733
-0.11489791 -0.47083235 -0.030703435 0.07929459 -0.32309246 0.40309477 -0.02775291 -0.26379454
-0.48885962 0.27793345 0.14270581 -0.14619637 0.118696846 -0.29370558 0.14332566 0.32267657
-0.20963739 -0.57470965 0.22373499 -0.27829072 0.03913416 0.07794367 0.07805407 -0.024295341
0.22262006 -0.70575947 0.1708486 0.49820757 -0.1182613 -0.024152268 -0.008774727 0.07290563
-0.29445368 -0.12789747 0.21435072 -0.15319292 0.2574088 -0.120031215 0.08372903 -0.16848761
-0.035315067 -0.124274716 0.07441229 -0.026272215 -0.16575275 0.06611803 -0.09960444 0.03342639
-0.11760356 -0.111681685 0.056511246 0.13715129 -0.089245535 -0.15303849 0.021865107 -0.12449674
-0.07361695 0.10942206 0.023474315 0.075305 -0.061702278 -0.11159547 -0.07570141 -0.0107096415
0.048645634 -0.11841945 -0.07922614 -0.11050752 0.0824518 -0.12379832 0.022197882 -0.13560757
-0.008166626 -0.07003651 0.015144033 -0.09080546 -0.082489856 -0.06863523 0.07657127 -0.03690301
0.004859069 -0.06713113 0.07951358 0.05897405 -0.0069673806 0.0026646147 0.0025715665 -0.04138549
-0.13646817 -0.040355526 -0.12784816 0.063048184 0.032569654 0.048214015 0.049920935 0.08032943
-0.16227542 -0.11035769 -0.056219216 -0.15855387 0.0126575455 -0.15078273 -0.12248605 0.00026071424
00000000: 9835 e2bd f05c dabd 883e 453d df93 c8bb
00000010: beef c1bc b2bc bfbd a6d0 87bd 4e22 96bd
00000020: 2dc8 0c3c 7f58 ddbd 13ec a63b 04ba c13d
00000030: 8429 efbd dadf 05bd da7e 2a3d 0442 38bd
00000040: d612 ab3d 220c 283d bee7 9ebc 3127 bcbd
00000050: d290 c7bd 6611 86bd 85b2 c6bc 8fae 82bd
00000060: 2d78 86ba c11f debc 5b8b aabc 4d04 ab3b
00000070: deb4 9cbd 0cb6 a03d 0552 cd3d 9b0f 923c
00000080: 3443 3dbe 543d 843d b22b 1e3d 7c92 c3bd
00000090: 3afe 99bc 0809 ae3c 0a02 79bd 8ba8 c73c
000000a0: 96f8 86bd 3d39 12be 4ba4 69bd 12f3 ce3c
000000b0: 12e9 be3d 797d 1fbe af9f 1cbe 660f 00be
000000c0: ea56 8e3d cb40 22be 881e a23d 8602 97bd
000000d0: 29e8 7a3d 180d 143d 82ac fdbd c009 233d
000000e0: f813 8a3c 8647 10bc 9fc5 633d 924b 61bd
000000f0: 722a 133d 8b30 8bbc bf75 003d 554b 0dbd
00000100: 488c 91bd 6091 b3bd 9c6a d4bd ece6 dd3d
00000110: 65c6 ddbd 8a99 233f dbf2 ca3d c644 bc3d
00000120: 2feb 3f3f b1c2 fb3e 6198 22be e3cb 65bf
00000130: a4ba 8ebe 5198 bf3f 2755 67b9 9eb7 d23e
00000140: 9420 3bbd b43b e0be c3ae d03d cc62 5cbf
00000150: 78e9 fdbd a10a d3bd 5a90 1dbe 1e7f c7bd
00000160: c8b2 703f a499 f5be e0ac b53d 20f2 dfbd
00000170: 8b41 bebe 7a42 58bf 22a6 e8be bb30 cbbe
00000180: 2e81 42bf 8c4c 123f f58e 93bb 3234 76be
00000190: 3c72 823f 2a39 c13d 1c0d 3c3f ba5f 0c3d
000001a0: 70dc 51be a57c ae3d a210 e4be b408 293e
000001b0: 00b8 d1bb f8d7 253e 371d b3be 3500 17be
000001c0: 7589 91bd b265 52bf de54 a53b 1c8a 08be
000001d0: 1102 643f 54be 2b3e 7d38 823e 50d8 473d
000001e0: bf8c 623f a2d4 59bf d29a adbf e97f 2c3f
000001f0: c49f 05bf 963e 7dbe e116 0dbf e143 fcbe
00000200: 80f4 50bc 6e28 8bbd 6c67 1b3d 3f19 923e
00000210: ae90 4f3e e549 2dbe 43f0 89bd d5ca a03d
00000220: 2b39 88bb 780b 263d de9a d3bb 6ecd 0cbf
00000230: 614d 6fbf 8c1b 4e3d 7412 36bf 7e6f f4bd
00000240: 466e e83d d3f9 a8bd 8fb3 293d 04f2 81be
00000250: 8f83 debd ede4 babc a4db a53b 9db0 973d
00000260: 984f ebbd f010 f1be c585 fbbc 3465 a23d
00000270: 606c a5be 7062 ce3e 125a e3bc 1410 87be
00000280: cf4b fabe 4b4d 8e3e 7921 123e 80b4 15be
00000290: 5517 f33d 9460 96be f6c3 123e dd35 a53e
000002a0: 2fab 56be 2c20 13bf c91a 653e 1f7c 8ebe
000002b0: 244b 203d eea0 9f3d d0da 9f3d 0607 c7bc
000002c0: 83f6 633e a7ac 34bf eff2 2e3e 1015 ff3e
000002d0: fb32 f2bd fada c5bc dfc3 0fbc 8c4f 953d
000002e0: a2c2 96be 8ef7 02be c17e 5b3e 9bde 1cbe
000002f0: 16cb 833e edd2 f5bd 207a ab3d 0488 2cbe
00000300: 88a6 10bd be83 febd 7865 983d d438 d7bc
00000310: 17bb 29be e468 873d 6afd cbbd 1cea 083d
00000320: 23da f0bd 5eb9 e4bd 5678 673d 6371 0c3e
00000330: 5dc6 b6bd 1fb6 1cbe 741e b33c 26f8 febd
00000340: 7cc4 96bd ac18 e03d 354d c03c 8239 9a3d
00000350: 87bb 7cbd 2a8c e4bd 5709 9bbd 7e77 2fbc
00000360: a540 473d e685 f2bd 5141 a2bd c451 e2bd
00000370: 7ddc a83d f989 fdbd 55d8 b53c b6dc 0abe
00000380: 50cd 05bc 4d6f 8fbd ae1e 783c 37f8 b9bd
00000390: 71f0 a8bd a190 8cbd 66d1 9c3d 9c27 17bd
000003a0: d338 9f3b 0c7c 89bd 04d8 a23d c68e 713d
000003b0: a04e e4bb d1a0 2e3b ba87 283b d583 29bd
000003c0: 50be 0bbe d64b 25bd a1ea 02be 681f 813d
000003d0: c267 053d 0f7c 453d e579 4c3d c283 a43d
000003e0: 872b 26be 3603 e2bd 1f46 66bd f25b 22be
000003f0: 9861 4f3c ca66 1abe f7d9 fabd 79b0 8839

fc2.bias f4 [64]
-0.019235153 2.371749 0.47731546 -0.021335244 1.2573647 -0.02857818 2.1643925 2.5014334
-0.08658695 1.5800755 -0.019660678 0.58318776 0.0082027735 0.0313468 1.3873329 0.056311816
-0.09589918 -0.054408945 -0.14435469 0.0076212655 0.06684357 1.7282501 0.23191883 2.284158
2.4719317 0.28194517 -0.006412725 -0.10116626 1.4393245 0.5185478 -0.0038215122 -0.035455775
2.405832 2.412747 1.553802 -0.032397926 1.4534118 2.2534254 2.1696832 0.56066006
-1.8430963 -0.051938064 1.9999784 -0.029644728 -0.04785355 0.0013004686 -0.035355553 0.03658794
2.1704798 0.061512396 -0.044365287 2.704249 -0.033561803 0.031789564 -0.06613175 -0.14163421
1.875934 2.0620244 0.71512663 1.5650637 0.034898072 -0.05350126 0.9986125 -0.48647162
00000000: 0a93 9dbc bcca 1740 b162 f43e 40c7 aebc
00000010: 54f1 a03f ca1c eabc 6885 0a40 7c17 2040
00000020: 8054 b1bd ea3f ca3f 6e0f a1bc cb4b 153f
00000030: ed64 063c 8165 003d 2094 b13f 38a7 663d
00000040: ca66 c4bd eadb 5ebd b7d1 13be cfbb f93b
00000050: 48e5 883d 4d37 dd3f 217c 6d3e a52f 1240
00000060: 2134 1e40 1e5b 903e d621 d2bb 4230 cfbd
00000070: c93b b83f 8cbf 043f 5672 7abb 133a 11bd
00000080: 27f9 1940 726a 1a40 fce2 c63f b0b3 04bd
00000090: 6609 ba3f 1f38 1040 17dc 0a40 6b87 0f3f
000000a0: 94ea ebbf 02bd 54bd 4bff ff3f 80d9 f2bc
000000b0: 1602 44bd 7c74 aa3a fcd0 10bd 3cdd 153d
000000c0: 24e9 0a40 6cf4 7b3d 60b8 35bd 6a12 2d40
000000d0: 1a78 09bd c635 023d 1570 87bd 8f08 11be
000000e0: 9b1e f03f 35f8 0340 8a12 373f 0254 c83f
000000f0: 48f1 0e3d 2324 5bbd 12a5 7f3f cf12 f9be

fc3.weight f4 [20, 64]
0.079868354 0.5431318 0.014572082 -0.07861594 0.3589931 0.05815483 0.46492928 -1.0775198
0.049648467 0.16427429 0.03643062 -0.36192027 -0.050914273 -0.10501909 0.02474226 0.06444364
0.035592705 0.03355819 0.08808062 0.04518055 0.055907547 0.15700182 0.01607866 -0.63191634
0.60944045 -0.1072498 -0.033510696 0.052238334 0.035063315 0.014860701 0.023140911 0.010465374
0.58433664 0.4417404 -0.8065944 -0.071593374 0.50287026 0.3456379 0.43088472 0.18638399
-0.69151133 0.046927683 0.23198125 0.066303924 -0.0061395345 -0.049225036 0.05126001 0.041167736
0.5457037 -0.070073865 -0.07948662 0.64791954 0.022233622 0.012938461 0.028899625 -0.018262444
0.14418557 0.28430513 -0.07954896 -0.019174075 0.13349333 0.15725243 -0.9504332 0.11715627
0.0848508 0.55709714 0.14905359 -0.05335299 0.26490158 -0.050726727 0.427941 -0.84572375
-0.112842105 0.39894217 0.07195683 -0.08516988 0.06174962 -0.037464097 0.24760433 -0.019083908
0.01972565 -0.005463749 -0.023888772 -0.01754648 0.12494825 -0.31522763 -0.058324356 -0.5257219
0.7119674 -0.010982611 0.042584624 0.013131066 0.10632072 0.09338683 0.0487099 -0.0384951
0.58790386 0.5723975 -0.6119615 0.11935404 0.40923017 0.4851135 0.40889326 0.30721092
0.27655005 0.13736229 0.10615672 0.039927006 0.030725181 -0.081179544 -0.12337224 0.09863928
0.46648312 0.12909763 0.07181464 0.5343235 -0.041944116 -0.086893804 -0.0798486 0.3761587
0.5016628 0.30921435 -0.2480555 0.16206841 0.08158005 0.48228723 -0.92400444 0.15329391
-0.06384615 0.5351708 0.16494623 0.13125484 -0.08259302 -0.019484103 0.2787305 -0.84892875
0.050180934 0.4689939 -0.11318722 0.24535379 -0.118874714 -0.098151654 0.43021256 -0.036486153
0.09914604 -0.12452462 0.030102085 -0.077041864 -0.10168417 -0.29648978 0.36875063 -0.42139527
0.5824789 0.1900448 -0.023225186 0.05679391 0.3270419 -0.054611478 -0.05001255 -0.10065297
0.6781058 0.44877094 -0.66065174 0.037459612 0.294956 0.4801854 0.42937094 0.41580582
-0.3097046 0.021339606 0.10652461 0.11690602 0.1102763 -0.06809339 -0.08120632 0.057616666
0.589507 -0.020244775 -0.08143914 0.54181385 0.0077080727 0.105434865 0.061201163 -0.33289993
0.09192641 0.3310164 -0.07995986 0.35263556 0.077824384 -0.11191468 -0.5633706 0.20613869
-0.025668707 0.50281274 0.10330186 -0.13332677 -0.062012162 0.0056794584 0.5343747 -0.7833624
0.015169024 0.42545816 0.025091663 -0.00108313 0.09809357 0.020158127 0.017086359 0.020498315
-0.11850241 -0.084066555 -0.032879278 0.08680404 -0.111383885 -0.2974246 0.33546993 -0.53226876
0.64791983 -0.19647083 -0.072754264 0.01683148 0.08056842 -0.14004739 -0.010554849 -0.15294586
0.5586102 0.47896695 -0.62163246 0.058536574 0.39536685 0.33778226 0.40551624 0.053198405
-0.15023574 0.02500705 0.35053325 0.00325872 0.073788255 -0.16351074 -0.09243436 -0.0463434
0.47051376 0.024222057 0.010932878 0.609385 0.08412419 0.3715623 0.08701517 0.4995376
0.17854418 0.32644647 -0.49028245 0.7285937 -0.04211553 0.43521455 -0.18529484 0.40426552
00000000: 0592 a33d b00a 0b3f bebf 6e3c 6501 a1bd
00000010: f2cd b73e c233 6e3d 360b ee3e 2bec 89bf
00000020: 315c 4b3d 8537 283e 4638 153d 9d4d b9be
00000030: 7c8b 50bd 4014 d7bd 48b0 ca3c 07fb 833d
00000040: a8c9 113d 5074 093d 9d63 b43d 3e0f 393d
00000050: 50ff 643d 16c5 203e 65b7 833c 45c5 21bf
00000060: 4a04 1c3f c8a5 dbbd 8342 09bd ddf7 553d
00000070: 8d9e 0f3d 4c7a 733c 0292 bd3c f676 2b3c
00000080: 1697 153f cc2b e23e f87c 4ebf 8c9f 92bd
00000090: 1bbc 003f 73f7 b03e ec9c dc3e 72db 3e3e
000000a0: e306 31bf 3e37 403d 7e8c 6d3e 5aca 873d
000000b0: 262e c9bb 31a0 49bd 04f6 513d 809f 283d
000000c0: 3db3 0b3f e382 8fbd e2c9 a2bd 0ede 253f
000000d0: 4923 b63c d7fb 533c e8be ec3c 1f9b 95bc
000000e0: 62a5 133e 7190 913e 91ea a2bd f312 9dbc
000000f0: 7ab2 083e c806 213e 974f 73bf a0ef ef3d
00000100: 42c6 ad3d eb9d 0e3f 81a1 183e aa88 5abd
00000110: 2ea1 873e d4c6 4fbd 151b db3e 5a81 58bf
00000120: c319 e7bd 2642 cc3e 1a5e 933d 8c6d aebd
00000130: 2bed 7c3d f473 19bd fd8b 7d3e db55 9cbc
00000140: b097 a13c 4009 b3bb 63b2 c3bc a3bd 8fbc
00000150: dee4 ff3d 8465 a1be 85e5 6ebd b695 06bf
00000160: 7f43 363f 69f0 33bc 376d 2e3d af23 573c
00000170: adbe d93d 9841 bf3d 0884 473d 0aad 1dbd
00000180: de80 163f a488 123f 82a9 1cbf e46f f43d
00000190: 9e86 d13e cc60 f83e 755a d13e c04a 9d3e
000001a0: f897 8d3e b3a8 0c3e b268 d93d 808a 233d
000001b0: 60b3 fb3c 7641 a6bd 96aa fcbd 6403 ca3d
000001c0: e0d6 ee3e 2b32 043e 8e13 933d 6dc9 083f
000001d0: 98cd 2bbd 61f5 b1bd aa87 a3bd e097 c03e
000001e0: f96c 003f 5851 9e3e 4302 7ebe 43f5 253e
000001f0: 7113 a73d 5aee f63e 8e8b 6cbf 14f9 1c3e
00000200: c5c1 82bd f400 093f aae7 283e ab67 063e
00000210: 8726 a9bd 209d 9fbc c4b5 8e3e 6553 59bf
00000220: 868a 4d3d f81f f03e b4ce e7bd 063e 7b3e
00000230: 9674 f3bd bc03 c9bd d244 dc3e 8172 15bd
00000240: 140d cb3d c406 ffbd a698 f63c 20c8 9dbd
00000250: ca3f d0bd 82cd 97be e2cc bc3e 1fc1 d7be
00000260: 561d 153f 1b9b 423e bf42 bebc bba0 683d
00000270: 0972 a73e 49b0 5fbd f6d9 4cbd 2523 cebd
00000280: 5798 2d3f 4ec5 e53e 7920 29bf 406f 193d
00000290: 7904 973e dcda f53e 82d6 db3e 80e4 d43e
000002a0: 9a91 9ebe 66d0 ae3c 9329 da3d 6c6c ef3d
000002b0: 8ad8 e13d 8c74 8bbd 804f a6bd 74ff 6b3d
000002c0: eee9 163f 5fd8 a5bc 90c9 a6bd 50b4 0a3f
000002d0: 0094 fc3b 3cee d73d 12ae 7a3d dc71 aabe
000002e0: ea43 bc3d fb7a a93e ffc1 a3bd a68c b43e
000002f0: 6462 9f3d 8633 e5bd 0e39 10bf 0516 533e
00000300: 2e47 d2bc 56b8 003f ed8f d33d d086 08be
00000310: 7700 7ebd c01a ba3b c8cc 083f 708a 48bf
00000320: 7f87 783c a7d5 d93e 088d cd3c d0f7 8dba
00000330: 48e5 c83d a822 a53c b1f8 8b3c 15ec a73c
00000340: 64b1 f2bd 162b acbd 6cac 06bd 51c6 b13d
00000350: 3c1d e4bd 0a48 98be b7c2 ab3e c442 08bf
00000360: 13de 253f a62f 49be 3000 95bd 2ce2 893c
00000370: 0e01 a53d 9568 0fbe 3fee 2cbc d79d 1cbe
00000380: 1401 0f3f 283b f53e 4e23 1fbf 0cc4 6f3d
00000390: 866d ca3e ccf1 ac3e d39f cf3e 92e6 593d
000003a0: 66d7 19be 96db cc3c 1879 b33e 4090 553b
000003b0: 4c1e 973d 5c6f 27be 3a4e bdbd 94d2 3dbd
000003c0: 2ee7 f03e 566d c63c d01f 333c a800 1c3f
000003d0: 4e49 ac3d 6a3d be3e 0235 b23d 64c3 ff3e
000003e0: 49d4 363e fe23 a73e 4d06 fbbe 1e85 3a3f
000003f0: 5681 2cbd 71d4 de3e eebd 3dbe e4fb ce3e

fc3.bias f4 [20]
2.5380085 0.81499493 0.42575002 0.8488092 0.42662868 0.5731778 0.3393751 0.3712575
0.322463 0.44710577 0.44851974 0.03664388 0.19198722 0.022500986 0.07289135 0.12645137
-0.14561342 -0.013045997 -0.48806912 -0.3305683
00000000: bb6e 2240 82a3 503f e8fb d93e 8f4b 593f
00000010: 136f da3e c8bb 123f 93c2 ad3e 7715 be3e
00000020: df19 a53e 0ceb e43e 61a4 e53e e517 163d
00000030: 4c98 443e fd53 b83c 0f48 953d 787c 013e
00000040: af1b 15be e1be 55bc 32e4 f9be 4040 a9be

fc1.weight f4 [64, 3]
-0.34507066 0.0342787 -0.06578575 -0.08050451 -0.566948 -0.52088356 -0.5121121 -0.08029777
-0.52408946 -0.5664601 -0.3744263 -0.010932472 -0.021858705 -0.12034133 -0.052982014 -0.34911945
0.44469377 0.09708526 0.022506772 0.71077037 0.4788527 -0.08004134 -0.009889832 -0.054113075
0.4052617 -0.0274813 0.12002239 -1.3235629 0.0557551 -0.09960353 0.20760827 0.3111013
0.09671905 0.035085067 0.10799575 -0.10593939 0.58783954 -0.6212385 0.036485605 -0.08670401
-0.1938789 0.1665606 0.2785281 0.20504633 -0.7302222 -0.12612794 0.254771 0.050999917
0.3851387 -0.463424 -0.4713149 -0.2887163 0.11178825 -0.8880392 -0.46180755 0.13874687
-0.11846203 0.020430082 0.03437348 -0.06365356 0.18628925 0.08319797 -0.13060291 0.034200467
0.043342445 -0.03295993 0.22191839 -1.0590094 -0.065986924 -0.07204155 -0.7515409 0.012128063
0.0227546 0.041692544 0.16357176 0.099348545 0.20256685 -0.26779124 0.12414626 0.33178872
0.48894903 -0.83384997 -1.201824 0.007877693 0.47399503 0.1659747 -0.5474668 -0.78479046
-0.14845793 -0.36699513 -0.21155573 -0.1745189 -0.5901112 0.090012476 0.18900372 -0.3941847
0.11880499 0.09715709 -0.07304104 -0.21129403 0.26937395 -0.7749557 0.38464862 -0.88445497
-0.15587561 -0.07047367 -0.12357506 -0.1703818 -0.95428926 -0.13193995 -0.40252256 -1.4860226
0.013956513 -0.19022323 -0.36967412 -0.08903498 0.09524774 -0.91425765 -0.21059336 -0.009340821
-0.03837657 -1.011802 0.01568088 -0.5693834 -0.75361115 -0.08867685 -0.19468777 -0.6549656
0.20622478 -0.20324269 0.24324849 0.011543094 0.18878669 -0.34837225 -0.47524887 0.35723904
-0.517508 -0.06077077 -1.0302566 0.21966216 -0.58703744 0.27345473 -0.07705863 -0.21658373
-0.49952286 -0.376686 0.098070115 0.09039324 0.15253672 -0.16504245 0.05744658 -0.35326636
0.0079354355 0.29205233 -0.74863607 -0.4743546 -0.90335196 -0.4499332 -0.54023594 -0.30031198
0.13963912 -0.16149752 -0.41159764 0.0931101 -0.69845206 -0.14867556 -0.48505396 -0.31755292
0.5220943 -0.22805725 0.21234493 -0.35468295 -0.6749068 -0.27007744 -0.3992217 -0.45499533
-0.31707257 -0.025869707 -0.33441865 0.14688331 -1.530369 -0.9068665 0.035079647 -0.09702977
-0.06197344 -0.09509619 -0.5828515 -0.6373309 0.030980844 0.64375716 0.13278809 -0.25299743
00000000: 1aad b0be d267 0c3d aeba 86bd 8cdf a4bd
00000010: 8123 11bf a058 05bf c719 03bf 2873 a4bd
00000020: ba2a 06bf 8703 11bf ceb4 bfbe 1c1e 33bc
00000030: 0711 b3bc 8475 f6bd ab03 59bd c9bf b2be
00000040: e7ae e33e a3d4 c63d 1f60 b83c 0cf5 353f
00000050: 2e2c f53e b7ec a3bd f608 22bc aca5 5dbd
00000060: 767e cf3e 7720 e1bc 4cce f53d 826a a9bf
00000070: 765f 643d effc cbbd 4397 543e ab48 9f3e
00000080: a314 c63d 5cb5 0f3d e02c dd3d c0f6 d8bd
00000090: a77c 163f 7d09 1fbf ee71 153d df91 b1bd
000000a0: 3188 46be dd8e 2a3e 3c9b 8e3e aaf7 513e
000000b0: d8ef 3abf af27 01be 5871 823e 4ae5 503d
000000c0: e630 c53e e945 edbe 3050 f1be 9fd2 93be
000000d0: 3df1 e43d 8956 63bf 0a72 ecbe a913 0e3e
000000e0: 399c f2bd fd5c a73c 35cb 0c3d cc5c 82bd
000000f0: 9cc2 3e3e b363 aa3d c5bc 05be ca15 0c3d
00000100: d987 313d fe00 07bd 933e 633e 9f8d 87bf
00000110: 2724 87bd 858a 93bd fc64 40bf c8b4 463c
00000120: db67 ba3c cdc5 2a3d 5b7f 273e 4077 cb3d
00000130: af6d 4f3e ef1b 89be 6540 fe3d 36e0 a93e
00000140: 8757 fa3e 3177 55bf 5ed5 99bf 7011 013c
00000150: 7aaf f23e 46f5 293e c926 0cbf 07e8 48bf
00000160: 5b05 18be c9e6 bbbe 11a2 58be 15b5 32be
00000170: 8711 17bf 7658 b83d 318a 413e 94d2 c9be
00000180: 0850 f33d 4cfa c63d 8a96 95bd 765d 58be
00000190: 62eb 893e 7f63 46bf aaf0 c43e a46b 62bf
000001a0: db9d 1fbe 8054 90bd ec14 fdbd 9178 2ebe
000001b0: 4d4c 74bf 441b 07be 7017 cebe fd35 bebf
000001c0: dca9 643c e1c9 42be ed45 bdbe f957 b6bd
000001d0: 3f11 c33d ca0c 6abf c9a5 57be 3e0a 19bc
000001e0: c030 1dbd ba82 81bf 3075 803c 1cc3 11bf
000001f0: a9ec 40bf 359c b5bd 3b5c 47be d3ab 27bf
00000200: 972c 533e da1e 50be 2216 793e 3f1f 3d3c
00000210: 4c51 413e d95d b2be d253 f3be 09e8 b63e
00000220: 677b 04bf c5ea 78bd 73df 83bf 1eef 603e
00000230: 1648 16bf 4202 8c3e ead0 9dbd 20c8 5dbe
00000240: 76c1 ffbe fddc c0be fcd8 c83d 1720 b93d
00000250: 9632 1c3e e300 29be 1b4d 6b3d 54df b4be
00000260: a103 023c e287 953e 9da6 3fbf 9bde f2be
00000270: 1342 67bf a55d e6be e74c 0abf 7ec2 99be
00000280: 8ffd 0e3e 9b5f 25be edbc d2be 82b0 be3d
00000290: c1cd 32bf 683e 18be fe58 f8be 4c96 a2be
000002a0: f9a7 053f d787 69be f370 593e 0199 b5be
000002b0: b1c6 2cbf 9747 8abe c966 ccbe 26f5 e8be
000002c0: 5657 a2be b5ec d3bc ec38 abbe 9468 163e
000002d0: 22e3 c3bf 6728 68bf adaf 0f3d 8bb7 c6bd
000002e0: ddd7 7dbd cbc1 c2bd c235 15bf 1e28 23bf
000002f0: 8acb fd3c 45cd 243f 9af9 073e e188 81be

fc1.bias f4 [64]
-0.35064375 -0.17618677 0.10980952 0.94394106 3.5818648 3.3113654 -2.3910842 4.068852
3.6981838 1.7506431 -2.202068 4.255262 -1.7103481 3.9017937 2.966684 3.0927808
-0.46031088 -1.2765691 -2.3531027 4.2259016 -2.8058653 -0.99925494 -3.2192883 2.2566304
3.4219277 3.4363 -2.1824784 -1.4345235 2.7899668 3.2953622 1.73882 3.525261
3.5874643 3.9582312 -3.735948 4.010735 3.5694554 1.3550098 3.6476302 0.7039697
-1.7151458 2.7193124 -4.015836 1.6876409 -0.0050477386 -2.339413 -1.979995 -1.1429338
2.393415 4.103067 -1.9734757 2.9036844 2.7907708 2.2007134 2.7165284 0.5127654
3.289197 2.878185 2.7627475 2.5882685 -3.7113907 3.5905967 -3.4138405 1.3805786
00000000: 9487 b3be 4e6a 34be d0e3 e03d 1fa6 713f
00000010: 463d 6540 69ed 5340 8607 19c0 0934 8240
00000020: 0baf 6c40 1315 e03f afee 0cc0 1b2b 8840
00000030: b0ec dabf fdb6 7940 27de 3d40 1ff0 4540
00000040: dead ebbe 9e66 a3bf 3c99 16c0 963a 8740
00000050: 4c93 33c0 2ccf 7fbf d208 4ec0 a26c 1040
00000060: dd00 5b40 57ec 5b40 baad 0bc0 779e b7bf
00000070: d18e 3240 37e7 5240 a791 de3f e09d 6140
00000080: 0499 6540 a953 7d40 c619 6fc0 f157 8040
00000090: f571 6440 f670 ad3f c672 6940 5c37 343f
000000a0: e689 dbbf 3709 2e40 ba81 80c0 9e04 d83f
000000b0: 8067 a5bb f1b8 15c0 7a70 fdbf a84b 92bf
000000c0: b62d 1940 534c 8340 da9a fcbf f7d5 3940
000000d0: fd9b 3240 7dd8 0c40 9adb 2d40 9844 033f
000000e0: 3482 5240 2f34 3840 dbd0 3040 31a6 2540
000000f0: 6d87 6dc0 56cc 6540 5d7c 5ac0 cdb6 b03f

fc2.weight f4 [64, 64]
-0.110453784 -0.10662291 0.048155587 -0.006120964 -0.023673594 -0.09362148 -0.06631475 -0.07330348
0.008592958 -0.10807579 0.005094167 0.09459751 -0.11677818 -0.032684255 0.04162879 -0.044985324
0.08353202 0.04102901 -0.019396907 -0.09187801 -0.09744368 -0.065457925 -0.024254747 -0.063803874
-0.0010259233 -0.027113944 -0.020818122 0.0052194316 -0.07651473 0.078474246 0.10026003 0.0178304
-0.18482894 0.064571284 0.038618717 -0.0954916 -0.018797126 0.021246534 -0.060791936 0.024373956
-0.06589751 -0.14279222 -0.05704052 0.025264312 0.093219146 -0.1557415 -0.15294005 -0.1250559
0.069503635 -0.15843864 0.07916716 -0.07374307 0.061257597 0.036148816 -0.12386378 0.03980422
0.016856223 -0.008805303 0.055609986 -0.05500276 0.03593275 -0.016990338 0.031365484 -0.034494773
-0.07107572 -0.087679625 -0.103718966 0.10835891 -0.11177458 0.63939154 0.09419596 0.08230754
0.7554453 0.39338076 -0.15833792 -0.9001503 -0.28222558 1.5009298 0.016145473 0.41673294
-0.045685686 -0.4379359 0.10183808 -0.8614923 -0.12398298 -0.10304659 -0.15386392 -0.101318076
0.9429761 -0.4803002 0.08489791 -0.1093573 -0.36381525 -0.8852691 -0.45133433 -0.3793919
-0.75770116 0.5554742 -0.004503235 -0.2503495 0.95315397 0.0943442 0.7431595 0.034274973
-0.20494576 0.2126234 -0.43752322 0.1615682 -0.0064001083 0.16056128 -0.352577 -0.14747123
-0.05984178 -0.8255767 0.0050457376 -0.035220914 0.8908957 0.16047604 0.25559014 0.048790276
0.8888602 -0.7256092 -1.2348901 0.6786942 -0.52199435 -0.22785422 -0.55114144 -0.48414755
-0.0127532305 -0.06794821 0.03794071 0.2853758 0.20269567 -0.16922723 -0.067350395 0.07851895
-0.0041572447 0.040540993 -0.0064576413 -0.55000895 -0.9347619 0.050320003 -0.711182 -0.11934867
0.11349244 -0.08250507 0.041435074 -0.25381473 -0.10864949 -0.02281304 0.0050620358 0.07407089
-0.11489316 -0.47083807 -0.030703308 0.079301275 -0.32307625 0.40309653 -0.027752839 -0.26376885
-0.4888389 0.27795494 0.1427177 -0.14618973 0.11870045 -0.29369077 0.14332865 0.32265902
-0.2096397 -0.57468563 0.22375126 -0.2782828 0.03913416 0.07794525 0.078057006 -0.024295723
0.22263366 -0.7057579 0.17085145 0.49819696 -0.11826831 -0.0241523 -0.008774569 0.07290563
-0.29443586 -0.12789087 0.21434852 -0.15319337 0.25742087 -0.12002668 0.08373442 -0.16848215
-0.035315067 -0.124274716 0.07441229 -0.026272018 -0.16574031 0.06612103 -0.099604376 0.03342932
-0.11759776 -0.111681916 0.056515243 0.1371595 -0.089240484 -0.15302946 0.021864943 -0.124497086
-0.07361695 0.10941692 0.02347615 0.07530771 -0.06170464 -0.11159251 -0.07569515 -0.010708951
0.04864733 -0.11841733 -0.07922677 -0.11050471 0.08245291 -0.12379672 0.022198359 -0.13560976
-0.008166407 -0.070040084 0.015144897 -0.09080512 -0.08249017 -0.06863935 0.076574326 -0.03690134
0.0048594708 -0.06712687 0.07951734 0.05897769 -0.0069673806 0.0026646645 0.0025715313 -0.041382924
-0.13645914 -0.04035473 -0.12784617 0.0630439 0.032572493 0.048215188 0.049921397 0.08032947
-0.1622683 -0.1103557 -0.05621722 -0.15854295 0.012658233 -0.15077935 -0.1224854 0.00026073
00000000: 9835 e2bd 1d5d dabd cb3e 453d 5e92 c8bb
00000010: 20ef c1bc 9ebc bfbd 07d0 87bd 2320 96bd
00000020: 7ac9 0c3c d756 ddbd f8ec a63b 57bc c13d
00000030: 6629 efbd eddf 05bd f382 2a3d 8842 38bd
00000040: d612 ab3d 090e 283d 43e6 9ebc 8a2a bcbd
00000050: 8d90 c7bd ce0e 86bd e4b1 c6bc 9bab 82bd
00000060: 4678 86ba 101e debc c48a aabc c407 ab3b
00000070: c1b3 9cbd 1bb7 a03d 2155 cd3d 0f11 923c
00000080: cc43 3dbe f33d 843d a92e 1e3d 1a91 c3bd
00000090: 6efc 99bc 360d ae3c f700 79bd e4ab c73c
000000a0: 46f5 86bd 2038 12be 52a3 69bd 1af7 ce3c
000000b0: aee9 be3d b37a 1fbe 519c 1cbe a70e 00be
000000c0: ec57 8e3d bd3d 22be 6422 a23d 9b06 97bd
000000d0: 3fe9 7a3d c810 143d 4bac fdbd c009 233d
000000e0: 1016 8a3c 1e44 10bc 4cc7 633d 934a 61bd
000000f0: 382e 133d 522f 8bbc 1879 003d 644a 0dbd
00000100: 2690 91bd 6091 b3bd 9c6a d4bd 47eb dd3d
00000110: 12ea e4bd 2aaf 233f d0e9 c03d db90 a83d
00000120: dd64 413f 3469 c93e 5623 22be 4070 66bf
00000130: df7f 90be 781e c03f 8343 843c 055e d53e
00000140: ea20 3bbd 2239 e0be 7c90 d03d c28a 5cbf
00000150: caea fdbd 170a d3bd 818e 1dbe da7f cfbd
00000160: e266 713f e8e9 f5be f5de ad3d b8f6 dfbd
00000170: fe45 babe ffa0 62bf 4b15 e7be a83f c2be
00000180: b4f8 41bf 8f33 0e3f e08f 93bb cf2d 80be
00000190: e601 743f 8837 c13d b33f 3e3f ea63 0c3d
000001a0: 4ddd 51be f3b9 593e 0b03 e0be 2272 253e
000001b0: 00b8 d1bb 2d6a 243e f984 b4be b302 17be
000001c0: a81c 75bd ff58 53bf b756 a53b ce43 10bd
000001d0: be11 643f d553 243e b6dc 823e 50d8 473d
000001e0: 588c 633f 86c1 39bf e110 9ebf e7be 2d3f
000001f0: 6ca1 05bf 9e52 69be 9b17 0dbf 30e2 f7be
00000200: edf2 50bc 6e28 8bbd b867 1b3d c71c 923e
00000210: 748f 4f3e e749 2dbe 01ef 89bd 8bce a03d
00000220: 7f39 88bb 500e 263d 9f9a d3bb 63cd 0cbf
00000230: 8e4c 6fbf 591c 4e3d 0610 36bf 136d f4bd
00000240: b96e e83d 6bf8 a8bd d3b7 293d 01f4 81be
00000250: a083 debd 6ae2 babc 6fdf a53b 7bb2 973d
00000260: 1b4d ebbd b011 f1be 8185 fbbc b568 a23d
00000270: 406a a5be ab62 ce3e ec59 e3bc b60c 87be
00000280: 1849 fabe 1c50 8e3e 9724 123e c3b2 15be
00000290: 3919 f33d a35e 96be bfc4 123e 9033 a53e
000002a0: caab 56be 991e 13bf 0d1f 653e 157b 8ebe
000002b0: 244b 203d c2a1 9f3d 5adc 9f3d d307 c7bc
000002c0: 14fa 633e 8dac 34bf aff3 2e3e ac13 ff3e
000002d0: a836 f2bd 0bdb c5bc 36c3 0fbc 8c4f 953d
000002e0: 4cc0 96be d3f5 02be 2e7e 5b3e b9de 1cbe
000002f0: abcc 833e 8cd0 f5bd f47c ab3d 9686 2cbe
00000300: 88a6 10bd be83 febd 7865 983d 6a38 d7bc
00000310: d4b7 29be 766a 873d 61fd cbbd 2fed 083d
00000320: 18d7 f0bd 7db9 e4bd 877c 673d 8a73 0c3e
00000330: b7c3 b6bd c1b3 1cbe 1c1e b33c 54f8 febd
00000340: 7cc4 96bd fa15 e03d 0e51 c03c ee3a 9a3d
00000350: 01be 7cbd 9d8a e4bd 0f06 9bbd 9974 2fbc
00000360: 6c42 473d c984 f2bd a541 a2bd 4b50 e2bd
00000370: 12dd a83d 2289 fdbd 55d9 b53c 49dd 0abe
00000380: 65cc 05bc 2d71 8fbd 4d22 783c 09f8 b9bd
00000390: 9bf0 a8bd ca92 8cbd 00d3 9c3d dc25 17bd
000003a0: 323c 9f3b d079 89bd fdd9 a23d 9792 713d
000003b0: a04e e4bb a7a1 2e3b 2387 283b 2481 29bd
000003c0: f2bb 0bbe 004b 25bd 1bea 02be 291d 813d
000003d0: bc6a 053d 4a7d 453d 617a 4c3d c783 a43d
000003e0: a929 26be 2b02 e2bd 0744 66bd 1559 22be
000003f0: 7a64 4f3c e765 1abe a0d9 fabd 97b2 8839

fc2.bias f4 [64]
-0.019234853 2.3703744 0.47733504 -0.021334082 1.2582129 -0.028578002 2.165284 2.4950523
-0.08658804 1.5848976 -0.019659542 0.57020664 0.00820366 0.031350583 1.4090385 0.056310352
-0.095893934 -0.054406706 -0.14434196 0.007621809 0.06685119 1.7426566 0.2319321 2.2775865
2.4709668 0.27432743 -0.0064124716 -0.10116156 1.439292 0.51853734 -0.0038202794 -0.03545591
2.4024124 2.4099133 1.5689371 -0.032397926 1.4538137 2.2605515 2.168869 0.5606783
-1.8430591 -0.051936805 2.0029364 -0.029644728 -0.047853835 0.0013005504 -0.035355553 0.03658794
2.1671443 0.06153239 -0.044363193 2.7027373 -0.03355971 0.010309855 -0.066128485 -0.1325389
1.8760484 2.061681 0.7659976 1.5651785 0.03490083 -0.009535595 0.9626092 -0.4759966
00000000: 6992 9dbc 37b4 1740 4265 f43e d0c4 aebc
00000010: 1f0d a13f 6a1c eabc 0394 0a40 f0ae 1f40
00000020: 1255 b1bd eddd ca3f 0c0d a1bc 10f9 113f
00000030: a568 063c 7869 003d 605b b43f afa5 663d
00000040: 0a64 c4bd 91d9 5ebd 61ce 13be 5ec0 f93b
00000050: 47e9 883d 5f0f df3f 9c7f 6d3e fac3 1140
00000060: 5224 1e40 a574 8c3e b61f d2bb cb2d cfbd
00000070: b83a b83f ddbe 043f a75d 7abb 373a 11bd
00000080: 20c1 1940 053c 1a40 eed2 c83f b0b3 04bd
00000090: 9116 ba3f e0ac 1040 c0ce 0a40 9d88 0f3f
000000a0: 5ce9 ebbf b0bb 54bd 1c30 0040 80d9 f2bc
000000b0: 6202 44bd 3b77 aa3a fcd0 10bd 3cdd 153d
000000c0: 7eb2 0a40 6309 7c3d 2eb6 35bd a6f9 2c40
000000d0: e875 09bd abea 283c 5f6e 87bd 47b8 07be
000000e0: 5b22 f03f 95f2 0340 6b18 443f c557 c83f
000000f0: 2cf4 0e3d 2f3b 1cbc 8e6d 763f d4b5 f3be

fc3.weight f4 [20, 64]
0.079867534 0.5445622 0.014572127 -0.078615814 0.35919818 0.058158115 0.46949393 -1.0845937
0.049645722 0.19029732 0.036431942 -0.26778433 -0.050914273 -0.10501909 0.023911228 0.06443718
0.03559002 0.03355819 0.08808562 0.045182765 0.055908017 0.17381445 0.01607763 -0.6372416
0.6081087 -0.14357294 -0.033511277 0.05224228 0.03506796 0.014861771 0.0230792 0.010465872
0.58534193 0.44176018 -0.81880575 -0.071593374 0.5053016 0.3462826 0.43067318 0.18639357
-0.6915718 0.046929948 0.22943987 0.066303924 -0.0061395904 -0.049228482 0.05126001 0.041167736
0.544011 -0.07009319 -0.07949499 0.6497552 0.02223375 0.013163196 0.028899625 -0.017054418
0.14417385 0.2830695 -0.06340766 -0.019173386 0.13349378 0.13576248 -0.79812557 0.11385206
0.08484458 0.5505212 0.14906567 -0.053352434 0.26477703 -0.050726727 0.42041913 -0.8614011
-0.11283677 0.33965826 0.07196236 -0.041564636 0.061753068 -0.037464097 0.2631487 -0.019085838
0.01972565 -0.005463749 -0.023889663 -0.017547274 0.12494825 -0.29971045 -0.058325756 -0.53190213
0.7095203 0.006275778 0.042582482 0.013130421 0.106111854 0.09338306 0.04869899 -0.038495783
0.58095366 0.5679696 -0.61012775 0.11935404 0.40462744 0.48890075 0.40365723 0.30722117
0.27652442 0.13735323 0.108600244 0.039927006 0.030725181 -0.081186295 -0.12337224 0.09863928
0.46148553 0.12909788 0.07181464 0.52792263 -0.041944116 -0.086858116 -0.0798486 0.37408704
0.5014432 0.31469592 -0.24766928 0.16207457 0.08157373 0.46783242 -0.8774127 0.14234276
-0.06384857 0.5393304 0.16495052 0.13124368 -0.08251446 -0.019484103 0.28381038 -0.85719377
0.050178446 0.51483345 -0.11318722 0.13952516 -0.118874714 -0.098151654 0.44198707 -0.036484104
0.09914604 -0.12452462 0.030103527 -0.07704372 -0.10168417 -0.29896325 0.36876377 -0.42187476
0.58701295 0.0164393 -0.023226552 0.056790926 0.32704002 -0.05461532 -0.049872935 -0.100647464
0.6834692 0.45423722 -0.67243636 0.037459612 0.3008253 0.49010053 0.43208858 0.41582224
-0.3097246 0.02134153 0.11080222 0.11690602 0.1102763 -0.06809545 -0.08120632 0.057616666
0.5928936 -0.02024442 -0.08143962 0.54711014 0.0077080727 0.104701 0.061205443 -0.33186868
0.092117324 0.334892 -0.09238868 0.3526405 0.077818595 -0.06616312 -0.44838637 0.21345812
-0.025670374 0.49746978 0.10329991 -0.13331497 -0.061875667 0.0056795115 0.5303118 -0.76568884
0.015169112 0.46773165 0.025091663 -0.004122554 0.09809357 0.020158127 0.018172633 0.020497743
-0.11850241 -0.084066555 -0.032881696 0.08681156 -0.11138389 -0.34214374 0.33550394 -0.56221473
0.64150214 -0.07944467 -0.072759576 0.016830148 0.08011513 -0.14005037 -0.010754448 -0.15294005
0.55151135 0.473127 -0.62797695 0.058536574 0.38702214 0.31907794 0.39864555 0.05319597
-0.150228 0.025007265 0.3533628 0.00325872 0.073788255 -0.1635051 -0.09243436 -0.0463434
0.4605471 0.02422308 0.010932878 0.60492736 0.08412419 0.37156525 0.08701517 0.50195444
0.17874534 0.30864066 -0.32973075 0.7285868 -0.04211681 0.34001336 -0.2547611 0.39930603
00000000: 9791 a33d 6e68 0b3f eebf 6e3c 5401 a1bd
00000010: d3e8 b73e 3437 6e3d 8261 f03e f7d3 8abf
00000020: 5059 4b3d 4ddd 423e a939 153d 071b 89be
00000030: 7c8b 50bd 4014 d7bd 7be1 c33c a4f7 833d
00000040: d7c6 113d 5074 093d 3c66 b43d 9011 393d
00000050: ceff 643d 6afc 313e 3cb5 833c 4422 23bf
00000060: 03ad 1b3f c904 13be 1f43 09bd 00fc 553d
00000070: 6ca3 0f3d c97e 733c 9710 bd3c 0c79 2b3c
00000080: f8d8 153f 642e e23e 419d 51bf 8c9f 92bd
00000090: 725b 013f f44b b13e 3281 dc3e f5dd 3e3e
000000a0: d90a 31bf 9e39 403d 49f2 6a3e 5aca 873d
000000b0: 9e2e c9bb cea3 49bd 04f6 513d 809f 283d
000000c0: 4e44 0b3f 058d 8fbd 45ce a2bd 5b56 263f
000000d0: 8e23 b63c 72aa 573c e8be ec3c b5b5 8bbc
000000e0: 4fa2 133e 7cee 903e e0db 81bd 8111 9dbc
000000f0: 98b2 083e 5205 0b3e f551 4cbf 452b e93d
00000100: ffc2 ad3d f5ee 0c3f aca4 183e 1588 5abd
00000110: db90 873e d4c6 4fbd 2d41 d73e c884 5cbf
00000120: f716 e7bd b0e7 ad3e 0061 933d ae3f 2abd
00000130: c9f0 7c3d f473 19bd 6dbb 863e e759 9cbc
00000140: b097 a13c 4009 b3bb 41b4 c3bc 4dbf 8fbc
00000150: dee4 ff3d a673 99be fde6 6ebd bd2a 08bf
00000160: 1fa3 353f 0ba5 cd3b f86a 2e3d fa20 573c
00000170: 2c51 d93d 9e3f bf3d 9878 473d c1ad 1dbd
00000180: 61b9 143f 7566 113f 5531 1cbf e46f f43d
00000190: 542b cf3e 3351 fa3e 29ac ce3e 184c 9d3e
000001a0: 9c94 8d3e 53a6 0c3e ce69 de3d 808a 233d
000001b0: 60b3 fb3c 0045 a6bd 96aa fcbd 6403 ca3d
000001c0: d547 ec3e 3c32 043e 8e13 933d f025 073f
000001d0: 98cd 2bbd abe2 b1bd aa87 a3bd 5688 bf3e
000001e0: 955e 003f d31f a13e 049d 7dbe e0f6 253e
000001f0: 2110 a73d bb87 ef3e 1e9e 60bf 4dc2 113e
00000200: 0ac3 82bd 8f11 0a3f cae8 283e be64 063e
00000210: 57fd a8bd 209d 9fbc 984f 913e 0d71 5bbf
00000220: ea87 4d3d 20cc 033f b4ce e7bd afdf 0e3e
00000230: 9674 f3bd bc03 c9bd 214c e23e 5b70 15bd
00000240: 140d cb3d c406 ffbd ac9b f63c 19c9 9dbd
00000250: ca3f d0bd b611 99be 9bce bc3e f8ff d7be
00000260: 7b46 163f b6ab 863c 9c45 bebc 9a9d 683d
00000270: ca71 a73e 50b4 5fbd 9047 4cbd 4220 cebd
00000280: d6f7 2e3f c891 e83e ca24 2cbf 406f 193d
00000290: c605 9a3e 75ee fa3e b73a dd3e a7e6 d43e
000002a0: 3994 9ebe 6fd4 ae3c 46ec e23d 6c6c ef3d
000002b0: 8ad8 e13d a175 8bbd 804f a6bd 74ff 6b3d
000002c0: e0c7 173f a0d7 a5bc d1c9 a6bd 690f 0c3f
000002d0: 0094 fc3b 7a6d d63d 8fb2 7a3d b1ea a9be
000002e0: 02a8 bc3d f776 ab3e 4736 bdbd 4c8d b43e
000002f0: 5b5f 9f3d 8880 87bd e692 e5be c494 5a3e
00000300: ad4a d2bc 5cb4 fe3e e78e d33d b883 08be
00000310: 5771 7dbd 321b ba3b 84c2 073f 2f04 44bf
00000320: de87 783c 867a ef3e 088d cd3c 7d16 87bb
00000330: 48e5 c83d a822 a53c c6de 943c e2ea a73c
00000340: 64b1 f2bd 162b acbd f5ae 06bd 42ca b13d
00000350: 3d1d e4bd 772d afbe 2cc7 ab3e 4eed 0fbf
00000360: 7c39 243f e3b3 a2bd f902 95bd 61df 893c
00000370: 6713 a43d 5d69 0fbe 6d33 30bc 519c 1cbe
00000380: d92f 0d3f b43d f23e 19c3 20bf 0cc4 6f3d
00000390: c427 c63e 2f5e a33e 451b cc3e 04e4 593d
000003a0: 5ed5 19be 09dc cc3c f8eb b43e 4090 553b
000003b0: 4c1e 973d e26d 27be 3a4e bdbd 94d2 3dbd
000003c0: d4cc eb3e 7b6f c63c d01f 333c 85dc 1a3f
000003d0: 4e49 ac3d cd3d be3e 0235 b23d 1680 003f
000003e0: 0509 373e 2606 9e3e 78d2 a8be aa84 3a3f
000003f0: ad82 2cbd 3b16 ae3e 0c70 82be d771 cc3e

fc3.bias f4 [20]
2.540646 0.7936749 0.4208131 0.8548893 0.38000354 0.57518333 0.33200428 0.38480008
0.33522397 0.4561477 0.45422912 0.04009559 0.1916955 0.03858259 0.05848982 0.119829394
-0.18553585 -0.032798305 -0.50853795 -0.31957617
00000000: f299 2240 472e 4b3f d174 d73e 06da 5a3f
00000010: d38f c23e 373f 133f 77fc a93e 8404 c53e
00000020: 7aa2 ab3e 318c e93e b890 e83e 463b 243d
00000030: d34b 443e c708 1e3d 0693 6f3d 1d69 f53d
00000040: 1cfd 3dbe 8457 06bd 8b2f 02bf 7d9f a3be

exp_avg f4 [64, 3]
6e-45 6e-45 6e-45 0.0 0.0 0.0 0.0 0.0
0.0 6e-45 6e-45 6e-45 11.218151 2.1083899 20.573256 -3.5430136
0.41912603 22.805367 -20.031973 -8.894158 -98.35333 14.550353 5.546799 52.762314
-6.706981 -0.90329 6.9420815 0.029973678 0.3917647 0.112918384 -6.268839 -2.3489327
-36.87279 42.922287 6.5143213 81.158066 -3.9537644 -1.3733076 -19.302416 -14.973153
-4.2528224 12.208853 2.1457145 1.1689608 2.2486556 -0.44171792 1.3070395 23.578903
0.0 0.0 0.0 6e-45 6e-45 6e-45 6e-45 6e-45
6e-45 40.81171 30.285044 265.70325 6e-45 6e-45 6e-45 6e-45
6e-45 6e-45 6e-45 6e-45 6e-45 0.13772988 0.017616939 0.6734036
-12.183469 -2.7840092 1.9349232 4.966792 -1.4000676 4.3653526 -18.910362 -7.821045
-84.63552 -6e-45 -6e-45 6e-45 2.2195888 0.48304722 1.8822017 -0.09143942
-0.83145976 -0.09143942 6e-45 6e-45 6e-45 -1.9882897 -6.5223017 -7.0227337
38.293873 20.55536 138.97589 -0.833637 -3.012359 -0.62951404 6e-45 6e-45
6e-45 1.8767453 -2.7051556 0.7706825 0.059970774 0.5056927 0.059970774 6e-45
6e-45 6e-45 -2.7121782 0.6442553 34.039867 6e-45 6e-45 6e-45
6e-45 6e-45 6e-45 0.0004590903 0.00022954516 0.0004590903 -2.833025 -6.972436
-83.56006 1.177811 1.5540507 19.212603 0.0 0.0 0.0 1.1935177
0.21060975 1.6273097 6e-45 6e-45 6e-45 6e-45 6e-45 6e-45
0.015207669 0.5467452 -1.5028028 28.525875 -0.5632971 30.582308 -6e-45 -6e-45
6e-45 0.00029695703 0.00014847852 0.00029695703 6e-45 6e-45 6e-45 -0.15363978
-0.5900187 -0.08345492 -0.057013698 -0.26069495 -0.057496898 0.0 0.0 0.0
-13.108342 -3.28701 -14.987748 0.0008899005 0.00044495024 0.0008899005 0.0012344815 0.00062996364
0.0012344815 -5.4517736 -0.98307747 9.663606 6e-45 6e-45 6e-45 6.387388
-3.8271317 -1.4315655 -6e-45 -6e-45 6e-45 3.6850593 2.780021 7.689669
00000000: 0400 0000 0400 0000 0400 0000 0000 0000
00000010: 0000 0000 0000 0000 0000 0000 0000 0000
00000020: 0000 0000 0400 0000 0400 0000 0400 0000
00000030: 8c7d 3341 dcef 0640 0796 a441 bcc0 62c0
00000040: b097 d63e 6471 b641 7b41 a0c1 794e 0ec1
00000050: e8b4 c4c2 3fce 6841 617f b140 9c0c 5342
00000060: 979f d6c0 033e 67bf 8825 de40 5c8b f53c
00000070: 6295 c83e c141 e73d 549a c8c0 ea54 16c0
00000080: bd7d 13c2 6cb0 2b42 5275 d040 ee50 a242
00000090: 7a0a 7dc0 8bc8 afbf 596b 9ac1 0992 6fc1
000000a0: 1f17 88c0 7657 4341 6353 0940 82a0 953f
000000b0: f9e9 0f40 da28 e2be 124d a73f 98a1 bc41
000000c0: 0000 0000 0000 0000 0000 0000 0400 0000
000000d0: 0400 0000 0400 0000 0400 0000 0400 0000
000000e0: 0400 0000 313f 2342 c547 f241 04da 8443
000000f0: 0400 0000 0400 0000 0400 0000 0400 0000
00000100: 0400 0000 0400 0000 0400 0000 0400 0000
00000110: 0400 0000 1009 0d3e 6651 903c 2e64 2c3f
00000120: 7def 42c1 352d 32c0 90ab f73f f6ef 9e40
00000130: 6a35 b3bf f8b0 8b40 6c48 97c1 0046 fac0
00000140: 6345 a9c2 0400 0080 0400 0080 0400 0000
00000150: be0d 0e40 f751 f73e fceb f03f 9744 bbbd
00000160: 8cda 54bf 9744 bbbd 0400 0000 0400 0000
00000170: 0400 0000 4780 febf b2b6 d0c0 3cba e0c0
00000180: ed2c 1942 6171 a441 d4f9 0a43 3c69 55bf
00000190: 7dca 40c0 d527 21bf 0400 0000 0400 0000
000001a0: 0400 0000 3139 f03f 4521 2dc0 734b 453f
000001b0: eaa3 753d 1475 013f eaa3 753d 0400 0000
000001c0: 0400 0000 0400 0000 5494 2dc0 eaed 243f
000001d0: d328 0842 0400 0000 0400 0000 0400 0000
000001e0: 0400 0000 0400 0000 0400 0000 0fb2 f039
000001f0: 0fb2 7039 0fb2 f039 4850 35c0 321e dfc0
00000200: c01e a7c2 83c2 963f 22eb c63f 69b3 9941
00000210: 0000 0000 0000 0000 0000 0000 30c5 983f
00000220: 15aa 573e af4b d03f 0400 0000 0400 0000
00000230: 0400 0000 0400 0000 0400 0000 0400 0000
00000240: 9629 793c 7ef7 0b3f d85b c0bf fe34 e441
00000250: 3d34 10bf 91a8 f441 0400 0080 0400 0080
00000260: 0400 0000 e6b0 9b39 e6b0 1b39 e6b0 9b39
00000270: 0400 0000 0400 0000 0400 0000 bf53 1dbe
00000280: 770b 17bf 6aea aabd 3287 69bd cf79 85be
00000290: de81 6bbd 0000 0000 0000 0000 0000 0000
000002a0: c5bb 51c1 5f5e 52c0 d1cd 6fc1 3648 693a
000002b0: 3648 e939 3648 693a 53ce a13a 2524 253a
000002c0: 53ce a13a ee74 aec0 f7aa 7bbf 219e 1a41
000002d0: 0400 0000 0400 0000 0400 0000 7c65 cc40
000002e0: baef 74c0 8a3d b7bf 0400 0080 0400 0080
000002f0: 0400 0000 03d8 6b40 ddeb 3140 c511 f640

exp_avg_sq f4 [64, 3]
7e-43 7e-43 7e-43 0.0 0.0 0.0 0.0 0.0
0.0 7e-43 7e-43 7e-43 2272.9749 1649.7756 13100.009 504.69354
618.1426 60635.53 9683.657 9497.017 115867.336 4179.959 4119.2974 35456.12
1314.9111 1565.3762 82893.49 0.036139153 5.9536576 0.95765907 1162.8466 1268.1033
8202.66 50140.08 41192.32 245978.7 94.958664 28.021372 5072.3833 6925.299
7762.425 550540.94 198.88213 630.0581 234.61465 136.12657 188.4649 23523.787
0.0 0.0 0.0 5.229911e-15 1.7019399e-12 8.392258e-15 4.7988787e-14 9.219625e-12
4.888866e-13 30412.08 27525.053 257659.08 7e-43 7e-43 7e-43 7e-43
7e-43 7e-43 1.4113439e-28 3.5306234e-31 1.4135653e-28 4.5986347 0.20599425 180.32104
4156.4536 4625.982 254925.28 2252.3784 2624.6152 5589.784 8114.6313 8018.774
107553.59 7e-43 7.89e-43 8.726111e-39 178.5808 220.46318 249.77037 0.3646653
31.175594 0.5357327 1.1528344e-05 0.00018796213 3.33524e-05 2843.8213 4624.185 4481.778
34355.78 30068.102 214409.1 12.379118 154.22112 20.237679 2.0937365e-33 8.412677e-36
2.9858201e-33 1277.2758 2770.8333 2423.1423 0.29104093 24.800734 0.3625167 2.209489e-27
7.112691e-25 2.1212354e-26 637.9103 902.05994 115474.94 7e-43 7e-43 7e-43
7e-43 7e-43 7e-43 0.0025517733 0.0006918179 0.023381025 167.53474 342.6797
43033.19 25.43431 34.06759 1973.1555 0.0 0.0 0.0 12.7298
0.3427393 32.12262 5.9155504e-05 0.018541057 0.00032084866 7e-43 7e-43 7e-43
28.091434 252.00792 14717.88 22835.264 17341.375 90885.46 7e-43 7e-43
7e-43 0.014232522 0.0010743008 0.015207651 7.602721e-12 6.842463e-11 7.602721e-12 1.9588157
12.971911 7.9859366 0.8293005 31.038498 1.4668516 0.0 0.0 0.0
4159.9775 4482.999 185164.64 0.011993817 0.0029984543 0.011993817 0.025529424 0.020042023
0.025902664 1054.6764 1177.3845 101459.07 9.041912e-28 1.6430176e-27 1.5814056e-22 2174.6863
2846.01 12916.445 7e-43 7e-43 7e-43 62.326702 38.316616 273.80817
00000000: f401 0000 f401 0000 f401 0000 0000 0000
00000010: 0000 0000 0000 0000 0000 0000 0000 0000
00000020: 0000 0000 f401 0000 f401 0000 f401 0000
00000030: 990f 0e45 d238 ce44 09b0 4c46 c658 fc43
00000040: 2089 1a44 88db 6c47 a14e 1746 1164 1446
00000050: ab4d e247 ac9f 8245 61ba 8045 1f80 0a47
00000060: 285d a444 0aac c344 bfe6 a147 a606 143d
00000070: 5d84 be40 2529 753f 175b 9144 4e83 9e44
00000080: a42a 0046 14dc 4347 52e8 2047 ad36 7048
00000090: d6ea bd42 c52b e041 1183 9e45 646a d845
000000a0: 6693 f245 cf68 0649 d3e1 4643 b883 1d44
000000b0: 5a9d 6a43 6720 0843 0477 3c43 93c7 b746
000000c0: 0000 0000 0000 0000 0000 0000 6a6d bc27
000000d0: d986 ef2b 752e 1728 4e1f 5829 8031 222d
000000e0: fe9b 092b 2998 ed46 1b0a d746 c59e 7b48
000000f0: f401 0000 f401 0000 f401 0000 f401 0000
00000100: f401 0000 f401 0000 bae8 3211 8b26 e50c
00000110: d130 3311 0428 9340 28f0 523e 3052 3443
00000120: a1e3 8145 db8f 9045 52f3 7848 0ec6 0c45
00000130: d809 2445 46ae ae45 0d95 fd45 3196 fa45
00000140: cc10 d247 f401 0000 3302 0000 d904 5f00
00000150: af94 3243 9376 5c43 37c5 7943 69b5 ba3e
00000160: 9e67 f941 c725 093f dc69 4137 b317 4539
00000170: dee3 0b38 24bd 3145 7b81 9045 390e 8c45
00000180: c833 0647 34e8 ea46 4662 5148 de10 4641
00000190: 9b38 1a43 c4e6 a141 daf0 2d09 f8ea 3205
000001a0: 5f0d 7809 d3a8 9f44 552d 2d45 4772 1745
000001b0: 5103 953e e767 c641 ca9b b93e c30d 2f13
000001c0: 8b20 5c17 b513 d214 427a 1f44 d683 6144
000001d0: 7889 e147 f401 0000 f401 0000 f401 0000
000001e0: f401 0000 f401 0000 f401 0000 a73b 273b
000001f0: 1d5b 353a 9089 bf3c e588 2743 0057 ab43
00000200: 3119 2847 7879 cb41 3645 0842 faa4 f644
00000210: 0000 0000 0000 0000 0000 0000 43ad 4b41
00000220: 877b af3e 907d 0042 bd1d 7838 6ae3 973c
00000230: 9437 a839 f401 0000 f401 0000 f401 0000
00000240: 42bb e041 0702 7c43 85f7 6546 8766 b246
00000250: c07a 8746 bb82 b147 f401 0000 f401 0000
00000260: f401 0000 862f 693c 8ecf 8c3a 8329 793c
00000270: 9dbf 052d a477 962e 9dbf 052d 79ba fa3f
00000280: f38c 4f41 cb8c ff40 0a4d 543f d84e f841
00000290: cbc1 bb3f 0000 0000 0000 0000 0000 0000
000002a0: d2ff 8145 fe17 8c45 29d3 3448 b781 443c
000002b0: b781 443b b781 443c 1523 d13c 2b2f a43c
000002c0: d331 d43c a5d5 8344 4e2c 9344 8929 c647
000002d0: 5a46 8f12 5b2c 0213 222e 3f1b fbea 0745
000002e0: 29e0 3145 c8d1 4946 f401 0000 f401 0000
000002f0: f401 0000 8b4e 7942 3744 1942 72e7 8843
