beer/experiments/DQN_0.01/models/dqn_agent_firm_1_final.pth (torch, 100986 bytes, 24 tensors)

fc1.weight f4 [64, 3]
00000000: 5a9e ca3d 82b9 a43d 015a 38be 80b6 bc3b
00000010: e0ce e1bd 3074 c3be f8f8 3c3e d740 01bf
00000020: 7ee2 53be 4e2e 8dbd 7d63 d63e ecf8 d2be
00000030: 74c8 7c3e 31bd 9b3e 2ad4 c53d 98e6 593e
00000040: c9d6 5a3e f7a7 853d be46 bc3e 4800 f9be
00000050: 9441 a8be fc37 2a3d ff59 87be 5b24 473e
00000060: 5920 52be 837e 2c3e 60ad 72be 2a65 1abe
00000070: 833d fabe c057 7dbc 7294 193f 9900 65bf
00000080: 6df9 f4bd b871 d7be e770 d7bf c90d ec3d
00000090: 9525 a43d 3838 753d 4173 a4bd 881e 7bbe
000000a0: 35d1 8ebe eabe 053e fc85 12c0 490d 0dbf
000000b0: e4e4 e33c d27d 12be 3f58 9abe 6baa 51bd
000000c0: 5587 693d e763 cfbe bb2f 15be cd41 3cbe
000000d0: fa7a edbe 04a7 6dbc dd09 c83e d9b4 043e
000000e0: e47b 0dbf a58c 403e 600d 333e 6527 30be
000000f0: 3710 cebe a8e2 f43e ebf7 1b3e 9eaa 6ebe
00000100: ac96 f9bd 2000 98bc db69 b73d 270d 91bd
00000110: b823 b7bd 5b9f 8fbe f2c8 9abd 2b7e 86b9
00000120: f907 073e 5697 bcbc 845e db3d 0076 893b
00000130: 080d 91be fcd7 aabd 446b 99bf 7339 643e
00000140: dc70 f0be bce9 04bf 77fb 313e ead0 2e3d
00000150: 43ac 28bf 1278 98be 7e36 00bf dcc4 14be
00000160: a59a 9ebe 884b 25be e7a9 183e 4103 ccbf
00000170: 65e3 79bd 0b31 f4bd 7167 f4bd 6f56 c1be
00000180: 9f67 d03c 0939 f4be 447d cf3e cea2 333e
00000190: bd7b 52be c50d 31be 7210 0ebf 7fea 543d
000001a0: e104 5dbf a178 4cbf 5323 0bbd b1dd 26be
000001b0: e574 193e 3922 5fbe 8c22 19be 9269 073f
000001c0: 7269 9fbe 5b74 0dbf b1d2 f1be e8f4 11bf
000001d0: 0ad8 aebd 46e6 a3bf 8aff cc3d 3021 d9be
000001e0: e4a9 adbc 365e 5cbd f4e8 e9bd d1e9 863e
000001f0: e105 63bf a83a 94be 7654 a3be 9662 a43d
00000200: 9858 cd3d 3aaa 76be 20d4 f0bd 0008 4cbc
00000210: 06d0 b5be e774 52bb c6da cb3d f28a 55bf
00000220: 1e3b 23bf a5a1 a23e 38b3 f23d dc93 f3be
00000230: 3def e3be 4fdc da3c c897 013e a3cf 4dbf
00000240: ea7a 0dbf bbd1 97bf b243 d43c ec20 223f
00000250: 03f9 013f 588c b43e 314e 16be 8a20 6b3e
00000260: d22c dcbe 71d2 1dbf 5bee 1c3e 0622 2abe
00000270: b4ab a63d 5667 563e 0498 e83d 5102 46be
00000280: 5aa4 06be a526 2bbd 71c9 783e 53ec 293f
00000290: 70d6 b13e 9ffd 03bf 6416 e1be b03b 38bd
000002a0: 4189 f83e ec0e 30be ef75 3c3e a2ff 4cbf
000002b0: b5c5 c0be 8301 ffbd 45d5 283f ea6d 4ebf
000002c0: 7354 3ebe 5735 b2bf 04f2 28bf 5ae4 473e
000002d0: 4a20 5fbe 5938 a53d 04f9 52bf 5344 88be
000002e0: 0038 efbc ccbb c5bd f8f2 02be e34b 24bf
000002f0: 1f98 bbbd 50d5 69be 4fa0 26bf 213b b0bd
0.098934844 0.08043195 -0.18003084 0.0057590604 -0.110257864 -0.38174582 0.18454349 -0.5048956
-0.20691869 -0.068935975 0.4187278 -0.41205537 0.24685842 0.3041778 0.09659608 0.21279371
0.21370997 0.065261774 0.36772722 -0.48633027 -0.32862532 0.041557297 -0.2643585 0.19447462
-0.20520152 0.16845135 -0.2369895 -0.15077654 -0.48875055 -0.015462816 0.59992135 -0.89454037
-0.11961637 -0.42078948 -1.683133 0.11526067 0.08014981 0.059868068 -0.080297954 -0.24523365
-0.27893987 0.13061109 -2.2894278 -0.55098397 0.027819104 -0.14305809 -0.3014545 -0.051187914
0.05701383 -0.40505907 -0.14568989 -0.18384476 -0.46382886 -0.014505152 0.39070025 0.12959613
-0.5526717 0.18803652 0.17485571 -0.17202528 -0.40246746 0.47829175 0.15231292 -0.23307273
-0.121869415 -0.018554747 0.08955737 -0.07082587 -0.0894236 -0.28051266 -0.075578585 -0.00025652474
0.13186635 -0.023021381 0.10711387 0.004194975 -0.28330255 -0.08341977 -1.198586 0.2228754
-0.46961105 -0.5191915 0.17381082 0.042679705 -0.6588785 -0.29779106 -0.5008315 -0.14528221
-0.3097736 -0.16142094 0.14908563 -1.5938493 -0.061007876 -0.11923417 -0.119337924 -0.37761256
0.025440035 -0.47699764 0.40525258 0.17542574 -0.20555015 -0.17290409 -0.55493844 0.051981445
-0.8633557 -0.79871565 -0.033969235 -0.16295506 0.14985998 -0.21790399 -0.14954585 0.5289546
-0.31135136 -0.5525567 -0.47231057 -0.5701432 -0.085373 -1.2804649 0.10009678 -0.42408133
-0.021199174 -0.053800784 -0.114213854 0.26350263 -0.88680845 -0.28951 -0.31900376 0.08026616
0.100266635 -0.24088374 -0.1175921 -0.012453079 -0.35510272 -0.0032113136 0.09953837 -0.8341514
-0.6376208 0.3176395 0.118505895 -0.47573745 -0.44518462 0.02671638 0.12655556 -0.80394953
-0.55265677 -1.186088 0.025911186 0.63331485 0.50770587 0.35263324 -0.14678265 0.22961631
-0.43002945 -0.61649233 0.153253 -0.16614541 0.081382185 0.20937857 0.1135712 -0.19336821
-0.13148633 -0.0417849 0.24295594 0.6637623 0.34733915 -0.5155887 -0.43962395 -0.044978797
0.48542216 -0.17193192 0.18404363 -0.80077565 -0.37650838 -0.1245146 0.65950423 -0.80636466
-0.18586902 -1.3922528 -0.65994287 0.19520703 -0.21789661 0.08067388 -0.8241122 -0.26614627
-0.029201508 -0.0965496 -0.12787998 -0.64178294 -0.09159874 -0.22835279 -0.6508836 -0.08605028

fc1.bias f4 [64]
00000000: b680 1d40 b0f0 3b3e b265 403e 7a26 6c40
00000010: 855a 4d40 fce3 2440 e5f5 aebe 0bf9 92bf
00000020: 759a b13f c982 d2be 743b 70bf ec51 53c0
00000030: 12c2 8840 bda2 8b40 9228 47c0 a247 b23f
00000040: 0a91 2540 4065 0440 dc9b 6b40 9518 8d40
00000050: f3e7 31c0 f43f 923e 7de5 943c bc22 3f40
00000060: a61c 4d40 60b2 643d c189 32c0 bac3 6440
00000070: db12 3240 00d9 673d fd9b 1740 2f11 5d40
00000080: 1e5a 2ac0 395d e73d 3713 2740 bc5d 3340
00000090: 1b6c d5be dae1 65be 65dc 4f40 ce4c 0d40
000000a0: f277 1840 7d0a 223f 3ecd 5e40 aeba debe
000000b0: 7e09 4c40 f4fc 90c0 3c65 eebe 6798 ae3f
000000c0: 3a20 34c0 7ef8 2bc0 3ffa fd3f 50c4 16bf
000000d0: 40a1 3b40 77f7 5040 4953 3fc0 481c a5bd
000000e0: d8d8 5540 25d5 5840 e4eb 2740 dc6e 8cc0
000000f0: 7974 27bf a497 cfbd 8f53 1e40 fc02 3540
2.460981 0.18353534 0.18788794 3.6898484 3.2086499 2.576415 -0.34171978 -1.1482252
1.3875262 -0.41115406 -0.9384072 -3.301875 4.27369 4.3636155 -3.1118512 1.3928111
2.5869775 2.0686798 3.681388 4.4092507 -2.779782 0.28564417 0.018175835 2.986495
3.2048736 0.055834174 -2.7896578 3.5744462 2.7824008 0.05660343 2.3688958 3.4541738
-2.6617503 0.11297078 2.6105478 2.802596 -0.4168404 -0.22449437 3.2478268 2.2078128
2.382321 0.63297254 3.481277 -0.435018 3.1880794 -4.530878 -0.4656161 1.364026
-2.814467 -2.6870418 1.9841994 -0.588933 2.931717 3.265104 -2.9894583 -0.08062035
3.34136 3.3880093 2.6237726 -4.3885326 -0.654121 -0.10136345 2.47385 2.8283072

fc2.weight f4 [64, 64]
00000000: 50cd 40be 8079 ea3a 148f f03d 6e3f 3d3f
00000010: 6ec2 d5be 6f07 fcbe 4e1a 773c cd60 033f
00000020: 2392 58bf 10c7 e2bc 7b2a 64bf fda3 1bbe
00000030: 3abd 57be 40a8 8d3f e950 3ebf cd9c 653e
00000040: bab2 31bd 074a 36bf 1733 a83f d599 1c3f
00000050: 5773 0cbf 4a32 fbbd ed36 85ba 9a2e eb3d
00000060: c507 e6bc f816 5b3d 473e a9bc ddb7 a5bd
00000070: 3352 9d3f 8cf0 8b3d ce58 0d3f d17a 40bd
00000080: 6e7b ff3e b29b e2be 45e7 983d 36ca e53e
00000090: e764 88be 7036 f1bd c6e7 b2be f793 333f
000000a0: fa45 3d3f 28af 04bf da30 fcbb 988a a03d
000000b0: 5a16 533e 3e7c a73e 5099 93bc cbfa 973e
000000c0: 847a a7be 828e 29bf 3c52 9fbe 50e2 c6be
000000d0: 641f b1be 7f62 933f d92c 3abf 4072 f03b
000000e0: 28d9 023d 1b96 4cbe 4606 9dbe ee08 bbbe
000000f0: 8c81 7dbd a255 b2bd 527a d83e d56b 093f
00000100: 42b0 0f3d 8a6e ba3d 3225 dc3d 4c31 97bc
00000110: 8064 973d 4cba 0bbe 7c5c 7a3d dcf1 ee3b
00000120: 8106 c0bd 9c2c b4bd 7134 ce3d 1fe4 e8bd
00000130: 9817 b7bd d2e2 a43b 5c77 06be f502 e0bd
00000140: 3c0f abbd bd81 0c3e 2ec0 7fbd 90c8 a8bc
00000150: 56eb 65bd 4237 e63d 5288 a9bd a0e8 fb3c
00000160: 633e b83c 5cee 1e3d 4ed0 0abe 9535 0abe
00000170: 6674 49be 90f5 b23c db53 463c a9bb 05be
00000180: 813a 09bc 60da 18be 3a7f 08be 8825 8fbd
00000190: b5c7 223c 4c64 6f3d c8f4 7bbd 5f75 0a3d
000001a0: 7bbe a7bd 068f c9bd 1b08 af3c c841 36bd
000001b0: 0cb3 b7bd 14eb a13d c697 84bd 3432 49bd
000001c0: 20da 023d 1d92 4bbd 0bb3 8ebc 9a3e 0cbe
000001d0: 8be1 0dbe 7109 03be e931 c3bc e2f5 f43d
000001e0: c852 7e3d 2991 82bd 2d30 a03d d08d f13c
000001f0: e6c3 203c 60ee b73c 1f5c cf3d 34be b6bd
00000200: bce6 9abd d8b7 e7bc e09e f0bc b059 bbbd
00000210: e8bb 08be 1529 8fbd 1e6f f23d 83de 0dbd
00000220: 4308 493d e8f1 fb3d 0071 9bba 8e2d 80bd
00000230: f84c 183d 4679 d9bc 86a7 f7bd 5513 48bd
00000240: 39a9 b73c c48a 8e3d 5887 76bd 40c3 eb3b
00000250: ad12 4a3d d86d 60bd df88 213d 609c 74bd
00000260: ccfd 16be 8628 d53d a2c3 abbc 30ca f5bd
00000270: 3263 8b3c 0825 b5bd 92ef f9bd 8429 2bbd
00000280: 52ac 34bd 3cc4 eebd 41b6 2ebd 562f f1bc
00000290: b8ea 8fbd e06d ebbd 0739 363d 92ce 793d
000002a0: 1a83 15be 348e 70bd eadf bfbc ac4e 583d
000002b0: 9606 aabd 0049 abbc 00f1 c1ba b0af 02be
000002c0: ca24 fbbd 826b f9bd e85c 04be d6ef 203b
000002d0: 93e8 6b3d 4ed5 d4bd 3a1f ba3d ca72 d93d
000002e0: 346b 9bbd 9146 dfbd 002c 863a 1ab0 d83d
000002f0: 77d6 2b3d f041 e93c bc69 01bd e867 debd
00000300: 6f3f 92be f412 cfbd 825c ab3d 214f 7cbf
00000310: 4020 9a3e 7db0 9f3e ae53 83bd 7cf7 cb3d
00000320: 292c 95bd a875 a4bc 3d49 0cbe 874c 9d3d
00000330: 1760 7dbf bbf4 0040 4f31 8cbe 7b04 d9be
00000340: a779 2b3e cc58 433e 6b84 9dbe 940e 4dbf
00000350: 195e d43c be51 90bd 7d9b 2dbc 8964 063f
00000360: c41e 033f fcb3 02bd a746 5fbf 984a 173f
00000370: 23cf a93e 4c44 2ebd ddb2 c23e e6a2 81be
00000380: 1bda 4e3e dbe1 9dbd a39e 5cbe b36c fe3e
00000390: 4f56 47bd c03a fbbc 5b38 303e 2cac 453e
000003a0: e747 c4bd 1f3e 45be 8b06 283f 2874 3f3d
000003b0: cc4c 313f 7ffb 34be 22ef da3d 33e0 88bf
000003c0: a6c3 883d 5700 0e3e d36b b6bd df40 533e
000003d0: 8c79 0b3f 1a81 883e 002e 9b3d 8ef7 993d
000003e0: 6625 383f 459b 3cbd b43f 4a3e f524 d1bd
000003f0: e43b 13bf b082 8ebc 4a61 dcbd 63d7 e4bc
-0.1882832 0.0017888993 0.1174604 0.7392491 -0.417499 -0.4922442 0.015081955 0.5131958
-0.84597987 -0.027682811 -0.8912732 -0.15199275 -0.21068278 1.1066971 -0.7434221 0.22423096
-0.043383338 -0.71206707 1.3140591 0.6117223 -0.54863495 -0.12265451 -0.0010163464 0.11483498
-0.028079877 0.0534887 -0.020659579 -0.0809171 1.229071 0.0683299 0.5521363 -0.046992127
0.49898857 -0.4425941 0.07465986 0.44880837 -0.26639482 -0.11777961 -0.34942454 0.7014765
0.739349 -0.5182977 -0.0076962532 0.07838935 0.20613995 0.32711977 -0.018017441 0.29683527
-0.3271066 -0.66233075 -0.31117427 -0.38844538 -0.34594262 1.1514434 -0.7272468 0.0073378384
0.031945378 -0.19979136 -0.3066885 -0.3653025 -0.061891124 -0.087077394 0.42280823 0.53680164
0.035080202 0.09103115 0.10749282 -0.018456124 0.07392216 -0.13645285 0.061123356 0.0072920155
-0.093762405 -0.08797571 0.10068596 -0.11371636 -0.08940047 0.005031922 -0.1313147 -0.10938064
-0.08352515 0.13721366 -0.062439136 -0.020603448 -0.056132637 0.11241008 -0.08277954 0.030750573
0.022490686 0.038801536 -0.13556024 -0.13497002 -0.19673309 0.021845609 0.012104954 -0.13059868
-0.008375765 -0.14927053 -0.13329783 -0.069895804 0.009935309 0.05844526 -0.06151274 0.03380334
-0.08190628 -0.09841733 0.02136617 -0.044496328 -0.08969697 0.07906166 -0.06474261 -0.049120143
0.0319463 -0.04969989 -0.017419359 -0.13695756 -0.13855569 -0.1279657 -0.02382751 0.11960961
0.062090665 -0.06375343 0.07821689 0.029486567 0.009812331 0.022452533 0.101249926 -0.08922997
-0.0756354 -0.028285906 -0.029372633 -0.09147966 -0.1335293 -0.06990258 0.118376 -0.03463603
0.049080145 0.12301999 -0.0011859238 -0.06258689 0.037182778 -0.026547085 -0.120924994 -0.04884656
0.022419559 0.06960061 -0.060187668 0.0071949065 0.049334217 -0.054792255 0.03943717 -0.059719443
-0.14745253 0.1040812 -0.020967308 -0.12001455 0.017015073 -0.08844954 -0.122038975 -0.04178764
-0.04410965 -0.116585225 -0.04265428 -0.029441517 -0.07027191 -0.11495566 0.04448798 0.060988016
-0.14600793 -0.058729365 -0.0234222 0.052809402 -0.083020374 -0.020908833 -0.0014796555 -0.12762332
-0.12262876 -0.121787086 -0.12926066 0.0024557016 0.057594847 -0.10392247 0.09087987 0.106175974
-0.07588807 -0.10902131 0.0010236502 0.10580464 0.041952576 0.028473824 -0.031594977 -0.10859662
-0.2856402 -0.10111037 0.08367254 -0.9855824 0.3010273 0.31189337 -0.06412445 0.09959313
-0.072838135 -0.020075634 -0.13699813 0.07680612 -0.98974746 2.0149372 -0.2738137 -0.4238623
0.16745625 0.19076842 -0.3076509 -0.8010037 0.025923776 -0.07046841 -0.010596153 0.52497154
0.5121882 -0.031909928 -0.8721718 0.59098196 0.33165845 -0.0425456 0.38027087 -0.25319594
0.20200388 -0.07709094 -0.2154489 0.49692306 -0.048666295 -0.030667663 0.17208998 0.1930396
-0.09584027 -0.19261979 0.65634984 0.046741635 0.6925781 -0.17674063 0.10690142 -1.069342
0.06677942 0.13867317 -0.089072846 0.20630215 0.5448234 0.26660997 0.07577133 0.075179204
0.71932065 -0.046046514 0.19750863 -0.10212127 -0.5751326 -0.017396301 -0.10760744 -0.027934736

fc2.bias f4 [64]
00000000: 96c9 483f 345d 1bbe 6bba 343d 6dbb 1d40
00000010: 62e1 0440 3b53 a53f 274c 6fbd 7a97 1540
00000020: 6bbf 023f 10f7 dbb9 eba7 c5bc a135 1e40
00000030: 4845 a63f f304 233d c730 843d 8e05 5d3f
00000040: df9e 0c3f c1f3 9abd 967f 65bc 2e97 3dbd
00000050: cac4 a93f 927f 1440 4f88 c9bd 7040 93bd
00000060: c41b 3ebb 0238 0f40 bdbc 543d 0079 4f3f
00000070: 6ec7 d13f 4478 a43b 7afc b93c 140f 26be
00000080: 0853 1fbe 4c65 f8bd 2ced c03f de70 90bc
00000090: f0bd 1840 ccca d83f b64f 21bf 3a7e 0340
000000a0: fa34 963e 9c9e 43bd a48d 2a3f 369d f33f
000000b0: fda5 15bd 989a 6d3d d8bd 87bd 0f3e 2140
000000c0: abb1 d63d 1ccb 85bd 40f6 c93f 280b da3f
000000d0: fd56 2fbe f768 0540 a9f0 1940 1a18 863f
000000e0: 338c b4bd 3dde c8bc 82be 61bf a110 2a3f
000000f0: e55a 1940 0b5c bdbd 360b 833f a72e 0c40
0.78432596 -0.15172273 0.044123095 2.4645646 2.0762563 1.2916025 -0.058422234 2.3373704
0.5107333 -0.0004195501 -0.024127921 2.4720232 1.2989893 0.03979964 0.06454616 0.863366
0.5492992 -0.075660236 -0.01400747 -0.046286754 1.326318 2.3202863 -0.09840452 -0.07190025
-0.0029008249 2.2377934 0.051937807 0.81044006 1.6388986 0.0050192196 0.022703398 -0.1621669
-0.15559018 -0.12128696 1.5072379 -0.017631944 2.3865929 1.6936889 -0.63012254 2.0545793
0.29337293 -0.047758684 0.66622376 1.9032352 -0.036535252 0.05800876 -0.06628007 2.5194128
0.10483106 -0.06532881 1.5778275 1.7034655 -0.17123027 2.0845315 2.4053137 1.0476105
-0.088158034 -0.024520034 -0.88181317 0.66431624 2.3961728 -0.092460714 1.0237796 2.1903474

fc3.weight f4 [20, 64]
00000000: 98c8 80be 73e3 9b3c f442 0fbd a71c 303f
00000010: b471 ac3e bc91 383e a3a7 0dbd 4bc4 183f
00000020: 0eaf 47be 56f3 a4bd dc47 aebd 6855 0d3f
00000030: 0b56 2ebe 8d8c aabc f87c 24bd 3b5e 28bf
00000040: 5ebf 51be 01e6 0cbd 0af8 b9bd 9d6b 793d
00000050: ee7a 19bf a899 1e3f d681 713e 2c76 ff3d
00000060: 1c8a 123d 6aaa 183f 6c90 023e 61d0 db3d
00000070: f44a 893e 602c e83d bdb8 d8bd a342 babb
00000080: bd51 21bd e209 4a3d 59fe 1dbe 1fe5 dcbc
00000090: 2765 0bbe 44ae cd3e eb7d 353e 4384 143f
000000a0: 9c81 653e 28e4 e23d 4c8b 11bd b64f 9fbf
000000b0: 0e00 763d 2622 a0bd b5a8 c2bd dfc2 263f
000000c0: 21fc af3d 72d7 a4bd b9b4 d7bc 144a a2bf
000000d0: c61c 71bc ba9c e83e b59c 2f3f a47d e23c
000000e0: d70f 00bf baca 63bd c6a7 a03e 737b dc3e
000000f0: 83e0 193f 0088 d3bc 728a 5dbe 01e4 ef3e
00000100: 71d6 23bf bdb9 b93d 74c5 a3ba 416d 0a3f
00000110: 7b67 af3e 4053 ad3e 82fd 013e 9ecb c63e
00000120: a7cb 823b 0116 bfbd 6875 0e3d 1527 083f
00000130: 6d68 093f 9bee c7bd 1724 5dbd 2231 69bf
00000140: 0d97 eabe e70e dabd a209 56bd a020 2ebd
00000150: db80 5cbe 4bc8 a63e c568 733f 0ac6 833d
00000160: 8e5f a1bd a8ce 1c3f e414 8e3e 823d c63e
00000170: 6e8e 7b3e 0061 163c c8f6 51bd 2ee7 a9bd
00000180: d0dc cf3b b86f 92bd de09 f83d 849b 123d
00000190: d2cd 38bf f292 8e3e 5cc1 2ebf a847 493f
000001a0: 879c 4f3e 62ae 5dbc d6fc 463e f946 3abf
000001b0: 561a cabc 3bac f03d 00a5 89bd 6fa4 053f
000001c0: 289b ea3c 18cb 94bc e55e 2dbe edcc 57bf
000001d0: 196d c3bd 51c9 003f c429 243f 6e27 5dbe
000001e0: 842f ebbe 32ea e9bd 8a0f 80be 8d05 933d
000001f0: 2c65 e03e 2a68 d4bd 7d29 34be 599f bf3e
00000200: 4b8e f23e 527b 81bc 00be dc3b 09b8 103f
00000210: 0ecc a33e 9822 6f3e fe56 223e 07b2 613e
00000220: 4a6a 293e 3b64 b03d b09b 02bc 4b6d f33e
00000230: 33a9 26be 1dc3 953d 790a a63d 3f93 0cbf
00000240: 85a3 f73e a970 fa3d ee18 01bd 48fd 3abd
00000250: 6b07 51be 69e3 ab3e c826 3c3f 4082 873b
00000260: 185f c03d 2c83 033f 4f6c ea3e 0eef 063f
00000270: 0bc4 ca3d 409e d5bb 308a 30bd beb5 2abd
00000280: 09e2 3cbd 5438 cbbd 1185 be3e e75b 0b3e
00000290: 997b 29bf 78c6 dd3e 9d5a cabe 792c 543f
000002a0: 2d82 043d 0344 57bd 313e d63e b17b 3fbf
000002b0: ebe0 45be cc88 50bc ce96 653d 7a1f 143f
000002c0: 5c58 033d f243 b2bd a32b 2c3f a777 5ebf
000002d0: 545d d73d 0c95 053f b2e0 083f f130 06be
000002e0: 97f5 d13d 155b af3d 04ae 1ebe 059b 04be
000002f0: 54bc e53e 02f4 dabd 5ed3 ccbe d89e e43e
00000300: 2a2d e23e 73ab c73d 005a 6abc 376e 193f
00000310: 3845 a73e d835 993e 5fa4 ecbd 1d0e bb3e
00000320: c4cb d13e 3147 18bd ca33 8e3d da26 b13e
00000330: 01d9 74be 2942 22bd e61d b6bd 0d29 f2be
00000340: 6d59 a93e 88f0 a03d 6e4c 013e 7649 b23d
00000350: 9007 b1be 1a5d d53e afbb 3e3f 4885 373d
00000360: b822 01bd 8210 073f d288 5b3f d264 fe3e
00000370: f2d9 c83e 9062 db3d ac88 70bd 0b42 5fbd
00000380: ea96 a43d 00ec a23c 84f0 c03e d3ef 27bb
00000390: 3b36 25bf a965 f73e ee63 7dbd fd5c 4d3f
000003a0: 15c2 c5bd 885a d0bc dea2 51bd f371 3abf
000003b0: 0e71 4d3c 62c5 b1bd ffac 17bd bfe8 103f
000003c0: a01f 5ebd 58c7 b3bd 14ff 933c 6c9d 3abf
000003d0: b4f7 c9bd 358b d93e 96f1 103f 6694 00be
000003e0: 8eeb 023e 1243 c43c 9371 9ebc 5de4 c83d
000003f0: 0cfc 043f 4819 92bc 28c1 87be d484 9c3e
-0.2515304 0.019029355 -0.03497596 0.6879372 0.336805 0.18024343 -0.0345837 0.5967452
-0.19500372 -0.08054225 -0.085098 0.55208445 -0.1702501 -0.020818973 -0.040158242 -0.65768784
-0.20483157 -0.034399036 -0.09080513 0.060893644 -0.599532 0.6195321 0.23584685 0.12473711
0.035776243 0.5963503 0.12750405 0.107331045 0.26814997 0.11336589 -0.10582111 -0.0056842132
-0.039384592 0.04932583 -0.15429057 -0.026964722 -0.13612805 0.40172017 0.17723815 0.58014315
0.22412723 0.110786736 -0.035533234 -1.2446201 0.060058646 -0.07819013 -0.095048346 0.651411
0.08593012 -0.080489054 -0.026331292 -1.2678857 -0.014716333 0.45432073 0.6859849 0.0276478
-0.5002417 -0.055613257 0.31378 0.43062934 0.601082 -0.025821686 -0.21634844 0.4685364
-0.63999087 0.0906863 -0.0012494759 0.5407296 0.34258637 0.33852577 0.12694362 0.38827223
0.0039915624 -0.09330369 0.034779936 0.53184634 0.53674966 -0.09762307 -0.053989496 -0.91090596
-0.45818368 -0.10647374 -0.05225528 -0.042511582 -0.2153353 0.32574686 0.9508174 0.06434257
-0.07879554 0.6125283 0.27750313 0.38718802 0.24566051 0.0091784 -0.05126074 -0.08296047
0.0063434616 -0.07150215 0.12111257 0.035792843 -0.72189057 0.27846485 -0.68263793 0.78624964
0.20274554 -0.013530346 0.19432387 -0.72764546 -0.024670761 0.117516 -0.067209244 0.5220403
0.028638437 -0.018163249 -0.1693073 -0.84297067 -0.09542293 0.50307184 0.6412623 -0.21597072
-0.4593469 -0.11421622 -0.25011855 0.07178793 0.43827188 -0.1037143 -0.17593952 0.3742626
0.47374186 -0.015805874 0.006736517 0.56530815 0.3199162 0.2335304 0.15853497 0.22040568
0.16544452 0.086128674 -0.007971689 0.4754432 -0.16275482 0.073126055 0.08107466 -0.5491218
0.48366943 0.122285195 -0.031517915 -0.045651704 -0.20412986 0.33571938 0.73496675 0.0041354
0.09393138 0.5137203 0.45785758 0.5270852 0.099006735 -0.006519109 -0.043100536 -0.04167723
-0.046114 -0.09922853 0.37210897 0.13609277 -0.6620422 0.43315482 -0.39522257 0.8288036
0.032350708 -0.052555095 0.41844323 -0.74798113 -0.1932408 -0.012727927 0.05605202 0.5786053
0.032066688 -0.08704366 0.67254084 -0.86901325 0.10515848 0.5218055 0.5346786 -0.13104607
0.10251921 0.085622944 -0.15496069 -0.1294976 0.44870245 -0.10691072 -0.4000501 0.44652438
0.44175082 0.09749498 -0.014303684 0.599338 0.32669997 0.29923892 -0.11554789 0.36534205
0.40975773 -0.03717727 0.06943472 0.34599954 -0.23910905 -0.039613876 -0.088924214 -0.47296944
0.3307604 0.07858378 0.12626812 0.08705418 -0.34576082 0.41672593 0.7450513 0.04480484
-0.03152725 0.52759564 0.85755646 0.49686295 0.3922878 0.10712159 -0.05872409 -0.054506343
0.08036597 0.019887924 0.376835 -0.0025625124 -0.64535874 0.48319748 -0.06186288 0.80220014
-0.09656159 -0.025433794 -0.051180713 -0.7283012 0.012539161 -0.08680226 -0.037030216 0.5660514
-0.05422938 -0.08778256 0.018065967 -0.72896457 -0.09861699 0.4248902 0.5661863 -0.1255661
0.1278517 0.023957763 -0.019341266 0.09809182 0.51947093 -0.01783432 -0.26514554 0.3057009

fc3.bias f4 [20]
00000000: 28fe 0f40 4e49 623f d7a3 253f 04c0 0b3f
00000010: 69b1 f23e 23cb d53e 2c12 003f a3da 973e
00000020: 23e3 b53e 4539 333e ff6f e33d 5a76 ea3e
00000030: ba5b 343e 371e 5cbd 9ff8 223e b081 72be
00000040: 52ed 25be b540 c0be 4e65 95be 4a5b b8be
2.2498875 0.88393104 0.64703125 0.5458987 0.47400978 0.41756544 0.5002773 0.29658994
0.35524854 0.17502315 0.11105346 0.4579342 0.17613116 -0.053739753 0.15915154 -0.23682284
-0.16203812 -0.37549368 -0.29178852 -0.36007148

fc1.weight f4 [64, 3]
00000000: 482d d03d cc73 973d b235 3dbe 80b6 bc3b
00000010: 63cf e1bd 3074 c3be 7bfd 3c3e 5240 01bf
00000020: efe0 53be 8aa1 a0bd ebaa cf3e 6b8f dabe
00000030: 30ca 7e3e 5d95 9c3e 6f44 bd3d 7f10 613e
00000040: 1e04 5d3e 1106 823d ca49 bc3e f700 f9be
00000050: d240 a8be 8885 633d c5b6 8abe 9741 473e
00000060: cd26 4abe 2d84 343e 5d4d 55be 2a65 1abe
00000070: 833d fabe c057 7dbc 6188 193f 3fa0 6dbf
00000080: f198 a9bd 1437 07bf 1977 cebf 931e 003e
00000090: e04a ad3d 9494 873d 7b86 babd 14dc 5cbe
000000a0: edfb 8abe 22eb 023e 4086 12c0 a409 0dbf
000000b0: a866 e43c d1bd 10be 5807 8dbe 7a6c 3cbd
000000c0: 68e7 6a3d 0fee c9be 6386 0cbe 7b85 36be
000000d0: 9f74 ecbe d75e 86bd e8e5 c23e a05f ef3d
000000e0: a14d 0dbf 5742 413e a7b4 383e b4bd 36be
000000f0: e7d3 d5be b22d f83e 7317 2a3e 9eaa 6ebe
00000100: ac96 f9bd 9d00 98bc ae6b b73d 570b 91bd
00000110: 7721 b7bd 7ad0 77be a501 45bd e434 2f3c
00000120: 0f77 153e 2d17 c9bc 4b50 d53d 0076 893b
00000130: 080d 91be fcd7 aabd af5f 99bf 2783 643e
00000140: f262 f0be bc22 06bf db4c 2d3e a719 493d
00000150: 418e 28bf 2548 98be aa1f 00bf dcc4 14be
00000160: a59a 9ebe 884b 25be 8fdb e63d d191 cdbf
00000170: 581d dabd eae7 e3bd 7143 e0bd cd7d adbe
00000180: 2fd4 473d a452 eabe 0771 d03e d3a6 333e
00000190: 8e79 52be da0a 31be aebb 11bf 6dcd 663d
000001a0: 13a8 4bbf 49ea 46bf 1648 3bbc d852 28be
000001b0: 9d77 193e e11f 5fbe ae21 19be 9269 073f
000001c0: 7269 9fbe 5b74 0dbf 4db0 e3be 8977 14bf
000001d0: 83f0 b4bd c866 98bf c730 ef3d 4320 d8be
000001e0: a537 03bd 631a 55bd e7df d7bd 75ed 863e
000001f0: fc03 63bf da37 94be 7e85 a4be 9582 a53d
00000200: 5a19 ce3d 3aaa 76be 20d4 f0bd 0008 4cbc
00000210: cf4a a6be 304c 173b 1582 cc3d e73d 4abf
00000220: a043 23bf 2120 a63e a9b3 f23d dc93 f3be
00000230: 3def e3be 757e f43c 7121 ec3d b4c2 4bbf
00000240: 8e1e 0ebf df1d 96bf e22c 043d 1b5d 213f
00000250: 0635 013f 1042 b03e e1fe 5cbe 6369 4f3e
00000260: 887a d8be 286f 0dbf 1664 0c3e d2f3 3fbe
00000270: bb77 ae3d d1bd 513e 363e de3d 649d 48be
00000280: 5a19 2cbe 3322 1fbd ed29 753e 169e 293f
00000290: 7ddc ad3e 9ffd 03bf 6416 e1be b03b 38bd
000002a0: 8d1a fd3e b512 30be c2e8 363e 3c45 3bbf
000002b0: 5f20 9bbe 498b 0dbe 5d1e 263f b333 51bf
000002c0: d211 4cbe 6c21 9ebf 1204 2cbf 4b5d 663e
000002d0: e11f 5fbe 5f3b a53d 8ff6 52bf 5344 88be
000002e0: 0038 efbc ccbb c5bd bbe0 f7bd 723e 22bf
000002f0: 17ca d6bd 851c 38be 95bf 1ebf 3080 f5bd
0.10164887 0.073951334 -0.18477514 0.0057590604 -0.11025884 -0.38174582 0.1845607 -0.5048877
-0.20691274 -0.07843311 0.40560088 -0.42687544 0.24881816 0.30582705 0.09241568 0.21978949
0.21583602 0.06348813 0.36775047 -0.4863355 -0.32861954 0.055547267 -0.27092567 0.19458614
-0.19741364 0.17628546 -0.20830293 -0.15077654 -0.48875055 -0.015462816 0.5997372 -0.9282264
-0.082811244 -0.5281842 -1.6130096 0.12511663 0.08461547 0.06620136 -0.09107681 -0.21568328
-0.2714533 0.12785009 -2.289444 -0.55092835 0.027880982 -0.14134909 -0.27544665 -0.04600189
0.057349592 -0.39439437 -0.1372314 -0.17824356 -0.46182725 -0.06561058 0.3806603 0.11688161
-0.5519658 0.18872963 0.18037663 -0.17845803 -0.4176323 0.48472363 0.16610508 -0.23307273
-0.121869415 -0.01855498 0.08956085 -0.07082241 -0.0894193 -0.24200621 -0.04809727 0.010693762
0.14596198 -0.024547184 0.10415705 0.004194975 -0.28330255 -0.08341977 -1.1982325 0.22315656
-0.4695049 -0.5239675 0.1692385 0.04909673 -0.6584206 -0.29742542 -0.50048316 -0.14528221
-0.3097736 -0.16142094 0.11272346 -1.6060125 -0.10650128 -0.111282185 -0.109503634 -0.3388504
0.04878634 -0.45766175 0.40711233 0.17544107 -0.20554182 -0.17289296 -0.56927 0.056348253
-0.79553336 -0.7770124 -0.011430761 -0.16437852 0.14987035 -0.21789505 -0.14954254 0.5289546
-0.31135136 -0.5525567 -0.44470444 -0.57994896 -0.088349365 -1.1906366 0.116792254 -0.42212114
-0.03203549 -0.052027117 -0.10540753 0.2635304 -0.88677955 -0.2894886 -0.32133096 0.08081547
0.10063429 -0.24088374 -0.1175921 -0.012453079 -0.3247895 0.0023086183 0.09985749 -0.79000705
-0.6377506 0.32446387 0.11850674 -0.47573745 -0.44518462 0.029845456 0.11529816 -0.7959397
-0.5551537 -1.1727866 0.032269366 0.6303269 0.5047153 0.34425402 -0.21581604 0.20255046
-0.42280984 -0.55247736 0.13710055 -0.18745354 0.085189305 0.20482565 0.108517095 -0.1959129
-0.16806546 -0.038850974 0.23941775 0.66256845 0.33957282 -0.5155887 -0.43962395 -0.044978797
0.4943432 -0.17194636 0.17862228 -0.7315252 -0.30298135 -0.13822664 0.6489008 -0.8171951
-0.19928673 -1.235395 -0.6719371 0.22496526 -0.21789505 0.08067965 -0.8240747 -0.26614627
-0.029201508 -0.0965496 -0.12103411 -0.63376534 -0.10487764 -0.1797963 -0.6201108 -0.119873405

fc1.bias f4 [64]
00000000: 4906 1b40 b0f0 3b3e 7e68 403e a48a 6a40
00000010: cc1c 4e40 5e2d 2640 b0f3 aebe 331c 94bf
00000020: 8e5b b33f c982 d2be 6d84 6fbf dff8 51c0
00000030: ff4c 8840 3738 8c40 1527 47c0 872a b23f
00000040: 742b 2540 c39a 0140 66a0 6940 f98f 8c40
00000050: b26d 31c0 f43f 923e a1e7 943c a19d 4140
00000060: cfef 4d40 60b2 643d a786 32c0 0d24 6640
00000070: 6219 3240 00d9 673d 6361 1540 9568 5e40
00000080: 9401 2ac0 2f61 e73d 3346 2740 ec3b 3340
00000090: 796b d5be 5ee2 65be 92ac 4e40 83d1 0e40
000000a0: b07d 1740 dc0e 223f f80e 6040 aeba debe
000000b0: 657e 4d40 2646 91c0 3c65 eebe 9f8e ae3f
000000c0: a9a4 33c0 e719 2cc0 2106 f93f 142f 1abf
000000d0: 1642 3c40 6782 4f40 c985 3fc0 481c a5bd
000000e0: 6146 5640 6664 5b40 831c 2640 3a27 8bc0
000000f0: ca71 27bf a497 cfbd edf7 1d40 6a98 3440
2.4222586 0.18353534 0.1878986 3.664712 3.2205076 2.596519 -0.34170294 -1.1571106
1.4012315 -0.41115406 -0.9356144 -3.280815 4.259399 4.381862 -3.1117604 1.3919228
2.5807772 2.025071 3.650415 4.392575 -2.7723203 0.28564417 0.018176856 3.025246
3.2177618 0.055834174 -2.7894685 3.5959504 2.7827992 0.05660343 2.334069 3.4751332
-2.6563463 0.11297833 2.6136596 2.8005323 -0.41683558 -0.22449633 3.2292829 2.2315376
2.3670464 0.63303924 3.5009136 -0.435018 3.2108395 -4.539813 -0.4656161 1.3637275
-2.806925 -2.689081 1.9454995 -0.60228086 2.9415336 3.2423341 -2.9925406 -0.08062035
3.3480456 3.4280028 2.5954902 -4.3485384 -0.65408003 -0.10136345 2.4682572 2.8218026

fc2.weight f4 [64, 64]
00000000: 1602 78be 2a7a ea3a df8c f03d 61d1 3e3f
00000010: 9c4e ccbe 250a f3be ad18 773c 16ba 033f
00000020: 31e9 44bf 10c7 e2bc 5756 6abf 32b5 31be
00000030: 9179 4dbe e4fd 8d3f 5551 3ebf 4ef6 7b3e
00000040: befa 6cbe 5658 41bf ce4a a33f dcf0 163f
00000050: 9332 07bf 4a32 fbbd 0d34 85ba d82e 023e
00000060: 00b0 a3bc f816 5b3d 69de acbc 5904 60bd
00000070: 545e 9d3f 8cf0 8b3d 1c6f 173f 1723 f7bd
00000080: 0f72 ff3e 849a e2be ebc3 453e 6cd3 033f
00000090: 7864 88be 7036 f1bd 176c 98be 69f7 533f
000000a0: af2d 253f 23b3 04bf 1471 113c 988a a03d
000000b0: 9b4b 613e 3ecf 993e 5099 93bc 71da d03e
000000c0: c090 a7be bbf2 25bf 2d3b 60be 7be2 86be
000000d0: 1b9e a8be 6328 943f 62ee 34bf 4072 f03b
000000e0: 9791 073d d101 53be 7f86 eebe ce59 cabe
000000f0: 3985 7dbd a255 b2bd ab77 e43e 1c3d 103f
00000100: 95b3 0f3d 8a6e ba3d 3225 dc3d 7b35 97bc
00000110: 4368 973d 0ab8 0bbe a05c 7a3d b5f2 ee3b
00000120: d706 c0bd 9c2c b4bd b137 ce3d e9e3 e8bd
00000130: bf15 b7bd 6fe5 a43b 5e74 06be 7202 e0bd
00000140: 950f abbd 2a83 0c3e 8cbf 7fbd a3c5 a8bc
00000150: 2eea 65bd 4237 e63d 0c85 a9bd 10eb fb3c
00000160: 8742 b83c 5cee 1e3d aacd 0abe 5135 0abe
00000170: ee74 49be 90f5 b23c 0b58 463c ddb8 05be
00000180: 6837 09bc 75d7 18be e87b 08be 0d23 8fbd
00000190: 5dca 223c 4c64 6f3d e1f2 7bbd b877 0a3d
000001a0: 02bc a7bd 5f8c c9bd 1f0b af3c c841 36bd
000001b0: ffb1 b7bd b4eb a13d cc97 84bd 8632 49bd
000001c0: 62de 023d 0090 4bbd c5b1 8ebc db3c 0cbe
000001d0: d4de 0dbe 5b09 03be 712f c3bc e2f5 f43d
000001e0: 4254 7e3d 4390 82bd 4b32 a03d af8e f13c
000001f0: bbc6 203c 60ee b73c 9260 cf3d e7bb b6bd
00000200: cfe6 9abd d8b7 e7bc e09e f0bc b059 bbbd
00000210: 68ba 08be f526 8fbd 1e6f f23d d4de 0dbd
00000220: 750b 493d e8f1 fb3d 0071 9bba 8e2d 80bd
00000230: f84c 183d a476 d9bc 86a7 f7bd 7511 48bd
00000240: 2eaa b73c 9c8e 8e3d 2588 76bd 40c3 eb3b
00000250: 1615 4a3d d86d 60bd 0c8a 213d f39b 74bd
00000260: e4fa 16be 1029 d53d 45c3 abbc bcc8 f5bd
00000270: 0166 8b3c 0825 b5bd 92ef f9bd 8429 2bbd
00000280: 8dac 34bd d6c3 eebd 30b5 2ebd 082d f1bc
00000290: 46ea 8fbd e06d ebbd fd3a 363d fecf 793d
000002a0: fb7f 15be 348e 70bd c6df bfbc ac4e 583d
000002b0: f405 aabd 4546 abbc 00f1 c1ba 83af 02be
000002c0: d823 fbbd 6f6a f9bd 345d 04be b3f1 203b
000002d0: 42ed 6b3d 4ed5 d4bd 0123 ba3d ca72 d93d
000002e0: a06b 9bbd f146 dfbd 002c 863a 1ab0 d83d
000002f0: b5da 2b3d f041 e93c bc69 01bd 4868 debd
00000300: 6098 8bbe f412 cfbd b45d ab3d 37e1 79bf
00000310: af3d 993e ad41 a03e 9353 83bd 119f ca3d
00000320: a038 5ebd a875 a4bc e7e3 12be 3a77 3b3d
00000330: 76f5 7ebf 17c5 0040 4537 8cbe 2638 d1be
00000340: 0e47 393e d11d 6c3e 246f 8cbe db28 4cbf
00000350: e007 de3c be51 90bd ef9b 2dbc f55f 083f
00000360: 3733 033f fcb3 02bd 0c3e 5fbf 8622 193f
00000370: 2a01 aa3e 4c44 2ebd 1357 c93e 6a56 a1be
00000380: d2fd 483e 71e4 9dbd c5b2 37be 1795 eb3e
00000390: f555 47bd 483b fbbc dcd3 733e fe61 043e
000003a0: 58f9 02be e33a 45be 9a19 283f 2874 3f3d
000003b0: 889e 313f 331e 32be 22ef da3d d42e 8cbf
000003c0: 0bc4 813d 68e2 043e 36a2 26bd e18f 373e
000003d0: f330 0b3f b1be 893e 0a2e 893d 8ef7 993d
000003e0: 8b2a 373f 8750 50bd a657 553e b25f e9bd
000003f0: f139 13bf e582 8ebc 1347 c7bd 3edd 533c
-0.24219546 0.0017889191 0.11745619 0.74538237 -0.39903724 -0.47468677 0.015081567 0.5145582
-0.7691832 -0.027682811 -0.91537994 -0.17354277 -0.20065905 1.1093106 -0.7434285 0.24605677
-0.23142526 -0.75525415 1.2757204 0.5896127 -0.52811545 -0.12265451 -0.0010162607 0.12713182
-0.019981384 0.0534887 -0.021102147 -0.054691646 1.2294412 0.0683299 0.59153914 -0.1206724
0.49891707 -0.4425851 0.19313018 0.5149448 -0.26639152 -0.11777961 -0.29769966 0.8279939
0.6452283 -0.5183584 0.008877058 0.07838935 0.22001497 0.30040926 -0.018017441 0.40791658
-0.32727623 -0.648235 -0.21897574 -0.26344666 -0.32933125 1.1574825 -0.70676243 0.0073378384
0.03309783 -0.20606162 -0.46586987 -0.3952164 -0.06189463 -0.087077394 0.4462255 0.56343246
0.035083372 0.09103115 0.10749282 -0.018458119 0.07392933 -0.13644424 0.06112349 0.0072921165
-0.093763046 -0.08797571 0.10069216 -0.113715954 -0.089396946 0.0050322334 -0.13130328 -0.109379664
-0.083525814 0.1372191 -0.062438533 -0.020602053 -0.056131534 0.11241008 -0.0827733 0.030751735
0.02249266 0.038801536 -0.13555017 -0.13496901 -0.19673511 0.021845609 0.012105952 -0.13058801
-0.008375026 -0.1492594 -0.13328516 -0.06989107 0.0099359425 0.05844526 -0.061510924 0.03380558
-0.081901565 -0.09841227 0.021367608 -0.044496328 -0.08969497 0.07906285 -0.064742655 -0.04912045
0.031950362 -0.049697876 -0.017418751 -0.1369509 -0.13854533 -0.12796538 -0.023826333 0.11960961
0.062092073 -0.06375172 0.078220926 0.029486982 0.009813006 0.022452533 0.10125841 -0.08922558
-0.075635545 -0.028285906 -0.029372633 -0.09147966 -0.13352358 -0.06989852 0.118376 -0.034636334
0.049083192 0.12301999 -0.0011859238 -0.06258689 0.037182778 -0.02654583 -0.120924994 -0.048844773
0.022420015 0.06960794 -0.06018843 0.0071949065 0.049336515 -0.054792255 0.039438292 -0.059719037
-0.14744145 0.10408223 -0.020967135 -0.12001178 0.017016413 -0.08844954 -0.122038975 -0.04178764
-0.04410987 -0.116584465 -0.042653263 -0.029440418 -0.07027106 -0.11495566 0.04448985 0.060989372
-0.14599602 -0.058729365 -0.023422133 0.052809402 -0.08301917 -0.02090753 -0.0014796555 -0.12762265
-0.12262696 -0.12178504 -0.12926179 0.0024558126 0.057599314 -0.10392247 0.09088708 0.106175974
-0.07588887 -0.10902203 0.0010236502 0.10580464 0.041956622 0.028473824 -0.031594977 -0.10859734
-0.2726469 -0.10111037 0.08367482 -0.97609276 0.29929873 0.31300107 -0.06412425 0.09893621
-0.05425322 -0.020075634 -0.1434475 0.045768 -0.99593294 2.0120294 -0.27385917 -0.4086315
0.18093511 0.23058249 -0.27428544 -0.7974984 0.027103364 -0.07046841 -0.0105962595 0.5327142
0.5125002 -0.031909928 -0.8720405 0.59818304 0.33204013 -0.0425456 0.39324245 -0.3151124
0.19628075 -0.07709587 -0.17939289 0.46012184 -0.04866596 -0.030667916 0.23811287 0.12928006
-0.1279043 -0.19260745 0.65664065 0.046741635 0.69382524 -0.17394333 0.10690142 -1.0951791
0.0633622 0.12976992 -0.04068204 0.17925979 0.54371566 0.26903298 0.066982344 0.075179204
0.7154929 -0.050858047 0.20834216 -0.113952056 -0.57510287 -0.0173964 -0.09730353 0.012931166

fc2.bias f4 [64]
00000000: 9860 4c3f 005c 1bbe 2cbc 343d 4557 1d40
00000010: 6ac2 0440 de5f a43f df14 6fbd 395a 1340
00000020: 0ac3 023f 46f7 dbb9 43a8 c5bc 2ce6 1d40
00000030: aaf7 9d3f dd08 233d 3b32 843d 6bf9 5e3f
00000040: 61f0 0c3f 87f2 9abd ce7c 65bc d495 3dbd
00000050: 5129 a93f f15f 1440 063b e8bd d93d 93bd
00000060: a51a 3ebb a751 0f40 4f6b 533d c1ef 4f3f
00000070: 74ad d73f f67b a43b d8ff b93c 510e 26be
00000080: bb4f 1fbe b664 f8bd 5809 be3f 166f 90bc
00000090: fcb7 1840 a347 d83f 55e5 1dbf afa1 0240
000000a0: 499b 9e3e d29c 43bd 8317 253f f284 f43f
000000b0: e81c 15bd dc9e 6d3d 7fbc 87bd d606 2140
000000c0: 99b3 d63d 7dc8 85bd df0e c83f b5f2 db3f
000000d0: 5855 2fbe d724 0540 4d7a 1940 1a4d 883f
000000e0: 687a 2dbd 96dc c8bc e709 5ebf 2e8c 2f3f
000000f0: 008a 1940 3c5b bdbd 6f89 853f 121c 0c40
0.7983489 -0.15171814 0.044124767 2.4584515 2.074366 1.2841756 -0.058369514 2.3023818
0.51078856 -0.00041955168 -0.024128085 2.4671736 1.2341206 0.039803375 0.06454893 0.8709933
0.5505429 -0.0756579 -0.014006807 -0.046285465 1.3215734 2.3183558 -0.11339383 -0.07189531
-0.002900758 2.2393587 0.05161601 0.8122521 1.6849809 0.00501966 0.022705004 -0.16216399
-0.15557759 -0.12128584 1.4846601 -0.017631095 2.3862295 1.6896862 -0.6167806 2.0411184
0.30977848 -0.047756977 0.64489 1.9103072 -0.03640452 0.05801283 -0.0662775 2.5160422
0.10483474 -0.06532381 1.5629538 1.7183443 -0.171224 2.0803735 2.3980896 1.064853
-0.042353064 -0.024519246 -0.8673386 0.6857327 2.3990479 -0.09245917 1.0432566 2.1892133

fc3.weight f4 [20, 64]
00000000: 0df6 78be b7e4 9b3c f442 0fbd 3147 2f3f
00000010: 22ae ad3e 9ddd 3a3e 23a8 0dbd 00ed 103f
00000020: e5ab 47be 0ff5 a4bd b74b aebd fe9f 0c3f
00000030: 63a1 e5bd ab8e aabc de7f 24bd 2c96 2bbf
00000040: edb3 50be bae8 0cbd f0fb b9bd 566e 793d
00000050: 4161 0ebf 5bcb 1e3f 5b8a 623e 2c76 ff3d
00000060: 0f8e 123d bd69 183f 3659 fd3d d8bf f23d
00000070: 1526 8e3e 602c e83d 22bb d8bd 4242 babb
00000080: 5c53 21bd 460d 4a3d f5cb 45be 76e9 dcbc
00000090: a79f 2ebe 4a47 cc3e 4700 363e 5ba3 133f
000000a0: 6bc0 643e bce4 e23d c240 6cbd b182 a4bf
000000b0: 579d 743d 9326 a0bd a0aa c2bd 1716 263f
000000c0: 50fd af3d 72d7 a4bd 6371 23bc 4c17 a4bf
000000d0: 681d 71bc 33d5 e63e dcb4 2e3f e951 1fbd
000000e0: 97ab 01bf 1ccf 63bd 0e09 a13e 9646 ef3e
000000f0: ba2b 1c3f 0088 d3bc f4aa 92be 5d1e ef3e
00000100: 0a5e 10bf 89b9 b93d 5fc4 a3ba fee1 093f
00000110: 703b ba3e 716e ba3e b9ff 013e 007a ca3e
00000120: c2ce 823b 8d18 bfbd 6875 0e3d d137 083f
00000130: e631 c03e 34f2 c7bd f627 5dbd 7ffc 66bf
00000140: e07e e7be e312 dabd b907 56bd bf20 2ebd
00000150: 973f 3fbe a696 a93e eddc 673f 0ac6 833d
00000160: 8e5f a1bd 00b3 1c3f 6985 8b3e 57bd d83e
00000170: 0ec0 783e 0061 163c a5f8 51bd 9bea a9bd
00000180: acd9 cf3b b86f 92bd 5830 2b3e af9d 123d
00000190: a97a 39bf 8848 8c3e 2127 36bf 1923 4e3f
000001a0: 3e63 483e afb0 5dbc 9d2b 4abd d277 3dbf
000001b0: e1d3 c8bc 20ac f03d b0a8 89bd 91e9 053f
000001c0: 289b ea3c 18cb 94bc 46ce 16be 2356 5bbf
000001d0: f06d c3bd 55de 003f 3b55 233f 1974 0cbe
000001e0: 1250 febe 89ed e9bd eb16 54be 2a8d 643d
000001f0: f6ef df3e 2a68 d4bd 2471 49be 3be9 bf3e
00000200: 35d8 043f ea7a 81bc 7fbe dc3b 8471 103f
00000210: e03c a43e c41e 713e 2d55 223e 9d99 893e
00000220: 9a6d 293e e162 b03d fb9b 02bc 038f f23e
00000230: 6e23 0abe 63c2 953d 690a a63d ea48 edbe
00000240: 65a1 f73e 2870 fa3d 281d 01bd c2fd 3abd
00000250: 40b5 23be 390a ac3e 7a82 363f 4082 873b
00000260: 185f c03d 3825 053f 523c e33e 26de 033f
00000270: 5454 f83d 419e d5bb d88d 30bd a4b9 2abd
00000280: 0be6 3cbd 5438 cbbd 891b b83e 315e 0b3e
00000290: 349c 2fbf 89e0 dd3e 4187 e3be 0a38 523f
000002a0: c92a 7f3d 0948 57bd 8c5f a13e e139 43bf
000002b0: 5af9 45be 5b8d 50bc 3e94 653d 0ea0 133f
000002c0: 5c58 033d 4247 b2bd 5dd2 353f 33a9 57bf
000002d0: 545d d73d 9209 053f 63d3 083f 4dcb ebbd
000002e0: 2c72 083d 4059 af3d 068c 66be aceb 34be
000002f0: 1eb8 f03e 02f4 dabd 4085 05bf 3f3c e43e
00000300: 6fe0 de3e e5ab c73d 005a 6abc d5e8 153f
00000310: c096 a43e ce19 9b3e c3a8 ecbd 9c76 c03e
00000320: c6c9 d13e d44a 18bd ca33 8e3d 140c aa3e
00000330: 92df 53be 8c45 22bd a51f b6bd a0db f0be
00000340: 6429 a93e cced a03d 0a4c 013e 7649 b23d
00000350: a132 acbe a201 d33e c33b 1f3f 4885 373d
00000360: b822 01bd 3dcb 043f fb24 523f 2828 bc3e
00000370: 83c9 ce3e d662 db3d de8c 70bd 0843 5fbd
00000380: 4f97 a43d 00ec a23c 5aea d43e caee 27bb
00000390: 7e81 23bf 531d f13e 4572 98bd d11c 473f
000003a0: a6e0 f9bd 7b5e d0bc 7fb1 52be 5866 38bf
000003b0: 1438 543c 59c6 b1bd 93ae 17bd 20bf 0d3f
000003c0: a01f 5ebd 58c7 b3bd 8275 cfbc 22b3 39bf
000003d0: b4f7 c9bd c10d d23e 1665 0d3f 2ec8 f8bd
000003e0: 774e c83d e240 c43c f799 ccbc 88f7 c83d
000003f0: 43f0 053f 4819 92bc 3afc 89be 72d7 963e
-0.24312611 0.019029958 -0.03497596 0.68468004 0.33921915 0.18248601 -0.034584176 0.56611633
-0.19499166 -0.08054554 -0.08510535 0.5493163 -0.11212423 -0.020819983 -0.040161006 -0.6702602
-0.20381136 -0.034401633 -0.090812564 0.06089624 -0.5561715 0.62029046 0.22123091 0.12473711
0.03578001 0.59536344 0.12370531 0.118529975 0.2776343 0.11336589 -0.10582568 -0.005684168
-0.03938614 0.049329065 -0.19316085 -0.026966792 -0.1705309 0.3989814 0.17773543 0.57671136
0.22339027 0.11078784 -0.057678945 -1.2852384 0.059720363 -0.078198574 -0.095052004 0.64877456
0.085932374 -0.080489054 -0.009975764 -1.281961 -0.014716484 0.45084533 0.6824472 -0.038896475
-0.5065245 -0.055617437 0.3145222 0.4673354 0.6100422 -0.025821686 -0.28646052 0.46702853
-0.5639349 0.09068591 -0.0012494436 0.5386046 0.36373472 0.36412385 0.12695207 0.39546204
0.0039919326 -0.093308546 0.034779936 0.5321017 0.3753807 -0.097629935 -0.053993188 -0.9022903
-0.45213985 -0.106481336 -0.05225346 -0.042511698 -0.18676601 0.33122748 0.9057148 0.06434257
-0.07879554 0.6121063 0.2725022 0.42331955 0.24292013 0.0091784 -0.051262517 -0.082967006
0.006343087 -0.07150215 0.1671766 0.03579491 -0.7245279 0.27399087 -0.71153456 0.80522305
0.19569108 -0.013530894 -0.049358 -0.74010956 -0.024515094 0.1175158 -0.06721628 0.5230952
0.028638437 -0.018163249 -0.14727125 -0.8567831 -0.09542453 0.5033925 0.63801926 -0.13716163
-0.49670464 -0.11422259 -0.20711868 0.055798687 0.43737763 -0.1037143 -0.19672066 0.37482628
0.51892406 -0.01580568 0.006736576 0.5642321 0.32077694 0.23546892 0.15852804 0.2687501
0.16545716 0.0861261 -0.007971759 0.47374734 -0.13490078 0.07312467 0.08107454 -0.46344692
0.48365322 0.12228423 -0.031521946 -0.04565216 -0.1598711 0.3360155 0.7129284 0.0041354
0.09393138 0.52009916 0.44381958 0.51510847 0.12125459 -0.0065191095 -0.043104023 -0.041680947
-0.046117824 -0.09922853 0.35958508 0.1361015 -0.6859772 0.4333537 -0.44439128 0.8211676
0.062296662 -0.052558932 0.3151821 -0.7626019 -0.19333401 -0.012729014 0.056049578 0.576661
0.032066688 -0.087049976 0.71024114 -0.8424255 0.10515848 0.5196773 0.5344755 -0.11513386
0.033312008 0.08561945 -0.22514352 -0.17668027 0.4701547 -0.10691072 -0.5215645 0.44577214
0.43530604 0.09749583 -0.014303684 0.585584 0.32146263 0.30293125 -0.11555626 0.37590492
0.40974253 -0.037180737 0.06943472 0.3321234 -0.20690754 -0.039617106 -0.088927545 -0.4704256
0.3303939 0.07857856 0.12626663 0.08705418 -0.33632377 0.41212183 0.62200564 0.04480484
-0.03152725 0.51872617 0.8208768 0.36749387 0.40388116 0.10712211 -0.05872809 -0.054507285
0.08036672 0.019887924 0.41585046 -0.0025624507 -0.63869464 0.47092685 -0.0744367 0.77778345
-0.122010514 -0.025435677 -0.20575522 -0.72031164 0.012952823 -0.0868041 -0.03703172 0.5536976
-0.05422938 -0.08778256 -0.025324587 -0.7253896 -0.09861699 0.41026118 0.5523237 -0.12147556
0.09780591 0.02395672 -0.02497576 0.09812838 0.52319735 -0.01783432 -0.26950246 0.29461247

fc3.bias f4 [20]
00000000: 1194 0e40 f206 5d3f f356 283f a461 0c3f
00000010: ee21 f43e f999 d43e 6ea6 f83e d705 9d3e
00000020: 65f8 ae3e 59fd 433e ea95 f33d 3cff dd3e
00000030: dabf 213e 96eb 38bd 243f 113e aba8 63be
00000040: 9b6e 07be efeb acbe 9c3c a4be 913e babe
2.2277873 0.8633872 0.65757674 0.5483649 0.47682136 0.41523722 0.48564476 0.30668518
0.34173885 0.19139613 0.11893828 0.4335879 0.15795842 -0.045146547 0.14184242 -0.2223231
-0.13225786 -0.33773753 -0.3207749 -0.3637586

exp_avg f4 [64, 3]
00000000: 3c89 6040 0f9b f840 8473 5841 0000 0000
00000010: 0000 0000 0000 0000 0400 0000 0400 0000
00000020: 0400 0000 900d f341 809a ed41 6ec9 2042
00000030: 2631 c13f 3cfa 6bc0 11c1 1ec2 7a48 783e
00000040: f7ea 75c0 d6c1 c4c1 0400 0000 0400 0000
00000050: 0400 0000 79a5 3a41 0af9 d140 004a 0ec1
00000060: a169 a0be fd74 72bf 15bd bbbe 0000 0000
00000070: 0000 0000 0000 0000 9b91 59c0 01ed bbbf
00000080: ee35 69c0 186c 93be 5983 bfbd a955 8cc0
00000090: 8689 21c1 50e7 8e40 c970 cd40 1a61 0241
000000a0: c2da 0fc1 3f4b 8bc3 0400 0000 0400 0000
000000b0: 0400 0000 df24 1913 f25b cc12 91fb cb13
000000c0: 3062 083e d585 7dbc 9421 bc3e 9a64 fb3e
000000d0: 005b ba3e 9130 dc40 d730 3041 6408 a241
000000e0: d5d5 2f41 fb0f dec0 cd0c 5141 453d 46c1
000000f0: 4b9e a8bf a492 03c0 bad0 13c1 0000 0000
00000100: 0000 0000 0000 0000 0400 0000 0400 0000
00000110: 0400 0000 f73c 0e3f 7f2d e3bf b5a1 28c2
00000120: fe82 7340 9556 92c0 9818 9dc2 0000 0000
00000130: 0000 0000 0000 0000 0400 0000 0400 0000
00000140: 0400 0000 eaa1 f43f 3c16 17c0 a6f3 56c2
00000150: 0400 0080 0400 0080 0400 0080 0000 0000
00000160: 0000 0000 0000 0000 54fe 5c3f 35da 803d
00000170: 92fd d13f 29d7 4a3b 84b7 6c3d b737 c33b
00000180: 48dd 8a41 57a3 1b41 8603 a2c1 0400 0000
00000190: 0400 0000 0400 0000 f76c 0c3b 3588 2f3d
000001a0: f76c 8c3b e1d3 213d 8edc 4a3f 5eeb 8c3e
000001b0: 0400 0000 0400 0000 0400 0000 0000 0000
000001c0: 0000 0000 0000 0000 dd27 753b 6717 753b
000001d0: 30bd b73d a9d6 3e3a a88b 6e3c ed09 ee3b
000001e0: e0eb 8e40 2463 5740 a2c6 a240 0400 0000
000001f0: 0400 0000 0400 0000 e605 3d40 b8a7 73bf
00000200: ed24 98c2 0000 0000 0000 0000 0000 0000
00000210: 5593 9140 5f11 cabf 98b5 adc2 4dc1 1ebf
00000220: 1c1e 823e ab33 233f 0000 0000 0000 0000
00000230: 0000 0000 11fb ec3d 86cb 163f b4aa 273e
00000240: 0400 0000 0400 0000 0400 0000 08d7 7bbe
00000250: f588 11c1 a576 20c2 80b7 443e 9363 76bc
00000260: 88de 113e 98c5 883d bb9c 903f 0d6b ce3e
00000270: 95b5 ff3f cf59 a3c0 3b63 90c2 f292 b5bf
00000280: 137a 15c0 5a02 df40 1d4b f0be fcef 19c1
00000290: ad1c 05c2 0000 0000 0000 0000 0000 0000
000002a0: 3277 9d40 4b2e 03c1 692d e0c2 0400 0080
000002b0: 0400 0080 0400 0080 d1e0 f7bf 32e3 3d3e
000002c0: 2859 62c0 07b1 a93f 9d1e 8240 3064 6e42
000002d0: 0400 0000 0400 0000 0400 0000 0000 0000
000002e0: 0000 0000 0000 0000 b5b2 df35 cef9 9535
000002f0: dc13 9436 31d3 d035 5c13 8c35 8f24 8a36
3.5083761 7.768928 13.528202 0.0 0.0 0.0 6e-45 6e-45
6e-45 30.381622 29.70044 40.19671 1.5093124 -3.687148 -39.68854 0.24246398
-3.842466 -24.594646 6e-45 6e-45 6e-45 11.665399 6.5616503 -8.893066
-0.31330588 -0.9470976 -0.36667696 0.0 0.0 0.0 -3.399512 -1.4681703
-3.6439166 -0.28793406 -0.093512245 -4.3854566 -10.096075 4.4657364 6.4200177 8.148706
-8.990908 -278.58786 6e-45 6e-45 6e-45 1.9329494e-27 1.2896876e-27 5.1492468e-27
0.13318706 -0.015473803 0.36744368 0.4910019 0.36397552 6.8809285 11.011924 20.254097
10.989705 -6.9394507 13.065625 -12.389958 -1.3173307 -2.0558252 -9.238459 0.0
0.0 0.0 6e-45 6e-45 6e-45 0.55561775 -1.7748259 -42.157917
3.8048701 -4.573069 -78.548035 0.0 0.0 0.0 6e-45 6e-45
6e-45 1.9111912 -2.360732 -53.737938 -6e-45 -6e-45 -6e-45 0.0
0.0 0.0 0.86325574 0.0629162 1.6405509 0.0030951 0.0577922 0.0059575695
17.358047 9.727378 -20.25172 6e-45 6e-45 6e-45 0.0021427253 0.042854507
0.0042854506 0.039508704 0.7924279 0.2752332 6e-45 6e-45 6e-45 0.0
0.0 0.0 0.0037407794 0.0037397982 0.089716315 0.00072799117 0.014559664 0.007264367
4.4662933 3.365426 5.086747 6e-45 6e-45 6e-45 2.953485 -0.95177794
-76.07212 0.0 0.0 0.0 4.549235 -1.5786551 -86.854675 -0.62013704
0.25413597 0.63750714 0.0 0.0 0.0 0.115713246 0.589043 0.16373712
6e-45 6e-45 6e-45 -0.24593747 -9.095937 -40.115864 0.19210625 -0.015038389
0.14245045 0.06678313 1.129783 0.40316048 1.997729 -5.104713 -72.19381 -1.4185469
-2.3355758 6.969037 -0.46932307 -9.62109 -33.278004 0.0 0.0 0.0
4.9208 -8.198802 -112.08869 -6e-45 -6e-45 -6e-45 -1.9365484 0.185437
-3.5366917 1.325715 4.066237 59.59784 6e-45 6e-45 6e-45 0.0
0.0 0.0 1.6666805e-06 1.1174068e-06 4.4130556e-06 1.5558672e-06 1.0436447e-06 4.1169765e-06

exp_avg_sq f4 [64, 3]
00000000: 4198 c344 1e76 c144 8770 ac45 0000 0000
00000010: 0000 0000 0000 0000 f401 0000 f401 0000
00000020: f401 0000 d956 7845 e8c5 0346 db1d de45
00000030: 8c9a db43 1150 4544 2cc1 0a47 387d 8a43
00000040: d04c dd43 0fbf 4846 f401 0000 f401 0000
00000050: f401 0000 72ee 8b44 361b 1444 7df2 b046
00000060: 0706 0440 30da c841 b449 1141 0000 0000
00000070: 0000 0000 0000 0000 6a85 ff41 ba79 ff3f
00000080: 43bf cd42 878e 4a3f 5cf7 b53f fcba 7f45
00000090: 628a 5347 090d 5647 95cf d048 c58d dd44
000000a0: cc11 1f46 6294 7b49 d914 262a 1f6a 992b
000000b0: 85f2 1632 6d6b de3c f077 183c 2f28 6140
000000c0: b21e b741 a1af 303f 5688 8642 32dd 7e40
000000d0: 5d19 833f 7e49 d943 5f76 f145 b3e5 3c46
000000e0: d462 1e46 5b9b 2447 00bb 1547 a6ff 2d48
000000f0: 2b5c 8643 78e7 9244 592a 5046 0000 0000
00000100: 0000 0000 0000 0000 f401 0000 f401 0000
00000110: f401 0000 263c c641 70c0 8343 e6f9 7146
00000120: 5eeb f143 9e40 bb44 f129 df47 0000 0000
00000130: 0000 0000 0000 0000 4d91 ec2a 4894 2b2f
00000140: e074 f22b dcbf 7542 62ee 0b44 73bd 2047
00000150: c99d 0f2c 4e4d 8d2e 31d7 102c 0000 0000
00000160: 0000 0000 0000 0000 431e a440 f303 873d
00000170: b35f a941 c220 1940 32ce 4c42 61f3 5c40
00000180: aee0 3245 da12 e144 33c9 8847 14af a815
00000190: 971f ac13 404d 0016 6659 983d 8b9e 0d41
000001a0: 47f7 353e 16e0 063d 3246 0341 2be9 9e3f
000001b0: 807b 8d07 7715 c704 807b 8d07 0000 0000
000001c0: 0000 0000 0000 0000 b7c1 3a3e 7b64 233e
000001d0: 64bf 8742 c1e2 103d 69fc 0c41 9034 4e3f
000001e0: 1a7e ce43 f60c 2544 9223 b744 e269 0100
000001f0: 5b02 0000 d8cb 0100 3058 2043 5925 7644
00000200: 427f 9d47 0000 0000 0000 0000 0000 0000
00000210: e527 3c43 9af2 a644 d79e de47 6a27 2d41
00000220: dfb0 b143 4ddc 3b46 0000 0000 0000 0000
00000230: 0000 0000 9e9f a340 998e 1843 9ef5 f940
00000240: b088 8738 10a9 c938 7022 ed3f 6d56 9145
00000250: f116 b245 0d33 9847 a653 8f41 218d 2a43
00000260: b52c 0142 46f5 6e3d 1b82 3b41 185b 9e3f
00000270: 3e70 2c44 f989 c444 a786 b147 4df5 3f43
00000280: c8ca e343 4cd8 8545 52a2 ab45 b3b1 d645
00000290: e0fb 9f47 0000 0000 0000 0000 0000 0000
000002a0: a347 0345 1c16 7145 7b9a 6748 c315 a53b
000002b0: 58f2 a63c e262 e43d 0236 a343 807f 2942
000002c0: dbef a744 e8ef 8140 4437 a142 221c 6546
000002d0: 70c6 b613 7152 8317 d65d 1214 0000 0000
000002e0: 0000 0000 0000 0000 39d3 523e a37c f43b
000002f0: 8f7d fc3f 04cb 953e 4144 f03c 6d0f 7741
1564.7579 1547.6912 5518.066 0.0 0.0 0.0 7e-43 7e-43
7e-43 3973.428 8433.477 7107.732 439.2074 789.25104 35521.17 276.97827
442.6001 12847.765 7e-43 7e-43 7e-43 1119.4514 592.4252 22649.244
2.0628679 25.106537 9.080494 0.0 0.0 0.0 31.940144 1.9959023
102.87356 0.7912373 1.4216113 4091.6865 54154.383 54797.035 427644.66 1772.4303
10180.449 1.0304701e+06 1.4750995e-13 1.0900758e-12 8.786292e-09 0.027150834 0.009305939 3.5180776
22.889988 0.6901799 67.26628 3.9822507 1.0242115 434.57416 7726.7964 12089.425
10136.707 42139.355 38331.0 178174.6 268.72006 1175.2334 13322.587 0.0
0.0 0.0 7e-43 7e-43 7e-43 24.77937 263.50342 15486.475
483.8388 1498.0193 114259.88 0.0 0.0 0.0 4.2022844e-13 1.560504e-10
1.7227574e-12 61.437363 559.72473 41149.45 2.040911e-12 6.42567e-11 2.0583086e-12 0.0
0.0 0.0 5.128694 0.0659255 21.171728 2.3926244 51.201363 3.4523547
2862.0425 1800.5891 70034.4 6.8130884e-26 4.3450054e-27 1.0364133e-25 0.074389264 8.851207
0.1777011 0.03292855 8.204638 1.2414907 2.1287909e-34 4.6804388e-36 2.1287909e-34 0.0
0.0 0.0 0.18237959 0.15956299 67.87381 0.0353725 8.811624 0.80548954
412.98517 660.2025 1465.1116 1.29819e-40 8.45e-43 1.64961e-40 160.34448 984.58356
80638.516 0.0 0.0 0.0 188.15584 1335.5813 113981.68 10.822123
355.3818 12023.075 0.0 0.0 0.0 5.1132345 152.55702 7.8112326
6.462762e-05 9.615917e-05 1.8526134 4650.803 5698.8677 77926.1 17.915844 170.55128
32.29366 0.05833938 11.719264 1.237155 689.7538 1572.3116 90893.305 191.9582
455.58423 4283.037 5492.29 6870.2124 81911.75 0.0 0.0 0.0
2100.4773 3857.3818 237161.92 0.0050379946 0.02037923 0.11151673 326.42194 42.37451
1343.4955 4.0605354 80.60794 14663.033 4.6138934e-27 8.486488e-25 7.389622e-27 0.0
0.0 0.0 0.20588388 0.007461147 1.9725817 0.2925645 0.029329421 15.441266
