beer/experiments/MA/MA_0.05/models/dqn_agent_firm_2_episode_5000.pth (torch, 101224 bytes, 24 tensors)

fc1.weight f4 [64, 3]
0.11649061 -1.3167356 0.40467957 -0.2888035 -0.22791272 -0.5507603 -0.23364593 0.89073926
-0.006934112 0.21217209 -0.12756062 0.09151859 0.20539665 -0.5133886 -0.29644808 0.05782882
1.5234219 -0.035166796 -0.51880217 -0.6107931 0.40437424 -0.9277579 0.099295445 0.064170316
-0.0069058514 1.317818 0.026450625 -0.6595229 0.22206853 0.2316895 -0.2932771 -0.8728656
0.21052505 0.045560606 0.64925855 -0.043331333 0.17390287 -3.118992 0.13773204 0.33552954
1.9358188 -0.1365802 -0.1918655 -0.36803275 -0.44502962 -0.051177338 0.83675194 -0.42687634
0.20046693 -1.3787165 0.16593035 0.15213263 0.20242544 -0.07798833 -0.19619898 -0.12592751
0.2621074 0.12513018 0.41530854 -0.045390602 -0.16536777 0.5439642 0.07475948 -0.33752662
0.7636511 0.036505327 -0.013038695 -0.111928314 -0.50278264 0.69984204 -1.0425601 0.29744595
0.8621125 -0.5188266 0.09922067 -0.047701348 1.8107285 -0.028132768 0.27166376 -0.30667394
0.05299051 0.8355214 -0.20812345 -0.2815631 1.1084434 0.36449513 -0.029765783 0.2010992
0.33839476 0.2852837 0.25519866 -0.090979755 0.16658214 -0.27472454 -0.8881022 0.2872437
0.10778166 -2.0240557 0.20632032 -0.13282454 0.8510881 -0.024168823 0.2282919 0.9707915
-0.041321825 -0.6441165 0.7508646 -0.10830269 -0.16585949 -1.7417579 0.26410332 -0.52392673
-0.43857002 -0.35558316 -0.12399443 -0.22859833 0.13214436 0.5305185 -0.45761403 0.028713193
-0.0042826533 -0.16902196 -0.4330407 0.17138584 0.4477009 -0.044939153 -0.4249796 -0.1933832
0.11203489 0.019550668 0.67604876 -0.04526602 -0.008688512 1.6768383 -0.03612808 -0.281167
-0.073135756 0.18876718 0.19293576 -0.3780953 -0.576335 -0.010752242 1.9496187 -0.036658045
0.09738343 0.17402938 0.05741186 0.6345277 -0.16188994 -0.031174729 0.07073414 -0.36152995
-0.18482494 0.5392641 0.09351252 0.11385321 -0.6128759 -0.91393167 0.27518007 -0.870139
0.3721269 -0.29926416 -0.119384624 -0.29751766 0.1693548 0.7185473 -0.33246604 0.10104196
0.09490349 0.41058812 -0.63463074 0.09283996 -0.21508262 -0.5105193 -0.4949091 -0.63276625
0.054071754 0.34198844 -0.14390205 0.29217693 0.15267634 0.9296845 -0.04046188 -0.414987
0.791756 0.07689475 -0.2906006 -0.44596255 -0.36548254 0.2416379 0.24317436 -0.042503253
00000000: a192 ee3d cb8a a8bf 2932 cf3e 0dde 93be
00000010: f461 69be a1fe 0cbf e140 6fbe 7d07 643f
00000020: 8c37 e3bb a443 593e 409f 02be 196e bb3d
00000030: 8053 523e 6f6d 03bf 0bc8 97be eadd 6c3d
00000040: 7dff c23f 0f0b 10bd 38d0 04bf f05c 1cbf
00000050: 240a cf3e 8b81 6dbf 695b cb3d ba6b 833d
00000060: 7b4a e2bb 43ae a83f fbae d83c 7ed6 28bf
00000070: ef65 633e 0340 6d3e 6b28 96be 1f74 5fbf
00000080: e193 573e c29d 3a3d cf35 263f 327c 31bd
00000090: 9813 323e 919d 47c0 a109 0d3e 87ca ab3e
000000a0: e9c8 f73f aedb 0bbe 6478 44be ca6e bcbe
000000b0: ecda e3be 549f 51bd 6035 563f 898f dabe
000000c0: 3447 4d3e c879 b0bf a5e9 293e a8c8 1b3e
000000d0: 9d48 4f3e 58b8 9fbd 63e8 48be 24f3 00be
000000e0: f132 863e 2022 003e 52a3 d43e 7feb 39bd
000000f0: 2b56 29be 3d41 0b3f 801b 993d 4ad0 acbe
00000100: a37e 433f 9c86 153d 40a0 55bc ac3a e5bd
00000110: 5db6 00bf d928 333f 9c72 85bf d64a 983e
00000120: 68b3 5c3f d2d1 04bf 3534 cb3d 7d62 43bd
00000130: f4c5 e73f b176 e6bc 8317 8b3e 5e04 9dbe
00000140: 940c 593d bbe4 553f 501e 55be 0a29 90be
00000150: 79e1 8d3f 1b9f ba3e 5fd7 f3bc f3ec 4d3e
00000160: 1442 ad3e b510 923e 66a9 823e 9853 babd
00000170: 8294 2a3e b2a8 8cbe aa5a 63bf 9b11 933e
00000180: a2bc dc3d 218a 01c0 a245 533e 2803 08be
00000190: e9e0 593f b2fd c5bc 5ac5 693e cb85 783f
000001a0: 1341 29bd d2e4 24bf aa38 403f cdcd ddbd
000001b0: 12d7 29be ecf1 debf 8d38 873e 1020 06bf
000001c0: 408c e0be ff0e b6be cbf0 fdbd ae15 6abe
000001d0: da50 073e 0fd0 073f 634c eabe ee37 eb3c
000001e0: 8055 8cbb 1814 2dbe 83b7 ddbe c57f 2f3e
000001f0: 0d39 e53e 1e12 38bd ed96 d9be 3f06 46be
00000200: 8c72 e53d b928 a03c 8811 2d3f dd68 39bd
00000210: 435a 0ebc a3a2 d63f 0afb 13bd 1ff5 8fbe
00000220: 33c8 95bd 2f4c 413e f490 453e b595 c1be
00000230: b18a 13bf 2c2a 30bc 1b8d f93f bf26 16bd
00000240: f770 c73d c234 323e b328 6b3d 6870 223f
00000250: 7ac6 25be 2562 ffbc 10dd 903d 741a b9be
00000260: c042 3dbe 360d 0a3f 7e83 bf3d df2b e93d
00000270: 6fe5 1cbf 6df7 69bf 67e4 8c3e 6ec1 5ebf
00000280: 6b87 be3e 2739 99be ed7f f4bd 3c54 98be
00000290: 586b 2d3e b7f2 373f fd38 aabe 16ef ce3d
000002a0: c35c c23d 9b38 d23e 2977 22bf e022 be3d
000002b0: 9e3e 5cbe 65b1 02bf ba64 fdbe f8fc 21bf
000002c0: 587a 5d3d 1c19 af3e 0f5b 13be 3798 953e
000002d0: 3057 1c3e ceff 6d3f 5bbb 25bd 2d79 d4be
000002e0: 85b0 4a3f ff7a 9d3d 9ac9 94be 3455 e4be
000002f0: 8720 bbbe ed6f 773e b302 793e e417 2ebd

fc1.bias f4 [64]
-4.8682623 -0.55316496 5.186904 -4.8151526 0.37723744 -0.43515047 -6.575502 5.573303
-2.3165014 -6.121609 5.142739 4.500529 -0.62933433 -1.9901555 -0.3809451 1.1069816
6.797625 3.6991043 -5.7859755 5.33556 -6.24987 5.0750704 0.20553523 -5.0113206
-5.236012 -0.9908501 5.948853 1.3492132 2.5479996 -6.892617 -5.463392 -5.7294245
-4.1878424 3.980655 4.7486453 0.54059994 5.2169485 0.48189247 -5.5424786 5.4711833
0.07859743 4.803134 5.0727873 0.92808306 -0.020579385 -5.86812 -0.4549026 -0.42841023
-4.97357 5.448636 -0.47491145 -5.7860756 -6.010536 -1.6771761 -7.167928 -4.963323
1.8977176 0.55527484 2.7648218 -6.0118423 3.8153014 5.0648623 0.13222903 4.868406
00000000: cec8 9bc0 389c 0dbf 1efb a540 bb15 9ac0
00000010: 4425 c13e 0bcc debe 836a d2c0 8058 b240
00000020: 8f41 14c0 39e4 c3c0 5191 a440 5504 9040
00000030: 0e1c 21bf 6abd febf 3c0b c3be 93b1 8d3f
00000040: 2586 d940 20be 6c40 b626 b9c0 e8bc aa40
00000050: effe c7c0 fa66 a240 d477 523e bd5c a0c0
00000060: 698d a7c0 5aa8 7dbf 015d be40 05b3 ac3f
00000070: 6d12 2340 5290 dcc0 1bd4 aec0 7257 b7c0
00000080: ce02 86c0 0dc3 7e40 e7f4 9740 c264 0a3f
00000090: 3ef1 a640 9cba f63e fc5b b1c0 ef13 af40
000000a0: b0f7 a03d 46b3 9940 4654 a240 da96 6d3f
000000b0: 1996 a8bc a4c7 bbc0 fee8 e8be 9658 dbbe
000000c0: 7c27 9fc0 3a5b ae40 9827 f3be 8827 b9c0
000000d0: 5056 c0c0 b5ad d6bf ab5f e5c0 8bd3 9ec0
000000e0: 69e8 f23f 7e26 0e3f d7f2 3040 0361 c0c0
000000f0: e62d 7440 5a13 a240 0c67 073e fbc9 9b40

fc2.weight f4 [64, 64]
0.019773394 -0.06780818 -0.061996695 -0.14228342 0.015333727 -0.13846467 -0.06471346 -0.05255267
-0.069852084 -0.15193662 -0.0057676863 -0.08767151 -0.12684457 0.007518396 0.06210816 -0.056603774
-0.0070566223 -0.026598757 -0.05464303 -0.12919918 0.039508417 0.10459158 0.07392204 0.043374393
-0.06169618 -0.07374412 0.08145104 -0.11390093 0.07009397 0.03255761 0.062797524 -0.05941433
0.048418 -0.013438524 -0.124090396 0.07350305 -0.12717892 -0.12221271 -0.100036144 -0.096333735
0.044696838 0.008681176 0.027309839 0.090911716 -0.10558043 0.06486629 0.015267357 0.022393435
-0.06525936 0.009581067 -0.09641275 -0.053716976 -0.07691984 -0.067024514 -0.008687288 0.08415223
-0.05422762 -0.107878074 0.08640901 -0.118191995 0.064644106 -0.044090196 -0.015079886 -0.08675463
-0.019980347 -0.087409735 -0.040578682 -0.018531352 0.11971435 -0.011213303 -0.060903315 -0.14291257
-0.011513959 0.07049089 0.0018049116 -0.03125008 0.0481294 0.061037228 -0.03686759 -0.0990154
0.00029170426 -0.11208646 0.020162402 -0.08677852 0.04568565 -0.1094163 -0.09528428 -0.13172272
-0.11078817 0.09218407 0.075951785 -0.0402575 -0.10007517 -0.089767985 -0.15290876 -0.02210143
-0.032703355 0.11530468 0.052334763 -0.09935247 0.03310726 -0.0136730075 -0.08912906 0.04163033
-0.016657427 -0.08237222 -0.15492351 -0.051815096 -0.0704316 -0.10549152 0.008690715 -0.109246194
-0.14769179 -0.045608692 -0.056791067 -0.039860427 0.02997048 -0.047014978 -0.16385409 -0.051211264
0.04072675 -0.039773896 0.009210634 0.023461403 0.06235542 0.043588053 0.038078874 0.12136133
0.0009996742 -0.035559937 -0.06266455 0.035933062 0.0022880435 -0.089196324 0.06581415 0.013878673
-0.12313196 -0.038707614 -0.11099176 -0.06546101 0.08860497 -0.115289524 0.07430549 -0.038674086
0.067421004 0.000533551 -0.06289388 -0.10521658 0.039223522 -0.08952297 -0.11802578 -0.06663494
-0.03130901 -0.056904614 -0.09523246 0.05590278 -0.04137592 -0.012751892 0.002356574 -0.046915114
-0.018648162 -0.05568762 0.0043550283 -0.051702604 0.017261475 0.012900546 0.016096279 -0.123226315
0.08420324 0.010294557 -0.11963433 -0.04112105 -0.008058131 0.07276794 -0.016107127 0.063739404
-0.07348022 -0.10436483 -0.018974721 -0.03525518 0.06364882 -0.07062405 0.06067182 -0.07882325
0.09079401 -0.09990111 -0.10119912 -0.103082016 0.09874228 0.113893524 -0.060987115 0.037181303
-0.13776986 -0.0961009 1.1242125 -0.7957845 -0.0014204532 -0.37747473 -0.45195997 0.4708219
-0.80260444 -0.39679977 0.24509118 0.9548427 0.38889626 0.13922685 -0.0069710463 -0.3354874
0.66260815 -0.89291954 -0.22457075 1.3999931 -2.310462 0.9791057 -0.02661866 -0.15569256
-0.65233386 -0.58227235 1.6083282 -0.16208434 0.29126257 -0.63222784 -0.41083205 -0.30050805
-0.21105139 0.44629753 0.58442724 0.3432417 0.29356197 -0.12374221 -0.75986665 1.2914023
-0.075111836 0.8186865 0.25729614 0.37400496 -0.5864735 -0.38531628 0.03865841 -0.25302675
-1.1802962 1.1855655 -0.0041005313 -0.59677315 -0.38271734 -0.42202866 -1.4269881 -0.58395904
-0.6792801 -0.11808561 0.123298325 -0.28863022 0.40028998 1.116478 -0.11741078 1.141652
00000000: d0fb a13c 04df 8abd 3ff0 7dbd bfb2 11be
00000010: 503a 7b3c afc9 0dbe 7e88 84bd 7841 57bd
00000020: 9c0e 8fbd 4695 1bbe dcfe bcbb 1f8d b3bd
00000030: 8be3 01be e05c f63b 2065 7e3d 5cd9 67bd
00000040: 3d3b e7bb a3e5 d9bc 5fd1 5fbd ca4c 04be
00000050: 94d3 213d 1c34 d63d 7064 973d 59a9 313d
00000060: 22b5 7cbd 2807 97bd cecf a63d e444 e9bd
00000070: 6d8d 8f3d 215b 053d fd9b 803d 715c 73bd
00000080: f451 463d 412d 5cbc 1b23 febd c488 963d
00000090: 313b 02be a84a fabd c0df ccbd 9f4a c5bd
000000a0: 0814 373d 7e3b 0e3c e2b8 df3c ec2f ba3d
000000b0: 8d3a d8bd 9ed8 843d f023 7a3c 7072 b73c
000000c0: b3a6 85bd e8f9 1c3c 0c74 c5bd 5506 5cbd
000000d0: 2688 9dbd 2644 89bd 2055 0ebc 0158 ac3d
000000e0: c81d 5ebd 2eef dcbd 35f7 b03d a50e f2bd
000000f0: 2164 843d ec97 34bd a011 77bc 69ac b1bd
00000100: d3ad a3bc e003 b3bd d535 26bd 10cf 97bc
00000110: cc2c f53d 00b8 37bc c175 79bd ac57 12be
00000120: 0ba5 3cbc 875d 903d c992 ec3a 1500 00bd
00000130: 5523 453d 2c02 7a3d 7802 17bd 96c8 cabd
00000140: e2ef 9839 968d e5bd 9f2b a53c f0b8 b1bd
00000150: e020 3b3d a715 e0bd 6824 c3bd 52e2 06be
00000160: e8e4 e2bd 00cb bc3d 9c8c 9b3d 0ce5 24bd
00000170: 36f4 ccbd 47d8 b7bd 1d94 1cbe 0f0e b5bc
00000180: f4f3 05bd dc24 ec3d fa5c 563d 4f79 cbbd
00000190: 7a9b 073d c004 60bc 4c89 b6bd 9184 2a3d
000001a0: 2875 88bc c4b2 a8bd 45a4 1ebe 113c 54bd
000001b0: 713e 90bd f00b d8bd 8063 0e3c 78bc dfbd
000001c0: 843c 17be 2ed0 3abd c09d 68bd b044 23bd
000001d0: a784 f53c c792 40bd 5ec9 27be e7c2 51bd
000001e0: 18d1 263d f4e9 22bd 33e8 163c 2132 c03c
000001f0: 6668 7f3d 6389 323d 98f8 1b3d 4a8c f83d
00000200: 8007 833a 4ca7 11bd 4656 80bd 8c2e 133d
00000210: 00f3 153b 90ac b6bd 92c9 863d 6063 633c
00000220: 9c2c fcbd e08b 1ebd a64f e3bd 6c10 86bd
00000230: 8676 b53d ea1c ecbd 7a2d 983d b868 1ebd
00000240: 0614 8a3d 00de 0b3a 82ce 80bd ca7b d7bd
00000250: d8a8 203d d257 b7bd 80b7 f1bd e677 88bd
00000260: e03d 00bd d014 69bd 3c09 c3bd 50fa 643d
00000270: cc79 29bd 50ed 50bc c070 1a3b 102a 40bd
00000280: 08c4 98bc b418 64bd a0b4 8e3b 1cc6 53bd
00000290: f067 8d3c d05c 533c 58dc 833c 145e fcbd
000002a0: c072 ac3d 80aa 283c d802 f5bd 8c6e 28bd
000002b0: 4006 04bc 5c07 953d 18f3 83bc ce89 823d
000002c0: cc7c 96bd 3abd d5bd e070 9bbc bc67 10bd
000002d0: 505a 823d 58a3 90bd 0483 783d 166e a1bd
000002e0: 36f2 b93d f498 ccbd 7c41 cfbd aa1c d3bd
000002f0: 6439 ca3d 0241 e93d a0cd 79bd 6c4b 183d
00000300: 8b13 0dbe 8cd0 c4bd 32e6 8f3f 88b8 4bbf
00000310: 802e baba 5e44 c1be 4c67 e7be 910f f13e
00000320: 7c77 4dbf 5729 cbbe 2ff9 7a3e 9270 743f
00000330: 691d c73e 7c91 0e3e 606d e4bb 01c5 abbe
00000340: b0a0 293f 6096 64bf e0f5 65be f932 b33f
00000350: 9cde 13c0 aca6 7a3f 600f dabc df6d 1fbe
00000360: 5aff 26bf cd0f 15bf b3dd cd3f 70f9 25be
00000370: 5e20 953e afd9 21bf 9458 d2be 31dc 99be
00000380: db1d 58be 1c81 e43e 069d 153f 60bd af3e
00000390: c14d 963e 8e6c fdbd 9f86 42bf ac4c a53f
000003a0: 3cd4 99bd 7095 513f 52bc 833e 947d bf3e
000003b0: 2123 16bf 2d48 c5be 4858 1e3d b98c 81be
000003c0: f213 97bf 9cc0 973f c05d 86bb 20c6 18bf
000003d0: 87f3 c3be 2414 d8be 8ca7 b6bf 577e 15bf
000003e0: 4de5 2dbf ded6 f1bd d583 fc3d 57c7 93be
000003f0: cff2 cc3e c0e8 8e3f 1075 f0bd a721 923f

fc2.bias f4 [64]
-0.059987046 0.053157765 -0.1106175 4.1095786 0.0350634 3.5628164 -0.056301042 3.3600774
-0.1121535 0.12183532 -0.001622909 3.5818791 2.2874277 1.8921903 3.0488508 -0.10807597
0.08623831 -0.02125206 3.9857183 3.522801 -0.005955172 -2.1597154 1.8004196 2.7428985
-0.21834144 3.736809 3.1872795 -0.014705636 3.8535707 3.288459 0.048751708 0.31088552
2.5378458 -0.13282195 2.8210316 0.08011997 2.2218008 -0.058636487 2.1917148 3.544181
3.293436 1.8454894 4.087128 3.9172397 -0.32364625 2.8926132 0.049458407 -0.21854912
3.955464 4.093533 -1.6147704 2.5538573 1.8343017 3.603782 0.8400325 0.011936545
0.47068545 -0.05810029 -0.046616025 0.014490781 1.7093995 -0.16124775 -0.10033028 3.2521327
00000000: fab4 75bd f5bb 593d 6e8b e2bd ab81 8340
00000010: a49e 0f3d 2f05 6440 ec9b 66bd 820b 5740
00000020: bcb0 e5bd cc84 f93d cab7 d4ba 823d 6540
00000030: 3765 1240 4b33 f23f 5f20 4340 ef56 ddbd
00000040: b69d b03d cd18 aebc 0216 7f40 9275 6140
00000050: 9a23 c3bb c738 0ac0 2674 e63f a68b 2f40
00000060: e694 5fbe e127 6f40 63fc 4b40 e8ef 70bc
00000070: e7a0 7640 1d76 5240 dfaf 473d 632c 9f3e
00000080: 116c 2240 7a02 08be c88b 3440 f015 a43d
00000090: fc31 0e40 d02c 70bd 0e45 0c40 ddd3 6240
000000a0: a8c7 5240 ff38 ec3f c1c9 8240 0eb4 7a40
000000b0: f6b4 a5be 9320 3940 e694 4a3d 57cb 5fbe
000000c0: 5226 7d40 39fe 8240 ccb0 cebf 6672 2340
000000d0: 66ca ea3f 5da4 6640 5f0c 573f 8091 433c
000000e0: affd f03e 92fa 6dbd 72f0 3ebd be6a 6d3c
000000f0: 9acd da3f 211e 25be f679 cdbd f122 5040

fc3.weight f4 [20, 64]
0.0022647372 0.078149565 0.028526023 2.101474 -0.026539505 1.5386696 -0.01865895 1.2509782
0.009977209 0.56169623 0.06187512 1.759594 1.57606 -1.1481961 1.3068846 -0.0041136513
0.049640134 -0.033340603 1.4580743 1.526053 0.010821074 -1.6952426 -4.1572313 0.95051223
-0.46301752 1.5017811 1.2784561 -0.076686725 1.4456778 1.369997 0.013351147 0.7420809
1.03074 -0.03450424 1.277963 0.10724885 -3.3160112 -0.020518228 -0.3254529 1.7436199
1.6565666 -3.551007 1.6616409 2.1547935 -0.1681769 0.6825167 -0.10610663 1.3270859
1.6768924 2.1846797 -0.48132122 -2.9050162 0.36362496 1.3593706 -1.4028211 -0.10709129
-0.734406 -0.09592816 0.04664295 -0.10704793 -3.1535816 -0.078067675 0.05580262 1.0078993
-0.031223327 0.10058045 -0.12245545 0.99054974 -0.10657066 0.4570401 -0.08845918 0.7251655
0.015367168 1.2132196 -0.098700956 0.97904515 2.6503453 0.49435276 0.90954477 -0.01262696
0.094760135 0.11045931 1.0376298 1.0584207 0.010681987 -0.94916624 -0.601203 0.7110616
1.1859426 1.0140651 0.66147065 -0.068077646 1.029866 0.9655225 0.091142565 1.2169434
0.52707446 0.01072025 1.0501974 0.14104375 -1.6055679 -0.11517182 -1.6019397 0.7163055
1.8788893 -0.7096622 0.99378794 0.77791864 0.20913242 0.5896392 0.096368365 1.5218741
1.0287207 0.9106736 -0.5295883 -0.33842844 0.58637065 0.86477745 -0.6281704 -0.05151768
0.15350099 0.07236296 0.04693148 0.10397601 -0.7840754 -0.08797371 -0.07498875 0.70348144
0.085523486 -0.027388496 -0.04277292 0.9121628 -0.0023712069 0.51641244 0.06873828 0.67702615
0.014997103 1.7981323 -0.023493383 0.7868412 2.5927503 -0.14759101 1.344776 -0.15598431
-0.061371088 -0.031931773 0.7579799 1.3437675 -0.088410124 -0.9214024 -0.608754 -0.15013067
0.8296706 0.8456917 0.9218716 0.121163465 0.8211681 1.1922693 0.06355937 0.8928429
1.6614454 0.090873495 1.3248553 -0.015024113 -1.747479 -0.028180793 -1.7186053 0.7498669
1.7509744 -0.9132169 0.77975845 0.86972487 -0.07124389 0.3911408 0.063768774 2.159509
1.0119228 0.99697536 -0.5011882 -0.16151841 0.60304403 0.8616803 -1.4411999 -0.06042421
0.32613635 -0.019478276 0.01070108 0.019365689 -0.5917365 -0.0069123805 -0.039858997 1.5202832
0.029595941 -0.057124067 0.008722961 0.9888589 0.03813599 0.7404884 0.059892207 0.7652184
0.0044675786 1.2575089 0.07780895 0.951091 2.3702974 0.18233867 0.7537869 -0.049348567
0.07733305 -0.070465 1.0522094 1.0096759 0.0402662 -0.72469527 -0.452234 0.44905597
0.81131196 1.004319 0.8769236 -0.08642461 0.8847986 0.964443 -0.05624363 0.70117223
0.5963191 -0.10092083 0.74814314 -0.119632535 -1.3197477 -0.08927517 -1.4167798 0.8883758
1.8985633 -1.0100014 0.91973644 0.9261378 0.5204002 0.6238403 -0.097847655 1.3322688
1.08572 0.8816182 -0.62946516 -0.47277325 0.6147566 0.8492023 -1.0131968 0.050042793
0.52497643 -0.12100445 -0.22438265 0.056348737 -0.6616178 0.074505836 0.006751751 0.90834206
00000000: fc6b 143b e10c a03d 68af e93c 8d7e 0640
00000010: 6069 d9bc 20f3 c43f a8da 98bc 0e20 a03f
00000020: 7377 233c 53cb 0f3f c470 7d3d 603a e13f
00000030: 56bc c93f 17f8 92bf ff47 a73f cfcb 86bb
00000040: 7453 4b3d 2890 08bd 2ea2 ba3f b455 c33f
00000050: e04a 313c b6fd d8bf 0a08 85c0 c554 733f
00000060: a210 edbe 5d3a c03f 73a4 a33f ee0d 9dbd
00000070: f80b b93f 105c af3f c5be 5a3c 04f9 3d3f
00000080: 4aef 833f 5154 0dbd 4b94 a33f 49a5 db3d
00000090: 8739 54c0 d815 a8bc c3a1 a6be f02e df3f
000000a0: 600a d43f b343 63c0 a6b0 d43f 23e8 0940
000000b0: 9136 2cbe 6ab9 2e3f 6f4e d9bd f3dd a93f
000000c0: 69a4 d63f cbd1 0b40 bc6f f6be c9eb 39c0
000000d0: 0d2d ba3e dbff ad3f a48f b3bf ae52 dbbd
000000e0: 0802 3cbf fc75 c4bd ae0c 3f3d f23b dbbd
000000f0: 48d4 49c0 f2e1 9fbd 4a91 643d d802 813f
00000100: 10c8 ffbc 1ffd cd3d ecc9 fabd ab94 7d3f
00000110: b841 dabd 2901 ea3e 162a b5bd 72a4 393f
00000120: 93c6 7b3c c84a 9b3f ba23 cabd b4a2 7a3f
00000130: 429f 2940 ce1b fd3e edd7 683f 4fe1 4ebc
00000140: 9a11 c23d 7e38 e23d 0ed1 843f 547a 873f
00000150: 8003 2f3c 8ffc 72bf 71e8 19bf 2208 363f
00000160: f8cc 973f e3cc 813f 2456 293f 4b6c 8bbd
00000170: a6d2 833f 7c2c 773f f4a8 ba3d cdc4 9b3f
00000180: 5aee 063f fda3 2f3c de6c 863f c66d 103e
00000190: 4083 cdbf 34df ebbd 5c0c cdbf cc5f 373f
000001a0: 727f f03f 6cac 35bf e368 7e3f ad25 473f
000001b0: cf26 563e 98f2 163f c75c c53d c5cc c23f
000001c0: 1fad 833f e821 693f 1993 07bf 7e46 adbe
000001d0: 631c 163f 0e62 5d3f c6cf 20bf 3404 53bd
000001e0: 5d2f 1d3e 0833 943d 393b 403d 60f1 d43d
000001f0: 2ab9 48bf 8f2b b4bd b493 99bd 5c17 343f
00000200: f026 af3d d75d e0bc a832 2fbd 8083 693f
00000210: 4066 1bbb 9b33 043f a8c6 8c3d 9651 2d3f
00000220: 69b6 753c 3329 e63f 3275 c0bc 6d6e 493f
00000230: 9fef 2540 1922 17be 9f21 ac3f 5aba 1fbe
00000240: 4060 7bbd e4ca 02bd f90a 423f 9300 ac3f
00000250: 5e10 b5bd 07e1 6bbf 4dd7 1bbf dbbb 19be
00000260: 4b65 543f 407f 583f c7ff 6b3f 8d24 f83d
00000270: 1338 523f 489c 983f 6a2b 823d 5a91 643f
00000280: 3eaa d43f e21b ba3d dc94 a93f b227 76bc
00000290: 64ad dfbf 68db e6bc 42fb dbbf 47f7 3f3f
000002a0: ee1f e03f 95c8 69bf 409e 473f 4aa6 5e3f
000002b0: 51e8 91bd 9b43 c83e 3499 823d 6535 0a40
000002c0: b086 813f c739 7f3f df4d 00bf 1565 25be
000002d0: 1861 1a3f 1597 5c3f 3d79 b8bf 607f 77bd
000002e0: 58fb a63e e890 9fbc 9553 2f3c cba4 9e3c
000002f0: 0b7c 17bf 4081 e2bb 3043 23bd a498 c23f
00000300: 3073 f23c edfa 69bd c0ea 0e3c db25 7d3f
00000310: 7c34 1c3d a690 3d3f 8851 753d 5ae5 433f
00000320: c464 923b 0df6 a03f 4c5a 9f3d b37a 733f
00000330: f4b2 1740 fdb6 3a3e 2ef8 403f b921 4abd
00000340: ca60 9e3d f44f 90bd ccae 863f 0f3d 813f
00000350: 2cee 243d a185 39bf 378b e7be aaea e53e
00000360: 24b2 4f3f 868d 803f 117e 603f 63ff b0bd
00000370: 2982 623f bde5 763f b85f 66bd 0680 333f
00000380: 5ea8 183f 95af cebd 4f86 3f3f e701 f5bd
00000390: 7eed a8bf e6d5 b6bd 0a59 b5bf 996c 633f
000003a0: 1f04 f33f ba47 81bf d973 6b3f 5e17 6d3f
000003b0: f338 053f ffb3 1f3f 5a64 c8bd c987 aa3f
000003c0: dff8 8a3f bbb1 613f a124 21bf 560f f2be
000003d0: b060 1d3f 5265 593f 6fb0 81bf acf9 4c3d
000003e0: db64 063f 2ed1 f7bd 91c4 65be efcd 663d
000003f0: c95f 29bf 8496 983d cb3d dd3b 1b89 683f

fc3.bias f4 [20]
2.3612106 0.711314 -0.16133939 0.8416833 0.4765153 0.59435207 0.5575653 -0.028447619
0.53312075 0.032043133 0.32275298 0.5921677 0.39788932 0.6876624 -0.09403015 -0.01695777
0.10573635 0.23229115 -0.122643776 0.5004045
00000000: 131e 1740 ad18 363f 2736 25be 8f78 573f
00000010: d0f9 f33e 7527 183f 99bc 0e3f fb0a e9bc
00000020: 9a7a 083f a93f 033d e13f a53e 4d98 173f
00000030: 26b8 cb3e a50a 303f e192 c0bd 05eb 8abc
00000040: 4d8c d83d bbdd 6d3e a92c fbbd 821a 003f

fc1.weight f4 [64, 3]
0.04460273 -1.3169929 0.4136585 -0.2888035 -0.22791272 -0.5507603 -0.23280762 0.8886945
-0.0062600235 0.20098932 -0.15296519 0.09007232 0.20539665 -0.5133886 -0.29644808 0.061417934
1.5253841 -0.02872272 -0.4843187 -0.5989827 0.4111612 -0.87677336 0.103381075 0.073814526
0.05365881 1.3154745 0.012023762 -0.59261924 0.2530687 0.24817438 -0.35617206 -0.89461046
0.21807016 0.048391446 0.64805204 -0.04776408 0.1546278 -3.0609508 0.139511 0.33212548
1.8579521 -0.15585947 -0.1918655 -0.36803275 -0.44502962 -0.05720014 0.7452561 -0.48771706
0.19583997 -1.4295225 0.16223094 0.1516123 0.18099082 -0.07233586 -0.14622253 -0.10517584
0.27466646 0.12815605 0.41537187 -0.04342641 -0.19235118 0.5463508 0.07517987 -0.3358859
0.7622813 0.03777297 -0.013038695 -0.111928314 -0.50278264 0.66911244 -1.0515565 0.3015067
0.87539506 -0.46937656 0.114520706 -0.020214692 1.8108718 -0.03097896 0.27782828 -0.30302662
0.058592495 0.832103 -0.16021141 -0.2928228 1.1254281 0.36476007 -0.027171694 0.15640615
0.32027167 0.2842738 0.23654285 -0.09822872 0.1728245 -0.27585918 -0.8824797 0.29358214
0.06494464 -1.835613 0.21275434 -0.12866715 0.8502364 -0.023944518 0.23304528 0.97040814
-0.040403157 -0.70247346 0.7268794 -0.136599 -0.21462543 -1.7677587 0.2731612 -0.52392673
-0.43857002 -0.35558316 -0.11570208 -0.23871377 0.13365442 0.54315764 -0.45026487 0.033853095
-0.0042826533 -0.16902196 -0.4330407 0.17762224 0.44914812 -0.0432047 -0.4450612 -0.20337164
0.12036187 -0.022238238 0.70451975 -0.046879724 0.008242303 1.6775998 -0.03727029 -0.27814412
-0.09022901 0.19273797 0.19293576 -0.3780953 -0.576335 0.0026700106 1.9476572 -0.037615836
0.12260411 0.19164722 0.0587306 0.6431549 -0.16997401 -0.03209057 0.07073414 -0.36152995
-0.18482494 0.5278735 0.13081594 0.12281014 -0.5744539 -0.89609057 0.2844741 -0.7437917
0.48874405 -0.22986354 -0.12471622 -0.29619 0.17210229 0.7234291 -0.3396904 0.097935624
0.15875107 0.35745594 -0.56764823 0.09283996 -0.21508262 -0.5105193 -0.39274773 -0.6928504
0.0758161 0.32218966 -0.15199824 0.29852527 0.1552861 0.9273142 -0.043355834 -0.41297564
0.78981215 0.07851722 -0.2906006 -0.44596255 -0.3654855 0.24731621 0.24432814 -0.03923238
00000000: 5ab1 363d 3993 a8bf 0ccb d33e 0dde 93be
00000010: f461 69be a1fe 0cbf 1f65 6ebe 7c81 633f
00000020: e220 cdbb 25d0 4d3e e8a2 1cbe d677 b83d
00000030: 8053 523e 6f6d 03bf 0bc8 97be 5f91 7b3d
00000040: c93f c33f e94b ebbc 9ff8 f7be ee56 19bf
00000050: b983 d23e 3874 60bf 75b9 d33d 122c 973d
00000060: 57c9 5b3d 7861 a83f 50ff 443c e5b5 17bf
00000070: 3892 813e 6d21 7e3e 2f5c b6be 3105 65bf
00000080: c94d 5f3e 1c36 463d bde6 253f 45a4 43bd
00000090: c056 1e3e 9ee6 43c0 f9db 0e3e 5a0c aa3e
000000a0: 60d1 ed3f a099 1fbe 6478 44be ca6e bcbe
000000b0: ecda e3be b24a 6abd 1bc9 3e3f 0db6 f9be
000000c0: 468a 483e 98fa b6bf de1f 263e 4140 1b3e
000000d0: a855 393e d324 94bd 5cbb 15be 6e66 d7bd
000000e0: 15a1 8c3e 573b 033e 9fab d43e e4df 31bd
000000f0: b5f7 44be a5dd 0b3f e7f7 993d 3df9 abbe
00000100: de24 433f d4b7 1a3d 40a0 55bc ac3a e5bd
00000110: 5db6 00bf f44a 2b3f 6799 86bf 165f 9a3e
00000120: e419 603f 2052 f0be d589 ea3d 4899 a5bc
00000130: a6ca e73f 97c7 fdbc 823f 8e3e 4e26 9bbe
00000140: affe 6f3d b404 553f 760e 24be dfec 95be
00000150: 070e 903f d5c1 ba3e 2c97 debc ef28 203e
00000160: a6fa a33e 568c 913e 4a38 723e 242c c9bd
00000170: e8f8 303e 6a3d 8dbe 31ea 61bf 6650 963e
00000180: b201 853d 5ef5 eabf 46dc 593e 52c1 03be
00000190: 18a9 593f 4b27 c4bc 6ca3 6e3e ab6c 783f
000001a0: c87d 25bd 4dd5 33bf c514 3a3f 9ce0 0bbe
000001b0: c5c6 5bbe eb45 e2bf c9db 8b3e 1020 06bf
000001c0: 408c e0be ff0e b6be 36f5 ecbd 6271 74be
000001d0: b4dc 083e 610c 0b3f 1e89 e6be 8ba9 0a3d
000001e0: 8055 8cbb 1814 2dbe 83b7 ddbe 9be2 353e
000001f0: bef6 e53e 69f7 30bd 10df e3be a840 50be
00000200: 4980 f63d f72c b6bc 685b 343f f404 40bd
00000210: b90a 073c 97bb d63f bba8 18bd e868 8ebe
00000220: fdc9 b8bd 1a5d 453e f490 453e b595 c1be
00000230: b18a 13bf 58fb 2e3b d54c f93f 1013 1abd
00000240: dd17 fb3d 2b3f 443e 7f8f 703d cda5 243f
00000250: ab0d 2ebe 6771 03bd 10dd 903d 741a b9be
00000260: c042 3dbe b822 073f 9df4 053e e283 fb3d
00000270: 690f 13bf 3166 65bf 97a6 913e 2269 3ebf
00000280: a93c fa3e 5961 6bbe 386b ffbd 37a6 97be
00000290: 953b 303e a632 393f e6eb adbe 7992 c83d
000002a0: a48f 223e 7704 b73e 6551 11bf e022 be3d
000002b0: 9e3e 5cbe 65b1 02bf 3b16 c9be a55e 31bf
000002c0: 7945 9b3d 0bf6 a43e 6da5 1bbe 4ed8 983e
000002d0: 5203 1f3e 7764 6d3f e395 31bd 8b71 d3be
000002e0: 2131 4a3f a3cd a03d 9ac9 94be 3455 e4be
000002f0: ea20 bbbe 7640 7d3e 2831 7a3e 22b2 20bd

fc1.bias f4 [64]
-4.8327003 -0.55316806 5.155537 -4.755889 0.37723744 -0.4378981 -6.517157 5.542248
-2.2625341 -6.0181007 5.0650077 4.464971 -0.69301033 -1.9796069 -0.3809451 1.0701239
6.7454934 3.669736 -5.701623 5.3024025 -6.194671 5.0428843 0.20553523 -4.9642086
-5.168576 -0.9954575 5.9137325 1.3636941 2.5117605 -6.8472104 -5.3967066 -5.656285
-4.1320662 3.9494655 4.7178235 0.48943886 5.1469555 0.48189488 -5.470392 5.4353046
0.07859743 4.7699556 5.032559 0.9158442 -0.028273674 -5.804292 -0.4549026 -0.44146433
-4.9057097 5.407255 -0.47491145 -5.7091475 -5.928583 -1.5648358 -7.091284 -4.9138207
1.9333777 0.55527484 2.712467 -5.9485083 3.7843325 5.0325975 0.13222903 4.834446
00000000: 7ba5 9ac0 6c9c 0dbf 29fa a440 3e30 98c0
00000010: 4425 c13e 2e34 e0be 8d8c d0c0 185a b140
00000020: 5ccd 10c0 4894 c0c0 8b14 a240 0be1 8e40
00000030: 2069 31bf c263 fdbf 3c0b c3be d2f9 883f
00000040: 15db d740 f4dc 6a40 b273 b6c0 48ad a940
00000050: bf3a c6c0 4f5f a140 d477 523e ccda 9ec0
00000060: f964 a5c0 4dd6 7ebf 4c3d bd40 878d ae3f
00000070: afc0 2040 591c dbc0 d2b1 acc0 4900 b5c0
00000080: e339 84c0 0bc4 7c40 69f8 9640 bb97 fa3e
00000090: dcb3 a440 edba f63e 740d afc0 04ee ad40
000000a0: b0f7 a03d 7aa3 9840 b90a a140 c474 6a3f
000000b0: 319e e7bc c3bc b9c0 fee8 e8be 9d07 e2be
000000c0: 93fb 9cc0 3c08 ad40 9827 f3be 56b1 b6c0
000000d0: f4b6 bdc0 8a4c c8bf cceb e2c0 053e 9dc0
000000e0: ec78 f73f 7e26 0e3f 0f99 2d40 2e5a bec0
000000f0: 8132 7240 0a0b a140 0c67 073e c8b3 9a40

fc2.weight f4 [64, 64]
0.019775026 -0.06780818 -0.06199522 -0.14227067 0.015333727 -0.13845593 -0.06471285 -0.05255267
-0.06984637 -0.15192676 -0.0057675224 -0.08766839 -0.12683287 0.007518431 0.06210816 -0.056603774
-0.0070564896 -0.026597984 -0.0546414 -0.12918729 0.039508417 0.10459158 0.07392204 0.043375973
-0.061693467 -0.073743075 0.081454515 -0.11390222 0.07009969 0.032561317 0.062805474 -0.05941356
0.048420083 -0.013438692 -0.1240873 0.07350305 -0.1271756 -0.12221271 -0.10003651 -0.096333526
0.044696838 0.008681435 0.027311385 0.090911716 -0.105579816 0.064869314 0.015267357 0.022393435
-0.06525675 0.009582035 -0.09641275 -0.053717516 -0.07691706 -0.06702256 -0.008687288 0.08415911
-0.05422789 -0.107878074 0.08641667 -0.11818636 0.06464579 -0.044090196 -0.015079886 -0.08675195
-0.019979922 -0.087409735 -0.04057825 -0.018530766 0.11971435 -0.011213734 -0.060903694 -0.14291143
-0.011514555 0.07049457 0.0018049845 -0.031249069 0.04813323 0.061037805 -0.036867812 -0.09901577
0.000291726 -0.11208646 0.020164324 -0.086774305 0.045689408 -0.10941692 -0.09528428 -0.13172051
-0.11078784 0.09218407 0.07595592 -0.04025787 -0.10007517 -0.08976203 -0.15291025 -0.022101501
-0.032702886 0.11531039 0.052339137 -0.09935105 0.033108942 -0.0136730075 -0.089128725 0.041632514
-0.016657427 -0.08237096 -0.15492192 -0.051817592 -0.070434965 -0.10549041 0.008690749 -0.109245546
-0.14767987 -0.045611177 -0.056791067 -0.039859258 0.029971277 -0.04701191 -0.16384783 -0.051210362
0.04072726 -0.039773896 0.009211364 0.023463111 0.06235285 0.043592043 0.038078874 0.12136035
0.0009996742 -0.035560217 -0.06266455 0.035933062 0.0022880435 -0.089196324 0.06581415 0.013878673
-0.12313196 -0.038707614 -0.11099176 -0.06546101 0.08860497 -0.115289524 0.07430549 -0.038674086
0.067421004 0.000533551 -0.06289388 -0.10521658 0.039223522 -0.089523606 -0.11802578 -0.06663513
-0.03130901 -0.056904614 -0.09523246 0.05590278 -0.04137592 -0.012751892 0.002356574 -0.046915114
-0.018648162 -0.05568822 0.0043550283 -0.051702604 0.017261475 0.012900546 0.016096279 -0.123226315
0.084203824 0.010294557 -0.11963433 -0.04112105 -0.008058131 0.07276794 -0.016107127 0.063739404
-0.07348022 -0.104365356 -0.018974721 -0.03525518 0.06364882 -0.07062405 0.06067182 -0.07882325
0.09079401 -0.0999024 -0.10119912 -0.103082016 0.09874228 0.11389477 -0.060987115 0.037181303
-0.13105781 -0.0961009 1.1244923 -0.7554251 -0.00142046 -0.38632098 -0.44225192 0.48053932
-0.80195576 -0.3849346 0.2493867 0.950226 0.37933886 0.14273277 -0.0069710463 -0.31097564
0.66844857 -0.9138534 -0.21640411 1.3901155 -2.2799377 0.9820704 -0.02661866 -0.14727613
-0.6413226 -0.58949775 1.6013329 -0.20270093 0.28171754 -0.6221763 -0.4014076 -0.28874862
-0.18367106 0.44827905 0.57925755 0.4126659 0.297168 -0.12374221 -0.7280708 1.2798284
-0.075111836 0.8101081 0.26317796 0.37717572 -0.59390086 -0.36696133 0.03865841 -0.2590076
-1.1271244 1.1649107 -0.0041005313 -0.58626163 -0.36606658 -0.39931622 -1.3906907 -0.56994164
-0.6136327 -0.11808561 0.12668556 -0.28066954 0.39801085 1.120658 -0.11741149 1.1301978
00000000: 3cff a13c 04df 8abd b3ee 7dbd 67af 11be
00000010: 503a 7b3c 64c7 0dbe 2c88 84bd 7841 57bd
00000020: 9d0b 8fbd b092 1bbe 7cfd bcbb 7c8b b3bd
00000030: 7ae0 01be 2c5d f63b 2065 7e3d 5cd9 67bd
00000040: 203a e7bb 04e4 d9bc a9cf 5fbd ac49 04be
00000050: 94d3 213d 1c34 d63d 7064 973d 01ab 313d
00000060: 4ab2 7cbd 9c06 97bd a0d1 a63d 9145 e9bd
00000070: 6d90 8f3d 045f 053d 28a0 803d a25b 73bd
00000080: 2354 463d f62d 5cbc 7b21 febd c488 963d
00000090: 523a 02be a84a fabd f1df ccbd 834a c5bd
000000a0: 0814 373d 943c 0e3c 20bc df3c ec2f ba3d
000000b0: 3b3a d8bd 34da 843d f023 7a3c 7072 b73c
000000c0: 55a5 85bd f8fd 1c3c 0c74 c5bd e606 5cbd
000000d0: b186 9dbd 2043 89bd 2055 0ebc 9d5b ac3d
000000e0: 101e 5ebd 2eef dcbd 39fb b03d b10b f2bd
000000f0: 0365 843d ec97 34bd a011 77bc 02ab b1bd
00000100: efac a3bc e003 b3bd 6135 26bd d5cd 97bc
00000110: cc2c f53d cfb9 37bc 2776 79bd 6057 12be
00000120: 8ba7 3cbc 755f 903d 3b95 ec3a 0cfe ffbc
00000130: 5a27 453d c702 7a3d b402 17bd c8c8 cabd
00000140: cdf2 9839 968d e5bd a72f a53c bab6 b1bd
00000150: d124 3b3d fa15 e0bd 6824 c3bd bee1 06be
00000160: bce4 e2bd 00cb bc3d c78e 9b3d 70e5 24bd
00000170: 36f4 ccbd 28d5 b7bd 8194 1cbe 350e b5bc
00000180: 76f3 05bd db27 ec3d 9061 563d 9078 cbbd
00000190: 3e9d 073d c004 60bc 1f89 b6bd db86 2a3d
000001a0: 2875 88bc 1bb2 a8bd daa3 1ebe af3e 54bd
000001b0: 3540 90bd 5b0b d8bd a563 0e3c 21bc dfbd
000001c0: 6439 17be c9d2 3abd c09d 68bd 7643 23bd
000001d0: 5386 f53c 8f8f 40bd bac7 27be f5c1 51bd
000001e0: a1d1 263d f4e9 22bd 43eb 163c b635 c03c
000001f0: b465 7f3d 928d 323d 98f8 1b3d c68b f83d
00000200: 8007 833a 97a7 11bd 4656 80bd 8c2e 133d
00000210: 00f3 153b 90ac b6bd 92c9 863d 6063 633c
00000220: 9c2c fcbd e08b 1ebd a64f e3bd 6c10 86bd
00000230: 8676 b53d ea1c ecbd 7a2d 983d b868 1ebd
00000240: 0614 8a3d 00de 0b3a 82ce 80bd ca7b d7bd
00000250: d8a8 203d 2758 b7bd 80b7 f1bd 0078 88bd
00000260: e03d 00bd d014 69bd 3c09 c3bd 50fa 643d
00000270: cc79 29bd 50ed 50bc c070 1a3b 102a 40bd
00000280: 08c4 98bc 5519 64bd a0b4 8e3b 1cc6 53bd
00000290: f067 8d3c d05c 533c 58dc 833c 145e fcbd
000002a0: 0e73 ac3d 80aa 283c d802 f5bd 8c6e 28bd
000002b0: 4006 04bc 5c07 953d 18f3 83bc ce89 823d
000002c0: cc7c 96bd 81bd d5bd e070 9bbc bc67 10bd
000002d0: 505a 823d 58a3 90bd 0483 783d 166e a1bd
000002e0: 36f2 b93d a199 ccbd 7c41 cfbd aa1c d3bd
000002f0: 6439 ca3d a941 e93d a0cd 79bd 6c4b 183d
00000300: 0534 06be 8cd0 c4bd 5def 8f3f 8a63 41bf
00000310: ba2e baba ddcb c5be d86e e2be 4009 f63e
00000320: f94c 4dbf 2616 c5be 3a5f 7f3e 0342 733f
00000330: b438 c23e 8a28 123e 606d e4bb 3338 9fbe
00000340: 721f 2b3f 4cf2 69bf 0a99 5dbe 4eef b13f
00000350: 80ea 11c0 f768 7b3f 600f dabc 8ecf 16be
00000360: b82d 24bf 53e9 16bf 7af8 cc3f d590 4fbe
00000370: 483d 903e f246 1fbf 4c85 cdbe dcd6 93be
00000380: 4414 3cbe d584 e53e 394a 143f f248 d33e
00000390: 6726 983e 8e6c fdbd d962 3abf 6bd1 a33f
000003a0: 3cd4 99bd 3f63 4f3f 43bf 863e 2d1d c13e
000003b0: e309 18bf 5be2 bbbe 4858 1e3d a59c 84be
000003c0: 9d45 90bf cb1b 953f c05d 86bb 3e15 16bf
000003d0: 146d bbbe 2d73 ccbe 2702 b2bf b2e7 11bf
000003e0: 0817 1dbf ded6 f1bd dcb9 013e ebb3 8fbe
000003f0: 14c8 cb3e b971 8f3f 6f75 f0bd 52aa 903f

fc2.bias f4 [64]
-0.059987262 0.05315871 -0.1106175 4.0819774 0.0350634 3.5356803 -0.056301042 3.3300583
-0.11215131 0.070944294 -0.0016229087 3.552497 2.2856808 1.8683658 3.0161176 -0.107984796
0.086245306 -0.021252124 3.9539921 3.490084 -0.0051344954 -2.1458056 1.8052121 2.7222807
-0.256565 3.7052023 3.1548533 -0.014705308 3.8276978 3.2563548 0.048755363 0.29538685
2.503292 -0.13275023 2.7908778 0.0801283 2.2192328 -0.058636487 2.1879716 3.516606
3.2598171 1.8506366 4.0574975 3.8906288 -0.3470812 2.866045 0.04945945 -0.2177321
3.9255726 4.0681577 -1.5759352 2.55675 1.8077667 3.5738604 0.85735154 0.011936545
0.42434475 -0.058098514 -0.0466133 0.0144911 1.7137065 -0.1612401 -0.10032709 3.220285
00000000: 34b5 75bd f3bc 593d 6e8b e2bd 8f9f 8240
00000010: a49e 0f3d 9648 6240 ec9b 66bd ad1f 5540
00000020: 96af e5bd 3e4b 913d c8b7 d4ba 1c5c 6340
00000030: 9848 1240 9c26 ef3f 1208 4140 2227 ddbd
00000040: 61a1 b03d ef18 aebc 350e 7d40 895d 5f40
00000050: 453f a8bb e154 09c0 3111 e73f d939 2e40
00000060: 7d5c 83be 0922 6d40 1ee9 4940 88ee 70bc
00000070: 00f9 7440 1e68 5040 b4b3 473d f23c 973e
00000080: f035 2040 adef 07be be9d 3240 4e1a a43d
00000090: e907 0e40 d02c 70bd ba07 0c40 1310 6140
000000a0: d8a0 5040 a9e1 ec3f 05d7 8140 1000 7940
000000b0: a1b4 b1be 486d 3740 fe95 4a3d 2af5 5ebe
000000c0: 953c 7b40 592e 8240 3fb8 c9bf cba1 2340
000000d0: e664 e73f 21ba 6440 647b 5b3f 8091 433c
000000e0: b743 d93e b5f8 6dbd 96ed 3ebd 146c 6d3c
000000f0: bc5a db3f 201c 25be 4a78 cdbd 2619 4e40

fc3.weight f4 [20, 64]
0.0022648892 0.07815387 0.028526023 2.0871181 -0.026539505 1.523934 -0.01865895 1.2479954
0.009976922 0.63413614 0.06187512 1.7526793 1.5813378 -1.1225141 1.3060436 -0.004179563
0.049640134 -0.033340603 1.4529138 1.5238073 0.010821074 -1.5940738 -4.1192675 0.9582683
-0.43416587 1.4992808 1.2742147 -0.076693535 1.4597863 1.3660891 0.013352077 0.73388904
1.0314006 -0.034505945 1.2587476 0.10724877 -3.2777731 -0.020518232 -0.32570037 1.7313648
1.669373 -3.511492 1.6516091 2.1222723 -0.20737761 0.68403405 -0.10610881 1.3857286
1.6772822 2.1516426 -0.4752447 -2.8567414 0.37655145 1.3549767 -1.3657014 -0.107092306
-0.6996951 -0.09592816 0.046646822 -0.10705504 -3.1076035 -0.07807191 0.0558037 1.0236092
-0.031223327 0.10058041 -0.1224556 0.97227025 -0.10657076 0.43706876 -0.08845918 0.70815206
0.015366555 1.1691611 -0.098700956 0.9650036 2.7061024 0.4674627 0.89807343 -0.012537848
0.094760135 0.110460006 1.0194702 1.0449773 0.010681987 -0.9369547 -0.6011341 0.70604223
1.1227386 0.9970338 0.64369977 -0.06807311 1.0171262 0.94908077 0.091142565 1.1937754
0.5296839 0.010583928 1.0353391 0.14103386 -1.5932469 -0.11517182 -1.5748562 0.7000926
1.8866812 -0.7134523 0.976312 0.7670637 0.15261976 0.57282674 0.09636333 1.5058353
1.0126061 0.9019545 -0.55938375 -0.32523933 0.5771855 0.84536535 -0.5695557 -0.05151768
0.10825239 0.07236296 0.046933673 0.10397047 -0.7829683 -0.08797387 -0.07498734 0.70226586
0.085523486 -0.027387757 -0.04277292 0.9157458 -0.0023712069 0.52173495 0.06873828 0.67576116
0.014997746 1.7969817 -0.023494776 0.78101504 2.5556307 -0.14545579 1.3330196 -0.15591902
-0.061371088 -0.031931773 0.745743 1.3319573 -0.088410124 -0.99331266 -0.5812357 -0.18137959
0.82022524 0.8348896 0.9084199 0.12115918 0.8013458 1.1806369 0.06355937 0.8885126
1.640172 0.09087218 1.30737 -0.015023824 -1.7016186 -0.028180793 -1.6558069 0.7530858
1.7187246 -0.87851274 0.7811965 0.8819171 -0.17851213 0.37396786 0.063774064 2.209837
1.0031528 1.0087498 -0.502338 -0.1340866 0.5800082 0.8519009 -1.3134347 -0.06042421
0.3189342 -0.019478276 0.010701499 0.0193671 -0.5532624 -0.0069121327 -0.03986298 1.4944384
0.029595941 -0.057126198 0.008722961 0.9676969 0.03813599 0.7184432 0.059892207 0.7491706
0.0044673793 1.1007879 0.07781114 0.9301116 2.3745127 0.18980265 0.7410029 -0.049281232
0.07733305 -0.070465 1.0359846 0.99159724 0.0402662 -0.7412383 -0.45954555 0.43409598
0.79954654 0.9856901 0.8625414 -0.08642413 0.8647624 0.9526139 -0.05624363 0.56337917
0.60970515 -0.100923136 0.76065683 -0.11963179 -1.3330188 -0.08927517 -1.4265399 0.8656028
1.8728817 -1.0226815 0.9025453 0.9134508 0.44506782 0.60933346 -0.09785346 1.2314634
1.065264 0.8649455 -0.57441175 -0.4815148 0.5896097 0.83624405 -0.9074729 0.050042793
0.4718159 -0.12100445 -0.22437713 0.056347605 -0.6723675 0.074510485 0.0067514773 0.8928366
00000000: 896e 143b 230f a03d 68af e93c 5893 0540
00000010: 6069 d9bc 4510 c33f a8da 98bc 50be 9f3f
00000020: 3e76 233c bf56 223f c470 7d3d cc57 e03f
00000030: 4769 ca3f 8bae 8fbf 702c a73f b7f4 88bb
00000040: 7453 4b3d 2890 08bd 14f9 b93f 1e0c c33f
00000050: e04a 313c 9c0a ccbf 0ad1 83c0 1251 753f
00000060: fd4a debe 6fe8 bf3f 7819 a33f 8011 9dbd
00000070: 47da ba3f 02dc ae3f acc2 5a3c 27e0 3b3f
00000080: ef04 843f 1b56 0dbd a41e a13f 3ea5 db3d
00000090: 09c7 51c0 da15 a8bc 33c2 a6be 5d9d dd3f
000000a0: 04ae d53f 49bc 60c0 ed67 d33f 4fd3 0740
000000b0: cc5a 54be db1c 2f3f 934f d9bd 8e5f b13f
000000c0: 2fb1 d63f 83b4 0940 4653 f3be dad4 36c0
000000d0: 5acb c03e e06f ad3f 4ecf aebf 3653 dbbd
000000e0: 381f 33bf fc75 c4bd bd10 3f3d ac3f dbbd
000000f0: fae2 46c0 2ae4 9fbd 6c92 643d a005 833f
00000100: 10c8 ffbc 1afd cd3d 00ca fabd b4e6 783f
00000110: c541 dabd 7ac7 df3e 162a b5bd 7449 353f
00000120: 01c4 7b3c 12a7 953f ba23 cabd 7a0a 773f
00000130: c830 2d40 4557 ef3e 24e8 653f 8c6b 4dbc
00000140: 9a11 c23d db38 e23d 007e 823f d1c1 853f
00000150: 8003 2f3c 43dc 6fbf ede3 19bf 2fbf 343f
00000160: e6b5 8f3f 9b3d 7f3f 82c9 243f ea69 8bbd
00000170: 3131 823f f5f6 723f f4a8 ba3d a2cd 983f
00000180: 5d99 073f 3668 2d3c fe85 843f 2e6b 103e
00000190: 84ef cbbf 34df ebbd e394 c9bf 4539 333f
000001a0: c57e f13f cfa4 36bf 95ef 793f 495e 443f
000001b0: 5b48 1c3e c6a4 123f 235a c53d 36bf c03f
000001c0: 149d 813f 7de6 663f c633 0fbf c585 a6be
000001d0: 6ec2 133f dd69 583f 67ce 11bf 3404 53bd
000001e0: 6eb3 dd3d 0833 943d 863d 403d 78ee d43d
000001f0: 9c70 48bf a52b b4bd f692 99bd b2c7 333f
00000200: f026 af3d 4a5c e0bc a832 2fbd 516e 6a3f
00000210: 4066 1bbb 6c90 053f a8c6 8c3d affe 2c3f
00000220: 1bb9 753c 7f03 e63f 1e78 c0bc 9af0 473f
00000230: 748f 2340 5df2 14be 63a0 aa3f 3ca9 1fbe
00000240: 4060 7bbd e4ca 02bd 03e9 3e3f 947d aa3f
00000250: 5e10 b5bd bd49 7ebf ddcb 14bf 92bb 39be
00000260: 48fa 513f 53bb 553f 358e 683f 4e22 f83d
00000270: 0025 4d3f 1c1f 973f 6a2b 823d 9075 633f
00000280: 28f1 d13f 321b ba3d e657 a73f 7c26 76bc
00000290: a3ce d9bf 68db e6bc 7bf1 d3bf 3bca 403f
000002a0: 2bff db3f 36e6 60bf 7efc 473f 52c5 613f
000002b0: e2cb 36be b778 bf3e fa9b 823d f86d 0d40
000002c0: 5067 803f b71e 813f 3999 00bf ff4d 09be
000002d0: 6b7b 143f 2d16 5a3f a11e a8bf 607f 77bd
000002e0: 584b a33e e890 9fbc 5755 2f3c c1a7 9e3c
000002f0: 9ba2 0dbf 2c7f e2bb 5d47 23bd c249 bf3f
00000300: 3073 f23c 29fd 69bd c0ea 0e3c fcba 773f
00000310: 7c34 1c3d e5eb 373f 8851 753d a5c9 3f3f
00000320: 1863 923b 9ee6 8c3f 725b 9f3d cb1b 6e3f
00000330: 04f8 1740 a05b 423e 5eb2 3d3f 1edb 49bd
00000340: ca60 9e3d f44f 90bd 259b 843f 51d9 7d3f
00000350: 2cee 243d cbc1 3dbf 8e49 ebbe d441 de3e
00000360: 15af 4c3f 3056 7c3f 83cf 5c3f 22ff b0bd
00000370: 1261 5d3f 81de 733f b85f 66bd 9e39 103f
00000380: a315 1c3f cab0 cebd 68ba 423f 8301 f5bd
00000390: 5ca0 aabf e6d5 b6bd dc98 b6bf 2598 5d3f
000003a0: 96ba ef3f 3ae7 82bf 350d 673f e9d7 693f
000003b0: eedf e33e 47fd 1b3f 6567 c8bd 98a0 9d3f
000003c0: 925a 883f 116d 5d3f a60c 13bf 1c89 f6be
000003d0: a9f0 163f 1714 563f 2550 68bf acf9 4c3d
000003e0: db91 f13e 2ed1 f7bd 1ec3 65be bfcc 663d
000003f0: 4720 2cbf f498 983d 7f3b dd3b f090 643f

fc3.bias f4 [20]
2.3445714 0.68792754 -0.18255365 0.8186827 0.46347842 0.5797437 0.5766781 -0.03648044
0.52029705 0.045308463 0.29398134 0.5722437 0.40513098 0.66078824 -0.09556418 -0.022336181
0.08312999 0.221907 -0.10641891 0.4935764
00000000: 750d 1640 051c 303f 58ef 3abe 3095 513f
00000010: 0b4d ed3e 156a 143f 2da1 133f 846c 15bd
00000020: 3032 053f 5e95 393d b984 963e 907e 123f
00000030: 546d cf3e 6b29 293f 27b7 c3bd 5efa b6bc
00000040: 0e40 aa3d 973b 633e 28f2 d9bd 0cb6 fc3e

exp_avg f4 [64, 3]
-142.06277 -163.39941 -1603.8162 0.0 0.0 0.0 4114.83 2117.507
23115.215 -1326.4745 -790.29 -5830.068 0.0 0.0 0.0 -1577.5558
-783.9741 -7409.767 -18.319426 -208.957 -2284.3826 26.215998 249.947 3847.551
-40.26965 -78.92032 -1605.1371 -4.013218 -84.53094 -1182.7866 -207.47427 -12.056005
48.54667 2625.776 1449.8383 15912.031 470.46323 44.377552 917.814 -473.00903
-222.2098 223.60532 0.0 0.0 0.0 110.627106 192.1174 280.24622
68.74042 284.17267 2896.9714 -2175.8794 -1351.8997 -11600.248 101.140144 -5.339791
-381.81192 3530.9575 1927.086 21428.832 33.39198 -556.53845 -12530.894 3240.1438
1717.1578 19035.49 0.0 0.0 0.0 -168.20464 -217.36679 -1747.1353
-902.87494 -224.16188 -1931.6437 -2894.164 -1671.166 -16098.1 2356.9988 1450.9128
16501.494 -561.51434 -197.65192 -760.73206 1049.2544 473.35208 5852.0156 -95.11761
-296.40463 -3525.8044 167.393 -57.391193 -692.65283 12.575436 -162.02023 -1803.8114
-68.06734 -63.67955 -2457.0808 2157.7551 1144.8759 12134.602 2071.9958 1087.3383
11769.846 -110.62471 -275.5506 -494.60422 -255.49013 -67.797585 -392.6337 0.0
0.0 0.0 -60.129456 -293.9899 -3775.089 1602.2513 1106.8478 12296.545
0.0 0.0 0.0 1889.163 1056.751 11895.76 -61.55038 71.27644
1833.153 150.79218 -0.3078265 -32.88633 -1534.8248 -920.5754 -8783.061 -17.769701
-127.90083 -1552.6731 0.0 0.0 0.0 -2286.8975 -1318.127 -12827.64
-876.6223 -908.46625 -8107.6772 1798.3529 1006.5226 12449.599 0.0 0.0
0.0 -295.22427 -243.91771 -3032.5676 -68.04115 -244.06448 -3319.681 2.652773e-07
4.2748457e-06 2.868496e-06 -172.51942 -739.0656 -9318.525 -664.44415 -471.8066 -3887.3184
18.91664 18.938784 19.490356 0.0 0.0 0.0 -41.295387 -111.84834
-1097.4945 43.056324 -97.25606 -1079.1873 1993.4873 1037.7181 12754.366 2906.2405
1608.1511 17454.002 0.0 0.0 0.0 2426.311 1372.2238 15523.673
00000000: 1210 0ec3 4066 23c3 1e7a c8c4 0000 0000
00000010: 0000 0000 0000 0000 a496 8045 1d58 0445
00000020: 6e96 b446 2fcf a5c4 8f92 45c4 8b30 b6c5
00000030: 0000 0000 0000 0000 0000 0000 c931 c5c4
00000040: 58fe 43c4 238e e7c5 2f8e 92c1 fef4 50c3
00000050: 1fc6 0ec5 5dba d141 6ff2 7943 d178 7045
00000060: 1f14 21c2 34d7 9dc2 63a4 c8c4 486c 80c0
00000070: d70f a9c2 2cd9 93c4 6a79 4fc3 65e5 40c1
00000080: ca2f 4242 6a1c 2445 d33a b544 20a0 7846
00000090: 4b3b eb43 9d82 3142 1974 6544 2881 ecc3
000000a0: b535 5ec3 f69a 5f43 0000 0000 0000 0000
000000b0: 0000 0000 1441 dd42 0e1e 4043 841f 8c43
000000c0: 187b 8942 1a16 8e43 8b0f 3545 12fe 07c5
000000d0: cafc a8c4 fe40 35c6 c147 ca42 91df aac0
000000e0: ede7 bec3 52af 5c45 c1e2 f044 aa69 a746
000000f0: 6391 0542 7622 0bc4 93cb 43c6 4d82 4a45
00000100: 0da5 d644 fbb6 9446 0000 0000 0000 0000
00000110: 0000 0000 6334 28c3 e65d 59c3 5464 dac4
00000120: ffb7 61c4 7129 60c3 9974 f1c4 a0e2 34c5
00000130: 50e5 d0c4 6688 7bc6 fb4f 1345 365d b544
00000140: fdea 8046 eb60 0cc4 e4a6 45c3 da2e 3ec4
00000150: 2428 8344 11ad ec43 20e0 b645 373c bec2
00000160: cb33 94c3 df5c 5cc5 9c64 2743 9590 65c2
00000170: c829 2dc4 fc34 4941 2e05 22c3 f779 e1c4
00000180: 7a22 88c2 dcb7 7ec2 4b91 19c5 15dc 0645
00000190: 071c 8f44 689a 3d46 ef7f 0145 d3ea 8744
000001a0: 62e7 3746 da3f ddc2 7ac6 89c3 574d f7c3
000001b0: 797d 7fc3 5d98 87c2 1d51 c4c3 0000 0000
000001c0: 0000 0000 0000 0000 9084 70c2 b5fe 92c3
000001d0: 6df1 6bc5 0b48 c844 215b 8a44 2e22 4046
000001e0: 0000 0000 0000 0000 0000 0000 3725 ec44
000001f0: 0818 8444 0adf 3946 9733 76c2 8a8d 8e42
00000200: e524 e544 ccca 1643 6f9b 9dbe 9a8b 03c2
00000210: 65da bfc4 d324 66c4 3e3c 09c6 5928 8ec1
00000220: 3acd ffc2 8a15 c2c4 0000 0000 0000 0000
00000230: 0000 0000 5cee 0ec5 10c4 a4c4 8f6e 48c6
00000240: d427 5bc4 d71d 63c4 6b5d fdc5 4bcb e044
00000250: 72a1 7b44 6586 4246 0000 0000 0000 0000
00000260: 0000 0000 b59c 93c3 efea 73c3 1589 3dc5
00000270: 1215 88c2 8210 74c3 e57a 4fc5 6f6b 8e34
00000280: a570 8f36 6380 4036 f984 2cc3 33c4 38c4
00000290: 1a9a 11c6 6d1c 26c4 3fe7 ebc3 18f5 72c5
000002a0: 4755 9741 a182 9741 40ec 9b41 0000 0000
000002b0: 0000 0000 0000 0000 7a2e 25c2 5ab2 dfc2
000002c0: d32f 89c4 ad39 2c42 1a83 c2c2 fee5 86c4
000002d0: 982f f944 fbb6 8144 7749 4746 d9a3 3545
000002e0: d604 c944 015c 8846 0000 0000 0000 0000
000002f0: 0000 0000 faa4 1745 2987 ab44 b18e 7246

exp_avg_sq f4 [64, 3]
155548.75 339524.72 1.2219448e+08 0.0 0.0 0.0 6.793297e+07 9.751939e+07
1.1541057e+10 3.7670618e+06 5.166806e+06 1.9422785e+09 0.0 0.0 0.0 9.346121e+06
1.4757078e+07 7.046904e+08 170158.42 764456.56 3.2501782e+08 835241.0 4.2794765e+06 1.2329423e+09
102204.91 225308.84 4.229832e+07 59102.785 273242.2 1.0059563e+08 207476.11 442100.62
1.4563461e+08 2.9175802e+07 4.404937e+07 5.8658616e+09 413002.16 26092.44 9.732753e+07 1.7845624e+06
4.368201e+06 1.6825045e+08 0.0 0.0 0.0 194201.2 1.1671388e+06 2.392767e+06
402564.3 1.5128891e+06 6.404535e+08 2.1163918e+07 2.792073e+07 5.576883e+08 107035.055 191086.05
6.4330584e+07 5.1872564e+07 7.692751e+07 9.89438e+09 8.701145e+06 3.393744e+07 8.427287e+09 4.519143e+07
6.804555e+07 8.47989e+09 0.0 0.0 0.0 248930.73 665628.4 2.5801998e+08
2.8283378e+06 2.8291162e+06 1.0902189e+09 4.0288588e+07 6.3326016e+07 2.7081892e+09 2.4546954e+07 3.9724612e+07
6.6591365e+09 944254.7 341653.9 4.214305e+06 4.2723785e+06 5.1785895e+06 5.7060026e+08 1.2323614e+06
3.268225e+06 1.0062853e+09 179695.05 450344.6 1.8047093e+08 148439.58 704342.06 3.2458694e+08
505533.56 880137.8 1.3353197e+09 2.0206422e+07 3.0679684e+07 3.8976166e+09 1.797956e+07 2.63477e+07
3.23835e+09 475435.47 2.8851442e+06 2.1198242e+07 188509.1 279251.16 8.787432e+07 0.0
0.0 0.0 615785.6 3.469414e+06 1.6139306e+09 1.2120811e+07 1.9317812e+07 3.6475945e+09
0.0 0.0 0.0 1.5539159e+07 2.393292e+07 3.3252337e+09 464406.66 1.2296976e+06
2.976988e+08 113560.47 124797.49 4.7922685e+06 1.2882594e+07 2.0649426e+07 9.113278e+08 119661.92
548917.06 2.288546e+08 0.0 0.0 0.0 2.802514e+07 4.4623252e+07 1.95808e+09
8.156977e+06 1.56767e+07 4.009326e+09 1.4824886e+07 2.2587752e+07 3.181443e+09 0.0 0.0
0.0 1.2271852e+06 3.027169e+06 7.487346e+08 362401.9 1.9688624e+06 9.918488e+08 24.034758
1750.4457 2352.7612 2.6538765e+06 1.4968647e+07 7.443475e+09 1.615702e+06 2.1107115e+06 7.5113005e+08
21568.715 106874.86 43958.977 0.0 0.0 0.0 10652.99 37748.984
9.857258e+06 143253.77 458459.53 1.6977104e+08 1.6691229e+07 2.4799188e+07 3.001949e+09 3.70446e+07
5.663408e+07 7.488101e+09 0.0 0.0 0.0 2.5274308e+07 3.8027296e+07 5.2970726e+09
00000000: 30e7 1748 97c8 a548 4611 e94c 0000 0000
00000010: 0000 0000 0000 0000 6592 814c e400 ba4c
00000020: a3f9 2b50 57ec 654a acad 9d4a a389 e74e
00000030: 0000 0000 0000 0000 0000 0000 499c 0e4b
00000040: d62c 614b e402 284e 9b2b 2648 89a2 3a49
00000050: 07fb 9a4d 90ea 4b49 6999 824a 6afa 924e
00000060: 749e c747 3607 5c48 f45a 214c c9de 6647
00000070: 466b 8548 f6de bf4c 079d 4a48 94de d748
00000080: 53e3 0a4d fd97 de4b f608 284c f9d0 ae4f
00000090: 45a9 c948 e1d8 cb46 35a3 b94c 93d7 d949
000000a0: 924e 854a c574 204d 0000 0000 0000 0000
000000b0: 0000 0000 4da6 3d48 1679 8e49 fc0a 124a
000000c0: 8a90 c448 c9ad b849 2eb2 184e c777 a14b
000000d0: ad04 d54b 98f6 044e 870d d147 839b 3a48
000000e0: d666 754c cde0 454c 43ba 924c 1070 1350
000000f0: d9c4 044b 0876 014c 1927 fb4f 4264 2c4c
00000100: 5ec9 814c 6db8 fc4f 0000 0000 0000 0000
00000110: 0000 0000 af18 7348 c681 2249 2911 764d
00000120: c7a0 2c4a f1ac 2c4a d7f6 814e 53b0 194c
00000130: d091 714c b06b 214f 4547 bb4b 9189 174c
00000140: 2e75 c64f eb87 6649 bdd2 a648 429c 804a
00000150: f561 824a bb09 9e4a ad0a 084e 4b6f 9649
00000160: 047a 474a c8ea 6f4e c37b 2f48 13e5 db48
00000170: 491c 2c4d e5f5 1048 61f5 2b49 6ec6 9a4d
00000180: b2d7 f648 9de0 5649 b92e 9f4e ab29 9a4b
00000190: 4211 ea4b e950 684f 542c 894b 5a04 c94b
000001a0: 4d05 414f 6f25 e848 6118 304a d1ba a14b
000001b0: 4617 3848 655a 8848 629b a74c 0000 0000
000001c0: 0000 0000 0000 0000 9a56 1649 98c1 534a
000001d0: 4165 c04e ebf2 384b 1a62 934b e069 594f
000001e0: 0000 0000 0000 0000 0000 0000 d71b 6d4b
000001f0: fc97 b64b 0a33 464f d5c2 e248 0d1c 9649
00000200: 30f4 8d4d 3ccc dd47 bfbe f347 993f 924a
00000210: a292 444b e98a 9d4b 0947 594e f6b6 e947
00000220: 5103 0649 b440 5a4d 0000 0000 0000 0000
00000230: 0000 0000 9ad0 d54b 6539 2a4c dc6b e94e
00000240: 62ee f84a 1c35 6f4b 76f9 6e4f b635 624b
00000250: b454 ac4b f8a0 3d4f 0000 0000 0000 0000
00000260: 0000 0000 8acd 9549 84c3 384a 2283 324e
00000270: 3df4 b048 f356 f049 a679 6c4e 2f47 c041
00000280: 43ce da44 2e0c 1345 d2fa 214a 4767 644b
00000290: 35d5 dd4f b03a c549 ded3 004a 5715 334e
000002a0: 6e81 a846 6ebd d047 fab6 2b47 0000 0000
000002b0: 0000 0000 0000 0000 f673 2646 fc74 1347
000002c0: ea68 164b 71e5 0b48 71db df48 02e8 214d
000002d0: 1db0 7e4b ea33 bd4b 1bee 324f 5e50 0d4c
000002e0: b80a 584c ad29 df4f 0000 0000 0000 0000
000002f0: 0000 0000 e2d3 c04b 0810 114c 75dd 9d4f
