beer/experiments/MA/MA_0.05/models/dqn_agent_firm_0_episode_5000.pth (torch, 101224 bytes, 24 tensors)

fc1.weight f4 [64, 3]
000000 e1 f8 ca be bc 46 02 bf 0d 67 73 3c 7e db 99 be
       -0.39643005 -0.5088918 0.014856112 -0.30050272
000010 02 01 65 bf b4 1f 56 3e 89 57 9a be 4a 72 7d 3e
       -0.8945466 0.20910531 -0.3014491 0.24750629
000020 6c fd 03 3e 9b 08 0e 3f 67 f9 f6 3d dc f0 ae 3e
       0.12889642 0.5548188 0.120592885 0.34168136
000030 73 4d 4b 3f 53 aa e7 3e fe 32 56 3e 3f 41 3c 3e
       0.79415053 0.45247135 0.2091789 0.18384264
000040 97 5f 34 bf dc e1 0a bd 27 0a c3 3d 94 bc c6 3d
       -0.7045836 -0.033906803 0.09523421 0.09703937
000050 5a 56 89 be 28 06 3c be df 6d 0d 3d 5c 8c c2 3d
       -0.26823694 -0.18361723 0.03452861 0.09499428
000060 b9 b8 5f bd 13 9f 44 3e 0f 92 8f 3a 6f 51 b8 be
       -0.054619525 0.19201307 0.0010953563 -0.3599963
000070 38 1e 24 bf dc a1 b7 3d 56 7c a2 3d d3 c7 8c 3e
       -0.6410861 0.08966419 0.079338714 0.27496204
000080 ee 12 cf be 15 cf 09 3e 67 5f 2e 3e f3 22 59 be
       -0.4044413 0.13457902 0.1702858 -0.21204738
000090 be 5e be 3e b9 61 e7 3e 02 9d 4d bf ef e2 f3 3d
       0.37181658 0.45191744 -0.803177 0.119085185
0000a0 41 6e b2 3e 5f 35 77 bf b3 db c9 bd 2d 4c a1 bf
       0.34849742 -0.9656581 -0.098563574 -1.2601372
0000b0 16 37 b3 3a 44 40 28 3e 94 f8 54 3e 22 9c ed be
       0.0013673033 0.16430765 0.2079795 -0.46408182
0000c0 b1 e3 91 3c e5 73 bb bd fa 8b 56 bd d0 ac ac 3e
       0.017808767 -0.091529645 -0.052379586 0.33725595
0000d0 37 b2 2a 3f 0c a4 a9 3e a5 05 9e be 9c e7 8c 3d
       0.66678184 0.3313297 -0.3086368 0.068801135
0000e0 57 51 29 3e e3 82 87 be 47 79 ca 3e ea 23 0a 3e
       0.16534935 -0.26467046 0.39545652 0.13490263
0000f0 2b cf 7b bf 88 1c e4 be 75 d5 24 3e 80 bf 02 bf
       -0.9836299 -0.44553018 0.16097052 -0.51073456
000100 2f 0c 67 be 32 c0 9a 3c 6a d2 e8 bd 66 e6 34 be
       -0.22563241 0.018890474 -0.11368258 -0.17666015
000110 bc 5a c6 3d 40 27 54 3e 21 68 af 3e 6d 63 02 be
       0.09685275 0.20718098 0.34259132 -0.1273324
000120 b6 54 b9 be 84 c6 24 bf 21 94 87 3e f5 5f cf be
       -0.36197442 -0.6436541 0.264802 -0.40502897
000130 9a ba 03 bf 0a 56 94 bd 94 54 3f 3e 67 c2 84 bf
       -0.51456606 -0.07242973 0.18684608 -1.0371827
000140 fc 6a 8a bd a9 76 37 3f 41 02 c6 be 9d 9f 3c 3e
       -0.06758687 0.71665436 -0.38673595 0.18420263
000150 b3 d8 81 bd 24 db 5f be 37 77 8d bd a9 bb 3a be
       -0.0634016 -0.2186094 -0.06907504 -0.18235649
000160 cc d5 0a 3f aa 12 83 3e e4 24 6d bd 1c 6c 81 bf
       0.5423248 0.25600177 -0.05789651 -1.0111117
000170 e4 60 1b 3e ef f3 14 bf fd 08 2b be 2f df c3 bd
       0.1517368 -0.58184713 -0.16702648 -0.09564053
000180 5b 7d 77 be d8 ec 57 be 95 b6 aa bd 63 2e e4 3d
       -0.24168913 -0.21086442 -0.08335606 0.1114166
000190 08 1e 89 3f 90 c8 58 3e cd 32 ed 3e 54 23 be bf
       1.071229 0.21170259 0.4632782 -1.4854531
0001a0 59 a3 01 be 95 7d 7b 3d 00 8e 2d be 03 9f 6a 3d
       -0.12659968 0.06139906 -0.169487 0.05728055
0001b0 d6 5f 43 3c c2 ab 13 3d 42 65 7c 3d db 45 0a bd
       0.011924705 0.036052473 0.061620004 -0.033758026
0001c0 8d 4d 0f bf f0 eb c5 3d fc c6 58 3e 30 34 6f 3e
       -0.5597771 0.09664142 0.21169657 0.23359752
0001d0 96 2b b1 bc 73 e7 e6 3d 16 f0 c9 3e 9a 00 e7 3d
       -0.021627229 0.11274614 0.39440984 0.112794116
0001e0 a8 87 87 be 47 d8 ca ba f5 44 6f be 7e e6 8e 3e
       -0.26470685 -0.0015475833 -0.23366149 0.27910227
0001f0 d3 65 dc 3e 8e 87 4c be 6f 77 6a 3e 71 01 f8 3e
       0.43046436 -0.19973585 0.22897123 0.484386
000200 9e c2 e1 3d 4e 1f a2 bd 6f 6e 78 bf eb 61 c6 3c
       0.110234484 -0.07916127 -0.9704351 0.024216613
000210 aa 45 83 be ea c1 5b be f2 03 2d bc d0 fc 59 3e
       -0.25639087 -0.21460691 -0.010560023 0.21287847
000220 07 8b 92 3c e3 3a b7 3d df cc 82 be 8c 21 e3 be
       0.017888559 0.089467786 -0.2554693 -0.44361532
000230 ee 85 21 bd f1 63 79 3c 7a 87 96 3e 60 93 08 be
       -0.039434366 0.015221582 0.29400235 -0.13337469
000240 72 5f 90 bd d8 e0 66 bf 10 f6 a0 3d 54 96 cd be
       -0.07049455 -0.90186834 0.07859433 -0.40153754
000250 12 5d d8 3e 7b d9 97 bd b0 43 87 bd 96 48 b3 3e
       0.42258507 -0.07414528 -0.06604707 0.35016316
000260 4d 64 ae 3d ae 6a 31 be 05 13 8d 3e 8d da 13 bf
       0.085152246 -0.17325851 0.27553573 -0.5775536
000270 9d 71 de be 60 6d 90 be cb e2 71 3d 90 aa 97 be
       -0.43446055 -0.28208447 0.059054177 -0.29622316
000280 24 fe 05 bf 53 08 e1 be dc 70 c8 3e b4 ae d6 be
       -0.5234091 -0.43951663 0.39148605 -0.41930163
000290 42 27 03 bf 18 e9 39 ba 89 43 37 bf e8 7c 4a bb
       -0.5123178 -0.00070919236 -0.71587425 -0.0030897204
0002a0 35 4a 7c 3e e0 3d 8e bd d8 38 33 bd 79 ba 10 bf
       0.24637683 -0.069453955 -0.043755382 -0.56534535
0002b0 b6 55 54 be f2 d7 2c be 38 7e 8d 3e 82 4c 73 3e
       -0.20735821 -0.16879252 0.2763536 0.23759654
0002c0 05 42 c4 be 6a 45 3b be 8c c7 2a be 62 f8 2f bd
       -0.3833162 -0.18288198 -0.16677684 -0.042961486
0002d0 39 68 c3 3e 24 68 df 3e 1b b7 80 be b2 b6 c5 bd
       0.38165453 0.4363414 -0.25139698 -0.09653987
0002e0 f9 9d 19 3f ff 4e 51 be bd ef 01 bf cf 33 e5 be
       0.6000667 -0.20440291 -0.50756437 -0.4476609
0002f0 d1 47 4c 3d 5c e0 51 be 2a 34 da be 1c 5d ef bd
       0.049873177 -0.20495743 -0.42617923 -0.11687681

fc1.bias f4 [64]
000000 73 a6 41 40 11 a2 f1 bf 06 fc 2e 40 a1 ee 24 c0
       3.0257843 -1.8877584 2.7341323 -2.5770648
000010 48 cf 12 c0 0a 7c 1b 40 07 56 4d 40 c7 47 54 40
       -2.2939014 2.4294457 3.2083757 3.316881
000020 d7 52 1f c0 6d 1e 13 40 3f 7a 12 3f 98 5f 49 40
       -2.4894311 2.298732 0.5721778 3.1464596
000030 85 f7 3f 40 41 0d 36 40 0c 3d 27 bf aa a9 32 40
       2.9994824 2.844559 -0.65327525 2.7916055
000040 be d5 67 40 0e 5d 01 c0 64 d6 3d 40 08 91 39 40
       3.6224208 -2.0213046 2.9662104 2.899477
000050 05 a0 86 c0 53 8d 1b c0 27 bc 7c 40 98 fa 58 40
       -4.2070336 -2.4305007 3.948984 3.390295
000060 2f fd 3c c0 bf 78 6c 40 41 68 05 40 fe 45 56 40
       -2.952953 3.6948698 2.0844882 3.348022
000070 5f 5e 65 3f 77 45 02 c0 32 77 49 c0 22 4a 12 40
       0.89597124 -2.0354898 -3.1479 2.2857747
000080 42 97 39 40 d9 ef 27 c0 73 38 77 be fe e0 5f 40
       2.899857 -2.6240141 -0.24142627 3.4981074
000090 e7 1f 37 40 1e 8a 53 40 8c da ba bf db 2e 3b 40
       2.8613222 3.305305 -1.4597945 2.9247348
0000a0 6c 04 96 3e d5 9c 54 40 0c c6 44 40 46 1a 21 c0
       0.2930025 3.3220723 3.0745878 -2.5172286
0000b0 ac 18 3e 3e 8e 13 4b 40 ed ca 24 40 b4 fd 38 40
       0.18564099 3.1730685 2.5748856 2.8904848
0000c0 4a 82 03 c0 5e c4 e5 bf fa 27 5b 40 fa 4b 13 c0
       -2.0548272 -1.7950552 3.424315 -2.3015122
0000d0 55 7a 67 40 f4 29 43 3e 72 df 04 3f 56 31 32 40
       3.6168416 0.19058973 0.5190345 2.7842612
0000e0 f9 ec d0 3f 14 4d 1c be 23 20 b5 bf 4b 1a 44 40
       1.6322318 -0.15263778 -1.4150432 3.0641048
0000f0 0e 61 2f bf 58 9d 49 bf ff 68 97 40 83 02 0c bf
       -0.6850747 -0.7875571 4.731567 -0.5469133

fc2.weight f4 [64, 64]
000000 ae 24 a9 3e da b2 6b bd 02 83 d0 3d ea 94 d2 3c
       0.33035797 -0.057543613 0.10181238 0.025705773
000010 32 3b 0e 3e f4 04 8a 3e 6e 4b e0 be 03 dd eb 3e
       0.13889769 0.26956904 -0.43807548 0.46067056
000020 8b d3 e4 bd 94 17 07 bd af 41 22 be c0 90 d8 be
       -0.11173161 -0.03298147 -0.15845369 -0.42297935
000030 a4 a8 bc be 76 33 0d 3f 69 bd 16 bd a6 0f 00 be
       -0.36847413 0.5515665 -0.03680173 -0.1250597
000040 2a 1f 2f be d0 7c 22 3c 03 17 43 3f e4 4e 1a 3f
       -0.17101732 0.009917453 0.7620699 0.6027663
000050 16 3a fe be 0f 12 e8 39 15 08 a6 3f e4 42 2f bf
       -0.4965369 0.00044263943 1.2971216 -0.6846144
000060 75 c9 8d be 6a d7 81 3e c7 64 0d be 4f 44 6a 3f
       -0.27692762 0.2535966 -0.13807975 0.9151048
000070 d2 2d f1 bd 4f 0b f1 3d 81 d1 a2 bd 59 5b 15 3f
       -0.11776318 0.11769735 -0.07950116 0.5834251
000080 c0 04 2f bf f0 58 34 be 15 6d 2a be 8f a7 8e 3e
       -0.6836662 -0.17612052 -0.16643174 0.27862212
000090 3e fe 85 3e fa 2c c6 3e cd 03 4f bd 32 a8 22 3e
       0.26170534 0.3870619 -0.050540734 0.15884474
0000a0 e9 bd 1c bd e6 91 3c bf 7c 69 87 3e 20 d0 2c 3e
       -0.03826705 -0.73660123 0.26447666 0.16876268
0000b0 00 5d 14 3c 5f 84 09 3f d3 f0 44 bd 0a 9a 2a be
       0.009055376 0.5371761 -0.04808123 -0.16660324
0000c0 99 72 97 bd 11 b7 90 bd 05 56 ad 3e 04 8a 39 be
       -0.07394905 -0.07066167 0.3385469 -0.18119055
0000d0 af f1 b7 3e 40 cc 07 3c dc 26 e3 3d a4 39 93 3e
       0.35926577 0.008288443 0.11091396 0.28754914
0000e0 e4 a6 46 bd 1a 6b ae 3d 20 f2 31 bc 9a 28 ee 3d
       -0.048499003 0.08516522 -0.01086095 0.11628838
0000f0 7b 0c a3 be c8 84 e9 bd b6 6e 87 3f 48 2a a8 3d
       -0.3184546 -0.11402279 1.0580661 0.082111895
000100 c4 65 c7 3e 29 db 6d bd 2e 80 bf 3e 7d a9 75 3e
       0.3894483 -0.058070336 0.3740248 0.23990436
000110 d6 28 b1 3c 4a ef 00 3e 80 30 3f 3d ba 6d 0f 3f
       0.021625917 0.12591282 0.046677113 0.56026804
000120 dc d9 5b bd d7 f1 56 3e bd f6 2f bf dc 9f ca be
       -0.053674564 0.20990692 -0.6873587 -0.39575088
000130 e1 89 ac be 38 da 2b 3e f4 32 02 3e 04 73 91 bc
       -0.33698943 0.16782463 0.1271475 -0.017755039
000140 81 af 9f 3d 78 71 ff 3d 70 3f 5d 3f ec 71 10 3f
       0.077971466 0.12472814 0.8642492 0.5642383
000150 8f 74 0b bf e5 8f 4a bd f9 d3 bb 3f 84 9d 0a bf
       -0.5447473 -0.049453635 1.4674064 -0.541466
000160 c2 2a 45 be 80 4a 01 3f d8 a1 71 be fc df 20 3f
       -0.19254592 0.505043 -0.23596895 0.62841773
000170 79 24 31 be d9 96 6a 3e 48 95 21 be 3c 91 2f 3f
       -0.1729907 0.22909106 -0.15779603 0.68580985
000180 eb 59 04 3e 10 99 ac 3d 01 05 d7 be ef b7 ef 3e
       0.12924926 0.08427632 -0.41996005 0.46820018
000190 91 db 6c 3e c3 bd 11 3f 6d 1c 93 bd 53 c1 55 3e
       0.23130633 0.5693018 -0.07183156 0.20874529
0001a0 ed 1c a6 bd 97 53 30 bf 93 bd 88 3e f2 b8 0c be
       -0.08110986 -0.6887755 0.26707134 -0.13742426
0001b0 90 1b f1 bd 13 9d f5 3e cd f0 56 3e da 1d 8e 3d
       -0.11772835 0.479714 0.20990296 0.069392875
0001c0 9c cc 0f be 22 fe 9c be 1b a7 0c 3f e0 41 37 bf
       -0.14042896 -0.30662638 0.5494248 -0.7158489
0001d0 7e 9f 3a 3f 90 4b e6 3c 92 ed 87 3d ca 8e f3 3c
       0.72899616 0.028112203 0.0663711 0.029731173
0001e0 3e a7 db bd 84 2c 09 bd d2 f3 df be f4 07 2b 3e
       -0.10725258 -0.03348972 -0.43740708 0.16702253
0001f0 93 a8 40 be 52 73 89 be 49 97 ae 3f a8 d8 a0 3c
       -0.18814306 -0.26845795 1.3639919 0.01963456
000200 41 ed 01 3c 63 21 fa bd 45 1b b3 be 07 e0 a4 be
       0.007930101 -0.12213399 -0.34981743 -0.3220217
000210 19 dd a5 be 7f 67 ba bd c3 ad 9a bf 85 e2 45 be
       -0.32395247 -0.091017716 -1.2084278 -0.19324692
000220 a7 cd 79 be 5c 8c 7c 3e 62 45 1b bf fb e1 7b 3e
       -0.24394856 0.24662918 -0.60652745 0.24597923
000230 c8 b3 04 bf bf e6 5c 3f 63 1d 1a be 29 a9 50 bf
       -0.51836824 0.8628959 -0.15050273 -0.8150812
000240 6e d9 93 3f b0 0b 9e be 2d a0 a0 3e 7b 67 47 be
       1.1550729 -0.30868292 0.31372204 -0.19473068
000250 4b ec e9 be 7b f1 f3 bd df a6 11 3f 7a 94 94 be
       -0.4568809 -0.11911293 0.5689525 -0.2901953
000260 f8 53 b4 be 36 a6 4b 3e 51 f2 10 bf 41 6e bb 3e
       -0.35220313 0.19887623 -0.56619745 0.36607555
000270 5c f8 90 be 6b bf 61 be bc 4a 3a be d4 65 bd be
       -0.28314483 -0.22045676 -0.18192571 -0.3699175
000280 11 40 18 bf 25 b0 f5 be a0 c9 f9 be bf 69 45 bb
       -0.5947276 -0.4798595 -0.4878664 -0.0030122844
000290 9a ab a1 be 2e 0e c5 3d a7 82 44 be e6 cb fe be
       -0.31576234 0.09621845 -0.19190465 -0.49764937
0002a0 42 47 87 3d f4 e7 f6 be df 18 c2 be 45 19 1d 3e
       0.06605388 -0.4822384 -0.379096 0.15341671
0002b0 b4 84 45 bc 30 09 58 be 6b 56 28 3e ac 6d 1b 3f
       -0.012055565 -0.21097255 0.16439216 0.6071422
0002c0 45 b8 0f be c5 5c cc bd fa ce 30 be 10 c1 2c be
       -0.14035137 -0.09978632 -0.17266455 -0.16870522
0002d0 e7 87 cc 3d c8 14 20 bd 1c 47 fd bd 47 d0 77 be
       0.09986859 -0.03908232 -0.12367079 -0.24200545
0002e0 28 16 2d bf e0 40 bc 3b 63 b9 9c be 03 15 e3 3d
       -0.6761193 0.0057450384 -0.3061019 0.11087992
0002f0 da f0 56 bf 62 48 d3 be d0 65 63 3f 50 27 d0 bd
       -0.8396126 -0.4126616 0.8882723 -0.10163748
000300 96 86 3e 3f 04 af 6d bd 54 28 42 3f 81 c7 28 3f
       0.7442411 -0.058028236 0.75842786 0.6592942
000310 f9 5a e4 3e fc 10 31 3f b2 14 26 bf 4b 91 6f 3f
       0.44600657 0.6916654 -0.6487533 0.93581074
000320 9a e0 47 3e ef 47 57 3f 26 ce 8b be 2c f4 5c bf
       0.19519272 0.84094137 -0.27305716 -0.86310077
000330 f9 fc 86 bf 7b 0d cc bf 9b b6 5b 3c 56 42 68 bf
       -1.0545951 -1.5941614 0.013410236 -0.9072622
000340 41 3b eb bf 46 bb 0d 3f a3 a2 5f 3f cd 74 6f 3f
       -1.8377458 0.5536388 0.8735754 0.935376
000350 6c b0 24 bf 22 e1 c4 3e 2c a5 97 3f f0 d8 e7 bd
       -0.643317 0.38453013 1.1847281 -0.113206744
000360 2a 24 e3 3c 6e 17 da 3e b3 90 2c 3e 72 04 67 3f
       0.027727205 0.42596 0.16852073 0.9024116
000370 84 0e 88 3d c4 79 b5 3e 6a c8 71 3e 59 33 8b 3f
       0.06643394 0.35444462 0.23611608 1.0875045
000380 fd da 18 bf b7 1a be 3e bb 23 54 be 3f 18 19 3f
       -0.5970915 0.37129757 -0.20716755 0.5980262
000390 33 2e 56 3f 57 7a 4b 3f fe 00 ba 3e 3e ea 82 3f
       0.83664244 0.7948355 0.36328882 1.0227735
0003a0 88 61 12 3e e3 54 63 3e 20 fb 60 3f 84 0b 5a bc
       0.14295018 0.2220035 0.87883186 -0.01330841
0003b0 c5 a7 c0 bd db b5 39 3f 0f 09 23 bf 92 ba 99 bf
       -0.094069995 0.72543114 -0.636857 -1.2010062
0003c0 42 e4 2f 3e a6 3c 5b 3e 1c a2 53 3f 71 f0 4e bf
       0.17176917 0.21409854 0.82669234 -0.80835634
0003d0 4d c2 21 3f e0 ab 29 bd 34 c7 39 3d c0 03 0c 3f
       0.63187104 -0.04142368 0.04535599 0.5469322
0003e0 1c a3 0a 3f 7a 4c da 3d 36 c8 0d be a9 24 13 3e
       0.54155135 0.10659118 -0.13845906 0.14369453
0003f0 7a bb 33 bd 5b 18 4d be f4 06 31 3f 88 30 05 bd
       -0.043879963 -0.20028822 0.69151235 -0.032516986

fc2.bias f4 [64]
000000 db a7 14 40 5c 3e 25 40 a2 f3 b3 3f bb 54 8d 3f
       2.322745 2.581931 1.4058726 1.1041483
000010 03 4b 9c 3f 4a ad b5 3d 22 f0 f3 3f 85 fd ab 3d
       1.2210392 0.08870943 1.9057658 0.083979644
000020 b1 ec 8a 3c d3 e6 8a 3f 7d 33 94 bd 4e 56 7b 3c
       0.016958566 1.0851692 -0.07236383 0.015340401
000030 06 ea 11 40 38 50 d7 3f 0c 98 b7 bb ba fe 8a 3f
       2.2799087 1.6821356 -0.005602842 1.0858986
000040 de 25 09 bd bc b5 76 bd b3 dc f4 3f 5a 8f ce 3c
       -0.03348338 -0.06023191 1.9129852 0.02521484
000050 c3 8a 9a bc 68 33 df bd e9 b0 9e 3f 36 6e 53 bd
       -0.018864995 -0.10898477 1.2397739 -0.051618777
000060 b0 42 c7 3f 00 50 9f 38 73 9d 55 bd 05 dd 07 40
       1.5567226 7.596612e-05 -0.05215211 2.122865
000070 a4 8f da 3f ef 84 57 3f ba bb 11 40 99 00 ca bf
       1.7075086 0.84187216 2.277083 -1.5781432
000080 70 bd da bd 5e 0c b5 3d 54 e2 dd 3f cd 50 e4 bd
       -0.106806636 0.088402495 1.7334695 -0.11148224
000090 19 7c d2 bd d3 2e 13 3d 5f 38 57 3d ac 74 5e be
       -0.10277576 0.035933327 0.052543994 -0.21724194
0000a0 84 a9 de 3f 6d 43 7e 3f 1b ab 02 40 0a 4d 95 be
       1.7395482 0.99321634 2.0416934 -0.2916034
0000b0 b5 64 34 3d 1b 97 31 3c e2 3c d8 3f 3b 81 ee be
       0.044041354 0.010839249 1.689358 -0.4658297
0000c0 f7 a6 79 bf ee d2 ed 3f 9e 47 2b bd e4 61 fd bd
       -0.97520393 1.8579996 -0.041816346 -0.12372187
0000d0 23 cb 09 40 df c5 ce 3f da fe 07 40 8c c2 14 40
       2.1530235 1.6154135 2.12493 2.3243742
0000e0 a3 24 43 bf 57 13 06 40 8e 1b 10 3c 43 38 c1 bb
       -0.7622778 2.0949304 0.008795632 -0.0058965995
0000f0 78 34 df bd 7d cf bd 3c 70 15 b9 3f 45 be b2 3f
       -0.108986795 0.023170227 1.4459667 1.3964316

fc3.weight f4 [20, 64]
000000 45 f9 ec 3e 3f 47 32 3f 4f 3b a3 3a 45 26 47 3e
       0.46283928 0.6963996 0.0012453588 0.19448192
000010 01 e6 49 3d 74 48 32 3d c3 66 01 3e df bf b7 bc
       0.049291614 0.043526128 0.12636857 -0.022430358
000020 b8 af 87 bd 48 79 65 bf c0 e3 fd 3b c0 e1 57 bc
       -0.066253126 -0.89638186 0.007748097 -0.013176382
000030 28 77 14 3f 0d c6 9a be b9 96 ff 3b 94 69 85 3d
       0.5799432 -0.30229226 0.00779995 0.06514278
000040 f8 b9 87 3d 3e f9 48 bc d5 03 30 3e 8b 0b cb bd
       0.066272676 -0.012266455 0.17188962 -0.09914311
000050 17 0d d3 bd d6 29 e8 3c 17 18 57 3e 38 e8 af 3c
       -0.10305231 0.028340261 0.21005283 0.021473035
000060 89 d4 f2 3e ac ad b2 3d 54 a0 48 3d 72 e1 81 bf
       0.47427776 0.087245315 0.048981026 -1.0146925
000070 43 9f 71 3e c2 95 b7 be 8c 4f 4a 3f 6e 41 fe be
       0.2359591 -0.35856444 0.7902763 -0.49659294
000080 10 1c a7 3c ce 18 ee bc df 88 c1 bc 8c 31 1e bd
       0.020399123 -0.029064562 -0.023624836 -0.03862147
000090 20 3e b4 bc 0f a0 55 bd 40 03 4f bc 50 68 1e bd
       -0.02200228 -0.052154597 -0.012635052 -0.0386737
0000a0 e1 3f 11 3f 6e 6c 87 3f c8 48 09 3f 2f ff 79 3f
       0.56738096 1.0579965 0.5362668 0.97655004
0000b0 16 b8 b8 bd c0 cf 8c bc ce 8b 9a 3d d7 19 cd 3b
       -0.090194866 -0.017188907 0.07546197 0.006259184
0000c0 46 5a 58 be cd 28 8c 3e 40 8c 76 bc f9 8d c1 bc
       -0.21128187 0.2737488 -0.015048087 -0.023627268
0000d0 57 3b d4 3e 37 5b 4b 3e 22 88 0b 3f 7a 5c 2c 3f
       0.41451523 0.19859014 0.545046 0.6732861
0000e0 d2 57 30 be 75 6b 48 3f d2 2d 92 3c c0 e2 56 bc
       -0.17221001 0.78288966 0.017844114 -0.013115585
0000f0 3e d3 ed bd 62 33 53 3d 6e c5 90 bf 93 e4 34 3f
       -0.11612557 0.051562674 -1.1310251 0.70661277
000100 ff ca 00 3f 9b e6 49 3f 22 94 05 3d 12 13 c0 3e
       0.5030975 0.788675 0.032611974 0.3751455
000110 0f e0 9b 3d 26 1e 53 bb ee cd 80 3e 35 e6 6f 3d
       0.07611095 -0.0032214015 0.25157112 0.058569152
000120 ae 64 e2 3c ae 39 fd be 0c ca 31 bd 92 74 f7 bd
       0.027635898 -0.4945807 -0.043405578 -0.12082781
000130 c0 c2 06 3f 54 46 dc be d4 71 ae bd 90 f0 83 3e
       0.52640915 -0.43022406 -0.08517805 0.25769472
000140 d8 da a8 bc 05 77 0e 3d de d7 ab 3e 86 cd 11 3d
       -0.020612165 0.034781475 0.3356313 0.035596393
000150 58 a1 f4 bc 1e 50 e9 3c 3e d6 db 3e 50 9e 4d 3c
       -0.029862091 0.028480586 0.4293689 0.012549952
000160 51 79 d4 3d 0a 2e b8 3d 56 85 10 bd e5 ec 72 bf
       0.10374702 0.08993156 -0.03528341 -0.9489272
000170 1d 11 6c 3e 5c f7 a0 be c3 d3 bf 3e 8c 2a 46 be
       0.23053403 -0.3143872 0.3746625 -0.19352168
000180 c0 23 0e bc 8a e2 9c 3d 16 f1 84 3d a0 ae be 3c
       -0.008675516 0.076603964 0.06491296 0.023276627
000190 8e 2b 99 3d cf 67 2f 3d ac f9 52 3d bc fb 61 3c
       0.074790105 0.04282361 0.051507637 0.013792928
0001a0 35 bf f1 3e 85 5c 84 3e a3 2c 23 3f 3d 86 7b 3e
       0.47216192 0.25851837 0.63739985 0.24562927
0001b0 b9 d0 21 3c dd 57 2c 3d 0f 34 a0 3d c6 f4 1f 3e
       0.0098764235 0.04207598 0.078224294 0.15620717
0001c0 03 41 bb 3e b9 1a 7e 3e 6c d8 2f 3d 52 fc a9 bd
       0.36573038 0.24814881 0.042931005 -0.083000794
0001d0 e0 aa bf 3e 5b a7 8f 3e 22 ba 87 3e 98 8d 19 3f
       0.37435055 0.2805737 0.26509196 0.5998168
0001e0 2e ea ee bb 2d 31 d5 3e 9a 8d 94 3d 9e 59 d4 bd
       -0.0072911 0.4163908 0.07253571 -0.103686556
0001f0 26 11 a9 bd 90 ee 5a 3c 68 38 44 bf 16 fa 36 3f
       -0.08255224 0.013362542 -0.7664857 0.7147535
000200 32 3c 17 3f 37 16 13 3f f8 59 f1 3d 22 1a c3 3e
       0.59076226 0.5745577 0.11784738 0.38105875
000210 75 0c b0 3e c2 31 45 bd 42 98 aa 3e de f7 ab bb
       0.34384504 -0.048143156 0.33319288 -0.005248054
000220 7a 6d 8a 3d 2b 4c aa be f9 3a 31 3b 40 d0 4b 3d
       0.06759162 -0.33261237 0.0027043207 0.04975915
000230 a5 40 21 3f f1 88 7f be 00 aa ec b9 c6 d3 07 3e
       0.62989265 -0.24954583 -0.00045140088 0.13264379
000240 72 4e a8 3d 55 a0 9d 3d d8 20 4e 3e cf 62 b0 3d
       0.08218087 0.076965965 0.20129716 0.08612596
000250 34 a7 e8 3c 67 00 b9 3d 3e d6 1e 3e 40 43 dd bc
       0.028400041 0.0903328 0.15511414 -0.027009606
000260 17 b9 02 3d 82 5e db bd 72 47 48 3d 56 51 79 bf
       0.031914797 -0.10711385 0.04889626 -0.97389734
000270 b7 a2 3e 3e ea 13 1b be 8d 38 e7 3e 25 e0 de be
       0.18616758 -0.15144315 0.45160332 -0.43530384
000280 4c f0 96 3d ae fa ad bd 53 79 bf bd 80 fd b2 bc
       0.07370052 -0.08495079 -0.09349313 -0.021849394
000290 f8 19 4f 3d 5a c3 ee 3d f4 8b 41 3d fc 1a 1c 3e
       0.050561875 0.11658354 0.04725261 0.15244669
0002a0 5e d7 f1 3e 34 00 cb 3e d5 d3 d6 3e eb a2 59 3f
       0.47234625 0.39648592 0.4195849 0.8501422
0002b0 96 6c 79 3d b6 de cd bd b0 81 37 be dd 14 1c be
       0.06089457 -0.10052244 -0.17920566 -0.15242334
0002c0 09 9f e6 3e 9e d7 85 3e 9c 4e c9 bd c6 62 8b bb
       0.4504321 0.26141065 -0.09829447 -0.004253718
0002d0 b6 4c aa 3e b3 53 74 3e c9 9a e9 3e 7d 5a 1e 3f
       0.3326165 0.23860054 0.45625904 0.61856824
0002e0 67 9f f9 3d 50 ee 01 3f f4 9b a9 3d 24 ff ae 3d
       0.12188607 0.5075426 0.08281699 0.08544758
0002f0 ec b7 52 bd a9 62 ac 3d 54 28 37 bf ed ff 20 3f
       -0.051444933 0.084172554 -0.7154591 0.6289051
000300 69 37 ed 3e 77 c8 1e 3f d1 e5 dc 3e cf f1 f6 3e
       0.46331337 0.62024635 0.43144086 0.4823136
000310 b1 1d 0d 3d d9 64 e1 3d b9 eb bc 3d 51 73 0d bd
       0.034452144 0.11005563 0.09224648 -0.034533802
000320 8e c7 a9 3d e9 9c 0b bf f0 a2 fa 3c 8c 85 64 bd
       0.08290015 -0.545363 0.030595273 -0.055791423
000330 a8 ef ea 3e 7e ae ea be c0 d2 80 bb 9a e8 0a 3e
       0.45885968 -0.45836252 -0.0039313734 0.13565293
000340 3c 84 b6 bd ae 26 a1 bd f2 f1 98 3e 5a 8d 0b 3d
       -0.089119405 -0.07868706 0.2987209 0.03407035
000350 e9 b9 db 3d 2a 3b 01 bc bb 37 99 3e aa 97 e4 3d
       0.10728819 -0.007887641 0.2992533 0.1116174
000360 fb 61 30 bb c0 dc ce 3d 24 19 ea bd 10 c5 4a bf
       -0.002691387 0.101006985 -0.114305764 -0.79206944
000370 ce 8f 8f 3e 2f a5 6d 3d 61 7c c7 3e 21 02 85 3d
       0.28039402 0.05801886 0.3896208 0.06494547
000380 2e 70 cb bd 52 75 ad 3d af d7 13 3f 2c ac ec 3d
       -0.09933506 0.08469643 0.5775098 0.11556277
000390 47 23 3c 3c df 9b a4 bd f0 df 02 bd 7f f1 5a 3e
       0.01148302 -0.080375426 -0.031951845 0.21381186
0003a0 8e eb f7 3e 5c 13 49 3f 79 c6 c0 3e 96 c1 76 bd
       0.484219 0.78545165 0.37651423 -0.06024321
0003b0 48 44 d1 3d c0 14 fa 3b 12 6c 05 3f 3f 58 15 3e
       0.10218102 0.007631868 0.5211803 0.14584444
0003c0 1c 6b 44 3e 62 c9 99 3e ee 60 f8 bd 85 ed e0 bd
       0.19181484 0.30036455 -0.12127863 -0.10982803
0003d0 e9 fe b6 3e ea 1a ec 3d 9d 05 c6 3e 82 6e 20 3f
       0.35741356 0.11528571 0.38676158 0.6266862
0003e0 cf 87 2f 3e 14 d2 93 3e e0 c7 0c bd 92 e3 97 bd
       0.1714165 0.28871214 -0.034370303 -0.074164525
0003f0 a6 be f2 3d ab d1 20 bd d5 59 0c bf ac 79 45 3f
       0.118527696 -0.039262455 -0.5482457 0.7713878

fc3.bias f4 [20]
000000 46 6a 15 40 2d f2 4e 3f 5c 14 29 3f 1e 4d 28 3f
       2.3346114 0.8083828 0.6604669 0.6574267
000010 e3 88 1d 3f a7 5d 17 3f 5d fa dd 3e f5 ab ce 3e
       0.61537 0.5912728 0.43355075 0.40365568
000020 c1 0f ac 3e 7c 53 ad 3e cc d1 84 3e e2 70 02 3e
       0.3360577 0.33852756 0.25941312 0.12738374
000030 94 e5 9d 3d 0b 7e 4d 3e fa 10 55 bd 36 f0 53 be
       0.07709804 0.20067613 -0.052018143 -0.20697102
000040 7c 2b 81 3d 52 bb 1f be eb b2 c6 bd be 64 5d be
       0.06307122 -0.15598801 -0.09702095 -0.21620461

fc1.weight f4 [64, 3]
000000 ce 76 b6 be 7c b5 f4 be a9 89 92 3c d8 74 ad be
       -0.35637516 -0.47794712 0.017887907 -0.33878207
000010 43 1e 63 bf 50 3d 5b 3e ad 76 a4 be c4 9c 80 3e
       -0.8871805 0.21410108 -0.32121792 0.25119603
000020 0c a2 00 3e c9 5b 0e 3f a6 44 f1 3d ba d1 ae 3e
       0.12561816 0.55608803 0.11780672 0.34144384
000030 b5 b2 4b 3f a3 50 e6 3e d6 7c 52 3e 6d 85 44 3e
       0.7956956 0.44983396 0.20555434 0.19191523
000040 32 66 26 bf 07 64 78 3c 67 14 c2 3d 11 c5 cc 3d
       -0.6499969 0.015160567 0.09476548 0.09998525
000050 47 dc 87 be 84 fc 39 be 0a 7c 19 3d 1a 4c c0 3d
       -0.26535246 -0.18162733 0.03747181 0.09389515
000060 95 3b 5b 3b 16 12 53 3e fc 5a 93 3c 6c fc ac be
       0.0033452262 0.20612368 0.01798772 -0.33786333
000070 e2 e6 23 bf a0 fb bc 3d ce 3e bb 3d 23 d9 86 3e
       -0.64024174 0.09227681 0.091428384 0.26337537
000080 2c 79 cc be ac ef 06 3e 5b de 32 3e 98 e9 55 be
       -0.39936197 0.13177365 0.17467634 -0.2088989
000090 b4 71 be 3e 77 34 de 3e c8 cf 51 bf ef e1 0e 3e
       0.37196124 0.43399402 -0.81957674 0.13953374
0000a0 e7 11 ac 3e df 6c 7a bf 7f da c9 bd 8d 4b a1 bf
       0.33607408 -0.97822374 -0.09856128 -1.2601181
0000b0 95 92 b3 3a 4a 60 3c 3e 26 94 4e 3e ab cc e4 be
       0.0013700301 0.18396106 0.20173702 -0.446874
0000c0 04 08 51 3c ba 22 bb bd a9 ae 68 bd ea a0 ad 3e
       0.012758259 -0.09137483 -0.056807194 0.3391183
0000d0 92 15 2a 3f 94 f0 a7 3e 61 07 9e be b5 34 8f 3d
       0.66439164 0.32800734 -0.30865005 0.06992475
0000e0 d7 a2 27 3e 7f 89 88 be eb e7 ca 3e 7f 78 06 3e
       0.16370712 -0.266674 0.39630064 0.13131903
0000f0 e3 bc 79 bf 1f e6 ef be b6 89 1c 3e 23 bf 02 bf
       -0.97553843 -0.46855256 0.15286908 -0.510729
000100 26 0f 67 be a6 c3 9a 3c 65 ca de bd 78 4e 33 be
       -0.22564372 0.01889212 -0.108784474 -0.17510402
000110 fa 08 c2 3d cb fb 4f 3e 0b 56 b3 3e b6 cc 00 be
       0.094743684 0.20310895 0.35026583 -0.12578091
000120 80 77 b8 be ec 84 24 bf 9d f2 83 3e 01 52 cd be
       -0.3602867 -0.6426532 0.25771037 -0.40101627
000130 66 14 fb be bf 73 51 bd 73 2d 42 3e 3b bc 68 bf
       -0.49039 -0.051135775 0.1896265 -0.90912217
000140 dd e6 a3 bc fe 9a 38 3f d8 3d c5 be 63 f7 39 3e
       -0.020007545 0.721115 -0.38523746 0.18160777
000150 83 39 82 bd 7c 4b 5d be ba d6 8b bd 1a d5 52 be
       -0.06358626 -0.21610826 -0.06828065 -0.20589104
000160 15 d3 0a 3f 34 dd 80 3e b6 16 6e bd 3c 16 81 bf
       0.54228336 0.25168765 -0.058127128 -1.008491
000170 a2 81 2e 3e d9 31 20 bf f9 68 3f be 82 de 21 be
       0.17041638 -0.6257606 -0.18692388 -0.15807536
000180 9b 36 96 be 82 00 8e be 57 c8 b1 bd 83 3e df 3d
       -0.29338536 -0.27734762 -0.0868079 0.10900595
000190 3a ac 88 3f 74 a7 55 3e 05 b3 c5 3e 96 e3 c0 bf
       1.0677559 0.2086466 0.38613144 -1.5069454
0001a0 6b 8b 41 be 09 70 91 3d 17 14 27 be 8b 1e 6a 3d
       -0.1890084 0.07101447 -0.16316257 0.057158034
0001b0 b4 63 9d 3c 89 1e 30 3d 2e 07 81 3d 89 9b c2 bd
       0.019212581 0.04299787 0.063001975 -0.09502322
0001c0 6f 1e 0d bf 33 db c8 3d 5a be 5d 3e 1f ea 75 3e
       -0.5512456 0.09807434 0.21654645 0.24015091
0001d0 67 c3 c6 bc 80 98 e9 3d 15 4c cb 3e b2 6a e0 3d
       -0.024263097 0.1140604 0.39706483 0.109578505
0001e0 cf 85 87 be 68 d8 ca ba be 44 6f be 1f 83 8b 3e
       -0.26469275 -0.0015475871 -0.23366067 0.27248475
0001f0 80 53 e2 3e 2c 19 55 be 59 79 6c 3e 9b c1 f8 3e
       0.4420433 -0.20810384 0.23093165 0.4858521
000200 58 f3 da 3d 7d 1e a2 bd 86 6c 78 bf c3 63 c6 3c
       0.106909454 -0.079159714 -0.97040594 0.024217492
000210 aa 45 83 be ea c1 5b be 96 03 2d bc 02 7e 5f 3e
       -0.25639087 -0.21460691 -0.010559937 0.21825412
000220 de 97 b1 3c b5 0c b3 3d 8e 90 6a be f0 d7 e5 be
       0.021678861 0.08742658 -0.22906706 -0.4489131
000230 c8 73 0e bd 60 ee 2e 3c 94 fd 9b 3e b8 95 06 be
       -0.034778386 0.01067695 0.30466902 -0.1314305
000240 ee 92 c1 bd 86 23 67 bf cc 2f d0 3d c0 e8 c6 be
       -0.09451853 -0.9028858 0.101653665 -0.3884945
000250 97 bc e4 3e 1f 9b 95 bd fa 2e 81 bd 1a cd b4 3e
       0.44675133 -0.073049776 -0.06307788 0.3531273
000260 af 57 a9 3d e1 1c 18 be 7b a9 9b 3e 30 b2 12 bf
       0.082686774 -0.14854766 0.3040274 -0.5730314
000270 cf 75 d7 be c3 95 74 be f2 5e 87 3d ac aa 97 be
       -0.42082068 -0.23885255 0.06609906 -0.296224
000280 24 fe 05 bf 53 08 e1 be dc 70 c8 3e b4 ae d6 be
       -0.5234091 -0.43951663 0.39148605 -0.41930163
000290 42 27 03 bf 0a 1f 36 3d 18 23 1d bf d9 98 f5 3b
       -0.5123178 0.044463195 -0.61381674 0.0074950275
0002a0 d5 2d 8a 3e 03 6c 34 bd ef a5 f1 bc 79 ba 10 bf
       0.26988092 -0.04404832 -0.029498069 -0.56534535
0002b0 20 56 54 be f2 d7 2c be 0f 57 95 3e bd fa 83 3e
       -0.20735979 -0.16879252 0.29167983 0.25777236
0002c0 b4 ed b9 be 5d 74 58 be 21 aa 37 be 4c 62 1a bd
       -0.36314166 -0.21138139 -0.17935993 -0.0376914
0002d0 8b 38 b0 3e 6f f2 e0 3e 03 16 76 be 7e c1 03 be
       0.3441814 0.43934962 -0.24031834 -0.1286678
0002e0 2d 8f 13 3f bb e9 78 be 13 00 00 bf 06 36 e5 be
       0.57640344 -0.24307911 -0.50000113 -0.4476778
0002f0 71 3e 45 3d 5c e0 51 be 2a 34 da be 1c 5d ef bd
       0.048155252 -0.20495743 -0.42617923 -0.11687681

fc1.bias f4 [64]
000000 20 1c 41 40 f0 ad f7 bf c3 a4 2e 40 75 cb 24 c0
       3.0173416 -1.9349957 2.7288063 -2.574918
000010 c1 c1 12 c0 7d 6b 1e 40 f1 d1 4c 40 68 5f 54 40
       -2.2930758 2.4753106 3.2003138 3.3183231
000020 34 4f 1d c0 8b ef 12 40 bf bd 0b 3f e6 25 49 40
       -2.4579592 2.2958705 0.54586405 3.1429381
000030 6e 52 3d 40 d7 d9 33 40 1a 3b 27 bf 30 90 32 40
       2.958156 2.810171 -0.65324557 2.7900505
000040 24 51 67 40 ae 65 01 c0 ab e2 3d 40 82 80 39 40
       3.6143274 -2.021831 2.9669597 2.8984685
000050 1e 10 86 c0 e0 8a 1b c0 ed d2 7c 40 91 15 58 40
       -4.1894674 -2.4303513 3.950374 3.3763163
000060 7f 09 3e c0 22 07 6d 40 28 3a 08 40 09 87 56 40
       -2.9693296 3.7035604 2.1285496 3.351992
000070 b0 62 65 3f db e2 02 c0 71 04 48 c0 55 32 0f 40
       0.8960371 -2.0450962 -3.125271 2.237447
000080 ad 90 35 40 3f 1c 28 c0 16 c4 92 be 39 1e 60 40
       2.8369553 -2.626724 -0.28665227 3.5018446
000090 8d 7c 37 40 3c 1a 52 40 6d e6 b8 bf 3c 41 3b 40
       2.866977 3.2828512 -1.444532 2.9258566
0000a0 b2 08 96 3e 82 56 53 40 82 d5 44 40 c4 18 21 c0
       0.2930351 3.302155 3.0755315 -2.5171366
0000b0 a4 1a 3e 3e eb 4b 4b 40 13 28 24 40 4e a8 38 40
       0.1856485 3.1765087 2.564946 2.8852725
0000c0 60 bf 01 c0 05 6d e4 bf ae 45 5b 40 8f 92 10 c0
       -2.0273056 -1.784577 3.426128 -2.2589452
0000d0 8a b7 67 40 f4 29 43 3e 72 df 04 3f eb 7d 35 40
       3.6205773 0.19058973 0.5190345 2.8358104
0000e0 0c 70 d3 3f 14 4d 1c be 98 55 b3 bf 3e b8 41 40
       1.6518569 -0.15263778 -1.4010496 3.0268703
0000f0 3b 97 36 bf 7e a3 53 bf 8e 95 96 40 83 02 0c bf
       -0.7132451 -0.82671344 4.705756 -0.5469133

fc2.weight f4 [64, 64]
000000 1f 6e ac 3e 27 9a 5e bd 26 d1 d4 3d 67 ee ab 3c
       0.33677766 -0.05434623 0.103914544 0.020987703
000010 cd c6 09 3e ee 85 8c 3e 7b ef df be 7e 8a ee 3e
       0.13454743 0.2744593 -0.43737397 0.46590036
000020 cd 70 e6 bd 1c 00 03 bd ed 7d 20 be 3d 63 dc be
       -0.11251984 -0.031982526 -0.15673037 -0.43044463
000030 67 33 c6 be 0d 1d 04 3f 64 bc 16 bd 23 65 00 be
       -0.38711092 0.5160683 -0.036800757 -0.1253858
000040 6d f0 21 be 82 25 8f 3b 6d 76 43 3f 85 40 1a 3f
       -0.15814371 0.004368485 0.7635258 0.602547
000050 43 6c fc be f8 10 e8 39 21 07 a7 3f 19 ea 2f bf
       -0.49301347 0.0004426313 1.304905 -0.6871658
000060 89 b5 8f be 68 be 8b 3e e1 a5 ad bd 3b 3c 6a 3f
       -0.28068188 0.27293706 -0.084789045 0.91498154
000070 72 a5 ed bd 35 5f ea 3d fa 56 9d bd f3 b5 03 3f
       -0.11603822 0.114439406 -0.07682605 0.5144951
000080 bb 4f 24 bf 67 49 3a be 82 9a c6 bc 25 bf 93 3e
       -0.6418416 -0.18192063 -0.024243597 0.2885677
000090 0a 12 89 3e 96 c6 c6 3e 42 7b 66 bd 49 a8 21 3e
       0.26771575 0.38823384 -0.05626989 0.15786852
0000a0 78 bf 1c bd ee df 3d bf f5 96 86 3e cd d0 2c 3e
       -0.038268536 -0.74169815 0.26287046 0.16876526
0000b0 00 5d 14 3c 41 2a 0a 3f 01 28 fd bc 79 e0 30 be
       0.009055376 0.53970724 -0.030902864 -0.1727313
0000c0 30 97 b7 bd c0 1a 4b bd c8 c8 ad 3e ef e6 7b be
       -0.089643836 -0.049586058 0.33942246 -0.24599813
0000d0 96 12 b8 3e 40 cc 07 3c 24 27 e3 3d 08 85 97 3e
       0.3595168 0.008288443 0.1109145 0.29593682
0000e0 91 93 05 bd 1a 6b ae 3d 82 7c 32 bd 5c 23 11 3e
       -0.032611433 0.08516522 -0.04357577 0.14173645
0000f0 db 84 a7 be 25 62 03 be 5e c2 86 3f 48 2a a8 3d
       -0.32718548 -0.12830408 1.0528066 0.082111895
000100 b3 2b c8 3e e1 df 74 bd a3 98 bf 3e 4b be 6f 3e
       0.3909584 -0.05978382 0.3742114 0.23412435
000110 59 20 95 3c 05 7f 1e 3e 9e 7b 48 3d 57 0a 10 3f
       0.018203901 0.15478142 0.048946016 0.5626578
000120 40 89 65 bd 89 8a 53 3e f2 8a 26 bf 32 71 cd be
       -0.056039095 0.20658316 -0.65055764 -0.40125424
000130 29 1a a2 be 2d 1c 01 3e 69 36 02 3e 45 36 b6 3b
       -0.31660584 0.12608404 0.12716068 0.0055606687
000140 2b cd b5 3d 5d df f3 3d 42 d9 5c 3f 10 1f 10 3f
       0.08877023 0.119078375 0.8626901 0.562974
000150 0b db 0b bf 16 92 4a bd 73 46 bc 3f 44 ba 0a bf
       -0.5463111 -0.049455725 1.4708999 -0.5419047
000160 fe a8 4d be 79 1f f9 3e 4a a4 08 be 3f 69 20 3f
       -0.20083997 0.48656824 -0.13343921 0.6266059
000170 02 07 30 be 5a d9 66 3e 11 0a 21 be 71 8d 19 3f
       -0.17190173 0.2254385 -0.15726496 0.5998145
000180 40 e7 d8 3c 92 9a a3 3d 52 63 82 be 42 38 f3 3e
       0.026477456 0.07988466 -0.254664 0.4750386
000190 7d 54 71 3e 9e 74 11 3f 66 37 94 bd 6b be 54 3e
       0.23567386 0.5681857 -0.07237129 0.20775764
0001a0 f0 1d a6 bd e9 01 31 bf 18 23 88 3e f3 b5 0c be
       -0.08111179 -0.6914354 0.26589274 -0.13741283
0001b0 90 1b f1 bd 6d 61 f6 3e 0f d3 4f 3e 7e 23 86 3d
       -0.11772835 0.48121205 0.20295356 0.06549738
0001c0 74 d3 20 be aa 76 89 be 1f cb 0c 3f 00 72 43 bf
       -0.15705663 -0.26848346 0.5499744 -0.76345825
0001d0 59 62 39 3f d7 4b e6 3c 92 ed 87 3d b8 bf 52 3d
       0.7241569 0.028112335 0.0663711 0.05145237
0001e0 d9 d1 b7 bd 84 2c 09 bd 69 d1 df be 37 14 23 3e
       -0.08975572 -0.03348972 -0.43714455 0.1592568
0001f0 d6 35 44 be 47 f9 76 be 04 0e ad 3f a8 d8 a0 3c
       -0.19161162 -0.2411853 1.3519902 0.01963456
000200 78 f7 12 3c ef 25 fa bd c0 93 b2 be a0 dd a4 be
       0.008970134 -0.122142665 -0.3487835 -0.32200336
000210 88 db a5 be 21 47 b8 bd d6 8b 9a bf f9 d3 44 be
       -0.32394052 -0.08997942 -1.2073925 -0.19221486
000220 17 cc 79 be f6 9e 7d 3e e3 02 1b bf 43 f3 7c 3e
       -0.2439426 0.2476767 -0.6055128 0.24702172
000230 32 71 04 bf fc 2a 5d 3f af 1b 1a be 01 66 50 bf
       -0.5173522 0.86393714 -0.15049623 -0.81405646
000240 59 fa 93 3f 82 0b 9e be df 29 a1 3e dc 56 46 be
       1.1560775 -0.30868155 0.31477258 -0.19369072
000250 a2 e9 e9 be 12 f0 f3 bd d8 e9 11 3f 4b 0b 94 be
       -0.4568606 -0.11911024 0.5699744 -0.28914866
000260 9c 56 b4 be 73 b6 4c 3e ea ad 10 bf 53 f5 bb 3e
       -0.35222328 0.19991474 -0.5651537 0.36710605
000270 6f 71 90 be ba bf 61 be f9 4d 3a be ca dc bc be
       -0.28211543 -0.22045794 -0.18193807 -0.368872
000280 5e fc 17 bf 64 ad f5 be 2f c8 f9 be da 3d 01 bb
       -0.59369457 -0.4798385 -0.4878554 -0.0019720704
000290 01 23 a1 be 08 2f c7 3d 4a 83 44 be 2f 43 fe be
       -0.31472018 0.097257674 -0.19190708 -0.49660632
0002a0 4f 47 87 3d 4c 5f f6 be ed 8f c1 be 51 19 1d 3e
       0.06605398 -0.4811958 -0.3780512 0.15341689
0002b0 02 89 45 bc d7 f8 56 be 3e 66 29 3e d3 b1 1b 3f
       -0.012056591 -0.20993362 0.16542909 0.60818213
0002c0 65 bb 0f be 21 5b cc bd a3 bd 2f be 2e c1 2c be
       -0.14036329 -0.09978319 -0.17162184 -0.16870567
0002d0 92 a9 ce 3d c8 14 20 bd 1c 47 fd bd 8d c1 76 be
       0.10090937 -0.03908232 -0.12367079 -0.24097271
0002e0 24 d1 2c bf e0 40 bc 3b a9 b7 9c be 15 37 e5 3d
       -0.67506623 0.0057450384 -0.30608872 0.11192147
0002f0 32 ee 56 bf 7e 4c d3 be d4 ab 63 3f cc 27 d0 bd
       -0.8395721 -0.41269296 0.88934064 -0.10163841
000300 39 67 3b 3f 73 1b 50 bd b0 74 42 3f 9e e8 26 3f
       0.7320438 -0.050807428 0.759593 0.65198696
000310 40 7e e1 3e 92 35 35 3f 72 3b 23 bf f7 ac 70 3f
       0.44041634 0.70784867 -0.6376258 0.94013923
000320 00 76 31 3e 6d 91 59 3f c3 25 6e be 3c c3 5c bf
       0.1733017 0.8498753 -0.23256592 -0.86235404
000330 82 ce 84 bf 14 ce cb bf de b4 5b 3c f1 b0 62 bf
       -1.0375521 -1.5922265 0.013409821 -0.8855124
000340 00 cf eb bf 81 c5 0b 3f 5b c1 5f 3f 57 ed 6e 3f
       -1.8422546 0.5459824 0.8740441 0.933309
000350 3c dc 24 bf 0b e1 c4 3e 35 a9 98 3f 7b 11 f3 bd
       -0.6439855 0.38452944 1.1926638 -0.118685685
000360 33 2c 0f 3d 6d 90 e5 3e bc 7c 8e 3e 75 96 66 3f
       0.03495426 0.4483675 0.2782954 0.9007333
000370 5a 8a 8c 3d 45 32 b2 3e b3 1b 66 3e 22 96 80 3f
       0.06862326 0.34803978 0.22471504 1.0045817
000380 51 ed 0e bf 77 77 ba 3e 37 fd 88 bd c9 e1 1a 3f
       -0.55830866 0.3641927 -0.06688922 0.6050077
000390 32 20 57 3f 5a 9e 50 3f 75 d4 bc 3e 65 97 82 3f
       0.840335 0.81491625 0.36880842 1.0202452
0003a0 30 5f 12 3e 8a 20 60 3e fc 2b 60 3f fb 0e 5a bc
       0.14294124 0.21887413 0.87567115 -0.013309236
0003b0 e6 aa c0 bd e8 c0 39 3f 29 4a 20 bf 88 97 9a bf
       -0.09407596 0.72559977 -0.6261316 -1.2077494
0003c0 05 3f 09 3e af 21 85 3e ab 56 53 3f 98 1e 5b bf
       0.13402946 0.2600226 0.8255412 -0.8559356
0003d0 82 9d 24 3f 1c ac 29 bd 34 c7 39 3d 2d 54 12 3f
       0.6430284 -0.041423902 0.04535599 0.5715969
0003e0 cf b9 0d 3f 7a 4c da 3d 89 1c 0a be a0 17 27 3e
       0.55361646 0.10659118 -0.13487448 0.16317606
0003f0 6e b6 17 bd 90 3a 47 be 3a 85 33 3f 88 30 05 bd
       -0.037039213 -0.19455934 0.7012516 -0.032516986

fc2.bias f4 [64]
000000 bb 71 14 40 b4 ef 24 40 30 15 b4 3f 7b 0d 8d 3f
       2.3194416 2.5771303 1.4068966 1.1019739
000010 f8 59 9c 3f 5d ae b5 3d 71 f2 f0 3f c5 01 ac 3d
       1.2214956 0.08871148 1.8823987 0.08398775
000020 d1 f0 8a 3c 27 46 8e 3f f2 33 94 bd 88 5a 7b 3c
       0.016960533 1.1115159 -0.0723647 0.015341409
000030 fa ad 11 40 8e 7a d8 3f a7 96 b7 bb 81 0e 8c 3f
       2.2762437 1.6912401 -0.005602676 1.0941926
000040 e0 23 09 bd 04 b7 76 bd 6e d1 f4 3f 8a 91 ce 3c
       -0.03348148 -0.06023313 1.9126413 0.025215883
000050 0f 89 9a bc 69 33 df bd 8e b3 a0 3f bf 6b 53 bd
       -0.018864183 -0.108984776 1.2554796 -0.051616427
000060 d4 ec c7 3f 00 50 9f 38 59 9a 55 bd 63 ac 07 40
       1.5619149 7.596612e-05 -0.05214915 2.1198967
000070 8c 65 d9 3f 24 d8 55 3f 62 cc 11 40 a7 fd c9 bf
       1.6984115 0.8353293 2.2780995 -1.5780534
000080 3d b4 da bd 34 0e b5 3d 80 55 da 3f 05 50 e4 bd
       -0.10678909 0.088406 1.7057343 -0.11148075
000090 8e 79 d2 bd 20 32 13 3d 51 3c 57 3d 00 74 5e be
       -0.10277091 0.035936475 0.052547757 -0.21723938
0000a0 19 51 de 3f fb 53 87 3f 9a 86 02 40 c9 47 90 be
       1.7368499 1.0572504 2.0394654 -0.28179768
0000b0 3c 66 34 3d 7a 97 31 3c a8 f1 cf 3f 0f 90 d4 be
       0.04404281 0.0108393375 1.6245623 -0.41516158
0000c0 7f 64 70 bf 70 84 ed 3f 45 46 2b bd 12 62 fd bd
       -0.93903345 1.8556042 -0.04181506 -0.12372221
0000d0 25 ad 09 40 b0 a8 cd 3f e2 fe 08 40 68 4d 14 40
       2.151193 1.6067104 2.1405568 2.3172245
0000e0 49 14 44 bf 2b af 05 40 0d 1d 10 3c 88 37 c1 bb
       -0.7659345 2.0888164 0.008795989 -0.0058965124
0000f0 69 33 df bd 6c d0 bd 3c 88 df ba 3f 96 ff af 3f
       -0.108984776 0.023170672 1.4599466 1.3749874

fc3.weight f4 [20, 64]
000000 f3 d8 ee 3e a1 d7 32 3f 79 1b a4 3a 67 c6 45 3e
       0.46649894 0.69860274 0.0012520395 0.19313966
000010 0a f1 49 3d 43 47 32 3d 54 52 c6 3d b8 bd b7 bc
       0.04930214 0.04352499 0.096836716 -0.022429332
000020 c6 b0 87 bd ed 7f 6b bf c0 e3 fd 3b c0 e1 57 bc
       -0.06625514 -0.91992074 0.007748097 -0.013176382
000030 09 f2 14 3f 2c c3 9f be 7b 98 ff 3b fc e3 6e 3d
       0.58181816 -0.31203592 0.0078001595 0.05832289
000040 f8 b9 87 3d ee f7 48 bc 1c e0 38 3e 17 0f cb bd
       0.066272676 -0.012266142 0.18054241 -0.099149875
000050 fe 0d d3 bd 4f 2c e8 3c c0 ab 50 3e 38 e8 af 3c
       -0.10305403 0.02834144 0.20378017 0.021473035
000060 cb c7 fa 3e ac ad b2 3d fd a1 48 3d b2 3c 81 bf
       0.48980555 0.087245315 0.04898261 -1.0096648
000070 dc 94 77 3e a1 f9 af be 64 72 4b 3f a2 44 fe be
       0.24177879 -0.3437014 0.7947142 -0.49661738
000080 10 1c a7 3c dc 1b ee bc 0b 26 0f bc 91 32 1e bd
       0.020399123 -0.029066019 -0.0087370975 -0.038622443
000090 20 3e b4 bc 28 a2 55 bd 40 03 4f bc 41 69 1e bd
       -0.02200228 -0.052156597 -0.012635052 -0.038674597
0000a0 11 5e 12 3f 91 29 8c 3f 24 38 09 3f 2c d4 e1 3e
       0.57174784 1.0950185 0.5360129 0.44107187
0000b0 9f bb b8 bd c0 cf 8c bc 27 bc f4 3d 4e c1 1b 3c
       -0.09020161 -0.017188907 0.1194995 0.009506537
0000c0 66 1e 50 be 62 48 8f 3e 40 8c 76 bc 78 8d c1 bc
       -0.20324096 0.2798491 -0.015048087 -0.023627028
0000d0 10 3f d6 3e 79 f3 4d 3e d7 7b 0c 3f 7e 3f 2c 3f
       0.41844988 0.20112409 0.54876465 0.6728438
0000e0 d5 ef 36 be 45 78 49 3f 68 2c 92 3c c0 e2 56 bc
       -0.17864926 0.7869914 0.01784344 -0.013115585
0000f0 3e d3 ed bd 27 31 53 3d fd 6f 95 bf 19 89 35 3f
       -0.11612557 0.051560547 -1.1674801 0.7091232
000100 a8 da fe 3e 8a 07 48 3f 76 91 05 3d cf b4 bc 3e
       0.49776196 0.78136504 0.032609425 0.36856696
000110 12 bc 9b 3d 86 21 53 bb d5 c4 9d 3e e7 e4 6f 3d
       0.07604231 -0.0032216026 0.30814233 0.058567908
000120 d4 63 e2 3c d3 cd 00 bf 43 ca 31 bd 92 74 f7 bd
       0.027635492 -0.5031406 -0.043405782 -0.12082781
000130 25 25 05 3f 8d 86 a1 be d4 71 ae bd 43 c4 82 3e
       0.52009803 -0.31547967 -0.08517805 0.2554036
000140 d8 da a8 bc 14 7b 0e 3d ca 3f 9d 3e c0 ca 11 3d
       -0.020612165 0.034785345 0.3071273 0.035593748
000150 c2 a3 f4 bc 61 4d e9 3c 7a 1a dc 3e 50 9e 4d 3c
       -0.029863242 0.02847928 0.4298895 0.012549952
000160 9a 6d b5 3d 0a 2e b8 3d 85 86 10 bd a7 19 76 bf
       0.088587955 0.08993156 -0.035284538 -0.9613289
000170 2c c5 65 3e 6c 63 bd be ba e2 c0 3e 13 2d 46 be
       0.22438496 -0.36989915 0.3767298 -0.19353132
000180 c0 23 0e bc a1 e2 9c 3d f3 8a 9e 3d 15 af be 3c
       -0.008675516 0.076604135 0.07741346 0.023276845
000190 8e 2b 99 3d f8 64 2f 3d ac f9 52 3d 5b fa 61 3c
       0.074790105 0.0428209 0.051507637 0.0137926
0001a0 00 8b ec 3e 53 cc 65 3e 04 07 24 3f 08 ee 89 3d
       0.461998 0.22441225 0.64073205 0.06734854
0001b0 5d d0 21 3c b6 57 2c 3d c0 aa 60 3d 1b 36 20 3e
       0.009876338 0.042075835 0.05485034 0.1564564
0001c0 e1 6c af 3e 7d ec 76 3e 6c d8 2f 3d 52 fc a9 bd
       0.34262756 0.2411365 0.042931005 -0.083000794
0001d0 55 d1 bc 3e 96 f7 87 3e 8b 2b 8d 3e 71 8e 1a 3f
       0.36878458 0.2655608 0.27572283 0.603736
0001e0 46 26 a8 bc 02 7e d2 3e ca 8d 94 3d 08 5a d4 bd
       -0.020526063 0.4111176 0.072536066 -0.103687346
0001f0 26 11 a9 bd a5 ed 5a 3c 2c 74 44 bf d6 87 34 3f
       -0.08255224 0.013362323 -0.76739764 0.7051977
000200 60 e7 16 3f 3a d7 12 3f b7 55 f1 3d f8 26 bd 3e
       0.589468 0.5735966 0.11783927 0.36943793
000210 ce 16 b0 3e 12 33 45 bd da d1 93 3e 0e f6 ab bb
       0.343924 -0.048144408 0.28871042 -0.005247838
000220 7a 6d 8a 3d 33 b4 ab be ba 39 31 3b 40 d0 4b 3d
       0.06759162 -0.3353592 0.0027042464 0.04975915
000230 69 57 20 3f eb f8 79 be 00 aa ec b9 90 fe 20 3e
       0.6263338 -0.24411361 -0.00045140088 0.15722108
000240 72 4e a8 3d 21 9e 9d 3d 07 d8 6c 3e c8 66 b0 3d
       0.08218087 0.07696176 0.23129283 0.08613354
000250 69 a5 e8 3c 09 fe b8 3d 79 35 25 3e 4f 43 dd bc
       0.028399186 0.09032828 0.1613368 -0.027009634
000260 7a c6 e4 3c ee 5e db bd 3d 44 48 3d 61 3f 77 bf
       0.027926672 -0.10711466 0.048893202 -0.96581084
000270 cd ea 3e 3e 72 10 84 be d8 94 e4 3e 60 e1 de be
       0.18644257 -0.25793797 0.4464481 -0.43531322
000280 13 f3 96 3d ae fa ad bd d4 c7 9e bd 80 fd b2 bc
       0.073705815 -0.08495079 -0.07752958 -0.021849394
000290 43 1a 4f 3d d6 c3 ee 3d f4 8b 41 3d 4f 1f 1c 3e
       0.050562155 0.116584465 0.04725261 0.15246318
0002a0 3d b7 f4 3e 82 ba c6 3e f9 90 d0 3e 78 a9 2c 3f
       0.4779605 0.3881417 0.40735605 0.6744609
0002b0 6f 6a 79 3d b6 de cd bd f3 90 2a be cb 49 12 be
       0.06089252 -0.10052244 -0.16656856 -0.14285962
0002c0 3a 86 e2 3e 01 13 87 3e 9c 4e c9 bd 01 66 8b bb
       0.44243032 0.26381686 -0.09829447 -0.004254103
0002d0 e2 15 ab 3e 2c c2 84 3e 42 01 df 3e ec da 1a 3f
       0.33415133 0.2592939 0.43555647 0.604903
0002e0 c8 ed f2 3d 93 46 02 3f 7c 9c a9 3d 68 ff ae 3d
       0.118617594 0.5088894 0.082818 0.085448086
0002f0 0e b8 52 bd 86 5f ac 3d 00 69 36 bf 91 9e 1e 3f
       -0.05144506 0.08416657 -0.7125397 0.61960703
000300 6e 85 eb 3e 76 1a 1e 3f 76 e9 dc 3e 37 22 f9 3e
       0.46000236 0.61759126 0.43146867 0.48658916
000310 7d 3a 0d 3d ea 65 e1 3d 7b 34 7e bc 5b 75 0d bd
       0.034479607 0.11005767 -0.015515442 -0.034535747
000320 8e c7 a9 3d ac d6 0d bf f0 a2 fa 3c 8c 85 64 bd
       0.08290015 -0.5540569 0.030595273 -0.055791423
000330 cd b2 ea 3e 4d ce de be f1 d2 80 bb 71 3a 27 3e
       0.4583954 -0.4351677 -0.003931396 0.16330887
000340 3c 84 b6 bd 63 28 a1 bd 46 29 97 3e f9 90 0b 3d
       -0.089119405 -0.07869031 0.29523677 0.034073804
000350 c6 b8 db 3d 69 3c 01 bc 4c 03 98 3e aa 97 e4 3d
       0.10728602 -0.007887938 0.29690015 0.1116174
000360 c5 84 cc ba c0 dc ce 3d 82 18 ea bd b4 eb 52 bf
       -0.0015603533 0.101006985 -0.11430456 -0.82390904
000370 7f 3a 75 3e b4 00 20 3d 70 4b c2 3e 45 01 85 3d
       0.23948096 0.03906317 0.3794818 0.06494383
000380 c0 70 cb bd 52 75 ad 3d 7f 5c 19 3f ac ac ec 3d
       -0.09933615 0.08469643 0.5990676 0.11556372
000390 bb 22 3c 3c 1e 9f a4 bd f0 df 02 bd 74 f5 5a 3e
       0.01148289 -0.08038162 -0.031951845 0.21382695
0003a0 5d f0 f7 3e 9a 32 48 3f 15 1f bf 3e fa 95 8b bc
       0.4842557 0.7820221 0.373284 -0.017039288
0003b0 f5 44 d1 3d c0 14 fa 3b 54 42 08 3f 88 d6 0b 3e
       0.10218231 0.007631868 0.5322621 0.13656056
0003c0 3b 3c 34 3e e7 6d 99 3e ee 60 f8 bd b9 f0 e0 bd
       0.17601101 0.2996666 -0.12127863 -0.10983414
0003d0 ba b7 b4 3e 77 f1 da 3d 4a 5b c2 3e a6 46 1f 3f
       0.35296422 0.10690587 0.37960273 0.62217176
0003e0 cc 57 28 3e 4f 1c 90 3e e0 c7 0c bd 92 e3 97 bd
       0.16439742 0.28146598 -0.034370303 -0.074164525
0003f0 61 bf f2 3d 73 d2 20 bd 1e ff 11 bf 38 78 41 3f
       0.11852909 -0.0392632 -0.570299 0.75574064

fc3.bias f4 [20]
000000 96 38 14 40 63 7c 4c 3f ce b2 25 3f 54 5a 28 3f
       2.3159537 0.798773 0.6472596 0.6576283
000010 11 c9 1d 3f 1f e0 18 3f 2b 50 dc 3e 4d ed ca 3e
       0.6163493 0.5971698 0.43029913 0.3963417
000020 09 b1 aa 3e 5b 60 ae 3e b3 30 80 3e 02 d0 00 3e
       0.33338192 0.34057888 0.25037155 0.12579349
000030 9d 8d 83 3d 8b 9e 53 3e b4 88 8c bd 26 06 5c be
       0.06423495 0.20665948 -0.068620116 -0.2148672
000040 f7 e0 2f 3d 34 fe 34 be 0f a9 cf bd f7 cd 88 be
       0.042939153 -0.17675096 -0.10139667 -0.2671964
