beer/experiments/MA/MA_0.05/models/dqn_agent_firm_0_episode_3000.pth (torch, 101224 bytes, 24 tensors)

fc1.weight f4 [64, 3]
-0.011072253 -0.41128176 0.13981195 -0.3485886 -0.6765149 0.23272425 -0.3597616 0.36620513
0.09434823 0.5397198 0.13836832 0.35825172 0.79410446 0.4659232 0.19170058 -0.13319989
-0.6280808 0.11507467 0.08176368 0.069292024 -0.31007665 -0.16320491 0.10644523 0.04630979
-0.04099481 0.3302696 0.15986831 -0.329417 -0.6134151 0.12766847 0.1529981 0.1365949
-0.22547986 0.12870847 0.25056985 -0.20161778 0.32672504 0.44662634 -0.7768159 0.112458065
0.33134466 -0.87931836 -0.014706297 -1.0115477 0.1315087 0.25111172 0.24025853 -0.33982086
0.010326787 -0.034990728 -0.055337425 0.31402558 0.67755514 0.29648277 -0.2928165 0.15586638
0.1231057 -0.26356474 0.46470445 0.07674912 -0.34654942 -0.5500117 0.13616215 -0.51073456
-0.22563241 0.018890474 -0.08066558 -0.12770166 0.04024401 0.19764271 0.3993866 -0.14023884
-0.5019498 -0.5461129 0.18659751 -0.27033758 -0.47943318 0.0016333263 -0.31541854 -0.70267063
-0.02857852 0.75029093 -0.34557924 0.13166073 -0.2777858 -0.26570067 -0.009538539 -0.22751385
0.5955471 0.29997218 -0.3536103 -0.68905824 0.22534144 -0.69498426 -0.1484433 -0.20963834
-0.14451754 -0.57218623 -0.0021724927 0.0930173 1.0827817 0.2203199 0.57173467 -1.1228602
-0.002618205 0.14332774 -0.092348695 0.026714982 0.06433904 0.1354105 0.035845224 -0.13186158
-0.3423512 0.14976595 0.27867407 0.37948778 0.06193748 0.13106166 0.46573436 0.05172704
-0.26470685 -0.0015475833 -0.23366149 0.26535943 0.48716748 -0.20507394 0.2510945 0.54334563
0.04535518 -0.07916127 -0.9704351 0.024216613 -0.25639087 -0.21460691 -0.010560023 0.25960305
0.09113009 0.04215761 -0.14784978 -0.28448793 -0.050581694 0.057267133 0.35861284 -0.14059775
-0.2807789 -0.7249664 0.16145726 -0.2709362 0.51264024 0.022246994 -0.03636251 0.42356345
0.031446014 -0.14651819 0.22445469 -0.0366371 -0.387283 -0.09552726 0.097734325 -0.29622316
-0.5234091 -0.43951663 0.39148605 -0.41930163 -0.5123178 0.063534416 -0.42796284 0.12594634
0.40886757 0.088648856 -5.9749727e-06 -0.56534535 -0.20735821 -0.16879252 0.22938438 0.5067445
-0.30036882 -0.44531718 -0.18349111 0.13254245 0.3200072 0.6134226 -0.20235793 -0.19938593
0.5373866 -0.2449255 -0.26439813 -0.4720726 0.072058015 -0.20495743 -0.42617923 -0.11687681
00000000: 6568 35bc 8693 d2be dd2a 0f3e 347a b2be
00000010: 1530 2dbf 444f 6e3e ac32 b8be 3d7f bb3e
00000020: a539 c13d 142b 0a3f 6db0 0d3e c56c b73e
00000030: 6e4a 4b3f 7c8d ee3e 284d 443e 8d65 08be
00000040: e7c9 20bf 45ac eb3d b773 a73d fae8 8d3d
00000050: 5ec2 9ebe 301f 27be f5ff d93d 56af 3d3d
00000060: 2dea 27bd 1919 a93e 85b4 233e 58a9 a8be
00000070: c608 1dbf 86bb 023e 89ab 1c3e 89df 0b3e
00000080: 31e4 66be 27cc 033e b14a 803e e474 4ebe
00000090: 8148 a73e 35ac e43e 68dd 46bf 6a50 e63d
000000a0: 02a6 a93e 021b 61bf aef2 70bc 657a 81bf
000000b0: 37aa 063e b791 803e 5506 763e 00fd adbe
000000c0: af31 293c 7052 0fbd 7fa9 62bd f6c7 a03e
000000d0: 4174 2d3f 97cc 973e 0bec 95be 709b 1f3e
000000e0: d71e fc3d f5f1 86be beed ed3e a52e 9d3d
000000f0: ed6e b1be 91cd 0cbf 176e 0b3e 80bf 02bf
00000100: 2f0c 67be 32c0 9a3c ff33 a5bd 39c4 02be
00000110: e7d6 243d da62 4a3e 677c cc3e c59a 0fbe
00000120: c87f 00bf 0ece 0bbf 6b13 3f3e b069 8abe
00000130: 4478 f5be 5615 d63a 8a7e a1be 39e2 33bf
00000140: 801d eabc 1113 403f c3ef b0be 12d2 063e
00000150: f139 8ebe eb09 88be 8847 1cbc 64f9 68be
00000160: c675 183f f495 993e 690c b5be 1f66 30bf
00000170: e8bf 663e 7dea 31bf 8501 18be 6fab 56be
00000180: 68fc 13be cc7a 12bf 6160 0ebb db7f be3d
00000190: 9798 8a3f 8a9b 613e 345d 123f e2b9 8fbf
000001a0: 3196 2bbb 82c4 123e 5021 bdbd 61d9 da3c
000001b0: 30c4 833d 0da9 0a3e 71d2 123d b906 07be
000001c0: a848 afbe 3f5c 193e 5eae 8e3e 394c c23e
000001d0: 28b2 7d3d 0735 063e bc74 ee3e bcdf 533d
000001e0: a887 87be 47d8 caba f544 6fbe 31dd 873e
000001f0: 046e f93e e7fe 51be 758f 803e b318 0b3f
00000200: 5ac6 393d 4e1f a2bd 6f6e 78bf eb61 c63c
00000210: aa45 83be eac1 5bbe f203 2dbc b1ea 843e
00000220: 6aa2 ba3d 75ad 2c3d ef65 17be 67a8 91be
00000230: c02e 4fbd f190 6a3d 1a9c b73e dbf8 0fbe
00000240: 41c2 8fbe 6697 39bf 0d55 253e 26b8 8abe
00000250: 643c 033f 543f b63c dbf0 14bd 4fdd d83e
00000260: 89cd 003d dd08 16be 73d7 653e c910 16bd
00000270: f549 c6be cca3 c3bd ef28 c83d 90aa 97be
00000280: 24fe 05bf 5308 e1be dc70 c83e b4ae d6be
00000290: 4227 03bf 551e 823d f21d dbbe 14f8 003e
000002a0: 1757 d13e 888d b53d a07c c8b6 79ba 10bf
000002b0: b655 54be f2d7 2cbe bde3 6a3e 02ba 013f
000002c0: f1c9 99be 9d00 e4be 18e5 3bbe 35b9 073e
000002d0: fcd7 a33e 4309 1d3f eb36 4fbe d32b 4cbe
000002e0: 2b92 093f c0cd 7abe 315f 87be 80b3 f1be
000002f0: 2793 933d 5ce0 51be 2a34 dabe 1c5d efbd

fc1.bias f4 [64]
3.2226722 -2.0809278 2.8434138 -2.5479038 -2.3049092 2.391246 3.0584462 3.4334104
-2.4921277 2.3000746 0.30746275 3.073414 2.8037949 2.7190752 -0.49435443 2.8450148
3.5625057 -2.041459 3.081437 2.9813712 -3.920079 -2.4305007 4.0417037 3.2443159
-3.0638392 3.7107837 1.7244732 3.4291334 0.700201 -2.0333292 -3.1458864 2.0897746
2.258542 -2.674662 0.0077488273 3.6352947 3.0176053 3.434985 -1.3105767 3.0213861
0.2930025 3.1765528 3.1454635 -2.5172286 0.18564099 3.2720745 2.2960775 2.818088
-2.033036 -1.9970709 3.518394 -2.235243 3.7390683 0.19058973 0.5190345 3.2076285
1.8612503 -0.15263778 -1.4164073 2.961196 -1.3617573 -0.8641302 4.6239753 -0.5469133
00000000: 4340 4e40 ec2d 05c0 7efa 3540 db10 23c0
00000010: a283 13c0 2d0a 1940 95bd 4340 ffbc 5b40
00000020: 057f 1fc0 6c34 1340 c26b 9d3e d1b2 4440
00000030: 6071 3340 5405 2e40 061c fdbe b914 3640
00000040: 1800 6440 44a7 02c0 4436 4540 c9ce 3e40
00000050: 93e2 7ac0 538d 1bc0 a355 8140 dfa2 4f40
00000060: f115 44c0 7b7d 6d40 8abb dc3f ec76 5b40
00000070: 5f40 333f 1122 02c0 3456 49c0 debe 0540
00000080: f48b 1040 aa2d 2bc0 e0e9 fd3b aba8 6840
00000090: 7220 4140 cbd6 5b40 fac0 a7bf 645e 4140
000000a0: 6c04 963e a44c 4b40 464f 4940 461a 21c0
000000b0: ac18 3e3e ab69 5140 eff2 1240 8e5b 3440
000000c0: 431d 02c0 05a0 ffbf 5e2d 6140 390e 0fc0
000000d0: e54c 6f40 f429 433e 72df 043f c949 4d40
000000e0: 733d ee3f 144d 1cbe d64c b5bf 3c84 3d40
000000f0: 104e aebf a337 5dbf 9bf7 9340 8302 0cbf

fc2.weight f4 [64, 64]
0.4084661 0.005528182 0.18496396 -0.020914558 0.11490241 0.34944883 -0.34817883 0.58123386
-0.05431523 0.031214422 -0.053735927 -0.43672672 -0.32114485 0.3096539 0.005647996 -0.08976956
-0.13723584 -0.023320735 0.8179526 0.66296875 -0.43612513 0.00044263943 1.4415213 -0.68008286
-0.28838608 0.5816734 0.13606523 0.91944176 0.16393726 0.1051579 -0.043568883 0.32626387
0.20236257 -0.19421577 0.16602387 0.41413265 0.36749747 0.37655115 0.0025718417 0.20017357
-0.03826705 -0.72520626 0.29661378 0.16876268 0.009055376 0.6010921 0.056892063 -0.16110557
-0.077707216 -0.08231604 0.4082132 0.03148401 0.43623132 0.008288443 0.11091396 0.40752894
0.04995389 0.08516522 -0.122118905 0.2967577 -0.29349205 -0.2475884 1.1297436 0.082111895
0.4355351 -0.0006817766 0.42939356 0.16949958 -0.022917034 0.25992808 0.14364575 0.6449475
-0.026712244 0.27169093 -0.22323778 -0.40608352 -0.13498901 0.40465456 0.1706802 0.111209646
0.07402622 0.071121484 0.8902327 0.5990877 -0.4870766 -0.049453635 1.5660233 -0.5475018
-0.20955156 0.6276432 0.00034659065 0.59853536 0.02678389 0.20147096 -0.106670626 0.5219583
0.27929792 0.052034862 -0.14299487 0.5637566 0.3047488 0.5381416 -0.028672004 0.22487555
-0.08110986 -0.68027836 0.27526626 -0.13742426 -0.11772835 0.51252174 0.0038654488 0.070996754
-0.12445653 -0.0019266778 0.5931949 -0.020524349 0.7763075 0.028112203 0.0663711 0.13479331
-0.03537548 -0.03348972 -0.31126955 0.19985484 -0.149393 -0.04968556 1.4004861 0.01963456
0.14780639 -0.1878194 -0.18612611 -0.29363048 -0.2890966 0.0088483635 -0.5635845 -0.02804084
-0.17495288 0.42136592 -0.7362727 0.4336492 -0.32942 0.5792955 -0.09910464 -0.29823098
1.3236235 -0.24296184 0.474348 -0.037803296 -0.40466148 -0.11911293 0.7338268 -0.13357598
-0.41361457 0.34552494 -0.14340392 0.46675885 -0.04510928 -0.12513363 -0.22358541 -0.42617026
-0.04266583 -0.4056835 -0.3833917 0.14209296 -0.16898324 0.24619716 -0.1601313 -0.35922846
0.06605388 -0.31563962 -0.24588823 0.15341671 -0.012055565 -0.07801297 0.3168092 0.77543145
-0.18803753 -0.015250229 -0.022504983 -0.16870522 0.2801031 -0.03908232 -0.12367079 -0.110103756
-0.5614843 0.0057450384 -0.30941725 0.2871749 -0.8034065 -0.6313105 1.0779613 -0.10163748
0.8657455 -0.11330569 0.8222645 0.51185286 0.35580957 0.8797095 -0.6582384 1.0298194
0.18989363 0.9007959 0.13787466 -0.9175311 -0.8291436 -1.3480647 -0.0017930819 -0.8413941
-1.921321 0.4499717 0.9039014 0.9622502 -0.7135856 0.38453013 1.3006035 -0.1484875
-0.100668654 0.9366484 0.6000834 0.83936405 0.4663056 0.26016274 0.16165465 0.6265024
0.58927476 0.30237255 0.14102207 0.66777366 0.8905745 0.823974 0.4142141 1.0186852
0.14295018 0.19815849 0.86404383 -0.01330841 -0.094069995 0.72986734 -0.050304797 -1.2443593
0.05197982 0.37448946 0.85236394 0.031278193 0.8259365 -0.04142368 0.04535599 0.8017007
0.61342525 0.10659118 0.07344872 0.46204007 0.023499843 -0.06723631 1.0201741 -0.032516986
00000000: 7822 d13e c025 b53b 3167 3d3e 0255 abbc
00000010: f451 eb3d f5ea b23e 7f44 b2be becb 143f
00000020: a679 5ebd 63b5 ff3c 341a 5cbd a59a dfbe
00000030: 196d a4be f58a 9e3e d312 b93b 1ad9 b7bd
00000040: 8d87 0cbe 200b bfbc 5765 513f 52b8 293f
00000050: cb4b dfbe 0f12 e839 c583 b83f e919 2ebf
00000060: 57a7 93be 8ce8 143f af54 0b3e 8960 6b3f
00000070: 2bdf 273e 065d d73d 4975 32bd 0f0c a73e
00000080: 2238 4f3e 80e0 46be 2902 2a3e 3209 d43e
00000090: a128 bc3e 50cb c03e 588c 283b 4dfa 4c3e
000000a0: e9bd 1cbd 1ea7 39bf c3dd 973e 20d0 2c3e
000000b0: 005d 143c 2ce1 193f a707 693d dcf8 24be
000000c0: f624 9fbd 5095 a8bd 5201 d13e 61f5 003d
000000d0: b659 df3e 40cc 073c dc26 e33d a2a7 d03e
000000e0: 739c 4c3d 1a6b ae3d 7a19 fabd a0f0 973e
000000f0: 9744 96be d087 7dbe 709b 903f 482a a83d
00000100: 75fe de3e 41b9 32ba 79d9 db3e 4c91 2d3e
00000110: 81bc bbbc 4b15 853e df17 133e 481b 253f
00000120: a3d3 dabc 131b 8b3e 7298 64be 2eea cfbe
00000130: 8f3a 0abe e22e cf3e cac6 2e3e e2c1 e33d
00000140: 0f9b 973d 24a8 913d 4ae6 633f d05d 193f
00000150: 1b62 f9be e58f 4abd 7473 c83f 1429 0cbf
00000160: af94 56be 3aad 203f 9cb6 b539 9d39 193f
00000170: e369 db3c 674e 4e3e 2176 dabd 0f9f 053f
00000180: 2300 8f3e 8222 553d 3f6d 12be 5a52 103f
00000190: 0908 9c3e a6c3 093f 8de1 eabc c745 663e
000001a0: ed1c a6bd b926 2ebf b3ef 8c3e f2b8 0cbe
000001b0: 901b f1bd a034 033f 7853 7d3b bf66 913d
000001c0: 11e3 febd 9488 fcba 9fdb 173f ae22 a8bc
000001d0: 17bc 463f 904b e63c 92ed 873d 4207 0a3e
000001e0: e1e5 10bd 842c 09bd b95e 9fbe bfa6 4c3e
000001f0: 7bfa 18be 1683 4bbd 2143 b33f a8d8 a03c
00000200: 8f5a 173e bb53 40be d897 3ebe bc56 96be
00000210: 7804 94be baf8 103c 1347 10bf e7b5 e5bc
00000220: d926 33be 46bd d73e 5e7c 3cbf 4507 de3e
00000230: bda9 a8be b64c 143f 60f7 cabd bbb1 98be
00000240: 7f6c a93f fdca 78be bedd f23e a1d7 1abd
00000250: ca2f cfbe 7bf1 f3bd 13dc 3b3f 24c8 08be
00000260: 4ac5 d3be a5e8 b03e 7ad8 12be 04fb ee3e
00000270: 82c4 38bd 0823 00be 93f3 64be fd32 dabe
00000280: 5ec2 2ebd bfb5 cfbe eb4b c4be d180 113e
00000290: f109 2dbe 1c1b 7c3e 76f9 23be cbec b7be
000002a0: 4247 873d 849b a1be 20ca 7bbe 4519 1d3e
000002b0: b484 45bc 44c5 9fbd d134 a23e ad82 463f
000002c0: e98c 40be 19dc 79bc 5f5c b8bc 10c1 2cbe
000002d0: ac69 8f3e c814 20bd 1c47 fdbd 147e e1bd
000002e0: 6fbd 0fbf e040 bc3b f06b 9ebe 9708 933e
000002f0: 0cac 4dbf 919d 21bf a3fa 893f 5027 d0bd
00000300: 7fa1 5d3f d00c e8bd ed7f 523f ca08 033f
00000310: ac2c b63e a434 613f 5082 28bf 1fd1 833f
00000320: 7a73 423e 8f9a 663f 042f 0d3e 51e3 6abf
00000330: c142 54bf 628d acbf d805 ebba 9b65 57bf
00000340: d9ed f5bf b162 e63e 1566 673f 0756 763f
00000350: 8cad 36bf 22e1 c43e 2d7a a63f 1b0d 18be
00000360: 5e2b cebd 31c8 6f3f 119f 193f 90e0 563f
00000370: 9cbf ee3e 0d34 853e cc88 253e 7662 203f
00000380: b6da 163f 93d0 9a3e 1768 103e 37f3 2a3f
00000390: b1fc 633f f6ef 523f df13 d43e 4764 823f
000003a0: 8861 123e 0fea 4a3e fa31 5d3f 840b 5abc
000003b0: c5a7 c0bd 96d8 3a3f 670c 4ebd 2a47 9fbf
000003c0: cbe8 543d 15bd bf3e 8634 5a3f 901d 003d
000003d0: 9370 533f e0ab 29bd 34c7 393d 423c 4d3f
000003e0: 7009 1d3f 7a4c da3d 486c 963d 8490 ec3e
000003f0: be82 c03c 31b3 89bd 1195 823f 8830 05bd

fc2.bias f4 [64]
2.3156598 2.5326164 1.5657669 1.107744 1.2960064 0.08870943 1.7128875 0.083979644
0.016958566 1.3388386 -0.07236383 0.015340401 2.242315 1.7774938 -0.005602842 1.3065877
-0.03348338 -0.06023191 1.8775394 0.02521484 -0.018864995 -0.10898477 1.3918413 -0.051618777
1.5642241 7.596612e-05 -0.05215211 2.151196 1.7880727 0.703819 2.229781 -1.5781432
-0.07504142 0.088402495 1.5243801 -0.11148224 -0.10277576 0.035933327 0.052543994 -0.21724194
1.7153876 1.1153249 2.0083923 -0.28826934 0.044041354 0.010839249 1.4810236 -0.4916965
-1.011363 1.881431 -0.041816346 -0.12372187 2.1756415 1.7265387 2.1195421 2.254665
-0.68358606 2.0520039 0.008795632 -0.0058965995 -0.108986795 0.023170227 1.66913 1.3061364
00000000: c533 1440 6316 2240 0d6b c83f 8eca 8d3f
00000010: 8ae3 a53f 4aad b53d e63f db3f 85fd ab3d
00000020: b1ec 8a3c 105f ab3f 7d33 94bd 4e56 7b3c
00000030: 1782 0f40 eb84 e33f 0c98 b7bb 443e a73f
00000040: de25 09bd bcb5 76bd 3653 f03f 5a8f ce3c
00000050: c38a 9abc 6833 dfbd db27 b23f 366e 53bd
00000060: 7f38 c83f 0050 9f38 739d 55bd 32ad 0940
00000070: 91df e43f 7b2d 343f bbb4 0e40 9900 cabf
00000080: 51af 99bd 5e0c b53d e31e c33f cd50 e4bd
00000090: 197c d2bd d32e 133d 5f38 573d ac74 5ebe
000000a0: d291 db3f f7c2 8e3f 8089 0040 0a98 93be
000000b0: b564 343d 1b97 313c 2e92 bd3f a5bf fbbe
000000c0: 5874 81bf bbd2 f03f 9e47 2bbd e461 fdbd
000000d0: b63d 0b40 38ff dc3f 94a6 0740 6e4c 1040
000000e0: 7fff 2ebf 0854 0340 8e1b 103c 4338 c1bb
000000f0: 7834 dfbd 7dcf bd3c 0da6 d53f 7a2f a73f

fc3.weight f4 [20, 64]
0.4870934 0.71305245 0.19432878 0.17536736 -0.11529527 0.043526128 0.18903692 -0.022430358
-0.066253126 -1.1627489 0.007748097 -0.013176382 0.5939937 -0.4320941 0.00779995 0.07578573
0.066272676 -0.012266455 0.25199884 -0.09914311 -0.10305231 0.028340261 -0.008638728 0.021473035
0.63801265 0.087245315 0.048981026 -1.0675925 0.2920943 -0.34237936 0.8724581 -0.49659294
0.020399123 -0.029064562 0.16163161 -0.03862147 -0.02200228 -0.052154597 -0.012635052 -0.0386737
0.6149017 -0.011736047 0.56398386 -0.04793034 -0.090194866 -0.017188907 0.18339396 -0.055956062
-0.32624945 0.32864338 -0.015048087 -0.023627268 0.44886506 0.2593393 0.64267427 0.7032065
-0.33586416 0.8338204 0.017844114 -0.013115585 -0.11612557 0.051562674 -1.4742192 0.727801
0.50948477 0.78855556 0.063657425 0.3832205 -0.039975066 -0.0032214015 0.16723704 0.058569152
0.027635898 -0.5980813 -0.043405578 -0.12082781 0.5271791 -0.35455334 -0.08517805 0.18674617
-0.020612165 0.034781475 0.25996608 0.035596393 -0.029862091 0.028480586 0.0627797 0.012549952
0.09232173 0.08993156 -0.03528341 -1.1518017 0.2251729 0.009423372 0.4006784 -0.19352168
-0.008675516 0.076603964 0.06869207 0.023276627 0.074790105 0.04282361 0.051507637 0.013792928
0.485525 0.17265014 0.66314757 -0.0042708796 0.0098764235 0.04207598 0.15246902 0.030379748
0.034577657 0.24088772 0.042931005 -0.083000794 0.39066198 0.23494853 0.28026885 0.60518944
-0.08388291 0.43173277 0.07253571 -0.103686556 -0.08255224 0.013362542 -0.81433964 0.63613236
0.60470366 0.5893912 0.022275152 0.33433363 0.30271825 -0.048143156 0.22515851 -0.005248054
0.06759162 -0.43405703 0.0027043207 0.04975915 0.62741965 -0.55900997 -0.00045140088 0.27156588
0.08218087 0.076965965 0.26153767 0.08612596 0.028400041 0.0903328 0.22054462 -0.027009606
-0.012274656 -0.10711385 0.04889626 -0.93238586 0.27747563 -0.3607001 0.46909213 -0.43530384
0.07370052 -0.08495079 0.26579982 -0.021849394 0.050561875 0.11658354 0.04725261 0.15244669
0.48369732 0.43621165 0.39727923 0.19489665 0.06089457 -0.10052244 0.07836102 -0.031267714
-0.2808792 0.28271097 -0.09829447 -0.004253718 0.34811297 0.18337603 0.42480072 0.5958912
0.104656525 0.52608955 0.08281699 0.08544758 -0.051444933 0.084172554 -0.7993941 0.614957
0.45731497 0.627206 0.3011108 0.4693315 -0.10638323 0.11005563 0.07001977 -0.034533802
0.08290015 -0.55381835 0.030595273 -0.055791423 0.45007807 -0.48417312 -0.0039313734 0.19658032
-0.089119405 -0.07868706 0.30486518 0.03407035 0.10728819 -0.007887641 0.05076228 0.1116174
0.037342697 0.101006985 -0.114305764 -0.90976274 0.19897024 -0.28569087 0.3650436 0.06494547
-0.09933506 0.08469643 0.3181982 0.11556277 0.01148302 -0.080375426 -0.031951845 0.21381186
0.51300484 0.22937328 0.36324313 -0.046794895 0.10218102 0.007631868 0.23771222 0.47955406
-0.27088615 0.30924743 -0.12127863 -0.10982803 0.3433016 0.2260091 0.38382006 0.6280708
0.20041205 0.25966248 -0.034370303 -0.074164525 0.118527696 -0.039262455 -0.5993478 0.7663432
00000000: 4e64 f93e 9b8a 363f 20fe 463e 8093 333e
00000010: ed1f ecbd 7448 323d e592 413e dfbf b7bc
00000020: b8af 87bd f5d4 94bf c0e3 fd3b c0e1 57bc
00000030: f90f 183f 703b ddbe b996 ff3b 8c35 9b3d
00000040: f8b9 873d 3ef9 48bc fe05 813e 8b0b cbbd
00000050: 170d d3bd d629 e83c 7489 0dbc 38e8 af3c
00000060: cc54 233f acad b23d 54a0 483d dfa6 88bf
00000070: 628d 953e 594c afbe 6a59 5f3f 6e41 febe
00000080: 101c a73c ce18 eebc c282 253e 8c31 1ebd
00000090: 203e b4bc 0fa0 55bd 4003 4fbc 5068 1ebd
000000a0: 336a 1d3f 8d48 40bc 3f61 103f 9b52 44bd
000000b0: 16b8 b8bd c0cf 8cbc a0cb 3b3e 2f32 65bd
000000c0: 2b0a a7be f243 a83e 408c 76bc f98d c1bc
000000d0: a4d1 e53e 1fc8 843e 4d86 243f 5705 343f
000000e0: 63f6 abbe 4175 553f d22d 923c c0e2 56bc
000000f0: 3ed3 edbd 6233 533d 37b3 bcbf 2b51 3a3f
00000100: 986d 023f c7de 493f d35e 823d 7a35 c43e
00000110: e5bc 23bd 261e 53bb 3040 2b3e 35e6 6f3d
00000120: ae64 e23c db1b 19bf 0cca 31bd 9274 f7bd
00000130: 36f5 063f 0488 b5be d471 aebd 633a 3f3e
00000140: d8da a8bc 0577 0e3d 461a 853e 86cd 113d
00000150: 58a1 f4bc 1e50 e93c a592 803d 509e 4d3c
00000160: 2d13 bd3d 0a2e b83d 5685 10bd 3d6e 93bf
00000170: ba93 663e 7d64 1a3c b825 cd3e 8c2a 46be
00000180: c023 0ebc 8ae2 9c3d 6eae 8c3d a0ae be3c
00000190: 8e2b 993d cf67 2f3d acf9 523d bcfb 613c
000001a0: bc96 f83e 33cb 303e 0ac4 293f bcf2 8bbb
000001b0: b9d0 213c dd57 2c3d d720 1c3e f3de f83c
000001c0: 4da1 0d3d 45ab 763e 6cd8 2f3d 52fc a9bd
000001d0: d904 c83e 5996 703e 667f 8f3e b2ed 1a3f
000001e0: ceca abbd 140c dd3e 9a8d 943d 9e59 d4bd
000001f0: 2611 a9bd 90ee 5a3c 9078 50bf 92d9 223f
00000200: dccd 1a3f 57e2 163f 617a b63c c72d ab3e
00000210: e3fd 9a3e c231 45bd f48f 663e def7 abbb
00000220: 7a6d 8a3d b93c debe f93a 313b 40d0 4b3d
00000230: 939e 203f 471b 0fbf 00aa ecb9 af0a 8b3e
00000240: 724e a83d 55a0 9d3d 44e8 853e cf62 b03d
00000250: 34a7 e83c 6700 b93d 73d6 613e 4043 ddbc
00000260: a41b 49bc 825e dbbd 7247 483d d7b0 6ebf
00000270: 4911 8e3e afad b8be d82c f03e 25e0 debe
00000280: 4cf0 963d aefa adbd ea16 883e 80fd b2bc
00000290: f819 4f3d 5ac3 ee3d f48b 413d fc1a 1c3e
000002a0: 2da7 f73e 2257 df3e 2f68 cb3e fd92 473e
000002b0: 966c 793d b6de cdbd be7b a03d 9312 00bd
000002c0: 66cf 8fbe 7ebf 903e 9c4e c9bd c662 8bbb
000002d0: dd3b b23e edc6 3b3e 7b7f d93e 538c 183f
000002e0: 2956 d63d cead 063f f49b a93d 24ff ae3d
000002f0: ecb7 52bd a962 ac3d 17a5 4cbf d26d 1d3f
00000300: 3025 ea3e 9390 203f 322b 9a3e 384c f03e
00000310: 73df d9bd d964 e13d 8666 8f3d 5173 0dbd
00000320: 8ec7 a93d 0ac7 0dbf f0a2 fa3c 8c85 64bd
00000330: a270 e63e 8ae5 f7be c0d2 80bb 5a4c 493e
00000340: 3c84 b6bd ae26 a1bd 4a17 9c3e 5a8d 0b3d
00000350: e9b9 db3d 2a3b 01bc 1cec 4f3d aa97 e43d
00000360: a8f4 183d c0dc ce3d 2419 eabd 36e6 68bf
00000370: dbbe 4b3e 1346 92be ffe6 ba3e 2102 853d
00000380: 2e70 cbbd 5275 ad3d e0ea a23e 2cac ec3d
00000390: 4723 3c3c df9b a4bd f0df 02bd 7ff1 5a3e
000003a0: 4954 033f d4e0 6a3e 01fb b93e 01ac 3fbd
000003b0: 4844 d13d c014 fa3b d56a 733e 1c88 f53e
000003c0: 97b1 8abe ae55 9e3e ee60 f8bd 85ed e0bd
000003d0: 3ac5 af3e ee6e 673e 1084 c43e 3fc9 203f
000003e0: d138 4d3e 7bf2 843e e0c7 0cbd 92e3 97bd
000003f0: a6be f23d abd1 20bd db6e 19bf 112f 443f

fc3.bias f4 [20]
2.107642 0.8527512 0.55912817 0.5622084 0.5196204 0.6026285 0.37498417 0.34392065
0.26343444 0.28031078 0.17301203 0.053925514 0.0013064005 0.12406666 -0.09981462 -0.23826969
-0.018805364 -0.17526652 -0.18680933 -0.34557593
00000000: 9be3 0640 e74d 5a3f 0623 0f3f e4ec 0f3f
00000010: d805 053f dd45 1a3f edfd bf3e 5e16 b03e
00000020: e1e0 863e e584 8f3e 112a 313e 00e1 5c3d
00000030: 873b ab3a a916 fe3d 9c6b ccbd f8fc 73be
00000040: b50d 9abc 1179 33be f24a 3fbe 54ef b0be

fc1.weight f4 [64, 3]
-0.0067134416 -0.40676907 0.13864943 -0.32748893 -0.66307026 0.23139386 -0.37523472 0.38339537
0.08848093 0.5403362 0.1364354 0.36406878 0.79543203 0.46620464 0.1928931 -0.14886403
-0.6376515 0.114267245 0.08014196 0.07746038 -0.29609835 -0.16045211 0.119398475 0.040143304
-0.041445807 0.32883993 0.17065905 -0.37674162 -0.60047287 0.13267729 0.17879903 0.13878489
-0.19090037 0.12749752 0.26375997 -0.19324438 0.316694 0.44855642 -0.7733634 0.13938656
0.35069755 -0.8536027 -0.08982255 -0.99917126 0.12821579 0.26127154 0.26058406 -0.3242734
0.00939222 -0.033891317 -0.06149966 0.31120434 0.67534983 0.2942702 -0.29275596 0.17026326
0.11718274 -0.2673545 0.4769048 0.06963196 -0.36318627 -0.575874 0.12535281 -0.50506043
-0.2256859 0.024194019 -0.07481703 -0.11627549 0.033036746 0.19145685 0.4062657 -0.12978566
-0.47344035 -0.56390375 0.17988683 -0.22951898 -0.4250881 0.023690112 -0.3081517 -0.67680013
0.02512898 0.7564985 -0.3413951 0.12573738 -0.277731 -0.265579 -0.009463933 -0.23365521
0.5961222 0.30334523 -0.3376859 -0.6505621 0.24124524 -0.6312496 -0.086771116 -0.1823931
-0.13181949 -0.55445933 0.04689639 0.09177102 1.0818795 0.22472918 0.51342005 -1.1470239
0.016611854 0.15328632 -0.07786569 0.02144274 0.07101091 0.14847411 0.03094822 -0.18533003
-0.33172625 0.1449146 0.28313863 0.38725734 0.074935876 0.13506398 0.47826746 0.04562622
-0.26469275 -0.0015475871 -0.23366067 0.26240316 0.49078843 -0.20651847 0.25496727 0.55363476
0.038673744 -0.078742616 -0.9703693 0.02574243 -0.25639087 -0.21460691 -0.010559937 0.26582396
0.10298901 0.03618605 -0.11343415 -0.2879401 -0.03773752 0.061165795 0.36865333 -0.13660304
-0.27299762 -0.7086624 0.16786127 -0.27692077 0.5253745 0.06827538 -0.03227265 0.43523946
0.024840103 -0.13215344 0.22030613 -0.016657291 -0.36852735 -0.057700817 0.09907442 -0.296224
-0.5234091 -0.43951663 0.39148605 -0.41930163 -0.5123178 0.06372228 -0.4484465 0.12801252
0.4198581 0.10662397 0.0115432255 -0.56534535 -0.20735979 -0.16879252 0.24411137 0.52579135
-0.2496998 -0.42785224 -0.21769042 0.1467722 0.28608295 0.61977726 -0.18603617 -0.1680563
0.50010204 -0.25205624 -0.28552285 -0.46642628 0.06640059 -0.20495743 -0.42617923 -0.11687681
00000000: 6efc dbbb 0944 d0be 1efa 0d3e a1ac a7be
00000010: f9be 29bf 83f2 6c3e c41e c0be 664c c43e
00000020: 7d35 b53d 7953 0a3f b9b5 0b3e 3967 ba3e
00000030: 6fa1 4b3f 60b2 ee3e c585 453e d06f 18be
00000040: 213d 23bf f204 ea3d 7821 a43d 8ca3 9e3d
00000050: 349a 97be 8f4d 24be 3087 f43d 4e6d 243d
00000060: 14c3 29bd b55d a83e 3fc1 2e3e 47e4 c0be
00000070: 97b8 19bf 8edc 073e 1817 373e a01d 0e3e
00000080: 637b 43be b68e 023e 8c0b 873e dbe1 45be
00000090: b725 a23e 30a9 e53e 25fb 45bf 5abb 0e3e
000000a0: a18e b33e b585 5abf e3f4 b7bd b0c9 7fbf
000000b0: 004b 033e 62c5 853e 466b 853e 2a07 a6be
000000c0: d3e1 193c 9fd1 0abd 11e7 7bbd 2d56 9f3e
000000d0: bae3 2c3f 95aa 963e 1ce4 95be 7e59 2e3e
000000e0: 81fd ef3d b0e2 88be de2c f43e 339b 8e3d
000000f0: 8df3 b9be 7a6c 13bf 7d5c 003e a44b 01bf
00000100: 341a 67be 8932 c63c ac39 99bd d821 eebd
00000110: 8a51 073d 440d 443e 0f02 d03e 88e6 04be
00000120: c666 f2be ff5b 10bf 4134 383e 0607 6bbe
00000130: 26a5 d9be c411 c23c 0fc6 9dbe c642 2dbf
00000140: 4adb cd3c e3a9 413f 57cb aebe 4dc1 003e
00000150: c232 8ebe f8f9 87be 9d0e 1bbc 5043 6fbe
00000160: 779b 183f 1150 9b3e 2be5 acbe 3d8b 26bf
00000170: fe08 773e 9399 21bf 0eb5 b1bd 42c5 3abe
00000180: b0fb 06be 0cf1 0dbf 6e16 403d 72f2 bb3d
00000190: 077b 8a3f 681f 663e 7f6f 033f aed1 92bf
000001a0: 9515 883c 17f7 1c3e 0c78 9fbd afa8 af3c
000001b0: 2b6e 913d 9909 183e 1f87 fd3c 28c7 3dbe
000001c0: 06d8 a9be 7e64 143e 8cf7 903e 9846 c63e
000001d0: fb77 993d 364e 0a3e 79df f43e 8fe2 3a3d
000001e0: cf85 87be 68d8 caba be44 6fbe b559 863e
000001f0: 9f48 fb3e 9479 53be 128b 823e 02bb 0d3f
00000200: 5c68 1e3d cf43 a1bd 1f6a 78bf cae1 d23c
00000210: aa45 83be eac1 5bbe 9603 2dbc 141a 883e
00000220: e7eb d23d d337 143d 2a50 e8bd e36c 93be
00000230: a892 1abd fc88 7a3d 21c0 bc3e abe1 0bbe
00000240: 58c6 8bbe e66a 35bf d3e3 2b3e 8fc8 8dbe
00000250: f17e 063f f6d3 8b3d 5430 04bd b5d7 de3e
00000260: 797d cb3c 3b53 07be ee97 613e df74 88bc
00000270: 9eaf bcbe b157 6cbd 88e7 ca3d acaa 97be
00000280: 24fe 05bf 5308 e1be dc70 c83e b4ae d6be
00000290: 4227 03bf d480 823d c89a e5be b715 033e
000002a0: a4f7 d63e ab5d da3d cc1f 3d3c 79ba 10bf
000002b0: 2056 54be f2d7 2cbe 55f8 793e 439a 063f
000002c0: 4eb1 7fbe 730f dbbe 3dea 5ebe 744b 163e
000002d0: 7779 923e b9a9 1e3f 4480 3ebe f316 2cbe
000002e0: b006 003f 840d 81be 0d30 92be 6dcf eebe
000002f0: 08fd 873d 5ce0 51be 2a34 dabe 1c5d efbd

fc1.bias f4 [64]
3.2523973 -2.0989637 2.8528397 -2.550417 -2.3081598 2.3994114 3.068281 3.44591
-2.4978864 2.293102 0.27667508 3.0782077 2.796892 2.712789 -0.5150786 2.8521893
3.557342 -2.0469952 3.0937202 2.9898343 -3.916337 -2.4260077 4.0528316 3.23962
-3.103613 3.7505193 1.7812393 3.436189 0.7002954 -2.0382965 -3.1678102 2.1629305
2.3138523 -2.6816885 -0.011454255 3.6503594 3.0321553 3.4740458 -1.303673 3.0331676
0.2930351 3.1658924 3.1537526 -2.5159237 0.1856485 3.2832208 2.2839615 2.815325
-2.0712366 -1.9835243 3.528727 -2.2296748 3.7699003 0.19058973 0.5190345 3.2155373
1.882046 -0.15263778 -1.4250447 2.9858942 -1.4594094 -0.8876476 4.63286 -0.5469133
00000000: 4727 5040 6c55 06c0 ed94 3640 083a 23c0
00000010: e4b8 13c0 f58f 1940 b75e 4440 ca89 5c40
00000020: 5fdd 1fc0 2fc2 1240 5ba8 8d3e 5b01 4540
00000030: 4700 3340 569e 2d40 31dc 03bf 458a 3640
00000040: 7eab 6340 f801 03c0 83ff 4540 7259 3f40
00000050: 44a5 7ac0 b643 1bc0 ccb0 8140 ef55 4f40
00000060: 98a1 46c0 8208 7040 a6ff e33f 85ea 5b40
00000070: 8f46 333f 7373 02c0 67bd 4ac0 746d 0a40
00000080: 2816 1440 c9a0 2bc0 a1aa 3bbc 7d9f 6940
00000090: d50e 4240 c456 5e40 c2de a6bf 6b1f 4240
000000a0: b208 963e fb9d 4a40 15d7 4940 e504 21c0
000000b0: a41a 3e3e 4a20 5240 6d2c 1240 492e 3440
000000c0: 248f 04c0 20e4 fdbf aad6 6140 feb2 0ec0
000000d0: 0c46 7140 f429 433e 72df 043f 5dcb 4d40
000000e0: e2e6 f03f 144d 1cbe dd67 b6bf e418 3f40
000000f0: edcd babf e03c 63bf 6440 9440 8302 0cbf

fc2.weight f4 [64, 64]
0.40599728 0.0039686286 0.19476008 -0.027983679 0.11219407 0.345633 -0.338156 0.5950478
-0.054735936 0.032842446 -0.039727207 -0.44376367 -0.30120024 0.30690244 -0.0046499167 -0.07816504
-0.13685997 -0.026783321 0.8234948 0.67164314 -0.43835005 0.0002629792 1.4579695 -0.67712903
-0.2893787 0.5948368 0.14969312 0.91848564 0.16395725 0.10201233 -0.045322236 0.3066722
0.20890863 -0.19524662 0.180416 0.42579296 0.37774467 0.37112215 0.0063009444 0.20644619
-0.038268536 -0.72328144 0.30220625 0.16910557 0.009055376 0.60805523 0.08336909 -0.15894765
-0.07462076 -0.07255128 0.41776755 -0.022865606 0.4457002 0.008288443 0.1109145 0.40855426
0.05531606 0.08516522 -0.11787018 0.29391062 -0.28487357 -0.19392893 1.1298888 0.082111895
0.42933995 -0.0023092735 0.43818185 0.16227521 -0.025192043 0.25660825 0.15571554 0.65671855
-0.026523717 0.2739048 -0.20109569 -0.4112476 -0.10854866 0.38358578 0.16209303 0.12938964
0.07206746 0.067920014 0.89415056 0.60724396 -0.48689204 -0.049467947 1.5786693 -0.5433827
-0.21046554 0.63990843 0.015244267 0.595749 0.026796533 0.1985626 -0.10877416 0.53912497
0.28598937 0.051959235 -0.12958653 0.5731002 0.31378463 0.52957743 -0.023874495 0.23089021
-0.08111179 -0.67720836 0.28076622 -0.13709319 -0.11772835 0.5183753 0.04292358 0.074231364
-0.12013016 0.0071205935 0.6023443 -0.06373843 0.78411466 0.028112335 0.0663711 0.13101405
-0.030470636 -0.03348972 -0.3007319 0.19642733 -0.13336882 -0.013862544 1.39907 0.01963456
0.1506519 -0.10828151 -0.2330672 -0.25478956 -0.24851307 0.026438083 -0.4143033 -0.061283093
-0.15781885 0.4006614 -0.6610609 0.3997189 -0.3307778 0.5337856 -0.02738955 -0.061396312
1.2903156 -0.2341161 0.4412002 -0.078369156 -0.3385999 -0.11812436 0.7113752 -0.16265629
-0.3660648 0.30738577 -0.09869413 0.49587426 -0.045060314 -0.13929558 -0.16402002 -0.4322353
-0.024074372 -0.41758096 -0.25272086 0.13472025 -0.1860554 0.23230651 -0.14035383 -0.37790242
0.06605398 -0.34370402 -0.26087973 0.15321417 -0.012056591 -0.082494184 0.24578391 0.7313321
-0.12242859 -0.061874293 -0.051914882 -0.16836977 0.24168113 -0.03908232 -0.12367079 -0.10117483
-0.55167025 0.0057450384 -0.31251094 0.24839994 -0.635483 -0.63941854 1.0459026 -0.10163841
0.8616749 -0.11941014 0.82980853 0.504611 0.35350662 0.87398314 -0.6689582 1.0390195
0.18939385 0.8986036 0.15749 -0.92173827 -0.8064567 -1.3266798 -0.02977474 -0.8350675
-1.9299889 0.4461745 0.9077909 0.9674463 -0.7349612 0.3839411 1.3119054 -0.15028825
-0.11227581 0.95362777 0.60801935 0.8384486 0.46630806 0.25528353 0.15489979 0.6285854
0.59527135 0.30085015 0.2043542 0.6743683 0.89666766 0.8137791 0.41743603 1.0218709
0.14294124 0.19762833 0.8665796 -0.013888551 -0.09407596 0.73346364 0.00782156 -1.2468258
0.04541078 0.3943702 0.857355 -0.0005176434 0.83662224 -0.041423902 0.04535599 0.8069313
0.61829495 0.10659118 0.09292033 0.46157753 0.033376943 -0.020245431 1.0268729 -0.032516986
00000000: e0de cf3e 450b 823b 306f 473e 073e e5bc
00000010: 01c6 e53d cff6 b03e c922 adbe 0d55 183f
00000020: ca32 60bd cd85 063d ffb8 22bd fe34 e3be
00000030: eb36 9abe 5122 9d3e 545e 98bb fe14 a0bd
00000040: 0525 0cbe b268 dbbc 8ed0 523f cef0 2b3f
00000050: 6b6f e0be 79e0 8939 bf9e ba3f 5458 2dbf
00000060: 7229 94be 3947 183f 2749 193e e021 6b3f
00000070: 69e4 273e d7eb d03d cfa3 39bd 2304 9d3e
00000080: 25ec 553e bbee 47be f9be 383e 8901 da3e
00000090: c067 c13e b903 be3e 2778 ce3b a166 533e
000000a0: 78bf 1cbd f928 39bf c7ba 9a3e 032a 2d3e
000000b0: 005d 143c 82a9 1b3f 6abd aa3d 2cc3 22be
000000c0: c5d2 98bd c495 94bd a1e5 d53e a750 bbbc
000000d0: d132 e43e 40cc 073c 2427 e33d 062e d13e
000000e0: 1893 623d 1a6b ae3d ec65 f1bd 747b 963e
000000f0: f3da 91be 4e95 46be 32a0 903f 482a a83d
00000100: 72d2 db3e 2e57 17bb 5f59 e03e 792b 263e
00000110: 8b5f cebc 2862 833e e573 1f3e b51e 283f
00000120: 4448 d9bc 403d 8c3e 07ec 4dbe 0c8f d2be
00000130: c34e debd 5b65 c43e b7fb 253e b87e 043e
00000140: 1b98 933d a619 8b3d 0de7 643f 5774 1b3f
00000150: ea49 f9be e79e 4abd d611 ca3f 211b 0bbf
00000160: 4784 57be 0ad1 233f 17c3 793c 0283 183f
00000170: 6784 db3c ff53 4b3e fdc4 debd 1804 0a3f
00000180: 336d 923e 35d3 543d 55b2 04be b2b6 123f
00000190: 61a8 a03e 6392 073f 7294 c3bc 7c6e 6c3e
000001a0: f01d a6bd 875d 2dbf 97c0 8f3e 2862 0cbe
000001b0: 901b f1bd 3eb4 043f a3d0 2f3d 9d06 983d
000001c0: cd06 f6bd de53 e93b 3c33 1a3f 4b89 82bd
000001d0: bdbb 483f d74b e63c 92ed 873d 8c28 063e
000001e0: 8e9d f9bc 842c 09bd 88f9 99be 3f24 493e
000001f0: d691 08be b91f 63bc ba14 b33f a8d8 a03c
00000200: 7e44 1a3e b2c2 ddbd 2ba9 6ebe c773 82be
00000210: 367a 7ebe ae94 d83c 901f d4be fb03 7bbd
00000220: 449b 21be 7e23 cd3e 4a3b 29bf f5a7 cc3e
00000230: b55b a9be 2ca6 083f 0d60 e0bc b37a 7bbd
00000240: 1029 a53f 22bc 6fbe fee4 e13e 0280 a0bd
00000250: f75c adbe 2feb f1bd af1c 363f 5f8f 26be
00000260: d86c bbbe ab61 9d3e 2620 cabd 3be3 fd3e
00000270: 2a91 38bd 80a3 0ebe ddf4 27be f24d ddbe
00000280: 9e37 c5bc 2ccd d5be a164 81be 1bf4 093e
00000290: 4f85 3ebe c2e1 6d3e eab8 0fbe 6d7c c1be
000002a0: 4f47 873d f9f9 afbe 0792 85be 2de4 1c3e
000002b0: 0289 45bc b6f2 a8bd c7ae 7b3e 9538 3b3f
000002c0: d7bb fabd e66f 7dbd b3a4 54bd 2069 2cbe
000002d0: 427b 773e c814 20bd 1c47 fdbd c034 cfbd
000002e0: 433a 0dbf e040 bc3b 6f01 a0be 8e5c 7e3e
000002f0: 04af 22bf efb0 23bf 23e0 853f cc27 d0bd
00000300: ba96 5c3f 4e8d f4bd 556e 543f 302e 013f
00000310: d2fe b43e 5cbd 5f3f d840 2bbf 97fe 843f
00000320: 76f0 413e e30a 663f 0f45 213e 0af7 6bbf
00000330: f273 4ebf a5d0 a9bf 28ea f3bc fcc6 55bf
00000340: e009 f7bf fc70 e43e fc64 683f 90aa 773f
00000350: 6b26 3cbf ee93 c43e 84ec a73f 2ae5 19be
00000360: dcf0 e5bd f320 743f 28a7 1b3f 91a4 563f
00000370: eebf ee3e 86b4 823e 0d9e 1e3e f9ea 203f
00000380: b463 183f 0809 9a3e 3a42 513e 67a3 2c3f
00000390: 038c 653f d453 503f 2dba d53e aacc 823f
000003a0: 305f 123e 155f 4a3e 29d8 5d3f ce8c 63bc
000003b0: e6aa c0bd 46c4 3b3f 0026 003c fd97 9fbf
000003c0: a700 3a3d e4ea c93e 9e7b 5b3f 76b2 07ba
000003d0: e02c 563f 1cac 29bd 34c7 393d 0d93 4e3f
000003e0: 9448 1e3f 7a4c da3d 044d be3d e453 ec3e
000003f0: 43b6 083d bfd9 a5bc 9270 833f 8830 05bd

fc2.bias f4 [64]
2.3168628 2.5310247 1.5412359 1.1078281 1.3070084 0.08871148 1.71568 0.08398775
0.016960533 1.3475335 -0.0723647 0.015341409 2.2406213 1.7898241 -0.005602676 1.306188
-0.03348148 -0.06023313 1.874706 0.025215883 -0.018864183 -0.108984776 1.3570685 -0.051616427
1.5588872 7.596612e-05 -0.05214915 2.1622913 1.7970302 0.6762849 2.2284873 -1.5780534
-0.07503949 0.088406 1.5209017 -0.11146828 -0.10277091 0.035936475 0.052547757 -0.21703306
1.7127165 1.1370234 2.0059016 -0.31810707 0.04404281 0.0108393375 1.4978997 -0.51628256
-1.0113251 1.8873818 -0.04181506 -0.12372221 2.179833 1.7373289 2.118676 2.2503777
-0.6849578 2.0502305 0.008795989 -0.0058965124 -0.108984776 0.023170672 1.6867626 1.3017621
00000000: 7b47 1440 4ffc 2140 3847 c53f 50cd 8d3f
00000010: 0d4c a73f 5dae b53d 679b db3f c501 ac3d
00000020: d1f0 8a3c fa7b ac3f f233 94bd 885a 7b3c
00000030: 5766 0f40 f518 e53f a796 b7bb 2b31 a73f
00000040: e023 09bd 04b7 76bd 5ef6 ef3f 8a91 ce3c
00000050: 0f89 9abc 6933 dfbd 6cb4 ad3f bf6b 53bd
00000060: 9e89 c73f 0050 9f38 599a 55bd fb62 0a40
00000070: 1605 e63f 0221 2d3f 899f 0e40 a7fd c9bf
00000080: 4eae 99bd 340e b53d e8ac c23f 7b49 e4bd
00000090: 8e79 d2bd 2032 133d 513c 573d ea3d 5ebe
000000a0: 4b3a db3f fc89 913f b160 0040 eede a2be
000000b0: 3c66 343d 7a97 313c 2dbb bf3f 182b 04bf
000000c0: 1a73 81bf ba95 f13f 4546 2bbd 1262 fdbd
000000d0: 6282 0b40 cb60 de3f 6398 0740 3006 1040
000000e0: 6559 2fbf fa36 0340 0d1d 103c 8837 c1bb
000000f0: 6933 dfbd 6cd0 bd3c d6e7 d73f 24a0 a63f

fc3.weight f4 [20, 64]
0.48967806 0.71460456 0.13233678 0.17501716 -0.08081677 0.04352499 0.21752173 -0.022429332
-0.06625514 -1.1848854 0.007748097 -0.013176382 0.5962698 -0.4197432 0.0078001595 0.072699904
0.066272676 -0.012266142 0.25893378 -0.099149875 -0.10305403 0.02834144 0.026472535 0.021473035
0.6715531 0.087245315 0.04898261 -1.1132976 0.2952017 -0.45852965 0.8814956 -0.49667186
0.020399123 -0.029066019 0.20003666 -0.038636554 -0.02200228 -0.052156597 -0.012635052 -0.03869012
0.61990345 -0.015040651 0.5668767 -0.08739582 -0.09020161 -0.017188907 0.19176522 -0.026507063
-0.3262651 0.3330727 -0.015048087 -0.023627028 0.45260492 0.26364028 0.6497299 0.7049878
-0.3560127 0.8402707 0.01784344 -0.013115585 -0.11612557 0.051560547 -1.5010682 0.7274537
0.5103091 0.7924885 0.11924563 0.38218287 -0.011864478 -0.0032216026 0.16508897 0.058567908
0.027635492 -0.61679244 -0.043405782 -0.12082781 0.527564 -0.40221202 -0.08517805 0.20249385
-0.020612165 0.034785345 0.26295716 0.035593748 -0.029863242 0.02847928 0.04486247 0.012549952
0.080285445 0.08993156 -0.035284538 -1.1620355 0.22788939 0.08872251 0.40771818 -0.19353132
-0.008675516 0.076604135 0.06969104 0.023276845 0.074790105 0.0428209 0.051507637 0.012877947
0.48918658 0.16079347 0.6672631 0.02108761 0.009876338 0.042075835 0.14957501 -0.02856032
0.034581475 0.23969941 0.042931005 -0.083000794 0.3923212 0.24219115 0.28578594 0.61129564
-0.0763717 0.43427026 0.072536066 -0.103687346 -0.08255224 0.013362323 -0.8127733 0.63580525
0.59803873 0.5887591 -0.07372165 0.32256034 0.27247667 -0.048144408 0.22396845 -0.005247838
0.06759162 -0.42878112 0.0027042464 0.04975915 0.62028503 -0.5833008 -0.00045140088 0.26992077
0.08218087 0.07696176 0.25434488 0.08613354 0.028399186 0.09032828 0.24088123 -0.027009634
0.008924964 -0.10711466 0.048893202 -0.9396503 0.27597913 -0.35254556 0.47877362 -0.43531322
0.073705815 -0.08495079 0.24026771 -0.021849394 0.050562155 0.116584465 0.04725261 0.15254168
0.47329116 0.41204163 0.4009318 0.21874124 0.06089252 -0.10052244 0.0910277 0.026232464
-0.28087562 0.27397537 -0.09829447 -0.004254103 0.34097177 0.18460628 0.4415096 0.60729855
0.14681596 0.5197056 0.082818 0.085448086 -0.05144506 0.08416657 -0.799336 0.62951887
0.4551088 0.6137426 0.30200607 0.46075195 -0.03222344 0.11005767 0.081419036 -0.034535747
0.08290015 -0.5438109 0.030595273 -0.055791423 0.44733632 -0.51960886 -0.003931396 0.19558479
-0.089119405 -0.07869031 0.30973414 0.034073804 0.10728602 -0.007887938 0.15061145 0.1116174
0.023987519 0.101006985 -0.11430456 -0.9138453 0.19275492 -0.29666886 0.37928057 0.064796455
-0.09933615 0.08469643 0.2907037 0.11556372 0.01148289 -0.08038162 -0.031951845 0.21387134
0.50818 0.23771298 0.37734336 -0.11162283 0.10218231 0.007631868 0.24106497 0.33699805
-0.27086192 0.30981302 -0.12127863 -0.10983414 0.34289753 0.21328051 0.40251082 0.6374231
0.13922767 0.2628459 -0.034370303 -0.074164525 0.11852909 -0.0392632 -0.59520864 0.7633081
00000000: 15b7 fa3e 53f0 363f 4b83 073e b337 333e
00000010: 4383 a5bd 4347 323d 04be 5e3e b8bd b7bc
00000020: c6b0 87bd 53aa 97bf c0e3 fd3b c0e1 57bc
00000030: 23a5 183f 95e8 d6be 7b98 ff3b b0e3 943d
00000040: f8b9 873d eef7 48bc f892 843e 170f cbbd
00000050: fe0d d3bd 4f2c e83c eedc d83c 38e8 af3c
00000060: e7ea 2b3f acad b23d fda1 483d 8980 8ebf
00000070: ad24 973e 66c4 eabe b2a9 613f c64b febe
00000080: 101c a73c dc1b eebc 69d6 4c3e 5d41 1ebd
00000090: 203e b4bc 28a2 55bd 4003 4fbc 8879 1ebd
000000a0: feb1 1e3f 106d 76bc d51e 113f 94fc b2bd
000000b0: 9fbb b8bd c0cf 8cbc 1a5e 443e 5725 d9bc
000000c0: 380c a7be 8188 aa3e 408c 76bc 788d c1bc
000000d0: d5bb e73e dcfb 863e b354 263f 157a 343f
000000e0: 4c47 b6be fb1b 573f 682c 923c c0e2 56bc
000000f0: 3ed3 edbd 2731 533d 0123 c0bf 683a 3a3f
00000100: 9ea3 023f 87e0 4a3f 0e37 f43d 79ad c33e
00000110: 3a63 42bc 8621 53bb 150d 293e e7e4 6f3d
00000120: d463 e23c 1ce6 1dbf 43ca 31bd 9274 f7bd
00000130: 6f0e 073f bcee cdbe d471 aebd 8c5a 4f3e
00000140: d8da a8bc 147b 0e3d 52a2 863e c0ca 113d
00000150: c2a3 f4bc 614d e93c b6c1 373d 509e 4d3c
00000160: b26c a43d 0a2e b83d 8586 10bd 94bd 94bf
00000170: d65b 693e 26b4 b53d 70c0 d03e 132d 46be
00000180: c023 0ebc a1e2 9c3d 2dba 8e3d 15af be3c
00000190: 8e2b 993d f864 2f3d acf9 523d 06fe 523c
000001a0: aa76 fa3e 0ba7 243e c1d1 2a3f ecbf ac3c
000001b0: 5dd0 213c b657 2c3d 312a 193e 55f7 e9bc
000001c0: 4ea5 0d3d c373 753e 6cd8 2f3d 52fc a9bd
000001d0: 53de c83e f500 783e 8952 923e df7d 1c3f
000001e0: c468 9cbd ac58 de3e ca8d 943d 085a d4bd
000001f0: 2611 a9bd a5ed 5a3c e911 50bf 22c4 223f
00000200: 1119 193f ebb8 163f 60fb 96bd a126 a53e
00000210: 1082 8b3e 1233 45bd fc57 653e 0ef6 abbb
00000220: 7a6d 8a3d 3389 dbbe ba39 313b 40d0 4b3d
00000230: 00cb 1e3f 3453 15bf 00aa ecb9 0e33 8a3e
00000240: 724e a83d 219e 9d3d 7e39 823e c866 b03d
00000250: 69a5 e83c 09fe b83d 92a9 763e 4f43 ddbc
00000260: 033a 123c ee5e dbbd 3d44 483d ec8c 70bf
00000270: 234d 8d3e da80 b4be d121 f53e 60e1 debe
00000280: 13f3 963d aefa adbd bd08 763e 80fd b2bc
00000290: 431a 4f3d d6c3 ee3d f48b 413d e333 1c3e
000002a0: 3853 f23e 1ff7 d23e ef46 cd3e b4fd 5f3e
000002b0: 6f6a 793d b6de cdbd bb6c ba3d 77e5 d63c
000002c0: eece 8fbe 8046 8c3e 9c4e c9bd 0166 8bbb
000002d0: da93 ae3e 6e09 3d3e 8c0d e23e eb77 1b3f
000002e0: ec56 163e 6d0b 053f 7c9c a93d 68ff ae3d
000002f0: 0eb8 52bd 865f ac3d 49a1 4cbf 2628 213f
00000300: 0504 e93e 3c1e 1d3f 8aa0 9a3e aee7 eb3e
00000310: bafc 03bd ea65 e13d 06bf a63d 5b75 0dbd
00000320: 8ec7 a93d 3137 0bbf f0a2 fa3c 8c85 64bd
00000330: 4409 e53e 1605 05bf f1d2 80bb 6147 483e
00000340: 3c84 b6bd 6328 a1bd 7995 9e3e f990 0b3d
00000350: c6b8 db3d 693c 01bc e339 1a3e aa97 e43d
00000360: 7981 c43c c0dc ce3d 8218 eabd c4f1 69bf
00000370: 8c61 453e fbe4 97be 1031 c23e 01b4 843d
00000380: c070 cbbd 5275 ad3d 1ed7 943e acac ec3d
00000390: bb22 3c3c 1e9f a4bd f0df 02bd 1701 5b3e
000003a0: 1618 023f 086b 733e 2633 c13e 839a e4bd
000003b0: f544 d13d c014 fa3b bcd9 763e 028b ac3e
000003c0: 6aae 8abe d09f 9e3e ee60 f8bd b9f0 e0bd
000003d0: 4490 af3e 3566 5a3e e615 ce3e 292e 233f
000003e0: b391 0e3e bd93 863e e0c7 0cbd 92e3 97bd
000003f0: 61bf f23d 73d2 20bd 985f 18bf 2968 433f

fc3.bias f4 [20]
2.094623 0.8499506 0.54056484 0.5530807 0.52852756 0.59811634 0.36759344 0.35368603
0.26528537 0.27811787 0.15802468 0.036854576 -0.0027515711 0.11015281 -0.09351911 -0.23227179
-0.02362467 -0.19455008 -0.19605556 -0.37275836
00000000: 4e0e 0640 5d96 593f 7562 0a3f b296 0d3f
00000010: 954d 073f 271e 193f 3535 bc3e 5616 b53e
00000020: 7cd3 873e 7765 8e3e 39d1 213e d3f4 163d
00000030: b453 34bb cc97 e13d f286 bfbd a8d8 6dbe
00000040: 8688 c1bc 2338 47be cac2 48be 2fda bebe

exp_avg f4 [64, 3]
3.598341 5.3663306 -0.39439768 1.2059013 2.3005638 3.6548624 5.8323736 10.728369
-2.405468 16.281422 18.13389 28.33282 16.672705 18.021645 25.039255 -0.5366863
0.14938876 -17.908424 -10.308404 -14.322053 -15.066239 18.412184 23.73575 5.4851327
8.886929 9.977047 14.144724 -0.40073028 1.5027877 -8.622896 -0.44992384 -0.46630272
-0.53682107 -53.677765 -56.226395 -85.23589 -16.018772 -14.709638 -15.560467 -0.57996595
-0.7711948 -0.28177288 0.043416444 0.3876808 8.587323 -14.855264 -16.679512 -24.896832
-68.34987 -77.16859 -118.2498 19.013824 21.140644 29.391888 18.822021 24.092236
3.4799385 17.399569 22.438044 7.708757 0.6063327 2.084951 36.605495 6e-45
6e-45 6e-45 37.442562 46.96384 -1.8496267 -55.675884 -60.635254 -101.4757
-0.06353101 -1.0278951 2.6994328 -0.5942162 -0.15643647 -24.395273 6e-45 6e-45
8.67e-43 27.606886 32.436638 9.408618 6e-45 6e-45 6e-45 10.919787
12.419726 15.684163 -0.09339585 0.7183679 7.5470123 -2.596879e-06 -1.2984406e-05 -2.596879e-06
0.0069193174 0.0066887103 0.44580266 14.697881 15.973435 22.996134 -0.94841224 0.27225354
-2.3207872 15.731555 19.597704 -0.4274309 15.389392 19.22404 9.644735 -0.7764946
1.5606985 -9.581407 8.4461 9.150048 13.441311 14.277857 17.877155 8.548703
6e-45 6e-45 6e-45 -45.454327 -50.569485 -66.71365 17.999037 22.061089
8.448783 6e-45 6e-45 6e-45 0.0 0.0 6e-45 18.966545
22.874252 4.5146503 -0.00084865955 -0.010427904 0.24057111 -34.95683 -39.60623 -62.080902
-0.07877492 0.328246 2.9230697 1.283553 2.010301 4.7389617 18.758144 23.251194
6.617623 0.08485314 0.82646894 0.45582023 2.0365107 6.5990477 -12.124238 0.0
0.0 0.0 0.0 0.0 0.0 2.6254785 4.2615285 0.6725668
5.4393535 6.0299454 7.3650794 0.0 0.0 0.0 0.7367839 0.7030048
0.6771188 -0.20258832 -0.32904232 -6.132067 0.5266472 0.4512442 0.44211313 -3.0290084
-5.3642964 -7.0154624 1.0745867 3.3381293 -46.106056 0.0 0.0 0.0
00000000: 384b 6640 fbb8 ab40 7eee c9be f95a 9a3f
00000010: 703c 1340 44e9 6940 cea2 ba40 66a7 2b41
00000020: 30f3 19c0 5a40 8241 3512 9141 9ea9 e241
00000030: b361 8541 542c 9041 6550 c841 4664 09bf
00000040: 5ef9 183e 7444 8fc1 39ef 24c1 2127 65c1
00000050: 510f 71c1 274c 9341 d1e2 bd41 3586 af40
00000060: dc30 0e41 fca1 1f41 ca50 6241 852c cdbe
00000070: 595b c03f 62f7 09c1 6b5c e6be 3bbf eebe
00000080: 1b6d 09bf 08b6 56c2 d4e7 60c2 c778 aac2
00000090: 7226 80c1 ad5a 6bc1 acf7 78c1 a678 14bf
000000a0: 066d 45bf 8944 90be 71d5 313d 197e c63e
000000b0: ad65 0941 29af 6dc1 a46f 85c1 b62c c7c1
000000c0: 22b3 88c2 5156 9ac2 e67f ecc2 501c 9841
000000d0: 0a20 a941 9622 eb41 8093 9641 e6bc c041
000000e0: 50b7 5e40 5132 8b41 1d81 b341 23ae f640
000000f0: 9f38 1b3f d66f 0540 076c 1242 0400 0000
00000100: 0400 0000 0400 0000 2fc5 1542 f9da 3b42
00000110: 91c0 ecbf 1bb4 5ec2 808a 72c2 8ff3 cac2
00000120: 8c1c 82bd 1192 83bf 82c3 2c40 8e1e 18bf
00000130: e230 20be 8529 c3c1 0400 0000 0400 0000
00000140: 6b02 0000 e7da dc41 1ebf 0142 b389 1641
00000150: 0400 0000 0400 0000 0400 0000 73b7 2e41
00000160: 33b7 4641 55f2 7a41 5346 bfbd f5e6 373f
00000170: 2081 f140 0b46 2eb6 99d7 59b7 0b46 2eb6
00000180: 71bb e23b f82c db3b 3f40 e43e 852a 6b41
00000190: 3193 7f41 15f8 b741 25cb 72bf d164 8b3e
000001a0: c787 14c0 73b4 7b41 19c8 9c41 39d8 dabe
000001b0: f33a 7641 d5ca 9941 d650 1a41 5ac8 46bf
000001c0: f8c4 c73f 714d 19c1 3a23 0741 9966 1241
000001d0: 9c0f 5741 1a72 6441 6a04 8f41 7dc7 0841
000001e0: 0400 0000 0400 0000 0400 0000 3bd1 35c2
000001f0: 2747 4ac2 646d 85c2 07fe 8f41 1c7d b041
00000200: 372e 0741 0400 0000 0400 0000 0400 0000
00000210: 0000 0000 0000 0000 0400 0000 7cbb 9741
00000220: 78fe b641 0478 9040 9478 5eba cdd9 2abc
00000230: 4658 763e cbd3 0bc2 c86c 1ec2 d852 78c2
00000240: bf54 a1bd dc0f a83e 9313 3b40 774b a43f
00000250: c6a8 0040 93a5 9740 ae10 9641 7202 ba41
00000260: 91c3 d340 7cc7 ad3d 7893 533f 4561 e93e
00000270: 3156 0240 662b d340 e1fc 41c1 0000 0000
00000280: 0000 0000 0000 0000 0000 0000 0000 0000
00000290: 0000 0000 d707 2840 715e 8840 562d 2c3f
000002a0: 2f0f ae40 50f5 c040 bbae eb40 0000 0000
000002b0: 0000 0000 0000 0000 df9d 3c3f 1ff8 333f
000002c0: a857 2d3f 5073 4fbe 3c78 a8be e539 c4c0
000002d0: 5ad2 063f 7b09 e73e a75c e23e 46db 41c0
000002e0: 51a8 abc0 ab7e e0c0 0f8c 893f e9a3 5540
000002f0: 9a6c 38c2 0000 0000 0000 0000 0000 0000

exp_avg_sq f4 [64, 3]
258.70764 268.436 13492.194 36.35585 529.9342 31048.115 1541.5183 1672.689
35799.824 3637.5364 3356.7737 14133.532 3896.1228 3572.9226 17095.092 12.414076
66.8025 12073.966 3609.916 3968.6194 5620.9487 7272.31 7163.2188 153898.0
1087.4548 964.832 5675.1904 30.60679 328.95804 30309.383 11.184 7.750787
14.046028 48189.61 35248.152 106189.29 4142.826 5598.688 5364.6626 140.60591
619.27295 182.36276 2.540188 5.3134265 1356.0743 3997.5774 3651.1638 8381.003
79969.44 67113.93 220535.14 5377.6743 4824.5684 26361.193 7165.223 7146.526
168725.62 6482.9893 6333.245 117438.06 11.651215 177.70668 45583.684 3.2041958e-06
0.00014111624 0.035924397 30021.863 29019.664 818815.06 50444.44 38568.758 160887.6
6.0936694 67.630104 5071.8047 5.8663764 107.58969 36092.555 0.0031840561 0.031090273
17.605335 13757.346 12888.03 269051.06 3.2304286e-13 1.35373535e-11 2.3148756e-09 1756.2471
1592.6697 10360.0 10.257589 127.464096 6740.8647 0.0020420863 0.09855218 0.01656952
0.5009503 1.026377 338.66364 3100.4268 2870.5964 12579.579 307.41885 38.815605
929.1282 5323.9067 5105.912 131132.48 4705.524 4512.963 70679.016 100.977974
145.46962 15223.234 1002.32477 984.2958 3886.5464 4035.8496 3926.6306 56024.508
1.1803956e-37 2.6558963e-35 1.1803956e-37 42854.547 29821.746 106190.41 6298.1035 6032.745
102559.23 4.5195097e-09 2.3179396e-08 2.2509317e-05 0.0 0.0 9.830789e-35 7061.6387
6778.4976 136717.75 3.846136 8.019536 144.98753 20868.799 17954.326 53466.434
4.7845955 53.18191 3738.0552 31.62824 59.43069 337.43597 7003.858 6703.216
128074.88 16.346453 169.99664 98.627975 451.60214 959.0458 54806.195 0.0
0.0 0.0 0.0 0.0 0.0 236.8995 225.39589 8928.514
513.25635 550.27386 1637.5062 0.0 0.0 0.0 7.8443894 13.603887
12.761216 11.235125 49.90786 2928.3125 11.792065 13.749561 31.236692 50.489365
179.83281 153.03058 212.02408 1757.969 260317.05 0.0 0.0 0.0
00000000: 945a 8143 cf37 8643 c7d0 5246 646c 1142
00000010: ca7b 0444 3b90 f246 96b0 c044 0c16 d144
00000020: d3d7 0b47 9558 6345 61cc 5145 21d6 5c46
00000030: f781 7345 c34e 5f45 2f8e 8546 0ea0 4641
00000040: e19a 8542 dda7 3c46 a89e 6145 e909 7845
00000050: 97a7 af45 7b42 e345 c0d9 df45 804a 1648
00000060: 8eee 8744 3f35 7144 8659 b145 b5da f441
00000070: a17a a443 c4ca ec46 aaf1 3241 7206 f840
00000080: 88bc 6041 9c3d 3c47 27b0 0947 a566 cf47
00000090: 9c76 8145 81f5 ae45 4da5 a745 1d9b 0c43
000000a0: 78d1 1a44 de5c 3643 7192 2240 9707 aa40
000000b0: 6182 a944 3dd9 7945 9f32 6445 03f4 0246
000000c0: b830 9c47 f714 8347 c95d 5748 650d a845
000000d0: 8cc4 9645 63f2 cd46 c9e9 df45 3554 df45
000000e0: 68c5 2448 ea97 ca45 f6e9 c545 085f e547
000000f0: 606b 3a41 e9b4 3143 af0f 3247 aa07 5736
00000100: 9af8 1339 7625 133d ba8b ea46 54b7 e246
00000110: f1e7 4749 710c 4547 c2a8 1647 e61d 1d48
00000120: 57ff c240 9d42 8742 707e 9e45 5bb9 bb40
00000130: ec2d d742 8efc 0c47 99ab 503b 07b1 fe3c
00000140: bad7 8c41 62f5 5646 1f60 4946 625f 8348
00000150: 62db b52a d226 6e2d b913 1f31 e887 db44
00000160: 6e15 c744 00e0 2146 161f 2441 9eed fe42
00000170: eba6 d245 86d4 053b bad5 c93d cdbc 873c
00000180: 473e 003f 5260 833f f254 a943 d4c6 4145
00000190: 8b69 3345 518e 4446 9db5 9943 2e43 1b42
000001a0: 3448 6844 415f a645 4c8f 9f45 1f0f 0048
000001b0: 310c 9345 b407 8d45 820b 8a47 b9f4 c942
000001c0: 3978 1143 f0dc 6d46 c994 7a44 ee12 7644
000001d0: bee8 7245 983d 7c45 176a 7545 82d8 5a47
000001e0: c9aa 2002 3036 0d06 c9aa 2002 8c66 2747
000001f0: 7efb e846 3467 cf47 d4d0 c445 f685 bc45
00000200: 9d4f c847 074a 9b31 081c c732 64d2 bc37
00000210: 0000 0000 0000 0000 71ac 0207 1cad dc45
00000220: fbd3 d345 7083 0548 1827 7640 0550 0041
00000230: cffc 1043 9909 a346 a744 8c46 6fda 5047
00000240: 681b 9940 47ba 5442 e2a0 6945 a306 fd41
00000250: 07b9 6d42 ceb7 a843 ddde da45 ba79 d145
00000260: 7125 fa47 89c5 8241 24ff 2943 8641 c542
00000270: 13cd e143 eec2 6f44 3216 5647 0000 0000
00000280: 0000 0000 0000 0000 0000 0000 0000 0000
00000290: 0000 0000 46e6 6c43 5965 6143 0e82 0b46
000002a0: 6850 0044 8791 0944 33b0 cc44 0000 0000
000002b0: 0000 0000 0000 0000 3d05 fb40 85a9 5941
000002c0: f12d 4c41 12c3 3341 a6a1 4742 0005 3745
000002d0: 4cac 3c41 34fe 5b41 bfe4 f941 1cf5 4942
000002e0: 33d5 3343 d407 1943 2a06 5443 02bf db44
000002f0: 4337 7e48 0000 0000 0000 0000 0000 0000
