beer/experiments/new_env/full/models/dqn_agent_firm_1_episode_8000.pth (torch, 107368 bytes, 24 tensors)

fc1.weight f4 [64, 9]
00000000: f6c0 d83e 2be8 1d3f 2da9 cbbd fcbd abbd
00000010: 7af8 893d 8c08 ba3e dee6 703e f242 e93e
00000020: 7a18 1b3f 6bbb f9be 9245 a13e 0a0b 95be
00000030: 3005 f5be 06c2 8ebd 1df5 e33c db9f 0a3f
00000040: 4754 3bbe 5da5 cebe 002a d43e 35b3 edbe
00000050: 1d8f 67bf 038c 123f f9cf 00bf 01ad d9be
00000060: ac67 0cbe cc8c 443f a950 b73e 4964 493e
00000070: 2679 493e 889a e43d bc33 eabe 00e4 22bf
00000080: 8b6f bf3e a5d9 26bd 0430 aebd d6b9 9d3e
00000090: 76b0 92bf bbda 12bf 4c10 b03e 01f4 f93e
000000a0: 4d16 17bf fa48 25bd 6cf0 e9be 8253 a4bd
000000b0: 7cf0 0fbf b43a 37bd 52e0 46be 8ba0 a6be
000000c0: f91c 523e a7f4 1cbe 2cbf e9bc 8ac4 8d3d
000000d0: 8d1b 87be c6f5 76bb 6dd1 e9be d71d cdbe
000000e0: 46f4 93be d52d 5a3e dc1a b83d a51b db3c
000000f0: db8b 8bbe c8b6 143f a7b8 08bf a87a 6d3d
00000100: cac4 363d 5385 49bf 89b0 afbd 325d d93e
00000110: a0f2 fabd 7512 6cbf 7f95 813e df95 1e3e
00000120: f1f6 e23e b50c 833f 6b7e 243e 23e1 5cbe
00000130: 5dd9 6abe 56fb 38bf 2050 cbbe 7421 0dbe
00000140: 97c2 e63e 17d0 67bf 34cf 02be 3d8c dcbe
00000150: 9384 5ebe f2be e6be 7a22 293f 6c4f 13be
00000160: bb8f 90be 85d5 cfbe 85db 21bf 1392 3cbf
00000170: 63cc b4be 8afb 8e3e 49c5 9dbe 18fc 193e
00000180: 97b9 19bf 947b 87bd 92bf 60be ad09 53c0
00000190: da2b eb3e 8af1 183f e1e1 873e 61f6 49c0
000001a0: aa27 c3bc 5b10 16c0 efae 92be 9e1f 973c
000001b0: e72e 90bd 7ced c2bf c067 98bf 2b9d 62bd
000001c0: 3352 cd3d 9cbe 933e 206c 83bf 6a97 39bb
000001d0: d201 723e ae8d 73c0 fe35 6e3f e383 493f
000001e0: 3309 fbbd 8a30 56c0 4784 673c 8ca3 16c0
000001f0: bf9f cbbd 8d27 17be 1041 71be fb2e 04be
00000200: 5ab0 063e 3096 133e bb0d 13be 44af 83be
00000210: 9692 7d3e 7c04 f6bd 03d5 07be e004 82bf
00000220: d88d 1dbf d3b2 0b3d 6ecc 133f 135a 5ebe
00000230: e2ed b93e 6591 743f bbc1 a43e 77b7 1abf
00000240: 9234 073e 6d1a 023e 3262 c43e 73c9 433e
00000250: 577a cfbe 8eaf 5d3e 9340 24be c68b 8c3e
00000260: ff20 3bbf d861 35be 80f8 773c 5600 84be
00000270: 20bc 0dbc 7039 bc3c 3eda 33be 087a 63be
00000280: 007d c9bd 83e2 9fbe e518 4e3c 74ee 29be
00000290: 5302 033e 6c8d 1ebe 055a b7bd acd1 26be
000002a0: 85dc d23c 2352 ee3d 3861 90be c2ef 06bf
000002b0: f009 7dbf f531 523e b1bb 8f3e fc96 b03e
000002c0: 7f22 193e 2265 0ebf 4182 4bbd 9600 29bf
000002d0: 5bf2 c93e a2e1 373f eca6 93be 3196 ffbc
000002e0: 47ab b8be 1789 0d3f 76c9 e4bd 8680 a03e
000002f0: b7b6 8f3e 9b4c b5be c1f5 f1be d946 debe
00000300: 3acd 7b3e 1963 583e 2b74 3cbe 9371 a2bf
00000310: 2f60 bb3e 85c4 203f 2423 1fbf b87c 69bf
00000320: 7436 83be 2a49 473d 9bd1 b43e 8ae8 953d
00000330: 7839 40bf d656 88bd 7910 3ebd d1c9 033f
00000340: e9d7 493f 2f6a 193f 2a3a 55be 8649 49be
00000350: 8d0d 803e 75d3 a4bd c559 72be f518 983d
00000360: 1b41 5f3f 8b81 823f 5967 22bd afba 5cbd
00000370: 0fc4 56bf a136 8dbf 2890 ab3c b3f4 5c3d
00000380: ee55 8a3c 304a 123f 6663 8e3f 221a 043e
00000390: eea2 153e 79f1 0fbf 2a1d 833e e1e1 f3bd
000003a0: 02ab d0bd c263 053f 8918 a23e 803d 1a3f
000003b0: 4d03 f2be cb0f 85be 3484 32be 5240 053f
000003c0: 2443 9c3e 2a86 84be 1626 f53d 9c5a a3be
000003d0: bb3f 12c0 db47 153f 055c aabd bb82 f03e
000003e0: 1e5f f6be 34fc 70bf 5411 65be 93cf ccbd
000003f0: 579b b8be 2b24 9bbf bfc4 bcbe 6962 5bbc
0.42334718 0.61682385 -0.09944377 -0.08385846 0.06736846 0.36334646 0.23525569 0.45558888
0.60584223 -0.487758 0.3149839 -0.29109985 -0.4785552 -0.06970601 0.02782684 0.5415017
-0.18293868 -0.40360537 0.41438293 -0.46425787 -0.9045275 0.5724489 -0.5031734 -0.42514804
-0.13711423 0.7677734 0.35803726 0.19667162 0.1967512 0.11162287 -0.45742595 -0.6362915
0.37389788 -0.040734906 -0.08505252 0.30805844 -1.1460102 -0.57365006 0.34387434 0.48818973
-0.59018403 -0.0403528 -0.4569124 -0.0802374 -0.56226325 -0.044733718 -0.19421509 -0.3254436
0.20518865 -0.15327702 -0.02853354 0.069222525 -0.26388207 -0.0037683113 -0.45667592 -0.40061828
-0.28897303 0.21306546 0.08989498 0.02674658 -0.2725514 0.580914 -0.5340676 0.057978302
0.044621266 -0.7871906 -0.08578593 0.42453915 -0.12253308 -0.92215663 0.2530937 0.15486859
0.44329026 1.0238253 0.1606385 -0.21570258 -0.2293448 -0.7225851 -0.39709568 -0.13782293
0.45070335 -0.90551895 -0.12774354 -0.43075743 -0.2173026 -0.45067555 0.6606823 -0.14385766
-0.28234658 -0.4059259 -0.63225585 -0.7366039 -0.35312185 0.27926284 -0.3081458 0.15037572
-0.6004881 -0.066153675 -0.21948078 -3.2974656 0.45931894 0.5974356 0.2653952 -3.1556628
-0.023822624 -2.3447483 -0.2864909 0.018447693 -0.07040196 -1.5228724 -1.1906662 -0.05532567
0.10025444 0.2885636 -1.0267372 -0.002831901 0.23633507 -3.8055224 0.93051136 0.7871687
-0.12257614 -3.3467126 0.0141306585 -2.353732 -0.099425785 -0.14761181 -0.23559976 -0.12908547
0.1315321 0.1441276 -0.14360707 -0.25719655 0.2476295 -0.12012574 -0.13264851 -1.0157738
-0.6154456 0.034106087 0.5773381 -0.21714048 0.36314303 0.95534354 0.32179055 -0.60436195
0.13203648 0.12705393 0.38356167 0.19119816 -0.40523025 0.21649 -0.16040258 0.2745039
-0.73097223 -0.17713106 0.015134931 -0.25781506 -0.0086508095 0.022976607 -0.17563722 -0.2221452
-0.09838295 -0.31227502 0.0125791775 -0.16594869 0.12793855 -0.15483636 -0.08952717 -0.16290921
0.025739918 0.1163676 -0.28199172 -0.5270959 -0.9884329 0.2052687 0.28072885 0.34490192
0.14954565 -0.55623066 -0.049684767 -0.6601652 0.39442715 0.71828663 -0.2883829 -0.031199547
-0.36068174 0.5528731 -0.11171238 0.31348056 0.28069088 -0.35410008 -0.47257808 -0.43413427
0.24590006 0.21131553 -0.1840369 -1.269091 0.3659682 0.62799865 -0.62162995 -0.9120593
-0.25627482 0.04865376 0.35316166 0.07319744 -0.7508769 -0.06657188 -0.04640243 0.5147982
0.7884508 0.5992765 -0.20822969 -0.19656953 0.25010338 -0.08048145 -0.23667057 0.07426635
0.8720872 1.0195783 -0.03964934 -0.053888973 -0.8389291 -1.1032296 0.020942762 0.0539443
0.016886678 0.5714445 1.1124084 0.12900594 0.14612934 -0.56227833 0.25608188 -0.11908317
-0.10188867 0.52105343 0.31659344 0.6025009 -0.47268143 -0.25988612 -0.17433244 0.5205127
0.30519974 -0.2588361 0.11970155 -0.31905067 -2.2851398 0.5831277 -0.083183326 0.4697474
-0.48119444 -0.9413483 -0.22369891 -0.10000529 -0.36056015 -1.2120413 -0.36868855 -0.013390162

fc1.bias f4 [64]
00000000: d67b ca3f 3034 84be 0ec6 193f 4052 993f
00000010: c35e f2bf d5e0 8d3e 0100 1dbf c881 1dbf
00000020: edba 803f 0b51 a1bf 5bec c2be fa5f 0bc0
00000030: 54e8 20c0 3763 c0bf d825 38bd 2815 f5bf
00000040: 1ba9 9a3f ce22 9cbe 2341 7bbd 50a1 8ebf
00000050: b29a bb3f c407 babf 7932 03c0 86ff dd3f
00000060: e78a bd3f 4f22 0840 6aef 1c3f 03ff 14bf
00000070: c619 aebf 0f1e 1ebf fa5f c2bf ea3e 673f
00000080: 7458 c93d d3c5 15bd fecb 1ac0 0889 b33f
00000090: 7f18 a83e 87fa c0bf 9136 dabf da23 c23e
000000a0: ede1 dcbf 852c e5bf 43d8 fabf a875 463e
000000b0: 22ce 5fbf b883 523d d8e2 7b3f da46 79bf
000000c0: e4e1 993f a31f c73f 22eb 9fbe 3e91 9d3f
000000d0: e443 d2be c1f4 a73e de5f 0a3f 3d2b e7bf
000000e0: b529 b53f 9788 b0bf 9df4 03c0 abb3 a13f
000000f0: b04f 5bbe 2f0c c73b 918d 863f 93ec 64bf
1.5819042 -0.25821066 0.6006783 1.1978226 -1.8935169 0.27710596 -0.6132813 -0.61526155
1.0057045 -1.2602857 -0.3807095 -2.177733 -2.5141802 -1.5030278 -0.044957966 -1.9147081
1.2082857 -0.30495304 -0.061341416 -1.1142979 1.4656584 -1.453362 -2.0499556 1.7343605
1.4808015 2.127094 0.61302817 -0.58201617 -1.3601615 -0.61764616 -1.518554 0.90330374
0.09831324 -0.036565613 -2.4187007 1.4026194 0.3283119 -1.5076455 -1.7047902 0.37917978
-1.7256447 -1.7904211 -1.9597248 0.1938082 -0.8742391 0.051395148 0.9839301 -0.97373736
1.2022061 1.555653 -0.3123408 1.2309949 -0.4106742 0.3280392 0.5405253 -1.806007
1.4153353 -1.3791684 -2.061805 1.2632955 -0.21417117 0.0060744504 1.0511953 -0.89423484

fc2.weight f4 [64, 64]
00000000: 4b2e 86be 467a c53c 61c1 973f bdd2 10be
00000010: d5da 993e 402c abbb db10 083e 3409 dcbe
00000020: e6b1 a5bd caef aebb 2aa3 9a3c 8f13 d43e
00000030: a8ce b33d 86af de3e 0c69 443d 1e73 34be
00000040: 74f2 b9bd 584e da3c 3fff b5bd 2968 183f
00000050: 1cab 9bbe 377c 5d3e b217 da3e cccb 4dbe
00000060: 327f 9fbf 2257 67be feb0 2dbf 38c9 2b3e
00000070: f25e 0fbe 08a8 ffbc cecd 733d 5b95 7ebf
00000080: 6983 d3bd 4bec 433e 97f0 c5bd 071d f2be
00000090: 5876 19bd 3b2e ab3d c7f7 4ebe 32e6 15be
000000a0: 79ab 493f a23e 6d3e 89fb ad3e ea0f 3b3d
000000b0: 6181 403f c0c2 8b3b 0c82 91be 3a6e dd3e
000000c0: c966 a9be 4abe f5be 4185 e53d 860c 88bd
000000d0: c6b6 5c3e 88cf 4c3d 4328 8ebd 8795 a4be
000000e0: bef0 19bf 35d4 563e b0b2 903e 94da 5fbf
000000f0: c0ea 643c d9f3 063e 456c 76bd 7581 16be
00000100: 50e9 73be 4a12 97bd 99a0 a73e 1de3 23bc
00000110: 510d 39bf 70df c43d 3a74 51be c6c0 2e3d
00000120: 3e9a e2be 9bf8 d9bd ddbe d73c bdd8 f63e
00000130: b234 bebd e383 b23e 38f7 63bd 7ba0 cdbd
00000140: 0d7c 01bf 0021 0e3d ca59 6abd f7d8 a0bc
00000150: 54b6 5ebd ff94 e93d 0508 b6bd d809 50bd
00000160: 8797 2d3f 98cd 53bd c456 f537 26d2 26be
00000170: 6635 e03e 035c c23d 6837 dfbc a5b6 dd3e
00000180: 5139 293d 985c c8ba 9759 8cbe 060f 5ebe
00000190: b0c6 dbbc 589c 83be c99b 1a3d 7cdc 09bd
000001a0: dabb 5bbe 1c51 0a3d ffec 26bf 5949 24bd
000001b0: 5c1f 843e fcf7 dcbd e49b 8fbe 21dc 9cbe
000001c0: fd81 5bbe c6dc 58bd e6fa 823c 1c7b 0ebe
000001d0: 52f6 0fbe 16ab ec3d b238 1c3d 92dd cbbd
000001e0: 14a9 94be ff98 183d 3589 bbbc e9ef bbbe
000001f0: 74f9 6a3d 6d54 273d 5295 d53d b8b1 00bd
00000200: 805e babe a722 7cbf 5fd9 733e ca38 f83a
00000210: 56f1 203f fbf1 0abd 0f3a 393e 10cd 1d3d
00000220: c51d 393f e53a 323e 7f77 003e 7344 2abf
00000230: dacd b9bf 1bed d6bf 0e99 ed3d 4067 ba3e
00000240: e2f2 a1bf a447 5f3d ca97 a1bd 21a6 7f3e
00000250: a89b abbd 44c1 57bf e1b3 a53e 141a 2abe
00000260: 7161 0340 2f45 e6bd 12c8 c73d 1e48 19c0
00000270: 5857 353c b773 7abf 6e7d 8c3e 8334 253f
00000280: d65e 09bf 84cd 73bf d802 d0be a141 53be
00000290: dcdd b33d dc53 90be 885a 62bd 8284 0b3e
000002a0: 7a01 a6bf 8555 583f 019e bd3e 934e b93d
000002b0: a990 803f 1a59 c1bd 2dfe cabe a85d c7be
000002c0: 12a4 0f3f dc6f 97be f1b9 6dbf fd47 43bf
000002d0: a9e0 d2bf 665b c73d 15b3 c3be 4dac 0abf
000002e0: 33f6 053c 6d67 2dbf aaf0 7b3d 21ff 653f
000002f0: 00db 8fbd 66d8 1f3c f9e5 303d 7909 e4bf
00000300: 6858 9e3b 2461 6ebe 68b4 dabd 8c37 f33d
00000310: 9c13 3abe 60de 6dbd b91f 2dbe d1eb 15bf
00000320: e02d 38bd 7ef6 2fba 27ba c33b 340b 343e
00000330: e642 a4bd ae01 563d 6ef8 9bbd 32fe f6bd
00000340: fc7e 78bd a8ef 933c f67f ac3d bbff 01be
00000350: d252 0abe 5e59 a8be 92bf 99bd 27fa c0bd
00000360: 0e6d b3bd 57f8 5cbd 27b0 0fbe 97ab 273e
00000370: e120 97be 907b d7bd 1002 ffbc 8d1d d4be
00000380: a877 973d 9a48 4bbf 8c21 553d 3030 d6bd
00000390: 00b0 7ebb aca6 e1bd 7b8c aebe 7ad8 aebd
000003a0: 5aa1 013e 9731 84be 0263 a7be 00d3 1c3b
000003b0: 5a05 92bd b8f1 d6bc b65c 21be 52b1 18bd
000003c0: 6141 a8bb cadf 1ebe fdae 93bc 7c74 c5bd
000003d0: 8f64 8b3e 9813 35bd ffee 0d3d 5598 783d
000003e0: bc58 b8bd 912c 153b 8675 9fbe e4f9 723c
000003f0: 2a70 c83d c489 e13d 00a8 823d 26d8 20bd
-0.26207194 0.024106156 1.185589 -0.1414289 0.30049768 -0.005223781 0.1328768 -0.4297577
-0.08090572 -0.0053386437 0.01887663 0.41421172 0.08779651 0.4349329 0.047951743 -0.17622039
-0.090794474 0.026648685 -0.08886575 0.59533936 -0.30403984 0.21629415 0.42596203 -0.20097274
-1.2460692 -0.22591832 -0.67848194 0.16775978 -0.14001063 -0.031208053 0.059522443 -0.9944665
-0.10327799 0.19133107 -0.096650295 -0.4728777 -0.037466377 0.08358427 -0.20211707 -0.14638594
0.7877727 0.23168424 0.3398097 0.045669474 0.75197417 0.0042651594 -0.2841953 0.4324816
-0.3308623 -0.47996742 0.11207057 -0.06643014 0.21554098 0.050002605 -0.06941273 -0.3214533
-0.6013297 0.20979388 0.28261328 -0.874429 0.013971984 0.13178958 -0.060161848 -0.14697821
-0.2381947 -0.07376535 0.32739714 -0.0100028785 -0.72285944 0.0961293 -0.20454493 0.04266431
-0.44258302 -0.10643121 0.026336128 0.48212233 -0.092873946 0.34866247 -0.055655688 -0.10040375
-0.5057991 0.03469944 -0.057214536 -0.019634707 -0.0543731 0.11405372 -0.08888248 -0.050790638
0.6780934 -0.05170974 2.924668e-05 -0.16291103 0.4379074 0.09490206 -0.0272481 0.4330341
0.041314427 -0.0015286384 -0.27412102 -0.21685418 -0.02682814 -0.25705218 0.037746225 -0.033657536
-0.21458378 0.03376876 -0.6520538 -0.040109012 0.25805175 -0.10789487 -0.28048623 -0.30636695
-0.21436305 -0.05294492 0.015988778 -0.1391415 -0.14058807 0.115560696 0.038140006 -0.099543706
-0.29035246 0.037255283 -0.022892574 -0.36706474 0.057366803 0.040852 0.10428871 -0.031419486
-0.36400223 -0.98490375 0.23813389 0.0018937823 0.6286825 -0.033922177 0.18088554 0.03852564
0.7231105 0.17405279 0.12545584 -0.66510695 -1.4515946 -1.6791109 0.116014585 0.36406898
-1.2652247 0.05451168 -0.078902796 0.24965717 -0.083792984 -0.84279275 0.323638 -0.1661151
2.0528224 -0.112436645 0.09754957 -2.3950267 0.011068188 -0.97832817 0.27439445 0.6453325
-0.53660333 -0.95235467 -0.4062717 -0.20630504 0.08782551 -0.2818898 -0.05526212 0.13624766
-1.2969201 0.8450549 0.3703461 0.0904819 1.0044147 -0.09440823 -0.39647046 -0.38938642
0.56109726 -0.2957753 -0.9286185 -0.7628172 -1.6474811 0.0973423 -0.38222566 -0.5416916
0.008176374 -0.6773594 0.061508812 0.8984242 -0.07024193 0.009756183 0.04318807 -1.7815391
0.004832316 -0.23279244 -0.10678941 0.11875829 -0.18171543 -0.0580734 -0.16906632 -0.5856295
-0.044965625 -0.00067124504 0.005973119 0.17582399 -0.08020572 0.052247696 -0.076157436 -0.12060203
-0.060667977 0.018058613 0.08422844 -0.1269521 -0.13508156 -0.32880682 -0.07507242 -0.09422713
-0.08761035 -0.053947773 -0.1403204 0.1637405 -0.29517272 -0.105216146 -0.031128913 -0.41428795
0.073958695 -0.79407656 0.052033946 -0.1045841 -0.0038862228 -0.11018118 -0.34091553 -0.085373834
0.12659207 -0.25819084 -0.32692724 0.0023929477 -0.07129927 -0.026238307 -0.15758023 -0.03727848
-0.005134747 -0.15515056 -0.018027777 -0.09641358 0.27225158 -0.04420814 0.034651753 0.06069215
-0.090013 0.002276216 -0.3114435 0.014830086 0.097870186 0.11012605 0.063797 -0.039268635

fc2.bias f4 [64]
00000000: a3cf 0fbe e4ff b6be 1d68 76bf 0455 bfbd
00000010: 338c 153f 6cf0 8dbd e9aa 14bf 5789 a33f
00000020: ece9 3e3f 78a5 d4bd 734d 47bd 8d08 993d
00000030: e6c0 d13e 17a2 81bf 1c45 62bf c959 44bd
00000040: 0dbf 0dbd 4fed 46be 348b bd3d 0158 9e3d
00000050: d624 71be a67a bf3f 0be1 0abe e798 a03c
00000060: 648e bdbe 2973 2abe 5659 2fbe 8e7d 48bf
00000070: 8eb4 abbe 888d 3dbf 31b9 6fbd 8c04 f83f
00000080: 60af f63d 2ae9 5fbd 69f1 ec3f 3884 e73f
00000090: 9d81 a9bd ad9f 753c aa8a 5c3f 2f99 57bf
000000a0: 0314 1dbe 0d17 ad3c 5ff2 5e3c 6d7d 0abf
000000b0: c053 81bd 608c 6bbf d473 61bf 6448 0abf
000000c0: 887f 713e 6a41 d4be 2e6a b83e 6ab8 803b
000000d0: 7b05 ddbe 074c 173f 183f c83e f756 123f
000000e0: 746d 9c3d 053b 4dbc c674 70bf 2e5e 83bf
000000f0: 2ac9 963f 4ee1 cf3d 9964 babd f18a 1fbd
-0.14044051 -0.35742104 -0.96252614 -0.09342387 0.5841705 -0.069306225 -0.5807329 1.2776288
0.74575686 -0.10383123 -0.048657846 0.07472334 0.40967482 -1.0127591 -0.883867 -0.04793719
-0.03460603 -0.19426464 0.092550665 0.07731629 -0.23549208 1.4959304 -0.1356241 0.01960416
-0.37022698 -0.16645493 -0.17123923 -0.7831658 -0.3353619 -0.74044085 -0.05852622 1.9376388
0.12045169 -0.054665722 1.8511173 1.8087225 -0.08276675 0.014991683 0.86149085 -0.84218115
-0.15339665 0.021129156 0.01360759 -0.54097635 -0.06314802 -0.9201107 -0.88067365 -0.5401671
0.23583806 -0.41456157 0.3601851 0.003928234 -0.43168244 0.59100384 0.39110637 0.5716395
0.07638064 -0.012526278 -0.9392818 -1.0263116 1.178014 0.10150395 -0.09101219 -0.038950864

fc3.weight f4 [20, 64]
00000000: eaff a53e ec7e 3ebd 2e8b 9ebe 7cbe 033e
00000010: f523 5b3d 50c1 7b3d 7a54 8f3d 329b d03e
00000020: d28e e43e 4445 9a3e a0b1 dfbd dfd6 6bbd
00000030: a0e9 783d 382e edbd 5b3a df3e c032 9cbd
00000040: 9ff9 873d 8194 6d3e f88d 623d edd3 e83c
00000050: 2070 a1bc ad52 023f 2c02 c3bd ec84 ce3d
00000060: 04b2 113d 846d dfbd 277c 953c bb18 103f
00000070: 6119 bd3b 1e44 b13d f3e4 c639 5453 d13e
00000080: 3b65 733c 4437 4dbd 981a 343f ec7e 463f
00000090: 7a2c eebd 182b 8fbd cb74 c6be 1ce1 153e
000000a0: 6b21 6d3c 5039 583d 7539 1f3c 8195 123f
000000b0: 722e 993d 97ee 01bc a1c8 8a3e 9679 853b
000000c0: 98d2 823d a8f7 16bc abe7 59bf 2cc2 d23d
000000d0: 0376 4f3e 3016 7ebe 152c 2fba a6b8 bcbc
000000e0: 37f9 95bd 157a 5e3d fc87 80be 81e9 84bd
000000f0: bf08 7b3f 2890 2cbd d06b 7cbd c48b 33bd
00000100: 8a2b d33e f417 233d 2e39 7ebe 8475 33be
00000110: 3f7f 93be f026 1b3c f283 273d 872e c23e
00000120: d234 bc3e 00af 5bbe edb6 dfbd 70a7 dc3d
00000130: d597 d43d 26b9 13be 548b 803e e8e0 803c
00000140: c11f 133d 376f 833e 60b0 05bc 1cf7 ab3d
00000150: 6ede d03d 72b0 0a3f 0cf0 243d 4d03 053d
00000160: 7999 e23d 823b e8bd 8408 9c3d 1559 963e
00000170: 6f53 523e 335a 4f3d 62b2 d8bd f216 a03e
00000180: 1a68 79bd 48ad 10bd f842 343f f091 283f
00000190: a278 2cbc c04f bc3b 3604 80bf a497 493e
000001a0: 812e 93bc ee60 dcbd 200b 093e b709 9f3e
000001b0: 6cdd 2f3d de71 43bd 8dfc 1b3e 6b8f 8d3d
000001c0: 8b3b d13e d0d1 0d3d 0ef6 f5be 79b5 38bd
000001d0: 7db7 703e eaab c4be f68f ff3d fe0d 8f3e
000001e0: 82be f13c 3c69 aabc b191 6f3d a066 a4bd
000001f0: d446 a93f db41 90bd dca3 633d d46e e13d
00000200: fa04 d73e f526 b8bd f0d3 57be bfcd 60bc
00000210: 09b2 a83e 1411 fabd ba96 b83e 610a cb3e
00000220: 9fbe e93e 41c5 7d3c 999c bbbd 2bc1 023e
00000230: 2a1b e93d e4f2 47be a174 9c3e 4ea6 b03d
00000240: 64f1 573d f739 e23e 00ae 5f3a 94b4 383d
00000250: 3c1b 96be ce0a 053f 2ec5 c9bd 8d11 843d
00000260: f537 64bd b8b7 d03c 4ab1 9d3c 4995 3cbe
00000270: 4311 033d 4adc aebd 0808 afbc 9ea6 973e
00000280: a6cb 2f3d 600b 58bc eab0 333f 7c80 283f
00000290: fdfc cc3c f8ad da3d 6822 8f3d 842d 2d3e
000002a0: 14a5 943d 6096 85bd e0be 4d3e dc2d 283f
000002b0: 6041 e8bb 28b5 5dbe 7d19 b43d eaf3 49bd
000002c0: 7b2f 1e3e 95a5 ebbc 511e 35be 9ef7 83bd
000002d0: 1ab1 01bf 7b2b 24bf 29d3 ed3d 7fca 253e
000002e0: f05c 8abb 22d4 92bd 2c20 a8bd e46d f5bd
000002f0: cb63 853f 6285 ed3d 28e1 ec3c e8ea 60bd
00000300: b718 af3e a033 ca3a c54c 0abe bdb8 823c
00000310: 37c0 ca3d 28d0 9dbc ecd1 523e 5879 f73e
00000320: 66ea 0c3f 97ee e7be 2362 c83b 686d 963d
00000330: e016 e03d 4ff9 93be e16b 723e 6155 643c
00000340: ce1a cb3d d6f4 da3e 164e 8ebd 1a26 213e
00000350: e9a2 a93d ffff 023f ee9c c93d 1206 1dbd
00000360: 1b6e 403d 981c febd 93fc 7abd 7ca2 ae3c
00000370: cf11 54be 696e d7bd 6609 9abd ee26 603e
00000380: 903b f8b9 b492 963d 739f 153f e482 1c3f
00000390: 349c 58bd 0aaf d3bd cc78 cf3d b382 87bd
000003a0: f906 0f3d ce05 f93c cf20 83bd d49e bd3e
000003b0: 28bb c83c df4f 82be 8984 a63e ff49 71be
000003c0: 82fa b93e 7554 1fbd 8503 8dbe 0072 fcbc
000003d0: 456d 8e3d d401 eebe d4a3 9a3d de10 703e
000003e0: 8d4d 0fbd 3c3c 433d 1479 41be 997f 91be
000003f0: 45af 683f 24ce 213c 200e 97bd c495 a7bd
0.3242181 -0.04650776 -0.3096556 0.12865633 0.05350109 0.061463654 0.069985345 0.40743405
0.44640213 0.3013097 -0.10922551 -0.057577964 0.060769677 -0.11581081 0.4359921 -0.07626867
0.06639408 0.23201181 0.055311173 0.028421367 -0.019706786 0.50907403 -0.095218986 0.100839466
0.03557016 -0.1090956 0.018247677 0.56287736 0.0057708477 0.086555704 0.00037936083 0.40883887
0.014855678 -0.050101534 0.7035308 0.7753742 -0.11629577 -0.06990641 -0.3876098 0.14636654
0.0144732995 0.052789032 0.009718289 0.57259375 0.07479562 -0.007930419 0.27106193 0.004073332
0.06387824 -0.009214319 -0.8511912 0.102909416 0.20259862 -0.24813151 -0.0006682289 -0.023037266
-0.073229246 0.054315645 -0.25103748 -0.0648985 0.9806022 -0.042129666 -0.061626256 -0.043834463
0.41244155 0.039817765 -0.248265 -0.17525297 -0.2880802 0.009469733 0.040897317 0.37926123
0.3675905 -0.21453476 -0.10923562 0.10774124 0.10380522 -0.14426097 0.251063 0.015732244
0.035918955 0.25670788 -0.008159727 0.08396742 0.10198675 0.54175484 0.04026799 0.03247385
0.11064429 -0.11339475 0.07618812 0.2936484 0.2053964 0.05062313 -0.10580899 0.31267506
-0.060890295 -0.035321504 0.70414686 0.6584768 -0.010526808 0.0057468116 -1.0001285 0.19686753
-0.01796651 -0.10760675 0.1338315 0.310621 0.042935774 -0.047716014 0.15233059 0.069121204
0.4086574 0.03462392 -0.48039287 -0.04509494 0.23507495 -0.3841241 0.1247863 0.27940363
0.029509787 -0.020802133 0.05848855 -0.08027387 1.322474 -0.07043811 0.05557619 0.11007467
0.41995984 -0.089918055 -0.21076941 -0.013720929 0.3294833 -0.12210289 0.36052495 0.39656356
0.45653245 0.0154889235 -0.09160728 0.12769 0.11382134 -0.19526249 0.3055773 0.0862547
0.052720442 0.4418485 0.0008532703 0.045094088 -0.29317653 0.5196961 -0.09852062 0.0644866
-0.055717427 0.025478229 0.019249577 -0.18416323 0.031998884 -0.085381106 -0.021366134 0.29619306
0.042918824 -0.013186306 0.70191824 0.6582105 0.025022978 0.10677713 0.06988984 0.16911894
0.07258049 -0.065228224 0.20092344 0.65694976 -0.0070878714 -0.21651137 0.08793924 -0.04930488
0.154478 -0.02876548 -0.17687346 -0.064437136 -0.5066086 -0.64128846 0.11612541 0.16190527
-0.004222505 -0.071693674 -0.08209261 -0.119838506 1.0421079 0.115977064 0.028915957 -0.054911524
0.34198543 0.0015426762 -0.13505848 0.01595723 0.09899943 -0.019264296 0.20587891 0.48334765
0.55045164 -0.45299217 0.0061152144 0.07345086 0.10941863 -0.28901145 0.23673965 0.013936372
0.09917222 0.4276492 -0.069484875 0.15737191 0.08283026 0.5117187 0.09844385 -0.038335867
0.046980005 -0.124077976 -0.06127603 0.021317713 -0.20709918 -0.10519106 -0.07521324 0.2188985
-0.00047346624 0.073522 0.58446425 0.61137223 -0.052883342 -0.103361204 0.10130462 -0.06616726
0.03491876 0.030398276 -0.06402742 0.3703524 0.024503306 -0.25451562 0.3252299 -0.23563384
0.36323935 -0.038898904 -0.27541748 -0.030816078 0.06954435 -0.4648577 0.07550779 0.23443934
-0.034986068 0.047664866 -0.18893844 -0.28417662 0.9089244 0.009875808 -0.07375741 -0.081828624

fc3.bias f4 [20]
00000000: 35e3 e43f fc7d 923e f1ad 423f e4bd 8c3f
00000010: 5d41 e33d e474 2a3f e816 5c3f b667 2b3f
00000020: 2cd5 5b3f fb24 b83e bce8 1e3f 4976 883e
00000030: 518c 543e e097 a03d e188 483f b2ff 46be
00000040: 5472 cfbd fd77 b9be c311 163e f8b1 c8bd
1.7881838 0.28611743 0.76046664 1.099545 0.110964514 0.6658461 0.8597245 0.66955125
0.8587215 0.35965714 0.62073874 0.26652744 0.20756651 0.07841468 0.7833386 -0.19433478
-0.10129228 -0.36224356 0.14655213 -0.0979957

fc1.weight f4 [64, 9]
00000000: 025e db3e 99f8 1b3f b71c cdbd 9080 a3bd
00000010: 7493 963d f0cc b83e d254 713e 74db ec3e
00000020: 1f22 1a3f 8fb8 f9be a447 a13e ca0a 95be
00000030: 6b05 f5be 65c1 8ebd 2df9 e33c b0a2 0a3f
00000040: b353 3bbe 13a5 cebe ccbf d93e b545 e9be
00000050: a6cf 6dbf 37c4 0b3f 969b efbe c6e5 dcbe
00000060: 4ca0 cbbd 3002 3e3f 1659 c93e 6c17 483e
00000070: a552 383e 8885 e83d 5ed4 eabe 9d2b 23bf
00000080: 8cf1 bf3e e4fe 4fbd 0193 abbd a343 9c3e
00000090: 50ad 92bf 48d8 12bf c014 b03e 0ef7 f93e
000000a0: 3c16 17bf 1847 25bd 8aed e9be ff50 a4bd
000000b0: 2eee 0fbf e738 37bd c4e0 46be d99e a6be
000000c0: b51f 523e 41f2 1cbe aabe e9bc 63c7 8d3d
000000d0: 6e18 87be 85f5 76bb 32d2 e9be 721e cdbe
000000e0: 89f1 93be 2432 5a3e 5f1f b83d 841c db3c
000000f0: 2a89 8bbe c1b8 143f 80b6 08bf c510 7a3d
00000100: f9d5 6b3b ae5d 3bbf 0d14 c3bd 0294 dd3e
00000110: 2192 b2bd d861 66bf 117a 793e 6b98 423e
00000120: c67e dc3e 2ae7 823f f8f1 303e 94ea 56be
00000130: 5337 6cbe 30de 40bf 2944 cdbe 6163 08be
00000140: c013 dd3e 1242 71bf 25d2 04be e002 d9be
00000150: c033 61be 2aa2 f9be a6f5 273f 0e1c 24be
00000160: 69e7 91be c690 d9be 2dd8 21bf 1c90 3cbf
00000170: cdcb b4be e4ff 8e3e 32c5 9dbe 5500 1a3e
00000180: 06ba 19bf 177a 87bd f2bd 60be 430f 53c0
00000190: 1004 e43e ef0d 173f cd4b 853e 18fc 49c0
000001a0: 34e7 04bd 1615 16c0 f545 95be 91a7 773c
000001b0: 65c0 b1bd a7c3 bcbf 0da2 97bf 7130 89bc
000001c0: 1584 ab3d 698a 943e 763c 80bf 206c 123d
000001d0: cf70 763e ea9f 72c0 7756 6f3f 4684 483f
000001e0: 2698 17be 9d42 55c0 7bd8 123c 74ca 15c0
000001f0: 69c6 ffbd de5f 13be 1041 71be fb2e 04be
00000200: 5ab0 063e 3096 133e bb0d 13be 44af 83be
00000210: 9692 7d3e 7c04 f6bd 03d5 07be 1e34 7dbf
00000220: 3f81 12bf 47a5 413c ad03 123f 03c7 47be
00000230: 1ef8 be3e 2bf3 713f a6d2 a33e 517e 1ebf
00000240: 43d6 973d 4fcb fe3d f555 c73e aee8 443e
00000250: b4ac f6be 974b 643e 466e 56be c007 8b3e
00000260: 6a6e 38bf d861 35be 80f8 773c 5600 84be
00000270: 20bc 0dbc 7039 bc3c 3eda 33be 087a 63be
00000280: 007d c9bd 83e2 9fbe 591c 4e3c 84ee 29be
00000290: 7205 033e 6a8c 1ebe 2758 b7bd a1d1 26be
000002a0: 1ddf d23c 7556 ee3d 765f 90be 76ed 06bf
000002b0: 3a08 7dbf 3d33 523e 4dbf 8f3e 9199 b03e
000002c0: 9525 193e a563 0ebf 6080 4bbd 3b00 29bf
000002d0: 8437 cc3e eb60 363f 8435 93be e74b e2bc
000002e0: a767 b5be e853 0d3f 4443 e1bd 11e3 a33e
000002f0: 798e 8e3e 8dbd b3be 557e fcbe c3f0 d6be
00000300: c407 943e 5928 583e 5967 3dbe cf8d a1bf
00000310: 7a81 d13e 7118 1d3f db20 1fbf 427c 69bf
00000320: 5334 83be 3c4a 473d 9cd3 b43e 72e9 953d
00000330: 9f39 40bf d854 88bd ed0e 3ebd 5a6b 063f
00000340: 96f6 473f e8a9 193f e7bc 50be 8988 3fbe
00000350: f536 7d3e 6967 9cbd 376f 6abe 1c19 973d
00000360: c246 5a3f faf7 813f 4754 34bd b5fc 31bd
00000370: 3c52 58bf 6855 8cbf e691 86bc c7f7 833d
00000380: 8251 823c c341 143f c968 8d3f 9c36 043e
00000390: 3c91 183e 2f97 0dbf 3b93 813e 5c5c e9bd
000003a0: 5b5a c4bd 7c9f 043f 295c a63e 1dbf 183f
000003b0: 0c80 f0be d19b 76be 6080 20be d6db 063f
000003c0: cab5 8b3e 37a5 74be 8646 e93d 96b6 a8be
000003d0: 776c 10c0 0e27 183f b062 cdbd e828 eb3e
000003e0: 6601 eebe 3347 64bf 7a94 76be dc21 abbd
000003f0: 7898 b8be 6721 9bbf e4c2 bcbe d662 5bbc
0.4284516 0.60926205 -0.100152425 -0.07983506 0.07352343 0.36093855 0.23567513 0.4626118
0.60208315 -0.4877362 0.3149997 -0.29109794 -0.47855696 -0.06970481 0.027828777 0.5415449
-0.18293647 -0.40360317 0.42529142 -0.45560995 -0.9289497 0.54596275 -0.4679839 -0.43144053
-0.099426836 0.7422209 0.3932578 0.19540185 0.18000276 0.11353594 -0.45865148 -0.63738424
0.37488973 -0.050780192 -0.08377648 0.30520353 -1.1459141 -0.5736127 0.3439083 0.488213
-0.590183 -0.040351003 -0.4568904 -0.08023261 -0.5622281 -0.044732 -0.19421679 -0.32543066
0.20519908 -0.15326788 -0.028533299 0.069227956 -0.26385826 -0.0037682962 -0.4566818 -0.4006229
-0.28895214 0.2130819 0.089903586 0.026746996 -0.27253085 0.5809441 -0.5340347 0.06105115
0.0035985692 -0.7318982 -0.09525309 0.43276983 -0.08719278 -0.8999305 0.24362971 0.19003455
0.4306547 1.0226796 0.17279804 -0.20987922 -0.2306798 -0.7533903 -0.40091065 -0.1331916
0.4317913 -0.9424144 -0.12970789 -0.42385006 -0.21992397 -0.48756534 0.65609205 -0.16026327
-0.28496864 -0.42493266 -0.63220483 -0.73657393 -0.35311738 0.27929604 -0.3081451 0.15039189
-0.60049474 -0.06615084 -0.21947458 -3.2978065 0.4453435 0.59005636 0.26034394 -3.1560116
-0.032447055 -2.345037 -0.29154935 0.015115635 -0.086792745 -1.4747208 -1.1846329 -0.016746731
0.08374802 0.2901185 -1.0018451 0.035747647 0.2406647 -3.7910104 0.9349131 0.78326833
-0.14804134 -3.3321908 0.008962746 -2.3404818 -0.124890156 -0.14392039 -0.23559976 -0.12908547
0.1315321 0.1441276 -0.14360707 -0.25719655 0.2476295 -0.12012574 -0.13264851 -0.9890765
-0.57228464 0.01181919 0.5703686 -0.1950951 0.37298673 0.9451167 0.3199665 -0.61911494
0.07413914 0.12441122 0.38932768 0.19229385 -0.48178637 0.2229446 -0.20940503 0.2715435
-0.7204348 -0.17713106 0.015134931 -0.25781506 -0.0086508095 0.022976607 -0.17563722 -0.2221452
-0.09838295 -0.31227502 0.012580001 -0.16594893 0.12795046 -0.15483251 -0.089523606 -0.16290905
0.025741154 0.11637584 -0.2819783 -0.52706087 -0.9884068 0.20527358 0.28075638 0.34492162
0.14955743 -0.55620795 -0.049682975 -0.66015977 0.39886105 0.71241635 -0.28751767 -0.027624084
-0.35430643 0.55206156 -0.10999158 0.32009175 0.27843073 -0.35105553 -0.49315134 -0.41980562
0.28912175 0.21109141 -0.18496455 -1.2621402 0.40919095 0.6136542 -0.6215951 -0.9120523
-0.25625858 0.04865478 0.35317695 0.07319917 -0.7508792 -0.06656808 -0.046400953 0.52507555
0.78110635 0.6002488 -0.2038456 -0.18704428 0.24727996 -0.076369114 -0.22893988 0.07377836
0.8526422 1.0153801 -0.044025686 -0.04345389 -0.8450048 -1.0963564 -0.016426992 0.06443744
0.015908007 0.57912844 1.1047603 0.12911457 0.14899153 -0.5530881 0.2530764 -0.11394569
-0.095875464 0.51805854 0.32492188 0.59666616 -0.46972692 -0.24082877 -0.15673971 0.52679193
0.27287132 -0.2389115 0.113904044 -0.32951802 -2.2566202 0.5943459 -0.10028589 0.45929646
-0.46485442 -0.8917114 -0.24080077 -0.083560675 -0.36053824 -1.2119569 -0.3686744 -0.013390264

fc1.bias f4 [64]
00000000: 1139 c93f 3c32 84be 7a2d 153f 268a 973f
00000010: b95d f2bf bbe2 8d3e f9fd 1cbf 4981 18bf
00000020: 3801 813f 0e6b a3bf 21e9 c2be 5d8c 0bc0
00000030: dd50 1fc0 d458 bfbf d825 38bd 5b25 f4bf
00000040: e1dd 9c3f 3823 9cbe 303f 7bbd 3d9e 8ebf
00000050: 7487 ba3f d28b b8bf 6b30 03c0 0d16 dd3f
00000060: e523 bc3f 7d91 0740 0803 1a3f f58d 14bf
00000070: ef18 aebf b5a8 22bf 8087 c9bf 9575 683f
00000080: ecce ad3d a10e 04bd 9095 18c0 3faa b23f
00000090: 7f18 a83e 709e bfbf 0d36 dabf da56 bf3e
000000a0: a266 dbbf 97f6 e8bf b8d5 fabf 4b77 463e
000000b0: dc76 58bf b883 523d d6e8 813f 82c8 78bf
000000c0: 6672 9c3f a8cc c53f 13e8 9fbe 6bf1 9a3f
000000d0: deab dabe c1f4 a73e 2770 0a3f c3af e1bf
000000e0: b5b1 b33f 3a88 afbf 8b92 03c0 0853 a23f
000000f0: b04f 5bbe a30f c73b b58f 863f dde2 60bf
1.572054 -0.25819576 0.58272517 1.1839035 -1.8934852 0.27712044 -0.6132503 -0.59572273
1.0078497 -1.2767045 -0.38068488 -2.180442 -2.4893105 -1.4948983 -0.044957966 -1.90739
1.2255212 -0.3049562 -0.061339557 -1.114204 1.4572587 -1.441767 -2.0498302 1.7272354
1.4698454 2.118255 0.60160875 -0.5802911 -1.3601359 -0.63538677 -1.5744476 0.90804416
0.08486733 -0.032240514 -2.3841286 1.3958205 0.3283119 -1.4970226 -1.7047745 0.3737095
-1.7140696 -1.8200253 -1.9596472 0.19381444 -0.84556365 0.051395148 1.0149181 -0.9718095
1.2222412 1.5453081 -0.31231746 1.2104925 -0.4270925 0.3280392 0.5407738 -1.7631763
1.4038607 -1.3713448 -2.0558193 1.2681589 -0.21417117 0.006074862 1.0512606 -0.87846166

fc2.weight f4 [64, 64]
00000000: 0e2e 86be 4a7d c53c 35be 973f bfd0 10be
00000010: 2ddd 993e 402c abbb 6e12 083e e606 dcbe
00000020: 90b0 a5bd c8ef aebb 66a4 9a3c 9e17 d43e
00000030: e4cd b33d 7fb2 de3e 0c69 443d f571 34be
00000040: 20f4 b9bd 584e da3c 7efc b5bd 146a 183f
00000050: 20aa 9bbe ff79 5d3e cd16 da3e 52ca 4dbe
00000060: 9b7e 9fbf 7855 67be 77af 2dbf 14cb 2b3e
00000070: a55d 0fbe 1ca8 ffbc d1d0 733d c392 7ebf
00000080: 2f83 d3bd d9ee 433e 94ee c5bd 511b f2be
00000090: 5876 19bd ed2a ab3d 1bf7 4ebe 8be5 15be
000000a0: 86af 493f 1c41 6d3e aff9 ad3e 4911 3b3d
000000b0: ef7f 403f c0c2 8b3b 8780 91be 2e72 dd3e
000000c0: b269 a9be 04bd f5be 8588 e53d 9f0a 88bd
000000d0: 96ba 5c3e 88cf 4c3d 2425 8ebd 6793 a4be
000000e0: b6f0 19bf c1d6 563e 66b5 903e 60db 5fbf
000000f0: c0ea 643c 5ef1 063e cc6c 76bd cb81 16be
00000100: 42e8 73be 5412 97bd aaa0 a73e 9fe3 23bc
00000110: 9011 39bf 0ae1 c43d d573 51be cfc4 2e3d
00000120: 6b9e e2be 8cf7 d9bd 22c1 d73c 2cda f63e
00000130: 1532 bebd c285 b23e 38f7 63bd 5a9f cdbd
00000140: ea7a 01bf 3c21 0e3d 0257 6abd 5cd6 a0bc
00000150: 68b6 5ebd 9997 e93d 3608 b6bd 8c08 50bd
00000160: 0798 2d3f 67cd 53bd 5b5b f537 88d5 26be
00000170: 3a35 e03e 6860 c23d 5137 dfbc 98b4 dd3e
00000180: d23a 293d ae5b c8ba 3358 8cbe 700e 5ebe
00000190: b0c6 dbbc e499 83be 969c 1a3d 79db 09bd
000001a0: c6b8 5bbe a950 0a3d f9ec 26bf 2f49 24bd
000001b0: b41e 843e fcf7 dcbd 269c 8fbe d1da 9cbe
000001c0: fd85 5bbe 63da 58bd a2fd 823c 157b 0ebe
000001d0: fef5 0fbe 16ab ec3d a73a 1c3d 21de cbbd
000001e0: 22a9 94be dc9c 183d 628a bbbc f3ef bbbe
000001f0: 74f9 6a3d 8a52 273d 7096 d53d c9af 00bd
00000200: 62c7 b8be c121 7cbf d347 843e 8335 033d
00000210: 9bf5 203f d2f0 0abd 883c 393e 9e0b f23d
00000220: 5eb3 3b3f 8a3b 323e 1879 003e eb06 2fbf
00000230: 74cd b8bf 6484 c3bf 0e99 ed3d 17f0 ae3e
00000240: 72ec 8bbf a447 5f3d c595 a1bd 1ba8 7f3e
00000250: b05f b1bd 0229 56bf 77b4 a53e edc7 1fbe
00000260: 7eda fe3f a535 dcbd 18ea a53d df92 14c0
00000270: 8554 353c 7e3c 69bf 427f 8c3e a35b 243f
00000280: 8656 d7be 4e20 69bf 6a89 dbbe 2ba2 5bbe
00000290: dcdd b33d a557 90be 1b58 62bd 4185 0b3e
000002a0: 4e38 a5bf 323f 3d3f a49d bd3e 294c b93d
000002b0: 0149 9c3f 1a59 c1bd e7cb 1cbf 96fd d7be
000002c0: 2875 0f3f c604 93be 1cbe 6dbf d72a 40bf
000002d0: a595 c3bf 665b c73d cf90 94be 59f4 07bf
000002e0: d84b 6b3b 2696 2dbf e0f2 7b3d 1fb8 663f
000002f0: 00db 8fbd 5adc 1f3c b1e7 303d b509 e4bf
00000300: a159 9e3b 2d62 6ebe f4b6 dabd 7938 f33d
00000310: 6213 3abe 60de 6dbd ef1e 2dbe 73e9 15bf
00000320: 182b 38bd 68f9 2fba 11bc c33b 7c08 343e
00000330: 5f41 a4bd e9ff 553d 6ef8 9bbd 55fd f6bd
00000340: 0d80 78bd a8ef 933c f67f ac3d baff 01be
00000350: a950 0abe 4358 a8be eebd 99bd 07f9 c0bd
00000360: 3c6c b3bd 2ff5 5cbd 95b3 0fbe 61ac 273e
00000370: 0c1e 97be d27a d7bd 0b04 ffbc 871b d4be
00000380: cb7b 973d c845 4bbf 4021 553d c92e d6bd
00000390: 00b0 7ebb 6ba4 e1bd 388a aebe 58d8 aebd
000003a0: 129e 013e 542e 84be 2a62 a7be 01d3 1c3b
000003b0: 5805 92bd 1af2 d6bc 2d5b 21be 65b0 18bd
000003c0: d240 a8bb 73de 1ebe 21af 93bc 7a75 c5bd
000003d0: 0166 8b3e 9813 35bd 5bf2 0d3d 659b 783d
000003e0: 1056 b8bd f12d 153b e372 9fbe e1fd 723c
000003f0: 2a70 c83d c489 e13d b3a7 823d 5cd6 20bd
-0.26207012 0.024107594 1.1854922 -0.1414213 0.30051556 -0.005223781 0.1328828 -0.42974013
-0.08090317 -0.0053386427 0.01887722 0.41424268 0.08779505 0.43495557 0.047951743 -0.17621596
-0.09079766 0.026648685 -0.0888605 0.5953686 -0.30403233 0.21628569 0.4259552 -0.2009671
-1.2460512 -0.22591197 -0.67845863 0.16776687 -0.14000566 -0.03120809 0.059525315 -0.9944269
-0.10327756 0.19134082 -0.09664646 -0.47286466 -0.037466377 0.08357797 -0.20211451 -0.14638345
0.7878345 0.23169369 0.33979556 0.04567078 0.7519521 0.0042651594 -0.2841837 0.43251175
-0.33088452 -0.4799577 0.1120768 -0.06642651 0.21555552 0.050002605 -0.06940678 -0.3214371
-0.6013292 0.2098036 0.28263396 -0.87444115 0.013971984 0.13178012 -0.06016235 -0.1469795
-0.23819068 -0.07376543 0.32739764 -0.010003 -0.72292423 0.09613235 -0.20454343 0.04266816
-0.44261488 -0.10642919 0.02633721 0.48213327 -0.09286896 0.34867674 -0.055655688 -0.100401595
-0.50578177 0.034699664 -0.057211883 -0.019633465 -0.054373175 0.11405868 -0.08888285 -0.0507894
0.678101 -0.05170956 2.9248817e-05 -0.16292393 0.4379061 0.09491044 -0.027248057 0.43301845
0.04131586 -0.0015286112 -0.2741104 -0.21685195 -0.02682814 -0.25703347 0.03774699 -0.03365657
-0.21457204 0.03376833 -0.6520534 -0.040108856 0.25804675 -0.10789487 -0.2804882 -0.30635694
-0.21437831 -0.052942645 0.015990082 -0.1391414 -0.14058682 0.115560696 0.038141873 -0.09954477
-0.29035288 0.037258968 -0.022893135 -0.36706504 0.057366803 0.0408502 0.10429084 -0.03141764
-0.36089617 -0.98489004 0.25836048 0.032033455 0.62874764 -0.03392107 0.18089497 0.11818622
0.7332057 0.17405525 0.12546194 -0.6836993 -1.4437699 -1.5274777 0.116014585 0.3416755
-1.0931532 0.05451168 -0.078898944 0.24966471 -0.08660829 -0.8365632 0.32364246 -0.1560361
1.9910429 -0.107524194 0.081012905 -2.3214643 0.011067514 -0.9110793 0.2744084 0.64202327
-0.420582 -0.9106492 -0.42878276 -0.21448581 0.08782551 -0.28191867 -0.055259805 0.13625051
-1.2907808 0.73924553 0.37034333 0.090477295 1.2209779 -0.09440823 -0.6124863 -0.42185658
0.5603814 -0.2871458 -0.9286821 -0.7506537 -1.5280043 0.0973423 -0.2901673 -0.5310722
0.003590336 -0.67807233 0.06151092 0.90124696 -0.07024193 0.009757126 0.04318971 -1.7815462
0.004832462 -0.23279639 -0.10679427 0.11876006 -0.18171456 -0.0580734 -0.16906331 -0.5855934
-0.044962972 -0.00067128846 0.005973347 0.17581362 -0.08020281 0.052246008 -0.076157436 -0.12060038
-0.060668994 0.018058613 0.08422844 -0.12695208 -0.13507332 -0.32879838 -0.07506929 -0.09422498
-0.087608784 -0.053944763 -0.14033349 0.16374351 -0.2951511 -0.10521473 -0.031129858 -0.41427252
0.073966585 -0.7940335 0.052033663 -0.10458142 -0.0038862228 -0.11017688 -0.34089828 -0.08537358
0.12657955 -0.25816596 -0.3269208 0.002392948 -0.071299255 -0.02623849 -0.15757437 -0.037277598
-0.0051346803 -0.15514545 -0.018027844 -0.096415475 0.2722626 -0.04420814 0.034654956 0.06069507
-0.0900079 0.002276298 -0.3114234 0.014831037 0.097870186 0.11012605 0.06379642 -0.03926693

fc2.bias f4 [64]
00000000: eece 0fbe 4ffe b6be b723 74bf 2653 bfbd
00000010: 6191 153f 74ee 8dbd 349b 14bf 4581 a13f
00000020: d607 403f eb98 d4bd 3d4a 47bd 3d0a 993d
00000030: 271e d73e faa1 81bf 61f9 6ebf 5258 44bd
00000040: acbb 0dbd 538c 49be 038e bd3d a159 9e3d
00000050: 5704 68be e451 bd3f 32e1 0abe c39b a03c
00000060: 048e bdbe 5473 2abe 4059 2fbe 0636 48bf
00000070: 5a5d b7be 048e 3dbf efb9 6fbd 224a f63f
00000080: 1cb3 f63d 19e7 5fbd 8cd6 ea3f 3a1d e63f
00000090: 2481 a9bd 2df3 a33c 5fd8 5d3f da54 57bf
000000a0: 8111 1dbe 061b ad3c 696d f03c 1664 0abf
000000b0: da53 81bd 9b8b 6bbf ae4b 60bf f244 0abf
000000c0: 107f 713e b03e d4be 37e3 b23e 80bb 803b
000000d0: 3c7a ddbe f906 123f bcb0 cd3e 475b 123f
000000e0: 5771 9c3d ca39 4dbc f789 67bf 635b 83bf
000000f0: 5690 983f 63e5 cf3d 8261 babd 538a 1fbd
-0.14043781 -0.35740897 -0.95366997 -0.09342031 0.58424956 -0.06930247 -0.5804932 1.2617575
0.75011957 -0.10380729 -0.048654784 0.07472656 0.42015192 -1.0127556 -0.9334927 -0.04793579
-0.034602806 -0.19682436 0.09255602 0.07731939 -0.22657906 1.4790616 -0.13562468 0.019605523
-0.37022412 -0.16645557 -0.1712389 -0.78207433 -0.3581341 -0.74044824 -0.05852693 1.9241374
0.12045881 -0.05466375 1.8346725 1.7977669 -0.08276585 0.020013416 0.8665828 -0.8411385
-0.15338708 0.02113105 0.029349046 -0.5405897 -0.063148215 -0.92009896 -0.8761548 -0.5401145
0.23583627 -0.41454077 0.34938976 0.0039286017 -0.4325732 0.5704189 0.401739 0.5717053
0.07638805 -0.012525985 -0.9044489 -1.0262264 1.1919048 0.10151174 -0.091006294 -0.038950276

fc3.weight f4 [20, 64]
00000000: 9802 a63e 4d7c 3ebd 7a55 85be f3c0 033e
00000010: 5524 5b3d 50c1 7b3d 4515 903d 6a9c d03e
00000020: adbf d23e a646 9a3e 69b0 dfbd bad9 6bbd
00000030: a6a5 4e3d 952d edbd 18e7 c73e bf36 9cbd
00000040: fefa 873d dd7f 703e f88d 623d 49d4 e83c
00000050: 62c3 30bc c43d 023f 2c02 c3bd d285 ce3d
00000060: 67af 113d 016e dfbd fa7f 953c e172 0d3f
00000070: f2cd 813c 7145 b13d ace4 c639 d3f4 d23e
00000080: 5967 733c 4437 4dbd 1915 343f 0a6b 463f
00000090: 7d2b eebd 5696 9bbd 647d cbbe d1a3 153e
000000a0: c425 6d3c 5039 583d 83a4 ae3c 4a95 123f
000000b0: 722e 993d 19f0 01bc 47bf 773e 7576 853b
000000c0: abd2 823d e3fa 16bc 6631 61bf 2cc2 d23d
000000d0: ee3f 9c3d 758d 46be 9331 2fba 2cb7 bcbc
000000e0: 13f9 95bd cf7b 5e3d 1ee1 83be d5e9 84bd
000000f0: 8e45 693f 2890 2cbd e06f 7cbd c48b 33bd
00000100: 5729 d33e 7e18 233d 45ee 59be 0c74 33be
00000110: 4080 93be f026 1b3c 5185 273d 5107 c03e
00000120: b4e1 d83e a0ac 5bbe 38b8 dfbd 70a7 dc3d
00000130: 0b30 163e f1b6 13be 9afa 963e 90e2 803c
00000140: 8022 133d 9ed6 a13e 60b0 05bc f5f9 ab3d
00000150: 7ddb d03d a78f 0a3f 0cf0 243d 4501 053d
00000160: 9c96 e23d f03b e8bd e007 9c3d a74f 963e
00000170: 53c7 f63d aa5c 4f3d 62b2 d8bd 03f5 9f3e
00000180: 8766 79bd 97ad 10bd b428 353f ac36 203f
00000190: dd7a 2cbc c04f bc3b aebb 6abf 8991 493e
000001a0: 2032 93bc ee60 dcbd fd0a fa3d 39ef 9e3e
000001b0: 6cdd 2f3d d971 43bd 686d 443e cc8c 8d3d
000001c0: 3d39 d13e 34cf 0d3d e634 f2be b7b7 38bd
000001d0: c902 6b3e 0b36 f8be 8aa7 0a3e 9d0b 8f3e
000001e0: 77c1 f13c 836b aabc 0435 6f3d 6e68 a4bd
000001f0: b2f0 a63f 3640 90bd 25a4 633d d46e e13d
00000200: 8909 d73e 3027 b8bd 0f1a 4ebe 92cd 60bc
00000210: 1bb2 a83e 1411 fabd 9094 b83e e132 ca3e
00000220: 7966 053f 9dd0 7d3c ea9d bbbd 23bf 023e
00000230: b2ab 5e3d 35f2 47be 4583 df3e 4aa5 b03d
00000240: eaf3 573d a639 c43e 00ae 5f3a b7b7 383d
00000250: 3a1c 96be c26d 043f 2ec5 c9bd 140f 843d
00000260: 9538 64bd 55b8 d03c aab1 9d3c 463e 3fbe
00000270: 5398 833c 27e0 aebd 0808 afbc c2d7 9b3e
00000280: 89ca 2f3d 600b 58bc 4227 313f f1a3 263f
00000290: 49fb cc3c d744 ce3d a956 fb3d df72 2d3e
000002a0: 3aa5 943d 6096 85bd 51cc 623e 175f 283f
000002b0: 6041 e8bb 98b4 5dbe b353 203e eff1 49bd
000002c0: aa2e 1e3e f2a6 ebbc 32bf 0ebe a4f7 83bd
000002d0: d541 bebe 520b 1bbf a5d1 ed3d 00c8 253e
000002e0: 615c 8abb 60d4 92bd 57a9 a8bd fc6a f5bd
000002f0: 19c1 903f 6285 ed3d 28e1 ec3c e8ea 60bd
00000300: bf1a af3e 6f30 ca3a fa1d 31be 3abb 823c
00000310: b9da ca3d 28d0 9dbc 7ecf 523e b7d3 f93e
00000320: f8a3 fe3e d0ed e7be 965f c83b 686d 963d
00000330: 587e 3b3e 40fd 93be 9dd2 8a3e ed53 643c
00000340: d01a cb3d 4282 e73e 164e 8ebd 7c24 213e
00000350: 64a0 a93d 3cb8 043f ee9c c93d c905 1dbd
00000360: 676c 403d 981c febd c8fc 7abd f8f9 af3c
00000370: 5ae9 2abe 0173 d7bd 6609 9abd 6270 7e3e
00000380: be39 f8b9 b492 963d de64 183f c7db 213f
00000390: ca9f 58bd 0aaf d3bd 5192 31bc 455b 87bd
000003a0: b407 0f3d c608 f93c 42f6 783d c3a3 bd3e
000003b0: 28bb c83c da4d 82be bce2 ab3e 474c 71be
000003c0: f0fb b93e 8a57 1fbd 2e95 73be 0072 fcbc
000003d0: e561 963d 110b 15bf efa7 9a3d df0f 703e
000003e0: 054e 0fbd 3c3c 433d d675 1abe 8680 91be
000003f0: d715 503f 5cd0 213c 6c0e 97bd d998 a7bd
0.32423854 -0.04650526 -0.26041776 0.12866573 0.053501446 0.061463654 0.07035307 0.40744334
0.41161862 0.30132025 -0.109223194 -0.057580687 0.050450943 -0.1158096 0.39043498 -0.076276295
0.0663967 0.23486276 0.055311173 0.028421538 -0.01078877 0.50875497 -0.095218986 0.10084118
0.035567667 -0.109096535 0.0182495 0.55253416 0.015845273 0.08655823 0.00037935877 0.4120241
0.014856183 -0.050101534 0.7034469 0.7750708 -0.116293885 -0.07597034 -0.39744103 0.14613272
0.014474336 0.052789032 0.02131868 0.5725905 0.07479562 -0.007930779 0.2419406 0.004072959
0.06387838 -0.0092150895 -0.87966 0.102909416 0.07629381 -0.19389899 -0.00066831073 -0.023036562
-0.07322898 0.05431729 -0.25757688 -0.064899124 0.9112176 -0.042129666 -0.06163013 -0.043834463
0.41242477 0.03981828 -0.21282299 -0.17524737 -0.28808784 0.009469733 0.040898625 0.37505582
0.42359698 -0.2145257 -0.10923809 0.10774124 0.14666764 -0.14425255 0.2948807 0.015733033
0.035921574 0.31609052 -0.008159727 0.08397285 0.10198114 0.54125446 0.04026799 0.032471914
0.11063883 -0.11339557 0.076186895 0.29357645 0.12049737 0.05062548 -0.10580899 0.31241617
-0.060888793 -0.0353218 0.70765233 0.6258342 -0.01052734 0.0057468116 -0.91692626 0.19684424
-0.017968237 -0.10760675 0.12209127 0.31041887 0.042935774 -0.047715995 0.1918236 0.069116205
0.40863982 0.034621432 -0.47305983 -0.04509708 0.22950281 -0.48478732 0.13540474 0.27938548
0.029511197 -0.020803219 0.05840017 -0.08027731 1.3042204 -0.07043497 0.055576462 0.11007467
0.41999462 -0.089918494 -0.20127128 -0.013720887 0.32948384 -0.12210289 0.36050844 0.39491943
0.52109486 0.015491632 -0.09160979 0.12768225 0.05436296 -0.19525988 0.43654838 0.086252764
0.05272285 0.38325232 0.0008532703 0.04509708 -0.2931841 0.5172998 -0.09852062 0.064481884
-0.055718023 0.025478521 0.019249756 -0.18676099 0.016063845 -0.085388474 -0.021366134 0.30438048
0.042917762 -0.013186306 0.6920053 0.65093905 0.025022166 0.10071724 0.122723885 0.16938351
0.07258077 -0.065228224 0.22148253 0.65770096 -0.0070878714 -0.21650922 0.15656929 -0.04930299
0.15447488 -0.02876613 -0.13940123 -0.06443718 -0.371596 -0.6056415 0.11612252 0.16189575
-0.004222438 -0.071694136 -0.08235424 -0.11983296 1.1308929 0.115977064 0.028915957 -0.054911524
0.34200093 0.0015425811 -0.17296591 0.015958417 0.09904999 -0.019264296 0.20586964 0.48794338
0.49734473 -0.45298624 0.0061149104 0.07345086 0.18309915 -0.28904152 0.2711381 0.013936025
0.099172235 0.45216566 -0.069484875 0.15736574 0.08282545 0.5184362 0.09844385 -0.038335595
0.04697838 -0.124077976 -0.061276227 0.0214815 -0.16690579 -0.10519982 -0.07521324 0.24847558
-0.00047345267 0.073522 0.5952891 0.6322598 -0.05288676 -0.103361204 -0.010838107 -0.06609205
0.034919456 0.030399691 0.060781725 0.37039003 0.024503306 -0.2545002 0.33571422 -0.23564254
0.36325026 -0.038901843 -0.23787376 -0.030816078 0.07342891 -0.5822001 0.07551562 0.23443554
-0.034986515 0.047664866 -0.15084013 -0.28418368 0.81283325 0.009876337 -0.07375798 -0.0818345

fc3.bias f4 [20]
00000000: 5133 e33f 58be 843e 5745 433f c46f 8a3f
00000010: 9414 d13d a5be 283f ed1d 593f e88c 323f
00000020: b78b 523f 096c ad3e 720b 163f 36e2 873e
00000030: 705c 4b3e 5b9f 2e3d 658a 3e3f 4ca3 37be
00000040: 5a31 f0bd 5865 96be 2f8d af3d 9de4 10be
1.7750036 0.2592647 0.7627768 1.0815358 0.10209003 0.659159 0.8481129 0.69746256
0.8224444 0.33871487 0.58611214 0.26539773 0.19859481 0.042632442 0.74429923 -0.17933387
-0.11728163 -0.29374194 0.085718505 -0.14149709

exp_avg f4 [64, 9]
00000000: 3dc8 a7c0 501f 02c1 7784 6b40 982e 09c1
00000010: fff4 9ac0 f364 f041 c799 b6c0 7ea8 08c1
00000020: 7770 dd41 0400 0000 0400 0000 0400 0000
00000030: 0400 0000 0400 0000 0400 0000 0400 0000
00000040: 0400 0000 0400 0000 606c 06bf a4b1 9ebe
00000050: 14fb 1abf 6b43 01bf 8532 c9be 2000 19bf
00000060: 79a5 86bd 4fff 01bf 6ada 8fbf 05eb 0cbf
00000070: 0485 aebf c4ac f540 8a9b 1cc0 5a0e f1be
00000080: e45a af41 8f9b c1bf 21db 1bc0 4a89 c141
00000090: 0400 0000 0400 0000 0400 0000 0400 0000
000000a0: 0400 0000 0400 0000 0400 0000 0400 0000
000000b0: 0400 0000 0400 0000 0400 0000 0400 0000
000000c0: 0400 0000 0400 0000 0400 0000 0400 0000
000000d0: 0400 0000 0400 0000 0400 0000 0400 0000
000000e0: 0400 0000 0400 0000 0400 0000 0400 0000
000000f0: 0400 0000 0400 0000 0400 0000 028d 033f
00000100: 877a 273e 5035 e53e bcae f23d 361f f13e
00000110: f6c6 45be da36 d33c bcae f23d db2f 8c3f
00000120: 422b da40 58d8 a640 a657 c7c0 3aa0 f540
00000130: 9cec c640 b9d6 87c1 53f1 9d40 113b f540
00000140: 35a8 33c1 5058 02bf e4a6 0dbf b04c 5040
00000150: 2363 503e 5058 02bf 4594 1140 77fe e43c
00000160: 2363 503e f410 b740 0400 0000 0400 0000
00000170: 0400 0000 0400 0000 0400 0000 0400 0000
00000180: 0400 0000 0400 0000 0400 0000 02f5 26be
00000190: dfbe b6bf f76c 36c1 9041 a9be 02f5 26be
000001a0: eb6c 6ec1 02f5 26be 9041 a9be 3fa4 8bc1
000001b0: c0aa a3c0 09c4 8dc0 0880 50c1 7995 88bd
000001c0: c0aa a3c0 4d61 4bc2 0cc5 11bf 7995 88bd
000001d0: 99f2 6dc2 24ff 01bf 8db5 90c0 e5e2 15c2
000001e0: 3697 90bf 24ff 01bf 68b7 3ac2 24ff 01bf
000001f0: 3697 90bf 6964 5ac2 0000 0000 0000 0000
00000200: 0000 0000 0000 0000 0000 0000 0000 0000
00000210: 0000 0000 0000 0000 0000 0000 16a4 ad3e
00000220: 3e53 9e3e d30b 0c40 c89a 353f 1387 7b3e
00000230: c1b7 4140 e256 663e 34d2 373f e6f0 1740
00000240: 578a 38bd 00a2 eb3e e66f 243e c090 663e
00000250: dd3b bd3d 895d 0d3f cffd 89be cf1e 693e
00000260: 5bbe 063f 0000 0000 0000 0000 0000 0000
00000270: 0000 0000 0000 0000 0000 0000 0000 0000
00000280: 0000 0000 0000 0000 0400 0000 0400 0000
00000290: 0400 0000 0400 0000 0400 0000 0400 0000
000002a0: 0400 0000 0400 0000 0400 0000 0400 0000
000002b0: 0400 0000 0400 0000 0400 0000 0400 0000
000002c0: 0400 0000 0400 0000 0400 0000 0400 0000
000002d0: dcc9 97c0 c365 ddc0 355d 0b40 eb00 eec0
000002e0: 4878 8cc0 fc14 c141 2b6d a0c0 f911 edc0
000002f0: 8d9f af41 1776 c53d 5352 003e 892c ac3f
00000300: 0b30 3f3f 9a9d dc3c 4652 6bc0 7b9f 883a
00000310: 0b30 3f3f 9ed3 8ac0 0400 0000 0400 0000
00000320: 0400 0000 0400 0000 0400 0000 0400 0000
00000330: 0400 0000 0400 0000 0400 0000 7f31 82c0
00000340: 7b18 e1c0 74d0 7f40 2ec8 eec0 0c1f 71c0
00000350: 759b fa41 1865 93c0 9a9e edc0 01e2 f441
00000360: 2846 e740 e5c5 8241 78c7 4e41 4491 3e41
00000370: 7314 c040 9512 6b41 e2d5 e240 6a98 3e41
00000380: 5c20 b541 e79b e1c0 2440 25c1 c757 7140
00000390: 9245 33c1 4dc4 d0c0 a8ec 1842 ff95 e6c0
000003a0: 7d96 32c1 eac7 0b42 fda8 40c0 1f85 50c0
000003b0: 4652 903f f5fd 80c0 0481 2fc0 bbd6 3241
000003c0: 3280 46c0 35f5 80c0 b3ad 0a41 0400 0080
000003d0: 0400 0080 0400 0080 0400 0080 0400 0080
000003e0: 0400 0080 0400 0080 0400 0080 0400 0080
000003f0: 0400 0000 0400 0000 0400 0000 0400 0000
-5.243193 -8.132645 3.67996 -8.573875 -4.8424067 30.049292 -5.7062716 -8.541136
27.679914 6e-45 6e-45 6e-45 6e-45 6e-45 6e-45 6e-45
6e-45 6e-45 -0.5250912 -0.30994904 -0.60539365 -0.50493497 -0.39296356 -0.59765816
-0.0657453 -0.50780195 -1.123853 -0.5504611 -1.3634343 7.6773396 -2.4469934 -0.47081262
21.91938 -1.5125598 -2.4352496 24.192036 6e-45 6e-45 6e-45 6e-45
6e-45 6e-45 6e-45 6e-45 6e-45 6e-45 6e-45 6e-45
6e-45 6e-45 6e-45 6e-45 6e-45 6e-45 6e-45 6e-45
6e-45 6e-45 6e-45 6e-45 6e-45 6e-45 6e-45 0.51387036
0.16355334 0.44767237 0.11849734 0.47094125 -0.19314179 0.025782991 0.11849734 1.0952104
6.8177805 5.213909 -6.2294493 7.675809 6.216383 -16.979845 4.9357085 7.6634603
-11.228566 -0.50916004 -0.5533278 3.2546806 0.20350318 -0.50916004 2.2746747 0.02795337
0.20350318 5.7208195 6e-45 6e-45 6e-45 6e-45 6e-45 6e-45
6e-45 6e-45 6e-45 -0.163044 -1.4276999 -11.401603 -0.33057833 -0.163044
-14.901591 -0.163044 -0.33057833 -17.455198 -5.1145935 -4.43018 -13.031258 -0.06669135
-5.1145935 -50.84502 -0.56941295 -0.06669135 -59.48691 -0.5077994 -4.522162 -37.471577
-1.1296146 -0.5077994 -46.679108 -0.5077994 -1.1296146 -54.598057 0.0 0.0
0.0 0.0 0.0 0.0 0.0 0.0 0.0 0.3391425
0.30922884 2.1882217 0.709393 0.24563245 3.0268404 0.2249408 0.7180512 2.3740783
-0.045053806 0.46022034 0.16058311 0.22516155 0.09239934 0.5522085 -0.26951453 0.22765659
0.5263421 0.0 0.0 0.0 0.0 0.0 0.0 0.0
0.0 0.0 6e-45 6e-45 6e-45 6e-45 6e-45 6e-45
6e-45 6e-45 6e-45 6e-45 6e-45 6e-45 6e-45 6e-45
6e-45 6e-45 6e-45 6e-45 -4.743391 -6.918672 2.177564 -7.437612
-4.389683 24.135246 -5.013326 -7.408444 21.952906 0.096416645 0.12531404 1.3451091
0.7468268 0.026930619 -3.6768966 0.0010423505 0.7468268 -4.338332 6e-45 6e-45
6e-45 6e-45 6e-45 6e-45 6e-45 6e-45 6e-45 -4.068542
-7.0342383 3.997098 -7.461936 -3.76752 31.325907 -4.6060905 -7.4256105 30.610353
7.227314 16.346628 12.923698 11.910465 6.0024962 14.692037 7.0886087 11.91221
22.6408 -7.050281 -10.328159 3.7709825 -11.204485 -6.5239625 38.23111 -7.20581
-11.16174 34.94523 -3.0103142 -3.258125 1.1275108 -4.0310006 -2.7422495 11.177424
-3.1015744 -4.0299325 8.667407 -6e-45 -6e-45 -6e-45 -6e-45 -6e-45
-6e-45 -6e-45 -6e-45 -6e-45 6e-45 6e-45 6e-45 6e-45
