beer/experiments/new_env/full/models/dqn_agent_firm_1_episode_2000.pth (torch, 107368 bytes, 24 tensors)

fc1.weight f4 [64, 9]
0	0x3edd215a	0.43189508
1	0x3f2cce7c	0.6750257
2	0xbd79151f	-0.06081116
3	0xbc0f9870	-0.008764371
4	0x3db164cd	0.08661804
5	0x3e0b5a14	0.13608581
6	0x3e9770b0	0.2957816
7	0x3f0e2942	0.55531704
8	0x3f0d0586	0.55086553
9	0xbeec23c6	-0.46121043
10	0x3dff79d0	0.12474406
11	0x3d70be43	0.058775198
12	0xbe7e96c9	-0.24862207
13	0xbda873f3	-0.082252406
14	0x3dd55c24	0.10417965
15	0x3ef6ae92	0.48180062
16	0xbc1b14c6	-0.009465402
17	0xbd720ff1	-0.059097234
18	0x3eedd0fd	0.46448508
19	0xbf26d72c	-0.65172076
20	0xbf391faa	-0.7231394
21	0x3f07e97d	0.5309065
22	0xbddaa101	-0.1067524
23	0xbf067c19	-0.5253311
24	0x3d6ff3c4	0.058582082
25	0x3f35e0b3	0.7104599
26	0x3ea3d03e	0.31994814
27	0x3db87de3	0.09008386
28	0x3e700228	0.23438323
29	0x3e6f5eae	0.23375961
30	0xbed0a2eb	-0.40749297
31	0xbf45e924	-0.7730887
32	0x3e9f965e	0.3116941
33	0xbe6d3203	-0.23163609
34	0x3cac606b	0.02104207
35	0x3eb30462	0.3496428
36	0xbf72ea32	-0.94888604
37	0xbedb717c	-0.4286002
38	0x3ef93336	0.48671883
39	0x3ec249bd	0.37946883
40	0xbedd6e63	-0.4324828
41	0x3e09d1d4	0.1345895
42	0xbe8eae12	-0.2786718
43	0xbe4342e5	-0.19068487
44	0xbec559e9	-0.38545159
45	0xbd373ab4	-0.044733718
46	0xbe46e052	-0.19421509
47	0xbea6a08b	-0.3254436
48	0x3e521cf9	0.20518865
49	0xbe1cf4a7	-0.15327702
50	0xbce9bf2c	-0.02853354
51	0x3d8dc48a	0.069222525
52	0xbe871b8d	-0.26388207
53	0xbb76f5c6	-0.0037683113
54	0xbe9dcd62	-0.30820757
55	0xbedcaa0f	-0.43098494
56	0x3dc1d17d	0.09463785
57	0x3e29986a	0.16562048
58	0x3eb47545	0.3524572
59	0x3e40b2de	0.18818232
60	0xbeaa0043	-0.33203325
61	0x3f0682bb	0.5254323
62	0xbe4d2246	-0.20032606
63	0xbd8942b7	-0.06702178
64	0x3def8797	0.116957836
65	0xbed7f068	-0.42175603
66	0xbe839df4	-0.25706446
67	0x3edb1e32	0.42796475
68	0x3e13325a	0.14374676
69	0xbee81a4b	-0.4533256
70	0x3da35ad4	0.079763085
71	0x3ebd21b0	0.36939764
72	0x3ea35ed5	0.3190829
73	0x3f5c6916	0.8609785
74	0x3ec81773	0.3908039
75	0xbe0c5c11	-0.13706996
76	0xbe87b96c	-0.26508653
77	0xbf386875	-0.7203439
78	0xbe7988d8	-0.24368608
79	0xbcc34d0b	-0.023840448
80	0x3e58821b	0.21143381
81	0xbe374380	-0.17896843
82	0xbedccd28	-0.43125272
83	0xbe1aa007	-0.15100108
84	0x3d5c9d19	0.053860757
85	0x3e483b20	0.19553804
86	0x3eafb2a3	0.34315977
87	0xbf3f8dd5	-0.74825794
88	0xbc35fade	-0.011107175
89	0xbe5981cf	-0.21240924
90	0xbe8b640a	-0.2722476
91	0xbf008ede	-0.50218
92	0xbd3374ac	-0.04381244
93	0x3e9cff3d	0.3066348
94	0x3ddaba27	0.10680037
95	0x3e845b46	0.25850886
96	0xbe3051c9	-0.17218699
97	0xbd0dbc25	-0.034603257
98	0xbc058043	-0.008148256
99	0xc031a6b7	-2.7758005
100	0x3efaa14c	0.48951185
101	0x3f1c1046	0.6096233
102	0x3e97c72b	0.2964414
103	0xc0293ec0	-2.644455
104	0xbd800654	-0.06251207
105	0xbfed5bbb	-1.8543619
106	0xbe82c908	-0.25544
107	0xbb91f68e	-0.0044544404
108	0xbdcbb875	-0.09947292
109	0xbf986a49	-1.1907436
110	0xbeec0a36	-0.4610154
111	0xbdb0430a	-0.08606537
112	0xbc219794	-0.009862799
113	0x3e736c1e	0.23771712
114	0x3cdbd721	0.02683598
115	0xbd098245	-0.0335715
116	0x3e5ae538	0.21376503
117	0xc056e7bd	-3.3578942
118	0x3f6e591e	0.9310473
119	0x3f4e40a2	0.8056737
120	0xbd85b7e4	-0.06529215
121	0xc03a369f	-2.9095838
122	0xbcba4c9a	-0.022741605
123	0xbfea6ccb	-1.8314451
124	0xbd2c9b49	-0.04214028
125	0xbe240821	-0.16018726
126	0xbe714110	-0.23559976
127	0xbe042efb	-0.12908547
128	0x3e06b05a	0.1315321
129	0x3e139630	0.1441276
130	0xbe130dbb	-0.14360707
131	0xbe83af44	-0.25719655
132	0x3e7d9296	0.2476295
133	0xbdf6047c	-0.12012574
134	0xbe07d503	-0.13264851
135	0xbf4552ae	-0.77079284
136	0xbe624dee	-0.2210004
137	0x3ddca327	0.10773306
138	0x3e6fdca6	0.23424014
139	0xbea30e67	-0.31846926
140	0x3efaa1cf	0.48951575
141	0xbecc09c9	-0.39851215
142	0x3dff50ab	0.12466558
143	0xbeab2b73	-0.33431587
144	0x3d7b01b2	0.061280914
145	0x3d12da2b	0.035852592
146	0x3e1fbaf5	0.15598662
147	0x3d88e9d9	0.06685228
148	0xbec55267	-0.3853943
149	0x3e547438	0.20747459
150	0xbe86f0f1	-0.263557
151	0x3daa2a56	0.08308856
152	0xbec33dbc	-0.38133037
153	0xbe3561d8	-0.17713106
154	0x3c77f880	0.015134931
155	0xbe840056	-0.25781506
156	0xbc0dbc20	-0.0086508095
157	0x3cbc3970	0.022976607
158	0xbe33da3e	-0.17563722
159	0xbe637a08	-0.2221452
160	0xbdc97d00	-0.09838295
161	0xbe9fe283	-0.31227502
162	0x3d837ba6	0.064200684
163	0xbdf0b8b7	-0.117539816
164	0x3e1a7a58	0.15085733
165	0xbdf1c625	-0.11805371
166	0xbd35bddb	-0.044370513
167	0xbe10b1bd	-0.14130302
168	0x3d72e210	0.05929762
169	0x3e1cd7aa	0.15316644
170	0xbe7d9556	-0.24763998
171	0xbe596015	-0.21228059
172	0xbf1fffc3	-0.62499636
173	0x3ec2c69c	0.38042152
174	0x3f00ba7a	0.5028454
175	0x3eae25e0	0.3401327
176	0x3e35d38d	0.17756481
177	0xbf0a90de	-0.541273
178	0x3e3e9cd9	0.1861452
179	0xbe5189dd	-0.20462747
180	0x3ed6d113	0.41956386
181	0x3f507144	0.8142283
182	0xbe385779	-0.18002118
183	0x3da779c6	0.08177523
184	0xbe926e67	-0.28599855
185	0x3ec7b201	0.39002994
186	0xbd0c1bbc	-0.034206137
187	0x3ee22443	0.4416829
188	0x3e9b6f7b	0.3035849
189	0xbeedd4a1	-0.46451285
190	0xbece0962	-0.40241534
191	0xbef1f16f	-0.47254512
192	0x3eb42f6a	0.35192424
193	0x3e41e688	0.18935597
194	0x3c2950ce	0.010334207
195	0xbfaa57b8	-1.330802
196	0x3ef1a950	0.47199488
197	0x3f018747	0.5059704
198	0xbf07f3b0	-0.5310621
199	0xbf43981f	-0.76403993
200	0xbdbc7e74	-0.092038065
201	0x3e690078	0.22754085
202	0x3ee2b5d6	0.44279355
203	0x3e430bf6	0.19047531
204	0xbf12f218	-0.57400656
205	0x3de6054a	0.112314776
206	0x3d054868	0.032539755
207	0x3f1c5f6c	0.610831
208	0x3f62116d	0.8830784
209	0x3f237cd5	0.63862354
210	0xbdd708a7	-0.10499697
211	0xbdab39ed	-0.08360658
212	0x3cc2d249	0.023781912
213	0x3cd7262f	0.026263325
214	0xbdd2c6cf	-0.10291826
215	0x3d9e65c3	0.07734253
216	0x3efbbf33	0.4916931
217	0x3f515d4c	0.81782985
218	0xbdc85d27	-0.097833924
219	0xbc1bc6e3	-0.0095078675
220	0xbee5e2c0	-0.4489956
221	0xbf65a745	-0.8970836
222	0xbcba13bb	-0.022714486
223	0x3dda145c	0.106484145
224	0x3ca366d1	0.019946488
225	0x3f18244f	0.594304
226	0x3f926b15	1.1438929
227	0x3e2c8ef1	0.16851403
228	0x3e5c95ad	0.21541472
229	0xbef9578b	-0.48699602
230	0x3cec61a5	0.028855154
231	0xbda2c491	-0.07947648
232	0xbc1ccc86	-0.009570247
233	0x3efb6684	0.4910165
234	0x3d9992ff	0.074987404
235	0x3f0ff432	0.5623199
236	0xbed20a1c	-0.41023338
237	0xbeacb172	-0.3372913
238	0xbed70e61	-0.42003158
239	0x3f064f67	0.5246491
240	0x3e96381f	0.29339692
241	0xbeab2bd3	-0.33431873
242	0x3e13464f	0.1438229
243	0xbe5caff1	-0.21551491
244	0xbef0de7d	-0.47044745
245	0x3ea72088	0.32642007
246	0x3e3f2d3d	0.18669601
247	0x3ecdb371	0.40175965
248	0xbea2a300	-0.31764984
249	0xbe3894f7	-0.18025576
250	0x3ce4d191	0.02793196
251	0x3dc6f0ff	0.09713935
252	0xbe9f7484	-0.31143582
253	0xbf2f33f9	-0.6843868
254	0xbda9b0f4	-0.08285704
255	0x3dc350ba	0.09536882

fc1.bias f4 [64]
0	0x3fbea046	1.4892662
1	0xbd9c9fc1	-0.07647658
2	0x3f067b1a	0.5253159
3	0x3f88dcea	1.0692418
4	0xbfda943c	-1.7076488
5	0x3e8de0d5	0.27710596
6	0xbec4b5b3	-0.38419876
7	0xbf330cff	-0.69941705
8	0x3f578656	0.84189355
9	0xbfd6d4a6	-1.6783645
10	0xbe3d4d9b	-0.18486635
11	0xbfe4de5b	-1.7880358
12	0xbfbaf56b	-1.4606146
13	0xbf959952	-1.1687415
14	0xbd3825d8	-0.044957966
15	0xbfeec1ed	-1.8652931
16	0x3fb3a35f	1.4034232
17	0xbe9c22ce	-0.30495304
18	0xbccfda4a	-0.025372643
19	0xbf549ef3	-0.8305504
20	0x3fb570d8	1.4175062
21	0xbfbd706a	-1.4799931
22	0xbfee71e2	-1.8628504
23	0x3fd667c2	1.6750414
24	0x3f835ed9	1.026332
25	0x4000eefc	2.0145864
26	0x3ea36b01	0.31917575
27	0xbf30b809	-0.69030815
28	0xbf956a7b	-1.167312
29	0xbf3bf83b	-0.73425645
30	0xbfaecac3	-1.3655628
31	0x3f51d7c2	0.81969845
32	0x3e2d6890	0.16934419
33	0xbd49744f	-0.049183186
34	0xbff0cc6c	-1.8812385
35	0x3fb0ff24	1.3827863
36	0x3ea8187f	0.3283119
37	0xbf969839	-1.1765205
38	0xbf8c41ae	-1.0957544
39	0x3efbe6e9	0.49199608
40	0xbfa8fb55	-1.32017
41	0xbfe3484a	-1.7756436
42	0xbfe1c937	-1.7639531
43	0x3e4675a8	0.1938082
44	0xbe9f5d77	-0.31125996
45	0x3d5283b8	0.051395148
46	0x3f8fa0a3	1.1220897
47	0xbf2292a2	-0.63504994
48	0x3f9c4dcb	1.221124
49	0x3fb88d7e	1.441818
50	0xbe1e66b4	-0.15468866
51	0x3f8cc57e	1.099777
52	0xbf2d6ab0	-0.6774092
53	0x3ea7f4c1	0.3280392
54	0x3f0c43f8	0.5479121
55	0xbfc50c50	-1.5394382
56	0x3fb8a42b	1.44251
57	0xbf9eb5b2	-1.2399199
58	0xbfefe0e5	-1.8740507
59	0x3f8b8bbb	1.0902017
60	0xbe5b4fb0	-0.21417117
61	0x3bc70c2f	0.0060744504
62	0x3fa67628	1.3004808
63	0xbf2131f4	-0.6296685

fc2.weight f4 [64, 64]
0	0xbe862e4b	-0.26207194
1	0x3cc57a46	0.024106156
2	0x3f97c161	1.185589
3	0xbe10d2bd	-0.1414289
4	0x3e99dad5	0.30049768
5	0xbbab2c40	-0.005223781
6	0x3e0810db	0.1328768
7	0xbedc0934	-0.4297577
8	0xbda5b1e6	-0.08090572
9	0xbbaeefca	-0.0053386437
10	0x3c9aa32a	0.01887663
11	0x3ed4138f	0.41421172
12	0x3db3cea8	0.08779651
13	0x3edeaf86	0.4349329
14	0x3d44690c	0.047951743
15	0xbe34731e	-0.17622039
16	0xbdb9f274	-0.090794474
17	0x3cda4e58	0.026648685
18	0xbdb5ff3f	-0.08886575
19	0x3f186829	0.59533936
20	0xbe9bab1c	-0.30403984
21	0x3e5d7c37	0.21629415
22	0x3eda17b2	0.42596203
23	0xbe4dcbcc	-0.20097274
24	0xbf9f7f32	-1.2460692
25	0xbe675722	-0.22591832
26	0xbf2db0fe	-0.67848194
27	0x3e2bc938	0.16775978
28	0xbe0f5ef2	-0.14001063
29	0xbcffa808	-0.031208053
30	0x3d73cdce	0.059522443
31	0xbf7e955b	-0.9944665
32	0xbdd38369	-0.10327799
33	0x3e43ec4b	0.19133107
34	0xbdc5f097	-0.096650295
35	0xbef21d07	-0.4728777
36	0xbd197658	-0.037466377
37	0x3dab2e3b	0.08358427
38	0xbe4ef7c7	-0.20211707
39	0xbe15e632	-0.14638594
40	0x3f49ab79	0.7877727
41	0x3e6d3ea2	0.23168424
42	0x3eadfb89	0.3398097
43	0x3d3b0fea	0.045669474
44	0x3f408161	0.75197417
45	0x3b8bc2c0	0.0042651594
46	0xbe91820c	-0.2841953
47	0x3edd6e3a	0.4324816
48	0xbea966c9	-0.3308623
49	0xbef5be4a	-0.47996742
50	0x3de58541	0.11207057
51	0xbd880c86	-0.06643014
52	0x3e5cb6c6	0.21554098
53	0x3d4ccf88	0.050002605
54	0xbd8e2843	-0.06941273
55	0xbea49587	-0.3214533
56	0xbf19f0be	-0.6013297
57	0x3e56d435	0.20979388
58	0x3e90b2b0	0.28261328
59	0xbf5fda94	-0.874429
60	0x3c64eac0	0.013971984
61	0x3e06f3d9	0.13178958
62	0xbd766c45	-0.060161848
63	0xbe168175	-0.14697821
64	0xbe4bf4f7	-0.19917665
65	0xbd938329	-0.07202751
66	0x3ea7a099	0.32739714
67	0x3cf977bd	0.030452603
68	0xbf3d9a00	-0.7406311
69	0x3dc4df70	0.0961293
70	0xbe2ae85c	-0.166902
71	0x3d9cfb78	0.07665151
72	0xbee29a3e	-0.44258302
73	0xbdd9f89b	-0.10643121
74	0x3d16b313	0.036791872
75	0x3f068d27	0.5255913
76	0xbdbada5b	-0.09123679
77	0x3ec847a2	0.39117151
78	0xbd63f738	-0.055655688
79	0xbd6b758d	-0.057485152
80	0xbeff6368	-0.49880528
81	0x3d0e2100	0.03469944
82	0xbd6a59ca	-0.057214536
83	0x3cc3d5a4	0.023905583
84	0xbc83534f	-0.016030936
85	0x3e1b61b0	0.15173984
86	0xbd87f1f3	-0.06637945
87	0xbc2a9194	-0.010410685
88	0x3f2d9787	0.6780934
89	0xbc4e2757	-0.012582622
90	0x3d16f2f0	0.036852777
91	0xbe294242	-0.16529182
92	0x3eca3c17	0.3949897
93	0x3e0fd8c9	0.1404754
94	0x3c7f99d5	0.015600641
95	0x3eddb6a5	0.4330341
96	0x3da8dbee	0.08245073
97	0x3d2f7c5d	0.04284321
98	0xbe8c5997	-0.27412102
99	0xbe37686f	-0.17910932
100	0xbcdbc6b0	-0.02682814
101	0xbe839c58	-0.25705218
102	0x3d962eca	0.07333143
103	0x3c00462e	0.007829232
104	0xbe2f5ea3	-0.17125945
105	0x3bbd6d9a	0.005780888
106	0xbf2121df	-0.6294231
107	0xbd244959	-0.040109012
108	0x3e841f5c	0.25805175
109	0xbddcf7fc	-0.10789487
110	0xbe78a7ad	-0.24282713
111	0xbe852b73	-0.26009712
112	0xbe6bf8a5	-0.23044069
113	0xbc623fd6	-0.013809165
114	0x3d721770	0.059104383
115	0xbdc925ca	-0.09821661
116	0xbdccb814	-0.099960476
117	0x3decab16	0.115560696
118	0x3da3b736	0.07993929
119	0xbdcbdd92	-0.099543706
120	0xbe80a148	-0.25123048
121	0x3da6face	0.08153306
122	0xbd4d15a0	-0.05006945
123	0xbebbefe9	-0.36706474
124	0x3d6af974	0.057366803
125	0x3d27546d	0.040852
126	0x3e134905	0.14383323
127	0x3c2fc63c	0.010728415
128	0xbe926d72	-0.28599125
129	0x3e1e02b6	0.15430722
130	0xbe32d411	-0.1746371
131	0x3daa6c5f	0.083214514
132	0x3f336ec5	0.70090896
133	0xbd0af1fb	-0.033922177
134	0x3d6016b5	0.054709155
135	0xbe1ac198	-0.15112913
136	0x3eb74364	0.35793602
137	0x3cd81780	0.026378393
138	0x3e0aeffd	0.13568111
139	0x3f1f1b89	0.6215139
140	0x3da42385	0.08014587
141	0x3fa3082a	1.2736866
142	0x3ded990e	0.116014585
143	0x3e4d0001	0.20019533
144	0x3e1e7df4	0.15477735
145	0x3d5f47a4	0.05451168
146	0xbda197ca	-0.078902796
147	0x3ea9fd0b	0.3320087
148	0x3d93fbf3	0.0722579
149	0xbe8be5b2	-0.2732368
150	0x3ea965e0	0.33085537
151	0xbe492808	-0.19644177
152	0x3f5b7ad1	0.8573428
153	0xbdc1158c	-0.09427938
154	0xbc7a0cae	-0.015261812
155	0xbd8bec4e	-0.06832181
156	0x3e1d48bb	0.15359776
157	0x3e9c61bb	0.30543312
158	0x3e8b253f	0.27176854
159	0x3db8b67c	0.09019181
160	0x3e055952	0.13022354
161	0xbe1a839f	-0.15089272
162	0x3d862e37	0.065517835
163	0xbd7a2bcb	-0.06107692
164	0x3db3dddc	0.08782551
165	0xbc1d8fa7	-0.009616769
166	0xbd8ce7ed	-0.06880174
167	0x3e0f9e4b	0.14025228
168	0x3e2a7337	0.16645513
169	0x3d779ad8	0.060450405
170	0x3eaefcd0	0.34177256
171	0x3db94e93	0.0904819
172	0x3ec008b7	0.3750665
173	0xbdc1591a	-0.09440823
174	0x3df20559	0.11817426
175	0x3e5e55a0	0.21712351
176	0x3eab4cd0	0.3345704
177	0xbe06394a	-0.13107792
178	0xbe6900a6	-0.22754154
179	0x3d9eaa6d	0.0774735
180	0x3dd92a84	0.10603812
181	0x3dc75b66	0.0973423
182	0x3e954318	0.2915275
183	0x3e008d8f	0.12554
184	0xbd13e366	-0.036105536
185	0xbda76007	-0.08172613
186	0x3e12741d	0.14302106
187	0x3f235e35	0.63815624
188	0xbd8fdb00	-0.07024193
189	0x3c1fd866	0.009756183
190	0x3e853369	0.26015785
191	0x3e752a5a	0.23941937
192	0x3db42c7f	0.087975495
193	0xbe83c07c	-0.2573279
194	0xbdd13c9f	-0.10216641
195	0x3dd1728d	0.10226927
196	0xbe213c82	-0.15745738
197	0xbd6dde60	-0.0580734
198	0xbd69fb7c	-0.0571246
199	0xbec625ac	-0.38700616
200	0x3db2a651	0.087231286
201	0xbcea28f0	-0.028583974
202	0x3d085e73	0.0332932
203	0x3e1d13f3	0.15339641
204	0xbcbcf5a6	-0.023066353
205	0x3ca78554	0.020449318
206	0xbd9bf86e	-0.076157436
207	0xbe0a83e6	-0.13526878
208	0xbe05d264	-0.13068539
209	0x3c93efa8	0.018058613
210	0x3dac7ff6	0.08422844
211	0xbd36abf3	-0.044597577
212	0xbd8fe00d	-0.07025156
213	0xbe904e58	-0.28184772
214	0x3d9acd13	0.07558646
215	0xbc7d6309	-0.015465506
216	0x3d974c70	0.07387626
217	0x3c9532ae	0.018212643
218	0xbe3b9984	-0.1832028
219	0x3e9e70ed	0.3094553
220	0xbe5d16df	-0.21590756
221	0xbdc21bef	-0.09477984
222	0xbd375435	-0.04475804
223	0xbe8678df	-0.26264092
224	0x3df3088e	0.11866866
225	0xbf3458fa	-0.7044827
226	0x3d55218c	0.052033946
227	0xbcf48c8c	-0.029852174
228	0xbb7eb000	-0.0038862228
229	0xbde1a6ac	-0.11018118
230	0xbe8532d5	-0.26015344
231	0xbda554fb	-0.08072849
232	0x3de40d49	0.111353464
233	0xbe09bf57	-0.13451897
234	0xbdf822ba	-0.121159986
235	0x3b1cd300	0.0023929477
236	0x3d377770	0.04479164
237	0xbcd6f1b8	-0.026238307
238	0xbe13b9d1	-0.14426352
239	0x3dbe3afb	0.092885934
240	0x3de25cc5	0.11052851
241	0xbe036407	-0.12831126
242	0x3d1bf77a	0.03807781
243	0xbe0a5aee	-0.1351125
244	0x3e5d39e6	0.21604118
245	0xbd351398	-0.04420814
246	0x3d7b40d8	0.061341137
247	0x3e18f4f7	0.14937197
248	0xbcad8ab5	-0.021184305
249	0x3bb9f312	0.005674728
250	0xbe67718a	-0.22601905
251	0x3e03e09c	0.1287865
252	0x3dc8702a	0.097870186
253	0x3de189c4	0.11012605
254	0x3d36649f	0.044529554
255	0xbd99070f	-0.074720494

fc2.bias f4 [64]
0	0xbe0fcfa3	-0.14044051
1	0xbea28877	-0.3174474
2	0xbf81e18c	-1.0146956
3	0xbb7f3866	-0.0038943528
4	0x3f2cc0e0	0.67481804
5	0xbd8df06c	-0.069306225
6	0xbf0e16a5	-0.555033
7	0x3f7f6e36	0.99777544
8	0x3f217dda	0.6308266
9	0x3dd16ef0	0.10226238
10	0xbd474d73	-0.048657846
11	0x3d99088d	0.07472334
12	0x3ecad686	0.39616793
13	0xbf63389c	-0.88758254
14	0xbf48747f	-0.7830276
15	0xbc848624	-0.016177244
16	0xbc9f35f8	-0.019434914
17	0xbedd1a89	-0.43184307
18	0x3dbd8b34	0.092550665
19	0x3db46b4e	0.08809529
20	0x3cf8a2f6	0.030351143
21	0x3f9c29d7	1.2200269
22	0xbe0ae10b	-0.1356241
23	0x3ca098e7	0.01960416
24	0xbe92ea64	-0.2869445
25	0xbe2a7329	-0.16645493
26	0xbe2f5956	-0.17123923
27	0xbf1e2b05	-0.6178439
28	0xbe9c9acf	-0.3058686
29	0xbf2ea10e	-0.682145
30	0xbd6fb931	-0.05852622
31	0x3fbbfea6	1.4687088
32	0x3df6af60	0.12045169
33	0xbd5fe92a	-0.054665722
34	0x3fbe7a0e	1.4880998
35	0x3fd0d672	1.6315444
36	0xbda9819d	-0.08276675
37	0x3d291d64	0.041287795
38	0x3f60bba7	0.87786335
39	0xbf14b2d7	-0.5808539
40	0xbdf8f233	-0.12155571
41	0x3cad170d	0.021129156
42	0x3e45a8bb	0.19302647
43	0xbeae7a9e	-0.34077924
44	0xbd8153c0	-0.06314802
45	0xbf42439f	-0.7588443
46	0xbf8fa51c	-1.1222262
47	0xbefcde0b	-0.49388155
48	0x3e856a9d	0.26057902
49	0xbecae143	-0.39624986
50	0xbd8fe573	-0.07026186
51	0x3b80b86a	0.003928234
52	0xbed6a1a9	-0.41920212
53	0x3f1866c0	0.59531784
54	0x3f074dca	0.5285307
55	0x3f1f2b57	0.62175506
56	0x3d9c6d74	0.07638064
57	0xbc4d3b05	-0.012526278
58	0xbf27ecf2	-0.65595925
59	0xbf6d0dfa	-0.9259945
60	0x3f98c12d	1.1933953
61	0x3dcfe14e	0.10150395
62	0xbdba6499	-0.09101219
63	0xbd1f8af1	-0.038950864

fc3.weight f4 [20, 64]
0	0x3ea5ffea	0.3242181
1	0x3c414e40	0.011798441
2	0xbe7875e5	-0.24263723
3	0x3e3b8385	0.1831189
4	0xbe125c75	-0.14293082
5	0x3d7bc150	0.061463654
6	0x3e0556eb	0.13021438
7	0x3ed62fd0	0.41833353
8	0xbf214e81	-0.6301041
9	0xbda192c2	-0.0788932
10	0xbddfb1a0	-0.10922551
11	0xbd6bd6df	-0.057577964
12	0xbdbb2c4c	-0.09139308
13	0xbdf03d01	-0.117303856
14	0xbe891589	-0.26774243
15	0xbd9c32c0	-0.07626867
16	0x3dd60878	0.10450834
17	0x3d816899	0.063187785
18	0x3d628df8	0.055311173
19	0x3c8eb949	0.017422335
20	0xbd0d3ec9	-0.034483705
21	0x3f057348	0.5212903
22	0xbdc3022c	-0.095218986
23	0x3dce84ec	0.100839466
24	0x3b036040	0.0020046383
25	0xbddf6d84	-0.1090956
26	0x3c957c27	0.018247677
27	0x3dd3e79e	0.10346912
28	0xbb98dcf5	-0.004665012
29	0xbce4740a	-0.027887363
30	0x39c6e4f3	0.00037936083
31	0x3ebfa475	0.37430158
32	0x3c73653b	0.014855678
33	0xbd4d3744	-0.050101534
34	0x3f45a305	0.77201873
35	0x3f983dbc	1.189384
36	0xbdee2c7a	-0.11629577
37	0xbdd03940	-0.101671696
38	0xbf80f97b	-1.0076135
39	0xbd96d108	-0.07364088
40	0x3d3d6522	0.046239026
41	0x3d583950	0.052789032
42	0x3f09757a	0.5369488
43	0xbdbcadf6	-0.09212868
44	0x3d992e72	0.07479562
45	0xbd9571ca	-0.07297094
46	0xbe87f437	-0.2655351
47	0xbcc99fda	-0.024612356
48	0xbe14b48d	-0.14522
49	0xbc4953bc	-0.01228803
50	0xbca193e0	-0.019723833
51	0x3dd2c22c	0.102909416
52	0xbc7e1c76	-0.015509715
53	0xbf3b6cf9	-0.73213154
54	0xbbeedfae	-0.0072898483
55	0x3c9591a4	0.018257923
56	0xbd95f937	-0.073229246
57	0x3d5e7a15	0.054315645
58	0xbd40d66b	-0.047079485
59	0xbdaf0df8	-0.08547586
60	0x3f967693	1.1754936
61	0xbd2c9028	-0.042129666
62	0xbd7c6bd0	-0.061626256
63	0xbd338bc4	-0.043834463
64	0x3ed32b8a	0.41244155
65	0x3c8a3e4b	0.016875407
66	0xbe8db6f9	-0.2767866
67	0xbdc31419	-0.09525318
68	0x3dd3455b	0.10315963
69	0x3c1b26f0	0.009469733
70	0x3e39198a	0.18076149
71	0x3ec3462c	0.38139474
72	0x3dcf6493	0.10126605
73	0x3e3771ff	0.1791458
74	0xbddfb6ed	-0.10923562
75	0x3ddca770	0.10774124
76	0x3e4dd0d6	0.20099196
77	0xbe3e3880	-0.1857624
78	0xbe1c048e	-0.15236112
79	0x3c80e0e8	0.015732244
80	0x3dbd45f4	0.09241858
81	0x3e3275c6	0.1742774
82	0xbc05b060	-0.008159727
83	0x3dc064b9	0.09394211
84	0xbd0e4c9f	-0.03474104
85	0x3f16957b	0.5882184
86	0x3d24f00c	0.04026799
87	0x3d05034d	0.03247385
88	0xbbcc43b7	-0.006233658
89	0xbde83b82	-0.11339475
90	0x3d9c0884	0.07618812
91	0xbed776d9	-0.4208286
92	0x3d009400	0.031391144
93	0xbc56657c	-0.013085719
94	0xbdd8b262	-0.10580899
95	0x3ea02791	0.31280187
96	0xbd79681a	-0.060890295
97	0xbd10ad48	-0.035321504
98	0x3f31d80d	0.6947029
99	0x3f3cdca5	0.73774177
100	0xbc2c78a2	-0.010526808
101	0x3bbc4fc0	0.0057468116
102	0xbf32151d	-0.69563466
103	0xbe1ef5d9	-0.15523471
104	0xbd3c704c	-0.046005532
105	0xbddc60ee	-0.10760675
106	0x3dc7e957	0.09761303
107	0xbb836471	-0.0040097763
108	0x3d2fdd6c	0.042935774
109	0xbe032310	-0.12806344
110	0xbeb6ea28	-0.35725522
111	0x3c3bcf31	0.0114629725
112	0x3ed7abcb	0.42123255
113	0x3cd733c1	0.026269795
114	0x3cdebe2a	0.027190287
115	0xbd38b579	-0.04509494
116	0x3d57e500	0.052708626
117	0xbf074b40	-0.528492
118	0x3d122880	0.035683155
119	0x3e8f0dfe	0.27940363
120	0x3cf1be82	0.029509787
121	0xbcaa693c	-0.020802133
122	0xbe078522	-0.1323438
123	0xbde62350	-0.11237204
124	0x3f2c978e	0.67418754
125	0xbd9041db	-0.07043811
126	0x3d63a3dc	0.05557619
127	0x3de16ed4	0.11007467
128	0x3ed704fa	0.41995984
129	0xbd9a4446	-0.075325534
130	0xbe629efc	-0.2213096
131	0x3df897ff	0.12138366
132	0x3e2dc6d4	0.16970378
133	0xbdfa1114	-0.12210289
134	0x3e234281	0.15943338
135	0x3edee000	0.43530273
136	0x3d26fe20	0.040769696
137	0x3e09dab2	0.13462332
138	0xbdbb9c99	-0.09160728
139	0x3e02c12b	0.12769
140	0x3e1e1ced	0.15440722
141	0x3be95709	0.007120971
142	0xbdfdd71f	-0.12394547
143	0x3db0a64e	0.0862547
144	0x3da7a3c8	0.08185536
145	0x3d9229f2	0.07136907
146	0x3a5fae00	0.0008532703
147	0x3d956642	0.07294895
148	0xbdfd7912	-0.12376608
149	0x3f07f264	0.53104234
150	0xbdc9c52e	-0.09852062
151	0x3d84118d	0.0644866
152	0x3de9bb88	0.11412722
153	0x3cd0b7b8	0.025478229
154	0x3c9db14a	0.019249577
155	0x3dffcaf2	0.124898806
156	0x3d910d50	0.07082617
157	0xbe31cab8	-0.17362487
158	0xbcaf0808	-0.021366134
159	0x3ece51fd	0.40296927
160	0x3d2fcba6	0.042918824
161	0xbc580b60	-0.013186306
162	0x3f2d464a	0.6768538
163	0x3f20514c	0.6262405
164	0x3cccfcfd	0.025022978
165	0x3d999fd0	0.07501185
166	0xbf0e4bce	-0.5558442
167	0xbe4dc748	-0.20095551
168	0x3d272d5c	0.040814742
169	0xbd859660	-0.065228224
170	0x3e0a6ad8	0.1351732
171	0xbbda326e	-0.0066588437
172	0xbbe84160	-0.0070878714
173	0xbe5b053d	-0.21388717
174	0xbeba990a	-0.36444885
175	0xbcf34dac	-0.029700123
176	0xbe468580	-0.19386864
177	0xbceba595	-0.02876548
178	0x3d5780ce	0.052613072
179	0xbd83f79e	-0.064437136
180	0x3cce3034	0.02516947
181	0xbf571129	-0.8401056
182	0x3d783280	0.060595036
183	0x3e25ca7f	0.16190527
184	0xbb8a5cf0	-0.004222505
185	0xbd92d422	-0.071693674
186	0xbe190ad8	-0.14945543
187	0xbe0515ea	-0.12996641
188	0x3f6baf91	0.9206477
189	0x3ded8562	0.115977064
190	0x3cece128	0.028915957
191	0xbd60eae8	-0.054911524
192	0x3eaf18b7	0.34198543
193	0x3aca33a0	0.0015426762
194	0xbe6efc6e	-0.23338482
195	0xbcdd3724	-0.027003832
196	0x3e0e3933	0.13889007
197	0xbc9dd028	-0.019264296
198	0x3def2d96	0.11678617
199	0x3ee375af	0.44425723
200	0xbdee12aa	-0.11624654
201	0x3e366ff3	0.17816143
202	0x3bc86223	0.0061152144
203	0x3d966d68	0.07345086
204	0x3ea6cd07	0.32578298
205	0xbe989902	-0.29804236
206	0xbdc59086	-0.09646706
207	0xbc920c89	-0.017828243
208	0x3d9f66c2	0.07783271
209	0x3dae62dd	0.085149504
210	0xbd8e4e16	-0.069484875
211	0x3e0c2566	0.13686141
212	0xbd6182fb	-0.055056553
213	0x3f014190	0.50490665
214	0x3dc99cee	0.09844385
215	0xbd1d0612	-0.038335867
216	0xbd91418d	-0.07092581
217	0xbdfe1c98	-0.124077976
218	0xbd7afc93	-0.06127603
219	0xbd6e457a	-0.058171727
220	0x3d6ed8ee	0.05831235
221	0xbe5d5dce	-0.21617815
222	0xbd9a0966	-0.07521324
223	0x3ef3b625	0.47599903
224	0xb9f83b90	-0.00047346624
225	0x3d9692b4	0.073522
226	0x3f1fb564	0.62386155
227	0x3f32b7f2	0.6981193
228	0xbd589c34	-0.052883342
229	0xbdd3af0a	-0.103361204
230	0xbf0738cc	-0.5282104
231	0xbe6bd086	-0.23028764
232	0x3d1eb4e9	0.038746748
233	0x3cf905ce	0.030398276
234	0x3dafe60e	0.08588801
235	0xbc0f635f	-0.008751719
236	0x3cc8bb28	0.024503306
237	0xbe51539b	-0.20442049
238	0xbe4cf6c7	-0.20016013
239	0xbe07fdbc	-0.13280386
240	0x3eff41eb	0.4985498
241	0xbd4458d9	-0.047936294
242	0xbc1d8c71	-0.009616003
243	0xbcfc7200	-0.030816078
244	0x3cfa2d2e	0.030539121
245	0xbf328dd1	-0.69747645
246	0x3e2c3b28	0.16819441
247	0x3e7010de	0.23443934
248	0xbd0f4d8d	-0.034986068
249	0x3d433c3c	0.047664866
250	0xbd8898d1	-0.066697724
251	0xbe7dcbae	-0.24784729
252	0x3f4dd9f1	0.8041068
253	0x3c21ce24	0.009875808
254	0xbd970e20	-0.07375741
255	0xbda795c4	-0.081828624

fc3.bias f4 [20]
0	0x3f935a07	1.1511849
1	0x3e9f6db8	0.31138396
2	0x3ef7b2dd	0.4837865
3	0x3ea62d13	0.32456264
4	0x3e5bd662	0.214685
5	0x3e41081f	0.18850754
6	0x3eb09baf	0.34493777
7	0x3e43967e	0.19100377
8	0x3e6d7d30	0.23192286
9	0xbdf69c8e	-0.12041579
10	0x3e65c9dc	0.22440284
11	0xbbe2d80e	-0.0069227284
12	0x3bceed84	0.006314935
13	0xbd57c783	-0.052680504
14	0x3e7880a0	0.24267817
15	0xbe6cfa8f	-0.23142456
16	0xbdda199c	-0.10649416
17	0xbdde3ca9	-0.10851414
18	0xbe00eeb8	-0.12591064
19	0xbec8a1cd	-0.39185944

fc1.weight f4 [64, 9]
0	0x3edc24d7	0.42996857
1	0x3f2c8fe1	0.6740704
2	0xbd7aa713	-0.06119449
3	0xbc05e37e	-0.008171914
4	0x3dc19f02	0.094541565
5	0x3dff66b5	0.12470762
6	0x3e9b8b99	0.30379942
7	0x3f0de006	0.5541996
8	0x3f0aa2d5	0.5415471
9	0xbeeec707	-0.4663622
10	0x3dd2dc8e	0.10295974
11	0x3d851218	0.06497592
12	0xbe4ff713	-0.20309095
13	0xbdb37a0d	-0.08763514
14	0x3de3792a	0.111070946
15	0x3edf5e3d	0.43626586
16	0x3d0af1c2	0.033921964
17	0xbd980f51	-0.074247964
18	0x3ee7e489	0.45291546
19	0xbf298951	-0.66225153
20	0xbf37a20b	-0.7173163
21	0x3f0e0e0e	0.55490196
22	0xbe024e51	-0.12725188
23	0xbf0395d9	-0.51400524
24	0x3c827bd3	0.015928185
25	0x3f3b5387	0.7317433
26	0x3e9b109d	0.30286112
27	0x3ddb59a8	0.1071046
28	0x3e6b1e0f	0.22960685
29	0x3e71f8d9	0.23630084
30	0xbed02ec6	-0.40660685
31	0xbf40fdb7	-0.7538714
32	0x3e9b396e	0.30317253
33	0xbe615ee1	-0.2200885
34	0x3cac3c0c	0.021024726
35	0x3eb045b4	0.3442818
36	0xbf5e1036	-0.86743486
37	0xbee9d9c3	-0.45673952
38	0x3ef5b897	0.47992393
39	0x3edc9be0	0.43087673
40	0xbeb56fc1	-0.35436824
41	0x3df8a2e3	0.12140443
42	0xbe636750	-0.2220738
43	0xbe0ea1f9	-0.13928975
44	0xbec35f2b	-0.38158545
45	0xbd3738e7	-0.044732
46	0xbe46e0c4	-0.19421679
47	0xbea69ed9	-0.32543066
48	0x3e521fb5	0.20519908
49	0xbe1cf241	-0.15326788
50	0xbce9beaa	-0.028533299
51	0x3d8dc763	0.069227956
52	0xbe87186e	-0.26385826
53	0xbb76f4ad	-0.003768246
54	0xbea69344	-0.3253423
55	0xbee000b8	-0.43750548
56	0x3d91cee0	0.071195364
57	0x3e369828	0.1783148
58	0x3eb08cdb	0.34482464
59	0x3e2555f3	0.16146068
60	0xbea4795c	-0.3212384
61	0x3f0a5ece	0.5405091
62	0xbe456f87	-0.19280826
63	0xbda13ab3	-0.07872524
64	0x3db43c26	0.08800535
65	0xbeddc585	-0.43314758
66	0xbe7c6c44	-0.24650675
67	0x3ed45ead	0.41478482
68	0x3e0d9470	0.13826156
69	0xbf0f1109	-0.5588537
70	0x3db8fca2	0.09032561
71	0x3eb413cd	0.35171357
72	0x3eaa2b71	0.33236268
73	0x3f55df86	0.83544195
74	0x3ec1855f	0.37797067
75	0xbe10498c	-0.14090556
76	0xbe8896d2	-0.26677567
77	0xbf35d983	-0.7103502
78	0xbe79488f	-0.24344085
79	0xbce40083	-0.027832275
80	0x3e5c0b41	0.21488668
81	0xbe202dc0	-0.15642452
82	0xbed51d05	-0.41623703
83	0xbdea81b1	-0.11450518
84	0xbd57f286	-0.052721523
85	0x3e5f4f34	0.21807557
86	0x3ec2f31d	0.38076106
87	0xbf326ebb	-0.6970021
88	0xbdf107ba	-0.11769052
89	0xbe1632b3	-0.14667778
90	0xbe86b492	-0.2630964
91	0xbf005037	-0.501224
92	0xbc53d5f3	-0.012929427
93	0x3ea0d4b8	0.31412292
94	0x3dfcb75a	0.12339659
95	0x3e9137d9	0.2836292
96	0xbe0c885e	-0.13723895
97	0xbcef5a7a	-0.029217947
98	0x3c582f12	0.013194816
99	0xc031055e	-2.7659526
100	0x3f01a028	0.50635004
101	0x3f1b47c8	0.60656404
102	0x3ea168c1	0.31525233
103	0xc0289dc2	-2.6346288
104	0xbd863b94	-0.065543324
105	0xbfecc34e	-1.8497102
106	0xbe7250ca	-0.23663631
107	0xbc24b695	-0.010053297
108	0xbdaa86dd	-0.083265044
109	0xbf954f57	-1.1664838
110	0xbee0e538	-0.4392488
111	0xbda8a516	-0.08234613
112	0x3b5e9e4f	0.003396887
113	0x3e777bcc	0.24168319
114	0x3d8b708a	0.068085745
115	0xbcf4dc3d	-0.029890174
116	0x3e56b847	0.20968734
117	0xc055c901	-3.3403933
118	0x3f77a1e4	0.967314
119	0x3f4e418c	0.80568767
120	0xbd491239	-0.049089644
121	0xc0391807	-2.8920915
122	0xbc9c059f	-0.01904565
123	0xbfe85976	-1.8152301
124	0xbcd47a98	-0.025937364
125	0xbe1fc1fe	-0.15601346
126	0xbe714110	-0.23559976
127	0xbe042efb	-0.12908547
128	0x3e06b05a	0.1315321
129	0x3e139630	0.1441276
130	0xbe130dbb	-0.14360707
131	0xbe83af44	-0.25719655
132	0x3e7d9296	0.2476295
133	0xbdf6047c	-0.12012574
134	0xbe07d503	-0.13264851
135	0xbf3f3331	-0.74687487
136	0xbe7f865f	-0.24953602
137	0x3dfe89cd	0.12428627
138	0x3e3757fa	0.17904654
139	0xbe9be49e	-0.3044786
140	0x3efae24b	0.49000773
141	0xbee83740	-0.45354652
142	0x3d8f97e8	0.07011396
143	0xbe9ea1e3	-0.30982885
144	0x3dcb40dc	0.0992448
145	0x3d65169d	0.05592977
146	0x3e20656c	0.1566369
147	0x3de4f641	0.11179782
148	0xbea976e6	-0.33098525
149	0x3e5dac5f	0.21647786
150	0xbe3e774b	-0.18600194
151	0x3e057cdf	0.13035916
152	0xbeb65e61	-0.3561888
153	0xbe3561d8	-0.17713106
154	0x3c77f880	0.015134931
155	0xbe840056	-0.25781506
156	0xbc0dbc20	-0.0086508095
157	0x3cbc3970	0.022976607
158	0xbe33da3e	-0.17563722
159	0xbe637a08	-0.2221452
160	0xbdc97d00	-0.09838295
161	0xbe9fe283	-0.31227502
162	0x3d837e8a	0.0642062
163	0xbdf0b7d8	-0.117538154
164	0x3e1a7d56	0.15086874
165	0xbdf1c560	-0.118052244
166	0xbd35bdfe	-0.044370644
167	0xbe10b17f	-0.1413021
168	0x3d72e670	0.059301794
169	0x3e1cdad0	0.15317845
170	0xbe7d94da	-0.24763814
171	0xbe6c7c60	-0.2309432
172	0xbf1c7453	-0.61114997
173	0x3ec80d32	0.39072567
174	0x3f0c1e71	0.5473395
175	0x3e9fc516	0.31205052
176	0x3e2ec8b0	0.17068744
177	0xbf12fbfe	-0.5741576
178	0x3e6a2587	0.22865878
179	0xbe4c2ba9	-0.1993853
180	0x3ed5d7f9	0.41766337
181	0x3f505755	0.8138326
182	0xbe357b7f	-0.17722891
183	0x3da914fe	0.08255957
184	0xbe8d8fe2	-0.27648836
185	0x3ec2a81e	0.38018888
186	0xbcbf3d86	-0.023344766
187	0x3ee1b1c8	0.4408095
188	0x3e98611d	0.29761592
189	0xbeee8b8e	-0.46590847
190	0xbedbf284	-0.42958462
191	0xbef717a4	-0.48260224
192	0x3eadeabd	0.33968154
193	0x3e3d918e	0.18512556
194	0x3b8b571d	0.004252328
195	0xbfa9d618	-1.3268461
196	0x3eeb64d0	0.4597535
197	0x3efc17d2	0.49236923
198	0xbf087d3e	-0.53316104
199	0xbf3cda30	-0.7377043
200	0xbdcb8005	-0.09936527
201	0x3e74e732	0.23916319
202	0x3edffb6b	0.43746504
203	0x3e43a7f7	0.19107042
204	0xbf0ae996	-0.54262674
205	0x3dfdd09b	0.12393304
206	0x3d00f3ba	0.031482436
207	0x3f1b8b01	0.6075898
208	0x3f626af3	0.8844444
209	0x3f23cd1c	0.6398485
210	0xbdcb5f9e	-0.09930347
211	0xbd9e062b	-0.0771602
212	0x3c79cf4d	0.015247178
213	0x3d123002	0.035690315
214	0xbdcaf016	-0.09909074
215	0x3d955786	0.072920844
216	0x3ef3a705	0.47588363
217	0x3f4c5f5c	0.79833007
218	0xbd8eb050	-0.06967223
219	0xbc1a7556	-0.009427389
220	0xbee69f22	-0.45043284
221	0xbf654df6	-0.89572084
222	0xbcf99779	-0.030467736
223	0x3dd8c57c	0.10584542
224	0x3ca941ab	0.020661196
225	0x3f179bb2	0.5922195
226	0x3f925a35	1.1433779
227	0x3e2caa33	0.16861801
228	0x3e60f09b	0.21966784
229	0xbef537c2	-0.47894102
230	0x3c961e6a	0.01832505
231	0xbd985944	-0.07438901
232	0xbbe526b3	-0.0069931387
233	0x3ef7ee69	0.4842408
234	0x3d8139d0	0.06309855
235	0x3f0b18dd	0.54334813
236	0xbed5e86a	-0.4177888
237	0xbea1d15c	-0.3160504
238	0xbedcc794	-0.43121016
239	0x3f04de32	0.51901543
240	0x3e9952a6	0.29945868
241	0xbea23d19	-0.3168724
242	0x3e01d5a6	0.12679157
243	0xbe581a0a	-0.21103683
244	0xbef63a50	-0.48091364
245	0x3e944178	0.289562
246	0x3e4717f7	0.19442736
247	0x3ec34090	0.38135195
248	0xbe9a5cba	-0.3014887
249	0xbe4c7ab9	-0.1996869
250	0x3d0bb6ac	0.034109756
251	0x3daf906f	0.085724704
252	0xbebe6ea2	-0.3719378
253	0xbf22683c	-0.634403
254	0xbda8903b	-0.08230635
255	0x3d8e8c90	0.06960404

fc1.bias f4 [64]
0	0x3fbe0074	1.4843888
1	0xbdb3e552	-0.08783974
2	0x3f0767b7	0.5289263
3	0x3f88cd4f	1.0687655
4	0xbfd9b301	-1.7007753
5	0x3e8de2bb	0.27712044
6	0xbebf45bc	-0.3735789
7	0xbf3973b9	-0.72442204
8	0x3f53f1ac	0.82790637
9	0xbfcf4080	-1.6191559
10	0xbe1d0446	-0.15333661
11	0xbfe404c0	-1.781395
12	0xbfb5718e	-1.4175279
13	0xbf93d5ba	-1.1549599
14	0xbd3825d8	-0.044957966
15	0xbfe8ea1e	-1.8196447
16	0x3fb8021a	1.4375641
17	0xbe9c2338	-0.3049562
18	0xbccfd9ac	-0.025372349
19	0xbf518923	-0.8184988
20	0x3fb531c2	1.415581
21	0xbfbe0267	-1.4844483
22	0xbfeb6ffd	-1.8393551
23	0x3fd5d03f	1.6704177
24	0x3f8377d4	1.0270944
25	0x40009a21	2.0094073
26	0x3e9d5b43	0.3073369
27	0xbf37ecf6	-0.7184595
28	0xbf956af6	-1.1673267
29	0xbf3d5d3b	-0.73970383
30	0xbfa99393	-1.3248161
31	0x3f536943	0.8258249
32	0x3e2b8a84	0.16752058
33	0xbd176a77	-0.036966767
34	0xbfecd7e1	-1.8503381
35	0x3fb099a6	1.379689
36	0x3ea8187f	0.3283119
37	0xbf9487e7	-1.1603974
38	0xbf87ef65	-1.0619932
39	0x3efc2b09	0.49251583
40	0xbfa875ff	-1.316101
41	0xbfe003f8	-1.7501211
42	0xbfddc780	-1.7326508
43	0x3e46774b	0.19381444
44	0xbe9043e3	-0.28176793
45	0x3d5283b8	0.051395148
46	0x3f922a79	1.1419212
47	0xbf22f386	-0.6365284
48	0x3f9ab7a4	1.2087293
49	0x3fb80c28	1.437871
50	0xbe0fcd97	-0.1404327
51	0x3f90f472	1.1324599
52	0xbf2d8a3f	-0.6778907
53	0x3ea7f4c1	0.3280392
54	0x3f0c27d3	0.54748267
55	0xbfc91271	-1.5708753
56	0x3fb82494	1.4386163
57	0xbf9ddfce	-1.2333925
58	0xbfed2a28	-1.852849
59	0x3f89c489	1.0763103
60	0xbe5b4fb0	-0.21417117
61	0x3bc70fb7	0.0060748714
62	0x3fa50399	1.2891723
63	0xbf2126ad	-0.6294964

fc2.weight f4 [64, 64]
0	0xbe84ec2d	-0.25961438
1	0x3cc89032	0.02448282
2	0x3f97be35	1.1854922
3	0xbe0ef071	-0.13958909
4	0x3e99e44f	0.30056998
5	0xbbab2c40	-0.005223781
6	0x3e0814d3	0.13289194
7	0xbedb0cf5	-0.42783323
8	0xbda5b090	-0.08090317
9	0xbba9f51f	-0.0051866914
10	0x3ca474bb	0.020075193
11	0x3ed49551	0.4152017
12	0x3db1751a	0.086649135
13	0x3edf460c	0.4360813
14	0x3d44690c	0.047951743
15	0xbe33f2be	-0.17573068
16	0xbdbea09e	-0.09307979
17	0x3cda4e58	0.026648685
18	0xbdb5fc7e	-0.0888605
19	0x3f18b4b1	0.59650713
20	0xbe9a67d9	-0.30157354
21	0x3e5d775d	0.21627565
22	0x3ed9fe29	0.4257672
23	0xbe4b9a7a	-0.19883147
24	0xbf9f7e9b	-1.2460512
25	0xbe64f0ed	-0.22357531
26	0xbf2d4baa	-0.6769358
27	0x3e2d2287	0.16907702
28	0xbe0c0a9d	-0.13675924
29	0xbcf7c7d4	-0.030246653
30	0x3d7688f4	0.060189202
31	0xbf7e92c3	-0.9944269
32	0xbdcff344	-0.10153821
33	0x3e45b83b	0.1930856
34	0xbdc5e4cd	-0.09662781
35	0xbef09cbd	-0.46994582
36	0xbd197658	-0.037466377
37	0x3daaf484	0.08347419
38	0xbe4e7bea	-0.20164457
39	0xbe148296	-0.1450294
40	0x3f49f5cf	0.788907
41	0x3e6e032c	0.23243397
42	0x3ead9545	0.33902946
43	0x3d3b1149	0.04567078
44	0x3f407fef	0.7519521
45	0x3b8bc2c0	0.0042651594
46	0xbe90acd5	-0.2825686
47	0x3eddf7e7	0.43353197
48	0xbea969b2	-0.33088452
49	0xbef49cd6	-0.47775906
50	0x3de85767	0.11344796
51	0xbd84dedc	-0.064878196
52	0x3e5e3ca8	0.21702826
53	0x3d4ccf88	0.050002605
54	0xbd8adfb2	-0.06780948
55	0xbea47b26	-0.32125205
56	0xbf1956c7	-0.59898037
57	0x3e57e1c3	0.21082215
58	0x3e911a4d	0.28340378
59	0xbf5fdb60	-0.87444115
60	0x3c64eac0	0.013971984
61	0x3e06f15e	0.13178012
62	0xbd70ed33	-0.05881996
63	0xbe14d863	-0.1453567
64	0xbe3437b4	-0.17599374
65	0xbd3faedf	-0.04679763
66	0x3ea61f06	0.32445544
67	0x3d44dbb7	0.0480611
68	0xbf39f10e	-0.72633445
69	0x3dc4e10a	0.09613235
70	0xbe0a43d0	-0.13502431
71	0x3e0506b6	0.12990841
72	0xbee2c975	-0.44294325
73	0xbd402bb2	-0.04691667
74	0x3d911280	0.07083607
75	0x3f02c3b5	0.51079875
76	0xbc860cbd	-0.016363496
77	0x3ebfb6fb	0.3744429
78	0xbd63f738	-0.055655688
79	0xbcc8397f	-0.024441479
80	0xbee7c959	-0.45270804
81	0x3d0e213c	0.034699664
82	0xbd6a5702	-0.057211883
83	0x3d0225bd	0.03177427
84	0x3c6824b9	0.014168912
85	0x3e5bb7fd	0.21456905
86	0xbc2eef1d	-0.010677126
87	0xbbafbb55	-0.005362908
88	0x3f2ba2d6	0.6704534
89	0x3b8d3475	0.004309232
90	0x3da9d117	0.08291834
91	0xbe21fc77	-0.15818964
92	0x3ec555c5	0.38542
93	0x3e177680	0.14791298
94	0x3cff6b26	0.031179022
95	0x3ed36f10	0.4129567
96	0x3dbb9717	0.091596775
97	0x3c7a4100	0.015274286
98	0xbe68e714	-0.227444
99	0xbe143a08	-0.14475262
100	0xbcdbc6b0	-0.02682814
101	0xbe81a150	-0.25318384
102	0x3e052cfa	0.13005438
103	0x3be39701	0.0069454913
104	0xbe3b47bd	-0.18289085
105	0x3d17ea49	0.037088666
106	0xbf0b7088	-0.54468584
107	0xbd24492f	-0.040108856
108	0x3e7bad4c	0.24577826
109	0xbddcf7fc	-0.10789487
110	0xbe644b58	-0.22294366
111	0xbe82fb29	-0.25582245
112	0xbe85ea9c	-0.26155555
113	0x3c39e6b1	0.011346505
114	0x3d2912f2	0.041277833
115	0xbdb8a790	-0.09016335
116	0xbdf20abb	-0.11818453
117	0x3decab16	0.115560696
118	0x3db703fe	0.08936308
119	0xbdb48a79	-0.08815474
120	0xbe6e509e	-0.2327294
121	0x3db30dec	0.0874289
122	0xbd084bb1	-0.03327531
123	0xbeb998de	-0.3624944
124	0x3d6af974	0.057366803
125	0x3d27528a	0.0408502
126	0x3e124a00	0.14286041
127	0x3b9c532e	0.004770658
128	0xbe8f5917	-0.27997658
129	0x3e0f9936	0.14023289
130	0xbe70ffc6	-0.2353507
131	0x3db21643	0.08695652
132	0x3f3790f5	0.7170556
133	0xbd0af0d2	-0.03392107
134	0x3ddc2fa8	0.10751277
135	0xbe15e71d	-0.14638944
136	0x3eb484de	0.3525762
137	0x3ce98798	0.028507039
138	0x3e0714d0	0.13191533
139	0x3f233fb6	0.6376909
140	0x3daf8178	0.08569616
141	0x3fa4de53	1.2880348
142	0x3ded990e	0.116014585
143	0x3e511554	0.20418292
144	0x3e34ad35	0.17644198
145	0x3d5f47a4	0.05451168
146	0xbda195c5	-0.078898944
147	0x3eae94b7	0.34097835
148	0x3d9ae6d9	0.07563562
149	0xbe82edfd	-0.25572196
150	0x3eb60a20	0.355546
151	0xbe4b45f2	-0.19850901
152	0x3f59f352	0.851369
153	0xbdb69afa	-0.08916278
154	0xbcb29417	-0.02179913
155	0xbda0fe0d	-0.07860956
156	0x3e151cbb	0.14561741
157	0x3e94552f	0.2897124
158	0x3e8ef8d3	0.27924213
159	0x3db344e2	0.08753373
160	0x3dfd5faf	0.12371766
161	0xbe113cb7	-0.14183317
162	0x3e062a70	0.13102126
163	0xbd747cb9	-0.059689257
164	0x3db3dddc	0.08782551
165	0x3d6466f9	0.055762265
166	0xbd8cbe2c	-0.0687221
167	0x3e042bce	0.12907335
168	0x3e339ca2	0.1754022
169	0x3d98de0b	0.07464226
170	0x3eb33df2	0.35008198
171	0x3db94c29	0.090477295
172	0x3eb993c7	0.36245558
173	0xbdc1591a	-0.09440823
174	0x3de2108e	0.11038314
175	0x3e704c53	0.23466615
176	0x3eaf32c9	0.34218433
177	0xbe02c156	-0.12769064
178	0xbe5cd3ff	-0.21565245
179	0x3d908334	0.07056275
180	0x3df44eb1	0.11929072
181	0x3dc75b66	0.0973423
182	0x3e9124ac	0.2834829
183	0x3ddd5e88	0.10809046
184	0xbd2197ec	-0.039451525
185	0xbd887f5a	-0.066649154
186	0x3e13e8a6	0.14444217
187	0x3f222bcd	0.63348085
188	0xbd8fdb00	-0.07024193
189	0x3c1fdc5a	0.009757126
190	0x3e847ea9	0.25877884
191	0x3e77d6e3	0.24203067
192	0x3db9dfe9	0.090759106
193	0xbe9824c6	-0.29715556
194	0xbe4efdce	-0.20214006
195	0x3d0c4f17	0.034255113
196	0xbdb226ef	-0.08698832
197	0xbd6dde60	-0.0580734
198	0xbd83812a	-0.064211205
199	0xbe5c1201	-0.21491243
200	0x3d6bcd31	0.057568733
201	0xba8e7163	-0.0010867532
202	0xbc95f3cf	-0.018304734
203	0x3dd888bd	0.10572956
204	0xbcca1c4d	-0.024671698
205	0xbcdc9083	-0.026924377
206	0xbd9bf86e	-0.076157436
207	0xbde07cf1	-0.10961331
208	0xbe3dcf53	-0.18536119
209	0x3c93efa8	0.018058613
210	0x3dac7ff6	0.08422844
211	0xbd2bb5cc	-0.041921422
212	0xbd8548c4	-0.065080196
213	0xbe652184	-0.22376066
214	0x3db4fe12	0.088375226
215	0xbc8b2bda	-0.016988683
216	0x3db98cfb	0.09060093
217	0x3c4f90da	0.012668813
218	0xbe50fff5	-0.2041014
219	0x3ea4fe56	0.32225293
220	0xbe48c867	-0.19607697
221	0xbd44f673	-0.048086595
222	0xbd5a7f7a	-0.053344227
223	0xbe8b4067	-0.27197573
224	0x3de06741	0.10957194
225	0xbf25b7e3	-0.64733714
226	0x3d4c322b	0.04985253
227	0xbc95fa09	-0.018307703
228	0xbb7eb000	-0.0038862228
229	0xbde1a46b	-0.11017688
230	0xbe6cf244	-0.23139292
231	0xbd89ed41	-0.06734706
232	0x3d862840	0.06550646
233	0xbdd1af76	-0.10238545
234	0xbda64564	-0.08118704
235	0x3b1cd301	0.002392948
236	0x3d8337b0	0.06407106
237	0xbcd6f21a	-0.02623849
238	0xbdef1c24	-0.11675289
239	0x3e17f81a	0.14840737
240	0x3dc325db	0.09528705
241	0xbe0d80d2	-0.13818672
242	0xbcd42b24	-0.025899477
243	0xbe3502c7	-0.1767684
244	0x3dcc10f4	0.09964171
245	0xbd351398	-0.04420814
246	0x3d4d4324	0.05011286
247	0x3e0096de	0.12557551
248	0xbc74b754	-0.014936287
249	0xbbb766aa	-0.0055969553
250	0xbe3b307f	-0.18280219
251	0x3e04b7f0	0.12960792
252	0x3dc8702a	0.097870186
253	0x3de189c4	0.11012605
254	0xbd92a101	-0.07159615
255	0xbdf5152e	-0.1196693

fc2.bias f4 [64]
0	0xbe0dde98	-0.13854444
1	0xbe93af45	-0.28844658
2	0xbf814f5d	-1.0102345
3	0xbc8f78f0	-0.017513722
4	0x3f1f3d79	0.62203175
5	0xbd8dee74	-0.06930247
6	0xbf0e3e0d	-0.5556343
7	0x3f7d0576	0.9883646
8	0x3f1eebf5	0.6207879
9	0x3dc84093	0.097779416
10	0xbd472a82	-0.048624523
11	0x3d990a3d	0.07472656
12	0x3ecba7c0	0.3977642
13	0xbf5b8758	-0.85753393
14	0xbf48b69f	-0.7840366
15	0xbc848444	-0.01617635
16	0xbc9f3463	-0.01943416
17	0xbed79db0	-0.42112494
18	0x3dbd8e03	0.09255602
19	0x3db47079	0.08810515
20	0x3d8062d4	0.0626885
21	0x3f9a1ace	1.203943
22	0xbe0ae132	-0.13562468
23	0x3ca0addf	0.019614158
24	0xbe88132f	-0.26577136
25	0xbe29cdb7	-0.1658238
26	0xbe2f5940	-0.1712389
27	0xbf21ebab	-0.63250226
28	0xbe9678cd	-0.2938904
29	0xbf2bced6	-0.6711248
30	0xbd6fb9ef	-0.05852693
31	0x3fbaf378	1.4605551
32	0x3df6d96e	0.1205319
33	0xbd5fe719	-0.05466375
34	0x3fbc281c	1.469974
35	0x3fcff8a2	1.6247752
36	0xbda3a5ad	-0.079905845
37	0x3d291d64	0.041287795
38	0x3f63db85	0.89006835
39	0xbf186602	-0.5953065
40	0xbdf8f157	-0.12155407
41	0x3cad1b06	0.02113105
42	0x3e3ecb43	0.18632226
43	0xbeb0c9ed	-0.34529057
44	0xbd8153da	-0.063148215
45	0xbf3f176c	-0.74645114
46	0xbf8e35cd	-1.1110169
47	0xbef4dc83	-0.47824487
48	0x3e83aa36	0.25715798
49	0xbec531e2	-0.3851462
50	0xbdc41978	-0.0957517
51	0x3b80bb80	0.0039286017
52	0xbecade0a	-0.39622527
53	0x3f1bcf6e	0.6086339
54	0x3f07510f	0.5285806
55	0x3f1ff271	0.6247931
56	0x3d9c718d	0.076388456
57	0xbc4d38ac	-0.012525719
58	0xbf277f20	-0.6542835
59	0xbf688dd5	-0.9084142
60	0x3f97f9aa	1.1873066
61	0x3dcfe563	0.10151174
62	0xbdba406d	-0.090943195
63	0xbd1f8a53	-0.038950276

fc3.weight f4 [20, 64]
0	0x3ea837de	0.32855123
1	0x3c214f8c	0.009845626
2	0xbe8119ff	-0.25215146
3	0x3e35fd87	0.17772494
4	0xbd89bc4b	-0.06725367
5	0x3d7bc150	0.061463654
6	0x3e273351	0.1632817
7	0x3ed23324	0.41054642
8	0xbf110021	-0.5664082
9	0xbdbfe5fb	-0.09370037
10	0xbddfb069	-0.109223194
11	0xbd6bd9ba	-0.057580687
12	0xbdf5a1b5	-0.11993734
13	0xbe057402	-0.13032535
14	0xbe8c7d92	-0.27439553
15	0xbd9c36bf	-0.076276295
16	0x3dd60ba0	0.10451436
17	0x3d6014cf	0.054707345
18	0x3d628df8	0.055311173
19	0x3c8e6bb7	0.017385347
20	0xbce8ba3e	-0.02840912
21	0x3f04d075	0.5188058
22	0xbdc3022c	-0.095218986
23	0x3dce8903	0.10084727
24	0x3c2e90ce	0.010654641
25	0xbddf6e01	-0.109096535
26	0x3c957ffa	0.0182495
27	0x3c07f83d	0.008298931
28	0x3c1613fd	0.009160039
29	0xbd27d9cf	-0.040979203
30	0x39c6db2b	0.00037928796
31	0x3ec09c94	0.3761946
32	0x3c739aa3	0.014868411
33	0xbd4d3744	-0.050101534
34	0x3f452f35	0.7702516
35	0x3f9a96ab	1.207723
36	0xbdee1247	-0.1162458
37	0xbdd03940	-0.101671696
38	0xbf82e06e	-1.022474
39	0xbdacde74	-0.08440867
40	0x3d3d66f3	0.04624076
41	0x3d583950	0.052789032
42	0x3f12cf35	0.5734742
43	0xbdd3b08f	-0.1033641
44	0x3d992e72	0.07479562
45	0xbdb8c6dc	-0.090223044
46	0xbe8d25ec	-0.27567995
47	0xbcc7fcb3	-0.024412489
48	0xbdd8bbea	-0.10582717
49	0xbbf916bd	-0.0076015876
50	0xbb981c60	-0.0046420544
51	0x3dd2c22c	0.102909416
52	0x3b493094	0.003069912
53	0xbf442515	-0.7661908
54	0xbbeb63bf	-0.0071835215
55	0x3c8aca31	0.016942116
56	0xbd95f16d	-0.07321439
57	0x3d5e7bcf	0.05431729
58	0xbd73e1cb	-0.059541505
59	0xbdcebcf2	-0.10094632
60	0x3f94f626	1.1637619
61	0xbd2c9028	-0.042129666
62	0xbd7cb3aa	-0.06169478
63	0xbd338bc4	-0.043834463
64	0x3ed26e94	0.4109999
65	0xbc44aaaa	-0.01200358
66	0xbe8e55d2	-0.2779985
67	0xbd705dba	-0.058683135
68	0x3dad96c6	0.084760234
69	0x3c1b26f0	0.009469733
70	0x3e695e9e	0.2279
71	0x3ec1fcee	0.37888283
72	0x3e1cbb68	0.15305865
73	0x3e454e41	0.19268133
74	0xbddfb838	-0.10923809
75	0x3ddca770	0.10774124
76	0x3e3a7b48	0.1821109
77	0xbe3da26a	-0.18518987
78	0xbe17bf02	-0.14818957
79	0x3c80e712	0.015735183
80	0x3dbd45f4	0.09241858
81	0x3ddb297b	0.10701271
82	0xbc05b060	-0.008159727
83	0x3dc05a08	0.09392172
84	0xbc9e52cd	-0.019326592
85	0x3f158eb4	0.5842087
86	0x3d24f00c	0.04026799
87	0x3d050145	0.032471914
88	0xbd12b14c	-0.035813615
89	0xbde83bf0	-0.11339557
90	0x3d9c07e0	0.076186895
91	0xbe7ec23c	-0.24878782
92	0x3c7d6a13	0.015467185
93	0xbc45c64d	-0.012071204
94	0xbdd8b262	-0.10580899
95	0x3eaba957	0.33527634
96	0xbd79438c	-0.060855433
97	0xbd10ad97	-0.0353218
98	0x3f30fffb	0.69140595
99	0x3f3e589f	0.74353975
100	0xbc2e6018	-0.010643028
101	0x3bbc4fc0	0.0057468116
102	0xbf3931c8	-0.72341585
103	0xbe279de4	-0.16368824
104	0xbd3c70db	-0.046006065
105	0xbddc60ee	-0.10760675
106	0x3dbb6e72	0.09151925
107	0x3b0fb88f	0.0021930074
108	0x3d2fdd6c	0.042935774
109	0xbdfc1bee	-0.12310015
110	0xbeb734ba	-0.35782415
111	0xbb8af16e	-0.0042402064
112	0x3ec190e3	0.37805852
113	0x3c9290f0	0.017891377
114	0x3c94aaa6	0.018147778
115	0xbd38b7b7	-0.04509708
116	0x3b2a53ba	0.0025989846
117	0xbf010224	-0.5039389
118	0x3d109daa	0.03530661
119	0x3e849cc3	0.2590085
120	0x3cf1d4b2	0.029520366
121	0xbcaa6b83	-0.020803219
122	0xbe08dfbd	-0.133666
123	0xbde294ac	-0.11063513
124	0x3f3756ed	0.71617013
125	0xbd904036	-0.07043497
126	0x3d63a425	0.055576462
127	0x3de16ed4	0.11007467
128	0x3ed7536c	0.42055833
129	0xbdb12bdc	-0.08650944
130	0xbe660506	-0.22462854
131	0x3d1db801	0.038505558
132	0x3e59d785	0.2127362
133	0xbdfa1114	-0.12210289
134	0x3df070a7	0.11740237
135	0x3eddfb7a	0.43355924
136	0x3d5570f7	0.052109685
137	0x3df4263a	0.11921354
138	0xbdbb9dea	-0.09160979
139	0x3e02bf23	0.12768225
140	0x3e410b24	0.18851906
141	0xbb362be8	-0.0027797166
142	0xbe0c7450	-0.13716245
143	0x3db0a54a	0.086252764
144	0x3da7a3c8	0.08185536
145	0x3d0444cc	0.032292172
146	0x3a5fae00	0.0008532703
147	0x3d956642	0.07294895
148	0xbdc9af2d	-0.09847865
149	0x3f06547a	0.5247265
150	0xbdc9c52e	-0.09852062
151	0x3d840f14	0.064481884
152	0xbd2a5e5b	-0.04159389
153	0x3cd0b855	0.025478521
154	0x3c9daf1d	0.01924854
155	0x3e127f35	0.14306338
156	0x3bf8e8ac	0.007596096
157	0xbe32c0c2	-0.17456344
158	0xbcaf0808	-0.021366134
159	0x3edacccc	0.42734373
160	0x3d2fb1ae	0.042894058
161	0xbc580b60	-0.013186306
162	0x3f2bc6a0	0.6709995
163	0x3f2160ea	0.63038504
164	0x3cccd058	0.02500169
165	0x3d999fd0	0.07501185
166	0xbf0df74a	-0.5545546
167	0xbe5a58dc	-0.2132296
168	0x3d272d5c	0.040814742
169	0xbd859660	-0.065228224
170	0x3e178cf5	0.14799865
171	0xbcd00eba	-0.025397647
172	0xbbe84160	-0.0070878714
173	0xbe532d82	-0.20622829
174	0xbeb5c1b3	-0.35499343
175	0xbd67263b	-0.056432944
176	0xbe66bc70	-0.2253282
177	0xbd3d779a	-0.04625664
178	0xbd735153	-0.05940373
179	0xbd83f7a4	-0.06443718
180	0xbe004c53	-0.12529115
181	0xbf4f1aa4	-0.80900025
182	0x3d77fd89	0.060544524
183	0x3e22d0a5	0.15899904
184	0xbb8a088c	-0.0042124446
185	0xbd92d460	-0.071694136
186	0xbe1be8db	-0.15225546
187	0xbe1f2942	-0.15543082
188	0x3f4c55a7	0.79818195
189	0x3ded8562	0.115977064
190	0x3cece128	0.028915957
191	0xbd60eae8	-0.054911524
192	0x3eb1963f	0.3468494
193	0xbc450ff3	-0.012027728
194	0xbe80c5ab	-0.2515081
195	0xbdf089e1	-0.11745048
196	0x3e1a5093	0.15069799
197	0xbc9dd028	-0.019264296
198	0x3e380b04	0.17972952
199	0x3ee116e0	0.43962765
200	0xbd9a3767	-0.075300984
201	0x3e0ea5d6	0.13930449
202	0x3bc85cd7	0.006114583
203	0x3d966d68	0.07345086
204	0x3e9f83ff	0.31155393
205	0xbe98af2f	-0.29821154
206	0xbddd20e8	-0.10797292
207	0xbc9202e6	-0.017823648
208	0x3d9f672b	0.077833496
209	0x3ccb95b0	0.02485165
210	0xbd8e4e16	-0.069484875
211	0x3e0c2130	0.13684535
212	0xbdedd01c	-0.11611959
213	0x3eff8063	0.4990264
214	0x3dc99cee	0.09844385
215	0xbd1d05c9	-0.038335595
216	0xbe02e957	-0.12784325
217	0xbdfe1c98	-0.124077976
218	0xbd7afcc8	-0.061276227
219	0xbcb5168c	-0.022105478
220	0x3d4789d9	0.048715446
221	0xbe5479e4	-0.20749623
222	0xbd9a0966	-0.07521324
223	0x3ef873b3	0.48525771
224	0xb9f77c80	-0.0004720427
225	0x3d9692b4	0.073522
226	0x3f1b534f	0.60673994
227	0x3f30bd4f	0.6903886
228	0xbd590a06	-0.052988075
229	0xbdd3af0a	-0.103361204
230	0xbf0843f1	-0.5322867
231	0xbe3adcb6	-0.18248257
232	0x3d1eb761	0.038749103
233	0x3cf908c6	0.030399691
234	0x3de8fe94	0.11376682
235	0xbcfe0d7c	-0.03101229
236	0x3cc8bb28	0.024503306
237	0xbe4a3a89	-0.19748892
238	0xbe5fe768	-0.21865618
239	0xbe0cd11c	-0.13751644
240	0x3ee782e7	0.45217058
241	0xbd5d0343	-0.05395819
242	0xbcfd1887	-0.030895485
243	0xbcfc7200	-0.030816078
244	0x3c1d9e2e	0.0096202325
245	0xbf3016fd	-0.6878508
246	0x3e2c67d4	0.16836482
247	0x3e634e23	0.22197776
248	0xbd0f4e05	-0.034986515
249	0x3d433c3c	0.047664866
250	0xbd933ed8	-0.07189721
251	0xbe79ef74	-0.2440775
252	0x3f4812aa	0.7815348
253	0x3c21d05c	0.009876337
254	0xbd970e6c	-0.07375798
255	0xbda798d9	-0.0818345

fc3.bias f4 [20]
0	0x3f90f329	1.1324207
1	0x3e9b2003	0.3029786
2	0x3ef8855d	0.48539248
3	0x3ea20e5f	0.3165159
4	0x3e4f3898	0.20236433
5	0x3e2733f7	0.16328417
6	0x3ead70b7	0.33875057
7	0x3e4c02b7	0.1992291
8	0x3e6918d8	0.22763383
9	0xbdef542a	-0.11685975
10	0x3e5fd854	0.21859866
11	0xbca1a129	-0.019730167
12	0xbc1ba5c5	-0.009499972
13	0xbd4da0fe	-0.050202362
14	0x3e563eaa	0.20922342
15	0xbe6a5c40	-0.22886753
16	0xbdd90160	-0.105959654
17	0xbe12f050	-0.14349484
18	0xbe125ea0	-0.14293909
19	0xbe9e6a3e	-0.3094043
