beer/experiments/new_env/full/models/dqn_agent_firm_1_episode_9000.pth (torch, 107368 bytes, 24 tensors)

fc1.weight f4 [64, 9]
00000000: 2a1d dc3e 056c 1b3f f128 d9bd 1148 b6bd
00000010: aec0 b93d 1f9e ca3e a2e3 723e 4c62 e53e
00000020: d0c5 1c3f 6bbb f9be 9245 a13e 0a0b 95be
00000030: 3005 f5be 06c2 8ebd 1df5 e33c db9f 0a3f
00000040: 4754 3bbe 5da5 cebe 0e35 893e c571 05bf
00000050: f97d 80bf d729 0f3f 031e 37bf f86a 8dbe
00000060: a4e3 e4be 50c1 403f 944d 933e bab5 4c3e
00000070: ea92 593e cf51 da3d 80ec d5be c963 17bf
00000080: 7d4a c33e dd5f c7bd e2e9 6bbd 1f98 973e
00000090: 76b0 92bf bbda 12bf 4c10 b03e 01f4 f93e
000000a0: 4d16 17bf fa48 25bd 6cf0 e9be 8253 a4bd
000000b0: 7cf0 0fbf b43a 37bd 52e0 46be 8ba0 a6be
000000c0: f91c 523e a7f4 1cbe 2cbf e9bc 8ac4 8d3d
000000d0: 8d1b 87be c6f5 76bb 6dd1 e9be d71d cdbe
000000e0: 46f4 93be d52d 5a3e dc1a b83d a51b db3c
000000f0: db8b 8bbe c8b6 143f a7b8 08bf 3c51 5fbe
00000100: c3d5 913d 88d8 66bf 0209 10be b6d5 163e
00000110: c7c2 3ebe f411 80bf 92fa 4a3e be7c 023e
00000120: 9523 f73e 21ae 893f 3ade 173e 65fa f4bd
00000130: 4d49 5bbe f4f0 3bbf 0728 a2be 84c5 3bbd
00000140: 1367 dc3e 6e54 7dbf 0dcf 7abe eee0 09bf
00000150: 4e07 573d a0e3 08bf 057f 253f 29c4 aebd
00000160: da92 4dbc 4694 ddbe 85db 21bf 1392 3cbf
00000170: 63cc b4be 8afb 8e3e 49c5 9dbe 18fc 193e
00000180: 97b9 19bf 947b 87bd 92bf 60be 4a47 58c0
00000190: 5b69 f43e a130 193f c32e 823e fe33 4fc0
000001a0: 6c7c 29bd 3e0b 1bc0 3f62 98be 9c35 153c
000001b0: e31f 943c 626e c6bf d92b a4bf 15c7 88bc
000001c0: 7a34 313e 40b5 873e 0496 8cbf b29f 123d
000001d0: 2f5c 7b3e 0503 7ac0 4c01 6c3f bf57 4a3f
000001e0: 14b1 ddbd e1a5 5cc0 7f1a 883c 5a21 1dc0
000001f0: b847 aebd 8b6b 14be 1041 71be fb2e 04be
00000200: 5ab0 063e 3096 133e bb0d 13be 44af 83be
00000210: 9692 7d3e 7c04 f6bd 03d5 07be 3f3a 6dbf
00000220: 5ee4 1abf 7ca5 dfbd 442b 083f b621 0bbe
00000230: 60a9 d73e d693 863f 32ae 8a3e 77aa 30bf
00000240: 03cf 613e 076e 083d 1fa4 a53e d583 633e
00000250: f0b9 d7be deb5 843e 79ed a5bd df92 ab3e
00000260: 22b2 4ebf d861 35be 80f8 773c 5600 84be
00000270: 20bc 0dbc 7039 bc3c 3eda 33be 087a 63be
00000280: 007d c9bd 83e2 9fbe e518 4e3c 74ee 29be
00000290: 5302 033e 6c8d 1ebe 055a b7bd acd1 26be
000002a0: 85dc d23c 2352 ee3d 3861 90be 0ab9 31bf
000002b0: 39c0 8dbf ef5f 183e e7fb ac3e c35b 553e
000002c0: edd9 af3d 2711 15bf fcf9 f33b 1ccc 3bbf
000002d0: eaef c93e b826 343f abb5 98be 2054 0ebd
000002e0: 35c2 b3be 5906 143f bdaf c2bd 4497 9e3e
000002f0: e647 8e3e c86f 89be 693f 11bf bef2 fabe
00000300: 4b30 413e b669 883e d162 3bbe 904f a8bf
00000310: ee11 9e3e ff10 193f 2423 1fbf b87c 69bf
00000320: 7436 83be 2a49 473d 9bd1 b43e 8ae8 953d
00000330: 7839 40bf d656 88bd 7910 3ebd 269d 003f
00000340: b9a0 453f 9c9c 193f 4ba3 60be 9203 42be
00000350: f6a0 913e 1a74 9cbd fbc6 80be 5a6d 953d
00000360: 7493 693f 1fe1 823f 711d 09bd 4d72 ddbc
00000370: 7545 63bf ad97 8fbf de37 b6bc 12cd a43d
00000380: db3c ac3b 83a2 123f 259a 8c3f 8893 ff3d
00000390: 31a6 163e 1b85 0dbf 8e42 933e 3836 efbd
000003a0: 70b1 d2bd c498 053f 65bf ba3e 25c6 183f
000003b0: e2dd f4be 39c7 51be 74df e6bd a795 023f
000003c0: 5de0 b43e badf 4bbe 7917 ee3d 4472 babe
000003d0: 9944 15c0 c198 093f a0db 03be bd6a d93e
000003e0: 4556 05bf 1e44 7fbf 71df 89be 7c1e 11be
000003f0: 579b b8be 2b24 9bbf bfc4 bcbe 6962 5bbc
0.42991 0.607117 -0.10603512 -0.08900464 0.09069954 0.39573762 0.23719648 0.44801557
0.6123934 -0.487758 0.3149839 -0.29109985 -0.4785552 -0.06970601 0.02782684 0.5415017
-0.18293868 -0.40360537 0.2679829 -0.52126724 -1.0038444 0.5592322 -0.7153017 -0.27620673
-0.44704926 0.7529497 0.28770125 0.19991198 0.2124745 0.10660135 -0.41781998 -0.59136635
0.38142768 -0.09735081 -0.057596095 0.29608247 -1.1460102 -0.57365006 0.34387434 0.48818973
-0.59018403 -0.0403528 -0.4569124 -0.0802374 -0.56226325 -0.044733718 -0.19421509 -0.3254436
0.20518865 -0.15327702 -0.02853354 0.069222525 -0.26388207 -0.0037683113 -0.45667592 -0.40061828
-0.28897303 0.21306546 0.08989498 0.02674658 -0.2725514 0.580914 -0.5340676 -0.21808332
0.0712085 -0.9017415 -0.14065936 0.14729962 -0.18628989 -1.0005479 0.19822147 0.12742898
0.48269334 1.0756265 0.14830866 -0.119618215 -0.21414681 -0.7341454 -0.31671163 -0.045842662
0.4304739 -0.98956954 -0.24493046 -0.5385884 0.0524972 -0.5347233 0.6464694 -0.08533508
-0.012547219 -0.43277186 -0.63225585 -0.7366039 -0.35312185 0.27926284 -0.3081458 0.15037572
-0.6004881 -0.066153675 -0.21948078 -3.3793511 0.4773663 0.59839827 0.254263 -3.2375484
-0.041378424 -2.4225612 -0.29762456 0.00910702 0.018081611 -1.5502436 -1.2825881 -0.016696492
0.17305174 0.2650547 -1.0983281 0.03579683 0.24546884 -3.9064343 0.9218948 0.7904014
-0.108247906 -3.4476244 0.016614197 -2.4551606 -0.08509773 -0.1449415 -0.23559976 -0.12908547
0.1315321 0.1441276 -0.14360707 -0.25719655 0.2476295 -0.12012574 -0.13264851 -0.92667
-0.6050471 -0.109202355 0.5319102 -0.13587078 0.4212141 1.0513866 0.27086025 -0.6901011
0.22051625 0.033308055 0.32351777 0.22218259 -0.42134047 0.25920004 -0.08101935 0.3351049
-0.8074056 -0.17713106 0.015134931 -0.25781506 -0.0086508095 0.022976607 -0.17563722 -0.2221452
-0.09838295 -0.31227502 0.0125791775 -0.16594869 0.12793855 -0.15483636 -0.08952717 -0.16290921
0.025739918 0.1163676 -0.28199172 -0.6942297 -1.1074287 0.14880346 0.33785936 0.20835786
0.08586488 -0.582293 0.007445572 -0.7335832 0.39440852 0.7037158 -0.29826102 -0.034748197
-0.35109106 0.57822186 -0.09506176 0.30974782 0.2778923 -0.26843095 -0.5673738 -0.49013323
0.18866079 0.2664315 -0.18299414 -1.314928 0.30873054 0.5979156 -0.62162995 -0.9120593
-0.25627482 0.04865376 0.35316166 0.07319744 -0.7508769 -0.06657188 -0.04640243 0.5023979
0.7719837 0.6000459 -0.21937291 -0.18946674 0.28443116 -0.07639332 -0.2515181 0.07296248
0.9124062 1.0224952 -0.033475343 -0.027032042 -0.8877786 -1.1218163 -0.022243436 0.080469266
0.005256278 0.57279223 1.0984541 0.12479311 0.14711834 -0.5528123 0.28761715 -0.11680263
-0.1028775 0.52186227 0.36474147 0.59677345 -0.47825533 -0.20486154 -0.11273089 0.510096
0.35327426 -0.19909564 0.11625571 -0.36415303 -2.3323119 0.5374871 -0.12876749 0.42464247
-0.5208476 -0.99713314 -0.26928285 -0.14171785 -0.36056015 -1.2120413 -0.36868855 -0.013390162

fc1.bias f4 [64]
00000000: a3af cb3f 3034 84be fb41 0b3f 9e2d 9c3f
00000010: c35e f2bf d5e0 8d3e 0100 1dbf 2442 2abf
00000020: d5a6 873f ac60 a3bf 5bec c2be 4835 0fc0
00000030: 3a7d 25c0 09cb c7bf d825 38bd 309d f9bf
00000040: 8f7f 973f ce22 9cbe 2341 7bbd efbc 99bf
00000050: 22a0 bc3f 625d c1bf 7932 03c0 a97f de3f
00000060: 71b4 c43f c3bc 0840 ed19 273f 7d8c 21bf
00000070: c619 aebf 5fb4 19bf c247 c2bf 8c00 693f
00000080: 279b 0c3e 834a 45bd 88e1 1dc0 5e74 b33f
00000090: 7f18 a83e e907 c1bf 9136 dabf 5791 c33e
000000a0: c9fd e2bf 234d e3bf dee8 febf a875 463e
000000b0: 6e63 67bf b883 523d db6b 773f 342d 88bf
000000c0: 1a71 a13f 3120 c63f 22eb 9fbe 81a9 8f3f
000000d0: de38 f9be c1f4 a73e e56b 143f cf97 f2bf
000000e0: 8f7b b43f 56fb b4bf 9df4 03c0 37aa a33f
000000f0: b04f 5bbe 2f0c c73b 918d 863f 7eac 7cbf
1.5912975 -0.25821066 0.54397553 1.2201421 -1.8935169 0.27710596 -0.6132813 -0.6650717
1.0597788 -1.2763877 -0.3807095 -2.237627 -2.5857682 -1.5608836 -0.044957966 -1.9501095
1.1835803 -0.30495304 -0.061341416 -1.2010783 1.4736369 -1.5106623 -2.0499556 1.7382709
1.5367566 2.136521 0.65273935 -0.63104993 -1.3601615 -0.6004085 -1.5178149 0.9101646
0.13731061 -0.048166763 -2.4668903 1.4019887 0.3283119 -1.5080539 -1.7047902 0.38196823
-1.7733699 -1.7757915 -1.9914815 0.1938082 -0.9038609 0.051395148 0.9664895 -1.0638795
1.2612641 1.5478574 -0.3123408 1.1223603 -0.486762 0.3280392 0.57977134 -1.8952578
1.4100207 -1.4139202 -2.061805 1.278632 -0.21417117 0.0060744504 1.0511953 -0.987007

fc2.weight f4 [64, 64]
00000000: 4b2e 86be 467a c53c 61c1 973f bdd2 10be
00000010: d5da 993e 402c abbb db10 083e 3409 dcbe
00000020: e6b1 a5bd caef aebb 2aa3 9a3c 8f13 d43e
00000030: a8ce b33d 86af de3e 0c69 443d 1e73 34be
00000040: 74f2 b9bd 584e da3c 3fff b5bd 2968 183f
00000050: 1cab 9bbe 377c 5d3e b217 da3e cccb 4dbe
00000060: 327f 9fbf 2257 67be feb0 2dbf 38c9 2b3e
00000070: f25e 0fbe 08a8 ffbc cecd 733d 5b95 7ebf
00000080: 6983 d3bd 4bec 433e 97f0 c5bd 071d f2be
00000090: 5876 19bd 3b2e ab3d c7f7 4ebe 32e6 15be
000000a0: 79ab 493f a23e 6d3e 89fb ad3e ea0f 3b3d
000000b0: 6181 403f c0c2 8b3b 0c82 91be 3a6e dd3e
000000c0: c966 a9be 4abe f5be 4185 e53d 860c 88bd
000000d0: c6b6 5c3e 88cf 4c3d 4328 8ebd 8795 a4be
000000e0: bef0 19bf 35d4 563e b0b2 903e 94da 5fbf
000000f0: c0ea 643c d9f3 063e 456c 76bd 7581 16be
00000100: 50e9 73be 4a12 97bd 99a0 a73e 1de3 23bc
00000110: 510d 39bf 70df c43d 3a74 51be c6c0 2e3d
00000120: 3e9a e2be 9bf8 d9bd ddbe d73c bdd8 f63e
00000130: b234 bebd e383 b23e 38f7 63bd 7ba0 cdbd
00000140: 0d7c 01bf 0021 0e3d ca59 6abd f7d8 a0bc
00000150: 54b6 5ebd ff94 e93d 0508 b6bd d809 50bd
00000160: 8797 2d3f 98cd 53bd c456 f537 26d2 26be
00000170: 6635 e03e 035c c23d 6837 dfbc a5b6 dd3e
00000180: 5139 293d 985c c8ba 9759 8cbe 060f 5ebe
00000190: b0c6 dbbc 589c 83be c99b 1a3d 7cdc 09bd
000001a0: dabb 5bbe 1c51 0a3d ffec 26bf 5949 24bd
000001b0: 5c1f 843e fcf7 dcbd e49b 8fbe 21dc 9cbe
000001c0: fd81 5bbe c6dc 58bd e6fa 823c 1c7b 0ebe
000001d0: 52f6 0fbe 16ab ec3d b238 1c3d 92dd cbbd
000001e0: 14a9 94be ff98 183d 3589 bbbc e9ef bbbe
000001f0: 74f9 6a3d 6d54 273d 5295 d53d b8b1 00bd
00000200: 5c1a c1be a722 7cbf 98dd 993e d30b 643d
00000210: 56f1 203f fbf1 0abd 0f3a 393e 2bbc 84bc
00000220: 3ea4 423f e53a 323e 7f77 003e 2b77 57bf
00000230: 40b9 adbf 457f 2dc0 0e99 ed3d c851 593e
00000240: 26f9 d3bf a447 5f3d ca97 a1bd 21a6 7f3e
00000250: c770 6fbd 4408 82bf e1b3 a53e 7380 1abe
00000260: 5a2c 0240 e17b a2bd ca51 b93d c30b 19c0
00000270: 5857 353c 08b0 8bbf 6e7d 8c3e 0854 243f
00000280: bda1 4dbf 1102 c0be f1bf 2abf 6124 47be
00000290: dcdd b33d dc53 90be 885a 62bd 8284 0b3e
000002a0: 7a01 a6bf 696d 053e 019e bd3e 934e b93d
000002b0: 48c3 9d3f 1a59 c1bd 74af a4bf a85d c7be
000002c0: 2bbd 113f 85bc 73be f1b9 6dbf 06c6 cfbf
000002d0: bbb1 e2bf 665b c73d 460e 61be 4dac 0abf
000002e0: 37c3 3e3e 90e7 78bf aaf0 7b3d 35dd 733f
000002f0: 00db 8fbd 66d8 1f3c f9e5 303d 7909 e4bf
00000300: 6858 9e3b 2461 6ebe 68b4 dabd 8c37 f33d
00000310: 9c13 3abe 60de 6dbd b91f 2dbe d1eb 15bf
00000320: e02d 38bd 7ef6 2fba 27ba c33b 340b 343e
00000330: e642 a4bd ae01 563d 6ef8 9bbd 32fe f6bd
00000340: fc7e 78bd a8ef 933c f67f ac3d bbff 01be
00000350: d252 0abe 5e59 a8be 92bf 99bd 27fa c0bd
00000360: 0e6d b3bd 57f8 5cbd 27b0 0fbe 97ab 273e
00000370: e120 97be 907b d7bd 1002 ffbc 8d1d d4be
00000380: a877 973d 9a48 4bbf 8c21 553d 3030 d6bd
00000390: 00b0 7ebb aca6 e1bd 7b8c aebe 7ad8 aebd
000003a0: 5aa1 013e 9731 84be 0263 a7be 00d3 1c3b
000003b0: 5a05 92bd b8f1 d6bc b65c 21be 52b1 18bd
000003c0: 6141 a8bb cadf 1ebe fdae 93bc 7c74 c5bd
000003d0: 8f64 8b3e 9813 35bd ffee 0d3d 5598 783d
000003e0: bc58 b8bd 912c 153b 8675 9fbe e4f9 723c
000003f0: 2a70 c83d c489 e13d 00a8 823d 26d8 20bd
-0.26207194 0.024106156 1.185589 -0.1414289 0.30049768 -0.005223781 0.1328768 -0.4297577
-0.08090572 -0.0053386437 0.01887663 0.41421172 0.08779651 0.4349329 0.047951743 -0.17622039
-0.090794474 0.026648685 -0.08886575 0.59533936 -0.30403984 0.21629415 0.42596203 -0.20097274
-1.2460692 -0.22591832 -0.67848194 0.16775978 -0.14001063 -0.031208053 0.059522443 -0.9944665
-0.10327799 0.19133107 -0.096650295 -0.4728777 -0.037466377 0.08358427 -0.20211707 -0.14638594
0.7877727 0.23168424 0.3398097 0.045669474 0.75197417 0.0042651594 -0.2841953 0.4324816
-0.3308623 -0.47996742 0.11207057 -0.06643014 0.21554098 0.050002605 -0.06941273 -0.3214533
-0.6013297 0.20979388 0.28261328 -0.874429 0.013971984 0.13178958 -0.060161848 -0.14697821
-0.2381947 -0.07376535 0.32739714 -0.0100028785 -0.72285944 0.0961293 -0.20454493 0.04266431
-0.44258302 -0.10643121 0.026336128 0.48212233 -0.092873946 0.34866247 -0.055655688 -0.10040375
-0.5057991 0.03469944 -0.057214536 -0.019634707 -0.0543731 0.11405372 -0.08888248 -0.050790638
0.6780934 -0.05170974 2.924668e-05 -0.16291103 0.4379074 0.09490206 -0.0272481 0.4330341
0.041314427 -0.0015286384 -0.27412102 -0.21685418 -0.02682814 -0.25705218 0.037746225 -0.033657536
-0.21458378 0.03376876 -0.6520538 -0.040109012 0.25805175 -0.10789487 -0.28048623 -0.30636695
-0.21436305 -0.05294492 0.015988778 -0.1391415 -0.14058807 0.115560696 0.038140006 -0.099543706
-0.29035246 0.037255283 -0.022892574 -0.36706474 0.057366803 0.040852 0.10428871 -0.031419486
-0.37715423 -0.98490375 0.30051875 0.05567534 0.6286825 -0.033922177 0.18088554 -0.016203007
0.76031864 0.17405279 0.12545584 -0.8416621 -1.3572159 -2.710893 0.116014585 0.21222603
-1.6560409 0.05451168 -0.078902796 0.24965717 -0.058457162 -1.0158772 0.323638 -0.15088062
2.033957 -0.07933784 0.09048803 -2.3913429 0.011068188 -1.0913095 0.27439445 0.6419072
-0.8032492 -0.37501577 -0.6669913 -0.19447471 0.08782551 -0.2818898 -0.05526212 0.13624766
-1.2969201 0.13030018 0.3703461 0.0904819 1.232522 -0.09440823 -1.2866044 -0.38938642
0.5692927 -0.23802383 -0.9286185 -1.6232307 -1.7710489 0.0973423 -0.21978101 -0.5416916
0.18629156 -0.97228336 0.061508812 0.9525941 -0.07024193 0.009756183 0.04318807 -1.7815391
0.004832316 -0.23279244 -0.10678941 0.11875829 -0.18171543 -0.0580734 -0.16906632 -0.5856295
-0.044965625 -0.00067124504 0.005973119 0.17582399 -0.08020572 0.052247696 -0.076157436 -0.12060203
-0.060667977 0.018058613 0.08422844 -0.1269521 -0.13508156 -0.32880682 -0.07507242 -0.09422713
-0.08761035 -0.053947773 -0.1403204 0.1637405 -0.29517272 -0.105216146 -0.031128913 -0.41428795
0.073958695 -0.79407656 0.052033946 -0.1045841 -0.0038862228 -0.11018118 -0.34091553 -0.085373834
0.12659207 -0.25819084 -0.32692724 0.0023929477 -0.07129927 -0.026238307 -0.15758023 -0.03727848
-0.005134747 -0.15515056 -0.018027777 -0.09641358 0.27225158 -0.04420814 0.034651753 0.06069215
-0.090013 0.002276216 -0.3114435 0.014830086 0.097870186 0.11012605 0.063797 -0.039268635

fc2.bias f4 [64]
00000000: a3cf 0fbe e4ff b6be f6a9 69bf 0455 bfbd
00000010: 338c 153f 6cf0 8dbd e9aa 14bf 9a19 a63f
00000020: e469 463f 78a5 d4bd 734d 47bd 8d08 993d
00000030: 94c2 ce3e e22f 60bf 1e77 68bf c959 44bd
00000040: 0dbf 0dbd 11d6 9abe 348b bd3d 0158 9e3d
00000050: d624 71be a07e c53f 0be1 0abe e798 a03c
00000060: 648e bdbe 2973 2abe 5659 2fbe 0c62 39bf
00000070: 9dda cbbe 888d 3dbf 31b9 6fbd ae2e f43f
00000080: 60af f63d 2ae9 5fbd 6009 f53f 00c8 ee3f
00000090: 9d81 a9bd ad9f 753c 4da0 423f 1f0a 58bf
000000a0: 0314 1dbe 0d17 ad3c 3517 8cbd 6d7d 0abf
000000b0: c053 81bd 608c 6bbf 13d7 36bf 6448 0abf
000000c0: 99f8 503e 6a41 d4be 2397 e33e f96d 3cbc
000000d0: 1b5a 05bf 7e4a 123f 183f c83e f756 123f
000000e0: 746d 9c3d 053b 4dbc 9575 7dbf 2e5e 83bf
000000f0: 9f00 783f 4ee1 cf3d 9964 babd f18a 1fbd
-0.14044051 -0.35742104 -0.91274965 -0.09342387 0.5841705 -0.069306225 -0.5807329 1.2976563
0.77505326 -0.10383123 -0.048657846 0.07472334 0.40382826 -0.87573063 -0.9080676 -0.04793719
-0.03460603 -0.30241445 0.092550665 0.07731629 -0.23549208 1.5429268 -0.1356241 0.01960416
-0.37022698 -0.16645493 -0.17123923 -0.7241523 -0.39815226 -0.74044085 -0.05852622 1.9076746
0.12045169 -0.054665722 1.9143486 1.8654785 -0.08276675 0.014991683 0.7602585 -0.84390444
-0.15339665 0.021129156 -0.06840364 -0.54097635 -0.06314802 -0.9201107 -0.7142193 -0.5401671
0.20407332 -0.41456157 0.44451246 -0.011500829 -0.52090615 0.57144916 0.39110637 0.5716395
0.07638064 -0.012526278 -0.9900754 -1.0263116 0.9687595 0.10150395 -0.09101219 -0.038950864

fc3.weight f4 [20, 64]
00000000: eaff a53e ec7e 3ebd 56f4 c9be 7cbe 033e
00000010: f523 5b3d 50c1 7b3d 7a54 8f3d e93c cd3e
00000020: 52b7 043f 4445 9a3e a0b1 dfbd dfd6 6bbd
00000030: 3575 48bd 1e76 7abe 796c ca3e c032 9cbd
00000040: 9ff9 873d 163f fc3d f88d 623d edd3 e83c
00000050: 2070 a1bc fad6 023f 2c02 c3bd ec84 ce3d
00000060: 04b2 113d 846d dfbd 277c 953c 7aed 0a3f
00000070: e9f0 69bb 1e44 b13d f3e4 c639 be94 d73e
00000080: 3b65 733c 4437 4dbd 75b1 333f 62f5 493f
00000090: 7a2c eebd 182b 8fbd e2e4 d2be db66 363e
000000a0: 6b21 6d3c 5039 583d 3550 383d 8195 123f
000000b0: 722e 993d 97ee 01bc 7a60 9d3e 9679 853b
000000c0: 7388 033d a8f7 16bc ff8c 7fbf 2cc2 d23d
000000d0: 4cd0 573e d0fb a8bd 152c 2fba a6b8 bcbc
000000e0: 37f9 95bd 157a 5e3d 248f 18bf 81e9 84bd
000000f0: 3200 963f 2890 2cbd d06b 7cbd c48b 33bd
00000100: 8a2b d33e f417 233d 3d3d b3be 8475 33be
00000110: 3f7f 93be f026 1b3c f283 273d c7fa bd3e
00000120: 1341 073f 00af 5bbe edb6 dfbd 70a7 dc3d
00000130: 096d 0e3e d84d 0ebe 3f1e 9e3d e8e0 803c
00000140: c11f 133d bc04 ff3d 60b0 05bc 1cf7 ab3d
00000150: 6ede d03d 1d0a 093f 0cf0 243d 4d03 053d
00000160: 7999 e23d 823b e8bd 8408 9c3d 074a d83e
00000170: bd38 763e 335a 4f3d 62b2 d8bd da57 ca3e
00000180: 1a68 79bd 48ad 10bd a42a 333f 13c1 343f
00000190: a278 2cbc c04f bc3b 7168 38bf a497 493e
000001a0: 812e 93bc ee60 dcbd e4cb 2fbe b709 9f3e
000001b0: 6cdd 2f3d de71 43bd 55d2 ac3e 6b8f 8d3d
000001c0: 8b3b d13e d0d1 0d3d 1436 e3be 79b5 38bd
000001d0: d0ec 293e ad42 c4be f68f ff3d fe0d 8f3e
000001e0: 82be f13c 3c69 aabc 4439 30bd a066 a4bd
000001f0: 14f6 4e3f db41 90bd dca3 633d d46e e13d
00000200: fa04 d73e f526 b8bd 3c42 c4be bfcd 60bc
00000210: 09b2 a83e 1411 fabd ba96 b83e e8f0 cc3e
00000220: c7c7 593f 41c5 7d3c 999c bbbd 2bc1 023e
00000230: 0bce 273e d146 b63b 3681 fa3e 4ea6 b03d
00000240: 64f1 573d a538 a93e 00ae 5f3a 94b4 383d
00000250: 3c1b 96be 7cfa 043f 2ec5 c9bd 8d11 843d
00000260: f537 64bd b8b7 d03c 4ab1 9d3c 8302 5abe
00000270: bac2 b43d 4adc aebd 0808 afbc 69c5 a03e
00000280: a6cb 2f3d 600b 58bc d9e5 2e3f 6adf 2a3f
00000290: fdfc cc3c f8ad da3d ee40 743e 842d 2d3e
000002a0: 14a5 943d 6096 85bd d59b c53e dc2d 283f
000002b0: 6041 e8bb 28b5 5dbe 7f27 923d eaf3 49bd
000002c0: 7b2f 1e3e 95a5 ebbc fcb1 bbbe 9ef7 83bd
000002d0: 19d2 80be ebb1 e3be 29d3 ed3d 7fca 253e
000002e0: f05c 8abb 22d4 92bd effe 77bd e46d f5bd
000002f0: ad48 693f 6285 ed3d 28e1 ec3c e8ea 60bd
00000300: b718 af3e a033 ca3a a4d8 abbe bdb8 823c
00000310: 37c0 ca3d 28d0 9dbc ecd1 523e 3bcc e93e
00000320: ac71 2a3f 97ee e7be 2362 c83b 686d 963d
00000330: 5f6f 203e e35d 8dbe 002f 0c3e 6155 643c
00000340: ce1a cb3d 4f7b b83e 164e 8ebd 1a26 213e
00000350: e9a2 a93d 18e6 043f ee9c c93d 1206 1dbd
00000360: 1b6e 403d 981c febd 93fc 7abd 7996 e63d
00000370: 646f 2fbe 696e d7bd 6609 9abd f1a4 b03e
00000380: 903b f8b9 b492 963d 5d08 123f 3d5c 583f
00000390: 349c 58bd 0aaf d3bd e78a b83e b382 87bd
000003a0: f906 0f3d ce05 f93c 16e3 07be d49e bd3e
000003b0: 28bb c83c df4f 82be 8944 633e ff49 71be
000003c0: 82fa b93e 7554 1fbd a8dd debe 0072 fcbc
000003d0: 6a60 55be dd92 c7be d4a3 9a3d de10 703e
000003e0: 8d4d 0fbd 3c3c 433d ecdc 04be 997f 91be
000003f0: ae16 603f 24ce 213c 200e 97bd c495 a7bd
0.3242181 -0.04650776 -0.39444226 0.12865633 0.05350109 0.061463654 0.069985345 0.40085533
0.51842225 0.3013097 -0.10922551 -0.057577964 -0.048939902 -0.2445912 0.39535883 -0.07626867
0.06639408 0.1231672 0.055311173 0.028421367 -0.019706786 0.5110928 -0.095218986 0.100839466
0.03557016 -0.1090956 0.018247677 0.5426861 -0.0035696572 0.086555704 0.00037936083 0.4210567
0.014855678 -0.050101534 0.7019265 0.7889005 -0.11629577 -0.06990641 -0.4119025 0.17812674
0.0144732995 0.052789032 0.044998366 0.57259375 0.07479562 -0.007930419 0.30737668 0.004073332
0.03211255 -0.009214319 -0.9982452 0.102909416 0.21075553 -0.082511544 -0.0006682289 -0.023037266
-0.073229246 0.054315645 -0.59593415 -0.0648985 1.171881 -0.042129666 -0.061626256 -0.043834463
0.41244155 0.039817765 -0.3500766 -0.17525297 -0.2880802 0.009469733 0.040897317 0.3710539
0.5283367 -0.21453476 -0.10923562 0.10774124 0.13908781 -0.13896883 0.07720613 0.015732244
0.035918955 0.12452075 -0.008159727 0.08396742 0.10198675 0.53531057 0.04026799 0.03247385
0.11064429 -0.11339475 0.07618812 0.42243978 0.24045081 0.05062313 -0.10580899 0.3952015
-0.060890295 -0.035321504 0.6998694 0.7060711 -0.010526808 0.0057468116 -0.72034365 0.19686753
-0.01796651 -0.10760675 -0.17167622 0.310621 0.042935774 -0.047716014 0.3375422 0.069121204
0.4086574 0.03462392 -0.44377196 -0.04509494 0.16594243 -0.3833212 0.1247863 0.27940363
0.029509787 -0.020802133 -0.043023363 -0.08027387 0.80844235 -0.07043811 0.05557619 0.11007467
0.41995984 -0.089918055 -0.38331783 -0.013720929 0.3294833 -0.12210289 0.36052495 0.40027547
0.8507046 0.0154889235 -0.09160728 0.12769 0.16387193 0.005562641 0.48926705 0.0862547
0.052720442 0.3305103 0.0008532703 0.045094088 -0.29317653 0.5194471 -0.09852062 0.0644866
-0.055717427 0.025478229 0.019249577 -0.2129002 0.08826204 -0.085381106 -0.021366134 0.31400612
0.042918824 -0.013186306 0.6831947 0.6674715 0.025022978 0.10677713 0.23852894 0.16911894
0.07258049 -0.065228224 0.38595453 0.65694976 -0.0070878714 -0.21651137 0.071364395 -0.04930488
0.154478 -0.02876548 -0.3665923 -0.064437136 -0.25160292 -0.44471678 0.11612541 0.16190527
-0.004222505 -0.071693674 -0.060545858 -0.119838506 0.9112652 0.115977064 0.028915957 -0.054911524
0.34198543 0.0015426762 -0.3356372 0.01595723 0.09899943 -0.019264296 0.20587891 0.45663628
0.665797 -0.45299217 0.0061152144 0.07345086 0.15667485 -0.27610692 0.13689804 0.013936372
0.09917222 0.36031577 -0.069484875 0.15737191 0.08283026 0.51913595 0.09844385 -0.038335867
0.046980005 -0.124077976 -0.06127603 0.11259169 -0.17132336 -0.10519106 -0.07521324 0.3450084
-0.00047346624 0.073522 0.5704401 0.84515744 -0.052883342 -0.103361204 0.36043474 -0.06616726
0.03491876 0.030398276 -0.1327022 0.3703524 0.024503306 -0.25451562 0.22194113 -0.23563384
0.36323935 -0.038898904 -0.43528485 -0.030816078 -0.2083756 -0.38979235 0.07550779 0.23443934
-0.034986068 0.047664866 -0.129749 -0.28417662 0.87534606 0.009875808 -0.07375741 -0.081828624

fc3.bias f4 [20]
00000000: 3d1c f13f 9f82 de3e 7075 553f ea5e b43f
00000010: d405 993e 3d71 583f d45e 713f 26cc 643f
00000020: bf67 493f 5b91 b73e 08f7 193f 1183 813e
00000030: 2a24 533e eb7b e63d 24f4 713f 1b9f 23be
00000040: 7f09 293d 3300 b4be 0fd8 2a3e 2713 39be
1.8836743 0.4345903 0.8338232 1.4091465 0.2988726 0.8454779 0.9428532 0.89374006
0.7867393 0.35853085 0.60142565 0.25295308 0.20619264 0.11254104 0.94513154 -0.15978663
0.04126882 -0.35156402 0.16683982 -0.18073712

fc1.weight f4 [64, 9]
00000000: 42a1 da3e 4ea3 1a3f bc52 debd 434a bfbd
00000010: d67b ad3d e4f4 c83e d37a 723e fa9f e33e
00000020: bc02 1c3f 8fb8 f9be a447 a13e ca0a 95be
00000030: 6b05 f5be 65c1 8ebd 2cf6 e33c b0a2 0a3f
00000040: b353 3bbe 13a5 cebe 45cc 9f3e 0f0c 09bf
00000050: 7945 7dbf 2007 0c3f 58d7 2bbf 10ff 9cbe
00000060: 1cde d1be e28d 3d3f 97d8 943e 861e 453e
00000070: 93b5 513e f533 d73d b50a debe db80 1abf
00000080: 4565 c43e 6beb cabd c960 93bd 49bf 973e
00000090: 50ad 92bf 48d8 12bf c014 b03e 0ef7 f93e
000000a0: 3c16 17bf 1847 25bd 8aed e9be ff50 a4bd
000000b0: 2eee 0fbf e738 37bd c4e0 46be d99e a6be
000000c0: b51f 523e 41f2 1cbe aabe e9bc 63c7 8d3d
000000d0: 6e18 87be 85f5 76bb 32d2 e9be 721e cdbe
000000e0: 89f1 93be 2432 5a3e 5f1f b83d 841c db3c
000000f0: 2a89 8bbe c1b8 143f 80b6 08bf d8e7 4ebe
00000100: 3d00 923d c699 65bf e085 febd 13e1 1f3e
00000110: 64e7 3bbe 3da1 7ebf 6ac0 5b3e 5ab3 043e
00000120: 5cc5 ec3e c001 893f 8601 143e 6faf 13be
00000130: a15d 69be f30c 3cbf ca7a b3be 6eb3 92bd
00000140: 2e16 da3e d31d 69bf 16b4 85be ae74 f9be
00000150: f119 f23c 3659 e9be 0768 273f 1df2 d9bd
00000160: d55f 11bd 9669 dcbe 2dd8 21bf 1c90 3cbf
00000170: cdcb b4be e4ff 8e3e 32c5 9dbe 5500 1a3e
00000180: 06ba 19bf 177a 87bd f2bd 60be b0fa 57c0
00000190: b041 f33e 9cb8 173f 9097 7d3e 5be7 4ec0
000001a0: 625a 47bd 62b3 1ac0 14c6 9bbe 7818 df3b
000001b0: b324 2b3c fafa c2bf ebfe a3bf ac86 81bc
000001c0: 522f 2b3e dd2d 8b3e 0647 8bbf a140 163d
000001d0: 4bfd 733e 462e 79c0 b12d 6e3f bc68 493f
000001e0: e02c d5bd 20d1 5bc0 160f 493c 702d 1cc0
000001f0: 2ec3 a5bd 9eb1 14be 1041 71be fb2e 04be
00000200: 5ab0 063e 3096 133e bb0d 13be 44af 83be
00000210: 9692 7d3e 7c04 f6bd 03d5 07be 29dd 70bf
00000220: 3987 24bf beb6 9bbd f482 093f f82b 1abe
00000230: 8a41 ba3e 8147 823f 8937 8c3e 7aad 35bf
00000240: e781 603e 1eb2 963d 7b16 a93e 8ff2 6e3e
00000250: d0b0 cdbe db00 773e 1198 22bd 3be8 b03e
00000260: 1df6 4cbf d861 35be 80f8 773c 5600 84be
00000270: 20bc 0dbc 7039 bc3c 3eda 33be 087a 63be
00000280: 007d c9bd 83e2 9fbe 591c 4e3c 84ee 29be
00000290: 7205 033e 6a8c 1ebe 2758 b7bd a1d1 26be
000002a0: 1ddf d23c 7556 ee3d 765f 90be 4d24 2fbf
000002b0: 2183 8cbf a7eb 213e 8d88 b13e 6249 5f3e
000002c0: b34c c33d da6f 13bf 08b1 853c e05e 39bf
000002d0: de4f ca3e 4682 333f 62cd 99be cbb5 1cbd
000002e0: 8b65 b5be 8d7b 133f eb67 c2bd e733 9d3e
000002f0: 3c6d 8d3e 4e13 84be 2508 13bf 1e81 edbe
00000300: 93ee 273e 8b1c 883e 4872 48be 6c3c a6bf
00000310: 3b71 913e b880 1b3f db20 1fbf 427c 69bf
00000320: 5334 83be 3c4a 473d 9cd3 b43e 72e9 953d
00000330: 9f39 40bf d854 88bd ed0e 3ebd b1f3 003f
00000340: 4306 453f 1060 183f a764 61be 922a 46be
00000350: 532d 8f3e d7cc 99bd 798d 80be 5d11 8e3d
00000360: ce08 673f a85a 803f 3106 02bd 3224 18bd
00000370: 8b7e 62bf c5dd 90bf d628 13bc d830 903d
00000380: 419b 533c bfb2 123f 3036 8c3f 2361 f83d
00000390: cc10 123e 0061 0ebf c08e 913e 602f edbd
000003a0: 6924 dabd 8cdb 043f d005 b83e 2d05 1a3f
000003b0: 9966 f4be 296f 5dbe 3be5 edbd 7047 053f
000003c0: 412e b33e 0a17 57be aaab f43d 8858 b9be
000003d0: d91e 15c0 c12a 0a3f 84a9 01be 2b87 da3e
000003e0: 18c6 04bf 83ad 7ebf 43c8 88be 4be1 0ebe
000003f0: 7898 b8be 6721 9bbf e4c2 bcbe d662 5bbc
0.42701155 0.60405433 -0.10855624 -0.09340336 0.084708855 0.39249337 0.23679666 0.4445799
0.6094167 -0.4877362 0.3149997 -0.29109794 -0.47855696 -0.06970481 0.027827345 0.5415449
-0.18293647 -0.40360317 0.31210533 -0.53534025 -0.9893413 0.5469837 -0.67125463 -0.30663347
-0.40989769 0.7404462 0.29071495 0.19249925 0.20479421 0.10507957 -0.43367544 -0.6035287
0.38358513 -0.09908184 -0.07196195 0.29638126 -1.1459141 -0.5736127 0.3439083 0.488213
-0.590183 -0.040351003 -0.4568904 -0.08023261 -0.5622281 -0.044732 -0.19421679 -0.32543066
0.20519908 -0.15326788 -0.028533299 0.069227956 -0.26385826 -0.0037682962 -0.4566818 -0.4006229
-0.28895214 0.2130819 0.089903586 0.026746996 -0.27253085 0.5809441 -0.5340347 -0.20205629
0.07128952 -0.89687765 -0.124278784 0.15613203 -0.18349987 -0.9946478 0.21460119 0.12959042
0.46244323 1.0703659 0.14453706 -0.14422391 -0.22789623 -0.7345726 -0.35054618 -0.0716313
0.42595047 -0.91061133 -0.26113957 -0.48721832 0.029553385 -0.45575875 0.6539311 -0.106418826
-0.035491783 -0.43049306 -0.63220483 -0.73657393 -0.35311738 0.27929604 -0.3081451 0.15039189
-0.60049474 -0.06615084 -0.21947458 -3.3746758 0.47511053 0.59266067 0.24764848 -3.2328708
-0.04867018 -2.4171987 -0.3042456 0.006808337 0.0104457615 -1.5232842 -1.281217 -0.015811287
0.1671727 0.27183428 -1.088105 0.03668273 0.23827092 -3.8934493 0.9303847 0.78675437
-0.1040895 -3.434639 0.012271663 -2.4402733 -0.08093868 -0.1452088 -0.23559976 -0.12908547
0.1315321 0.1441276 -0.14360707 -0.25719655 0.2476295 -0.12012574 -0.13264851 -0.94087464
-0.64268833 -0.07603215 0.53715444 -0.15055835 0.36378127 1.0178071 0.2738612 -0.7096783
0.21924554 0.07358192 0.33024964 0.23334716 -0.4017396 0.2412142 -0.039695803 0.34552178
-0.8006304 -0.17713106 0.015134931 -0.25781506 -0.0086508095 0.022976607 -0.17563722 -0.2221452
-0.09838295 -0.31227502 0.012580001 -0.16594893 0.12795046 -0.15483251 -0.089523606 -0.16290905
0.025741154 0.11637584 -0.2819783 -0.68414766 -1.0977517 0.1581255 0.34674492 0.21805337
0.095361136 -0.57592547 0.016319767 -0.7241039 0.3951406 0.70120656 -0.30039507 -0.03825931
-0.35429034 0.576104 -0.09492477 0.3070366 0.27622402 -0.25795978 -0.574343 -0.4638757
0.16399603 0.26584277 -0.19574845 -1.2987189 0.284067 0.60743284 -0.6215951 -0.9120523
-0.25625858 0.04865478 0.35317695 0.07319917 -0.7508792 -0.06656808 -0.046400953 0.50371844
0.7696268 0.5952158 -0.22011052 -0.19352177 0.27964267 -0.07509773 -0.25107935 0.069369055
0.9024781 1.0027666 -0.031744186 -0.037143894 -0.8847434 -1.1317679 -0.008981904 0.07040566
0.012915433 0.57303995 1.0954037 0.12127902 0.1426422 -0.5561676 0.28429222 -0.11581302
-0.10651476 0.518975 0.35941935 0.6016415 -0.47734526 -0.21624435 -0.11615988 0.5206213
0.34996226 -0.21004882 0.11946805 -0.36200356 -2.3300078 0.5397149 -0.12662321 0.4268125
-0.5186477 -0.9948351 -0.26715288 -0.1395313 -0.36053824 -1.2119569 -0.3686744 -0.013390264

fc1.bias f4 [64]
00000000: f8ce ca3f 3c32 84be d70b 0e3f cf13 9b3f
00000010: b95d f2bf bbe2 8d3e f9fd 1cbf 69d2 28bf
00000020: 9b55 853f a3a8 a2bf 21e9 c2be 04f6 0ec0
00000030: 32d6 24c0 c0cb c6bf d825 38bd ab80 fabf
00000040: 68bc 9b3f 3823 9cbe 303f 7bbd e083 98bf
00000050: 00d9 bb3f 5948 bfbf 6b30 03c0 fcb8 dd3f
00000060: 23e8 c23f fd49 0840 e88c 253f 74fc 20bf
00000070: ef18 aebf 4e04 20bf 3502 c1bf 4189 673f
00000080: d658 063e a51b 09bd c3e9 1bc0 c5d7 b23f
00000090: 7f18 a83e 173a c0bf 0d36 dabf d0e1 cd3e
000000a0: 3517 e2bf f796 e3bf 33e7 febf 4b77 463e
000000b0: fc97 63bf b883 523d c50b 7b3f aeda 85bf
000000c0: 95a7 a03f 82d3 c53f 13e8 9fbe c9b3 953f
000000d0: e3fd eabe c1f4 a73e de71 143f 1d4f f0bf
000000e0: b20e b43f c368 b7bf bcf3 03c0 1022 a33f
000000f0: b04f 5bbe a30f c73b b58f 863f 56d7 7abf
1.5844412 -0.25819576 0.55486816 1.211542 -1.8934852 0.27712044 -0.6132503 -0.6594606
1.041675 -1.2707714 -0.38068488 -2.2337656 -2.5755734 -1.553093 -0.044957966 -1.9570516
1.2166872 -0.3049562 -0.061339557 -1.1915245 1.4675598 -1.4943954 -2.0498302 1.7322078
1.5227093 2.129516 0.6466813 -0.6288521 -1.3601359 -0.6250657 -1.5078799 0.9044381
0.13119826 -0.03347363 -2.4361427 1.3972098 0.3283119 -1.5017728 -1.7047745 0.40211344
-1.7663332 -1.7780446 -1.9914306 0.19381444 -0.88903785 0.051395148 0.98064834 -1.0457361
1.2551142 1.5455172 -0.31231746 1.1695491 -0.45896825 0.3280392 0.5798625 -1.8774143
1.4066985 -1.4328846 -2.0617514 1.274477 -0.21417117 0.006074862 1.0512606 -0.97984827

fc2.weight f4 [64, 64]
00000000: 0e2e 86be 4a7d c53c 35be 973f bfd0 10be
00000010: 2ddd 993e 402c abbb 6e12 083e e606 dcbe
00000020: 90b0 a5bd c8ef aebb 66a4 9a3c 9e17 d43e
00000030: e4cd b33d 7fb2 de3e 0c69 443d f571 34be
00000040: 20f4 b9bd 584e da3c 7efc b5bd 146a 183f
00000050: 20aa 9bbe ff79 5d3e cd16 da3e 52ca 4dbe
00000060: 9b7e 9fbf 7855 67be 77af 2dbf 14cb 2b3e
00000070: a55d 0fbe 1ca8 ffbc d1d0 733d c392 7ebf
00000080: 2f83 d3bd d9ee 433e 94ee c5bd 511b f2be
00000090: 5876 19bd ed2a ab3d 1bf7 4ebe 8be5 15be
000000a0: 86af 493f 1c41 6d3e aff9 ad3e 4911 3b3d
000000b0: ef7f 403f c0c2 8b3b 8780 91be 2e72 dd3e
000000c0: b269 a9be 04bd f5be 8588 e53d 9f0a 88bd
000000d0: 96ba 5c3e 88cf 4c3d 2425 8ebd 6793 a4be
000000e0: b6f0 19bf c1d6 563e 66b5 903e 60db 5fbf
000000f0: c0ea 643c 5ef1 063e cc6c 76bd cb81 16be
00000100: 42e8 73be 5412 97bd aaa0 a73e 9fe3 23bc
00000110: 9011 39bf 0ae1 c43d d573 51be cfc4 2e3d
00000120: 6b9e e2be 8cf7 d9bd 22c1 d73c 2cda f63e
00000130: 1532 bebd c285 b23e 38f7 63bd 5a9f cdbd
00000140: ea7a 01bf 3c21 0e3d 0257 6abd 5cd6 a0bc
00000150: 68b6 5ebd 9997 e93d 3608 b6bd 8c08 50bd
00000160: 0798 2d3f 67cd 53bd 5b5b f537 88d5 26be
00000170: 3a35 e03e 6860 c23d 5137 dfbc 98b4 dd3e
00000180: d23a 293d ae5b c8ba 3358 8cbe 700e 5ebe
00000190: b0c6 dbbc e499 83be 969c 1a3d 79db 09bd
000001a0: c6b8 5bbe a950 0a3d f9ec 26bf 2f49 24bd
000001b0: b41e 843e fcf7 dcbd 269c 8fbe d1da 9cbe
000001c0: fd85 5bbe 63da 58bd a2fd 823c 157b 0ebe
000001d0: fef5 0fbe 16ab ec3d a73a 1c3d 21de cbbd
000001e0: 22a9 94be dc9c 183d 628a bbbc f3ef bbbe
000001f0: 74f9 6a3d 8a52 273d 7096 d53d c9af 00bd
00000200: 5047 c0be c121 7cbf 680b 983e a977 453d
00000210: 9bf5 203f d2f0 0abd 883c 393e 18ec 6ebc
00000220: 2c3b 433f 8a3b 323e 1879 003e f2e8 43bf
00000230: 7800 afbf 1bd9 1bc0 0e99 ed3d 747b 5a3e
00000240: 9df7 cbbf a447 5f3d c595 a1bd 1ba8 7f3e
00000250: a530 6cbd a854 82bf 77b4 a53e 0e01 1cbe
00000260: 0d1a 0740 5c3b a9bd 4325 e23d 3e0a 19c0
00000270: 8554 353c c31e 82bf 427f 8c3e 3cb3 263f
00000280: 77df 4dbf 462d 01bf 5387 1cbf ebaa 43be
00000290: dcdd b33d a557 90be 1b58 62bd 4185 0b3e
000002a0: b1fe a5bf 79d2 103e a49d bd3e 294c b93d
000002b0: 2328 a73f 1a59 c1bd 5fb2 56bf 0e68 c7be
000002c0: 9980 133f b66b 7cbe 1cbe 6dbf 0403 b1bf
000002d0: cd96 cbbf 665b c73d 7b2c babe 81aa 0abf
000002e0: 3061 2a3e f238 74bf e0f2 7b3d 45d5 723f
000002f0: 00db 8fbd 5adc 1f3c b1e7 303d b509 e4bf
00000300: a159 9e3b 2d62 6ebe f4b6 dabd 7938 f33d
00000310: 6213 3abe 60de 6dbd ef1e 2dbe 73e9 15bf
00000320: 182b 38bd 68f9 2fba 11bc c33b 7c08 343e
00000330: 5f41 a4bd e9ff 553d 6ef8 9bbd 55fd f6bd
00000340: 0d80 78bd a8ef 933c f67f ac3d baff 01be
00000350: a950 0abe 4358 a8be eebd 99bd 07f9 c0bd
00000360: 3c6c b3bd 2ff5 5cbd 95b3 0fbe 61ac 273e
00000370: 0c1e 97be d27a d7bd 0b04 ffbc 871b d4be
00000380: cb7b 973d c845 4bbf 4021 553d c92e d6bd
00000390: 00b0 7ebb 6ba4 e1bd 388a aebe 58d8 aebd
000003a0: 129e 013e 542e 84be 2a62 a7be 01d3 1c3b
000003b0: 5805 92bd 1af2 d6bc 2d5b 21be 65b0 18bd
000003c0: d240 a8bb 73de 1ebe 21af 93bc 7a75 c5bd
000003d0: 0166 8b3e 9813 35bd 5bf2 0d3d 659b 783d
000003e0: 1056 b8bd f12d 153b e372 9fbe e1fd 723c
000003f0: 2a70 c83d c489 e13d b3a7 823d 5cd6 20bd
-0.26207012 0.024107594 1.1854922 -0.1414213 0.30051556 -0.005223781 0.1328828 -0.42974013
-0.08090317 -0.0053386427 0.01887722 0.41424268 0.08779505 0.43495557 0.047951743 -0.17621596
-0.09079766 0.026648685 -0.0888605 0.5953686 -0.30403233 0.21628569 0.4259552 -0.2009671
-1.2460512 -0.22591197 -0.67845863 0.16776687 -0.14000566 -0.03120809 0.059525315 -0.9944269
-0.10327756 0.19134082 -0.09664646 -0.47286466 -0.037466377 0.08357797 -0.20211451 -0.14638345
0.7878345 0.23169369 0.33979556 0.04567078 0.7519521 0.0042651594 -0.2841837 0.43251175
-0.33088452 -0.4799577 0.1120768 -0.06642651 0.21555552 0.050002605 -0.06940678 -0.3214371
-0.6013292 0.2098036 0.28263396 -0.87444115 0.013971984 0.13178012 -0.06016235 -0.1469795
-0.23819068 -0.07376543 0.32739764 -0.010003 -0.72292423 0.09613235 -0.20454343 0.04266816
-0.44261488 -0.10642919 0.02633721 0.48213327 -0.09286896 0.34867674 -0.055655688 -0.100401595
-0.50578177 0.034699664 -0.057211883 -0.019633465 -0.054373175 0.11405868 -0.08888285 -0.0507894
0.678101 -0.05170956 2.9248817e-05 -0.16292393 0.4379061 0.09491044 -0.027248057 0.43301845
0.04131586 -0.0015286112 -0.2741104 -0.21685195 -0.02682814 -0.25703347 0.03774699 -0.03365657
-0.21457204 0.03376833 -0.6520534 -0.040108856 0.25804675 -0.10789487 -0.2804882 -0.30635694
-0.21437831 -0.052942645 0.015990082 -0.1391414 -0.14058682 0.115560696 0.038141873 -0.09954477
-0.29035288 0.037258968 -0.022893135 -0.36706504 0.057366803 0.0408502 0.10429084 -0.03141764
-0.37554407 -0.98489004 0.29696202 0.04820982 0.62874764 -0.03392107 0.18089497 -0.014582656
0.76262164 0.17405525 0.12546194 -0.7652732 -1.3672018 -2.435126 0.116014585 0.21336156
-1.593494 0.05451168 -0.078898944 0.24966471 -0.05766358 -1.0182085 0.32364246 -0.15234777
2.110965 -0.08263275 0.11042263 -2.3912501 0.011067514 -1.0165638 0.2744084 0.6511724
-0.80419105 -0.50459707 -0.6114399 -0.19108169 0.08782551 -0.28191867 -0.055259805 0.13625051
-1.2968351 0.14142789 0.37034333 0.090477295 1.3059124 -0.09440823 -0.8386592 -0.38946575
0.576181 -0.24650463 -0.9286821 -1.3829045 -1.5905396 0.0973423 -0.3636206 -0.5416642
0.16638637 -0.9539939 0.06151092 0.94856673 -0.07024193 0.009757126 0.04318971 -1.7815462
0.004832462 -0.23279639 -0.10679427 0.11876006 -0.18171456 -0.0580734 -0.16906331 -0.5855934
-0.044962972 -0.00067128846 0.005973347 0.17581362 -0.08020281 0.052246008 -0.076157436 -0.12060038
-0.060668994 0.018058613 0.08422844 -0.12695208 -0.13507332 -0.32879838 -0.07506929 -0.09422498
-0.087608784 -0.053944763 -0.14033349 0.16374351 -0.2951511 -0.10521473 -0.031129858 -0.41427252
0.073966585 -0.7940335 0.052033663 -0.10458142 -0.0038862228 -0.11017688 -0.34089828 -0.08537358
0.12657955 -0.25816596 -0.3269208 0.002392948 -0.071299255 -0.02623849 -0.15757437 -0.037277598
-0.0051346803 -0.15514545 -0.018027844 -0.096415475 0.2722626 -0.04420814 0.034654956 0.06069507
-0.0900079 0.002276298 -0.3114234 0.014831037 0.097870186 0.11012605 0.06379642 -0.03926693

fc2.bias f4 [64]
00000000: eece 0fbe 4ffe b6be a0ee 6abf 2653 bfbd
00000010: 9a8f 153f 74ee 8dbd 22a9 14bf 0628 a53f
00000020: f8d5 453f 40a4 d4bd 3d4a 47bd 3d0a 993d
00000030: ac78 cc3e b3cc 68bf 9d74 68bf 5258 44bd
00000040: acbb 0dbd 4678 91be 038e bd3d a159 9e3d
00000050: 6922 71be a1f1 c33f 32e1 0abe c39b a03c
00000060: 048e bdbe 5473 2abe 4059 2fbe 2f94 36bf
00000070: e2b7 cbbe 048e 3dbf efb9 6fbd df00 f43f
00000080: 1cb3 f63d 19e7 5fbd 7c35 f33f dd50 ed3f
00000090: 2481 a9bd 4dc8 753c c88c 463f eafa 57bf
000000a0: 8111 1dbe 061b ad3c 091e 59bd a17b 0abf
000000b0: da53 81bd 9b8b 6bbf 0003 37bf f244 0abf
000000c0: d379 513e b03e d4be 26fb da3e 233d 29bc
000000d0: b35d 01bf 85eb 133f 1e41 c83e 475b 123f
000000e0: 5771 9c3d ca39 4dbc 8cfa 6dbf 635b 83bf
000000f0: 2e4c 7e3f 63e5 cf3d 8261 babd 538a 1fbd
-0.14043781 -0.35740897 -0.9177036 -0.09342031 0.58422244 -0.06930247 -0.58070576 1.2902839
0.77279615 -0.10382891 -0.048654784 0.07472656 0.39935815 -0.90937346 -0.9080294 -0.04793579
-0.034602806 -0.28412074 0.09255602 0.07731939 -0.23548283 1.5308114 -0.13562468 0.019605523
-0.37022412 -0.16645557 -0.1712389 -0.7131986 -0.3978873 -0.74044824 -0.05852693 1.9062766
0.12045881 -0.05466375 1.9000697 1.8540303 -0.08276585 0.015001369 0.77558565 -0.8436724
-0.15338708 0.02113105 -0.05300716 -0.5409489 -0.063148215 -0.92009896 -0.7148895 -0.5401145
0.20456629 -0.41454077 0.42769736 -0.010329518 -0.505336 0.5778125 0.3911218 0.5717053
0.07638805 -0.012525985 -0.9296043 -1.0262264 0.9933499 0.10151174 -0.091006294 -0.038950276

fc3.weight f4 [20, 64]
00000000: 9802 a63e 4d7c 3ebd 4255 cbbe f3c0 033e
00000010: 5524 5b3d 50c1 7b3d d455 8f3d c1e4 cd3e
00000020: a41e fd3e a646 9a3e 69b0 dfbd bad9 6bbd
00000030: f127 d2bc 7bbe 8bbe 38fb d83e bf36 9cbd
00000040: fefa 873d 11bb 133e f88d 623d 49d4 e83c
00000050: a44c a1bc 8351 023f 2c02 c3bd d285 ce3d
00000060: 67af 113d 016e dfbd fa7f 953c cecf 063f
00000070: 56ff 63bb 7145 b13d ace4 c639 823b d83e
00000080: 5967 733c 4437 4dbd 8dad 333f 03da 493f
00000090: 7d2b eebd df32 8fbd 31b9 cbbe 57c6 323e
000000a0: c425 6d3c 5039 583d 8076 233d e095 123f
000000b0: 722e 993d 19f0 01bc 49e6 a93e 7576 853b
000000c0: 838c 053d e3fa 16bc 11cb 7dbf 2cc2 d23d
000000d0: 9364 593e 9fac 51be 472e 2fba 2cb7 bcbc
000000e0: 13f9 95bd cf7b 5e3d 79ad 14bf d5e9 84bd
000000f0: e6d9 8e3f 2890 2cbd e06f 7cbd c48b 33bd
00000100: 5729 d33e 7e18 233d 27d2 c7be 0c74 33be
00000110: 4080 93be f026 1b3c 5185 273d ee7a ba3e
00000120: 7eef 023f 0ead 5bbe 38b8 dfbd 70a7 dc3d
00000130: e7da 203e da8f ccbd d69f f83c 90e2 803c
00000140: 8022 133d 9d24 ad3d 60b0 05bc f5f9 ab3d
00000150: 7ddb d03d ff68 083f 0cf0 243d 4501 053d
00000160: 9c96 e23d f03b e8bd e007 9c3d abdd 8b3e
00000170: 37f3 753e aa5c 4f3d 62b2 d8bd f210 c83e
00000180: 8766 79bd 97ad 10bd bc7f 343f 6ded 2d3f
00000190: dd7a 2cbc c04f bc3b 5cf4 3dbf 1798 493e
000001a0: 2032 93bc ee60 dcbd 6ddb 19be 6b09 9f3e
000001b0: 6cdd 2f3d d971 43bd 0aa5 9f3e cc8c 8d3d
000001c0: 3d39 d13e 34cf 0d3d 3e72 e3be b7b7 38bd
000001d0: a4b4 fc3d 9885 dfbe 129d ff3d 9d0b 8f3e
000001e0: 77c1 f13c 836b aabc dfe4 2abd 6e68 a4bd
000001f0: b791 6a3f 3640 90bd 25a4 633d d46e e13d
00000200: 8909 d73e 3027 b8bd 0e53 bbbe 92cd 60bc
00000210: 1bb2 a83e 1411 fabd 9094 b83e 6927 ce3e
00000220: d75c 433f a2c7 7d3c ea9d bbbd 23bf 023e
00000230: d0d9 ee3d 671f 82bd ef0b f53e 4aa5 b03d
00000240: eaf3 573d 92ea a93e 00ae 5f3a b7b7 383d
00000250: 3a1c 96be 3db1 053f 2ec5 c9bd 140f 843d
00000260: 9538 64bd 55b8 d03c aab1 9d3c 9582 e8bc
00000270: 583b b43d 27e0 aebd 0808 afbc 2fe3 9a3e
00000280: 89ca 2f3d 600b 58bc ddb8 2e3f 5715 293f
00000290: 49fb cc3c 23a7 da3d 77b1 683e 8e2e 2d3e
000002a0: 3aa5 943d 6096 85bd b108 ca3e 3131 283f
000002b0: 6041 e8bb 98b4 5dbe e401 973d eff1 49bd
000002c0: aa2e 1e3e f2a6 ebbc b056 93be a4f7 83bd
000002d0: a3b7 24be ffdb edbe a5d1 ed3d 00c8 253e
000002e0: 615c 8abb 60d4 92bd 742f 78bd fc6a f5bd
000002f0: b73f 643f 6285 ed3d 28e1 ec3c e8ea 60bd
00000300: bf1a af3e 6f30 ca3a e9db a1be 3abb 823c
00000310: f7c0 ca3d 28d0 9dbc 7ecf 523e 2a58 f33e
00000320: ae67 193f d0ed e7be 965f c83b 686d 963d
00000330: 5c3a eb3d 5635 77be c8a1 0e3e ed53 643c
00000340: d01a cb3d 42e7 bb3e 164e 8ebd 7c24 213e
00000350: 64a0 a93d 94ae 063f ee9c c93d c905 1dbd
00000360: 676c 403d 981c febd c8fc 7abd 193d 483d
00000370: c96c 2fbe 0173 d7bd 6609 9abd 09b2 9c3e
00000380: be39 f8b9 b492 963d fbd1 123f a5e7 4a3f
00000390: ca9f 58bd 0aaf d3bd f7bb 933e e781 87bd
000003a0: b407 0f3d c608 f93c a83c debd 8ca1 bd3e
000003b0: 28bb c83c da4d 82be c5c9 593e 474c 71be
000003c0: f0fb b93e 8a57 1fbd 3144 a7be 0072 fcbc
000003d0: 654e 26be 27c1 03bf 66a4 9a3d df0f 703e
000003e0: 054e 0fbd 3c3c 433d ad75 2fbe 8680 91be
000003f0: 5633 643f 5cd0 213c 6c0e 97bd d998 a7bd
0.32423854 -0.04650526 -0.39713484 0.12866573 0.053501446 0.061463654 0.06998792 0.40213588
0.4943744 0.30132025 -0.109223194 -0.057580687 -0.025653811 -0.27293763 0.42379165 -0.076276295
0.0663967 0.14426829 0.055311173 0.028421538 -0.019689865 0.50905627 -0.095218986 0.10084118
0.035567667 -0.109096535 0.0182495 0.52660835 -0.0034789643 0.08655823 0.00037935877 0.422329
0.014856183 -0.050101534 0.7018669 0.78848284 -0.116293885 -0.06992125 -0.39789727 0.17458473
0.014474336 0.052789032 0.039907932 0.5725994 0.07479562 -0.007930779 0.33183506 0.004072959
0.032604706 -0.0092150895 -0.9913798 0.102909416 0.21229772 -0.20476006 -0.0006682616 -0.023036562
-0.07322898 0.05431729 -0.580772 -0.064899124 1.1160247 -0.042129666 -0.06163013 -0.043834463
0.41242477 0.03981828 -0.3902752 -0.17524737 -0.28808784 0.009469733 0.040898625 0.36421913
0.51146686 -0.21452734 -0.10923809 0.10774124 0.15708505 -0.09988375 0.030349653 0.015733033
0.035921574 0.08454249 -0.008159727 0.08397285 0.10198114 0.5328521 0.04026799 0.032471914
0.11063883 -0.11339557 0.076186895 0.27317557 0.2401856 0.05062548 -0.10580899 0.39075428
-0.060888793 -0.0353218 0.7050741 0.6794041 -0.01052734 0.0057468116 -0.7420099 0.19686924
-0.017968237 -0.10760675 -0.1502511 0.31061873 0.042935774 -0.047715995 0.31180602 0.069116205
0.40863982 0.034621432 -0.44423097 -0.04509708 0.12339142 -0.4365661 0.12481131 0.27938548
0.029511197 -0.020803219 -0.041722175 -0.08027731 0.91628593 -0.07043497 0.055576462 0.11007467
0.41999462 -0.089918494 -0.36586803 -0.013720887 0.32948384 -0.12210289 0.36050844 0.40264443
0.7631354 0.015489491 -0.09160979 0.12768225 0.11662638 -0.06353646 0.47860667 0.086252764
0.05272285 0.33186775 0.0008532703 0.04509708 -0.2931841 0.5222357 -0.09852062 0.064481884
-0.055718023 0.025478521 0.019249756 -0.028382579 0.088003814 -0.085388474 -0.021366134 0.30251452
0.042917762 -0.013186306 0.6825083 0.66048187 0.025022166 0.1067641 0.22723947 0.1691229
0.07258077 -0.065228224 0.39459756 0.6570006 -0.0070878714 -0.21650922 0.073734075 -0.04930299
0.15447488 -0.02876613 -0.28777075 -0.06443718 -0.16085677 -0.46456906 0.11612252 0.16189575
-0.004222438 -0.071694136 -0.06059213 -0.11983296 0.8915972 0.115977064 0.028915957 -0.054911524
0.34200093 0.0015425811 -0.3161309 0.015958417 0.099000864 -0.019264296 0.20586964 0.475282
0.5992383 -0.45298624 0.0061149104 0.07345086 0.114857405 -0.2414144 0.13928902 0.013936025
0.099172235 0.36699873 -0.069484875 0.15736574 0.08282545 0.52610135 0.09844385 -0.038335595
0.04697838 -0.124077976 -0.061276227 0.048886392 -0.17131342 -0.10519982 -0.07521324 0.3060458
-0.00047345267 0.073522 0.57351655 0.7925971 -0.05288676 -0.103361204 0.28854343 -0.06616574
0.034919456 0.030399691 -0.10851413 0.37037313 0.024503306 -0.2545002 0.21268375 -0.23564254
0.36325026 -0.038901843 -0.32669213 -0.030816078 -0.16240843 -0.514666 0.07550888 0.23443554
-0.034986515 0.047664866 -0.17134733 -0.28418368 0.8914083 0.009876337 -0.07375798 -0.0818345

fc3.bias f4 [20]
00000000: 7685 ed3f 7427 df3e 07f7 533f b635 b13f
00000010: 8094 8d3e 00f3 603f 8a3c 5e3f f2b1 5f3f
00000020: 3430 4e3f 894c bd3e fa16 163f e9c8 903e
00000030: 226e 423e 7876 d83d 081e 683f adfd 2fbe
00000040: e309 2a3c 3cef abbe 3883 c23d 7987 38be
1.8556354 0.43584788 0.8279881 1.3844516 0.2765236 0.8787079 0.86811125 0.873809
0.805423 0.36972454 0.5862881 0.28278282 0.18987325 0.10569471 0.90670824 -0.17186613
0.010378334 -0.3358096 0.09497684 -0.18020429

exp_avg f4 [64, 9]
00000000: ccf9 3040 51b3 9cbf 25c4 1442 1cc0 5340
00000010: 6f1a 8640 ca41 cf41 dc15 7440 a139 5440
00000020: 6f06 8441 0400 0000 0400 0000 0400 0000
00000030: 0400 0000 0400 0000 0400 0000 0400 0000
00000040: 0400 0000 0400 0000 a336 a83e 42c9 2e3e
00000050: cf83 9c3e ec96 cb3e 21a7 1e3e 9783 a53e
00000060: 5f06 8e3d ec96 cb3e 3582 193e 0fa1 993f
00000070: 4bca 343f 62e4 b841 df58 d53f 78d4 d33f
00000080: 4bfb 8d41 4bc2 dd3f 3fda d53f d73e 3d41
00000090: 0400 0000 0400 0000 0400 0000 0400 0000
000000a0: 0400 0000 0400 0000 0400 0000 0400 0000
000000b0: 0400 0000 0400 0000 0400 0000 0400 0000
000000c0: 0400 0000 0400 0000 0400 0000 0400 0000
000000d0: 0400 0000 0400 0000 0400 0000 0400 0000
000000e0: 0400 0000 0400 0000 0400 0000 0400 0000
000000f0: 0400 0000 0400 0000 0400 0000 0400 0000
00000100: 0400 0000 0400 0000 0400 0000 0400 0000
00000110: 0400 0000 0400 0000 0400 0000 0400 0000
00000120: 11fc bfbf 80a6 b73f 4f79 80c1 e3b6 dcbf
00000130: d06b 2ec0 975d 36c0 6b5d 6dc0 be51 ddbf
00000140: 292f 623e 9079 fc3c 406c 213f 426b b340
00000150: 492e 313e 9079 fc3c f375 0041 3c93 973d
00000160: 492e 313e 9847 dc40 0400 0000 0400 0000
00000170: 0400 0000 0400 0000 0400 0000 0400 0000
00000180: 0400 0000 0400 0000 0400 0000 b484 52be
00000190: 107e 5fc0 c30a ccc1 e278 4dbf b484 52be
000001a0: c95f b7c1 387f 52be e278 4dbf 3f60 91c1
000001b0: d247 1dc0 17d2 23c0 70cf 87c0 1316 acbe
000001c0: d247 1dc0 a342 90c1 2a02 6cbe 1316 acbe
000001d0: 2c39 b2c1 3eef 35bf 5eb2 3ac1 b7e7 adc2
000001e0: fe83 39c0 3eef 35bf 9f4b 9ec2 8ced 35bf
000001f0: fe83 39c0 54f0 7bc2 0000 0000 0000 0000
00000200: 0000 0000 0000 0000 0000 0000 0000 0000
00000210: 0000 0000 0000 0000 0000 0000 37b5 8cbe
00000220: 7485 19be ee19 06bf 771c c9be c523 57be
00000230: b528 08bf 3047 50be 7269 cabe ed24 c6be
00000240: c9cc 1bc0 b062 14c0 c4de 22c1 b3a3 6bc0
00000250: 9ba8 08c0 002c 2ec1 065c ffbf a60a 6cc0
00000260: 9d4a 11c1 0000 0000 0000 0000 0000 0000
00000270: 0000 0000 0000 0000 0000 0000 0000 0000
00000280: 0000 0000 0000 0000 0400 0000 0400 0000
00000290: 0400 0000 0400 0000 0400 0000 0400 0000
000002a0: 0400 0000 0400 0000 0400 0000 0400 0000
000002b0: 0400 0000 0400 0000 0400 0000 0400 0000
000002c0: 0400 0000 0400 0000 0400 0000 0400 0000
000002d0: fdc7 0240 8e6f 3fbf 9945 ef41 e7eb 1c40
000002e0: 036d 5440 ce14 a741 ea6f 4d40 a52a 1d40
000002f0: 73c8 6541 8a78 c13c 0838 a1be 72ac 85bf
00000300: 530a 55be 9fb0 083d 82bd 03c0 e9f2 0abd
00000310: 530a 55be ac6a 1dc0 0400 0000 0400 0000
00000320: 0400 0000 0400 0000 0400 0000 0400 0000
00000330: 0400 0000 0400 0000 0400 0000 eb56 0d40
00000340: bf65 8dbf 4c68 ff41 0a76 3b40 9519 6840
00000350: 94dd ae41 2793 7d40 84b0 3b40 10a2 5141
00000360: 9fd0 0b41 e811 8d41 7d2b 2a41 0fae c140
00000370: 5c2c 0241 78e4 6641 c87e 4941 fd0e c040
00000380: 373c e041 dc0c 3840 2de0 a2bf 5ead 2f42
00000390: 197f 6d40 6654 9440 c43d f541 2c3b 8d40
000003a0: 97e1 6d40 fe3c a441 ee1c 193f f692 a3be
000003b0: db82 8141 fc71 8b3f d86a 633f 1576 5641
000003c0: 8860 d43e c312 8c3f 18bc 1141 0400 0000
000003d0: 0400 0000 0400 0000 0400 0000 0400 0000
000003e0: 0400 0000 0400 0000 0400 0000 0400 0000
000003f0: 0400 0000 0400 0000 0400 0000 0400 0000
2.7652464 -1.2242223 37.191547 3.3086004 4.1907268 25.907124 3.8138342 3.3160174
16.503141 6e-45 6e-45 6e-45 6e-45 6e-45 6e-45 6e-45
6e-45 6e-45 0.32854185 0.17068961 0.30569312 0.39763582 0.15493442 0.32326958
0.06934809 0.39763582 0.14991076 1.2002276 0.70621175 23.111515 1.6667746 1.6549215
17.747702 1.7324919 1.6707228 11.827842 6e-45 6e-45 6e-45 6e-45
6e-45 6e-45 6e-45 6e-45 6e-45 6e-45 6e-45 6e-45
6e-45 6e-45 6e-45 6e-45 6e-45 6e-45 6e-45 6e-45
6e-45 6e-45 6e-45 6e-45 6e-45 6e-45 6e-45 6e-45
6e-45 6e-45 6e-45 6e-45 6e-45 6e-45 6e-45 6e-45
-1.49988 1.4347687 -16.059233 -1.7243313 -2.7253304 -2.8494623 -3.7088268 -1.7290571
0.22088303 0.030819684 0.630558 5.606843 0.17302813 0.030819684 8.028796 0.074011296
0.17302813 6.8837395 6e-45 6e-45 6e-45 6e-45 6e-45 6e-45
6e-45 6e-45 6e-45 -0.20558435 -3.4920692 -25.505255 -0.8026258 -0.20558435
-22.92177 -0.20556343 -0.8026258 -18.171995 -2.4575086 -2.5596979 -4.244072 -0.3361059
-2.4575086 -18.032537 -0.230477 -0.3361059 -22.277916 -0.7106818 -11.668547 -86.95257
-2.8986812 -0.7106818 -79.1477 -0.7106559 -2.8986812 -62.984695 0.0 0.0
0.0 0.0 0.0 0.0 0.0 0.0 0.0 -0.27482006
-0.14992315 -0.52383316 -0.3927953 -0.21009739 -0.53187114 -0.20339656 -0.39533573 -0.38700047
-2.434374 -2.3185234 -10.179386 -3.6818664 -2.1352909 -10.885742 -1.9949958 -3.68815
-9.080716 0.0 0.0 0.0 0.0 0.0 0.0 0.0
0.0 0.0 6e-45 6e-45 6e-45 6e-45 6e-45 6e-45
6e-45 6e-45 6e-45 6e-45 6e-45 6e-45 6e-45 6e-45
6e-45 6e-45 6e-45 6e-45 2.0434563 -0.74779594 29.908983 2.4518983
3.3191535 20.885159 3.2099557 2.4557278 14.361438 0.023617048 -0.3148806 -1.0443251
-0.2080472 0.033371564 -2.0584416 -0.033923063 -0.2080472 -2.4596357 6e-45 6e-45
6e-45 6e-45 6e-45 6e-45 6e-45 6e-45 6e-45 2.20843
-1.1046675 31.925926 2.9290795 3.6265614 21.858192 3.9621065 2.9326487 13.102066
8.738433 17.633743 10.635617 6.0524974 8.13583 14.4307785 12.593452 6.0018296
28.029402 2.8757849 -1.2724663 43.919304 3.7108824 4.6353025 30.655159 4.413473
3.716894 20.529781 0.5980977 -0.3194806 16.188894 1.089416 0.88834906 13.403829
0.41479897 1.0943226 9.108421 6e-45 6e-45 6e-45 6e-45 6e-45
6e-45 6e-45 6e-45 6e-45 6e-45 6e-45 6e-45 6e-45
