beer/experiments/new_env/single/models/dqn_agent_firm_1_episode_4000.pth (torch, 101224 bytes, 24 tensors)

fc1.weight f4 [64, 3]
000000 9d 74 f4 bd d1 9d 2a 3f dd ec d9 bc 50 4a 46 3d
       -0.11936305 0.6664706 -0.026602203 0.048410714
000010 f9 51 a3 3e af 91 63 bd 02 8c 48 be 62 34 95 be
       0.31898478 -0.055558857 -0.19584659 -0.29141527
000020 2d cb 0a bf 04 7b d1 be 21 e0 fd be 40 05 3f bc
       -0.5421627 -0.40914166 -0.4958506 -0.011658967
000030 e0 aa 8b bd 20 3e b4 bd 40 0d 70 be 0f f7 a3 be
       -0.06819701 -0.08800912 -0.23442554 -0.32024428
000040 b9 0f ee bd 6e 99 33 3d 86 1d 52 3d e0 1e 57 40
       -0.116240926 0.043847494 0.051297687 3.3612595
000050 d7 ab 5d bd 21 fc 97 be 6a c0 11 bf 33 3a 01 bd
       -0.054118957 -0.29684547 -0.56934226 -0.031549644
000060 eb c6 c5 3d 38 fd 57 3f 5e 1b 36 bd b5 9a 01 3d
       0.09657081 0.84370756 -0.044459693 0.03164168
000070 b0 43 5c 3f 7f f3 64 3e 24 d6 2b 3d fd 75 2b 3f
       0.8604078 0.22358511 0.041952267 0.6697691
000080 25 6f 6b bd fc 51 97 3e 76 fd ef bd 75 69 08 bd
       -0.057479043 0.29554737 -0.11718266 -0.033303697
000090 35 44 89 3f 8c 3f 5c bf 52 4b 3d be 85 00 33 3f
       1.072394 -0.86034465 -0.18485764 0.6992267
0000a0 20 93 ef 3e 29 5a 55 bd ba 6c d5 3d cd 58 47 c0
       0.46791935 -0.052087937 0.104211286 -3.114795
0000b0 a2 a2 53 3d 32 87 5f 3f 7e 7d 66 bf f2 28 1f 3d
       0.05166877 0.87315667 -0.90035236 0.038857408
0000c0 79 77 a0 be c0 33 e9 be fb f3 00 bf b5 61 08 3c
       -0.3134115 -0.45547295 -0.50372285 0.008324076
0000d0 7b 3f 84 3d ed 76 1f bd 1f 07 98 be 70 7e 83 3f
       0.064574204 -0.038931776 -0.29692933 1.0272961
0000e0 fb 18 f0 bd d3 30 df 3d ee c7 f0 3e 99 1d 36 be
       -0.11723515 0.10897984 0.47027534 -0.17784728
0000f0 d8 df 27 be 09 60 3b bd 71 9b d7 bc a6 fd 2a 3e
       -0.16393983 -0.045745883 -0.026319237 0.16698322
000100 d5 cd 57 3f 7e 16 45 bd 00 3c 72 3e b7 c5 c9 be
       0.8429845 -0.048117153 0.236557 -0.39408657
000110 00 ab 0b bd ed 94 6f 3c be 07 08 be 92 36 23 bd
       -0.034098625 0.014622909 -0.13284203 -0.039846964
000120 15 b0 0b be eb 75 19 3e 8b db 2c 3e e2 e4 80 bd
       -0.13641389 0.14986388 0.16880624 -0.06293656
000130 b9 30 c8 3d b9 8f 03 bd 95 69 7d 3d b9 29 2d 40
       0.09774918 -0.032119486 0.06186827 2.7056715
000140 71 5a 86 bc 67 1e 76 bf cd b7 71 3e fc 9d f8 3b
       -0.016400548 -0.9614014 0.2360527 0.0075871926
000150 83 d0 6b be 2b 00 75 c0 df e2 80 3d 35 f9 39 bf
       -0.2302876 -3.8281353 0.06293272 -0.72645885
000160 2b f7 98 bf 49 9d 80 3e a7 7d ae be 95 d5 55 3f
       -1.195043 0.2512 -0.3408024 0.83529025
000170 47 44 7e bc 3d 1f d6 3e 0e 63 8c bf f0 69 b0 bd
       -0.015519208 0.41820708 -1.0967729 -0.08613956
000180 93 8c f7 be 6f 36 8e 3f b3 89 05 3e 4a 47 4c bc
       -0.48349437 1.1110362 0.1304081 -0.0124681685
000190 1f 2a ff 3e 13 2a 27 bd 15 22 a6 3e e3 02 74 3f
       0.49836823 -0.04081161 0.32447878 0.95316905
0001a0 e3 e8 4d 3d 21 d4 a6 3e 8b 81 da bd c0 a2 0e 3e
       0.050270926 0.32583717 -0.106692396 0.13929272
0001b0 b0 c0 e7 3d 37 14 74 c0 2b c0 78 3d ae d4 96 3e
       0.11316049 -3.8137338 0.06073014 0.29459137
0001c0 8c 2f ce 3e 2c 22 b3 3d 6d 10 05 bf 6e da f2 be
       0.4027065 0.08746752 -0.5197819 -0.47432274
0001d0 9c 90 4c be 41 34 e8 bc ee c8 64 bf 18 46 91 3c
       -0.19977039 -0.02834523 -0.89369094 0.017733619
0001e0 cd 64 e6 be fe 7e 2a bf 96 a2 0e bd b3 04 a3 3c
       -0.4499878 -0.66600025 -0.034823023 0.019899702
0001f0 ae a5 91 bc c7 16 e0 be 1c 8e c9 3d b6 27 28 40
       -0.017779198 -0.43767378 0.09841558 2.6274238
000200 54 df aa 3c a3 6d 31 be 78 eb 9f be 33 17 8c 3c
       0.020858444 -0.1732698 -0.31234336 0.017100906
000210 e8 73 83 be 80 b9 64 bc 80 b5 4c bc ff f6 eb be
       -0.25674367 -0.013960242 -0.012494445 -0.4608688
000220 d6 77 9b be a3 3f f7 3d 8a 74 ee be 88 8d dd bc
       -0.30364865 0.120726846 -0.46573287 -0.027045026
000230 c3 90 30 bc e5 1a cb 3e a0 27 8b bd 53 ae 0d 3e
       -0.010776701 0.39668956 -0.06794667 0.1383603
000240 40 5c c5 3c f0 9a d4 be a0 f8 f8 be 52 0e ec be
       0.02409184 -0.41524458 -0.48627186 -0.46104676
000250 3a 94 22 be a2 eb 7e be 68 9c 8b 3f 71 15 c9 be
       -0.15876856 -0.24894574 1.0907106 -0.3927417
000260 ee ca 1d bf 91 67 f4 bf 3f 4e e7 be c7 90 95 3d
       -0.6163777 -1.9094106 -0.45176885 0.07303005
000270 b3 41 c5 bd 05 8a c4 3e c2 76 07 bf 31 12 d0 bf
       -0.09631672 0.3838655 -0.52915585 -1.6255552
000280 66 5b 1e bf 83 a5 ea 3d 41 c1 de bb e4 e3 de bd
       -0.6185821 0.1145735 -0.00679794 -0.108833104
000290 66 1b 9a 3d b8 b9 bd 3e 84 95 31 be 3c 47 f4 be
       0.07524757 0.37055755 -0.17342192 -0.47710598
0002a0 b1 f0 9d 3e 3d 62 01 3f 5b 7f 0e be bd 8d 2d be
       0.30847695 0.50540525 -0.1391577 -0.169486
0002b0 d0 86 19 c0 30 df c2 3d 75 06 6f bd 23 cc bc c0
       -2.3988533 0.09515226 -0.058355767 -5.899919
0002c0 ae fb 81 3d b5 d5 94 3e 6e 90 01 be 43 72 f1 be
       0.06346832 0.29069296 -0.12652752 -0.47157487
0002d0 49 ca b3 3e b7 de f5 bf 9f 9b 2a 3e b0 b0 50 3e
       0.3511527 -1.9208592 0.16660927 0.20379901
0002e0 00 10 ae b9 81 cd 0c bf b2 ef 0a b9 a0 bd 3b bd
       -0.00033199787 -0.55001074 -0.00013249999 -0.045835137
0002f0 a2 5e 25 be 1b fc 16 3d 27 60 bc c0 cd 55 7d 3d
       -0.16149381 0.03686152 -5.8867373 0.061849404

fc1.bias f4 [64]
000000 59 b5 b1 40 3e 4d 8e 40 ec c4 8e be 2e ed 9e 3e
       5.553387 4.446929 -0.27884614 0.3104033
000010 4e 92 88 3e 18 16 be 40 31 36 95 3e 19 c8 45 40
       0.26674122 5.940197 0.29142907 3.090338
000020 83 da a7 40 8a f8 bf c0 a6 fe 98 40 d4 f6 bc 40
       5.245424 -5.9990892 4.781085 5.9051304
000030 df a6 f8 3e e0 20 a8 40 b7 22 55 be bb 10 46 c0
       0.48564813 5.254013 -0.20814024 -3.0947711
000040 1e b0 00 3f c4 7d af 40 b0 4a 68 40 21 c3 45 40
       0.50268734 5.4841022 3.6295586 3.0900347
000050 03 8e 8a 40 31 9c b2 40 08 6c 0f 40 97 08 b9 40
       4.3298354 5.5815663 2.2409687 5.7822986
000060 7f 2a 1c c0 fe c2 ad 40 da 7d 07 c0 7b d9 58 40
       -2.4400938 5.4300528 -2.1170564 3.388274
000070 88 d9 7e 3e db aa 78 c0 05 a6 a1 40 07 88 9e 3f
       0.24887669 -3.8854282 5.051516 1.2385262
000080 ee 3b 83 bf 1f 27 d6 bf 84 04 a6 c0 5e 92 67 c0
       -1.0252664 -1.6730689 -5.188051 -3.6183085
000090 ab f4 c4 3e 53 ab 96 c0 50 f2 39 3d 67 5c 2e 40
       0.38467917 -4.7084136 0.045397103 2.7243898
0000a0 f4 0b 92 3f a3 f9 cc 3e c3 90 12 c0 25 cb c2 40
       1.1409898 0.40034208 -2.2900856 6.087298
0000b0 2e 11 db be a7 f0 96 c0 4a f4 ac 40 07 eb 92 c0
       -0.42786545 -4.7168765 5.4048204 -4.59119
0000c0 0e 26 d1 be 64 90 98 be dc e9 bc bf 00 ba 37 c0
       -0.40849346 -0.2979766 -1.4758868 -2.8707275
0000d0 b8 2b 74 40 68 ce 4d c0 84 a5 c0 40 9a fe 70 be
       3.8151684 -3.215723 6.0202045 -0.23534623
0000e0 9f 60 82 40 86 55 93 bf 4d d3 83 40 71 48 79 40
       4.0742946 -1.1510475 4.1195436 3.8950465
0000f0 82 1c 21 c0 9e 2c 19 be fc fb 5c 40 98 31 5a 40
       -2.517365 -0.14958426 3.45288 3.409277

fc2.weight f4 [64, 64]
000000 92 eb 71 bd 7c a6 78 3d 18 bf 0f 3d a0 32 33 bc
       -0.059062548 0.060705647 0.03509435 -0.010937363
000010 a4 45 90 3d a8 fe 02 be fc 60 38 bd 33 e0 4b 3d
       0.07044533 -0.12792456 -0.045014367 0.04977436
000020 95 3f 12 be 04 3e 42 bd 2e 49 c2 bd 19 d0 7d 3d
       -0.14282067 -0.047422424 -0.09486614 0.061966036
000030 d6 29 f5 bd d2 34 ec bd fd 90 e8 bd ad 38 24 be
       -0.1197087 -0.11533512 -0.11355779 -0.16037245
000040 18 83 e8 bc c5 b7 18 bd 28 1c be 3c 18 38 28 bd
       -0.028382823 -0.03728463 0.023206785 -0.04106912
000050 3d c8 c5 bd 0a d8 d1 bd 39 4f 82 3d ec e6 a6 3d
       -0.09657333 -0.10246284 0.06362767 0.081495136
000060 c5 71 a9 3d 57 79 ee bd a1 01 a3 bd f4 8e 6c 3d
       0.08273653 -0.116442375 -0.07959295 0.05775352
000070 cc 9d d0 3c 6b 24 b2 bd f3 78 fd bd a2 de 8b 3d
       0.025465868 -0.086983524 -0.12376585 0.06829573
000080 96 8b c6 3d a1 c5 b2 bc 7f b2 b4 3c 57 de 88 bd
       0.09694593 -0.021822752 0.02205777 -0.06683033
000090 67 f3 11 bd 2b 21 c4 bd 54 0d 00 3d f3 ce ad 3d
       -0.035632517 -0.09576639 0.03126271 0.08486738
0000a0 64 df 8b 3b 80 61 4f bd f0 41 c2 3c b6 2c a3 bc
       0.0042685736 -0.050630093 0.023713082 -0.01991878
0000b0 b2 7d c3 bd 07 a8 3f bd 38 f4 14 be 15 6b b8 bd
       -0.09545459 -0.046791103 -0.14546287 -0.09004799
0000c0 a4 26 13 bd 0c 9a 15 3d 9c fe c7 3d db 34 f3 bd
       -0.035925522 0.036523864 0.0976536 -0.11875316
0000d0 d0 7c 21 3c 4e 19 13 be b3 82 93 3d ea 22 84 3d
       0.009856418 -0.14365122 0.07202663 0.06451972
0000e0 80 14 67 bd 58 cd f2 bc ab fa 7b 3d d2 0a dd bd
       -0.056416035 -0.029638931 0.061518352 -0.107930794
0000f0 df d6 e9 bc ec 28 3b bd 20 e6 92 3b 60 81 b8 bd
       -0.028544841 -0.045693323 0.0044829994 -0.09009051
000100 63 57 5c 3f f9 8d 01 3f 74 d3 44 3d 9c 2d 47 bd
       0.8607084 0.5060726 0.04805322 -0.04862748
000110 d8 be 45 3d b1 e9 35 3e 49 13 ac be 34 e5 85 3c
       0.048277706 0.17764927 -0.33608463 0.016344644
000120 5b 0f fb 3e 2e 08 6e be 06 e3 07 3f 08 b1 88 3e
       0.49035153 -0.23245308 0.53080785 0.26697564
000130 aa 79 5c bf 3d 2b f0 3d e9 52 f0 bd a9 b7 29 be
       -0.86123145 0.11726997 -0.11734564 -0.16573967
000140 42 ac f6 3d 78 1d 73 3e 81 13 aa 3e 4f 7e 92 3f
       0.12044574 0.2374171 0.33218005 1.1444796
000150 46 8e 8a 3d 1b b2 27 3f 92 3e 89 be 18 64 ce 3e
       0.06765418 0.6550614 -0.2680555 0.4031074
000160 b5 8e 01 bd f3 57 33 3d 87 11 f5 be 84 f7 e7 3d
       -0.031630237 0.043785047 -0.47864935 0.11326507
000170 3e 92 2d 3e 7b 80 be bd d3 b8 18 3f f8 d1 8e 3e
       0.16950318 -0.093018495 0.5965702 0.27894568
000180 89 f7 a4 be e6 32 58 3d 55 25 4b bf 0e b8 f9 bd
       -0.32220104 0.052782916 -0.7935384 -0.12193309
000190 16 3c 0a bd f0 be b0 be c6 c8 bd 3d 12 5d 01 3d
       -0.03374871 -0.34520674 0.0926681 0.0315829
0001a0 ca 8b 9f bd 71 85 23 bc a7 b3 1d bf 8f 84 85 3e
       -0.077903345 -0.009980545 -0.6160225 0.26077697
0001b0 7e b6 b9 bd fc 08 c6 bd 35 4b 85 3e c4 89 1a be
       -0.09068011 -0.096696824 0.2603394 -0.15091616
0001c0 f6 cf ed 3d f4 f2 ba 3d 69 81 7a bf e8 1a f2 be
       0.11611931 0.09128371 -0.97853714 -0.47286153
0001d0 1a 6b e0 bf 08 d9 a2 be 4a 10 f7 3e c0 4e 71 bd
       -1.7532685 -0.31806207 0.48254615 -0.058912992
0001e0 14 13 28 3f c8 07 42 3e d4 09 79 3f 04 2d 95 bf
       0.6565411 0.18948281 0.9728062 -1.1654363
0001f0 db d2 20 bb a0 70 c9 3d 01 5c 96 3e 62 2f 05 bd
       -0.0024539742 0.09835935 0.29367068 -0.03251589
000200 df 19 01 3f 3f b7 28 c0 c0 98 fb 3b 00 9a c2 3d
       0.504301 -2.6361845 0.0076781213 0.095020294
000210 90 fe df 3d 2b 68 7a 3e 2a f2 df bf 93 93 04 3e
       0.10937226 0.244538 -1.7495778 0.1294692
000220 64 80 0a 3f 98 70 eb bd ff 96 24 c0 f7 ec 3c 3e
       0.5410216 -0.11496085 -2.571716 0.1844977
000230 15 27 02 c0 0a c3 aa bd 80 6b f9 be 14 cb 91 be
       -2.0336354 -0.08337982 -0.48714828 -0.2847525
000240 70 56 bd bc 4d f4 00 3f f7 19 73 bd 0c 32 00 3f
       -0.023112506 0.50372773 -0.059350934 0.50076365
000250 33 0d f8 3e f1 e2 13 3f 0e f9 ef bd 49 ef 18 3f
       0.4844757 0.5776816 -0.11717425 0.5974012
000260 f9 2f a5 39 bd 1b e4 3e e6 d0 70 bf 86 2d 25 3f
       0.00031506995 0.44552413 -0.94068754 0.6452259
000270 be 8b 60 be d9 79 a0 bd 52 f5 05 3f 8f 41 2c be
       -0.21928307 -0.078357406 0.52327454 -0.16821884
000280 64 11 95 3d 27 0a a7 3c b0 39 12 bf a4 3f 1c be
       0.072787076 0.020390583 -0.57119274 -0.15258652
000290 5d 8a 1c bf 5a 99 90 be 2c d8 3b 3d f3 ec 00 3d
       -0.61148626 -0.28241998 0.045860454 0.031475972
0002a0 f6 1c c4 bd 72 9e 96 bd f1 fb 21 bf 62 40 c9 3d
       -0.09575836 -0.0735444 -0.6327506 0.09826733
0002b0 ac 22 49 bd 89 44 5a be 2a fc 29 3f bb 3d 79 bd
       -0.04910533 -0.21315207 0.66400397 -0.060849886
0002c0 2e 59 81 bd 70 91 2a bd 00 0c 5d bf d0 e5 80 bf
       -0.06315838 -0.041642606 -0.86346436 -1.0070133
0002d0 80 e6 6c 3f c6 2c 59 bf 84 b5 e0 3e be 0c f7 bd
       0.92539215 -0.84833944 0.43888485 -0.12062977
0002e0 a6 56 d3 be e0 81 0e be 64 25 8f 3f 43 3a b2 3d
       -0.41277045 -0.13916731 1.1183286 0.08702519
0002f0 41 a3 25 be 36 d2 80 3d 5b bd 8e bd bd 9d 58 3f
       -0.16175558 0.062900946 -0.069697104 0.8461569
000300 d9 72 9e 3f 0a 58 13 3f 44 40 56 3d d4 72 a0 bd
       1.2378799 0.5755621 0.052307382 -0.07834402
000310 0e 19 cc 3d 22 f7 de 3e ca f2 88 be 6c 61 36 3e
       0.09965716 0.43547922 -0.26747733 0.17810601
000320 cc e2 5f 3f 0c 27 88 be ac 0f f9 3e ac 30 4a 3f
       0.8745544 -0.2659229 0.4864477 0.7898052
000330 e2 77 7f bf c3 a6 16 3f fd d8 44 bf 28 09 d4 bd
       -0.997923 0.5884821 -0.768936 -0.10353309
000340 48 35 a0 3d eb c2 da 3e 9e 4d 79 bf 74 41 66 bf
       0.078226626 0.42726836 -0.9738406 -0.89943624
000350 a9 bd e8 3d 7a bb 51 3f 12 a5 ac 3d 74 49 bf 3e
       0.113643 0.8192669 0.08429922 0.37360728
000360 65 92 b1 bd 27 f2 bd 3e 1e 45 04 bf 93 2f f8 3d
       -0.08670501 0.3709881 -0.51667964 0.12118449
000370 b6 8e f6 be 25 73 bd 3d f5 0c 4f 3f 00 42 90 be
       -0.48155755 0.09250478 0.80879146 -0.28175354
000380 bb 6e 2d bc f5 40 38 be 78 0c 38 bf 9a 8d e4 bd
       -0.010585482 -0.17993529 -0.71894026 -0.11159821
000390 fc 9e cb bf 4a 3a 51 be 24 01 67 3d 88 f7 aa 3e
       -1.5907893 -0.20432392 0.056397572 0.33391976
0003a0 f3 ee 05 be 9d 52 95 bd 1a 70 70 be f2 e1 28 3f
       -0.13079433 -0.07291148 -0.23480263 0.65969765
0003b0 c2 02 88 3d 72 04 b5 be a4 c2 00 3f 29 8d 13 be
       0.06641151 -0.35354954 0.50297 -0.14409317
0003c0 8a 41 e7 3d 52 d2 ec bd 8b a0 74 bf 9e ae 26 bc
       0.112917975 -0.11563553 -0.9555747 -0.010173468
0003d0 61 3d 16 3f af 42 17 bd f5 44 eb 3f fe 4d 93 bd
       0.58687407 -0.03692883 1.8380419 -0.0719261
0003e0 48 1d d2 bf db 77 b1 be 71 3a 7f c0 36 d9 fb be
       -1.6415186 -0.34661755 -3.987942 -0.49189156
0003f0 79 6d 1e 3d 84 e9 91 bd 28 8d b4 be 1b c1 89 c0
       0.03867862 -0.07124618 -0.35263944 -4.3048224

fc2.bias f4 [64]
000000 1c 8f 3c bc 77 90 fd 3f e4 c8 5b 3f 3b 34 32 40
       -0.011508729 1.9809712 0.8585341 2.784438
000010 97 93 4a be 42 c4 54 3f 59 0a 17 40 33 0a 2b be
       -0.19782864 0.83111966 2.3600066 -0.1670311
000020 ec d3 40 40 6a 44 1a 40 bb ea c1 bd 4a f1 09 bd
       3.0129347 2.4104257 -0.094685994 -0.033677377
000030 92 02 5d 3d 29 13 01 be ad 87 49 bd a9 15 24 40
       0.05395753 -0.12604965 -0.049201656 2.563822
000040 4a 4d bf 3f f2 8c 39 40 56 d8 e1 bd 91 19 34 3f
       1.4945462 2.8992276 -0.11027591 0.7035151
000050 e9 dc 07 40 7a 86 b4 3f 01 ae fe bd aa 3b 8e 3f
       2.1228583 1.4103539 -0.12435532 1.1111958
000060 28 71 b5 3f 2d 4a 26 40 79 a2 a8 3f 3e 73 69 3f
       1.4175158 2.5982773 1.3174583 0.9119147
000070 ce a8 e4 be 24 7d 96 bc 77 2f 24 be c8 ca 6f 3d
       -0.44660038 -0.018370219 -0.16033731 0.058542997
000080 be 3d e6 bd b9 1f c6 3c af 36 5a 3d 7c 96 1f bc
       -0.11242245 0.024185048 0.053274807 -0.009740468
000090 9d 92 14 40 eb 1f 02 be a2 1c ca 3f cc 6e 32 3f
       2.3214486 -0.12707488 1.5789988 0.6970031
0000a0 9a ed 24 40 87 95 ac bd 3a d9 97 3d 79 14 22 40
       2.577002 -0.084269576 0.074144796 2.5324996
0000b0 8c f6 12 40 24 c5 ea bd d8 24 1f 40 98 b9 58 3f
       2.296298 -0.11463383 2.4866238 0.84658194
0000c0 56 0e 8a 3c 7c ee 35 40 06 39 f2 bd 80 de 36 3f
       0.016852539 2.842681 -0.118272826 0.7143326
0000d0 bc a6 af be d3 0e a2 3d 9c 36 3a 40 52 54 b7 bd
       -0.34306896 0.07912984 2.909583 -0.0895163
0000e0 86 2d a5 3f a4 fa 1a bf 98 20 8e bd a0 db e7 3f
       1.2904518 -0.605387 -0.069398105 1.8113899
0000f0 82 b0 e9 3b 50 ea 84 3d ff 8e e3 bc ae 21 05 3d
       0.007131637 0.06490004 -0.027778147 0.032502823

fc3.weight f4 [20, 64]
000000 40 87 78 ba f8 e7 3f 3d 6c 28 dc 3d 6e 75 a6 3f
       -0.0009480603 0.046852082 0.10749897 1.3004587
000010 8c eb 9e 3e f5 fd 35 bc 96 31 b0 bf 86 c9 2b 3e
       0.31039083 -0.011107911 -1.3765132 0.16776094
000020 e3 de 9e bf 24 9b 33 bf ec 21 1a 3e b1 d0 d8 3c
       -1.241177 -0.701586 0.15052003 0.0264667
000030 9a c2 b8 bc 6e 39 54 3c 0e 4e 8f 3b cb 1f c1 3f
       -0.02255373 0.012953145 0.0043733185 1.5087827
000040 2a 55 f7 bf 15 10 89 bf 16 fc aa 3c a2 53 6f 3e
       -1.9322865 -1.0708033 0.020872157 0.23371747
000050 e9 7b 55 3f 1c 26 e4 bc 4c a4 68 3d 7d 28 26 3d
       0.83392197 -0.027850203 0.05679731 0.040565956
000060 a6 d4 86 bd a2 39 22 40 34 01 dd 3e db 4e 9f 3d
       -0.06583528 2.5347676 0.4316498 0.07778712
000070 c8 90 1a 3f db 58 09 3e 28 ca 25 3e ed 3a 80 3d
       0.6037717 0.13412802 0.16190398 0.06261239
000080 70 e1 f0 bc f5 e5 92 3e 1e 85 a3 3d 68 b0 8b 3b
       -0.029404372 0.28691068 0.079843745 0.0042629726
000090 9b 41 99 be 7f 35 82 3d 05 48 4d bf 40 86 22 be
       -0.29932866 0.0635786 -0.8018802 -0.15871525
0000a0 b4 f1 14 40 90 c3 72 3d 90 1c 02 bd e9 a4 1c bf
       2.3272524 0.059268534 -0.03176552 -0.6118913
0000b0 8b a0 91 3f 7f e9 0b 3d 49 b3 9f 3f 70 b1 e4 3d
       1.1377119 0.034158226 1.2476588 0.11166656
0000c0 6e 69 6d bb 92 69 4d bf 42 a4 0b 3e 33 4b 31 bc
       -0.003622617 -0.8023921 0.13636878 -0.010821152
0000d0 0a e4 96 3e 0a d5 ae 3d 1d 71 ca bf de c1 b6 3d
       0.29470855 0.08536728 -1.581577 0.08923696
0000e0 03 8d 0a 3f f3 de ba 3e 02 c4 1b bc 45 b0 45 3f
       0.54121417 0.36498222 -0.009507181 0.7722209
0000f0 c8 ee b8 3c ee ef a2 bd 6f ac 85 3d e5 32 f6 3a
       0.022574797 -0.07955919 0.0652703 0.0018783478
000100 93 14 a8 bd 7b 5d 25 be de 9f 43 be 7f 30 df 3f
       -0.08207049 -0.16148941 -0.19103953 1.7436675
000110 16 e8 05 3f c9 0a 14 bf 83 7e 7c bf 18 37 1f 3f
       0.5230726 -0.57828957 -0.9863054 0.6219344
000120 71 8e 96 bf ba f7 4b bf 70 ee 2d bc 58 54 d2 3d
       -1.176222 -0.79674876 -0.01061593 0.102699935
000130 5a 78 08 3c 3f 3f 92 3d 50 ec 26 bc 3c 64 91 3f
       0.008329475 0.071409695 -0.010188177 1.1358714
000140 c7 13 30 bf 46 9d 96 bf e4 80 e9 3d 0c 51 d3 3e
       -0.6878018 -1.1766746 0.11401537 0.4127277
000150 2e 2d 13 3f f4 e7 24 bf 50 c0 55 bc e5 f5 14 bf
       0.57490814 -0.6441643 -0.013046339 -0.58187705
000160 e3 77 47 be 40 34 ea 3f 9d 0e b3 3e 0b a7 01 3e
       -0.19479327 1.8297195 0.34972087 0.12661378
000170 07 0d 44 3f 5b c9 50 3d 6e 9e ba 3e 90 b7 52 3c
       0.7658238 0.050973278 0.36448997 0.0128611475
000180 c0 68 62 3c 97 1f 51 3c 40 af 0d bc 00 40 79 ba
       0.01381892 0.012763879 -0.00864774 -0.0009508133
000190 48 63 fd be 30 af c8 bc b9 ee 17 be 2a 86 10 bf
       -0.49489808 -0.024497598 -0.14837159 -0.5645472
0001a0 44 d1 f0 3f 61 9f 40 bb 1a dd ab 3d 38 e8 fc be
       1.8813863 -0.0029391872 0.08391781 -0.4939592
0001b0 8c 10 87 3f 81 e3 87 bd cd 4b 81 3f 8e db 76 be
       1.0551925 -0.0663519 1.0101258 -0.24107191
0001c0 c4 ad 62 38 93 7d 4a bf 9c f6 fb 3d 03 6d c9 3c
       5.404443e-05 -0.7909786 0.123028964 0.024588114
0001d0 8e f8 48 3f 67 5a b9 3d e1 ec a8 bf ed e0 a6 bd
       0.78504264 0.09050446 -1.319729 -0.0814837
0001e0 7c b9 94 3e 91 72 67 3f 78 61 d9 3c f4 d4 26 3f
       0.29047763 0.9040919 0.026535735 0.6516869
0001f0 08 b1 ed bc fc 56 55 3d ee 7e 5d 3d 6e f3 22 bd
       -0.02901508 0.052084908 0.054076128 -0.039782934
000200 df 91 fd bc a5 3e 88 be 60 9a 09 bf c9 d7 be 3f
       -0.030953346 -0.26610294 -0.5375118 1.4909602
000210 15 bd 94 bd 64 22 06 bf 31 0b 6f bf 66 92 ad 3e
       -0.07262627 -0.52396226 -0.9337645 0.33900756
000220 2b 63 8d bf cd db 40 bf 00 90 24 be 90 2d e2 bc
       -1.1045889 -0.7533539 -0.16070557 -0.027609617
000230 da f8 ca bd 26 42 f2 3c e8 97 cc bc 76 01 9f 3f
       -0.09910746 0.029572558 -0.024974778 1.2422321
000240 56 60 48 bf 68 88 0e bf 8f 72 8c 3d c0 08 09 3f
       -0.78271997 -0.5567689 0.06857788 0.53528976
000250 ff 82 37 3f cb 89 59 bf 44 cb 30 bd 01 75 6f bf
       0.7168426 -0.8497588 -0.0431626 -0.9353791
000260 e7 88 27 be 89 f4 ea 3f 5b a9 da 3e c0 cd 49 be
       -0.16360818 1.8355876 0.42707333 -0.19707394
000270 a0 70 24 3e f7 45 19 bd 78 39 52 3d ca 25 c7 3d
       0.16058588 -0.03742024 0.051324338 0.097240046
000280 2c d4 43 3d be 58 c1 3d ea 21 88 3c 90 00 5c 3c
       0.047809765 0.09440754 0.016617734 0.0134278685
000290 57 62 16 bf 28 5e 61 3d 2e 8e f2 3d f6 e0 37 be
       -0.58743805 0.055021435 0.11843525 -0.1795691
0002a0 36 bc c6 3f a5 a8 32 3c 54 4c 12 bd 1c 33 03 bf
       1.5526187 0.010904466 -0.035717323 -0.5124986
0002b0 84 ad 94 3f fa e9 8b 3d 1e 20 9e 3f 8b 95 57 bf
       1.1615453 0.06831737 1.2353551 -0.8421256
0002c0 55 3a 5a 3d 1c 33 48 bf c1 b6 c2 bd b0 ae 99 bd
       0.053278286 -0.78202987 -0.09507514 -0.07504022
0002d0 35 53 04 3f 90 97 96 bd b5 21 ae bf 48 8a b5 3c
       0.51689464 -0.07353127 -1.3604037 0.022160664
0002e0 86 be 4e 3e db e6 a5 3f 76 87 bd bd 6f 07 61 3f
       0.20189866 1.2961076 -0.09254353 0.8790197
0002f0 48 75 35 3d 13 10 f4 bd bf 2a 47 bd f4 54 c6 3d
       0.0443013 -0.119171284 -0.04862475 0.09684172
000300 10 e3 bd 3d ec 88 b2 be 88 f7 3c be 24 5b bd 3f
       0.09271824 -0.34870088 -0.184538 1.4793439
000310 b8 06 aa 3c d7 ba 99 be 00 ff 72 bf 58 bc c2 3e
       0.020755157 -0.3002536 -0.9492035 0.3803432
000320 6f 90 b8 bf f8 88 1a bf ae 62 36 bd e6 86 b3 bd
       -1.4419078 -0.6036525 -0.044527702 -0.08765964
000330 50 9c d8 3d 95 c1 91 bc 40 d8 66 3d 81 c4 98 3f
       0.10576689 -0.017792502 0.056358576 1.1934968
000340 5c 4e 3f bf 07 86 1a bf 9e d5 14 bd c2 b8 b6 3e
       -0.7472894 -0.6036076 -0.036336534 0.35687834
000350 f4 d8 1c 3f 4a ab 06 bf 62 2c db 3d ee ac 57 bf
       0.61268544 -0.52605116 0.10701825 -0.84248245
000360 31 8a 78 3d ff 86 cd 3f 78 8a fb 3e e0 7c 48 be
       0.060678665 1.6056823 0.4912908 -0.19578886
000370 d3 89 6f 3e 8d b7 22 3d 6a be 97 3e 00 ea d3 bd
       0.2339242 0.03972583 0.29637462 -0.10347366
000380 ec b1 89 3d f8 f3 42 3d 00 c8 97 b8 b4 ba de bc
       0.06723389 0.047595948 -7.237494e-05 -0.027188636
000390 60 3c 4d bf 01 57 cd 3c 0b 3b 3f be 38 56 a5 be
       -0.8017025 0.0250659 -0.18674867 -0.32292342
0003a0 f2 ed d3 3f c4 ac 08 3e 00 c9 df 3b 70 57 b2 be
       1.655699 0.13347155 0.006829381 -0.34832335
0003b0 54 1e 9f 3f 2e 49 89 bd a4 4d a0 3f f7 82 f8 be
       1.243113 -0.06703411 1.2523694 -0.48537418
0003c0 e6 d8 5a bd 8f f7 1e bf 03 57 a6 bb e1 2d 3f bd
       -0.053429507 -0.62096494 -0.0050762906 -0.046674613
0003d0 19 1c ae 3e e6 65 fd 3d 7d e3 c0 bf 4e 1b fe bd
       0.34005812 0.12372951 -1.5069424 -0.12407552
0003e0 38 0a ff 3d 87 61 a7 3f da ae e6 bd 82 77 5c 3f
       0.12453121 1.3076638 -0.11263819 0.86119854
0003f0 84 0e c7 3d 34 6f cc 3d a7 26 ee bd f9 cb fa bc
       0.097195655 0.09982148 -0.11628466 -0.03061484

fc3.bias f4 [20]
000000 6b c2 6b 3f 70 73 bf 3e 06 da 34 3e 33 d0 94 3e
       0.92093533 0.3739276 0.17661294 0.29065093
000010 8b 8c 9c 3e ae 3d bb 3e 48 6c db 3e d2 21 50 3e
       0.30575976 0.36570495 0.4285605 0.20325401
000020 dc 3b 6c 3e 57 31 80 3d 85 6a fc bc b3 12 d7 bc
       0.2306971 0.06259411 -0.030812511 -0.026254034
000030 66 1f 64 bc 94 89 98 be 27 ef 13 be 94 2a 29 be
       -0.013923502 -0.29792464 -0.14446698 -0.16520149
000040 b8 82 9d bd aa 54 c1 be 2f e1 98 be f9 9e 06 bf
       -0.07690948 -0.37759906 -0.298593 -0.52586323

fc1.weight f4 [64, 3]
000000 b9 6c 0b be fb cd 27 3f fa 85 df bc 4d 92 88 3d
       -0.13615693 0.65548676 -0.027285565 0.0666853
000010 71 59 a6 3e 72 70 77 bd 02 8c 48 be 62 34 95 be
       0.32490113 -0.06040997 -0.19584659 -0.29141527
000020 2d cb 0a bf a5 7b d1 be 21 e0 fd be 40 05 3f bc
       -0.5421627 -0.40914646 -0.4958506 -0.011658967
000030 e0 aa 8b bd 20 3e b4 bd 40 0d 70 be 91 e5 a3 be
       -0.06819701 -0.08800912 -0.23442554 -0.32011083
000040 fd 27 e4 bd ef 98 4c 3d df 39 91 3d 8a 3f 56 40
       -0.1114044 0.049950536 0.07091116 3.347628
000050 d7 c6 80 bd a2 ea 76 be b7 58 01 bf 81 89 42 bc
       -0.06287926 -0.24112943 -0.50525993 -0.011873604
000060 d7 4a c0 3d d7 41 54 3f 2d 61 38 bd 88 07 f6 3c
       0.093892746 0.82912964 -0.04501455 0.030032888
000070 c2 05 5f 3f 6c 6a 68 3e 9e 81 71 3d e2 34 2a 3f
       0.8711816 0.22696847 0.058961503 0.6648694
000080 3a 05 7e bd bb 77 96 3e ad 7a 05 be b6 18 07 bd
       -0.062016703 0.29388222 -0.13035078 -0.03298255
000090 b5 d3 89 3f e1 96 52 bf 74 a9 47 be b3 97 30 3f
       1.0767733 -0.8226147 -0.19498235 0.68981475
0000a0 30 86 ea 3e de 0f 55 bd 6d 6d 05 3e f7 e0 42 c0
       0.45805502 -0.052017085 0.13030024 -3.0449808
0000b0 4d fd 3c 3d 3c c5 60 3f 38 88 56 bf 9d c8 17 3d
       0.046140004 0.87800956 -0.83801603 0.037056554
0000c0 79 77 a0 be c0 33 e9 be fb f3 00 bf 9c 74 d6 bb
       -0.3134115 -0.45547295 -0.50372285 -0.0065446626
0000d0 c0 df 40 3d dc f2 21 bd e5 5d 9a be 13 78 83 3f
       0.047088385 -0.03953825 -0.3014976 1.0271019
0000e0 32 5f f0 bd 01 db d7 3d 2f dd f4 3e 5e 5c 31 be
       -0.11736907 0.105398186 0.47825 -0.17320392
0000f0 81 52 01 be aa 29 4e bd 47 aa d1 bc bc c9 23 3e
       -0.12629129 -0.050332703 -0.02559389 0.15994924
000100 ec 74 53 3f c9 35 4d bd 67 c7 5b 3e 02 6d c7 be
       0.82600284 -0.05010012 0.21462785 -0.38950354
000110 58 b2 c0 bc 39 d7 0a 3b f0 04 19 be 1c 94 26 bd
       -0.02352254 0.0021185412 -0.1494329 -0.04066859
000120 f9 2b 0a be a1 3f 16 3e d1 b5 33 3e d1 b9 8f bd
       -0.13493337 0.1467271 0.17549826 -0.070178635
000130 28 9e b3 3d a9 2f 05 bd a0 d2 06 3d 5e a7 2c 40
       0.087704 -0.032516155 0.03291571 2.6977153
000140 a3 df b9 bc 22 ab 67 bf ed a4 74 3e 17 84 03 bc
       -0.022689646 -0.904955 0.23891039 -0.008027098
000150 b5 8d 5f be d4 18 72 c0 15 9a 85 3d cc 96 35 bf
       -0.218314 -3.7827654 0.065235294 -0.7093322
000160 49 72 9a bf f3 22 80 3e 63 b5 9d be 90 f2 53 3f
       -1.2066127 0.25026664 -0.3080245 0.82791996
000170 b8 8f 08 bc e5 41 dc 3e 95 71 87 bf a4 7a ce bd
       -0.0083350465 0.43019024 -1.0581537 -0.100819856
000180 4f 96 f5 be d4 6f 90 3f fe 9a 05 3e dd 76 f0 bc
       -0.4796624 1.1284127 0.13047406 -0.029353553
000190 16 d2 00 3f 02 6a 19 bd 4b d0 aa 3e a8 78 7b 3f
       0.50320566 -0.037454613 0.3336204 0.9823098
0001a0 b8 b9 4a 3d 83 d7 a2 3e fc fe c0 bd b6 fe 11 3e
       0.04949352 0.31805047 -0.094236344 0.14257321
0001b0 20 b3 00 3e 1b 2d 70 c0 81 82 53 3d 3f 13 95 3e
       0.12568331 -3.752753 0.05163813 0.29116246
0001c0 24 ee cc 3e d2 b2 b1 3d 6d 10 05 bf b9 da f2 be
       0.40025437 0.086766854 -0.5197819 -0.47432497
0001d0 9c 90 4c be db 62 b7 bd 4a 77 79 bf eb eb 62 bc
       -0.19977039 -0.08954402 -0.97447646 -0.013850193
0001e0 1a de e5 be 8b 3b 2a bf c6 5c 0e bd dd 08 a3 3c
       -0.44896013 -0.66497105 -0.034756444 0.019901687
0001f0 af a3 91 bc fa 15 e0 be 19 3d f6 3d d5 b1 2a 40
       -0.017778246 -0.43766767 0.12023372 2.667104
000200 2a 38 9e 3c 23 b6 3f be 85 3d a3 be 78 c3 93 3c
       0.01931389 -0.18721823 -0.31882873 0.018037543
000210 e8 73 83 be 80 b9 64 bc 80 b5 4c bc d2 ee f1 be
       -0.25674367 -0.013960242 -0.012494445 -0.47252518
000220 01 ff 83 be 6b f4 f4 3d 33 bc e2 be e3 fa 87 bd
       -0.2578049 0.119606815 -0.4428421 -0.0663965
000230 db e7 a5 bc 42 5a c9 3e cf a0 44 bd 72 4a 0f 3e
       -0.020252159 0.39326674 -0.04800492 0.13993242
000240 40 5c c5 3c f0 9a d4 be 27 f9 f8 be 52 0e ec be
       0.02409184 -0.41524458 -0.48627588 -0.46104676
000250 3a 94 22 be a2 eb 7e be 9e 3a 8a 3f 02 b3 b3 be
       -0.15876856 -0.24894574 1.0799139 -0.3509751
000260 5b 13 20 bf c2 16 f7 bf 2f 23 cd be 4f 1f b0 3d
       -0.62529534 -1.930382 -0.40065905 0.08599722
000270 7c b3 a3 bd 9b ab d1 3e a9 25 05 bf 34 49 d9 bf
       -0.07993218 0.40951237 -0.5201059 -1.6975465
000280 e7 9c 12 bf 01 6e e5 3d 1d 39 6b bc 04 fc e3 bd
       -0.57270664 0.11202622 -0.014356879 -0.111320525
000290 3e 49 92 3d b8 b9 bd 3e 84 95 31 be 3c 47 f4 be
       0.07142876 0.37055755 -0.17342192 -0.47710598
0002a0 99 e3 9f 3e 9f 1c 01 3f f4 d8 0e be fd 89 36 be
       0.3122833 0.504343 -0.13949949 -0.17826076
0002b0 ac a4 18 c0 a4 7d aa 3d 7d b5 a9 bd 23 e3 bc c0
       -2.3850508 0.08324745 -0.08286569 -5.9027267
0002c0 d8 b5 87 3d 01 a2 9a 3e c5 8b 07 be 7e 07 f6 be
       0.06626481 0.30201724 -0.13236912 -0.4805259
0002d0 c2 2d be 3e 13 3e f4 bf 5c f6 27 3e b0 b0 50 3e
       0.37144285 -1.9081444 0.16402572 0.20379901
0002e0 00 10 ae b9 81 cd 0c bf 7a 7e 96 ba 0b 57 2e bd
       -0.00033199787 -0.55001074 -0.0011481785 -0.04256348
0002f0 07 0c 27 be ee 50 21 3b 72 6e bb c0 17 2a 82 3d
       -0.16313182 0.0024614888 -5.857232 0.06355684

fc1.bias f4 [64]
000000 6b 28 b0 40 2e b3 8c 40 4d c5 8e be 2e ed 9e 3e
       5.504934 4.3968725 -0.27884904 0.3104033
000010 4e 92 88 3e 18 26 bd 40 01 0e 19 3e 5e 80 47 40
       0.26674122 5.9109 0.14946748 3.11721
000020 30 44 a6 40 35 7e be c0 40 07 98 40 37 87 bb 40
       5.1958237 -5.952906 4.750885 5.8602557
000030 6b dd ed 3e 23 b2 a6 40 94 8b 4b be 4e 7b 42 c0
       0.4645799 5.209245 -0.19877464 -3.038776
000040 1e b0 00 3f e7 f4 ad 40 9a 05 68 40 ab 7f 44 40
       0.50268734 5.4361453 3.625342 3.0702922
000050 ed 28 89 40 04 00 b1 40 67 64 0f 40 a7 7c b7 40
       4.286246 5.531252 2.240503 5.7339664
000060 c1 3b 1a c0 ca 4d ac 40 c3 c3 0d c0 ba a6 55 40
       -2.409897 5.3844957 -2.2150733 3.3383012
000070 84 e7 88 3e e5 a7 76 c0 17 61 a0 40 60 5d 94 3f
       0.26739132 -3.8539975 5.011852 1.1590996
000080 26 2c 7a bf 78 2f d6 bf 38 68 a4 c0 e6 7e 64 c0
       -0.97723615 -1.6733236 -5.137722 -3.5702453
000090 2f 98 c1 3e 50 44 95 c0 50 f2 39 3d 9c a8 23 40
       0.3781142 -4.664589 0.045397103 2.557166
0000a0 ad 2f 92 3f 48 fb cc 3e 61 81 0f c0 3e 91 c1 40
       1.14208 0.40035462 -2.2422717 6.0489798
0000b0 2e 11 db be 07 53 95 c0 d6 4b ab 40 60 4e 91 c0
       -0.42786545 -4.666385 5.3530073 -4.5408173
0000c0 0e 26 d1 be 64 90 98 be 16 90 b9 bf 47 d4 33 c0
       -0.40849346 -0.2979766 -1.4497097 -2.8098314
0000d0 67 cd 71 40 be bb 4a c0 4d 66 bf 40 9a fe 70 be
       3.7781618 -3.1677089 5.981238 -0.23534623
0000e0 47 e1 81 40 90 71 8e bf 69 d0 81 40 38 39 76 40
       4.0587497 -1.1128407 4.0566907 3.8472424
0000f0 c8 3e 1e c0 9e 2c 19 be 85 21 5b 40 50 a7 56 40
       -2.4725819 -0.14958426 3.4239209 3.353962

fc2.weight f4 [64, 64]
000000 89 e8 71 bd 1e a7 78 3d 4e bf 0f 3d a0 32 33 bc
       -0.059059653 0.06070625 0.03509455 -0.010937363
000010 a4 45 90 3d a3 fd 02 be fc 60 38 bd 08 e2 4b 3d
       0.07044533 -0.12792067 -0.045014367 0.049776107
000020 f0 3f 12 be 40 3d 42 bd 2e 49 c2 bd 5a d3 7d 3d
       -0.14282203 -0.047421694 -0.09486614 0.06196914
000030 d6 29 f5 bd 94 33 ec bd f9 8d e8 bd a7 35 24 be
       -0.1197087 -0.11533275 -0.11355204 -0.16036092
000040 18 83 e8 bc 35 b8 18 bd 28 1c be 3c 18 38 28 bd
       -0.028382823 -0.03728505 0.023206785 -0.04106912
000050 83 c7 c5 bd 7e d5 d1 bd c1 51 82 3d 10 e9 a6 3d
       -0.096571945 -0.102457985 0.063632496 0.08149922
000060 6a 75 a9 3d 9e 79 ee bd f5 04 a3 bd 53 91 6c 3d
       0.08274348 -0.116442904 -0.0795993 0.05775578
000070 e4 a0 d0 3c 1b 24 b2 bd 82 79 fd bd 1a df 8b 3d
       0.025467344 -0.08698293 -0.123766914 0.068296626
000080 bb 8e c6 3d 43 c4 b2 bc 75 b0 b4 3c 90 dd 88 bd
       0.096951924 -0.0218221 0.022056798 -0.06682885
000090 d0 f1 11 bd a2 21 c4 bd 54 0d 00 3d 9e d2 ad 3d
       -0.035631 -0.095767274 0.03126271 0.08487438
0000a0 02 e3 8b 3b 80 61 4f bd f0 41 c2 3c 06 2c a3 bc
       0.004269005 -0.050630093 0.023713082 -0.019918453
0000b0 b2 7d c3 bd 2e a5 3f bd 5a f3 14 be 98 69 b8 bd
       -0.09545459 -0.046788387 -0.14545956 -0.090045154
0000c0 a4 26 13 bd 0c 9a 15 3d 9c fe c7 3d 92 34 f3 bd
       -0.035925522 0.036523864 0.0976536 -0.11875261
0000d0 d0 7c 21 3c c9 16 13 be 28 84 93 3d ea 22 84 3d
       0.009856418 -0.1436416 0.07202941 0.06451972
0000e0 80 14 67 bd 19 cb f2 bc 98 fe 7b 3d d2 0a dd bd
       -0.056416035 -0.02963786 0.061522096 -0.107930794
0000f0 1a d6 e9 bc ec 28 3b bd e7 e7 92 3b 08 81 b8 bd
       -0.028544474 -0.045693323 0.0044832113 -0.09008986
000100 7f f1 58 3f 7a 36 00 3f 74 d3 44 3d 9c 2d 47 bd
       0.84743494 0.50083125 0.04805322 -0.04862748
000110 d8 be 45 3d db 1b 3c 3e 5e 72 ae be d5 81 73 3c
       0.048277706 0.18370001 -0.3407163 0.014862497
000120 ee 12 f5 3e de ec 55 be 36 19 07 3f eb 76 83 3e
       0.47866005 -0.20891139 0.52772844 0.25676665
000130 a9 a0 60 bf c4 ad e3 3d d5 13 cb bd c3 24 e6 bd
       -0.8774515 0.111171275 -0.09915892 -0.112374805
000140 42 ac f6 3d 57 5c 59 3e a5 45 a9 3e 4e 0c 91 3f
       0.12044574 0.21226631 0.33060947 1.133188
000150 e8 a4 7e 3d d5 da 24 3f 39 9b 83 be ae 50 bc 3e
       0.062168986 0.6439641 -0.25704363 0.36780304
000160 c3 f3 70 bc b7 3d c1 3c a6 5f f7 be a5 76 97 3d
       -0.014706555 0.023588998 -0.4831516 0.073956765
000170 53 8f 28 3e 3e 7f a3 bd f9 da 16 3f c2 0d 49 3e
       0.16460924 -0.07983254 0.58927876 0.19634154
000180 15 f9 a2 be c3 46 21 3c 9d 9c 44 bf bf c4 cc bd
       -0.3183066 0.009843531 -0.7680147 -0.09998464
000190 c0 d2 e0 bc 21 86 a1 be c6 c8 bd 3d e6 b9 a8 bb
       -0.027444243 -0.31547645 0.0926681 -0.005149114
0001a0 cd 5a 9e bd c5 89 23 bc f0 b8 1e bf 6e d6 85 3e
       -0.077321626 -0.009981577 -0.6200094 0.2614016
0001b0 7e b6 b9 bd fe c5 a4 bd 48 08 63 3e 31 26 fe bd
       -0.09068011 -0.080455765 0.22171128 -0.12409628
0001c0 f6 cf ed 3d f4 f2 ba 3d 9b e4 79 bf 10 f4 08 bf
       0.11611931 0.09128371 -0.9761445 -0.5349741
0001d0 9e e2 e2 bf 3c 8b b5 be 06 90 fb 3e c0 4e 71 bd
       -1.7725408 -0.3545779 0.4913332 -0.058912992
0001e0 52 d8 25 3f 7a b7 42 3e 9d 05 7e 3f 4e 48 99 bf
       0.64783204 0.19015303 0.99227315 -1.1975191
0001f0 73 da 93 3c 06 71 c9 3d e5 0d 88 3e 03 bc 91 bc
       0.0180485 0.09836011 0.265731 -0.017789846
000200 30 a0 ed 3e 52 c2 11 c0 09 99 fb 3b 00 9a c2 3d
       0.46411276 -2.2774854 0.0076781553 0.095020294
000210 90 fe df 3d fc 7b 75 3e 9b 87 bb bf 04 90 0c 3e
       0.10937226 0.23973078 -1.4650759 0.13726813
000220 a1 2e 02 3f 4e c1 c3 bd 92 cc 0e c0 7e 7d 59 3e
       0.508524 -0.09558354 -2.231236 0.21239278
000230 2a 42 f4 bf da 7d 28 3c bf 9b d2 be 8a d3 2a be
       -1.9082692 0.010283912 -0.4113445 -0.16682258
000240 70 56 bd bc 88 18 e6 3e bb e5 80 3e 3f 37 3d 3f
       -0.023112506 0.4494059 0.2517527 0.73912424
000250 a1 1a e0 3e 9f db 11 3f 65 07 ee bc 47 33 0c 3f
       0.43770316 0.5697574 -0.02905626 0.54765743
000260 21 fa 3a 3c 33 92 cc 3e 00 ba 75 bf 35 a7 ef 3e
       0.011412174 0.3995529 -0.9598694 0.46807256
000270 a0 7c 57 be 53 38 90 bd fc 1d fd 3e ad 11 bd bd
       -0.21043634 -0.07041993 0.4943694 -0.09231887
000280 1f ca 85 3d a6 61 a7 3c 88 2f f5 be 8a e5 00 be
       0.06532692 0.020432305 -0.47887826 -0.12587562
000290 6c 45 0a bf 2f 63 75 be 83 d8 3b 3d 4e 1a 93 3d
       -0.5401218 -0.23963617 0.04586078 0.071827516
0002a0 b9 1d c4 bd 0b a1 96 bd 03 a5 26 bf 13 da bc 3d
       -0.09575982 -0.07354935 -0.6509554 0.09221282
0002b0 e6 22 49 bd c7 7e 53 be f6 9c 0e 3f 40 e6 e1 bc
       -0.049105547 -0.2065383 0.55708253 -0.027575612
0002c0 2e 59 81 bd 70 91 2a bd 87 45 65 bf f3 12 89 bf
       -0.06315838 -0.041642606 -0.89559215 -1.0708908
0002d0 a7 e1 61 3f c2 6e 67 bf 7a 00 e5 3e f5 0c f7 bd
       0.88234943 -0.9040338 0.44726926 -0.12063018
0002e0 bb b8 ec bc 11 af fc bd 44 ec 95 3f 9b b5 21 3d
       -0.02889668 -0.12338079 1.1712728 0.039479833
0002f0 f1 c8 06 be 36 d2 80 3d 4b 90 1b 3e b5 0f 69 3f
       -0.1316259 0.062900946 0.15191762 0.9103959
000300 1d 53 9f 3f 82 07 16 3f 44 40 56 3d d4 72 a0 bd
       1.2447239 0.58605206 0.052307382 -0.07834402
000310 0e 19 cc 3d 2d e1 dd 3e 7c 41 86 be f0 c3 11 3e
       0.09965716 0.43335858 -0.26221836 0.142349
000320 cf 3f 61 3f 8d 79 88 be 12 0c fd 3e 07 56 4b 3f
       0.8798799 -0.26655236 0.4942327 0.7942814
000330 80 bf 7e bf f5 82 17 3f 2d 24 3e bf 57 f9 c0 bd
       -0.99510956 0.591842 -0.7427395 -0.09422558
000340 48 35 a0 3d 3e 6b db 3e 00 8a 7a bf 44 4d 66 bf
       0.078226626 0.42855257 -0.9786682 -0.8996165
000350 6a 3e e7 3d 8e e7 52 3f fc 5f b9 3d 26 55 be 3e
       0.112912014 0.82384574 0.09051511 0.37174338
000360 75 9d b8 bd 46 da be 3e cb e3 02 bf 3f a7 ab 3d
       -0.090144075 0.37275904 -0.51128834 0.08381509
000370 76 20 f3 be 2a 0a a2 3d db eb 50 3f 80 f5 69 be
       -0.47485703 0.07912095 0.81609887 -0.22847557
000380 15 98 c8 bb 2f 5f 26 be cd e2 37 bf be 0f ea bd
       -0.006121645 -0.16247247 -0.71830446 -0.11428784
000390 e8 91 c5 bf 1c 85 4e be 24 01 67 3d 6b a4 4c 3e
       -1.5435152 -0.20167965 0.056397572 0.19984595
0003a0 91 5d 06 be 01 55 95 bd 69 9d 6b be a4 b6 25 3f
       -0.1312163 -0.07291604 -0.23009266 0.6473181
0003b0 cf 02 88 3d 9c 6c b8 be 49 e7 f3 3e f4 01 18 be
       0.06641161 -0.36020362 0.47637394 -0.14844495
0003c0 f0 41 e7 3d 52 d2 ec bd 57 d4 72 bf e1 66 13 bd
       0.112918735 -0.11563553 -0.94855255 -0.035986785
0003d0 d0 d3 13 3f 38 ec 5c bd cc 3f eb 3f fe 4d 93 bd
       0.57745075 -0.053936213 1.8378844 -0.0719261
0003e0 49 53 d2 bf 22 c5 b0 be 1c c9 7c c0 8f 5e e5 be
       -1.6431667 -0.345254 -3.9497747 -0.44798705
0003f0 27 82 a0 3c 84 e9 91 bd 3b d5 96 be 93 40 88 c0
       0.019593311 -0.07124618 -0.29459557 -4.2578826

fc2.bias f4 [64]
000000 34 8c 3c bc 72 c4 fa 3f bc 78 57 3f 2e 20 32 40
       -0.011508036 1.95912 0.841686 2.783214
000010 99 16 25 be c4 d2 55 3f 2c 96 17 40 c7 b4 0f be
       -0.16121902 0.8352473 2.3685408 -0.14033805
000020 68 89 3d 40 4f 3e 18 40 38 eb c1 bd 01 ef 09 bd
       2.9615116 2.378803 -0.094686925 -0.033675198
000030 ce 04 5d 3d 71 11 01 be 8f 84 49 bd b6 b7 23 40
       0.05395966 -0.1260431 -0.049198683 2.5580878
000040 3d 48 c3 3f 6f b8 36 40 33 d7 e1 bd 00 90 40 3f
       1.525642 2.855007 -0.11027374 0.75219727
000050 d6 a4 07 40 14 41 af 3f 1b ae fe bd ed 96 8a 3f
       2.1194358 1.3691735 -0.12435552 1.0827309
000060 9a bc b2 3f 6f 2a 26 40 ad 2b ae 3f 17 6b 65 3f
       1.3963807 2.59634 1.3607079 0.8961653
000070 b0 72 cc be fb 79 96 bc ea 65 eb bd 76 cd 6f 3d
       -0.3993125 -0.018368712 -0.11494048 0.058545552
000080 be 3d e6 bd f0 95 9c bd f4 39 5a 3d 0b 96 1f bc
       -0.11242245 -0.07645786 0.053277925 -0.009740363
000090 c6 c8 15 40 fa 1e 02 be 2f 5a c7 3f a2 ca 36 3f
       2.3403792 -0.12707129 1.5574397 0.71402943
0000a0 54 06 25 40 4e 92 ac bd 8d d9 97 3d 24 fb 1e 40
       2.5785112 -0.08426343 0.074145414 2.4840784
0000b0 e1 a7 12 40 32 bf ea bd 9a cb 1e 40 c8 de 50 3f
       2.2914965 -0.11462249 2.4811769 0.8158994
0000c0 28 12 8a 3c c9 a3 32 40 a9 36 f2 bd f6 e2 36 3f
       0.01685436 2.7912467 -0.11826832 0.71440065
0000d0 ec 20 9a be c4 12 a2 3d b3 f2 36 40 3f 54 b7 bd
       -0.30103242 0.079137355 2.8585632 -0.089516155
0000e0 e1 45 aa 3f 11 94 11 bf 54 1d 8e bd 99 43 eb 3f
       1.3302575 -0.56866556 -0.06939188 1.8380004
0000f0 f1 b2 e9 3b bc ed 84 3d b4 8c e3 bc 57 7f 05 3d
       0.007131927 0.06490657 -0.027777053 0.032592144

fc3.weight f4 [20, 64]
000000 c5 8b 78 ba be ef 4b 3d 10 e7 26 3e 9c a9 a5 3f
       -0.00094812765 0.049789183 0.16299081 1.2942386
000010 74 25 b3 3e 16 4e 80 3c 9c 2c b3 bf 87 02 30 3e
       0.34989512 0.015662234 -1.3997989 0.17188464
000020 69 da 9c bf 56 95 37 bf 97 1f 1a 3e 92 d2 d8 3c
       -1.2254153 -0.71712244 0.15051113 0.026467595
000030 88 bf b8 bc e0 36 54 3c ec 51 8f 3b d2 eb bf 3f
       -0.022552267 0.012952536 0.0043737795 1.4993842
000040 96 68 fa bf 25 fb 86 bf 0d fc aa 3c 7b a0 80 3e
       -1.9563167 -1.0545393 0.02087214 0.25122437
000050 79 01 55 3f 41 f1 b8 bb 4c a4 68 3d 6c dc b2 3d
       0.8320537 -0.005643994 0.05679731 0.087334484
000060 84 01 ae 3a a5 25 22 40 fd 00 e7 3e d2 8d 08 3e
       0.0013275598 2.5335476 0.45117941 0.1333535
000070 4f 48 18 3f a8 56 09 3e 56 68 65 3e 80 3e 80 3d
       0.59485334 0.13411963 0.22403082 0.06261921
000080 70 e1 f0 bc 64 64 fd 3d dd 85 a3 3d 3a b0 8b 3b
       -0.029404372 0.123726636 0.07984517 0.004262951
000090 df bb 9a be 69 36 82 3d 89 b5 42 bf f9 4b 17 bd
       -0.3022146 0.06358034 -0.7605825 -0.036937688
0000a0 1f ec 14 40 90 c3 72 3d 90 1c 02 bd 42 36 19 bf
       2.3269117 0.059268534 -0.03176552 -0.59848416
0000b0 4b 38 90 3f eb f6 0b 3d 9f 40 9e 3f 61 62 18 3e
       1.1267179 0.034171026 1.2363471 0.14881279
0000c0 14 6c 6d bb 2a 09 4f bf 82 a4 0b 3e 5a 49 31 bc
       -0.003622775 -0.8087336 0.13636974 -0.010820711
0000d0 14 8d aa 3e 0a d5 ae 3d 73 7d c8 bf de c1 b6 3d
       0.3331076 0.08536728 -1.5663284 0.08923696
0000e0 ff 09 10 3f 2f a8 b6 3e 90 c1 1b bc 0c fc 48 3f
       0.5626525 0.3567519 -0.009506598 0.78509593
0000f0 c8 ee b8 3c 6d f1 a2 bd 3d a9 85 3d 76 6b e9 3a
       0.022574797 -0.079562046 0.0652642 0.0017808515
000100 d9 15 a8 bd a2 26 4b be a0 85 8d be 3f a5 e0 3f
       -0.08207292 -0.19838956 -0.2764101 1.7550429
000110 bc 30 f3 3e 4e 9f 1a bf 4a bc 80 bf 10 99 1f 3f
       0.4749812 -0.6039933 -1.0057461 0.6234293
000120 fc d3 96 bf 75 dd 49 bf de f1 2d bc 58 54 d2 3d
       -1.1783442 -0.7885354 -0.010616748 0.102699935
000130 00 78 08 3c 08 3c 92 3d 50 ec 26 bc aa 66 90 3f
       0.0083293915 0.07140356 -0.010188177 1.128133
000140 24 f7 2b bf 20 3b 95 bf 2a 80 e9 3d a8 82 cf 3e
       -0.6717398 -1.1658669 0.114013985 0.4052937
000150 98 3e 0c 3f 16 63 24 bf 50 c0 55 bc 47 a6 2c bf
       0.5478301 -0.64213693 -0.013046339 -0.6744122
000160 7d 77 85 be 4e 46 e8 3f 62 d9 ad 3e df fd 90 3d
       -0.26067725 1.8146455 0.33954912 0.07079672
000170 58 57 3c 3f dc cb 50 3d 4a b1 97 3e 0e b8 52 3c
       0.73570776 0.050975665 0.29627448 0.012861265
000180 c0 68 62 3c 9b 47 0a 3d 40 af 0d bc 00 40 79 ba
       0.01381892 0.033759695 -0.00864774 -0.0009508133
000190 5e 7b 01 bf b6 ad c8 bc 04 dd a6 bd c9 d8 d2 be
       -0.5057887 -0.024496894 -0.08147624 -0.4118102
0001a0 97 9f f0 3f 16 a3 40 bb 1a dd ab 3d 05 21 01 bf
       1.8798703 -0.0029394082 0.08391781 -0.5044101
0001b0 8f d8 86 3f 8f e3 87 bd 9e 22 81 3f d0 73 98 be
       1.0534838 -0.066352 1.0088689 -0.29775858
0001c0 f3 b1 62 38 d5 0b 48 bf c9 f6 fb 3d 05 71 c9 3c
       5.4048327e-05 -0.78143054 0.1230293 0.024590025
0001d0 72 bd 3c 3f c8 5b b9 3d 0d 39 aa bf 41 e1 a6 bd
       0.7372657 0.09050709 -1.329866 -0.081484325
0001e0 0a f4 8f 3e 95 ab 5f 3f 78 61 d9 3c 12 97 25 3f
       0.28115875 0.8737119 0.026535735 0.6468364
0001f0 08 b1 ed bc f0 57 55 3d ce 81 5d 3d 6e f1 22 bd
       -0.02901508 0.052085817 0.05407887 -0.039781027
000200 f2 90 fd bc 96 a9 97 be 31 93 05 bf 41 00 c2 3f
       -0.030952904 -0.2962157 -0.5217772 1.5156327
000210 fc c3 b7 bd e5 0e ec be fd 38 72 bf 97 19 9c 3e
       -0.08972928 -0.46105114 -0.9461821 0.30488274
000220 c2 c0 86 bf bd 94 41 bf 7f 8f 24 be 90 2d e2 bc
       -1.0527575 -0.7561758 -0.16070364 -0.027609617
000230 a8 f7 ca bd 48 46 f2 3c e8 97 cc bc 70 5e a1 3f
       -0.09910518 0.029574528 -0.024974778 1.2606945
000240 e1 11 4a bf dc a7 01 bf 8a 73 8c 3d 4a 53 fc 3e
       -0.7893353 -0.5064676 0.06857975 0.49282295
000250 33 21 3c 3f 28 59 51 bf 44 cb 30 bd 69 ef 3c bf
       0.7348816 -0.81776667 -0.0431626 -0.7380281
000260 d4 71 66 be 3c 26 ec 3f 74 9d cb 3e 88 ee 43 be
       -0.2250436 1.8449168 0.39768565 -0.19133961
000270 f5 29 c5 3d d6 44 19 bd ec 18 32 3d ca 25 c7 3d
       0.09627143 -0.037419163 0.0434808 0.097240046
000280 2c d4 43 3d a0 8d a5 3d f6 25 88 3c 90 00 5c 3c
       0.047809765 0.080836535 0.016619664 0.0134278685
000290 fc e0 1f bf 1b 5e 61 3d 0f c8 99 3d c7 d2 ed bd
       -0.62452674 0.055021387 0.07508861 -0.11612468
0002a0 b9 c9 c7 3f eb a8 32 3c 54 4c 12 bd d8 84 fd be
       1.5608436 0.010904531 -0.035717323 -0.49515414
0002b0 7a 59 97 3f d2 ea 8b 3d 8a ee a0 3f ad 60 4c bf
       1.1824181 0.06831898 1.2572796 -0.79835016
0002c0 dc 3d 5a 3d b2 3b 47 bf 59 b6 c2 bd 4e ae 99 bd
       0.05328165 -0.7782546 -0.09507436 -0.07503949
0002d0 2a 0e 00 3f 90 97 96 bd 83 35 a5 bf 48 8a b5 3c
       0.5002161 -0.07353127 -1.2906955 0.022160664
0002e0 b2 9d 31 3e f1 07 a3 3f 76 87 bd bd b3 8b 59 3f
       0.17345312 1.2736799 -0.09254353 0.8497879
0002f0 48 75 35 3d 52 0f f4 bd fd 2a 47 bd 0b 58 c6 3d
       0.0443013 -0.119169846 -0.04862498 0.096847616
000300 f4 e3 bd 3d 00 6e bd be b7 dc 1c be f9 0a be 3f
       0.09271994 -0.36997986 -0.15318571 1.4847099
000310 3f 60 5a bd 13 27 b1 be 02 bf 71 bf 19 eb ae 3e
       -0.053314444 -0.34600124 -0.9443208 0.3416374
000320 29 13 b3 bf 18 bf 19 bf 0e 62 36 bd e6 86 b3 bd
       -1.3990222 -0.6005721 -0.044527106 -0.08765964
000330 e3 9b d8 3d 07 bf 91 bc 77 d8 66 3d a0 61 9a 3f
       0.10576608 -0.017791284 0.05635878 1.2061043
000340 17 e7 42 bf e6 13 0b bf 1a d4 14 bd aa 93 95 3e
       -0.76133865 -0.5432724 -0.03633509 0.2921422
000350 66 36 23 3f 06 f9 f0 be 62 2c db 3d dc ea 42 bf
       0.6375488 -0.4706499 0.10701825 -0.76139617
000360 02 e4 ed bd 73 ec cd 3f 2a a6 de 3e 01 d2 57 be
       -0.11615755 1.6087784 0.43486148 -0.21076204
000370 d1 f4 0f 3e bd ba 22 3d 02 07 7d 3e 00 ea d3 bd
       0.14058234 0.03972887 0.24709705 -0.10347366
000380 ec b1 89 3d 2e fb 22 bd 00 c8 97 b8 50 ba de bc
       0.06723389 -0.039790325 -7.237494e-05 -0.02718845
000390 f0 db 4b bf 22 55 cd 3c 51 aa 7a be 5f 4b 85 be
       -0.79632473 0.025065009 -0.24479033 -0.26034066
0003a0 48 36 d4 3f c8 aa 08 3e 00 c9 df 3b 85 3d a3 be
       1.6579065 0.13346398 0.006829381 -0.31882873
0003b0 a7 d7 a0 3f 08 47 89 bd bd 08 a2 3f 89 57 e9 be
       1.2565812 -0.06703001 1.2658917 -0.45574597
0003c0 35 d6 5a bd 80 df 17 bf 88 58 a6 bb fd 2f 3f bd
       -0.05342694 -0.5932541 -0.0050764717 -0.046676625
0003d0 50 43 8b 3e fa 65 fd 3d f0 32 ba bf 4e 1b fe bd
       0.27199793 0.12372966 -1.4546795 -0.12407552
0003e0 9f 5a 9a 3d 0a ee 99 3f da ae e6 bd 73 8b 50 3f
       0.07536816 1.2025769 -0.11263819 0.8146278
0003f0 84 0e c7 3d 90 72 cc 3d ad 23 ee bd 00 ca fa bc
       0.097195655 0.099827886 -0.11627898 -0.0306139

fc3.bias f4 [20]
000000 14 f3 71 3f 17 84 cc 3e b1 fb 30 3e e8 7d 91 3e
       0.9451153 0.39944527 0.17283513 0.2841637
000010 f8 7b a4 3e a8 47 c8 3e f7 d7 dd 3e c7 c4 64 3e
       0.3212583 0.3911717 0.4332883 0.2234069
000020 d8 4d 41 3e 20 2d 7d 3d 61 59 fc bc 57 dd ff bc
       0.18877351 0.061810613 -0.030804338 -0.031233473
000030 6d 6a 88 bc 22 4b b2 be 6e bc 22 be c8 52 2f be
       -0.01665231 -0.34822947 -0.15892193 -0.17121422
000040 49 29 99 bd 15 2e bd be f4 0f a9 be a5 c8 04 bf
       -0.07478578 -0.3694922 -0.33019984 -0.5186866
