beer/experiments/new_env/single/models/dqn_agent_firm_1_episode_3000.pth (torch, 101224 bytes, 24 tensors)

fc1.weight f4 [64, 3]
-0.15299821 0.621706 -0.0277368 0.056260824 0.37477198 -0.04797287 -0.19584659 -0.29141527
-0.5421627 -0.40914166 -0.4958506 -0.011658967 -0.06819701 -0.08800912 -0.23442554 -0.32637262
-0.048331965 0.08209009 0.10849206 3.2249906 -0.048321977 -0.08006326 -0.3202611 0.09907575
0.12327807 0.7793998 -0.043191608 0.021894636 0.91992474 0.23506744 0.06418301 0.6686912
-0.05812915 0.3184174 -0.16164882 -0.022689717 1.0316157 -0.720279 -0.16614823 0.70123476
0.43853143 -0.044345345 0.039084792 -2.6429691 0.059179436 0.8575979 -0.6746903 0.046579625
-0.3134115 -0.45547295 -0.50372285 -0.0009121205 0.006006776 -0.034033135 -0.30756158 1.0400631
-0.10625628 0.12666836 0.50887257 -0.19408035 -0.07409495 -0.027078379 -0.024549648 0.18161596
0.7772297 -0.0460425 0.15703931 -0.46096158 0.031512067 0.017812671 -0.17255747 -0.03641044
-0.19477618 0.14919288 0.18711975 -0.07378627 0.07860694 -0.02845048 0.17407015 2.6158726
-0.032732002 -0.39230612 0.32255578 -0.0020519677 -0.15132344 -3.4620035 0.12217191 -0.64878875
-1.1798549 0.25585306 -0.32425222 0.791127 -0.008005201 0.40074554 -1.0775534 -0.060624983
-0.5364494 1.210136 0.13810647 -0.031301517 0.52502733 0.0069991243 0.34637597 1.1102526
0.048914436 0.32039207 -0.021568233 0.15117393 0.057185546 -3.360037 0.045385677 0.28882936
0.3626241 0.08400838 -0.5197819 -0.47432274 -0.19977039 -0.16757447 -0.9910568 0.075691484
-0.2635409 -0.47508594 -0.024166586 0.019899702 -0.017779198 -0.43767378 0.117070936 2.8280652
0.019980151 -0.19859377 -0.264556 0.035967346 -0.25674367 -0.013960242 -0.012494445 -0.49552384
-0.03976856 0.111966245 -0.21971124 -0.09984809 -0.02363993 0.39670023 0.046229135 0.14148277
0.02409184 -0.41524458 -0.48627186 -0.46104676 -0.15876856 -0.24894574 1.0813161 -0.50455177
-0.58180124 -2.2225292 -0.2027393 0.06395587 -0.14566848 0.4995938 -0.51343834 -2.0774803
-0.4516638 0.06411683 -0.023445364 -0.11181153 0.068217516 0.37055755 -0.17342192 -0.47710598
0.29377288 0.50878835 -0.143935 -0.2328314 -2.1137276 0.08522893 -0.0073842136 -5.8782797
0.073723584 0.3854884 -0.2045864 -0.4022505 0.385508 -1.9066982 0.14342313 0.20379901
-0.00033199787 -0.55001074 -0.04651361 -0.08213566 -0.03646835 -0.016493436 -5.703486 0.065130524
00000000: 90ab 1cbe 2028 1f3f 4938 e3bc c071 663d
00000010: 1de2 bf3e 337f 44bd 028c 48be 6234 95be
00000020: 2dcb 0abf 047b d1be 21e0 fdbe 4005 3fbc
00000030: e0aa 8bbd 203e b4bd 400d 70be 501a a7be
00000040: bdf7 45bd d91e a83d 1631 de3d 3f66 4e40
00000050: 44ed 45bd 35f8 a3bd 43f9 a3be 3ae8 ca3d
00000060: 3679 fc3d bf86 473f afe9 30bd 615c b33c
00000070: 3080 6b3f 85b5 703e 6272 833d 592f 2b3f
00000080: d518 6ebd 9b07 a33e 4587 25be c9df b9bc
00000090: fc0b 843f 3464 38bf c322 2abe 1f84 333f
000000a0: 3187 e03e 77a3 35bd 6017 203d 6826 29c0
000000b0: 2366 723d 898b 5b3f 81b8 2cbf 47ca 3e3d
000000c0: 7977 a0be c033 e9be fbf3 00bf 5f1b 6fba
000000d0: 7dd4 c43b 5466 0bbd b678 9dbe ca20 853f
000000e0: e49c d9bd 5ab5 013e 7945 023f 00bd 46be
000000f0: 18bf 97bd 7ad3 ddbc 581c c9bc 89f9 393e
00000100: 87f8 463f 0f97 3cbd eace 203e 2803 ecbe
00000110: cc12 013d e1eb 913c e8b2 30be 1d23 15bd
00000120: 6873 47be 05c6 183e 529c 3f3e 421d 97bd
00000130: adfc a03d fb10 e9bc 723f 323e 756a 2740
00000140: fe11 06bd 59dc c8be 0826 a53e 4e7a 06bb
00000150: 88f4 1abe 7791 5dc0 4435 fa3d 0517 26bf
00000160: 7c05 97bf 2cff 823e 6304 a6be 4d87 4a3f
00000170: 3f28 03bc 852e cd3e 45ed 89bf e751 78bd
00000180: bf54 09bf bde5 9a3f c86b 0d3e 0536 00bd
00000190: 3168 063f e958 e53b 3158 b13e c21c 8e3f
000001a0: 815a 483d 6e0a a43e ddaf b0bc 57cd 1a3e
000001b0: 643b 6a3d d90a 57c0 55e6 393d 71e1 933e
000001c0: dea9 b93e 960c ac3d 6d10 05bf 6eda f2be
000001d0: 9c90 4cbe a498 2bbe e6b5 7dbf 2304 9b3d
000001e0: d5ee 86be 773e f3be 01f9 c5bc b304 a33c
000001f0: aea5 91bc c716 e0be e3c2 ef3d 05ff 3440
00000200: 6aad a33c 2a5c 4bbe e273 87be 7f52 133d
00000210: e873 83be 80b9 64bc 80b5 4cbc 4db5 fdbe
00000220: 5ce4 22bd 8f4e e53d fcfb 60be 287d ccbd
00000230: 87a8 c1bc 4b1c cb3e c35a 3d3d dce0 103e
00000240: 405c c53c f09a d4be a0f8 f8be 520e ecbe
00000250: 3a94 22be a2eb 7ebe 9168 8a3f 4e2a 01bf
00000260: edf0 14bf eb3d 0ec0 e49a 4fbe 4cfb 823d
00000270: 1e2a 15be c2ca ff3e b270 03bf 70f5 04c0
00000280: 7a40 e7be af4f 833d 7e10 c0bc 72fd e4bd
00000290: a0b5 8b3d b8b9 bd3e 8495 31be 3c47 f4be
000002a0: 6669 963e f43f 023f b263 13be 5b6b 6ebe
000002b0: 5047 07c0 818c ae3d 46f7 f1bb de1a bcc0
000002c0: 64fc 963d bc5e c53e 197f 51be c7f3 cdbe
000002d0: 4e61 c53e b00e f4bf 83dd 123e b0b0 503e
000002e0: 0010 aeb9 81cd 0cbf 0e85 3ebd be36 a8bd
000002f0: d65f 15bd 3e1d 87bc f582 b6c0 2763 853d

fc1.bias f4 [64]
5.2212877 4.173792 -0.27884614 0.3104033 0.26674122 5.7350574 -0.40305284 3.3839002
4.9091873 -5.6888666 4.6069264 5.6066294 0.2100991 4.9469113 -0.028279364 -2.700453
0.50268734 5.1659603 3.644741 2.98773 4.022026 5.2490363 2.1698864 5.4607263
-2.2406847 5.1274967 -2.544649 3.124037 0.5188726 -3.6415956 4.729562 0.99100006
-0.67764276 -1.6674491 -4.8383045 -3.2959754 0.4692411 -4.4030094 0.045397103 2.343413
1.3381212 0.40034208 -1.9505231 5.843609 -0.42786545 -4.3654046 5.116166 -4.2528033
-0.40849346 -0.2979766 -1.3472029 -2.534751 3.53861 -2.9203506 5.7584968 -0.23534623
4.0074797 -0.7937693 3.755805 3.6590908 -2.2190993 -0.14958426 3.320645 3.1055415
00000000: ca14 a740 b48f 8540 ecc4 8ebe 2eed 9e3e
00000010: 4e92 883e 9785 b740 f15c cebe d291 5840
00000020: 1018 9d40 320b b6c0 f16b 9340 8269 b340
00000030: 3824 573e 194d 9e40 20aa e7bc 39d4 2cc0
00000040: 1eb0 003f 8c4f a540 7043 6940 f836 3f40
00000050: 70b4 8040 1bf8 a740 6bdf 0a40 45be ae40
00000060: 6167 0fc0 7414 a440 87db 22c0 39f0 4740
00000070: d6d4 043f e70f 69c0 9258 9740 2eb2 7d3f
00000080: ff79 2dbf f96e d5bf 64d3 9ac0 43f1 52c0
00000090: 5f40 f03e 74e5 8cc0 50f2 393d 7bfa 1540
000000a0: 8e47 ab3f a3f9 cc3e beaa f9bf d8fe ba40
000000b0: 2e11 dbbe 65b1 8bc0 a2b7 a340 f716 88c0
000000c0: 0e26 d1be 6490 98be 2571 acbf 5c39 22c0
000000d0: 9678 6240 06e7 3ac0 9b45 b840 9afe 70be
000000e0: 463d 8040 7734 4bbf 1c5f 7040 8b2e 6a40
000000f0: b905 0ec0 9e2c 19be 7385 5440 31c1 4640

fc2.weight f4 [64, 64]
-0.059062548 0.060705647 0.03509435 -0.010937363 0.07044533 -0.12792456 -0.045014367 0.04977436
-0.14282067 -0.047422424 -0.09486614 0.061966036 -0.1197087 -0.11533512 -0.11355779 -0.16037245
-0.028382823 -0.03728463 0.023206785 -0.04106912 -0.09657333 -0.10246284 0.06362767 0.081495136
0.08273653 -0.116442375 -0.07959295 0.05775352 0.025465868 -0.086983524 -0.12376585 0.06829573
0.09694593 -0.021822752 0.02205777 -0.06683033 -0.035632517 -0.09576639 0.03126271 0.08486738
0.0042685736 -0.050630093 0.023713082 -0.01991878 -0.09545459 -0.046791103 -0.14546287 -0.09004799
-0.035925522 0.036523864 0.0976536 -0.11875316 0.009856418 -0.14365122 0.07202663 0.06451972
-0.056416035 -0.029638931 0.061518352 -0.107930794 -0.028544841 -0.045693323 0.0044829994 -0.09009051
0.7605013 0.5103962 0.04805322 -0.04862748 0.048277706 0.1404358 -0.29894724 -0.033715304
0.4413483 -0.115114406 0.5610185 0.19878541 -0.7938982 0.12875557 -0.050217 0.24004708
0.12044574 0.05194971 0.36010212 1.1046236 -0.053007346 0.60712606 -0.17328684 0.13314821
0.018078675 -0.1254251 -0.44432798 -0.09069554 0.12720826 -0.09664065 0.53177565 -0.24357876
-0.3429418 -0.037096012 -0.5796306 -0.008547027 -0.0045104316 -0.14128333 0.0926681 -0.04297569
0.03627274 -0.009980545 -0.58920276 0.18003866 -0.09068011 -0.0970859 -0.024778433 0.0037881786
0.11611931 0.09128371 -1.0809765 -0.8435145 -1.6908345 -0.61772496 0.47311905 -0.058912992
0.6212667 0.08748816 1.0710582 -1.2685033 0.07011186 0.09835935 -0.010765087 0.072270416
0.14723869 -1.766472 0.0076781213 0.095020294 0.10937226 0.17933261 -0.9860329 0.07876059
-0.12889594 -0.059047483 -1.683754 0.01890547 -1.6161944 -0.2358043 -0.11771508 0.055491433
-0.023112506 -0.1503649 0.26081437 0.7042455 0.017967716 -0.020059787 0.004954643 -0.06191979
0.038170297 -0.046880193 -0.76374656 -0.07692905 -0.08040269 -0.030193297 0.3047313 -0.1539376
0.046342395 0.03103206 -0.26455835 -0.06703048 -0.23570706 -0.12759224 0.045860454 0.09471752
-0.09575836 -0.0735444 -0.7746712 0.0027954832 -0.04910533 -0.12628362 0.04152897 0.046393562
-0.06315838 -0.041642606 -0.977124 -0.9269744 0.6270936 -0.70044523 0.40217987 -0.12062977
0.25468335 -0.017461766 1.4104229 -0.22614124 -0.037663423 0.062900946 0.086407155 1.201012
1.2483035 0.60265374 0.052307382 -0.07834402 0.09965716 0.42466366 -0.2593523 0.06789368
0.87444824 -0.26974744 0.5009207 0.7795456 -0.93415576 0.578651 -0.5555067 -0.09651752
0.078226626 0.39820907 -1.0732179 -0.9870512 0.056951325 0.8160752 0.027579378 0.30954778
-0.08962976 0.34247944 -0.5068149 0.06129264 -0.43126854 0.029821543 0.8208655 -0.042483676
0.003013678 -0.12017524 -0.73383623 -0.116987914 -1.1981059 -0.1760626 0.056397572 0.14403574
-0.21639985 -0.07291148 -0.23461832 0.6058669 0.06641151 -0.31884277 0.34841627 -0.15050633
0.112917975 -0.11563553 -0.85533684 -0.15686072 0.25766617 -0.1767904 1.829576 -0.0719261
-1.6762398 -0.28265247 -3.644466 -0.22542611 -0.124646686 -0.07124618 0.07844581 -3.8894756
00000000: 92eb 71bd 7ca6 783d 18bf 0f3d a032 33bc
00000010: a445 903d a8fe 02be fc60 38bd 33e0 4b3d
00000020: 953f 12be 043e 42bd 2e49 c2bd 19d0 7d3d
00000030: d629 f5bd d234 ecbd fd90 e8bd ad38 24be
00000040: 1883 e8bc c5b7 18bd 281c be3c 1838 28bd
00000050: 3dc8 c5bd 0ad8 d1bd 394f 823d ece6 a63d
00000060: c571 a93d 5779 eebd a101 a3bd f48e 6c3d
00000070: cc9d d03c 6b24 b2bd f378 fdbd a2de 8b3d
00000080: 968b c63d a1c5 b2bc 7fb2 b43c 57de 88bd
00000090: 67f3 11bd 2b21 c4bd 540d 003d f3ce ad3d
000000a0: 64df 8b3b 8061 4fbd f041 c23c b62c a3bc
000000b0: b27d c3bd 07a8 3fbd 38f4 14be 156b b8bd
000000c0: a426 13bd 0c9a 153d 9cfe c73d db34 f3bd
000000d0: d07c 213c 4e19 13be b382 933d ea22 843d
000000e0: 8014 67bd 58cd f2bc abfa 7b3d d20a ddbd
000000f0: dfd6 e9bc ec28 3bbd 20e6 923b 6081 b8bd
00000100: 37b0 423f 53a9 023f 74d3 443d 9c2d 47bd
00000110: d8be 453d 67ce 0f3e 9d0f 99be 0f19 0abd
00000120: 68f8 e13e 1ac1 ebbd e99e 0f3f 678e 4b3e
00000130: ea3c 4bbf 80d8 033e 57b0 4dbd e7ce 753e
00000140: 42ac f63d 38c9 543d 4e5f b83e 4e64 8d3f
00000150: 3b1e 59bd 9d6c 1b3f 1b72 31be 0158 083e
00000160: bb19 943c 706f 00be f57e e3be 95be b9bd
00000170: e242 023e 88eb c5bd 7322 083f b66c 79be
00000180: 1196 afbe fdf1 17bd ac62 14bf d408 0cbc
00000190: 3ecc 93bb 94ac 10be c6c8 bd3d 4707 30bd
000001a0: ba92 143d 7185 23bc fed5 16bf 0e5c 383e
000001b0: 7eb6 b9bd f9d4 c6bd 24fc cabc 1743 783b
000001c0: f6cf ed3d f4f2 ba3d 705d 8abf 91f0 57bf
000001d0: 446d d8bf 3923 1ebf a93c f23e c04e 71bd
000001e0: 560b 1f3f fe2c b33d 6f18 893f 515e a2bf
000001f0: cf96 8f3d a070 c93d 0c60 30bc 8302 943d
00000200: bdc5 163e c11b e2bf c098 fb3b 009a c23d
00000210: 90fe df3d f8a2 373e a76c 7cbf 3b4d a13d
00000220: 4cfd 03be c6db 71bd 4085 d7bf a5df 9a3c
00000230: 75df cebf af76 71be 9b14 f1bd fc4a 633d
00000240: 7056 bdbc 42f9 19be 7689 853e 6f49 343f
00000250: 0831 933c 6c54 a4bc 8f5a a23b 9b9f 7dbd
00000260: 7558 1c3d 7205 40bd e584 43bf fa8c 9dbd
00000270: 2aaa a4bd ef57 f7bc be05 9c3e d1a1 1dbe
00000280: 86d1 3d3d f236 fe3c 3174 87be 4747 89bd
00000290: 315d 71be 8aa7 02be 2cd8 3b3d 42fb c13d
000002a0: f61c c4bd 729e 96bd da50 46bf 6d34 373b
000002b0: ac22 49bd 7e50 01be 481a 2a3d 2d07 3e3d
000002c0: 2e59 81bd 7091 2abd cc24 7abf 324e 6dbf
000002d0: 3589 203f 6150 33bf 85ea cd3e be0c f7bd
000002e0: db65 823e fa0b 8fbc bd88 b43f 9291 67be
000002f0: f644 1abd 36d2 803d 3cf6 b03d c3ba 993f
00000300: 69c8 9f3f 8447 1a3f 4440 563d d472 a0bd
00000310: 0e19 cc3d 846d d93e d3c9 84be d70b 8b3d
00000320: d7db 5f3f 561c 8abe 573c 003f 4d90 473f
00000330: d524 6fbf 7922 143f b035 0ebf faaa c5bd
00000340: 4835 a03d 0fe2 cb3e 345f 89bf 63af 7cbf
00000350: cb45 693d 4eea 503f 26ee e13c 0c7d 9e3e
00000360: cf8f b7bd 7759 af3e 9fbe 01bf fe0d 7b3d
00000370: 3bcf dcbe 4f4c f43c 3e24 523f 5d03 2ebd
00000380: 2081 453b 701e f6bd b1dc 3bbf 5c97 efbd
00000390: 895b 99bf c149 34be 2401 673d 1b7e 133e
000003a0: ec97 5dbe 9d52 95bd c93f 70be 181a 1b3f
000003b0: c202 883d 5c3f a3be 9e63 b23e 551e 1abe
000003c0: 8a41 e73d 52d2 ecbd 5bf7 5abf 19a0 20be
000003d0: d2ec 833e 8b08 35be 8c2f ea3f fe4d 93bd
000003e0: 078f d6bf d3b7 90be ee3e 69c0 1ad6 66be
000003f0: c346 ffbd 84e9 91bd 32a8 a03d 2bed 78c0

fc2.bias f4 [64]
-0.011508729 1.8112642 0.73236465 2.7438266 0.016687492 0.69968516 2.4904807 0.04712762
2.678398 2.1525648 -0.094685994 -0.033677377 0.05395753 -0.12604965 -0.049201656 2.5414867
1.5988111 2.598455 -0.11027591 1.0544105 2.0926795 1.0344722 -0.12435532 0.882008
1.3159083 2.5797808 1.5941304 0.88334167 -0.17864339 -0.018370219 0.060812123 0.058542997
-0.11242245 -0.117966555 0.053274807 -0.009740468 2.4261127 -0.12707488 1.5721414 0.72724766
2.5601077 -0.084269576 0.074144796 2.2437847 2.2753575 -0.11463383 2.4666715 0.62601686
0.016852539 2.5336099 -0.118272826 0.7143326 -0.069523 0.07912984 2.5883548 -0.0895163
1.5248253 -0.27431682 -0.069398105 2.0226758 0.007131637 0.06490004 -0.027778147 0.058371402
00000000: 1c8f 3cbc 81d7 e73f 407c 3b3f db9a 2f40
00000010: 35b4 883c 911e 333f 0964 1f40 e408 413d
00000020: df6a 2b40 9fc3 0940 bbea c1bd 4af1 09bd
00000030: 9202 5d3d 2913 01be ad87 49bd b8a7 2240
00000040: d8a5 cc3f 164d 2640 56d8 e1bd ecf6 863f
00000050: 76ee 0540 9669 843f 01ae febd 47cb 613f
00000060: af6f a83f 211b 2540 770c cc3f ae22 623f
00000070: 4bee 36be 247d 96bc 2216 793d c8ca 6f3d
00000080: be3d e6bd 7398 f1bd af36 5a3d 7c96 1fbc
00000090: 6e45 1b40 eb1f 02be ee3b c93f e72c 3a3f
000000a0: ced8 2340 8795 acbd 3ad9 973d 2b9a 0f40
000000b0: 759f 1140 24c5 eabd f2dd 1d40 a442 203f
000000c0: 560e 8a3c aa26 2240 0639 f2bd 80de 363f
000000d0: 1362 8ebd d30e a23d 9ba7 2540 5254 b7bd
000000e0: 7a2d c33f 4173 8cbe 9820 8ebd 8573 0140
000000f0: 82b0 e93b 50ea 843d ff8e e3bc da16 6f3d

fc3.weight f4 [20, 64]
-0.0009480603 -0.012342306 0.16006136 1.4038622 0.3817549 0.040552992 -1.5434705 0.1301299
-1.299084 -0.8137272 0.15052003 0.0264667 -0.02255373 0.012953145 0.0043733185 1.4533424
-2.024722 -1.0977433 0.020872157 0.25644755 0.9971723 -0.04260598 0.05679731 0.068280466
0.044696398 2.5542326 0.46166155 0.14819434 0.5387135 0.13412802 0.30263197 0.06261239
-0.029404372 0.09394253 0.079843745 0.0042629726 -0.2752266 0.0635786 -0.35587466 0.122725286
2.367934 0.059268534 -0.03176552 -0.625903 1.0655063 0.034158226 1.1734637 0.085317954
-0.003622617 -0.86327136 0.13636878 -0.010821152 0.37112826 0.08536728 -1.6427543 0.08923696
0.5676663 0.43934408 -0.009507181 0.76699597 0.022574797 -0.07955919 0.0652703 -0.026609655
-0.08207049 -0.30072302 -0.23718923 1.6117387 0.08006278 -0.52113587 -1.0701245 0.44574004
-0.8328723 -0.570482 -0.01061593 0.102699935 0.008329475 0.071409695 -0.010188177 1.1542069
-0.72702783 -0.813343 0.11401537 0.1253723 0.34547403 -0.1849506 -0.013046339 -0.45027357
-0.3400331 1.6943028 0.05172721 -0.043799832 0.30205148 0.050973278 -0.120604485 0.0128611475
0.01381892 0.0093171 -0.00864774 -0.0009508133 -0.6948341 -0.024497598 -0.06520149 -0.32341895
1.7951802 -0.0029391872 0.08391781 -0.28006777 1.1228932 -0.0663519 1.0720307 -0.08499907
5.404443e-05 -0.5428694 0.123028964 0.024588114 0.28482094 0.09050446 -0.98374516 -0.0814837
0.0058951774 0.4222333 0.026535735 0.40307897 -0.02901508 0.052084908 0.054076128 -0.039782934
-0.030953346 -0.2513597 -0.5004666 1.472377 -0.26849002 -0.58214706 -0.9868207 0.20692462
-0.825662 -0.72034097 -0.16070557 -0.027609617 -0.09910746 0.029572558 -0.024974778 1.245911
-0.8325015 -0.38413134 0.06857788 0.42121333 0.71047926 -0.5272541 -0.0431626 -0.46939537
-0.21868461 1.8181173 0.30627123 -0.3795246 -0.07843634 -0.03742024 -0.1601843 0.097240046
0.047809765 0.09221067 0.016617734 0.0134278685 -0.7111695 0.055021435 0.1493726 -0.23205872
1.5364084 0.010904466 -0.035717323 -0.4076049 1.1758169 0.06831737 1.2531705 -0.59586966
0.053278286 -0.712519 -0.09507514 -0.07504022 0.19625741 -0.07353127 -1.0546799 0.022160664
0.098069474 1.1351798 -0.09254353 0.7496468 0.0443013 -0.119171284 -0.04862475 0.09684172
0.09271824 -0.36827302 -0.12353617 1.4030129 -0.26006585 -0.49871987 -0.97880876 0.29599807
-1.1404073 -0.52633625 -0.044527702 -0.08765964 0.10576689 -0.017792502 0.056358576 1.1913261
-0.8567475 -0.4337242 -0.036336534 0.2540292 0.60330194 -0.22173993 0.10701825 -0.62012374
-0.30778208 1.5613629 0.38188106 -0.2489065 -0.026695475 0.03972583 0.041534927 -0.10347366
0.06723389 -0.06700358 -7.237494e-05 -0.027188636 -0.8262851 0.0250659 -0.269681 -0.39290932
1.6199812 0.13347155 0.006829381 -0.23805834 1.2450609 -0.06703411 1.2599552 -0.41369697
-0.053429507 -0.47446167 -0.0050762906 -0.046674613 0.1198471 0.12372951 -1.1998487 -0.12407552
0.025200188 0.8685386 -0.11263819 0.76389855 0.097195655 0.09982148 -0.11628466 -0.03061484
00000000: 4087 78ba 6237 4abc 20e7 233e c2b1 b33f
00000010: 6175 c33e e51a 263d 7190 c5bf c640 053e
00000020: 6248 a6bf 6d50 50bf ec21 1a3e b1d0 d83c
00000030: 9ac2 b8bc 6e39 543c 0e4e 8f3b 2007 ba3f
00000040: 0c95 01c0 da82 8cbf 16fc aa3c 184d 833e
00000050: af46 7f3f 9c83 2ebd 4ca4 683d a1d6 8b3d
00000060: 9213 373d 8c78 2340 e75e ec3e 42c0 173e
00000070: 21e9 093f db58 093e 94f2 9a3e ed3a 803d
00000080: 70e1 f0bc f164 c03d 1e85 a33d 68b0 8b3b
00000090: 80ea 8cbe 7f35 823d 3435 b6be 6557 fb3d
000000a0: 3b8c 1740 90c3 723d 901c 02bd 2e3b 20bf
000000b0: 8362 883f 7fe9 0b3d 0f34 963f 2ebb ae3d
000000c0: 6e69 6dbb 5aff 5cbf 42a4 0b3e 334b 31bc
000000d0: 8604 be3e 0ad5 ae3d c645 d2bf dec1 b63d
000000e0: 9452 113f b5f1 e03e 02c4 1bbc d959 443f
000000f0: c8ee b83c eeef a2bd 6fac 853d 7efc d9bc
00000100: 9314 a8bd 5ef8 99be bce1 72be 744d ce3f
00000110: f4f7 a33d 2969 05bf d7f9 88bf 0a38 e43e
00000120: 1e37 55bf 1c0b 12bf 70ee 2dbc 5854 d23d
00000130: 5a78 083c 3f3f 923d 50ec 26bc 0dbd 933f
00000140: 7f1e 3abf 3f37 50bf e480 e93d 9961 003e
00000150: f9e1 b03e b163 3dbe 50c0 55bc 428a e6be
00000160: d218 aebe eade d83f e9df 533d 7467 33bd
00000170: 7ea6 9a3e 5bc9 503d 7cff f6bd 90b7 523c
00000180: c068 623c c0a6 183c 40af 0dbc 0040 79ba
00000190: a6e0 31bf 30af c8bc 5c88 85bd 2b97 a5be
000001a0: 77c8 e53f 619f 40bb 1add ab3d 0b65 8fbe
000001b0: f7ba 8f3f 81e3 87bd 4d38 893f fe13 aebd
000001c0: c4ad 6238 7df9 0abf 9cf6 fb3d 036d c93c
000001d0: 0dd4 913e 675a b93d b9d6 7bbf ede0 a6bd
000001e0: 552c c13b f72e d83e 7861 d93c 5e60 ce3e
000001f0: 08b1 edbc fc56 553d ee7e 5d3d 6ef3 22bd
00000200: df91 fdbc 38b2 80be 941e 00bf d976 bc3f
00000210: 8677 89be 9707 15bf 48a0 7cbf 0ce4 533e
00000220: 965e 53bf 4468 38bf 0090 24be 902d e2bc
00000230: daf8 cabd 2642 f23c e897 ccbc 037a 9f3f
00000240: d11e 55bf ddac c4be 8f72 8c3d 46a9 d73e
00000250: f8e1 353f 20fa 06bf 44cb 30bd 9754 f0be
00000260: dcee 5fbe 11b8 e83f 95cf 9c3e 0c51 c2be
00000270: 3ba3 a0bd f745 19bd 5a07 24be ca25 c73d
00000280: 2cd4 433d f3d8 bc3d ea21 883c 9000 5c3c
00000290: 340f 36bf 285e 613d 21f5 183e cda0 6dbe
000002a0: 08a9 c43f a5a8 323c 544c 12bd 97b1 d0be
000002b0: 2b81 963f fae9 8b3d e467 a03f ea8a 18bf
000002c0: 553a 5a3d a567 36bf c1b6 c2bd b0ae 99bd
000002d0: b4f7 483e 9097 96bd c0ff 86bf 488a b53c
000002e0: a6d8 c83d 924d 913f 7687 bdbd dae8 3f3f
000002f0: 4875 353d 1310 f4bd bf2a 47bd f454 c63d
00000300: 10e3 bd3d 488e bcbe 8800 fdbd ed95 b33f
00000310: 5a27 85be 3658 ffbe 3693 7abf 0f8d 973e
00000320: def8 91bf f9bd 06bf ae62 36bd e686 b3bd
00000330: 509c d83d 95c1 91bc 40d8 663d 607d 983f
00000340: ce53 5bbf 1911 debe 9ed5 14bd 1e10 823e
00000350: ff71 1a3f cb0f 63be 622c db3d 6ec0 1ebf
00000360: 9d95 9dbe bdda c73f ea85 c33e 58e1 7ebe
00000370: 78b0 dabc 8db7 223d 8720 2a3d 00ea d3bd
00000380: ecb1 893d 2c39 89bd 00c8 97b8 b4ba debc
00000390: 6c87 53bf 0157 cd3c a113 8abe 692b c9be
000003a0: 8b5b cf3f c4ac 083e 00c9 df3b 91c5 73be
000003b0: 285e 9f3f 2e49 89bd 3646 a13f 17d0 d3be
000003c0: e6d8 5abd a4ec f2be 0357 a6bb e12d 3fbd
000003d0: 6572 f53d e665 fd3d a494 99bf 4e1b febd
000003e0: a070 ce3c 8c58 5e3f daae e6bd db8e 433f
000003f0: 840e c73d 346f cc3d a726 eebd f9cb fabc

fc3.bias f4 [20]
1.059 0.3935888 0.20025252 0.3409871 0.34080753 0.43761584 0.31300318 0.22478725
0.17905335 -0.01919466 0.010107135 -0.007934782 0.016256953 -0.3482726 -0.20624112 -0.20820679
-0.12644373 -0.32672882 -0.38126925 -0.47654998
00000000: 508d 873f 7984 c93e ff0e 4d3e dc95 ae3e
00000010: 537e ae3e 2f0f e03e f441 a03e a12e 663e
00000020: c359 373e 1f3e 9dbc 6698 253c e300 02bc
00000030: 4d2d 853c c950 b2be df30 53be 2934 55be
00000040: 777a 01be 0049 a7be b935 c3be 5cfe f3be

fc1.weight f4 [64, 3]
-0.14160787 0.6264654 -0.02502961 0.048343778 0.37627158 -0.05187081 -0.19584659 -0.29141527
-0.5421627 -0.40914646 -0.4958506 -0.011658967 -0.06819701 -0.08800912 -0.23442554 -0.32272103
-0.011536276 0.08560075 0.089021906 3.199352 -0.046095748 -0.10111672 -0.29207712 0.09016279
0.13263807 0.7794199 -0.0405132 0.014333141 0.91914004 0.23480603 0.06559243 0.6777247
-0.06100326 0.32669258 -0.15372804 -0.019194076 1.0422959 -0.6411591 -0.19295321 0.7117436
0.43795013 -0.042579774 0.033495326 -2.5528064 0.06075486 0.83923095 -0.69856983 0.04280844
-0.3134115 -0.45547295 -0.50372285 -0.007875994 0.012498691 -0.03279283 -0.3128805 1.0384347
-0.10483675 0.13864966 0.518632 -0.19227017 -0.07235274 -0.00070326764 -0.021460375 0.18623486
0.7762906 -0.044638366 0.1276896 -0.48047605 0.04537226 0.016779406 -0.1690176 -0.035402954
-0.20660354 0.15459734 0.18572415 -0.07669421 0.090090886 -0.026359154 0.21451181 2.5664854
-0.038861733 -0.35712257 0.3559202 -0.005276566 -0.16396716 -3.3552017 0.121685505 -0.67509186
-1.1735387 0.25502884 -0.31415161 0.79962033 -0.0064995782 0.40699837 -1.0192412 -0.06870434
-0.54157114 1.2272156 0.1375772 -0.055918172 0.5277899 0.021163942 0.3457392 1.1239624
0.046697956 0.31240147 -0.025995605 0.14652233 0.061017472 -3.2547905 0.0500463 0.2906384
0.3656864 0.08130131 -0.5197819 -0.47432497 -0.19977039 -0.19673453 -0.89685386 0.09246775
-0.26924804 -0.4790977 -0.020991901 0.019901687 -0.017778246 -0.43766767 0.10741898 2.8491464
0.017579116 -0.20360321 -0.239813 0.036740795 -0.25674367 -0.013960242 -0.012494445 -0.52133375
-0.023929046 0.10294078 -0.19419312 -0.09408187 -0.017445806 0.39496988 0.045991223 0.1369292
0.02409184 -0.41524458 -0.48627588 -0.46104676 -0.15876856 -0.24894574 1.102808 -0.48569676
-0.55270195 -2.1891243 -0.2012984 0.066801034 -0.15070163 0.503592 -0.48964632 -2.0461938
-0.428937 0.06909243 -0.02627568 -0.107659705 0.06663595 0.37055755 -0.17342192 -0.47710598
0.2880246 0.5104243 -0.1408974 -0.23239876 -2.0157747 0.08586611 -0.00473975 -5.8366427
0.07479787 0.40387496 -0.22810687 -0.38443035 0.3963762 -1.8964899 0.13476487 0.20379901
-0.00033199787 -0.55001074 -0.024663858 -0.045841824 -0.02442185 -0.043925337 -5.6300073 0.070764184
00000000: a701 11be 0960 203f e60a cdbc 2004 463d
00000010: aba6 c03e 7d76 54bd 028c 48be 6234 95be
00000020: 2dcb 0abf a57b d1be 21e0 fdbe 4005 3fbc
00000030: e0aa 8bbd 203e b4bd 400d 70be b13b a5be
00000040: a602 3dbc 724f af3d 1e51 b63d 2fc2 4c40
00000050: e5ce 3cbd 4816 cfbd 228b 95be 45a7 b83d
00000060: 46d2 073e 1088 473f 2bf1 25bd 8dd5 6a3c
00000070: c34c 6b3f fe70 703e 5355 863d 5e7f 2d3f
00000080: 8ede 79bd 4044 a73e e26a 1dbe e53c 9dbc
00000090: f469 853f 0123 24bf 8795 45be d434 363f
000000a0: 003b e03e 2168 2ebd 6532 093d 2e61 23c0
000000b0: 17da 783d d7d7 563f 79d5 32bf e757 2f3d
000000c0: 7977 a0be c033 e9be fbf3 00bf 500a 01bc
000000d0: 4fc7 4c3c c651 06bd df31 a0be 6eeb 843f
000000e0: a6b4 d6bd 2dfa 0d3e 11c5 043f 79e2 44be
000000f0: ac2d 94bd 7e5b 38ba abcd afbc 5ab4 3e3e
00000100: fbba 463f b8d6 36bd 10c1 023e f500 f6be
00000110: 43d8 393d f774 893c f312 2dbe b002 11bd
00000120: e18f 53be c44e 1e3e 792e 3e3e db11 9dbd
00000130: 9281 b83d 27ef d7bc fca8 5b3e 4c41 2440
00000140: 7b2d 1fbd c5d8 b6be 2c3b b63e 0be7 acbb
00000150: 02e7 27be a0bb 56c0 4036 f93d d2d2 2cbf
00000160: 8436 96bf 2493 823e 7bd8 a0be ebb3 4c3f
00000170: 6afa d4bb 1762 d03e 7f76 82bf dcb4 8cbd
00000180: 68a4 0abf 6715 9d3f 0ae1 0c3e 740a 65bd
00000190: 3d1d 073f 0160 ad3c ba04 b13e 00de 8f3f
000001a0: 5b46 3f3d 16f3 9f3e bcf4 d4bc f309 163e
000001b0: 75ed 793d 7d4e 50c0 59fd 4c3d 8ece 943e
000001c0: 3f3b bb3e 4d81 a63d 6d10 05bf b9da f2be
000001d0: 9c90 4cbe c774 49be 3798 65bf bb5f bd3d
000001e0: e1da 89be 4b4c f5be 35f7 abbc dd08 a33c
000001f0: afa3 91bc fa15 e0be 7bfe db3d 6a58 3640
00000200: 1402 903c 5c7d 50be 8a91 75be 847d 163d
00000210: e873 83be 80b9 64bc 80b5 4cbc 2176 05bf
00000220: d906 c4bc 9ed2 d23d 90da 46be ffad c0bd
00000230: 82ea 8ebc 7e39 ca3e 4b61 3c3d 2b37 0c3e
00000240: 405c c53c f09a d4be 27f9 f8be 520e ecbe
00000250: 3a94 22be a2eb 7ebe d028 8d3f 3fad f8be
00000260: e07d 0dbf 9d1a 0cc0 2b21 4ebe fbce 883d
00000270: 8751 1abe 68eb 003f ecb2 fabe d7f4 02c0
00000280: a19d dbbe 5580 8d3d 1840 d7bc b17c dcbd
00000290: 6e78 883d b8b9 bd3e 8495 31be 3c47 f4be
000002a0: f677 933e 2bab 023f 6847 10be f1f9 6dbe
000002b0: 7402 01c0 92da af3d e84f 9bbb c7c5 bac0
000002c0: a02f 993d b3c8 ce3e d994 69be 0ed4 c4be
000002d0: d2f1 ca3e 2ec0 f2bf cdff 093e b0b0 503e
000002e0: 0010 aeb9 81cd 0cbf dc0b cabc a3c4 3bbd
000002f0: 5510 c8bc 0eeb 33bd 0529 b4c0 d0ec 903d

fc1.bias f4 [64]
5.167595 4.1471515 -0.27884904 0.3104033 0.26674122 5.708003 -0.5046625 3.4489982
4.852169 -5.637035 4.58587 5.5583444 0.20451306 4.8930106 -0.009440996 -2.648602
0.50268734 5.1121354 3.664116 2.9908354 3.9755106 5.191288 2.1955698 5.4068556
-2.206473 5.0786977 -2.5967765 3.0775645 0.55738086 -3.5963259 4.675767 0.99409395
-0.6123362 -1.6527187 -4.778751 -3.2469003 0.47609538 -4.346719 0.045397103 2.4300785
1.3410077 0.40035462 -1.8907421 5.8053417 -0.42786545 -4.309128 5.076559 -4.1968856
-0.40849346 -0.2979766 -1.2989854 -2.4723237 3.490899 -2.8561785 5.7171297 -0.23534623
4.01649 -0.7204395 3.6838686 3.6232555 -2.1564848 -0.14958426 3.2982185 3.0470748
00000000: f05c a540 77b5 8440 4dc5 8ebe 2eed 9e3e
00000010: 4e92 883e f6a7 b640 9031 01bf 63bc 5c40
00000020: f844 9b40 9762 b4c0 72bf 9240 f5dd b140
00000030: df6b 513e 8b93 9c40 68ae 1abc b282 29c0
00000040: 1eb0 003f 9d96 a340 e080 6a40 d969 3f40
00000050: c46e 7e40 081f a640 3784 0c40 f604 ad40
00000060: db36 0dc0 b184 a240 9631 26c0 d1f6 4440
00000070: 83b0 0e3f 342a 66c0 e29f 9540 f17c 7e3f
00000080: 11c2 1cbf 498c d3bf 87eb 98c0 37cd 4fc0
00000090: c6c2 f33e 5218 8bc0 50f2 393d 6886 1b40
000000a0: 24a6 ab3f 48fb cc3e d603 f2bf 5cc5 b940
000000b0: 2e11 dbbe 60e4 89c0 2c73 a240 e34c 86c0
000000c0: 0e26 d1be 6490 98be 2745 a6bf 8d3a 1ec0
000000d0: e46a 5f40 a1cb 36c0 baf2 b640 9afe 70be
000000e0: 1687 8040 b96e 38bf 81c4 6b40 6be3 6740
000000f0: d903 0ac0 9e2c 19be 0316 5340 4603 4340

fc2.weight f4 [64, 64]
-0.059057377 0.06070625 0.03509455 -0.010937363 0.07044533 -0.12792067 -0.045014367 0.049778268
-0.14282203 -0.047419786 -0.09486614 0.06197124 -0.1197087 -0.11533275 -0.11355204 -0.16036092
-0.028382823 -0.03728264 0.023206785 -0.04106912 -0.096571945 -0.102457985 0.063632496 0.08149922
0.08274348 -0.116442904 -0.07960097 0.05775831 0.02547023 -0.08698293 -0.123766914 0.068296626
0.096951924 -0.021819415 0.022056283 -0.06682885 -0.035628743 -0.095767274 0.03126271 0.08487438
0.0042729066 -0.050630093 0.023713082 -0.019915516 -0.09545459 -0.04678651 -0.14545956 -0.090045154
-0.035925522 0.036523864 0.0976536 -0.11875261 0.009856418 -0.1436416 0.07202941 0.06451972
-0.056416035 -0.029635077 0.061524626 -0.107930794 -0.02854177 -0.045693323 0.004487269 -0.0900898
0.74069667 0.52279097 0.04805322 -0.04862748 0.048277706 0.11722428 -0.29176185 -0.054098543
0.43144575 -0.11343567 0.5732788 0.17627588 -0.7706161 0.1238478 -0.05276404 0.27062374
0.12044574 0.015088815 0.3689423 1.1126931 -0.08294016 0.5972362 -0.18645541 0.08140496
0.0107431635 -0.16063705 -0.43858978 -0.10134737 0.12021597 -0.10317951 0.5177936 -0.11445112
-0.35720965 -0.03668668 -0.55872726 -0.008739459 0.002417271 -0.12549263 0.0926681 -0.06571378
0.039961103 -0.009981577 -0.58710575 0.1483973 -0.09068011 -0.079185165 -0.072006404 0.009271832
0.11611931 0.09128371 -1.0579616 -0.7410367 -1.6457613 -0.5069901 0.45154244 -0.058912992
0.63325095 0.07712843 1.0798117 -1.208235 0.069611736 0.09836011 -0.014747387 0.08119827
0.100602515 -1.7528802 0.0076781553 0.095020294 0.10937226 0.15283935 -0.9578298 0.054602787
-0.18919158 -0.08017895 -1.6034052 0.00055062736 -1.5872667 -0.24929772 -0.104680054 0.09470324
-0.023112506 -0.2081799 0.26103592 0.70447785 -0.04591813 -0.068305016 -0.012642929 -0.11886001
0.019667432 -0.098157175 -0.6288086 -0.115732335 -0.08389629 -0.05074644 0.2639224 0.046959758
0.023279445 0.04085336 -0.2586995 -0.08039948 -0.20388559 -0.13444486 0.04586078 0.073372394
-0.09734005 -0.07354935 -0.7939242 -0.02471738 -0.049105547 -0.14338633 0.002874125 0.033844333
-0.06315838 -0.041642606 -0.9770818 -0.83961 0.62733555 -0.608857 0.37850186 -0.12063018
0.2549439 -0.019937381 1.4185187 -0.22584444 -0.04184737 0.062900946 0.01091578 1.2150375
1.2552522 0.6033119 0.052307382 -0.07834402 0.09965716 0.43562144 -0.25581276 0.075424545
0.87780523 -0.26261997 0.50289154 0.7883632 -0.91235924 0.58096784 -0.54358065 -0.09597095
0.078226626 0.4039208 -1.0979358 -1.0289782 0.055158965 0.8191753 0.027093092 0.31482723
-0.08105013 0.34756213 -0.5012927 0.06806977 -0.41872185 0.03164413 0.82686186 -0.060687806
0.011636209 -0.10927745 -0.73554105 -0.107755855 -1.1399733 -0.1650308 0.056397572 0.15190072
-0.21214253 -0.07291604 -0.23339173 0.6166487 0.06641161 -0.32290828 0.35137424 -0.13985059
0.112918735 -0.11563553 -0.84499604 -0.19049354 0.13640605 -0.2262399 1.841671 -0.0719261
-1.6897899 -0.27263373 -3.5701075 -0.26066524 -0.13313052 -0.07124618 0.066200465 -3.8080912
00000000: 26e6 71bd 1ea7 783d 4ebf 0f3d a032 33bc
00000010: a445 903d a3fd 02be fc60 38bd 4ce4 4b3d
00000020: f03f 12be 403b 42bd 2e49 c2bd 8ed5 7d3d
00000030: d629 f5bd 9433 ecbd f98d e8bd a735 24be
00000040: 1883 e8bc aeb5 18bd 281c be3c 1838 28bd
00000050: 83c7 c5bd 7ed5 d1bd c151 823d 10e9 a63d
00000060: 6a75 a93d 9e79 eebd d505 a3bd fa93 6c3d
00000070: f2a6 d03c 1b24 b2bd 8279 fdbd 1adf 8b3d
00000080: bb8e c63d a1be b2bc 61af b43c 90dd 88bd
00000090: 72ef 11bd a221 c4bd 540d 003d 9ed2 ad3d
000000a0: bd03 8c3b 8061 4fbd f041 c23c dd25 a3bc
000000b0: b27d c3bd 36a3 3fbd 5af3 14be 9869 b8bd
000000c0: a426 13bd 0c9a 153d 9cfe c73d 9234 f3bd
000000d0: d07c 213c c916 13be 2884 933d ea22 843d
000000e0: 8014 67bd 43c5 f2bc 3f01 7c3d d20a ddbd
000000f0: 6ed0 e9bc ec28 3bbd f109 933b 0081 b8bd
00000100: 4c9e 3d3f a1d5 053f 74d3 443d 9c2d 47bd
00000110: d8be 453d 4913 f03d cf61 95be 6f96 5dbd
00000120: 75e6 dc3e f650 e8bd 66c2 123f aa81 343e
00000130: 1947 45bf eaa3 fd3d 1b1f 58bd 328f 8a3e
00000140: 42ac f63d 1437 773c 01e6 bc3e ba6c 8e3f
00000150: 88dc a9bd 79e4 183f 2bee 3ebe a5b7 a63d
00000160: 1804 303c 0a7e 24be d78e e0be 368f cfbd
00000170: ca33 f63d c74f d3bd 1f8e 043f 5965 eabd
00000180: 2fe4 b6be c644 16bd c008 0fbf f32f 0fbc
00000190: 146b 1e3b 2481 00be c6c8 bd3d f294 86bd
000001a0: 41ae 233d c589 23bc 904c 16bf 76f5 173e
000001b0: 7eb6 b9bd d52b a2bd 1878 93bd e2e8 173c
000001c0: f6cf ed3d f4f2 ba3d 496b 87bf 95b4 3dbf
000001d0: 4ea8 d2bf 1aca 01bf 9230 e73e c04e 71bd
000001e0: bc1c 223f 83f5 9d3d 4537 8a3f 72a7 9abf
000001f0: 9990 8e3d 0671 c93d 069f 71bc 474b a63d
00000200: b108 ce3d 615e e0bf 0999 fb3b 009a c23d
00000210: 90fe df3d eb81 1c3e 5534 75bf 2ca7 5f3d
00000220: 70bb 41be dd34 a4bd 623c cdbf fa57 103a
00000230: 8e2b cbbf e747 7fbe 7f62 d6bd c6f3 c13d
00000240: 7056 bdbc 1d2d 55be 80a6 853e a958 343f
00000250: a614 3cbd 80e3 8bbd 4a24 4fbc e06c f3bd
00000260: 981d a13c a106 c9bd 9af9 20bf 1305 edbd
00000270: d1d1 abbd 80db 4fbd d620 873e e058 403d
00000280: 89b4 be3c da55 273d 4374 84be 7ca8 a4bd
00000290: 62c7 50be eaab 09be 83d8 3b3d 4444 963d
000002a0: 385a c7bd 0ba1 96bd 9e3e 4bbf 1a7c cabc
000002b0: e622 49bd ded3 12be d15b 3c3b 5ba0 0a3d
000002c0: 2e59 81bd 7091 2abd 0822 7abf aef0 56bf
000002d0: 1099 203f 0dde 1bbf ffca c13e f50c f7bd
000002e0: 0288 823e b853 a3bc 0592 b53f c443 67be
000002f0: 2668 2bbd 36d2 803d 1ad8 323c 5986 9b3f
00000300: 1bac a03f a672 1a3f 4440 563d d472 a0bd
00000310: 0e19 cc3d c609 df3e e4f9 82be 2f78 9a3d
00000320: d8b7 603f 2076 86be 80bd 003f 2cd2 493f
00000330: 6090 69bf 4fba 143f 1a28 0bbf 6b8c c4bd
00000340: 4835 a03d b5ce ce3e 2989 8cbf 8fb5 83bf
00000350: 5eee 613d 79b5 513f 55f2 dd3c 0931 a13e
00000360: 9cfd a5bd aaf3 b13e b854 00bf 2a68 8b3d
00000370: b662 d6be 469d 013d 38ad 533f c793 78bd
00000380: cca5 3e3c dbcc dfbd 6b4c 3cbf 1aaf dcbd
00000390: a5ea 91bf d6fd 28be 2401 673d dd8b 1b3e
000003a0: e43b 59be 0155 95bd 3efe 6ebe b0dc 1d3f
000003b0: cf02 883d 3c54 a5be 53e7 b33e fe34 0fbe
000003c0: f041 e73d 52d2 ecbd a951 58bf bd10 43be
000003d0: 07ae 0b3e 6fab 67be e0bb eb3f fe4d 93bd
000003e0: 094b d8bf a696 8bbe a47c 64c0 ea75 85be
000003f0: 5e53 08be 84e9 91bd 1c94 873d c4b7 73c0

fc2.bias f4 [64]
-0.011504693 1.7722205 0.72403747 2.7502255 0.040349204 0.68701655 2.5065408 0.07758323
2.6199176 2.101172 -0.094686925 -0.033675198 0.05395966 -0.12599081 -0.049198683 2.5452838
1.6198167 2.5440328 -0.11027374 1.1067725 2.089277 0.9931728 -0.12435552 0.86355233
1.2887926 2.5797062 1.6319833 0.8779152 -0.14624465 -0.018368483 0.06962969 0.058545552
-0.11242245 -0.11796284 0.053277925 -0.009740363 2.4517696 -0.12707129 1.5795956 0.7184554
2.5710177 -0.08426343 0.074145414 2.1872876 2.2787056 -0.10767183 2.4742103 0.62122506
0.01685436 2.4765956 -0.11826832 0.71440065 -0.022680996 0.079137355 2.5333805 -0.089516155
1.5592706 -0.22164896 -0.06939188 2.0539489 0.007131927 0.06490657 -0.027777053 0.058374185
00000000: 2e7e 3cbc 1fd8 e23f 855a 393f b203 3040
00000010: 3545 253d 51e0 2f3f 2a6b 2040 f5e3 9e3d
00000020: bbac 2740 9a79 0640 38eb c1bd 01ef 09bd
00000030: ce04 5d3d bc03 01be 8f84 49bd eee5 2240
00000040: 2756 cf3f 6fd1 2240 33d7 e1bd b9aa 8d3f
00000050: b7b6 0540 9340 7e3f 1bae febd c411 5d3f
00000060: 28f7 a43f e819 2540 d4e4 d03f 0dbf 603f
00000070: 28c1 15be 8079 96bc 039a 8e3d 76cd 6f3d
00000080: be3d e6bd 8096 f1bd f439 5a3d 0b96 1fbc
00000090: cbe9 1c40 fa1e 02be 3030 ca3f b1ec 373f
000000a0: 8e8b 2440 4e92 acbd 8dd9 973d 85fc 0b40
000000b0: 50d6 1140 0c83 dcbd 7659 1e40 9b08 1f3f
000000c0: 2812 8a3c 8b80 1e40 a936 f2bd f6e2 363f
000000d0: 7fcd b9bc c412 a23d e822 2240 3f54 b7bd
000000e0: 2e96 c73f f2f7 62be 541d 8ebd e673 0340
000000f0: f1b2 e93b bced 843d b48c e3bc c519 6f3d

fc3.weight f4 [20, 64]
-0.0009520759 -0.0122666955 0.1539601 1.3915093 0.34994078 0.023759324 -1.5833682 0.10278438
-1.29672 -0.8251344 0.15051113 0.026467595 -0.022552267 0.0128346635 0.0043737795 1.4295356
-2.0490596 -1.0883279 0.02087214 0.23939228 1.0087578 -0.050633773 0.05679731 0.06468242
0.047985576 2.531755 0.4425994 0.13502443 0.49307004 0.13411963 0.27358127 0.06261921
-0.029404372 0.09394186 0.07984517 0.004262951 -0.26160005 0.06358034 -0.21739787 0.10796181
2.355915 0.059268534 -0.03176552 -0.61495477 1.0406005 0.04111965 1.1480416 0.07352973
-0.003622944 -0.8608284 0.13636974 -0.010820711 0.33529478 0.08536728 -1.639651 0.08923696
0.54838544 0.44526145 -0.009506598 0.74438804 0.022574797 -0.079562046 0.0652642 -0.026612757
-0.0820746 -0.311331 -0.16825691 1.6337546 0.11136035 -0.4820925 -1.0885466 0.46913642
-0.7789953 -0.5449412 -0.010616748 0.102699935 0.0083293915 0.07139264 -0.010188177 1.1336306
-0.7465019 -0.7640376 0.114013985 0.15606664 0.3638808 -0.13727555 -0.013046339 -0.4185945
-0.3356572 1.6726031 0.08648247 -0.006404398 0.33171275 0.050975665 -0.062404733 0.012861265
0.01381892 0.0093171 -0.00864774 -0.0009508133 -0.6805589 -0.024496894 -0.20432028 -0.28547665
1.7757885 -0.0029394082 0.08391781 -0.28437057 1.100849 -0.066352 1.0501177 -0.052214775
5.4048327e-05 -0.52768344 0.1230293 0.024590025 0.2766749 0.09050709 -0.93375504 -0.081484325
0.022524184 0.42785764 0.026535735 0.4258847 -0.02901508 0.052085817 0.05407887 -0.039780032
-0.030952904 -0.21288249 -0.5001321 1.4461483 -0.32849538 -0.5712961 -0.9948816 0.18652853
-0.70855284 -0.65557784 -0.16070364 -0.027609617 -0.09910518 0.029574528 -0.024974778 1.2293093
-0.84330577 -0.31663325 0.06857975 0.38448477 0.689309 -0.44356787 -0.0431626 -0.49144098
-0.24996893 1.7949765 0.2664443 -0.40047878 -0.1382136 -0.037419163 -0.23486379 0.097240046
0.047809765 0.092213295 0.016619664 0.0134278685 -0.72923875 0.055021387 0.14064349 -0.25341013
1.5184529 0.010904531 -0.035717323 -0.3787222 1.162382 0.06831898 1.2386297 -0.5737215
0.05328165 -0.6666698 -0.09507436 -0.07503949 0.114237845 -0.07353127 -0.95875907 0.022160664
0.06157547 1.0461298 -0.09254353 0.711007 0.0443013 -0.119169846 -0.04862498 0.096847616
0.09271994 -0.2889354 -0.117239 1.367617 -0.33225703 -0.4331021 -1.012888 0.23699725
-0.9730708 -0.39407817 -0.044527106 -0.08765964 0.10576608 -0.017791284 0.05635878 1.1846806
-0.88588387 -0.26459494 -0.03633509 0.16733356 0.587982 -0.10165049 0.10701825 -0.5439424
-0.26860654 1.5264531 0.30445272 -0.21647023 -0.152072 0.03972887 -0.005806198 -0.10347366
0.06723389 -0.06700021 -7.237494e-05 -0.02718845 -0.8737583 0.025065009 -0.27287084 -0.36357713
1.5908117 0.13346398 0.006829381 -0.15402696 1.2480812 -0.06703001 1.2639366 -0.34335297
-0.05342694 -0.3750297 -0.0050764717 -0.046676625 0.040059507 0.12372966 -1.040985 -0.12407552
-0.044714883 0.80120116 -0.11263819 0.69125277 0.097195655 0.099827886 -0.11627898 -0.0306139
00000000: bb94 79ba 40fa 48bc b7a7 1d3e fa1c b23f
00000010: 702b b33e eaa2 c23c cfab cabf 9e80 d23d
00000020: ecfa a5bf 023c 53bf 971f 1a3e 92d2 d83c
00000030: 88bf b8bc 7b48 523c ec51 8f3b 06fb b63f
00000040: cb23 03c0 544e 8bbf 0dfc aa3c 4023 753e
00000050: fa1e 813f 5c65 4fbd 4ca4 683d 3778 843d
00000060: 868c 443d 4608 2240 639c e23e d843 0a3e
00000070: ad73 fc3e a856 093e d812 8c3e 803e 803d
00000080: 70e1 f0bc 9764 c03d dd85 a33d 3ab0 8b3b
00000090: 71f0 85be 6936 823d 8c9d 5ebe 151b dd3d
000000a0: 50c7 1640 90c3 723d 901c 02bd ad6d 1dbf
000000b0: 6632 853f 146d 283d 07f3 923f c196 963d
000000c0: ea6e 6dbb 405f 5cbf 82a4 0b3e 5a49 31bc
000000d0: c2ab ab3e 0ad5 ae3d 15e0 d1bf dec1 b63d
000000e0: fd62 0c3f 4ff9 e33e 90c1 1bbc 3790 3e3f
000000f0: c8ee b83c 6df1 a2bd 3da9 853d ff02 dabc
00000100: ba16 a8bd c766 9fbe 8a4b 2cbe df1e d13f
00000110: e510 e43d d4d4 f6be 7f55 8bbf a632 f03e
00000120: 3c6c 47bf 4481 0bbf def1 2dbc 5854 d23d
00000130: 0078 083c 4e36 923d 50ec 26bc cf1a 913f
00000140: c01a 3fbf f897 43bf 2a80 e93d efcf 1f3e
00000150: 964e ba3e f691 0cbe 50c0 55bc 0552 d6be
00000160: 43db abbe dc17 d63f b91d b13d fcdb d1bb
00000170: 41d6 a93e dccb 503d 1b9c 7fbd 0eb8 523c
00000180: c068 623c c0a6 183c 40af 0dbc 0040 79ba
00000190: 1c39 2ebf b6ad c8bc 5639 51be ff29 92be
000001a0: 0a4d e33f 16a3 40bb 1add ab3d 0599 91be
000001b0: 9fe8 8c3f 8fe3 87bd 426a 863f 29df 55bd
000001c0: f3b1 6238 4316 07bf c9f6 fb3d 0571 c93c
000001d0: 55a8 8d3e c85b b93d 920a 6fbf 41e1 a6bd
000001e0: a384 b83c 2810 db3e 7861 d93c 8f0d da3e
000001f0: 08b1 edbc f057 553d ce81 5d3d 63f0 22bd
00000200: f290 fdbc defd 59be a808 00bf 631b b93f
00000210: 8c30 a8be 7640 12bf 8fb0 7ebf 5601 3f3e
00000220: b863 35bf f3d3 27bf 7f8f 24be 902d e2bc
00000230: a8f7 cabd 4846 f23c e897 ccbc 025a 9d3f
00000240: e3e2 57bf c11d a2be 8a73 8c3d 30db c43e
00000250: 8e76 303f 541b e3be 44cb 30bd 279e fbbe
00000260: dbf7 7fbe cac1 e53f 636b 883e 8e0b cdbe
00000270: de87 0dbe d644 19bd 2280 70be ca25 c73d
00000280: 2cd4 433d 53da bc3d f625 883c 9000 5c3c
00000290: 64af 3abf 1b5e 613d d904 103e f9be 81be
000002a0: aa5c c23f eba8 323c 544c 12bd e0e7 c1be
000002b0: efc8 943f d2ea 8b3d 6b8b 9e3f 6adf 12bf
000002c0: dc3d 5a3d dfaa 2abf 59b6 c2bd 4eae 99bd
000002d0: 88f5 e93d 9097 96bd 3c71 75bf 488a b53c
000002e0: 8f36 7c3d 95e7 853f 7687 bdbd 8e04 363f
000002f0: 4875 353d 520f f4bd fd2a 47bd 0b58 c63d
00000300: f4e3 bd3d 57ef 93be 001b f0bd 130e af3f
00000310: 981d aabe 8fbf ddbe 50a6 81bf 68af 723e
00000320: 2b1b 79bf 9dc4 c9be 0e62 36bd e686 b3bd
00000330: e39b d83d 07bf 91bc 77d8 663d 9da3 973f
00000340: 49c9 62bf fd78 87be 1ad4 14bd 7d59 2b3e
00000350: fd85 163f 222e d0bd 622c db3d cf3f 0bbf
00000360: cc86 89be d162 c33f 3ae1 9b3e 5faa 5dbe
00000370: c3b8 1bbe bdba 223d eb41 bebb 00ea d3bd
00000380: ecb1 893d 6837 89bd 00c8 97b8 50ba debc
00000390: a0ae 5fbf 2255 cd3c bab5 8bbe c826 babe
000003a0: b89f cb3f c8aa 083e 00c9 df3b 3eb9 1dbe
000003b0: 20c1 9f3f 0847 89bd adc8 a13f f6cb afbe
000003c0: 35d6 5abd e503 c0be 8858 a6bb fd2f 3fbd
000003d0: 7015 243d fa65 fd3d ff3e 85bf 4e1b febd
000003e0: f426 37bd 851b 4d3f daae e6bd f1f5 303f
000003f0: 840e c73d 9072 cc3d ad23 eebd 00ca fabc

fc3.bias f4 [20]
1.0794997 0.4092367 0.2136466 0.32969642 0.34144092 0.3935833 0.31068558 0.21111782
0.1917957 -0.011396778 0.022178458 -0.015988728 -0.012557802 -0.3449488 -0.20770898 -0.18368265
-0.10214196 -0.35950854 -0.44578505 -0.48169345
00000000: 0c2d 8a3f 7987 d13e 2dc6 5a3e f8cd a83e
00000010: 58d1 ae3e c083 c93e 2e12 9f3e 452f 583e
00000020: 1866 443e 8db9 3abc 99af b53c cbfa 82bc
00000030: 3dbf 4dbc 219d b0be aab1 54be 4e17 3cbe
00000040: ce2f d1bd 8111 b8be f03d e4be 86a0 f6be

exp_avg f4 [64, 3]
-63.916233 -50.001736 373.7497 -45.80566 -57.128113 -295.62183 0.0 0.0
0.0 0.0 0.0 0.0 0.0 0.0 0.0 -15.010258
-8.6626005 -47.8305 -4.1973314 0.3936918 35.52729 2.8033175 3.7297487 70.08581
-93.898186 -36.34064 700.9499 -4.814964 -24.874746 -167.71301 -37.861843 -45.422283
-225.19862 -45.34102 -21.230894 58.88325 1.414792 1.3497195 0.15123941 -91.376595
-53.56834 183.55759 2.2647886 -0.6869725 -12.497051 0.83629364 -5.977056 -64.137566
0.0 0.0 0.0 -26.310879 26.09084 362.06952 117.130356 109.69331
255.53513 139.38835 94.87722 162.97882 6.3855453 13.770359 226.08821 -102.43681
-39.161236 666.4228 -5.672899 -3.709768 57.27253 -14.37266 28.934464 353.12488
5.373633 -19.40541 -172.29501 1.2865101 37.37972 356.508 4.543265 11.609166
75.08921 -1.5028473 -0.61710477 80.62843 3.0177062 -0.6796286 6.6659913 6.2616673
-15.569673 -181.3472 -30.751108 -20.932665 462.6423 6.342714 0.52063775 41.007504
-17.45758 -39.59319 -505.9015 -29.196245 -29.129429 -149.82649 64.079124 12.181691
-225.2712 -0.27704617 -17.279037 -84.56298 2.8088617 -1.0198572 -42.235092 -0.98708296
-26.516327 -190.51166 0.0 0.0 0.0 1.1784472 0.7000007 41.36113
-6e-45 -6e-45 -6e-45 6e-45 6e-45 6e-45 48.139984 -44.113594
-1485.1879 -12.335432 2.6950142 57.350197 0.0 0.0 0.0 6.515578
-9.322519 -302.58218 10.278179 19.65772 320.68552 14.043941 -5.8071647 -25.348589
0.0 0.0 0.0 0.0 0.0 0.0 -12.178252 -6.3942814
-12.268555 -16.97101 -14.801291 -1158.1853 0.17924385 -6.522296 1.2417774 -16.811195
-16.936068 -1113.6399 -149.81299 -132.59978 -686.7481 0.0 0.0 0.0
197.67009 191.2939 571.57263 2.9458733 -1.119347 -31.102034 -5.3322864 31.332325
2239.9949 58.52808 28.100908 61.05971 4.579194 -7.142533 -77.60673 0.0
0.0 0.0 5.529079 4.086257 10.001742 -1.0806465 12.311303 920.0098
00000000: 39aa 7fc2 c701 48c2 f6df ba43 ff38 37c2
00000010: 3083 64c2 98cf 93c3 0000 0000 0000 0000
00000020: 0000 0000 0000 0000 0000 0000 0000 0000
00000030: 0000 0000 0000 0000 0000 0000 042a 70c1
00000040: 039a 0ac1 6f52 3fc2 8a50 86c0 f991 c93e
00000050: f21b 0e42 8e69 3340 34b4 6e40 ef2b 8c42
00000060: dfcb bbc2 d15c 11c2 cb3c 2f44 2f14 9ac0
00000070: 7bff c6c1 88b6 27c3 8772 17c2 6bb0 35c2
00000080: d932 61c3 345d 35c2 dfd8 a9c1 7388 6b42
00000090: e717 b53f 9cc3 ac3f 81de 1a3e d1c0 b6c2
000000a0: fb45 56c2 be8e 3743 4cf2 1040 6edd 2fbf
000000b0: ecf3 47c1 5717 563f 0b44 bfc0 6f46 80c2
000000c0: 0000 0000 0000 0000 0000 0000 ae7c d2c1
000000d0: 0aba d041 e608 b543 be42 ea42 fa62 db42
000000e0: fe88 7f43 6b63 0b43 23c1 bd42 94fa 2243
000000f0: 6356 cc40 6453 5c41 9516 6243 a6df ccc2
00000100: 1ba5 1cc2 0f9b 2644 6388 b5c0 d76c 6dc0
00000110: 1217 6542 6af6 65c1 c879 e741 fc8f b043
00000120: cdf4 ab40 483e 9bc1 864b 2cc3 5dac a43f
00000130: d584 1542 0641 b243 6d62 9140 25bf 3941
00000140: ad2d 9642 4d5d c0bf 94fa 1dbf c241 a142
00000150: 1922 4140 24fc 2dbf cd4f d540 945f c840
00000160: 611d 79c1 e258 35c3 4502 f6c1 1976 a7c1
00000170: 3752 e743 83f7 ca40 8448 053f af07 2442
00000180: 20a9 8bc1 6d5f 1ec2 64f3 fcc3 e991 e9c1
00000190: 1209 e9c1 95d3 15c3 8328 8042 35e8 4241
000001a0: 6d45 61c3 ffd8 8dbe 783b 8ac1 3f20 a9c2
000001b0: 64c4 3340 ae8a 82bf bcf0 28c2 78b1 7cbf
000001c0: 7021 d4c1 fc82 3ec3 0000 0000 0000 0000
000001d0: 0000 0000 5cd7 963f 3f33 333f cc71 2542
000001e0: 0400 0080 0400 0080 0400 0080 0400 0000
000001f0: 0400 0000 0400 0000 588f 4042 5274 30c2
00000200: 03a6 b9c4 ee5d 45c1 1d7b 2c40 9a66 6542
00000210: 0000 0000 0000 0000 0000 0000 9d7f d040
00000220: 0a29 15c1 854a 97c3 6c73 2441 0343 9d41
00000230: bf57 a043 fbb3 6041 4bd4 b9c0 e9c9 cac1
00000240: 0000 0000 0000 0000 0000 0000 0000 0000
00000250: 0000 0000 0000 0000 1fda 42c1 f49d ccc0
00000260: 004c 44c1 a1c4 87c1 17d2 6cc1 eec5 90c4
00000270: b38b 373e a6b6 d0c0 90f2 9e3f 547d 86c1
00000280: 117d 87c1 7a34 8bc4 20d0 15c3 8b99 04c3
00000290: e1af 2bc4 0000 0000 0000 0000 0000 0000
000002a0: 8bab 4543 3d4b 3f43 a6e4 0e44 3089 3c40
000002b0: c346 8fbf f7d0 f8c1 17a2 aac0 9aa8 fa41
000002c0: ebff 0b45 c11c 6a42 a9ce e041 253d 7442
000002d0: c288 9240 a18f e4c0 a536 9bc2 0000 0000
000002e0: 0000 0000 0000 0000 37ee b040 9ec2 8240
000002f0: 2307 2041 a052 8abf 19fb 4441 a100 6644

exp_avg_sq f4 [64, 3]
206066.86 48015.824 1.9065947e+08 33091.547 31870.943 3.2576835e+06 0.0 0.0
0.0 0.0 0.0 0.0 0.0 0.0 0.0 11168.362
2226.2637 7.918086e+06 32841.164 1962.6221 6.4127735e+06 395.43478 254.75359 97984.6
375699.84 49783.04 2.867824e+08 43163.22 7824.6816 3.068581e+07 16640.49 20491.055
490713.97 85761.37 12213.587 6.5333776e+07 378.14456 97.371635 1324.3704 198535.06
49891.246 1.33664744e+08 1892.4261 144.72165 1.4182649e+06 6859.6094 549.0509 4.76068e+06
0.0 0.0 0.0 221259.64 17024.273 1.7676765e+08 154909.84 189443.03
1.2800829e+06 230735.94 238155.64 532544.4 8899.336 2058.53 1.1625141e+07 442026.6
59177.004 3.3684368e+08 475.75156 163.74358 32677.895 164011.39 14867.92 1.2884366e+08
16527.684 11165.464 9.33045e+06 104639.9 14810.601 7.9009624e+07 6801.8955 950.0812
495592.6 1731.0483 830.1131 7.7683655e+06 1573.6946 104.400314 1.1708974e+06 12793.983
4793.6416 1.0365782e+07 52073.637 14217.491 8.608025e+07 6894.257 72.009674 371687.78
52835.754 14892.074 3.6794436e+07 8587.346 9882.188 219899.38 314034.0 25592.111
2.5245752e+08 18385.516 2215.5852 1.351303e+07 7200.9263 603.0521 5.3474565e+06 66799.93
9640.115 4.9503864e+07 0.0 0.0 0.0 78.38925 49.59673 28721.602
0.01870806 0.013250871 67.752144 5.2197287e-37 1.724541e-35 5.2197287e-37 846376.1 59810.953
6.943798e+08 28803.316 2779.1965 2.1964856e+07 0.0 0.0 0.0 74230.27
5745.1006 7.108993e+07 16186.425 5267.671 2.8842548e+07 32691.244 2201.6887 2.6215228e+07
0.0 0.0 0.0 0.0 0.0 0.0 1707.1748 497.92358
1832.3473 4871.9307 4968.54 6.0677184e+07 4198.3613 15726.828 8167.0166 4802.9116
4794.1704 5.977164e+07 294892.1 176445.75 1.3384108e+08 0.0 0.0 0.0
398466.12 412355.03 1.7002706e+06 1927.5334 116.44249 1.4346438e+06 191642.81 19206.348
1.998893e+08 25733.705 14887.511 28557.22 5710.7 389.94202 4.1949685e+06 0.0
0.0 0.0 2259.222 468.79108 1.8800475e+06 82323.18 10022.537 8.8851976e+07
00000000: b73c 4948 d38f 3b47 b9d3 354d 8c43 0147
00000010: e3fd f846 4ed5 464a 0000 0000 0000 0000
00000020: 0000 0000 0000 0000 0000 0000 0000 0000
00000030: 0000 0000 0000 0000 0000 0000 7381 2e46
00000040: 3824 0b45 0ca4 f14a 2a49 0047 e853 f544
00000050: cbb3 c34a a7b7 c543 ebc0 7e43 4d60 bf47
00000060: 7b72 b748 0a77 4247 9ebf 884d 389b 2847
00000070: 7485 f445 391d ea4b fb00 8246 1c16 a046
00000080: 3f9b ef48 af80 a747 59d6 3e46 843a 794c
00000090: 8112 bd43 47be c242 da8b a544 c4e1 4148
000000a0: 3fe3 4247 fdf1 fe4c a38d ec44 beb8 1043
000000b0: c720 ad49 e05c d645 4243 0944 d048 914a
000000c0: 0000 0000 0000 0000 0000 0000 e912 5848
000000d0: 8c00 8546 2a94 284d 7647 1748 c200 3948
000000e0: 9742 9c49 fc53 6148 e992 6848 0604 0249
000000f0: 580d 0b46 7ba8 0045 b562 314b 53d5 d748
00000100: 0129 6747 9d9e a04d 33e0 ed43 5bbe 2343
00000110: ca4b ff46 d92a 2048 ae4f 6846 f2bf f54c
00000120: 5e1f 8146 db75 2e46 125f 0e4b f35f cc47
00000130: 676a 6746 ebb2 964c 2a8f d445 3285 6d44
00000140: 13fd f148 8c61 d844 3d87 4f44 5b12 ed4a
00000150: 3ab6 c444 f6cc d042 8bee 8e49 efe7 4746
00000160: 22cd 9545 562b 1e4b a369 4b47 f725 5e46
00000170: 5f2f a44c 0e72 d745 f404 9042 f97c b548
00000180: c163 4e47 4cb0 6846 115c 0c4c 622d 0646
00000190: c168 1a46 d8be 5648 4056 9948 39f0 c746
000001a0: 23c3 704d 08a3 8f46 5d79 0a45 4631 4e4b
000001b0: 6907 e145 56c3 1644 0131 a34a f777 8247
000001c0: 76a0 1646 9ed7 3c4c 0000 0000 0000 0000
000001d0: 0000 0000 4cc7 9c42 0d63 4642 3463 e046
000001e0: a541 993c 2e1a 593c 1981 8742 409e 3103
000001f0: 7962 b705 409e 3103 82a2 4e49 f4a2 6947
00000200: 948d 254e a206 e146 25b3 2d45 1c94 a74b
00000210: 0000 0000 0000 0000 0000 0000 23fb 9047
00000220: ce88 b345 e197 874c b3e9 7c46 5e9d a445
00000230: 1a0d dc4b 7d66 ff46 059b 0945 9e01 c84b
00000240: 0000 0000 0000 0000 0000 0000 0000 0000
00000250: 0000 0000 0000 0000 9865 d544 38f6 f843
00000260: 1d0b e544 723f 9845 5244 9b45 1077 674c
00000270: e432 8345 50bb 7546 2238 ff45 4b17 9645
00000280: 5dd1 9545 be02 644c 83fd 8f48 704f 2c48
00000290: 1748 ff4c 0000 0000 0000 0000 0000 0000
000002a0: 4490 c248 6158 c948 758d cf49 12f1 f044
000002b0: 8ee2 e842 9e20 af49 b426 3b48 b20c 9646
000002c0: 19a1 3e4d 690b c946 0b9e 6846 711a df46
000002d0: 9a75 b245 94f8 c243 3105 804a 0000 0000
000002e0: 0000 0000 0000 0000 8d33 0d45 4265 ea43
000002f0: 7c7f e549 97c9 a047 269a 1c46 c178 a94c
