beer/experiments/vanilla_DQN/eps_0.01/models/dqn_agent_firm_1_episode_4000.pth (torch, 101224 bytes, 24 tensors)

fc1.weight f4 [64, 3]
0	0xbd207098	-0.039169878
1	0xbc938e2a	-0.018012125
2	0xbdde948f	-0.10868179
3	0x3bbcb680	0.0057590604
4	0xbde1cee0	-0.110257864
5	0xbec37430	-0.38174582
6	0x3e3cf8f8	0.18454349
7	0xbf0140d7	-0.5048956
8	0xbe53e27e	-0.20691869
9	0xbdc08eee	-0.09402262
10	0x3ec870c6	0.3914854
11	0xbef5eb80	-0.48031235
12	0x3e9f110d	0.31067696
13	0x3e9478e3	0.2899848
14	0x3d89a1d4	0.067203194
15	0x3e9a095b	0.30085263
16	0x3e8939a5	0.26801792
17	0x3d7f9164	0.062394515
18	0x3ebc46be	0.36772722
19	0xbef90048	-0.48633027
20	0xbea84194	-0.32862532
21	0x3d3b329a	0.045702554
22	0xbe8acddd	-0.27110186
23	0x3e831b41	0.2560673
24	0x3dfc328e	0.1231433
25	0x3ec46402	0.3835755
26	0xbc805b8f	-0.015668659
27	0xbe1a652a	-0.15077654
28	0xbefa3d83	-0.48875055
29	0xbc7d57c0	-0.015462816
30	0x3f2b816c	0.6699436
31	0xbf53b18e	-0.826928
32	0xbd142bdc	-0.03617464
33	0xbdda1099	-0.10647697
34	0xbf2744d1	-0.6533938
35	0x3e61a338	0.2203492
36	0x3dc9ae53	0.09847703
37	0x3d757831	0.059929077
38	0xbdc9efe9	-0.09860212
39	0xbe45db0d	-0.19321842
40	0xbe6451ab	-0.22296779
41	0x3df26faa	0.118377045
42	0xbff422de	-1.9073141
43	0xbebf48bb	-0.37360176
44	0x3e0e46d5	0.13894208
45	0xbe9efffc	-0.31054676
46	0xbe775371	-0.24152924
47	0xbdc50c0d	-0.09621439
48	0x3da837d6	0.08213775
49	0xbe8bc271	-0.27296785
50	0xbd2a4612	-0.04157073
51	0x3dfe9776	0.12431233
52	0xbdebd9aa	-0.115161255
53	0xbc218c6d	-0.00986014
54	0x3ec022f3	0.37526664
55	0x3d7d0c7c	0.061779484
56	0xbf054bcb	-0.52068776
57	0x3e329761	0.17440559
58	0x3e625b0c	0.22105044
59	0xbe7928b1	-0.24331929
60	0xbee44899	-0.44586638
61	0x3f056d3e	0.52119815
62	0x3e69f334	0.22846681
63	0xbe6eaa9e	-0.23307273
64	0xbdf996ac	-0.121869415
65	0xbc980020	-0.018554747
66	0x3db769db	0.08955737
67	0xbd910d27	-0.07082587
68	0xbdb723b8	-0.0894236
69	0xbe8f14f7	-0.27945682
70	0xbcd96f88	-0.02654244
71	0x3da3d468	0.07999498
72	0x3e51e109	0.20496
73	0xbd3c3575	-0.045949418
74	0x3da4d7ff	0.080490105
75	0x3b897600	0.004194975
76	0xbe910d08	-0.28330255
77	0xbdaad7fc	-0.08341977
78	0xbf6a2dad	-0.91475946
79	0x3e93b74d	0.28850785
80	0xbe648466	-0.22316131
81	0xbf033308	-0.5124974
82	0x3e11b450	0.1422894
83	0x3dc10394	0.094245106
84	0xbe5aa598	-0.21352232
85	0xbd403fa2	-0.046935685
86	0xbe1fe204	-0.15613562
87	0xbe14c4dc	-0.14528221
88	0xbe9e9aa5	-0.3097736
89	0xbe254b88	-0.16142094
90	0x3e6a7188	0.22894871
91	0xbf6ee846	-0.9332317
92	0xbcefd308	-0.029275432
93	0x3cc6135a	0.02417915
94	0xbe884625	-0.26616016
95	0xbe23b2d8	-0.15986192
96	0x3e025a8d	0.12729855
97	0xbec3ef68	-0.3826859
98	0x3edf1166	0.4356796
99	0x3e33a2ce	0.17542574
100	0xbe527bbd	-0.20555015
101	0xbe310dc5	-0.17290409
102	0xbf36ea73	-0.7145149
103	0xbe195cf3	-0.14976864
104	0xbece759f	-0.40324113
105	0xbf2f40f3	-0.6845848
106	0xbe3cd07d	-0.18438907
107	0xbd9daf01	-0.07699395
108	0x3e1974e5	0.14985998
109	0xbe5f2239	-0.21790399
110	0xbe19228c	-0.14954585
111	0x3f076992	0.5289546
112	0xbe9f6972	-0.31135136
113	0xbf0d745b	-0.5525567
114	0xbe7196f3	-0.23592739
115	0xbe944fa1	-0.28967002
116	0xbb7a6e3a	-0.0038212673
117	0xbf243b3d	-0.6415289
118	0x3dbd2ac5	0.09236673
119	0xbe0d3fdf	-0.13793896
120	0xbddb18f9	-0.106981225
121	0xbe088531	-0.13332058
122	0xbe0ad68a	-0.13558403
123	0x3e86e9d1	0.26350263
124	0xbf6305e1	-0.88680845
125	0xbe943aa8	-0.28951
126	0xbeb2b318	-0.34902263
127	0x3d4f09a1	0.050546292
128	0x3df4840f	0.11939251
129	0xbe76aa3a	-0.24088374
130	0xbdf0d420	-0.1175921
131	0xbc4c0800	-0.012453079
132	0xbe979474	-0.29605448
133	0x3ca34590	0.01993063
134	0x3de8a395	0.11359326
135	0xbeebd4d8	-0.46060824
136	0xbf0d7724	-0.5525992
137	0x3ebe89bf	0.37214467
138	0x3df2b338	0.118505895
139	0xbef393dc	-0.47573745
140	0xbee3ef3d	-0.44518462
141	0xbd817171	-0.06320465
142	0x3dc7b354	0.09751001
143	0xbee46d63	-0.44614705
144	0xbed5aebd	-0.41734877
145	0xbf68b603	-0.9090273
146	0x3ddd41f0	0.10803592
147	0x3f204cf3	0.62617415
148	0x3f00576c	0.50133395
149	0x3e982efb	0.29723343
150	0xbe9555fd	-0.29167166
151	0x3c1e6e99	0.009669923
152	0xbd9140cd	-0.07092438
153	0xbdf4119a	-0.1191742
154	0x3ea78dfe	0.3272552
155	0x3d076403	0.033054363
156	0x3dcc9a28	0.099903405
157	0x3e413ff9	0.1887206
158	0x3dadf36c	0.08493695
159	0xbea9e662	-0.3318358
160	0xbec182ac	-0.37795007
161	0xbc7e258e	-0.015511883
162	0x3e732d0f	0.23747657
163	0x3f2d0f29	0.6760126
164	0x3e944027	0.28955194
165	0xbf03fd9f	-0.5155887
166	0xbee11664	-0.43962395
167	0xbd383bb0	-0.044978797
168	0x3f038660	0.51376915
169	0xbe493f22	-0.1965299
170	0x3e0dbdf9	0.13842
171	0xbf2a1e7c	-0.66452765
172	0xbe83bd5d	-0.2573041
173	0xbdd8b4db	-0.105813704
174	0x3f1912e6	0.5979446
175	0xbf22613a	-0.63429606
176	0xbe86155e	-0.26188177
177	0xbfb3c3b8	-1.4044104
178	0xbf26c919	-0.651506
179	0x3e8183d8	0.252959
180	0xbe5f204a	-0.21789661
181	0x3da53859	0.08067388
182	0xbf52f904	-0.8241122
183	0xbe884453	-0.26614627
184	0xbcef3800	-0.029201508
185	0xbdc5bbcc	-0.0965496
186	0xbd5ef7c1	-0.054435495
187	0xbf2e93b1	-0.6819411
188	0xbd43e161	-0.04782236
189	0xbe2840ba	-0.16430941
190	0xbf1e9145	-0.61940414
191	0xbdc0f9e6	-0.09422664

fc1.bias f4 [64]
0	0x40066a2a	2.1002297
1	0x3e3bf0b0	0.18353534
2	0x3e4065b2	0.18788794
3	0x40581703	3.3764045
4	0x40545a62	3.3180165
5	0x40306263	2.756005
6	0xbeaef5e5	-0.34171978
7	0xbf9bbde1	-1.2167321
8	0x3fe37fb7	1.777335
9	0xbed282c9	-0.41115406
10	0xbf691dd6	-0.9106115
11	0xc04b8822	-3.180184
12	0x408351a0	4.103714
13	0x408f5713	4.479379
14	0xc0386224	-2.88099
15	0x3fa01c78	1.2508688
16	0x40232edb	2.5497348
17	0x4004260e	2.0648227
18	0x405bf50a	3.436831
19	0x4089055f	4.2819057
20	0xc02fa503	-2.7444465
21	0x3e923ff4	0.28564417
22	0x3c94e57d	0.018175835
23	0x404f704a	3.2412286
24	0x40526a43	3.2877357
25	0x3d64b260	0.055834174
26	0xc02ab81e	-2.6674876
27	0x406da61a	3.713263
28	0x40400cf5	3.0007908
29	0x3d67d900	0.05660343
30	0x40233cbe	2.5505824
31	0x405302e0	3.2970505
32	0xc02b60e0	-2.6777878
33	0x3de75d39	0.11297078
34	0x401ba7ed	2.4321244
35	0x40277e6c	2.6170912
36	0xbed56c1b	-0.4168404
37	0xbe65e1da	-0.22449437
38	0x4046aae4	3.1041803
39	0x4015c3ec	2.3400831
40	0x3ff4eb55	1.9134318
41	0x3f220a7d	0.63297254
42	0x4066b834	3.6049929
43	0xbedebaae	-0.435018
44	0x405556cc	3.3334227
45	0xc08de5a9	-4.4342847
46	0xbeee653c	-0.4656161
47	0x3fa19d67	1.262616
48	0xc0233bb3	-2.5505188
49	0xc02add07	-2.6697404
50	0x3fec356e	1.8453805
51	0xbea8f3a5	-0.32998386
52	0x4040f3bf	3.014877
53	0x403dd06a	2.9658456
54	0xc03f2487	-2.9866045
55	0xbda51c48	-0.08062035
56	0x4058fa8b	3.390292
57	0x40514ed7	3.270437
58	0x40219235	2.5245488
59	0xc080f133	-4.0294433
60	0xbf277479	-0.654121
61	0xbdcf97a4	-0.10136345
62	0x4015859d	2.33628
63	0x4029a31c	2.6505804

fc2.weight f4 [64, 64]
0	0xbe6ee620	-0.23329973
1	0x3aea7980	0.0017888993
2	0x3df08f14	0.1174604
3	0x3f4d6f30	0.80247784
4	0xbe344ecc	-0.17608184
5	0xbe7f7782	-0.24947932
6	0x3c771a4e	0.015081955
7	0x3e9dd8aa	0.30829364
8	0xbef4d658	-0.4781978
9	0xbce2c710	-0.027682811
10	0xbf9904e3	-1.1954616
11	0x3e7e85cd	0.24855728
12	0x3d8a9d1f	0.0676825
13	0x3f8d4894	1.1037774
14	0xbf2c3929	-0.6727472
15	0x3e903543	0.28165635
16	0xbc27518a	-0.0102123115
17	0xbe8abf4d	-0.27099076
18	0x3fad475e	1.3537405
19	0x3f56a9a1	0.83852583
20	0xbecf9a4a	-0.405474
21	0xbdfb324a	-0.12265451
22	0xba8536ed	-0.0010163464
23	0x3e8d4e18	0.27598643
24	0x3df2bceb	0.118524395
25	0x3d5b16f8	0.0534887
26	0xbef0afb4	-0.4700905
27	0x3e1118a9	0.14169563
28	0x3f944c63	1.1585811
29	0x3d8bf08c	0.0683299
30	0x3eede4cf	0.4646363
31	0x3f29453b	0.6612126
32	0x3e90497f	0.28181073
33	0xbee29bb2	-0.4425941
34	0x3ed02af2	0.40657765
35	0x3ef68461	0.48147872
36	0xbe8864e7	-0.26639482
37	0xbdf13670	-0.11777961
38	0x3ef8f22c	0.48622262
39	0x3f3b1946	0.7308544
40	0x3f39feef	0.7265462
41	0xbf04af28	-0.5182977
42	0x3e1feb9a	0.15617219
43	0x3da08a98	0.07838935
44	0x3ea9ba1e	0.3314981
45	0x3e62ff6d	0.2216775
46	0xbc939950	-0.018017441
47	0x3ee10e41	0.43956187
48	0x3e1c7a11	0.1528094
49	0xbf0807e1	-0.5313702
50	0xbe849bab	-0.25900015
51	0xbea58d32	-0.32334286
52	0xbe0a4c65	-0.13505705
53	0x3f79920f	0.9748849
54	0xbf16f896	-0.5897306
55	0x3bf07240	0.0073378384
56	0x3dcf1868	0.10112077
57	0x3ec8e9de	0.39240927
58	0xbeeb4361	-0.45949844
59	0xbe196756	-0.14980826
60	0xbd7d818c	-0.061891124
61	0xbdb255a2	-0.087077394
62	0x3e895dc6	0.26829356
63	0x3f47d7f8	0.7806392
64	0x3d0fb042	0.035080202
65	0x3dba6e8a	0.09103115
66	0x3ddc2532	0.10749282
67	0xbc97314c	-0.018456124
68	0x3d976480	0.07392216
69	0xbe0bba4c	-0.13645285
70	0x3d7a5c7c	0.061123356
71	0x3beef1dc	0.0072920155
72	0xbdc00681	-0.093762405
73	0xbdb42c9c	-0.08797571
74	0x3dce3471	0.10068596
75	0xbde8e41f	-0.11371636
76	0xbdb71798	-0.08940047
77	0x3ba4e2d2	0.005031922
78	0xbe06775c	-0.1313147
79	0xbde002f5	-0.10938064
80	0xbdab0f3c	-0.08352515
81	0x3e0c81bd	0.13721366
82	0xbd7fc02e	-0.062439136
83	0xbca8c890	-0.020603448
84	0xbd65eb56	-0.056132637
85	0x3de63742	0.11241008
86	0xbda98852	-0.08277954
87	0x3cfbe8a0	0.030750573
88	0x3cb83e63	0.022490686
89	0x3d1eee5c	0.038801536
90	0xbe0ad04e	-0.13556024
91	0xbe0a3595	-0.13497002
92	0xbe497466	-0.19673309
93	0x3cb2f590	0.021845609
94	0x3c4653db	0.012104954
95	0xbe05bba9	-0.13059868
96	0xbc093a81	-0.008375765
97	0xbe18da60	-0.14927053
98	0xbe087f3a	-0.13329783
99	0xbd8f2588	-0.069895804
100	0x3c22c7b5	0.009935309
101	0x3d6f644c	0.05844526
102	0xbd7bf4c8	-0.06151274
103	0x3d0a755f	0.03380334
104	0xbda7be7b	-0.08190628
105	0xbdc98f06	-0.09841733
106	0x3caf081b	0.02136617
107	0xbd3641c8	-0.044496328
108	0xbdb7b30c	-0.08969697
109	0x3da1eb14	0.07906166
110	0xbd8497c6	-0.06474261
111	0xbd493234	-0.049120143
112	0x3d02da20	0.0319463
113	0xbd4b921d	-0.04969989
114	0xbc8eb30b	-0.017419359
115	0xbe0c3e9a	-0.13695756
116	0xbe0de18b	-0.13855569
117	0xbe030971	-0.1279657
118	0xbcc331e9	-0.02382751
119	0x3df4f5e2	0.11960961
120	0x3d7e52c8	0.062090665
121	0xbd829129	-0.06375343
122	0x3da0302d	0.07821689
123	0x3cf18dd0	0.029486567
124	0x3c20c3e6	0.009812331
125	0x3cb7ee60	0.022452533
126	0x3dcf5c1f	0.101249926
127	0xbdb6be34	-0.08922997
128	0xbd9ae6bc	-0.0756354
129	0xbce7b7d8	-0.028285906
130	0xbcf09ee0	-0.029372633
131	0xbdbb59b0	-0.09147966
132	0xbe08bbe8	-0.1335293
133	0xbd8f2915	-0.06990258
134	0x3df26f1e	0.118376
135	0xbd0dde83	-0.03463603
136	0x3d490843	0.049080145
137	0x3dfbf1e8	0.12301999
138	0xba9b7100	-0.0011859238
139	0xbd802d8e	-0.06258689
140	0x3d184cf8	0.037182778
141	0xbcd97946	-0.026547085
142	0xbdf7a786	-0.120924994
143	0xbd481355	-0.04884656
144	0x3cb7a939	0.022419559
145	0x3d8e8ac4	0.06960061
146	0xbd768758	-0.060187668
147	0x3bebc340	0.0071949065
148	0x3d4a12ad	0.049334217
149	0xbd606dd8	-0.054792255
150	0x3d2188df	0.03943717
151	0xbd749c60	-0.059719443
152	0xbe16fdcc	-0.14745253
153	0x3dd52886	0.1040812
154	0xbcabc3a2	-0.020967308
155	0xbdf5ca30	-0.12001455
156	0x3c8b6332	0.017015073
157	0xbdb52508	-0.08844954
158	0xbdf9ef92	-0.122038975
159	0xbd2b2984	-0.04178764
160	0xbd34ac52	-0.04410965
161	0xbdeec43c	-0.116585225
162	0xbd2eb641	-0.04265428
163	0xbcf12f56	-0.029441517
164	0xbd8feab8	-0.07027191
165	0xbdeb6de0	-0.11495566
166	0x3d363907	0.04448798
167	0x3d79ce92	0.060988016
168	0xbe15831a	-0.14600793
169	0xbd708e34	-0.058729365
170	0xbcbfdfea	-0.0234222
171	0x3d584eac	0.052809402
172	0xbdaa0696	-0.083020374
173	0xbcab4900	-0.020908833
174	0xbac1f100	-0.0014796555
175	0xbe02afb0	-0.12762332
176	0xbdfb24ca	-0.12262876
177	0xbdf96b82	-0.121787086
178	0xbe045ce8	-0.12926066
179	0x3b20efd6	0.0024557016
180	0x3d6be893	0.057594847
181	0xbdd4d54e	-0.10392247
182	0x3dba1f3a	0.09087987
183	0x3dd972ca	0.106175974
184	0xbd9b6b34	-0.07588807
185	0xbddf4691	-0.10902131
186	0x3a862c00	0.0010236502
187	0x3dd8b01a	0.10580464
188	0x3d2bd677	0.041952576
189	0x3ce941f0	0.028473824
190	0xbd0169bc	-0.031594977
191	0xbdde67e8	-0.10859662
192	0xbe149dfa	-0.14513388
193	0xbdcf12f4	-0.10111037
194	0x3dab5c82	0.08367254
195	0xbf642bdd	-0.8912943
196	0x3e9d8edd	0.3077306
197	0x3eaec106	0.3413164
198	0xbd8353ae	-0.06412445
199	0x3dba0bab	0.09084257
200	0x3d9735fb	0.07383343
201	0xbca475a8	-0.020075634
202	0xbe291131	-0.16510464
203	0x3d47030f	0.0485869
204	0xbf78383e	-0.9696082
205	0x4001ad05	2.0261853
206	0xbeb42f98	-0.3519256
207	0xbe17d2a7	-0.14826451
208	0x3e9d31b2	0.30701977
209	0x3e50d027	0.20391904
210	0xbe490911	-0.19632365
211	0xbf50edfd	-0.8161314
212	0x3d2e278f	0.042518195
213	0xbd9051be	-0.07046841
214	0xbc2d9b7d	-0.010596153
215	0x3f2033e1	0.6257916
216	0x3f0bc5b4	0.54598546
217	0xbd02b3fc	-0.031909928
218	0xbec6e22b	-0.38844427
219	0x3f27aa7a	0.654945
220	0x3e9eb649	0.30998448
221	0xbd2e444c	-0.0425456
222	0x3e7fbbba	0.24973956
223	0xbcca1f7e	-0.02467322
224	0x3e15b17f	0.1461849
225	0xbd9de1db	-0.07709094
226	0x3df5d2ee	0.12003122
227	0x3e569456	0.20955023
228	0xbd47564f	-0.048666295
229	0xbcfb3ac0	-0.030667663
230	0x3f3116ea	0.6917559
231	0x3d6cb4bc	0.05778955
232	0x3d290c8b	0.041271728
233	0xbe453e1f	-0.19261979
234	0x3f308b97	0.68963
235	0x3d3f7428	0.046741635
236	0x3f3c60e7	0.7358536
237	0xbdfd0524	-0.12354496
238	0x3ddaef22	0.10690142
239	0xbf1c5890	-0.61072636
240	0xbc30e2e4	-0.010796282
241	0x3d6e8dfe	0.058240883
242	0x3e1d4c88	0.15361226
243	0x3db54f30	0.088529944
244	0x3f1059cc	0.5638702
245	0x3ee3f80a	0.44525176
246	0xba6d326a	-0.0009048345
247	0x3d99f78e	0.075179204
248	0x3f32e2e3	0.6987745
249	0x3e9db9a3	0.30805692
250	0x3e79f2f1	0.24409081
251	0xbe210f74	-0.15728551
252	0xbf133be4	-0.5751326
253	0xbc8e82b0	-0.017396301
254	0x3e9881d3	0.29786548
255	0x3ea19888	0.31561685

fc2.bias f4 [64]
0	0x3f83c0cb	1.0293211
1	0xbe1b5d34	-0.15172273
2	0x3d34ba6b	0.044123095
3	0x401920e2	2.392632
4	0x4001e5e8	2.0296574
5	0x3f9ff460	1.2496452
6	0xbcda5f1b	-0.026656678
7	0x400ff016	2.2490287
8	0x3f0ae12b	0.5424983
9	0xb9dbf710	-0.0004195501
10	0xbcc5a7eb	-0.024127921
11	0x401bfccf	2.4373052
12	0x3fad4d8b	1.3539289
13	0x3d2304f3	0.03979964
14	0x3d8430c7	0.06454616
15	0x3f42ab31	0.7604247
16	0x3f1aba23	0.6044027
17	0xbd9af3c1	-0.075660236
18	0xbc657f96	-0.01400747
19	0xbd3d972e	-0.046286754
20	0x3faaf2d9	1.3355361
21	0x4010248e	2.2522311
22	0xbd811f1a	-0.0630476
23	0xbd934070	-0.07190025
24	0xbb3e1bc4	-0.0029008249
25	0x400b3684	2.1752024
26	0x3da78a4e	0.081806764
27	0x3f16e8d4	0.5894902
28	0x3fea9c9f	1.8329047
29	0x3ba47844	0.0050192196
30	0x3cb9fc7a	0.022703398
31	0xbe260f14	-0.1621669
32	0xbe1f5308	-0.15559018
33	0xbdf8654c	-0.12128696
34	0x3fc670c8	1.5503168
35	0xbc9070de	-0.017631944
36	0x4012ace0	2.2918015
37	0x3fda8182	1.7070773
38	0xbf209e6a	-0.6274172
39	0x3ff11dd1	1.8837224
40	0x3e93e11a	0.28882676
41	0xbd439e9c	-0.047758684
42	0x3f3c505d	0.73560125
43	0x3ff51d8c	1.9149642
44	0xbc086243	-0.008324209
45	0x3d6d9a98	0.05800876
46	0xbd87bdd8	-0.06628007
47	0x401ddaf6	2.4664893
48	0x3dd6b1ab	0.10483106
49	0xbd85cb1c	-0.06532881
50	0x3fc24526	1.5177352
51	0x3ff5fa7e	1.9217069
52	0xbe2f56fd	-0.17123027
53	0x4004239d	2.0646737
54	0x4014b0f2	2.3233
55	0x3f8f4670	1.1193371
56	0x3da23b59	0.07921476
57	0xbcc8de3d	-0.024520034
58	0xbf3e0c62	-0.74237645
59	0x3f2756fc	0.653671
60	0x4015b7ff	2.3393552
61	0xbdbd5c0b	-0.092460714
62	0x3f91d120	1.1391945
63	0x400b7a75	2.1793492

fc3.weight f4 [20, 64]
0	0x3d91d29a	0.07120247
1	0x3c9be373	0.019029355
2	0xbd0f42f4	-0.03497596
3	0x3f2c1eff	0.67234796
4	0x3ec11b51	0.37716153
5	0x3e5074ee	0.20357105
6	0xbd0da7a3	-0.0345837
7	0x3f2be80e	0.6715096
8	0xbe47af0e	-0.19500372
9	0xbda4f356	-0.08054225
10	0xbdae47dc	-0.085098
11	0x3f09c4cf	0.5381593
12	0xbe205da4	-0.15660721
13	0xbcaa8c8d	-0.020818973
14	0xbd247cf8	-0.040158242
15	0x3e8bdb38	0.27315688
16	0xbe1256d2	-0.14290932
17	0xbd0ce601	-0.034399036
18	0xbdb9f80a	-0.09080513
19	0x3d796b9d	0.060893644
20	0xbec90d66	-0.39268035
21	0x3f291a45	0.6605571
22	0x3dad6aa5	0.084676065
23	0x3dff762c	0.12473711
24	0x3d128a1c	0.035776243
25	0x3f1b0124	0.60548615
26	0x3d83b379	0.06430716
27	0x3d0a319f	0.03373873
28	0x3eb0c555	0.34525552
29	0x3de82c60	0.11336589
30	0xbdd8b8bd	-0.10582111
31	0xbbba42a3	-0.0056842132
32	0xbd2151bd	-0.039384592
33	0x3d4a09e2	0.04932583
34	0x3d799988	0.060937434
35	0xbcdce51f	-0.026964722
36	0xbea36e15	-0.31919923
37	0x3ec82215	0.39088503
38	0x3e521dd3	0.2051919
39	0x3f09a9fe	0.5377501
40	0x3f15b674	0.58481526
41	0x3de2e428	0.110786736
42	0x3d93bdf5	0.07213966
43	0xbfa9f598	-1.3278074
44	0x3d8b3280	0.067967415
45	0xbda02226	-0.07819013
46	0xbdc2a8b5	-0.095048346
47	0x3f2397d3	0.6390354
48	0x3daffc21	0.08593012
49	0xbda4d772	-0.080489054
50	0xbc871305	-0.016488561
51	0xbfb6f712	-1.429415
52	0xbc711cc6	-0.014716333
53	0x3edc105e	0.42981237
54	0x3f2a753b	0.6658513
55	0x3cabf538	0.020990953
56	0xbf24b8f0	-0.6434469
57	0xbd63caba	-0.055613257
58	0x3eb0ec99	0.3455551
59	0x3ccf471a	0.025302459
60	0x3f3807ee	0.718871
61	0xbcd38800	-0.025821686
62	0xbf16a2cc	-0.5884216
63	0x3ef0e2ae	0.47047943
64	0xbd987a20	-0.074451685
65	0x3db9b9bd	0.0906863
66	0xbaa3c574	-0.0012494759
67	0x3f047cb2	0.5175277
68	0x3eb2de6d	0.34935322
69	0x3ebec43b	0.37259087
70	0x3e01fd82	0.12694362
71	0x3e90a747	0.28252622
72	0x3b82cba7	0.0039915624
73	0xbdbf1601	-0.09330369
74	0x3d0e7568	0.034779936
75	0x3f05d5e4	0.52279496
76	0x3c8a4e18	0.016882941
77	0xbdc7ee9b	-0.09762307
78	0xbd5d2417	-0.053989496
79	0xbefdb2ad	-0.4955038
80	0xbeda53a3	-0.42641935
81	0xbdda0ee7	-0.10647374
82	0xbd5609a2	-0.05225528
83	0xbd2e20a0	-0.042511582
84	0xbe5b2a7e	-0.21402928
85	0x3ea38ff4	0.31945765
86	0x3ef75d7b	0.48313507
87	0x3d83c60a	0.06434257
88	0xbda15f8e	-0.07879554
89	0x3f1f6b80	0.62273407
90	0x3e8d2f7a	0.27575284
91	0x3f22c419	0.6358047
92	0x3e5f150b	0.21785371
93	0x3c166100	0.0091784
94	0xbd51f6c8	-0.05126074
95	0xbda9e72e	-0.08296047
96	0x3bcfdcd0	0.0063434616
97	0xbd926fb8	-0.07150215
98	0x3e714089	0.23559774
99	0x3d129b84	0.035792843
100	0xbf326899	-0.69690853
101	0x3e7e1b08	0.24814999
102	0xbe914807	-0.28375265
103	0x3f478238	0.77933073
104	0xbe20282d	-0.15640326
105	0xbc5dae62	-0.013530346
106	0xbe15b381	-0.14619257
107	0xbf3ca985	-0.73696166
108	0xbce9a838	-0.028522596
109	0x3df0ac3b	0.117516
110	0xbd89a500	-0.067209244
111	0x3f020fb8	0.50805235
112	0x3cea9b28	0.028638437
113	0xbc94cb18	-0.018163249
114	0x3e53c4ba	0.20680514
115	0xbf6e56f3	-0.93101424
116	0xbdc36d19	-0.09542293
117	0x3efac4a4	0.4897815
118	0x3f1f3c52	0.62201416
119	0x3c34d2e0	0.011036605
120	0xbe48eadb	-0.1962084
121	0xbde9ea32	-0.11421622
122	0x3e674d8f	0.2258818
123	0xbd148093	-0.03625543
124	0x3eca27da	0.3948353
125	0xbdd4682a	-0.1037143
126	0xbe86efd7	-0.26354858
127	0x3eaf64f5	0.34256712
128	0xbe3d3b05	-0.18479545
129	0xbc817b52	-0.015805874
130	0x3bdcbe00	0.006736517
131	0x3f0a7dca	0.5409819
132	0x3e9a687f	0.3015785
133	0x3e80c196	0.25147694
134	0x3e2256fe	0.15853497
135	0x3e8a3f9b	0.27001652
136	0x3e296a4a	0.16544452
137	0x3db0643b	0.086128674
138	0xbc029bb0	-0.007971689
139	0x3eece37f	0.46267316
140	0xbe240c76	-0.16020378
141	0x3d95c31d	0.073126055
142	0x3da60a79	0.08107466
143	0xbf1718c2	-0.5902215
144	0x3ef7a385	0.48366943
145	0x3dfa70a9	0.122285195
146	0xbd0118ee	-0.031517915
147	0xbd3afd48	-0.045651704
148	0xbe87e40e	-0.2654118
149	0x3eaf40ae	0.34229034
150	0x3ea1f193	0.3162962
151	0x3b878240	0.0041354
152	0x3dc05f18	0.09393138
153	0x3f09f500	0.53889465
154	0x3ecb3bb0	0.39693975
155	0x3f1228ad	0.57093316
156	0x3e032ac5	0.12809284
157	0xbbd59e40	-0.006519109
158	0xbd308a30	-0.043100536
159	0xbd2ab5be	-0.04167723
160	0xbd3ce209	-0.046114
161	0xbdcb3854	-0.09922853
162	0x3db89549	0.09012849
163	0x3e0b5be7	0.13609277
164	0xbf40d845	-0.7533
165	0x3eda761f	0.42668244
166	0x3c8cdc83	0.017194992
167	0x3f3928ae	0.723277
168	0xbdefa9f4	-0.11702338
169	0xbd574403	-0.052555095
170	0x3b845777	0.004038747
171	0xbf4dfb14	-0.8046124
172	0xbdd29cde	-0.10283826
173	0xbc5088cc	-0.012727927
174	0x3d6596ce	0.05605202
175	0x3f0df4ea	0.55451834
176	0x3d03585c	0.032066688
177	0xbdb243f2	-0.08704366
178	0x3e6f948e	0.23396513
179	0xbf509a7e	-0.81485736
180	0x3dd75d54	0.10515848
181	0x3f01f5c1	0.50765616
182	0x3f03516d	0.5129612
183	0xbdfa93c1	-0.12235213
184	0xbe1a9b57	-0.1509832
185	0x3daf5b15	0.085622944
186	0xbee589e7	-0.44831774
187	0xbec9c60e	-0.39408916
188	0x3f02220d	0.5083321
189	0xbddaf402	-0.10691072
190	0xbeeb0f6e	-0.4591021
191	0x3edba777	0.42901203
192	0x3d8b40a7	0.06799441
193	0x3dc7ab73	0.09749498
194	0xbc6a5a00	-0.014303684
195	0x3f0fb55e	0.5613612
196	0x3e876dc3	0.2645093
197	0x3e957929	0.29194
198	0xbdeca45f	-0.11554789
199	0x3ef2263b	0.47294793
200	0x3ed1cbc4	0.40975773
201	0xbd184731	-0.03717727
202	0x3d8e33ca	0.06943472
203	0x3e9c828c	0.3056835
204	0xbe988186	-0.2978632
205	0xbd224229	-0.039613876
206	0xbdb61de6	-0.088924214
207	0xbf0eee4b	-0.55832356
208	0x3e9915d7	0.29899475
209	0x3da0f088	0.07858378
210	0x3e014c6e	0.12626812
211	0x3db24976	0.08705418
212	0xbeddb110	-0.4329915
213	0x3eccf7ee	0.40032905
214	0x3e0e5d61	0.13902809
215	0x3d378548	0.04480484
216	0xbd0122b8	-0.03152725
217	0x3f00a9f8	0.5025935
218	0x3f55250f	0.8325967
219	0x3f2f1f4b	0.68407124
220	0x3eb3857b	0.35062775
221	0x3ddb6290	0.10712159
222	0xbd7088ac	-0.05872409
223	0xbd5f420b	-0.054506343
224	0x3da496ea	0.08036597
225	0x3ca2ec00	0.019887924
226	0x3e17ac3e	0.14811799
227	0xbb27efd3	-0.0025625124
228	0xbf28ad10	-0.6588907
229	0x3ee7d76a	0.45281535
230	0xbe03adcd	-0.12859268
231	0x3f250c65	0.6447204
232	0xbe0ec86a	-0.1394364
233	0xbcd05a88	-0.025433794
234	0xbf02956d	-0.51009256
235	0xbf3905e7	-0.7227463
236	0x3d9a0b88	0.07521731
237	0xbdb1c562	-0.08680226
238	0xbd17acff	-0.037030216
239	0x3f07aaf9	0.5299526
240	0xbd5e1fa0	-0.05422938
241	0xbdb3c758	-0.08778256
242	0x3e25f286	0.16205797
243	0xbf3ac095	-0.72950107
244	0xbdc9f7b4	-0.09861699
245	0x3ec3af5c	0.38219726
246	0x3f07c9d6	0.5304235
247	0xbde7a834	-0.11311379
248	0x3c1a7646	0.009427613
249	0x3cc44312	0.023957763
250	0x3d055484	0.032551304
251	0xbe98d0b1	-0.2984672
252	0x3f0a0c6c	0.53925204
253	0xbc921948	-0.01783432
254	0xbe922d80	-0.2855034
255	0x3e8bd86a	0.27313548

fc3.bias f4 [20]
0	0x3ffe5588	1.9869852
1	0x3f512236	0.81692827
2	0x3f271633	0.6526825
3	0x3f1388ab	0.57630414
4	0x3ed63708	0.4183886
5	0x3ee4f330	0.44716787
6	0x3eb9d828	0.36297727
7	0x3eacc4da	0.33743936
8	0x3eb1dd89	0.3473933
9	0x3e4d74f3	0.20064144
10	0x3e3e0ffd	0.18560787
11	0x3eaa8b8f	0.333096
12	0x3e4aebb5	0.19816478
13	0xbdb01637	-0.08597987
14	0x3dd6a032	0.104797736
15	0xbe199450	-0.14997983
16	0xbe384655	-0.1799558
17	0xbea767a0	-0.32696247
18	0xbe85ed25	-0.2615749
19	0xbe959fe4	-0.2922355

fc1.weight f4 [64, 3]
0	0xbd1ef643	-0.038809072
1	0xbcc828e4	-0.02443356
2	0xbdcb460d	-0.099254705
3	0x3bbcb680	0.0057590604
4	0xbde1cf63	-0.11025884
5	0xbec37430	-0.38174582
6	0x3e3cfd7b	0.1845607
7	0xbf014052	-0.5048877
8	0xbe53e0ef	-0.20691274
9	0xbda901b7	-0.0825228
10	0x3ecaf4d8	0.39639926
11	0xbef0816f	-0.4697375
12	0x3ea490f1	0.32141832
13	0x3e95a9b2	0.2923103
14	0x3d84820c	0.06470117
15	0x3e9e7571	0.30948976
16	0x3e8c489e	0.27399153
17	0x3d7854bf	0.060627695
18	0x3ebc49ca	0.36775047
19	0xbef900f7	-0.4863355
20	0xbea840d2	-0.32861954
21	0x3d45912d	0.048234154
22	0xbe8ff428	-0.28115964
23	0x3e822731	0.25420526
24	0x3e127d5a	0.1430563
25	0x3ecdec9a	0.40219575
26	0x3ac074b8	0.0014683222
27	0xbe1a652a	-0.15077654
28	0xbefa3d83	-0.48875055
29	0xbc7d57c0	-0.015462816
30	0x3f2717a4	0.6527045
31	0xbf538b47	-0.82634395
32	0xbd908408	-0.07056433
33	0xbe0b2895	-0.135897
34	0xbf17edf7	-0.5934748
35	0x3e6b26eb	0.22964065
36	0x3dba6ec4	0.09103158
37	0x3d8ba121	0.06817842
38	0xbdc54e18	-0.09634036
39	0xbe4502fb	-0.19239418
40	0xbe6e139e	-0.23249671
41	0x3deb5f39	0.11492772
42	0xbfeeeabd	-1.8665386
43	0xbed8ee40	-0.4236927
44	0x3decbb54	0.115591675
45	0xbe9d4ece	-0.30724186
46	0xbe73f400	-0.23823547
47	0xbdbe5445	-0.09293417
48	0x3dd1a781	0.10237027
49	0xbe881f9d	-0.2658662
50	0xbc888a57	-0.016667528
51	0x3e2edd82	0.17076686
52	0xbdc1fcb7	-0.0947203
53	0x3b2de3c3	0.0026533462
54	0x3ec2e9b3	0.38068923
55	0x3d930395	0.071784176
56	0xbf05281c	-0.5201433
57	0x3e32c5cd	0.17458268
58	0x3e67fbd6	0.22654662
59	0xbe7f3542	-0.2492266
60	0xbeec6fb4	-0.46178973
61	0x3f05f787	0.5233082
62	0x3e6d93db	0.23200934
63	0xbe6eaa9e	-0.23307273
64	0xbdf996ac	-0.121869415
65	0xbc98009d	-0.01855498
66	0x3db76bae	0.08956085
67	0xbd910b57	-0.07082241
68	0xbdb72177	-0.0894193
69	0xbe9a33f9	-0.30117777
70	0xbcb9a150	-0.022659928
71	0x3da9686d	0.08271871
72	0x3e5b4ff9	0.21417226
73	0xbd3f99fc	-0.04677771
74	0x3d9e84a8	0.07740146
75	0x3b897600	0.004194975
76	0xbe910d08	-0.28330255
77	0xbdaad7fc	-0.08341977
78	0xbf5583d9	-0.8340431
79	0x3e941941	0.28925517
80	0xbe28c8f2	-0.16482905
81	0xbf0afc01	-0.5429078
82	0x3e184408	0.14869702
83	0x3dc10726	0.094251916
84	0xbe5c09a7	-0.21488057
85	0xbd7fd2b8	-0.062456816
86	0xbe4ecd71	-0.20195557
87	0xbe14c4dc	-0.14528221
88	0xbe9e9aa5	-0.3097736
89	0xbe254b88	-0.16142094
90	0x3e49443e	0.19654939
91	0xbf6fc371	-0.93657595
92	0xbd318f1d	-0.043349374
93	0xbd1ad4bd	-0.03780054
94	0xbe89d6a4	-0.2692157
95	0xbe1ae8f3	-0.15127926
96	0x3df0f3d9	0.1176526
97	0xbecef4d5	-0.40421167
98	0x3edb9371	0.42885926
99	0x3e38bf70	0.18041778
100	0xbe4bb941	-0.19894888
101	0xbe2be6e0	-0.1678729
102	0xbf3511fa	-0.70730555
103	0xbe12d6a0	-0.14339685
104	0xbec9c7fd	-0.3941039
105	0xbf28bc87	-0.6591267
106	0xbe26ad4c	-0.16277045
107	0xbd7d557f	-0.061849114
108	0x3e1993b0	0.14997745
109	0xbe5eff5b	-0.21777098
110	0xbe1905a6	-0.14943561
111	0x3f076992	0.5289546
112	0xbe9f6972	-0.31135136
113	0xbf0d745b	-0.5525567
114	0xbe448f77	-0.19195352
115	0xbe81f3eb	-0.25381407
116	0x3cc9b7b6	0.024623733
117	0xbf1f1797	-0.6214537
118	0x3d5ca7fc	0.05387114
119	0xbe152d56	-0.14568076
120	0xbdd17be1	-0.10228706
121	0xbdd40898	-0.10353202
122	0xbde8c5a9	-0.11365826
123	0x3e86ed75	0.2635304
124	0xbf6303fc	-0.88677955
125	0xbe9437da	-0.2894886
126	0xbeabdf77	-0.33568928
127	0x3d4eee85	0.05052044
128	0x3df5da45	0.12004522
129	0xbe76aa3a	-0.24088374
130	0xbdf0d420	-0.1175921
131	0xbc4c0800	-0.012453079
132	0xbe8cda57	-0.2751033
133	0x3cd853a6	0.026407074
134	0x3de7b3cd	0.11313591
135	0xbee7e857	-0.4529445
136	0xbf042b45	-0.51628524
137	0x3ec7abd7	0.3899829
138	0x3df2b3a9	0.11850674
139	0xbef393dc	-0.47573745
140	0xbee3ef3d	-0.44518462
141	0xbd528ed2	-0.051405735
142	0x3db53853	0.088486336
143	0xbecea0a0	-0.40356922
144	0xbebfcc23	-0.3746043
145	0xbf696c9d	-0.91181356
146	0x3e02fa6f	0.12790845
147	0x3f207e0e	0.62692344
148	0x3f009c6b	0.50238675
149	0x3e965671	0.29362825
150	0xbe7fe4ee	-0.24989673
151	0x3cdfc66f	0.0273163
152	0xbd53fbea	-0.051753916
153	0xbe1791ec	-0.14801759
154	0x3eb22a17	0.34797737
155	0x3d2c178c	0.042014644
156	0x3dd94f55	0.106108345
157	0x3e42ba8e	0.19016477
158	0x3da77aa8	0.08177692
159	0xbeb7e5b3	-0.35917434
160	0xbea79a29	-0.32734802
161	0x3bb8682c	0.0056276526
162	0x3e7331f3	0.23749523
163	0x3f2d8026	0.67773664
164	0x3e927a18	0.28608775
165	0xbf03fd9f	-0.5155887
166	0xbee11664	-0.43962395
167	0xbd383bb0	-0.044978797
168	0x3f05779b	0.5213563
169	0xbe499a24	-0.19687706
170	0x3e08d034	0.13360673
171	0xbf1fed84	-0.62471795
172	0xbe7ed5a9	-0.24886192
173	0xbdaa91ad	-0.08328567
174	0x3f1958da	0.599012
175	0xbf1dc181	-0.6162339
176	0xbe834d5c	-0.25644958
177	0xbfa43dc5	-1.283135
178	0xbf281ba6	-0.6566719
179	0x3e84ce09	0.25938442
180	0xbe571dad	-0.21007414
181	0x3db7ffb6	0.0898432
182	0xbf4f8591	-0.8106318
183	0xbe884453	-0.26614627
184	0xbcef3800	-0.029201508
185	0xbdc5bbcc	-0.0965496
186	0xbd009b04	-0.031397834
187	0xbf383e69	-0.7197023
188	0xbd5e8c65	-0.05433311
189	0xbe377f2b	-0.17919604
190	0xbf1dec57	-0.6168875
191	0xbdd40e92	-0.103543416

fc1.bias f4 [64]
0	0x4004c318	2.0744076
1	0x3e3bf0b0	0.18353534
2	0x3e40687e	0.1878986
3	0x405734f7	3.3626077
4	0x4055294d	3.3306458
5	0x40316787	2.7719438
6	0xbeaef3b0	-0.34170294
7	0xbf9c5529	-1.2213489
8	0x3fe9aa53	1.8255104
9	0xbed282c9	-0.41115406
10	0xbf6ad036	-0.91723955
11	0xc04caeb3	-3.1981628
12	0x40829e88	4.081852
13	0x408f29e5	4.473864
14	0xc0371ece	-2.8612552
15	0x3fa08901	1.254181
16	0x4025c718	2.5902767
17	0x4008a1fa	2.1348863
18	0x405aaf5d	3.4169533
19	0x40887c90	4.2652054
20	0xc02e66f0	-2.7250328
21	0x3e923ff4	0.28564417
22	0x3c94e7a1	0.018176856
23	0x405003d1	3.250233
24	0x4052b895	3.292516
25	0x3d64b260	0.055834174
26	0xc029bed9	-2.6522734
27	0x406e1cd9	3.7205107
28	0x403d1d18	2.9549007
29	0x3d67d900	0.05660343
30	0x40209723	2.5092247
31	0x4051c5fe	3.2777095
32	0xc02c29aa	-2.690043
33	0x3dea4179	0.11438269
34	0x401c1e31	2.4393427
35	0x4028a696	2.6351676
36	0xbed55e5a	-0.41673547
37	0xbe65e25e	-0.22449633
38	0x4048ba8b	3.1363857
39	0x4013df57	2.3105066
40	0x3ff9da16	1.951968
41	0x3f220edc	0.63303924
42	0x406741ac	3.6133833
43	0xbedebaae	-0.435018
44	0x4055f35d	3.3429787
45	0xc08c981d	-4.3935685
46	0xbeee653c	-0.4656161
47	0x3fa143ef	1.2598857
48	0xc0208add	-2.5084755
49	0xc02a3419	-2.6594298
50	0x3fef9738	1.8718023
51	0xbea4467d	-0.32085028
52	0x4041697a	3.0220628
53	0x403eba88	2.980135
54	0xc03e9b70	-2.9782372
55	0xbda51c48	-0.08062035
56	0x40596112	3.3965497
57	0x40525f7e	3.2870784
58	0x402260ae	2.5371509
59	0xc07f2f57	-3.9872644
60	0xbf2512f6	-0.6448206
61	0xbdcf97a4	-0.10136345
62	0x4013b75c	2.3080664
63	0x4028477c	2.629363

fc2.weight f4 [64, 64]
0	0xbead91f7	-0.33900425
1	0x3aea7a2a	0.0017889191
2	0x3df08cdf	0.11745619
3	0x3f3731c1	0.71560293
4	0xbe234202	-0.15943149
5	0xbe6c725d	-0.23090501
6	0x3c7718ad	0.015081567
7	0x3ea42132	0.32056576
8	0xbef5a2f6	-0.47975892
9	0xbce2c710	-0.027682811
10	0xbf97b783	-1.1852878
11	0x3e81710b	0.25281557
12	0x3da6d7cb	0.08146628
13	0x3f8c3fe6	1.0957
14	0xbf25e7c2	-0.6480676
15	0x3e8e85f3	0.2783657
16	0xbc89de5e	-0.016829666
17	0xbe7c8cfd	-0.24663158
18	0x3fa779ee	1.3084085
19	0x3f4b1578	0.79329634
20	0xbed7003e	-0.41992372
21	0xbdfb324a	-0.12265451
22	0xba85340d	-0.0010162607
23	0x3e84a382	0.25905997
24	0x3e07f9d5	0.13278897
25	0x3d5b16f8	0.0534887
26	0xbf0ca08c	-0.54932475
27	0x3dda45ea	0.10657866
28	0x3f616c3b	0.8805577
29	0x3d8bf08c	0.0683299
30	0x3ef40c43	0.47665605
31	0x3f05d1ba	0.5227314
32	0x3e96100b	0.29309115
33	0xbee1092b	-0.43952307
34	0x3ecd6efa	0.4012373
35	0x3ec01739	0.37517717
36	0xbe886478	-0.26639152
37	0xbdf13670	-0.11777961
38	0x3ee7c3bf	0.4526653
39	0x3f089342	0.533497
40	0x3f1f124c	0.62137294
41	0xbf04b323	-0.5183584
42	0x3e102621	0.14077045
43	0x3da08a98	0.07838935
44	0x3ea3afe9	0.31970146
45	0x3e6bb6fb	0.2301902
46	0xbc939950	-0.018017441
47	0x3e923439	0.28555468
48	0x3e1410b3	0.14459495
49	0xbf00bdd2	-0.5028964
50	0xbed85b0e	-0.4225697
51	0xbeb99b8d	-0.36251488
52	0xbe00cd8c	-0.1257841
53	0x3f7492af	0.9553632
54	0xbf11f847	-0.57019466
55	0x3bf07240	0.0073378384
56	0x3dfae55e	0.122507796
57	0x3e95fd45	0.29294792
58	0xbefd044b	-0.49417338
59	0xbdf5495d	-0.119768836
60	0xbd8a6e91	-0.0675937
61	0xbdb255a2	-0.087077394
62	0x3e28c1d0	0.16480184
63	0x3f2dc857	0.6788382
64	0x3d0fb395	0.035083372
65	0x3dba6e8a	0.09103115
66	0x3ddc2532	0.10749282
67	0xbc97357b	-0.018458119
68	0x3d976843	0.07392933
69	0xbe0bb80a	-0.13644424
70	0x3d7a5ca0	0.06112349
71	0x3beef2b5	0.0072921165
72	0xbdc006d7	-0.093763046
73	0xbdb42c9c	-0.08797571
74	0x3dce37b1	0.10069216
75	0xbde8e3e9	-0.113715954
76	0xbdb715bf	-0.089396946
77	0x3ba4e56f	0.0050322334
78	0xbe06745e	-0.13130328
79	0xbde00272	-0.109379664
80	0xbdab0f95	-0.083525814
81	0x3e0c832a	0.1372191
82	0xbd7fbf8c	-0.062438533
83	0xbca8c5a3	-0.020602053
84	0xbd65ea2e	-0.056131534
85	0x3de63742	0.11241008
86	0xbda9850c	-0.0827733
87	0x3cfbeb10	0.030751735
88	0x3cb84287	0.02249266
89	0x3d1eee5c	0.038801536
90	0xbe0acdaa	-0.13555017
91	0xbe0a3551	-0.13496901
92	0xbe4974ee	-0.19673511
93	0x3cb2f590	0.021845609
94	0x3c46580b	0.012105952
95	0xbe05b8dd	-0.13058801
96	0xbc093768	-0.008375026
97	0xbe18d775	-0.1492594
98	0xbe087be8	-0.13328516
99	0xbd8f230d	-0.06989107
100	0x3c22ca5d	0.0099359425
101	0x3d6f644c	0.05844526
102	0xbd7bf2e1	-0.061510924
103	0x3d0a77b8	0.03380558
104	0xbda7bc02	-0.081901565
105	0xbdc98c5f	-0.09841227
106	0x3caf0b1f	0.021367608
107	0xbd3641c8	-0.044496328
108	0xbdb7b1ff	-0.08969497
109	0x3da1ebb4	0.07906285
110	0xbd8497cc	-0.064742655
111	0xbd493286	-0.04912045
112	0x3d02de62	0.031950362
113	0xbd4b9000	-0.049697876
114	0xbc8eb1c5	-0.017418751
115	0xbe0c3cdb	-0.1369509
116	0xbe0dded4	-0.13854533
117	0xbe03095b	-0.12796538
118	0xbcc32f71	-0.023826333
119	0x3df4f5e2	0.11960961
120	0x3d7e5442	0.062092073
121	0xbd829043	-0.06375172
122	0x3da0324b	0.078220926
123	0x3cf18eaf	0.029486982
124	0x3c20c6bb	0.009813006
125	0x3cb7ee60	0.022452533
126	0x3dcf6092	0.10125841
127	0xbdb6bbe7	-0.08922558
128	0xbd9ae6cf	-0.075635545
129	0xbce7b7d8	-0.028285906
130	0xbcf09ee0	-0.029372633
131	0xbdbb59b0	-0.09147966
132	0xbe08ba68	-0.13352358
133	0xbd8f26f5	-0.06989852
134	0x3df26f1e	0.118376
135	0xbd0dded4	-0.034636334
136	0x3d490b75	0.049083192
137	0x3dfbf1e8	0.12301999
138	0xba9b7100	-0.0011859238
139	0xbd802d8e	-0.06258689
140	0x3d184cf8	0.037182778
141	0xbcd976a4	-0.02654583
142	0xbdf7a786	-0.120924994
143	0xbd481175	-0.048844773
144	0x3cb7aa2e	0.022420015
145	0x3d8e8e9c	0.06960794
146	0xbd768825	-0.06018843
147	0x3bebc340	0.0071949065
148	0x3d4a1516	0.049336515
149	0xbd606dd8	-0.054792255
150	0x3d218a0c	0.039438292
151	0xbd749bf3	-0.059719037
152	0xbe16fae4	-0.14744145
153	0x3dd52910	0.10408223
154	0xbcabc345	-0.020967135
155	0xbdf5c8bc	-0.12001178
156	0x3c8b6601	0.017016413
157	0xbdb52508	-0.08844954
158	0xbdf9ef92	-0.122038975
159	0xbd2b2984	-0.04178764
160	0xbd34ac8d	-0.04410987
161	0xbdeec3d6	-0.116584465
162	0xbd2eb530	-0.042653263
163	0xbcf12d08	-0.029440418
164	0xbd8fea46	-0.07027106
165	0xbdeb6de0	-0.11495566
166	0x3d363afd	0.04448985
167	0x3d79cffe	0.060989372
168	0xbe157ffb	-0.14599602
169	0xbd708e34	-0.058729365
170	0xbcbfdfc6	-0.023422133
171	0x3d584eac	0.052809402
172	0xbdaa05f4	-0.08301917
173	0xbcab4645	-0.02090753
174	0xbac1f100	-0.0014796555
175	0xbe02af83	-0.12762265
176	0xbdfb23d8	-0.12262696
177	0xbdf96a6f	-0.12178504
178	0xbe045d34	-0.12926179
179	0x3b20f1b3	0.0024558126
180	0x3d6bed42	0.057599314
181	0xbdd4d54e	-0.10392247
182	0x3dba2301	0.09088708
183	0x3dd972ca	0.106175974
184	0xbd9b6ba0	-0.07588887
185	0xbddf46f1	-0.10902203
186	0x3a862c00	0.0010236502
187	0x3dd8b01a	0.10580464
188	0x3d2bdab5	0.041956622
189	0x3ce941f0	0.028473824
190	0xbd0169bc	-0.031594977
191	0xbdde6848	-0.10859734
192	0xbe0a5d11	-0.13512065
193	0xbdcf12f4	-0.10111037
194	0x3dab5db4	0.08367482
195	0xbf5dda25	-0.8666099
196	0x3ea16f59	0.31530264
197	0x3eb30dc1	0.3497143
198	0xbd835393	-0.06412425
199	0x3db6d9d4	0.08928266
200	0x3dae0e26	0.08498792
201	0xbca475a8	-0.020075634
202	0xbe2256f0	-0.15853477
203	0x3d626252	0.055269547
204	0xbf73624e	-0.95071876
205	0x4001d0ac	2.0283613
206	0xbeb82cd9	-0.35971716
207	0xbe1b2d90	-0.151541
208	0x3e9b6b7a	0.30355436
209	0x3e5fcbc7	0.21855079
210	0xbe475eb5	-0.19469722
211	0xbf4dec9b	-0.80439156
212	0x3d209395	0.039203245
213	0xbd9051be	-0.07046841
214	0xbc2d9bef	-0.0105962595
215	0x3f20ac4c	0.62762904
216	0x3f0def57	0.5544333
217	0xbd02b3fc	-0.031909928
218	0xbe7b46b3	-0.24538688
219	0x3f285b35	0.6576417
220	0x3ea1a8f0	0.31574202
221	0xbd2e444c	-0.0425456
222	0x3e84b5cc	0.2591995
223	0xbab96061	-0.0014143103
224	0x3e113940	0.14181995
225	0xbd9e265b	-0.077221595
226	0x3df37629	0.11887772
227	0x3e24385f	0.16037129
228	0xbd46d111	-0.048539225
229	0xbcfb3b48	-0.030667916
230	0x3f314384	0.69243646
231	0x3d9e5787	0.07731538
232	0xbda0e55b	-0.07856246
233	0xbe453ae3	-0.19260745
234	0x3f30e484	0.6909869
235	0x3d3f7428	0.046741635
236	0x3f3d2f6a	0.73900473
237	0xbdfb214f	-0.122622125
238	0x3ddaef22	0.10690142
239	0xbf0a9e8f	-0.5414819
240	0xbd071511	-0.032979075
241	0x3d6883aa	0.05676619
242	0x3e1a0f49	0.15044893
243	0x3dccf985	0.100085296
244	0x3f122d73	0.571006
245	0x3eea3926	0.45746726
246	0xbb479046	-0.0030450984
247	0x3d99f78e	0.075179204
248	0x3f33f406	0.70294225
249	0x3e89ebd8	0.26937747
250	0x3e625e3d	0.22106262
251	0xbe20f840	-0.157197
252	0xbf113bab	-0.5673167
253	0xbc8e82e5	-0.0173964
254	0x3e815b49	0.25264958
255	0x3e77ea52	0.2421048

fc2.bias f4 [64]
0	0x3f826500	1.0187073
1	0xbe1b5c00	-0.15171814
2	0x3d34bc2c	0.044124767
3	0x40191435	2.3918583
4	0x4001dbde	2.0290446
5	0x3fa19d8d	1.2626206
6	0xbcda5d1d	-0.026655728
7	0x400e4cbd	2.2234337
8	0x3f0b8539	0.54500157
9	0xb9dbf746	-0.00041955168
10	0xbcc5a843	-0.024128085
11	0x401c1448	2.4387379
12	0x3fabc0e1	1.3418237
13	0x3d2308dd	0.039803375
14	0x3d84323b	0.06454893
15	0x3f419c54	0.7562916
16	0x3f1b4c53	0.60663337
17	0xbd9af287	-0.0756579
18	0xbc44159d	-0.011968044
19	0xbd3d95d4	-0.046285465
20	0x3fa917ae	1.3210351
21	0x400fde1a	2.247931
22	0xbd471597	-0.048604574
23	0xbd933dd9	-0.07189531
24	0xbb3e1aa5	-0.002900758
25	0x400add1b	2.1697452
26	0x3da33886	0.07969765
27	0x3f0c68b1	0.54847246
28	0x3feb0965	1.8362242
29	0x3ba4846c	0.0050206687
30	0x3cb9ffd8	0.022705004
31	0xbe260e51	-0.16216399
32	0xbe1f4fbb	-0.15557759
33	0xbdf864b6	-0.12128584
34	0x3fc980ea	1.5742466
35	0xbc906f16	-0.017631095
36	0x40121342	2.2824254
37	0x3fdb25c6	1.7120903
38	0xbf22071f	-0.63292116
39	0x3ff071d4	1.8784738
40	0x3e985b48	0.29757142
41	0xbd439cd2	-0.047756977
42	0x3f3de25b	0.74173516
43	0x3ff447fe	1.908447
44	0xbc086090	-0.008323804
45	0x3d6d9edc	0.05801283
46	0xbd87bc7f	-0.0662775
47	0x401db2f2	2.464047
48	0x3dd6b399	0.10483474
49	0xbd85c87d	-0.06532381
50	0x3fc29654	1.5202127
51	0x3ff83de7	1.9393891
52	0xbe2f4bf5	-0.17118819
53	0x4004565e	2.0677714
54	0x40148d4e	2.3211246
55	0x3f8cae47	1.0990685
56	0x3dadbac4	0.08482888
57	0xbcc8d858	-0.024517223
58	0xbf36f193	-0.71462363
59	0x3f28f23b	0.65994614
60	0x40153195	2.3311512
61	0xbdbd5b3c	-0.09245917
62	0x3f8ff09e	1.1245306
63	0x400bcb10	2.184269

fc3.weight f4 [20, 64]
0	0x3d856466	0.0651329
1	0x3c9be4b7	0.019029958
2	0xbd0f42f4	-0.03497596
3	0x3f2c76f1	0.6736899
4	0x3ec3288c	0.38116872
5	0x3e53f46c	0.20698708
6	0xbd0da823	-0.034584176
7	0x3f2e2d37	0.6803774
8	0xbe47abe5	-0.19499166
9	0xbda4f50f	-0.08054554
10	0xbdae4bb7	-0.08510535
11	0x3f0a225a	0.53958666
12	0xbc87fd1f	-0.01660019
13	0xbcaa8eab	-0.020819983
14	0xbd247fde	-0.040161006
15	0x3e9417ef	0.2892451
16	0xbe143179	-0.14471997
17	0xbd0ce8ba	-0.034401633
18	0xbdbe8ddc	-0.09304401
19	0x3d796e56	0.06089624
20	0xbed41caa	-0.4142812
21	0x3f2ab42e	0.6668118
22	0x3df4a4ee	0.1194552
23	0x3dff762c	0.12473711
24	0x3d128e0f	0.03578001
25	0x3f1c9685	0.61167175
26	0x3d81ee92	0.06344332
27	0x3d26fc8a	0.040768184
28	0x3eb2fe7a	0.34959775
29	0x3de82c60	0.11336589
30	0xbdd8bb22	-0.10582568
31	0xbbba4242	-0.005684168
32	0xbd21535c	-0.03938614
33	0x3d4a0d46	0.049329065
34	0x3d864fb6	0.065581724
35	0xbcdce976	-0.026966792
36	0xbea0472e	-0.31304306
37	0x3ec90e5f	0.39268777
38	0x3e6ba40f	0.23011802
39	0x3f09b3d0	0.5379
40	0x3f19a155	0.600118
41	0x3de2e4bc	0.11078784
42	0xbd0be3ab	-0.034152668
43	0xbfa9eae3	-1.3274807
44	0x3d8b3339	0.06796879
45	0xbda02693	-0.078198574
46	0xbdc2aaa0	-0.095052004
47	0x3f23f9fc	0.6405332
48	0x3daffd50	0.085932374
49	0xbda4d772	-0.080489054
50	0xbc867df9	-0.01641749
51	0xbfb9da0a	-1.4519665
52	0xbc706b64	-0.014674041
53	0x3edc7f1d	0.4306573
54	0x3f2ae091	0.6674891
55	0xbd15fd6d	-0.03661864
56	0xbf1c2bad	-0.61004144
57	0xbd63d079	-0.055618737
58	0x3e749d24	0.2388807
59	0xb98f4052	-0.00027323008
60	0x3f387912	0.7205974
61	0xbcd38800	-0.025821686
62	0xbf11d2cc	-0.56962276
63	0x3ef1ebd1	0.47250226
64	0xbe316ae0	-0.17325926
65	0x3db9b989	0.09068591
66	0xbaa3c45f	-0.0012494436
67	0x3f03bdbd	0.5146139
68	0x3eadf74f	0.33977744
69	0x3ebb192e	0.36542648
70	0x3e01ffb9	0.12695207
71	0x3e98fd25	0.29880634
72	0x3b832e49	0.0040033204
73	0xbdbf188d	-0.093308546
74	0x3d0e7568	0.034779936
75	0x3f050363	0.5195829
76	0xbd30a390	-0.043124735
77	0xbdc7f234	-0.097629935
78	0xbd5d27f6	-0.053993188
79	0xbed2eb86	-0.41195315
80	0xbed9cca8	-0.42538953
81	0xbdda12e3	-0.106481336
82	0xbd5271f7	-0.051378217
83	0xbd2e20bf	-0.042511698
84	0xbe69f6b2	-0.22848013
85	0x3ea2ae22	0.31773478
86	0x3ef51987	0.47871038
87	0x3d83c60a	0.06434257
88	0xbda15f8e	-0.07879554
89	0x3f220eeb	0.63304013
90	0x3e85634d	0.26052323
91	0x3f11a907	0.5689854
92	0x3e5532b0	0.20820117
93	0x3c166100	0.0091784
94	0xbd51f8a5	-0.051262517
95	0xbda9ea9b	-0.082967006
96	0x3bcfd9ac	0.006343087
97	0xbd926fb8	-0.07150215
98	0x3e90e157	0.2829692
99	0x3d129daf	0.03579491
100	0xbf3304c2	-0.69929135
101	0x3e7ce66f	0.24697278
102	0xbeca3b2e	-0.39498276
103	0x3f476ec4	0.7790339
104	0xbdf3d770	-0.11906326
105	0xbc5db0af	-0.013530894
106	0xbd93453f	-0.07190942
107	0xbf3c990f	-0.7367105
108	0xbce9a838	-0.028522596
109	0x3df0ac20	0.1175158
110	0xbd89a8b0	-0.06721628
111	0x3f01144c	0.50421596
112	0x3cea9b28	0.028638437
113	0xbc94cb18	-0.018163249
114	0x3e53eb89	0.20695318
115	0xbf6e4b94	-0.93084073
116	0xbdc36df0	-0.09542453
117	0x3ef967fc	0.48712146
118	0x3f1f5891	0.62244517
119	0xbc638b82	-0.013888242
120	0xbe76902a	-0.24078432
121	0xbde9ed89	-0.11422259
122	0x3e0ab128	0.13544142
123	0x3d5c1e1e	0.05373966
124	0x3ed4985b	0.41522488
125	0xbdd4682a	-0.1037143
126	0xbea81a0e	-0.32832378
127	0x3eab57ca	0.33465415
128	0xbdf537d4	-0.11973539
129	0xbc817aea	-0.01580568
130	0x3bdcbe7f	0.006736576
131	0x3f08caa6	0.53434217
132	0x3e9afb59	0.30269888
133	0x3e774f71	0.24151398
134	0x3e22552d	0.15852804
135	0x3e997dce	0.29978794
136	0x3e296fa5	0.16546495
137	0x3db062e1	0.0861261
138	0xbc029bfb	-0.007971759
139	0x3ee88674	0.4541508
140	0xbe895d01	-0.2682877
141	0x3d95c263	0.07312467
142	0x3da60a69	0.08107454
143	0xbf1105e5	-0.5664962
144	0x3ef772b6	0.48329705
145	0x3dfa7028	0.12228423
146	0xbd0a43c4	-0.033756033
147	0xbd3afdc2	-0.04565216
148	0xbe6dd0d4	-0.23224193
149	0x3eac4295	0.33644548
150	0x3e9f4813	0.31109676
151	0x3b878240	0.0041354
152	0x3dc05f18	0.09393138
153	0x3f072b55	0.52800494
154	0x3eac0361	0.33596328
155	0x3ee6f13e	0.45105928
156	0x3e024aff	0.12723921
157	0xbbd59e41	-0.0065191095
158	0xbd308dd8	-0.043104023
159	0xbd2ab9a4	-0.041680947
160	0xbd3ce60b	-0.046117824
161	0xbdcb3854	-0.09922853
162	0x3ddb5329	0.10709221
163	0x3e0b5e31	0.1361015
164	0xbf373fc4	-0.71581674
165	0x3ed55f11	0.41674092
166	0x3c7c4842	0.015398087
167	0x3f32b838	0.69812346
168	0xbd9bd0e0	-0.07608199
169	0xbd574809	-0.052558932
170	0xbe4e24d9	-0.20131244
171	0xbf46dd5a	-0.77681506
172	0xbdd29cde	-0.10283826
173	0xbc508d5b	-0.012729014
174	0x3d65943e	0.056049578
175	0x3f0c0316	0.5469221
176	0x3d03585c	0.032066688
177	0xbdb24742	-0.087049976
178	0x3e6fac79	0.23405637
179	0xbf4ad05b	-0.79224175
180	0x3dd75d54	0.10515848
181	0x3efd97f7	0.49530002
182	0x3f006013	0.501466
183	0xbdabdc57	-0.08391636
184	0xbe11934b	-0.14216344
185	0x3daf5940	0.08561945
186	0xbec56861	-0.38556197
187	0xbea8ec06	-0.32992572
188	0x3f0201b0	0.50783825
189	0xbddaf402	-0.10691072
190	0xbec718ed	-0.38886204
191	0x3eda2774	0.42608225
192	0x3d96d136	0.073641226
193	0x3dc7abe5	0.09749583
194	0xbc6a5a00	-0.014303684
195	0x3f10da68	0.5658326
196	0x3e89b379	0.2689474
197	0x3e9b3abb	0.30318245
198	0xbdeca8c3	-0.11555626
199	0x3ee888f8	0.45417
200	0x3ed1c9c6	0.40974253
201	0xbd184ad4	-0.037180737
202	0x3d8e33ca	0.06943472
203	0x3e9d7035	0.3074967
204	0xbdec4ff8	-0.1153869
205	0xbd22458c	-0.039617106
206	0xbdb61fa5	-0.088927545
207	0xbf054ff7	-0.5207514
208	0x3e98a162	0.29810625
209	0x3da0edcc	0.07857856
210	0x3dfe0419	0.12403125
211	0x3db24976	0.08705418
212	0xbee50cc3	-0.447363
213	0x3ecbb099	0.3978317
214	0x3e5da7eb	0.21646087
215	0x3d378548	0.04480484
216	0xbd0122b8	-0.03152725
217	0x3eff1dc9	0.49827412
218	0x3f573f09	0.8408056
219	0x3f31449a	0.692453
220	0x3eb372cf	0.3504853
221	0x3ddb62d6	0.10712211
222	0xbd708cde	-0.05872809
223	0xbd5f4308	-0.054507285
224	0x3da4974f	0.08036672
225	0x3ca2ec00	0.019887924
226	0x3e661bb2	0.22471502
227	0xbb27eeca	-0.0025624507
228	0xbf2af527	-0.6678032
229	0x3ee95f35	0.4558045
230	0xbdebd463	-0.11515119
231	0x3f26c653	0.6514637
232	0xbddd5075	-0.108063616
233	0xbcd05e7b	-0.025435677
234	0xbf08f846	-0.53503835
235	0xbf3eb0e9	-0.74488693
236	0x3d9a0b88	0.07521731
237	0xbdb1c659	-0.0868041
238	0xbd17ae93	-0.03703172
239	0x3f085130	0.5324888
240	0xbd5e1fa0	-0.05422938
241	0xbdb3c758	-0.08778256
242	0x3e262701	0.16225816
243	0xbf3fef29	-0.74974304
244	0xbdc9f7b4	-0.09861699
245	0x3ec55272	0.38539463
246	0x3f08d669	0.53452164
247	0xbdba9bd1	-0.09111751
248	0xbc2f2e8e	-0.010692252
249	0x3cc440e2	0.02395672
250	0xbdc0375c	-0.09385559
251	0xbe9470c3	-0.2899228
252	0x3f04ba8b	0.5184714
253	0xbc921948	-0.01783432
254	0xbe96a0bb	-0.29419503
255	0x3e8d48e1	0.27594665

fc3.bias f4 [20]
0	0x3ffb6529	1.9640247
1	0x3f50ff58	0.81639624
2	0x3f2987db	0.66222924
3	0x3f0f2810	0.55920506
4	0x3edc470d	0.43022957
5	0x3ee6c8ea	0.4507516
6	0x3ebb9555	0.3663737
7	0x3ea24466	0.3169281
8	0x3eb78455	0.3584315
9	0x3e551b33	0.20811157
10	0x3e2d4093	0.16919164
11	0x3ead382e	0.33831924
12	0x3e477eb9	0.19481935
13	0xbdc96baf	-0.09834992
14	0x3dc0eac5	0.09419779
15	0xbe11ca8e	-0.14237425
16	0xbe46dc8a	-0.19420066
17	0xbea1df9d	-0.31615916
18	0xbe747c13	-0.23875456
19	0xbe905cde	-0.28195852

exp_avg f4 [64, 3]
0	0xc09e1896	-4.940501
1	0xc0c9e0e0	-6.3087006
2	0xc0e3169e	-7.096511
3	0x00000000	0.0
4	0x00000000	0.0
5	0x00000000	0.0
6	0x00000004	6e-45
7	0x00000004	6e-45
8	0x00000004	6e-45
9	0xc12cbc8e	-10.796034
10	0xc18bd8e6	-17.480907
11	0xc18aadca	-17.334858
12	0x41129c28	9.163124
13	0x40f3af72	7.6151667
14	0xc2450e29	-49.26383
15	0x4118e980	9.557007
16	0x41022baf	8.135665
17	0xc20ea7e2	-35.663948
18	0x00000004	6e-45
19	0x00000004	6e-45
20	0x00000004	6e-45
21	0x40b5f3f9	5.686032
22	0x40899d93	4.300485
23	0xc206c4b6	-33.6921
24	0x40603476	3.503202
25	0x407f015a	3.9844575
26	0x403b91b5	2.9307683
27	0x00000000	0.0
28	0x00000000	0.0
29	0x00000000	0.0
30	0xbf14eca6	-0.58173597
31	0x3cb07c28	0.021543577
32	0xbf505414	-0.81378293
33	0x3fa823f4	1.3135972
34	0xbf367924	-0.71278596
35	0xc1e0811b	-28.06304
36	0xc2a4ff28	-82.49835
37	0xc2db49fe	-109.644516
38	0xc2d935d5	-108.60514
39	0x3fcb8d14	1.5902429
40	0xc161d115	-14.113545
41	0xc39229ce	-292.3266
42	0x3ed36581	0.4128838
43	0x3f781706	0.9691013
44	0x420ae218	34.720795
45	0x00000004	6e-45
46	0x00000004	6e-45
47	0x00000004	6e-45
48	0xbf4dc6d3	-0.80381507
49	0xbf3127c1	-0.69201285
50	0x40330ac7	2.7975328
51	0x3fa129d2	1.2590888
52	0x3f456c8b	0.7711875
53	0x402ff410	2.7492714
54	0xc1f65c9c	-30.79522
55	0xc1e0d836	-28.105572
56	0xc2040cc3	-33.012463
57	0xc2a36b83	-81.709984
58	0xc2c05141	-96.1587
59	0xc30609df	-134.03856
60	0x40dd0d26	6.907855
61	0x412723f0	10.446274
62	0xc1bda1c5	-23.703989
63	0x00000000	0.0
64	0x00000000	0.0
65	0x00000000	0.0
66	0x00000004	6e-45
67	0x00000004	6e-45
68	0x00000004	6e-45
69	0xbfc07869	-1.5036746
70	0xc0770680	-3.8597717
71	0xc275e1ae	-61.47039
72	0x4138ea1d	11.557157
73	0x40d2fa12	6.593026
74	0xc2d1a485	-104.82133
75	0x00000000	0.0
76	0x00000000	0.0
77	0x00000000	0.0
78	0x3d878745	0.066175975
79	0x3f6c003e	0.9218787
80	0x3e497a2e	0.19675514
81	0x3fc6b4d0	1.552393
82	0xbfc39262	-1.5279047
83	0xc28a637d	-69.19431
84	0xbc6dd384	-0.014515761
85	0x3e8b84c1	0.2724972
86	0xbe2472c6	-0.16059408
87	0x00000000	0.0
88	0x00000000	0.0
89	0x00000000	0.0
90	0x400b9ab9	2.1813185
91	0x3f84c2e0	1.0371971
92	0x40d00aff	6.5013423
93	0x3f70c333	0.9404785
94	0x3e1b94c9	0.15193476
95	0x3f9defbb	1.2338785
96	0x4140d15d	12.051114
97	0x411d4830	9.830124
98	0xc218afb2	-38.171577
99	0x00000004	6e-45
100	0x00000004	6e-45
101	0x00000004	6e-45
102	0x00000004	6e-45
103	0x00000004	6e-45
104	0x00000004	6e-45
105	0x39c32134	0.00037218037
106	0x39c32108	0.00037217909
107	0x3c000d9a	0.007815743
108	0x00000004	6e-45
109	0x00000004	6e-45
110	0x00000004	6e-45
111	0x00000000	0.0
112	0x00000000	0.0
113	0x00000000	0.0
114	0x3f2692e5	0.65067893
115	0x3ff0caeb	1.8811926
116	0xc1f150c3	-30.164434
117	0xbd3fab78	-0.046794385
118	0x3e26afd8	0.16278017
119	0x3dea2c8a	0.114342764
120	0x3179a762	3.6329415e-09
121	0x322ef159	1.0183009e-08
122	0x30673156	8.410742e-10
123	0x00000004	6e-45
124	0x00000004	6e-45
125	0x00000004	6e-45
126	0x3f369129	0.71315247
127	0xc0354364	-2.8322382
128	0xc2ae7550	-87.229126
129	0x00000000	0.0
130	0x00000000	0.0
131	0x00000000	0.0
132	0x40664dae	3.5984912
133	0xbf8dc351	-1.1075231
134	0xc2d5b7cf	-106.859
135	0xc01c141b	-2.4387271
136	0xc01e5b0a	-2.4743066
137	0xc23e0102	-47.500984
138	0x00000000	0.0
139	0x00000000	0.0
140	0x00000000	0.0
141	0x3e1ddc39	0.1541604
142	0x3ff8dce7	1.9442414
143	0x3ef7ed88	0.4842341
144	0x3e9cce07	0.30625936
145	0x3f65fb22	0.89836323
146	0x41fe181c	31.761772
147	0x41aa729e	21.305965
148	0x41ad6526	21.674389
149	0xc1b196cf	-22.198637
150	0x3d4b2a70	0.04960102
151	0x3ed8a1ff	0.42311093
152	0x3ea7ed22	0.32798105
153	0x403c2035	2.9394658
154	0x406da339	3.7130873
155	0xbce72786	-0.028217088
156	0x41397052	11.589922
157	0x40f964e4	7.7935658
158	0xc2addda0	-86.93286
159	0x3e8cec75	0.27524152
160	0xbc68193d	-0.0141661735
161	0xc208613b	-34.09495
162	0x41bbf1de	23.4931
163	0x41bfd0af	23.976896
164	0xc1a7966a	-20.948444
165	0x00000000	0.0
166	0x00000000	0.0
167	0x00000000	0.0
168	0x41804116	16.03178
169	0x412ab053	10.668048
170	0xc2f0bcea	-120.36897
171	0x3ad09240	0.0015912727
172	0x3ad09234	0.0015912713
173	0x3d08dfee	0.03341668
174	0xc021b18b	-2.5264614
175	0xbfd3949f	-1.652973
176	0xc01b16c3	-2.4232643
177	0x3e922091	0.2854047
178	0x400d31df	2.206169
179	0x42101487	36.020046
180	0x00000004	6e-45
181	0x00000004	6e-45
182	0x00000004	6e-45
183	0x00000000	0.0
184	0x00000000	0.0
185	0x00000000	0.0
186	0x3da8b6d7	0.08237999
187	0x3c2b839b	0.010468389
188	0x3f324bf2	0.69647133
189	0xb1f77e42	-7.203e-09
190	0xb1777e42	-3.6015e-09
191	0xb2f77e42	-2.8812e-08
