beer/experiments/DQN_fullenv/models/dqn_agent_firm_1_episode_1000.pth (torch, 107368 bytes, 24 tensors)

fc1.weight f4 [64, 9]
0	0xbdbc0bd1	-0.09181941
1	0x3e915507	0.28385183
2	0x3c96eb58	0.018422768
3	0x3e438214	0.1909259
4	0x3f07f912	0.53114426
5	0xbe8af1e3	-0.2713767
6	0x3e027138	0.12738502
7	0x3dfea7fc	0.12434384
8	0x3d34f678	0.044180363
9	0xbc2662c6	-0.010155385
10	0x3e74e535	0.2391556
11	0x3e405e35	0.18785937
12	0xbba57604	-0.005049469
13	0xbe483234	-0.19550401
14	0x3d146f5a	0.036239006
15	0x3ecccdc9	0.40000752
16	0x3c1a0b93	0.009402174
17	0xbec57e2d	-0.38572827
18	0xbdbd202d	-0.09234653
19	0x3e4e3832	0.20138624
20	0x3e1b713c	0.15179914
21	0xbf080e67	-0.53146976
22	0xbea7db64	-0.3278457
23	0x3ea1f535	0.3163239
24	0x3e0417b8	0.12899673
25	0xbe6b97b3	-0.23007087
26	0x3e035e7e	0.12829015
27	0x3deed0b5	0.116609015
28	0x3de258a5	0.11052064
29	0x3da0309e	0.07821773
30	0xbe08de50	-0.13366055
31	0xbea518f0	-0.32245588
32	0xbfc00314	-1.5000939
33	0xbdaaea6f	-0.08345496
34	0xbcfe3cdf	-0.031034885
35	0x3d94132a	0.07230218
36	0xbe0df293	-0.13862066
37	0x3e83daf1	0.25752977
38	0xbea009d0	-0.31257486
39	0xbd9de9a4	-0.07710579
40	0xbd8fd62c	-0.07023272
41	0xbd5f7e38	-0.05456373
42	0xbe8a2fdb	-0.26989636
43	0xbd6f1200	-0.058366776
44	0xbe14f3a0	-0.1454606
45	0x3eaa860e	0.333054
46	0x3e323b6b	0.17405479
47	0xbe76bd99	-0.24095763
48	0xbe4a4334	-0.19752198
49	0x3d739b20	0.05947411
50	0x3f03cb34	0.5148194
51	0x3eac559c	0.33659065
52	0xbe9ab501	-0.3021622
53	0x3e7d94bb	0.24763767
54	0xbd8841d0	-0.06653178
55	0x3cf7e879	0.030262219
56	0x3ebc159d	0.3673524
57	0x3e1cd340	0.1531496
58	0x3e799dad	0.24376555
59	0xbe58e34b	-0.21180455
60	0x3e095d85	0.13414581
61	0xbe8d09e8	-0.2754662
62	0xbe8c7a8c	-0.27437246
63	0x3e197241	0.1498499
64	0x3e811b13	0.25215968
65	0x3e868f72	0.26281315
66	0x3e87812b	0.26465735
67	0x3f0926c7	0.53574795
68	0xbec6141a	-0.3868721
69	0x3ed37254	0.41298163
70	0x3f3d3b12	0.7391826
71	0xbe11bbea	-0.1423184
72	0x3eadc63b	0.339403
73	0x3e4b02af	0.19825242
74	0x3e0194d2	0.12654427
75	0xbf690043	-0.91016024
76	0xbe902872	-0.28155857
77	0x3e5640af	0.20923112
78	0x3f0c36c7	0.54771084
79	0xbf1c423f	-0.61038584
80	0x3a587b86	0.00082581525
81	0xbe8b7c64	-0.2724334
82	0x3ea6db26	0.32589072
83	0xbe2fbbc5	-0.17161472
84	0x3ec1429e	0.37746137
85	0x3e78eeac	0.24309796
86	0x3f15f4f8	0.5857692
87	0x3ed14868	0.40875554
88	0x3eb0b802	0.34515387
89	0xbe46d18a	-0.1941587
90	0x3e522ca2	0.20524839
91	0x3f2c865a	0.67392504
92	0x3d55c565	0.052190203
93	0x3dc1e616	0.094677135
94	0x3e689457	0.22712837
95	0xbfd80c18	-1.6878691
96	0x3e8c2d79	0.27378443
97	0x3d781f7f	0.060576912
98	0x3d94e2c0	0.07269812
99	0xbe0b15a0	-0.13582468
100	0x3e6fd461	0.2342086
101	0x3e858af1	0.26082566
102	0x3e5302d4	0.20606548
103	0x3d520d27	0.051282074
104	0x3cbce728	0.023059443
105	0x3e15187e	0.14560124
106	0xbc60c050	-0.013717726
107	0xbeec1289	-0.4610789
108	0xbf17f8d0	-0.5936403
109	0x3f544863	0.82922953
110	0xbc736202	-0.01485491
111	0xbeaccc7b	-0.33749756
112	0xbf1ce36c	-0.6128452
113	0xbced13cc	-0.028940104
114	0x3e06f732	0.13180235
115	0xbe336a3e	-0.17520997
116	0x3d08065e	0.033209197
117	0x3eb88436	0.3603837
118	0xbe821dff	-0.2541351
119	0x3e958d31	0.29209283
120	0x3e293f82	0.16528133
121	0x3e53c8ac	0.20682019
122	0xbd15ec6b	-0.03660242
123	0xbd7a36cf	-0.061087426
124	0xbe43a5e6	-0.19106254
125	0xbe5ef95e	-0.21774814
126	0xbec0f535	-0.37687078
127	0x3e59c8b0	0.21267962
128	0x3e95db0f	0.2926869
129	0xbc9f4b06	-0.019444954
130	0xbea68a28	-0.3252728
131	0xbbdbd154	-0.0067083035
132	0xbc58e0ab	-0.013237159
133	0x3e65db02	0.22446826
134	0xbee4b6e8	-0.44670796
135	0x3e90fe07	0.28318807
136	0x3d4463a8	0.047946602
137	0xbe16fb4e	-0.14744303
138	0xbe5bddab	-0.21471278
139	0x3e70ba46	0.23508558
140	0xbe87b4af	-0.26505038
141	0xbe56ddf0	-0.209831
142	0x3e3b84a6	0.1831232
143	0xbdcd317c	-0.10019204
144	0x3e54307a	0.20721617
145	0xbe28ec96	-0.164965
146	0xbceaeed0	-0.028678328
147	0xbb22e880	-0.002485782
148	0xbe6d20b0	-0.23157
149	0xbe5ba466	-0.21449432
150	0xbe60abcb	-0.21940534
151	0x3d8f8c60	0.07009196
152	0xbe8f3ff6	-0.27978486
153	0xbdf44445	-0.11927084
154	0x3f58dd8f	0.8471307
155	0x3d35aeb2	0.044356056
156	0xbe6f3910	-0.23361611
157	0xbd26c8f5	-0.04071899
158	0xbdb4248d	-0.08796034
159	0x3e806d61	0.2508345
160	0xbee4c525	-0.4468166
161	0x3d7e184e	0.062034898
162	0xbda0f6ca	-0.07859571
163	0x3e9c4a7c	0.30525577
164	0xbd401446	-0.046894334
165	0x3eb92506	0.3616106
166	0xbe972488	-0.2952006
167	0x3eb0fa3f	0.34565923
168	0x3e87f98a	0.2655757
169	0x3e81a8fa	0.2532423
170	0x3e972535	0.29520574
171	0xbe34c556	-0.17653403
172	0x3e99ee8d	0.30064812
173	0xbe7c2fee	-0.24627659
174	0x3d862b70	0.06551254
175	0x3e4dce0a	0.20098129
176	0xbd5c5b58	-0.05379805
177	0x3df11344	0.11771253
178	0x3e62d926	0.22153148
179	0xbe1891c3	-0.14899354
180	0xbcc20d3a	-0.023687948
181	0x3c916c04	0.017751701
182	0x3e5a5767	0.21322404
183	0x3df62529	0.120188065
184	0xbb750148	-0.0037384797
185	0xbfa8f168	-1.3198671
186	0xbe34789f	-0.17624138
187	0x3e2e4d37	0.17021643
188	0x3d21d74a	0.039511956
189	0x3ea3d3b9	0.3199747
190	0x3e66c542	0.22536185
191	0xbe5020b3	-0.20324974
192	0x3e7c9302	0.24665454
193	0x3e54f56a	0.20796743
194	0xbe90064b	-0.281298
195	0xbe1a3258	-0.15058267
196	0x3e660c8a	0.22465721
197	0xbd96100c	-0.073272794
198	0x3ee7ad81	0.4524956
199	0x3ef037e6	0.46917647
200	0xbdb0a240	-0.08624697
201	0x3e8467b5	0.25860372
202	0x3d683615	0.0566922
203	0xbc04d1f7	-0.0081067
204	0x3eb47906	0.35248584
205	0x3e1d9584	0.15389067
206	0x3dc8a976	0.09797947
207	0x3e8e7159	0.27820852
208	0xbd73ee18	-0.059553236
209	0xbe3d83bb	-0.18507282
210	0x3d44e640	0.048071146
211	0x3e364436	0.17799458
212	0xbc9eebf0	-0.019399613
213	0x3e57737a	0.21040145
214	0xbd7c32d8	-0.061571926
215	0xbdd6249c	-0.104562014
216	0xbd38aac4	-0.04508473
217	0xbe43def6	-0.19128022
218	0xbde11f87	-0.109923415
219	0xbbac988d	-0.005267209
220	0x3e59f576	0.21285042
221	0x3edc7a11	0.4306188
222	0xbd619bb0	-0.055080116
223	0x3e0dc213	0.13843565
224	0xbe1c772f	-0.1527984
225	0x3e26f744	0.16305262
226	0x3d71d096	0.059036814
227	0x3d1bb251	0.038011853
228	0xbe13adcd	-0.14421768
229	0xbd4d717a	-0.050157048
230	0xc00ff480	-2.249298
231	0x3d372058	0.04470858
232	0x3db7aab5	0.08968107
233	0x3d5679d0	0.052362263
234	0x3e8183ef	0.2529597
235	0x3eedfed5	0.46483484
236	0xbe927551	-0.2860513
237	0x3f1ad408	0.60479784
238	0xbcd2da5d	-0.02573889
239	0x3f056efc	0.52122474
240	0x3ebf681e	0.37384123
241	0x3e6b20ee	0.2296178
242	0xbde7454f	-0.112925164
243	0xbd5c8a80	-0.05384302
244	0xbde13ad5	-0.109975494
245	0x3e84c2c7	0.25929853
246	0x3f39eafc	0.7262418
247	0xbe4b974e	-0.19881937
248	0x3e9f5071	0.3111606
249	0x3eac4322	0.33644968
250	0x3ebe0c0e	0.37118572
251	0x3d9c6e25	0.07638196
252	0x3da25fb4	0.0792841
253	0xbe9af2a4	-0.30263245
254	0xbc101e20	-0.008796245
255	0x3dd4da40	0.103931904

fc1.bias f4 [64]
0	0xbf87d50e	-1.0611894
1	0xbe20a57a	-0.15688124
2	0xbeb5d56a	-0.35514385
3	0x4002a893	2.041539
4	0xbe6fdc5e	-0.23423907
5	0xbe9dd6ab	-0.3082784
6	0xbf3a9479	-0.728828
7	0x3fdb7bc1	1.7147142
8	0x3e7b8c47	0.2456523
9	0xbe4347ad	-0.19070311
10	0x4031239e	2.767799
11	0xbda569bc	-0.08076808
12	0x3ef972c2	0.48720366
13	0x3f959e95	1.168902
14	0x3e302e48	0.17205155
15	0xbe92b4c8	-0.2865355
16	0xbd9791f0	-0.07400882
17	0x3f660ce7	0.8986344
18	0xbd7c8e11	-0.061658923
19	0x3e552126	0.20813426
20	0x3fe3573d	1.7760998
21	0x3e943a5f	0.28950784
22	0x3ed68665	0.4189941
23	0x3e236d40	0.15959644
24	0x3db2d742	0.087324634
25	0x402929c3	2.643174
26	0xbe61a2b2	-0.2203472
27	0xbfc07111	-1.5034505
28	0xbdcdd6ac	-0.10050711
29	0x404b3bd0	3.1755257
30	0xbe8339d2	-0.2563005
31	0xbe83a160	-0.25709057
32	0xbedbdad3	-0.42940387
33	0x3ea7130a	0.32631713
34	0x3f4b8ac4	0.79508615
35	0xbe8464bc	-0.25858104
36	0x3f27004d	0.65234834
37	0x3e996428	0.29959226
38	0xbe5ac688	-0.21364796
39	0xbf33fcc3	-0.7030756
40	0xbf8ec3b2	-1.1153471
41	0xbe89fdba	-0.2695139
42	0x3e8025d9	0.25028875
43	0xbeff1f2e	-0.49828476
44	0xbd1370d8	-0.035996288
45	0x3e929a6a	0.28633434
46	0xbcd49495	-0.025949756
47	0x3bec9ab7	0.007220592
48	0xbe885eee	-0.26634926
49	0xbf2b81aa	-0.66994727
50	0x3f0eb75a	0.5574852
51	0x3e99c9e0	0.3003683
52	0xbdab7350	-0.083716035
53	0xbe4e02bb	-0.20118229
54	0x3e28d3d8	0.16487062
55	0xbfe91f89	-1.8212749
56	0xbf603961	-0.87587553
57	0xbfbe5ab9	-1.4871436
58	0x3f081287	0.5315327
59	0x3f568581	0.8379746
60	0x3f012928	0.50453424
61	0x3e49005f	0.19629048
62	0x3e0932a7	0.13398229
63	0xbe73ecfc	-0.23820871

fc2.weight f4 [64, 64]
0	0x3d743ea3	0.059630048
1	0xbee546c3	-0.4478055
2	0x3d990f3d	0.074736096
3	0x3e3a4530	0.18190455
4	0xbddb62de	-0.10712217
5	0x3dba2110	0.090883374
6	0xbec82849	-0.39093235
7	0x3e32f716	0.17477068
8	0x3d2f8acd	0.04285698
9	0xbddbe809	-0.107376166
10	0x3f11ece2	0.5700208
11	0xbd245354	-0.04011853
12	0x3e191da7	0.14952718
13	0x3d8021d3	0.062564515
14	0xbe9e61a1	-0.3093386
15	0x3c3358a0	0.010946423
16	0x3dcca124	0.09991673
17	0x3dcab768	0.09898263
18	0xbe3b1f3c	-0.18273634
19	0xbd13f5b4	-0.036122993
20	0x3e442537	0.19154821
21	0x3d6e61e4	0.058198825
22	0x3ca08091	0.019592555
23	0xbc3bbb90	-0.011458293
24	0x3d561bb6	0.05227252
25	0x3f335fc1	0.70067984
26	0xbddfaec7	-0.10922008
27	0xbede46bd	-0.43413344
28	0x3da62ebc	0.081143826
29	0x3f13750a	0.5760046
30	0x3de5f489	0.11228282
31	0x3db4a722	0.088209406
32	0xbe0b2145	-0.1358691
33	0x3c7c816e	0.015411718
34	0xbce7cb56	-0.0282952
35	0xbd2f5b8f	-0.042811926
36	0x3db13393	0.08652415
37	0xbdaf5de8	-0.08562833
38	0x3e8c1bce	0.27364963
39	0xbe0740db	-0.13208334
40	0xbe408563	-0.18800883
41	0xbb99552e	-0.0046793437
42	0xbdb928a0	-0.09040952
43	0x3d4c91f1	0.049943868
44	0x3f0d305f	0.55151933
45	0x3dbbd3d0	0.091712594
46	0xbdc4785d	-0.0959327
47	0x3d7a68fc	0.061135277
48	0xbdc11788	-0.09428316
49	0xbe14d974	-0.14536077
50	0x3d846fb3	0.064666174
51	0x3e8dc006	0.27685565
52	0xbd620620	-0.055181623
53	0x3d36bc0d	0.044612933
54	0x3e0d214e	0.13782236
55	0xbe31edaa	-0.17375818
56	0xbdf88acc	-0.121358484
57	0xbe59a3f9	-0.21253957
58	0xbc197149	-0.009365388
59	0xbd793eca	-0.060850896
60	0xbeb27ec3	-0.34862337
61	0xbd1001f6	-0.03515812
62	0xbedcf17e	-0.43152994
63	0x3d98c332	0.074591056
64	0xbd720bd5	-0.059093315
65	0x3cadffde	0.021240171
66	0xbb140f8a	-0.002259227
67	0xbc7c2053	-0.015388566
68	0xbcbbaff0	-0.022911042
69	0x3d81a735	0.0633072
70	0x3c70590a	0.014669666
71	0xbdd708fe	-0.10499762
72	0x3e569575	0.20955451
73	0x3ec9fc59	0.39450338
74	0x3f450e08	0.76974535
75	0x3d7f8722	0.062384732
76	0xbe910bc5	-0.28329292
77	0x3e0be987	0.13663302
78	0x3e81fd27	0.25388452
79	0xbd4bb168	-0.049729735
80	0x3dc1061c	0.094249934
81	0x3de64195	0.112429775
82	0xbe0f628a	-0.14002433
83	0xbc961018	-0.018318221
84	0x3e4f48e3	0.20242648
85	0xbdf8d83e	-0.1215062
86	0x3de2a7ee	0.11067186
87	0x3dbdf75c	0.09275696
88	0x3e18d3e5	0.14924581
89	0x3e5cc900	0.2156105
90	0x3e6746ba	0.22585574
91	0xbe665c28	-0.22496092
92	0x3db63214	0.088962704
93	0x3f089852	0.5335742
94	0xbe6d94da	-0.23201314
95	0xbcc24eb0	-0.023719162
96	0x3e42e448	0.19032395
97	0x3c51318b	0.01276816
98	0x3e42ef6a	0.19036642
99	0xbda01f06	-0.07818417
100	0xbc3bd8d7	-0.011465273
101	0x3d878398	0.066168964
102	0xbdd7a61a	-0.10529728
103	0xbdeae1d0	-0.114688516
104	0x3d92d582	0.0716963
105	0x3ebc8e82	0.36827475
106	0xbd845fd6	-0.06463592
107	0x3e4128f9	0.18863286
108	0xbd6609ae	-0.056161575
109	0x3c1500e3	0.00909445
110	0xbd571f2e	-0.05251997
111	0x3ec5cf46	0.386347
112	0x3d01f660	0.031729102
113	0xbe769bf9	-0.24082936
114	0x3cce06f6	0.025149804
115	0x3ec3b651	0.38225034
116	0xbdb4b528	-0.08823615
117	0x3db5f10e	0.08883868
118	0xbe359107	-0.17731105
119	0xbe5a9025	-0.2134405
120	0xbe8a0cae	-0.269628
121	0xbe9faeaf	-0.3118796
122	0x3c7d629b	0.015465404
123	0x3e177828	0.1479193
124	0x3da9127a	0.08255477
125	0xbe92ec33	-0.2869583
126	0xbd1a164d	-0.037618924
127	0x3e40303e	0.18768403
128	0xbdd31e3e	-0.103085026
129	0xbd2e2649	-0.04251698
130	0x3e15b2ae	0.14618942
131	0xbeb862a9	-0.36012772
132	0x3db291d8	0.08719224
133	0x3ca28546	0.01983894
134	0x3e1797ae	0.14803955
135	0x3e306d79	0.1722926
136	0x3de8621a	0.113468364
137	0xbeef52a4	-0.46742737
138	0xbf45476b	-0.770621
139	0x3d9e3e66	0.07726745
140	0x3da8908e	0.082306966
141	0xbd45b537	-0.048268523
142	0xbe71720a	-0.23578659
143	0xbc9800e8	-0.01855512
144	0x3dceb36e	0.10092817
145	0x3ca56f8d	0.020194793
146	0x3dda54c4	0.10660699
147	0xbd584b94	-0.052806452
148	0xbf7beb23	-0.98405665
149	0x3cd67308	0.026177898
150	0x3dc6795f	0.096911184
151	0xbd828346	-0.06372695
152	0xbf2a75e0	-0.6658611
153	0xbf18f1cf	-0.5974397
154	0xbe9dd446	-0.30826014
155	0xbc0001a3	-0.00781289
156	0xbc156f10	-0.009120718
157	0xbf3b4774	-0.73155904
158	0x3de48625	0.111583985
159	0xbca2ccf8	-0.019873127
160	0x3ddaa317	0.10675638
161	0x3d8a9855	0.06767336
162	0x3e18eef6	0.14934906
163	0xbe8219ea	-0.25410396
164	0x3e306b70	0.17228484
165	0xbe3c8a6b	-0.18412177
166	0xbe01e58a	-0.12685218
167	0x3df6fff8	0.12060541
168	0xbd3cc095	-0.046082098
169	0xbec56d2d	-0.38559857
170	0x3c518e30	0.012790248
171	0xbec84298	-0.39113307
172	0xbe45ac08	-0.19303906
173	0x3c7e111d	0.01550701
174	0x3c13b381	0.009014965
175	0x3e92eded	0.28697148
176	0x3d7ac024	0.061218396
177	0x3de97277	0.113987856
178	0x3e294af4	0.16532499
179	0xbe711e29	-0.23546661
180	0xbdb2b634	-0.08726159
181	0xbdf8ea63	-0.12154081
182	0xbec798bb	-0.38983712
183	0x3d359cb3	0.044338893
184	0xbeb0e140	-0.34546852
185	0x3d8cd93d	0.068773724
186	0xbdd378c2	-0.10325767
187	0x3e442ab4	0.19156915
188	0xbca24ffd	-0.019813532
189	0x3c0416ee	0.0080621075
190	0x3e87a172	0.2649036
191	0x3d3afea7	0.04565301
192	0x3d5d1e80	0.053984165
193	0xbe71f37d	-0.2362804
194	0xbbafa0dd	-0.0053597526
195	0x3e20a0bb	0.15686314
196	0xbdd9a1f4	-0.10626593
197	0xbe2f83c0	-0.17140102
198	0x3c9eb6eb	0.019374331
199	0xbe462686	-0.19350633
200	0xbe06f585	-0.13179596
201	0x3c90689e	0.01762801
202	0x3f4ce507	0.8003697
203	0xbda9318f	-0.08261406
204	0xbdd2bcd6	-0.10289924
205	0x3e52a139	0.20569314
206	0xbd82e27d	-0.063908555
207	0x3dad6066	0.08465652
208	0x3c0b84d0	0.008515552
209	0xbd29c3a4	-0.041446343
210	0xbdb16aef	-0.08662974
211	0x3d8da964	0.06917074
212	0x3e5610d3	0.20904855
213	0x3da9e424	0.082954675
214	0xbc6c9022	-0.014438661
215	0x3c9887b8	0.018619403
216	0x3df1dc46	0.11809592
217	0x3f657b5d	0.8964136
218	0xbde699d5	-0.1125981
219	0xbed9174a	-0.4240058
220	0xbdc89e90	-0.097958684
221	0x3f17f960	0.5936489
222	0x3d80c182	0.06286909
223	0xbdc4f4b8	-0.09616989
224	0xbedb6005	-0.42846695
225	0xbdb569a5	-0.08858041
226	0x3aa5c3c1	0.001264684
227	0xbc707e18	-0.014678501
228	0x3d2fb613	0.04289825
229	0xbd5e72b6	-0.054308616
230	0x3e65e34d	0.2244999
231	0x3d636163	0.055512797
232	0x3d44c744	0.048041597
233	0xbd9f8586	-0.077891394
234	0xbdeadbc4	-0.11467698
235	0x3e195308	0.1497308
236	0x3e817d71	0.25291017
237	0xbdaa4c10	-0.08315289
238	0x3dc73984	0.09727767
239	0xbca99818	-0.020702407
240	0xbdba13f2	-0.090858355
241	0xbe20dab9	-0.15708436
242	0x3b2fa7c6	0.0026802882
243	0x3e831245	0.25599876
244	0x3dfb1052	0.12258972
245	0xbd93be50	-0.072140336
246	0x3e965315	0.29360262
247	0xbe96fbc9	-0.29488972
248	0xbc60405e	-0.013687221
249	0xbdf89426	-0.12137632
250	0xbd9deb7a	-0.07710929
251	0xbe1124da	-0.14174214
252	0xbe0a3c1f	-0.13499497
253	0xbe195395	-0.1497329
254	0xbea967f3	-0.3308712
255	0x3e2dc06f	0.16967939

fc2.bias f4 [64]
0	0x3fdab98a	1.7087872
1	0x3fc9f7a1	1.5778695
2	0x3ef5893f	0.47956273
3	0x3fdd6d33	1.729895
4	0xbc9ea3e6	-0.019365262
5	0x3dcb0018	0.09912127
6	0x3d9a9d1a	0.07549496
7	0xbe240f8d	-0.16021557
8	0x3fe6e341	1.8038102
9	0x3f795a78	0.9740367
10	0xbf08240a	-0.5317999
11	0x3e13a9fc	0.14420313
12	0xbf9fe54a	-1.2491848
13	0xbd944bb0	-0.07240999
14	0x3f12661d	0.5718706
15	0x3f259672	0.64682686
16	0x3f5ed672	0.8704597
17	0x3f687f6e	0.9081944
18	0x3f7b2aa2	0.9811193
19	0x3d424c6c	0.047436163
20	0x3c9b4b6d	0.018956864
21	0xbe05fe27	-0.13085233
22	0xbdb5abe1	-0.08870674
23	0xbe41fb60	-0.18943548
24	0x3fd54591	1.6661855
25	0xbe2e720d	-0.17035694
26	0x3f0698c3	0.52576846
27	0xbd95b6bb	-0.07310244
28	0xbd0ec638	-0.034857005
29	0xbbb560ad	-0.0055352063
30	0x3f89ef48	1.0776148
31	0x3d1d44ab	0.038395565
32	0x3f2149d6	0.6300329
33	0x3dccbd12	0.09997
34	0xbf069b40	-0.5258064
35	0x3f70dacb	0.9408385
36	0x3f0b0acb	0.54313344
37	0x3e3281af	0.17432283
38	0xbd80b37e	-0.062842354
39	0xbe9de6a4	-0.30840027
40	0x3de05270	0.10953224
41	0x3dbddc7f	0.09270572
42	0xbe16c7d4	-0.14724666
43	0xbe035edf	-0.12829159
44	0xbcf66be8	-0.03008075
45	0xbda1c009	-0.07897956
46	0x3f594f01	0.84886175
47	0xbce9a477	-0.028520806
48	0x3f193731	0.5984984
49	0x3f67273c	0.9029424
50	0xbd5de426	-0.054172657
51	0x3f2107ab	0.62902325
52	0x3fad6039	1.354499
53	0xbea210df	-0.31653497
54	0x3e571b0a	0.21006408
55	0xbd1cce65	-0.03828277
56	0x3f36f33b	0.7146489
57	0x3f237464	0.63849473
58	0x3cc78bbd	0.024358625
59	0xbc5df500	-0.013547182
60	0x40254c0f	2.5827672
61	0xbdc865ad	-0.09785018
62	0x3e8de91a	0.27716905
63	0xbe204511	-0.15651347

fc3.weight f4 [20, 64]
0	0xbcfc6e0a	-0.03081419
1	0xbd256468	-0.040378958
2	0x3e5034fc	0.20332712
3	0xbd9b7f3d	-0.07592628
4	0xbbdd3517	-0.0067507136
5	0x3d7dc9c8	0.06196001
6	0x3d7e9508	0.062153846
7	0xbe5aa7c1	-0.21353056
8	0xbda89673	-0.08231821
9	0xbd0ab448	-0.033863336
10	0x3e63388e	0.22189543
11	0x3afa2a10	0.0019086022
12	0x3db4b7e0	0.08824134
13	0xbd79290b	-0.060830157
14	0x3e87b204	0.26503003
15	0x3e5e41ba	0.2170476
16	0x3d9dadec	0.076991886
17	0x3d524ba2	0.05134166
18	0x3e864abf	0.26228902
19	0x3dfc65f2	0.12324132
20	0x3dcb815d	0.099367835
21	0xbd8ba1b4	-0.06817952
22	0xbc280bc0	-0.010256708
23	0xbd471771	-0.04860634
24	0xbe332903	-0.17496113
25	0xbb9769dc	-0.0046207737
26	0x3e37c9b6	0.1794804
27	0xbd83524e	-0.06412183
28	0x3d0fc317	0.03509816
29	0xbd777fde	-0.060424678
30	0x3d2c7efe	0.042113297
31	0xbd74011f	-0.05957138
32	0x3e862749	0.26201847
33	0xbd1c0018	-0.038086027
34	0x3e60d501	0.21956255
35	0x3ce79bd3	0.028272545
36	0x3eb36638	0.35038924
37	0x3e921d59	0.28538015
38	0x3d56e731	0.052466575
39	0x3e7d121f	0.24713944
40	0xbdfc42c2	-0.123174205
41	0x3db5f2be	0.0888419
42	0xbbe481a5	-0.0069734626
43	0xbd78634c	-0.060641572
44	0xbc50c2d5	-0.012741764
45	0x3eb8be4f	0.36082694
46	0x3e9dbba4	0.3080722
47	0xbd9b692e	-0.07588421
48	0x3c7572ce	0.014980985
49	0xbd69518a	-0.056962527
50	0xbddc48e1	-0.10756088
51	0x3e4e2e3a	0.20134822
52	0xbe0774d1	-0.13228156
53	0xbdb6ee41	-0.08932162
54	0x3be8045a	0.007080597
55	0xbc18bf6f	-0.009322985
56	0xbc34cad7	-0.011034689
57	0x3c4ac6c5	0.012376492
58	0xbb8c2000	-0.0042762756
59	0x3d4b3220	0.04960835
60	0xbdee33d8	-0.11630982
61	0x3db7e476	0.08979122
62	0x3e2463e7	0.16053735
63	0x3d4d6125	0.050141472
64	0xbdfb3dbf	-0.122676365
65	0x3e2da795	0.16958459
66	0x3ebdc675	0.37065473
67	0xbd9df38f	-0.07712471
68	0x3df51a83	0.11967947
69	0x3bb1adf0	0.0054223463
70	0xbd330380	-0.04370451
71	0x3ec8fa88	0.3925364
72	0xbe1eecb1	-0.15519978
73	0x3e141fae	0.1446521
74	0x3e688347	0.22706328
75	0x3d56d8e1	0.052452926
76	0x3e076c96	0.13225016
77	0xbe1e4767	-0.15456925
78	0x3e59707b	0.21234314
79	0x3e2a1c30	0.16612315
80	0x3dd33819	0.10313434
81	0x3d8557d1	0.0651089
82	0x3e986c7e	0.29770273
83	0x3dc9407c	0.098267525
84	0xbda682d2	-0.08130421
85	0xbd55e863	-0.052223574
86	0x3d93215c	0.07184097
87	0x3d175def	0.036954816
88	0x3c6e4265	0.014542197
89	0x3bca17fc	0.00616741
90	0x3e2294cd	0.15877075
91	0xbdb45892	-0.08805956
92	0xbd64e88a	-0.05588583
93	0xbc8af995	-0.016964713
94	0x3cafe91c	0.02147346
95	0xbc8e8721	-0.017398419
96	0x3df4a4a7	0.119454674
97	0xbb1f4a51	-0.002430577
98	0x3e7bf8b2	0.24606588
99	0x3d57fb9b	0.052730184
100	0x3eb2786d	0.34857503
101	0x3e88dec1	0.26732448
102	0xbd2a156c	-0.041524336
103	0x3ea5df01	0.323967
104	0x3cd2133e	0.025643941
105	0xbc9c9b47	-0.01911701
106	0xbe4d9ad3	-0.20078592
107	0xbda584f2	-0.08081998
108	0xbda6151b	-0.08109494
109	0x3e78a8e9	0.24283184
110	0x3eb649c3	0.3560315
111	0x3dbefed4	0.09325948
112	0x3dfaf51a	0.12253781
113	0xbc0e7634	-0.008695174
114	0xbd8ee05f	-0.06976389
115	0x3d7ce5dc	0.06174265
116	0xbe9839a3	-0.29731473
117	0x3d6060cc	0.054779813
118	0x3e13ece3	0.14445834
119	0xbdfc7e07	-0.12328725
120	0x3cf7b7a6	0.030238938
121	0x3d9818ed	0.07426629
122	0x3d1aeb38	0.03782198
123	0xbd2d3a88	-0.042292148
124	0xbe4f1ed6	-0.20226607
125	0x3ccc5c88	0.024946466
126	0x3e0c0dfb	0.13677208
127	0xbd526e8d	-0.05137496
128	0xbce3d82f	-0.027813045
129	0xbd9fb567	-0.077982716
130	0x3e73efe6	0.23821983
131	0x3c07bd02	0.008284809
132	0xbcbdecdf	-0.023184238
133	0xbd73a726	-0.059485577
134	0x3de392e2	0.11112
135	0xbe7cfece	-0.24706575
136	0x3c446d4a	0.011988947
137	0x3c42aaff	0.011881589
138	0x3e905325	0.28188434
139	0xbe5b380e	-0.21408102
140	0x3e48c836	0.19607624
141	0xba536567	-0.00080641214
142	0x3d964524	0.07337406
143	0x3e1e665c	0.15468735
144	0x3dafe8d6	0.08589332
145	0x3dc984e5	0.09839801
146	0x3e318ea7	0.17339574
147	0xbdc9596c	-0.09831509
148	0xbd9b513c	-0.075838536
149	0xbe744730	-0.23855281
150	0x3dc0da92	0.09416689
151	0x3e5ddea3	0.2166696
152	0xbda87864	-0.08226088
153	0x3e313801	0.1730652
154	0x3e24f474	0.16108876
155	0xbd3f52b4	-0.04670973
156	0x3da2b8ac	0.079453796
157	0x3decc67a	0.11561294
158	0x3e185057	0.14874397
159	0xbdb8285b	-0.08992072
160	0x3c7490ef	0.014927133
161	0xbdd2d942	-0.10295345
162	0x3e4d6010	0.20056176
163	0x3dbb67b2	0.09150638
164	0x3eb6d64c	0.3571037
165	0x3e9c825d	0.3056821
166	0x3e45679e	0.19277808
167	0x3e0e5fe5	0.13903768
168	0xbda01fa8	-0.07818538
169	0xbcf5dabf	-0.030011533
170	0xbeb9d8bc	-0.36298168
171	0x3b4ae8bf	0.0030961481
172	0x3dcfb97d	0.10142801
173	0x3ea3139d	0.318509
174	0x3ddc6ac8	0.107625544
175	0xbc7bd94c	-0.015371632
176	0x3cf8055f	0.030275999
177	0x3c09a0d9	0.0084001655
178	0x3ccd1a30	0.025036901
179	0x3e818014	0.25293028
180	0xbe64e67d	-0.2235355
181	0x3e05841e	0.1303868
182	0xbeb518ea	-0.3537057
183	0x3e079c70	0.1324327
184	0x3d06cbae	0.032909088
185	0xbc165a3b	-0.009176786
186	0xbdc062ba	-0.093938306
187	0x3cfda0c0	0.03096044
188	0xbde93fdd	-0.11389134
189	0xbd613081	-0.054977898
190	0x3e00aaa0	0.12565088
191	0x3e3444a4	0.1760431
192	0xbded3b10	-0.11583531
193	0xbe14a684	-0.14516646
194	0x3e4515a2	0.19246534
195	0xbd880653	-0.06641831
196	0xbe540d22	-0.20708135
197	0x3e001b35	0.12510379
198	0x3d2baa04	0.041910186
199	0x3e336aaa	0.17521158
200	0xbdd3c600	-0.103405
201	0x3dc3add3	0.09554639
202	0x3ea5f7bc	0.3241557
203	0xbdee66c3	-0.11640694
204	0x3e463a27	0.19358121
205	0xbe5257c0	-0.20541286
206	0xbe0fa852	-0.14029053
207	0xbdaae5e4	-0.083446294
208	0x3e1e501e	0.1546025
209	0xbd10baed	-0.035334516
210	0x3cb7cc32	0.022436235
211	0xbd26f6b0	-0.040762603
212	0xbdd62123	-0.10455539
213	0xbe2f64c5	-0.17128284
214	0x3d1bb65c	0.03801571
215	0xbe42b690	-0.19014955
216	0xbbe6ee36	-0.00704744
217	0xbdda6387	-0.106635146
218	0x3e4791c7	0.19489203
219	0x3df0a5d8	0.11750382
220	0x3dd16f75	0.10226337
221	0xbe0ce89b	-0.13760607
222	0x3d81512c	0.063143104
223	0xbd2d1099	-0.042252157
224	0xbcb67c65	-0.022276113
225	0xbd94ff84	-0.07275298
226	0x3e2265c0	0.15859127
227	0x3d5fa9fd	0.054605473
228	0x3ed0d373	0.40786323
229	0x3e20b1c5	0.15692814
230	0x3e1d0f37	0.15337835
231	0x3e5e16c7	0.21688376
232	0xbd8d1cf6	-0.068902895
233	0x3e01f401	0.12690736
234	0x3dc56db6	0.09640066
235	0xbc69ef10	-0.014278188
236	0x3d8c3725	0.068464555
237	0x3ea63f10	0.32469988
238	0xbda1a27d	-0.0789232
239	0xbcf35e37	-0.029708011
240	0x3d121931	0.035668556
241	0x3d848c67	0.06472092
242	0x3c222e48	0.00989873
243	0x3dc2e924	0.09517124
244	0xbd9d4c34	-0.0768055
245	0xbd9d550f	-0.07682239
246	0xbc5b1cde	-0.013373582
247	0xbc9c9a59	-0.019116567
248	0x3db95a99	0.09050483
249	0xbd02f3fe	-0.03197097
250	0xbd4b89b8	-0.049691886
251	0x3d23a58c	0.0399528
252	0xbded89f6	-0.115985796
253	0x3d60fa74	0.05492635
254	0x3e0a67b7	0.13516127
255	0xbe357da2	-0.17723706

fc3.bias f4 [20]
0	0x3f07a0c5	0.5297969
1	0x3e997d2e	0.29978317
2	0x3d0257e4	0.0318221
3	0xbe0ad32f	-0.13557123
4	0xbd86a066	-0.06573562
5	0xbc3e3e60	-0.011611551
6	0xbe8c9310	-0.2745595
7	0xbf00c5ee	-0.50302017
8	0xbe4ab101	-0.19794084
9	0xbee61a84	-0.44942105
10	0xbe02a6b4	-0.12758905
11	0xbeb4ac6e	-0.35287803
12	0xbf05e95f	-0.5230922
13	0xbecb6acb	-0.39729914
14	0xbe005634	-0.12532884
15	0xbf29a8ab	-0.6627299
16	0xbf175808	-0.591187
17	0xbedfaeae	-0.43687958
18	0xbf6255f4	-0.88412404
19	0xbf1bfc1e	-0.60931575

fc1.weight f4 [64, 9]
0	0xbdc6ac88	-0.097008765
1	0x3e70a543	0.23500542
2	0x3c6402c3	0.013916674
3	0x3e5ce493	0.21571569
4	0x3f023408	0.50860643
5	0xbe894bd5	-0.26815668
6	0x3e044391	0.129164
7	0x3e18b9e7	0.14914666
8	0x3d361b21	0.044459466
9	0xbc276f37	-0.010219387
10	0x3e746285	0.23865707
11	0x3e4021ba	0.18762866
12	0xbba6eb61	-0.0050939773
13	0xbe4845e8	-0.19557917
14	0x3d12a5f6	0.035802804
15	0x3ecca540	0.39969826
16	0x3c19c924	0.009386335
17	0xbec551f8	-0.385391
18	0xbdc0f6d3	-0.09422078
19	0x3e42260c	0.18959826
20	0x3e100b5c	0.14066833
21	0xbf09e209	-0.5386053
22	0xbea66cf5	-0.32505003
23	0x3e998874	0.29986918
24	0x3e0e2815	0.13882478
25	0xbe72de0e	-0.2371752
26	0x3e00e4da	0.125873
27	0x3db6e461	0.089302786
28	0x3e0241cf	0.12720416
29	0x3d992f19	0.07479686
30	0xbe0a9da9	-0.13536705
31	0xbeb82ca9	-0.35971573
32	0xbfbfb4a3	-1.4977001
33	0xbdaf5f61	-0.08563114
34	0xbd062564	-0.032750502
35	0x3d643c6b	0.05572168
36	0xbe0df293	-0.13862066
37	0x3e83daf1	0.25752977
38	0xbea009d0	-0.31257486
39	0xbd9de9a4	-0.07710579
40	0xbd8fd62c	-0.07023272
41	0xbd5f7e38	-0.05456373
42	0xbe8a2fdb	-0.26989636
43	0xbd6f1200	-0.058366776
44	0xbe14f3a0	-0.1454606
45	0x3eab2f15	0.33434358
46	0x3e31c1e6	0.17359123
47	0xbe7c80f2	-0.24658564
48	0xbe48ce11	-0.19609858
49	0x3d866f91	0.06564248
50	0x3f0024ee	0.5005635
51	0x3eb3dc0a	0.35128814
52	0xbe99f750	-0.30071497
53	0x3e7de93d	0.24796005
54	0xbd31d19c	-0.04341279
55	0x3b3ed1e1	0.0029116797
56	0x3ebdd89f	0.3707933
57	0x3dcedc04	0.101005584
58	0x3e8d948c	0.27652395
59	0xbe80138f	-0.25014922
60	0x3e4bc7df	0.19900464
61	0xbea7b95b	-0.32758602
62	0xbe7cb063	-0.24676661
63	0x3e262282	0.16224101
64	0x3e8eac9e	0.2786607
65	0x3e91333b	0.28359398
66	0x3e6284fb	0.2212104
67	0x3ef1bf0b	0.47216067
68	0xbec2be36	-0.38035744
69	0x3ed9b91a	0.42524034
70	0x3f321c43	0.69574374
71	0xbde823e5	-0.11334971
72	0x3eadc026	0.3393566
73	0x3e33278a	0.17495552
74	0x3e003c67	0.12523042
75	0xbf61898b	-0.881005
76	0xbe8e9c2b	-0.27853522
77	0x3e4bcfb5	0.19903453
78	0x3f0e6c2c	0.5563381
79	0xbf14ca67	-0.5812134
80	0xbc1a2234	-0.009407569
81	0xbe7872eb	-0.24262588
82	0x3e8f8f1a	0.28038865
83	0xbe2006a2	-0.1562753
84	0x3e945e73	0.2897831
85	0x3e8ba47d	0.27273932
86	0x3f132de1	0.5749188
87	0x3ed3c90d	0.41364327
88	0x3e83cf2b	0.25743994
89	0xbe495062	-0.1965957
90	0x3e5a4502	0.21315387
91	0x3f317d25	0.6933158
92	0x3d158bd7	0.036510315
93	0x3de8214a	0.113344744
94	0x3e6bb1ea	0.23017088
95	0xbfd84f29	-1.6899158
96	0x3e91c809	0.28472927
97	0x3da24abf	0.07924413
98	0x3d8161de	0.06317495
99	0xbe0ade9b	-0.1356148
100	0x3e7026fa	0.23452368
101	0x3e859fe8	0.2609856
102	0x3e5318a5	0.2061487
103	0x3d52dff6	0.051483117
104	0x3cbec12e	0.023285475
105	0x3e152026	0.14563045
106	0xbc5f534e	-0.013630701
107	0xbeebd6e9	-0.460624
108	0xbef81af1	-0.48458055
109	0x3f5ae1b3	0.8550064
110	0xbc38e367	-0.011284686
111	0xbe99600d	-0.29956093
112	0xbef61089	-0.4805949
113	0xbd3380b2	-0.043823905
114	0x3e1a3b3d	0.1506166
115	0xbe0c93b1	-0.13728215
116	0x3d2a40c2	0.041565664
117	0x3eb5a84a	0.35479957
118	0xbe7ebb6e	-0.24876186
119	0x3e9bc4d9	0.3042362
120	0x3e34a3a1	0.17640544
121	0x3e457321	0.192822
122	0xbd10e46d	-0.035374094
123	0xbd61e136	-0.05514642
124	0xbe383485	-0.17988785
125	0xbe4bae29	-0.19890656
126	0xbec0cb20	-0.37654972
127	0x3e5946ab	0.21218364
128	0x3e95c348	0.2925055
129	0xbca1e4cb	-0.019762417
130	0xbea66488	-0.32498574
131	0xbbe8b402	-0.0071015367
132	0xbc5972c6	-0.013271993
133	0x3e659f26	0.22423992
134	0xbee49263	-0.44642934
135	0x3e90fe07	0.28318807
136	0x3d44640a	0.047946967
137	0xbe16fb4e	-0.14744303
138	0xbe5bddab	-0.21471278
139	0x3e70ba46	0.23508558
140	0xbe87b4af	-0.26505038
141	0xbe56de92	-0.20983341
142	0x3e3b84a6	0.1831232
143	0xbdcd31fa	-0.10019298
144	0x3e54307a	0.20721617
145	0xbe28ecb3	-0.16496544
146	0xbceaef5b	-0.028678587
147	0xbb22e880	-0.002485782
148	0xbe6d20b0	-0.23157
149	0xbe5ba466	-0.21449432
150	0xbe60abcb	-0.21940534
151	0x3d8f8c86	0.070092246
152	0xbe8f3ff6	-0.27978486
153	0xbdc4bf10	-0.09606755
154	0x3f59191c	0.8480394
155	0x3d6a9a66	0.057276152
156	0xbe43d2d4	-0.19123393
157	0xbce8c594	-0.028414525
158	0xbdc4973c	-0.09599158
159	0x3e8e9101	0.27845004
160	0xbecf0e65	-0.4044067
161	0x3d9fe068	0.07806474
162	0xbda1f117	-0.07907312
163	0x3e96c208	0.2944491
164	0xbd6b9576	-0.057515584
165	0x3ec6afbc	0.3880595
166	0xbe95c1fb	-0.29249558
167	0x3ea7bf0d	0.32762948
168	0x3e8b959c	0.2726258
169	0x3e8f3573	0.27970466
170	0x3e957705	0.29192367
171	0xbe34c556	-0.17653403
172	0x3e99ee8d	0.30064812
173	0xbe7c2fee	-0.24627659
174	0x3d862b70	0.06551254
175	0x3e4dce3a	0.200982
176	0xbd5c5b58	-0.05379805
177	0x3df11344	0.11771253
178	0x3e62d926	0.22153148
179	0xbe1891c3	-0.14899354
180	0xbc9546b4	-0.01822219
181	0x3d37a894	0.044838503
182	0x3e4a5181	0.19757654
183	0x3df888ac	0.12135443
184	0xbb83b51f	-0.004019394
185	0xbfa9a53a	-1.3253548
186	0xbe3535e0	-0.17696333
187	0x3e2f75f7	0.17134844
188	0x3d017721	0.03160775
189	0x3ea3d3ff	0.31997678
190	0x3e66c542	0.22536185
191	0xbe5020b3	-0.20324974
192	0x3e7c930a	0.24665466
193	0x3e54f56a	0.20796743
194	0xbe90064b	-0.281298
195	0xbe1a3258	-0.15058267
196	0x3e660c8a	0.22465721
197	0xbd961083	-0.07327368
198	0x3ee99dba	0.45628148
199	0x3eeecb8f	0.46639678
200	0xbdaa2505	-0.08307842
201	0x3e8c3fc4	0.273924
202	0x3d7dfa47	0.06200626
203	0xbd1eaeb7	-0.03874084
204	0x3eb7c493	0.35892162
205	0x3e2d433f	0.16920184
206	0x3de16b48	0.110067904
207	0x3e8e7159	0.27820852
208	0xbd73ee18	-0.059553236
209	0xbe3d83bb	-0.18507282
210	0x3d44e640	0.048071146
211	0x3e364436	0.17799458
212	0xbc9eebf0	-0.019399613
213	0x3e57737a	0.21040145
214	0xbd7c32d8	-0.061571926
215	0xbdd6249c	-0.104562014
216	0xbd0aba3a	-0.033869006
217	0xbe641141	-0.22272207
218	0xbdcd0661	-0.10010982
219	0xbdb236b9	-0.08701844
220	0x3e65700f	0.22406028
221	0x3ed938d2	0.42426163
222	0xbd3edb89	-0.046596084
223	0x3d682ef9	0.05668542
224	0xbe097cf8	-0.13426578
225	0x3e3f8b2a	0.1870543
226	0x3dd2dcf4	0.1029605
227	0x3ceb4aaf	0.028722135
228	0xbe900190	-0.28126192
229	0xbd7e2b1a	-0.062052824
230	0xc01011ce	-2.2510867
231	0x3d7a1f99	0.06106529
232	0xbd41b96b	-0.04729597
233	0x3d33b986	0.0438781
234	0x3e860ecf	0.26183173
235	0x3ed0caff	0.40779874
236	0xbe8db3c9	-0.27676228
237	0x3efc5ce6	0.49289626
238	0xbc8a86be	-0.016909953
239	0x3f03253b	0.51228684
240	0x3eb4f938	0.3534639
241	0x3df1170f	0.11771976
242	0xbddec6b7	-0.108777456
243	0xbd836f2c	-0.06417689
244	0xbe01ab08	-0.126629
245	0x3e78a578	0.24281871
246	0x3f3ce010	0.7377939
247	0xbe487265	-0.19574888
248	0x3e95bd8a	0.2924617
249	0x3ea9d53c	0.33170497
250	0x3ec3f765	0.38274685
251	0x3d8b0dc7	0.06789737
252	0x3da25fb4	0.0792841
253	0xbe9af2a4	-0.30263245
254	0xbc101e20	-0.008796245
255	0x3dd4daf0	0.103933215

fc1.bias f4 [64]
0	0xbf7065d7	-0.93905395
1	0xbe20d792	-0.15707234
2	0xbe86a211	-0.26295522
3	0x3fe87553	1.8160805
4	0xbe6fdd17	-0.23424183
5	0xbe469e76	-0.19396386
6	0xbf2373f9	-0.63848835
7	0x3fce4eca	1.6117795
8	0x3eacd785	0.33758178
9	0xbe39b265	-0.18134458
10	0x4021f09d	2.5303109
11	0xbda4a936	-0.08040087
12	0x3f0d8d0a	0.55293334
13	0x3f91459c	1.1349368
14	0x3e2ff156	0.17181906
15	0xbe92b520	-0.28653812
16	0xbd9791f0	-0.07400882
17	0x3f786781	0.97032934
18	0x3d0ac9f3	0.033884
19	0x3e552140	0.20813465
20	0x3fc82b17	1.563815
21	0x3e943a5f	0.28950784
22	0x3f079299	0.52958065
23	0x3e236d40	0.15959644
24	0x3dd355c5	0.103190936
25	0x401c72b0	2.4445
26	0xbe5a2445	-0.21302898
27	0xbfb1032e	-1.3829095
28	0xbdcdd6ac	-0.10050711
29	0x403c0a9c	2.9381475
30	0xbe253ce1	-0.16136505
31	0xbe83a1b4	-0.25709307
32	0xbeee76ba	-0.46574956
33	0x3ecb2601	0.39677432
34	0x3f5ddbe4	0.8666365
35	0xbe9571a1	-0.29188254
36	0x3f3f317e	0.74684894
37	0x3ea63ebb	0.32469735
38	0xbe5ac2c1	-0.21363355
39	0xbf1723f6	-0.5903925
40	0xbf849492	-1.035784
41	0xbe7ade0a	-0.24498764
42	0x3e8025d9	0.25028875
43	0xbef5fb55	-0.48043314
44	0xbd138394	-0.036014155
45	0x3ebc5db3	0.36790237
46	0xbccc0d65	-0.02490873
47	0x3cc65b45	0.024213443
48	0xbe885eee	-0.26634926
49	0xbf1055cb	-0.5638091
50	0x3f1de9e4	0.61685014
51	0x3e99b6f3	0.30022392
52	0xbdab7350	-0.083716035
53	0xbe4a9fad	-0.19787474
54	0xbc9eae06	-0.01937009
55	0xbfd511c3	-1.6646045
56	0xbf75bddc	-0.9599283
57	0xbfaeedf2	-1.3666365
58	0x3f0328f1	0.51234347
59	0x3f673baf	0.90325445
60	0x3f07e108	0.53077745
61	0x3e4a9446	0.19783124
62	0x3e08e839	0.13369836
63	0xbe73f3fb	-0.2382354

fc2.weight f4 [64, 64]
0	0x3d0c338b	0.034228843
1	0xbee4e317	-0.44704506
2	0x3d8214ed	0.063516475
3	0x3e161710	0.14657235
4	0xbddb62de	-0.10712217
5	0x3da3f455	0.08005587
6	0xbeba2c5f	-0.36361977
7	0x3e3ef36b	0.18647544
8	0x3cbcbf22	0.023040358
9	0xbddb14c6	-0.106973216
10	0x3f08541c	0.5325334
11	0xbd22917f	-0.039689537
12	0x3d852c40	0.06502581
13	0x3c802271	0.015641423
14	0xbe9e1077	-0.30871937
15	0x3c3358b4	0.010946441
16	0x3dcca171	0.0999173
17	0x3da0fd5c	0.078608245
18	0xbe4458a0	-0.19174433
19	0xbd13f5b4	-0.036122993
20	0x3e2822db	0.16419546
21	0x3d6e622e	0.0581991
22	0x3bcb4557	0.0062033343
23	0xbc3bbb90	-0.011458293
24	0x3d5605f9	0.05225179
25	0x3f229030	0.6350126
26	0xbddf3ceb	-0.10900291
27	0xbeded7fc	-0.43524158
28	0x3da62ebc	0.081143826
29	0x3f0cc162	0.5498258
30	0x3dc72d57	0.09725445
31	0x3db4a722	0.088209406
32	0xbd6a47fa	-0.05719755
33	0xba3a16fb	-0.0007098761
34	0xbd5d2417	-0.053989496
35	0xbd6fdec2	-0.058562048
36	0x3d8a7ed2	0.0676247
37	0xbdaecfbb	-0.08535715
38	0x3e8bae43	0.2728139
39	0xbe1796b7	-0.14803587
40	0xbe38b6d0	-0.18038487
41	0xbb8a3a44	-0.0042183716
42	0xbdb92901	-0.09041024
43	0x3d4cea88	0.050028354
44	0x3f0cedb1	0.5505019
45	0x3da26ac9	0.07930524
46	0xbdc497a1	-0.095992334
47	0x3d89b270	0.067234874
48	0xbdc11788	-0.09428316
49	0xbe1fcd03	-0.1560555
50	0x3d5d0277	0.05395743
51	0x3e8d89af	0.27644107
52	0xbd620620	-0.055181623
53	0x3c871d00	0.01649332
54	0x3df969ec	0.12178406
55	0xbe3cb71f	-0.1842923
56	0xbe09fe9f	-0.13476036
57	0xbe61b910	-0.22043252
58	0xbd46aeb7	-0.048506465
59	0xbd9b45a1	-0.0758164
60	0xbe5a407d	-0.21313663
61	0xbcf4490f	-0.029819993
62	0xbedc79e5	-0.43061748
63	0x3d97e570	0.074168086
64	0xbdaf8907	-0.08571058
65	0x3cabb49d	0.020960147
66	0x3cd4210f	0.02589467
67	0x3ce69657	0.02814786
68	0xbcbbaff0	-0.022911042
69	0x3d8a3491	0.067483075
70	0xbde19580	-0.11014843
71	0xbdfd9325	-0.12381581
72	0x3e5c20c6	0.21496877
73	0x3ec7a650	0.38994074
74	0x3f401396	0.75029886
75	0x3d7f5659	0.062338207
76	0xbe1446bd	-0.1448011
77	0x3da56828	0.08076507
78	0x3e81bb2a	0.25338107
79	0xbd4bb168	-0.049729735
80	0x3dc1061c	0.094249934
81	0x3e0281f0	0.1274488
82	0xbdf6a005	-0.1204224
83	0xbc961083	-0.01831842
84	0x3e6895f8	0.22713459
85	0xbdf8d83e	-0.1215062
86	0x3dacefba	0.08444162
87	0x3dbdf77d	0.0927572
88	0x3e10d2ef	0.14142965
89	0x3e80b805	0.25140396
90	0x3e616c3f	0.22013949
91	0xbe51aac8	-0.20475304
92	0x3db63214	0.088962704
93	0x3f05c84d	0.5225876
94	0xbe36332d	-0.1779296
95	0xbcc24eb0	-0.023719162
96	0x3e8b132d	0.27163067
97	0x3cb95abb	0.022626271
98	0x3e389739	0.18026437
99	0xbd691bab	-0.05691115
100	0xbcf1618d	-0.029465461
101	0x3dabed6a	0.083948925
102	0xbdd766dc	-0.10517666
103	0xbde7ea33	-0.11323967
104	0xbcedb480	-0.029016733
105	0x3eac2a24	0.336259
106	0xbd845fd6	-0.06463592
107	0x3e4bd74c	0.19906348
108	0xbd667fd9	-0.05627427
109	0x3cda0e8b	0.026618263
110	0xbd59f74f	-0.053214367
111	0x3ec27ee5	0.37987438
112	0x3d01f660	0.031729102
113	0xbe695963	-0.22788005
114	0x3d215ea7	0.039396908
115	0x3ec35734	0.38152468
116	0xbdb4b528	-0.08823615
117	0x3dbc67e9	0.09199507
118	0xbe215d8e	-0.15758345
119	0xbe59fdc7	-0.21288215
120	0xbe68d9a0	-0.22739267
121	0xbe93a728	-0.28838468
122	0x3cace07b	0.021103134
123	0x3e182cfd	0.14860912
124	0x3dc12c61	0.09432293
125	0xbe468892	-0.19388035
126	0xbd1a4775	-0.037665803
127	0x3e401ebe	0.18761727
128	0xbd85cd9d	-0.06533358
129	0xbd2b9e90	-0.041899264
130	0x3e07f5ab	0.13277309
131	0xbe7ce314	-0.24695998
132	0x3db291d8	0.08719224
133	0x3c0f8b23	0.0087612
134	0x3e286996	0.16446528
135	0x3e477402	0.19477847
136	0x3dd14eb2	0.10220088
137	0xbee67246	-0.4500906
138	0xbf40f60a	-0.75375426
139	0x3d9e938a	0.077429846
140	0x3dee8148	0.11645752
141	0xbd4dddcd	-0.050260354
142	0xbe707f7d	-0.23486133
143	0xbc9800e8	-0.01855512
144	0x3dceb36e	0.10092817
145	0x3d14efa4	0.03636135
146	0x3dca1061	0.09866405
147	0xbd584b94	-0.052806452
148	0xbf6323fc	-0.8872678
149	0x3cd67308	0.026177898
150	0x3ddcff5b	0.10790893
151	0xbd828346	-0.06372695
152	0xbf296aa2	-0.66178334
153	0xbf1929bb	-0.598293
154	0xbe937781	-0.28802112
155	0xbcb08c4a	-0.02155127
156	0xbc156f10	-0.009120718
157	0xbf2c29c2	-0.6725122
158	0x3dbeb149	0.09311158
159	0xbca2ccf8	-0.019873127
160	0x3d4a58de	0.049401157
161	0x3d460e87	0.048353698
162	0x3e09d909	0.13461699
163	0xbe4a61f4	-0.19763929
164	0x3e2a5abd	0.16636176
165	0xbe315a7e	-0.17319676
166	0xbe01d665	-0.12679441
167	0x3e05106c	0.12994546
168	0xbbd6b292	-0.006552049
169	0xbec162fe	-0.37770838
170	0x3c518e30	0.012790248
171	0xbebb9c5d	-0.36642733
172	0xbe45321a	-0.19257393
173	0x3bacff32	0.005279445
174	0x3c14b11b	0.009075428
175	0x3e98c5f9	0.2983854
176	0x3d7ac024	0.061218396
177	0x3dd3e093	0.103455685
178	0x3e1e7d1c	0.15477413
179	0xbe70bd6f	-0.23509763
180	0xbdb2b634	-0.08726159
181	0xbd60a0aa	-0.05484072
182	0xbeb1732f	-0.3465819
183	0x3d276265	0.04086532
184	0xbe84367e	-0.25822824
185	0x3d5f7c60	0.054561973
186	0xbd879ea2	-0.06622054
187	0x3e30cb97	0.17265163
188	0xbd1a9423	-0.03773893
189	0x3d9fa2b2	0.077947035
190	0x3e872d49	0.26401737
191	0x3d3b0341	0.0456574
192	0x3cf5114e	0.029915478
193	0xbe718163	-0.23584513
194	0xbc1ee81e	-0.009698896
195	0x3df40ee6	0.11916904
196	0xbdd9a1f4	-0.10626593
197	0xbe3c7530	-0.18404078
198	0x3dacb945	0.08433775
199	0xbdf93f5f	-0.1217029
200	0xbe018afd	-0.12650676
201	0x3c914eeb	0.017737826
202	0x3f4488fe	0.76771533
203	0xbda89e48	-0.08233315
204	0xbdbd2689	-0.092358656
205	0x3e60a515	0.21937974
206	0xbd824da6	-0.063624665
207	0x3dad6066	0.08465652
208	0x3c0b8542	0.008515658
209	0xbd4dcf45	-0.050246496
210	0xbdbb3865	-0.09141616
211	0x3d8da964	0.06917074
212	0x3e3ad1d6	0.18244109
213	0x3da9e424	0.082954675
214	0xbccaf760	-0.02477616
215	0x3c9887b8	0.018619403
216	0x3df1f86d	0.118149616
217	0x3f51c836	0.8194612
218	0xbde66534	-0.11249772
219	0xbed3988f	-0.4132733
220	0xbdc89e90	-0.097958684
221	0x3f138256	0.5762075
222	0x3d067dcc	0.032834813
223	0xbdc4f4b8	-0.09616989
224	0xbe38cfb1	-0.18047978
225	0xbdb9f025	-0.09079007
226	0xbc5f64a2	-0.013634833
227	0xbd0a567d	-0.033773888
228	0x3c990beb	0.01868244
229	0xbd5eb686	-0.054373287
230	0x3e654a9b	0.22391741
231	0x3d35e9f3	0.044412564
232	0x3d256f5a	0.040389396
233	0xbd9ed9e8	-0.07756406
234	0xbdeadbd3	-0.114677094
235	0x3e1958df	0.14975308
236	0x3e810ac1	0.25203517
237	0xbdbcd464	-0.09220198
238	0x3dc62c31	0.096763976
239	0xbcb95a64	-0.02262611
240	0xbdba13f2	-0.090858355
241	0xbe29d8fe	-0.16586682
242	0xbbd556ad	-0.0065105767
243	0x3e82b77a	0.25530607
244	0x3dfb1052	0.12258972
245	0xbda7c261	-0.08191372
246	0x3e8ab70b	0.27092776
247	0xbe9ec539	-0.31009844
248	0xbcd7c642	-0.026339654
249	0xbe0a0120	-0.13476992
250	0xbddb7174	-0.10714999
251	0xbe106b8b	-0.14103524
252	0x3d8f97e0	0.0701139
253	0xbe0f3c4f	-0.1398785
254	0xbea8dab3	-0.32979354
255	0x3e2d6f51	0.16936995

fc2.bias f4 [64]
0	0x3fc8fb1e	1.5701635
1	0x3fb671f3	1.4253525
2	0x3ee18949	0.44050053
3	0x3fd27874	1.6443009
4	0xbbf72f48	-0.007543478
5	0x3dcb0a33	0.09914055
6	0x3d9a9d1a	0.07549496
7	0xbe2c565e	-0.16829821
8	0x3fd56684	1.667191
9	0x3f70cf39	0.94066197
10	0xbed503ab	-0.4160436
11	0x3e0616ee	0.13094684
12	0xbf8b4420	-1.0880165
13	0xbd8f351f	-0.06992554
14	0x3f04e77c	0.5191572
15	0x3f1db4e8	0.61604166
16	0x3f60a970	0.8775854
17	0x3f674825	0.9034446
18	0x3f6c38bb	0.92274064
19	0x3d424ce0	0.047436595
20	0x3c9bed2e	0.019033995
21	0xbdea02e9	-0.11426336
22	0xbdb595a1	-0.0886643
23	0xbe2fded9	-0.17174853
24	0x3fccea06	1.6008918
25	0xbdf62f47	-0.12020736
26	0x3f0a6da9	0.5407358
27	0xbd875efd	-0.066099145
28	0xbd0ea89a	-0.03482876
29	0xbbb2c1dc	-0.0054552387
30	0x3f895561	1.072918
31	0x3d1d6e67	0.038435366
32	0x3f15fc85	0.5858844
33	0x3dcccd89	0.1000014
34	0xbed6caf1	-0.41951707
35	0x3f6fdfae	0.93700683
36	0x3f0ba3e7	0.5454697
37	0x3e903891	0.28168157
38	0xbd7df74a	-0.06200341
39	0xbe4cfea9	-0.2001902
40	0x3de0570d	0.109541036
41	0x3dbdecb2	0.09273662
42	0xbdfe96e4	-0.12431124
43	0xbe034da3	-0.12822585
44	0xbcef8e3c	-0.029242627
45	0x3c92ef44	0.017936356
46	0x3f4b0147	0.79298824
47	0xbce92002	-0.028457645
48	0x3f199477	0.59992164
49	0x3f744851	0.95422846
50	0xbd5d07b0	-0.05396241
51	0x3f1765cf	0.5913972
52	0x3f9a1e74	1.2040544
53	0xbea02f16	-0.31285924
54	0x3e35fbc4	0.17771822
55	0xbd1a6c06	-0.037700675
56	0x3f4587d5	0.7716039
57	0x3f26e6be	0.65195835
58	0x3cc7c94c	0.024387978
59	0xbc5df500	-0.013547182
60	0x4015aaaf	2.3385427
61	0xbdc8582a	-0.09782441
62	0x3e730876	0.23733696
63	0xbe16edc8	-0.14739144

fc3.weight f4 [20, 64]
0	0x3d17aa46	0.03702762
1	0xbdbd83f8	-0.09253687
2	0x3e42c4f2	0.19020441
3	0xbc28826f	-0.010285004
4	0xbce13cec	-0.02749487
5	0x3d7dbbf5	0.061946828
6	0x3d7e9508	0.062153846
7	0xbe0a8c9a	-0.13530198
8	0xbc622635	-0.013803055
9	0x3b60aa0d	0.0034281046
10	0x3e634696	0.22194895
11	0x3ce23679	0.027613865
12	0x3dad073f	0.08448648
13	0xbd7a55a0	-0.061116815
14	0x3e7c8639	0.24660577
15	0x3e53fe53	0.20702486
16	0x3da63f1e	0.081175074
17	0x3d560db5	0.052259166
18	0x3e7d836b	0.24757163
19	0x3dfc65f2	0.12324132
20	0x3dcb6857	0.099320106
21	0xbd8b7ddb	-0.068111144
22	0xbc280bc0	-0.010256708
23	0xbd5ff791	-0.054679457
24	0xbe2093d9	-0.156814
25	0x3a9c0fa8	0.0011906521
26	0x3e3cd6cb	0.18441312
27	0xbd91a1d8	-0.07110947
28	0x3d0fff7a	0.03515575
29	0xbd77d4ce	-0.06050568
30	0x3d26f26e	0.040758543
31	0xbd740a37	-0.059580054
32	0x3e800860	0.2500639
33	0xbd1c0018	-0.038086027
34	0x3e61a15e	0.22034213
35	0x3ce76009	0.028244035
36	0x3eaeb3ae	0.3412146
37	0x3e91648e	0.2839703
38	0x3d5ad4bb	0.05342553
39	0x3e7cadb0	0.24675632
40	0xbdfc42c2	-0.123174205
41	0x3db5f579	0.08884711
42	0xbc5c7732	-0.013456153
43	0xbd78634c	-0.060641572
44	0xbc3ab3aa	-0.011395374
45	0x3eb7a8bd	0.35870925
46	0x3e93712a	0.28797275
47	0xbd9b8623	-0.07593944
48	0x3c8df240	0.017327428
49	0xbcd5e2e7	-0.026109172
50	0xbddc5728	-0.10758811
51	0x3e49fe19	0.19725837
52	0xbe1e09a9	-0.15433373
53	0xbdb8db66	-0.09026222
54	0x3c311928	0.01080922
55	0xbc1f9bf4	-0.009741772
56	0xbbd11e69	-0.006381799
57	0x3c992870	0.01869604
58	0xbb8c2000	-0.0042762756
59	0x3d4b3240	0.04960847
60	0xbd970b79	-0.07375235
61	0x3db7e4c8	0.089791834
62	0x3e1882c2	0.1489363
63	0x3d306823	0.043068063
64	0x3bed2b64	0.0072378386
65	0x3dfdc150	0.12390387
66	0x3eabaf93	0.3353239
67	0xbd4e743a	-0.05040381
68	0x3dcf204f	0.10113584
69	0x3baf1ed4	0.005344251
70	0xbd330380	-0.04370451
71	0x3e992424	0.29910386
72	0xbdb805ed	-0.08985505
73	0x3de3e5f0	0.111278415
74	0x3e61658c	0.22011393
75	0x3da64d7a	0.08120246
76	0x3dff4c51	0.12465728
77	0xbe1ec1e8	-0.15503657
78	0x3e351425	0.17683466
79	0x3e03347b	0.12812988
80	0x3dafdbd5	0.085868515
81	0x3d8af7d0	0.06785548
82	0x3e8a05df	0.26957604
83	0x3dc9407c	0.098267525
84	0xbda693d1	-0.081336625
85	0xbd8ad9db	-0.06779834
86	0x3d93215c	0.07184097
87	0x3b9a0651	0.00470046
88	0xbba15c0f	-0.0049243043
89	0x3ae6b52a	0.0017601599
90	0x3e0ac7cc	0.13552779
91	0xbdb45892	-0.08805956
92	0xbd64fb06	-0.055903457
93	0xbc8b7f88	-0.017028585
94	0x3cce53ae	0.025186386
95	0xbc8eeb52	-0.017446194
96	0x3da33dc5	0.07970766
97	0xbb1ff2d7	-0.0024406218
98	0x3e75fe6f	0.2402284
99	0x3d5feea5	0.05467095
100	0x3e9318c9	0.28729847
101	0x3e83e410	0.25759935
102	0xbd2cdccc	-0.042202756
103	0x3ea312ba	0.31850225
104	0x3cd22a46	0.025654923
105	0xbc9cc637	-0.019137485
106	0xbe0979b0	-0.13425326
107	0xbda584f2	-0.08081998
108	0xbda51ded	-0.080623485
109	0x3e68ac23	0.22721915
110	0x3ea6a97e	0.32551187
111	0x3dbeeb6c	0.09322247
112	0x3e017931	0.12643887
113	0x3c756874	0.014978517
114	0xbd8f0d2d	-0.06984935
115	0x3d0ece5b	0.034864765
116	0xbe832849	-0.25616673
117	0x3d5b17d6	0.05348953
118	0x3df1c348	0.11804825
119	0xbdfe8064	-0.12426832
120	0x3c473ab4	0.012159992
121	0x3d9ce8c5	0.07661585
122	0x3d1aeb38	0.03782198
123	0xbd2d3a88	-0.042292148
124	0xbe2ee8cf	-0.17080997
125	0x3ccc5c88	0.024946466
126	0x3dd1a9f2	0.102374926
127	0xbd3391eb	-0.04384033
128	0x3c25d3be	0.010121284
129	0xbcc196c2	-0.023631457
130	0x3e526666	0.20546874
131	0x3b588411	0.0033037702
132	0x3ce1f7fc	0.027584068
133	0xbd73af9d	-0.05949365
134	0x3de392e2	0.11112
135	0xbe37b903	-0.1794167
136	0x3c761f13	0.015022057
137	0x3c8c887f	0.01715493
138	0x3e8d8a91	0.2764478
139	0xbe22dd23	-0.1590467
140	0x3e46d382	0.19416621
141	0xbab4bf1a	-0.0013789863
142	0x3da76c9e	0.08175014
143	0x3e22876f	0.15871976
144	0x3db64910	0.08900654
145	0x3dc955c5	0.09830812
146	0x3e3538e4	0.17697483
147	0xbdc95996	-0.0983154
148	0xbd9b346f	-0.0757836
149	0xbe730c36	-0.23735127
150	0x3dc0da92	0.09416689
151	0x3e5ef358	0.21772516
152	0xbd990f33	-0.07473602
153	0x3e0b4ee8	0.13604319
154	0x3e2322dc	0.15931267
155	0xbd3f5326	-0.046710156
156	0x3da2b8ac	0.079453796
157	0x3dec92c0	0.11551428
158	0x3e182cc4	0.14860827
159	0xbdb82df2	-0.089931384
160	0x3c90a4a5	0.017656634
161	0xbdd2d942	-0.10295345
162	0x3e400bdf	0.18754528
163	0x3dbab462	0.091164365
164	0x3ea0e4fe	0.31424707
165	0x3e9c5977	0.30537006
166	0x3e433377	0.19062601
167	0x3e0d2e83	0.13787274
168	0xbda01fa8	-0.07818538
169	0xbcf5c1e8	-0.029999688
170	0xbec3ecb4	-0.38266528
171	0x3b504459	0.003177902
172	0x3dd09f6e	0.10186659
173	0x3ea365a9	0.31913498
174	0x3decbfb5	0.11560003
175	0xbc7b8554	-0.015351612
176	0x3cec8f57	0.028876944
177	0x3c565365	0.013081406
178	0x3ccd1a8a	0.025037069
179	0x3e7c1cf5	0.24620421
180	0xbe42bcaf	-0.1901729
181	0x3e0546d6	0.13015303
182	0xbe9c7ca5	-0.30563846
183	0x3e08a3fc	0.13343805
184	0x3d38026e	0.044924192
185	0xbcc548e6	-0.024082612
186	0xbdc062ba	-0.093938306
187	0x3cfda0c0	0.03096044
188	0xbe00adfd	-0.12566371
189	0xbd614bbe	-0.055003874
190	0x3a7e59ba	0.00097027014
191	0x3e07491f	0.13211487
192	0xbded5472	-0.11588372
193	0xbe045fbb	-0.12927143
194	0x3e0f4151	0.1398976
195	0xbdc82c6b	-0.09774097
196	0xbe0c09fa	-0.13675681
197	0x3e00184b	0.12509267
198	0x3d2baa04	0.041910186
199	0x3ca638e6	0.020290803
200	0xbdc94da1	-0.0982926
201	0x3d16a7d9	0.036781166
202	0x3ea08d72	0.31357914
203	0xbd9271d9	-0.07150621
204	0x3e49e966	0.1971794
205	0xbe50bafc	-0.20383829
206	0xbd9dc3af	-0.07703339
207	0xbc848faf	-0.016181795
208	0x3e1cca83	0.15311627
209	0xbd0ee306	-0.034884475
210	0x3db94ad3	0.09047475
211	0xbd26f6b0	-0.040762603
212	0xbdd62e80	-0.10458088
213	0xbe2e7bc5	-0.17039402
214	0x3d1bb65c	0.03801571
215	0xbe3af1bc	-0.18256277
216	0xbbdc6d10	-0.0067268685
217	0xbdbc6cb5	-0.09200422
218	0x3e5ebe0d	0.21752186
219	0x3df0a5d8	0.11750382
220	0x3dd17784	0.10227874
221	0xbe0cdd02	-0.13756183
222	0x3d8471fd	0.06467054
223	0xbd2cfe30	-0.0422346
224	0x3d284100	0.041077614
225	0xbd950876	-0.072770044
226	0x3e13bf92	0.14428547
227	0x3d61ae12	0.055097647
228	0x3eb3a97c	0.35090244
229	0x3e1177e7	0.14205895
230	0x3e1cd691	0.15316226
231	0x3e59830e	0.212414
232	0xbd8d1cf6	-0.068902895
233	0x3e01f1be	0.12689874
234	0x3df194dc	0.11795971
235	0xbc69ef10	-0.014278188
236	0x3d8ebd9b	0.06969758
237	0x3ea31480	0.31851578
238	0xbc810a57	-0.015752
239	0xbcf3a804	-0.029743202
240	0x3d1eb559	0.038747165
241	0x3dd09f7d	0.1018667
242	0x3c21e5c9	0.009881445
243	0x3dced177	0.10098546
244	0xbe02a2b2	-0.12757376
245	0xbd9d5cba	-0.07683702
246	0x3d7fabfe	0.062419884
247	0xbcaf4717	-0.021396203
248	0x3da8c7d1	0.08241237
249	0xbbcfa110	-0.006336339
250	0xbd4b89b8	-0.049691886
251	0x3d23a58c	0.0399528
252	0xbdfd02fe	-0.12354086
253	0x3d60fa74	0.05492635
254	0x3da2afe1	0.079437025
255	0xbe2e4913	-0.17020063

fc3.bias f4 [20]
0	0x3f0ce6be	0.55039585
1	0x3ea07c9f	0.31345078
2	0x3dc2141f	0.09476494
3	0xbe1b2a3d	-0.15152831
4	0xbbfac46a	-0.007652809
5	0x3d074022	0.033020146
6	0xbe3dd43b	-0.18537991
7	0xbec90a2d	-0.39265576
8	0xbdde14fd	-0.10843847
9	0xbea237c1	-0.31683162
10	0xbe1aeb55	-0.15128835
11	0xbeadbb66	-0.33932036
12	0xbef8702f	-0.4852309
13	0xbeb1bf7f	-0.34716412
14	0xbe610666	-0.21975097
15	0xbf1cd029	-0.6125513
16	0xbf18ec50	-0.59735584
17	0xbeede31b	-0.4646233
18	0xbf456742	-0.77110684
19	0xbf1d37b8	-0.61413145
