beer/experiments/vanilla_DQN/eps_0.15/models/dqn_agent_firm_1_episode_1000.pth (torch, 101224 bytes, 24 tensors)

fc1.weight f4 [64, 3]
000000 a0 e8 7d bd 92 2a 55 be 6a ad 5a be 03 90 0a 3f
       -0.061989427 -0.2081702 -0.21355215 0.54125994
000010 92 8c 74 3e e5 f7 65 bc 80 d3 84 bc cf 84 9a be
       0.23881748 -0.014036153 -0.016214132 -0.3017945
000020 40 1b d1 be 51 05 25 3e 73 b7 ac 3e 67 c4 03 bd
       -0.40841103 0.1611531 0.3373371 -0.032169726
000030 53 52 07 bf bb ee 87 be 13 a7 cf be 97 44 9f bf
       -0.5285999 -0.26549324 -0.40557155 -1.2442807
000040 41 77 87 bd 19 26 10 3e 28 e7 97 be f0 f7 07 bd
       -0.06614543 0.14077033 -0.29668546 -0.033195436
000050 fc 8e bc be 2f b6 4b 3e 56 f9 c0 3e 33 68 b3 3e
       -0.36827838 0.19893716 0.37690228 0.35040435
000060 0f 16 83 be c1 18 35 be 12 75 1b 3e f2 c3 d5 3d
       -0.25602767 -0.17685224 0.15181378 0.10437764
000070 3e 43 ab 3e b9 ed 0c 3e 58 a4 8a bd 40 eb d9 bc
       0.3344974 0.13762559 -0.06769627 -0.026601434
000080 72 ea 0d bf 79 db e1 be 5a f1 db be f2 f0 b5 be
       -0.5543586 -0.44112757 -0.42957574 -0.3553539
000090 e0 71 b9 3e 36 18 be 3e 49 3c f7 be 47 e6 e9 be
       0.36219692 0.37127846 -0.4828818 -0.456835
0000a0 40 bb 0e bc a8 cd 0d be 20 86 50 be ca 9c a4 bd
       -0.008711636 -0.13847983 -0.20363665 -0.08037718
0000b0 fa b0 ff 3c 08 9f 7f be 13 29 8c 3e 8c 5f 87 3e
       0.031212319 -0.2496301 0.27375087 0.26440084
0000c0 c7 50 2e 3f a5 bf 10 bd 58 b0 ce bd 80 64 cf bb
       0.68092006 -0.035339016 -0.10092229 -0.006329119
0000d0 ba 9c c4 be 64 6a a6 bd ff 5c 39 3e 9d fb a9 bd
       -0.38400823 -0.08125761 0.18101881 -0.082999445
0000e0 e3 36 01 bf fc 54 9e be cc 29 6d be f9 2c 97 3e
       -0.50474375 -0.30924213 -0.23160475 0.295265
0000f0 46 45 f6 3c 50 d2 ab 3e 66 09 d4 bc 1d 8d 9c bc
       0.030062329 0.33558893 -0.025883388 -0.019110257
000100 4a 71 88 3e f5 24 b3 bc 75 29 ab 3c d9 a2 05 3e
       0.26648933 -0.021868208 0.020893792 0.13050403
000110 56 9a a4 bc ca 05 c1 3e 6e ab 2c bf 4b 05 3f 3d
       -0.020093124 0.3769973 -0.6744908 0.046635907
000120 74 8d 33 3d 0b e3 88 bd cc 9a 3f be ac 74 b1 bd
       0.043836072 -0.0668393 -0.18711394 -0.086648315
000130 2d f0 2d bf 9c 36 07 3e d3 92 91 be e7 cf 57 be
       -0.67944604 0.13204426 -0.2843233 -0.21075402
000140 db 13 03 3d f4 6a ad be a0 50 b2 bd d1 dd 04 bf
       0.032001358 -0.3387066 -0.08706784 -0.51900965
000150 7b ea ed 3e cd ec 40 3d 45 be 44 3e 78 a5 a2 3e
       0.46467957 0.04710083 0.19213207 0.31766868
000160 1b 76 bf be 83 3c b8 3e 38 bb d4 3e 28 27 b8 be
       -0.37394795 0.35983667 0.41549087 -0.35967374
000170 f1 ef cc 3d 79 30 11 bf 3d 75 6a 3e 65 a6 51 3e
       0.10006703 -0.5671459 0.22896285 0.2047363
000180 9b 88 10 3e 26 ac a8 3e a7 12 cd 3e 8c 8a 03 3f
       0.14114611 0.3294384 0.40053293 0.5138328
000190 e6 ce 0d bf 9b 02 fc be e2 fc 4b 3e 49 81 08 3f
       -0.55393827 -0.49220738 0.19920686 0.53322273
0001a0 a4 61 9c bd ce 85 c6 3d 68 ef 88 3b 18 1c 16 be
       -0.07635811 0.0969349 0.00417893 -0.14659154
0001b0 61 fe fa 3e 94 2e cf be 25 96 4a 3e b9 c3 04 be
       0.490222 -0.40465224 0.19783838 -0.12965287
0001c0 cf 88 58 be d7 fd 8e 3d f8 01 57 3e be 16 0a be
       -0.21145938 0.0698201 0.20996845 -0.13485238
0001d0 8d d0 9b be a8 40 03 3f ca c8 cc 3e ad 70 aa bd
       -0.3043255 0.5127053 0.3999694 -0.083222724
0001e0 1d 0d 61 bd 63 d6 34 be c7 42 6e 3c 25 ae 96 3e
       -0.054944146 -0.17659907 0.014542288 0.29429737
0001f0 c3 97 7c 3e 0f 2c a1 be 00 c8 2b 3f 84 b3 0e bf
       0.24667268 -0.31478927 0.6710205 -0.5574267
000200 86 35 8b 3d 89 75 94 be a0 ac 9e be 5c a0 78 3e
       0.06797318 -0.28995922 -0.30991077 0.24279922
000210 ca d5 49 3e 7f 6d 2a 3d 7c c7 a6 3e 74 ff a6 bd
       0.1971046 0.04160833 0.3257407 -0.081541926
000220 cb 86 89 be 55 4b fa 3d b8 34 14 be 50 cf ff 3d
       -0.2686065 0.122214 -0.14473236 0.124907136
000230 54 dd 32 3e 85 42 8f bc ab 43 af 3e 1e ee fe bc
       0.17467242 -0.017487774 0.34231314 -0.031119402
000240 95 ed 1b bd 16 cd 63 bd cd 4a 39 bc e6 33 c2 be
       -0.038068373 -0.055615507 -0.011309338 -0.3793022
000250 5d 18 a8 bd 98 25 61 3e 5b f7 24 be 26 cc d9 3e
       -0.08207772 0.21986997 -0.16109984 0.42538565
000260 f4 08 80 bb 7f 9e 98 3e 47 93 6b be 8b 39 95 3c
       -0.0039073173 0.29808423 -0.230054 0.018215915
000270 d9 d4 d7 be 6a de d5 be 57 8a e9 3e 1e 36 f0 3e
       -0.42154577 -0.4177125 0.45613357 0.46916288
000280 e2 53 e2 3e 65 56 c1 bc 27 86 a3 3d fb 1f c2 3e
       0.44204623 -0.023600766 0.07984572 0.37915024
000290 ff d4 51 be de 96 cc be 00 22 c5 ba de 56 83 be
       -0.20491408 -0.39958853 -0.001504004 -0.25652212
0002a0 3e 4e 0a be b2 7a b0 3d b6 c6 97 bb b9 12 da 3d
       -0.1350641 0.08617152 -0.0046318425 0.10648102
0002b0 3b 58 fd 3e 2d 72 fa bc d9 6e b5 bd 9d 3c 75 be
       0.49481377 -0.030572021 -0.08859033 -0.23948903
0002c0 52 1f 2b 3d 4e ef a8 3e 58 af df 3e c5 47 ec 3e
       0.041777916 0.32995075 0.43688464 0.46148506
0002d0 78 5c 8f bd 30 62 4a bd d7 1c a6 be 47 cc f7 be
       -0.07000059 -0.049410045 -0.32443878 -0.4839804
0002e0 a5 06 84 3e dd ec 86 3d 14 3b c7 be 23 0c 08 3e
       0.2578632 0.06588147 -0.3891226 0.1328588
0002f0 c7 a2 cb 3d 76 72 78 be 62 d5 1d 3e 21 3c 77 be
       0.09943157 -0.24262413 0.1541343 -0.24144031

fc1.bias f4 [64]
000000 b0 a0 93 be 64 fc 34 40 10 97 7f 3e 47 04 45 40
       -0.28833532 2.8279047 0.2495997 3.078386
000010 38 0a 0c 3e 40 a1 ac 3f 68 89 16 be b0 74 19 c0
       0.13675773 1.348671 -0.14700854 -2.397747
000020 3f 93 67 40 e8 c7 31 40 c0 76 75 be 7a 0e 01 3f
       3.6183622 2.7778263 -0.23971081 0.50412714
000030 ab 3e 1d 40 d8 8f c1 3e 66 9b 7c 40 94 e5 88 bf
       2.45695 0.37805057 3.9469848 -1.0695062
000040 20 3f 58 3f 80 d1 d2 3e d8 32 ca 3e 77 d0 45 c0
       0.8447132 0.4117546 0.39491916 -3.0908487
000050 a5 61 1d 40 74 0f 4b 40 36 77 46 40 76 c6 0e bf
       2.4590847 3.1728182 3.101026 -0.5577158
000060 d8 d4 57 40 a3 18 63 bf 73 fc 4a 40 00 bb b0 bd
       3.372366 -0.8870947 3.1716583 -0.086294174
000070 6c c4 bb bf 69 d2 42 c0 4d 09 6f 40 96 db 3e 40
       -1.4669318 -3.0440924 3.7349427 2.9821525
000080 02 d2 ed bf a4 ea 10 bf 61 26 cd be 71 93 65 40
       -1.8579714 -0.56608033 -0.40068343 3.587124
000090 bc af 02 c0 07 09 38 bf d0 92 7e be 9f 54 0f 40
       -2.041976 -0.71888775 -0.24860692 2.2395399
0000a0 83 9d 84 40 a4 73 4a 40 e7 91 2c 40 1f 2b 5d c0
       4.1442275 3.1633081 2.6964052 -3.455757
0000b0 d9 55 e8 bf b6 bd d9 bf 53 f2 91 bf e1 24 3c 40
       -1.8151199 -1.701102 -1.1402076 2.939751
0000c0 d3 de 6e 40 94 f1 55 c0 5b f6 66 40 ea bf 61 40
       3.73235 -3.3428698 3.6087863 3.5273385
0000d0 a9 46 24 c0 97 ad 5c 40 de b9 52 40 68 df 6a be
       -2.5668128 3.448095 3.2925944 -0.22936785
0000e0 ae 77 5d 40 ad 26 3f 40 96 d0 89 40 0e 21 37 c0
       3.4604297 2.9867356 4.306712 -2.8613925
0000f0 20 7f 08 3d fe 74 90 bf e1 da 8d 40 f9 c6 46 40
       0.03332436 -1.1285703 4.4329686 3.1058943

fc2.weight f4 [64, 64]
000000 00 c7 7b bb d9 67 f7 bd d2 e7 cf 3d a9 dd 32 be
       -0.0038418174 -0.12080354 0.10151638 -0.17467369
000010 fc 65 71 3d fd 6a 14 bf f0 20 23 bc ff 6a f4 3c
       0.05893515 -0.5797575 -0.009956583 0.029836176
000020 ba e2 54 bd 76 83 c0 3d f8 ee ec bd 90 95 ad 3d
       -0.051974036 0.09400074 -0.11569017 0.084757924
000030 f6 29 40 3f 30 af 33 bd 8e 0e 41 be 75 c8 14 bd
       0.7506403 -0.043868244 -0.18853208 -0.036323983
000040 02 ba a7 be d8 f6 b9 bc 78 0e 2a bb 1d 38 5a 3e
       -0.327591 -0.022700712 -0.0025948565 0.21310468
000050 3e bc 98 be 1a ab 5c 3d 68 f8 01 be 70 78 b2 be
       -0.29831117 0.053874113 -0.12692416 -0.34857512
000060 88 42 09 40 ed 28 bb bd d1 48 9a bd 34 5b d4 bd
       2.1446857 -0.09138665 -0.0753342 -0.10368958
000070 62 04 1a 3e e6 93 42 bd 99 7c 2d 3d ee ce ac 3d
       0.15040734 -0.04750433 0.042355154 0.08437906
000080 d8 7c 17 3e 16 38 f2 bd 9f ec 72 bd 5f d2 e0 3f
       0.14793718 -0.11827104 -0.05930769 1.75642
000090 b7 c2 55 bc 18 6e 08 be 22 35 98 3d 9d c9 1d be
       -0.013046912 -0.13323247 0.07432009 -0.1540894
0000a0 ff 91 3c be f1 5e 25 3f 7d 82 fc be e6 36 18 3e
       -0.18415068 0.64597994 -0.49318305 0.14864692
0000b0 fc c0 e3 3d 36 70 69 3d e7 54 97 bc 4d 30 fe bd
       0.11120793 0.05699178 -0.018473102 -0.124115564
0000c0 37 6b 61 bc 07 40 e8 3d 8f 83 a7 bd 46 5b 0e 3e
       -0.013758472 0.11340337 -0.0817939 0.13902006
0000d0 1a cb c7 3d 8e 5a 95 bd f1 7d 3a 3f a0 48 67 bc
       0.097555354 -0.072926626 0.7284842 -0.014116436
0000e0 61 9e 4a be 2b eb 09 be 0a a4 66 3c 15 a8 0e 3e
       -0.1978698 -0.13468616 0.014077196 0.13931306
0000f0 7e bc 92 bd 0e e0 21 3d 75 3c 8b 3d 4c 4f 91 3f
       -0.07164858 0.039520316 0.06798641 1.1352324
000100 48 f6 a8 bc cf 52 06 be 38 85 96 bd 60 df 85 bb
       -0.020625249 -0.13117526 -0.07349628 -0.0040854663
000110 50 9f 6b 3c 6f 8b 8d 3d e0 cb 16 3c 93 de fe bc
       0.014381245 0.069113605 0.009203881 -0.031111991
000120 db a5 e1 bc be 98 e9 3d f0 e5 92 bd cc 19 f1 bd
       -0.027544906 0.114060864 -0.07172763 -0.117724985
000130 60 6b 97 3d 40 4a 3b bd e8 f2 d1 bd db 97 9d bb
       0.07393527 -0.045725107 -0.10251409 -0.0048093623
000140 20 75 a0 bd 18 43 a4 bc 94 de f7 bd 90 24 a9 3d
       -0.0783484 -0.020051524 -0.12103 0.08258927
000150 d1 aa 42 bd 9f dd 87 bb 3d 90 de bc a4 23 6b 3d
       -0.047526184 -0.0041462923 -0.027168388 0.057407036
000160 78 37 d8 bd e8 e2 67 3d b8 0f f7 bd de a9 a7 3d
       -0.10557455 0.05661288 -0.12063545 0.081866965
000170 9e db c8 bd d8 bd ba 3d a0 16 b2 3b 5d 92 3c bd
       -0.09807514 0.09118241 0.005434826 -0.04603802
000180 74 c6 e4 bd 20 b3 f7 3b 91 04 49 bd 2a 63 8b 3d
       -0.111706644 0.007559195 -0.04907662 0.068060234
000190 ae 8d dc 3d 20 65 e2 3b 08 cf 75 3d 96 75 99 3d
       0.10769211 0.0069090277 0.060011894 0.07493131
0001a0 57 eb 3c bd 8e 2a 60 3d 5c b5 a3 bd 48 f5 17 bd
       -0.046122875 0.054728083 -0.07993576 -0.037099153
0001b0 c0 b8 01 be c2 11 e9 bd dc cf 9e bc 4e fd 9f 3d
       -0.12668133 -0.1138034 -0.019386224 0.07811986
0001c0 3e 15 91 3d b0 96 3e bd e7 5b 00 be 42 79 e6 3d
       0.0708413 -0.046530426 -0.12535058 0.11253597
0001d0 18 0b 8c 3d 6c f8 81 3d 62 82 88 bd f8 0f 23 bd
       0.068380535 0.06346211 -0.066654935 -0.03981015
0001e0 c2 a3 a0 3d 7b b7 3b 3d fc 61 ea bd a0 46 b3 bd
       0.07843734 0.045829277 -0.1144447 -0.08753705
0001f0 78 5b 30 3d 8a da f0 bd 18 38 cd bd a7 aa 3a 3d
       0.04305598 -0.11760433 -0.10020465 0.045572903
000200 fc 06 8e bd 8c e1 59 bc 18 06 98 bc 80 aa f3 3d
       -0.06934926 -0.0132984035 -0.018557593 0.11897755
000210 48 58 53 3d 26 4c 90 3d b6 e0 f3 bd d4 5d 29 bf
       0.051597863 0.07045774 -0.119080946 -0.66158795
000220 ae c2 3b 3f c5 20 c5 3c 0a 72 9b 3d f0 dc 23 3c
       0.7334393 0.024063477 0.075901106 0.010001406
000230 ed dd e9 3e 54 5b 85 3d 48 b6 95 3f ee fc d9 be
       0.45677128 0.0651156 1.1696253 -0.42575783
000240 37 e5 10 3d c0 d5 ff 3b 7f 2d 83 bd 7e 8d a3 bf
       0.035374846 0.0078074634 -0.06405162 -1.2777555
000250 5f 3d 9e 3d b9 ba b4 3e be dc c7 3e 3c 76 a2 be
       0.07726549 0.35298708 0.390356 -0.3173083
000260 a4 33 b6 3f 99 bc a4 bf 2e 91 51 3f e0 be 99 bb
       1.423451 -1.2870055 0.8186215 -0.0046919435
000270 ff b5 b6 be 55 0a 60 bf c6 88 6e 3f 31 7b 33 3e
       -0.35685727 -0.87515765 0.9317745 0.17527463
000280 83 e7 04 bf 2a 6f aa 3d b5 a6 91 be 31 1e 22 40
       -0.5191576 0.08321984 -0.284475 2.5330927
000290 00 c8 35 bf 31 06 6d bf d0 07 f3 3c 42 ee 32 3e
       -0.710083 -0.9258757 0.029666811 0.174737
0002a0 11 63 9f 3f e5 83 42 3f 06 4e 1d 3f 26 7c 7f bf
       1.2452108 0.75982505 0.6144718 -0.9979881
0002b0 82 7c cb be 57 10 c9 bf 4c d7 f5 be 6c d6 92 3e
       -0.3974343 -1.5708112 -0.4801582 0.28679216
0002c0 5c f0 53 3f 1b cf bb be ae 39 01 3f 08 b0 f7 3e
       0.82788634 -0.36681446 0.5047864 0.4837649
0002d0 79 cb 89 bf a8 59 1e bc 02 2a 50 3f 90 c2 99 bd
       -1.076522 -0.00966493 0.813141 -0.07507813
0002e0 b0 b6 3e 3f 1a 55 82 3e 6e d6 90 3f 15 ef 16 bf
       0.7449751 0.25455552 1.1315439 -0.5895856
0002f0 a0 f7 63 bc c5 14 1d be 35 95 a1 3f a7 fa 57 3f
       -0.013914019 -0.15339954 1.2623659 0.8436684
000300 4c be fa bd e1 c2 13 3d d4 48 b1 bd 7f da 45 bd
       -0.122433275 0.036074523 -0.08656469 -0.048304077
000310 a4 f3 f5 bd 1f a3 5a 3d 50 12 d1 bc 13 f8 ec 3b
       -0.120093614 0.05337822 -0.025521427 0.007231721
000320 e4 0b 01 bd ae d4 ac 3d 46 eb f8 3d 78 3a a4 3d
       -0.03150548 0.08439003 0.1215425 0.080189645
000330 a6 56 83 bd 38 8a 99 bd fb 0b 34 3d a9 c7 83 3d
       -0.06413011 -0.07497066 0.043956738 0.064345665
000340 53 03 48 3b 30 d8 f2 bd 4a da e3 bd 5f b1 8a 3b
       0.003051956 -0.11857641 -0.1112562 0.00423257
000350 08 b7 3f bc 65 64 12 be fc ef 1c bd 80 2b e5 bd
       -0.011701353 -0.1429611 -0.038314804 -0.111899376
000360 1e 1f a0 bd 42 e6 86 bd d6 57 bf 3d 48 ee ff 3c
       -0.07818435 -0.06586887 0.09342925 0.031241551
000370 4f f2 56 3d 59 dc 5e bd 94 bd 00 bd 8d ba 99 bd
       0.052477177 -0.05440936 -0.031430796 -0.07506285
000380 f4 e8 15 bd 7c 60 56 bd 2b 2f c6 3d 44 c2 3d bd
       -0.036599115 -0.05233811 0.09676965 -0.046327844
000390 4a 45 14 be 7f df bf bd 8c ec 68 3d 08 bc eb bc
       -0.14479557 -0.093688 0.056866214 -0.028776184
0003a0 50 96 0a be 30 a1 77 bd 4e db 8e 3d 29 2e c1 3a
       -0.13533902 -0.060456455 0.06975423 0.0014738488
0003b0 6f 46 de bd a8 c3 b6 bc bf 94 50 3d c0 ec 01 be
       -0.10853278 -0.022310093 0.050923105 -0.12687969
0003c0 21 a5 09 3d 2d ba a2 3d ea ef 96 bb 04 fb 72 3d
       0.033604745 0.079456665 -0.0046062367 0.05932142
0003d0 2b cb ed bd c4 c0 ac bd 68 7f cd bc 48 a7 79 bd
       -0.11611017 -0.084352046 -0.025085166 -0.060950547
0003e0 93 f1 7f 3d d0 4b 56 bc 2e 4b 1b 3d d5 77 f1 bb
       0.062486243 -0.013079599 0.037913494 -0.0073690214
0003f0 a6 3c c0 bd cc 44 be 3d 2f 56 c5 bd f0 da 92 3d
       -0.09386568 0.09290466 -0.09635579 0.07170665

fc2.bias f4 [64]
000000 53 41 2b 3f dd d3 28 bd 3e 22 d1 3f 5b 31 79 3d
       0.6689655 -0.041217674 1.6338575 0.060838085
000010 6d 65 e6 3f ce f3 c4 3f 52 9f f4 bc 35 4e 0b 40
       1.7999703 1.5386903 -0.029861126 2.1766484
000020 c8 c1 ad bd 69 f3 9b be b1 11 96 bf 05 ba 99 3d
       -0.084842265 -0.30459145 -1.1724149 0.075061835
000030 b7 37 21 3d e6 94 a5 3d 82 96 c0 3f fa dc 9b 3d
       0.039359774 0.08085041 1.5045931 0.07610507
000040 35 ae 29 3f 6f 89 0c 40 d3 d4 8c 3f 16 db 16 40
       0.66281444 2.1958883 1.1002449 2.357122
000050 d4 fc ca 3e f3 59 0d 40 8f 40 85 3d 11 04 e5 3d
       0.39646018 2.208615 0.06506454 0.11182416
000060 a0 25 cd 3f 58 07 8c 3f 02 64 2a bf be 1f a6 3e
       1.6027107 1.0939741 -0.6655885 0.32446092
000070 99 33 07 be 7f 20 3a be 7d e0 0f 40 f9 11 8b bd
       -0.13203277 -0.18176459 2.2480767 -0.067905374
000080 ea b0 df 3f 9e 43 87 bd 16 bf 82 3b 56 4b ca be
       1.7475865 -0.06604694 0.0039900644 -0.39510602
000090 4e 80 f5 3f 69 ba 27 be 54 cf 9d 3d eb a8 9d 3f
       1.917978 -0.16379704 0.0770556 1.2317175
0000a0 9c 3f c6 3f ad 2d d8 bb 64 d9 15 40 31 05 14 40
       1.5488162 -0.006597242 2.3413935 2.3128169
0000b0 34 c2 1c c0 96 f4 d3 3f 78 c4 cd 3d 1d 92 5c bc
       -2.4493532 1.6559017 0.10047239 -0.0134625705
0000c0 36 5c a1 bd db de da bd ff 4b 02 be 3e a3 46 3f
       -0.07878916 -0.106870376 -0.12724303 0.7759284
0000d0 65 bf eb 3f fe 06 a1 3c c8 b7 a3 bd f6 1c 11 40
       1.8417784 0.019656654 -0.07994038 2.2673926
0000e0 51 99 32 bf 22 90 3e bd aa fb 18 40 28 52 78 b9
       -0.6976519 -0.046524175 2.3903604 -0.00023681729
0000f0 b8 73 d8 bd 35 b9 07 40 c8 69 89 3c b2 12 88 3f
       -0.105689466 2.1206791 0.016774073 1.0630705

fc3.weight f4 [20, 64]
000000 0a 2e 16 bc f4 c9 a6 bd e8 4d 18 be 51 0d 92 bd
       -0.00916625 -0.08143988 -0.14873469 -0.07131446
000010 ff 0e dd 3e c2 54 8c 3e 02 b2 e9 3d d8 9b 08 3f
       0.43175504 0.27408415 0.114109054 0.533628
000020 d8 69 f2 3d ff fa 28 be c7 1d f7 be e9 7f f9 bd
       0.11836594 -0.16501997 -0.48264906 -0.121826
000030 e5 13 c5 bd 72 86 19 bd 52 ae a0 3e 0d 8d a4 bd
       -0.09622935 -0.037481733 0.31382996 -0.08034716
000040 a6 d8 20 bc 41 7b a1 bf a0 5f 1a bc b1 1d 30 3f
       -0.009817278 -1.2615739 -0.009422213 0.68795305
000050 c5 c6 17 be 39 8f e6 3e 8f 49 68 bc b4 23 36 bd
       -0.14821918 0.45031145 -0.014177694 -0.044467643
000060 d1 59 92 3e 91 06 dd 3d d0 4a 8d be da b0 d7 bc
       0.2858415 0.10792268 -0.2759614 -0.026329447
000070 34 85 d1 bd 64 00 00 bd f9 1b 7e bf 01 26 98 3d
       -0.102304846 -0.031250373 -0.9926143 0.07429124
000080 48 e5 83 3e d2 ab 3d bd c7 e4 a6 bc 01 13 c2 be
       0.25760865 -0.04630644 -0.020372761 -0.37905124
000090 fd 46 a9 bf 12 e2 22 3d 77 79 d5 bd f3 14 c5 3d
       -1.3224789 0.03976638 -0.10423558 0.09623136
0000a0 37 91 6a 3e ee 1d a9 bd dc 61 f8 3e 56 47 2d 3f
       0.22906958 -0.08257662 0.4851216 0.67686975
0000b0 eb f0 40 bf a8 42 b6 3e b1 ce e7 3d e0 52 d8 3c
       -0.7536761 0.3559773 0.1131872 0.026406705
0000c0 cc ab de 3d 5e cc 85 3d 41 24 27 3d 9d 9a 9b bf
       0.108726114 0.065331206 0.04080606 -1.2156559
0000d0 43 0b ac 3e 32 6b 8a bd 4c d4 ce bd 0b a5 08 3f
       0.33602342 -0.06758727 -0.10099086 0.53376836
0000e0 5a b7 36 be 60 81 31 bc 50 07 0a 3f 38 fc 75 3d
       -0.1784338 -0.010834068 0.5391741 0.060054988
0000f0 28 2d 6b bd 9f 41 35 3f 3c 65 09 3d 56 dc 24 3f
       -0.05741611 0.70803255 0.03354381 0.64398706
000100 90 c9 c2 3c d0 5d 8f bd e6 8d 16 bf 3f 58 12 bd
       0.023777753 -0.07000315 -0.5881027 -0.03572869
000110 d6 ce 15 3e d9 64 d3 3d 20 20 99 bb df 06 03 3f
       0.14629683 0.103219695 -0.004673019 0.5118236
000120 b8 09 70 3d cd 75 db bd a8 7a 1c be 60 0c bb bc
       0.05860302 -0.10715828 -0.15281165 -0.02283305
000130 45 24 c1 bd 75 a3 d6 3d f7 6e 68 3e 2e 0b e3 bd
       -0.09430746 0.10480396 0.2269858 -0.11086117
000140 03 fb 7a bc 23 27 83 bf 7d e3 41 3c 5d 3c d6 3e
       -0.015318635 -1.0246319 0.011834023 0.4184293
000150 b8 d2 2e 3d 72 b8 02 3f 8d fc 12 3e ea 7c c0 bd
       0.042681426 0.5106269 0.14354153 -0.093988255
000160 c3 2a 27 3e 26 be 2b 3e 8b d8 06 be 5e 3c 42 3c
       0.16324906 0.16771755 -0.13168542 0.011855213
000170 ae 88 f4 bd a2 ca 41 bd 8a 21 70 bf 50 51 3a 3c
       -0.11940132 -0.047312386 -0.93801177 0.0113719255
000180 40 4b 9a 3e 46 fd a7 bd 26 cb 98 bd 81 cb 37 3d
       0.30135536 -0.08202605 -0.074606225 0.04487181
000190 91 98 cb be 5f 28 1a bd 0e cc 82 3c e5 41 2e 3d
       -0.39764836 -0.037636157 0.015966441 0.04254331
0001a0 3e 36 7d 3e dc 0c 42 bd ad 86 b5 3e 03 0e fe 3e
       0.24727723 -0.047375545 0.35454312 0.49620065
0001b0 84 23 8e be 4b c4 34 3e 28 db 6d 3d 08 e1 f5 bd
       -0.2776147 0.17653005 0.05807033 -0.12005812
0001c0 bc e7 ed bd 5b 4b 20 bd f6 0b 92 bd d4 c7 87 be
       -0.116164654 -0.039134365 -0.071311876 -0.26519644
0001d0 c9 fa 08 3e dd bf ad bd 2a 74 7d 3d 20 6e 03 3f
       0.13376917 -0.08483861 0.06187836 0.5133991
0001e0 3c a9 24 bd 0c 22 f8 3d e5 1e 0a 3f 25 95 91 bd
       -0.040200457 0.12115869 0.5395339 -0.07108525
0001f0 0e 8c fc 3d 8f 61 15 3f 80 74 50 3b d3 72 e1 bd
       0.12331401 0.5835199 0.003180772 -0.11008229
000200 c1 19 f8 bc 56 29 cc bd 00 b9 cc be 0a a6 28 bc
       -0.030285718 -0.09968822 -0.39984894 -0.010293493
000210 ac ec 85 3e 88 d7 71 3d c0 90 d2 3b 14 14 10 3f
       0.2615713 0.059043437 0.006425947 0.56280637
000220 0e 73 85 3d 8f aa 06 3b 5e 8f 88 be 90 51 03 bc
       0.065160856 0.0020548438 -0.2667188 -0.0080150515
000230 91 90 d5 bd 92 c2 4c bd aa 6a fa 3d 27 3a fb bc
       -0.104279645 -0.049990244 0.12227376 -0.030667378
000240 5b 5d b3 bd 1a ad 66 bf fa 3c 99 3e 00 b8 0d 3f
       -0.087580405 -0.9010788 0.29929334 0.55358887
000250 0a c6 ab bd b4 b0 da 3e 22 06 07 3c 20 fc 47 3d
       -0.08387382 0.4271294 0.008241208 0.04882443
000260 00 1c ba bc b6 8d 82 3e 99 09 3a be 9c 89 1f bd
       -0.02271843 0.25498742 -0.18167724 -0.038949594
000270 72 a2 82 3d ab 90 12 be da b2 70 bf f6 64 a0 3d
       0.0637864 -0.14312999 -0.94022906 0.07831757
000280 5f 55 4d 3e 2e e9 98 3d 0c be f0 bd 16 f7 01 be
       0.20052098 0.074663505 -0.117549986 -0.12691912
000290 87 67 2f bf 17 70 54 bd 22 a0 8d bd 34 f2 1e bd
       -0.68517345 -0.05186471 -0.069153085 -0.0388052
0002a0 7c 1c 54 3e bc d2 04 bd 0e d6 ed 3e 0f cc 09 3f
       0.20713991 -0.032427534 0.46452373 0.53826994
0002b0 0a 7f e2 be 62 83 c2 3e ce 47 04 3e f0 0f 33 3c
       -0.44237548 0.37990862 0.12918016 0.010929093
0002c0 7e d5 ac bd be e8 9f bc 3b 14 cd bd fa ae 02 bf
       -0.08439158 -0.01952016 -0.10013624 -0.51048243
0002d0 2f 2a 85 3e e9 66 17 3e 1e fd 14 3d f1 80 0f 3f
       0.26008746 0.14785351 0.036374204 0.56056124
0002e0 66 21 37 be d8 89 08 bd d1 b1 12 3f 8a 86 88 bd
       -0.17883834 -0.033334583 0.57302576 -0.06666286
0002f0 6e 24 92 3d 5f 1f cd 3e 4e e9 8d bd 47 a3 ac 3b
       0.07135855 0.40062997 -0.06929265 0.0052684876
000300 ee 79 f6 bd e0 3f 68 3c 7a 80 20 bf d1 1c 06 bd
       -0.12034975 0.014175385 -0.6269604 -0.032742325
000310 be a8 03 3e 3c 33 bc 3d d0 83 52 bd c6 71 f1 3e
       0.12857339 0.0918946 -0.051395237 0.47157115
000320 bc eb 47 3d c8 06 28 bd 33 5d 6c be 7a e2 c0 bd
       0.0488088 -0.041022092 -0.23082428 -0.09418197
000330 0f 7d 80 3d 76 8b b0 bd 68 70 65 3e d7 82 b5 3d
       0.06273853 -0.0862035 0.22406161 0.08862846
000340 58 43 fd 3d a8 52 50 bf ef 93 a1 3d ae 6a e1 3e
       0.123663604 -0.81376123 0.07889544 0.44026703
000350 ab 88 43 3e ea 7c b1 3e 37 f1 01 3d 90 71 26 3d
       0.19095103 0.34665614 0.03172418 0.040635645
000360 50 06 38 3d 42 5e ac 3e 10 62 db bd e5 65 a9 bd
       0.044927895 0.33665663 -0.10712063 -0.08271388
000370 24 64 a7 bd 5a f0 60 be 94 4f 49 bf 1a 25 cd 3d
       -0.08173397 -0.21966687 -0.7863705 0.10016842
000380 31 67 01 3e 6c 78 54 bd 40 96 1e bb ed fb 7f bd
       0.1263702 -0.051872656 -0.0024198443 -0.062496115
000390 b9 c8 30 bf 8d 09 37 3e 5a 8c 05 3e 1d 92 af bd
       -0.6905628 0.17874737 0.13041821 -0.08572791
0003a0 e5 5d 93 3e b8 bf 24 3d 73 c1 df 3e fd a4 0f 3f
       0.28782573 0.0402219 0.43702278 0.5611113
0003b0 16 22 c7 be 2c ad e0 3d 56 c3 38 3c e0 88 b2 3d
       -0.38893193 0.1097053 0.0112770405 0.08717513
0003c0 8e a8 d9 bd 8f 0a de 3d 3d 1b ea 3d 90 17 30 be
       -0.106278524 0.10841858 0.114309765 -0.17196488
0003d0 50 3c 80 3e fa 29 62 3d 29 38 1b 3c 24 fd f6 3e
       0.25046015 0.055215813 0.009473839 0.48240006
0003e0 ca 31 b0 be 74 20 26 bd a9 de 0b 3f 28 d8 f6 3d
       -0.34412986 -0.040558293 0.5463663 0.12052947
0003f0 2c 51 14 3d 7f da 13 3f e0 24 08 3d 30 a8 37 3c
       0.036210224 0.57755274 0.03323829 0.011209533

fc3.bias f4 [20]
000000 96 73 d4 3f cf 9f 49 3f 1c 45 5f 3f 58 2f 3b 3f
       1.6597774 0.78759474 0.8721483 0.73119116
000010 e6 c7 30 3f 62 9f 14 3f 02 71 ec 3e 5d 3b 0e 3f
       0.6905502 0.580557 0.46179968 0.5555933
000020 cb ea d7 3d c8 de 86 3e 0a 4e b2 3e 7c 49 52 3c
       0.1054283 0.26341844 0.34825164 0.012834903
000030 4a c2 3e 3e 22 d3 bc 3d c8 f4 27 be 2d 0b 8f bb
       0.18628803 0.09219958 -0.1640197 -0.004365346
000040 8e f1 b3 bd a9 58 b5 bd e2 35 16 be 2c ca cc bd
       -0.08786307 -0.08854801 -0.14668992 -0.09999499

fc1.weight f4 [64, 3]
000000 a0 e8 7d bd 92 2a 55 be 6a ad 5a be ae f3 0e 3f
       -0.061989427 -0.2081702 -0.21355215 0.55840576
000010 49 8a 77 3e cd 7d 76 bc 80 d3 84 bc 27 85 9a be
       0.24173845 -0.015044642 -0.016214132 -0.30179712
000020 40 1b d1 be 38 a0 2f 3e 5b 01 ae 3e a0 f0 19 bd
       -0.40841103 0.17150962 0.3398541 -0.037582994
000030 53 52 07 bf bb ee 87 be 13 a7 cf be 88 14 95 bf
       -0.5285999 -0.26549324 -0.40557155 -1.1646891
000040 fe 15 8e bc e7 e3 0a 3e 28 e7 97 be f0 f7 07 bd
       -0.017344471 0.135635 -0.29668546 -0.033195436
000050 fc 8e bc be fd c9 56 3e 7f de be 3e 69 93 b8 3e
       -0.36827838 0.2097549 0.37279126 0.36049965
000060 a4 29 8e be 61 79 3d be e2 80 20 3e 79 38 03 3e
       -0.27766144 -0.18503334 0.15674165 0.12814511
000070 45 0e b0 3e 97 7a 14 3e 58 a4 8a bd d4 eb d9 bc
       0.34385887 0.1449989 -0.06769627 -0.02660171
000080 8c ea 0d bf 79 db e1 be 5a f1 db be f2 f0 b5 be
       -0.55436015 -0.44112757 -0.42957574 -0.3553539
000090 98 bd d6 3e b4 2c bd 3e d4 42 05 bf 47 e6 e9 be
       0.41941524 0.36948168 -0.52055097 -0.456835
0000a0 40 bb 0e bc a8 cd 0d be ff cb 4c be 2c 72 98 bd
       -0.008711636 -0.13847983 -0.19999693 -0.074436516
0000b0 b5 3c 00 3d cf 81 80 be 26 d8 89 3e a2 4c 93 3e
       0.031307895 -0.25099036 0.2692272 0.28769404
0000c0 85 47 28 3f 2b 17 2e bd f1 13 cd bd 80 64 cf bb
       0.6573413 -0.042502563 -0.10013569 -0.006329119
0000d0 ba 9c c4 be 64 6a a6 bd d1 76 39 3e f2 d2 a9 bd
       -0.38400823 -0.08125761 0.18111731 -0.08292188
0000e0 4d 30 01 bf 3b c9 94 be 33 e3 48 be f8 f5 9b 3e
       -0.50464326 -0.29059777 -0.1961792 0.30461097
0000f0 3e 6d 7b 3d f2 7d af 3e a5 1c ce bc 01 71 49 bc
       0.06138348 0.34275776 -0.025160143 -0.012295009
000100 6c 7d 8b 3e ad 26 b7 bc dc d1 e4 3c 29 d2 09 3e
       0.27244127 -0.02235731 0.0279321 0.13459076
000110 35 d4 aa bc e7 ee d7 3e a9 8d 0e bf ac 18 4e 3d
       -0.020853141 0.42174456 -0.55684906 0.050316498
000120 df 8b d7 3d 02 83 72 bd 07 87 82 be f2 a0 75 bd
       0.10524725 -0.05920697 -0.25493643 -0.059967943
000130 1e 27 21 bf f6 28 1c 3e d0 c3 8c be a1 1f 56 be
       -0.62950313 0.1525 -0.27493143 -0.20910503
000140 05 5e 16 3d f4 6a ad be a0 50 b2 bd 1d de 04 bf
       0.036710758 -0.3387066 -0.08706784 -0.5190142
000150 2f 84 f7 3e af 4b 1b 3d 07 9e 5f 3e 95 16 9f 3e
       0.48343036 0.037913974 0.21837626 0.31071916
000160 12 eb b2 be be be c1 3e 64 b6 d6 3e ab 3f bb be
       -0.3494497 0.37840837 0.41936028 -0.36572012
000170 b4 eb c8 3d 7b 4c 0f bf df 78 83 3e 0a b6 5d 3e
       0.09810582 -0.55976075 0.25678155 0.21651474
000180 e2 76 1c 3e 08 69 a5 3e 2a c1 d5 3e 8c 8a 03 3f
       0.15279725 0.32306695 0.41748935 0.5138328
000190 34 cf 0d bf 9b 02 fc be ef df 81 3e 0a dc 01 3f
       -0.5539429 -0.49220738 0.2536616 0.5072638
0001a0 26 85 69 bd 67 76 e2 3d 07 cc a1 bc df d1 24 be
       -0.057011746 0.1105774 -0.019750608 -0.16095684
0001b0 de 21 f9 3e 2b 41 d9 be 22 bf 4f 3e 84 ee ea bd
       0.4865865 -0.42432532 0.20287755 -0.114712745
0001c0 6a 73 46 be a8 5c c5 3d f8 01 57 3e be 16 0a be
       -0.19379964 0.096368134 0.20996845 -0.13485238
0001d0 8d d0 9b be 19 81 0e 3f 4d 83 c9 3e 38 db bc bd
       -0.3043255 0.5566574 0.39357987 -0.092215
0001e0 cc b6 50 bd 5b c8 2f be df 06 75 3c 03 4a 9e 3e
       -0.05095558 -0.17166273 0.0149552515 0.3091584
0001f0 2e 84 89 3e 28 e7 ad be 9d b1 31 3f 60 83 18 bf
       0.26858658 -0.3396542 0.6941164 -0.5957546
000200 eb bd 55 3d d1 3f 80 be 3f 34 93 be ec 88 82 3e
       0.052183073 -0.25048688 -0.28750798 0.25495088
000210 e5 23 5b 3e 52 0e 07 3d 15 32 b6 3e 3e 20 54 bd
       0.21400411 0.03297264 0.35585085 -0.05178856
000220 2b 5b 80 be fc a1 01 3e fa ad 0b be 41 a3 fa 3d
       -0.25069556 0.12659448 -0.13640586 0.122381695
000230 ca af 5e 3e 1e b7 bc bc fc 07 b3 3e 7c 7d e4 bc
       0.21746746 -0.023036536 0.3496703 -0.027891867
000240 cf ca 14 bd e6 cd 54 bd 76 1b 42 bc eb ce b5 be
       -0.036326226 -0.051954173 -0.0118473675 -0.35509428
000250 10 30 78 bd 59 a9 6b 3e af f8 1c be fa a1 dc 3e
       -0.06059271 0.2301382 -0.1532924 0.43092328
000260 03 d1 95 bb 74 de 9a 3e a0 81 77 be 63 84 8c 3c
       -0.0045720353 0.30247843 -0.24170542 0.01715297
000270 76 e9 c4 be b5 6d c7 be 4c ec f6 3e c7 a5 f8 3e
       -0.38459367 -0.38950887 0.48227155 0.48563978
000280 05 69 e4 3e ff c0 cb bc c0 05 8c 3d 55 55 ca 3e
       0.44611374 -0.024872301 0.06837034 0.39518228
000290 76 7c 7c be de 96 cc be 00 22 c5 ba de 56 83 be
       -0.24656853 -0.39958853 -0.001504004 -0.25652212
0002a0 34 64 06 be 68 e6 ba 3d 71 4b 7c bb 8a 75 15 3e
       -0.13124162 0.09125978 -0.0038497115 0.14595619
0002b0 48 62 02 3f dc 4f 12 bd b7 34 ae bd bc 14 6f be
       0.50931215 -0.03572069 -0.08506148 -0.23347753
0002c0 71 30 32 3d b0 61 ad 3e 17 15 de 3e 0a 59 f2 3e
       0.04350323 0.33863592 0.43375465 0.47333556
0002d0 78 5c 8f bd 30 62 4a bd d7 1c a6 be 7f 9d e8 be
       -0.07000059 -0.049410045 -0.32443878 -0.4543266
0002e0 92 3c 84 3e 91 9d c6 3d 4f ff cb be 73 99 0e 3e
       0.2582746 0.09698022 -0.39843222 0.13925724
0002f0 5b a0 c7 3d e5 fc 8c be 25 6d 45 3e 6e 74 8c be
       0.09747382 -0.27536693 0.19279917 -0.2743258

fc1.bias f4 [64]
000000 b0 a0 93 be 53 b9 2d 40 10 97 7f 3e 87 1f 3c 40
       -0.28833532 2.7144363 0.2495997 2.9394243
000010 38 0a 0c 3e dc 0b 9c 3f 9c 89 16 be 23 34 10 c0
       0.13675773 1.2191119 -0.14700931 -2.2531822
000020 6d 30 5d 40 ae e6 2b 40 c0 76 75 be 7a 0e 01 3f
       3.4560807 2.6859546 -0.23971081 0.50412714
000030 ce 55 16 40 d8 8f c1 3e c6 ee 73 40 1e f2 78 bf
       2.348987 0.37805057 3.8114486 -0.9724444
000040 79 7f 63 3f 80 d1 d2 3e 00 3f ca 3e d3 fa 3a c0
       0.8886638 0.4117546 0.3950119 -2.921559
000050 38 4e 15 40 8b 1a 43 40 96 9c 3e 40 cb 77 e7 be
       2.332899 3.048495 2.9783072 -0.45208582
000060 05 cd 4f 40 67 c5 57 bf 69 7b 41 40 00 bb b0 bd
       3.2468884 -0.8428559 3.0231574 -0.086294174
000070 96 56 ad bf 65 3d 37 c0 02 a0 66 40 b3 48 36 40
       -1.3542049 -2.8631222 3.603516 2.8481872
000080 06 28 df bf a4 ea 10 bf 5f c2 8f be 1f 80 60 40
       -1.7434089 -0.56608033 -0.2807798 3.50782
000090 e0 41 f2 bf 92 d4 1f bf d0 92 7e be 05 9f 0c 40
       -1.8926353 -0.6243373 -0.24860692 2.1972058
0000a0 b3 1e 80 40 e9 ca 43 40 a1 68 23 40 60 84 50 c0
       4.0037475 3.0592597 2.553261 -3.2580795
0000b0 61 31 d6 bf 2e 0e c9 bf 80 54 85 bf 80 94 33 40
       -1.6733819 -1.5707452 -1.0416412 2.8059387
0000c0 f0 e4 66 40 9f cc 49 c0 43 f5 5e 40 3a ce 58 40
       3.6077232 -3.153114 3.4837196 3.387587
0000d0 1f fc 19 c0 89 64 55 40 ea dd 4a 40 bb df 6a be
       -2.4060133 3.3342612 3.1697946 -0.22936909
0000e0 59 38 55 40 6e 40 35 40 9b 22 85 40 df 87 2d c0
       3.3315642 2.8320575 4.1604743 -2.711418
0000f0 20 7f 08 3d 82 09 7a bf ec 66 89 40 4e f8 40 40
       0.03332436 -0.9767076 4.2938137 3.0151553

fc2.weight f4 [64, 64]
000000 00 c7 7b bb 14 76 e4 bd d2 e7 cf 3d bd 58 35 be
       -0.0038418174 -0.11155334 0.10151638 -0.17709632
000010 fc 65 71 3d 12 92 10 bf f0 20 23 bc 90 4d 37 3d
       0.05893515 -0.56472886 -0.009956583 0.044751704
000020 0b eb 4a bd f2 c8 cf 3d 14 ef ec bd 90 95 ad 3d
       -0.04954056 0.10145749 -0.11569038 0.084757924
000030 50 1d 44 3f 30 af 33 bd af ec 55 be 2e 12 da bc
       0.7660723 -0.043868244 -0.20891069 -0.026619997
000040 5c 4c 98 be d8 f6 b9 bc 14 7c 30 bb 98 a3 55 3e
       -0.29745758 -0.022700712 -0.0026929425 0.20863187
000050 4d 49 9a be 24 f6 51 3d e8 e3 08 be 55 30 95 be
       -0.3013405 0.05126013 -0.1336819 -0.29138437
000060 6c 26 f9 3f 55 56 bf bd d3 7e a2 bd 34 5b d4 bd
       1.946485 -0.093426384 -0.07934346 -0.10368958
000070 58 a6 2a 3e 3c 99 e5 bc c4 f8 ab 3c 2a fa b5 3d
       0.16665018 -0.02802717 0.020992644 0.08885606
000080 44 20 25 3e 16 38 f2 bd 5d 1f 81 bd 02 c4 cf 3f
       0.1612559 -0.11827104 -0.0630481 1.6231692
000090 5d f9 b9 3c a4 1b f7 bd 22 35 98 3d 05 f6 1b be
       0.022701913 -0.12065819 0.07432009 -0.15230568
0000a0 19 e4 59 be 44 2b 20 3f 28 e1 f1 be a7 32 0f 3e
       -0.21278419 0.6256602 -0.47242093 0.13984166
0000b0 67 4a ff 3d df 00 1c 3d 5e 4d 23 bc 53 16 03 be
       0.12465363 0.03808677 -0.009967176 -0.12801485
0000c0 bd 50 1f bd 37 cc db 3d f3 58 a9 bd 3b 64 ed 3d
       -0.038895357 0.1073231 -0.08268919 0.11591383
0000d0 6f 97 d2 3d 96 ed 83 bd 25 b5 33 3f a0 48 67 bc
       0.1028279 -0.064418 0.7019828 -0.014116436
0000e0 eb 6f 59 be 94 2d 07 be e7 9c 19 bc 24 0b 1e 3e
       -0.212341 -0.1320098 -0.009375787 0.15433937
0000f0 f0 bc 92 bd b4 a9 5f 3d c1 4a 82 3d d8 9d 93 3f
       -0.07164943 0.0546052 0.063619144 1.1532545
000100 48 f6 a8 bc 7d 4d 06 be b4 85 96 bd 46 28 85 bb
       -0.020625249 -0.13115497 -0.073497206 -0.004063639
000110 50 9f 6b 3c 50 96 8d 3d 04 cc 16 3c 70 b1 fe bc
       0.014381245 0.069134355 0.009203915 -0.031090468
000120 e0 78 e1 bc 05 a5 e9 3d f0 e5 92 bd cc 19 f1 bd
       -0.027523458 0.11408428 -0.07172763 -0.117724985
000130 b1 75 97 3d 40 4a 3b bd 51 e7 d1 bd 56 e2 9c bb
       0.07395495 -0.045725107 -0.10249198 -0.0047877235
000140 2d 6b a0 bd 18 43 a4 bc 94 de f7 bd 90 24 a9 3d
       -0.07832942 -0.020051524 -0.12103 0.08258927
000150 cb 95 42 bd c5 27 87 bb cd 63 de bc a4 23 6b 3d
       -0.047506135 -0.004124614 -0.027147198 0.057407036
000160 78 37 d8 bd e8 e2 67 3d 71 03 f7 bd de a9 a7 3d
       -0.10557455 0.05661288 -0.12061203 0.081866965
000170 9e db c8 bd d8 bd ba 3d a0 16 b2 3b 47 7b 3c bd
       -0.09807514 0.09118241 0.005434826 -0.046016004
000180 b0 bb e4 bd 20 b3 f7 3b d1 ee 48 bd 2a 63 8b 3d
       -0.11168611 0.007559195 -0.049055878 0.068060234
000190 ae 8d dc 3d 20 65 e2 3b 08 cf 75 3d 21 81 99 3d
       0.10769211 0.0069090277 0.060011894 0.074953325
0001a0 1f d5 3c bd 3e 42 60 3d 5c b5 a3 bd 48 f5 17 bd
       -0.046101686 0.054750673 -0.07993576 -0.037099153
0001b0 ce b1 01 be c2 11 e9 bd 47 a3 9e bc 07 09 a0 3d
       -0.12665483 -0.1138034 -0.019364966 0.07814222
0001c0 93 20 91 3d b0 96 3e bd 27 56 00 be 42 79 e6 3d
       0.07086291 -0.046530426 -0.12532865 0.11253597
0001d0 18 0b 8c 3d 55 05 82 3d 4c 76 88 bd f8 0f 23 bd
       0.068380535 0.06348673 -0.06663188 -0.03981015
0001e0 ff b0 a0 3d 17 ce 3b 3d ba 62 ea bd a7 3b b3 bd
       0.07846259 0.04585084 -0.11444612 -0.08751612
0001f0 78 5b 30 3d 79 d1 f0 bd 5d 2c cd bd 8e c0 3a 3d
       0.04305598 -0.11758704 -0.10018227 0.04559379
000200 fc 06 8e bd c8 b1 ba bc 18 06 98 bc 63 92 c5 3d
       -0.06934926 -0.02278985 -0.018557593 0.09647062
000210 48 58 53 3d fc 0b 32 bd b6 e0 f3 bd c3 33 22 bf
       0.051597863 -0.04346846 -0.119080946 -0.6336023
000220 6d fc 2f 3f 56 f1 32 3c 0a 72 9b 3d f0 dc 23 3c
       0.68744546 0.010921797 0.075901106 0.010001406
000230 65 48 ed 3e 54 5b 85 3d b9 5b 86 3f 0a fe d5 be
       0.46344295 0.0651156 1.0496742 -0.4179538
000240 f2 96 ee 3c c0 d5 ff 3b d1 48 83 bd b7 f1 87 bf
       0.02912471 0.0078074634 -0.06410373 -1.062064
000250 c3 cd 54 3d c5 ed a1 3e b2 92 b1 3e b1 5e ab be
       0.051954042 0.31626716 0.34682232 -0.3347068
000260 4e 7e af 3f fe da 77 bf da ff 38 3f e0 be 99 bb
       1.371042 -0.9681853 0.722654 -0.0046919435
000270 32 70 ab be 05 d0 4b bf f8 94 61 3f f7 1c eb 3d
       -0.33484036 -0.7961429 0.88117933 0.11480134
000280 6b 25 fe be 6c 6f aa 3d d5 c9 8f be bb 96 1d 40
       -0.49637923 0.08322033 -0.28083673 2.4623249
000290 45 63 25 bf 2b a6 33 bf d0 07 f3 3c 7d 93 2c 3e
       -0.646046 -0.7017543 0.029666811 0.16853137
0002a0 f2 bd 92 3f bb 44 41 3f 53 f8 18 3f 0d 8f 48 bf
       1.1464217 0.754955 0.5975391 -0.7834328
0002b0 24 5f bd be e2 ed 91 bf 3e d5 f2 be 4d 80 82 3e
       -0.3698665 -1.1400721 -0.47428316 0.2548851
0002c0 46 96 3e 3f b7 55 b1 be fd ea ee 3e 9c 48 df 3e
       0.7444805 -0.34635708 0.46663657 0.43610084
0002d0 96 5b 77 bf f8 56 b3 bc 6b 1c 4b 3f 90 c2 99 bd
       -0.96624124 -0.021892056 0.7934024 -0.07507813
0002e0 5a 3e 2c 3f 54 e2 73 3e c4 26 84 3f 1c 9d 0f bf
       0.6728264 0.23816806 1.032433 -0.56099105
0002f0 a0 f7 63 bc b8 68 76 be dc 6e 97 3f e8 ed 5d 3f
       -0.013914019 -0.24063385 1.1830707 0.8669114
000300 4c be fa bd 60 ec 13 3d 5a 49 b1 bd 07 a3 45 bd
       -0.122433275 0.036114097 -0.08656569 -0.048251178
000310 b4 f3 f5 bd 05 da 5a 3d 50 12 d1 bc 0c 75 ee 3b
       -0.12009373 0.053430576 -0.025521427 0.0072771367
000320 cf db 00 bd 29 ef ac 3d 46 eb f8 3d 78 3a a4 3d
       -0.031459626 0.08444054 0.1215425 0.080189645
000330 a6 56 83 bd 38 8a 99 bd a6 44 34 3d 36 df 83 3d
       -0.06413011 -0.07497066 0.04401078 0.064390585
000340 74 00 4b 3b 30 d8 f2 bd d5 da e3 bd 6b 33 8c 3b
       0.0030975612 -0.11857641 -0.11125723 0.0042785904
000350 06 db 3e bc 2e 5b 12 be fc ef 1c bd 4b 16 e5 bd
       -0.011648899 -0.14292595 -0.038314804 -0.11185893
000360 1e 1f a0 bd f9 cf 86 bd d9 70 bf 3d 6c ee ff 3c
       -0.07818435 -0.065826364 0.09347696 0.031241618
000370 40 23 57 3d 55 ac 5e bd 94 bd 00 bd 09 a3 99 bd
       0.05252385 -0.054363567 -0.031430796 -0.075017996
000380 a2 b9 15 bd 7c 60 56 bd 9e 47 c6 3d 44 c2 3d bd
       -0.036553986 -0.05233811 0.09681629 -0.046327844
000390 3b 3a 14 be 2a ca bf bd 8c ec 68 3d 88 76 eb bc
       -0.14475338 -0.093647316 0.056866214 -0.028743044
0003a0 4b 89 0a be 65 a1 77 bd 4e db 8e 3d d0 fe c6 3a
       -0.13528936 -0.060456652 0.06975423 0.0015182141
0003b0 fa 2e de bd b3 67 b6 bc 01 c7 50 3d 2e e1 01 be
       -0.10848804 -0.022266245 0.050971035 -0.12683555
0003c0 9c c8 09 3d 94 d0 a2 3d 1a 79 95 bb c7 26 73 3d
       0.03363858 0.07949939 -0.0045615556 0.059363153
0003d0 c2 b3 ed bd 95 b3 ac bd 68 7f cd bc 48 a7 79 bd
       -0.11606552 -0.0843269 -0.025085166 -0.060950547
0003e0 fd 12 80 3d d0 4b 56 bc 66 78 1b 3d 26 fb ef bb
       0.06253622 -0.013079599 0.037956618 -0.0073236404
0003f0 a6 3c c0 bd 46 5c be 3d 6b 3a c5 bd f0 da 92 3d
       -0.09386568 0.092949435 -0.09630283 0.07170665

fc2.bias f4 [64]
000000 96 72 29 3f 86 bc 28 bd fd 33 c9 3f 98 64 79 3d
       0.6619047 -0.041195415 1.571899 0.06088695
000010 8e a8 db 3f a8 79 bc 3f 47 7f f4 bc c1 10 05 40
       1.7160814 1.4724627 -0.029845847 2.0791476
000020 db 96 ad bd d2 ca 42 be 38 6e 88 bf 40 06 9a 3d
       -0.08476039 -0.19022682 -1.0658636 0.07520723
000030 86 52 21 3d 3e d7 a5 3d ca 45 b7 3f c4 8c 9d 3d
       0.03938534 0.08097695 1.4318173 0.076928645
000040 aa 23 0e 3f 4b 7d 0a 40 9a ca 82 3f 7a ae 10 40
       0.5552317 2.1638973 1.0218079 2.2606492
000050 e1 e8 bb 3e 18 e2 06 40 6c 04 88 3d 43 10 e5 3d
       0.3670111 2.1075497 0.066414684 0.11184742
000060 ea a0 c3 3f d1 38 83 3f 0c 20 10 bf 3d 18 b2 3e
       1.5283482 1.0251714 -0.562989 0.34784117
000070 e5 12 07 be e7 3a b4 bd 91 7b 0b 40 f3 de 8a bd
       -0.13190801 -0.08800297 2.179417 -0.067808054
000080 97 76 d4 3f e6 2f 87 bd 92 93 83 3b 2c ff a4 be
       1.6598691 -0.06600933 0.0040153945 -0.3222593
000090 e9 23 ef 3f d1 4e 18 be 00 2b 9f 3d 1a 7c 96 3f
       1.8682834 -0.14873816 0.077718735 1.1756623
0000a0 82 83 bd 3f 10 ff d6 bb 47 8a 0f 40 20 69 0d 40
       1.4805758 -0.0065611675 2.2428148 2.2095413
0000b0 29 00 16 c0 48 f4 c9 3f c5 dc cd 3d f0 a7 5a bc
       -2.3437598 1.5777674 0.10051874 -0.0133457035
0000c0 36 5c a1 bd dc 74 d9 bd 2c 98 e6 bd 84 f4 3f 3f
       -0.07878916 -0.10617992 -0.11259493 0.74982476
0000d0 e4 e2 e0 3f a7 6f a1 3c 05 ae a3 bd 03 87 0a 40
       1.7569242 0.01970656 -0.07992176 2.1644905
0000e0 61 09 18 bf a0 52 3e bd 52 48 12 40 41 da 57 b9
       -0.5938931 -0.046465516 2.285664 -0.00020585304
0000f0 49 51 d8 bd df 7c 01 40 30 6a 89 3c 07 bf 7c 3f
       -0.10562379 2.0232465 0.016774267 0.98728985

fc3.weight f4 [20, 64]
000000 32 cb ef bb f4 c9 a6 bd 2c 62 5b be 49 24 92 bd
       -0.007317924 -0.08143988 -0.21424168 -0.07135827
000010 bb 98 d3 3e 9c 02 87 3e 02 b2 e9 3d 6d a6 03 3f
       0.41327462 0.26369178 0.114109054 0.5142582
000020 d8 69 f2 3d a1 30 20 be 69 79 dd be e8 3c f9 bd
       0.11836594 -0.1564355 -0.4325669 -0.1216982
000030 d8 1e c5 bd d2 51 18 bd 8c 78 9d 3e 73 9d a4 bd
       -0.096250236 -0.037187405 0.30756032 -0.080378436
000040 31 ef 9b 3c d2 8a 99 bf 5a 60 60 3d 96 d1 29 3f
       0.019034954 -1.199549 0.054779388 0.6633543
000050 14 de 22 be 30 30 dc 3e cc 1f 69 bc b4 23 36 bd
       -0.15905029 0.43005514 -0.014228772 -0.044467643
000060 6f 70 8d 3e 5f ed c5 3d 45 57 81 be c1 34 c9 bc
       0.27624843 0.096644156 -0.25261894 -0.024561288
000070 34 85 d1 bd b2 2f 19 bd 54 33 74 bf c7 58 98 3d
       -0.102304846 -0.037399 -0.9539082 0.07438808
000080 ef c4 75 3e 49 3f 3e bd d9 22 a7 bc 71 4f af be
       0.24000905 -0.046447072 -0.020402359 -0.34240296
000090 05 e6 9f bf 6b ce 22 3d f0 84 d5 bd 0e 49 eb 3d
       -1.2492071 0.039747637 -0.104257464 0.114885435
0000a0 aa 55 70 3e ee 1d a9 bd 90 27 ea 3e 9a 8e 26 3f
       0.23470178 -0.08257662 0.4573331 0.6506134
0000b0 0d 57 33 bf 52 c2 b2 3e 47 b2 e7 3d e0 52 d8 3c
       -0.70054704 0.3491388 0.113133006 0.026406705
0000c0 cc ab de 3d 46 d9 83 3d 1e 02 27 3d 17 4f 8c bf
       0.108726114 0.06437926 0.040773503 -1.0961636
0000d0 d8 fd a4 3e b7 02 8b bd 4c d4 ce bd 5d 4d 02 3f
       0.32224917 -0.06787627 -0.10099086 0.50899297
0000e0 ff a1 28 be 60 81 31 bc c6 3e 04 3f 38 fc 75 3d
       -0.16468047 -0.010834068 0.51658285 0.060054988
0000f0 db 2d 6b bd 39 45 2f 3f 3c 65 09 3d 41 f3 0e 3f
       -0.057416778 0.68465 0.03354381 0.55839926
000100 5f 0e 5f 3c d0 5d 8f bd 3b ee 14 bf 0b 82 12 bd
       0.013614266 -0.07000315 -0.5817601 -0.03576855
000110 aa f2 ee 3d 1b 99 a6 3d 20 20 99 bb b2 11 f5 3e
       0.11667378 0.08134671 -0.004673019 0.47865063
000120 b8 09 70 3d 6c 55 aa bd eb e9 02 be 60 0c bb bc
       0.05860302 -0.08317074 -0.12784545 -0.02283305
000130 73 2d c1 bd b4 d6 d6 3d ef 55 3b 3e a8 1a e3 bd
       -0.09432497 0.1049017 0.182945 -0.11089069
000140 50 73 7f 3d c7 5c 7b bf 43 f2 d0 3d 87 4e c7 3e
       0.06236583 -0.9818844 0.10202458 0.389271
000150 02 b1 5b 3d 98 8d f6 3e 72 f2 12 3e ea 7c c0 bd
       0.053635605 0.48154902 0.14350298 -0.093988255
000160 7b 10 15 3e a2 de 1b 3e d6 05 cb bd 9f 67 1f bb
       0.14557068 0.15221646 -0.099132225 -0.0024323238
000170 ae 88 f4 bd 37 c7 a3 bc 72 27 60 bf e2 51 3a 3c
       -0.11940132 -0.019992454 -0.8756019 0.011372061
000180 94 b2 8e 3e 46 fd a7 bd 26 cb 98 bd f7 67 45 3d
       0.2787062 -0.08202605 -0.074606225 0.04819485
000190 bb 1c b1 be 89 b8 18 bd 33 29 7e 3c 47 f4 0f 3d
       -0.34592232 -0.03728536 0.015512752 0.03514507
0001a0 d3 18 53 3e dc 0c 42 bd 45 c1 a7 3e 6b 78 ef 3e
       0.20614938 -0.047375545 0.3276464 0.4677156
0001b0 d7 72 81 be 79 da 0f 3e 57 a8 6d 3d 08 e1 f5 bd
       -0.25282928 0.14048184 0.05802187 -0.12005812
0001c0 bc e7 ed bd ba a8 20 bd 5c 1c 92 bd 14 44 17 be
       -0.116164654 -0.03922341 -0.07134315 -0.14772063
0001d0 d5 88 d1 3d 38 fb ac bd 5c 67 7d 3d ed f8 f8 3e
       0.10231177 -0.08446354 0.06186615 0.48627415
0001e0 02 69 90 bc 4e 22 f8 3d d0 e8 01 3f 5a 9d 91 bd
       -0.017628197 0.12115918 0.5074587 -0.071100906
0001f0 0e 8c fc 3d c3 d2 0d 3f 80 74 50 3b ab ed 0a be
       0.12331401 0.5539972 0.003180772 -0.13567226
000200 00 86 10 bd 56 29 cc bd d5 02 e6 be 5a 9c 28 bc
       -0.035284042 -0.09968822 -0.44924036 -0.010291183
000210 c2 d8 77 3e 2a 00 ae 3d fe 90 d2 3b e4 af 09 3f
       0.2420378 0.08496125 0.006425976 0.5378401
000220 0e 73 85 3d 5a 5d 14 3d 56 6d 67 be 90 51 03 bc
       0.065160856 0.03622184 -0.22600302 -0.0080150515
000230 32 9b d5 bd 44 d5 4c bd 42 df d5 3d ba 78 fb bc
       -0.10429992 -0.050008073 0.10442974 -0.030697215
000240 8b 68 c9 bc ce 26 5b bf 24 4f 0a 3e 2b 8e 07 3f
       -0.024585983 -0.85606086 0.13506752 0.52951306
000250 01 c2 b2 bd 04 57 cb 3e 5b 5c 06 3c 20 fc 47 3d
       -0.087284096 0.39714825 0.00820073 0.04882443
000260 13 fa f7 bb 8c b1 8d 3e 12 91 0c be 5d 88 12 bd
       -0.007567653 0.2767452 -0.13727215 -0.035774577
000270 72 a2 82 3d 6d 15 05 be b3 1a 6a bf 14 65 a0 3d
       0.0637864 -0.12996455 -0.9144699 0.07831779
000280 7c 7c 30 3e 2e e9 98 3d 0c be f0 bd 44 da e0 bd
       0.17234987 0.074663505 -0.117549986 -0.10979131
000290 e0 90 23 bf d6 c3 55 bd 60 af 8d bd 0e 45 68 3c
       -0.63892937 -0.052188717 -0.06918216 0.01417662
0002a0 f9 2a 31 3e bc d2 04 bd 61 f0 e4 3e e8 88 03 3f
       0.17301549 -0.032427534 0.44714645 0.5138078
0002b0 9a 9b cd be 12 70 b8 3e e2 40 04 3e f0 0f 33 3c
       -0.40157777 0.36023003 0.12915376 0.010929093
0002c0 7e d5 ac bd 01 a4 a0 bc bf 19 cd bd 5b 04 eb be
       -0.08439158 -0.019609453 -0.10014676 -0.4590176
0002d0 34 83 6b 3e a7 1f 17 3e d4 f0 14 3d b4 5d 09 3f
       0.22999269 0.14758168 0.036362484 0.53658605
0002e0 ed 5d 23 be d8 89 08 bd 11 73 0b 3f 8a 86 88 bd
       -0.15953799 -0.033334583 0.5447245 -0.06666286
0002f0 98 24 92 3d 6f 3c c0 3e 4e e9 8d bd e9 9d 92 bd
       0.07135886 0.37546107 -0.06929265 -0.07159025
000300 47 9e e6 bd e0 3f 68 3c ac 34 19 bf fc 3f 06 bd
       -0.11260658 0.014175385 -0.59845996 -0.032775864
000310 f1 f5 cb 3d 38 d1 17 3d d0 83 52 bd 5a 25 e3 3e
       0.09959019 0.03706476 -0.051395237 0.44364434
000320 bc eb 47 3d be 69 5f 3b 3b a7 32 be 7a e2 c0 bd
       0.0488088 0.0034090127 -0.17446606 -0.09418197
000330 8d 75 80 3d 9a 15 b0 bd 0d de 3d 3e 77 76 b5 3d
       0.06272421 -0.0859787 0.18541737 0.08860486
000340 f2 7c 05 3e bd 4a 48 bf bb ca 08 3e bd 89 d5 3e
       0.13035944 -0.7823904 0.13358586 0.41706648
000350 ed 8e 42 3e 4a 04 a4 3e b7 d1 01 3d 90 71 26 3d
       0.18999834 0.32034522 0.03169414 0.040635645
000360 59 9b 62 bc ef cf 82 3e ef a6 61 bd 50 df ad bd
       -0.013830983 0.25549266 -0.05509084 -0.08489859
000370 24 64 a7 bd c9 29 4b be b7 e2 3c bf 1a 25 cd 3d
       -0.08173397 -0.19840159 -0.7378344 0.10016842
000380 eb be d5 3d 6c 78 54 bd 40 96 1e bb ff 71 73 bd
       0.10436805 -0.051872656 -0.0024198443 -0.059434887
000390 8f 8c 29 bf 36 34 36 3e dd 85 05 3e a0 22 23 be
       -0.662301 0.17793354 0.13039346 -0.15931177
0003a0 69 78 84 3e b8 bf 24 3d 7f 40 d2 3e 36 bb 08 3f
       0.25873116 0.0402219 0.41064832 0.5341066
0003b0 07 03 a9 be 06 8b 9c 3d 03 52 38 3c e0 88 b2 3d
       -0.33010122 0.07643704 0.011250022 0.08717513
0003c0 8e a8 d9 bd f8 de dd 3d 65 0a ea 3d 9f 1b 39 be
       -0.106278524 0.108335435 0.11427764 -0.18076943
0003d0 b3 d6 66 3e e2 06 64 3d 28 06 1b 3c d3 88 ea 3e
       0.22542839 0.055670626 0.009461917 0.45807514
0003e0 e9 29 9d be 74 20 26 bd 2e b6 04 3f 28 d8 f6 3d
       -0.30696037 -0.040558293 0.51840484 0.12052947
0003f0 65 94 14 3d 76 b4 0c 3f e0 24 08 3d 52 de 81 3d
       0.036274333 0.5496286 0.03323829 0.06341232

fc3.bias f4 [20]
000000 18 62 ca 3f 02 ea 3f 3f eb aa 56 3f e6 77 34 3f
       1.5811186 0.7496644 0.8385455 0.7049545
000010 23 d8 2b 3f 0a 27 0e 3f b8 6d df 3e 73 13 06 3f
       0.67126673 0.5552832 0.43638396 0.5237343
000020 e0 13 c4 3d f8 84 7a 3e 51 13 a8 3e d6 70 ab bb
       0.09574103 0.24464786 0.32827237 -0.005231957
000030 7b 21 24 3e 7d d5 9c 3d 43 7a 4f be ef e1 ca bc
       0.16028397 0.07657907 -0.20261483 -0.024765937
000040 ff b9 de bd 61 37 da bd e8 80 35 be 10 9f 14 be
       -0.1087532 -0.10655094 -0.17724955 -0.14513803
