beer/experiments/MA_0.05/models/dqn_agent_firm_2_episode_2000.pth (torch, 101224 bytes, 24 tensors)

fc1.weight f4 [64, 3]
000000 2f a3 95 3e ce 32 73 bf 77 f1 1f 3f 0d de 93 be
       0.29226062 -0.94999397 0.6247782 -0.2888035
000010 f4 61 69 be a1 fe 0c bf 2f bf 61 be 56 d0 5f 3f
       -0.22791272 -0.5507603 -0.22045587 0.8742727
000020 18 ca 89 bb e7 a9 18 3f 05 f3 bb be 60 95 3d 3e
       -0.0042049997 0.5963425 -0.36708847 0.18514013
000030 80 53 52 3e 6f 6d 03 bf 0b c8 97 be 25 8c 77 3e
       0.20539665 -0.5133886 -0.29644808 0.24174555
000040 78 5e b7 3f 38 cf 26 bd cd 25 6f bc 44 f1 c8 be
       1.4325705 -0.040724963 -0.014596415 -0.3924657
000050 4d 90 0f 3f 00 56 37 bf 7c f1 bd 3e f7 86 e1 3d
       0.5607956 -0.716156 0.370983 0.110120706
000060 49 01 89 3e 7b c9 ae 3f 62 1b e9 ba 31 bd 6e be
       0.26758793 1.3655237 -0.001778465 -0.23314358
000070 8d 0d 63 3e 9f 05 16 3f 99 95 e0 be f1 5b b9 be
       0.22173138 0.5860233 -0.43864134 -0.36202958
000080 64 13 d9 3e 2d 39 a5 3c a4 70 20 3f 4d c6 1e bd
       0.42397606 0.020168865 0.62671876 -0.038763333
000090 96 c9 e4 3e c0 c1 d3 bf 0b ba 04 3f 2e 8b 15 3e
       0.44685048 -1.6543503 0.5184638 0.14603874
0000a0 74 ba a3 3f d6 cf c7 bd 64 78 44 be ca 6e bc be
       1.2791276 -0.097564384 -0.1918655 -0.36803275
0000b0 ec da e3 be 7c 60 dd 3d f1 2b 33 3f 1f a2 a3 be
       -0.44502962 0.108094186 0.69988924 -0.31959626
0000c0 05 4a 09 3f fb e0 9c bf 8f 99 53 3e 65 23 93 3e
       0.5362857 -1.2256159 0.20664047 0.2873794
0000d0 31 11 83 3e 77 01 30 be b6 f6 0c 3e 72 22 b8 bd
       0.25599054 -0.17188059 0.13765988 -0.08990945
0000e0 05 94 15 3f c3 60 35 3e f3 5f e0 3e bc 2a bd bc
       0.58428985 0.17712693 0.43823203 -0.023091666
0000f0 e4 1a ae bd 87 53 48 3f 36 a5 b5 3d 08 e1 a7 be
       -0.08501223 0.7825245 0.08869402 -0.32788873
000100 0f 2c 43 3f a4 cb 2b 3d 40 a0 55 bc ac 3a e5 bd
       0.76239103 0.041942254 -0.013038695 -0.111928314
000110 5d b6 00 bf dd e8 69 3f 5a 04 72 bf c0 51 d7 3e
       -0.50278264 0.91370946 -0.9453789 0.42054558
000120 ea e0 94 3f 71 7e fc be 1a 9a 45 3e 05 61 b6 3d
       1.1631138 -0.49315217 0.19297066 0.08905224
000130 54 b2 d6 3f 77 90 23 bd a3 11 bf 3e 47 8f 5f be
       1.6773171 -0.039932694 0.37318143 -0.21832
000140 0b 36 9f 3d d1 61 41 3f ee de f2 ba 2f 8c b7 be
       0.0777398 0.7553988 -0.0018529573 -0.3584914
000150 be 6a a0 3f 0c 1d e8 3e 7e d9 c6 bc 33 04 66 3d
       1.2532575 0.4533466 -0.02427363 0.05615635
000160 9c 34 bd 3d 3b f6 b5 3e 55 af c0 3e 03 31 23 be
       0.0923855 0.3553942 0.37633768 -0.15936665
000170 74 31 b6 3e 9a 29 65 3e 14 53 3c bf 98 06 e8 3e
       0.35584605 0.22379151 -0.7356427 0.4531753
000180 8a ab f3 3c 8d 20 6e bf 40 83 7f 3e 39 5c ea bd
       0.029744882 -0.9301842 0.24952412 -0.11443371
000190 80 64 5b 3f 64 08 45 bc 91 26 92 3e 69 65 7e 3f
       0.85700226 -0.012025926 0.2854505 0.9937349
0001a0 c2 6d cf bc 1c c8 61 bf cd f7 15 3f 26 d3 2c be
       -0.025320891 -0.8819597 0.5858124 -0.16877422
0001b0 f8 ae 6d 3e b8 cb ae bf ad b4 0a 3f 10 20 06 bf
       0.23211277 -1.365592 0.5418194 -0.52392673
0001c0 40 8c e0 be ff 0e b6 be 26 9d 9c 3e 5e 9e 88 be
       -0.43857002 -0.35558316 0.30588645 -0.26683325
0001d0 15 ed 71 3e 63 ba 2b 3f d8 61 ad be 3f c3 90 3d
       0.23625596 0.6708128 -0.3386371 0.0706849
0001e0 80 55 8c bb 18 14 2d be 83 b7 dd be 32 c3 89 3e
       -0.0042826533 -0.16902196 -0.4330407 0.26906735
0001f0 30 7f 02 3f d6 a3 a5 bc c7 c1 cd bc 6c 61 48 3e
       0.5097532 -0.020219725 -0.025116814 0.19568413
000200 0a 4c 91 3e 86 90 25 be 59 65 40 3f e7 93 36 be
       0.28378326 -0.16168413 0.75154644 -0.17829858
000210 37 d5 a6 3c 36 16 c9 3f 31 74 41 bd 13 39 e4 3e
       0.02036534 1.5709903 -0.04722995 0.44574794
000220 b9 4f 26 3e 80 8b f2 3e f4 90 45 3e b5 95 c1 be
       0.1624135 0.47372055 0.19293576 -0.3780953
000230 b1 8a 13 bf 18 43 62 3b 55 0e e7 3f cd 23 44 bd
       -0.576335 0.0034524854 1.8051249 -0.047885705
000240 da 2f af 3e 75 5a ad 3e bd 49 99 3d 1b cb 51 3f
       0.34216195 0.33858076 0.074847676 0.8195054
000250 5e 7a 93 bd 3f 7e f6 bc 10 dd 90 3d 74 1a b9 be
       -0.07201074 -0.030089496 0.07073414 -0.36152995
000260 c0 42 3d be 55 19 19 3f cf f2 7c bc d1 05 6f 3e
       -0.18482494 0.5980428 -0.015438749 0.23342063
000270 58 54 30 be 9a c9 77 bf fb c0 b5 3e 8c b6 d4 bd
       -0.17219675 -0.96791995 0.35498795 -0.103863806
000280 9a d1 72 3f ae a0 c8 3d 41 59 cb be 95 8b 88 be
       0.94851077 0.09796272 -0.39716533 -0.26668993
000290 f7 15 75 3e ab db 8a 3f eb d6 85 be 35 64 50 3e
       0.2393416 1.0848287 -0.26140532 0.20350726
0002a0 6e 56 99 3d b0 6b b3 3e ee 36 ed be e0 22 be 3d
       0.07487188 0.35043097 -0.4633097 0.09283996
0002b0 9e 3e 5c be 65 b1 02 bf 1f 2b 1d be 46 4c 15 bf
       -0.21508262 -0.5105193 -0.1534848 -0.5831951
0002c0 7f 01 00 3f 36 d8 26 3f 98 08 a6 bd db 31 f6 3e
       0.5000228 0.6517366 -0.08107108 0.48084912
0002d0 bc 52 05 3e 5b 56 63 3f e7 bb 15 bd 9f 0c 06 bf
       0.13019842 0.88803643 -0.03655615 -0.5236301
0002e0 f1 bc 48 3f 7f 38 9d 3d 9a c9 94 be 34 55 e4 be
       0.784133 0.076767914 -0.2906006 -0.44596255
0002f0 87 20 bb be ec e3 a5 3e 82 a0 99 3e ea d3 84 bc
       -0.36548254 0.32400453 0.3000527 -0.01621433

fc1.bias f4 [64]
000000 ce 29 59 c0 38 9c 0d bf 7e 4b 88 40 fa 52 2e c0
       -3.3931766 -0.55316496 4.2592154 -2.7238145
000010 44 25 c1 3e c8 24 a1 bd 4e 0d 99 c0 16 83 7f 40
       0.37723744 -0.078683436 -4.782874 3.9923759
000020 21 7c ae bf 55 2e 60 c0 b1 32 4c 40 e2 2c 62 40
       -1.3631631 -3.502828 3.190594 3.5339894
000030 c3 62 5f bf 48 53 27 bf 3c 0b c3 be b8 3d ac 3f
       -0.87260073 -0.6536145 -0.3809451 1.3456335
000040 84 1a 99 40 e9 10 2b 40 a5 b6 5a c0 05 0e 8a 40
       4.784487 2.672907 -3.4173977 4.3142114
000050 a6 47 86 c0 df 34 83 40 d4 77 52 3e 4f 72 5d c0
       -4.196246 4.100204 0.20553523 -3.4601018
000060 06 77 63 c0 e6 89 3a bf a9 29 97 40 77 fd a0 3f
       -3.5541396 -0.72866666 4.7238355 1.2577351
000070 9f eb cb 3f 5b 06 a2 c0 e6 78 57 c0 44 4a 6d c0
       1.5931281 -5.063276 -3.366754 -3.7076578
000080 f5 e7 26 c0 91 fc 43 40 ea 9d 75 40 bd 92 06 3f
       -2.6079075 3.0622904 3.8377633 0.52567655
000090 c8 43 47 40 9c ba f6 3e 7b b7 51 c0 ab 4f 84 40
       3.113512 0.48189247 -3.2768238 4.134725
0000a0 b0 f7 a0 3d 0b 5a 71 40 3e a3 6f 40 ca fd 87 3f
       0.07859743 3.7711208 3.7443385 1.0624325
0000b0 e1 4a 8d 3e c1 64 53 c0 fe e8 e8 be 8e ad c5 bd
       0.2759619 -3.3030245 -0.4549026 -0.096522436
0000c0 bf fa 33 c0 e3 43 85 40 98 27 f3 be 2f 31 75 c0
       -2.8121793 4.164537 -0.47491145 -3.831127
0000d0 91 00 7a c0 45 8d bd be 04 f0 99 c0 2b 31 51 c0
       -3.9062846 -0.37021843 -4.810549 -3.268626
0000e0 fd 7d f2 3f 7e 26 0e 3f 3e d6 4a 3f 29 1e 7a c0
       1.8944699 0.55527484 0.7923316 -3.9080908
0000f0 82 96 3e 40 3b 5f 81 40 0c 67 07 3e b9 73 72 40
       2.9779363 4.042875 0.13222903 3.7883132

fc2.weight f4 [64, 64]
000000 d0 fb a1 3c 04 df 8a bd 3f f0 7d bd bf b2 11 be
       0.019773394 -0.06780818 -0.061996695 -0.14228342
000010 50 3a 7b 3c af c9 0d be 7e 88 84 bd 78 41 57 bd
       0.015333727 -0.13846467 -0.06471346 -0.05255267
000020 9c 0e 8f bd 46 95 1b be dc fe bc bb 1f 8d b3 bd
       -0.069852084 -0.15193662 -0.0057676863 -0.08767151
000030 8b e3 01 be e0 5c f6 3b 20 65 7e 3d 5c d9 67 bd
       -0.12684457 0.007518396 0.06210816 -0.056603774
000040 3d 3b e7 bb a3 e5 d9 bc 5f d1 5f bd ca 4c 04 be
       -0.0070566223 -0.026598757 -0.05464303 -0.12919918
000050 94 d3 21 3d 1c 34 d6 3d 70 64 97 3d 59 a9 31 3d
       0.039508417 0.10459158 0.07392204 0.043374393
000060 22 b5 7c bd 28 07 97 bd ce cf a6 3d e4 44 e9 bd
       -0.06169618 -0.07374412 0.08145104 -0.11390093
000070 6d 8d 8f 3d 21 5b 05 3d fd 9b 80 3d 71 5c 73 bd
       0.07009397 0.03255761 0.062797524 -0.05941433
000080 f4 51 46 3d 41 2d 5c bc 1b 23 fe bd c4 88 96 3d
       0.048418 -0.013438524 -0.124090396 0.07350305
000090 31 3b 02 be a8 4a fa bd c0 df cc bd 9f 4a c5 bd
       -0.12717892 -0.12221271 -0.100036144 -0.096333735
0000a0 08 14 37 3d 7e 3b 0e 3c e2 b8 df 3c ec 2f ba 3d
       0.044696838 0.008681176 0.027309839 0.090911716
0000b0 8d 3a d8 bd 9e d8 84 3d f0 23 7a 3c 70 72 b7 3c
       -0.10558043 0.06486629 0.015267357 0.022393435
0000c0 b3 a6 85 bd e8 f9 1c 3c 0c 74 c5 bd 55 06 5c bd
       -0.06525936 0.009581067 -0.09641275 -0.053716976
0000d0 26 88 9d bd 26 44 89 bd 20 55 0e bc 01 58 ac 3d
       -0.07691984 -0.067024514 -0.008687288 0.08415223
0000e0 c8 1d 5e bd 2e ef dc bd 35 f7 b0 3d a5 0e f2 bd
       -0.05422762 -0.107878074 0.08640901 -0.118191995
0000f0 21 64 84 3d ec 97 34 bd a0 11 77 bc 69 ac b1 bd
       0.064644106 -0.044090196 -0.015079886 -0.08675463
000100 d3 ad a3 bc e0 03 b3 bd d5 35 26 bd 10 cf 97 bc
       -0.019980347 -0.087409735 -0.040578682 -0.018531352
000110 cc 2c f5 3d 00 b8 37 bc c1 75 79 bd ac 57 12 be
       0.11971435 -0.011213303 -0.060903315 -0.14291257
000120 0b a5 3c bc 87 5d 90 3d c9 92 ec 3a 15 00 00 bd
       -0.011513959 0.07049089 0.0018049116 -0.03125008
000130 55 23 45 3d 2c 02 7a 3d 78 02 17 bd 96 c8 ca bd
       0.0481294 0.061037228 -0.03686759 -0.0990154
000140 e2 ef 98 39 96 8d e5 bd 9f 2b a5 3c f0 b8 b1 bd
       0.00029170426 -0.11208646 0.020162402 -0.08677852
000150 e0 20 3b 3d a7 15 e0 bd 68 24 c3 bd 52 e2 06 be
       0.04568565 -0.1094163 -0.09528428 -0.13172272
000160 e8 e4 e2 bd 00 cb bc 3d 9c 8c 9b 3d 0c e5 24 bd
       -0.11078817 0.09218407 0.075951785 -0.0402575
000170 36 f4 cc bd 47 d8 b7 bd 1d 94 1c be 0f 0e b5 bc
       -0.10007517 -0.089767985 -0.15290876 -0.02210143
000180 f4 f3 05 bd dc 24 ec 3d fa 5c 56 3d 4f 79 cb bd
       -0.032703355 0.11530468 0.052334763 -0.09935247
000190 7a 9b 07 3d c0 04 60 bc 4c 89 b6 bd 91 84 2a 3d
       0.03310726 -0.0136730075 -0.08912906 0.04163033
0001a0 28 75 88 bc c4 b2 a8 bd 45 a4 1e be 11 3c 54 bd
       -0.016657427 -0.08237222 -0.15492351 -0.051815096
0001b0 71 3e 90 bd f0 0b d8 bd 80 63 0e 3c 78 bc df bd
       -0.0704316 -0.10549152 0.008690715 -0.109246194
0001c0 84 3c 17 be 2e d0 3a bd c0 9d 68 bd b0 44 23 bd
       -0.14769179 -0.045608692 -0.056791067 -0.039860427
0001d0 a7 84 f5 3c c7 92 40 bd 5e c9 27 be e7 c2 51 bd
       0.02997048 -0.047014978 -0.16385409 -0.051211264
0001e0 18 d1 26 3d f4 e9 22 bd 33 e8 16 3c 21 32 c0 3c
       0.04072675 -0.039773896 0.009210634 0.023461403
0001f0 66 68 7f 3d 63 89 32 3d 98 f8 1b 3d 4a 8c f8 3d
       0.06235542 0.043588053 0.038078874 0.12136133
000200 80 07 83 3a 4c a7 11 bd 46 56 80 bd 8c 2e 13 3d
       0.0009996742 -0.035559937 -0.06266455 0.035933062
000210 00 f3 15 3b 90 ac b6 bd 92 c9 86 3d 60 63 63 3c
       0.0022880435 -0.089196324 0.06581415 0.013878673
000220 9c 2c fc bd e0 8b 1e bd a6 4f e3 bd 6c 10 86 bd
       -0.12313196 -0.038707614 -0.11099176 -0.06546101
000230 86 76 b5 3d ea 1c ec bd 7a 2d 98 3d b8 68 1e bd
       0.08860497 -0.115289524 0.07430549 -0.038674086
000240 06 14 8a 3d 00 de 0b 3a 82 ce 80 bd ca 7b d7 bd
       0.067421004 0.000533551 -0.06289388 -0.10521658
000250 d8 a8 20 3d d2 57 b7 bd 80 b7 f1 bd e6 77 88 bd
       0.039223522 -0.08952297 -0.11802578 -0.06663494
000260 e0 3d 00 bd d0 14 69 bd 3c 09 c3 bd 50 fa 64 3d
       -0.03130901 -0.056904614 -0.09523246 0.05590278
000270 cc 79 29 bd 50 ed 50 bc c0 70 1a 3b 10 2a 40 bd
       -0.04137592 -0.012751892 0.002356574 -0.046915114
000280 08 c4 98 bc b4 18 64 bd a0 b4 8e 3b 1c c6 53 bd
       -0.018648162 -0.05568762 0.0043550283 -0.051702604
000290 f0 67 8d 3c d0 5c 53 3c 58 dc 83 3c 14 5e fc bd
       0.017261475 0.012900546 0.016096279 -0.123226315
0002a0 c0 72 ac 3d 80 aa 28 3c d8 02 f5 bd 8c 6e 28 bd
       0.08420324 0.010294557 -0.11963433 -0.04112105
0002b0 40 06 04 bc 5c 07 95 3d 18 f3 83 bc ce 89 82 3d
       -0.008058131 0.07276794 -0.016107127 0.063739404
0002c0 cc 7c 96 bd 3a bd d5 bd e0 70 9b bc bc 67 10 bd
       -0.07348022 -0.10436483 -0.018974721 -0.03525518
0002d0 50 5a 82 3d 58 a3 90 bd 04 83 78 3d 16 6e a1 bd
       0.06364882 -0.07062405 0.06067182 -0.07882325
0002e0 36 f2 b9 3d f4 98 cc bd 7c 41 cf bd aa 1c d3 bd
       0.09079401 -0.09990111 -0.10119912 -0.103082016
0002f0 64 39 ca 3d 02 41 e9 3d a0 cd 79 bd 6c 4b 18 3d
       0.09874228 0.113893524 -0.060987115 0.037181303
000300 4b e5 0c bd 8c d0 c4 bd ea ce 77 3f f4 5e 4c be
       -0.03439836 -0.0961009 0.968001 -0.19958097
000310 80 2e ba ba 61 40 c4 be b7 81 8a be 98 3f 6d 3e
       -0.0014204532 -0.38330367 -0.2705209 0.2316879
000320 02 64 14 bf 18 8e 45 be 8d 4c 3c 3e 35 fa 45 3f
       -0.579651 -0.19292486 0.18388577 0.7733491
000330 a1 9d 10 3d ad 40 f5 3d 60 6d e4 bb b1 18 84 bd
       0.035306577 0.119752266 -0.0069710463 -0.06450022
000340 ca 30 d9 3e ef 23 62 bf 79 8a 95 bd bd 71 8f 3f
       0.42420036 -0.8833608 -0.07301802 1.1206585
000350 53 b3 9a bf 79 7a 5a 3f 60 0f da bc e4 dd 81 bd
       -1.2085975 0.8534313 -0.02661866 -0.063411504
000360 0f 0e d0 be ae cb 08 bf f7 ca ae 3f 98 c7 ad be
       -0.40635726 -0.5343579 1.365569 -0.3394134
000370 34 2e a7 3e 37 5d b7 be 79 67 58 be 05 c9 d3 bd
       0.32652438 -0.35813305 -0.21133222 -0.10341076
000380 15 ea 37 bd ab dd c1 3e 9c 58 f4 3e 32 14 f4 3e
       -0.044900972 0.37864432 0.47723854 0.47671658
000390 64 62 73 3e 8e 6c fd bd bd 79 4f be 3e 1b 87 3f
       0.23768002 -0.12374221 -0.20261283 1.0555189
0003a0 3c d4 99 bd 54 8d 1e 3f 08 70 35 3e a1 9d e6 3e
       -0.075111836 0.619344 0.17718518 0.45042136
0003b0 fc a2 14 bf 7a 59 04 be 48 58 1e 3d 1f a9 4b be
       -0.58061194 -0.12924758 0.03865841 -0.19888733
0003c0 f4 d3 1b be aa 53 58 3f c0 5d 86 bb 29 62 8a be
       -0.15217572 0.8450266 -0.0041005313 -0.27028015
0003d0 fd 99 be bd e6 1f 2d be d1 cc 2a bf 92 58 b8 be
       -0.09306715 -0.169067 -0.66718775 -0.36005074
0003e0 c8 7b 0f bf de d6 f1 bd cd d3 ca 3d e5 b4 01 be
       -0.5604825 -0.11808561 0.09903679 -0.12666662
0003f0 37 55 b0 3e 68 55 82 3f 10 75 f0 bd 26 4f 65 3f
       0.34440014 1.0182314 -0.11741078 0.89573896

fc2.bias f4 [64]
000000 fa b4 75 bd f5 bb 59 3d 6e 8b e2 bd 62 1b 52 40
       -0.059987046 0.053157765 -0.1106175 3.2829213
000010 a4 9e 0f 3d 34 af 2e 40 ec 9b 66 bd f9 67 22 40
       0.0350634 2.7294436 -0.056301042 2.537596
000020 bc b0 e5 bd 3b c5 4d bd ca b7 d4 ba 07 46 30 40
       -0.1121535 -0.05023692 -0.001622909 2.7542741
000030 0a 4f d4 3f 17 ab c1 3f 04 71 14 40 06 3b 83 bd
       1.6586621 1.5130337 2.319398 -0.06407742
000040 b6 9d b0 3d cd 18 ae bc 1e cb 4a 40 6c d7 2e 40
       0.08623831 -0.02125206 3.1686473 2.7318983
000050 92 70 d3 3c ef c8 86 bf 5a b2 a2 3f 76 61 fa 3f
       0.025810514 -1.053007 1.2710679 1.9560993
000060 0d 1f df be 6f 13 3b 40 ec 7e 19 40 8d c1 8b 3c
       -0.43578377 2.9230611 2.3983717 0.017060066
000070 b1 1f 40 40 52 d2 20 40 df af 47 3d 68 af e3 3e
       3.0019343 2.512837 0.048751708 0.44469762
000080 9d c6 f4 3f 56 cb e9 bd 74 36 06 40 0c 06 e7 3d
       1.9123112 -0.114157364 2.0970736 0.1128045
000090 65 a1 e1 3f d0 2c 70 bd d9 fb ce 3f 81 67 2d 40
       1.7627379 -0.058636487 1.6170608 2.7094424
0000a0 f2 0b 22 40 3b 7f ae 3f 00 c1 50 40 de 3a 46 40
       2.531979 1.3632578 3.2617798 3.097343
0000b0 42 22 22 3b 80 ca 08 40 e6 94 4a 3d 9d 8d 0e bf
       0.0024739658 2.1373596 0.049458407 -0.55684835
0000c0 c8 b2 49 40 f3 b4 52 40 3f 7a 81 bf 0a d1 03 40
       3.151537 3.2922943 -1.0115432 2.0596337
0000d0 90 28 99 3f 3f 6f 33 40 0e 2b ea bd 80 91 43 3c
       1.1965504 2.803665 -0.11433993 0.011936545
0000e0 ca df 08 3f 28 1a d8 bc ee 3e 94 bc be 6a 6d 3c
       0.53466475 -0.02637966 -0.018096413 0.014490781
0000f0 8e 61 9d 3f 21 1e 25 be a7 fe 7e bd ad 5b 20 40
       1.2295396 -0.16124775 -0.062254574 2.5055954

fc3.weight f4 [20, 64]
000000 fc 6b 14 3b e1 0c a0 3d 68 af e9 3c 13 22 89 3f
       0.0022647372 0.078149565 0.028526023 1.0713524
000010 60 69 d9 bc b3 13 27 3f a8 da 98 bc 7d db 28 3f
       -0.026539505 0.65264434 -0.01865895 0.6595991
000020 73 77 23 3c a2 b6 ab 3a c4 70 7d 3d 8e e4 82 3f
       0.009977209 0.0013100693 0.06187512 1.0225999
000030 5b 31 9a 3f 73 8e f4 be e4 f3 5f 3f 5c 2b 0e bd
       1.2046312 -0.4776493 0.8748152 -0.03470932
000040 74 53 4b 3d 28 90 08 bd d5 8a 55 3f 3e a6 7c 3f
       0.049640134 -0.033340603 0.83414966 0.98691165
000050 e0 4a 31 3c c4 6f 38 bf 6b 11 21 c0 40 e3 d7 3e
       0.010821074 -0.7204554 -2.516688 0.42165565
000060 b3 27 6e bd 74 2c 6e 3f c5 3e 53 3f ee 0d 9d bd
       -0.05814333 0.9303658 0.82517654 -0.076686725
000070 d0 5d 64 3f 99 21 61 3f c5 be 5a 3c 08 ef 12 3f
       0.89205647 0.8794189 0.013351147 0.5739598
000080 55 fa 4d 3f 51 54 0d bd 9e 1b 3e 3f 0e 1e be 3d
       0.804601 -0.03450424 0.7426089 0.09283076
000090 d4 3f e9 bf d8 15 a8 bc 7f a1 b0 be a8 c8 50 3f
       -1.8222604 -0.020518228 -0.34498212 0.8155618
0000a0 62 10 a8 3f 40 c7 f2 bf 06 7e 58 3f 3c 2f 8e 3f
       1.313 -1.8967056 0.84567297 1.1108165
0000b0 8a 88 e3 bd a6 b1 19 3d 6f 4e d9 bd 83 84 56 3f
       -0.11110027 0.037522934 -0.10610663 0.83795947
0000c0 e1 bf 87 3f 51 40 84 3f 97 a9 bc be 64 5b 9a bf
       1.0605432 1.0332128 -0.36848137 -1.205914
0000d0 b8 68 9f bd c4 82 64 3f b1 96 4f bd ae 52 db bd
       -0.077836454 0.8926203 -0.05068082 -0.10709129
0000e0 a0 56 74 be fc 75 c4 bd ae 0c 3f 3d f2 3b db bd
       -0.2386117 -0.09592816 0.04664295 -0.10704793
0000f0 33 d8 c8 bf f2 e1 9f bd 3b fb 86 3d f2 4d 6f 3f
       -1.5690979 -0.078067675 0.06590887 0.9347831
000100 10 c8 ff bc 1f fd cd 3d ec c9 fa bd 72 17 3d 3f
       -0.031223327 0.10058045 -0.12245545 0.738639
000110 b8 41 da bd c7 f3 73 3e 16 2a b5 bd de 57 df 3e
       -0.10657066 0.23823462 -0.08845918 0.43621725
000120 93 c6 7b 3c aa ee 7d 3e ba 23 ca bd fa c3 32 3f
       0.015367168 0.24798074 -0.098700956 0.69830287
000130 0f f0 54 3f b5 c5 8d 3e 10 5e 22 3f e8 08 ec 3c
       0.831788 0.276899 0.6342478 0.02881284
000140 9a 11 c2 3d 7e 38 e2 3d 2f f7 3c 3f 70 70 2d 3f
       0.094760135 0.11045931 0.7381467 0.6774969
000150 80 03 2f 3c 6c 0f 28 be 59 0f bb be 80 bc 95 3e
       0.010681987 -0.16412133 -0.36535147 0.29245377
000160 da 60 12 3f 58 a2 32 3f 94 5c cc 3e 4b 6c 8b bd
       0.57179034 0.69778967 0.39914382 -0.068077646
000170 7a 99 2f 3f 4b b6 2c 3f f4 a8 ba 3d e3 c6 a6 be
       0.6859356 0.67465657 0.091142565 -0.32573614
000180 29 91 90 3e ae 67 ac bc 4c 00 21 3f 8e 9e cf 3d
       0.28235748 -0.021045532 0.6289108 0.10137664
000190 11 0d 8c bf 34 df eb bd 03 9c 24 bf 4b 47 f1 3e
       -1.0941488 -0.11517182 -0.64300555 0.47124705
0001a0 98 e3 ab 3f 10 59 fc be 3c e9 31 3f 46 1f 08 3f
       1.3428831 -0.492867 0.6949651 0.5317272
0001b0 4e 96 b7 3c ee e8 cb 3e c7 5c c5 3d eb 30 b1 bd
       0.022410538 0.3982615 0.096368365 -0.086519085
0001c0 a6 20 35 3f 8a 14 34 3f 09 f1 c6 be c5 b5 0b bd
       0.7075294 0.7034384 -0.3885577 -0.034108896
0001d0 d1 35 d6 3e 15 8a 1d 3f 5f 57 d1 bd 34 04 53 bd
       0.41837934 0.6153882 -0.10221743 -0.05151768
0001e0 8c fd 77 3d 08 33 94 3d 39 3b 40 3d 60 f1 d4 3d
       0.060544536 0.07236296 0.04693148 0.10397601
0001f0 63 50 12 bf 8f 2b b4 bd f8 f7 8a bc b2 eb d9 3e
       -0.5715391 -0.08797371 -0.016963944 0.42562634
000200 f0 26 af 3d d7 5d e0 bc a8 32 2f bd 2d c2 15 3f
       0.085523486 -0.027388496 -0.04277292 0.58499414
000210 40 66 1b bb 3a c1 83 3e a8 c6 8c 3d 8a 8d e6 3e
       -0.0023712069 0.25733358 0.06873828 0.4502986
000220 69 b6 75 3c 9e cd a4 3e 32 75 c0 bc 1e 78 fa 3e
       0.014997103 0.32188123 -0.023493383 0.48919767
000230 31 9e f7 3f bb 03 84 bd bb d6 95 3f 40 66 fe bd
       1.9345151 -0.06446024 1.1706156 -0.124218464
000240 40 60 7b bd e4 ca 02 bd e1 92 02 3f d4 5a 95 3f
       -0.061371088 -0.031931773 0.5100537 1.1668344
000250 5e 10 b5 bd b3 d1 d7 be 39 10 07 bf 91 c5 33 bf
       -0.088410124 -0.42152175 -0.5275913 -0.7022334
000260 80 d1 45 3f c0 1c 1e 3f ba f6 3d 3f 8d 24 f8 3d
       0.77272797 0.6176262 0.742046 0.121163465
000270 82 a9 ef 3e 1e 5e 82 3f 6a 2b 82 3d 8a de f9 3c
       0.46809012 1.0184972 0.06355937 0.030501623
000280 87 69 bf 3f e2 1b ba 3d a2 ff 8d 3f c0 1d 43 3b
       1.4954079 0.090873495 1.1093638 0.002977237
000290 b3 94 bc bf 68 db e6 bc e1 65 66 bf 95 5a dd 3e
       -1.4732879 -0.028180793 -0.89999205 0.4323317
0002a0 99 b4 83 3f 2f 3d 46 bf 7f 4b 01 3f eb fc 12 3f
       1.0289489 -0.7743711 0.5050582 0.5741717
0002b0 ae dc 23 bf 48 b4 1d 3e 34 99 82 3d 6a 56 16 3f
       -0.64008605 0.15400803 0.063768774 0.5872561
0002c0 46 0e 44 3f 9b 66 2f 3f 21 81 c6 be 23 48 98 be
       0.7658428 0.6851594 -0.38770393 -0.29742536
0002d0 ae c2 a3 3e 15 5a 2d 3f 08 af 0b 3e 60 7f 77 bd
       0.31984466 0.6771558 0.13640988 -0.06042421
0002e0 20 15 76 3e e8 90 9f bc 9f f6 32 3d cb a4 9e 3c
       0.24031496 -0.019478276 0.043692227 0.019365689
0002f0 5e e2 c1 be 40 81 e2 bb 84 7e 8a bd d1 9c 9d 3f
       -0.37868017 -0.0069123805 -0.06762412 1.2313482
000300 30 73 f2 3c ed fa 69 bd c0 ea 0e 3c 4b 3c 34 3f
       0.029595941 -0.057124067 0.008722961 0.704045
000310 7c 34 1c 3d 73 a6 00 3f 88 51 75 3d 23 d8 05 3f
       0.03813599 0.5025398 0.059892207 0.52282923
000320 c4 64 92 3b ef 52 5a 3f 4c 5a 9f 3d 37 c8 26 3f
       0.0044675786 0.85282797 0.07780895 0.65149254
000330 15 9b b5 3f 07 e9 97 3e de 14 00 3f f0 0b 90 bc
       1.4187952 0.29669973 0.5003184 -0.017583817
000340 ca 60 9e 3d f4 4f 90 bd d1 7a 44 3f 64 33 32 3f
       0.07733305 -0.070465 0.767499 0.69609666
000350 2c ee 24 3d 82 7f 1a be 14 74 9f be 33 18 3b 3c
       0.0402662 -0.15087703 -0.31143248 0.011419344
000360 22 99 85 3e 7f f6 36 3f 74 76 1f 3f 63 ff b0 bd
       0.26093394 0.71469873 0.6229012 -0.08642461
000370 c1 68 00 3f b3 9f 34 3f b8 5f 66 bd 81 a9 a6 be
       0.5015984 0.7055618 -0.05624363 -0.32551196
000380 fd c9 bb 3e 95 af ce bd c7 a9 06 3f 40 52 42 bd
       0.36677542 -0.10092083 0.5260281 -0.04744172
000390 f8 3d 85 bf e6 d5 b6 bd e6 31 79 bf 49 da 1b 3f
       -1.0409536 -0.08927517 -0.97341764 0.6087995
0003a0 45 fe a8 3f ee 6e 6f bf d5 ed 21 3f 60 94 29 3f
       1.3202597 -0.9352864 0.6325353 0.6624203
0003b0 f6 f9 67 be dd e2 c6 3e 5a 64 c8 bd 9e c9 b5 3e
       -0.22653946 0.38844958 -0.097847655 0.35505384
0003c0 c6 08 48 3f 4d b2 1c 3f 09 e8 cd be a4 a5 19 be
       0.7813839 0.61209565 -0.4021609 -0.15004593
0003d0 c2 22 b0 3e bc db 17 3f 1a 8e ac bd ac f9 4c 3d
       0.34401518 0.59319663 -0.08425541 0.050042793
0003e0 52 b6 78 3e 2e d1 f7 bd 58 3d 45 be ef cd 66 3d
       0.242883 -0.12100445 -0.19261682 0.056348737
0003f0 e2 c2 08 bf 84 96 98 3d 00 e4 9b ba 4b 10 03 3f
       -0.5342237 0.074505836 -0.0011893511 0.51196736

fc3.bias f4 [20]
000000 c8 64 ed 3f 64 71 3d 3f b1 e0 93 be cf 16 e6 3e
       1.8546381 0.74001145 -0.28882363 0.44939277
000010 85 cf 85 3e 9a 4e 8f 3e 53 bc cf 3e b4 30 40 bd
       0.26134887 0.27989656 0.40573367 -0.046921447
000020 61 b8 cf 3e 6c cb 86 3e ba 20 96 3e 31 8b e2 3e
       0.40570357 0.26327074 0.29321843 0.4424682
000030 31 21 92 3e e0 58 2d 3f 40 60 97 3c 29 2a 25 bd
       0.28540948 0.6771374 0.018478513 -0.04032341
000040 24 55 03 bd 86 5b b9 3e ac 50 ad bd 82 4d 83 3e
       -0.03206362 0.3620264 -0.084626526 0.2564507

fc1.weight f4 [64, 3]
000000 15 d4 9f 3e 15 70 65 bf 9b 80 22 3f 0d de 93 be
       0.31216493 -0.8962415 0.63477486 -0.2888035
000010 f4 61 69 be a1 fe 0c bf a3 f9 61 be 1e 4f 57 3f
       -0.22791272 -0.5507603 -0.22067885 0.841051
000020 eb be 96 bb 03 18 22 3f 15 f5 96 be 49 12 52 3e
       -0.004600396 0.6331789 -0.29483858 0.20514788
000030 80 53 52 3e 6f 6d 03 bf 0b c8 97 be f6 88 8a 3e
       0.20539665 -0.5133886 -0.29644808 0.27057618
000040 23 36 b1 3f 40 15 4e bd c1 a3 27 bc 5d 6f b0 be
       1.3844646 -0.050313234 -0.010231913 -0.34459963
000050 c6 80 12 3f cb 97 29 bf 5d 16 b2 3e ef d9 f1 3d
       0.5722774 -0.6624724 0.34782687 0.11809146
000060 a1 f2 9b 3e 8e 6b 9e 3f 14 1a 1d 3c 28 fd 58 be
       0.3045855 1.2376573 0.009588737 -0.21190321
000070 7e 20 7c 3e cb 6d 1b 3f b3 6e d2 be ee 8b ca be
       0.2462177 0.60714406 -0.41100082 -0.39559883
000080 c2 b1 db 3e 34 32 57 3c d2 37 1a 3f a7 47 13 bd
       0.42909056 0.013134528 0.60241425 -0.035957005
000090 7f 40 ee 3e 17 d7 c9 bf 24 47 06 3f 48 fe b1 3d
       0.46533582 -1.5768765 0.524523 0.086910784
0000a0 a0 62 9a 3f 7a ee e8 bd 64 78 44 be ca 6e bc be
       1.2061348 -0.11373611 -0.1918655 -0.36803275
0000b0 ec da e3 be b7 b8 bd 3d 88 7d 2f 3f 9a 36 b8 be
       -0.44502962 0.09263747 0.6855092 -0.35979158
0000c0 f6 44 20 3f 85 9f 97 bf d1 1a 4f 3e cf b1 8b 3e
       0.62605226 -1.1845556 0.20225073 0.27284095
0000d0 55 08 86 3e ce 3d 3a be ba 60 35 3e 5a 23 0e bd
       0.26178232 -0.18187639 0.1771268 -0.034701683
0000e0 6d b6 1a 3f 60 89 3c 3e cc f0 d3 3e 4f 12 b5 bc
       0.6043461 0.1841178 0.4139465 -0.022103457
0000f0 b9 f9 e6 bd b4 64 4a 3f b2 53 b1 3d a9 72 a8 be
       -0.112780996 0.7905991 0.08658542 -0.3289998
000100 5b a0 3a 3f 0e ad 2a 3d 40 a0 55 bc ac 3a e5 bd
       0.72900933 0.041668944 -0.013038695 -0.111928314
000110 5d b6 00 bf 4d 44 6c 3f b7 32 63 bf 4b 23 db 3e
       -0.50278264 0.9229172 -0.8874926 0.42800364
000120 75 99 97 3f 20 bd d9 be 5d eb 4e 3e f1 ec 09 3e
       1.1843706 -0.42527103 0.20206971 0.13469292
000130 49 17 d0 3f 3d a0 47 bd ae f8 c2 3e 75 c1 6e be
       1.6257106 -0.0487368 0.38080353 -0.23315986
000140 7c 81 a0 3d 00 3f 3e 3f 66 a3 60 bd de 29 c7 be
       0.07837197 0.7431488 -0.05484333 -0.3889913
000150 46 33 a1 3f 8f 46 e2 3e 59 d7 ca bc b9 a9 35 3d
       1.2593772 0.44194457 -0.024760889 0.044351313
000160 ef 15 02 3e eb aa b9 3e 2e 93 c3 3e 9f a3 b9 bd
       0.1270368 0.36263213 0.38198227 -0.09064411
000170 ae 32 be 3e 5d 5d 7d 3e 2c ad 2a bf 76 3d ef 3e
       0.3714804 0.24742647 -0.6667049 0.46726578
000180 6c be 97 3d ec a0 5d bf 22 e3 84 3e f6 c6 e5 bd
       0.07409367 -0.8657367 0.2595454 -0.112195894
000190 d2 b4 51 3f 92 93 4a bc 46 4e 95 3e 1d a2 75 3f
       0.81916535 -0.012364285 0.2916128 0.9595049
0001a0 e8 32 ca bc 91 90 79 bf 82 cd 12 3f 64 ba 1d be
       -0.024682477 -0.97486216 0.5734483 -0.15403134
0001b0 c8 78 91 3e 05 3a a9 bf 23 8d 0e 3f 10 20 06 bf
       0.2841246 -1.3220831 0.5568411 -0.52392673
0001c0 40 8c e0 be ff 0e b6 be 8d 72 af 3e c3 b4 76 be
       -0.43857002 -0.35558316 0.34267083 -0.24092393
0001d0 96 30 7a 3e dd a1 2e 3f 1f f4 ae be d4 b6 94 3d
       0.24432597 0.68215734 -0.34170625 0.07261434
0001e0 80 55 8c bb 18 14 2d be 83 b7 dd be e2 85 8d 3e
       -0.0042826533 -0.16902196 -0.4330407 0.27641207
0001f0 d9 7a f9 3e 44 01 9a bc 6a 5b 2c 3a 49 d2 50 3e
       0.48726538 -0.018799432 0.0006574901 0.20392717
000200 6c 9d 97 3e 72 55 44 be 5c 2f 3d 3f 11 e4 1f be
       0.2961229 -0.1917322 0.7390039 -0.15614344
000210 ce 49 31 3d 56 a0 c2 3f da 0e 5d bd 4e 77 fa 3e
       0.043283276 1.5205181 -0.05396924 0.48919147
000220 44 84 56 3e 01 48 fb 3e f4 90 45 3e b5 95 c1 be
       0.20948893 0.49078372 0.19293576 -0.3780953
000230 b1 8a 13 bf c7 02 16 bd 56 4b e0 3f df ba 53 bd
       -0.576335 -0.036623742 1.7522991 -0.051691886
000240 26 67 b7 3e a2 3b b4 3e 50 dc c0 3d 4b 6d 54 3f
       0.35820884 0.35201746 0.09417021 0.8297927
000250 93 ca 73 bd 53 75 e3 bc 10 dd 90 3d 74 1a b9 be
       -0.05951936 -0.027765905 0.07073414 -0.36152995
000260 c0 42 3d be 47 af 1b 3f 38 b3 d2 3c 4e aa 78 3e
       -0.18482494 0.60814327 0.025720224 0.24283716
000270 03 c2 d9 bd fb d3 65 bf ef cc be 3e 0d 7e b9 bd
       -0.10632708 -0.8977658 0.37265727 -0.090572454
000280 61 c6 65 3f 6d aa e5 3d 69 87 b0 be 0e a4 78 be
       0.8975583 0.11214147 -0.3447831 -0.24281332
000290 99 23 7a 3e f5 a2 8c 3f 29 ab 63 be 9c be 56 3e
       0.24427642 1.098723 -0.22233261 0.20971149
0002a0 9a bd 08 3d e0 08 a8 3e 8a ef f8 be e0 22 be 3d
       0.033383943 0.3281927 -0.48620254 0.09283996
0002b0 9e 3e 5c be 65 b1 02 bf 50 61 0c be 89 c5 01 bf
       -0.21508262 -0.5105193 -0.13708997 -0.5069204
0002c0 fa bb 09 3f 7d 4f 2b 3f 42 9a 08 bd 71 ef fc 3e
       0.53802454 0.66918164 -0.033350237 0.4940143
0002d0 da f0 08 3e 21 04 5a 3f 2f d9 03 bd ed f7 01 bf
       0.13373128 0.8516255 -0.032189544 -0.5076893
0002e0 42 d9 3f 3f 8d 66 a4 3d 9a c9 94 be 34 55 e4 be
       0.74940884 0.080273725 -0.2906006 -0.44596255
0002f0 ea 20 bb be 08 30 aa 3e ae db 90 3e 81 56 76 bc
       -0.3654855 0.3323977 0.28292602 -0.015035273

fc1.bias f4 [64]
000000 81 0a 54 c0 6c 9c 0d bf 1e 3f 86 40 a3 db 21 c0
       -3.313141 -0.55316806 4.1952047 -2.5290306
000010 44 25 c1 3e 4e db c8 bc 28 54 94 c0 9d e5 76 40
       0.37723744 -0.024518635 -4.635273 3.8577645
000020 a4 00 9a bf 19 79 50 c0 a3 a6 3c 40 69 10 5d 40
       -1.2031446 -3.2573912 2.9476707 3.4541266
000030 56 87 6d bf e6 9a 00 bf 3c 0b c3 be 75 18 a1 3f
       -0.9278463 -0.50236356 -0.3809451 1.2585589
000040 7b bc 90 40 f8 26 25 40 ad 3f 4c c0 39 76 87 40
       4.523008 2.5805035 -3.1913865 4.2331815
000050 ae 85 7f c0 f9 fe 80 40 d4 77 52 3e ff 31 57 c0
       -3.9925342 4.0311246 0.20553523 -3.3624265
000060 e4 49 5b c0 10 27 30 bf 95 9f 93 40 2d 48 97 3f
       -3.426385 -0.68809605 4.61323 1.1818901
000070 29 89 c2 3f 1c 60 9c c0 aa d6 4a c0 e1 9c 64 c0
       1.5198108 -4.886732 -3.169352 -3.5720751
000080 85 f8 1f c0 8e 56 40 40 ab b8 71 40 6c ae 15 3f
       -2.4995434 3.0052829 3.7768962 0.5846927
000090 d5 ef 36 40 ed ba f6 3e bf da 44 c0 a2 1b 80 40
       2.8583882 0.48189488 -3.0758512 4.003373
0000a0 b0 f7 a0 3d 8a 1e 6c 40 7a a7 67 40 55 37 89 3f
       0.07859743 3.689364 3.619597 1.0720011
0000b0 d2 c9 a6 3e e5 97 44 c0 fe e8 e8 be 6d fe 69 bd
       0.32575852 -3.071771 -0.4549026 -0.057127405
0000c0 9c 97 22 c0 27 d6 80 40 98 27 f3 be f6 a9 68 c0
       -2.5405035 4.0261416 -0.47491145 -3.6353736
0000d0 22 94 6f c0 3e 6c 8f be a2 ef 93 c0 c4 73 49 c0
       -3.7434163 -0.2801227 -4.623002 -3.1476908
0000e0 ab 1a ef 3f 7e 26 0e 3f 85 17 2b 3f d8 56 6e c0
       1.8680013 0.55527484 0.6683276 -3.7240505
0000f0 f0 3a 3b 40 af 86 7e 40 0c 67 07 3e fc 7a 6c 40
       2.9254723 3.9769704 0.13222903 3.6950064

fc2.weight f4 [64, 64]
000000 95 6f a9 3c 04 df 8a bd 9d 37 7a bd 22 c3 10 be
       0.02068309 -0.06780818 -0.061088193 -0.14136937
000010 50 3a 7b 3c 12 db 0c be c0 ac 82 bd 78 41 57 bd
       0.015333727 -0.13755444 -0.06380606 -0.05255267
000020 36 31 8d bd 61 a6 1a be 56 36 9f bb d9 b0 b1 bd
       -0.06894152 -0.15102531 -0.0048587723 -0.08676309
000030 1d f5 00 be 2c 5d f6 3b 20 65 7e 3d 5c d9 67 bd
       -0.12593503 0.007518431 0.06210816 -0.056603774
000040 d1 72 c9 bb ad 73 d2 bc 6e 18 5c bd be 5d 03 be
       -0.0061477204 -0.025689924 -0.053734235 -0.12828729
000050 94 d3 21 3d 1c 34 d6 3d 70 64 97 3d 4c 62 35 3d
       0.039508417 0.10459158 0.07392204 0.044283196
000060 1a fb 78 bd f4 2b 95 bd 43 ac a8 3d 91 45 e9 bd
       -0.060786344 -0.07283774 0.08235981 -0.11390222
000070 08 6b 91 3d 2b 16 09 3d bc 7a 82 3d 63 a4 6f bd
       0.07100493 0.033468407 0.06371066 -0.05850638
000080 79 0b 4a 3d 18 4b 4d bc da 46 fc bd c4 88 96 3d
       0.049327347 -0.012530111 -0.12318201 0.07350305
000090 ef 4d 01 be a8 4a fa bd 44 05 cb bd d6 6f c3 bd
       -0.12627386 -0.12221271 -0.09913114 -0.095428154
0000a0 08 14 37 3d 8f 1f 1d 3c 76 2c e7 3c ec 2f ba 3d
       0.044696838 0.009590044 0.028219443 0.090911716
0000b0 91 5f d6 bd d8 b4 86 3d f0 23 7a 3c 70 72 b7 3c
       -0.104674466 0.06577462 0.015267357 0.022393435
0000c0 ae ca 83 bd 8a e0 2b 3c 0c 74 c5 bd 98 4f 58 bd
       -0.064351425 0.010490546 -0.09641275 -0.05281028
0000d0 0d ac 9b bd 7b 68 87 bd 20 55 0e bc 34 36 ae 3d
       -0.076011755 -0.06611725 -0.008687288 0.08506432
0000e0 10 1e 5e bd 2e ef dc bd cd d5 b2 3d 15 31 f0 bd
       -0.05422789 -0.107878074 0.087321855 -0.11728112
0000f0 ab 3f 86 3d ec 97 34 bd a0 11 77 bc 5d d0 af bd
       0.065551125 -0.044090196 -0.015079886 -0.08584664
000100 ef ac a3 bc e0 03 b3 bd 61 35 26 bd d5 cd 97 bc
       -0.019979922 -0.087409735 -0.04057825 -0.018530766
000110 cc 2c f5 3d cf b9 37 bc 27 76 79 bd 60 57 12 be
       0.11971435 -0.011213734 -0.060903694 -0.14291143
000120 8b a7 3c bc 75 5f 90 3d 04 9c ec 3a 0c fe ff bc
       -0.011514555 0.07049457 0.0018051867 -0.031249069
000130 5a 27 45 3d c7 02 7a 3d b4 02 17 bd c8 c8 ca bd
       0.04813323 0.061037805 -0.036867812 -0.09901577
000140 f0 10 99 39 96 8d e5 bd a7 2f a5 3c ba b6 b1 bd
       0.00029195054 -0.11208646 0.020164324 -0.086774305
000150 d1 24 3b 3d fa 15 e0 bd 68 24 c3 bd be e1 06 be
       0.045689408 -0.10941692 -0.09528428 -0.13172051
000160 bc e4 e2 bd 00 cb bc 3d c7 8e 9b 3d 70 e5 24 bd
       -0.11078784 0.09218407 0.07595592 -0.04025787
000170 36 f4 cc bd 28 d5 b7 bd 81 94 1c be 35 0e b5 bc
       -0.10007517 -0.08976203 -0.15291025 -0.022101501
000180 76 f3 05 bd db 27 ec 3d 90 61 56 3d 90 78 cb bd
       -0.032702886 0.11531039 0.052339137 -0.09935105
000190 3e 9d 07 3d c0 04 60 bc 1f 89 b6 bd db 86 2a 3d
       0.033108942 -0.0136730075 -0.089128725 0.041632514
0001a0 28 75 88 bc 1b b2 a8 bd da a3 1e be af 3e 54 bd
       -0.016657427 -0.08237096 -0.15492192 -0.051817592
0001b0 35 40 90 bd 5b 0b d8 bd a5 63 0e 3c 21 bc df bd
       -0.070434965 -0.10549041 0.008690749 -0.109245546
0001c0 64 39 17 be c9 d2 3a bd c0 9d 68 bd 76 43 23 bd
       -0.14767987 -0.045611177 -0.056791067 -0.039859258
0001d0 53 86 f5 3c 8f 8f 40 bd ba c7 27 be f5 c1 51 bd
       0.029971277 -0.04701191 -0.16384783 -0.051210362
0001e0 a1 d1 26 3d f4 e9 22 bd 43 eb 16 3c b6 35 c0 3c
       0.04072726 -0.039773896 0.009211364 0.023463111
0001f0 b4 65 7f 3d 92 8d 32 3d 98 f8 1b 3d c6 8b f8 3d
       0.06235285 0.043592043 0.038078874 0.12136035
000200 80 07 83 3a 97 a7 11 bd 46 56 80 bd 8c 2e 13 3d
       0.0009996742 -0.035560217 -0.06266455 0.035933062
000210 00 f3 15 3b 90 ac b6 bd 92 c9 86 3d 60 63 63 3c
       0.0022880435 -0.089196324 0.06581415 0.013878673
000220 9c 2c fc bd e0 8b 1e bd a6 4f e3 bd 6c 10 86 bd
       -0.12313196 -0.038707614 -0.11099176 -0.06546101
000230 86 76 b5 3d ea 1c ec bd 7a 2d 98 3d b8 68 1e bd
       0.08860497 -0.115289524 0.07430549 -0.038674086
000240 06 14 8a 3d 00 de 0b 3a 82 ce 80 bd ca 7b d7 bd
       0.067421004 0.000533551 -0.06289388 -0.10521658
000250 d8 a8 20 3d 27 58 b7 bd 80 b7 f1 bd 00 78 88 bd
       0.039223522 -0.089523606 -0.11802578 -0.06663513
000260 e0 3d 00 bd d0 14 69 bd 3c 09 c3 bd 50 fa 64 3d
       -0.03130901 -0.056904614 -0.09523246 0.05590278
000270 cc 79 29 bd 50 ed 50 bc c0 70 1a 3b 10 2a 40 bd
       -0.04137592 -0.012751892 0.002356574 -0.046915114
000280 08 c4 98 bc 55 19 64 bd a0 b4 8e 3b 1c c6 53 bd
       -0.018648162 -0.05568822 0.0043550283 -0.051702604
000290 f0 67 8d 3c d0 5c 53 3c 58 dc 83 3c 14 5e fc bd
       0.017261475 0.012900546 0.016096279 -0.123226315
0002a0 0e 73 ac 3d 80 aa 28 3c d8 02 f5 bd 8c 6e 28 bd
       0.084203824 0.010294557 -0.11963433 -0.04112105
0002b0 40 06 04 bc 5c 07 95 3d 18 f3 83 bc ce 89 82 3d
       -0.008058131 0.07276794 -0.016107127 0.063739404
0002c0 cc 7c 96 bd 81 bd d5 bd e0 70 9b bc bc 67 10 bd
       -0.07348022 -0.104365356 -0.018974721 -0.03525518
0002d0 50 5a 82 3d 58 a3 90 bd 04 83 78 3d 16 6e a1 bd
       0.06364882 -0.07062405 0.06067182 -0.07882325
0002e0 36 f2 b9 3d a1 99 cc bd 7c 41 cf bd aa 1c d3 bd
       0.09079401 -0.0999024 -0.10119912 -0.103082016
0002f0 64 39 ca 3d a9 41 e9 3d a0 cd 79 bd 6c 4b 18 3d
       0.09874228 0.11389477 -0.060987115 0.037181303
000300 7a dc f0 bc 8c d0 c4 bd d2 b1 6f 3f 86 f4 36 be
       -0.029402006 -0.0961009 0.9363071 -0.17866716
000310 ba 2e ba ba 71 38 b9 be 75 28 85 be 25 19 48 3e
       -0.00142046 -0.36175874 -0.2600743 0.19540842
000320 4b 08 10 bf ab 47 3e be ea d3 2e 3e 48 a4 3d 3f
       -0.56262654 -0.18582027 0.17073026 0.740788
000330 be fa e5 3c 74 17 00 3e 60 6d e4 bb b2 a4 ea bd
       0.028073665 0.12508947 -0.0069710463 -0.114571944
000340 b2 ed c6 3e c1 89 64 bf 47 4f 87 bd 65 8b 8a 3f
       0.38853222 -0.89272696 -0.06606918 1.082379
000350 42 33 95 bf 9c 2c 53 3f 60 0f da bc b4 23 57 bd
       -1.1656268 0.82489944 -0.02661866 -0.052524284
000360 12 44 c2 be 4b e5 00 bf 83 6c aa 3f ea 7b de be
       -0.3794256 -0.50349873 1.3314365 -0.43453914
000370 b3 00 aa 3e fb 74 ac be a3 ca 4b be a9 83 c0 bd
       0.33203658 -0.33683 -0.19901519 -0.09400112
000380 d3 36 26 bd f0 d6 b6 3e 5e f0 ea 3e 69 3d f6 3e
       -0.04057963 0.3571086 0.4588651 0.48093727
000390 f5 3f 67 3e 8e 6c fd bd 74 95 3b be bf e7 83 3f
       0.22582991 -0.12374221 -0.1831873 1.0305098
0003a0 3c d4 99 bd 00 a0 17 3f 29 b1 29 3e f2 be dc 3e
       -0.075111836 0.59228516 0.16571487 0.4311443
0003b0 3a 85 0d bf 2e 50 f8 bd 48 58 1e 3d 08 fe 2b be
       -0.5528141 -0.12124668 0.03865841 -0.16796124
0003c0 1c 93 f5 bd 84 93 51 3f c0 5d 86 bb 4c 35 7e be
       -0.119909495 0.81865716 -0.0041005313 -0.24825019
0003d0 d9 44 aa bd 4f 2c 24 be 4d 92 1e bf 4c ea ad be
       -0.08313913 -0.16032527 -0.6194199 -0.33967817
0003e0 53 2a 35 bf de d6 f1 bd bd 92 c5 3d 91 b3 ed bd
       -0.70767707 -0.11808561 0.09647129 -0.11606515
0003f0 2b b0 a7 3e 55 7f 7e 3f 6f 75 f0 bd c6 60 5d 3f
       0.32751593 0.99413043 -0.11741149 0.8647579

fc2.bias f4 [64]
000000 f3 fd 71 bd f3 bc 59 3d 6e 8b e2 bd 2a 02 4c 40
       -0.059080075 0.05315871 -0.1106175 3.187632
000010 a4 9e 0f 3d 6a ad 28 40 ec 9b 66 bd 20 9f 1c 40
       0.0350634 2.6355844 -0.056301042 2.4472122
000020 96 af e5 bd 3b 5d 57 bd 08 0e d4 ba 0c de 2a 40
       -0.11215131 -0.052579146 -0.0016178498 2.6698027
000030 e5 70 d5 3f 22 5c bb 3f 3f 4c 13 40 06 3b 83 bd
       1.6675078 1.4637492 2.3015287 -0.06407742
000040 61 a1 b0 3d ef 18 ae bc 40 57 45 40 3d 9b 2b 40
       0.086245306 -0.021252124 3.0834503 2.68135
000050 8e 73 d3 3c d9 1c 6c bf 8c 80 9e 3f a0 01 eb 3f
       0.025811937 -0.9223152 1.2382979 1.8359871
000060 f2 7e e1 be 56 64 36 40 1e 4d 16 40 c1 c3 8b 3c
       -0.44042164 2.849874 2.3484569 0.017061116
000070 75 f4 3a 40 88 65 1e 40 b4 b3 47 3d 8b 66 dc 3e
       2.9211705 2.474947 0.048755363 0.43046984
000080 da 09 fa 3f 62 ca e9 bd 4c 8c 05 40 0c 06 e7 3d
       1.9534256 -0.114155546 2.086688 0.1128045
000090 01 d6 db 3f d0 2c 70 bd 40 db c1 3f f1 6b 27 40
       1.7174684 -0.058636487 1.5145035 2.6159632
0000a0 ba 7d 1e 40 98 e6 a9 3f 62 c0 4a 40 b1 52 40 40
       2.4764237 1.3273497 3.167992 3.005047
0000b0 47 e0 19 3d 67 d9 02 40 72 a7 4a 3d 0f 5c fd be
       0.037567403 2.0445192 0.049476095 -0.49484298
0000c0 1f 3c 45 40 2a 33 4d 40 df 35 85 bf 33 72 02 40
       3.0817945 3.2062478 -1.0407065 2.0382202
0000d0 22 00 90 3f dc c2 2f 40 25 26 ea bd 80 91 43 3c
       1.125004 2.7462683 -0.11433057 0.011936545
0000e0 cf 5b fc 3e 28 1a d8 bc 8e d1 93 bc 14 6c 6d 3c
       0.49288794 -0.02637966 -0.01804426 0.0144911
0000f0 21 49 98 3f 6e 10 25 be 3c fc 7e bd c9 68 20 40
       1.1897317 -0.16119549 -0.06225227 2.5063956

fc3.weight f4 [20, 64]
000000 aa fc 4f 3b 23 0f a0 3d 68 af e9 3c d0 41 80 3f
       0.0031736293 0.07815387 0.028526023 1.0020084
000010 60 69 d9 bc ae 5e 1d 3f a8 da 98 bc 52 f4 1b 3f
       -0.026539505 0.61472595 -0.01865895 0.6091968
000020 3e 76 23 3c 1f 64 f2 3c c4 70 7d 3d ef 47 72 3f
       0.009976922 0.029588757 0.06187512 0.9464101
000030 32 6a 90 3f 07 7b e5 be f2 ca 4c 3f 5c 2b 0e bd
       1.1282408 -0.44820425 0.7999717 -0.03470932
000040 74 53 4b 3d 28 90 08 bd 96 87 47 3f ec f6 66 3f
       0.049640134 -0.033340603 0.7794126 0.9022052
000050 e0 4a 31 3c 9e f5 23 bf ec 52 1a c0 6b d9 cd 3e
       0.010821074 -0.6404666 -2.4113111 0.4020494
000060 d9 c7 82 bd 82 4c 5e 3f 0a a7 45 3f 80 11 9d bd
       -0.06385774 0.8683549 0.77208006 -0.076693535
000070 39 f4 4e 3f ef 10 50 3f ac c2 5a 3c ed d6 d2 3e
       0.80841404 0.8127584 0.013352077 0.411796
000080 80 19 3e 3f 1b 56 0d bd 31 25 25 3f 8d 1e be 3d
       0.7425766 -0.034505945 0.64509875 0.09283171
000090 43 a3 dc bf da 15 a8 bc 53 9d c9 be 54 87 40 3f
       -1.7237324 -0.020518232 -0.3937784 0.75206494
0000a0 fb 05 9b 3f 61 4d e7 bf c4 22 47 3f 93 da 84 3f
       1.21112 -1.8070489 0.77787423 1.0379204
0000b0 7b 95 73 bd b8 d6 b4 3c 93 4f d9 bd 32 d7 53 3f
       -0.059468728 0.022075042 -0.10610881 0.82750237
0000c0 65 ce 7e 3f 3d 31 75 3f 2a 2d be be d9 b3 8f bf
       0.99533683 0.95778257 -0.37143832 -1.122676
0000d0 6b 9d 56 bd 0d c1 57 3f 3f a1 4f bd 36 53 db bd
       -0.05239622 0.8427895 -0.050690886 -0.107092306
0000e0 a4 e9 48 be fc 75 c4 bd 0f 37 3f 3d ac 3f db bd
       -0.19620377 -0.09592816 0.046683367 -0.10705504
0000f0 a2 75 be bf 2a e4 9f bd 15 fd 86 3d d7 cb 60 3f
       -1.4879649 -0.07807191 0.0659124 0.87811035
000100 10 c8 ff bc 1a fd cd 3d 00 ca fa bd 47 f6 32 3f
       -0.031223327 0.10058041 -0.1224556 0.6990704
000110 c5 41 da bd 90 43 57 3e 16 2a b5 bd a2 81 d2 3e
       -0.10657076 0.21021867 -0.08845918 0.41114527
000120 01 c4 7b 3c 34 10 89 3e ba 23 ca bd f7 ad 27 3f
       0.015366555 0.26770175 -0.098700956 0.65499824
000130 be 1a 52 3f 49 19 84 3e bd ae 1a 3f e8 08 ec 3c
       0.82072055 0.2580054 0.6042288 0.02881284
000140 9a 11 c2 3d db 38 e2 3d 62 1a 35 3f b7 82 21 3f
       0.094760135 0.110460006 0.7074338 0.6309008
000150 80 03 2f 3c a3 f6 11 be 88 6e d0 be c8 08 83 3e
       0.010681987 -0.1425424 -0.4070933 0.25592637
000160 11 b1 0d 3f 43 0d 2a 3f 16 6f be 3e ea 69 8b bd
       0.55348307 0.66426486 0.37194127 -0.06807311
000170 89 ee 24 3f e2 99 25 3f f4 a8 ba 3d 6f 77 9c be
       0.64426476 0.6468793 0.091142565 -0.3055987
000180 51 f5 87 3e 3d 6b ac bc 5a 05 0d 3f 14 9f cf 3d
       0.2655435 -0.021047229 0.5508629 0.101377636
000190 73 ce 8d bf 34 df eb bd 0b cb 3e bf fc ab dd 3e
       -1.1078628 -0.11517182 -0.7452857 0.43295276
0001a0 a9 f0 a0 3f f2 ec 05 bf fe 4c 28 3f dd b9 fb 3e
       1.2573444 -0.52314675 0.6574248 0.4916524
0001b0 61 e7 6a 3c 60 0a c4 3e 4c 4b c5 3d d8 32 18 be
       0.014337392 0.38289165 0.09633502 -0.14863145
0001c0 bf fa 2b 3f 80 84 29 3f ce 45 c3 be 3c 69 c7 bd
       0.67179483 0.66217804 -0.38139194 -0.09736869
0001d0 eb 40 d0 3e 89 a8 16 3f 35 52 d1 bd 34 04 53 bd
       0.40674528 0.58850914 -0.10220758 -0.05151768
0001e0 57 fb 5c 3d 08 33 94 3d e7 40 40 3d 78 ee d4 3d
       0.053950634 0.07236296 0.046936896 0.10397047
0001f0 8e 06 1b bf dd 14 b4 bd f8 f7 8a bc 57 0d ce 3e
       -0.60556877 -0.08793042 -0.016963944 0.40244552
000200 f0 26 af 3d 4a 5c e0 bc a8 32 2f bd 7b 36 0d 3f
       0.085523486 -0.027387757 -0.04277292 0.55161256
000210 40 66 1b bb 8d 74 7e 3e a8 c6 8c 3d 81 e5 df 3e
       -0.0023712069 0.24849148 0.06873828 0.43729785
000220 1b b9 75 3c 9c da 9a 3e e8 80 c0 bc 27 6b e3 3e
       0.014997746 0.3024491 -0.023498967 0.44417688
000230 1c db c6 3f b5 c0 aa bd 7d 1c 7f 3f 40 66 fe bd
       1.5535617 -0.08337537 0.99652845 -0.124218464
000240 40 60 7b bd e4 ca 02 bd 57 91 ff 3e fe 43 80 3f
       -0.061371088 -0.031931773 0.49915573 1.002075
000250 5e 10 b5 bd 89 69 c3 be d1 d1 00 bf 55 3e fb be
       -0.088410124 -0.38166454 -0.50320154 -0.49070993
000260 0e 9d 41 3f 41 2a 18 3f df 96 36 3f 4e 22 f8 3d
       0.7563027 0.59439474 0.7132396 0.12115918
000270 fd 2e d6 3e 65 87 6f 3f 6a 2b 82 3d b5 72 da 3c
       0.41832724 0.9356597 0.06355937 0.026666025
000280 9a 47 a2 3f 32 1b ba 3d 3c ff 6c 3f c0 1d 43 3b
       1.2678101 0.09087218 0.92576957 0.002977237
000290 6b 5f b7 bf 68 db e6 bc 0b 9f 5b bf 51 55 ce 3e
       -1.4325994 -0.028180793 -0.85789555 0.40299466
0002a0 3d 50 62 3f 7f f4 44 bf 42 ae f0 3e 30 b9 0a 3f
       0.88403684 -0.7693557 0.47007948 0.54188824
0002b0 23 22 1a bf e0 67 1e 3e 7b a8 82 3d 3f 28 19 3f
       -0.6020834 0.15469313 0.06379791 0.59827036
0002c0 7a 0d 39 3f 90 c2 27 3f 99 02 bf be 43 22 91 be
       0.7228619 0.65531254 -0.3730667 -0.28346452
0002d0 01 48 a0 3e 6e c6 28 3f 8d aa 0b 3e 60 7f 77 bd
       0.31304935 0.6592778 0.13639279 -0.06042421
0002e0 95 c3 7e 3e e8 90 9f bc 9c 0d 33 3d c1 a7 9e 3c
       0.24879296 -0.019478276 0.04371415 0.0193671
0002f0 5b 1f c2 be 2c 7f e2 bb 84 7e 8a bd a6 b5 83 3f
       -0.37914547 -0.0069121327 -0.06762412 1.028981
000300 30 73 f2 3c 29 fd 69 bd c0 ea 0e 3c e9 6c 2d 3f
       0.029595941 -0.057126198 0.008722961 0.6774431
000310 7c 34 1c 3d a4 9d 00 3f 88 51 75 3d a1 12 fa 3e
       0.03813599 0.5024054 0.059892207 0.48842338
000320 18 63 92 3b 3b 15 20 3f 72 5b 9f 3d 94 cf 1c 3f
       0.0044673793 0.62532395 0.07781114 0.6125424
000330 f8 44 a8 3f 52 90 9d 3e c5 80 d6 3e f0 0b 90 bc
       1.3146048 0.3077417 0.41895118 -0.017583817
000340 ca 60 9e 3d f4 4f 90 bd 22 44 36 3f e6 97 17 3f
       0.07733305 -0.070465 0.7119771 0.59216154
000350 2c ee 24 3d 08 28 81 bd fa 3a 91 be f3 5e e6 3d
       0.0402662 -0.063064635 -0.28365308 0.11248579
000360 4c fd 7d 3e 1d 83 27 3f 5e 5b 14 3f 22 ff b0 bd
       0.24803656 0.6543444 0.57951915 -0.08642413
000370 63 e7 ec 3e f5 3f 26 3f b8 5f 66 bd 32 d7 9c be
       0.46270284 0.6494134 -0.05624363 -0.3063293
000380 04 72 9f 3e ca b0 ce bd c2 f0 00 3f 40 52 42 bd
       0.31141675 -0.100923136 0.5036737 -0.04744172
000390 69 02 76 bf e6 d5 b6 bd 3d 5a 70 bf 14 eb 15 3f
       -0.9609743 -0.08927517 -0.9388769 0.58561826
0003a0 46 9a 98 3f 61 9e 6c bf 10 d6 1a 3f 75 e6 22 3f
       1.192208 -0.9242917 0.60482883 0.636329
0003b0 d0 a9 93 be 16 7f c0 3e 65 67 c8 bd 7d 8f 88 3e
       -0.28840494 0.3759696 -0.09785346 0.26671973
0003c0 c4 a3 38 3f 58 26 15 3f 58 b5 c0 be 08 c0 0e be
       0.72124887 0.5826163 -0.37638354 -0.13940442
0003d0 0a 01 ad 3e db b1 0b 3f 66 8e ac bd ac f9 4c 3d
       0.33789855 0.5456826 -0.08425598 0.050042793
0003e0 11 3b 31 3e 2e d1 f7 bd e3 3a 45 be bf cc 66 3d
       0.17307688 -0.12100445 -0.19260745 0.056347605
0003f0 cc e3 03 bf f4 98 98 3d 00 e4 9b ba 3d 08 d5 3e
       -0.51519465 0.074510485 -0.0011893511 0.41607848

fc3.bias f4 [20]
000000 a5 40 e7 3f 26 19 40 3f 67 65 ff bd 0d 50 04 3f
       1.8066603 0.75038373 -0.12470513 0.5168465
000010 54 46 84 3e 6c 16 89 3e 87 c3 d8 3e 33 55 07 bc
       0.25834906 0.2677492 0.42336676 -0.008260059
000020 48 8b e1 3e 98 c2 88 3e 52 da 8a 3e 6b e1 d7 3e
       0.44051576 0.26710963 0.2711969 0.42164168
000030 80 13 8e 3e 94 0e 24 3f a4 07 12 3c 07 36 f1 bc
       0.27749252 0.64084744 0.0089129545 -0.029444708
000040 18 cd 13 bd c9 83 b5 3e 29 5e 59 bd 6e 4a 66 3e
       -0.036084265 0.35452107 -0.053068314 0.2248933
