beer/experiments/MA_0.05/models/dqn_agent_firm_1_episode_4000.pth (torch, 101224 bytes, 24 tensors)

fc1.weight f4 [64, 3]
-0.07032847 -0.016121281 -0.067163914 0.003360851 -0.054173995 0.059667237 -0.3202528 -0.074794106
0.022530738 0.055205263 0.36095268 -0.046068273 0.10948342 -0.1671376 -0.40449303 0.4319699
-0.82946897 0.001522211 -0.050955053 -0.28057343 0.08521463 -0.018613368 -3.6445916 0.1336766
-0.17076075 0.010773698 -0.047540594 0.005389936 -0.07340395 0.069643036 -0.037575275 0.46046245
-0.086979054 0.030021042 0.116737016 0.1893663 -0.2553054 0.6748808 0.156187 0.06346334
-0.0835657 -0.03462808 0.02521246 -2.3230228 0.07156466 0.0014653646 0.63461274 -0.011250371
0.061887603 0.10736347 -0.043397613 0.6333149 -0.30781436 -0.08649198 0.27154586 0.58104014
-0.026789643 -0.2998813 -0.22220543 -0.1284591 -0.78191495 0.5028041 0.29314005 0.17645648
0.3434816 -0.21884821 -0.15269485 -0.25564864 -0.5521731 0.43311316 -0.040986333 -0.03427642
-0.2226976 -0.20988482 0.032333527 -0.30362687 -0.018955529 -0.21003592 -0.26920784 -0.46138504
-0.12761572 -0.5134891 -0.5255387 -0.57479197 -0.2504623 -0.045587342 -0.026879286 0.3418477
1.3596913 0.020073865 0.3543738 -0.80821186 0.08299556 0.37439337 -0.4197703 -0.3548502
-0.2432746 -0.42559946 0.0015067316 -0.3249354 -1.0667537 0.07326983 0.1329462 0.18765761
0.22927088 -0.046464782 0.21673453 -0.039852645 -2.7913728 -0.19324721 0.03313103 0.03872944
-0.027700562 -0.06876064 -0.18547446 0.315391 -0.017471809 0.5332113 -0.52109087 -0.028997697
0.49846438 -0.18492343 -0.07931354 0.46899313 -0.41680863 0.21256383 0.10604066 -0.44156992
-0.49804628 -0.010322047 0.04147917 -0.05937573 0.0055024694 -2.7067943 0.22091538 -0.5645836
-0.16020772 0.066665515 0.41522086 -0.5003242 -0.3727706 -0.5514742 -0.48233733 -0.008353651
0.8351455 0.58418167 -0.037879463 -0.39687744 -0.21703264 -0.056515515 0.27495027 -0.057091117
-0.49975714 -0.22973111 -0.48185238 -0.47096688 -0.20622237 -3.7714782 0.017578715 -0.051428504
-0.3989329 0.0135599375 -0.06875665 -0.18886378 0.100431055 -0.2989773 -0.35376626 0.20153075
0.01689266 -0.2308263 0.0012763033 -0.41303366 0.9759139 -0.085826546 -0.068620875 0.10910275
-0.038930938 -0.4040137 -0.083560854 -0.3205968 0.40784228 0.13617785 -0.38828745 0.61825466
-1.386039 0.0012384204 0.024530884 1.3749311 -0.1715526 0.0053583384 0.015184232 -0.06278672
00000000: 5f08 90bd c710 84bc 3c8d 89bd b941 5c3b
00000010: 8de5 5dbd a265 743d 2df8 a3be a72d 99bd
00000020: 6292 b83c ea1e 623d cace b83e 16b2 3cbd
00000030: d838 e03d 1e26 2bbe b619 cfbe 292b dd3e
00000040: 1458 54bf ed84 c73a 3fb6 50bd 52a7 8fbe
00000050: 0285 ae3d 107b 98bc fd40 69c0 85e2 083e
00000060: e8db 2ebe 2a84 303c edb9 42bd 0f9e b03b
00000070: cf54 96bd 02a1 8e3d 88e8 19bd bcc1 eb3e
00000080: 1322 b2bd b0ee f53c d113 ef3d 3de9 413e
00000090: 64b7 82be fdc4 2c3f 7cef 1f3e 11f9 813d
000000a0: 7e24 abbd 2cd6 0dbd 5c8a ce3c 68ac 14c0
000000b0: 7e90 923d 7a11 c03a fb75 223f 7a53 38bc
000000c0: db7d 7d3d 61e1 db3d b2c1 31bd ed20 223f
000000d0: d899 9dbe b522 b1bd 0f08 8b3e 0cbf 143f
000000e0: f475 dbbc 0b8a 99be d289 63be c88a 03be
000000f0: 942b 48bf c5b7 003f 7416 963e 02b1 343e
00000100: d2dc af3e bf19 60be 0a5c 1cbe 61e4 82be
00000110: 375b 0dbf 02c1 dd3e 49e1 27bd 6e65 0cbd
00000120: d70a 64be 0cec 56be 2970 043d fb74 9bbe
00000130: a048 9bbc a813 57be 9cd5 89be a93a ecbe
00000140: b2ad 02be 0674 03bf b489 06bf 9125 13bf
00000150: 983c 80be cbb9 3abd f331 dcbc a906 af3e
00000160: 5d0a ae3f f271 a43c 7c70 b53e f9e6 4ebf
00000170: 93f9 a93d 7db0 bf3e 22ec d6be edae b5be
00000180: fa1c 79be 2ce8 d9be 867d c53a ef5d a6be
00000190: 638b 88bf 7e0e 963d 0c23 083e 5129 403e
000001a0: fcc5 6a3e db51 3ebd a8ef 5d3e 873c 23bd
000001b0: daa5 32c0 99e2 45be 67b4 073d c3a2 1e3d
000001c0: 4aec e2bc 61d2 8cbd 04ed 3dbe ee7a a13e
000001d0: 0a21 8fbc 8980 083f 3666 05bf 948c edbc
000001e0: b936 ff3e 915c 3dbe 236f a2bd de1f f03e
000001f0: f167 d5be 55aa 593e d82b d93d 7415 e2be
00000200: ecff febe ce1d 29bc 10e6 293d f733 73bd
00000210: 0f4e b43b 1e3c 2dc0 a437 623e 8d88 10bf
00000220: 7e0d 24be ee87 883d d497 d43e 3f15 00bf
00000230: cadb bebe 6a2d 0dbf ebf4 f6be c0dd 08bc
00000240: 18cc 553f ee8c 153f 7f27 1bbd 8533 cbbe
00000250: ce3d 5ebe d07c 67bd 48c6 8c3e 60d8 69bd
00000260: 2be0 ffbe a23e 6bbe 5bb5 f6be 9222 f1be
00000270: f52b 53be e65f 71c0 3d01 903c b2a6 52bd
00000280: ef40 ccbe 802a 5e3c 49d0 8cbd 8265 41be
00000290: ccae cd3d 8d13 99be da20 b5be 145e 4e3e
000002a0: 7a62 8a3c bb5d 6cbe a249 a73a 2679 d3be
000002b0: 7ed5 793f d4c5 afbd 1a89 8cbd 4371 df3d
000002c0: 0c76 1fbd e2da cebe f421 abbd 4425 a4be
000002d0: b4d0 d03e 3572 0b3e 9dcd c6be f045 1e3f
000002e0: ba69 b1bf 7e52 a23a fef4 c83c befd af3f
000002f0: 7cab 2fbe 0095 af3b 49c7 783c 5396 80bd

fc1.bias f4 [64]
4.494468 -4.025358 4.578387 4.997146 0.09319395 3.614688 -4.099881 -1.0648512
5.6204042 -4.2985215 3.5432312 -3.5678496 -3.6365056 5.501369 0.21408437 3.2227845
4.118249 -2.2677486 3.4240937 0.1146819 -4.922339 3.8151827 0.5302992 4.3940845
5.325404 -0.34911343 -0.1337173 -0.22385946 4.410733 -1.1988975 4.8878427 -0.06769079
4.480483 -3.2454765 -3.8687394 4.4538164 -0.8085212 4.8607907 5.199143 4.48506
2.3473117 -5.2634215 0.28589892 4.584713 -0.46736786 4.40839 -0.5186367 0.111842096
0.47367 -0.43205673 0.13516921 -0.05153531 -1.8282447 5.0651655 -4.692761 -5.8142085
4.434776 -1.1959491 4.298188 0.36313677 3.0110734 1.3440379 0.94373035 4.5283594
00000000: afd2 8f40 bccf 80c0 2582 9240 9fe8 9f40
00000010: 78dc be3d 0c57 6740 3a32 83c0 0b4d 88bf
00000020: 5ada b340 7d8d 89c0 4dc4 6240 a657 64c0
00000030: 82bc 68c0 370b b040 ef38 5b3e 1a42 4e40
00000040: b2c8 8340 cb22 11c0 5a24 5b40 58de ea3d
00000050: cd83 9dc0 f42b 7440 b0c1 073f 579c 8c40
00000060: b669 aa40 ffbe b2be 30ed 08be 6a3b 65be
00000070: ba24 8d40 7975 99bf 3569 9c40 78a1 8abd
00000080: 1e60 8f40 e3b5 4fc0 6d99 77c0 aa85 8e40
00000090: 3ffb 4ebf 998b 9b40 615f a640 9d85 8f40
000000a0: 5b3a 1640 f36d a8c0 5861 923e f8b5 9240
000000b0: d74a efbe 8811 8d40 60c5 04bf 780d e53d
000000c0: e084 f23e 8a36 ddbe cc69 0a3e b016 53bd
000000d0: ec03 eabf d615 a240 192b 96c0 ff0d bac0
000000e0: afe9 8d40 dc14 99bf c28a 8940 10ed b93e
000000f0: 6db5 4040 6f09 ac3f 5098 713f 52e8 9040

fc2.weight f4 [64, 64]
-0.13129905 -0.08772591 -0.066575274 -0.08279814 -0.04360506 -0.08662134 0.063807786 -0.011834903
0.02117504 0.107989185 0.013135108 -0.056500938 -0.10846897 -0.059276573 -0.02769941 -0.15981
-0.06155431 -0.12774318 -0.17749389 -0.08315751 -0.037062354 -0.10093348 0.073375985 0.022555104
-0.14881688 -0.025182053 -0.1090122 -0.06711662 -0.16825221 0.05076985 -0.10496232 0.10805261
-0.028682645 -0.06298602 -0.0013741035 -0.07150158 -0.17027509 -0.057805356 0.001434599 0.060829367
-0.15533514 -0.03195571 0.12107824 0.06883454 0.1014712 -0.06620108 0.026966304 -0.122967094
0.069003634 -0.026412293 0.0075542033 0.08164336 -0.09049179 -0.1482351 -0.040224142 0.043793477
-0.034932587 -0.14766054 -0.09545885 -0.042059377 0.043050084 0.05922083 -0.03367858 -0.095726684
1.3830254 1.078086 -0.2992483 -0.8403767 -0.011617973 0.10154566 0.49465868 0.48075303
-1.065836 0.65868485 -0.15041786 0.35260403 0.25918046 -0.5469201 -0.27328065 -0.6841118
-0.7253619 0.04913033 -0.48573166 -0.04437934 0.4161624 1.1473358 -0.06003271 -0.72972935
-0.030029526 -0.10375023 0.09078696 -0.027335748 -0.2636269 0.16443314 -0.06988445 0.0913029
-0.13981807 -0.23470487 0.20222709 -0.38941586 0.16935538 1.443857 -0.76732665 0.23158783
-0.5119112 0.5236856 -0.09844826 4.116653 -0.13957562 -0.46301886 -0.06880945 0.042838708
-0.81076646 0.100532725 0.02755922 -0.021276966 0.7426412 -0.3355631 0.654077 0.51576406
-0.3341469 0.15705852 -0.25397786 0.00391306 0.8847521 -0.25884315 0.37576896 2.8583398
-0.10505367 0.008534222 -0.082624264 -0.0123208165 0.11680567 -0.124115705 0.08618982 -0.043808624
0.024137793 0.043405302 0.028265884 0.09284685 -0.048508815 -0.1334713 -0.08511055 0.010244488
0.06985994 -0.013352778 -0.0041111046 -0.03558916 -0.031317458 0.038098473 0.0056669414 0.026549924
-0.10927241 0.02149409 -0.08266023 0.033032402 0.062740475 0.065573454 -0.039050438 -0.057598323
-0.13591114 0.019809758 -0.14124183 0.083831616 -0.035830922 -0.109736994 0.022757163 -0.05976664
-0.04236471 0.060236875 -0.08559114 -0.020961229 0.04508867 0.04803704 0.0673759 0.022905469
-0.109352365 0.04146965 0.010920405 -0.084223285 0.06670055 0.02407782 0.048351392 0.08477152
-0.020054745 -0.12616102 -0.07069443 -0.07602905 -0.09122979 -0.14434062 -0.12776355 0.07836704
0.097123705 0.06917406 0.07964483 -0.14020959 -0.117489025 0.044952415 0.053583633 -0.13640907
-0.019201819 -0.16342053 0.06484248 0.044310886 -0.07346922 -0.08371347 0.08896629 -0.04692775
0.040655762 -0.012416596 -0.049372368 0.0642644 -0.034903847 0.105774574 0.080546126 0.007264068
-0.13287596 -0.063097715 0.09595759 -0.05272095 -0.13006161 -0.023467945 0.07857372 0.11794773
-0.11498233 -0.105499536 -0.060461167 -0.06520896 0.0027366986 0.091311276 -0.1420712 0.06376568
-0.1142538 -0.13322447 -0.024306402 -0.08390862 -0.024268324 -0.1157305 -0.031618446 -0.014336988
-0.10510333 0.06455834 -0.064419955 0.059621215 -0.11432278 -0.023356544 -0.10934493 -0.016251223
0.10420431 0.06989016 0.02111996 0.047371864 -0.07652793 -0.049175054 -0.072718345 -0.05379205
00000000: 4273 06be a4a9 b3bd 9e58 88bd 1292 a9bd
00000010: 389b 32bd 8766 b1bd a8ad 823d 2ee7 41bc
00000020: 4777 ad3c 6f29 dd3d a334 573c 876d 67bd
00000030: fb24 debd fecb 72bd e0e9 e2bc 3ca5 23be
00000040: 5f20 7cbd 1ccf 02be f5c0 35be 7c4e aabd
00000050: b2ce 17bd 36b6 cebd 2646 963d 7bc5 b83c
00000060: 7463 18be 984a cebc ca41 dfbd 7074 89bd
00000070: 4f4a 2cbe 0cf4 4f3d 7cf6 d6bd b04a dd3d
00000080: def7 eabc d1fe 80bd 431b b4ba 6c6f 92bd
00000090: 985c 2ebe 4fc5 6cbd 2809 bc3a 3728 793d
000000a0: 2d10 1fbe fee3 02bd def7 f73d 20f9 8c3d
000000b0: 22d0 cf3d 6f94 87bd 70e8 dc3c 2cd6 fbbd
000000c0: c751 8d3d 985e d8bc 4089 f73b a234 a73d
000000d0: c253 b9bd f1ca 17be 12c2 24bd ca60 333d
000000e0: 7915 0fbd 5334 17be ee7f c3bd 7446 2cbd
000000f0: 4955 303d 8b91 723d 8df2 09bd 5a0c c4bd
00000100: fa06 b13f b9fe 893f 1337 99be ed22 57bf
00000110: 5059 3ebc 2cf7 cf3d e743 fd3e 4325 f63e
00000120: 506d 88bf 929f 283f 2407 1abe 8488 b43e
00000130: 4db3 843e f502 0cbf 71eb 8bbe f321 2fbf
00000140: 51b1 39bf e33c 493d d2b1 f8be 1cc7 35bd
00000150: 3d13 d53e e6db 923f dce4 75bd 8bcf 3abf
00000160: 7b00 f6bc 007b d4bd 84ee b93d 38ef dfbc
00000170: 1bfa 86be 2961 283e 941f 8fbd 04fd ba3d
00000180: 782c 0fbe 7956 70be 9e14 4f3e 8461 c7be
00000190: 7f6b 2d3e 4ed0 b83f 856f 44bf 5c25 6d3e
000001a0: 9d0c 03bf 4210 063f 3e9f c9bd 9fbb 8340
000001b0: e9ec 0ebe cf10 edbe f8eb 8cbd a477 2f3d
000001c0: 648e 4fbf 1ae4 cd3d e0c3 e13c 084d aebc
000001d0: bc1d 3e3f edce abbe 9771 273f 1d09 043f
000001e0: 4d15 abbe f3d3 203e 6309 82be 2039 803b
000001f0: 1d7f 623f 1787 84be ca64 c03e 0aef 3640
00000200: 6126 d7bd 1fd3 0b3c e936 a9bd 40dd 49bc
00000210: d037 ef3d 6030 febd 4a84 b03d ac70 33bd
00000220: 9fbc c53c c2c9 313d db8d e73c 7d26 be3d
00000230: 2eb1 46bd b3ac 08be 714e aebd 7fd8 273c
00000240: ba12 8f3d 9cc5 5abc 72b6 86bb f0c5 11bd
00000250: bc46 00bd 250d 1c3d c0b1 b93b 3a7f d93c
00000260: 37ca dfbd 6014 b03c c449 a9bd fc4c 073d
00000270: 147e 803d 604b 863d 5af3 1fbd 38ec 6bbd
00000280: 4a2c 0bbe 1348 a23c b3a1 10be e9af ab3d
00000290: 72c3 12bd cabd e0bd 3b6d ba3c ddcd 74bd
000002a0: 9e86 2dbd f1ba 763d 684a afbd e2b6 abbc
000002b0: e6ae 383d 7dc2 443d 60fc 893d 40a4 bb3c
000002c0: 22f4 dfbd 14dc 293d 80eb 323c 427d acbd
000002d0: 4c9a 883d d93e c53c 1c0c 463d b19c ad3d
000002e0: d949 a4bc 5b30 01be 3ec8 90bd 1eb5 9bbd
000002f0: afd6 babd 07ce 13be 73d4 02be e67e a03d
00000300: cbe8 c63d 21ab 8d3d d41c a33d 1a93 0fbe
00000310: 169e f0bd 0620 383d 837a 5b3d d2ae 0bbe
00000320: 224d 9dbc b657 27be 22cc 843d 557f 353d
00000330: 0877 96bd f871 abbd f533 b63d 5037 40bd
00000340: a886 263d fa6e 4bbc ae3a 4abd 0e9d 833d
00000350: 56f7 0ebd 57a0 d83d 5ef5 a43d 6b07 ee3b
00000360: a310 08be 6039 81bd 6a85 c43d ecf1 57bd
00000370: df2e 05be d93f c0bc 42eb a03d 948e f13d
00000380: db7b ebbd 2410 d8bd 21a6 77bd 468c 85bd
00000390: 2f5a 333b 6801 bb3d 1d7b 11be 9597 823d
000003a0: e5fd e9bd ff6b 08be 381e c7bc 48d8 abbd
000003b0: 5dce c6bc 1d04 edbd 5882 01bd b0e5 6abc
000003c0: 6a40 d7bd 2a37 843d 9cee 83bd 6035 743d
000003d0: 1022 eabd 3956 bfbc 3cf0 dfbd 4921 85bc
000003e0: 1269 d53d 9222 8f3d c403 ad3c 0009 423d
000003f0: adba 9cbd c86b 49bd 5bed 94bd 0d55 5cbd

fc2.bias f4 [64]
-0.083749026 -0.16974059 -0.1633104 -0.0032521002 -0.06838207 4.0181575 0.08030948 2.0274289
-0.013891655 1.7307447 0.34045616 -0.00865289 3.534022 -0.16752553 -0.079157956 -0.860723
-0.14033857 0.03906552 2.1062613 3.7528696 -0.14496511 -0.11063365 -0.12846172 2.2658224
-1.4965934 -0.117036894 -0.032844637 0.058201298 3.9176917 -0.0026583353 2.165245 1.3198732
3.4506783 -0.012369475 3.9215047 -0.059015036 4.0715485 -0.754458 -0.10433132 -0.17040688
3.2442229 0.4646825 0.04971277 0.6505418 0.05361379 -0.1106929 -0.052635517 -1.1453247
3.725716 -0.12088923 -1.8920709 -0.12010877 -0.071122155 -0.113992274 -0.050248522 -0.120626256
-1.0113542 -0.14595598 2.6984751 -0.16640452 -0.0693735 2.4308944 3.8960767 0.08869023
00000000: 9c84 abbd 7ad0 2dbe d73a 27be 3021 55bb
00000010: e60b 8cbd bf94 8040 4c79 a43d 65c1 0140
00000020: d399 63bc 0b89 dd3f 4550 ae3e dac4 0dbc
00000030: 6b2d 6240 d08b 2bbe 911d a2bd 5858 5cbf
00000040: eab4 0fbe 2b03 203d fccc 0640 042f 7040
00000050: bc71 14be e593 e2bd 788b 03be 3c03 1140
00000060: 5f90 bfbf 0ab1 efbd 1988 06bd 7c64 6e3d
00000070: 76bb 7a40 7737 2ebb 6093 0a40 9bf1 a83f
00000080: ead7 5c40 57a9 4abc eff9 7a40 c0b9 71bd
00000090: 204a 8240 2924 41bf a9ab d5bd 247f 2ebe
000000a0: 59a1 4f40 ddea ed3e 9e9f 4b3d e889 263f
000000b0: 229a 5b3d f6b2 e2bd 5798 57bd 009a 92bf
000000c0: 2272 6e40 c694 f7bd 612f f2bf 96fb f5bd
000000d0: 7ea8 91bd c874 e9bd 65d1 4dbd e60a f7bd
000000e0: 0e74 81bf 7c75 15be d1b3 2c40 f265 2abe
000000f0: b213 8ebd c693 1b40 5259 7940 39a3 b53d

fc3.weight f4 [20, 64]
0.055300064 -0.005959704 -0.08921112 0.022992156 0.041067764 3.018038 -0.06332414 -0.0018523657
-0.02186155 -3.5503461 0.13072199 -0.045355413 2.2485256 -0.105144575 -0.036244944 -0.09058254
0.084231704 0.08717701 -3.6463141 2.1963701 0.0015147179 0.09222156 -0.039784502 0.77805114
-0.06363268 -0.06800185 -0.067306966 -0.023827268 2.1481423 0.019273145 0.62937224 -3.2720215
1.8581005 0.09212797 2.1764598 -0.024654679 3.2251315 0.094898246 -0.06567569 -0.07228238
2.6002846 -1.4515911 0.0129943015 -0.9585894 -0.031211775 0.05150023 0.07359221 0.014017964
1.445587 -0.057346206 -0.20234104 -0.033794537 -0.050447524 0.09292849 -0.015514052 -0.065194726
-0.046615142 -0.07901336 0.31918505 -0.029811222 -0.023686469 2.4994776 3.7129564 -0.06808294
-0.069985084 0.07251757 0.028098771 -0.07698815 -0.09361929 1.5820334 -0.025371226 -0.2534469
0.087887175 -1.1673299 -0.18438953 0.012456515 1.3074641 -0.046346843 -0.08636169 -0.48319116
0.07830566 0.058563724 -1.4781274 1.6082582 0.05536242 0.043553427 0.098971486 1.0170585
-0.17133945 0.09999253 0.002456814 -0.05971381 0.94850487 0.07316554 -0.8730999 -0.5254696
2.4820945 -0.02035448 0.681641 0.090116486 1.3656856 -0.42488492 0.10814801 0.12407092
1.2073424 0.20580655 0.042951684 -0.66885936 0.057411965 -0.028340815 0.09373028 -0.4963755
2.011489 0.10433848 -0.6054089 0.025019571 -0.101366 -0.11940828 -0.0141257495 0.025519475
0.05050749 0.106953904 0.09117329 -0.10163152 -0.045550417 0.7946753 1.572835 -0.030272365
-0.042045914 -0.34052902 -0.069155626 -0.060786244 -0.07262385 1.4990705 -0.10079474 -0.037212588
-0.10723375 -1.1491401 -0.36104903 -0.0120093 1.4938644 0.09930593 -0.0902379 -0.4892548
0.035673827 0.11176352 -1.5056443 1.6773338 0.0064970106 0.060451183 -0.09342456 1.0055001
-0.33449385 -0.12281622 0.112150654 0.009569098 1.1544871 -0.03834868 -0.6451801 -0.7432398
2.3134117 -0.041001976 0.92946297 0.12547211 1.1733704 -0.46590665 -0.10139772 -0.08508419
1.331904 0.336522 0.10235449 -1.031594 -0.064289965 -0.09264718 -0.0069217887 -0.47220635
1.8899059 -0.115760565 -0.6029694 0.04283318 -0.0975011 -0.039926067 -0.004959047 -0.012729391
-0.26562196 -0.02842915 0.019705568 -0.028209493 -0.120116115 0.607511 1.4568958 -0.120128095
0.09259567 -0.5826845 0.12743014 0.12749809 -0.039107725 1.6875587 -0.099186525 -0.12510543
0.100188635 -0.9553648 -0.15469451 0.054011583 1.3349233 0.03411348 -0.04284891 -0.8722147
0.11605212 0.059368744 -1.7795025 1.5989419 -0.0029364633 0.04348267 0.03995508 0.91175497
-0.15114883 0.019448861 0.035870537 0.085742295 1.1044062 0.07163594 -0.5698068 -0.52847755
2.2683187 -0.051260278 0.73671144 0.073649265 1.011901 -0.612014 0.0011146622 0.06792916
1.3807117 0.053618044 -0.07943567 -0.88984483 -0.00970267 0.07541931 -0.07484387 -0.60856587
2.2539587 0.01707152 -0.8966705 0.014793798 -0.026941866 -0.04849592 0.08988552 -0.101034164
0.04112605 0.045451015 0.0016274293 0.090610966 -0.009755596 0.9377096 1.3685865 0.089646116
00000000: 5282 623d 9f49 c3bb 52b4 b6bd 0c5a bc3c
00000010: ac36 283d 8927 4140 16b0 81bd 14cb f2ba
00000020: fe16 b3bc df38 63c0 fcdb 053e 99c6 39bd
00000030: d8e7 0f40 0a56 d7bd 9475 14bd 5783 b9bd
00000040: ac81 ac3d dc89 b23d 365d 69c0 5491 0c40
00000050: 8089 c63a a8de bc3d 13f5 22bd 5c2e 473f
00000060: da51 82bd 8e44 8bbd 3cd8 89bd 6731 c3bc
00000070: 2a7b 0940 b7e2 9d3c 8a1e 213f cd68 51c0
00000080: 3dd6 ed3f 97ad bc3d 1e4b 0b40 9cf8 c9bc
00000090: 8e68 4e40 035a c23d fa80 86bd c908 94bd
000000a0: 106b 2640 bdcd b9bf 0de6 543c 1d66 75bf
000000b0: d6af ffbc e8f1 523d 83b7 963d 9aab 653c
000000c0: ff08 b93f dbe3 6abd 7d32 4fbe 246c 0abd
000000d0: 10a2 4ebd 4b51 be3d a62e 7ebc d084 85bd
000000e0: 85ef 3ebd c2d1 a1bd 396c a33e aa36 f4bc
000000f0: 200a c2bc 71f7 1f40 14a1 6d40 126f 8bbd
00000100: 5754 8fbd 1784 943d 652f e63c f7ab 9dbd
00000110: 78bb bfbd 1280 ca3f 51d7 cfbc cbc3 81be
00000120: 31fe b33d 116b 95bf 9cd0 3cbe 6916 4c3c
00000130: fc5a a73f 30d6 3dbd 66de b0bd d564 f7be
00000140: b85e a03d 84e0 6f3d 4733 bdbf 68db cd3f
00000150: b4c3 623d 1465 323d 90b1 ca3d f92e 823f
00000160: 9c73 2fbe e2c8 cc3d 8002 213b 7896 74bd
00000170: 37d1 723f d1d7 953d 7a83 5fbf 2d85 06bf
00000180: a3da 1e40 70be a6bc 0680 2e3f fe8e b83d
00000190: c9ce ae3f 848a d9be b47c dd3d e518 fe3d
000001a0: 328a 9a3f f4be 523e 1bee 2f3d 5e3a 2bbf
000001b0: cf28 6b3d ff2a e8bc a9f5 bf3d ee24 febe
000001c0: 3cbc 0040 6aaf d53d 14fc 1abf d8f5 cc3c
000001d0: fa98 cfbd 548c f4bd b06f 67bc 380e d13c
000001e0: f1e0 4e3d a60a db3d 10b9 ba3d 3024 d0bd
000001f0: 1393 3abd d76f 4b3f a852 c93f c0fd f7bc
00000200: 5638 2cbd d259 aebe 77a1 8dbd fffa 78bd
00000210: d0bb 94bd 8be1 bf3f 796d cebd 3a6c 18bd
00000220: 5e9d dbbd 0617 93bf 6bdb b8be a8c2 44bc
00000230: f336 bf3f e860 cb3d a6ce b8bd 9b7f fabe
00000240: b81e 123d 46e4 e43d f4b8 c0bf e0b2 d63f
00000250: e0e4 d43b a99b 773d 6055 bfbd 3ab4 803f
00000260: c742 abbe 1287 fbbd 3eaf e53d b5c7 1c3c
00000270: 3cc6 933f 8113 1dbd 862a 25bf f744 3ebf
00000280: f00e 1440 b0f1 27bd 49f1 6d3f c37b 003e
00000290: 0031 963f 518b eebe 9ca9 cfbd 9f40 aebd
000002a0: d57b aa3f 9d4c ac3e 3b9f d13d 460b 84bf
000002b0: 75aa 83bd cebd bdbd 2cd0 e2bb 08c5 f1be
000002c0: 70e8 f13f e013 edbd 345c 1abf d871 2f3d
000002d0: a8ae c7bd 8489 23bd 807f a2bb f08e 50bc
000002e0: 9aff 87be 40e4 e8bc 926d a13c 9817 e7bc
000002f0: 70ff f5bd d785 1b3f 907b ba3f b805 f6bd
00000300: cca2 bd3d d02a 15bf 0c7d 023e dc8e 023e
00000310: 6c2f 20bd ec01 d83f 4e22 cbbd a31b 00be
00000320: b32f cd3d ca92 74bf 3d68 1ebe 403b 5d3d
00000330: c4de aa3f 94ba 0b3d 5782 2fbd 7649 5fbf
00000340: bcac ed3d a42c 733d bdc6 e3bf 21aa cc3f
00000350: ae71 40bb e21a 323d f0a7 233d c668 693f
00000360: c2c6 1abe 3853 9f3c fcec 123d a899 af3d
00000370: 2f5d 8d3f ddb5 923d dcde 11bf 4e4a 07bf
00000380: 222c 1140 4cf6 51bd 1f99 3c3f 6dd5 963d
00000390: f985 813f f3ac 1cbf db19 923a 721e 8b3d
000003a0: 29bb b03f 989e 5b3d 2baf a2bd dfcc 63bf
000003b0: f3f7 1ebc 7075 9a3d be47 99bd f9ca 1bbf
000003c0: dc40 1040 93d9 8b3c 338c 65bf b061 723c
000003d0: 30b5 dcbc a8a3 46bd e615 b83d 00eb cebd
000003e0: ca73 283d d82a 3a3d 774f d53a 3e92 b93d
000003f0: efd5 1fbc bd0d 703f d82d af3f 6298 b73d

fc3.bias f4 [20]
2.7361581 1.560805 1.0391134 1.0766841 0.93817097 0.7399368 0.5149604 0.4585745
0.1781249 0.23190655 -0.049791194 0.20670877 -0.56701344 -0.29026517 -0.5256918 -0.42565814
-0.76404685 -0.6735963 -0.40124792 -0.7200691
00000000: 371d 2f40 75c8 c73f ab01 853f c9d0 893f
00000010: f92b 703f 806c 3d3f 72d4 033f 47ca ea3e
00000020: 6066 363e e978 6d3e daf1 4bbd 77ab 533e
00000030: cb27 11bf a39d 94be bd93 06bf ddef d9be
00000040: 9398 43bf cf70 2cbf 5e70 cdbe 7356 38bf

fc1.weight f4 [64, 3]
-0.070734754 -0.0010409261 -0.06631348 -0.017533785 -0.014340397 0.056957565 -0.33078316 -0.0787392
0.024861174 0.0585255 0.35649002 -0.04815837 0.10948397 -0.1671376 -0.40449724 0.43493238
-0.84200984 0.0030995973 -0.077267736 -0.23512232 0.085736394 -0.020936744 -3.5325713 0.13684714
-0.12849914 0.02526347 -0.04192931 -0.02283016 -0.04242659 0.06520343 -0.0128156375 0.43955746
-0.07745892 -0.0142345065 0.12593552 0.19486687 -0.2601097 0.69215095 0.15870878 0.06647171
-0.08797081 -0.035703026 -0.019774271 -2.1733763 0.06704907 0.009399967 0.631006 -0.014573025
0.06999646 0.10894679 -0.041930713 0.63636273 -0.30939952 -0.056921043 0.28243604 0.5758999
-0.027811116 -0.2998813 -0.22220543 -0.1284591 -0.78369015 0.54375327 0.29612562 0.17912197
0.34164533 -0.22525613 -0.15269485 -0.25564864 -0.5521731 0.43922198 -0.045595948 -0.03547416
-0.20391056 -0.22132556 0.03655835 -0.30362687 -0.018955529 -0.21003592 -0.26920784 -0.4613906
-0.12761572 -0.5134891 -0.5255387 -0.57479197 -0.19338748 -0.062104788 -0.02722335 0.3468106
1.3681455 0.020933531 0.36257705 -0.8259636 0.08796856 0.37442628 -0.41975623 -0.35484594
-0.23366927 -0.4835375 -0.004689582 -0.4093937 -0.97685826 0.070320494 0.12200204 0.20007767
0.23128177 -0.030553816 0.22032218 -0.04298509 -2.7175074 -0.17091736 0.057814367 0.043740388
-0.023223417 -0.06744718 -0.18465142 0.31058958 -0.019006547 0.54422534 -0.5066053 -0.019922504
0.52233666 -0.17527504 -0.06444301 0.47812268 -0.3992371 0.21614744 0.10604176 -0.4415718
-0.49804795 -0.002008094 0.032910343 -0.056447156 0.0014774492 -2.698071 0.21415249 -0.5529876
-0.15848626 0.07047989 0.41522622 -0.5003242 -0.3727706 -0.5514742 -0.48234192 -0.008353651
0.8360496 0.5768022 -0.05873767 -0.39687744 -0.21703264 -0.056515515 0.27495027 -0.057091117
-0.49975714 -0.22973111 -0.48185238 -0.47096688 -0.20621239 -3.771473 0.017586289 -0.04893402
-0.43963665 0.013935353 -0.10811598 -0.16847177 0.09795073 -0.2988547 -0.33005282 0.20413834
0.018034728 -0.2524705 0.00063148653 -0.3660233 0.9239341 -0.123200886 -0.043833833 0.11544908
-0.041023184 -0.4040137 -0.083560854 -0.3205968 0.41271058 0.12778881 -0.3927042 0.6990659
-1.3494105 0.010811849 0.007821336 1.3695413 -0.1699126 0.0111249 0.0048562335 -0.057025596
00000000: 62dd 90bd af6f 88ba 5dcf 87bd 03a3 8fbc
00000010: fcf3 6abc 564c 693d 695c a9be 0542 a1bd
00000020: a9a9 cb3c 6fb8 6f3d dc85 b63e b641 45bd
00000030: 2239 e03d 1e26 2bbe 431a cfbe 75af de3e
00000040: f58d 57bf 9d22 4b3b 8c3e 9ebd e8c3 70be
00000050: 9096 af3d 8983 abbc a615 62c0 a821 0c3e
00000060: 4795 03be 56f5 ce3c 11be 2bbd 5106 bbbc
00000070: 81c7 2dbd 6089 853d aef8 51bc ad0d e13e
00000080: c8a2 9ebd d937 69bc 3ef5 003e 2e8b 473e
00000090: 192d 85be ce30 313f 8e84 223e 5222 883d
000000a0: 0a2a b4bd 563d 12bd a7fd a1bc 9918 0bc0
000000b0: 0651 893d 5202 1a3c 9c89 213f b2c3 6ebc
000000c0: 4e5a 8f3d 7f1f df3d 8abf 2bbd abe8 223f
000000d0: 9d69 9ebe 0a26 69bd 759b 903e 2d6e 133f
000000e0: 23d4 e3bc 0b8a 99be d289 63be c88a 03be
000000f0: eb9f 48bf 6a33 0b3f c79d 973e c06b 373e
00000100: 23ec ae3e 8ba9 66be 0a5c 1cbe 61e4 82be
00000110: 375b 0dbf b4e1 e03e d1c2 3abd 5a4d 11bd
00000120: eecd 50be 2ba3 62be 35be 153d fb74 9bbe
00000130: a048 9bbc a813 57be 9cd5 89be 643b ecbe
00000140: b2ad 02be 0674 03bf b489 06bf 9125 13bf
00000150: 5e07 46be 9761 7ebd 8103 dfbc 2991 b13e
00000160: 641f af3f cc7c ab3c b3a3 b93e 5a72 53bf
00000170: dc28 b43d cdb4 bf3e 4aea d6be 5eae b5be
00000180: ff46 6fbe 3a92 f7be 11ab 99bb 0d9c d1be
00000190: 6213 7abf 3104 903d 35dc f93d 29e1 4c3e
000001a0: 21d5 6c3e ff4b fabc 239c 613e 2211 30bd
000001b0: a4eb 2dc0 f604 2fbe c2ce 6c3d 1f29 333d
000001c0: 093f bebc bf21 8abd 4315 3dbe 9905 9f3e
000001d0: 9eb3 9bbc 5a52 0b3f e3b0 01bf 8534 a3bc
000001e0: dbb7 053f 4d7b 33be b2fa 83bd 7fcc f43e
000001f0: ce68 ccbe c155 5d3e 6c2c d93d b315 e2be
00000200: 2400 ffbe 3a9a 03bb ffcc 063d 2235 67bd
00000210: f8a6 c13a 32ad 2cc0 ca4a 5b3e 9890 0dbf
00000220: 394a 22be c357 903d 8898 d43e 3f15 00bf
00000230: cadb bebe 6a2d 0dbf 85f5 f6be c0dd 08bc
00000240: 5907 563f 4fa9 133f e996 70bd 8533 cbbe
00000250: ce3d 5ebe d07c 67bd 48c6 8c3e 60d8 69bd
00000260: 2be0 ffbe a23e 6bbe 5bb5 f6be 9222 f1be
00000270: 5729 53be d05f 71c0 1f11 903c 0a6f 48bd
00000280: 0e18 e1be 1b51 643c e96b ddbd dd83 2cbe
00000290: 649a c83d 7c03 99be affc a8be a409 513e
000002a0: 91bd 933c d043 81be 588a 253a 6867 bbbe
000002b0: f286 6c3f bf50 fcbd 1b8b 33bd 9170 ec3d
000002c0: ed07 28bd e2da cebe f421 abbd 4425 a4be
000002d0: cd4e d33e 12db 023e 8610 c9be fcf5 323f
000002e0: 7cb9 acbf 2e24 313c 1025 003c 214d af3f
000002f0: 92fd 2dbe 3645 363c 0a21 9f3b ac93 69bd

fc1.bias f4 [64]
4.468776 -3.9737303 4.543067 4.967974 0.09319395 3.5742464 -4.053142 -1.0288724
5.5957294 -4.2499113 3.5345044 -3.5206342 -3.5831583 5.4726915 0.21818238 3.196956
4.088514 -2.2249901 3.3977237 0.1146819 -4.870066 3.7808678 0.5302992 4.365012
5.2932167 -0.34911343 -0.1337173 -0.22385946 4.3692236 -1.163714 4.8548765 -0.06768567
4.433461 -3.2121158 -3.8205218 4.421193 -0.7483314 4.8270645 5.1700864 4.467852
2.3170109 -5.2149115 0.28589892 4.56451 -0.44705647 4.3775992 -0.5186367 0.111842096
0.46652713 -0.43205673 0.13516921 -0.05153531 -1.8281577 5.025667 -4.646531 -5.767999
4.397285 -1.2036109 4.2633247 0.36313677 2.9670572 1.3273056 0.9313062 4.5085597
00000000: 3700 8f40 9951 7ec0 ce60 9140 a5f9 9e40
00000010: 78dc be3d 74c0 6440 57b3 81c0 17b2 83bf
00000020: 3710 b340 46ff 87c0 5235 6240 1252 61c0
00000030: 7752 65c0 4a20 af40 346b 5f3e ed9a 4c40
00000040: 1bd5 8240 3d66 0ec0 4e74 5940 58de ea3d
00000050: 95d7 9bc0 bdf9 7140 b0c1 073f 2eae 8b40
00000060: 0862 a940 ffbe b2be 30ed 08be 6a3b 65be
00000070: aed0 8b40 95f4 94bf 265b 9b40 c99e 8abd
00000080: eade 8d40 4e93 4dc0 6e83 74c0 6a7a 8d40
00000090: a692 3fbf 5077 9a40 5971 a540 a5f8 8e40
000000a0: e849 1440 8ee0 a6c0 5861 923e 7710 9240
000000b0: 96e4 e4be 4b15 8c40 60c5 04bf 780d e53d
000000c0: a5dc ee3e 8a36 ddbe cc69 0a3e b016 53bd
000000d0: 1201 eabf 44d2 a040 62b0 94c0 7393 b8c0
000000e0: 8fb6 8c40 ec0f 9abf 286d 8840 10ed b93e
000000f0: 44e4 3d40 26e5 a93f 156a 6e3f 1f46 9040

fc2.weight f4 [64, 64]
-0.13113722 -0.08772054 -0.066401 -0.08263285 -0.04360506 -0.08680805 0.06381132 -0.011834934
0.021334048 0.107993826 0.013305768 -0.056391317 -0.108280554 -0.059131283 -0.027700683 -0.15964644
-0.06139123 -0.12774186 -0.17732453 -0.08315751 -0.037244003 -0.100762695 0.073375985 0.02270347
-0.14886369 -0.025182357 -0.1090122 -0.06711662 -0.16810848 0.050938424 -0.105165444 0.10805344
-0.028682312 -0.06299174 -0.0012336451 -0.071338385 -0.17027032 -0.057651877 0.0016050743 0.060939237
-0.15518866 -0.032148674 0.12107824 0.06899483 0.10147449 -0.06619554 0.026966304 -0.122967094
0.06916819 -0.026412293 0.0075542876 0.08164336 -0.0904922 -0.14832255 -0.040224344 0.043796938
-0.035030633 -0.14747252 -0.09529288 -0.042059377 0.043217197 0.059052493 -0.033505626 -0.095571585
1.3442168 0.984415 -0.315542 -0.8543483 -0.011617973 0.14540051 0.469301 0.5496805
-1.0806212 0.578908 -0.15368512 0.32060492 0.23317155 -0.54931885 -0.18270323 -0.7106728
-0.7299118 0.2648561 -0.5003549 -0.04437934 0.37964645 1.1237445 -0.06003271 -0.72550267
-0.037679907 -0.10375023 0.09078696 -0.027335748 -0.2952849 0.14758249 -0.06275402 0.09130431
-0.1458812 -0.17908984 0.18525049 -0.40163305 0.11826403 1.4096777 -0.7886262 0.21861106
-0.53553057 0.5076499 -0.09844952 4.098127 -0.10817195 -0.46208566 -0.06880945 0.042838708
-0.80976707 0.100532725 0.02755922 -0.021276966 0.7426536 -0.3220632 0.6147212 0.49002331
-0.33193287 0.1825507 -0.26295313 0.00391306 0.769972 -0.11928808 0.39442512 2.8323445
-0.10505082 0.008535215 -0.08262428 -0.01232016 0.11680567 -0.1241171 0.086193144 -0.043808118
0.024139259 0.043409504 0.028266935 0.09285405 -0.04850577 -0.13346398 -0.08510536 0.010245145
0.06986126 -0.013352078 -0.0041111438 -0.03558916 -0.03131706 0.038100895 0.0056669414 0.026551416
-0.1092679 0.021494271 -0.08266023 0.033032402 0.06274587 0.06557713 -0.03905086 -0.057598323
-0.1359078 0.019810416 -0.14124249 0.08383873 -0.03582844 -0.10973729 0.022759022 -0.05976374
-0.042362686 0.06024058 -0.08559114 -0.020959685 0.04508963 0.0480401 0.0673759 0.022905469
-0.109349854 0.04146965 0.010920405 -0.084223285 0.06670218 0.024079654 0.048353028 0.08477752
-0.020054428 -0.12616232 -0.0706883 -0.07602905 -0.09122981 -0.14434196 -0.12775676 0.07836994
0.097123295 0.0691758 0.07964483 -0.1401994 -0.117489025 0.044955518 0.053583406 -0.13639954
-0.019201325 -0.1634157 0.06484696 0.04431476 -0.073467396 -0.08371208 0.088964805 -0.046926226
0.040656477 -0.012416087 -0.049370047 0.0642644 -0.034900833 0.10577353 0.080546126 0.0072641764
-0.13286792 -0.063097715 0.09595759 -0.05272095 -0.13005157 -0.023466839 0.078578554 0.117947936
-0.11498257 -0.10549786 -0.060460377 -0.0652046 0.002736843 0.09131177 -0.14206205 0.06376661
-0.1142524 -0.13322556 -0.024306402 -0.083905794 -0.024267785 -0.11572763 -0.03161881 -0.014336988
-0.10510297 0.06455834 -0.064419955 0.059621215 -0.11431946 -0.023355078 -0.1093424 -0.016252719
0.10420144 0.069891065 0.021121735 0.047371864 -0.07652962 -0.049172603 -0.07271488 -0.053795744
00000000: d648 06be d4a6 b3bd 3ffd 87bd 693b a9bd
00000010: 389b 32bd 6bc8 b1bd 82af 823d 50e7 41bc
00000020: bec4 ae3c de2b dd3d 7000 5a3c 95fa 66bd
00000030: 32c2 ddbd a533 72bd 8bec e2bc 5b7a 23be
00000040: 5f75 7bbd c3ce 02be 9094 35be 7c4e aabd
00000050: 2b8d 18bd ac5c cebd 2646 963d a1fc b93c
00000060: b96f 18be 3b4b cebc ca41 dfbd 7074 89bd
00000070: a124 2cbe cfa4 503d fb60 d7bd 1f4b dd3d
00000080: 2bf7 eabc d001 81bd 43b2 a1ba dc19 92bd
00000090: 585b 2ebe 6024 6cbd 5b61 d23a 6c9b 793d
000000a0: c7e9 1ebe 54ae 03bd def7 f73d 294d 8d3d
000000b0: dbd1 cf3d 8791 87bd 70e8 dc3c 2cd6 fbbd
000000c0: 0da8 8d3d 985e d8bc f589 f73b a234 a73d
000000d0: f953 b9bd dee1 17be 48c2 24bd 6b64 333d
000000e0: 487c 0fbd 0903 17be ea28 c3bd 7446 2cbd
000000f0: 8404 313d 07e1 713d 323d 09bd 09bb c3bd
00000100: 4c0f ac3f 9f02 7c3f b98e a1be 92b6 5abf
00000110: 5059 3ebc dfe3 143e 3848 f03e dcb7 0c3f
00000120: cc51 8abf 5133 143f a25f 1dbe 5426 a43e
00000130: 86c4 6e3e 29a0 0cbf 8e16 3bbe a7ee 35bf
00000140: 80db 3abf 389b 873e 4217 00bf 1cc7 35bd
00000150: 0561 c23e dcd6 8f3f dce4 75bd 8bba 39bf
00000160: 3f56 1abd 007b d4bd 84ee b93d 38ef dfbc
00000170: 952f 97be dd1f 173e 2e85 80bd c1fd ba3d
00000180: e261 15be 5463 37be 4eb2 3d3e d9a2 cdbe
00000190: 6934 f23d 5270 b43f 68e3 49bf 94db 5f3e
000001a0: 8818 09bf 58f5 013f e79f c9bd db23 8340
000001b0: 4189 ddbd 7e96 ecbe f8eb 8cbd a477 2f3d
000001c0: e54c 4fbf 1ae4 cd3d e0c3 e13c 084d aebc
000001d0: 8c1e 3e3f 78e5 a4be 5e5e 1d3f 56e4 fa3e
000001e0: 1bf3 a9be 92ee 3a3e cba1 86be 2039 803b
000001f0: e31c 453f 4f4d f4bd 17f2 c93e 2245 3540
00000200: e224 d7bd 49d7 0b3c eb36 a9bd 7fda 49bc
00000210: d037 ef3d 1b31 febd 0886 b03d 2470 33bd
00000220: b2bf c53c 2ace 313d 0f90 e73c 442a be3d
00000230: fcad 46bd c8aa 08be b84b aebd 41db 273c
00000240: 6c13 8f3d adc2 5abc c6b6 86bb f0c5 11bd
00000250: 5146 00bd af0f 1c3d c0b1 b93b 5b82 d93c
00000260: d9c7 dfbd c114 b03c c449 a9bd fc4c 073d
00000270: e880 803d 4d4d 863d cbf3 1fbd 38ec 6bbd
00000280: 6a2b 0bbe 7449 a23c dfa1 10be a4b3 ab3d
00000290: d8c0 12bd f2bd e0bd 2171 ba3c d3ca 74bd
000002a0: 7f84 2dbd d4be 763d 684a afbd a5b3 abbc
000002b0: e7af 383d b2c5 443d 60fc 893d 40a4 bb3c
000002c0: d1f2 dfbd 14dc 293d 80eb 323c 427d acbd
000002d0: 279b 883d b242 c53c d30d 463d d69f ad3d
000002e0: 2f49 a4bc b230 01be 07c5 90bd 1eb5 9bbd
000002f0: b2d6 babd 61ce 13be abd2 02be 6b80 a03d
00000300: 94e8 c63d 0bac 8d3d d41c a33d 6e90 0fbe
00000310: 169e f0bd 4723 383d 467a 5b3d 52ac 0bbe
00000320: 194c 9dbc 7256 27be 7cce 843d 6583 353d
00000330: 1376 96bd 3d71 abbd 2e33 b63d b735 40bd
00000340: 6887 263d d86c 4bbc 3f38 4abd 0e9d 833d
00000350: 2df4 0ebd cb9f d83d 5ef5 a43d 5408 ee3b
00000360: 870e 08be 6039 81bd 6a85 c43d ecf1 57bd
00000370: 3d2c 05be 873d c0bc cbed a03d b08e f13d
00000380: fb7b ebbd 430f d8bd 4da5 77bd fd89 85bd
00000390: 9b5c 333b aa01 bb3d b778 11be 1298 823d
000003a0: 2afd e9bd 486c 08be 381e c7bc cdd6 abbd
000003b0: 3ccd c6bc 9c02 edbd ba82 01bd b0e5 6abc
000003c0: 3a40 d7bd 2a37 843d 9cee 83bd 6035 743d
000003d0: 5220 eabd 2653 bfbc e9ee dfbd 6c24 85bc
000003e0: 9167 d53d 0c23 8f3d 7d07 ad3c 0009 423d
000003f0: 90bb 9cbd 3669 49bd 8aeb 94bd ed58 5cbd

fc2.bias f4 [64]
-0.083598584 -0.17190917 -0.16331139 -0.003252104 -0.06837859 3.9920964 0.08031456 2.0030963
-0.013891322 1.7263608 0.34689134 -0.008652564 3.516369 -0.16751356 -0.07915226 -0.8075356
-0.1403335 0.039069485 2.1061554 3.7337515 -0.14489165 -0.11063138 -0.12845711 2.231697
-1.4720463 -0.11703151 -0.032844447 0.05820282 3.8984382 -0.0026581453 2.1438653 1.3160367
3.4267006 -0.01236952 3.9055011 -0.05573389 4.0534225 -0.7367733 -0.1043281 -0.15006787
3.2195985 0.47393513 0.0497165 0.6825445 0.05361693 -0.11069098 -0.044191405 -1.1020724
3.6838002 -0.1208835 -1.8505082 -0.120108634 -0.07112043 -0.113991626 -0.0502455 -0.120626256
-0.9887097 -0.14595132 2.7004566 -0.16639596 -0.069369525 2.407742 3.8643267 0.08869658
00000000: bc35 abbd f508 30be 1a3b 27be 4021 55bb
00000010: 130a 8cbd 827e 7f40 f67b a43d bb32 0040
00000020: 6d98 63bc 64f9 dc3f be9b b13e 7cc3 0dbc
00000030: 310c 6140 ad88 2bbe 951a a2bd a7ba 4ebf
00000040: 96b3 0fbe 5307 203d 40cb 0640 c9f5 6e40
00000050: 7a5e 14be b492 e2bd 438a 03be 20d4 0e40
00000060: 036c bcbf 37ae efbd e687 06bd 1566 6e3d
00000070: 0380 7940 4734 2ebb 1735 0940 e473 a83f
00000080: 104f 5b40 87a9 4abc bbf3 7940 3849 64bd
00000090: a3b5 8140 2d9d 3cbf f9a9 d5bd 64ab 19be
000000a0: e70d 4e40 a0a7 f23e 87a3 4b3d 3dbb 2e3f
000000b0: 6d9d 5b3d f4b1 e2bd 0c02 35bd b510 8dbf
000000c0: 62c3 6b40 c591 f7bd 74dd ecbf 84fb f5bd
000000d0: 97a7 91bd 7174 e9bd 3ace 4dbd e60a f7bd
000000e0: 141c 7dbf 4374 15be 48d4 2c40 b463 2abe
000000f0: 9c11 8ebd 7218 1a40 2151 7740 8da6 b53d

fc3.weight f4 [20, 64]
0.055176362 -0.03449554 -0.089218125 0.022993717 0.041067764 3.005197 -0.06332702 -0.008127158
-0.021863079 -3.5075328 0.09526908 -0.045357853 2.2352605 -0.105144575 -0.036245678 -0.119771905
0.08423362 0.08718409 -3.6194017 2.1777341 0.0015147179 0.0922282 -0.039788473 0.75426877
-0.09832863 -0.06800185 -0.067306966 -0.023828194 2.1144857 0.019272108 0.6221933 -3.2166593
1.8361493 0.09213134 2.1580334 -0.024653358 3.213816 0.057355296 -0.06567569 -0.10221461
2.5918713 -1.3978517 0.012994446 -0.9409125 -0.031213677 0.051500935 0.06387228 -0.02041166
1.4284331 -0.05734972 -0.23047069 -0.033794537 -0.050447524 0.09293601 -0.015514636 -0.065194726
-0.08323374 -0.07901336 0.29556924 -0.02981295 -0.023686633 2.4810429 3.6930263 -0.068088
-0.06998048 0.012237251 0.028099295 -0.076991566 -0.09361929 1.5646154 -0.025372347 -0.22936556
0.087884456 -1.145159 -0.22440472 0.012456135 1.2955488 -0.046348795 -0.08636169 -0.46191257
0.07830566 0.058564182 -1.4521743 1.5990524 0.05536242 0.043553427 0.098971486 0.9797922
-0.20543547 0.09999253 0.002456814 -0.05971531 0.94088703 0.073169366 -0.8436902 -0.49889526
2.4495583 -0.02035448 0.6747921 0.09011221 1.3549767 -0.41912252 0.10814801 0.0959572
1.2064464 0.19471343 0.04295129 -0.68359643 0.057409327 -0.02833958 0.06446316 -0.47826335
1.9629682 0.104335554 -0.58310926 0.025019571 -0.101366 -0.11940828 -0.0141257495 0.0255195
-0.02147794 0.106953904 0.008666456 -0.10163152 -0.045551572 0.7846864 1.5557432 -0.030272365
-0.042046033 -0.23543364 -0.06915346 -0.060784485 -0.07262385 1.5118614 -0.10078903 -0.044495847
-0.10723387 -1.1349468 -0.25708485 -0.0120090945 1.4805945 0.099306345 -0.09023887 -0.42004937
0.035673827 0.11176388 -1.5152732 1.6560651 0.0064970106 0.0604492 -0.09342456 1.0003525
-0.2755403 -0.12281622 0.11215131 0.009569928 1.1368736 -0.03834677 -0.6523115 -0.7227691
2.2433264 -0.041001976 0.9206144 0.12546195 1.1722298 -0.36891714 -0.10139772 -0.10001345
1.3150216 0.3359489 0.10236111 -1.0132287 -0.06429561 -0.092645444 7.8726844e-05 -0.3832796
1.9108212 -0.11575744 -0.525086 0.04283318 -0.0975011 -0.039926313 -0.004959047 -0.012729391
-0.19372426 -0.02842915 0.062347442 -0.028209493 -0.120116115 0.6120471 1.4702439 -0.120128095
0.09260073 -0.5027919 0.12742893 0.12748854 -0.039107725 1.6319773 -0.09919458 -0.08429404
0.10018553 -0.9603293 -0.090716876 0.054011818 1.2965661 0.03411478 -0.04284698 -0.7406536
0.11605212 0.059368856 -1.7712647 1.5870432 -0.0029363816 0.04348029 0.03995508 0.9569282
-0.07014344 0.01944906 0.035870537 0.08573867 1.1032943 0.07163453 -0.51892 -0.53053206
2.3146386 -0.051260278 0.7064066 0.07365366 0.98935837 -0.5020569 0.0011147492 0.03984668
1.3614339 0.124693446 -0.07944284 -0.86798656 -0.009702179 0.07542692 -0.07829524 -0.49267855
2.2840414 0.017070431 -0.76867497 0.014793798 -0.026941866 -0.04849592 0.08988552 -0.1010349
0.1120545 0.045454714 0.008663988 0.09061885 -0.009755264 0.9013565 1.318446 0.089646116
00000000: 9c00 623d 324b 0dbd feb7 b6bd 525d bc3c
00000010: ac36 283d 2655 4040 99b1 81bd c527 05bc
00000020: 331a b3bc 6b7b 60c0 6f1c c33d 28c9 39bd
00000030: 820e 0f40 0a56 d7bd 5976 14bd f94a f5bd
00000040: ad82 ac3d 928d b23d 47a4 67c0 ff5f 0b40
00000050: 8089 c63a 23e2 bc3d 3df9 22bd c217 413f
00000060: 8560 c9bd 8e44 8bbd 3cd8 89bd 5833 c3bc
00000070: bc53 0740 8ae0 9d3c 0f48 1f3f bfdd 4dc0
00000080: f106 eb3f 5baf bc3d 381d 0a40 d7f5 c9bc
00000090: 29af 4d40 63ed 6a3d fa80 86bd e555 d1bd
000000a0: 38e1 2540 ceec b2bf a8e6 543c a4df 70bf
000000b0: d3b3 ffbc a5f2 523d 78cf 823d 5b36 a7bc
000000c0: e5d6 b63f 8ae7 6abd 8200 6cbe 246c 0abd
000000d0: 10a2 4ebd 3c55 be3d 1a31 7ebc d084 85bd
000000e0: 7376 aabd c2d1 a1bd da54 973e 4a3a f4bc
000000f0: 780a c2bc 68c9 1e40 8b5a 6c40 b971 8bbd
00000100: ed51 8fbd c07e 483c 7e30 e63c c1ad 9dbd
00000110: 78bb bfbd 5145 c83f abd9 cfbc cede 6abe
00000120: c4fc b33d 9294 92bf 5aca 65be d114 4c3c
00000130: 8bd4 a53f 3cd8 3dbd 66de b0bd ce7f ecbe
00000140: b85e a03d ffe0 6f3d d9e0 b9bf c0ad cc3f
00000150: b4c3 623d 1465 323d 90b1 ca3d a9d3 7a3f
00000160: ad5d 52be e2c8 cc3d 8002 213b 0a98 74bd
00000170: f9dd 703f d2d9 953d 15fc 57bf 336f ffbe
00000180: 90c5 1c40 70be a6bc 2dbf 2c3f c08c b83d
00000190: e06f ad3f 3a97 d6be b47c dd3d 3585 c43d
000001a0: d66c 9a3f f562 473e b1ed 2f3d 2d00 2fbf
000001b0: 0b26 6b3d 6828 e8bc 4305 843d efde f4be
000001c0: 8b42 fb3f e1ad d53d a646 15bf d8f5 cc3c
000001d0: fa98 cfbd 548c f4bd b06f 67bc 450e d13c
000001e0: 81f2 afbc a60a db3d c0fd 0d3c 3024 d0bd
000001f0: 4994 3abd 35e1 483f 9822 c73f c0fd f7bc
00000200: 7638 2cbd 8415 71be 54a0 8dbd 27f9 78bd
00000210: d0bb 94bd ad84 c13f 7b6a cebd 4741 36bd
00000220: 6e9d dbbd f045 91bf a0a0 83be cbc1 44bc
00000230: 1f84 bd3f 2061 cb3d 28cf b8bd b610 d7be
00000240: b81e 123d 76e4 e43d 79f4 c1bf f1f9 d33f
00000250: e0e4 d43b 9599 773d 6055 bfbd 8d0b 803f
00000260: 9e13 8dbe 1287 fbbd 96af e53d 30cb 1c3c
00000270: 1385 913f 8111 1dbd e3fd 26bf 6507 39bf
00000280: a992 0f40 b0f1 27bd 63ad 6b3f 1979 003e
00000290: a00b 963f b5e2 bcbe 9ca9 cfbd dad3 ccbd
000002a0: a152 a83f 7f01 ac3e b4a2 d13d 7ab1 81bf
000002b0: 6bad 83bd e5bc bdbd 271a a538 393d c4be
000002c0: ca95 f43f 3d12 edbd 096c 06bf d871 2f3d
000002d0: a8ae c7bd c689 23bd 807f a2bb f08e 50bc
000002e0: a75f 46be 40e4 e8bc 0860 7f3d 9817 e7bc
000002f0: 70ff f5bd 1eaf 1c3f f430 bc3f b805 f6bd
00000300: 74a5 bd3d f8b6 00bf bb7c 023e 5b8c 023e
00000310: 6c2f 20bd a2e4 d03f 8726 cbbd 5ba2 acbd
00000320: 122e cd3d 24d8 75bf c5c9 b9bd 7f3b 5d3d
00000330: e1f5 a53f f1bb 0b3d 5180 2fbd 799b 3dbf
00000340: bcac ed3d c22c 733d cdb8 e2bf 3b24 cb3f
00000350: 4f70 40bb 6318 323d f0a7 233d 3ff9 743f
00000360: 5da7 8fbd a353 9f3c fcec 123d c197 af3d
00000370: bf38 8d3f 20b5 923d f1d7 04bf f3d0 07bf
00000380: 0a23 1440 4cf6 51bd 10d7 343f bbd7 963d
00000390: 9746 7d3f cd86 00bf c71c 923a 4636 233d
000003a0: 7743 ae3f 475f ff3d edb2 a2bd 5e34 5ebf
000003b0: e3f5 1ebc 6e79 9a3d 4159 a0bd 5d40 fcbe
000003c0: bc2d 1240 4ad7 8b3c e2c7 44bf b061 723c
000003d0: 30b5 dcbc a8a3 46bd e615 b83d 63eb cebd
000003e0: d47c e53d b92e 3a3d 66f3 0d3c 6096 b93d
000003f0: 8bd4 1fbc 4dbf 663f d7c2 a83f 6298 b73d

fc3.bias f4 [20]
2.694641 1.5081817 1.0627457 1.1042508 0.9166658 0.67613685 0.49493915 0.45086643
0.23344903 0.27398762 -0.03155157 0.18988347 -0.572996 -0.3674331 -0.5448455 -0.44276947
-0.80707484 -0.5967798 -0.3943379 -0.8185802
00000000: 0075 2c40 190c c13f 0d08 883f 1758 8d3f
00000010: 9caa 6a3f 4e17 2d3f aa68 fd3e f7d7 e63e
00000020: 430d 6f3e 1b48 8c3e 383c 01bd d070 423e
00000030: deaf 12bf 3120 bcbe ff7a 0bbf aeb2 e2be
00000040: 759c 4ebf 90c6 18bf a8e6 c9be 798e 51bf

exp_avg f4 [64, 3]
-284.62213 -394.20416 -1189.583 111.051575 176.23251 4117.71 -282.3942 -367.3558
-8600.106 -131.20139 -302.29828 -22148.176 0.0 0.0 0.0 -52.83505
-33.536285 -725.1111 129.23349 165.7672 4434.4517 146.67404 99.05506 6358.485
328.82065 -327.92438 -23460.713 87.29795 163.62737 3511.05 -178.55191 -203.39659
-397.1698 20.044083 35.906967 1057.6812 40.55468 61.35292 831.26013 -235.71078
-528.8587 -33812.715 33.593212 15.658394 989.9149 -8.767779 -18.80491 -3054.4458
-114.15926 -196.9151 -13369.453 39.18604 25.345125 14.193386 -12.179616 -56.4431
-5626.8525 0.0 0.0 0.0 77.98219 102.00557 1985.3584 -298.05646
-316.91522 -608.15515 0.0 0.0 0.0 -70.373245 -173.79857 -12205.083
-159.11116 -172.16644 -4010.8567 0.0 0.0 0.0 0.0 0.0
0.0 0.0 0.0 0.0 -82.37281 -214.14009 -5405.7466 116.78598
175.62436 5707.5024 -137.0906 -194.9135 -4065.6501 6e-45 6e-45 6e-45
-54.669975 -190.21594 -5327.36 25.34288 44.60652 2641.0828 43.484467 66.06645
908.20276 -69.40642 -124.898636 -5672.241 1.2282184 1.2541947 11.224 -306.62155
-433.6973 -1439.4849 -164.42279 -324.66605 -19658.145 -104.812675 -37.79243 -4289.2007
-14.337398 -50.73183 313.0044 128.74554 200.59807 5406.3354 0.0 0.0
0.0 -1598.7203 -2084.674 -4820.593 47.273396 42.62796 1676.5256 -99.8597
-258.66064 -6762.9336 0.0 0.0 0.0 0.0 0.0 0.0
22.737843 23.651947 -216.7791 0.0 0.0 0.0 0.0 0.0
0.0 0.0 0.0 0.0 -6e-45 -6e-45 6e-45 -369.9349
-468.72678 -8005.6016 155.28113 224.54959 5256.638 224.27536 305.04785 7416.811
-238.52927 -311.9519 -6675.7324 16.755508 42.437958 213.3568 -13.206395 -141.78851
-5475.086 0.0 0.0 0.0 -248.07545 -213.39317 -308.0395 -3.6799462
-2.047369 77.35005 -158.19968 -155.69003 -133.13882 -1261.2379 -1421.4742 -4191.4644
00000000: a24f 8ec3 221a c5c3 a8b2 94c4 681a de42
00000010: 863b 3043 aead 8045 7532 8dc3 8bad b7c3
00000020: 6d60 06c6 8e33 03c3 2e26 97c3 5a08 adc6
00000030: 0000 0000 0000 0000 0000 0000 1757 53c2
00000040: 2825 06c2 1c47 35c4 c63b 0143 67c4 2543
00000050: 9d93 8a45 8eac 1243 311c c642 e1b3 c645
00000060: 0b69 a443 52f6 a3c3 6d49 b7c6 8d98 ae42
00000070: 9ba0 2343 cd70 5b45 4a8d 32c3 8765 4bc3
00000080: bc95 c6c3 485a a041 bca0 0f42 cc35 8444
00000090: fe37 2242 6469 7542 a6d0 4f44 f6b5 6bc3
000000a0: f536 04c4 b714 04c7 735f 0642 c888 7a41
000000b0: 8e7a 7744 d348 0cc1 7570 96c1 22e7 3ec5
000000c0: 8b51 e4c2 44ea 44c3 d0e5 50c6 81be 1c42
000000d0: d1c2 ca41 1c18 6341 b5df 42c1 bcc5 61c2
000000e0: d2d6 afc5 0000 0000 0000 0000 0000 0000
000000f0: e2f6 9b42 da02 cc42 782b f844 3a07 95c3
00000100: 2675 9ec3 ee09 18c4 0000 0000 0000 0000
00000110: 0000 0000 1abf 8cc2 6fcc 2dc3 55b4 3ec6
00000120: 751c 1fc3 9c2a 2cc3 b5ad 7ac5 0000 0000
00000130: 0000 0000 0000 0000 0000 0000 0000 0000
00000140: 0000 0000 0000 0000 0000 0000 0000 0000
00000150: e1be a4c2 dd23 56c3 f9ed a8c5 6c92 e942
00000160: d69f 2f43 055c b245 3217 09c3 dbe9 42c3
00000170: 671a 7ec5 0400 0000 0400 0000 0400 0000
00000180: 0eae 5ac2 4837 3ec3 e17a a6c5 38be ca41
00000190: 146d 3242 5311 2545 18f0 2d42 0622 8442
000001a0: fa0c 6344 16d0 8ac2 1acc f9c2 ee41 b1c5
000001b0: 4336 9d3f 7489 a03f 8195 3341 8f4f 99c3
000001c0: 41d9 d8c3 84ef b3c4 3c6c 24c3 4155 a2c3
000001d0: 4a94 99c6 17a0 d1c2 732b 17c2 9b09 86c5
000001e0: fb65 65c1 65ed 4ac2 9080 9c43 dcbe 0043
000001f0: 1b99 4843 aff2 a845 0000 0000 0000 0000
00000200: 0000 0000 0dd7 c7c4 c94a 02c5 bea4 96c5
00000210: f517 3d42 0883 2a42 d290 d144 2bb8 c7c2
00000220: 9054 81c3 7857 d3c5 0000 0000 0000 0000
00000230: 0000 0000 0000 0000 0000 0000 0000 0000
00000240: 1ae7 b541 3037 bd41 73c7 58c3 0000 0000
00000250: 0000 0000 0000 0000 0000 0000 0000 0000
00000260: 0000 0000 0000 0000 0000 0000 0000 0000
00000270: 0400 0080 0400 0080 0400 0000 abf7 b8c3
00000280: 075d eac3 d02c fac5 f847 1b43 b28c 6043
00000290: 1b45 a445 7e46 6043 2086 9843 7dc6 e745
000002a0: 7e87 6ec3 d8f9 9bc3 dc9d d0c5 480b 8641
000002b0: 78c0 2942 575b 5543 654d 53c1 dcc9 0dc3
000002c0: b018 abc5 0000 0000 0000 0000 0000 0000
000002d0: 5113 78c3 a764 55c3 0e05 9ac3 3d84 6bc0
000002e0: 1808 03c0 3ab3 9a42 1e33 1ec3 a6b0 1bc3
000002f0: 8a23 05c3 9da7 9dc4 2daf b1c4 b7fb 82c5

exp_avg_sq f4 [64, 3]
339434.88 445588.84 3.1726582e+06 28641.87 74144.336 5.1060468e+07 79099.016 232873.52
1.2924524e+08 1.4454631e+06 3.831125e+06 1.0969763e+09 0.0 0.0 0.0 3474.3
2336.6597 3.295627e+06 27463.139 44209.445 5.225865e+07 92468.26 55612.383 1.9021005e+08
1.102514e+06 4.498181e+06 1.4727096e+09 19339.307 50606.145 3.5112836e+07 90791.5 316811.03
1.2103627e+07 3779.5278 11356.996 4.5186105e+06 2594.7454 9199.693 3.9352075e+06 3.3059375e+06
9.252789e+06 2.6676608e+09 4680.0737 1662.0425 6.625168e+06 46327.996 73153.67 2.0965218e+07
706244.9 1.8776574e+06 5.5690726e+08 5187.047 1286.5054 20288.598 131599.88 274780.25
8.119975e+07 0.0 0.0 0.0 7923.211 21074.475 1.2002964e+07 406358.25
411122.38 1.0414987e+06 0.0 0.0 0.0 502748.38 1.2376622e+06 3.5522406e+08
20501.613 38235.61 2.9310066e+07 0.0 0.0 0.0 0.0 0.0
0.0 0.0 0.0 0.0 12650.365 94646.7 6.2493356e+07 51556.46
209846.48 7.013599e+07 17242.764 43340.957 2.8136586e+07 7e-43 7e-43 7e-43
40638.71 68768.83 8.122355e+07 6144.658 13696.8125 4.7592144e+07 2592.007 9125.904
3.5915328e+06 56068.95 176564.55 6.579327e+07 332.41907 1913.011 3.233086e+06 407170.22
607738.6 7.452419e+06 1.0201024e+06 2.8164598e+06 8.600885e+08 93595.67 83328.914 9.925791e+07
35297.96 16372.559 448346.4 41143.473 150310.25 6.5097092e+07 0.0 0.0
0.0 6.3998315e+06 1.166569e+07 3.9442624e+08 5373.2207 11018.525 1.1507469e+07 55143.715
182107.11 9.8504e+07 0.0 0.0 0.0 0.0 0.0 0.0
11135.899 20441.953 1.067062e+06 0.0 0.0 0.0 0.0 0.0
0.0 0.0 0.0 0.0 5.978392e-12 4.89764e-12 4.700152e-08 105097.31
157168.89 1.1064232e+08 35857.46 86386.5 6.6632224e+07 61308.418 193187.73 1.135705e+08
53216.047 119939.35 8.06259e+07 495.62024 8185.802 254923.27 41117.58 160829.75
6.763804e+07 0.0 0.0 0.0 327020.97 310752.5 562039.2 863.9577
145.62054 787382.4 66785.89 236668.7 6.5198305e+06 3.8718658e+06 5.880829e+06 1.2082591e+08
00000000: 5cbd a548 9b92 d948 c9a4 414a bdc3 df46
00000010: 2bd0 9047 bdc7 424c 827d 9a47 616a 6348
00000020: 0784 f64c b972 b049 54d5 694a 0fc5 824e
00000030: 0000 0000 0000 0000 0000 0000 cd24 5945
00000040: 8e0a 1245 2c26 494a 478e d646 72b1 2c47
00000050: d659 474c 219a b447 623c 5947 0066 354d
00000060: 9095 8649 0a46 894a 888f af4e 9d16 9746
00000070: 25ae 4547 e1f1 054c c053 b147 61b1 9a48
00000080: cbaf 384b 7238 6c45 fc73 3146 a5e5 894a
00000090: ed2b 2245 c6be 0f46 9e2f 704a 46c7 494a
000000a0: b52f 0d4b 4601 1f4f 9740 9245 5cc1 cf44
000000b0: 202f ca4a fff7 3447 d6e0 8e47 b1f3 9f4b
000000c0: 4e6c 2c49 cb34 e549 ecc6 044e 6018 a245
000000d0: 2cd0 a044 3281 9e46 f883 0048 882b 8648
000000e0: 51e0 9a4c 0000 0000 0000 0000 0000 0000
000000f0: b099 f745 f3a4 a446 9426 374b c86a c648
00000100: 4cbe c848 ab45 7e49 0000 0000 0000 0000
00000110: 0000 0000 8c7b f548 f214 9749 5062 a94d
00000120: 3a2b a046 9c5b 1547 399e df4b 0000 0000
00000130: 0000 0000 0000 0000 0000 0000 0000 0000
00000140: 0000 0000 0000 0000 0000 0000 0000 0000
00000150: 76a9 4546 5adb b847 ab64 6e4c 7664 4947
00000160: 9fed 4c48 17c6 854c 87b5 8646 f54c 2947
00000170: 45aa d64b f401 0000 f401 0000 f401 0000
00000180: b6be 1e47 6a50 8647 f0eb 9a4c 4405 c045
00000190: 4003 5646 b48c 354c 1d00 2245 9e97 0e46
000001a0: b335 5b4a f304 5b47 236d 2c48 3efb 7a4c
000001b0: a435 a643 5a20 ef44 f854 454a 47d0 c648
000001c0: aa5f 1449 066e e34a 660c 7949 2fe7 2b4a
000001d0: a30f 4d4e d6cd b647 75c0 a247 c751 bd4c
000001e0: f6e1 0947 3cd2 7f46 4deb da48 79b7 2047
000001f0: 90c9 1248 6153 784c 0000 0000 0000 0000
00000200: 0000 0000 af4e c34a 1a01 324b bc13 bc4d
00000210: c4e9 a745 1a2a 2c46 0d97 2f4b b767 5747
00000220: c7d6 3148 a8e1 bb4c 0000 0000 0000 0000
00000230: 0000 0000 0000 0000 0000 0000 0000 0000
00000240: 99ff 2d46 e8b3 9f46 b041 8249 0000 0000
00000250: 0000 0000 0000 0000 0000 0000 0000 0000
00000260: 0000 0000 0000 0000 0000 0000 0000 0000
00000270: 9158 d22c 0552 ac2c b8de 4933 a844 cd47
00000280: 397c 1948 9208 d34c 7611 0c47 40b9 a847
00000290: 882e 7e4c 6b7c 6f47 efa8 3c48 589e d84c
000002a0: 0ce0 4f47 ad41 ea47 1ec8 994c 64cf f743
000002b0: 6ace ff45 d1f2 7848 949d 2047 700f 1d48
000002c0: 6302 814c 0000 0000 0000 0000 0000 0000
000002d0: 9fad 9f48 10bc 9748 7337 0949 4bfd 5744
000002e0: dc9e 1143 663b 4049 f270 8247 2d1f 6748
000002f0: 2df8 c64a e751 6c4a fa77 b34a 0775 e64c
