beer/experiments/MA_0.05/models/dqn_agent_firm_2_episode_1000.pth (torch, 101224 bytes, 24 tensors)

fc1.weight f4 [64, 3]
0	0x3e929e8e	0.28636593
1	0xbf34e992	-0.706689
2	0x3f2b2088	0.66846514
3	0xbe93de0d	-0.2888035
4	0xbe6961f4	-0.22791272
5	0xbf0cfea1	-0.5507603
6	0xbe61df29	-0.22057785
7	0x3f397a54	0.7245228
8	0xb9df3113	-0.00042570438
9	0x3f3e6d2b	0.7438533
10	0x3ded2f54	0.11581293
11	0x3ea45cde	0.32102102
12	0x3e525380	0.20539665
13	0xbf036d6f	-0.5133886
14	0xbe97c80b	-0.29644808
15	0x3ef431da	0.47694284
16	0x3f8b25d7	1.0870923
17	0xbddb93ae	-0.10721527
18	0x3c5e8263	0.013580891
19	0xbe116591	-0.14198901
20	0x3f214826	0.63000715
21	0xbee8d680	-0.4547615
22	0x3ea56534	0.32303774
23	0x3e190317	0.14942585
24	0x3f038b32	0.5138427
25	0x3f4a7230	0.79080486
26	0xbc83bbc3	-0.016080743
27	0xbd1670e0	-0.03672874
28	0x3e98a02d	0.29809704
29	0x3f376186	0.71633184
30	0xbec678a5	-0.3876392
31	0xbe3beffc	-0.18353266
32	0x3ee9dc20	0.45675755
33	0x3d5d85bb	0.054082613
34	0x3f06f02a	0.5271021
35	0xbc13c11c	-0.009018209
36	0x3f023fab	0.508784
37	0xbf87b7d9	-1.0602981
38	0x3f09b80e	0.5379647
39	0xbe15694c	-0.14590949
40	0x3f65d57c	0.89778876
41	0xbeac9ff3	-0.33715782
42	0xbe447864	-0.1918655
43	0xbebc6eca	-0.36803275
44	0xbee3daec	-0.44502962
45	0xbdcc9317	-0.09988993
46	0x3f22eae5	0.6363967
47	0xbe91a00f	-0.28442428
48	0x3f3cff70	0.73827267
49	0xbf2b6707	-0.6695408
50	0x3e8441af	0.25831363
51	0x3da84b34	0.08217469
52	0x3e780e54	0.24224216
53	0xbec3595d	-0.38154116
54	0x3e946ecc	0.2899078
55	0x3e3f9033	0.18707351
56	0x3f34637c	0.704643
57	0x3e729896	0.2369102
58	0x3eb3017f	0.3496208
59	0xbc23d8e8	-0.010000445
60	0xbe628a2c	-0.22123021
61	0x3f3d67ef	0.73986715
62	0x3da52649	0.08063943
63	0xbedd567f	-0.43230054
64	0x3f1a214b	0.6020705
65	0x3d12e9f8	0.03586766
66	0xbc55a040	-0.013038695
67	0xbde53aac	-0.111928314
68	0xbf00b65d	-0.50278264
69	0x3f68a610	0.9087839
70	0xbf24a4aa	-0.6431376
71	0x3ee833b3	0.45351943
72	0x3f9464f5	1.159331
73	0xbe857421	-0.26065162
74	0x3e683a6f	0.2267854
75	0x3eaf3c6a	0.3422578
76	0x3faadcfe	1.3348691
77	0xbda62e96	-0.08114354
78	0x3ed2422f	0.4106612
79	0xbe87388c	-0.2641033
80	0x3d97c658	0.07410878
81	0x3f1b7883	0.6073076
82	0xbc4e9465	-0.012608622
83	0xbece0213	-0.40235958
84	0x3f9520c0	1.165062
85	0x3f00c841	0.50305563
86	0xbdfdba49	-0.12389047
87	0x3d46e595	0.04855879
88	0x3e564dc9	0.2092811
89	0x3ece0846	0.40240687
90	0x3ecde5b7	0.4021432
91	0x3e0be4d2	0.13661507
92	0x3ee8d5ae	0.45475525
93	0x3e5c6390	0.21522355
94	0xbeecd355	-0.46254984
95	0x3f065f12	0.52488816
96	0x3e0c9184	0.13727385
97	0xbf2d1291	-0.67606455
98	0x3e85ac96	0.26108235
99	0xbd741c57	-0.05959734
100	0x3f306cfe	0.6891631
101	0xbc076e72	-0.008266078
102	0x3eb91c23	0.3615428
103	0x3f5a4344	0.8525889
104	0xbc5ef2be	-0.013607679
105	0xbefe2605	-0.49638382
106	0x3f1d5c47	0.6146893
107	0xbe48779a	-0.19576874
108	0x3ec6f7eb	0.3886102
109	0xbf6b848a	-0.91999114
110	0x3f19935a	0.59990466
111	0xbf062010	-0.52392673
112	0xbee08c40	-0.43857002
113	0xbeb60eff	-0.35558316
114	0x3ee5cc28	0.4488232
115	0xbc01245a	-0.007882202
116	0x3e9f9df8	0.31175208
117	0x3f302426	0.6880516
118	0xbe99afe1	-0.30016997
119	0x3d898844	0.06715444
120	0xbb8c5580	-0.0042826533
121	0xbe2d1418	-0.16902196
122	0xbeddb783	-0.4330407
123	0x3eae1614	0.3400122
124	0x3edeee2b	0.43541083
125	0xbc44f7cf	-0.012021973
126	0x3e04f3a2	0.12983564
127	0x3ebebbf1	0.37252763
128	0x3eb758cd	0.35809937
129	0xbf2192ce	-0.6311463
130	0x3f10dfa6	0.5659126
131	0xbe3964ed	-0.18104906
132	0x3e73e73d	0.23818679
133	0x3f9e78f5	1.2380663
134	0xbda679ec	-0.081287235
135	0x3f1c0143	0.60939425
136	0x3ec17b1f	0.37789246
137	0x3f131840	0.5745888
138	0x3e4590f4	0.19293576
139	0xbec195b5	-0.3780953
140	0xbf138ab1	-0.576335
141	0xbed0a306	-0.40749377
142	0x3fba002a	1.45313
143	0xbd8ae335	-0.067816176
144	0x3f04a0e8	0.51808023
145	0x3f05e1ad	0.5229748
146	0x3e7d31d9	0.24726047
147	0x3f4d9904	0.8031161
148	0x3d03bcc6	0.03216245
149	0xbb92d9a0	-0.0044815093
150	0x3d90dd10	0.07073414
151	0xbeb91a74	-0.36152995
152	0xbe3d42c0	-0.18482494
153	0x3f219e81	0.6313248
154	0x3e003ced	0.12523241
155	0x3e9a234e	0.3010506
156	0x3db3ce3c	0.087795705
157	0xbf189ea8	-0.5961709
158	0x3ed546fb	0.41655716
159	0x3d9c0f4e	0.07620107
160	0x3f44f941	0.7694283
161	0x3e854ea3	0.26036558
162	0xbe08970b	-0.13338868
163	0xbe53b30e	-0.20673773
164	0x3e84f6d0	0.25969553
165	0x3f8b58a2	1.0886424
166	0xbde26833	-0.11055031
167	0x3e748cc8	0.23881829
168	0x3dbb038a	0.091315344
169	0x3e6450b4	0.22296411
170	0xbf20244e	-0.62555397
171	0x3dbe22e0	0.09283996
172	0xbe5c3e9e	-0.21508262
173	0xbf02b165	-0.5105193
174	0xbe299146	-0.16559324
175	0x3d3785fd	0.044805516
176	0x3f2a7aa8	0.6659341
177	0x3f251e25	0.6449912
178	0x3dd46114	0.10370079
179	0x3f0f1116	0.55885446
180	0x3e50f2dd	0.20405145
181	0x3f3b733f	0.73222727
182	0xbc32c4f3	-0.010911214
183	0xbf196535	-0.59920055
184	0x3f1bf03f	0.6091346
185	0x3db736c4	0.089459926
186	0xbe94c99a	-0.2906006
187	0xbee45534	-0.44596255
188	0xbebb2087	-0.36548254
189	0x3ebc5b5c	0.36788452
190	0x3e847a2f	0.2587447
191	0xbc2b7e26	-0.010467088

fc1.bias f4 [64]
0	0xc02cdfb2	-2.7011533
1	0xbf0d9c38	-0.55316496
2	0x4068d6f1	3.638119
3	0xbfa0db4a	-1.2566922
4	0x3ec12544	0.37723744
5	0x3ee46a26	0.44612235
6	0xc06204f1	-3.5315516
7	0x4037aa54	2.869771
8	0xbcf1dec4	-0.029525168
9	0xbfdf7f6e	-1.7460763
10	0x3fbaa825	1.4582564
11	0x40366c20	2.8503494
12	0xbf8dddc2	-1.10833
13	0xbeca0830	-0.39459372
14	0xbec30b3c	-0.3809451
15	0x3f90c436	1.1309879
16	0x403761ff	2.8653562
17	0x40087318	2.1320248
18	0xbfe60d18	-1.7972746
19	0x4065b4c1	3.5891573
20	0xc0348474	-2.8205843
21	0x405a36e0	3.4095993
22	0x3e5277d4	0.20553523
23	0xc02950d2	-2.6455579
24	0xc029841a	-2.6486878
25	0xbe11b06f	-0.1422746
26	0x4073097b	3.7974536
27	0x3f87992b	1.0593618
28	0x3f5e31c7	0.86794704
29	0xc06f18d0	-3.7358894
30	0xbff4d20a	-1.9126599
31	0xc02bcbee	-2.6843219
32	0xbff33b08	-1.900239
33	0x401f62ed	2.490413
34	0x404f9b97	3.2438715
35	0x3f5d1acd	0.8636902
36	0x3fa41410	1.2818623
37	0x3ef6ba9c	0.48189247
38	0xbfdc82e7	-1.7227448
39	0x4044eb19	3.0768492
40	0x3da0f7b0	0.07859743
41	0x404240f1	3.0352137
42	0x402e3852	2.7221875
43	0x3f6c5219	0.9231277
44	0x3f59478e	0.8487481
45	0xbfd5d996	-1.6707027
46	0xbee8e8fe	-0.4549026
47	0x3ee9d0d5	0.4566714
48	0xbf9023cc	-1.1260924
49	0x40455c64	3.083764
50	0xbef32798	-0.47491145
51	0xc018341e	-2.378181
52	0xc0384bfe	-2.8796382
53	0x3e52eb91	0.20597674
54	0xc05f2f5b	-3.4872653
55	0xc014d39a	-2.3254151
56	0x3fceb656	1.6149395
57	0x3f0e267e	0.55527484
58	0x3e6ffad8	0.23435533
59	0xc020a625	-2.5101407
60	0x401c16f0	2.4389
61	0x40574ba0	3.3639908
62	0x3e07670c	0.13222903
63	0x403e60b4	2.9746523

fc2.weight f4 [64, 64]
0	0x3d531abc	0.051539168
1	0xbd8adf04	-0.06780818
2	0xbcf7b120	-0.030235827
3	0xbde2570e	-0.110517606
4	0x3c7b3a50	0.015333727
5	0xbdda8502	-0.106699005
6	0xbd06f42c	-0.032947704
7	0xbd574178	-0.05255267
8	0xbd1c0074	-0.03808637
9	0xbdf61c1e	-0.12017082
10	0x3cd4f9e0	0.025998056
11	0xbd64fda8	-0.055905968
12	0xbdc2b8ae	-0.09507881
13	0x3bf65ce0	0.007518396
14	0x3d7e6520	0.06210816
15	0xbd67d95c	-0.056603774
16	0x3cca6ae0	0.024709165
17	0x3ba94920	0.005166188
18	0xbcbb6918	-0.022877261
19	0xbdc78b2e	-0.09743343
20	0x3d21d394	0.039508417
21	0x3dd6341c	0.10459158
22	0x3d976470	0.07392204
23	0x3d99e318	0.07514018
24	0xbcf53098	-0.029930398
25	0xbd2bf1b8	-0.041978568
26	0x3de7de32	0.11321677
27	0xbde944e4	-0.11390093
28	0x3dd09bd4	0.10185972
29	0x3d83bbf4	0.064323336
30	0x3dc1aa62	0.09456326
31	0xbce27f40	-0.027648568
32	0x3da4375a	0.0801837
33	0x3c9621a0	0.01832658
34	0xbdbd14b8	-0.092324674
35	0x3d9688c4	0.07350305
36	0xbdc367f8	-0.09541315
37	0xbdfa4aa8	-0.12221271
38	0xbd8bd15c	-0.068270415
39	0xbd843c3a	-0.064568
40	0x3d371408	0.044696838
41	0x3d25aba8	0.040446907
42	0x3d71f944	0.05907561
43	0x3dba2fec	0.090911716
44	0xbd972c56	-0.07381503
45	0x3dc5e704	0.09663203
46	0x3c7a23f0	0.015267357
47	0x3cb77270	0.022393435
48	0xbd09309c	-0.033493623
49	0x3d295b50	0.041346848
50	0xbdc5740c	-0.09641275
51	0xbcb3d308	-0.021951213
52	0xbd38f388	-0.045154124
53	0xbd106b94	-0.035258844
54	0xbc0e5520	-0.008687288
55	0x3ded6668	0.11591798
56	0xbd5e1dc8	-0.05422762
57	0xbddcef2e	-0.107878074
58	0x3df2059a	0.11817475
59	0xbdb1003e	-0.08642624
60	0x3dc5727a	0.09640975
61	0xbd3497ec	-0.044090196
62	0xbc7711a0	-0.015079886
63	0xbd613c0c	-0.054988906
64	0xbca3add3	-0.019980347
65	0xbdb303e0	-0.087409735
66	0xbd2635d5	-0.040578682
67	0xbc97cf10	-0.018531352
68	0x3df52ccc	0.11971435
69	0xbc37b800	-0.011213303
70	0xbd7975c1	-0.060903315
71	0xbe1257ac	-0.14291257
72	0xbc3ca50b	-0.011513959
73	0x3d905d87	0.07049089
74	0x3aec92c9	0.0018049116
75	0xbd000015	-0.03125008
76	0x3d452355	0.0481294
77	0x3d7a022c	0.061037228
78	0xbd170278	-0.03686759
79	0xbdcac896	-0.0990154
80	0x3998efe2	0.00029170426
81	0xbde58d96	-0.11208646
82	0x3ca52b9f	0.020162402
83	0xbdb1b8f0	-0.08677852
84	0x3d3b20e0	0.04568565
85	0xbde015a7	-0.1094163
86	0xbdc32468	-0.09528428
87	0xbe06e252	-0.13172272
88	0xbde2e4e8	-0.11078817
89	0x3dbccb00	0.09218407
90	0x3d9b8c9c	0.075951785
91	0xbd24e50c	-0.0402575
92	0xbdccf436	-0.10007517
93	0xbdb7d847	-0.089767985
94	0xbe1c941d	-0.15290876
95	0xbcb50e0f	-0.02210143
96	0xbd05f3f4	-0.032703355
97	0x3dec24dc	0.11530468
98	0x3d565cfa	0.052334763
99	0xbdcb794f	-0.09935247
100	0x3d079b7a	0.03310726
101	0xbc6004c0	-0.0136730075
102	0xbdb6894c	-0.08912906
103	0x3d2a8491	0.04163033
104	0xbc887528	-0.016657427
105	0xbda8b2c4	-0.08237222
106	0xbe1ea445	-0.15492351
107	0xbd543c11	-0.051815096
108	0xbd903e71	-0.0704316
109	0xbdd80bf0	-0.10549152
110	0x3c0e6380	0.008690715
111	0xbddfbc78	-0.109246194
112	0xbe173c84	-0.14769179
113	0xbd3ad02e	-0.045608692
114	0xbd689dc0	-0.056791067
115	0xbd2344b0	-0.039860427
116	0x3cf584a7	0.02997048
117	0xbd4092c7	-0.047014978
118	0xbe27c95e	-0.16385409
119	0xbd51c2e7	-0.051211264
120	0x3d26d118	0.04072675
121	0xbd22e9f4	-0.039773896
122	0x3c16e833	0.009210634
123	0x3cc03221	0.023461403
124	0x3d7f6866	0.06235542
125	0x3d328963	0.043588053
126	0x3d1bf898	0.038078874
127	0x3df88c4a	0.12136133
128	0x3a830780	0.0009996742
129	0xbd11a74c	-0.035559937
130	0xbd805646	-0.06266455
131	0x3d132e8c	0.035933062
132	0x3b15f300	0.0022880435
133	0xbdb6ac90	-0.089196324
134	0x3d86c992	0.06581415
135	0x3c636360	0.013878673
136	0xbdfc2c9c	-0.12313196
137	0xbd1e8be0	-0.038707614
138	0xbde34fa6	-0.11099176
139	0xbd86106c	-0.06546101
140	0x3db57686	0.08860497
141	0xbdec1cea	-0.115289524
142	0x3d982d7a	0.07430549
143	0xbd1e68b8	-0.038674086
144	0x3d8a1406	0.067421004
145	0x3a0bde00	0.000533551
146	0xbd80ce82	-0.06289388
147	0xbdd77bca	-0.10521658
148	0x3d20a8d8	0.039223522
149	0xbdb757d2	-0.08952297
150	0xbdf1b780	-0.11802578
151	0xbd8877e6	-0.06663494
152	0xbd003de0	-0.03130901
153	0xbd6914d0	-0.056904614
154	0xbdc3093c	-0.09523246
155	0x3d64fa50	0.05590278
156	0xbd2979cc	-0.04137592
157	0xbc50ed50	-0.012751892
158	0x3b1a70c0	0.002356574
159	0xbd402a10	-0.046915114
160	0xbc98c408	-0.018648162
161	0xbd6418b4	-0.05568762
162	0x3b8eb4a0	0.0043550283
163	0xbd53c61c	-0.051702604
164	0x3c8d67f0	0.017261475
165	0x3c535cd0	0.012900546
166	0x3c83dc58	0.016096279
167	0xbdfc5e14	-0.123226315
168	0x3dac72c0	0.08420324
169	0x3c28aa80	0.010294557
170	0xbdf502d8	-0.11963433
171	0xbd286e8c	-0.04112105
172	0xbc040640	-0.008058131
173	0x3d95075c	0.07276794
174	0xbc83f318	-0.016107127
175	0x3d8289ce	0.063739404
176	0xbd967ccc	-0.07348022
177	0xbdd5bd3a	-0.10436483
178	0xbc9b70e0	-0.018974721
179	0xbd1067bc	-0.03525518
180	0x3d825a50	0.06364882
181	0xbd90a358	-0.07062405
182	0x3d788304	0.06067182
183	0xbda16e16	-0.07882325
184	0x3db9f236	0.09079401
185	0xbdcc98f4	-0.09990111
186	0xbdcf417c	-0.10119912
187	0xbdd31caa	-0.103082016
188	0x3dca3964	0.09874228
189	0x3de94102	0.113893524
190	0xbd79cda0	-0.060987115
191	0x3d184b6c	0.037181303
192	0xbb99e1d7	-0.0046961117
193	0xbdc4d08c	-0.0961009
194	0x3f40136c	0.75029635
195	0xbdcb8510	-0.09937489
196	0xbaba2e80	-0.0014204532
197	0xbe91a4ce	-0.28446048
198	0xbe337281	-0.17524149
199	0x3d43aa20	0.047769666
200	0xbec529b6	-0.38508385
201	0xbe072dd8	-0.13201082
202	0x3db42811	0.087967046
203	0x3f0ec91c	0.5577562
204	0xbcd889e0	-0.026432931
205	0x3cdcbd6c	0.026945792
206	0xbbe46d60	-0.0069710463
207	0xbe9296cf	-0.28630683
208	0x3e0c57b1	0.13705327
209	0xbf85042f	-1.0391902
210	0xbc83dee9	-0.016097503
211	0x3f4f3504	0.8094027
212	0xbf445919	-0.7669845
213	0x3f26f356	0.6521505
214	0xbcda0f60	-0.02661866
215	0xbbb9f66c	-0.0056751277
216	0xbe84d7e3	-0.25945958
217	0xbebb3802	-0.36566168
218	0x3f7eec14	0.99578977
219	0xbe24a029	-0.16076721
220	0x3eb5cd18	0.35508037
221	0xbe31cbdd	-0.17362924
222	0xbdf94fec	-0.12173447
223	0xbd205458	-0.039142936
224	0xbd04f02a	-0.0324556
225	0x3e84a587	0.25907537
226	0x3ebee70a	0.37285644
227	0x3ec6cf75	0.38830152
228	0x3e005da1	0.12535717
229	0xbdfd6c8e	-0.12374221
230	0xbdb260a7	-0.08709841
231	0x3f455179	0.7707744
232	0xbd99d43c	-0.075111836
233	0x3ed3d45e	0.4137296
234	0x3dcabdb3	0.098994635
235	0x3e9c9885	0.30585113
236	0xbee83f4f	-0.453608
237	0xbd77318b	-0.060349982
238	0x3d1e5848	0.03865841
239	0xbd83c19b	-0.06433412
240	0x3cde5cfc	0.027143948
241	0x3f183cd2	0.59467804
242	0xbb865dc0	-0.0041005313
243	0xbde8c8a3	-0.113663934
244	0xbc2aff4c	-0.010436844
245	0xbd9b58d6	-0.075853035
246	0xbea32101	-0.31861117
247	0xbe652d10	-0.22380471
248	0xbf839f99	-1.028308
249	0xbdf1d6de	-0.11808561
250	0x3db3b1f2	0.08774175
251	0xbd2ada7e	-0.041712277
252	0x3e86a2a3	0.26295957
253	0x3f604529	0.8760553
254	0xbdf07510	-0.11741078
255	0x3f219e0d	0.6313179

fc2.bias f4 [64]
0	0xbce73200	-0.028222084
1	0x3d59bbf5	0.053157765
2	0xbde28b6e	-0.1106175
3	0x401b0308	2.42206
4	0x3d0f9ea4	0.0350634
5	0x3ff381c9	1.9023982
6	0xbd669bec	-0.056301042
7	0x3fe70201	1.8047487
8	0xbde5b0bc	-0.1121535
9	0x3e299dc7	0.16564094
10	0xbad4b7ca	-0.001622909
11	0x3fff80da	1.9961197
12	0x3fc5678e	1.5422227
13	0x3f9ce2ae	1.2256677
14	0x3fff4a3f	1.9944533
15	0xbd833b06	-0.06407742
16	0x3db09db6	0.08623831
17	0xbcae18cd	-0.02125206
18	0x401c7569	2.4446661
19	0x401103b0	2.26585
20	0x3cd37092	0.025810514
21	0xbdecf31e	-0.115698084
22	0x3f789b5a	0.9711205
23	0x3f98c22d	1.1934258
24	0xbf076c7e	-0.5289992
25	0x4013ac61	2.3073962
26	0x3ff6cf97	1.9282101
27	0x3c8bc18d	0.017060066
28	0x40120e76	2.2821326
29	0x4006e288	2.1075764
30	0x3d47afdf	0.048751708
31	0x3ec56abc	0.38557994
32	0x3ff80248	1.9375696
33	0xbde9cb56	-0.114157364
34	0x3fea62ca	1.8311398
35	0x3de7060c	0.1128045
36	0x3fae0d35	1.359778
37	0xbd702cd0	-0.058636487
38	0x3f6de1c3	0.9292261
39	0x3fec6696	1.8468807
40	0x400161b1	2.0215876
41	0x3f8818c7	1.0632561
42	0x401a51b9	2.411238
43	0x40104daf	2.2547414
44	0x3ee94cf4	0.45566523
45	0x3fbc1155	1.4692789
46	0x3d4a94e6	0.049458407
47	0xbee73549	-0.4515784
48	0x402430ac	2.5654707
49	0x401e8c27	2.4773042
50	0xbf8d90fe	-1.1059873
51	0x3fe13a86	1.7595985
52	0x3f357dba	0.7089497
53	0x401302e1	2.2970507
54	0xbdea2b0e	-0.11433993
55	0x3c439180	0.011936545
56	0x3ea84d7b	0.32871613
57	0xbcd81a28	-0.02637966
58	0xbc943eee	-0.018096413
59	0x3c6d6abe	0.014490781
60	0x3f6b2515	0.9185346
61	0xbe251e21	-0.16124775
62	0xbd7efea7	-0.062254574
63	0x401a1f6a	2.4081674

fc3.weight f4 [20, 64]
0	0x3d0b60ec	0.03402798
1	0x3da00ce1	0.078149565
2	0x3ce9af68	0.028526023
3	0x3f013bac	0.5048168
4	0xbcd96960	-0.026539505
5	0x3ebe98a4	0.3722583
6	0xbc98daa8	-0.01865895
7	0x3e96e60e	0.29472393
8	0x3c237773	0.009977209
9	0xbe04b64d	-0.12960167
10	0x3d7d70c4	0.06187512
11	0x3ecf5eb2	0.40501934
12	0x3ee96847	0.4558737
13	0xbe606225	-0.21912439
14	0x3eb5c9db	0.35505566
15	0xbd0e2b5c	-0.03470932
16	0x3d4b5374	0.049640134
17	0xbd089028	-0.033340603
18	0x3ed1059b	0.4082459
19	0x3edb87cf	0.4287705
20	0x3c314ae0	0.010821074
21	0xbe994456	-0.2993495
22	0xbfc9ced4	-1.5766244
23	0x3e3ef1f0	0.1864698
24	0x3d404ee8	0.04695025
25	0x3ee75147	0.45179197
26	0x3ee3ffd6	0.44531125
27	0xbd9d0dee	-0.076686725
28	0x3eb5c496	0.35501546
29	0x3ed1976f	0.40935847
30	0x3c5abec5	0.013351147
31	0xbe131162	-0.143621
32	0x3ea77eeb	0.32714018
33	0xbd0d5451	-0.03450424
34	0x3e710fed	0.23541231
35	0x3dbe1e0e	0.09283076
36	0xbfa3c04e	-1.2793062
37	0xbca815d8	-0.020518228
38	0xbe76043c	-0.24025053
39	0x3ea34d43	0.31894884
40	0x3f13ec6e	0.5778264
41	0xbf89e8b0	-1.0774136
42	0x3ec620aa	0.38696796
43	0x3f0d7f4a	0.5527235
44	0xbd07de35	-0.033170898
45	0x3b8c21cc	0.00427649
46	0xbdd94e6f	-0.10610663
47	0x3f06a332	0.52592766
48	0x3f1314db	0.574537
49	0x3ee41578	0.4454763
50	0xbe95eb1c	-0.29280937
51	0xbf00a8e2	-0.50257695
52	0x3d3a7b7f	0.04552793
53	0x3f072025	0.52783424
54	0xbd4f96b1	-0.05068082
55	0xbddb52ae	-0.10709129
56	0xbda5c5f3	-0.080943964
57	0xbdc475fc	-0.09592816
58	0x3d3f0cae	0.04664295
59	0xbddb3bf2	-0.10704793
60	0xbf838584	-1.0275121
61	0xbd9fe1f2	-0.078067675
62	0x3d86fb3b	0.06590887
63	0x3ef2ad55	0.47397867
64	0xbcffc810	-0.031223327
65	0x3dcdfd1f	0.10058045
66	0xbdfac9ec	-0.12245545
67	0x3ec08fbd	0.37609664
68	0xbdda41b8	-0.10657066
69	0x3d28c15d	0.04120003
70	0xbdb52a16	-0.08845918
71	0x3e545541	0.20735647
72	0x3c7bc693	0.015367168
73	0xbe4e167b	-0.20125763
74	0xbdca23ba	-0.098700956
75	0x3dbdc596	0.09266202
76	0x3e425519	0.18977775
77	0x3e68be83	0.22728924
78	0x3e56070f	0.2090113
79	0x3cec08e8	0.02881284
80	0x3dc2119a	0.094760135
81	0x3de2387e	0.11045931
82	0x3ee2e132	0.44312435
83	0x3e367fde	0.17822215
84	0x3c2f0380	0.010681987
85	0x3dd1a698	0.10236853
86	0xbf2375b9	-0.63851506
87	0xbc8cd35c	-0.017190628
88	0x3eebe78f	0.46075103
89	0x3ea38647	0.31938383
90	0x3e1b2d2b	0.15153949
91	0xbd8b6c4b	-0.068077646
92	0x3e95d6cb	0.29265437
93	0x3ebac8b0	0.36481237
94	0x3dbaa8f4	0.091142565
95	0xbac8d1d8	-0.0015321327
96	0x3e2bbea3	0.16771941
97	0xbcac67ae	-0.021045532
98	0x3e7c4754	0.24636585
99	0x3dcf9e8e	0.10137664
100	0xbf0e12a1	-0.55497175
101	0xbdebdf34	-0.11517182
102	0xbee84fa6	-0.45373267
103	0x3e2be10c	0.16785067
104	0x3e5706c7	0.20998679
105	0xbe5ce4ba	-0.21571627
106	0x3ed7266b	0.42021498
107	0x3e4c30f7	0.19940554
108	0x3dda0ad4	0.106465966
109	0x3e942518	0.2893455
110	0x3dc55cc7	0.096368365
111	0xbd2480a7	-0.040161755
112	0x3ea5a9b2	0.3235603
113	0x3eb7c517	0.35892555
114	0xbe949979	-0.2902334
115	0xbeb531b1	-0.35389474
116	0x3ea8f4bb	0.32999215
117	0x3eb98cca	0.36240226
118	0xbdd1575f	-0.10221743
119	0xbd530434	-0.05151768
120	0xbd31f43a	-0.043445803
121	0x3d943308	0.07236296
122	0x3d403b39	0.04693148
123	0x3dd4f160	0.10397601
124	0xbe8adec9	-0.27123097
125	0xbdb42b8f	-0.08797371
126	0xbc8af7f8	-0.016963944
127	0x3e5457a0	0.20736551
128	0x3daf26f0	0.085523486
129	0xbce05dd7	-0.027388496
130	0xbd2f32a8	-0.04277292
131	0x3e8d64c5	0.27615944
132	0xbb1b6640	-0.0023712069
133	0x3df80814	0.12110916
134	0x3d8cc6a8	0.06873828
135	0x3ea0b435	0.31387487
136	0x3c75b669	0.014997103
137	0x3d23c58a	0.03998331
138	0xbcc07532	-0.023493383
139	0x3e809e94	0.25120986
140	0x3ec8ff44	0.39257252
141	0xbe7e0769	-0.24807514
142	0x3eaf9751	0.34295133
143	0xbdfe6640	-0.124218464
144	0xbd7b6040	-0.061371088
145	0xbd02cae4	-0.031931773
146	0x3ee3e287	0.44508764
147	0x3ecc35db	0.39884838
148	0xbdb5105e	-0.088410124
149	0x3e0bd4aa	0.13655344
150	0xbf08f3d3	-0.53497046
151	0xbe5cfa71	-0.21579911
152	0x3f220f1f	0.6330432
153	0x3ee1b1dd	0.4408101
154	0x3ee87dfc	0.45408618
155	0x3df8248d	0.121163465
156	0x3e568706	0.20949945
157	0x3f003b29	0.5009027
158	0x3d822b6a	0.06355937
159	0x3d4efba6	0.05053296
160	0x3efffa75	0.4999577
161	0x3dba1be2	0.090873495
162	0x3e6ac5aa	0.22926965
163	0x3b431dc0	0.002977237
164	0xbf9736a4	-1.181355
165	0xbce6db68	-0.028180793
166	0xbdd60cf2	-0.10451688
167	0x3e351ef6	0.17687592
168	0x3ee1c74c	0.44097364
169	0xbf2e108d	-0.67994004
170	0x3e9539fa	0.29145795
171	0x3e8eb96d	0.27875844
172	0xbeca0dae	-0.39463562
173	0xbc842222	-0.016129557
174	0x3d829934	0.063768774
175	0x3edf9ac4	0.43672764
176	0x3f0f8c79	0.5607372
177	0x3eccb6c6	0.39983195
178	0xbe967792	-0.293881
179	0xbe9ea574	-0.30985606
180	0x3e321e14	0.17394286
181	0x3edd10b9	0.4317682
182	0x3e0baf08	0.13640988
183	0xbd777f60	-0.06042421
184	0x3e2784e8	0.16359293
185	0xbc9f90e8	-0.019478276
186	0x3d32f69f	0.043692227
187	0x3c9ea4cb	0.019365689
188	0xbea6096d	-0.32429066
189	0xbbe28140	-0.0069123805
190	0xbd8a7e84	-0.06762412
191	0x3ec7ed2f	0.39048144
192	0x3cf27330	0.029595941
193	0xbd69faed	-0.057124067
194	0x3c0eeac0	0.008722961
195	0x3ece40ba	0.40283757
196	0x3d1c347c	0.03813599
197	0x3e8b16ad	0.27165738
198	0x3d755188	0.059892207
199	0x3e5f2ca7	0.21794377
200	0x3b9264c4	0.0044675786
201	0x3e9128e5	0.28351513
202	0x3d9f5a4c	0.07780895
203	0x3e92d8be	0.28680986
204	0x3e800631	0.25004724
205	0x3e6e4012	0.23266628
206	0x3e3eb86d	0.1862504
207	0xbc900bf0	-0.017583817
208	0x3d9e60ca	0.07733305
209	0xbd904ff4	-0.070465
210	0x3ed55181	0.41663745
211	0x3e0a37ac	0.134978
212	0x3d24ee2c	0.0402662
213	0x3e36a2b2	0.17835501
214	0x3ce76ab4	0.028249122
215	0x3ded92de	0.11600278
216	0x3da18920	0.07887483
217	0x3ea52679	0.32255915
218	0x3ea26978	0.3172109
219	0xbdb0ff63	-0.08642461
220	0x3e1c2f82	0.15252498
221	0x3eb4bd26	0.3530056
222	0xbd665fb8	-0.05624363
223	0xbe274798	-0.16335905
224	0x3dad2eca	0.0845619
225	0xbdceaf95	-0.10092083
226	0x3e2a9b9a	0.1666092
227	0xbd425240	-0.04744172
228	0xbe55105e	-0.20807025
229	0xbdb6d5e6	-0.08927517
230	0xbf5a1882	-0.85193646
231	0x3eaa2f4f	0.3323922
232	0x3ee484c6	0.44632548
233	0xbf0cd5bf	-0.5501365
234	0x3eaa712a	0.33289462
235	0x3ebd8459	0.37015036
236	0xbe2f43f4	-0.17115766
237	0x3e70e9de	0.23526713
238	0xbdc8645a	-0.097847655
239	0xbe5fc18f	-0.2185118
240	0x3ecaee88	0.3963511
241	0x3e9b1db2	0.30296093
242	0xbe95d452	-0.2926355
243	0xbd687360	-0.056750655
244	0x3e80b9ce	0.25141758
245	0x3e8a9cb0	0.27072668
246	0xbdac8e1a	-0.08425541
247	0x3d4cf9ac	0.050042793
248	0x3d70194e	0.058617882
249	0xbdf7d12e	-0.12100445
250	0xbe453d58	-0.19261682
251	0x3d66cdef	0.056348737
252	0xbe6fcea4	-0.23418671
253	0x3d989684	0.074505836
254	0xba9be400	-0.0011893511
255	0x3e3beae5	0.18351324

fc3.bias f4 [20]
0	0x3fb7dc35	1.4364077
1	0x3f11efae	0.5700635
2	0x3ef464a8	0.47733045
3	0x3ef466fa	0.47734815
4	0x3ef7e4e9	0.48416832
5	0x3efb0c40	0.49032784
6	0x3eda219e	0.42603773
7	0x3e5cdaff	0.21567915
8	0x3ec189de	0.37800497
9	0x3f0544ed	0.520583
10	0x3e5ab3c5	0.21357639
11	0x3ee029d3	0.4378191
12	0x3ea29ef8	0.3176191
13	0x3eddd0e9	0.43323448
14	0xbd55241c	-0.05203639
15	0x3d39be9f	0.045347806
16	0xbc614166	-0.013748502
17	0x3e850298	0.2597854
18	0xbd0143dc	-0.031558856
19	0x3ebeddc7	0.37278578

fc1.weight f4 [64, 3]
0	0x3e873cbc	0.26413524
1	0xbf08e408	-0.5347295
2	0x3f291190	0.66042423
3	0xbe93de0d	-0.2888035
4	0xbe6961f4	-0.22791272
5	0xbf0cfea1	-0.5507603
6	0xbe5b8460	-0.21437216
7	0x3f20308d	0.6257408
8	0xbb32b0c4	-0.0027266005
9	0x3f33ba7a	0.70206416
10	0x3e67f6fb	0.2265281
11	0x3ea3d9a4	0.32001984
12	0x3e525380	0.20539665
13	0xbf036d6f	-0.5133886
14	0xbe97c80b	-0.29644808
15	0x3f0ad8e9	0.5423723
16	0x3f6d02b5	0.92582256
17	0xbd9db4de	-0.07700513
18	0xbced4798	-0.028964803
19	0xbd01ed95	-0.031720717
20	0x3f1fdfbf	0.62450784
21	0xbec81154	-0.3907572
22	0x3e988091	0.29785588
23	0x3e1dcb26	0.15409526
24	0x3f3027ea	0.68810904
25	0x3f1786c6	0.5919002
26	0xbb2f92fe	-0.0026790495
27	0xbd9ce941	-0.07661677
28	0x3ebc477f	0.36773297
29	0x3f352713	0.7076275
30	0xbee2cb30	-0.44295645
31	0xba94fa0e	-0.0011366026
32	0x3ee6d758	0.4508617
33	0x3dc11d13	0.094293736
34	0x3ee0839a	0.43850404
35	0xbc10e46a	-0.008843521
36	0x3ee605f6	0.44926423
37	0xbf478467	-0.77936405
38	0x3f072c3d	0.5280188
39	0xbe17eb73	-0.1483591
40	0x3f718ecf	0.94358534
41	0xbe9587df	-0.29205224
42	0xbe447864	-0.1918655
43	0xbebc6eca	-0.36803275
44	0xbee3daec	-0.44502962
45	0xbd6cb4b4	-0.05778952
46	0x3f2ac2f2	0.6670371
47	0xbea12d0b	-0.31479678
48	0x3f32b43b	0.6980626
49	0xbef4644b	-0.47732767
50	0x3e81a7c6	0.25323313
51	0x3d983bbb	0.07433268
52	0x3ea9b264	0.33143914
53	0xbed6403b	-0.4184588
54	0x3e5b731f	0.21430634
55	0x3e89d98c	0.26923788
56	0x3f332096	0.699716
57	0x3e8a5e5d	0.27025118
58	0x3e8b433e	0.2719974
59	0xbc37ccae	-0.011218233
60	0xbe741d8e	-0.23839399
61	0x3f47d0ad	0.7805279
62	0x3d96d156	0.073641464
63	0xbed94b15	-0.42440096
64	0x3f005624	0.5013144
65	0x3d27adf0	0.040937364
66	0xbc55a040	-0.013038695
67	0xbde53aac	-0.111928314
68	0xbf00b65d	-0.50278264
69	0x3f578f75	0.84203273
70	0xbf03d475	-0.5149606
71	0x3ee42d1b	0.44565663
72	0x3f8d01ac	1.1016135
73	0xbe2a35e3	-0.16622119
74	0x3e5ee41d	0.21766706
75	0x3ed05f2b	0.40697607
76	0x3f93934d	1.1529328
77	0xbdc6dcdc	-0.09710094
78	0x3edd7876	0.43255967
79	0xbeaa36d1	-0.33244947
80	0x3d981400	0.0742569
81	0x3f18e5f4	0.5972588
82	0x3e264336	0.16236576
83	0xbeb7faad	-0.35933438
84	0x3f878972	1.058882
85	0x3efb1c7f	0.49045178
86	0xbe3479c4	-0.17624575
87	0xbc9ab86b	-0.018886765
88	0x3e960916	0.29303807
89	0x3ec8d7b5	0.3922707
90	0x3eb036f9	0.3441694
91	0x3e68b735	0.22726138
92	0x3ee68ce7	0.45029375
93	0x3e3bfd63	0.18358378
94	0xbeaaf98c	-0.33393514
95	0x3f058522	0.5215627
96	0x3d474390	0.048648417
97	0xbf08b9e2	-0.53408635
98	0x3e8169af	0.25275943
99	0xbc304035	-0.010757496
100	0x3f15f89c	0.5858247
101	0xbbe0810f	-0.0068513225
102	0x3ed1455a	0.40873224
103	0x3f407fb3	0.75194854
104	0xbc3e391b	-0.011610295
105	0xbf129873	-0.5726387
106	0x3f1b7fd8	0.6074195
107	0xbe367f7b	-0.17822067
108	0x3ec47410	0.383698
109	0xbf28d860	-0.6595516
110	0x3f189681	0.5960465
111	0xbf062010	-0.52392673
112	0xbee08c40	-0.43857002
113	0xbeb60eff	-0.35558316
114	0x3ece9ab6	0.4035241
115	0x3db56499	0.08857078
116	0x3e9bb911	0.30414632
117	0x3f328c80	0.69745636
118	0xbec04362	-0.3755141
119	0x3d77a155	0.060456593
120	0xbb8c5580	-0.0042826533
121	0xbe2d1418	-0.16902196
122	0xbeddb783	-0.4330407
123	0x3ec395a4	0.38200104
124	0x3eb7944d	0.35855332
125	0xbc141dd4	-0.009040315
126	0x3e1c3abd	0.15256782
127	0x3ecd59fd	0.40107718
128	0x3eb71174	0.35755503
129	0xbf0df387	-0.5544972
130	0x3f13a7dc	0.5767801
131	0xbe2f27aa	-0.17104974
132	0x3eae13fd	0.33999625
133	0x3f869167	1.0513123
134	0xbda3d7ac	-0.080001205
135	0x3f0d29be	0.5514182
136	0x3eeb3b7b	0.45943817
137	0x3f11d4b4	0.56965184
138	0x3e4590f4	0.19293576
139	0xbec195b5	-0.3780953
140	0xbf138ab1	-0.576335
141	0xbeb347e4	-0.35015786
142	0x3fa25a7e	1.2683866
143	0xbd6cae2b	-0.057783287
144	0x3ef78fa5	0.4835178
145	0x3f0beb06	0.5465549
146	0x3e7e3887	0.24826251
147	0x3f4f5520	0.80989265
148	0x3b81825e	0.0039523086
149	0xbbea543a	-0.007151154
150	0x3d90dd10	0.07073414
151	0xbeb91a74	-0.36152995
152	0xbe3d42c0	-0.18482494
153	0x3f117d54	0.5683186
154	0x3e49380e	0.1965029
155	0x3e967785	0.2938806
156	0x3d5676cd	0.05235939
157	0xbef6897d	-0.4815177
158	0x3ed229b9	0.41047457
159	0x3dc7ab93	0.09749522
160	0x3f26cc21	0.65155226
161	0x3e8abd3b	0.27097496
162	0xbe0d0e5d	-0.1377501
163	0xbe3a3be4	-0.18186909
164	0x3e7e0848	0.24807847
165	0x3f84c7db	1.0373491
166	0xbd0475f1	-0.03233904
167	0x3e6e826d	0.23291941
168	0xbda6eb16	-0.08150308
169	0x3eb332ae	0.34999603
170	0xbf1b3832	-0.6063262
171	0x3dbe22e0	0.09283996
172	0xbe5c3e9e	-0.21508262
173	0xbf02b165	-0.5105193
174	0xbe2cf7ad	-0.16891356
175	0x3e727e07	0.23680888
176	0x3f28b1c1	0.6589623
177	0x3f17c401	0.59283453
178	0x3e471529	0.19441666
179	0x3f0cbd11	0.5497599
180	0x3e82dd9d	0.25559703
181	0x3f212422	0.6294576
182	0xbc184201	-0.00929308
183	0xbf11863e	-0.5684546
184	0x3f055914	0.5208905
185	0x3dbeca2b	0.09315904
186	0xbe94c99a	-0.2906006
187	0xbee45534	-0.44596255
188	0xbebb20ea	-0.3654855
189	0x3ecaf789	0.3964198
190	0x3e463661	0.19356681
191	0xbc410461	-0.011780829

fc1.bias f4 [64]
0	0xc0210022	-2.515633
1	0xbf0d9c6c	-0.55316806
2	0x40602fb5	3.5029118
3	0xbf79e6f5	-0.9761804
4	0x3ec12544	0.37723744
5	0x3f262ea7	0.64914936
6	0xc0509107	-3.2588518
7	0x4028e39e	2.6388927
8	0x3e8cc460	0.27493572
9	0xbfb7ab31	-1.4349118
10	0x3f9cdacc	1.2254272
11	0x402d8abb	2.7115924
12	0xbf889966	-1.0671813
13	0xbeaeff39	-0.34179094
14	0xbec30b3c	-0.3809451
15	0x3f63c753	0.8897602
16	0x401d8f1b	2.4618595
17	0x3fda41e5	1.705136
18	0xbfc08348	-1.5040064
19	0x405c3c47	3.441179
20	0xc02442f3	-2.5665863
21	0x405205fe	3.2816157
22	0x3e5277d4	0.20553523
23	0xc01d0a2c	-2.4537458
24	0xc01d8a65	-2.461572
25	0x3be78f83	0.0070666685
26	0x40679be4	3.6188898
27	0x3f460901	0.7735749
28	0x3f5828f2	0.8443748
29	0xc06080e6	-3.5078673
30	0xbfd32932	-1.6496947
31	0xc01d7fb1	-2.4609187
32	0xbfe0d2ba	-1.7564309
33	0x4017be90	2.371006
34	0x4047973a	3.1186051
35	0x3f5691be	0.83816135
36	0x3f85ad5d	1.0443531
37	0x3ef6baed	0.48189488
38	0xbfb9a725	-1.4504133
39	0x4037ad8e	2.869968
40	0x3da0f7b0	0.07859743
41	0x4038dc8c	2.888461
42	0x4022edff	2.5457761
43	0x3f7c7f5c	0.98631835
44	0x3f84bf69	1.0370914
45	0xbfb38dae	-1.4027612
46	0xbee8e8fe	-0.4549026
47	0x3f2ade36	0.66745317
48	0xbf501c2a	-0.81292975
49	0x40388845	2.8833172
50	0xbef32798	-0.47491145
51	0xc0080fc2	-2.1259618
52	0xc02ac6af	-2.6683767
53	0x3edfc231	0.43702844
54	0xc051d4f7	-3.2786233
55	0xc00778db	-2.1167514
56	0x3fa42c03	1.2825931
57	0x3f0e267e	0.55527484
58	0x3eb9f2dc	0.363181
59	0xc0123b7a	-2.2848802
60	0x4014cecf	2.3251226
61	0x404f1132	3.2354245
62	0x3e07670c	0.13222903
63	0x40341033	2.8134887

fc2.weight f4 [64, 64]
0	0x3d531abc	0.051539168
1	0xbd8adf04	-0.06780818
2	0xbcf7b120	-0.030235827
3	0xbde2570e	-0.110517606
4	0x3c7b3a50	0.015333727
5	0xbdda8502	-0.106699005
6	0xbd06f42c	-0.032947704
7	0xbd574178	-0.05255267
8	0xbd1c0074	-0.03808637
9	0xbdf61c1e	-0.12017082
10	0x3cd4fa30	0.025998205
11	0xbd64fda8	-0.055905968
12	0xbdc2b8ae	-0.09507881
13	0x3bf65d2c	0.007518431
14	0x3d7e6520	0.06210816
15	0xbd67d95c	-0.056603774
16	0x3cca6b07	0.024709238
17	0x3ba94920	0.005166188
18	0xbcbb6918	-0.022877261
19	0xbdc78b2e	-0.09743343
20	0x3d21d394	0.039508417
21	0x3dd6341c	0.10459158
22	0x3d976470	0.07392204
23	0x3d99e318	0.07514018
24	0xbcf53098	-0.029930398
25	0xbd2bf226	-0.041978978
26	0x3de7de32	0.11321677
27	0xbde94591	-0.11390222
28	0x3dd09bd4	0.10185972
29	0x3d83bbf4	0.064323336
30	0x3dc1aa62	0.09456326
31	0xbce27f40	-0.027648568
32	0x3da4375a	0.0801837
33	0x3c9621a0	0.01832658
34	0xbdbd14ec	-0.09232506
35	0x3d9688c4	0.07350305
36	0xbdc367f8	-0.09541315
37	0xbdfa4aa8	-0.12221271
38	0xbd8bd15c	-0.068270415
39	0xbd843c3a	-0.064568
40	0x3d371408	0.044696838
41	0x3d25aba8	0.040446907
42	0x3d71f944	0.05907561
43	0x3dba2fec	0.090911716
44	0xbd972c56	-0.07381503
45	0x3dc5e704	0.09663203
46	0x3c7a23f0	0.015267357
47	0x3cb77270	0.022393435
48	0xbd09309c	-0.033493623
49	0x3d295b50	0.041346848
50	0xbdc5740c	-0.09641275
51	0xbcb3d308	-0.021951213
52	0xbd38f388	-0.045154124
53	0xbd106b94	-0.035258844
54	0xbc0e5520	-0.008687288
55	0x3ded6668	0.11591798
56	0xbd5e1e10	-0.05422789
57	0xbddcef2e	-0.107878074
58	0x3df2059a	0.11817475
59	0xbdb1003e	-0.08642624
60	0x3dc5727a	0.09640975
61	0xbd3497ec	-0.044090196
62	0xbc7711a0	-0.015079886
63	0xbd613c0c	-0.054988906
64	0xbca29979	-0.019848572
65	0xbdb303e0	-0.087409735
66	0xbd25ccf2	-0.040478654
67	0xbc96c33f	-0.018403647
68	0x3df52ccc	0.11971435
69	0xbc398743	-0.011323753
70	0xbd78ec4e	-0.060772233
71	0xbe123878	-0.14279354
72	0xbc3f3497	-0.011670253
73	0x3d90a3a3	0.07062461
74	0x3afe11b6	0.001938394
75	0xbcffc6cb	-0.031222722
76	0x3d45ae8c	0.048262164
77	0x3d7a02c7	0.061037805
78	0xbd1702b4	-0.036867812
79	0xbdcac8c8	-0.09901577
80	0x39da04b2	0.00041583698
81	0xbde58d96	-0.11208646
82	0x3ca644a3	0.0202964
83	0xbdb1b6ba	-0.086774305
84	0x3d3b892e	0.04578512
85	0xbddfe2af	-0.10931908
86	0xbdc32468	-0.09528428
87	0xbe06c149	-0.1315967
88	0xbde2a715	-0.110670246
89	0x3dbccb00	0.09218407
90	0x3d9bbc5c	0.07604286
91	0xbd24e570	-0.04025787
92	0xbdccf436	-0.10007517
93	0xbdb78fbe	-0.089629635
94	0xbe1c737d	-0.1527843
95	0xbcb3fa8f	-0.021970062
96	0xbd056c12	-0.032573767
97	0x3dec2da5	0.115321435
98	0x3d567394	0.052356318
99	0xbdcb291a	-0.09919949
100	0x3d0823fa	0.033237435
101	0xbc6004c0	-0.0136730075
102	0xbdb644d5	-0.088998474
103	0x3d2ab597	0.041677084
104	0xbc887528	-0.016657427
105	0xbda88b33	-0.08229675
106	0xbe1e83d2	-0.15479973
107	0xbd548234	-0.051881984
108	0xbd9052e3	-0.070470594
109	0xbdd7c7fe	-0.10536192
110	0x3c0e63a5	0.008690749
111	0xbddfb3d2	-0.1092297
112	0xbe171cec	-0.14757127
113	0xbd3b2fd4	-0.04569991
114	0xbd689dc0	-0.056791067
115	0xbd22bcf2	-0.039730974
116	0x3cf6966f	0.03010103
117	0xbd400a24	-0.04688467
118	0xbe27aa6f	-0.16373609
119	0xbd514812	-0.051094122
120	0x3d26d1a1	0.04072726
121	0xbd22e9f4	-0.039773896
122	0x3c1916f4	0.009343851
123	0x3cc14af6	0.023595314
124	0x3d7f421c	0.062318906
125	0x3d32f684	0.043692127
126	0x3d1bf898	0.038078874
127	0x3df85dc9	0.12127263
128	0x3a830780	0.0009996742
129	0xbd11a797	-0.035560217
130	0xbd805646	-0.06266455
131	0x3d132e8c	0.035933062
132	0x3b15f300	0.0022880435
133	0xbdb6ac90	-0.089196324
134	0x3d86c992	0.06581415
135	0x3c636360	0.013878673
136	0xbdfc2c9c	-0.12313196
137	0xbd1e8be0	-0.038707614
138	0xbde34fa6	-0.11099176
139	0xbd86106c	-0.06546101
140	0x3db57686	0.08860497
141	0xbdec1cea	-0.115289524
142	0x3d982d7a	0.07430549
143	0xbd1e68b8	-0.038674086
144	0x3d8a1406	0.067421004
145	0x3a0bde00	0.000533551
146	0xbd80ce82	-0.06289388
147	0xbdd77bca	-0.10521658
148	0x3d20a8d8	0.039223522
149	0xbdb75827	-0.089523606
150	0xbdf1b780	-0.11802578
151	0xbd887800	-0.06663513
152	0xbd003de0	-0.03130901
153	0xbd6914d0	-0.056904614
154	0xbdc3093c	-0.09523246
155	0x3d64fa50	0.05590278
156	0xbd2979cc	-0.04137592
157	0xbc50ed50	-0.012751892
158	0x3b1a70c0	0.002356574
159	0xbd402a10	-0.046915114
160	0xbc98c408	-0.018648162
161	0xbd641955	-0.05568822
162	0x3b8eb4a0	0.0043550283
163	0xbd53c61c	-0.051702604
164	0x3c8d67f0	0.017261475
165	0x3c535cd0	0.012900546
166	0x3c83dc58	0.016096279
167	0xbdfc5e14	-0.123226315
168	0x3dac730e	0.084203824
169	0x3c28aa80	0.010294557
170	0xbdf502d8	-0.11963433
171	0xbd286e8c	-0.04112105
172	0xbc040640	-0.008058131
173	0x3d95075c	0.07276794
174	0xbc83f318	-0.016107127
175	0x3d8289ce	0.063739404
176	0xbd967ccc	-0.07348022
177	0xbdd5bd81	-0.104365356
178	0xbc9b70e0	-0.018974721
179	0xbd1067bc	-0.03525518
180	0x3d825a50	0.06364882
181	0xbd90a358	-0.07062405
182	0x3d788304	0.06067182
183	0xbda16e16	-0.07882325
184	0x3db9f236	0.09079401
185	0xbdcc99a1	-0.0999024
186	0xbdcf417c	-0.10119912
187	0xbdd31caa	-0.103082016
188	0x3dca3964	0.09874228
189	0x3de941a9	0.11389477
190	0xbd79cda0	-0.060987115
191	0x3d184b6c	0.037181303
192	0xbbfa1ee5	-0.0076330774
193	0xbdc4d08c	-0.0961009
194	0x3f301b4a	0.6879164
195	0xbdcc3b9a	-0.099723056
196	0xbaba2eba	-0.00142046
197	0xbe807dab	-0.25095877
198	0xbe26248b	-0.16224878
199	0x3ccf5b68	0.02531214
200	0xbeb9b83b	-0.3627337
201	0xbe05db9c	-0.13072056
202	0x3d95cfab	0.07315
203	0x3efefe78	0.4980352
204	0xbd35be37	-0.044370856
205	0xbcf689fe	-0.030095097
206	0xbbe46d60	-0.0069710463
207	0xbea38917	-0.3194053
208	0x3db17910	0.08665669
209	0xbf5e41de	-0.86819255
210	0xbc82e1e9	-0.015976863
211	0x3f36c8ea	0.7140032
212	0xbf226d07	-0.6344761
213	0x3f1ea662	0.6197263
214	0xbcda0f60	-0.02661866
215	0xbc23dd5d	-0.010001508
216	0xbe81453d	-0.25248137
217	0xbea241d8	-0.3169086
218	0x3f6646d0	0.899518
219	0xbdae53b5	-0.085120596
220	0x3e91fa3c	0.28511226
221	0xbe0cf9fc	-0.13767236
222	0xbdf35710	-0.1188184
223	0xbd154636	-0.03644391
224	0xbd15876d	-0.036506105
225	0x3e666f5a	0.22503415
226	0x3eaac154	0.33350623
227	0x3ebcdd5d	0.36887637
228	0x3dccc064	0.09997633
229	0xbdfd6c8e	-0.12374221
230	0xbdabc912	-0.083879605
231	0x3f2f59a9	0.68496186
232	0xbd99d43c	-0.075111836
233	0x3eb40f1f	0.35167786
234	0x3da9e028	0.082947075
235	0x3e96c404	0.29446423
236	0xbed07aca	-0.4071868
237	0xbd711b50	-0.058863938
238	0x3d1e5848	0.03865841
239	0xbccac99c	-0.024754338
240	0x3d1350af	0.035965618
241	0x3f01adaa	0.50655615
242	0xbb865dc0	-0.0041005313
243	0xbdd22257	-0.10260456
244	0xbb174d82	-0.002308697
245	0xbd902dfb	-0.0704002
246	0xbe872a6e	-0.2639956
247	0xbe5ffed8	-0.21874559
248	0xbf709840	-0.93982315
249	0xbdf1d6de	-0.11808561
250	0x3da6e619	0.081493564
251	0xbd1c410f	-0.038147982
252	0x3e6f8952	0.23392227
253	0x3f5b3a1b	0.85635537
254	0xbdf0756f	-0.11741149
255	0x3f0b48f7	0.5440821

fc2.bias f4 [64]
0	0xbce73250	-0.028222233
1	0x3d5a153f	0.053242918
2	0xbde28b6e	-0.1106175
3	0x400e1b7b	2.2204273
4	0x3d0f9ea4	0.0350634
5	0x3fda4231	1.705145
6	0xbd669bec	-0.056301042
7	0x3fd457ce	1.6589296
8	0xbde59932	-0.1121086
9	0x3e70567a	0.23470488
10	0x3a87c197	0.0010357377
11	0x3feb808d	1.8398606
12	0x3fbe4040	1.4863358
13	0x3f9b413b	1.2129282
14	0x3ffd8cad	1.9808556
15	0xbd833b06	-0.06407742
16	0x3db0b685	0.08628563
17	0xbcad281c	-0.02113729
18	0x401328a6	2.299356
19	0x400d9ac1	2.2125704
20	0x3cd400b6	0.025879245
21	0x3cd2c9af	0.025730936
22	0x3f277b78	0.65422773
23	0x3f8ef0ca	1.1167233
24	0xbedc35ad	-0.430097
25	0x400bc54c	2.183917
26	0x3fe77d2d	1.8085076
27	0x3c8e6c6f	0.01738569
28	0x400ec7dd	2.2309487
29	0x40032759	2.0492766
30	0x3d48802b	0.048950355
31	0x3ea5f60c	0.3241428
32	0x3ff5a1d5	1.9190012
33	0xbde9af9d	-0.11410449
34	0x3fe895c3	1.8170704
35	0x3de7060c	0.1128045
36	0x3f82e1d3	1.0225166
37	0xbd702cd0	-0.058636487
38	0x3f0ef60f	0.55844206
39	0x3fd1e654	1.6398416
40	0x3ff3729e	1.9019353
41	0x3f454518	0.77058554
42	0x400e91cb	2.2276485
43	0x400361c8	2.052843
44	0x3f03ebe7	0.51531833
45	0x3fb08348	1.3790064
46	0x3d71d6a9	0.059042607
47	0xbec8ba29	-0.3920453
48	0x401d06d7	2.4535425
49	0x401276e5	2.2885067
50	0xbf8f39ed	-1.1189553
51	0x3fd13a39	1.6345893
52	0x3f370817	0.7149672
53	0x400a7a52	2.1637158
54	0xbde2c186	-0.11072068
55	0x3c439180	0.011936545
56	0x3ec1cf85	0.37853637
57	0xbcd81a28	-0.02637966
58	0x3c0eadd5	0.008708437
59	0x3c6de776	0.014520517
60	0x3f263941	0.6493111
61	0xbe0955fe	-0.1341171
62	0xbd7ef19e	-0.062242143
63	0x4018e6bc	2.389083

fc3.weight f4 [20, 64]
0	0x3d0b60ec	0.03402798
1	0x3da0428b	0.07825192
2	0x3ce9af68	0.028526023
3	0x3ece3d2d	0.40281048
4	0xbcd96960	-0.026539505
5	0x3ea7011c	0.32618034
6	0xbc98daa8	-0.01865895
7	0x3e62e343	0.22157006
8	0x3c22cf0f	0.009937062
9	0xbe51d101	-0.20489885
10	0x3d7d70c4	0.06187512
11	0x3e8e3c37	0.27780315
12	0x3ea801b1	0.3281379
13	0xbe2be0f6	-0.16785035
14	0x3e9411ef	0.28919932
15	0xbd0e2b5c	-0.03470932
16	0x3d4b5374	0.049640134
17	0xbd089028	-0.033340603
18	0x3e9e4eb3	0.30919418
19	0x3eb826c4	0.35967076
20	0x3c314ae0	0.010821074
21	0xbe6388b5	-0.22220118
22	0xbf8b4813	-1.088137
23	0x3e1fba58	0.15598428
24	0x3d8c1cf0	0.06841457
25	0x3eb1f520	0.34757328
26	0x3eb6729d	0.35634318
27	0xbd9e328c	-0.07724485
28	0x3e95a789	0.29229382
29	0x3e99e2ad	0.30055752
30	0x3c5dfa8a	0.013548503
31	0xbd634557	-0.05548605
32	0x3e8346f6	0.25640076
33	0xbd0d6efa	-0.034529664
34	0x3e33056e	0.1748254
35	0x3dbe1e8d	0.09283171
36	0xbf79a0b7	-0.97510856
37	0xbca815da	-0.020518232
38	0xbe9e3cd7	-0.30905792
39	0x3e70d8ef	0.23520254
40	0x3ee3a166	0.44459075
41	0xbf4fe185	-0.8120349
42	0x3e9c1f05	0.30492416
43	0x3ee5db92	0.4489408
44	0x3d006eae	0.031355552
45	0xbbc724e7	-0.006077397
46	0xbdd959e0	-0.106128454
47	0x3eca848f	0.3955426
48	0x3ef1963b	0.4718493
49	0x3eb243ce	0.34817356
50	0xbe9554ae	-0.29166168
51	0xbe98fa0a	-0.29878265
52	0x3d1bbac0	0.038019896
53	0x3edfda60	0.43721294
54	0xbd5f95cd	-0.05458622
55	0xbddb5336	-0.107092306
56	0xbdc88a98	-0.0979206
57	0xbdc475fc	-0.09592816
58	0x3d8863bc	0.06659648
59	0xbddb4b2c	-0.10707697
60	0xbf412229	-0.7544275
61	0xbd9ff688	-0.07810694
62	0x3d870159	0.06592054
63	0x3ed1b2e5	0.40956798
64	0xbcffc810	-0.031223327
65	0x3dcddbea	0.10051711
66	0xbdfaca00	-0.1224556
67	0x3ea78618	0.32719493
68	0xbdda41c5	-0.10657076
69	0xbc0ba3ba	-0.008522922
70	0xbdb52a16	-0.08845918
71	0x3e185152	0.14874771
72	0x3c7b3021	0.015331299
73	0xbdafcd15	-0.08584038
74	0xbdca23ba	-0.098700956
75	0x3d0b4168	0.033997923
76	0x3dbe3108	0.09286696
77	0x3e595aa5	0.21225984
78	0x3e59d931	0.21274258
79	0x3cec08e8	0.02881284
80	0x3dc2119a	0.094760135
81	0x3de238db	0.110460006
82	0x3ebafb13	0.3651968
83	0x3e3f387c	0.18673891
84	0x3c2f0380	0.010681987
85	0x3dcf455e	0.101206526
86	0xbef8fbe7	-0.48629686
87	0xbd278b81	-0.040904526
88	0x3eb6f225	0.35731617
89	0x3e714c6c	0.23564309
90	0x3db1e11f	0.086855166
91	0xbd8a46b6	-0.06751768
92	0x3e9747ad	0.29546872
93	0x3e9f3bd3	0.3110033
94	0x3dbaa8f4	0.091142565
95	0x3b7408b8	0.0037236642
96	0x3dfbc9e0	0.12294364
97	0xbcacb72b	-0.021083435
98	0x3e535e83	0.20641522
99	0x3dcf9f14	0.101377636
100	0xbeb6c5c7	-0.35697767
101	0xbdebdf34	-0.11517182
102	0xbe899ef5	-0.26879087
103	0x3df61595	0.12015835
104	0x3dd6517a	0.10464759
105	0xbe0df3cc	-0.13862532
106	0x3ebb094f	0.3653054
107	0x3e1443a3	0.14478926
108	0x3d76d157	0.060258236
109	0x3e66e74c	0.2254917
110	0x3da35b7d	0.079764344
111	0x3d19e67f	0.037573334
112	0x3e8259a3	0.25459012
113	0x3e97b946	0.2963354
114	0xbe8f829a	-0.2802933
115	0xbea67b18	-0.32515788
116	0x3e91ebc3	0.28500184
117	0x3e91df96	0.28490895
118	0xbdc929de	-0.09822439
119	0xbd530434	-0.05151768
120	0xbd6a7837	-0.057243552
121	0x3d943308	0.07236296
122	0x3d4ace05	0.04951288
123	0x3dd4e3f2	0.103950396
124	0xbe1ad93b	-0.1512193
125	0xbd82057b	-0.063487016
126	0xbc8af7f8	-0.016963944
127	0x3e59088e	0.2119467
128	0x3daf26f0	0.085523486
129	0xbcdfaffa	-0.027305592
130	0xbd2f32a8	-0.04277292
131	0x3e66a481	0.22523691
132	0xbb1b6640	-0.0023712069
133	0x3dc34922	0.09535433
134	0x3d8cc6a8	0.06873828
135	0x3e7f71d9	0.24945773
136	0x3c75e99f	0.015009313
137	0x3d2792d3	0.040911507
138	0xbcd6238e	-0.02614
139	0x3e4a5944	0.19760615
140	0x3e9f7c9f	0.31149766
141	0xbe289b71	-0.16465546
142	0x3e8542a5	0.26027408
143	0xbdfe6640	-0.124218464
144	0xbd7b6040	-0.061371088
145	0xbd02cae4	-0.031931773
146	0x3ec0535b	0.37563595
147	0x3eb57cc5	0.35446754
148	0xbdb5105e	-0.088410124
149	0x3e3a5c12	0.18199185
150	0xbeb7ec0d	-0.3592228
151	0xbe532ab2	-0.20621756
152	0x3eed3da6	0.46336097
153	0x3eb3079c	0.34966743
154	0x3eb6fd6c	0.3574022
155	0x3df6ff1a	0.120603755
156	0x3e4610a2	0.19342282
157	0x3ebfa304	0.3742906
158	0x3d822b6a	0.06355937
159	0x3d65deed	0.0561208
160	0x3ebf46a7	0.3735859
161	0x3dba1242	0.09085514
162	0x3e187768	0.148893
163	0x3b431dc0	0.002977237
164	0xbf5b9e54	-0.85788465
165	0xbce6db68	-0.028180793
166	0xbc8a7922	-0.016903464
167	0x3e054740	0.13015461
168	0x3ebc0e43	0.3672963
169	0xbefcc4e6	-0.49368972
170	0x3e6181a2	0.22022107
171	0x3e541f46	0.20715055
172	0xbe5936ca	-0.21212307
173	0xbd3840a2	-0.044983514
174	0x3d9fdeeb	0.0780619
175	0x3eb263dc	0.34841812
176	0x3ef5e892	0.48029
177	0x3e9f0475	0.31058088
178	0xbe914ac0	-0.28377342
179	0xbe1bf500	-0.15230179
180	0x3e22f629	0.15914215
181	0x3ea81413	0.32827815
182	0x3e04adbb	0.12956898
183	0xbd777f60	-0.06042421
184	0x3e24b422	0.1608434
185	0xbc9f90e8	-0.019478276
186	0x3d5cb848	0.05388668
187	0x3c9ed6bb	0.0193895
188	0xbe71097d	-0.23538776
189	0xbbe0a815	-0.0068559744
190	0xbd8a7e84	-0.06762412
191	0x3ea32ccf	0.31870124
192	0x3cf27330	0.029595941
193	0xbd6a1ec5	-0.05715825
194	0x3c0eeac0	0.008722961
195	0x3e99699e	0.29963392
196	0x3d1c347c	0.03813599
197	0x3e2ec079	0.1706561
198	0x3d755188	0.059892207
199	0x3dc65144	0.09683469
200	0x3b9114db	0.004427535
201	0x3ea46f6c	0.32116258
202	0x3d9f5f73	0.07781877
203	0x3e48d72a	0.19613329
204	0x3dfb6f91	0.12277139
205	0x3e1081c9	0.14112009
206	0x3e3d7e98	0.18505323
207	0xbc900bf0	-0.017583817
208	0x3d9e60ca	0.07733305
209	0xbd904ff4	-0.070465
210	0x3eaaa62a	0.33329898
211	0x3df81a3c	0.12114379
212	0x3d24ee2c	0.0402662
213	0x3de0535c	0.109533995
214	0x3dce4e5a	0.10073538
215	0x3dcc8c84	0.09987739
216	0xbdb47a0a	-0.088123396
217	0x3e4b9149	0.1987964
218	0x3e5116e1	0.20418884
219	0xbdafdbdf	-0.08586859
220	0x3de546cf	0.11195146
221	0x3e6acc7e	0.2292957
222	0xbd665fb8	-0.05624363
223	0xbe0d7f30	-0.1381805
224	0x3dbcba25	0.09215192
225	0xbdcebf5f	-0.10095095
226	0x3d876fe0	0.06613135
227	0xbd425240	-0.04744172
228	0xbbc88ff1	-0.006120675
229	0xbdb6d5e6	-0.08927517
230	0xbf2d4d5c	-0.67696166
231	0x3e6bec6e	0.2303941
232	0x3ea29dbd	0.3176097
233	0xbf01ab11	-0.5065165
234	0x3e72cd26	0.2371107
235	0x3e81f430	0.25381613
236	0xbd21bbb2	-0.03948564
237	0x3e353d5b	0.17699187
238	0xbdc8713b	-0.09787222
239	0xbe5554a4	-0.20833069
240	0x3e95fea7	0.29295847
241	0x3e3b0bed	0.18266268
242	0xbe8e3d61	-0.27781203
243	0x3d32c52c	0.04364507
244	0x3db709c6	0.08937411
245	0x3e2783bd	0.16358848
246	0xbdac8e66	-0.08425598
247	0x3d4cf9ac	0.050042793
248	0x3ddc9f62	0.10772587
249	0xbdf7d12e	-0.12100445
250	0xbe437beb	-0.1909024
251	0x3d66b454	0.056324318
252	0xbe21a323	-0.15784888
253	0x3d98d167	0.07461815
254	0xba9be400	-0.0011893511
255	0x3e4638df	0.19357632

fc3.bias f4 [20]
0	0x3faa86db	1.3322405
1	0x3f19580f	0.5989999
2	0x3f037320	0.5134754
3	0x3f070562	0.5274259
4	0x3f0bf712	0.54673874
5	0x3f005e07	0.50143474
6	0x3ef0e7bc	0.470518
7	0x3e16a4b2	0.14711264
8	0x3ea949cc	0.33064115
9	0x3efeda32	0.49775845
10	0x3e4cdcb3	0.20006065
11	0x3ee722ef	0.4514384
12	0x3ec85997	0.39130852
13	0x3ed5d020	0.4176035
14	0x3da3cded	0.079982616
15	0x3d48ff23	0.049071442
16	0x3da0ced3	0.078519486
17	0x3e814399	0.25246885
18	0x3daf09d6	0.08546798
19	0x3eba8b0e	0.36434215

exp_avg f4 [64, 3]
0	0x411efe0e	9.937025
1	0x41454e85	12.33167
2	0x431cd633	156.83672
3	0x00000000	0.0
4	0x00000000	0.0
5	0x00000000	0.0
6	0xc2830dfc	-65.52731
7	0xc2b2ce8a	-89.4034
8	0xc4ae5f4c	-1394.978
9	0x4006c961	2.1060412
10	0x41133d1c	9.202419
11	0x42947ec0	74.24756
12	0x00000000	0.0
13	0x00000000	0.0
14	0x00000000	0.0
15	0x40931cbb	4.597257
16	0x42118097	36.375576
17	0x43a8b7e1	337.43655
18	0x41320a05	11.127446
19	0x41b4077e	22.503658
20	0x434f50d3	207.31572
21	0xbfe85bf3	-1.8153061
22	0xc18e088c	-17.754173
23	0xc30564ab	-133.39323
24	0xc01d0f66	-2.4540648
25	0xc065db5c	-3.5915136
26	0xc15ba7e1	-13.728486
27	0x40bc9007	5.8925815
28	0x414bdd77	12.741569
29	0x42b1f530	88.97888
30	0xbec1ed61	-0.37876418
31	0xc0c65c68	-6.19878
32	0xc1950004	-18.625008
33	0xc1c06417	-24.048872
34	0xc24fc75c	-51.944687
35	0xc43d3317	-756.7983
36	0x40b28954	5.5792637
37	0x402080c9	2.5078604
38	0x42776dea	61.857338
39	0x3e0d4a74	0.13797933
40	0x3fea7bc9	1.8319026
41	0x40a8ab91	5.270943
42	0x00000000	0.0
43	0x00000000	0.0
44	0x00000000	0.0
45	0x3f9319b8	1.1492224
46	0xc13effdf	-11.937469
47	0xbff6d74c	-1.9284453
48	0x3e901a19	0.2814491
49	0xc144940f	-12.286147
50	0xc2847dd0	-66.24573
51	0xc154a311	-13.289811
52	0xc21c8042	-39.12525
53	0xc20762bf	-33.84643
54	0x407aa45b	3.9162815
55	0x41293233	10.574756
56	0x42a4839b	82.25704
57	0xc2094047	-34.31277
58	0xc297c44f	-75.883415
59	0xc48cacbf	-1125.3983
60	0x41d4f273	26.618383
61	0x4251491b	52.321392
62	0x4411c398	583.05615
63	0xc282508a	-65.1573
64	0xc2ace468	-86.446106
65	0xc497ae50	-1213.4473
66	0x00000000	0.0
67	0x00000000	0.0
68	0x00000000	0.0
69	0x4120154a	10.005198
70	0x419e38e1	19.777773
71	0x436ecbf5	238.7967
72	0x410a99d7	8.662559
73	0x41c0d799	24.105272
74	0x438ed8c8	285.6936
75	0x416eb88d	14.920056
76	0x42157647	37.365505
77	0x432b43b3	171.26445
78	0xc1e1e943	-28.238897
79	0xc29d50ed	-78.65806
80	0xc482c07a	-1046.0149
81	0x4094e075	4.6523995
82	0x3cbc3999	0.022976683
83	0x408d4904	4.415163
84	0xc11fb53c	-9.981747
85	0xbffb907c	-1.9653468
86	0xc28e721d	-71.22288
87	0x4176a590	15.415421
88	0x4211454e	36.31768
89	0x43b20537	356.04074
90	0x40ddea1d	6.9348283
91	0x4165a437	14.3525915
92	0x42f4e2e5	122.44315
93	0x40da0ea8	6.814289
94	0x41548a3b	13.283748
95	0x431503eb	149.0153
96	0x40a9cd91	5.3063436
97	0x410037f4	8.01366
98	0x4300b09c	128.68988
99	0xc1a4a388	-20.57985
100	0xc2380920	-46.00891
101	0xc423562f	-653.3466
102	0xc194c77c	-18.597404
103	0xc21ceffc	-39.23436
104	0xc40bb93f	-558.8945
105	0x41711b02	15.069094
106	0x41efed64	29.990913
107	0x4219dca6	38.465477
108	0x404b173f	3.1732938
109	0xc0970a64	-4.7200184
110	0xc1132063	-9.195407
111	0x00000000	0.0
112	0x00000000	0.0
113	0x00000000	0.0
114	0x40b9387d	5.7881455
115	0x41716ecd	15.089551
116	0x42ec118c	118.03427
117	0xc1a8d96f	-21.106169
118	0xc272299c	-60.540634
119	0xc4421bc2	-776.4337
120	0x00000000	0.0
121	0x00000000	0.0
122	0x00000000	0.0
123	0xc166a156	-14.414389
124	0xc2155bba	-37.339577
125	0xc3f4f42f	-489.90768
126	0x3db9a0f2	0.09063901
127	0xc0f26b57	-7.575603
128	0xc268cac5	-58.198017
129	0x40e59786	7.1747465
130	0x41748238	15.281792
131	0x419f4cee	19.912563
132	0x40a375be	5.108123
133	0x41bc328b	23.52468
134	0x42f53973	122.612206
135	0x40873cc6	4.2261686
136	0x41370483	11.4386015
137	0x42e29690	113.29407
138	0x00000000	0.0
139	0x00000000	0.0
140	0x00000000	0.0
141	0xc104cce6	-8.300024
142	0x424b5ecc	50.842575
143	0x43df3626	446.42303
144	0x3f44b3c5	0.76836807
145	0x4122e509	10.180917
146	0x424c04cd	51.00469
147	0xc18c0010	-17.50003
148	0xc22616e5	-41.522358
149	0xc40d3ac1	-564.918
150	0x00000000	0.0
151	0x00000000	0.0
152	0x00000000	0.0
153	0x41002091	8.007951
154	0x41a4bfe4	20.593697
155	0x43307d30	176.48901
156	0x417c3d53	15.764972
157	0x41aa34e3	21.275824
158	0x437ae15f	250.88036
159	0x3ebaa678	0.3645513
160	0x40aacaf7	5.337276
161	0x3f0ef6b1	0.5584517
162	0x4170ece3	15.057834
163	0x42205107	40.07913
164	0x44013374	516.80396
165	0x40a6ef2c	5.216696
166	0x4194b920	18.590393
167	0x43510871	209.03297
168	0xbf876ed7	-1.0580701
169	0x4063c262	3.5587392
170	0xc04f121e	-3.2354808
171	0x00000000	0.0
172	0x00000000	0.0
173	0x00000000	0.0
174	0x405cac44	3.4480143
175	0x3f9ca27c	1.2237086
176	0x419ab697	19.339155
177	0x40bdfb50	5.936928
178	0x417b46eb	15.704814
179	0x430996fa	137.58975
180	0xc188975a	-17.073902
181	0xc21096f9	-36.147434
182	0xc404cc29	-531.19
183	0xc23a0bbf	-46.51147
184	0xc299abde	-76.83568
185	0xc495625e	-1195.074
186	0x00000000	0.0
187	0x00000000	0.0
188	0x00000000	0.0
189	0xc1c20c0e	-24.255886
190	0xc258c674	-54.1938
191	0xc4424a11	-777.1573
