beer/experiments/MA_0.05/models/dqn_agent_firm_1_episode_1000.pth (torch, 101224 bytes, 24 tensors)

fc1.weight f4 [64, 3]
00000000: 5d1c 403e 9e5c b43e 9bec a5be 9008 0f3e
00000010: e4af f2bd 2337 223e f58d 01bf f3db e7bd
00000020: 0248 653d 51fe 823d 623f c83e 2a4a 2cbd
00000030: d838 e03d 1e26 2bbe b619 cfbe 1e21 3a3f
00000040: 0cad 32bf 3e8f 4a3e d4c1 503b a9c4 b0be
00000050: ae94 153e 1fdb d8bd 059f 24c0 0385 cf3d
00000060: 111f 63be 2a99 413b 574d 88bc d9e1 82be
00000070: b8b4 20be 5a57 703e c001 763e 56a3 c63e
00000080: 3c8e 44be ab55 52be b6c3 dcbd 2232 da3e
00000090: 1a5f f8be f784 0c3f dca3 a93e 3a02 313e
000000a0: dd31 c9bd 9199 c3bc f35e d03e ad50 14bf
000000b0: cf41 a1be 9def 303e fa74 3a3f 2f70 e2bc
000000c0: 98d5 253e 1a6b 6b3e e437 03bd f46d 233f
000000d0: 63c1 39bd 4771 203e 8139 cc3e 1bd6 113f
000000e0: 1df1 f1bc 0b8a 99be d289 63be c88a 03be
000000f0: 45b4 ebbe 6dd7 1f3f 8640 d43e 703b 2b3e
00000100: 3e1e b33e a0dc efbe 0a5c 1cbe 61e4 82be
00000110: 375b 0dbf 0bd4 103f f208 4f3d a142 28bd
00000120: 99ee c2be 4d69 d8bd b6b5 423e fb74 9bbe
00000130: a048 9bbc a813 57be 9cd5 89be a93a ecbe
00000140: b2ad 02be 0674 03bf b489 06bf 9125 13bf
00000150: 4a18 4bbe 7795 123c 2f94 983d 7ee4 8f3e
00000160: 6f06 aa3f 9a6f 67bd 24c4 9a3e 7961 6cbf
00000170: a8ca 323e 7db0 bf3e 22ec d6be edae b5be
00000180: 91ce 2dbe 7a78 58be c73e e53d c8d9 eebe
00000190: 962b 8ebe 3b81 a23e 6066 edbd c85c b53d
000001a0: f668 e13e 95bc 513e 3e3c bc3e 3135 193d
000001b0: 87a8 31bf f0a2 fc3a 34a2 913d 27e1 073e
000001c0: 5d43 8e3e 96cf bfbe b0bb 5cbe f706 ae3e
000001d0: 1dc1 cdbb bece 2b3f f970 91be af51 f13c
000001e0: fee1 1f3f de93 b83d f57e c0bd 3eb9 1d3f
000001f0: 47ba e5be bacb 8b3e d82b d93d 7415 e2be
00000200: ecff febe 1e68 4cbd ba16 18bd 2b00 d8bd
00000210: 218b 433e 5ef3 e1bf d3f2 833e 2d8a 3abf
00000220: 110f 05be 5499 c03d d497 d43e 3f15 00bf
00000230: cadb bebe 6a2d 0dbf ebf4 f6be c0dd 08bc
00000240: 1419 513f c9da 143f d3aa 9cbe 8533 cbbe
00000250: ce3d 5ebe d07c 67bd 48c6 8c3e 60d8 69bd
00000260: 2be0 ffbe a23e 6bbe 5bb5 f6be 9222 f1be
00000270: b380 cfbd 85ba 3cc0 ce2c fe3d a33d 07be
00000280: 2fdb b0be 3070 983d 5f4b 8bbd 2b46 16be
00000290: 6fb7 3e3e 6428 b8bd 36e6 59be a551 913e
000002a0: ba01 88bc 6eca 8fbe 2121 4f3d 1f94 d7be
000002b0: 4e5e 5c3f 12da a8bc 0c7d 1d3e bc35 893e
000002c0: b6de ea3c e2da cebe f421 abbd 4425 a4be
000002d0: f3c1 e33e a180 4c3d 05e8 c9be bda4 0a3f
000002e0: 20be 3fbf 4ec8 c63d 9a5f 95bd 330a 7c3f
000002f0: 4fab e6bd 688f 143d 9de6 fbbc 01cd 03be
0.1876082 0.3522691 -0.32407078 0.1396811 -0.11849955 0.15841345 -0.50607234 -0.11321249
0.055976875 0.06396163 0.39110857 -0.042062916 0.10948342 -0.1671376 -0.40449303 0.7270678
-0.697953 0.19781205 0.0031853812 -0.3452504 0.14607498 -0.10588669 -2.5722058 0.10132792
-0.2217982 0.0029540756 -0.016638441 -0.25562933 -0.15693939 0.23470822 0.24024105 0.3879649
-0.19194883 -0.20540492 -0.107795164 0.42616373 -0.48510057 0.5489039 0.33132827 0.17286006
-0.09823964 -0.023876937 0.4069744 -0.579356 -0.3149552 0.17278905 0.7283474 -0.027641384
0.16194761 0.22990075 -0.032035723 0.6383965 -0.045350444 0.15668212 0.39887622 0.56967324
-0.029533917 -0.2998813 -0.22220543 -0.1284591 -0.46035972 0.6243809 0.41455477 0.16721892
0.3498401 -0.4684801 -0.15269485 -0.25564864 -0.5521731 0.5657355 0.05054564 -0.041079167
-0.3807266 -0.105669595 0.1901463 -0.30362687 -0.018955529 -0.21003592 -0.26920784 -0.46138504
-0.12761572 -0.5134891 -0.5255387 -0.57479197 -0.19833484 0.008946768 0.07450139 0.28104013
1.3283213 -0.056502916 0.30227768 -0.9233623 0.1746012 0.37439337 -0.4197703 -0.3548502
-0.1697333 -0.21139708 0.111936145 -0.4665053 -0.27767628 0.3173922 -0.11591792 0.08855587
0.4402539 0.20482095 0.3676471 0.037404243 -0.6939778 0.0019274633 0.07111016 0.13269483
0.2778577 -0.37463063 -0.21555972 0.3398969 -0.0062791244 0.6711234 -0.28406504 0.029457895
0.6245421 0.090125784 -0.09399215 0.6161078 -0.4486868 0.2730387 0.10604066 -0.44156992
-0.49804628 -0.04990398 -0.03713105 -0.10546907 0.19096042 -1.7652395 0.25771198 -0.7286709
-0.12994029 0.09404245 0.41522086 -0.5003242 -0.3727706 -0.5514742 -0.48233733 -0.008353651
0.8167889 0.5814634 -0.3059908 -0.39687744 -0.21703264 -0.056515515 0.27495027 -0.057091117
-0.49975714 -0.22973111 -0.48185238 -0.47096688 -0.10131969 -2.9488842 0.124108896 -0.13207106
-0.34542224 0.07443273 -0.06801485 -0.14675204 0.18624662 -0.08992079 -0.21279225 0.28382602
-0.016602386 -0.2808413 0.050568704 -0.42105195 0.860814 -0.020611797 0.15379733 0.2679881
0.02867065 -0.4040137 -0.083560854 -0.3205968 0.4448391 0.049927358 -0.3943483 0.5415762
-0.7489948 0.09706174 -0.07293625 0.9845306 -0.11263143 0.036269575 -0.030749613 -0.12871172

fc1.bias f4 [64]
00000000: 76f3 4b40 bea7 eabf 072c 4940 f6ac 7640
00000010: 78dc be3d 21a7 1640 ef64 0ec0 ce81 9abe
00000020: 612e 8d40 6a0c eabf 0e31 2340 10a8 d3bf
00000030: 8c90 cabf e139 8b40 2416 883e 1f66 0c40
00000040: 5a56 3a40 f0e8 c8be 3f96 1a40 58de ea3d
00000050: 2eca 3fc0 2220 3340 b0c1 073f 2404 4840
00000060: 7c29 7840 ffbe b2be 30ed 08be 6a3b 65be
00000070: 97e9 3e40 ccbd 11be e486 5d40 78a1 8abd
00000080: c527 3440 ae79 88bf 30da efbf 9e94 5540
00000090: a733 a4be cfb9 5840 a458 8140 9e19 5340
000000a0: 3171 d43f 7877 64c0 5861 923e f803 6c40
000000b0: 1346 e73e bcb8 4440 60c5 04bf 780d e53d
000000c0: 904d 553f 8a36 ddbe cc69 0a3e b016 53bd
000000d0: 9f4e a4bf 0c1b 6140 1aae 2ac0 15b3 7dc0
000000e0: acd7 3840 4212 893e 8587 4740 10ed b93e
000000f0: aa29 0e40 7939 1a3f 3eda 973f e5f6 6540
3.1867347 -1.8332441 3.1433122 3.8543067 0.09319395 2.3539507 -2.2249105 -0.30177158
4.4119115 -1.8285038 2.549869 -1.6535664 -1.5825362 4.3508153 0.26579392 2.193733
2.9115205 -0.39240217 2.4154203 0.1146819 -2.996715 2.7988362 0.5302992 3.1252527
3.877532 -0.34911343 -0.1337173 -0.22385946 2.9830072 -0.14232558 3.461358 -0.06769079
2.8149273 -1.0662134 -1.873846 3.3371959 -0.32070658 3.3863409 4.0420704 3.2984385
1.6597043 -3.5697918 0.28589892 3.6877422 0.4517065 3.0737753 -0.5186367 0.111842096
0.83321476 -0.43205673 0.13516921 -0.05153531 -1.2836493 3.5172758 -2.6668763 -3.9640553
2.8881636 0.26771742 3.1176465 0.36313677 2.221293 0.60243946 1.1863477 3.5931942

fc2.weight f4 [64, 64]
00000000: 62b4 b8bd a4a9 b3bd 8f3c a7bc a77b 22bd
00000010: 389b 32bd 8638 0abe a8ad 823d 2ee7 41bc
00000020: d0a5 7f3d 6f29 dd3d 6168 6a3d 4bcb e3bc
00000030: d682 76bd 2443 afbc e0e9 e2bc a5d4 ecbd
00000040: 5b5c 9fbc 431f 01be f8e3 09be 7c4e aabd
00000050: e7d3 abbd fa5e 67bd 2646 963d bbc8 793d
00000060: 5ff6 23be 984a cebc ca41 dfbd 7074 89bd
00000070: de71 06be 27e6 c13d 2aae 20be b04a dd3d
00000080: def7 eabc d1fe 80bd 6a53 0f3d 991b eabc
00000090: 985c 2ebe 375c 92bc c4b3 3a3d 310b b63d
000000a0: 2142 f2bd 6cd0 a7bd def7 f73d a3cb e03d
000000b0: 22d0 cf3d 6f94 87bd 70e8 dc3c 2cd6 fbbd
000000c0: 5331 e23d 985e d8bc 4089 f73b a234 a73d
000000d0: c253 b9bd b511 2ebe 12c2 24bd ca60 333d
000000e0: 3256 77bd 1b3e ccbd 86c3 57bd 7446 2cbd
000000f0: 68de b03d 6499 7b3c 85e9 3e3c 9102 64bd
00000100: 7a95 813f 5f1c e03d a976 0dbd c1f6 09bf
00000110: 5059 3ebc ee16 e83d 679a 523e ebf5 013f
00000120: 0fde 15bf 8fc6 563d d6d8 e2bc aff4 c33d
00000130: 2662 d83d 6c4c 15be d383 56bd 92bd 32bf
00000140: f001 e4be 63e0 1d3e 47af e2be 1cc7 35bd
00000150: 0932 343e 5dbe 993f dce4 75bd 4350 1cbf
00000160: c1e0 003e 007b d4bd 84ee b93d 38ef dfbc
00000170: 52f0 59bd 62e5 2e3e 4925 073e 04fd ba3d
00000180: 7151 0c3e 1940 cd3d b91e 94bb 9612 76be
00000190: 2960 2e3e 69aa 743f a6f2 f1be f563 06be
000001a0: 6afb 1cbf 6781 973e 3e9f c9bd 5786 4340
000001b0: 568b 3c3d 0d82 c9bd f8eb 8cbd a477 2f3d
000001c0: fe0f f1be 1ae4 cd3d e0c3 e13c 084d aebc
000001d0: 5d6c 253f 9245 62bb ef7e 6a3e d3d8 4a3e
000001e0: 4300 bebc b439 143f 4654 72bd 2039 803b
000001f0: 2abb b13e b183 373c 66d6 0c3f e9a1 0640
00000200: 6126 d7bd 1fd3 0b3c e936 a9bd 40dd 49bc
00000210: d037 ef3d 6030 febd 4a84 b03d ac70 33bd
00000220: 9fbc c53c c2c9 313d db8d e73c 7d26 be3d
00000230: 2eb1 46bd b3ac 08be 714e aebd 7fd8 273c
00000240: ba12 8f3d 9cc5 5abc 72b6 86bb f0c5 11bd
00000250: bc46 00bd 250d 1c3d c0b1 b93b 3a7f d93c
00000260: 37ca dfbd 6014 b03c c449 a9bd fc4c 073d
00000270: 147e 803d 604b 863d 5af3 1fbd 38ec 6bbd
00000280: 4a2c 0bbe 1348 a23c b3a1 10be e9af ab3d
00000290: 72c3 12bd cabd e0bd 3b6d ba3c ddcd 74bd
000002a0: 9e86 2dbd f1ba 763d 684a afbd e2b6 abbc
000002b0: e6ae 383d 7dc2 443d 60fc 893d 40a4 bb3c
000002c0: 22f4 dfbd 14dc 293d 80eb 323c 427d acbd
000002d0: 4c9a 883d d93e c53c 1c0c 463d b19c ad3d
000002e0: d949 a4bc 5b30 01be 3ec8 90bd 1eb5 9bbd
000002f0: afd6 babd 07ce 13be 73d4 02be e67e a03d
00000300: cbe8 c63d 21ab 8d3d d41c a33d 1a93 0fbe
00000310: 169e f0bd 0620 383d 837a 5b3d d2ae 0bbe
00000320: 224d 9dbc b657 27be 22cc 843d 557f 353d
00000330: 0877 96bd f871 abbd f533 b63d 5037 40bd
00000340: a886 263d fa6e 4bbc ae3a 4abd 0e9d 833d
00000350: 56f7 0ebd 57a0 d83d 5ef5 a43d 6b07 ee3b
00000360: a310 08be 6039 81bd 6a85 c43d ecf1 57bd
00000370: df2e 05be d93f c0bc 42eb a03d 948e f13d
00000380: db7b ebbd 2410 d8bd 21a6 77bd 468c 85bd
00000390: 2f5a 333b 6801 bb3d 1d7b 11be 9597 823d
000003a0: e5fd e9bd ff6b 08be 381e c7bc 48d8 abbd
000003b0: 5dce c6bc 1d04 edbd 5882 01bd b0e5 6abc
000003c0: 6a40 d7bd 2a37 843d 9cee 83bd 6035 743d
000003d0: 1022 eabd 3956 bfbc 3cf0 dfbd 4921 85bc
000003e0: 1269 d53d 9222 8f3d c403 ad3c 0009 423d
000003f0: adba 9cbd c86b 49bd 5bed 94bd 0d55 5cbd
-0.0901878 -0.08772591 -0.020414619 -0.039668705 -0.04360506 -0.13498124 0.063807786 -0.011834903
0.06241399 0.107989185 0.05722845 -0.027806899 -0.06018337 -0.02139432 -0.02769941 -0.11563996
-0.019453218 -0.12609582 -0.1346587 -0.08315751 -0.083900265 -0.05648706 0.073375985 0.060982447
-0.16011952 -0.025182053 -0.1090122 -0.06711662 -0.13129374 0.09467726 -0.15691438 0.10805261
-0.028682645 -0.06298602 0.03499166 -0.028577613 -0.17027509 -0.017866237 0.045581594 0.08888853
-0.11829019 -0.0819405 0.12107824 0.109763406 0.1014712 -0.06620108 0.026966304 -0.122967094
0.11044564 -0.026412293 0.0075542033 0.08164336 -0.09049179 -0.16998942 -0.040224142 0.043793477
-0.060384937 -0.09972783 -0.0526767 -0.042059377 0.086361706 0.015356395 0.011652355 -0.05566651
1.0123742 0.10942911 -0.03453699 -0.5389214 -0.011617973 0.113324985 0.20566712 0.50765866
-0.5854196 0.052435454 -0.027691286 0.09568154 0.10565595 -0.14579934 -0.05237181 -0.6982051
-0.44532728 0.15417628 -0.4427435 -0.04437934 0.17597212 1.2011219 -0.06003271 -0.6105997
0.12585737 -0.10375023 0.09078696 -0.027335748 -0.053207703 0.1707969 0.13197817 0.0913029
0.13702942 0.10021991 -0.004520264 -0.24030527 0.1702887 0.95572525 -0.4725544 -0.13124068
-0.6132113 0.29590914 -0.09844826 3.0550745 0.04603132 -0.09839258 -0.06880945 0.042838708
-0.47082514 0.100532725 0.02755922 -0.021276966 0.64618474 -0.003452633 0.22899984 0.19809274
-0.023193484 0.5790055 -0.0591624 0.00391306 0.34713107 0.011200831 0.55014646 2.1036322
-0.10505367 0.008534222 -0.082624264 -0.0123208165 0.11680567 -0.124115705 0.08618982 -0.043808624
0.024137793 0.043405302 0.028265884 0.09284685 -0.048508815 -0.1334713 -0.08511055 0.010244488
0.06985994 -0.013352778 -0.0041111046 -0.03558916 -0.031317458 0.038098473 0.0056669414 0.026549924
-0.10927241 0.02149409 -0.08266023 0.033032402 0.062740475 0.065573454 -0.039050438 -0.057598323
-0.13591114 0.019809758 -0.14124183 0.083831616 -0.035830922 -0.109736994 0.022757163 -0.05976664
-0.04236471 0.060236875 -0.08559114 -0.020961229 0.04508867 0.04803704 0.0673759 0.022905469
-0.109352365 0.04146965 0.010920405 -0.084223285 0.06670055 0.02407782 0.048351392 0.08477152
-0.020054745 -0.12616102 -0.07069443 -0.07602905 -0.09122979 -0.14434062 -0.12776355 0.07836704
0.097123705 0.06917406 0.07964483 -0.14020959 -0.117489025 0.044952415 0.053583633 -0.13640907
-0.019201819 -0.16342053 0.06484248 0.044310886 -0.07346922 -0.08371347 0.08896629 -0.04692775
0.040655762 -0.012416596 -0.049372368 0.0642644 -0.034903847 0.105774574 0.080546126 0.007264068
-0.13287596 -0.063097715 0.09595759 -0.05272095 -0.13006161 -0.023467945 0.07857372 0.11794773
-0.11498233 -0.105499536 -0.060461167 -0.06520896 0.0027366986 0.091311276 -0.1420712 0.06376568
-0.1142538 -0.13322447 -0.024306402 -0.08390862 -0.024268324 -0.1157305 -0.031618446 -0.014336988
-0.10510333 0.06455834 -0.064419955 0.059621215 -0.11432278 -0.023356544 -0.10934493 -0.016251223
0.10420431 0.06989016 0.02111996 0.047371864 -0.07652793 -0.049175054 -0.072718345 -0.05379205

fc2.bias f4 [64]
00000000: 1937 33bd f375 d13e d73a 27be 3021 55bb
00000010: 63fb 15bd 4a5d 4440 4c79 a43d 92bf de3f
00000020: d399 63bc 7e37 923f f6c1 773f dac4 0dbc
00000030: 1c63 2540 d08b 2bbe b42a 35bd bb12 c33e
00000040: eab4 0fbe 2b03 203d d30a b73f d3d3 3240
00000050: 3cd5 e7bd e593 e2bd 788b 03be b19f a43f
00000060: 8c5e 22bf daa3 aebd 8085 8dba 7c64 6e3d
00000070: a07c 3f40 7737 2ebb d31c cd3f 87a7 5c3f
00000080: e9d2 1c40 57a9 4abc e7c8 4040 473a dfbc
00000090: 3d93 4540 affc 493e a9ab d5bd 9410 0fbe
000000a0: 6938 1440 2cc3 fb3e 9e9f 4b3d 20d7 823f
000000b0: 03d9 ae3d 5842 b5bd 307f f4bc 6e9d 23bd
000000c0: d5db 2540 c694 f7bd 185e 55bf 96fb f5bd
000000d0: 7ea8 91bd 8835 d1bd 65d1 4dbd e60a f7bd
000000e0: ab10 38be 7c75 15be b79c 0c40 f265 2abe
000000f0: 3f0b 1abd 9653 be3f 5ef0 3740 39a3 b53d
-0.043753717 0.409103 -0.1633104 -0.0032521002 -0.036616694 3.068194 0.08030948 1.7402213
-0.013891655 1.1423185 0.96780336 -0.00865289 2.5841742 -0.16752553 -0.044230178 0.38100228
-0.14033857 0.03906552 1.4300178 2.7941787 -0.11319968 -0.11063365 -0.12846172 1.2861234
-0.6342552 -0.08527346 -0.0010797232 0.058201298 2.9919815 -0.0026583353 1.6024421 0.86193126
2.450373 -0.012369475 3.012262 -0.027249468 3.0871117 0.19725297 -0.10433132 -0.13971168
2.315943 0.49172342 0.04971277 1.0221901 0.085374855 -0.08850545 -0.029845804 -0.03994506
2.5915425 -0.12088923 -0.833467 -0.12010877 -0.071122155 -0.102152884 -0.050248522 -0.120626256
-0.17975108 -0.14595598 2.197065 -0.16640452 -0.03760838 1.4869258 2.8740458 0.08869023

fc3.weight f4 [20, 64]
00000000: 1acb c03c 4682 febd 52b4 b6bd 0c5a bc3c
00000010: ac36 283d 5466 af3f 16b0 81bd eb7f b73d
00000020: fe16 b3bc 499d c7bf ac0f 24bd 99c6 39bd
00000030: 0f70 743f 0a56 d7bd 6067 85bd 703c bcbd
00000040: ac81 ac3d dc89 b23d dd9b debf e7be 833f
00000050: 8089 c63a a8de bc3d 13f5 22bd aa08 5b3e
00000060: 7d23 6ebe 8e44 8bbd 3cd8 89bd 6731 c3bc
00000070: e76c 5a3f b7e2 9d3c 5555 ad3d e7c0 9cbf
00000080: 700d 513f 97ad bc3d 3a93 503f 9cf8 c9bc
00000090: 788b 8c3f e943 e1bc fa80 86bd d2c5 f0bd
000000a0: e37a a33f bc29 ddbe 0de6 543c 5f16 89bf
000000b0: 3911 16bd 004f 973d bcc8 403d 6058 dfbd
000000c0: cb06 433f dbe3 6abd 457f 78be 246c 0abd
000000d0: 10a2 4ebd 4879 f83d a62e 7ebc d084 85bd
000000e0: 71f3 53be c2d1 a1bd f3d3 163e aa36 f4bc
000000f0: 200a c2bc e1db 5f3f 1a58 a33f 126f 8bbd
00000100: 5754 8fbd b02c 70bd 652f e63c f7ab 9dbd
00000110: 78bb bfbd 6bb9 803f 51d7 cfbc cf64 5bbd
00000120: 31fe b33d b5c2 5ebf 585f e5bd 6916 4c3c
00000130: 95a3 453f 30d6 3dbd 66de b0bd 613c a0bd
00000140: b85e a03d 84e0 6f3d 5702 8dbf f58c 683f
00000150: b4c3 623d 1465 323d 90b1 ca3d 5aa4 ba3e
00000160: 539d 65be e2c8 cc3d 8002 213b 7896 74bd
00000170: 820e e53e d1d7 953d 7170 08be d008 b9be
00000180: 9036 253f 70be a6bc 2b04 d33e fe8e b83d
00000190: 2f43 4a3f f5d4 71be b47c dd3d 56ec a63d
000001a0: 2f5d 4d3f 4631 95bc 1bee 2f3d 8764 03bf
000001b0: cf28 6b3d 0046 713b e00b 593c 040b 23be
000001c0: 29b3 c53e 6aaf d53d 5e85 61be d8f5 cc3c
000001d0: fa98 cfbd 548c f4bd b06f 67bc 380e d13c
000001e0: cbed 3abe a60a db3d 0296 3fbc 3024 d0bd
000001f0: 1393 3abd 8e6d f63e 732f 803f c0fd f7bc
00000200: 5638 2cbd 8646 28bd 77a1 8dbd fffa 78bd
00000210: d0bb 94bd 60d3 633f 796d cebd f3d8 eebd
00000220: 5e9d dbbd 3236 22bf 785d a2bd a8c2 44bc
00000230: 734e 5b3f e860 cb3d a6ce b8bd 96d3 1ebe
00000240: b81e 123d 46e4 e43d c6f6 61bf 13be 683f
00000250: e0e4 d43b a99b 773d 6055 bfbd 78f5 923e
00000260: 7dd6 08be 1287 fbbd 3eaf e53d b5c7 1c3c
00000270: 6a2c 073f 8113 1dbd 89f7 a8bd ae92 99be
00000280: 5626 433f b0f1 27bd 3cde cd3e c37b 003e
00000290: fa84 153f 4837 97be 9ca9 cfbd c085 dcbd
000002a0: da30 3b3f 043d 603d 3b9f d13d 0077 24bf
000002b0: 75aa 83bd d45e 79bd 100c 4a3c 552a 85be
000002c0: 633f fc3e e013 edbd 3c7a 89be d871 2f3d
000002d0: a8ae c7bd 8489 23bd 807f a2bb f08e 50bc
000002e0: c3ae b4bd 40e4 e8bc fda9 c1bd 9817 e7bc
000002f0: 70ff f5bd 2907 473e 9f68 703f b805 f6bd
00000300: cca2 bd3d aeb0 8fbd 0c7d 023e dc8e 023e
00000310: 6c2f 20bd a405 853f 4e22 cbbd 1407 50bd
00000320: b32f cd3d 2ce5 e2be 4306 09be 403b 5d3d
00000330: 81f1 363f 94ba 0b3d d0b0 35bc 4683 29bd
00000340: bcac ed3d a42c 733d 2f05 85bf 9d45 5b3f
00000350: ae71 40bb e21a 323d f0a7 233d f95c 533e
00000360: afd6 2fbe 3853 9f3c fcec 123d a899 af3d
00000370: 454f ee3e ddb5 923d db1c d2bd 5467 4ebd
00000380: b9b2 233f 4cf6 51bd e76f 953e 6dd5 963d
00000390: 13b5 fa3e ce18 63be db19 923a 1d1f d03c
000003a0: 62e5 4b3f f94e b23d 2baf a2bd 4fa1 8bbf
000003b0: f3f7 1ebc 3825 d63d 4c42 acbd c597 d0bd
000003c0: 6bc0 283f 93d9 8b3c d50b 6cbe b061 723c
000003d0: 30b5 dcbc a8a3 46bd e615 b83d 00eb cebd
000003e0: 00bd fbbd d82a 3a3d dc32 c83c 3e92 b93d
000003f0: efd5 1fbc 6230 033f 6ba8 393f 6298 b73d
0.023534346 -0.124271914 -0.08921112 0.022992156 0.041067764 1.3703103 -0.06332414 0.08959945
-0.02186155 -1.5594875 -0.04005401 -0.045355413 0.9548349 -0.105144575 -0.06513858 -0.09191215
0.084231704 0.08717701 -1.7391316 1.0292634 0.0015147179 0.09222156 -0.039784502 0.21390024
-0.23255725 -0.06800185 -0.067306966 -0.023827268 0.8532242 0.019273145 0.084635414 -1.2246369
0.8166113 0.09212797 0.8147465 -0.024654679 1.0980062 -0.027498202 -0.06567569 -0.11756481
1.2771877 -0.43195903 0.0129943015 -1.0709952 -0.03663752 0.07388115 0.047066435 -0.10905528
0.7618224 -0.057346206 -0.242673 -0.033794537 -0.050447524 0.121325076 -0.015514052 -0.065194726
-0.20698334 -0.07901336 0.1472929 -0.029811222 -0.023686469 0.87444884 1.2761261 -0.06808294
-0.069985084 -0.058636367 0.028098771 -0.07698815 -0.09361929 1.0056585 -0.025371226 -0.053562935
0.087887175 -0.8701585 -0.11199826 0.012456515 0.7720273 -0.046346843 -0.08636169 -0.07824016
0.07830566 0.058563724 -1.1016339 0.90840083 0.05536242 0.043553427 0.098971486 0.36453515
-0.22423296 0.09999253 0.002456814 -0.05971381 0.4473763 0.07316554 -0.13324143 -0.36139536
0.6453638 -0.02035448 0.41214117 0.090116486 0.79008764 -0.23616393 0.10814801 0.08150546
0.8022031 -0.018211972 0.042951684 -0.5132527 0.057411965 0.0036815405 0.01324746 -0.15922171
0.3861325 0.10433848 -0.22023532 0.025019571 -0.101366 -0.11940828 -0.0141257495 0.025519475
-0.18254773 0.106953904 -0.0116934795 -0.10163152 -0.045550417 0.4813046 1.001448 -0.030272365
-0.042045914 -0.04108288 -0.069155626 -0.060786244 -0.07262385 0.8899441 -0.10079474 -0.116624735
-0.10723375 -0.63363945 -0.07927984 -0.0120093 0.8566658 0.09930593 -0.0902379 -0.15510401
0.035673827 0.11176352 -0.8826717 0.9091503 0.0064970106 0.060451183 -0.09342456 0.28702903
-0.13363071 -0.12281622 0.112150654 0.009569098 0.52802145 -0.03834868 -0.082503386 -0.2999472
0.7623037 -0.041001976 0.40208614 0.12547211 0.5840603 -0.29534364 -0.10139772 -0.10767698
0.73121417 0.05474569 0.10235449 -0.6424408 -0.064289965 -0.06088145 0.0123319775 -0.2600886
0.4926711 -0.115760565 -0.2685107 0.04283318 -0.0975011 -0.039926067 -0.004959047 -0.012729391
-0.08822396 -0.02842915 -0.09456251 -0.028209493 -0.120116115 0.19436325 0.9390964 -0.120128095
0.09259567 -0.07016121 0.12743014 0.12749809 -0.039107725 1.0392346 -0.099186525 -0.050788
0.100188635 -0.4431547 -0.13381295 0.054011583 0.71462256 0.03411348 -0.011089519 -0.041384958
0.11605212 0.059368744 -1.0392207 0.85653096 -0.0029364633 0.04348267 0.03995508 0.20640935
-0.17171739 0.019448861 0.035870537 0.085742295 0.46544853 0.07163594 -0.1025941 -0.05039151
0.63944584 -0.051260278 0.29186937 0.073649265 0.48966274 -0.22177431 0.0011146622 0.025405461
0.79646885 0.08706469 -0.07943567 -1.0908602 -0.00970267 0.10456318 -0.084110826 -0.10185198
0.65918607 0.01707152 -0.23051389 0.014793798 -0.026941866 -0.04849592 0.08988552 -0.101034164
-0.12291908 0.045451015 0.024438314 0.090610966 -0.009755596 0.512457 0.7252261 0.089646116

fc3.bias f4 [20]
00000000: 4c44 ee3f ff8a 873f 73fa 3c3f 18c8 063f
00000010: 5416 c83e c854 b93e 72fc 1abd ea25 753e
00000020: 1453 5c3d d9a8 a13d 446e fabd 9214 9e3d
00000030: 5e6c b7be 18d9 0fbf e862 dfbe 01c7 06bf
00000040: 64b9 60bf b9fd 09bf 7793 01bf 4811 48bf
1.8614593 1.0589293 0.73819655 0.5264907 0.39079535 0.36197495 -0.037838407 0.23940244
0.053790167 0.07893533 -0.12228063 0.07718767 -0.35824865 -0.56190634 -0.43630147 -0.52647406
-0.87782884 -0.53902775 -0.5061564 -0.7815137

fc1.weight f4 [64, 3]
00000000: 1d50 473e 690c ce3e 724c babe 15da e03d
00000010: 1404 97bd 48b2 3f3e 956f 0fbf 3bde 0dbe
00000020: 55bf 673d 54a7 803d a3ca c53e b289 25bd
00000030: 2239 e03d 1e26 2bbe 431a cfbe dbf1 213f
00000040: 1851 18bf b0ec 833e 84cf 17bc f15a b4be
00000050: b7f9 133e e1ad debd 17af 0dc0 9130 ca3d
00000060: 2e97 4dbe dfe4 39bc 760e 4abc e799 a0be
00000070: cd0a 79bd 744e 943e 9a35 723e f26c d13e
00000080: 41e6 66be 474a 69be 56fa 6cbd 2cef eb3e
00000090: 40c9 f9be 8a9b 0f3f 29f0 b93e 56a8 313e
000000a0: 98cf cebd 4448 afbc b868 db3e 70ae 05bf
000000b0: 64bf 96be aa0c 523e e24f 323f 9874 f5bc
000000c0: 102f 2d3e a916 693e c834 ffbc ae19 193f
000000d0: 25db 153d 6e5d 6e3e ea92 d03e ae83 0f3f
000000e0: 85a3 f1bc 0b8a 99be d289 63be c88a 03be
000000f0: f924 e7be 948e 203f da3b dc3e 8366 2e3e
00000100: e171 ad3e a503 0abf 0a5c 1cbe 61e4 82be
00000110: 375b 0dbf 15b3 113f 9eda 913d edb9 15bd
00000120: 70ca d9be beaa abbd 13ea 593e fb74 9bbe
00000130: a048 9bbc a813 57be 9cd5 89be 643b ecbe
00000140: b2ad 02be 0674 03bf b489 06bf 9125 13bf
00000150: 2707 42be 1e8d 1a3d 54dd d13d 16f3 923e
00000160: a9a1 a33f 3f49 8dbd ea51 833e 554f 64bf
00000170: 880b 403e f2b9 bf3e 24e5 d6be 36a9 b5be
00000180: c5e7 90be 1492 21be 29f6 233e 49e4 06bf
00000190: 4930 57be e815 c73e c8c0 08be 546e ee3d
000001a0: 0312 f53e 0f51 523e 0998 c03e fb33 4b3d
000001b0: 80f1 3abf 8feb 853d bc74 4c3e d042 b13d
000001c0: 0102 aa3e 0a0c d6be b426 58be 2d54 ac3e
000001d0: a23b a8bb 4165 243f 657f 8cbe 42a4 043d
000001e0: 6cc9 203f 9961 233d 6b29 9cbd a551 233f
000001f0: 188f d8be e742 913e 6c2c d93d b315 e2be
00000200: 2400 ffbe 28ad 5cbd a70f 88bd 1b06 05be
00000210: f8bc 453e cfe2 c0bf 5865 913e 8223 49bf
00000220: 7ae5 1abe 20d5 c13d 8898 d43e 3f15 00bf
00000230: cadb bebe 6a2d 0dbf 85f5 f6be c0dd 08bc
00000240: 0541 4f3f 1ee4 0d3f 6aa2 a0be 8533 cbbe
00000250: ce3d 5ebe d07c 67bd 48c6 8c3e 60d8 69bd
00000260: 2be0 ffbe a23e 6bbe 5bb5 f6be 9222 f1be
00000270: cab6 d5bd 4285 25c0 5107 f33d 72cc 39be
00000280: 2692 a7be f71d ac3d b341 8dbd ad37 11be
00000290: 7c39 433e b7a9 aabd 1642 50be 9575 933e
000002a0: 2e2a 0ebd f239 8ebe c2f6 793d 0872 0ebf
000002b0: 96a1 553f 7162 fbbc a6cf 243e f477 8f3e
000002c0: dbf6 283d e2da cebe f421 abbd 4425 a4be
000002d0: 22fa df3e c7e2 b9bb 32d8 f7be c2d9 d93e
000002e0: a63b 3fbf fd2c 0f3e 8599 52be b11c 7a3f
000002f0: 012e b5bd bf39 043d 9bd1 ecbc 4af1 26be
0.19464155 0.40243843 -0.36386448 0.10979096 -0.07373825 0.18720353 -0.56029636 -0.13854305
0.056578953 0.06281915 0.38631162 -0.04041452 0.10948397 -0.1671376 -0.40449724 0.6325967
-0.5949874 0.25766516 -0.009265784 -0.35225633 0.14450727 -0.108730085 -2.2138116 0.098725446
-0.20077202 -0.011346071 -0.012332549 -0.31367418 -0.060801316 0.28966105 0.2365326 0.4090343
-0.22548772 -0.22782241 -0.057855926 0.4608091 -0.48786354 0.5609671 0.3631604 0.17349371
-0.10098189 -0.021396764 0.42853332 -0.52219296 -0.29442894 0.20512643 0.6965314 -0.029962823
0.16912484 0.2276255 -0.031153098 0.5980481 0.036585946 0.23277828 0.40737087 0.560603
-0.029496918 -0.2998813 -0.22220543 -0.1284591 -0.45145395 0.62717557 0.43014413 0.17031293
0.33875945 -0.5391181 -0.15269485 -0.25564864 -0.5521731 0.5691388 0.07121776 -0.036554266
-0.4253726 -0.08382176 0.21280698 -0.30362687 -0.018955529 -0.21003592 -0.26920784 -0.4613906
-0.12761572 -0.5134891 -0.5255387 -0.57479197 -0.18948041 0.037732236 0.10247293 0.28701085
1.278371 -0.06898736 0.25648433 -0.8918355 0.18754399 0.37446553 -0.41971695 -0.3548066
-0.28301826 -0.1577838 0.16011871 -0.52692086 -0.21014513 0.388839 -0.1335479 0.11642137
0.47865304 0.20538734 0.37615994 0.04961012 -0.7302475 0.0653907 0.19966406 0.086553216
0.33204654 -0.4180606 -0.21108514 0.3365797 -0.005134062 0.64217 -0.27440944 0.03238321
0.62807345 0.039888 -0.07625087 0.63796455 -0.42296672 0.28371355 0.10604176 -0.4415718
-0.49804795 -0.053876072 -0.066436104 -0.1299061 0.19310367 -1.5069216 0.28397632 -0.78569806
-0.15126601 0.094644785 0.41522622 -0.5003242 -0.3727706 -0.5514742 -0.48234192 -0.008353651
0.80958587 0.55426204 -0.31373912 -0.39687744 -0.21703264 -0.056515515 0.27495027 -0.057091117
-0.49975714 -0.22973111 -0.48185238 -0.47096688 -0.10435255 -2.5862584 0.1186663 -0.18144396
-0.3272869 0.08404153 -0.06897297 -0.14181395 0.19064897 -0.08333152 -0.2033771 0.28800645
-0.034708194 -0.27778584 0.061026342 -0.5564275 0.83449686 -0.030686589 0.16094837 0.28021204
0.041251045 -0.4040137 -0.083560854 -0.3205968 0.43745524 -0.005672786 -0.4840713 0.4254895
-0.7470039 0.13982005 -0.20566376 0.9770003 -0.08846665 0.032281633 -0.028908541 -0.16302982

fc1.bias f4 [64]
00000000: 0224 4040 fb06 bebf 9578 3a40 69a3 6c40
00000010: 78dc be3d d64b 1040 2bf8 01c0 59c5 2fbe
00000020: d46d 8740 86cc aebf 759b 1840 246b a5bf
00000030: 8bff 9dbf 3634 8640 8196 c93e 6e2a 0240
00000040: f7bd 2f40 780a 82bd 7735 1140 58de ea3d
00000050: d61a 2dc0 7e33 2440 b0c1 073f 6f96 3c40
00000060: b934 6a40 ffbe b2be 30ed 08be 6a3b 65be
00000070: 739d 3240 5ea5 93bd 561b 5040 c884 8abd
00000080: 84fb 2740 907f 1bbf 108b c0bf b537 4c40
00000090: 8d9b 4e3d ee57 4a40 ccc0 7840 5e62 4840
000000a0: 0286 c83f 509d 54c0 5861 923e 1708 6240
000000b0: 2e9e 093f 3262 3740 60c5 04bf 780d e53d
000000c0: 3376 733f 8a36 ddbe cc69 0a3e b016 53bd
000000d0: a7a7 93bf 2809 5040 f6ce 1bc0 7fda 6ec0
000000e0: 9de2 2740 caf6 c83e c094 3d40 10ed b93e
000000f0: ed6f 0040 65da 123f 97bc a23f 8440 5b40
3.0021977 -1.484588 2.9136097 3.6974738 0.09319395 2.2546287 -2.030772 -0.17165126
4.2321568 -1.3656166 2.3844883 -1.2923322 -1.234361 4.1938734 0.39372638 2.0338397
2.7459695 -0.06349653 2.2688882 0.1146819 -2.704763 2.5656428 0.5302992 2.9466817
3.659468 -0.34911343 -0.1337173 -0.22385946 2.79086 -0.07209276 3.2516685 -0.06763607
2.6247263 -0.6074152 -1.5042439 3.1909 0.050441314 3.1616168 3.8867674 3.1310039
1.5665896 -3.3221016 0.28589892 3.5317438 0.5375699 2.8653684 -0.5186367 0.111842096
0.9510223 -0.43205673 0.13516921 -0.05153531 -1.1535538 3.2505589 -2.434507 -3.732086
2.6232064 0.39250785 2.962204 0.36313677 2.0068314 0.57364494 1.2713803 3.4258127

fc2.weight f4 [64, 64]
00000000: 7f83 afbd 674e a9bd e3a6 47bb 6add 0bbd
00000010: 389b 32bd 3b22 04be 22ce 823d 1aff 40bc
00000020: e0b9 8c3d ff98 dd3d ec5a 7c3d a6f9 8ebc
00000030: 8c1e 4bbd 2248 8dbc 3315 e3bc 821e e2bd
00000040: ad73 6fbc 9916 febd af35 05be 7c4e aabd
00000050: f406 96bd b90f 5dbd 2646 963d 17f4 823d
00000060: f669 1abe 3b4b cebc ca41 dfbd 7074 89bd
00000070: bafc fdbd a6e5 cc3d 128b 1bbe 1f4b dd3d
00000080: d217 30bc dc9a 85bd 0ee6 343d 0fda bfbc
00000090: f3d7 1bbe b656 5bbc 70ae 553d 05f9 b73d
000000a0: 0505 f0bd 8d7d 9bbd def7 f73d 3cd4 e93d
000000b0: 18e1 cf3d 75f1 45bd 70e8 dc3c 2cd6 fbbd
000000c0: be19 e83d 985e d8bc f589 f73b a234 a73d
000000d0: c431 b9bd 2d52 20be 8d8a 24bd 91a3 333d
000000e0: e4e6 55bd d757 babd 468c 42bd 7446 2cbd
000000f0: 86da a73d 8e68 243c 7573 953c 471c 52bd
00000100: 2112 743f 1189 c93d f55a 083c 0dc2 e0be
00000110: 5059 3ebc f732 ec3d 5ece 3b3e c9ba c83e
00000120: f533 eebe 8c39 533d 31ba 65bd fddc c13d
00000130: 37ea d43d b4c5 b7bc 01c4 1bbd 410a 29bf
00000140: 67f0 b1be 8ac1 203e 7819 d1be 1cc7 35bd
00000150: 07d5 2d3e 5dd4 8e3f dce4 75bd 1ef4 ffbe
00000160: 4748 0d3e 007b d4bd 84ee b93d 38ef dfbc
00000170: 9476 20bd ab8f 093e ae86 1a3e d017 bb3d
00000180: 254c 1b3e a4de d33d bb56 fcbb 66f4 60be
00000190: 3995 3d3e 5ed4 5d3f 464f d0be a0a8 cabd
000001a0: f07b 14bf 54bd 863e e79f c9bd fb53 3140
000001b0: af3b 4b3d 454e 69bd f8eb 8cbd a477 2f3d
000001c0: 7ca8 c6be 1ae4 cd3d e0c3 e13c 084d aebc
000001d0: 724b 013f cf8b 173d a299 523e 149d 2e3e
000001e0: 1c72 193c 8944 0d3f aa87 1ebd 2039 803b
000001f0: 314b df3e 871c f63a be69 043f fda0 ef3f
00000200: cbf7 d6bd 0c0e 103c 5a2a a9bd b988 3fbc
00000210: d037 ef3d 1ca4 fdbd c69f b03d db57 33bd
00000220: 7954 c63c 1b60 323d de3b ec3c a38e be3d
00000230: 8e9e 45bd ff36 08be be1c aebd 6825 323c
00000240: d63d 903d c4a5 54bc f0bd 66bb f0c5 11bd
00000250: d7d7 febc 076c 1c3d c0b1 b93b c8d1 dd3c
00000260: fcb6 dfbd c114 b03c c449 a9bd fc4c 073d
00000270: 2dcd 803d 346c 873d 9987 1fbd 38ec 6bbd
00000280: 250c 0bbe 8cc6 a23c 4773 10be 117d ac3d
00000290: 915d 12bd af91 e0bd 06ac bf3c 6c43 73bd
000002a0: d477 2bbd f364 773d 684a afbd bed5 a9bc
000002b0: fb0a 393d 76df 443d 60fc 893d 40a4 bb3c
000002c0: 99c8 debd 14dc 293d 80eb 323c 427d acbd
000002d0: 55a6 883d cf73 c53c a82b 463d 09b4 ad3d
000002e0: 6612 a4bc 308f 00be 23ee 8fbd 1eb5 9bbd
000002f0: f57f b9bd e6a1 13be a91a 02be 309b a03d
00000300: aeb0 c63d 5001 8e3d d41c a33d 2c79 0fbe
00000310: 169e f0bd 2cc1 383d de4b 5b3d fb97 0bbe
00000320: 8eff 9bbc eb2c 27be cced 843d d02f 363d
00000330: 5e1e 96bd 4f4b abbd b621 b63d 28a5 3fbd
00000340: d5bf 263d 17cb 48bc 71c7 49bd 0e9d 833d
00000350: eb3f 0ebd 9467 d83d 5ef5 a43d 751e f23b
00000360: d9e4 07be 6039 81bd 6a85 c43d ecf1 57bd
00000370: 4002 05be 703b bfbc c404 a13d b08e f13d
00000380: b725 ebbd 1fbd d7bd 9dfc 76bd c136 85bd
00000390: a861 3e3b ceeb ba3d 3852 11be 409f 823d
000003a0: a1fa e9bd 1d57 08be 381e c7bc cdd6 abbd
000003b0: b2f1 c5bc 71c5 ecbd ba82 01bd b0e5 6abc
000003c0: 651a d7bd 2a37 843d 9cee 83bd 6035 743d
000003d0: 5ee0 e9bd bf95 bebc f9d2 dfbd ed39 85bc
000003e0: 7d42 d53d 0046 8f3d 225a ae3c 0009 423d
000003f0: 64c1 9cbd bad7 48bd 12bd 94bd 9c9b 5cbd
-0.08570003 -0.08266907 -0.0030464462 -0.034146704 -0.04360506 -0.12903683 0.06386973 -0.011779571
0.0687139 0.10820197 0.061610147 -0.017453026 -0.04958968 -0.01724631 -0.02772007 -0.11040975
-0.014614982 -0.12406654 -0.1300876 -0.08315751 -0.07325545 -0.053970072 0.073375985 0.06394213
-0.15079483 -0.025182357 -0.1090122 -0.06711662 -0.124017194 0.100047395 -0.1518977 0.10805344
-0.010747867 -0.06523678 0.04416471 -0.023419408 -0.15219097 -0.013387373 0.05216831 0.089830436
-0.117197074 -0.07592306 0.12107824 0.114174336 0.10150355 -0.048325974 0.026966304 -0.122967094
0.11333035 -0.026412293 0.0075542876 0.08164336 -0.09042695 -0.15656348 -0.040171195 0.04385716
-0.052222148 -0.09098785 -0.047497056 -0.042059377 0.08195977 0.010034693 0.01824353 -0.0512965
0.9534016 0.098405965 0.008322467 -0.4389805 -0.011617973 0.11533158 0.18340442 0.39205006
-0.46524015 0.051568553 -0.05608577 0.09465978 0.103962354 -0.02243314 -0.03802872 -0.6603127
-0.34753725 0.1569883 -0.40839744 -0.04437934 0.16975795 1.1158558 -0.06003271 -0.49990934
0.13797103 -0.10375023 0.09078696 -0.027335748 -0.039175585 0.13433711 0.15090439 0.09135401
0.15165766 0.103452 -0.0077007688 -0.2196823 0.18513955 0.8665217 -0.4068548 -0.09895444
-0.58001614 0.2631632 -0.09844952 2.7707508 0.049617466 -0.05695941 -0.06880945 0.042838708
-0.38800418 0.100532725 0.02755922 -0.021276966 0.50505745 0.036998566 0.20566419 0.17052108
0.009365585 0.551827 -0.038703598 0.00391306 0.43612054 0.0018776812 0.5172385 1.8721005
-0.104964815 0.008792412 -0.08260031 -0.011690312 0.11680567 -0.12384817 0.08624224 -0.043784957
0.024210202 0.043548685 0.02883714 0.093045495 -0.048246913 -0.1330223 -0.08501576 0.010873176
0.07043044 -0.012978975 -0.0035208426 -0.03558916 -0.03110878 0.03818896 0.0056669414 0.02707757
-0.109235734 0.021494271 -0.08266023 0.033032402 0.06289134 0.06612435 -0.038947675 -0.057598323
-0.13578852 0.019870065 -0.14106475 0.08422292 -0.035733763 -0.10965287 0.023397457 -0.05939047
-0.041862324 0.060399007 -0.08559114 -0.020731803 0.045176487 0.04806467 0.0673759 0.022905469
-0.10878105 0.04146965 0.010920405 -0.084223285 0.0667235 0.024103073 0.048381478 0.084816046
-0.020028304 -0.12554622 -0.07027843 -0.07602905 -0.09057609 -0.14417228 -0.12705483 0.078421
0.09701668 0.06933844 0.07964483 -0.14011067 -0.117489025 0.045106098 0.05353915 -0.13632195
-0.019042756 -0.16325729 0.06490669 0.04447919 -0.07330011 -0.08363973 0.088931486 -0.046788365
0.04071029 -0.012255452 -0.049262468 0.0642644 -0.034728926 0.10566631 0.080546126 0.0073888847
-0.13270892 -0.063097715 0.09595759 -0.05272095 -0.1298914 -0.023343772 0.07862237 0.117947936
-0.11481803 -0.10534119 -0.060299505 -0.06504584 0.0029049907 0.091270074 -0.1419152 0.06378031
-0.11424757 -0.13314481 -0.024306402 -0.083905794 -0.0241631 -0.115610965 -0.03161881 -0.014336988
-0.10503081 0.06455834 -0.064419955 0.059621215 -0.11419748 -0.023264764 -0.10928912 -0.016262973
0.10413072 0.06995773 0.021283213 0.047371864 -0.07654074 -0.049033858 -0.07262625 -0.05385934

fc2.bias f4 [64]
00000000: d1f2 1cbd 06b4 033f 1da9 26be ab0f 4cbb
00000010: 56cd 15bd ad50 3b40 ff88 a43d 8b76 dd3f
00000020: 03e4 62bc 73e3 7e3f 363a 843f 1060 0dbc
00000030: e9b0 1b40 3784 29be b42a 35bd 4af9 073f
00000040: 060b 0ebe 0264 203d 8afe a63f 55bf 2a40
00000050: 0ebe e7bd 6755 e2bd ce38 01be 9fb5 903f
00000060: 1e72 03bf daa3 aebd 8085 8dba 144a 953d
00000070: d9f5 3840 f5dc b23c 4940 c83f 0ebd 3f3f
00000080: b9ed 1640 96c9 48bc d895 3840 ab73 dcbc
00000090: a234 3c40 85bd a33e 3193 d5bd 3406 0fbe
000000a0: 741f 0c40 44b4 e83e 31c9 4b3d ec66 843f
000000b0: 3de9 ae3d 1b37 b5bd 307f f4bc 1b0b c73d
000000c0: ff1c 2040 42e1 ebbd 4a77 36bf 4170 f5bd
000000d0: 6fd6 90bd 8835 d1bd b81f 38bd e60a f7bd
000000e0: bf44 66bd 4668 15be 4ac2 0a40 b864 29be
000000f0: 628b 19bd 48e9 ac3f f231 2f40 b31d b63d
-0.038317505 0.5144657 -0.16275449 -0.0031137269 -0.036572777 2.926799 0.080339424 1.7301801
-0.013848308 0.9956581 1.0330265 -0.00862886 2.4326727 -0.16554342 -0.044230178 0.5311476
-0.13871393 0.039157875 1.3046429 2.667928 -0.11315547 -0.110514455 -0.12619326 1.1305426
-0.51346004 -0.08527346 -0.0010797232 0.0728952 2.8900054 0.021833876 1.5644618 0.7489785
2.3582594 -0.012255093 2.8841457 -0.026910624 2.9407125 0.3198053 -0.10428465 -0.1396721
2.1894197 0.45450032 0.049752418 1.0343909 0.085405804 -0.08848401 -0.029845804 0.09718915
2.5017698 -0.11517574 -0.7127577 -0.11984301 -0.0707215 -0.102152884 -0.044952124 -0.120626256
-0.056217905 -0.14590558 2.1681085 -0.16542327 -0.03748644 1.3508692 2.7374234 0.088923834

fc3.weight f4 [20, 64]
00000000: 2efc 1f3d 9a8d e2bd a119 b7bd 525d bc3c
00000010: ac36 283d 2ef1 963f 74bc 81bd 5527 a63d
00000020: 1b57 b3bc 35f5 aabf 0a30 02bd 3ed5 39bd
00000030: a79f 463f 0a56 d7bd 6067 85bd adfe a9bd
00000040: 71bd af3d f4ba b23d 8589 bebf a9c3 5f3f
00000050: 8089 c63a af54 bd3d 4444 2cbd c3ce 2a3e
00000060: 4106 64be 8e44 8bbd 3cd8 89bd 3d61 c3bc
00000070: d87d 353f 9377 89bc 948e a33d b565 82bf
00000080: 65f6 353f 98e9 bc3d 9bb1 283f bb6a c6bc
00000090: 36ac 653f 6551 a5bc fa80 86bd d2c5 f0bd
000000a0: 721c 8a3f 36dd 9fbe 9d75 543c 5792 82bf
000000b0: bd46 16bd 004f 973d bcc8 403d 2ac5 d4bd
000000c0: 1558 313f d1bc 75bd 228e 6cbe 246c 0abd
000000d0: 10a2 4ebd 4879 f83d bc79 aabc d084 85bd
000000e0: 3ab0 4bbe c2d1 a1bd 5019 0a3e b224 fbbc
000000f0: 780a c2bc d56e 3d3f e3aa 8a3f cf07 8cbd
00000100: b681 7cbd 943a 12bd f023 e83c 5eb0 9dbd
00000110: 78bb bfbd 8bfc 5c3f 5fdf cfbc 7fb7 72bd
00000120: 67f6 b33d e4e5 45bf 4847 babd 91d7 4b3c
00000130: 15c3 233f 71ed 3dbd 66de b0bd ceee 85bd
00000140: b85e a03d ffe0 6f3d 7ba3 7bbf aae7 423f
00000150: b4c3 623d 1465 323d 90b1 ca3d 23b6 5f3e
00000160: b52e 5cbe e2c8 cc3d 8002 213b caa1 74bd
00000170: ad68 c93e e6db 953d 2d49 eebd ac9b a4be
00000180: 5fb0 053f 70be a6bc dd51 a93e 3fb2 b33d
00000190: e5af 273f ad28 59be b47c dd3d 56ec a63d
000001a0: d10c 333f 76fd 113d 8be2 2f3d c4dc f2be
000001b0: 8aee 6a3d 0046 713b e00b 593c f7cb 15be
000001c0: 0d52 a63e e1ad d53d 9e39 5abe d8f5 cc3c
000001d0: fa98 cfbd 548c f4bd b06f 67bc 450e d13c
000001e0: 1b65 36be a60a db3d 3a42 d33b 3024 d0bd
000001f0: 7ea9 3abd 5434 c53e 01f7 5b3f c0fd f7bc
00000200: 6292 09bd aafc 0fbd c37f 8dbd 024b 78bd
00000210: d0bb 94bd 806d 493f 805d cebd 1d7d f7bd
00000220: 158e dbbd 530d 0ebf 12e9 7dbd ff92 44bc
00000230: c151 433f 2061 cb3d 28cf b8bd 24e0 0bbe
00000240: b81e 123d 76e4 e43d 2002 42bf c4c7 503f
00000250: e0e4 d43b a3b2 763d 6055 bfbd 8069 673e
00000260: 1948 edbd 1287 fbbd 96af e53d ae24 1d3c
00000270: 4935 df3e daf9 1cbd 4fa0 9dbd 9f53 8ebe
00000280: 7d57 283f b0f1 27bd e85f ab3e 9b55 ff3d
00000290: c394 fd3e 99aa 86be 9ca9 cfbd c085 dcbd
000002a0: facb 213f 6945 bb3d 26b0 d13d 58ba 16bf
000002b0: 78b4 83bd d45e 79bd 100c 4a3c d740 75be
000002c0: 6d06 de3e cd0a edbd 8cd6 81be d871 2f3d
000002d0: a8ae c7bd c689 23bd 807f a2bb f08e 50bc
000002e0: 9172 9dbd 40e4 e8bc 9293 cbbd 9817 e7bc
000002f0: 70ff f5bd 5099 f73d b6ad 553f b805 f6bd
00000300: 4b65 cf3d 7792 61bd 6f79 023e 9b88 023e
00000310: 6c2f 20bd 5a5a 6a3f 4432 cbbd 8fc5 c3bc
00000320: e01e cd3d 53a1 bcbe 8b02 01be 0431 5d3d
00000330: af70 1a3f 74b9 133d d0b0 35bc 9a94 0abd
00000340: bcac ed3d c22c 733d 1ba9 6abf 52ac 3b3f
00000350: 22a7 3dbb a331 313d f0a7 233d 4b74 f33d
00000360: 5820 26be a353 9f3c fcec 123d 1f8e af3d
00000370: b0e6 cb3e beab 923d 8357 bdbd a83b f4bc
00000380: 0343 153f 4cf6 51bd a5b0 773e e958 9d3d
00000390: ad44 d33e 344e 5ebe 8648 983a 7477 d03c
000003a0: 23e3 343f 973b 5d3d 06c1 a2bd ad38 82bf
000003b0: 5ad1 1ebc 3825 d63d 4c42 acbd 2104 b9bd
000003c0: 0740 143f 58b3 8b3c 4405 67be b061 723c
000003d0: 30b5 dcbc a8a3 46bd e615 b83d 63eb cebd
000003e0: 5843 f4bd 9764 3a3d 825b 203d 52af b93d
000003f0: b523 1fbc 197b e13e 13b6 1c3f 6298 b73d
0.039058857 -0.110621646 -0.08940435 0.022993717 0.041067764 1.1792352 -0.06334773 0.08112971
-0.021892121 -1.3356081 -0.031784095 -0.04536938 0.7758736 -0.105144575 -0.06513858 -0.08300529
0.08581055 0.08727065 -1.4885718 0.8740793 0.0015147179 0.09244668 -0.04205729 0.16680436
-0.2226801 -0.06800185 -0.067306966 -0.023850078 0.7089515 -0.01678065 0.07986179 -1.0187289
0.71079093 0.09224242 0.65896004 -0.024220815 0.897159 -0.020180413 -0.06567569 -0.11756481
1.0789931 -0.31223458 0.012967494 -1.0200909 -0.036688555 0.07388115 0.047066435 -0.103891686
0.6927503 -0.059994522 -0.23101094 -0.033794537 -0.050447524 0.121325076 -0.02081 -0.065194726
-0.19891444 -0.07901336 0.13486218 -0.030657146 -0.023686633 0.7399724 1.08334 -0.06837427
-0.06164714 -0.035700396 0.028337449 -0.07699655 -0.09361929 0.8632285 -0.025375066 -0.059257027
0.08787232 -0.7730391 -0.09095627 0.012441532 0.63969547 -0.04636902 -0.08636169 -0.06539689
0.07830566 0.058564182 -0.98296326 0.7613474 0.05536242 0.043553427 0.098971486 0.21846823
-0.21502192 0.09999253 0.002456814 -0.059724607 0.39337674 0.07317333 -0.11635051 -0.32150018
0.52222246 -0.02035448 0.3307027 0.08774232 0.6550277 -0.21206923 0.10814801 0.08150546
0.6994143 0.03564211 0.042940658 -0.47434056 0.057356395 0.0036815405 0.01324746 -0.14628588
0.32484475 0.104335554 -0.21311042 0.025019571 -0.101366 -0.11940828 -0.0141257495 0.0255195
-0.17812006 0.106953904 0.006447104 -0.10163152 -0.045571797 0.38516486 0.85923773 -0.030272365
-0.033586867 -0.03515307 -0.06909134 -0.060618408 -0.07262385 0.7868271 -0.100764275 -0.1208441
-0.10720459 -0.5548908 -0.06198985 -0.011997937 0.7629662 0.099306345 -0.09023887 -0.13659722
0.035673827 0.11176388 -0.7578449 0.8155482 0.0064970106 0.060228955 -0.09342456 0.22598839
-0.11586017 -0.12281622 0.11215131 0.009591265 0.4359534 -0.038324215 -0.07696592 -0.27798173
0.65758497 -0.041001976 0.33471608 0.124675 0.4952756 -0.2630203 -0.10139772 -0.10767698
0.6320187 0.09144098 0.10238676 -0.5887809 -0.06430906 -0.06088145 0.0123319775 -0.23950516
0.43364277 -0.11574326 -0.25359 0.04283318 -0.0975011 -0.039926313 -0.004959047 -0.012729391
-0.076878674 -0.02842915 -0.09940256 -0.028209493 -0.120116115 0.12089789 0.83468187 -0.120128095
0.10126742 -0.05507132 0.12741636 0.12747423 -0.039107725 0.91544116 -0.09921697 -0.023897914
0.100156546 -0.3684183 -0.12598626 0.054001823 0.6032819 0.036065534 -0.011089519 -0.033833124
0.11605212 0.059368856 -0.91664284 0.73309815 -0.002893873 0.043260228 0.03995508 0.118874155
-0.16223276 0.01944906 0.035870537 0.08572029 0.39824438 0.071616635 -0.09245207 -0.029813603
0.58305377 -0.051260278 0.24188478 0.07682974 0.41263333 -0.2170952 0.0011618293 0.025447585
0.70659083 0.054011907 -0.079469725 -1.0173546 -0.009693468 0.10456318 -0.084110826 -0.09033991
0.579102 0.017053291 -0.22560602 0.014793798 -0.026941866 -0.04849592 0.08988552 -0.1010349
-0.11926907 0.045506086 0.03914977 0.09066643 -0.009713103 0.4403923 0.61215323 0.089646116

fc3.bias f4 [20]
00000000: 0f59 e53f 33cb 833f 965a 333f e2d9 f83e
00000010: bf00 c03e 20af ae3e 5c10 03bd b054 3c3e
00000020: c303 1a3c bfce 263d 15e5 2abe da4b ea3c
00000030: 737f c8be 374f 16bf 8e5c f3be 7579 10bf
00000040: 1484 64bf 9161 12bf 73c0 09bf 5dc3 55bf
1.7917804 1.0296386 0.700601 0.4860373 0.3750057 0.34117985 -0.031998023 0.1839168
0.009400311 0.040724512 -0.1668895 0.028600622 -0.39159736 -0.5871462 -0.4753155 -0.5643533
-0.89264035 -0.57180125 -0.5380928 -0.83501226

exp_avg f4 [64, 3]
00000000: 4882 0d42 00a9 2442 33d8 b442 ccea bec1
00000010: 88fc edc1 a41e 5ec3 5d47 4c41 7019 fb42
00000020: 6438 5944 580b 43c2 f46a 8943 269b 0c45
00000030: 0000 0000 0000 0000 0000 0000 64c8 463c
00000040: c8e5 6741 9e18 9c42 1fd9 57c1 a9ad 80c2
00000050: bf3e 13c4 51a7 94c1 a7c9 22c1 aaa0 5bc4
00000060: 3b8f 713f 82a6 a043 2baa 2a45 2e14 87c0
00000070: 3990 12c1 8124 d5c2 e0cb 1c42 7eae 7741
00000080: 3e82 8342 538e 4ac1 2186 99c1 352b 20c3
00000090: fa67 02c1 8e9f adc1 dfdc 09c3 250e 83c2
000000a0: b6e2 d443 66ca 6245 35e5 bdbe c35e 3fbd
000000b0: 54d5 cbbe b76f 4a40 6902 0f42 aaf8 f543
000000c0: 65ec a1c1 ea01 4543 3de5 dc44 569c 04c1
000000d0: 07bb e7c0 94b8 41c2 f4c2 63c1 db6f b842
000000e0: 53e6 6644 0000 0000 0000 0000 0000 0000
000000f0: 0750 85c1 d0f6 31c2 5fa1 99c3 b6dd 04c2
00000100: fa57 20c1 ad91 07c2 0000 0000 0000 0000
00000110: 0000 0000 e155 98c1 af19 1843 2c68 6044
00000120: a9e1 ab41 f147 4242 a09e a543 0000 0000
00000130: 0000 0000 0000 0000 0000 0000 0000 0000
00000140: 0000 0000 0000 0000 0000 0000 0000 0000
00000150: 335a 3441 3e6e 0542 4e71 6b43 f3ef 3342
00000160: a4c0 21c3 ab96 1dc4 e252 8340 4e9d 5942
00000170: 0015 8c43 0400 0000 0400 0000 0400 0000
00000180: 4162 2b41 d0ab a641 2fd9 1b43 5f66 d4bf
00000190: 78e8 05c1 ba1d 5ec2 0c64 56c1 eba2 b0c1
000001a0: b4fb 0bc3 df77 51c0 1973 3e42 5536 d243
000001b0: 0ecd 603e f767 70bf 489b 52c0 21e0 bcc1
000001c0: 4693 3d40 57bf 73c1 6ff6 02c2 cc40 8543
000001d0: 3718 1445 8072 16c1 d39d cb42 8c9a 2644
000001e0: 8263 9342 69b0 1042 a0da 0143 4a01 0ec1
000001f0: e54a a7c2 ff70 27c4 0000 0000 0000 0000
00000200: 0000 0000 fa8e 7843 23f5 2843 b3a0 1544
00000210: 2258 26c1 55de fbbe 182a 9cc2 f737 3141
00000220: 07e0 e342 2bf2 4744 0000 0000 0000 0000
00000230: 0000 0000 0000 0000 0000 0000 0000 0000
00000240: 7b85 37c1 acd7 2cc1 1f3a d6c1 0000 0000
00000250: 0000 0000 0000 0000 0000 0000 0000 0000
00000260: 0000 0000 0000 0000 0000 0000 0000 0000
00000270: 74e4 fec1 6f4d 8dc1 81e5 bdc4 e5da de41
00000280: 3306 ee42 9e12 3344 6e84 4ac1 b19a 60c2
00000290: bb12 01c4 14eb 74c1 ed8f d2c2 231c 59c4
000002a0: 32c1 9041 91ef 8c42 1d39 eb43 de09 a4bf
000002b0: bd13 6dc2 ac48 83c3 43d2 af3f ccbb 3242
000002c0: ec47 c043 0000 0000 0000 0000 0000 0000
000002d0: c3d8 a3c1 865b 4ac1 a18e a3c1 460f 2fc1
000002e0: c22a a1c0 61c1 2ec2 9db4 4941 0a37 7cc2
000002f0: 95d0 bbc3 7fa7 6843 fe95 1643 f99f fd43
35.377228 41.16504 90.422264 -23.864647 -29.748306 -222.11969 12.767423 125.54968
868.8811 -48.761078 274.83557 2249.6968 0.0 0.0 0.0 0.012132738
14.493599 78.04808 -13.490508 -64.33918 -588.9804 -18.581697 -10.174232 -878.5104
0.9435918 321.30084 2730.6355 -4.2212133 -9.160211 -106.5713 39.199097 15.480101
65.75438 -12.659747 -19.190493 -160.16878 -8.150385 -21.702908 -137.86278 -65.527626
425.77118 3628.65 -0.37088934 -0.04672123 -0.39811194 3.1630685 35.752354 491.9427
-20.240427 197.00748 1767.1637 -8.288168 -7.2415805 -48.430252 -14.235096 92.21847
923.5988 0.0 0.0 0.0 -16.664076 -44.491028 -307.2607 -33.216515
-10.021479 -33.89226 0.0 0.0 0.0 -19.041933 152.10033 897.6277
21.485186 48.570255 331.23926 0.0 0.0 0.0 0.0 0.0
0.0 0.0 0.0 0.0 11.272021 33.35766 235.4426 44.984325
-161.7525 -630.3542 4.1038675 54.403618 280.16406 6e-45 6e-45 6e-45
10.711488 20.833893 155.84837 -1.6593741 -8.369255 -55.52903 -13.3994255 -22.07955
-139.98322 -3.2729414 47.6124 420.42447 0.21953222 -0.9390864 -3.2907276 -23.609438
2.9621139 -15.234214 -32.740658 266.50623 2369.5134 -9.402954 101.80825 666.4148
73.69435 36.172276 129.854 -8.875315 -83.64628 -669.76556 0.0 0.0
0.0 248.5585 168.95757 598.5109 -10.396517 -0.49193063 -78.082214 11.076163
113.93755 799.7839 0.0 0.0 0.0 0.0 0.0 0.0
-11.470088 -10.802654 -26.77838 0.0 0.0 0.0 0.0 0.0
0.0 0.0 0.0 0.0 -31.86155 -17.66281 -1519.172 27.856882
119.01211 716.2909 -12.657331 -56.151066 -516.29266 -15.307392 -105.281105 -868.43964
18.094334 70.4679 470.4462 -1.2815511 -59.269276 -262.56775 1.3736042 44.683395
384.5619 0.0 0.0 0.0 -20.48084 -12.647345 -20.444643 -10.941229
-5.0364695 -43.688847 12.606595 -63.05375 -375.62955 232.65428 150.5859 507.2498

exp_avg_sq f4 [64, 3]
00000000: f7f8 2347 a831 1c47 91b1 a447 f431 8144
00000010: f968 2845 bd62 8448 e0fe 4045 06b7 5e47
00000020: 4a35 9e4a dea5 0a48 921a f348 dd6a 414c
00000030: 0000 0000 0000 0000 0000 0000 61d8 e042
00000040: 2889 1444 e8a9 8947 8166 2745 0097 8846
00000050: 38f0 254a f074 e645 4666 d344 5a75 ee4a
00000060: f30c ac47 e600 0649 b279 4b4c cf7b 3643
00000070: 2f09 3644 54a7 8447 41ad 6346 f974 1846
00000080: 1d3f 5547 68d8 f843 edb3 cd44 a9ea 3348
00000090: 8792 a143 9192 e244 76de 0148 a96d 8048
000000a0: 7ed3 7f49 6cb1 c74c 873b 9741 fc4a da3e
000000b0: a42d 9d41 0f12 2246 8fa8 a346 4c51 fc49
000000c0: e5fe 9047 b833 7b48 2a4f c54b d026 4343
000000d0: 1c0e 7043 ae97 9146 7dc0 c446 8362 8647
000000e0: 0a4f d44a 0000 0000 0000 0000 0000 0000
000000f0: 206a 8a44 c228 ce45 6fde 0b49 6d7f 7846
00000100: bacc d546 df51 b746 0000 0000 0000 0000
00000110: 0000 0000 5985 1447 349a ee47 5bd3 014b
00000120: 7631 7c44 6e05 b945 2255 1249 0000 0000
00000130: 0000 0000 0000 0000 0000 0000 0000 0000
00000140: 0000 0000 0000 0000 0000 0000 0000 0000
00000150: 626a 0044 d8dc 5745 8768 ba48 9001 f146
00000160: 5f80 1848 867e fe4a bcc7 5344 7b50 eb45
00000170: e03c 2849 2771 a120 81dc d21d 2771 a120
00000180: 967f ab43 cd38 8144 f984 cd47 19c9 4d42
00000190: fdd2 e543 5d45 0d47 ef68 ee43 e9a9 e044
000001a0: 4eab f747 de1a 7d45 b90e 6346 43c6 bf49
000001b0: 27b7 0741 aa6f 5f42 1bf0 da45 3fb5 a746
000001c0: 1b44 d246 2c4a 0747 116f c947 f979 d048
000001d0: d0ce 294c 6c15 bc45 07ce 2547 3530 834a
000001e0: 17e5 1747 e415 b346 fc34 e948 5480 a045
000001f0: 4bf0 df46 9923 4d4a 0000 0000 0000 0000
00000200: 0000 0000 3d16 1749 9949 d048 6434 de49
00000210: 8d4e 0544 4ae7 1343 6699 4448 eed7 3245
00000220: e5b8 3b47 1792 894a 0000 0000 0000 0000
00000230: 0000 0000 0000 0000 0000 0000 0000 0000
00000240: 82bf 8745 bc00 8245 0f0f 0e46 0000 0000
00000250: 0000 0000 0000 0000 0000 0000 0000 0000
00000260: 0000 0000 0000 0000 0000 0000 0000 0000
00000270: 6481 a946 40da 9f45 1a12 b44b 9c77 9f45
00000280: f938 3547 7c34 544a c83b 0145 8eaf 6a46
00000290: e295 f749 4fad aa45 5ee1 3147 2035 ba4a
000002a0: f1e5 0b45 001c 8746 c9a4 b749 eaed c944
000002b0: e5f4 8e46 5b95 8a49 5d08 1f45 1da7 2846
000002c0: 2692 9449 0000 0000 0000 0000 0000 0000
000002d0: e870 e246 308d e646 5b78 1747 0517 9043
000002e0: ee32 2143 8415 1c47 7365 af45 5fea af46
000002f0: 1646 2b49 7fbc da48 67e5 8c48 32b7 9749
41976.965 39985.656 84323.13 1033.561 2694.5608 271125.9 3087.9297 57015.023
5.184165e+06 141975.47 497876.56 5.070322e+07 0.0 0.0 0.0 112.422615
594.14307 70483.81 2678.4065 17483.5 2.718734e+06 7374.617 1691.196 7.813805e+06
88089.9 548878.4 5.333985e+07 182.48363 728.1435 67918.66 14571.313 9757.243
54591.113 497.69067 1645.6227 184234.64 323.14474 1812.5802 132985.84 263021.28
1.0478639e+06 1.0469667e+08 18.904066 0.42635334 19.647285 10372.515 20948.28 2.0669855e+06
74237.79 257230.88 2.5861716e+07 195.15161 240.05511 18635.84 25184.244 68805.02
6.956933e+06 0.0 0.0 0.0 1107.3164 6597.0947 572902.94 15903.856
27366.363 23464.936 0.0 0.0 0.0 38021.348 122164.41 8.508251e+06
1008.7728 5920.6787 599378.1 0.0 0.0 0.0 0.0 0.0
0.0 0.0 0.0 0.0 513.66223 3453.8027 381764.22 30848.781
156161.48 8.339267e+06 847.12085 7530.06 689102.0 2.734934e-19 5.5814533e-21 2.734934e-19
342.99677 1033.775 105225.945 51.446384 459.64835 36165.363 476.8198 1797.3097
126806.61 4049.6792 14531.681 1.5710164e+06 8.482215 55.859047 7006.013 21466.623
26914.053 34634.17 103134.13 426959.78 4.451411e+07 6018.6777 42446.027 4.2987785e+06
38885.09 22922.945 477607.88 5136.041 28664.146 3.3609982e+06 0.0 0.0
0.0 618851.8 426572.78 1.8203005e+06 533.22736 147.90347 201317.6 2861.4956
48056.895 4.5079155e+06 0.0 0.0 0.0 0.0 0.0 0.0
4343.9385 4160.092 9091.765 0.0 0.0 0.0 0.0 0.0
0.0 0.0 0.0 0.0 21696.695 5115.2812 2.3602228e+07 5102.951
46392.973 3.476767e+06 2067.7363 15019.889 2.0282202e+06 5461.6636 45537.367 6.101648e+06
2238.3713 17294.0 1.5044091e+06 1615.4348 18298.447 1.1352754e+06 2544.5227 10793.778
1.2170928e+06 0.0 0.0 0.0 28984.453 29510.594 38776.355 288.17984
161.19894 39957.516 5612.681 22517.186 701537.4 447971.97 288555.22 1.2428542e+06
