beer/experiments/MA_0.05/models/dqn_agent_firm_0_episode_4000.pth (torch, 101224 bytes, 24 tensors)

fc1.weight f4 [64, 3]
00000000: fe93 31be 8638 ebbe b816 bf3d f1dd b4be
00000010: 2210 4bbf 3eba 783e 316f b3be 3f41 9b3e
00000020: 7803 e13d 6d21 0d3f 15b9 003e b2ab b03e
00000030: aaa5 4c3f ab75 ee3e 179b 4a3e 63e7 e03d
00000040: 145c 1dbf 7a6c 893d 66a5 a23d 85c5 073e
00000050: cb33 6bbe 81ec 32be 1391 8e3d b401 973d
00000060: 8cef b93b 2a47 9e3e 6049 a23d 2e23 a7be
00000070: c9c3 13bf db35 003e 874d f23d e30c 543e
00000080: 1957 aabe a1fa 0d3e e7b1 523e d653 40be
00000090: 70d9 d03e a6ef e63e b81b 44bf 82d7 013e
000000a0: fb76 b13e 4cac 64bf b3db c9bd 2d4c a1bf
000000b0: 1637 b33a 18f0 493e 72ed 593e 9790 ccbe
000000c0: 10e0 243c 2409 94bd dcf5 81bd 1153 ab3e
000000d0: 8adf 2d3f 2c7b 9e3e 2d33 96be 8abe ed3d
000000e0: 3700 163e 20b4 85be 8719 dc3e f8a2 da3d
000000f0: 6093 6dbf 1766 04bf f890 123e 80bf 02bf
00000100: 2f0c 67be 32c0 9a3c aed8 bdbd b32e 1bbe
00000110: 4e43 913d 8686 4d3e 4672 c23e df9d f5bd
00000120: 2987 afbe e54c 2abf 2245 5d3e 7eb6 9cbe
00000130: d7d0 f1be d25c 523c 8825 c93d 09f9 5cbf
00000140: b170 69bd c8dd 3d3f 154e b9be cd2c 233e
00000150: c14b 2cbe a254 63be 44d2 21bd 68ff 4fbe
00000160: 12f8 143f 3e16 8c3e a3fb 0cbb 0434 6fbf
00000170: 319c 3a3e 1d2f 2abf bac6 27be e110 18be
00000180: 589c 62bd 715a 09be 039a 32be c0e7 e03d
00000190: 36e7 8a3f 7a3a 5b3e 3927 ed3e 06b3 b4bf
000001a0: ad99 54bd 10d6 cc3d 7756 0bbe 3c7a 3e3d
000001b0: ff49 1d3d ae20 b23d babd 5f3d 240a 8fbe
000001c0: 4009 e6be c930 053e a0ba 773e edc7 a33e
000001d0: c5ac d23c 824f f23d f218 dc3e a1ea ab3d
000001e0: a887 87be 47d8 caba f544 6fbe 3ef0 7a3e
000001f0: 7956 f03e a019 48be afd6 743e 1cfe 033f
00000200: 4a4f a13d 4e1f a2bd 6f6e 78bf eb61 c63c
00000210: aa45 83be eac1 5bbe f203 2dbc 2af6 753e
00000220: d097 6a3d f0a3 8b3d 3153 81be b72b f5be
00000230: 8a10 d8bc 2630 2a3d 2fc6 ab3e 04e6 0abe
00000240: 538e 68bd 4217 7bbf 0050 cf3d ec71 39be
00000250: 8115 033f 79f6 14be 3451 42bd 24b3 c73e
00000260: 78c4 793d 734a 6fbd a4c6 9e3e 5da9 a5be
00000270: cecf bcbe 5088 fabd c166 cd3d 90aa 97be
00000280: 24fe 05bf 5308 e1be dc70 c83e b4ae d6be
00000290: 4227 03bf 5598 c83c f3b9 fabe f19f 5f3d
000002a0: fa62 a93e 93c0 6c3c 5997 323c 79ba 10bf
000002b0: b655 54be f2d7 2cbe b33d 7d3e 5142 a33e
000002c0: 687a a7be 10e2 efbe 3d46 bfbd b8d5 f4ba
000002d0: bf28 373e ab6a 1d3f 4ed5 44be 585a a7be
000002e0: 60ce f63e a22a b5be 5532 9ebe b970 0abf
000002f0: b3a9 f43c 5ce0 51be 2a34 dabe 1c5d efbd
-0.17341611 -0.4594156 0.09330505 -0.35325578 -0.7932149 0.24289796 -0.3504577 0.30323216
0.1098699 0.5512913 0.12570603 0.34505993 0.79940283 0.4657415 0.19785725 0.109816335
-0.61468625 0.067101434 0.079417035 0.13258941 -0.22968976 -0.17473032 0.069612645 0.07373372
0.005674308 0.3091367 0.079241514 -0.32644027 -0.5772062 0.12520544 0.118311934 0.20708041
-0.33269575 0.13865139 0.20575677 -0.18781981 0.40790892 0.45104712 -0.76604795 0.12679866
0.34661087 -0.89325404 -0.098563574 -1.2601372 0.0013673033 0.19720495 0.21281984 -0.39954063
0.010063186 -0.07228306 -0.06345722 0.33461812 0.6791922 0.30953348 -0.2933592 0.11608608
0.1464852 -0.26113987 0.42988226 0.10675615 -0.92803 -0.51718277 0.14313114 -0.51073456
-0.22563241 0.018890474 -0.09269844 -0.15154533 0.070929155 0.20070848 0.3797781 -0.11993002
-0.34282807 -0.6652358 0.21608403 -0.3060798 -0.47229645 0.012839513 0.09821612 -0.863175
-0.056992237 0.74166536 -0.36192384 0.15935059 -0.16825773 -0.22200254 -0.039507166 -0.20312274
0.58191025 0.2736072 -0.0021512292 -0.93438745 0.18223645 -0.6647814 -0.16384402 -0.14850189
-0.055324882 -0.13413407 -0.17441563 0.10981703 1.085181 0.21409026 0.46318987 -1.4117134
-0.05190437 0.10001767 -0.13607202 0.04650329 0.038400646 0.086976394 0.054624297 -0.27937424
-0.44928932 0.13006891 0.24192286 0.3198847 0.025717149 0.11831571 0.42987782 0.08394361
-0.26470685 -0.0015475833 -0.23366149 0.24505708 0.46940973 -0.19541025 0.2391002 0.51559615
0.07876451 -0.07916127 -0.9704351 0.024216613 -0.25639087 -0.21460691 -0.010560023 0.24019685
0.057273686 0.06818378 -0.25258783 -0.47884914 -0.026375074 0.041549824 0.3354964 -0.13564306
-0.056776356 -0.98082364 0.10122681 -0.18109864 0.5120469 -0.14547147 -0.047440723 0.3900386
0.060978383 -0.05842061 0.31010926 -0.32355776 -0.36877292 -0.12233031 0.100293644 -0.29622316
-0.5234091 -0.43951663 0.39148605 -0.41930163 -0.5123178 0.0244867 -0.48969993 0.05459589
0.33083326 0.01445021 0.010900342 -0.56534535 -0.20735821 -0.16879252 0.24730568 0.31886533
-0.32710576 -0.4685216 -0.09339569 -0.0018679416 0.17886637 0.6149089 -0.19221994 -0.32686114
0.48204327 -0.3538409 -0.30897775 -0.5407825 0.029866075 -0.20495743 -0.42617923 -0.11687681

fc1.bias f4 [64]
00000000: 4ebf 4340 e741 00c0 cb10 3140 e2e6 23c0
00000010: 3d20 12c0 6b9b 1d40 e161 4b40 2d50 5740
00000020: 544c 1cc0 c92d 1640 75a2 f13e 907c 4640
00000030: 89ea 3b40 774f 3240 0c3d 27bf 07d9 3240
00000040: eaf1 6440 fc2e 01c0 be05 4140 1ea6 3b40
00000050: f3d2 82c0 538d 1bc0 8b33 7f40 56ba 5340
00000060: 622e 41c0 f0ef 6840 9582 0540 93b9 5840
00000070: bfa6 4d3f 903b 01c0 e861 48c0 47d1 0b40
00000080: 365d 2e40 c081 28c0 18b1 f2bd 2eb9 6340
00000090: 93bc 3b40 946d 4f40 f334 afbf 39c2 3d40
000000a0: 6c04 963e 2d46 4f40 62c9 4640 461a 21c0
000000b0: ac18 3e3e 440d 4e40 5786 1a40 e31f 3640
000000c0: 803e 05c0 eecc e3bf add2 5d40 2571 0ec0
000000d0: 03d7 6a40 f429 433e 72df 043f 88ac 4140
000000e0: 51d5 e13f 144d 1cbe 59f2 b2bf 405d 3940
000000f0: 22ca 69bf a7f8 74bf 8529 9340 8302 0cbf
3.0585513 -2.0040224 2.76665 -2.560967 -2.2832177 2.462611 3.177849 3.3642685
-2.4421587 2.3465445 0.47194257 3.1013527 2.93619 2.7861001 -0.65327525 2.7944963
3.5772653 -2.0184927 3.0159755 2.932014 -4.0882506 -2.4305007 3.987521 3.308248
-3.018456 3.6396446 2.086095 3.3863266 0.8033256 -2.0192604 -3.1309757 2.1846483
2.7244391 -2.6329193 -0.11850184 3.5581775 2.9333847 3.241063 -1.3688034 2.9649794
0.2930025 3.2386582 3.1060414 -2.5172286 0.18564099 3.2195597 2.4144495 2.8456962
-2.0819397 -1.7796915 3.4659836 -2.2256558 3.6693733 0.19058973 0.5190345 3.0261555
1.7643224 -0.15263778 -1.3980209 2.8963165 -0.91324055 -0.95691913 4.5988183 -0.5469133

fc2.weight f4 [64, 64]
00000000: 95cf c73e 8133 16bd 350f 043e b675 213c
00000010: 3fa3 0a3e daf1 903e 6474 c9be ba95 013f
00000020: 7a5d a2bd 3c16 3a3b be06 54be 7655 d6be
00000030: ff06 d3be b06b d13e 69bd 16bd 6368 f4bd
00000040: f08d 14be 33a8 8cbb 4c62 473f 5e0e 1f3f
00000050: 6f2c 07bf 0f12 e839 bb1d ad3f 2386 30bf
00000060: aa1a 95be 7202 f13e 2ee1 5abe 29d3 6c3f
00000070: 497d 593d c9f6 e03d 7cca bdbd 5002 7f3e
00000080: 3dff 83be 4b69 3dbe 36e6 a83d 72bc b13e
00000090: 703b a03e dbec c53e 0147 a2bc a859 343e
000000a0: e9bd 1cbd 0fb4 3bbf a9d8 8e3e 20d0 2c3e
000000b0: 005d 143c e9e2 113f 1368 41bd c8bf 35be
000000c0: ed17 dbbd a7b2 81be 3da3 bb3e 8428 a8be
000000d0: d760 cb3e 40cc 073c dc26 e33d 9dde bc3e
000000e0: 7383 c03c 1a6b ae3d 3c8a c4bd 6c1d 853e
000000f0: a49a a1be 69f8 a0be f833 8b3f 482a a83d
00000100: e551 df3e 271d 0ebd 9132 cb3e 77e4 5a3e
00000110: 1591 443c 158a 4e3e bdbe ed3d 4cb5 183f
00000120: fdd8 31bd 9e45 803e b446 f0be 88b1 bebe
00000130: eb3e 5dbe a3a9 c63e f432 023e c529 b13d
00000140: 7f6e cc3d bffc d63d e276 5f3f a652 143f
00000150: cbeb 12bf e58f 4abd 35f1 c03f 460a 0abf
00000160: f4f7 52be afe1 003f 32f8 91be 59f5 1f3f
00000170: ebdf 95bd 8d24 603e ef2a 1ebe 6cd8 a03e
00000180: c22d 20be c5fa 993d 6e43 c8bd 75ff 053f
00000190: 0d6b 8c3e 8bcc 0f3f 9791 26bd 8d2f 633e
000001a0: ed1c a6bd 5cfb 2bbf 3862 8e3e f2b8 0cbe
000001b0: 901b f1bd d2f9 003f 4945 083c a87e 933d
000001c0: 8211 1cbe c54a 76be bbf9 123f 5ca4 dcbe
000001d0: 171c 3e3f 904b e63c 92ed 873d ab33 ee3d
000001e0: 168b 30bd 842c 09bd eb63 cbbe 2689 2d3e
000001f0: 67f7 30be f31f 2cbe 7899 ae3f a8d8 a03c
00000200: d890 223d 6321 fabd d2d8 a2be 07e0 a4be
00000210: 19dd a5be c8b5 72bd fb9c 96bf ec5c 25be
00000220: a7cd 79be f288 8e3e 4424 13bf 1e34 8e3e
00000230: 3c24 f9be 6308 653f 631d 1abe 9387 48bf
00000240: 2bea 973f b00b 9ebe b5e2 b03e 8ae2 26be
00000250: 4bec e9be 7bf1 f3bd 59c8 193f 7a51 84be
00000260: f853 b4be 652c 6c3e c5d0 08bf 2fb1 cb3e
00000270: f3b5 80be 6bbf 61be bc4a 3abe c922 adbe
00000280: 831e 10bf 25b0 f5be a0c9 f9be 0b82 eb3c
00000290: db68 91be c50c 033e a782 44be 4e89 eebe
000002a0: 4247 873d e0a4 e6be 44d6 b1be 4519 1d3e
000002b0: b484 45bc 8483 37be e3dc 483e 288f 233f
000002c0: 45b8 0fbe c55c ccbd 9249 10be 10c1 2cbe
000002d0: 8dc9 063e c814 20bd 1c47 fdbd a54a 57be
000002e0: d1f4 24bf e040 bc3b 63b9 9cbe 4410 123e
000002f0: daf0 56bf 6248 d3be 6187 6b3f 5027 d0bd
00000300: 29de 583f 238b acbd 6a5c 483f 7ea6 193f
00000310: 14aa d43e f5fa 403f ccb2 1ebf b7e4 793f
00000320: 7611 533e cdd5 603f 0a49 27bd c6bc 5ebf
00000330: 3cd8 71bf f320 afbf 9bb6 5b3c b189 53bf
00000340: 5290 efbf 29c5 023f 827d 613f 3dc4 713f
00000350: 2a1b 34bf 22e1 c43e 0406 9e3f 5e3e ffbd
00000360: 46e9 f5bc 9af8 363f 917d 7d3e 9f20 623f
00000370: 76e9 953e 5e0b 9f3e 2afc 313e 9104 483f
00000380: 2757 1ebe 5942 b03e 80be fc3d 7d3e 243f
00000390: f5a5 5e3f f54b 5a3f dabd d63e 6825 833f
000003a0: 8861 123e 8157 613e 7984 603f 840b 5abc
000003b0: c5a7 c0bd cf2c 3c3f cf58 ffbe d5fe 9bbf
000003c0: 3f2c b83d 7d9c 933e 224a 573f 0cd8 febe
000003d0: bbf1 403f e0ab 29bd 34c7 393d eec3 433f
000003e0: e061 1a3f 7a4c da3d 10ad f73b abd7 be3e
000003f0: c363 11bb ac8e 09be bafa 673f 8830 05bd
0.3902556 -0.03667021 0.12896426 0.009854725 0.13538836 0.28309518 -0.39346611 0.5061909
-0.079279855 0.00283946 -0.20705697 -0.41862077 -0.41216275 0.40902472 -0.03680173 -0.11933973
-0.1450727 -0.004292512 0.77884364 0.621313 -0.52802175 0.00044263943 1.3524698 -0.68954676
-0.29121906 0.47072178 -0.21374962 0.92509705 0.053097997 0.109845705 -0.092671365 0.24903226
-0.2578067 -0.18497197 0.08247034 0.34714085 0.31295347 0.3865727 -0.019809248 0.17612326
-0.03826705 -0.7332162 0.27899674 0.16876268 0.009055376 0.5698686 -0.047218394 -0.1774894
-0.10697923 -0.25331613 0.36647978 -0.3284341 0.3972232 0.008288443 0.11091396 0.3688859
0.02350018 0.08516522 -0.095966786 0.2599901 -0.31563294 -0.31439522 1.0875235 0.082111895
0.43617168 -0.03469577 0.39687017 0.21376215 0.011997481 0.20169862 0.11608646 0.5965164
-0.043419827 0.25053114 -0.46928942 -0.3724482 -0.21606033 0.38801298 0.1271475 0.08650545
0.09982013 0.10497426 0.87290776 0.5793861 -0.5739104 -0.049453635 1.507361 -0.53921926
-0.20602399 0.50344366 -0.2850967 0.62483746 -0.073180996 0.21888943 -0.15446065 0.31415117
-0.15642455 0.075185336 -0.09778486 0.5234292 0.27425423 0.5617148 -0.04066619 0.22186108
-0.08110986 -0.6718042 0.2780931 -0.13742426 -0.11772835 0.50381196 0.0083173 0.07201892
-0.15241054 -0.2405196 0.5741231 -0.43094146 0.7426161 0.028112203 0.0663711 0.11630949
-0.043101393 -0.03348972 -0.3972467 0.16946849 -0.17281877 -0.16809063 1.3640585 0.01963456
0.039688915 -0.12213399 -0.31806046 -0.3220217 -0.32395247 -0.05925539 -1.1766657 -0.16148728
-0.24394856 0.27838856 -0.5747721 0.27774137 -0.48660457 0.8946592 -0.15050273 -0.7833187
1.1868337 -0.30868292 0.34547964 -0.16297355 -0.4568809 -0.11911293 0.6007133 -0.25843412
-0.35220313 0.2306381 -0.5344356 0.39783618 -0.25138816 -0.22045676 -0.18192571 -0.338156
-0.5629656 -0.4798595 -0.4878664 0.028748533 -0.2840031 0.1279784 -0.19190465 -0.4658913
0.06605388 -0.45047665 -0.34733784 0.15341671 -0.012055565 -0.17921263 0.19615512 0.63890314
-0.14035137 -0.09978632 -0.14090565 -0.16870522 0.13162823 -0.03908232 -0.12367079 -0.21024568
-0.6443606 0.0057450384 -0.3061019 0.14264017 -0.8396126 -0.4126616 0.92003447 -0.10163748
0.8471399 -0.08424976 0.7826601 0.6001967 0.4153601 0.7538293 -0.6199157 0.97614616
0.2061213 0.87826234 -0.04084114 -0.87006795 -0.9447057 -1.368193 0.013410236 -0.82631975
-1.8715918 0.5108209 0.88082135 0.9444006 -0.7035395 0.38453013 1.2345586 -0.124630675
-0.03001846 0.71473086 0.24754931 0.88331026 0.2927968 0.3106336 0.17381349 0.7813197
-0.15462933 0.3442562 0.123410225 0.6415785 0.8697198 0.8527215 0.4194172 1.024579
0.14295018 0.22006036 0.8770214 -0.01330841 -0.094069995 0.7350587 -0.49872443 -1.2187144
0.08992814 0.2883033 0.8409749 -0.49774206 0.7536885 -0.04142368 0.04535599 0.7647084
0.60305595 0.10659118 0.0075584725 0.37273917 -0.0022184707 -0.13433331 0.90616953 -0.032516986

fc2.bias f4 [64]
00000000: b225 1440 ce12 2440 3d04 b83f 091d 8e3f
00000010: 39a3 a33f 4aad b53d 7944 e83f 85fd ab3d
00000020: b1ec 8a3c c974 993f 7d33 94bd 4e56 7b3c
00000030: ece2 1040 2a70 da3f 0c98 b7bb 7654 963f
00000040: de25 09bd bcb5 76bd 5959 f03f 5a8f ce3c
00000050: c38a 9abc 6833 dfbd fe13 a93f 366e 53bd
00000060: c88e c83f 0050 9f38 739d 55bd 677f 0840
00000070: 0b70 e13f 9400 3f3f c929 1140 9900 cabf
00000080: 70bd dabd 5e0c b53d 08d9 d83f cd50 e4bd
00000090: 197c d2bd d32e 133d 5f38 573d ac74 5ebe
000000a0: 9ac4 dd3f 8deb 8b3f 1399 0140 4730 88be
000000b0: b564 343d 1b97 313c 4ef4 b83f 6411 aebe
000000c0: efa3 5ebf c056 ef3f 9e47 2bbd e461 fdbd
000000d0: 1c20 0a40 5219 d43f 7c40 0940 0886 1240
000000e0: 9a69 3ebf 0009 0540 8e1b 103c 4338 c1bb
000000f0: 7834 dfbd 7dcf bd3c 46f6 c53f bdc8 ab3f
2.3148007 2.5636477 1.4376293 1.1102611 1.2784187 0.08870943 1.8145896 0.083979644
0.016958566 1.1988765 -0.07236383 0.015340401 2.2638502 1.706548 -0.005602842 1.1744525
-0.03348338 -0.06023191 1.8777267 0.02521484 -0.018864995 -0.10898477 1.3209226 -0.051618777
1.5668573 7.596612e-05 -0.05215211 2.132776 1.7612318 0.7461026 2.2681754 -1.5781432
-0.106806636 0.088402495 1.6941233 -0.11148224 -0.10277576 0.035933327 0.052543994 -0.21724194
1.7325623 1.0931259 2.024968 -0.26599333 0.044041354 0.010839249 1.4449556 -0.33997643
-0.8696889 1.8698349 -0.041816346 -0.12372187 2.1582098 1.6570227 2.1445608 2.2894306
-0.74379885 2.0786743 0.008795632 -0.0058965995 -0.108986795 0.023170227 1.5465782 1.3420635

fc3.weight f4 [20, 64]
00000000: 18f0 f13e 8cc1 333f 4f3b a33a 3a99 3c3e
00000010: ffa4 493d 7448 323d fc46 a13d dfbf b7bc
00000020: b8af 87bd e570 84bf c0e3 fd3b c0e1 57bc
00000030: ec53 153f 8163 98be b996 ff3b 16f6 4a3d
00000040: f8b9 873d 3ef9 48bc 1379 503e 8b0b cbbd
00000050: 170d d3bd d629 e83c 4dff 063e 38e8 af3c
00000060: 20d3 103f acad b23d 54a0 483d dbd3 8ebf
00000070: 8670 873e faf6 d8bc 895f 523f 6e41 febe
00000080: 101c a73c ce18 eebc a298 f73d 8c31 1ebd
00000090: 203e b4bc 0fa0 55bd 4003 4fbc 5068 1ebd
000000a0: 952a 173f b58f b93e 133f 0b3f 9ae4 853d
000000b0: 16b8 b8bd c0cf 8cbc 964e 7d3d 6f91 42bb
000000c0: a357 61bd a46e 993e 408c 76bc f98d c1bc
000000d0: 7a93 db3e 6ac5 673e 08e4 153f a87c 2e3f
000000e0: 550b 75be b2f2 4d3f d22d 923c c0e2 56bc
000000f0: 3ed3 edbd 6233 533d 7f26 a7bf 4e51 353f
00000100: fc87 013f e751 483f 2294 053d c421 bc3e
00000110: f8c1 a23d 261e 53bb 6d8d 6a3e 35e6 6f3d
00000120: ae64 e23c 30c6 00bf 0cca 31bd 9274 f7bd
00000130: 0fb5 053f 8f71 8bbe d471 aebd ecb1 733e
00000140: d8da a8bc 0577 0e3d d199 8e3e 86cd 113d
00000150: 58a1 f4bc 1e50 e93c 61e7 dc3e 509e 4d3c
00000160: 73bf a03c 0a2e b83d 5685 10bd 1a25 83bf
00000170: d3dc 733e ecbe 0bbe 3f19 ca3e 8c2a 46be
00000180: c023 0ebc 8ae2 9c3d 9b67 8fbd a0ae be3c
00000190: 8e2b 993d cf67 2f3d acf9 523d bcfb 613c
000001a0: bcca f43e b152 713e cc94 273f c7ed 9fbd
000001b0: b9d0 213c dd57 2c3d 22fd 0f3e b480 a93e
000001c0: a59f dd3c 1e6a 7c3e 6cd8 2f3d 52fc a9bd
000001d0: d619 c33e 10a8 7d3e cbb9 933e f534 1c3f
000001e0: 2700 b9bd 4de7 d83e 9a8d 943d 9e59 d4bd
000001f0: 2611 a9bd 90ee 5a3c 3718 46bf 4f9d 2c3f
00000200: f228 163f ed11 183f f859 f13d cf50 af3e
00000210: 750c b03e c231 45bd 2e6d 703e def7 abbb
00000220: 7a6d 8a3d f6fd d9be f93a 313b 40d0 4b3d
00000230: 06a1 1d3f 62c4 a4be 00aa ecb9 7546 8f3e
00000240: 724e a83d 55a0 9d3d 1cdc 493e cf62 b03d
00000250: 34a7 e83c 6700 b93d 1b74 e33e 4043 ddbc
00000260: ec6a b43c 825e dbbd 7247 483d 46f1 6dbf
00000270: 0f4d 813e a570 4abe cd6a ea3e 25e0 debe
00000280: 4cf0 963d aefa adbd 5515 8e3c 80fd b2bc
00000290: f819 4f3d 5ac3 ee3d f48b 413d fc1a 1c3e
000002a0: 6056 ed3e 5363 b33e 1926 d03e da31 6b3e
000002b0: 966c 793d b6de cdbd d0fd 67ba 4ac2 963d
000002c0: 72b5 313e 3010 833e 9c4e c9bd c662 8bbb
000002d0: 016f aa3e 8c79 2e3e 4f68 e03e 37d2 1d3f
000002e0: 0291 4f3e 36c6 013f f49b a93d 24ff ae3d
000002f0: ecb7 52bd a962 ac3d ac07 4abf aa82 263f
00000300: d1a0 ed3e 7c31 1d3f d1e5 dc3e 0f33 f93e
00000310: af97 913c d964 e13d d72c edbd 5173 0dbd
00000320: 8ec7 a93d c364 0abf f0a2 fa3c 8c85 64bd
00000330: 059c ed3e 6d1c dabe c0d2 80bb 32db 243e
00000340: 3c84 b6bd ae26 a1bd 3b05 2a3e 5a8d 0b3d
00000350: e9b9 db3d 2a3b 01bc 389a 4f3e aa97 e43d
00000360: d3e4 77bc c0dc ce3d 2419 eabd 9170 63bf
00000370: eb40 2d3e 9936 d1bd 3f18 c63e 2102 853d
00000380: 2e70 cbbd 5275 ad3d 61c4 e93e 2cac ec3d
00000390: 4723 3c3c df9b a4bd f0df 02bd 7ff1 5a3e
000003a0: 4919 fe3e c6d8 483f 5e8f ca3e a518 7bbd
000003b0: 4844 d13d c014 fa3b dac1 763e 475c 1dbe
000003c0: 1d8e eabd 363d a13e ee60 f8bd 85ed e0bd
000003d0: 1bbf b53e 9d4d 223e 4d22 d03e c80f 253f
000003e0: ceba 323e 0e9f 8d3e e0c7 0cbd 92e3 97bd
000003f0: a6be f23d abd1 20bd d1b1 10bf b646 3e3f
0.4725349 0.70217204 0.0012453588 0.18417826 0.04922962 0.043526128 0.07874867 -0.022430358
-0.066253126 -1.0346953 0.007748097 -0.013176382 0.5833118 -0.29763415 0.00779995 0.049551092
0.066272676 -0.012266455 0.20358686 -0.09914311 -0.10305231 0.028340261 0.13183327 0.021473035
0.5657215 0.087245315 0.048981026 -1.1158403 0.26453036 -0.026484955 0.82177025 -0.49659294
0.020399123 -0.029064562 0.12089659 -0.03862147 -0.02200228 -0.052154597 -0.012635052 -0.0386737
0.5904935 0.36242452 0.5439312 0.06537743 -0.090194866 -0.017188907 0.061842524 -0.0029688736
-0.055015218 0.29967225 -0.015048087 -0.023627268 0.42885953 0.22633901 0.58551073 0.6815896
-0.23930104 0.8044845 0.017844114 -0.013115585 -0.11612557 0.051562674 -1.3058623 0.70827186
0.5059812 0.78249973 0.032611974 0.3674451 0.07947153 -0.0032214015 0.22905512 0.058569152
0.027635898 -0.5030241 -0.043405578 -0.12082781 0.522294 -0.27235076 -0.08517805 0.2379834
-0.020612165 0.034781475 0.27851728 0.035596393 -0.029862091 0.028480586 0.43145278 0.012549952
0.01962254 0.08993156 -0.03528341 -1.0245697 0.23814707 -0.1364705 0.39472386 -0.19352168
-0.008675516 0.076603964 -0.07002183 0.023276627 0.074790105 0.04282361 0.051507637 0.013792928
0.47810924 0.235667 0.6546142 -0.07809024 0.0098764235 0.04207598 0.14061406 0.33106005
0.027053664 0.24649855 0.042931005 -0.083000794 0.3810565 0.24771142 0.28852686 0.61018306
-0.09033232 0.42363968 0.07253571 -0.103686556 -0.08255224 0.013362542 -0.773807 0.67427534
0.5865623 0.5940235 0.11784738 0.3424134 0.34384504 -0.048143156 0.23479149 -0.005248054
0.06759162 -0.4257657 0.0027043207 0.04975915 0.6157383 -0.32181078 -0.00045140088 0.27983442
0.08218087 0.076965965 0.19712871 0.08612596 0.028400041 0.0903328 0.4442452 -0.027009606
0.02202364 -0.10711385 0.04889626 -0.9294628 0.25254104 -0.19769533 0.45784608 -0.43530384
0.07370052 -0.08495079 0.017344156 -0.021849394 0.050561875 0.11658354 0.04725261 0.15244669
0.4635496 0.35036716 0.40654066 0.22968236 0.06089457 -0.10052244 -0.00088497717 0.073612764
0.17354372 0.25598288 -0.09829447 -0.004253718 0.33287814 0.17038554 0.4382958 0.6164889
0.2027016 0.5069307 0.08281699 0.08544758 -0.051444933 0.084172554 -0.78917956 0.6504313
0.46411756 0.6140363 0.43144086 0.48671767 0.017772524 0.11005563 -0.11580818 -0.034533802
0.08290015 -0.5406 0.030595273 -0.055791423 0.46408096 -0.42599812 -0.0039313734 0.16099241
-0.089119405 -0.07868706 0.16603558 0.03407035 0.10728819 -0.007887641 0.20273674 0.1116174
-0.01513024 0.101006985 -0.114305764 -0.8884364 0.16919295 -0.10215492 0.38690373 0.06494547
-0.09933506 0.08469643 0.45657638 0.11556277 0.01148302 -0.080375426 -0.031951845 0.21381186
0.49628666 0.7845577 0.39562505 -0.0613028 0.10218102 0.007631868 0.24097386 -0.15367232
-0.11452887 0.31492013 -0.12127863 -0.10982803 0.35497364 0.1584992 0.4065117 0.64477205
0.17454073 0.27660412 -0.034370303 -0.074164525 0.118527696 -0.039262455 -0.56521326 0.74326646

fc3.bias f4 [20]
00000000: 9649 0f40 5e93 4c3f 071b 103f b410 243f
00000010: 1027 193f 1318 1a3f 8a14 e23e e099 ca3e
00000020: e6bd 9e3e 9f45 a53e 0dbe 553e 1e33 d03d
00000030: b38d 6f3c 6b7e 403e e1e3 cdbd b8a6 6bbe
00000040: 8e72 d83c 2beb 33be 8ed9 29be 9e09 b5be
2.2388663 0.79912364 0.5629124 0.64087987 0.5982523 0.60192984 0.44156295 0.39570522
0.31004256 0.3227968 0.2087328 0.10166 0.014621186 0.18798225 -0.1005323 -0.23012817
0.026421811 -0.17570178 -0.16586897 -0.353589

fc1.weight f4 [64, 3]
00000000: 2a04 29be ae73 e2be 89bd d53d ccd2 bfbe
00000010: b9b5 42bf 78c7 803e be9b b6be c9bf 9e3e
00000020: 2faa da3d d951 0c3f 74af 023e 422a b03e
00000030: 6221 4c3f dd48 ef3e ba49 463e 2b2b 8c3d
00000040: 97cc 23bf df88 933d 98c3 9f3d 4103 013e
00000050: 06e0 74be c077 31be c78a 9b3d 0a6d 8b3d
00000060: d5d1 debb 7cee a23e 0950 c23d a64c b8be
00000070: 60ff 12bf 1906 023e ab4b e33d 7842 5a3e
00000080: 193b 9fbe e181 0c3e 731b 553e 4010 3fbe
00000090: a447 cc3e 7538 ee3e 1a3d 41bf ba41 0d3e
000000a0: 5dd0 b13e 5629 63bf c40d c9bd 0c17 a1bf
000000b0: a506 363b 26e5 423e 2583 683e 1aef bfbe
000000c0: 443f 293c a283 88bd 3adf 7bbd c256 a83e
000000d0: 341c 2e3f 592d 9c3e f1d0 96be 01bf fa3d
000000e0: d309 113e 5a3f 87be d1d6 de3e e19f ce3d
000000f0: 102b 47bf 592a 11bf 6c8a 083e 23bf 02bf
00000100: 260f 67be 13d7 9a3c 9f30 b6bd 3289 14be
00000110: 30dc 843d 4479 4b3e 344f c13e c9fc 00be
00000120: 46cd b1be ecb8 27bf 525d 5f3e 8658 99be
00000130: 7485 f7be 814d 6f3c e588 d23d 9a55 53bf
00000140: a3b8 81bd 57a8 3e3f 56bc b5be 8637 1d3e
00000150: c889 37be 23f8 68be e4fb 1cbd b25b 58be
00000160: 3f1c 163f 0b53 8d3e 1c2d 1abd f8c6 65bf
00000170: b285 4c3e bf5a 2bbf 7765 1ebe 7df3 0fbe
00000180: 1379 9abd b83b 22be 39cd 16be c738 d43d
00000190: 2602 8b3f dd7c 593e b225 fc3e 0dbb acbf
000001a0: 96f6 4cbd 9192 e33d 9fe6 01be 849f 2a3d
000001b0: f444 313d 050b c43d a430 4d3d 57c6 6ebe
000001c0: bcfb ddbe cd1e 0b3e 8194 7d3e b930 a93e
000001d0: f965 dc3c dd05 f13d e7ab de3e 6ec4 9d3d
000001e0: cf85 87be 68d8 caba be44 6fbe 01c0 793e
000001f0: 43d2 ef3e 23d4 4abe 6647 763e ce5b 053f
00000200: 3001 943d 7d1e a2bd 866c 78bf ec67 c63c
00000210: aa45 83be eac1 5bbe 9603 2dbc 0ad0 793e
00000220: a7de 833d e679 803d 29a3 44be 2f45 f0be
00000230: 3e8d 22bd 22c8 363d 1944 ad3e cfa5 09be
00000240: e1b7 26bd 2581 69bf ddbb 103e dc75 3fbe
00000250: 70f0 ff3e 4ef1 f0bd 3516 39bd 9b29 cb3e
00000260: acb4 613d 7eb0 c9bd beae 8f3e 32e0 a2be
00000270: 67c5 c5be 3039 efbd b383 ce3d acaa 97be
00000280: 24fe 05bf 5308 e1be dc70 c83e b4ae d6be
00000290: 4227 03bf ccbd 0a3d 4eba f2be abd8 9c3d
000002a0: 1861 b23e 255e b43c 3ddb 983a 79ba 10bf
000002b0: 2056 54be f2d7 2cbe 1154 783e bfb8 9c3e
000002c0: 5831 a3be 94d8 cbbe 6f4b e8bd a23c 133d
000002d0: d4c1 263e 98e3 243f e5fc 3ebe 06fc 80be
000002e0: 18a1 003f f2e2 acbe 97f5 90be c825 05bf
000002f0: 5e52 393d 5ce0 51be 2a34 dabe 1c5d efbd
-0.16505495 -0.44228882 0.104365416 -0.37465513 -0.76058537 0.25152183 -0.35665697 0.31005695
0.10676991 0.5481239 0.12762243 0.3440724 0.7973844 0.46735278 0.19364062 0.06844171
-0.63984054 0.072038405 0.078009784 0.12598898 -0.23913583 -0.17330837 0.07594829 0.06807907
-0.0067999163 0.31822574 0.09487922 -0.35995978 -0.5742092 0.12697639 0.11098417 0.21314418
-0.31099775 0.1372142 0.20811252 -0.18658543 0.39898407 0.46527448 -0.7548386 0.13794604
0.3472928 -0.8873495 -0.09817079 -1.2585158 0.0027774957 0.19032726 0.22706278 -0.37487108
0.010330025 -0.06665732 -0.061492182 0.3287869 0.68011785 0.30503348 -0.29456285 0.12243462
0.14163904 -0.2641552 0.43523267 0.10089088 -0.77800083 -0.5670524 0.13334054 -0.510729
-0.22564372 0.018901384 -0.088959925 -0.14505461 0.0648731 0.19870478 0.3775574 -0.1259643
-0.34726924 -0.65516543 0.21812943 -0.2995035 -0.48344004 0.014605881 0.10280017 -0.8255249
-0.06334045 0.74475616 -0.3549525 0.15353212 -0.17923653 -0.22750907 -0.03832616 -0.21128729
0.5863685 0.2760242 -0.037640676 -0.8975673 0.19972876 -0.6693534 -0.15468393 -0.14057727
-0.07542624 -0.15843093 -0.14726724 0.10362392 1.0860031 0.21239038 0.4924751 -1.3494583
-0.05003985 0.1111194 -0.12685631 0.041656032 0.04327865 0.09572414 0.050095215 -0.23317848
-0.4335612 0.13585968 0.24763681 0.33044985 0.026904093 0.117686965 0.43490526 0.077034816
-0.26469275 -0.0015475871 -0.23366067 0.2438965 0.46840104 -0.19807486 0.24050674 0.5209321
0.07226789 -0.079159714 -0.97040594 0.024219476 -0.25639087 -0.21460691 -0.010559937 0.24395767
0.06438952 0.0627325 -0.19202866 -0.46927783 -0.03968548 0.044624455 0.33841017 -0.13442157
-0.040702704 -0.91212684 0.14134164 -0.18697304 0.49988127 -0.11764775 -0.045187194 0.3968018
0.055103943 -0.09848116 0.28063005 -0.31811672 -0.3862717 -0.116808295 0.100837134 -0.296224
-0.5234091 -0.43951663 0.39148605 -0.41930163 -0.5123178 0.03387241 -0.47407764 0.07658514
0.34839702 0.022017548 0.0011662018 -0.56534535 -0.20735979 -0.16879252 0.24250819 0.306097
-0.31873584 -0.39813673 -0.11342513 0.035946496 0.16284877 0.6440978 -0.18651159 -0.2519228
0.5024581 -0.33766896 -0.2831237 -0.52010775 0.045244567 -0.20495743 -0.42617923 -0.11687681

fc1.bias f4 [64]
00000000: 39c4 4440 ab5c 00c0 4ed1 3140 48eb 23c0
00000010: 865e 12c0 d0b2 1b40 f554 4a40 bcf6 5740
00000020: 8683 1cc0 0192 1540 7275 ea3e 7ef1 4540
00000030: 01fc 3b40 e9de 3140 9fdf 26bf db83 3340
00000040: 9b97 6440 a57b 01c0 318c 4140 8911 3c40
00000050: 6238 82c0 e08a 1bc0 4fae 7f40 2d0d 5340
00000060: da3d 41c0 fa5d 6940 5472 0440 ee23 5940
00000070: b4da 4b3f a563 01c0 e87d 48c0 ef70 0b40
00000080: 63f0 2b40 a2fb 28c0 bb99 cebd 018a 6440
00000090: 939f 3c40 3758 5140 3ef3 adbf 5b46 3e40
000000a0: b208 963e 2c9d 4e40 1724 4740 c418 21c0
000000b0: a41a 3e3e 268d 4e40 df7e 1940 71b9 3540
000000c0: df6e 04c0 a254 eabf 574e 5e40 fc25 10c0
000000d0: 4b20 6b40 f429 433e 72df 043f f35a 4340
000000e0: f52b e43f 144d 1cbe d9ff b5bf d1da 3a40
000000f0: f958 74bf 6b56 6cbf 7b8b 9340 8302 0cbf
3.0744765 -2.005656 2.7784 -2.5612354 -2.2870193 2.4327888 3.1614354 3.3744345
-2.4455276 2.3370364 0.4579273 3.0928645 2.937256 2.7792304 -0.6518497 2.8049228
3.5717533 -2.0231717 3.0241816 2.9385703 -4.0693827 -2.4303513 3.995014 3.2976792
-3.0194001 3.6463609 2.069478 3.392818 0.7963059 -2.0217068 -3.1326847 2.178768
2.686547 -2.6403584 -0.100879155 3.570923 2.9472396 3.2710092 -1.3589857 2.9730442
0.2930351 3.228343 3.1115777 -2.5171366 0.1856485 3.227365 2.3983686 2.8394434
-2.069267 -1.8307078 3.4735315 -2.2523184 3.673846 0.19058973 0.5190345 3.052426
1.7825915 -0.15263778 -1.4218704 2.9196055 -0.9544826 -0.92319363 4.6107764 -0.5469133

fc2.weight f4 [64, 64]
00000000: 4ee8 c73e 95fa fcbc 2fe6 0d3e a87e 653b
00000010: ba3c 063e c28c 903e 01a0 c5be 9b6c 043f
00000020: b72c 92bd 7119 d33b 2cd0 47be 7cec d4be
00000030: e753 cfbe 570a c83e 4f15 16bd 6239 d9bd
00000040: c9ee 12be c519 e8bb 8af1 483f 3a16 213f
00000050: 92aa 04bf 7de4 e739 e366 ae3f 530c 30bf
00000060: f2ed 94be 253e f13e defd 42be 5462 6b3f
00000070: 90bc 823d cbdc e23d 4081 b8bd 471b 543e
00000080: a226 75be beb8 3cbe 7c35 963d 81a0 b53e
00000090: 514c a43e 273b c53e 1853 80bc a05f 383e
000000a0: 78bf 1cbd 6dec 3abf df47 903e cdd0 2c3e
000000b0: 005d 143c 94aa 123f 8d55 91bd 7959 32be
000000c0: 53ef eabd 33fd 7dbe 9757 bf3e 8f82 59be
000000d0: 8baa cf3e 40cc 073c 2427 e33d df8b be3e
000000e0: 23b7 c73c 1a6b ae3d 5359 e0bd 183f 8b3e
000000f0: 7af4 9bbe 3618 a1be 9876 8b3f 482a a83d
00000100: c1ac dc3e 40ac 0cbd df0d cc3e 0862 543e
00000110: 5c60 193c fa6b 4d3e bbdd e33d 26c0 193f
00000120: 23e6 1abd 56a5 7e3e 5cf3 d0be 0c2c bfbe
00000130: 5d8c 4ebe 1e46 dd3e 356e 023e 5ccc c53d
00000140: f85f c43d 6323 ce3d ff3c 5f3f 43b5 143f
00000150: 2072 11bf 1692 4abd bf6b c13f a0e9 09bf
00000160: da06 58be 37e9 003f 3d92 90be def0 1e3f
00000170: 3c73 82bd c5ae 5c3e 233b 20be 6fc0 8f3e
00000180: 3d5f c0bd 4d77 963d 252f fcbd c352 073f
00000190: e0ba 8e3e e74b 0e3f c75e 0bbd da75 643e
000001a0: f01d a6bd fea0 2bbf 41db 8e3e f3b5 0cbe
000001b0: 901b f1bd 8c70 013f 0e26 a4bc 55e2 903d
000001c0: f000 26be c287 59be fdb9 133f 7efc dabe
000001d0: 5972 3f3f d74b e63c 92ed 873d b354 f63d
000001e0: 2353 23bd 842c 09bd eb32 b1be 2c47 383e
000001f0: dd6d 29be f653 1fbe 195a ae3f a8d8 a03c
00000200: 616a 373d 0484 fbbd 591f a0be 8f6e a3be
00000210: f3fa a3be 4706 62bd 436a 95bf 9dda 1fbe
00000220: 8b9b 78be f54f 913e a7f6 12bf 965c 913e
00000230: 42ab f7be 2400 653f c5d8 19be 0d3e 46bf
00000240: 6ba3 983f e9de 9bbe ad90 b33e d67f 21be
00000250: 6abd e9be 12f0 f3bd bf29 1b3f e174 81be
00000260: 248c b4be 70f1 713e 91c9 07bf 8814 ce3e
00000270: 8d58 7cbe 9944 5dbe e56c 3abe e190 aabe
00000280: 53be 0dbf 4568 f3be 0325 f9be 0336 0b3d
00000290: 12be 8ebe 7d39 083e c61e 42be e4ec ebbe
000002a0: 4f47 873d 2aa0 e3be b73f afbe 5119 1d3e
000002b0: 0289 45bc b453 32be c692 4c3e b60a 253f
000002c0: 6aed 0fbe acec cbbd e8e8 0abe 2ec1 2cbe
000002d0: e365 0c3e c814 20bd 1c47 fdbd 9b25 52be
000002e0: 73b2 23bf e040 bc3b 70a0 9cbe a6af 173e
000002f0: efc9 56bf f9b1 d3be 76fd 6c3f cc27 d0bd
00000300: a165 5a3f 8fbe a6bd 231d 493f 37be 153f
00000310: 81e0 ce3e 4ac4 483f 25d7 1fbf 8d81 7b3f
00000320: c54b 4e3e d019 643f ba8a 03bd 1923 60bf
00000330: ed10 70bf 8293 b0bf f168 5b3c 0cbe 51bf
00000340: 0893 f0bf 5757 ff3e 75d2 613f a0a8 713f
00000350: ea4f 33bf 0be1 c43e 263c 9f3f 385e 05be
00000360: c553 0cbd f1e6 3b3f e006 903e 1a2b 603f
00000370: f013 9d3e d249 993e bdc1 333e c336 3f3f
00000380: cdb4 86bd a541 ab3e f386 f43d e145 253f
00000390: 6c1c 5f3f 6da3 593f bfd9 d53e 30b4 823f
000003a0: 305f 123e 6754 5c3e d75c 5f3f f111 5abc
000003b0: e6aa c0bd ce92 3b3f 8c54 f6be a3d4 9cbf
000003c0: 3244 9c3d 1d56 933e fb0f 573f dc23 e9be
000003d0: 4eee 453f 1cac 29bd 34c7 393d 60c8 4a3f
000003e0: e9b7 1a3f 7a4c da3d 3775 0f3c b822 d43e
000003f0: f282 8e39 4d95 02be 89bf 6a3f 8830 05bd
0.39044422 -0.030881206 0.1385734 0.003501812 0.13109103 0.2823239 -0.38598636 0.5172822
-0.07137435 0.006442242 -0.19513005 -0.41586673 -0.404937 0.3907039 -0.036641415 -0.10606648
-0.14348902 -0.00708315 0.7849356 0.6292454 -0.5182277 0.0004422999 1.3625149 -0.68768805
-0.29087788 0.47117725 -0.19042155 0.9194691 0.06383622 0.11077269 -0.090090275 0.2071353
-0.23940518 -0.18429849 0.0733442 0.35474017 0.32089475 0.38521692 -0.015664622 0.18005228
-0.038268536 -0.7301701 0.28179833 0.16876526 0.009055376 0.5729153 -0.07096396 -0.17416944
-0.11471429 -0.24803619 0.37371513 -0.2124121 0.405598 0.008288443 0.1109145 0.37216088
0.024379319 0.08516522 -0.10954537 0.27196574 -0.30459958 -0.31463784 1.0895567 0.082111895
0.4310055 -0.034343958 0.39854333 0.20740521 0.009361353 0.20060721 0.11126276 0.6005882
-0.03781713 0.24867758 -0.40810668 -0.37338293 -0.20170732 0.43217558 0.12737353 0.09658119
0.09588617 0.10065343 0.8720245 0.58089083 -0.56814766 -0.049455725 1.5111006 -0.5387211
-0.21096364 0.5035586 -0.2823657 0.62086284 -0.063696355 0.21551044 -0.15647559 0.28076503
-0.09393165 0.073469736 -0.123136796 0.5286066 0.2787695 0.5558457 -0.034025934 0.22310582
-0.08111179 -0.6704253 0.27901652 -0.13741283 -0.11772835 0.5056236 -0.020037677 0.070744194
-0.16211295 -0.21243194 0.5770567 -0.4277076 0.74783856 0.028112335 0.0663711 0.12027874
-0.039874207 -0.03348972 -0.3460916 0.179959 -0.16545816 -0.15559372 1.3621246 0.01963456
0.044779185 -0.12281039 -0.31273916 -0.31920287 -0.32027397 -0.055181768 -1.1673054 -0.15610738
-0.24278085 0.28381315 -0.5740761 0.2839095 -0.48372847 0.8945334 -0.15024097 -0.7743843
1.1924871 -0.30443504 0.35071316 -0.15771422 -0.45652324 -0.11911024 0.60610574 -0.25284484
-0.3526317 0.23627257 -0.5304194 0.4025004 -0.24643154 -0.21608199 -0.18205602 -0.3331366
-0.55368537 -0.4754049 -0.4866105 0.033987056 -0.27879387 0.1330318 -0.18957052 -0.4607917
0.06605398 -0.44458133 -0.34228298 0.15341689 -0.012056591 -0.17414743 0.19977865 0.6446947
-0.1405541 -0.09957251 -0.13565409 -0.16870567 0.13710742 -0.03908232 -0.12367079 -0.20522158
-0.63944167 0.0057450384 -0.30591154 0.14813098 -0.83901876 -0.4134672 0.9257425 -0.10163841
0.85311323 -0.08141815 0.78560084 0.5849337 0.40405658 0.78424513 -0.6243766 0.98244554
0.20146091 0.89101887 -0.03211472 -0.87553555 -0.93775827 -1.3795016 0.013391719 -0.81930614
-1.879487 0.49871323 0.88211757 0.94397926 -0.70043814 0.38452944 1.2440231 -0.13024223
-0.034259576 0.73399264 0.28130245 0.8756577 0.30679274 0.29939133 0.17554374 0.74692935
-0.06577454 0.3344852 0.11939802 0.6455975 0.87152743 0.8501499 0.4176769 1.0211239
0.14294124 0.21516572 0.8725104 -0.013309942 -0.09407596 0.7327088 -0.4811138 -1.2252392
0.07630195 0.28776637 0.8400876 -0.4553517 0.7731675 -0.041423902 0.04535599 0.79212
0.60436875 0.10659118 0.008755974 0.41432738 0.00027181912 -0.12752266 0.9169851 -0.032516986

fc2.bias f4 [64]
00000000: bb06 1440 aca2 2340 c4b7 b83f 23e6 8d3f
00000010: 7bd6 a63f 5dae b53d 0edc e63f c501 ac3d
00000020: d1f0 8a3c 3432 9d3f f233 94bd 885a 7b3c
00000030: 7174 1040 0009 dc3f a796 b7bb 97c5 963f
00000040: e023 09bd 04b7 76bd 9786 ef3f 8a91 ce3c
00000050: 0f89 9abc 6933 dfbd d40c ac3f bf6b 53bd
00000060: ff0f c83f 0050 9f38 599a 55bd 96a9 0840
00000070: 9846 e13f 03c6 393f add6 1040 a7fd c9bf
00000080: 8098 c9bd 340e b53d 4d20 d23f 0550 e4bd
00000090: 8e79 d2bd 2032 133d 513c 573d 0074 5ebe
000000a0: 8723 dd3f 6caf 8c3f f45c 0140 a48b 8abe
000000b0: 3c66 343d 7a97 313c e06b b93f a955 c8be
000000c0: 5cef 64bf 63f2 ef3f 4546 2bbd 1262 fdbd
000000d0: 764a 0a40 0462 d63f df1b 0940 af2b 1240
000000e0: 7835 3abf 1cd4 0440 0d1d 103c 8837 c1bb
000000f0: 6933 dfbd 6cd0 bd3c 06d7 c83f ffee a93f
2.3129108 2.5568037 1.4431081 1.1085857 1.3034204 0.08871148 1.8035905 0.08398775
0.016960533 1.2280946 -0.0723647 0.015341409 2.257107 1.7190247 -0.005602676 1.177905
-0.03348148 -0.06023313 1.8712949 0.025215883 -0.018864183 -0.108984776 1.3441415 -0.051616427
1.5629882 7.596612e-05 -0.05214915 2.1353507 1.7599669 0.72567767 2.2631028 -1.5780534
-0.0984354 0.088406 1.6416107 -0.11148075 -0.10277091 0.035936475 0.052547757 -0.21723938
1.7276467 1.0991035 2.0212984 -0.27059662 0.04404281 0.0108393375 1.4486046 -0.39127854
-0.89427733 1.8745846 -0.04181506 -0.12372221 2.1607947 1.6748662 2.142326 2.2839162
-0.72737837 2.0754461 0.008795989 -0.0058965124 -0.108984776 0.023170672 1.569062 1.3276061

fc3.weight f4 [20, 64]
00000000: cb64 f33e f22a 343f ae62 993b 5767 3c3e
00000010: c2ea 5b3d 4347 323d 0d8a 693d b8bd b7bc
00000020: c6b0 87bd 68c3 87bf c0e3 fd3b c0e1 57bc
00000030: a5dc 153f 12e5 91be 7b98 ff3b 038d 4c3d
00000040: f8b9 873d eef7 48bc 8f3a 583e 170f cbbd
00000050: fe0d d3bd 4f2c e83c 6ee5 dc3d 38e8 af3c
00000060: 9a0d 133f acad b23d fda1 483d 160d 8ebf
00000070: b5b5 893e 11cb cfbc f1b3 533f a244 febe
00000080: 101c a73c dc1b eebc 555e f23d 9132 1ebd
00000090: 203e b4bc 28a2 55bd 4003 4fbc 4169 1ebd
000000a0: 556b 183f c0e5 913e 0091 0b3f 3bbe 8f3d
000000b0: 9fbb b8bd c0cf 8cbc 9f48 a63d c9bf 4abc
000000c0: 48e5 21be b5f9 9b3e 408c 76bc 788d c1bc
000000d0: 0361 dd3e 8fab 6d3e 0e38 173f bbaa 2e3f
000000e0: f5d9 82be d41c 4f3f 682c 923c c0e2 56bc
000000f0: 3ed3 edbd 2731 533d d4a4 acbf a04d 353f
00000100: 85ad 003f a8c7 473f 67b8 003d 49b3 bd3e
00000110: fe1e 2a3d 8621 53bb ab03 953e e7e4 6f3d
00000120: d463 e23c ca88 05bf 43ca 31bd 9274 f7bd
00000130: d119 053f 8ffb 8dbe d471 aebd 4841 623e
00000140: d8da a8bc 147b 0e3d ad02 853e c0ca 113d
00000150: c2a3 f4bc 614d e93c 05ad da3e 509e 4d3c
00000160: 9ff0 fa3c 0a2e b83d 8586 10bd cd31 89bf
00000170: 174b 6a3e 10eb 45be f341 ca3e 132d 46be
00000180: c023 0ebc a1e2 9c3d a61d a9bd 15af be3c
00000190: 8e2b 993d f864 2f3d acf9 523d c7f4 613c
000001a0: 9223 f23e e642 7b3e 3442 293f 7560 58bd
000001b0: 5dd0 213c b657 2c3d 6fdc 213e 915e 553e
000001c0: 6829 d1bd b7d7 733e 6cd8 2f3d 52fc a9bd
000001d0: 8709 c23e 965d 6f3e 9a3f 963e 368b 1d3f
000001e0: c746 a4bd 6ec1 d73e ca8d 943d 085a d4bd
000001f0: 2611 a9bd a5ed 5a3c 5710 48bf 663f 293f
00000200: a08d 153f 5851 173f 9a5b e93d 47fa ac3e
00000210: 88cd bf3e 1233 45bd 725e 613e 0ef6 abbb
00000220: 7a6d 8a3d b870 dcbe ba39 313b 40d0 4b3d
00000230: 0a11 1d3f 23cc b1be 00aa ecb9 8fd4 8f3e
00000240: 724e a83d 219e 9d3d db27 4b3e c866 b03d
00000250: 69a5 e83c 09fe b83d 4527 d93e 4f43 ddbc
00000260: 5702 bb3c ee5e dbbd 3d44 483d 2cdd 6cbf
00000270: 85fb 803e 96ef a7be 08a4 ea3e 60e1 debe
00000280: 13f3 963d aefa adbd 9334 b43d 80fd b2bc
00000290: 431a 4f3d d6c3 ee3d f48b 413d 4f1f 1c3e
000002a0: d301 ee3e 4415 983e 6b8a ce3e bc6c 8e3e
000002b0: 6f6a 793d b6de cdbd 6bd0 0f3d b35a b53c
000002c0: 317e ec3d 56c6 823e 9c4e c9bd 0166 8bbb
000002d0: c3e6 a93e 6317 2b3e 8bba de3e 31cd 1c3f
000002e0: 2f0c 333e 49d1 013f 7c9c a93d 68ff ae3d
000002f0: 0eb8 52bd 865f ac3d 7ced 49bf 02b6 213f
00000300: 9310 e83e 7b34 1c3f 124b de3e d54d f03e
00000310: 1e39 4c3d ea65 e13d d6c1 80bd 5b75 0dbd
00000320: 8ec7 a93d 90ac 06bf f0a2 fa3c 8c85 64bd
00000330: 371a e63e e293 ebbe f1d2 80bb cf37 383e
00000340: 3c84 b6bd 6328 a1bd b2b5 5d3e f990 0b3d
00000350: c6b8 db3d 693c 01bc 48a8 303e aa97 e43d
00000360: 5b29 e13c c0dc ce3d 8218 eabd 2de6 61bf
00000370: 38cd 353e bf7b eabd 5d3d c53e 4501 853d
00000380: c070 cbbd 5275 ad3d 7ff0 ef3e acac ec3d
00000390: bb22 3c3c 1e9f a4bd f0df 02bd 74f5 5a3e
000003a0: c93b f93e 6c19 513f edc5 c63e 6045 c6bd
000003b0: f544 d13d c014 fa3b e82b 753e ed8b cabd
000003c0: 18ea 9bbe ccd3 983e ee60 f8bd b9f0 e0bd
000003d0: 6082 af3e acd8 3e3e 401b d13e d784 253f
000003e0: 382b 503e 6f66 883e e0c7 0cbd 92e3 97bd
000003f0: 61bf f23d 73d2 20bd f752 0ebf f3f2 3f3f
0.47537836 0.7037803 0.004680953 0.18398796 0.05369068 0.04352499 0.05701642 -0.022429332
-0.06625514 -1.0606508 0.007748097 -0.013176382 0.585398 -0.2849508 0.0078001595 0.049939167
0.066272676 -0.012266142 0.21116088 -0.099149875 -0.10305403 0.02834144 0.10785948 0.021473035
0.5744263 0.087245315 0.04898261 -1.1097744 0.26896444 -0.025365384 0.82696444 -0.49661738
0.020399123 -0.029066019 0.11834399 -0.038622443 -0.02200228 -0.052156597 -0.012635052 -0.038674597
0.59538776 0.28495598 0.5451813 0.070187055 -0.09020161 -0.017188907 0.0811932 -0.012374827
-0.1581012 0.3046395 -0.015048087 -0.023627028 0.43238077 0.23209976 0.5906991 0.68229264
-0.25556913 0.80903363 0.01784344 -0.013115585 -0.11612557 0.051560547 -1.3487802 0.7082157
0.5026477 0.78039026 0.03142586 0.37050846 0.041533463 -0.0032216026 0.2910436 0.058567908
0.027635492 -0.5216185 -0.043405782 -0.12082781 0.5199252 -0.27730986 -0.08517805 0.22095215
-0.020612165 0.034785345 0.25978604 0.035593748 -0.029863242 0.02847928 0.42710128 0.012549952
0.030632315 0.08993156 -0.035284538 -1.0718323 0.22880207 -0.1932795 0.3950344 -0.19353132
-0.008675516 0.076604135 -0.08257608 0.023276845 0.074790105 0.0428209 0.051507637 0.01379127
0.47292763 0.24537238 0.6611664 -0.052826364 0.009876338 0.042075835 0.15806745 0.20836855
-0.10212976 0.23812757 0.042931005 -0.083000794 0.37897894 0.23375544 0.293454 0.61540544
-0.08021312 0.42139763 0.072536066 -0.103687346 -0.08255224 0.013362323 -0.7814993 0.66112363
0.5841923 0.59108496 0.11394425 0.33784696 0.37461495 -0.048144408 0.22008684 -0.005247838
0.06759162 -0.43054748 0.0027042464 0.04975915 0.61354125 -0.34726056 -0.00045140088 0.28091857
0.08218087 0.07696176 0.19839422 0.08613354 0.028399186 0.09032828 0.42412773 -0.027009634
0.022828264 -0.10711466 0.048893202 -0.9252498 0.25191894 -0.32799977 0.4582827 -0.43531322
0.073705815 -0.08495079 0.0879909 -0.021849394 0.050562155 0.116584465 0.04725261 0.15246318
0.46485767 0.29703724 0.4033998 0.27817333 0.06089252 -0.10052244 0.035110872 0.022137975
0.115475066 0.25541943 -0.09829447 -0.004254103 0.3318387 0.1670814 0.43501696 0.612506
0.17485116 0.5070997 0.082818 0.085448086 -0.05144506 0.08416657 -0.78878 0.63168347
0.45325145 0.6101758 0.4341665 0.4693438 0.04985916 0.11005767 -0.06286971 -0.034535747
0.08290015 -0.5260706 0.030595273 -0.055791423 0.44941875 -0.46011263 -0.003931396 0.1799004
-0.089119405 -0.07869031 0.21651343 0.034073804 0.10728602 -0.007887938 0.17251694 0.1116174
0.02748554 0.101006985 -0.11430456 -0.88241845 0.17754066 -0.11449384 0.3852338 0.06494383
-0.09933615 0.08469643 0.4686317 0.11556372 0.01148289 -0.08038162 -0.031951845 0.21382695
0.48678425 0.81679416 0.3882288 -0.09681201 0.10218231 0.007631868 0.2394253 -0.0988997
-0.30452037 0.29849088 -0.12127863 -0.10983414 0.34279156 0.18637341 0.40841103 0.6465582
0.20328987 0.2664065 -0.034370303 -0.074164525 0.11852909 -0.0392632 -0.55595344 0.74980086

fc3.bias f4 [20]
00000000: 8f3c 0e40 805b 4e3f a745 103f d292 1d3f
00000010: cef6 143f 7dd5 173f 6a10 d73e 5ca6 c63e
00000020: 4b16 9a3e 1b29 a43e 9b5a 5d3e 7a4a b13d
00000030: 6988 943c 5145 373e 6043 d0bd 70d2 5dbe
00000040: 6a4e 623c e61b 57be 51ec 2dbe 2060 acbe
2.2224462 0.8060837 0.5635628 0.61552155 0.58189094 0.5931013 0.4200471 0.38798797
0.30095133 0.3206261 0.21616594 0.086567834 0.018131452 0.17897536 -0.10169101 -0.21662307
0.013812641 -0.21006736 -0.16984679 -0.33667088

exp_avg f4 [64, 3]
00000000: 1c52 0ec0 2f2e b5be 1cbc 36c1 300f 803f
00000010: cd42 a03d da81 76bf 7778 cbc0 eba9 e2c0
00000020: 2438 a4c1 b2ff a8c0 fbce 29c1 9e59 aac1
00000030: 0fa0 8dc0 5905 1cc1 2d14 95c1 1cd3 0b3f
00000040: c145 34be 10ec dfc0 5247 1041 ff1e 5d41
00000050: 26c0 a741 73da 34c1 5bfd 52c1 9b88 2dc2
00000060: 6e39 d6be 8f82 45c0 78a7 aec0 0125 87bf
00000070: 5182 f7bf e3b5 83c1 a5ff 293f 54ff d53f
00000080: 5475 503f 1f0c 6e41 7b3a d641 4009 0842
00000090: 3023 0d41 39e5 5641 f9ff 4d41 96c3 a23e
000000a0: c08e 173e c3c4 0c3f 0400 0080 0400 0080
000000b0: 0400 0000 621e 9f40 d8d7 f740 fa12 fe40
000000c0: f0c7 d241 24a2 4542 2edf b542 a673 a9c0
000000d0: a868 3cc1 ead5 d0c1 1f95 43c1 1056 60c1
000000e0: 2f9e 3ec2 92c2 2fc1 0157 5bc1 92a0 26c2
000000f0: 82b8 4b3d 5c31 9bbf a330 1141 0400 0000
00000100: 0400 0000 0400 0000 a13f a8c1 12a9 c3c1
00000110: 3ba5 bec2 dc28 5c41 d9fd f041 f7d8 6742
00000120: 9fec f73f 0025 0bbf e2e3 c13f 9914 713c
00000130: 809b 393e e715 a4c0 a108 793f e020 2b3e
00000140: c37a 873f 79ce 68c1 06ff 96c1 211d 72c2
00000150: 0400 0080 0400 0080 0400 0080 d26b 22c0
00000160: 2940 d2c0 e569 7dc1 d865 7c3f ffb4 5e3f
00000170: 28e2 eb40 0af8 65b1 f115 c9b2 0af8 65b1
00000180: cfd1 a23e 592e 81bf faa6 793e 9949 57c0
00000190: 7e66 09c1 a18b 7cc1 0b1d 00bb 3fdc 67bb
000001a0: 4d4f 00bd 61f5 0ec1 9ed7 1bc1 7332 0dc2
000001b0: cebc 13c1 6b20 2dc1 08a4 fbc1 2c66 09c0
000001c0: 82fb 3bbf 0465 7bc1 e5b0 fdbf ab49 6ac0
000001d0: b293 6ec0 f7ca 10c1 9517 3ac1 085f 01c2
000001e0: 0400 0000 0400 0000 0400 0000 e2ff 2741
000001f0: e621 b441 c343 1042 c993 1dc1 53f6 55c1
00000200: 4fb2 20c2 0400 0000 0400 0000 0400 0000
00000210: 0000 0000 0000 0000 0400 0000 b94b 26c1
00000220: 81a4 4dc1 cafa 24c2 85dc 003c c74a c13c
00000230: 3935 293e 11cf 7e41 3517 cf41 6209 2c42
00000240: 99f7 c33d fe7f fd3d ed9e ca3f 4d9e a13f
00000250: 0586 1640 32f3 1740 164a 1fc1 245f 4dc1
00000260: b6c8 24c2 5364 2cbe f5e0 b1bf c41a 68be
00000270: 0d50 9ac0 c229 76c0 38bd bdc1 0000 0000
00000280: 0000 0000 0000 0000 0000 0000 0000 0000
00000290: 0000 0000 c2d5 f6bf 095d dbbe e6ab eac0
000002a0: 3e96 35c0 1c38 5ac0 b1f0 6fc0 0000 0000
000002b0: 0000 0000 0000 0000 05cd 013d 40db 103e
000002c0: 1421 ed3c 97dd 103e 43ea 8e3f a243 4640
000002d0: 45c6 283f 02e4 113f 2254 253f 57a1 ac3d
000002e0: 5d0a b93e 4090 6c3e 81b8 483f 7a60 60bf
000002f0: a0cc a6c1 0000 0000 0000 0000 0000 0000
-2.2237616 -0.35386798 -11.420925 1.0004635 0.07825241 -0.9629189 -6.358455 -7.083242
-20.527412 -5.281213 -10.613032 -21.293758 -4.4257884 -9.751306 -18.634851 0.54619
-0.17604734 -6.997566 9.017412 13.820067 20.968822 -11.303332 -13.186854 -43.383404
-0.4184069 -3.0860937 -5.457943 -1.0558168 -1.9336644 -16.463812 0.6640571 1.6718545
0.8142903 14.877959 26.778555 34.009033 8.821091 13.430963 12.874993 0.31789845
0.14800549 0.54987735 -6e-45 -6e-45 6e-45 4.972459 7.745098 7.9398165
26.347626 49.40834 90.9359 -5.2953672 -11.775551 -26.10445 -12.2239065 -14.021011
-47.654476 -10.9850025 -13.708741 -41.656807 0.049736507 -1.2124438 9.074374 6e-45
6e-45 6e-45 -21.031069 -24.457554 -95.322716 13.759975 30.12395 57.96188
1.9369086 -0.5435333 1.5147669 0.0147143835 0.18125725 -5.1276736 0.9727879 0.1671176
1.0584339 -14.550408 -18.874523 -60.528446 -6e-45 -6e-45 -6e-45 -2.5378308
-6.570332 -15.838353 0.985929 0.8699493 7.371357 -3.346488e-09 -2.3409457e-08 -3.346488e-09
0.31800696 -1.0092269 0.24380103 -3.363867 -8.5875225 -15.784089 -0.001954856 -0.003537908
-0.031325627 -8.934907 -9.740141 -35.299267 -9.233595 -10.820415 -31.455093 -2.146861
-0.73430645 -15.712162 -1.9819609 -3.6607463 -3.7277646 -9.049552 -11.630757 -32.342804
6e-45 6e-45 6e-45 10.499971 22.516552 36.066174 -9.84858 -13.372638
-40.17413 6e-45 6e-45 6e-45 0.0 0.0 6e-45 -10.393487
-12.852662 -41.24491 0.007865076 0.023595227 0.16524209 15.925553 25.886332 43.009163
0.0956871 0.12377928 1.582975 1.2626435 2.35193 2.3742185 -9.955587 -12.835728
-41.196007 -0.16835146 -1.3896776 -0.2266646 -4.822272 -3.8462987 -23.717392 0.0
0.0 0.0 0.0 0.0 0.0 -1.9283984 -0.42844418 -7.3334837
-2.837295 -3.4096746 -3.7490656 0.0 0.0 0.0 0.031689662 0.14146137
0.028946437 0.1414703 1.1165241 3.097878 0.65927535 0.5698854 0.645815 0.08429211
0.3614072 0.23101902 0.7840653 -0.8764721 -20.849915 0.0 0.0 0.0

exp_avg_sq f4 [64, 3]
00000000: 762f 7a42 e96e f742 cc07 8246 d153 7e41
00000010: d584 9643 18d3 7346 8998 6a44 3547 8c44
00000020: f218 0747 b5ed 2745 07e2 3745 d2ad 5f46
00000030: 9427 1d45 66b7 2f45 1646 4a46 3385 2243
00000040: 9ddc 8842 2665 9445 8c13 8f45 d1fa 8245
00000050: abeb 1546 17e3 6745 e33f 8445 8464 fc47
00000060: ee74 7c43 7508 9743 0830 ad44 0655 b741
00000070: e50b 6943 7d4d c446 9192 5643 6964 a943
00000080: 0833 8343 021d 9f46 5013 8f46 83f0 2f47
00000090: ae68 d745 723e 0146 7882 1546 0eb9 9242
000000a0: 98f0 9243 4be9 c342 e3c7 9132 a155 8432
000000b0: faa4 1138 9a6f e144 0714 f844 f155 3c45
000000c0: 1d4b 1a47 3981 1647 f395 c647 92fb 5745
000000d0: 7be0 6d45 a704 b846 19db 8645 ea6b 9d45
000000e0: 8297 2148 70fd 7345 c796 8c45 8136 e247
000000f0: 25c3 6d41 9647 a643 8462 be47 bbbb 4a24
00000100: 7182 0b27 4cbb 0a2b b156 5b46 f14e 8446
00000110: 1148 2349 d61b af46 7ba4 b046 9fde c047
00000120: ef5e d741 074b d842 f8cd d745 8fc2 ab3f
00000130: 89a6 f941 9bf5 5046 a2d1 2841 41ee 9a3e
00000140: 76e0 9941 018a 0146 2636 1446 0c45 7348
00000150: b2df e235 1939 db36 32ff 4739 71cb 8a44
00000160: 2e94 9f44 f9ee 1746 4a0a d540 f82e e141
00000170: dc1d 2a45 4443 9f39 8700 ca3c 51a8 3c3a
00000180: 1a6d f141 e557 0243 6c43 2442 538b f544
00000190: 73bc 0a45 0fd6 1846 ce68 cb40 b3d4 b63e
000001a0: 02a5 8f41 e23b 0545 b9d2 1745 9fd2 b047
000001b0: 042f 1045 9233 1a45 e8b0 4f47 81cc 7b42
000001c0: 1542 5443 6c25 e346 6ac5 c443 10b3 e343
000001d0: 8670 8444 fa6c 2645 3742 3745 c99b 5947
000001e0: f401 0000 f401 0000 f401 0000 cdaf 8b46
000001f0: 72d3 8046 d7fa 4447 a13d 6e45 6d76 8845
00000200: 378c bb47 7868 921f 01b9 bb20 1606 b225
00000210: 0000 0000 0000 0000 f401 0000 2a4b 6c45
00000220: 7358 8745 d2f7 e147 0e52 da3d a710 943e
00000230: 6523 2544 42c3 2746 5527 2146 60ae ce46
00000240: c784 ef3f 15ae 3640 d890 e643 acc7 ba41
00000250: d4d3 8142 5268 d842 88b2 6e45 90d3 8745
00000260: 9394 d947 e8a0 833f cc95 c541 dc88 ec3f
00000270: 8aaf 9543 621a 2044 cce3 6447 0000 0000
00000280: 0000 0000 0000 0000 0000 0000 0000 0000
00000290: 0000 0000 af15 9042 a70e 6c42 78c7 c345
000002a0: 290f 8e43 9526 9d43 d778 4144 0000 0000
000002b0: 0000 0000 0000 0000 23ab 5640 1749 8e40
000002c0: 8a04 7940 8ddb 5240 16bf 7e42 37b7 2245
000002d0: 8763 a241 ef0a 7741 2149 6242 3f6f fa40
000002e0: f528 8a42 45e0 0542 27d3 0f43 3646 9a44
000002f0: d2b7 6b48 0000 0000 0000 0000 0000 0000
62.54635 123.71662 16643.898 15.895463 301.03775 15604.773 938.38336 1122.2252
34584.945 2686.8567 2942.1267 14315.455 2514.4736 2811.4624 12945.521 162.52031
68.430885 4748.6436 4578.4434 4191.352 9594.917 3710.193 4231.986 129225.03
252.45676 302.06607 1385.501 22.916515 233.04646 25126.744 214.57253 338.78445
262.39868 20366.504 18313.656 45040.51 6893.085 8271.611 9568.617 73.361435
293.87964 97.95565 1.697112e-08 1.5405762e-08 3.472434e-05 1803.4875 1984.6259 3013.3713
39499.113 38529.223 101675.9 3455.7231 3806.03 23554.326 4315.387 5037.4893
165470.03 3903.8398 4498.847 115821.01 14.860143 332.55927 97477.03 4.3960782e-17
1.9360837e-15 4.9287375e-13 14037.673 16935.47 668801.06 22413.918 22610.24 98749.24
26.921354 108.14654 6905.746 1.341875 31.206316 13373.401 10.55118 0.30259898
19.2346 8290.501 9485.537 249108.19 1.6903416e-06 6.5333556e-06 0.00019073187 1110.3575
1276.6306 9723.743 6.657506 28.147934 2721.8662 0.0003037696 0.024658455 0.0007196712
30.178272 130.34334 41.06584 1964.3539 2219.778 9781.515 6.3565435 0.35709152
17.95557 2131.7427 2429.1702 90533.24 2306.9385 2467.2231 53168.906 62.94971
212.25813 29074.71 393.5423 455.39893 1059.5164 2662.811 2932.1384 55707.785
7e-43 7e-43 7e-43 17879.9 16489.723 50426.84 3811.8518 4366.803
96024.43 6.2006234e-20 3.1801458e-19 3.0882202e-16 0.0 0.0 7e-43 3780.6978
4331.056 115695.64 0.10660182 0.28918955 660.55304 10736.814 10313.833 26455.188
1.8712395 2.8543751 461.1316 23.347496 64.91373 108.20375 3819.1582 4346.4453
111401.15 1.028348 24.698143 1.8479266 299.3714 640.41223 58595.797 0.0
0.0 0.0 0.0 0.0 0.0 72.04235 59.01431 6264.9336
284.11844 314.30142 773.8881 0.0 0.0 0.0 3.3541954 4.446422
3.890902 3.2946503 63.686607 2603.451 20.298597 15.440169 56.571415 7.82608
69.079994 33.469013 143.82481 1234.1941 241375.28 0.0 0.0 0.0
