beer/experiments/MA_0.05/models/dqn_agent_firm_2_episode_3000.pth (torch, 101224 bytes, 24 tensors)

fc1.weight f4 [64, 3]
00000000: 349c 1a3e 11fc 79bf 821b 143f 0dde 93be
00000010: f461 69be a1fe 0cbf 2088 55be 0f6d 6a3f
00000020: 8c38 9cbb 00b2 f43e 555f 95be daec 013e
00000030: 8053 523e 6f6d 03bf 0bc8 97be 7119 f03d
00000040: 2501 c43f 4238 1dbd 0254 c6bd 3993 b3be
00000050: 431f 063f 6614 76bf 5011 8c3e 5dd1 9d3d
00000060: 05db cb3e f6b3 c13f 1f29 7bbc a0c8 a4be
00000070: a3de 8e3e fae6 dd3e 6c02 edbe 38fd 11bf
00000080: e8d8 b23e 0e84 353d d97e 293f 2dce 29bd
00000090: 0fdd 8f3e bd6c c7bf 5348 f13e 2b5f 11bd
000000a0: cb65 de3f 86f6 00be 6478 44be ca6e bcbe
000000b0: ecda e3be e40d 8d3d 75ed 303f e463 a3be
000000c0: 60a3 003f c061 9ebf 4ab6 533e 8118 7a3e
000000d0: c829 473e d768 39be 21a8 14bd 6ff0 bdbd
000000e0: e60d e53e 40e6 273e 9293 ea3e e7b0 09bd
000000f0: 29c7 babd b055 3b3f e50c 903d e0b5 a4be
00000100: e970 4c3f c675 2b3d 40a0 55bc ac3a e5bd
00000110: 5db6 00bf b11d 3c3f ea57 85bf 08db c23e
00000120: 2fec 813f b482 03bf 7d3b 2f3e 7536 583d
00000130: 7229 e63f 8f25 d1bc 18aa a83e 488e 70be
00000140: 68e3 983d ee2c 433f 498b 54bd 4f9e b3be
00000150: eff8 9a3f 1095 df3e 9c0e ccbc e20f 943d
00000160: 53c2 0b3e 6619 a63e 33e1 8f3e cf34 02be
00000170: 81e2 8c3e 6b59 b13d 9497 56bf b3f4 c73e
00000180: 46ad 51be bdff c8bf 720c 303e 8384 c1bd
00000190: 102b 653f 361e afbc 6125 933e a2e5 823f
000001a0: 041a fbbc 6f81 2ebf e644 2f3f b06b 30be
000001b0: 17c5 053e 61ef bfbf 529e e13e 1020 06bf
000001c0: 408c e0be ff0e b6be 62cc d53c 8a29 aabe
000001d0: 92e5 2e3e 7fc1 193f 6595 c2be bbdb 7f3d
000001e0: 8055 8cbb 1814 2dbe 83b7 ddbe 419f 773e
000001f0: a1d6 033f 987e f8bc f9cc 87be 8380 0a3d
00000200: 3db6 5c3e 4aa9 f0bc db13 4d3f dbaa 04be
00000210: d70b e13c e805 d73f e7af 34bd a8cf 1a3e
00000220: b0b5 cf3d ce41 b23e f490 453e b595 c1be
00000230: b18a 13bf 60f0 913c 82ea f63f cc45 18bd
00000240: c770 913e 5bfd d83e 8ae1 2e3d 6027 393f
00000250: dbfd efbd 066f 02bd 10dd 903d 741a b9be
00000260: c042 3dbe 1b2a 0d3f 8e8d 813c 5ff5 3c3e
00000270: 1e63 d9be 5f2b 6bbf 5020 aa3e 6600 3dbe
00000280: 6a28 633f 0597 3dbc aafb 31be c54a a8be
00000290: 1c01 513e 6faa 7e3f 6218 84be 5455 303e
000002a0: 781b 9b3e 0934 cc3e dc32 abbe e022 be3d
000002b0: 9e3e 5cbe 65b1 02bf 47b1 a2be 3287 4dbf
000002c0: 9e53 8b3e 292b e43e fe31 1abe fe9a cf3e
000002d0: 4162 213e 7898 703f 08d1 32bd 8a87 e8be
000002e0: 7633 543f 4777 a43d 9ac9 94be 3455 e4be
000002f0: 8720 bbbe 496a 973e af8e 9a3e 1d9e cabc
0.1509865 -0.9765025 0.57854474 -0.2888035 -0.22791272 -0.5507603 -0.20852709 0.9157266
-0.004767483 0.47792053 -0.29174295 0.12688008 0.20539665 -0.5133886 -0.29644808 0.117236026
1.5312849 -0.03838373 -0.09683992 -0.3507326 0.5239145 -0.96124876 0.27356958 0.077059485
0.39815536 1.5133045 -0.015329628 -0.32184315 0.27904233 0.43340284 -0.4629091 -0.57027006
0.3493111 0.04431539 0.6620918 -0.04145639 0.28098342 -1.5580059 0.47125491 -0.03549115
1.7374815 -0.12594041 -0.1918655 -0.36803275 -0.44502962 0.06887415 0.6911233 -0.31912148
0.5024929 -1.2373581 0.20675007 0.2442341 0.19449532 -0.181064 -0.036293153 -0.09274375
0.44737166 0.16396427 0.45815712 -0.033615973 -0.09120018 0.73177624 0.070337094 -0.3217001
0.7985979 0.041860364 -0.013038695 -0.111928314 -0.50278264 0.73482805 -1.0417454 0.38057733
1.0150203 -0.5137131 0.17112537 0.05278631 1.7981398 -0.025530605 0.3294227 -0.23491776
0.07465249 0.7624043 -0.051890645 -0.35081717 1.2107219 0.43668413 -0.02490931 0.07229592
0.13648348 0.32441252 0.281015 -0.12715457 0.2751656 0.08659633 -0.8382504 0.39053878
-0.20476255 -1.5703045 0.17192248 -0.09449103 0.89518833 -0.02137671 0.28739455 1.0226328
-0.030652054 -0.6816625 0.68464506 -0.1722858 0.13063465 -1.4994928 0.440661 -0.52392673
-0.43857002 -0.35558316 0.026098434 -0.33234817 0.17079762 0.60060877 -0.38004604 0.06246541
-0.0042826533 -0.16902196 -0.4330407 0.24181844 0.5149937 -0.030333802 -0.2652357 0.033813965
0.21553893 -0.029377598 0.8010842 -0.12955801 0.027471466 1.6798677 -0.044113066 0.15118277
0.10142076 0.3481583 0.19293576 -0.3780953 -0.576335 0.017814815 1.9290316 -0.03717594
0.28406355 0.42380795 0.04269556 0.72325706 -0.11718341 -0.03184416 0.07073414 -0.36152995
-0.18482494 0.5514237 0.015814569 0.18452977 -0.42458433 -0.91863054 0.33227777 -0.18457183
0.8873354 -0.01157165 -0.17381158 -0.32869545 0.2041058 0.9947881 -0.25799853 0.1722005
0.30294394 0.3988345 -0.3343724 0.09283996 -0.21508262 -0.5105193 -0.31775877 -0.80284417
0.27212232 0.4456418 -0.15058133 0.40547937 0.15760137 0.9398265 -0.04365638 -0.45415908
0.82891023 0.08030563 -0.2906006 -0.44596255 -0.36548254 0.29573277 0.30186984 -0.024733597

fc1.bias f4 [64]
00000000: a379 79c0 389c 0dbf a1d2 9340 a27a 69c0
00000010: 4425 c13e 1316 abbe 8b0a afc0 e2b4 9540
00000020: e539 d3bf 42f9 94c0 cbf7 8340 e0bf 7a40
00000030: 7b18 45bf 3d96 c0bf 3c0b c3be 5847 943f
00000040: 7da2 b940 5f26 4640 1c15 90c0 a326 9740
00000050: af96 a4c0 cb66 8f40 d477 523e b99c 81c0
00000060: e906 88c0 886f 65bf 25a0 a740 960b bc3f
00000070: e69c fc3f 1164 bdc0 7c01 8bc0 90f9 8dc0
00000080: 7bcb 51c0 0974 5a40 f12b 8640 7c49 c43e
00000090: fb0b 8540 9cba f63e 08ca 88c0 c4d3 9640
000000a0: b0f7 a03d 17e8 8540 411b 8a40 8b3d 793f
000000b0: 14f0 293d e9ed 8ec0 fee8 e8be bdb2 abbe
000000c0: 8925 79c0 9b2d 9740 9827 f3be 4ef0 97c0
000000d0: c531 98c0 6728 61bf 7e60 bcc0 4000 7ac0
000000e0: 7ad2 0a40 7e26 0e3f 2f1b bd3f c53a 9cc0
000000f0: cee4 5240 f948 8e40 0c67 073e 3a53 8740
-3.898049 -0.55316496 4.6194615 -3.64811 0.37723744 -0.3341528 -5.470037 4.6783304
-1.6502043 -4.655427 4.123998 3.9179611 -0.7699048 -1.5045849 -0.3809451 1.1584272
5.801085 3.096092 -4.502577 4.7234664 -5.143394 4.481298 0.20553523 -4.050381
-4.2508435 -0.8962331 5.238299 1.4691036 1.9735382 -5.918465 -4.343931 -4.436714
-3.2780445 3.4133322 4.192864 0.38337314 4.1577125 0.48189247 -4.274662 4.7133503
0.07859743 4.1845813 4.315827 0.9735953 0.041488722 -4.466542 -0.4549026 -0.33534804
-3.892916 4.724317 -0.47491145 -4.748084 -4.7560754 -0.87952274 -5.886779 -3.9062653
2.1690965 0.55527484 1.4773921 -4.882174 3.2952151 4.446408 0.13222903 4.2289095

fc2.weight f4 [64, 64]
00000000: d0fb a13c 04df 8abd 3ff0 7dbd bfb2 11be
00000010: 503a 7b3c afc9 0dbe 7e88 84bd 7841 57bd
00000020: 9c0e 8fbd 4695 1bbe dcfe bcbb 1f8d b3bd
00000030: 8be3 01be e05c f63b 2065 7e3d 5cd9 67bd
00000040: 3d3b e7bb a3e5 d9bc 5fd1 5fbd ca4c 04be
00000050: 94d3 213d 1c34 d63d 7064 973d 59a9 313d
00000060: 22b5 7cbd 2807 97bd cecf a63d e444 e9bd
00000070: 6d8d 8f3d 215b 053d fd9b 803d 715c 73bd
00000080: f451 463d 412d 5cbc 1b23 febd c488 963d
00000090: 313b 02be a84a fabd c0df ccbd 9f4a c5bd
000000a0: 0814 373d 7e3b 0e3c e2b8 df3c ec2f ba3d
000000b0: 8d3a d8bd 9ed8 843d f023 7a3c 7072 b73c
000000c0: b3a6 85bd e8f9 1c3c 0c74 c5bd 5506 5cbd
000000d0: 2688 9dbd 2644 89bd 2055 0ebc 0158 ac3d
000000e0: c81d 5ebd 2eef dcbd 35f7 b03d a50e f2bd
000000f0: 2164 843d ec97 34bd a011 77bc 69ac b1bd
00000100: d3ad a3bc e003 b3bd d535 26bd 10cf 97bc
00000110: cc2c f53d 00b8 37bc c175 79bd ac57 12be
00000120: 0ba5 3cbc 875d 903d c992 ec3a 1500 00bd
00000130: 5523 453d 2c02 7a3d 7802 17bd 96c8 cabd
00000140: e2ef 9839 968d e5bd 9f2b a53c f0b8 b1bd
00000150: e020 3b3d a715 e0bd 6824 c3bd 52e2 06be
00000160: e8e4 e2bd 00cb bc3d 9c8c 9b3d 0ce5 24bd
00000170: 36f4 ccbd 47d8 b7bd 1d94 1cbe 0f0e b5bc
00000180: f4f3 05bd dc24 ec3d fa5c 563d 4f79 cbbd
00000190: 7a9b 073d c004 60bc 4c89 b6bd 9184 2a3d
000001a0: 2875 88bc c4b2 a8bd 45a4 1ebe 113c 54bd
000001b0: 713e 90bd f00b d8bd 8063 0e3c 78bc dfbd
000001c0: 843c 17be 2ed0 3abd c09d 68bd b044 23bd
000001d0: a784 f53c c792 40bd 5ec9 27be e7c2 51bd
000001e0: 18d1 263d f4e9 22bd 33e8 163c 2132 c03c
000001f0: 6668 7f3d 6389 323d 98f8 1b3d 4a8c f83d
00000200: 8007 833a 4ca7 11bd 4656 80bd 8c2e 133d
00000210: 00f3 153b 90ac b6bd 92c9 863d 6063 633c
00000220: 9c2c fcbd e08b 1ebd a64f e3bd 6c10 86bd
00000230: 8676 b53d ea1c ecbd 7a2d 983d b868 1ebd
00000240: 0614 8a3d 00de 0b3a 82ce 80bd ca7b d7bd
00000250: d8a8 203d d257 b7bd 80b7 f1bd e677 88bd
00000260: e03d 00bd d014 69bd 3c09 c3bd 50fa 643d
00000270: cc79 29bd 50ed 50bc c070 1a3b 102a 40bd
00000280: 08c4 98bc b418 64bd a0b4 8e3b 1cc6 53bd
00000290: f067 8d3c d05c 533c 58dc 833c 145e fcbd
000002a0: c072 ac3d 80aa 283c d802 f5bd 8c6e 28bd
000002b0: 4006 04bc 5c07 953d 18f3 83bc ce89 823d
000002c0: cc7c 96bd 3abd d5bd e070 9bbc bc67 10bd
000002d0: 505a 823d 58a3 90bd 0483 783d 166e a1bd
000002e0: 36f2 b93d f498 ccbd 7c41 cfbd aa1c d3bd
000002f0: 6439 ca3d 0241 e93d a0cd 79bd 6c4b 183d
00000300: a4fd 8ebd 8cd0 c4bd cc6e 8a3f 7ccb b6be
00000310: 802e baba e453 cebe 8e24 aabe 9dcc c43e
00000320: baf4 27bf b969 74be 55c8 5c3e 0301 643f
00000330: b635 253d 1244 353c 606d e4bb e0ea 1fbe
00000340: efb5 033f d5b1 67bf c060 fcbd 3910 a13f
00000350: 074a bbbf 82b9 733f 600f dabc e4a5 e4bd
00000360: d5cd 08bf 6e94 16bf 937d bc3f c5e0 1bbe
00000370: b99f 9c3e 6608 f0be db6a 95be a28d 20be
00000380: 0608 32be 20b9 e93e 38fc 0c3f d6db fc3e
00000390: b134 853e 8e6c fdbd 3f92 abbe a4b2 913f
000003a0: 3cd4 99bd d980 383f 37aa 663e 7d83 a93e
000003b0: 5163 1cbf ada8 37be 4858 1e3d 23fe 7abe
000003c0: 62ae e5be b912 753f c05d 86bb e89f ccbe
000003d0: 7576 3abe 6795 67be 0957 6dbf 2c28 e7be
000003e0: 387d 33bf ded6 f1bd 59f1 d63d 6a1c 40be
000003f0: 0296 d03e c47c 8d3f 1075 f0bd cded 803f
0.019773394 -0.06780818 -0.061996695 -0.14228342 0.015333727 -0.13846467 -0.06471346 -0.05255267
-0.069852084 -0.15193662 -0.0057676863 -0.08767151 -0.12684457 0.007518396 0.06210816 -0.056603774
-0.0070566223 -0.026598757 -0.05464303 -0.12919918 0.039508417 0.10459158 0.07392204 0.043374393
-0.06169618 -0.07374412 0.08145104 -0.11390093 0.07009397 0.03255761 0.062797524 -0.05941433
0.048418 -0.013438524 -0.124090396 0.07350305 -0.12717892 -0.12221271 -0.100036144 -0.096333735
0.044696838 0.008681176 0.027309839 0.090911716 -0.10558043 0.06486629 0.015267357 0.022393435
-0.06525936 0.009581067 -0.09641275 -0.053716976 -0.07691984 -0.067024514 -0.008687288 0.08415223
-0.05422762 -0.107878074 0.08640901 -0.118191995 0.064644106 -0.044090196 -0.015079886 -0.08675463
-0.019980347 -0.087409735 -0.040578682 -0.018531352 0.11971435 -0.011213303 -0.060903315 -0.14291257
-0.011513959 0.07049089 0.0018049116 -0.03125008 0.0481294 0.061037228 -0.03686759 -0.0990154
0.00029170426 -0.11208646 0.020162402 -0.08677852 0.04568565 -0.1094163 -0.09528428 -0.13172272
-0.11078817 0.09218407 0.075951785 -0.0402575 -0.10007517 -0.089767985 -0.15290876 -0.02210143
-0.032703355 0.11530468 0.052334763 -0.09935247 0.03310726 -0.0136730075 -0.08912906 0.04163033
-0.016657427 -0.08237222 -0.15492351 -0.051815096 -0.0704316 -0.10549152 0.008690715 -0.109246194
-0.14769179 -0.045608692 -0.056791067 -0.039860427 0.02997048 -0.047014978 -0.16385409 -0.051211264
0.04072675 -0.039773896 0.009210634 0.023461403 0.06235542 0.043588053 0.038078874 0.12136133
0.0009996742 -0.035559937 -0.06266455 0.035933062 0.0022880435 -0.089196324 0.06581415 0.013878673
-0.12313196 -0.038707614 -0.11099176 -0.06546101 0.08860497 -0.115289524 0.07430549 -0.038674086
0.067421004 0.000533551 -0.06289388 -0.10521658 0.039223522 -0.08952297 -0.11802578 -0.06663494
-0.03130901 -0.056904614 -0.09523246 0.05590278 -0.04137592 -0.012751892 0.002356574 -0.046915114
-0.018648162 -0.05568762 0.0043550283 -0.051702604 0.017261475 0.012900546 0.016096279 -0.123226315
0.08420324 0.010294557 -0.11963433 -0.04112105 -0.008058131 0.07276794 -0.016107127 0.063739404
-0.07348022 -0.10436483 -0.018974721 -0.03525518 0.06364882 -0.07062405 0.06067182 -0.07882325
0.09079401 -0.09990111 -0.10119912 -0.103082016 0.09874228 0.113893524 -0.060987115 0.037181303
-0.06981972 -0.0961009 1.0815063 -0.3570212 -0.0014204532 -0.40298378 -0.33231014 0.38437358
-0.656078 -0.23868455 0.21560796 0.89064044 0.040334426 0.0110635925 -0.0069710463 -0.15616941
0.51449484 -0.90505725 -0.12323141 1.2583076 -1.4631966 0.9520494 -0.02661866 -0.111644536
-0.53439075 -0.58820236 1.4725822 -0.15222462 0.3059061 -0.46881407 -0.29183087 -0.15679029
-0.17385873 0.45649052 0.55072355 0.49386472 0.26016763 -0.12374221 -0.33510014 1.1382642
-0.075111836 0.72071606 0.2252587 0.3310813 -0.61089045 -0.17935438 0.03865841 -0.24511008
-0.44859606 0.95731694 -0.0041005313 -0.3996575 -0.1820925 -0.22615586 -0.9271093 -0.45147836
-0.70112944 -0.11808561 0.10495252 -0.18760839 0.40739447 1.10537 -0.11741078 1.0072571

fc2.bias f4 [64]
00000000: fab4 75bd f5bb 593d 6e8b e2bd 4e85 6840
00000010: a49e 0f3d 277a 4540 ec9b 66bd 176b 3840
00000020: bcb0 e5bd 5c63 eebd cab7 d4ba 700b 4640
00000030: 1cff f23f 11c1 d73f e9ef 2440 063b 83bd
00000040: b69d b03d cd18 aebc cf48 6040 2a60 4240
00000050: 9270 d33c 1d46 d6bf c1d8 c33f 3024 1040
00000060: 0fc2 bcbe 862a 5040 9c68 2d40 e8ef 70bc
00000070: 50f9 5440 8c21 3440 dfaf 473d 8086 a43e
00000080: 9216 0640 56cb e9bd c34a 1640 f015 a43d
00000090: 69ec fc3f d02c 70bd 133a f63f 42d7 4340
000000a0: 5a35 2f40 752b cd3f 4a2c 6740 92a7 5c40
000000b0: 63a5 f6bd f9a6 1b40 e694 4a3d 755d 93be
000000c0: 497b 5e40 ea6f 6840 6ed6 8fbf 2fe6 1040
000000d0: 33c2 b23f 664c 4840 770d 3a3f 8091 433c
000000e0: c958 013f 92fa 6dbd 72f0 3ebd be6a 6d3c
000000f0: 656c ba3f 211e 25be f679 cdbd 4190 2e40
-0.059987046 0.053157765 -0.1106175 3.6331363 0.0350634 3.0855806 -0.056301042 2.8815362
-0.1121535 -0.11640045 -0.001622909 3.094448 1.8984103 1.6855794 2.577143 -0.06407742
0.08623831 -0.02125206 3.504444 3.0371194 0.025810514 -1.6740147 1.5300523 2.2522087
-0.36866805 3.2525954 2.7095098 -0.014705636 3.3277168 2.8145475 0.048751708 0.32133865
2.0951276 -0.114157364 2.348313 0.08011997 1.9759647 -0.058636487 1.9236473 3.0600133
2.7376313 1.6028887 3.6120782 3.4477277 -0.12043264 2.4320662 0.049458407 -0.2878224
3.4762747 3.6318307 -1.1237314 2.2640493 1.3965515 3.129663 0.72676796 0.011936545
0.505261 -0.05810029 -0.046616025 0.014490781 1.4564329 -0.16124775 -0.10033028 2.7275546

fc3.weight f4 [20, 64]
00000000: fc6b 143b e10c a03d 68af e93c 8861 b63f
00000010: 6069 d9bc b500 673f a8da 98bc 912e 6b3f
00000020: 7377 233c ef28 4e3e c470 7d3d 6902 ad3f
00000030: b151 e13f 6938 52bf d8b1 9b3f 5c2b 0ebd
00000040: 7453 4b3d 2890 08bd fcd0 903f 264f ab3f
00000050: e04a 313c 5e55 a2bf 3745 50c0 7d0a 2a3f
00000060: d391 89be 3f2d 9e3f f388 893f ee0d 9dbd
00000070: 749e 9e3f 324b 983f c5be 5a3c 735e 843f
00000080: 6f1b 923f 5154 0dbd 1ddf 8f3f 49a5 db3d
00000090: edf8 1fc0 d815 a8bc 0ba0 fabe 054a 923f
000000a0: f3ce c43f 0cac 28c0 fa27 973f ff75 bb3f
000000b0: c68e 54be 7c53 593e 6f4e d9bd e991 823f
000000c0: 0d57 b23f 8c12 b63f e4ba d5be 8d4d f9bf
000000d0: 73fd 55bc b8a0 903f 198d 99bf ae52 dbbd
000000e0: 7a68 c2be fc75 c4bd ae0c 3f3d f23b dbbd
000000f0: c656 11c0 f2e1 9fbd 4a91 643d 7363 923f
00000100: 10c8 ffbc 1ffd cd3d ecc9 fabd 8659 5c3f
00000110: b841 dabd ad94 a13e 162a b5bd d676 123f
00000120: 93c6 7b3c 1fac 143f ba23 cabd 6a1d 553f
00000130: 45eb fe3f 29c5 bb3e 7054 4f3f e808 ec3c
00000140: 9a11 c23d 7e38 e23d c1b5 633f f143 753f
00000150: 8003 2f3c 2b7f 09bf 60dc 04bf 7a4c 033f
00000160: 5a91 1e3f 951e 623f 34b3 023f 4b6c 8bbd
00000170: d9b6 593f 1b56 563f f4a8 ba3d 9b6e be3e
00000180: 535c f43e ae67 acbc 30c3 703f c66d 103e
00000190: 40b6 b3bf 34df ebbd 8a57 a3bf 7da6 133f
000001a0: ff7c e83f 9a47 22bf 9653 563f fa55 283f
000001b0: 2ef2 fdbc 940c d23e c75c c53d edcf f33e
000001c0: 92e1 633f e2fb 523f 2a6c debe c9cd 11be
000001d0: 4f1f c13e 0161 383f f194 31bf 3404 53bd
000001e0: aca7 3cbd 0833 943d 393b 403d 60f1 d43d
000001f0: e802 30bf 8f2b b4bd b493 99bd 32df 123f
00000200: f026 af3d d75d e0bc a832 2fbd 78d9 3e3f
00000210: 4066 1bbb 7c6c b73e a8c6 8c3d 0b5f 0b3f
00000220: 69b6 753c 8ad7 673f 3275 c0bc ffe5 213f
00000230: 8e37 0840 420f 20be 13d9 9c3f 4066 febd
00000240: 4060 7bbd e4ca 02bd 65a6 1d3f 5fb8 9b3f
00000250: 5e10 b5bd af8c 57bf 7c6d 09bf 71f8 f6be
00000260: 7140 373f 7c0c 353f 7c25 4b3f 8d24 f83d
00000270: ba79 1a3f c662 893f 6a2b 823d c11d f43e
00000280: 72ce c33f e21b ba3d 4cb9 9c3f b227 76bc
00000290: 661a c1bf 68db e6bc ae8c a0bf 45ed 153f
000002a0: 1d67 b53f d9ee 4bbf dbb5 223f d7ed 363f
000002b0: 34a1 00bf d150 623e 3499 823d 5fb6 953f
000002c0: 2aed 5f3f 5255 573f 4dcd debe d159 d3bd
000002d0: 12a2 c43e 9420 3f3f dcf6 62bf 607f 77bd
000002e0: 6c6d 9f3e e890 9fbc 9553 2f3c cba4 9e3c
000002f0: 9a88 dabe 4081 e2bb 3043 23bd a8e0 a73f
00000300: 3073 f23c edfa 69bd c0ea 0e3c c8e9 5a3f
00000310: 7c34 1c3d 9605 1c3f 8851 753d cfd4 203f
00000320: c464 923b 9697 4e3f 4c5a 9f3d 8840 4e3f
00000330: 9582 e83f 9785 7a3e d9a0 263f f00b 90bc
00000340: ca60 9e3d f44f 90bd 7dd7 673f f7d0 5d3f
00000350: 2cee 243d 8dd3 bbbe cd41 cfbe 4d52 783e
00000360: 7f6f e53e edb6 5b3f dc9a 413f 63ff b0bd
00000370: 2c31 2b3f 3416 593f b85f 66bd 80a3 cc3d
00000380: 4fd6 183f 95af cebd e370 343f e701 f5bd
00000390: 3257 9cbf e6d5 b6bd 98fe 9ebf 7587 3d3f
000003a0: 7489 ce3f e67c 79bf 5713 493f 6816 4f3f
000003b0: 6ec1 bfbc fe8d fa3e 5a64 c8bd f688 d93e
000003c0: d1ea 6f3f 8ad5 433f 5bae eabe df44 d4be
000003d0: d5d0 bc3e 964e 3c3f 6191 78bf acf9 4c3d
000003e0: 6866 4b3e 2ed1 f7bd 91c4 65be efcd 663d
000003f0: 84b4 1abf 8496 983d cb3d dd3b 0507 393f
0.0022647372 0.078149565 0.028526023 1.4248514 -0.026539505 0.90235454 -0.01865895 0.9186793
0.009977209 0.20132802 0.06187512 1.351636 1.7603055 -0.82117325 1.2163649 -0.03470932
0.049640134 -0.033340603 1.1313777 1.3383529 0.010821074 -1.2682302 -3.2542245 0.66422254
-0.26869068 1.2357558 1.0744919 -0.076686725 1.2392106 1.1897948 0.013351147 1.0341324
1.1414622 -0.03450424 1.1239964 0.10724885 -2.4995682 -0.020518228 -0.48950228 1.1428839
1.5375656 -2.635501 1.1809075 1.4645385 -0.20757589 0.21223253 -0.10610663 1.0200778
1.3932816 1.422441 -0.4174415 -1.9476792 -0.013060915 1.1299047 -1.1996185 -0.10709129
-0.37970334 -0.09592816 0.04664295 -0.10704793 -2.2709212 -0.078067675 0.05580262 1.14366
-0.031223327 0.10058045 -0.12245545 0.860741 -0.10657066 0.31558743 -0.08845918 0.5721258
0.015367168 0.58075136 -0.098700956 0.8324801 1.9915549 0.3667386 0.80988216 0.02881284
0.094760135 0.11045931 0.8894921 0.95806795 0.010681987 -0.5370967 -0.51898766 0.5128857
0.6194054 0.88327914 0.5105469 -0.068077646 0.8504463 0.83725137 0.091142565 0.3719376
0.47726688 -0.021045532 0.9404783 0.14104375 -1.4039993 -0.11517182 -1.276109 0.57675916
1.8163146 -0.63390505 0.8372129 0.6575619 -0.03099927 0.4102522 0.096368365 0.47619572
0.8901607 0.8241559 -0.43441898 -0.14238657 0.377192 0.72023016 -0.6936789 -0.05151768
-0.04605834 0.07236296 0.04693148 0.10397601 -0.68754435 -0.08797371 -0.07498875 0.5737182
0.085523486 -0.027388496 -0.04277292 0.7455058 -0.0023712069 0.35824955 0.06873828 0.544419
0.014997103 0.9056326 -0.023493383 0.6324157 2.1283908 -0.1563082 1.2253746 -0.124218464
-0.061371088 -0.031931773 0.6158202 1.216564 -0.088410124 -0.8419904 -0.53682685 -0.4823642
0.71582705 0.70722175 0.7935407 0.121163465 0.6034199 1.0733268 0.06355937 0.4767895
1.5297377 0.090873495 1.2244048 -0.015024113 -1.5086181 -0.028180793 -1.2542932 0.5856517
1.4172093 -0.7966133 0.6355874 0.71456665 -0.50245976 0.22101142 0.063768774 1.169628
0.8747126 0.84114563 -0.43516007 -0.103198655 0.384049 0.74659085 -0.8865793 -0.06042421
0.3113817 -0.019478276 0.01070108 0.019365689 -0.42682344 -0.0069123805 -0.039858997 1.3115435
0.029595941 -0.057124067 0.008722961 0.8551297 0.03813599 0.60946023 0.059892207 0.6282472
0.0044675786 0.8070005 0.07780895 0.80567217 1.816485 0.24465023 0.65089184 -0.017583817
0.07733305 -0.070465 0.90563184 0.8664698 0.0402662 -0.36684838 -0.4047989 0.24250145
0.44811627 0.85826 0.7562692 -0.08642461 0.66871905 0.84799504 -0.05624363 0.09992123
0.5970201 -0.10092083 0.7048475 -0.119632535 -1.221411 -0.08927517 -1.2421446 0.74034816
1.6135697 -0.97456205 0.78545135 0.80893564 -0.023407664 0.48936456 -0.097847655 0.42487305
0.93717676 0.7649771 -0.45836148 -0.41458794 0.36878076 0.7355741 -0.9709683 0.050042793
0.19863284 -0.12100445 -0.22438265 0.056348737 -0.60431695 0.074505836 0.006751751 0.72276336

fc3.bias f4 [20]
00000000: 6cf6 fd3f 95cc 133f ebbd afbe ad84 253f
00000010: 657a a63e 032c aa3e 4913 e63e ac01 ec3b
00000020: 8d0a d23e 1981 813d f2c6 753e 4821 d83e
00000030: 5937 cc3e 42b3 2d3f 9200 8f3c 66fb a4ba
00000040: e389 143d 979e ac3e 3a19 9dbd 0aa9 b73e
1.9840827 0.5773404 -0.34324583 0.6465557 0.32515255 0.33236703 0.44936588 0.0072023477
0.41023675 0.063234515 0.24001673 0.42212892 0.39885977 0.6785165 0.017456327 -0.001258713
0.03626431 0.33714744 -0.07670827 0.35871154

fc1.weight f4 [64, 3]
00000000: 2db5 273e 019d 7dbf ebf7 153f 0dde 93be
00000010: f461 69be a1fe 0cbf 5c4f 59be 56e3 693f
00000020: b29c 9abb ee69 f23e fee3 aabe c850 083e
00000030: 8053 523e 6f6d 03bf 0bc8 97be f4b0 043e
00000040: 6ba5 c23f c14d 15bd 23c3 9dbd b21d c1be
00000050: 2d64 073f 7e58 66bf 6f0a 8e3e e75b bd3d
00000060: 8575 c03e c918 c23f bf9c 93bb cba2 a5be
00000070: 7c51 803e becc e83e f2ec 03bf 77d7 11bf
00000080: f1c1 b43e c407 203d ab4b 293f 3ac8 2fbd
00000090: fba4 a63e 1ee5 c7bf bce4 f83e 07c9 dbbd
000000a0: 8b3f d73f 76de 06be 6478 44be ca6e bcbe
000000b0: ecda e3be 62bd 493d befa 333f 43fc 9cbe
000000c0: f1db de3e 0d63 a1bf 8711 4b3e 7ddb 7f3e
000000d0: e35d 643e 3c72 2fbe 6a28 02bd f258 efbd
000000e0: bf4b ee3e 0938 273e 1ec0 ea3e bba7 05bd
000000f0: 1f47 e4bd c5a3 3e3f df2a 983d 2feb a6be
00000100: cb2d 4c3f 1c59 2b3d 40a0 55bc ac3a e5bd
00000110: 5db6 00bf 4b04 453f deb9 84bf cd78 c63e
00000120: b90e 853f b149 05bf 7c16 343e d7f4 393d
00000130: a16d e43f a309 ffbc 2357 aa3e 7250 6abe
00000140: a30a 993d 8df8 453f 72b1 ab38 e46f a8be
00000150: 032f 9b3f 7360 e43e 084e aabc 2ed8 633d
00000160: a599 e63d 25b2 a83e 4fec 8b3e cda5 19be
00000170: dc1b 933e 32eb 093e cd89 53bf aa7e cd3e
00000180: fc51 02be 4580 b7bf 3564 313e 0f2c cdbd
00000190: 9ef7 643f 6f1a a5bc bf8d 913e 7f01 833f
000001a0: c4a0 f3bc 1520 38bf c942 2d3f 7c7a 17be
000001b0: e7f3 e63d c3d1 bfbf e3a4 e73e 1020 06bf
000001c0: 408c e0be ff0e b6be 3e16 d83d 3728 a5be
000001d0: 7725 3b3e f2e2 1b3f db67 b9be 876c 833d
000001e0: 8055 8cbb 1814 2dbe 83b7 ddbe 951f 783e
000001f0: 83bf 043f 7258 edbc 500c 7bbe 964a 863d
00000200: 543a 683e 30cd b7bc b223 4c3f 06b2 10be
00000210: bfe0 1a3c 27a1 d53f 1322 2cbd d753 403e
00000220: 27d0 c83d 37ed bb3e f490 453e b595 c1be
00000230: b18a 13bf b137 213b c7fe f43f d296 28bd
00000240: e4b0 923e afc1 d63e 200e 0e3d 1640 3b3f
00000250: eb0a dabd 244e fdbc 10dd 903d 741a b9be
00000260: c042 3dbe ba2a 0b3f e3f2 4cbc f170 443e
00000270: ed3b cfbe 6360 72bf 85de a93e e9e8 2ebe
00000280: f93b 683f 0918 e33a a01e 65be 98fb a9be
00000290: 0c89 573e 9dae 7f3f bdb1 8fbe 4024 353e
000002a0: 1de6 973e 1810 d53e 0a2e a8be e022 be3d
000002b0: 9e3e 5cbe 65b1 02bf dfa0 9ebe b844 41bf
000002c0: a87c 9f3e b2ee ed3e 757c 20be 81df d53e
000002d0: 3d34 1b3e 8b01 703f 607e 26bd 2bff f3be
000002e0: 75c7 533f 0a48 a03d 9ac9 94be 3455 e4be
000002f0: ea20 bbbe 40ab 973e c870 9c3e 45da c0bc
0.16377707 -0.99067694 0.5858142 -0.2888035 -0.22791272 -0.5507603 -0.2122168 0.9136251
-0.0047183866 0.47346443 -0.3337707 0.13312066 0.20539665 -0.5133886 -0.29644808 0.12958127
1.5206732 -0.036451105 -0.07703235 -0.37717968 0.5288723 -0.8997878 0.27742335 0.092460446
0.3758966 1.5163814 -0.0045047696 -0.32350764 0.25062168 0.45468706 -0.51533425 -0.569694
0.35304216 0.039069906 0.66131085 -0.04291556 0.32547745 -1.5616796 0.4861201 -0.10731702
1.6816267 -0.131708 -0.1918655 -0.36803275 -0.44502962 0.049252875 0.7030448 -0.3066121
0.43527177 -1.2608353 0.19830905 0.24986072 0.2230144 -0.1713342 -0.031776823 -0.11686887
0.46542165 0.1632997 0.458497 -0.032630663 -0.11146378 0.7446864 0.07430052 -0.32601306
0.79757375 0.04183303 -0.013038695 -0.111928314 -0.50278264 0.76959676 -1.0369222 0.3876404
1.0395118 -0.5206557 0.17586702 0.045399513 1.7845956 -0.031132525 0.33269605 -0.2288225
0.07472732 0.77332383 8.186967e-05 -0.32897866 1.2123722 0.44604835 -0.020789161 0.055626087
0.11259774 0.32948413 0.27328727 -0.15004654 0.28732193 0.13468626 -0.8263214 0.401357
-0.12726587 -1.433602 0.17323382 -0.10018169 0.89440334 -0.020154206 0.28428456 1.0234832
-0.029739745 -0.71923953 0.6768003 -0.14792818 0.112769894 -1.4985889 0.45242986 -0.52392673
-0.43857002 -0.35558316 0.10551117 -0.32257244 0.1827601 0.60893166 -0.36212048 0.06417184
-0.0042826533 -0.16902196 -0.4330407 0.24230798 0.51854724 -0.028972838 -0.24516416 0.06557195
0.226785 -0.022436708 0.79741967 -0.1413041 0.009452998 1.6689805 -0.042024683 0.18781982
0.09805327 0.36704418 0.19293576 -0.3780953 -0.576335 0.0024599845 1.9140252 -0.04115946
0.28650582 0.41944644 0.03468144 0.7314466 -0.10646614 -0.03092105 0.07073414 -0.36152995
-0.18482494 0.5436207 -0.012509081 0.19183709 -0.40475407 -0.94678324 0.3317758 -0.17081036
0.9071651 0.0017325889 -0.22374964 -0.33199763 0.21048373 0.99875814 -0.2806529 0.1768961
0.2966775 0.4161384 -0.32847625 0.09283996 -0.21508262 -0.5105193 -0.3098211 -0.7549548
0.31149793 0.46471173 -0.15672477 0.41772082 0.15156646 0.93752354 -0.040647864 -0.47655615
0.8272622 0.0782624 -0.2906006 -0.44596255 -0.3654855 0.2962284 0.30554795 -0.023541579

fc1.bias f4 [64]
00000000: bdac 74c0 6c9c 0dbf d619 9240 af64 61c0
00000010: 4425 c13e 9f2a a1be 804f acc0 9cf4 9240
00000020: 2e8f ccbf fad7 8fc0 63ae 7e40 ed06 7740
00000030: 77e2 42bf 1314 b6bf 3c0b c3be b6c8 9c3f
00000040: 4a0f b540 6789 4340 ff7c 8bc0 763c 9540
00000050: 2c16 a0c0 e296 8d40 d477 523e 057d 7dc0
00000060: 517f 84c0 1a7f 63bf 9547 a540 0901 c13f
00000070: 3085 f53f fdc3 b9c0 98e1 86c0 e37a 8ac0
00000080: 00ca 4dc0 6614 5740 817d 8440 15c7 d63e
00000090: c18b 8040 edba f63e 2f07 84c0 7451 9440
000000a0: b0f7 a03d 42fd 8340 6ba1 8740 b932 7a3f
000000b0: 131a 7c3d 14d6 89c0 fee8 e8be 9bf9 a0be
000000c0: 3483 70c0 00b1 9440 9827 f3be 631d 94c0
000000d0: 735a 94c0 b3c9 40bf 3289 b7c0 be33 74c0
000000e0: 6950 0b40 7e26 0e3f 37f0 b53f 50f2 97c0
000000f0: 6bdc 4f40 b34a 8c40 0c67 073e 934a 8540
-3.823043 -0.55316806 4.565654 -3.5217702 0.37723744 -0.3147783 -5.3847046 4.5923595
-1.5981195 -4.4951143 3.9793937 3.8597977 -0.7612681 -1.4224876 -0.3809451 1.2248752
5.6581163 3.0552614 -4.3590083 4.6636305 -5.0027065 4.4246683 0.20553523 -3.9607556
-4.1405416 -0.88865817 5.164988 1.5078441 1.9181271 -5.8051744 -4.2150383 -4.327501
-3.215454 3.36062 4.1403203 0.41948763 4.01706 0.48189488 -4.125877 4.634943
0.07859743 4.1246653 4.2384543 0.97733647 0.061548304 -4.3073826 -0.4549026 -0.31440434
-3.758008 4.6466064 -0.47491145 -4.6285872 -4.636041 -0.7530777 -5.7354975 -3.815658
2.1767828 0.55527484 1.4213933 -4.748329 3.2478282 4.3841186 0.13222903 4.1653533

fc2.weight f4 [64, 64]
00000000: 3f01 a23c 04df 8abd b3ee 7dbd 67af 11be
00000010: 503a 7b3c 64c7 0dbe 2c88 84bd 7841 57bd
00000020: 9d0b 8fbd b092 1bbe b7f0 bcbb 7c8b b3bd
00000030: 7ae0 01be 2c5d f63b 2065 7e3d 5cd9 67bd
00000040: 5a2d e7bb 01e2 d9bc a9cf 5fbd ac49 04be
00000050: 94d3 213d 1c34 d63d 7064 973d 01ab 313d
00000060: 4ab2 7cbd 9c06 97bd a0d1 a63d 9145 e9bd
00000070: 6d90 8f3d 045f 053d 28a0 803d a25b 73bd
00000080: 2354 463d 6f28 5cbc 7b21 febd c488 963d
00000090: 523a 02be a84a fabd f1df ccbd 834a c5bd
000000a0: 0814 373d 1b42 0e3c 23be df3c ec2f ba3d
000000b0: 3b3a d8bd 34da 843d f023 7a3c 7072 b73c
000000c0: 55a5 85bd 7f03 1d3c 0c74 c5bd e606 5cbd
000000d0: b186 9dbd 2043 89bd 2055 0ebc 9d5b ac3d
000000e0: 101e 5ebd 2eef dcbd 39fb b03d b10b f2bd
000000f0: 0365 843d ec97 34bd a011 77bc 02ab b1bd
00000100: efac a3bc e003 b3bd 6135 26bd d5cd 97bc
00000110: cc2c f53d cfb9 37bc 2776 79bd 6057 12be
00000120: 8ba7 3cbc 755f 903d 3b95 ec3a 0cfe ffbc
00000130: 5a27 453d c702 7a3d b402 17bd c8c8 cabd
00000140: cdf2 9839 968d e5bd a72f a53c bab6 b1bd
00000150: d124 3b3d fa15 e0bd 6824 c3bd bee1 06be
00000160: bce4 e2bd 00cb bc3d c78e 9b3d 70e5 24bd
00000170: 36f4 ccbd 28d5 b7bd 8194 1cbe 350e b5bc
00000180: 76f3 05bd db27 ec3d 9061 563d 9078 cbbd
00000190: 3e9d 073d c004 60bc 1f89 b6bd db86 2a3d
000001a0: 2875 88bc 1bb2 a8bd daa3 1ebe af3e 54bd
000001b0: 3540 90bd 5b0b d8bd a563 0e3c 21bc dfbd
000001c0: 6439 17be c9d2 3abd c09d 68bd 7643 23bd
000001d0: 5386 f53c 8f8f 40bd bac7 27be f5c1 51bd
000001e0: a1d1 263d f4e9 22bd 43eb 163c b635 c03c
000001f0: b465 7f3d 928d 323d 98f8 1b3d c68b f83d
00000200: 8007 833a 97a7 11bd 4656 80bd 8c2e 133d
00000210: 00f3 153b 90ac b6bd 92c9 863d 6063 633c
00000220: 9c2c fcbd e08b 1ebd a64f e3bd 6c10 86bd
00000230: 8676 b53d ea1c ecbd 7a2d 983d b868 1ebd
00000240: 0614 8a3d 00de 0b3a 82ce 80bd ca7b d7bd
00000250: d8a8 203d 2758 b7bd 80b7 f1bd 0078 88bd
00000260: e03d 00bd d014 69bd 3c09 c3bd 50fa 643d
00000270: cc79 29bd 50ed 50bc c070 1a3b 102a 40bd
00000280: 08c4 98bc 5519 64bd a0b4 8e3b 1cc6 53bd
00000290: f067 8d3c d05c 533c 58dc 833c 145e fcbd
000002a0: 0e73 ac3d 80aa 283c d802 f5bd 8c6e 28bd
000002b0: 4006 04bc 5c07 953d 18f3 83bc ce89 823d
000002c0: cc7c 96bd 81bd d5bd e070 9bbc bc67 10bd
000002d0: 505a 823d 58a3 90bd 0483 783d 166e a1bd
000002e0: 36f2 b93d a199 ccbd 7c41 cfbd aa1c d3bd
000002f0: 6439 ca3d a941 e93d a0cd 79bd 6c4b 183d
00000300: 536d 85bd 8cd0 c4bd a8e4 883f 6533 a8be
00000310: ba2e baba 0622 cdbe f6e0 a4be 8754 be3e
00000320: 4c10 24bf f94c 6abe 7eb8 593e 50c3 603f
00000330: 4064 183d 9e9f b03c 606d e4bb c777 16be
00000340: 1364 fe3e f7e6 66bf 4095 e7bd d5d1 9e3f
00000350: f1ca b4bf a015 713f 600f dabc 983c dcbd
00000360: 0cb7 03bf a425 15bf d088 ba3f 9518 18be
00000370: e97a 9e3e e321 e6be 453a 8ebe 10e2 19be
00000380: c144 16be 1234 e63e c007 0b3f 5304 f83e
00000390: 1e76 823e 8e6c fdbd bdd1 9dbe b5fb 8f3f
000003a0: 3cd4 99bd 7051 353f fcf3 5f3e 1b9a b13e
000003b0: 2fc3 1bbf 7714 2cbe 4858 1e3d 493d 76be
000003c0: 919a cbbe 8d76 703f c05d 86bb f047 c0be
000003d0: ec5a 2bbe 2afe 5cbe 9d1e 62bf 7219 e0be
000003e0: 0ce2 38bf ded6 f1bd 174e cf3d 3be1 33be
000003f0: 9cec cd3e 7364 8c3f 6f75 f0bd 8c20 7e3f
0.019775985 -0.06780818 -0.06199522 -0.14227067 0.015333727 -0.13845593 -0.06471285 -0.05255267
-0.06984637 -0.15192676 -0.005766 -0.08766839 -0.12683287 0.007518431 0.06210816 -0.056603774
-0.007054967 -0.026597025 -0.0546414 -0.12918729 0.039508417 0.10459158 0.07392204 0.043375973
-0.061693467 -0.073743075 0.081454515 -0.11390222 0.07009969 0.032561317 0.062805474 -0.05941356
0.048420083 -0.0134373745 -0.1240873 0.07350305 -0.1271756 -0.12221271 -0.10003651 -0.096333526
0.044696838 0.008682753 0.027312344 0.090911716 -0.105579816 0.064869314 0.015267357 0.022393435
-0.06525675 0.009583353 -0.09641275 -0.053717516 -0.07691706 -0.06702256 -0.008687288 0.08415911
-0.05422789 -0.107878074 0.08641667 -0.11818636 0.06464579 -0.044090196 -0.015079886 -0.08675195
-0.019979922 -0.087409735 -0.04057825 -0.018530766 0.11971435 -0.011213734 -0.060903694 -0.14291143
-0.011514555 0.07049457 0.0018049845 -0.031249069 0.04813323 0.061037805 -0.036867812 -0.09901577
0.000291726 -0.11208646 0.020164324 -0.086774305 0.045689408 -0.10941692 -0.09528428 -0.13172051
-0.11078784 0.09218407 0.07595592 -0.04025787 -0.10007517 -0.08976203 -0.15291025 -0.022101501
-0.032702886 0.11531039 0.052339137 -0.09935105 0.033108942 -0.0136730075 -0.089128725 0.041632514
-0.016657427 -0.08237096 -0.15492192 -0.051817592 -0.070434965 -0.10549041 0.008690749 -0.109245546
-0.14767987 -0.045611177 -0.056791067 -0.039859258 0.029971277 -0.04701191 -0.16384783 -0.051210362
0.04072726 -0.039773896 0.009211364 0.023463111 0.06235285 0.043592043 0.038078874 0.12136035
0.0009996742 -0.035560217 -0.06266455 0.035933062 0.0022880435 -0.089196324 0.06581415 0.013878673
-0.12313196 -0.038707614 -0.11099176 -0.06546101 0.08860497 -0.115289524 0.07430549 -0.038674086
0.067421004 0.000533551 -0.06289388 -0.10521658 0.039223522 -0.089523606 -0.11802578 -0.06663513
-0.03130901 -0.056904614 -0.09523246 0.05590278 -0.04137592 -0.012751892 0.002356574 -0.046915114
-0.018648162 -0.05568822 0.0043550283 -0.051702604 0.017261475 0.012900546 0.016096279 -0.123226315
0.084203824 0.010294557 -0.11963433 -0.04112105 -0.008058131 0.07276794 -0.016107127 0.063739404
-0.07348022 -0.104365356 -0.018974721 -0.03525518 0.06364882 -0.07062405 0.06067182 -0.07882325
0.09079401 -0.0999024 -0.10119912 -0.103082016 0.09874228 0.11389477 -0.060987115 0.037181303
-0.065149926 -0.0961009 1.069478 -0.3285171 -0.00142046 -0.4006502 -0.32202882 0.37173864
-0.6408737 -0.22880925 0.21261784 0.87798023 0.03720498 0.021560486 -0.0069710463 -0.14694129
0.49685726 -0.90196174 -0.11307764 1.2407786 -1.4124433 0.9417362 -0.02661866 -0.10753745
-0.5145118 -0.5826056 1.4573002 -0.14853127 0.30953148 -0.4494773 -0.2777883 -0.15027642
-0.14674665 0.44961601 0.543087 0.484408 0.2548074 -0.12374221 -0.3082408 1.124869
-0.075111836 0.7082739 0.21870416 0.34687886 -0.608447 -0.16804682 0.03865841 -0.24046816
-0.39766362 0.93930894 -0.0041005313 -0.37554884 -0.16733903 -0.21581331 -0.8832796 -0.43769413
-0.7221992 -0.11808561 0.10122316 -0.17566387 0.4021958 1.0968155 -0.11741149 0.9926841

fc2.bias f4 [64]
00000000: 34b5 75bd f3bc 593d 6e8b e2bd b957 6540
00000010: a49e 0f3d f93c 4240 ec9b 66bd 7a3e 3540
00000020: 96af e5bd f621 03be c8b7 d4ba c4d1 4240
00000030: d821 ee3f 9da1 d43f 3242 2240 063b 83bd
00000040: 61a1 b03d ef18 aebc e630 5d40 e364 3f40
00000050: 8e73 d33c 44f5 ccbf 245b c03f 4f1e 0d40
00000060: ce6e ccbe a80b 4d40 3565 2a40 548b 6fbc
00000070: 32d8 5140 5f3d 3140 b4b3 473d 20cc b13e
00000080: 0814 0440 62ca e9bd aff5 1240 96ac ae3d
00000090: 78bb f93f d02c 70bd d913 f13f 16a1 4040
000000a0: 6de0 2c40 9915 c93f 8de4 6340 7963 5940
000000b0: d014 c7bd 1b86 1840 fe95 4a3d d7d1 a0be
000000c0: 9275 5b40 d73c 6540 f563 8cbf 86b0 0f40
000000d0: 7c04 ae3f 7f47 4540 b6f3 283f 8091 433c
000000e0: 9c14 023f f0d4 6abd 4729 15bd 146c 6d3c
000000f0: 51a4 b63f 201c 25be 59e9 a4bd 582c 2c40
-0.059987262 0.05315871 -0.1106175 3.5834792 0.0350634 3.0349715 -0.056301042 2.8319383
-0.11215131 -0.12805924 -0.0016229087 3.044053 1.8604078 1.661182 2.5352902 -0.06407742
0.086245306 -0.021252124 3.4561095 2.9905326 0.025811937 -1.6012349 1.5027814 2.204975
-0.39928287 3.2038364 2.6624272 -0.014620621 3.2788205 2.7693708 0.048755363 0.34726048
2.0637226 -0.114155546 2.2962453 0.08529012 1.9510336 -0.058636487 1.8834182 3.009832
2.7011979 1.5709716 3.5608246 3.3966963 -0.097207665 2.3831851 0.04945945 -0.31410095
3.429051 3.5818384 -1.0968004 2.2451491 1.3595119 3.0824888 0.65996873 0.011936545
0.508127 -0.05733198 -0.03641632 0.0144911 1.4268895 -0.1612401 -0.0805232 2.6902065

fc3.weight f4 [20, 64]
00000000: e989 143b 230f a03d 68af e93c 1986 ae3f
00000010: 6069 d9bc f25b 5a3f a8da 98bc fccc 603f
00000020: 3e76 233c 6afd 7b3e c470 7d3d bee1 a63f
00000030: 7933 db3f d9a5 49bf af73 983f 5c2b 0ebd
00000040: 7453 4b3d 2890 08bd a963 8b3f 9609 a73f
00000050: e04a 313c c5f8 9fbf cfe1 49c0 aa1f 1e3f
00000060: afa5 6cbe 50e4 983f 509b 853f 8011 9dbd
00000070: 5594 983f cb6c 943f acc2 5a3c e94c 633f
00000080: 14b4 913f 1b56 0dbd fe4f 8b3f b190 db3d
00000090: bfcd 1ac0 da15 a8bc cdc8 0dbf 20f6 8a3f
000000a0: fa7d c33f 8339 22c0 911a 903f cf02 b43f
000000b0: 4338 4fbe 220c 253e 934f d9bd 3039 693f
000000c0: 7a15 ad3f 5f7c ad3f 0c95 d6be 0986 eebf
000000d0: be6f 32bd 340c 8d3f 9439 8dbf 3653 dbbd
000000e0: adac b6be fc75 c4bd bd10 3f3d ac3f dbbd
000000f0: d6f5 0ac0 2ae4 9fbd 9340 7a3d ccf3 923f
00000100: 10c8 ffbc 1afd cd3d 00ca fabd 134f 563f
00000110: c541 dabd 5ffa 973e 162a b5bd 2439 0c3f
00000120: 01c4 7b3c f5e3 f93e ba23 cabd 778c 4e3f
00000130: 0691 e63f f19c bc3e 05fc 493f e808 ec3c
00000140: 9a11 c23d db38 e23d d400 5f3f e787 6d3f
00000150: 8003 2f3c 5d86 f9be c3e6 05bf 213d fc3e
00000160: 855a 243f 46f1 5b3f b847 fe3e ea69 8bbd
00000170: 7c02 523f 0455 513f f4a8 ba3d 4039 953e
00000180: 12fd ed3e 3d6b acbc 9dd5 6e3f 314e 103e
00000190: 6e0f b4bf 34df ebbd bb5b a7bf 9e86 0d3f
000001a0: 40ea e23f 90a6 22bf 2d31 503f f5d3 213f
000001b0: dfba 523c a82f cf3e 235a c53d aae7 4d3e
000001c0: 1f92 5d3f 2d2a 4d3f 24db dbbe 238a 09be
000001d0: 3e43 c63e 1768 363f ac6d 3dbf 3404 53bd
000001e0: b7a1 95bc 0833 943d 863d 403d 78ee d43d
000001f0: ef36 31bf a52b b4bd 5413 38bd 942c 0e3f
00000200: f026 af3d 4a5c e0bc a832 2fbd 6bae 3a3f
00000210: 4066 1bbb 06c4 af3e a8c6 8c3d 36b1 073f
00000220: 1bb9 753c 2a62 6b3f 1e78 c0bc 4b03 1c3f
00000230: cbbb 0440 67f8 10be 5f82 9b3f 4066 febd
00000240: 4060 7bbd e4ca 02bd 52b0 183f 6823 9a3f
00000250: 5e10 b5bd c431 38bf 0f29 08bf 060b 03bf
00000260: 2e38 343f 8df1 303f 2672 473f 4e22 f83d
00000270: 847e 163f cdaa 873f 6a2b 823d c35e c53e
00000280: 8ee5 c13f 321b ba3d 7983 9c3f d347 75bc
00000290: e08e bdbf 68db e6bc 8197 99bf 4d0a 113f
000002a0: f935 ab3f aae6 47bf c6da 1e3f 1a87 323f
000002b0: 8acb 00bf b551 583e fa9b 823d 4330 903f
000002c0: ab74 5b3f 5353 533f edcb debe c5ee cebd
000002d0: 1c52 c03e eca2 3b3f 9d48 40bf 607f 77bd
000002e0: a6a3 953e e890 9fbc 3846 b83c c1a7 9e3c
000002f0: ad32 d1be 2c7f e2bb 0100 5ebd 2baf a43f
00000300: 3073 f23c 29fd 69bd c0ea 0e3c ea5f 573f
00000310: 7c34 1c3d c76e 183f 8851 753d 191e 1c3f
00000320: 1863 923b eb92 373f 725b 9f3d 80f6 4a3f
00000330: c319 f13f b701 823e f373 203f f00b 90bc
00000340: ca60 9e3d f44f 90bd ca3e 623f f31b 573f
00000350: 2cee 243d 6865 c4be 44d1 c0be 874c 683e
00000360: 3e78 d63e 65e7 553f 13be 3b3f 22ff b0bd
00000370: ea86 263f 595b 533f b85f 66bd 51ea ff3d
00000380: 5ff2 0c3f cab0 cebd 383f 2a3f ea92 f4bd
00000390: 23b8 97bf e6d5 b6bd 68d7 95bf 9cc7 3a3f
000003a0: 919a c93f e09b 73bf f9f2 443f f08f 4b3f
000003b0: 90b0 f5bd 5c83 ef3e 6567 c8bd 4bc7 053f
000003c0: b073 6a3f 895b 403f 6098 f2be 2f06 c3be
000003d0: 2681 b23e 52b9 343f 9bd8 56bf acf9 4c3d
000003e0: 70e5 413e 2ed1 f7bd e922 5abe bfcc 663d
000003f0: 5fce 14bf f498 983d f40d 323b 0e62 2d3f
0.0022665209 0.07815387 0.028526023 1.3634673 -0.026539505 0.8529655 -0.01865895 0.8781278
0.009976922 0.24608389 0.06187512 1.3037641 1.7125083 -0.7876869 1.1910304 -0.03470932
0.049640134 -0.033340603 1.0889789 1.30498 0.010821074 -1.2497793 -3.1544073 0.61767066
-0.23110078 1.1944675 1.0438023 -0.076693535 1.1920267 1.1595701 0.013352077 0.8878923
1.138308 -0.034505945 1.0883787 0.10720957 -2.4188077 -0.020518232 -0.5538452 1.0856361
1.527282 -2.5347602 1.1258107 1.4063357 -0.20236306 0.1611791 -0.10610881 0.91102886
1.3522179 1.355358 -0.4191059 -1.8634654 -0.043563597 1.1019349 -1.1033196 -0.107092306
-0.35678616 -0.09592816 0.046646822 -0.10705504 -2.1712546 -0.07807191 0.06109674 1.1480651
-0.031223327 0.10058041 -0.1224556 0.8371441 -0.10657076 0.29683205 -0.08845918 0.5477469
0.015366555 0.4880673 -0.098700956 0.8068308 1.8013008 0.36838487 0.78900176 0.02881284
0.094760135 0.110460006 0.8711064 0.92785496 0.010681987 -0.48735324 -0.5230524 0.49265388
0.6420062 0.8591503 0.49664092 -0.06807311 0.8203504 0.8177035 0.091142565 0.2914524
0.4648214 -0.021047229 0.932947 0.14092328 -1.4067209 -0.11517182 -1.3074869 0.55283535
1.7727737 -0.63535404 0.81325036 0.63214046 0.012861936 0.40466046 0.09636333 0.20107904
0.8655109 0.8014248 -0.4294063 -0.13431601 0.38723177 0.7125258 -0.7399547 -0.05151768
-0.018265588 0.07236296 0.046933673 0.10397047 -0.69224447 -0.08797387 -0.044940308 0.5553677
0.085523486 -0.027387757 -0.04277292 0.7292239 -0.0023712069 0.34329242 0.06873828 0.5300478
0.014997746 0.9194666 -0.023494776 0.60942525 2.073962 -0.14157258 1.2149161 -0.124218464
-0.061371088 -0.031931773 0.59644043 1.2042055 -0.088410124 -0.71950936 -0.5318765 -0.51188695
0.70398223 0.6911858 0.7790855 0.12115918 0.587868 1.0598999 0.06355937 0.3854886
1.514818 0.09087218 1.2227622 -0.0149707375 -1.4809227 -0.028180793 -1.199936 0.5665634
1.3375846 -0.7808634 0.6205257 0.697374 -0.50310576 0.21124919 0.063774064 1.1264728
0.85724896 0.8254902 -0.43514958 -0.101041354 0.37562644 0.73295474 -0.751108 -0.06042421
0.29226416 -0.019478276 0.02249442 0.0193671 -0.40858975 -0.0069121327 -0.054199222 1.2865957
0.029595941 -0.057126198 0.008722961 0.8413073 0.03813599 0.5954403 0.059892207 0.60983425
0.0044673793 0.71708554 0.07781114 0.7928238 1.8835987 0.25391933 0.62676924 -0.017583817
0.07733305 -0.070465 0.8837706 0.8402702 0.0402662 -0.38358617 -0.37659657 0.22685443
0.41888613 0.83556205 0.73336905 -0.08642413 0.6504961 0.8256126 -0.05624363 0.12495864
0.5505733 -0.100923136 0.66502714 -0.11942084 -1.1853069 -0.08927517 -1.1706362 0.7296083
1.5750295 -0.9515972 0.76933247 0.79516506 -0.11996567 0.46779907 -0.09785346 0.5225722
0.91582775 0.7513967 -0.47381878 -0.38090655 0.34864157 0.70595276 -0.83924264 0.050042793
0.1893518 -0.12100445 -0.2130238 0.056347605 -0.581274 0.074510485 0.0027168961 0.67727745

fc3.bias f4 [20]
00000000: ca1f fa3f 73cd 293f 87d2 b8be e317 163f
00000010: 0801 ac3e 5dc1 a83e a3f5 e13e cac0 a2bb
00000020: 2c68 cd3e 30de 863d 03a8 7f3e e513 dd3e
00000030: dc54 b33e c6e2 2c3f 10c8 a63c 1455 17bd
00000040: da62 1d3d 9e00 ae3e 26b8 b1bd 1a3a ae3e
1.9540951 0.66329116 -0.3609812 0.586302 0.33594537 0.32960024 0.44132718 -0.00496683
0.4011854 0.06585348 0.24966435 0.4317924 0.3502568 0.6753353 0.02035907 -0.03694637
0.03842435 0.33984846 -0.08677702 0.34028703

exp_avg f4 [64, 3]
00000000: 1535 ef41 4cdf a542 1774 9744 0000 0000
00000010: 0000 0000 0000 0000 9429 b8c3 ba5f 89c4
00000020: 2916 4ec6 6118 4342 a57d 3943 caf1 c044
00000030: 0000 0000 0000 0000 0000 0000 e651 3843
00000040: 10d1 1c44 108a d045 f778 c341 9d9b 1643
00000050: 5ae2 b844 e4fb 8c41 4ddb 87c3 7547 17c5
00000060: 3ab3 8341 2b1b ac40 e5dc b2c3 de01 1ec1
00000070: 8f2e 3e42 4a3d 9b43 a71c 9341 0c94 c9c2
00000080: 7ef0 23c4 913f 69c3 8831 41c4 498c 15c6
00000090: cf99 3141 096a e43f 5beb 1543 e58e 35c2
000000a0: 194f a243 8432 ee44 0000 0000 0000 0000
000000b0: 0000 0000 7695 ab41 6481 ec41 aff1 f140
000000c0: 9976 9041 10e9 a8c2 a6d3 afc4 b3e6 8443
000000d0: 1826 5042 44f7 0844 5b03 e13f 9806 6742
000000e0: 9d22 da43 ce97 98c3 cc3b 77c4 b010 37c6
000000f0: 724e 6bc2 ce0c fa43 e952 9a45 1c24 8dc3
00000100: 8edb 6cc4 a25e 2fc6 0000 0000 0000 0000
00000110: 0000 0000 12c5 3e42 7ac7 3f43 6661 e144
00000120: 82f4 bc42 a4f5 a243 940f 4045 3e9d a343
00000130: 2460 8344 dd8d 3546 59c1 5dc3 f4fb 57c4
00000140: cd4a 18c6 d280 2743 96dd 7c42 df96 ab43
00000150: ab7e 97c2 b1df 6ec3 4b57 8cc5 0bce e741
00000160: 232c 9543 02c5 2445 ca9f 8241 b4bf f042
00000170: c29c 6f44 d2c8 a8c0 bdc5 cc42 a451 9244
00000180: 643e 14c1 9b75 c141 657c dd43 957d 3ec3
00000190: 931f 20c4 81d7 eac5 289f 25c3 c61f 0ac4
000001a0: 40d4 d2c5 120f d741 439e ed42 5274 7743
000001b0: 54c6 c241 31c6 a0c2 4fb1 c1c3 0000 0000
000001c0: 0000 0000 0000 0000 a464 b0c1 16d6 f842
000001d0: d02c b944 2fc3 07c3 3454 1ac4 a3ff dfc5
000001e0: 0000 0000 0000 0000 0000 0000 2529 16c3
000001f0: 5140 0ac4 ad0b cac5 1ae7 3ac1 408b 02c3
00000200: 527d b6c4 0570 7842 66a8 1742 aac6 8c42
00000210: 81aa 3d43 f06b 2644 e10a e145 9b17 6940
00000220: 5ddd 8e42 7bcf 1544 0000 0000 0000 0000
00000230: 0000 0000 94d0 4043 c340 5744 40a0 0d46
00000240: b654 4042 2edc 6b43 d7d0 0045 7a66 f0c2
00000250: fbb6 edc3 c7ec c9c5 0000 0000 0000 0000
00000260: 0000 0000 28b5 0142 f017 5843 5001 ec44
00000270: 542c 5d41 b41f 5c43 403e 2345 5efb f340
00000280: 41cd 1440 c8b9 36c3 782d c141 4844 0144
00000290: b00c c545 fa44 7742 b0c7 7843 a597 0c45
000002a0: 83be 3242 b5f0 5742 fbcd 0f43 0000 0000
000002b0: 0000 0000 0000 0000 24b2 4540 e4b3 6cc1
000002c0: 3ea2 3ec3 f2a7 f340 45c8 ea42 5d96 8544
000002d0: cb03 42c3 1d02 0fc4 8210 04c6 f43d 24c3
000002e0: 0448 61c4 6a10 1fc6 0000 0000 0000 0000
000002f0: 0000 0000 a0bc 4cc3 5ccf 2fc4 c69c 05c6
29.900919 82.93613 1211.6278 0.0 0.0 0.0 -368.32483 -1098.9915
-13189.54 48.773808 185.4908 1543.5559 0.0 0.0 0.0 184.31992
627.2666 6673.258 24.434065 150.60786 1479.0735 17.622993 -271.7133 -2420.466
16.462513 5.3783164 -357.72574 -9.875456 47.545467 310.47882 18.38899 -100.789154
-655.7577 -233.2483 -772.7739 -9571.071 11.100051 1.7844859 149.91936 -45.389545
324.61795 1905.5786 0.0 0.0 0.0 21.447979 29.563179 7.5607524
18.057909 -84.4552 -1406.614 265.80234 52.0372 547.8635 1.7579149 57.75644
436.27042 -305.18597 -988.9343 -11716.172 -58.826607 500.10004 4938.364 -282.2821
-947.43054 -11223.658 0.0 0.0 0.0 47.69245 191.7792 1803.0437
94.477554 325.91907 3072.9736 327.22845 1051.0044 11619.466 -221.75526 -863.93677
-9746.7 167.5032 63.216393 343.17868 -75.7474 -238.8738 -4490.9116 28.975607
298.34482 2636.313 16.328022 120.37442 958.44934 -5.274514 102.38621 1170.5513
-9.265232 24.182425 442.97183 -190.49055 -640.49335 -7514.938 -165.6217 -552.49646
-6746.5312 26.882359 118.809105 247.45438 24.34684 -80.38709 -387.38522 0.0
0.0 0.0 -22.04914 124.41814 1481.4004 -135.76244 -617.3157 -7167.9546
0.0 0.0 0.0 -150.16072 -553.00494 -6465.4595 -11.681421 -130.54395
-1459.9163 62.109394 37.91445 70.388016 189.66603 665.6865 7201.36 3.6420658
71.43235 599.2419 0.0 0.0 0.0 192.81476 861.0119 9064.0625
48.082726 235.86008 2061.0525 -120.20015 -475.42953 -6461.597 0.0 0.0
0.0 32.42691 216.0935 1888.041 13.823322 220.12384 2611.8906 7.6244345
2.3250277 -182.72571 24.147202 517.0669 6305.586 61.81736 248.78003 2249.4778
44.686047 53.985065 143.80461 0.0 0.0 0.0 3.0889978 -14.793919
-190.63376 7.614251 117.39115 1068.6989 -194.01482 -572.033 -8452.127 -164.242
-901.12524 -10180.104 0.0 0.0 0.0 -204.73682 -703.24 -8551.193

exp_avg_sq f4 [64, 3]
00000000: b33d 3f48 9120 8f48 a1c3 0d4c 0000 0000
00000010: 0000 0000 0000 0000 dee1 9e4b 1351 fd4b
00000020: 19e7 5e4f 38c9 1948 6a1a ac48 42a4 7c4c
00000030: 0000 0000 0000 0000 0000 0000 5db0 b04a
00000040: c46d 1b4b 1803 0a4e c597 5b48 f0b5 e948
00000050: a611 8a4c 8d19 eb47 1135 7149 488d 4d4d
00000060: 41f9 d947 4e40 0148 db37 584b d7fa 2b47
00000070: 9445 7247 8cd1 e14a a301 0048 8edf 2f48
00000080: e4d2 994b bf95 074b b179 634b 8870 d34e
00000090: 0764 e146 ed81 6e46 a6ae 294a e55b 6748
000000a0: 1408 9549 b414 6a4c 0000 0000 0000 0000
000000b0: 0000 0000 7198 3647 e8ae 9d47 6bf0 b148
000000c0: ea35 f147 5a36 ce48 0925 924c b8eb c34a
000000d0: 47d2 9a4a 08ab 544c a705 ab46 dd04 6047
000000e0: f944 1a4b dbdb 594b b35d b74b d51a 264f
000000f0: b335 8c49 f529 774a 5639 1e4e 226b 584b
00000100: 1813 b44b 082d 254f 0000 0000 0000 0000
00000110: 0000 0000 3e25 7f48 8410 f048 0427 bd4c
00000120: 5802 2d49 c904 a249 6665 6b4d 1128 964b
00000130: 58dd f74b e7d0 e34e 7fef c94a 379e 504b
00000140: fe65 d54e 5119 e748 24de b747 6067 c049
00000150: 3e69 0b4a 9770 2e4a 6a8b 764d 9b2b ac48
00000160: 6e63 8e49 f34d 4a4d 19fc 3e47 b98f 2748
00000170: c58f f14b aedc 9247 d813 4a48 0c9d 3b4c
00000180: e6b5 6247 5476 0748 40bd f94c d18a d54a
00000190: cf89 2e4b d8c9 a14e 5e1c a74a 291a 064b
000001a0: 3d2c 734e fc4d 9247 8604 7649 ad6f b64a
000001b0: 605f ea47 fd9d 0048 10ad 194b 0000 0000
000001c0: 0000 0000 0000 0000 85d8 6d47 b3ed 9148
000001d0: d016 824c 9793 3b4a a119 cc4a de09 574e
000001e0: 0000 0000 0000 0000 0000 0000 3edf 814a
000001f0: 4060 e14a 043a 554e 15dc 9747 289d 6c48
00000200: 55d3 324c e96c a748 1c45 be48 1421 724a
00000210: 336a e24a a46b 404b 58e6 284e cfeb 9646
00000220: cb19 7147 7cd3 334b 0000 0000 0000 0000
00000230: 0000 0000 8cce 594b 9389 b74b 3ae6 a84e
00000240: 8e52 7248 60fa 2149 e5eb bc4c b1f1 364a
00000250: 5b02 a04a 7916 0f4e 0000 0000 0000 0000
00000260: 0000 0000 9c52 ea47 3860 f748 8a62 b34c
00000270: 6ba7 ca47 8103 1b49 4755 1f4d 39ed 1b47
00000280: 4499 7a47 62ca 114a 0800 1449 e5c1 7e4a
00000290: f25a 774e 0333 8648 9b03 3249 4c4e ef4c
000002a0: 4a0d 2449 323a 0149 b3b8 2e4a 0000 0000
000002b0: 0000 0000 0000 0000 e884 fa45 8320 3646
000002c0: e7e6 d849 9658 1a47 34a0 1d48 69e3 f14b
000002d0: 6b69 ab4a 6d69 094b dcd9 6d4e f27f 2d4b
000002e0: f303 9c4b 74d3 154f 0000 0000 0000 0000
000002f0: 0000 0000 2760 d14a 46f3 324b e254 a64e
195830.8 293124.53 3.7162628e+07 0.0 0.0 0.0 2.082502e+07 3.3202726e+07
3.7396872e+09 157476.88 352467.3 6.622849e+07 0.0 0.0 0.0 5.7897425e+06
1.018618e+07 5.7886464e+08 224863.08 478639.5 7.238789e+07 120371.1 987985.06 2.1553677e+08
111602.51 132353.22 1.4170075e+07 44026.84 62021.58 7.399622e+06 131078.55 180094.22
2.0161992e+07 8.885695e+06 1.4907825e+07 1.7736837e+09 28850.014 15264.481 2.7800735e+06 236911.58
1.2208665e+06 6.1362896e+07 0.0 0.0 0.0 46744.44 80733.81 364419.34
123499.83 422322.8 7.6621896e+07 6.419932e+06 5.0731875e+06 5.5749664e+07 21890.826 57348.863
1.0110201e+07 1.4277595e+07 2.403415e+07 2.7867763e+09 1.1485984e+06 4.0495332e+06 6.636394e+08 1.4183202e+07
2.3602736e+07 2.7711918e+09 0.0 0.0 0.0 261268.97 491652.12 9.917034e+07
708645.5 1.3272571e+06 2.4683069e+08 1.9681314e+07 3.2488112e+07 1.9110593e+09 6.6170235e+06 1.3671991e+07
1.7901156e+09 473290.53 94140.28 1.576172e+06 2.2841115e+06 2.8580218e+06 2.5852074e+08 352604.84
1.1664458e+06 2.1213163e+08 48892.098 171582.89 3.1661962e+07 75193.36 206927.38 4.9181744e+07
58037.9 138713.31 1.309353e+08 6.9973525e+06 1.1438543e+07 1.3571799e+09 5.475887e+06 8.788521e+06
1.0199407e+09 74907.97 1.0076884e+06 5.9780705e+06 119998.75 131703.95 1.0071312e+07 0.0
0.0 0.0 60888.52 298861.6 6.820416e+07 3.0732538e+06 6.6879525e+06 9.01937e+08
0.0 0.0 0.0 4.255647e+06 7.38512e+06 8.943373e+08 77752.164 242292.62
4.6878036e+07 342887.28 389672.88 3.967045e+06 7.4191615e+06 1.2610468e+07 7.08417e+08 19317.904
61721.793 1.1785084e+07 0.0 0.0 0.0 1.4274188e+07 2.4056614e+07 1.4168302e+09
248138.22 663462.0 9.9049256e+07 2.9973562e+06 5.2431815e+06 6.0015366e+08 0.0 0.0
0.0 119973.22 506625.75 9.404936e+07 103758.836 634936.06 1.6707288e+08 39917.223
64153.266 2.3886325e+06 606208.5 4.1739452e+06 1.03748314e+09 274840.1 729145.7 1.2546518e+08
671956.6 529315.1 2.8626368e+06 0.0 0.0 0.0 8016.6133 11656.128
1.7768609e+06 39512.586 161408.81 3.1704786e+07 5.6168215e+06 9.005421e+06 9.9761946e+08 1.1370482e+07
2.0449254e+07 2.513663e+09 0.0 0.0 0.0 6.8608195e+06 1.1727686e+07 1.3952904e+09
