beer/experiments/DQN_0.12/models/dqn_agent_firm_1_episode_1000.pth (torch, 101224 bytes, 24 tensors)

fc1.weight f4 [64, 3]
0.28498945 0.23683551 -0.3593396 -0.46670225 0.367061 0.1268347 0.2685827 -0.5385895
-0.36166376 -0.5225493 -0.07329045 -0.0004763322 0.0065713082 0.023533262 -0.010197362 0.048040733
-0.032727137 0.033571184 0.13032459 0.009330191 -0.018769505 0.110821836 0.68294257 -0.0076327026
-0.3830037 -0.44415686 -0.22987688 -0.18508752 0.21108486 -0.04764382 -0.18653628 0.23838143
-0.3090661 0.11823242 -0.06404075 -0.011135276 -0.2144038 0.40644553 -0.036108345 -0.08751854
0.30553004 0.20168495 -0.21468908 -0.25837857 -0.32115912 0.021978915 -0.011133061 -0.02178525
-0.32497084 0.5286754 0.0115085635 0.2933958 0.14691578 0.14695597 -0.007072354 0.58146286
0.42613378 -0.5640577 -0.3361875 -0.23491043 -0.2882738 -0.12850133 0.102678895 -0.29832262
-0.43402845 0.16881572 -0.07547021 -0.34192818 0.18611206 0.16017592 -0.35220572 0.31591177
-0.31049082 -0.45630372 -0.4046755 -0.811381 0.38179642 0.049212452 -0.3128429 -0.07215996
0.07763788 0.53029937 0.59340775 -0.0048598927 -0.12767924 0.24715975 -0.1986964 -0.48019928
-0.46786684 -0.55308104 -0.5739708 -0.27434483 0.36844152 0.06178367 -0.22842479 0.09819974
0.45923287 -0.4391779 0.086300254 0.45538965 0.7492184 -0.088314295 0.20853385 0.5660792
-0.022045 0.5430763 -0.2929203 -0.56595933 -0.1153487 -0.028873334 0.0045492873 -0.65777993
0.40653083 -0.015792388 0.21386439 -0.22208506 -0.25135505 -0.31829226 -0.26436707 -0.21510795
0.15388745 -0.11514461 -0.45473546 -0.33054188 -0.2585671 0.3312351 0.27198696 0.45313123
0.25799602 -0.07162601 -0.42419338 -0.1166808 0.0149200745 -0.24401668 0.18491068 0.22897547
-0.39431754 -0.33426303 0.21219972 0.46515065 0.24663244 -0.14194758 -0.1908774 0.068419404
-0.5347282 0.100037284 0.22101375 0.41011056 -0.16554816 0.0057340236 -0.32362735 -0.3350067
0.35883862 0.53102344 -1.0075262 0.038680527 -0.19521978 0.2658749 0.10478343 -0.21753615
-0.44131476 0.4646602 0.18074262 -0.22458777 -0.50745136 0.17106323 -0.0833456 -0.29755634
-0.26396322 0.5401986 0.42989013 0.08034298 -0.18702526 0.03772299 0.55184484 0.39072484
-0.2870456 0.0048172064 0.39075813 -0.021086209 0.21801342 -0.12809154 -0.0005595685 0.3408628
-0.2285948 -0.3230437 -0.14065741 0.7206129 -0.20731992 -0.07405001 -0.12006399 -0.53685963
00000000: 23ea 913e 0285 723e 5cfb b7be 99f3 eebe
00000010: 6bef bb3e f5e0 013e ac83 893e 00e1 09bf
00000020: fe2b b9be cac5 05bf 4e19 96bd 3abc f9b9
00000030: 2154 d73b d4c8 c03c d612 27bc 5cc6 443d
00000040: e40c 06bd f081 093d cf73 053e a8dd 183c
00000050: 81c2 99bc 8ff6 e23d 53d5 2e3f c01b fabb
00000060: 1019 c4be 8768 e3be d864 6bbe 9587 3dbe
00000070: a126 583e 2b26 43bd 5e03 3fbe 431a 743e
00000080: e93d 9ebe d723 f23d cc27 83bd bc70 36bc
00000090: ab8c 5bbe a119 d03e 58e6 13bd ec3c b3bd
000000a0: 6f6e 9c3e 8086 4e3e 74d7 5bbe 324a 84be
000000b0: f86e a4be 200d b43c 7167 36bc fb76 b2bc
000000c0: 9462 a6be 4557 073f 6a8e 3c3c f937 963e
000000d0: 1771 163e a07b 163e 35bf e7bb c0da 143f
000000e0: 352e da3e 1666 10bf c520 acbe 5c8c 70be
000000f0: a098 93be da95 03be 5049 d23d bebd 98be
00000100: fa38 debe 07de 2c3e 2090 9abd 3611 afbe
00000110: 2994 3e3e 2805 243e 4f54 b4be 30bf a13e
00000120: a7f8 9ebe a4a0 e9be a131 cfbe aab6 4fbf
00000130: d27a c33e ff92 493d f22c a0be 9ac8 93bd
00000140: 9c00 9f3d b3c1 073f 92e9 173f bc3f 9fbb
00000150: 59be 02be 7217 7d3e 1277 4bbe aedc f5be
00000160: 3e8c efbe b896 0dbf c0ef 12bf ed76 8cbe
00000170: 5ea4 bc3e e010 7d3d 30e8 69be f21c c93d
00000180: 9220 eb3e eddb e0be 30be b03d d528 e93e
00000190: c7cc 3f3f 20de b4bd e689 553e 91ea 103f
000001a0: b797 b4bc 0c07 0b3f a6f9 95be b6e2 10bf
000001b0: f03b ecbd c587 ecbc 3012 953b 4464 28bf
000001c0: cf24 d03e 0a5f 81bc 44ff 5a3e 446a 63be
000001d0: 9cb1 80be 34f7 a2be 1f5b 87be 4245 5cbe
000001e0: ac94 1d3e f0d0 ebbd 16d3 e8be c93c a9be
000001f0: e862 84be a697 a93e e041 8b3e d100 e83e
00000200: 0e18 843e a8b0 92bd e02f d9be 58f6 eebd
00000210: 5473 743c 82df 79be 3a59 3d3e 8c78 6a3e
00000220: fde3 c9be 8624 abbe e24a 593e 3a28 ee3e
00000230: 378d 7c3e b55a 11be 5d75 43be 791f 8c3d
00000240: f3e3 08bf 59e0 cc3d 6e51 623e 03fa d13e
00000250: 7585 29be 7ae4 bb3b 7cb2 a5be 0086 abbe
00000260: b2b9 b73e 27f1 073f 9ef6 80bf 796f 1e3d
00000270: b2e7 47be c120 883e b298 d63d ccc1 5ebe
00000280: 02f4 e1be f1e7 ed3e 9814 393e 56fa 65be
00000290: 55e8 01bf 332b 2f3e 19b1 aabd 4e59 98be
000002a0: 3026 87be 754a 0a3f 8f1a dc3e dc8a a43d
000002b0: 8d83 3fbe 6c83 1a3d b445 0d3f 160d c83e
000002c0: a4f7 92be a8d9 9d3b 7311 c83e fcbc acbc
000002d0: e93e 5f3e 6e2a 03be 02b0 12ba 9285 ae3e
000002e0: c114 6abe fc65 a5be 7f08 10be 167a 383f
000002f0: ac4b 54be 88a7 97bd 1ce4 f5bd a26f 09bf

fc1.bias f4 [64]
4.267686 1.1250314 0.1616376 0.5741284 1.423087 2.3944352 3.8391087 2.5248797
0.18695593 -0.7659721 3.1428623 3.0814793 -0.59634095 -1.51689 -0.0151052475 3.1929996
3.6738434 -0.68333685 -2.5948622 0.21537995 3.3304784 -0.34572792 -0.6223924 -2.1656976
-0.35814506 3.3562455 3.964028 2.6282034 4.3748713 0.4660554 2.6676555 -1.7055643
3.9948983 2.3849056 -0.69529027 0.17352307 3.9137604 -0.2079032 -0.49619567 -0.17864013
0.35912055 3.1463974 -2.3790588 0.53478765 -3.51322 0.35080814 -1.6247364 4.425404
3.192095 3.6667113 -3.3519323 0.59929025 -0.7133281 -2.8106408 0.33879876 3.2866945
-1.4011527 3.7495213 2.2393618 3.3772287 3.5778372 -0.5595231 2.292352 -0.2949245
00000000: e290 8840 0701 903f 5484 253e 14fa 123f
00000010: b727 b63f 6d3e 1940 f5b3 7540 a197 2140
00000020: 6071 3f3e bf16 44bf a824 4940 f536 4540
00000030: cda9 18bf 7429 c2bf 007c 77bc 1b5a 4c40
00000040: 4020 6b40 2aef 2ebf 3912 26c0 908c 5c3e
00000050: 8f26 5540 4003 b1be 1c55 1fbf ca9a 0ac0
00000060: ca5e b7be bacc 5640 a2b2 7d40 7c34 2840
00000070: f2fe 8b40 d09e ee3e deba 2a40 ee4f dabf
00000080: 6aac 7f40 4ba2 1840 8bfe 31bf 08b0 313e
00000090: 0d7b 7a40 94e4 54be 5c0d febe 70ed 36be
000000a0: a6de b73e 935e 4940 8042 18c0 d8e7 083f
000000b0: 99d8 60c0 209d b33e 5df7 cfbf e99c 8d40
000000c0: 494b 4c40 66ab 6a40 0f86 56c0 166b 193f
000000d0: ac9c 36bf 8ae1 33c0 0877 ad3e 3459 5240
000000e0: f958 b3bf 28f8 6f40 b451 0f40 8424 5840
000000f0: 49fb 6440 e83c 0fbf e5b5 1240 5800 97be

fc2.weight f4 [64, 64]
-0.07343819 0.012435417 -0.05620551 0.07615056 -0.13309665 -0.021629563 -0.02031816 -0.10464513
-0.05194886 -0.12379394 0.084505945 0.035608582 -0.095088944 -0.06479669 0.06335202 0.014839336
-0.1209153 -0.028834678 -0.009659614 0.105061695 -0.036325574 -0.064525366 0.05215552 0.06970056
-0.052213803 -0.14335911 -0.119314194 -0.16321503 -0.08096724 0.097044185 0.05924286 -0.03612182
-6.0447033e-05 0.027636254 -0.21207199 0.017883658 -0.033611663 -0.028945401 0.04139082 0.11719319
-0.058481842 -0.07981494 0.026473708 0.04329899 -0.12651925 0.10509628 -0.13820699 -0.07452224
0.02459872 -0.068017244 -0.057372987 0.08805791 -0.061126895 -0.022425337 -0.015830204 -0.13321096
-0.016879218 0.0012903331 -0.076501034 -0.07747095 0.004892273 0.11348271 -0.00026657566 0.059622407
0.096326426 -0.13182655 0.033561513 0.029964466 -0.08665695 0.040360518 -0.06492728 -0.007914662
-0.0054555684 -0.15362723 -0.04373394 -0.01588215 0.041748088 -0.082715765 0.08559358 -0.087956235
0.002456814 0.020570293 0.06877566 -0.1047145 -0.01864898 -0.03271873 -0.049090303 -0.15385051
0.09874271 0.0469666 -0.0070937374 0.09635335 0.06288333 0.08144735 -0.04086412 0.023120372
-0.10075699 -0.062401682 -0.13175303 -0.093227655 0.099440396 -0.04082683 -0.100023076 0.11339539
-0.02613999 -0.08876318 -0.0831348 0.03143297 -0.063148364 -0.124361545 0.03831261 -0.14436856
-0.105942614 -0.077277854 0.07476386 0.095600575 0.08460694 0.07780238 -0.024359912 -0.07896207
-0.1375278 -0.14632866 -0.002532959 -0.115367755 -0.059529766 -0.03416817 0.023276433 0.097728476
1.3725743 0.19802344 0.019092232 0.1408261 0.051929723 -0.12685774 -1.0334469 -0.1916613
0.03449118 0.10270808 1.404373 -1.0400231 -0.014988225 0.1446908 0.100922614 -1.3150731
-0.109019585 0.21385697 0.22925857 0.098240435 -0.1787428 -0.079953015 0.22492625 0.15575883
0.09112708 -0.13839233 -0.25274035 -0.14159548 1.4476767 -0.017228052 0.2355257 0.25693715
-0.21660683 -0.27263135 0.038028914 -0.117869645 -1.0377045 0.11070283 -0.10933195 0.11601925
0.046563566 0.13638668 0.13993551 0.036629066 0.36120504 -0.08169326 0.13868241 -0.29143023
-0.09514152 -0.37173516 0.35176802 0.18932758 0.096163675 0.12093839 0.11659162 1.0306675
0.08051555 -0.29205802 0.15760882 -0.47863448 -0.8604364 -0.09207044 -0.55918324 -0.099543184
-1.492809 0.12374088 -0.06767975 0.03206932 0.13226826 0.27635998 0.98043454 0.41198897
0.010722324 -0.013365874 -1.3231897 0.82498515 0.026159192 -0.08005619 -0.038048923 1.2557455
0.83032346 -0.043065198 -0.004290234 -0.008890912 0.36143413 0.006712215 0.024855139 -0.09798156
-0.028079957 1.1066442 0.49703968 0.35824305 -1.9054368 0.044093147 0.12586531 -0.11777087
1.012529 -0.008315325 0.095140375 -0.08975828 1.7193958 -0.086645715 0.08147736 0.026991725
0.11618188 0.10937642 0.038738616 -0.041843116 -0.6778311 0.036597177 0.058609236 0.6706579
0.27685833 0.6828869 -0.14471263 0.45298702 -0.028279314 -0.14862815 -0.03585899 -0.5164191
0.06418589 0.44253802 -0.32913637 0.5948252 1.0240984 0.012912436 0.24382173 0.11877565
00000000: c366 96bd ebbd 4b3c c037 66bd d3f4 9b3d
00000010: 7d4a 08be 7b30 b1bc 4572 a6bc 3050 d6bd
00000020: 54c8 54bd ad87 fdbd 7411 ad3d 4eda 113d
00000030: febd c2bd 21b4 84bd b4be 813d b020 733c
00000040: 71a2 f7bd b436 ecbc 5c43 1ebc 962a d73d
00000050: 20ca 14bd e025 84bd 07a1 553d 2bbf 8e3d
00000060: 24de 55bd bbcc 12be 005b f4bd d721 27be
00000070: 27d2 a5bd 1abf c63d a4a8 723d 79f4 13bd
00000080: 8288 7db8 6d65 e23c 6629 59be c080 923c
00000090: 62ac 09bd e81e edbc 6c89 293d fc02 f03d
000000a0: a88a 6fbd 0476 a3bd 64df d83c 485a 313d
000000b0: 438e 01be b83c d73d 2286 0dbe 1e9f 98bd
000000c0: 4183 c93c a04c 8bbd f0ff 6abd b557 b43d
000000d0: 3260 7abd 57b5 b7bc 58ae 81bc 7468 08be
000000e0: 4946 8abc 6520 a93a 93ac 9cbd 17a9 9ebd
000000f0: 5c4f a03b a069 e83d 2ec3 8bb9 a036 743d
00000100: ca46 c53d 8afd 06be cc77 093d 0a78 f53c
00000110: 3379 b1bd 1251 253d 98f8 84bd 80ac 01bc
00000120: a0c4 b2bb 7550 1dbe 5c22 33bd 481b 82bc
00000130: 0b00 2b3d e266 a9bd b04b af3d 6622 b4bd
00000140: 8002 213b 0883 a83c 41da 8c3d 8e74 d6bd
00000150: bfc5 98bc 1304 06bd ea12 49bd fd8a 1dbe
00000160: 9e39 ca3d 0d60 403d 9572 e8bb e854 c53d
00000170: fac8 803d decd a63d 2361 27bd ef66 bd3c
00000180: ae59 cebd e898 7fbd 44ea 06be 24ee bebd
00000190: 68a7 cb3d 093a 27bd e6d8 ccbd d83b e83d
000001a0: 8823 d6bc 78c9 b5bd 9442 aabd dcbf 003d
000001b0: ee53 81bd 44b1 febd afed 1c3d 5ad5 13be
000001c0: 71f8 d8bd da43 9ebd cb1d 993d 3cca c33d
000001d0: 6746 ad3d db56 9f3d 708e c7bc deb6 a1bd
000001e0: 16d4 0cbe 2ed7 15be 0000 26bb ee45 ecbd
000001f0: 7cd5 73bd ecf3 0bbd 38ae be3c de25 c83d
00000200: 84b0 af3f a8c6 4a3e 5067 9c3c b834 103e
00000210: 43b4 543d ffe6 01be fd47 84bf dc42 44be
00000220: a046 0d3d 9d58 d23d 7fc2 b33f 7a1f 85bf
00000230: 2c91 75bc d329 143e 84b0 ce3d 5154 a8bf
00000240: a945 dfbd 52fd 5a3e c2c2 6a3e 4832 c93d
00000250: 5a08 37be 68be a3bd 1153 663e 3e7f 1f3e
00000260: d6a0 ba3d b8b6 0dbe 2f67 81be 68fe 10be
00000270: 784d b93f d821 8dbc a62d 713e 448d 833e
00000280: 2ece 5dbe 5696 8bbe 35c4 1b3d a465 f1bd
00000290: 80d3 84bf 2ab8 e23d 6ee9 dfbd 809b ed3d
000002a0: 70b9 3e3d f3a8 0b3e 414b 0f3e 5c08 163d
000002b0: deef b83e cc4e a7bd c302 0e3e 5836 95be
000002c0: 8fd9 c2bd 1254 bebe f01a b43e 17df 413e
000002d0: 76f1 c43d 8cae f73d 96c7 ee3d eaec 833f
000002e0: 56e5 a43d a188 95be 3564 213e 940f f5be
000002f0: 8f45 5cbf 6d8f bcbd a226 0fbf 4cdd cbbd
00000300: 5e14 bfbf dc6b fd3d ae9b 8abd 1f5b 033d
00000310: 5571 073e 0e7f 8d3e c2fd 7a3f 38f0 d23e
00000320: b0ac 2f3c 8afc 5abc 485e a9bf 3a32 533f
00000330: cd4b d63c 80f4 a3bd 30d9 1bbd 45bc a03f
00000340: 1490 543f 2265 30bd 1795 8cbb 30ab 11bc
00000350: e50d b93e 24f2 db3b 019d cb3c 8eaa c8bd
00000360: f007 e6bc 84a6 8d3f fc7b fe3e a26b b73e
00000370: 5ae5 f3bf 049b 343d d6e2 003e db31 f1bd
00000380: 8d9a 813f 003d 08bc f5d8 c23d 30d3 b7bd
00000390: 2915 dc3f 4f73 b1bd 9add a63d c01d dd3c
000003a0: c4f0 ed3d bf00 e03d 62ac 1e3d b063 2bbd
000003b0: 5786 2dbf ece6 153d 3d10 703d 3cb0 2b3f
000003c0: 60c0 8d3e add1 2e3f 8c2f 14be eaed e73e
000003d0: 05aa e7bc fa31 18be e0e0 12bd 0b34 04bf
000003e0: e473 833d 5894 e23e 9084 a8be 7746 183f
000003f0: a815 833f af8e 533c 67ac 793e a640 f33d

fc2.bias f4 [64]
0.033793006 0.047350295 -0.43374658 2.062779 1.4359078 1.903291 -0.08673573 1.5697626
-0.9791068 1.4507974 2.3341906 2.0388992 -1.6373683 2.2064686 1.4429138 0.01926176
2.3680043 1.4945753 2.3911245 0.055993564 -0.9433744 -0.009866797 -0.014215158 -1.0632229
1.9551519 -0.034663677 0.10808034 -0.15176335 2.1447837 -0.17114033 1.6366205 1.4886436
1.567081 -0.02053152 -0.03737468 1.2663416 -0.3151812 0.060944017 0.072933756 -0.081416614
-0.11567783 2.13757 -0.11259316 0.033320453 1.0954001 -0.065861516 0.96310407 1.3512843
-0.115522966 -0.030787965 -0.015670372 -0.097369134 2.1004496 -0.017641364 0.05000355 2.1652403
0.86366975 1.1981213 -0.006186833 2.3550096 -0.012874895 -0.073092096 1.5625787 0.05360313
00000000: 896a 0a3d 62f2 413d 0814 debe 9204 0440
00000010: d4cb b73f 0a9f f33f 81a2 b1bd fbed c83f
00000020: bea6 7abf bbb3 b93f 6163 1540 537d 0240
00000030: 4995 d1bf c836 0d40 66b1 b83f d7ca 9d3c
00000040: 628d 1740 3e4e bf3f 2f08 1940 8259 653d
00000050: fc80 71bf 59a8 21bc b2e6 68bc b017 88bf
00000060: 6b42 fa3f 80fb 0dbd 3a59 dd3d da67 1bbe
00000070: 2344 0940 693f 2fbe c87c d13f e08b be3f
00000080: 1c96 c83f b831 a8bc 3116 19bd 7b17 a23f
00000090: 6e5f a1be 6fa0 793d 4b5e 953d c1bd a6bd
000000a0: 80e8 ecbd f2cd 0840 3e97 e6bd 077b 083d
000000b0: 1236 8c3f 67e2 86bd fd8d 763f e2f6 ac3f
000000c0: 4e97 ecbd 0b37 fcbc 275f 80bc 7869 c7bd
000000d0: c46d 0640 9f84 90bc 86d0 4c3d 4c93 0a40
000000e0: 7619 5d3f 0a5c 993f ebba cabb 7ab8 1640
000000f0: 39f1 52bc 4fb1 95bd 9402 c83f f58e 5b3d

fc3.weight f4 [20, 64]
0.06986129 0.071697235 -0.14806272 0.54307634 -1.2026788 0.3361801 0.07195896 -1.1313254
-0.4091437 0.16932516 -0.68695986 0.43383414 -0.4252367 0.45162016 0.18675813 0.1056651
-1.2961115 0.28604144 0.50502473 0.027639149 -0.48800159 0.120250486 -0.04455737 -0.381103
0.38601393 0.07925138 -0.05745098 -0.054809794 0.48160294 -0.013277443 -0.61031044 0.18897551
0.20937853 0.008730076 0.006786956 0.19299945 -0.18852036 0.021657549 0.1052427 -0.0030678862
-0.099994205 0.54485047 0.11006853 -0.045022912 0.63446605 0.050200805 0.3105196 0.1918562
-0.05031023 0.09519128 0.027535776 -0.062069714 0.51543796 0.12548402 0.04908877 0.6908941
0.06949954 0.054965843 -0.018894842 0.62912333 -0.076657824 0.0073405188 0.39489722 0.08946206
-0.05697267 0.113771185 -0.09658719 0.45757654 -0.6764024 0.24309666 -0.10877752 -0.4687704
-0.0045160926 0.10521365 -0.8124756 0.22824273 -0.20830812 0.29504025 0.1840558 -0.07376175
-0.56976527 0.03166752 0.5474582 -0.10369078 -0.0667331 -0.036828995 -0.09838257 -0.070527285
0.15446152 0.113260046 -0.006719923 0.09717832 0.26072347 0.13924418 -0.61054575 0.15405655
0.18552941 0.15938132 -0.013121651 0.1298347 0.006954508 -0.12060501 0.01769355 -0.04895202
0.05960349 0.51967376 -0.11871882 0.04531464 -0.29703674 0.011693865 -0.26845858 0.122804396
0.05885074 0.06439528 -0.07035469 -0.0193322 0.640536 -0.050644547 0.11056337 0.33843094
0.15434575 0.046590302 0.07892275 0.54335976 -0.061256774 0.010441855 0.40885732 0.11853731
-0.0046795867 -0.07016045 -0.054122623 0.5105971 -0.65888387 0.36443636 0.060188264 -0.55164975
-0.35800445 -0.054099854 -0.83349645 0.14645658 -0.36190206 0.34532785 0.19951952 0.039881453
-0.82127124 0.18639152 0.4358934 0.14768143 -0.034209177 -0.04390038 -0.100270085 -0.22926766
0.25865832 0.086417615 0.04213633 -0.0008550023 0.2652803 -0.041679736 -0.7708522 0.1785406
0.28394726 0.009119404 0.06163413 0.13125889 -0.08517426 -0.005893588 0.0085386485 0.09891606
-0.06147919 0.53767 0.0582563 -0.0010501593 -0.14046381 -0.01442665 0.07239837 0.2631905
0.12566067 -0.097759515 0.013832793 0.081002414 0.4260712 0.060460214 -0.024838785 0.49881393
0.1927588 0.046037994 0.07821116 0.5046785 -0.008096061 0.09026517 0.5804546 -0.025738358
-0.110498466 -0.049881443 -0.21586964 0.503957 -0.4192684 0.41242063 -0.038819283 -0.5683594
-0.3286494 0.18017484 -0.9789473 0.22364156 -0.4077628 0.26295337 0.17094778 -0.11388193
-0.800559 0.022288444 0.3890248 0.1766124 -0.28651267 0.08157438 0.013841029 -0.17524901
0.20618378 -0.054043397 0.001828362 -0.07636675 0.26065114 -0.108696 -0.80477697 0.12545073
0.35244867 -0.056860853 -0.032251075 -0.05921208 -0.3067918 -0.1024857 0.116808146 -0.08650705
-0.039297607 0.5351685 0.016185448 -0.1050531 0.02304238 0.037784323 0.16132805 0.22575419
0.0057610753 -0.09509232 0.10385572 -0.121526346 0.5372156 -0.09554398 -0.008103818 0.5280213
0.25399843 0.26580268 -0.09971665 0.52220696 -0.09567673 0.026269138 0.3980952 -0.03028661
00000000: 7013 8f3d 00d6 923d c19d 17be 0d07 0b3f
00000010: 61f1 99bf cc1f ac3e 385f 933d 45cf 90bf
00000020: 487b d1be 9363 2d3e 9adc 2fbf 821f de3e
00000030: a0b8 d9be c23a e73e 863d 3f3e f266 d83d
00000040: fbe6 a5bf 0674 923e 4d49 013f 7f6b e23c
00000050: 58db f9be e345 f63d ca81 36bd ef1f c3be
00000060: 9ea3 c53e 8c4e a23d b851 6bbd 3c80 60bd
00000070: a994 f63e a289 59bc 4e3d 1cbf cc82 413e
00000080: 5367 563e 9808 0f3c 1d65 de3b a6a1 453e
00000090: 7b0b 41be 2c6b b13c 7c89 d73d 970e 49bb
000000a0: c3c9 ccbd 527b 0b3f 9c6b e13d f269 38bd
000000b0: 5e6c 223f 5c9f 4d3d 6dfc 9e3e f475 443e
000000c0: 1a12 4ebd a5f3 c23d b592 e13c d03c 7ebd
000000d0: bef3 033f e27e 003e 4e11 493d 70de 303f
000000e0: c655 8e3d dd23 613d 5bc9 9abc 3a0e 213f
000000f0: c7fe 9cbd bc88 f03b f82f ca3e e237 b73d
00000100: 2d5c 69bd de00 e93d 81cf c5bd 7947 ea3e
00000110: b528 2dbf 55ee 783e c0c6 debd ad02 f0be
00000120: bbfb 93bb 417a d73d 67fe 4fbf 76b8 693e
00000130: b94e 55be 840f 973e 2079 3c3e 6610 97bd
00000140: 23dc 11bf cdb5 013d 3826 0c3f d55b d4bd
00000150: 5dab 88bd 00da 16bd cd7c c9bd 9c70 90bd
00000160: 292b 1e3e e2f4 e73d cd32 dcbb 6d05 c73d
00000170: 8c7d 853e 0796 0e3e ba4c 1cbf 00c1 1d3e
00000180: 6cfb 3d3e db34 233e 31fc 56bc 63f3 043e
00000190: a4e2 e33b c2ff f6bd 10f2 903c ea81 48bd
000001a0: ca22 743d 5709 053f da22 f3bd d89b 393d
000001b0: 3315 98be a097 3f3c 6773 89be df80 fb3d
000001c0: 790d 713d ace1 833d 1f16 90bd 905e 9ebc
000001d0: 2bfa 233f a870 4fbd 0c6f e23d d246 ad3e
000001e0: d00c 1e3e 79d5 3e3d 40a2 a13d a019 0b3f
000001f0: 62e8 7abd 5014 2b3c bf55 d13e b0c3 f23d
00000200: 3857 99bb 48b0 8fbd afaf 5dbd 7eb6 023f
00000210: 9dac 28bf 6797 ba3e f887 763d eb38 0dbf
00000220: 5c4c b7be cf97 5dbd 0660 55bf b7f8 153e
00000230: 3a4b b9be d0ce b03e d84e 4c3e bc5a 233d
00000240: d53e 52bf 6bdd 3e3e 6b2d df3e cd39 173e
00000250: ec1e 0cbd e3d0 33bd 675a cdbd 24c5 6abe
00000260: dd6e 843e b8fb b03d 2597 2c3d 3c22 60ba
00000270: d2d2 873e 5fb8 2abd 9256 45bf 59d3 363e
00000280: 8961 913e 8d69 153c 1274 7c3d bb68 063e
00000290: d86f aebd 001f c1bb b0e5 0b3c 8194 ca3d
000002a0: 9ad1 7bbd bea4 093f 289e 6e3d 80a5 89ba
000002b0: bfd5 0fbe c15d 6cbc 9945 943d e8c0 863e
000002c0: 31ad 003e 2436 c8bd f0a2 623c 98e4 a53d
000002d0: 0126 da3e 21a5 773d b57a cbbc 8a64 ff3e
000002e0: 9062 453e 5692 3c3d 2c2d a03d 9c32 013f
000002f0: 57a5 04bc f2dc b83d ac98 143f 40d9 d2bc
00000300: 054d e2bd 7c50 4cbd ee0c 5dbe 5303 013f
00000310: 59aa d6be cc28 d33e f800 1fbd 0080 11bf
00000320: bc44 a8be c17f 383e 4a9c 7abf 4b02 653e
00000330: 49c6 d0be d3a1 863e ef0c 2f3e ee3a e9bd
00000340: 6ff1 4cbf 4196 b63c 422e c73e e2d9 343e
00000350: cab1 92be 7810 a73d 7cc5 623c 7a74 33be
00000360: d721 533e 9c5c 5dbd a6a5 ef3a 2c66 9cbd
00000370: 1174 853e 029c debd dd05 4ebf 2876 003e
00000380: 2774 b43e ede6 68bd b419 04bd 5e88 72bd
00000390: d113 9dbe 06e4 d1bd 1c39 ef3d 9c2a b1bd
000003a0: 87f6 20bd ce00 093f 5897 843c 1426 d7bd
000003b0: 60c3 bc3c bcc3 1a3d 2e33 253e 1b2c 673e
000003c0: 67c7 bc3b c3bf c2bd 4fb2 d43d cee2 f8bd
000003d0: f686 093f 90ac c3bd e0c5 04bc 672c 073f
000003e0: 150c 823e 4a17 883e 3e38 ccbd 5baf 053f
000003f0: 29f2 c3bd 6032 d73c 22d3 cb3e a01b f8bc

fc3.bias f4 [20]
1.7541324 0.8216024 0.68335265 0.50271326 0.49741632 0.3920788 0.54412603 0.40661043
0.2029639 0.11909464 0.13691027 0.11201248 -0.03303911 -0.045662083 -0.058946736 -0.30345273
-0.059639696 -0.32556266 -0.21160272 -0.23730727
00000000: 6987 e03f 8954 523f 33f0 2e3f d1b1 003f
00000010: 5aad fe3e 8dbe c83e d84b 0b3f 3e2f d03e
00000020: c5d5 4f3e e4e7 f33d 3532 0c3e cd66 e53d
00000030: 0554 07bd 2a08 3bbd 2272 71bd 285e 9bbe
00000040: c148 74bd 26b0 a6be 62ae 58be ad00 73be

fc1.weight f4 [64, 3]
0.2635989 0.23877338 -0.39870006 -0.47352043 0.3846827 0.15023243 0.2685827 -0.5385895
-0.36166376 -0.50383735 -0.10178568 0.061853863 0.09028484 0.05963429 0.0021660188 0.07643301
-0.021472635 0.040470384 0.13419403 0.012309359 -0.021769317 0.12030827 0.68670166 -0.012943269
-0.3830037 -0.44415686 -0.22987688 -0.20035337 0.23980674 0.003010189 -0.16805547 0.26487738
-0.3221452 0.126781 -0.060038276 -0.013302689 -0.24404435 0.39193746 -0.013983581 -0.08841728
0.31162724 0.21431811 -0.21469125 -0.25837857 -0.32115912 0.024835885 -0.005909199 -0.023888512
-0.31429154 0.53161365 0.0047379863 0.30466965 0.15250655 0.16830035 -0.0034995433 0.58581525
0.4344345 -0.5640577 -0.33618945 -0.23491238 -0.2929207 -0.11918352 0.111736305 -0.21659642
-0.48463595 0.1680112 -0.07920733 -0.35116714 0.2187409 0.117790624 -0.3875609 0.31983924
-0.31049082 -0.45630372 -0.40467605 -0.790932 0.38054666 0.05172487 -0.30207598 -0.061269533
0.08136705 0.5423184 0.5972082 -0.011136896 -0.11510969 0.25855604 -0.20555325 -0.48019928
-0.46786684 -0.55308104 -0.5857444 -0.25065118 0.38973334 0.037304837 -0.22375001 0.101839095
0.45711958 -0.44605857 0.084855884 0.4837152 0.7295686 -0.12095624 0.21469226 0.55289465
-0.031701207 0.5430763 -0.2929203 -0.56595933 -0.11750673 -0.02749453 0.0012801084 -0.6181953
0.36312696 -0.020761851 0.21386439 -0.22208506 -0.25135505 -0.31829226 -0.26436707 -0.21510848
0.15388745 -0.11514461 -0.45473546 -0.39877838 -0.2650874 0.34238097 0.28235093 0.4656244
0.27160877 -0.07162601 -0.42419684 -0.11668132 0.021586115 -0.21902537 0.19396508 0.22897547
-0.39431754 -0.33426303 0.22747093 0.48670593 0.28076896 -0.14155349 -0.18978581 0.06889054
-0.54230493 0.113532476 0.23003952 0.41737688 -0.16382265 0.003233945 -0.2935976 -0.2956018
0.379385 0.5978853 -0.8645311 0.02784958 -0.1946842 0.2650172 0.14252724 -0.24817102
-0.45439568 0.4718922 0.18074262 -0.22458777 -0.50745136 0.19707778 -0.12584986 -0.30205193
-0.26374596 0.5417646 0.44584534 0.08938928 -0.18148234 0.03866898 0.55563104 0.3868478
-0.3153226 0.012372157 0.39618155 -0.023011224 0.22264001 -0.1263423 -0.0034958085 0.34089032
-0.2285666 -0.32302457 -0.13296427 0.72235996 -0.20260595 -0.07405001 -0.12006399 -0.53685963
00000000: 6ff6 863e 0281 743e 6a22 ccbe 4571 f2be
00000010: 21f5 c43e 88d6 193e ac83 893e 00e1 09bf
00000020: fe2b b9be 7cfb 00bf 0375 d0bd 7a5a 7d3d
00000030: 42e7 b83d 1643 743d c4f3 0d3b e988 9c3d
00000040: 61e7 afbc 46c4 253d 296a 093e 32ad 493c
00000050: 9155 b2bc 2f64 f63d aecb 2f3f 0110 54bc
00000060: 1019 c4be 8768 e3be d864 6bbe 6f29 4dbe
00000070: e68f 753e 9746 453b bc16 2cbe 029e 873e
00000080: 37f0 a4be e1d2 013e b2ea 75bd 86f3 59bc
00000090: c3e6 79be 07ac c83e 641b 65bc 1e14 b5bd
000000a0: 9b8d 9f3e 3576 5b3e 06d8 5bbe 324a 84be
000000b0: f86e a4be a074 cb3c f4a1 c1bb d7b1 c3bc
000000c0: d2ea a0be d517 083f 1c41 9b3b a9fd 9b3e
000000d0: ad2a 1c3e ed56 2c3e 9858 65bb fdf7 153f
000000e0: 336e de3e 1666 10bf 0621 acbe df8c 70be
000000f0: b4f9 95be 7d16 f4bd 01d6 e43d 74cb 5dbe
00000100: 3422 f8be 210b 2c3e 7437 a2bd 2ecc b3be
00000110: 9dfd 5f3e 363c f13d 626e c6be f8c1 a33e
00000120: a7f8 9ebe a4a0 e9be b331 cfbe 857a 4abf
00000130: 03d7 c23e 75dd 533d b4a9 9abe c3f5 7abd
00000140: c5a3 a63d 61d5 0a3f a3e2 183f 8777 36bc
00000150: a1be ebbd 7561 843e 8d7c 52be aedc f5be
00000160: 3e8c efbe b896 0dbf 58f3 15bf 5a55 80be
00000170: 218b c73e f5cc 183d b91e 65be 0491 d03d
00000180: 940b ea3e ca61 e4be ecc8 ad3d 85a9 f73e
00000190: 02c5 3a3f e8b7 f7bd 4ad8 5b3e 818a 0d3f
000001a0: 20d9 01bd 0c07 0b3f a6f9 95be b6e2 10bf
000001b0: 5ea7 f0bd 353c e1bc 4fc9 a73a 0c42 1ebf
000001c0: c7eb b93e c214 aabc 44ff 5a3e 446a 63be
000001d0: 9cb1 80be 34f7 a2be 1f5b 87be 6645 5cbe
000001e0: ac94 1d3e f0d0 ebbd 16d3 e8be ae2c ccbe
000001f0: 89b9 87be 8f4c af3e 4d90 903e 5266 ee3e
00000200: 4e10 8b3e a8b0 92bd 5430 d9be 9ef6 eebd
00000210: 5dd5 b03c 3048 60be c89e 463e 8c78 6a3e
00000220: fde3 c9be 8624 abbe 24ee 683e 8531 f93e
00000230: f3c0 8f3e 66f3 10be 3657 42be 7c16 8d3d
00000240: 7fd4 0abf b783 e83d 7b8f 6b3e 6cb2 d53e
00000250: 20c1 27be 98f0 533b 6d52 96be 1e59 97be
00000260: c03e c23e 030f 193f e951 5dbf cd24 e43c
00000270: 4c5b 47be 56b0 873e a9f2 113e 8b20 7ebe
00000280: 8da6 e8be db9b f13e 9814 393e 56fa 65be
00000290: 55e8 01bf c2ce 493e c9de 00be 8da6 9abe
000002a0: b609 87be 16b1 0a3f d745 e43e ba11 b73d
000002b0: 82d6 39be 5d63 1e3d d63d 0e3f ea10 c63e
000002c0: f771 a1be 96b4 4a3c 4fd8 ca3e 0982 bcbc
000002d0: befb 633e e05f 01be ef19 65bb 2d89 ae3e
000002e0: 5d0d 6abe 7a63 a5be c927 08be 95ec 383f
000002f0: ef77 4fbe 88a7 97bd 1ce4 f5bd a26f 09bf

fc1.bias f4 [64]
4.189607 1.1105007 0.1616376 0.56432474 1.3702004 2.2872016 3.7258024 2.4293034
0.18695593 -0.6940811 3.0953934 2.9686933 -0.5496406 -1.3996923 -0.0151052475 3.0782304
3.5673761 -0.59797114 -2.4568946 0.21537995 3.1777806 -0.30503607 -0.50940686 -2.0411963
-0.35814506 3.2592022 3.8280766 2.5332503 4.3172784 0.4660554 2.5653813 -1.5324979
3.8790262 2.2705622 -0.606796 0.17352307 3.800957 -0.16378297 -0.49620017 -0.17864013
0.35912055 2.9951158 -2.2342541 0.53478765 -3.3455462 0.35080814 -1.4894359 4.2858396
3.070092 3.5521502 -3.1096098 0.5967807 -0.64750594 -2.6380951 0.33879876 3.1826985
-1.3010035 3.626866 2.1526232 3.2652268 3.4658039 -0.5594838 2.2575366 -0.2949245
00000000: 4311 8640 e324 8e3f 5484 253e 9677 103f
00000010: ba62 af3f 8361 1240 8c73 6e40 b579 1b40
00000020: 6071 3f3e 4daf 31bf ed1a 4640 12ff 3d40
00000030: 3fb5 0cbf 1e29 b3bf 007c 77bc ba01 4540
00000040: e44f 6440 a314 19bf c33d 1dc0 908c 5c3e
00000050: c260 4b40 b02d 9cbe 7d68 02bf f6a2 02c0
00000060: ca5e b7be c596 5040 35ff 7440 c620 2240
00000070: 2527 8a40 d09e ee3e 352f 2440 e428 c4bf
00000080: f741 7840 e450 1140 fc56 1bbf 08b0 313e
00000090: e142 7340 b9b6 27be f30d febe 70ed 36be
000000a0: a6de b73e faaf 3f40 05fe 0ec0 d8e7 083f
000000b0: 6e1d 56c0 209d b33e d6a5 bebf 9925 8940
000000c0: 637c 4440 6e56 6340 d903 47c0 9fc6 183f
000000d0: f3c2 25bf 8dd6 28c0 0877 ad3e 55b1 4b40
000000e0: 4887 a6bf 931e 6840 94c4 0940 7af9 5040
000000f0: bbcf 5d40 553a 0fbf 7b7b 1040 5800 97be

fc2.weight f4 [64, 64]
-0.07264439 0.018606083 -0.056206044 0.074966356 -0.12294474 -0.015472466 -0.012757239 -0.093134314
-0.05194886 -0.11603822 0.084505945 0.04080319 -0.0895004 -0.05798495 0.06335202 0.019643394
-0.11250978 -0.021690791 -0.0027566887 0.105061695 -0.03180847 -0.06288613 0.05684124 0.07494074
-0.052213803 -0.13840798 -0.11478358 -0.15125655 -0.07435456 0.097044185 0.064265706 -0.031727996
0.004543168 0.037139844 -0.19652233 0.017883658 -0.029773576 -0.031899903 0.04139082 0.11719319
-0.058482226 -0.074812055 0.033890657 0.04329899 -0.121366866 0.10509628 -0.13091873 -0.07047662
0.030009564 -0.06213765 -0.052169025 0.09165567 -0.05442023 -0.017343752 -0.015830204 -0.13009168
-0.01027573 0.00587621 -0.07430849 -0.06635132 0.009899168 0.11348271 0.0008259564 0.059622407
0.096326426 -0.13173606 0.033561513 0.030061072 -0.086562596 0.040456515 -0.06492728 -0.007914662
-0.0054555684 -0.15353681 -0.04373394 -0.01588215 0.04184606 -0.08262119 0.08559358 -0.087956235
0.002456814 0.020667488 0.06887342 -0.10471553 -0.018552868 -0.032623444 -0.048996303 -0.15376033
0.09874271 0.047065258 -0.0069977953 0.09635335 0.06288333 0.08144735 -0.040767062 0.02321747
-0.10075699 -0.062401682 -0.13166162 -0.093227655 0.099440455 -0.04072981 -0.100023076 0.11339557
-0.02613999 -0.088671125 -0.08303843 0.03143297 -0.06305513 -0.12436297 0.03840758 -0.14426818
-0.105844945 -0.077277854 0.07486376 0.095600575 0.084706105 0.07789619 -0.024359912 -0.07896207
-0.13742846 -0.14623515 -0.002532959 -0.115367755 -0.059529766 -0.03416817 0.023276433 0.097728476
1.2870005 0.19668524 0.019092232 0.15336604 0.037182473 -0.12692648 -0.9717903 -0.20268191
0.03449118 0.11661598 1.3208313 -0.9821966 0.023145266 0.1324124 0.10092314 -1.2057717
-0.08785769 0.1956406 0.21241765 0.0982409 -0.1627366 -0.07494256 0.22040778 0.14018174
0.09112708 -0.10196279 -0.22532436 -0.1659909 1.36847 -0.017228052 0.23514663 0.24485855
-0.2096222 -0.31597927 0.0063683786 -0.117869645 -0.9598026 0.14664456 -0.10933195 0.11601925
0.046563566 0.13619478 0.11838046 0.03662939 0.3325045 -0.08169326 0.12145372 -0.25679716
-0.0905327 -0.3574313 0.33771098 0.18657604 0.09013312 0.10916086 0.116591915 0.91580534
0.06921208 -0.26464045 0.08280299 -0.46541184 -0.81626624 -0.09210289 -0.47717234 -0.099543184
-1.4740621 0.11143388 -0.06767975 0.03146913 0.1273786 0.2554706 0.9216481 0.38786307
0.010722324 -0.0092658205 -1.3528005 0.77471256 0.024892421 -0.09315107 -0.038048923 1.1924616
0.7951006 -0.057614926 -0.016270887 -0.0088909855 0.3373031 0.006730623 0.019149294 -0.10750427
-0.028079957 1.0847751 0.46495065 0.33355373 -1.8669384 0.044093147 0.11216818 -0.11497858
0.98965317 -0.008314009 0.097758725 -0.08975828 1.6549826 -0.07480424 0.08147736 0.026991725
0.116182126 0.09160077 0.025909074 -0.041843116 -0.66298074 0.036597177 0.044098947 0.62947106
0.25726926 0.6398236 -0.146617 0.45786285 -0.03873172 -0.15251051 -0.03585899 -0.44617644
0.05089127 0.4022885 -0.32011184 0.5589778 0.97266024 0.012878341 0.22654064 0.11877565
00000000: 95c6 94bd c96b 983c 4f38 66bd f687 993d
00000010: 74ca fbbd 3a80 7dbc bd03 51bc 34bd bebd
00000020: 54c8 54bd 72a5 edbd 7411 ad3d 3f21 273d
00000030: fc4b b7bd a081 6dbd b4be 813d 2feb a03c
00000040: 876b e6bd e3b0 b1bc 90a9 34bb 962a d73d
00000050: 9949 02bd 71ca 80bd 5cd2 683d 887a 993d
00000060: 24de 55bd d2ba 0dbe a713 ebbd ffe2 1abe
00000070: 3447 98bd 1abf c63d bd9d 833d 37f5 01bd
00000080: dbde 943b f31f 183d 263d 49be c080 923c
00000090: b7e7 f3bc 79a9 02bd 6c89 293d fc02 f03d
000000a0: 0f8b 6fbd 1037 99bd eed0 0a3d 485a 313d
000000b0: 318f f8bd b83c d73d 8f0f 06be 0c56 90bd
000000c0: 9ed6 f53c 0c84 7ebd 30af 55bd f8b5 bb3d
000000d0: bfe7 5ebd 7c14 8ebc 58ae 81bc c136 05be
000000e0: 895b 28bc 398d c03b 0d2f 98bd 33e3 87bd
000000f0: 1f30 223c a069 e83d ff84 583a a036 743d
00000100: ca46 c53d d1e5 06be cc77 093d a342 f63c
00000110: bb47 b1bd bbb5 253d 98f8 84bd 80ac 01bc
00000120: a0c4 b2bb c138 1dbe 5c22 33bd 481b 82bc
00000130: c666 2b3d 4c35 a9bd b04b af3d 6622 b4bd
00000140: 8002 213b dd4e a93c 820d 8d3d 1975 d6bd
00000150: 2ffc 97bc 29a0 05bd 59b0 48bd 5973 1dbe
00000160: 9e39 ca3d 80c7 403d c34d e5bb e854 c53d
00000170: fac8 803d decd a63d 5dfb 26bd 9032 be3c
00000180: ae59 cebd e898 7fbd 4ed2 06be 24ee bebd
00000190: 70a7 cb3d 4dd4 26bd e6d8 ccbd f03b e83d
000001a0: 8823 d6bc 3599 b5bd 0d10 aabd dcbf 003d
000001b0: 0c23 81bd 03b2 febd 4451 1d3d 0abb 13be
000001c0: 3cc5 d8bd da43 9ebd 2c52 993d 3cca c33d
000001d0: 657a ad3d 0a88 9f3d 708e c7bc deb6 a1bd
000001e0: 0cba 0cbe abbe 15be 0000 26bb ee45 ecbd
000001f0: 7cd5 73bd ecf3 0bbd 38ae be3c de25 c83d
00000200: 6fbc a43f db67 493e 5067 9c3c fd0b 1d3e
00000210: a64c 183d 04f9 01be 40c7 78bf d98b 4fbe
00000220: a046 0d3d 5cd4 ee3d 0011 a93f 3d71 7bbf
00000230: 249b bd3c 1e97 073e cbb0 ce3d ba56 9abf
00000240: bcee b3bd 0256 483e 0384 593e 8632 c93d
00000250: 6ca4 26be 7c7b 99bd 94b2 613e cd8b 0f3e
00000260: d6a0 ba3d ded1 d0bd 6ebb 66be 85f9 29be
00000270: 062a af3f d821 8dbc 47ca 703e 33bc 7a3e
00000280: 34a7 56be 09c8 a1be d5ad d03b a465 f1bd
00000290: a0b5 75bf fe29 163e 6ee9 dfbd 809b ed3d
000002a0: 70b9 3e3d a576 0b3e 7471 f23d b308 163d
000002b0: 083e aa3e cc4e a7bd babc f83d eb7a 83be
000002c0: 3569 b9bd 3c01 b7be 74e8 ac3e ca0d 3f3e
000002d0: b797 b83d bb8f df3d bec7 ee3d 3872 6a3f
000002e0: 10bf 8d3d f47e 87be 9d94 a93d 764a eebe
000002f0: d3f6 50bf 71a0 bcbd ef4f f4be 4cdd cbbd
00000300: 11ae bcbf 7237 e43d ae9b 8abd c6e5 003d
00000310: 896f 023e 0bcd 823e 21f1 6b3f fd95 c63e
00000320: b0ac 2f3c abcf 17bc 9128 adbf 9053 463f
00000330: 31eb cb3c fdc5 bebd 30d9 1bbd 95a2 983f
00000340: b78b 4b3f a1fd 6bbd 864a 85bc 7fab 11bc
00000350: feb2 ac3e 8f8c dc3b fbde 9c3c 332b dcbd
00000360: f007 e6bc e9d9 8a3f 030e ee3e 8ec7 aa3e
00000370: d6f7 eebf 049b 343d 6eb8 e53d e479 ebbd
00000380: e959 7d3f 7b37 08bc ba35 c83d 30d3 b7bd
00000390: 78d6 d33f f732 99bd 9add a63d c01d dd3c
000003a0: e5f0 ed3d 2f99 bb3d 443f d43c b063 2bbd
000003b0: 1bb9 29bf ece6 153d 19a1 343d 0425 213f
000003c0: ccb8 833e 7bcb 233f c422 16be 006d ea3e
000003d0: 27a5 1ebd b72b 1cbe e0e0 12bd 3d71 e4be
000003e0: 5d73 503d c2f8 cd3e b3e5 a3be 2b19 0f3f
000003f0: 4300 793f adff 523c 45fa 673e a640 f33d

fc2.bias f4 [64]
0.03982387 0.04744525 -0.3509162 1.9740689 1.3924775 1.817947 -0.08672164 1.5486692
-0.9065428 1.4132324 2.2638636 1.967665 -1.53385 2.1346774 1.4187533 0.01937245
2.324728 1.4416537 2.3080525 0.05271424 -0.87553734 -0.008605578 -0.014143641 -0.9885794
1.8833171 -0.034663677 0.10811206 -0.150547 2.0646358 -0.16024865 1.5706594 1.4468117
1.4986428 -0.019559864 -0.03707749 1.2201355 -0.214977 0.062940076 0.07296603 -0.08138641
-0.11565677 2.0496898 -0.11259316 0.034552973 1.0228103 -0.06584296 0.8615328 1.3174412
-0.115507826 -0.030745571 -0.01557937 -0.09736917 2.0119188 -0.017597597 0.05012832 2.0805078
0.8868733 1.1799638 -0.006078283 2.2706184 -0.012831521 -0.07181931 1.4732708 0.053741135
00000000: 5b1e 233d f355 423d 4aab b3be 4aae fc3f
00000010: b43c b23f 7db2 e83f 1d9b b1bd cb3a c63f
00000020: 3013 68bf cde4 b43f 24e3 1040 72dc fb3f
00000030: 3255 c4bf 8e9e 0840 b599 b53f f9b2 9e3c
00000040: 58c8 1440 1c88 b83f 22b7 1340 e3ea 573d
00000050: 3723 60bf 69fe 0cbc bbba 67bc 8a13 7dbf
00000060: 8910 f13f 80fb 0dbd db69 dd3d fe28 1abe
00000070: fe22 0440 3918 24be 5e0b c93f 2031 b93f
00000080: 87d3 bf3f 023c a0bc 91de 17bd 662d 9c3f
00000090: ee22 5cbe bae6 803d 376f 953d ebad a6bd
000000a0: 75dd ecbd 1e2e 0340 3e97 e6bd 6b87 0d3d
000000b0: 73eb 823f acd8 86bd 6a8d 5c3f eaa1 a83f
000000c0: 5e8f ecbd 23de fbbc 9d40 7fbc 7d69 c7bd
000000d0: 47c3 0040 d628 90bc 5a53 4d3d 0a27 0540
000000e0: 210a 633f 0e09 973f 552c c7bb d051 1140
000000f0: 4d3b 52bc 0116 93bd 2394 bc3f aa1f 5c3d

fc3.weight f4 [20, 64]
0.063780494 0.071697235 -0.14022352 0.53278786 -1.1255183 0.32157844 0.07195896 -1.0555453
-0.3938432 0.15434775 -0.72661304 0.41981122 -0.3991364 0.44077846 0.18554336 0.1056651
-1.2116677 0.26814482 0.49126834 0.016517954 -0.45842743 0.12022531 -0.044622906 -0.35973397
0.37648085 0.07925138 -0.057463784 -0.056004386 0.46430048 -0.011313057 -0.6257556 0.17908221
0.20440884 0.008981126 0.008384333 0.17526431 -0.18515903 0.01969091 0.105278045 -0.0030901483
-0.1000132 0.5300611 0.11006853 -0.04625742 0.57264364 0.050200805 0.17718548 0.19103698
-0.05032241 0.09515839 0.027503997 -0.062069725 0.4986515 0.12530372 0.04917075 0.67417395
0.07777704 0.08301782 -0.01878635 0.6171652 -0.076694705 0.008570354 0.38875148 0.08946206
-0.06771363 0.113771185 -0.07511603 0.44522053 -0.6946723 0.22539854 -0.10879157 -0.47558075
0.017750332 0.09389796 -0.75322986 0.21382387 -0.17716122 0.2835614 0.16461605 -0.07376175
-0.5596313 0.015599971 0.5344526 -0.096626475 -0.046146933 -0.036857978 -0.098427765 -0.056627057
0.1453141 0.11326146 -0.00673472 0.09716767 0.24638931 0.13843222 -0.57251763 0.15215567
0.17349356 0.15910614 -0.014520721 0.12029046 0.029108506 -0.12060501 0.01769355 -0.04897604
0.059591934 0.50759465 -0.11871882 0.04531464 -0.24465588 0.011693865 -0.32666877 0.11998804
0.058839694 0.06436375 -0.070634775 -0.0193322 0.61046714 -0.050595682 0.11056432 0.31687573
0.16891335 0.015560649 0.07892275 0.5308713 -0.061290555 0.010441855 0.3902947 0.11853731
-0.015162164 -0.07016045 -0.00076756714 0.48146236 -0.56471354 0.33802754 0.06018843 -0.43807074
-0.2734947 -0.11736274 -0.78976643 0.1079535 -0.27001497 0.31215194 0.12315693 0.03988161
-0.70766425 0.1239091 0.4078221 0.1473044 0.060683355 -0.04393066 -0.10030781 -0.1658373
0.22313568 0.086417615 0.042118482 -0.0008666423 0.23845907 -0.029029988 -0.684928 0.13162778
0.24409649 0.008979966 0.05962804 0.07938221 -0.035508495 -0.005893588 0.0085386485 0.0988888
-0.061499286 0.51406056 0.0582563 -0.0010501593 -0.17730907 -0.014446062 0.07330395 0.22807413
0.12564877 -0.09779315 0.013760223 0.081002414 0.40634558 0.060355607 -0.024732206 0.4672558
0.1489844 0.028036743 0.07821116 0.4784442 -0.008129043 0.09026517 0.5557044 -0.025738358
-0.10173035 -0.049881443 -0.1561699 0.46941215 -0.3875124 0.39959788 -0.038819283 -0.53336525
-0.25305083 0.2193387 -0.89873034 0.20734024 -0.32748276 0.24261487 0.16660254 -0.11388193
-0.73941976 0.056883425 0.3576645 0.1673185 -0.22560394 0.08159793 0.013786178 -0.12610826
0.19997701 -0.054043397 0.0018105549 -0.076383665 0.24945766 -0.10493497 -0.7477131 0.14445405
0.3360329 -0.05679115 -0.03228144 -0.032272857 -0.24373567 -0.1024857 0.11677466 -0.08653391
-0.03931838 0.503878 0.016185448 -0.1050531 -0.09375699 0.037784323 0.0851067 0.22743851
0.005772861 -0.0951281 0.103705004 -0.121526346 0.5000798 -0.095448285 -0.008103818 0.51439214
0.21340992 0.24972716 -0.09971665 0.49099642 -0.0957166 0.02630707 0.35247436 -0.03028661
00000000: 599f 823d 00d6 923d c196 0fbe c964 083f
00000010: fc10 90bf eea5 a43e 385f 933d 1c1c 87bf
00000020: d1a5 c9be 560d 1e3e 5003 3abf 7ff1 d63e
00000030: 9b5b ccbe b7ad e13e 14ff 3d3e f266 d83d
00000040: ed17 9bbf 474a 893e 8687 fb3e a950 873c
00000050: 00b7 eabe b038 f63d 82c6 36bd 0d2f b8be
00000060: 19c2 c03e 8c4e a23d 255f 6bbd db64 65bd
00000070: cbb8 ed3e 665a 39bc 8531 20bf 5461 373e
00000080: 8d50 513e 9325 133c 715e 093c 7d78 333e
00000090: 549a 3dbe d54e a13c 049c d73d 1684 4abb
000000a0: b8d3 ccbd 16b2 073f 9c6b e13d 6c78 3dbd
000000b0: c698 123f 5c9f 4d3d 1c70 353e 339f 433e
000000c0: df1e 4ebd 67e2 c23d 1050 e13c d33c 7ebd
000000d0: 404f ff3e 9e4f 003e 4567 493d aa96 2c3f
000000e0: 9249 9f3d 3f05 aa3d d5e5 99bc 8afe 1d3f
000000f0: 1d12 9dbd ac6a 0c3c 6f0a c73e e237 b73d
00000100: 72ad 8abd de00 e93d 6fd6 99bd f2f3 e33e
00000110: 0bd6 31bf e0ce 663e 1dce debd 527f f3be
00000120: 2569 913c 934d c03d acd3 40bf a5f4 5a3e
00000130: c069 35be f62e 913e 1c91 283e 6610 97bd
00000140: ff43 0fbf 0597 7f3c e3d1 083f 1ae4 c5bd
00000150: 9104 3dbd 64f8 16bd 7f94 c9bd c6f1 67bd
00000160: 38cd 143e a0f5 e73d edae dcbb d8ff c63d
00000170: 7b4d 7c3e 2dc1 0d3e 8490 12bf b2ce 1b3e
00000180: 4ca8 313e b8ec 223e 51e8 6dbc d85a f63d
00000190: f674 ee3c c2ff f6bd 10f2 903c 1a9b 48bd
000001a0: ac16 743d b9f1 013f da22 f3bd d89b 393d
000001b0: 1287 7abe a097 3f3c 2141 a7be 4abc f53d
000001c0: e401 713d 24d1 833d f7a8 90bd 905e 9ebc
000001d0: 9347 1c3f 6b3d 4fbd 8c6f e23d 893d a23e
000001e0: 9ff7 2c3e 18f2 7e3c 40a2 a13d 2ee7 073f
000001f0: ce0b 7bbd 5014 2b3c b5d4 c73e b0c3 f23d
00000200: ba6a 78bc 48b0 8fbd 8f36 49ba 3c82 f63e
00000210: 1191 10bf f211 ad3e 2588 763d cf4a e0be
00000220: 7f07 8cbe e05b f0bd 222e 4abf b916 dd3d
00000230: 673f 8abe 61d2 9f3e b339 fc3d e65a 233d
00000240: 7c29 35bf 0ec4 fd3d 0fce d03e f7d6 163e
00000250: 1c8f 783d a3f0 33bd 2e6e cdbd 41d1 29be
00000260: ae7d 643e b8fb b03d 6e84 2c3d 612f 63ba
00000270: 9d2e 743e 4cd0 edbc 7157 2fbf 6fc9 063e
00000280: 6ef4 793e b520 133c 883c 743d 2493 a23d
00000290: 5b71 11bd 001f c1bb b0e5 0b3c 3686 ca3d
000002a0: ade6 7bbd 7999 033f 289e 6e3d 80a5 89ba
000002b0: 8290 35be 2daf 6cbc 6220 963d 448c 693e
000002c0: 12aa 003e c647 c8bd 8f72 613c 98e4 a53d
000002d0: 870c d03e 7137 773d 329b cabc 273c ef3e
000002e0: 5e8f 183e 50ad e53c 2c2d a03d a3f6 f43e
000002f0: ad2f 05bc f2dc b83d a542 0e3f 40d9 d2bc
00000300: 0058 d0bd 7c50 4cbd 01eb 1fbe ca56 f03e
00000310: 0668 c6be 1898 cc3e f800 1fbd a08a 08bf
00000320: e18f 81be 539a 603e 3113 66bf 0051 543e
00000330: d2ab a7be 0870 783e db99 2a3e ee3a e9bd
00000340: 9d4a 3dbf 98fe 683d cd1f b73e 8a55 2b3e
00000350: b804 67be d11c a73d 6cdf 613c 8622 01be
00000360: c6c6 4c3e 9c5c 5dbd 2450 ed3a 0a6f 9cbd
00000370: d471 7f3e 25e8 d6bd 206a 3fbf c3eb 133e
00000380: 810c ac3e d69d 68bd 8b39 04bd 8b30 04bd
00000390: d895 79be 06e4 d1bd 8e27 ef3d b138 b1bd
000003a0: 4f0c 21bd 26fe 003f 5897 843c 1426 d7bd
000003b0: aa03 c0bd bcc3 1a3d 6c4c ae3d a4e5 683e
000003c0: 452a bd3b 85d2 c2bd 4a63 d43d cee2 f8bd
000003d0: 3b05 003f 647a c3bd e0c5 04bc 34af 033f
000003e0: 2188 5a3e 7ab8 7f3e 3e38 ccbd e263 fb3e
000003f0: 1107 c4bd ed81 d73c 8577 b43e a01b f8bc

fc3.bias f4 [20]
1.686817 0.79916024 0.6484848 0.47654694 0.47423315 0.36844286 0.5226235 0.37864107
0.20321898 0.102330446 0.11535165 0.09551762 -0.062064506 -0.05766587 -0.08674979 -0.31201327
-0.096479066 -0.34638432 -0.22933131 -0.26475284
00000000: 9fe9 d73f c495 4c3f 1a03 263f f6fd f33e
00000010: b0ce f23e 8ba4 bc3e a7ca 053f 3edd c13e
00000020: a318 503e a092 d13d 7c3d ec3d be9e c33d
00000030: 5a37 7ebd 0c33 6cbd e0a9 b1bd 34c0 9fbe
00000040: d196 c5bd 4959 b1be d4d5 6abe af8d 87be

exp_avg f4 [64, 3]
3.327684 -18.06854 -40.046482 -0.4343694 1.5301892 -1.6049078 0.0 0.0
0.0 0.0916734 0.1189611 7.446138 -0.64102215 -0.23776491 3.4715238 -2.0273883
2.5722857 2.78169 -13.132016 30.99339 -9.783819 -6.2902656 4.048174 -0.40348974
0.0 0.0 0.0 0.6431284 3.4837635 3.5836427 4.834661 -23.576145
-0.13538687 -9.918131 24.63762 -9.805797 -2.4881215 -1.3747072 -9.575869 -1.2813203
-1.5399193 -6.5354137 0.0 0.0 0.0 -14.435398 35.150642 -18.866135
-7.848501 15.786887 -5.9803085 -2.5960958 -0.8750455 -4.9241533 -1.0348439 -3.7790797
-10.457874 0.0 0.0 0.0 -12.44511 -6.210411 -1.5613337 -0.098465644
-0.32181665 -2.7556446 -1.8880311 -3.9337084 -6.780675 0.5611641 -5.0872808 -5.434145
0.0 0.0 0.0 0.5071696 25.601248 55.68346 -6.3134766 6.399075
8.314643 -4.062579 5.202086 1.7698902 25.137653 -14.991461 21.353767 0.0
0.0 0.0 -0.77321845 2.4884422 5.6813545 1.7965578 -5.0504794 -20.846022
-9.966054 13.615411 5.9329433 -1.6838994 -4.822211 -1.7261844 -1.6387633 -4.883858
-40.07573 0.0 0.0 0.0 -18.337048 42.894726 -14.206589 -1.477434
-8.584858 -45.635857 0.0 0.0 0.0 0.0 0.0 0.0
0.0 0.0 0.0 -2.2318969 -0.10666368 4.482065 -1.0857188 -2.7488816
-8.035122 0.0 0.0 0.0 -0.9085338 -14.195594 -24.673624 0.0
0.0 0.0 -0.7726285 -0.1838153 -2.531606 -6.1960697 13.142043 10.311064
-1.7162285 1.7974333 5.4245067 -7.099839 22.650923 1.8993225 -5.4349947 -11.00945
-44.141827 1.4471022 1.6801275 42.702213 -1.1313834 -0.44632423 -5.92176 -2.9007761
-10.74261 -21.778387 0.0 0.0 0.0 23.026327 2.009631 24.2442
-1.3824391 -0.7626915 -7.0184736 -5.073197 11.807931 -0.44470015 3.0267377 -2.2687716
3.0080984 -7.211493 10.455885 -2.4020975 -10.201519 29.254763 -5.6791096 6e-45
6e-45 6e-45 1.8500824 -3.418294 -13.07612 0.0 0.0 0.0
00000000: c6f8 5440 5f8c 90c1 992f 20c2 aa65 debe
00000010: 3ddd c33f 9e6d cdbf 0000 0000 0000 0000
00000020: 0000 0000 43bf bb3d e1a1 f33d c346 ee40
00000030: 071a 24bf a578 73be 722d 5e40 bbc0 01c0
00000040: 54a0 2440 3507 3240 bd1c 52c1 76f2 f741
00000050: 868a 1cc1 db49 c9c0 a48a 8140 3596 cebe
00000060: 0000 0000 0000 0000 0000 0000 10a4 243f
00000070: fbf5 5e40 675a 6540 8bb5 9a40 f29b bcc1
00000080: dba2 0abe aab0 1ec1 d919 c541 8be4 1cc1
00000090: 623d 1fc0 68f6 afbf c236 19c1 4e02 a4bf
000000a0: 131c c5bf 1c22 d1c0 0000 0000 0000 0000
000000b0: 0000 0000 64f7 66c1 429a 0c42 d8ed 96c1
000000c0: ec26 fbc0 1797 7c41 b05e bfc0 6f26 26c0
000000d0: fb02 60bf aa92 9dc0 c475 84bf 71dc 71c0
000000e0: 7453 27c1 0000 0000 0000 0000 0000 0000
000000f0: 2c1f 47c1 b0bb c6c0 c8d9 c7bf 5ba8 c9bd
00000100: 27c5 a4be 7b5c 30c0 01ab f1bf e1c1 7bc0
00000110: 4afb d8c0 73a8 0f3f 01cb a2c0 84e4 adc0
00000120: 0000 0000 0000 0000 0000 0000 ded5 013f
00000130: 5bcf cc41 ddbb 5e42 0008 cac0 39c5 cc40
00000140: c708 0541 a600 82c0 7d77 a640 c38b e23f
00000150: ea19 c941 06dd 6fc1 84d4 aa41 0000 0000
00000160: 0000 0000 0000 0000 a5f1 45bf a342 1f40
00000170: a8cd b540 9bf5 e53f 879d a1c0 a7c4 a6c1
00000180: f574 1fc1 b9d8 5941 acda bd40 048a d7bf
00000190: 8d4f 9ac0 9cf3 dcbf ffc2 d1bf 9148 9cc0
000001a0: 8c4d 20c2 0000 0000 0000 0000 0000 0000
000001b0: 46b2 92c1 3394 2b42 304e 63c1 8f1c bdbf
000001c0: 945b 09c1 1e8b 36c2 0000 0000 0000 0000
000001d0: 0000 0000 0000 0000 0000 0000 0000 0000
000001e0: 0000 0000 0000 0000 0000 0000 66d7 0ec0
000001f0: 7d72 dabd 146d 8f40 d5f8 8abf aded 2fc0
00000200: dc8f 00c1 0000 0000 0000 0000 0000 0000
00000210: ac95 68bf 2721 63c1 9563 c5c1 0000 0000
00000220: 0000 0000 0000 0000 fbca 45bf 143a 3cbe
00000230: d505 22c0 3446 c6c0 cf45 5241 1efa 2441
00000240: 60ad dbbf 4b12 e63f 8f95 ad40 e231 e3c0
00000250: 1735 b541 001d f33f 7aeb adc0 b526 30c1
00000260: 3b91 30c2 a53a b93f 6b0e d73f 11cf 2a42
00000270: 2cd1 90bf 9c84 e4be 0f7f bdc0 51a6 39c0
00000280: bbe1 2bc1 233a aec1 0000 0000 0000 0000
00000290: 0000 0000 eb35 b841 cb9d 0040 1ff4 c141
000002a0: c4f3 b0bf c03f 43bf 5697 e0c0 a157 a2c0
000002b0: 49ed 3c41 bdaf e3be 12b6 4140 8e33 11c0
000002c0: af84 4040 8dc4 e6c0 4e4b 2741 f7bb 19c0
000002d0: 6c39 23c1 c109 ea41 44bb b5c0 0400 0000
000002e0: 0400 0000 0400 0000 80cf ec3f 54c5 5ac0
000002f0: ca37 51c1 0000 0000 0000 0000 0000 0000

exp_avg_sq f4 [64, 3]
90303.35 105021.26 183830.75 504.43985 880.7831 10926.545 0.0 0.0
0.0 0.25459394 10.695478 582.01404 34.837017 101.93195 4284.8984 458.47443
2293.5613 131986.45 28967.584 135255.23 7.5870105e+06 3738.287 10103.306 448404.75
0.0 0.0 0.0 46.81349 334.8843 938.50024 10604.487 47579.27
25139.145 17150.225 82620.45 4.640149e+06 96.64363 496.82733 7144.2876 4646.429
4494.1064 53600.363 0.0 0.0 0.0 34494.953 170709.42 9.653924e+06
10049.14 49481.11 2.8248938e+06 2043.0591 1951.5417 8360.237 6211.5356 7481.11
182378.06 0.0 0.0 0.0 3902.4802 9855.043 518045.6 329.17554
184.50583 7142.7065 1230.9323 357.12976 9543.48 3238.0225 2046.5057 72966.2
0.0 0.0 0.0 4418.2915 68242.195 3.9907632e+06 2913.2854 16728.309
1.0521641e+06 3246.1038 8507.537 359128.56 115369.0 166145.47 320453.84 0.0
0.0 0.0 185.9998 909.60944 57089.453 2497.73 663.31177 44241.035
16034.297 73801.94 4.431047e+06 1020.9219 876.89905 14394.009 500.66013 927.86053
22472.744 0.0 0.0 0.0 64285.4 294632.53 1.6679107e+07 52.687622
2658.9534 75033.14 0.0 0.0 0.0 0.0 0.0 0.0
0.0 0.0 0.0 940.66406 1828.3877 94381.4 2756.3235 3506.2004
95223.25 0.0 0.0 0.0 4748.373 27107.033 1.7150968e+06 0.0
0.0 0.0 1474.3063 1412.065 12561.979 7754.257 43443.36 2.7119502e+06
377.94135 2238.299 144713.64 12424.511 61698.87 3.537018e+06 4930.2764 5087.0425
273320.03 258.1495 49.10023 25668.166 2118.2742 2637.8416 9737.692 2926.265
2400.0723 120995.56 0.0 0.0 0.0 10019.874 14223.641 10933.775
6086.1772 5733.063 38514.82 3529.288 21841.125 1.3235472e+06 6208.281 5487.8027
16177.157 5124.319 23001.762 1.2585775e+06 23762.443 109272.47 6.131102e+06 5.576831e-14
2.4785793e-16 5.576831e-14 141.50914 1964.003 25456.703 0.0 0.0 0.0
00000000: ad5f b047 a11e cd47 b085 3348 4d38 fc43
00000010: 1e32 5c44 2eba 2a46 0000 0000 0000 0000
00000020: 0000 0000 235a 823e ae20 2b41 e680 1144
00000030: 1b59 0b42 29dd cb42 30e7 8545 ba3c e543
00000040: fb58 0f45 9de4 0048 2b4f e246 cf15 0448
00000050: 8589 e74a 98a4 6945 39dd 1d46 98f2 da48
00000060: 0000 0000 0000 0000 0000 0000 0441 3b42
00000070: 3171 a743 04a0 6a44 f3b1 2546 45db 3947
00000080: 4a66 c446 73fc 8546 3a5e a147 2a9b 8d4a
00000090: 8a49 c142 e669 f843 4d42 df45 6f33 9145
000000a0: da70 8c45 5d60 5147 0000 0000 0000 0000
000000b0: 0000 0000 f4be 0647 5bb5 2648 a44e 134b
000000c0: 8f04 1d46 1c49 4147 f76a 2c4a e461 ff44
000000d0: 56f1 f344 f3a0 0246 491c c245 e1c8 e945
000000e0: 841a 3248 0000 0000 0000 0000 0000 0000
000000f0: afe7 7345 2cfc 1946 b3f3 fc48 7896 a443
00000100: 7e81 3843 a735 df45 d5dd 9944 9c90 b243
00000110: ec1d 1546 5c60 4a45 2fd0 ff44 1a83 8e47
00000120: 0000 0000 0000 0000 0000 0000 5512 8a45
00000130: 1949 8547 ad93 734a 9114 3645 9eb0 8246
00000140: 2170 8049 a9e1 4a45 26ee 0446 125b af48
00000150: 8054 e147 5e40 2248 bb78 9c48 0000 0000
00000160: 0000 0000 0000 0000 f3ff 3943 0167 6344
00000170: 7401 5f47 ae1b 1c45 f4d3 2544 09d1 2c47
00000180: 3089 7a46 f824 9047 8e39 874a 003b 7f44
00000190: 8a39 5b44 09e8 6046 7f54 fa43 13f7 6744
000001a0: 7d91 af46 0000 0000 0000 0000 0000 0000
000001b0: 661d 7b47 11dd 8f48 c380 7e4b 20c0 5242
000001c0: 412f 2645 928c 9247 0000 0000 0000 0000
000001d0: 0000 0000 0000 0000 0000 0000 0000 0000
000001e0: 0000 0000 0000 0000 0000 0000 802a 6b44
000001f0: 688c e444 b356 b847 2d45 2c45 3523 5b45
00000200: a0fb b947 0000 0000 0000 0000 0000 0000
00000210: fc62 9445 11c6 d346 c65c d149 0000 0000
00000220: 0000 0000 0000 0000 cd49 b844 1482 b044
00000230: ea47 4446 0e52 f245 5cb3 2947 3986 254a
00000240: 7ef8 bc43 c9e4 0b45 6952 0d48 0b22 4246
00000250: df02 7147 e8e1 574a 3612 9a45 57f8 9e45
00000260: 0175 8548 2313 8143 a366 4442 5588 c846
00000270: 6364 0445 77dd 2445 c526 1846 3de4 3645
00000280: 2801 1645 c851 ec47 0000 0000 0000 0000
00000290: 0000 0000 7f8f 1c46 903e 5e46 1ad7 2a46
000002a0: 6b31 be45 8128 b345 d272 1647 9c94 5c45
000002b0: 40a2 aa46 da90 a149 3f02 c245 6c7e ab45
000002c0: a1c4 7c46 8d22 a045 86b3 b346 8ca2 9949
000002d0: e3a4 b946 3c6c d547 3c1b bb4a 7c28 7b29
000002e0: 60e1 8e25 7c28 7b29 5782 0d43 1980 f544
000002f0: 68e1 c646 0000 0000 0000 0000 0000 0000
