beer/experiments/DQN_0.12/models/dqn_agent_firm_1_episode_3000.pth (torch, 101224 bytes, 24 tensors)

fc1.weight f4 [64, 3]
000000 2b 5f 57 3e d8 e3 8d 3e 51 07 8b be 36 5c 27 bf
       0.21032397 0.27712893 -0.2715402 -0.6537508
000010 37 84 5d 3e f9 b2 97 bc ac 83 89 3e 00 e1 09 bf
       0.21632467 -0.018517958 0.2685827 -0.5385895
000020 fe 2b b9 be 7c 31 06 bf cc c5 96 bd 4a 86 0b bc
       -0.36166376 -0.5241926 -0.073619455 -0.008515904
000030 77 f2 e5 be c1 d8 37 bf 3b 88 8e bd f3 22 4a bd
       -0.44911548 -0.71815115 -0.06959578 -0.049349736
000040 8b 95 08 be 63 1d a1 bd 11 85 b7 3d 7d 65 1a bd
       -0.13338296 -0.07866933 0.08960927 -0.037694443
000050 72 04 40 3d 17 86 bb 3d 38 82 1c 3f fa 1f 81 3d
       0.04687924 0.09156435 0.611362 0.06304927
000060 10 19 c4 be 87 68 e3 be d8 64 6b be 0b f6 75 be
       -0.3830037 -0.44415686 -0.22987688 -0.24019639
000070 20 ac 6d 3e 81 0b 15 bf 4a 3e 32 be ec 55 fd 3d
       0.23210192 -0.5822068 -0.17406574 0.12369904
000080 6a 99 5f be aa 22 fa 3c 9c 4a 0b be b5 ea 42 3d
       -0.21835867 0.030534107 -0.1360268 0.047587115
000090 75 1c fb be d2 35 b8 3e d3 e5 e4 bc 60 71 9e 3c
       -0.49045148 0.35978562 -0.02794162 0.01934117
0000a0 72 cf a1 3e f7 82 1a 3e 74 d7 5b be 32 4a 84 be
       0.3160358 0.15089022 -0.21468908 -0.25837857
0000b0 f8 6e a4 be fd 45 2d bd 48 85 8c bd 3b 22 21 3d
       -0.32115912 -0.042303074 -0.06861359 0.039339285
0000c0 05 cd 9b be 78 35 cc 3e bd 32 89 3d 92 a4 8f 3e
       -0.30429855 0.39884543 0.06699131 0.28055245
0000d0 f6 5b ae 3d f1 a5 7b 3d b7 85 b0 3d be be 1e 3f
       0.08513634 0.06143755 0.08619254 0.620098
0000e0 0a 09 cc 3e 16 66 10 bf c5 20 ac be 5c 8c 70 be
       0.39850646 -0.5640577 -0.3361875 -0.23491043
0000f0 40 1a 86 be 9c 37 fa be 79 04 b5 bd ce 17 38 be
       -0.26191902 -0.48870552 -0.08838744 -0.17977831
000100 e2 32 58 bf 74 54 8b 3b 6a 50 4a bc 82 84 e8 be
       -0.8445264 0.004252011 -0.012348274 -0.45413595
000110 14 a0 19 3c 55 17 7c 3e 45 5f 8e be 87 02 62 3e
       0.0093765445 0.24618275 -0.2780706 0.22071277
000120 a7 f8 9e be a4 a0 e9 be a1 31 cf be 9a 36 0a bf
       -0.31049082 -0.45630372 -0.4046755 -0.53989565
000130 86 69 3f 3e e2 8f d5 3d 86 9c ca be e4 55 82 be
       0.18692598 0.10427834 -0.39572543 -0.25456154
000140 a7 36 ae bc 57 bb ff 3e ce 24 0c 3f 29 90 86 3d
       -0.021266295 0.49947616 0.5474366 0.06570465
000150 39 4d 35 3c a1 49 32 3e 0d 6c e9 bd ae dc f5 be
       0.011065775 0.174109 -0.11397562 -0.48019928
000160 3e 8c ef be b8 96 0d bf af 80 00 bf f3 f4 c0 be
       -0.46786684 -0.55308104 -0.50196356 -0.3768688
000170 13 1f 68 3e ee 10 48 bd bb 75 dd be 24 4b 8e 3c
       0.22668104 -0.04884427 -0.43253884 0.017369814
000180 ad ea cc 3e fb 8c de be a9 fc 15 3e 65 ef 42 3e
       0.40022793 -0.43466935 0.14647163 0.19036634
000190 40 b9 1a 3f 8b eb 3d bd cf d8 2a 3e 7a 63 fc 3e
       0.6043892 -0.04636721 0.16684268 0.49294645
0001a0 0d 4f 62 be 0c 07 0b 3f a6 f9 95 be b6 e2 10 bf
       -0.22100468 0.5430763 -0.2929203 -0.56595933
0001b0 cf 6e 09 be cb f5 ae bd 80 91 94 3d b2 1b 84 bf
       -0.13421176 -0.08542975 0.072543144 -1.0320952
0001c0 6e 5a dc 3e 48 25 11 be 44 ff 5a 3e 44 6a 63 be
       0.43037742 -0.14174378 0.21386439 -0.22208506
0001d0 9c b1 80 be 34 f7 a2 be 1f 5b 87 be 42 45 5c be
       -0.25135505 -0.31829226 -0.26436707 -0.21510795
0001e0 ac 94 1d 3e f0 d0 eb bd 16 d3 e8 be ca 4e b4 be
       0.15388745 -0.11514461 -0.45473546 -0.3521636
0001f0 ee b1 81 be ed 37 60 3e cc 1b ab 3e 66 91 e8 3e
       -0.25331062 0.21896334 0.33419645 0.4542343
000200 74 e9 4c 3e a8 b0 92 bd e0 2f d9 be 58 f6 ee bd
       0.2001093 -0.07162601 -0.42419338 -0.1166808
000210 87 c7 b2 be ef 2b 15 bf a6 57 00 3e 8c 78 6a 3e
       -0.34917852 -0.5827016 0.12533435 0.22897547
000220 fd e3 c9 be 86 24 ab be 0c 8e 6e 3e 26 ad d4 3e
       -0.39431754 -0.33426303 0.23296374 0.41538352
000230 a8 03 d8 3d 2b 67 5e be 80 70 8d be ff 3c ae 3d
       0.105475724 -0.21719043 -0.27624893 0.08507728
000240 22 ec 0b bf 1c 92 13 be 94 df 34 3e 73 1f a5 3e
       -0.54657185 -0.14411205 0.17663413 0.32250556
000250 39 84 72 be 4b 1e 85 3d 74 15 c3 be af 24 bf be
       -0.23683251 0.064999186 -0.38102305 -0.37332675
000260 0a b2 95 3e b9 7d c8 3e d0 92 b9 bf ae 31 d6 bc
       0.29237396 0.3915842 -1.4497929 -0.026146736
000270 b9 61 a6 bd fb 07 50 3e f8 19 b2 bc 31 8f ab be
       -0.08124108 0.20315544 -0.021740898 -0.33507684
000280 66 d6 3a bf c6 8d 8e 3e 98 14 39 3e 56 fa 65 be
       -0.72983396 0.2784254 0.18074262 -0.22458777
000290 55 e8 01 bf 91 2f bb 3d 46 e7 96 bc fd ce 85 be
       -0.50745136 0.09139932 -0.018420827 -0.26134482
0002a0 41 6b 3a be ae ae 0f 3f 47 9b c8 3e d1 28 34 be
       -0.18204977 0.56125915 0.39180967 -0.17593695
0002b0 01 e1 91 be ba 50 78 3d bc a6 0a 3f e6 ad b8 3e
       -0.28491977 0.06062386 0.54160666 0.36070174
0002c0 d8 44 3d be aa ed c5 bd 88 d6 88 3e 13 9e be 3c
       -0.18483293 -0.096644714 0.26726174 0.023268735
0002d0 85 9e 32 3e 5f 87 3a be 5d 1b 87 3d 92 85 ae 3e
       0.17443283 -0.18215702 0.06597016 0.3408628
0002e0 c1 14 6a be fc 65 a5 be 41 2a 20 be 00 79 cb 3e
       -0.2285948 -0.3230437 -0.15641119 0.39740753
0002f0 6b 32 03 bf 88 a7 97 bd 1c e4 f5 bd a2 6f 09 bf
       -0.51248807 -0.07405001 -0.12006399 -0.53685963

fc1.bias f4 [64]
000000 3f 60 8d 40 a6 0d 83 3f 54 84 25 3e d6 80 11 3f
       4.417999 1.023854 0.1616376 0.56837213
000010 9f 5c d6 3f 69 22 35 40 aa 27 7c 40 4c ac 26 40
       1.6747016 2.8302252 3.939921 2.6042662
000020 60 71 3f 3e 6e e9 0e bf 80 1f 55 40 a9 52 49 40
       0.18695593 -0.55824935 3.3300476 3.1456702
000030 a1 fc fb be c9 b8 cc bf 00 7c 77 bc 27 2f 51 40
       -0.49216178 -1.5993892 -0.0151052475 3.268503
000040 2f d7 6e 40 0b a6 58 bf c0 8c 2f c0 90 8c 5c 3e
       3.7318838 -0.8462836 -2.7429657 0.21537995
000050 77 2f 62 40 60 02 29 bf a0 7f 80 bf 0e b8 1a c0
       3.534147 -0.6601925 -1.0038948 -2.4174838
000060 ca 5e b7 be ee 35 54 40 92 6c 7f 40 f1 8b 2d 40
       -0.35814506 3.3157916 3.9910016 2.7116663
000070 97 27 93 40 d0 9e ee 3e d6 bc 2a 40 4e 4a 05 c0
       4.5985827 0.4660554 2.6677756 -2.0826602
000080 9d fa 82 40 1a ac 1a 40 d6 3a 48 bf 08 b0 31 3e
       4.0930924 2.4167542 -0.78214777 0.17352307
000090 76 2a 80 40 3b ef 11 bf 5c 0d fe be 70 ed 36 be
       4.005183 -0.5700566 -0.49619567 -0.17864013
0000a0 a6 de b7 3e 54 3f 44 40 af fa 24 c0 d8 e7 08 3f
       0.35912055 3.0663652 -2.5778005 0.53478765
0000b0 4e e7 81 c0 20 9d b3 3e 02 5f e8 bf 87 8c 8b 40
       -4.0594854 0.35080814 -1.8153994 4.360904
0000c0 47 4c 4a 40 25 a2 6f 40 a0 08 75 c0 88 09 b7 3e
       3.1609056 3.7442715 -3.8286514 0.3574946
0000d0 57 9c 48 bf 2c cd 46 c0 08 77 ad 3e 87 e4 67 40
       -0.78363556 -3.1062727 0.33879876 3.6233232
0000e0 40 1a c0 bf 72 5f 6d 40 bc 02 2a 40 2c 24 59 40
       -1.5008011 3.7089505 2.656417 3.3928328
0000f0 68 79 6b 40 e8 3c 0f bf 98 99 19 40 58 00 97 be
       3.679285 -0.5595231 2.3999996 -0.2949245

fc2.weight f4 [64, 64]
000000 c3 66 96 bd eb bd 4b 3c c0 37 66 bd d3 f4 9b 3d
       -0.07343819 0.012435417 -0.05620551 0.07615056
000010 7d 4a 08 be 7b 30 b1 bc 45 72 a6 bc 30 50 d6 bd
       -0.13309665 -0.021629563 -0.02031816 -0.10464513
000020 54 c8 54 bd ad 87 fd bd 74 11 ad 3d 4e da 11 3d
       -0.05194886 -0.12379394 0.084505945 0.035608582
000030 fe bd c2 bd 21 b4 84 bd b4 be 81 3d b0 20 73 3c
       -0.095088944 -0.06479669 0.06335202 0.014839336
000040 71 a2 f7 bd b4 36 ec bc 5c 43 1e bc 96 2a d7 3d
       -0.1209153 -0.028834678 -0.009659614 0.105061695
000050 20 ca 14 bd e0 25 84 bd 07 a1 55 3d 2b bf 8e 3d
       -0.036325574 -0.064525366 0.05215552 0.06970056
000060 24 de 55 bd bb cc 12 be 00 5b f4 bd d7 21 27 be
       -0.052213803 -0.14335911 -0.119314194 -0.16321503
000070 27 d2 a5 bd 1a bf c6 3d a4 a8 72 3d 79 f4 13 bd
       -0.08096724 0.097044185 0.05924286 -0.03612182
000080 82 88 7d b8 6d 65 e2 3c 66 29 59 be c0 80 92 3c
       -6.0447033e-05 0.027636254 -0.21207199 0.017883658
000090 62 ac 09 bd e8 1e ed bc 6c 89 29 3d fc 02 f0 3d
       -0.033611663 -0.028945401 0.04139082 0.11719319
0000a0 a8 8a 6f bd 04 76 a3 bd 64 df d8 3c 48 5a 31 3d
       -0.058481842 -0.07981494 0.026473708 0.04329899
0000b0 43 8e 01 be b8 3c d7 3d 22 86 0d be 1e 9f 98 bd
       -0.12651925 0.10509628 -0.13820699 -0.07452224
0000c0 41 83 c9 3c a0 4c 8b bd f0 ff 6a bd b5 57 b4 3d
       0.02459872 -0.068017244 -0.057372987 0.08805791
0000d0 32 60 7a bd 57 b5 b7 bc 58 ae 81 bc 74 68 08 be
       -0.061126895 -0.022425337 -0.015830204 -0.13321096
0000e0 49 46 8a bc 65 20 a9 3a 93 ac 9c bd 17 a9 9e bd
       -0.016879218 0.0012903331 -0.076501034 -0.07747095
0000f0 5c 4f a0 3b a0 69 e8 3d 2e c3 8b b9 a0 36 74 3d
       0.004892273 0.11348271 -0.00026657566 0.059622407
000100 ca 46 c5 3d 8a fd 06 be cc 77 09 3d 0a 78 f5 3c
       0.096326426 -0.13182655 0.033561513 0.029964466
000110 33 79 b1 bd 12 51 25 3d 98 f8 84 bd 80 ac 01 bc
       -0.08665695 0.040360518 -0.06492728 -0.007914662
000120 a0 c4 b2 bb 75 50 1d be 5c 22 33 bd 48 1b 82 bc
       -0.0054555684 -0.15362723 -0.04373394 -0.01588215
000130 0b 00 2b 3d e2 66 a9 bd b0 4b af 3d 66 22 b4 bd
       0.041748088 -0.082715765 0.08559358 -0.087956235
000140 80 02 21 3b 08 83 a8 3c 41 da 8c 3d 8e 74 d6 bd
       0.002456814 0.020570293 0.06877566 -0.1047145
000150 bf c5 98 bc 13 04 06 bd ea 12 49 bd fd 8a 1d be
       -0.01864898 -0.03271873 -0.049090303 -0.15385051
000160 9e 39 ca 3d 0d 60 40 3d 95 72 e8 bb e8 54 c5 3d
       0.09874271 0.0469666 -0.0070937374 0.09635335
000170 fa c8 80 3d de cd a6 3d 23 61 27 bd ef 66 bd 3c
       0.06288333 0.08144735 -0.04086412 0.023120372
000180 ae 59 ce bd e8 98 7f bd 44 ea 06 be 24 ee be bd
       -0.10075699 -0.062401682 -0.13175303 -0.093227655
000190 68 a7 cb 3d 09 3a 27 bd e6 d8 cc bd d8 3b e8 3d
       0.099440396 -0.04082683 -0.100023076 0.11339539
0001a0 88 23 d6 bc 78 c9 b5 bd 94 42 aa bd dc bf 00 3d
       -0.02613999 -0.08876318 -0.0831348 0.03143297
0001b0 ee 53 81 bd 44 b1 fe bd af ed 1c 3d 5a d5 13 be
       -0.063148364 -0.124361545 0.03831261 -0.14436856
0001c0 71 f8 d8 bd da 43 9e bd cb 1d 99 3d 3c ca c3 3d
       -0.105942614 -0.077277854 0.07476386 0.095600575
0001d0 67 46 ad 3d db 56 9f 3d 70 8e c7 bc de b6 a1 bd
       0.08460694 0.07780238 -0.024359912 -0.07896207
0001e0 16 d4 0c be 2e d7 15 be 00 00 26 bb ee 45 ec bd
       -0.1375278 -0.14632866 -0.002532959 -0.115367755
0001f0 7c d5 73 bd ec f3 0b bd 38 ae be 3c de 25 c8 3d
       -0.059529766 -0.03416817 0.023276433 0.097728476
000200 5a e3 a2 3f 94 b7 0b 3d 50 67 9c 3c 3e 12 10 3e
       1.2725632 0.03411062 0.019092232 0.14069459
000210 77 29 cd bd 9f 24 0b be 6f ec a7 bf 2f ca 9f be
       -0.100176744 -0.13588189 -1.3119029 -0.3120894
000220 a0 46 0d 3d 56 a2 fc 3d 9d 72 a9 3f 4a 73 a0 bf
       0.03449118 0.123356506 1.3238102 -1.2535183
000230 43 4c 07 be 3a c0 01 3e 84 b0 ce 3d 36 63 d7 bf
       -0.13212685 0.12670985 0.100922614 -1.6827152
000240 24 27 9b be ba 64 6e 3e f0 b2 68 3e 48 32 c9 3d
       -0.303033 0.23280612 0.22724509 0.098240435
000250 54 6c 81 be 34 56 b5 3c b1 5d 8b 3e b8 25 62 3e
       -0.2527796 0.022135831 0.27219918 0.22084701
000260 d6 a0 ba 3d 81 24 95 be 0e 93 ad be e8 8e 61 be
       0.09112708 -0.29129413 -0.33901256 -0.2202717
000270 04 50 a8 3f d8 21 8d bc fd 33 7f 3e d5 38 b0 3e
       1.3149419 -0.017228052 0.24922176 0.3441836
000280 07 82 67 be 99 2c a1 be 52 15 05 3d a4 65 f1 bd
       -0.22608195 -0.31479338 0.032491036 -0.117869645
000290 ba 36 a4 bf 41 96 e5 3d 6e e9 df bd 80 9b ed 3d
       -1.2829201 0.11210299 -0.10933195 0.11601925
0002a0 70 b9 3e 3d 39 2c 1f 3e a7 6a 11 3e 5c 08 16 3d
       0.046563566 0.15544213 0.14200841 0.036629066
0002b0 24 79 e8 3e cc 4e a7 bd 64 ce fa 3d 5c 30 bf be
       0.45404923 -0.08169326 0.12246397 -0.37341583
0002c0 c6 d5 06 be 91 26 e1 be 6d 6e d3 3e 06 37 e9 3e
       -0.13167486 -0.43974736 0.41295186 0.45549792
0002d0 62 65 4a 3d d8 0b 2a 3e 96 c7 ee 3d 45 1a 68 3f
       0.049413092 0.1660608 0.11659162 0.90665084
0002e0 e1 9e 88 3d bb b3 bb be 12 d3 ed 3c e2 93 2f bf
       0.06670929 -0.3666056 0.02903131 -0.68585026
0002f0 a6 55 83 bf 6d 8f bc bd 67 a7 1f bf 4c dd cb bd
       -1.0260513 -0.09207044 -0.6236481 -0.099543184
000300 0b de bf bf 22 96 73 3d ae 9b 8a bd 59 64 00 3d
       -1.4989637 0.05946935 -0.06767975 0.0313457
000310 bb ae f6 bc ec ff c5 3d de fc 79 3f f9 0d df 3e
       -0.030112615 0.09667954 0.9765147 0.43565348
000320 b0 ac 2f 3c 18 fb b3 be cb 90 8c bf bf f6 42 3f
       0.010722324 -0.35152507 -1.0981687 0.76157755
000330 cd ff b1 bb db e0 93 3b 30 d9 1b bd ce 8f 92 3f
       -0.005432105 0.004512889 -0.038048923 1.1450136
000340 69 27 4e 3f 8f e6 35 3c c6 9b 07 3e 30 ab 11 bc
       0.80528885 0.011102333 0.13243017 -0.008890912
000350 1c aa fa 3e 80 75 d0 bd 24 45 c2 3c a8 12 ab 3c
       0.48957908 -0.10178661 0.02371461 0.02088292
000360 f0 07 e6 bc 72 08 75 3f 17 b3 e8 3e bc 17 d9 3e
       -0.028079957 0.9571601 0.45449135 0.4240092
000370 f9 34 fb bf 04 9b 34 3d b0 bf 42 3e 7b 04 e4 bd
       -1.9625541 0.044093147 0.19018435 -0.11133667
000380 29 4a 8b 3f 25 9a 99 3c 32 f4 e4 3c 30 d3 b7 bd
       1.0882007 0.01875026 0.027948473 -0.08975828
000390 54 51 d6 3f e6 ad 35 be 9a dd a6 3d c0 1d dd 3c
       1.6743569 -0.17742118 0.08147736 0.026991725
0003a0 c4 f0 ed 3d 4f e2 56 3e d1 52 31 3e b0 63 2b bd
       0.11618188 0.20984767 0.17316748 -0.041843116
0003b0 51 4f 40 bf ec e6 15 3d ca d7 1b 3e a5 d3 38 3f
       -0.7512103 0.036597177 0.15219036 0.72197944
0003c0 d6 6f b1 3e 9f 81 3c 3f 3e d0 ee bd f4 d1 eb 3e
       0.34655637 0.73635286 -0.11660813 0.4605862
0003d0 c5 0e e3 bd cf 75 32 be e0 e0 12 bd a9 7c de be
       -0.110868014 -0.17427753 -0.03585899 -0.43454483
0003e0 67 9a 39 3e a2 8b dc 3e 36 8f c6 be d5 96 10 3f
       0.18125306 0.4307528 -0.38781136 0.5648015
0003f0 de 4d 85 3f af 8e 53 3c 46 75 f8 3d a6 40 f3 3d
       1.0414388 0.012912436 0.12131743 0.11877565

fc2.bias f4 [64]
000000 89 6a 0a 3d 62 f2 41 3d 8b 6c 5e bf d4 c1 10 40
       0.033793006 0.047350295 -0.86884373 2.2618303
000010 e9 4b 9d 3f 79 0d 02 40 be b0 f2 bd 38 86 a5 3f
       1.2288791 2.0320723 -0.11850117 1.2931585
000020 33 f0 a0 bf 8b d7 ac 3f 43 c0 1a 40 c0 46 08 40
       -1.2573303 1.3503278 2.4179847 2.1293182
000030 44 f3 f8 bf 68 c9 13 40 0e df b7 3f d7 ca 9d 3c
       -1.9449239 2.3091679 1.4364946 0.01926176
000040 63 39 13 40 a0 fe cb 3f c9 ca 23 40 9f 51 8a be
       2.3003776 1.593708 2.559252 -0.27015397
000050 ac 5d 9d bf 59 a8 21 bc b2 e6 68 bc a4 dd b2 bf
       -1.2294211 -0.009866797 -0.014215158 -1.3973889
000060 54 df 01 40 80 fb 0d bd 3a 59 dd 3d da 67 1b be
       2.0292559 -0.034663677 0.10808034 -0.15176335
000070 5d 6b 12 40 69 3f 2f be 14 41 dc 3f 4f dd b6 3f
       2.287803 -0.17114033 1.720736 1.4286288
000080 a7 33 cd 3f 34 33 56 bd 31 16 19 bd 7a 92 93 3f
       1.6031388 -0.052294925 -0.03737468 1.1529076
000090 c9 b3 2a bf 6f a0 79 3d 5c 61 3a 3d c1 bd a6 bd
       -0.6668058 0.060944017 0.045503005 -0.081416614
0000a0 80 e8 ec bd 88 12 15 40 fd ed 08 be 07 7b 08 3d
       -0.11567783 2.329256 -0.13372035 0.033320453
0000b0 10 6d 95 3f 67 e2 86 bd a4 17 8d 3f 10 f9 a0 3f
       1.1673908 -0.065861516 1.102284 1.2576008
0000c0 4e 97 ec bd 0b 37 fc bc 1b 2e 55 bd 78 69 c7 bd
       -0.115522966 -0.030787965 -0.052045923 -0.097369134
0000d0 fb 94 13 40 c8 5d 4a bd 86 d0 4c 3d 6a 7a 17 40
       2.305968 -0.049405843 0.05000355 2.3668466
0000e0 0b c8 33 3f fc 9b 52 3f eb ba ca bb de 6c 22 40
       0.70227116 0.82269263 -0.006186833 2.5378947
0000f0 39 f1 52 bc 4f b1 95 bd 73 9e dd 3f f5 8e 5b 3d
       -0.012874895 -0.073092096 1.731398 0.05360313

fc3.weight f4 [20, 64]
000000 70 13 8f 3d 00 d6 92 3d 58 04 67 bd eb 60 08 3f
       0.06986129 0.071697235 -0.056400627 0.53272885
000010 d8 d4 8d bf 02 72 98 3e a1 a2 24 3d 38 14 43 bf
       -1.108058 0.2977448 0.040194158 -0.76202726
000020 b1 9e cc be d9 53 09 be bc 77 3b bf 8a 3d a9 3e
       -0.39964822 -0.13410892 -0.73229575 0.33054763
000030 28 65 89 be 0b 4f c2 3e bd 65 4b be f2 66 d8 3d
       -0.2683499 0.3795093 -0.19863029 0.1056651
000040 af 42 88 bf 02 fa 83 3d 3e 23 f4 3e 94 cc 92 bb
       -1.064535 0.064441696 0.47683138 -0.004479954
000050 7f df 7e be e3 45 f6 3d ca 81 36 bd fc 22 2d 3e
       -0.24889944 0.120250486 -0.04455737 0.16907877
000060 18 4b 92 3e 8c 4e a2 3d b8 51 6b bd 3c 80 60 bd
       0.28572917 0.07925138 -0.05745098 -0.054809794
000070 48 7d d6 3e a2 89 59 bc 28 da b9 be 5d f0 b8 bd
       0.41892457 -0.013277443 -0.36299253 -0.09030221
000080 07 9f 27 3e 98 08 0f 3c 1d 65 de 3b 23 ac 96 bd
       0.16369258 0.008730076 0.006786956 -0.07357051
000090 58 03 e7 be 2c 6b b1 3c 18 7b 96 3d 97 0e 49 bb
       -0.4511974 0.021657549 0.07347697 -0.0030678862
0000a0 c3 c9 cc bd e5 47 0b 3f 9c 6b e1 3d f2 69 38 bd
       -0.099994205 0.5440658 0.11006853 -0.045022912
0000b0 2e d3 e9 3e 5c 9f 4d 3d 13 95 73 bd 30 71 8b 3d
       0.4566893 0.050200805 -0.05946834 0.06808698
0000c0 1a 12 4e bd a5 f3 c2 3d bb 98 8a bb d0 3c 7e bd
       -0.05031023 0.09519128 -0.0042296327 -0.062069714
0000d0 36 16 06 3f e2 7e 00 3e 4e 11 49 3d 7b cf 20 3f
       0.5237764 0.12548402 0.04908877 0.6281659
0000e0 63 25 3a bb 08 84 8a bd 5b c9 9a bc 3d c5 19 3f
       -0.0028403632 -0.06763464 -0.018894842 0.60066587
0000f0 c7 fe 9c bd bc 88 f0 3b 78 0e cb 3e e2 37 b7 3d
       -0.076657824 0.0073405188 0.39659476 0.08946206
000100 2d 5c 69 bd de 00 e9 3d 22 7b f4 bb 71 ca ff 3e
       -0.05697267 0.113771185 -0.0074609676 0.49959138
000110 dc 2c 48 bf 9b 89 8c 3e c0 c6 de bd e9 9f 06 bf
       -0.7819345 0.27448735 -0.10877752 -0.52587754
000120 43 9f a1 bd c0 f5 45 3e 3a 02 5a bf 11 b6 8f 3e
       -0.07891705 0.19332027 -0.8515965 0.28068593
000130 63 9a b2 bd 03 2c b6 3e 73 4e 81 bd 66 10 97 bd
       -0.08720853 0.35580453 -0.06313791 -0.07376175
000140 d9 32 43 bf 56 74 28 3e 84 f6 0f 3f 6c 9c cb 3c
       -0.7624946 0.16450629 0.5623553 0.024854861
000150 fe fc 4d be 00 da 16 bd cd 7c c9 bd 4d 8b 60 be
       -0.2011604 -0.036828995 -0.09838257 -0.21928139
000160 d6 a8 64 3e e2 f4 e7 3d cd 32 dc bb 6d 05 c7 3d
       0.22330031 0.113260046 -0.006719923 0.09717832
000170 44 75 93 3e 07 96 0e 3e a9 0e 23 bf a2 c8 0c 3c
       0.28800404 0.13924418 -0.63694245 0.008592756
000180 f8 73 9a 3e db 34 23 3e 31 fc 56 bc 4b 7d f6 bc
       0.30166602 0.15938132 -0.013121651 -0.030089041
000190 6c 49 13 3e c2 ff f6 bd 10 f2 90 3c ea 81 48 bd
       0.14383477 -0.12060501 0.01769355 -0.04895202
0001a0 ca 22 74 3d 26 e8 07 3f 39 d5 1f be d8 9b 39 3d
       0.05960349 0.53088605 -0.15608682 0.04531464
0001b0 b3 ff 01 be a0 97 3f 3c 9e fe 1e 3e 77 55 70 3d
       -0.12695198 0.011693865 0.15526816 0.058675256
0001c0 79 0d 71 3d ac e1 83 3d 1f 16 90 bd 90 5e 9e bc
       0.05885074 0.06439528 -0.07035469 -0.0193322
0001d0 00 6a 23 3f a8 70 4f bd 0c 6f e2 3d a6 7c bd 3e
       0.6383362 -0.050644547 0.11056337 0.37009162
0001e0 7b 28 cd 3e 2f d9 40 3e 40 a2 a1 3d c9 75 0d 3f
       0.40069947 0.18832849 0.07892275 0.5525785
0001f0 62 e8 7a bd 50 14 2b 3c 89 bb dd 3e b0 c3 f2 3d
       -0.061256774 0.010441855 0.4330714 0.11853731
000200 38 57 99 bb 48 b0 8f bd e3 e2 ec bd 03 0c 02 3f
       -0.0046795867 -0.07016045 -0.11566713 0.5079958
000210 a1 19 0b bf 79 17 b8 3e f8 87 76 3d 65 ff d0 be
       -0.5433598 0.35955408 0.060188264 -0.4081985
000220 f5 ce d6 be 40 e0 2a 3d 6f 02 3d bf 67 55 32 3e
       -0.4195477 0.041717768 -0.7383184 0.17415391
000230 71 a9 e9 be db 01 bb 3e fb 0a 48 be bc 5a 23 3d
       -0.45637086 0.36524853 -0.19535439 0.039881453
000240 3e 94 3d bf f0 45 6a 3e d8 39 dc 3e 5f f6 70 3d
       -0.74054325 0.22878242 0.4301288 0.058828708
000250 08 60 5c bd e3 d0 33 bd 67 5a cd bd 9b 38 f1 bd
       -0.05380252 -0.04390038 -0.100270085 -0.11778375
000260 e4 2f 8f 3e b8 fb b0 3d 25 97 2c 3d 3c 22 60 ba
       0.27966225 0.086417615 0.04213633 -0.0008550023
000270 36 5c 92 3e 5f b8 2a bd 23 c7 40 bf c3 3f 95 3d
       0.28585976 -0.041679736 -0.7530386 0.07287552
000280 ff 90 86 3e 8d 69 15 3c 12 74 7c 3d ce f1 c3 3d
       0.26282498 0.009119404 0.06163413 0.09567605
000290 7f 1d 5c be 00 1f c1 bb b0 e5 0b 3c 81 94 ca 3d
       -0.21495627 -0.005893588 0.0085386485 0.09891606
0002a0 9a d1 7b bd f3 23 0c 3f 78 7b b2 3c 80 a5 89 ba
       -0.06147919 0.54742354 0.02178739 -0.0010501593
0002b0 ed f8 0f bd c1 5d 6c bc 03 70 7b bd 14 43 5c 3e
       -0.035149503 -0.01442665 -0.06138612 0.21509963
0002c0 31 ad 00 3e 24 36 c8 bd f0 a2 62 3c 98 e4 a5 3d
       0.12566067 -0.097759515 0.013832793 0.081002414
0002d0 ee f3 df 3e 21 a5 77 3d b5 7a cb bc d5 7d 03 3f
       0.4374079 0.060460214 -0.024838785 0.5136388
0002e0 0c 7c 18 3e a5 64 b2 bd 2c 2d a0 3d b2 50 03 3f
       0.1489107 -0.08710603 0.07821116 0.51295006
0002f0 57 a5 04 bc f2 dc b8 3d 52 eb 10 3f 40 d9 d2 bc
       -0.008096061 0.09026517 0.5660907 -0.025738358
000300 05 4d e2 bd 7c 50 4c bd 6f 08 37 be 48 9f 07 3f
       -0.110498466 -0.049881443 -0.17874311 0.5297742
000310 b1 e4 c1 be 9e 15 da 3e f8 00 1f bd a0 18 05 bf
       -0.3786979 0.42594618 -0.038819283 -0.519907
000320 bd ee 76 be 70 6c 15 bd 96 71 67 bf b4 25 3a 3e
       -0.24114509 -0.036480367 -0.90407693 0.18178445
000330 aa 4c 83 be 6e 54 58 3e e0 3f c0 bd ee 3a e9 bd
       -0.25644428 0.21125957 -0.09387183 -0.11388193
000340 d1 35 42 bf 6f 95 82 bd 54 6c d1 3e f9 74 bb bb
       -0.7586337 -0.063761584 0.4090296 -0.0057207313
000350 ad 19 9c be 78 10 a7 3d 7c c5 62 3c 21 d0 95 3e
       -0.3048834 0.08157438 0.013841029 0.29260352
000360 69 a8 49 3e 9c 5c 5d bd a6 a5 ef 3a 2c 66 9c bd
       0.1969315 -0.054043397 0.001828362 -0.07636675
000370 7c c6 82 3e 02 9c de bd 45 1c 3b bf dd 27 3c 3e
       0.25542057 -0.108696 -0.7309001 0.18374582
000380 01 26 9b 3e ed e6 68 bd b4 19 04 bd 38 13 34 be
       0.30302432 -0.056860853 -0.032251075 -0.17585456
000390 be e2 01 3f 06 e4 d1 bd 1c 39 ef 3d 9c 2a b1 bd
       0.50736606 -0.1024857 0.116808146 -0.08650705
0003a0 87 f6 20 bd ba 80 0d 3f 39 42 7f bc 14 26 d7 bd
       -0.039297607 0.55274546 -0.015579754 -0.1050531
0003b0 1c 0e b4 3d bc c3 1a 3d dd f7 a6 3d a4 2a 1e bd
       0.08791754 0.037784323 0.08152745 -0.038614884
0003c0 67 c7 bc 3b c3 bf c2 bd d1 e7 b9 3d ce e2 f8 bd
       0.0057610753 -0.09509232 0.090774186 -0.121526346
0003d0 0b a5 0b 3f 90 ac c3 bd e0 c5 04 bc 31 e6 04 3f
       0.5454871 -0.09554398 -0.008103818 0.51913744
0003e0 95 1a 88 3e 1e 8c 85 3e 3e 38 cc bd b0 b3 0d 3f
       0.2658278 0.26083463 -0.09971665 0.55352306
0003f0 29 f2 c3 bd 60 32 d7 3c 12 fe d8 3e a0 1b f8 bc
       -0.09567673 0.026269138 0.4238134 -0.03028661

fc3.bias f4 [20]
000000 c3 8d 04 40 3f e8 5b 3f a6 34 32 3f c7 ff 12 3f
       2.0711524 0.85901254 0.69611585 0.57421535
000010 c0 e8 05 3f 3b db e0 3e e6 ba 13 3f cb 0e ea 3e
       0.52308273 0.4391726 0.5770706 0.4571441
000020 48 00 e1 3e e9 55 b9 3d 7e d5 43 3e e5 49 3d 3e
       0.43945527 0.09049589 0.1912441 0.1848522
000030 f5 ce 55 3b 8d f5 4d 3d 26 ad 51 bd ae 2a e4 bd
       0.0032624577 0.050283004 -0.051190518 -0.11140953
000040 8c dd 5c 3c 7d 50 6d be f4 22 88 be 76 c6 3b be
       0.013480555 -0.23175235 -0.26589167 -0.18337426

fc1.weight f4 [64, 3]
000000 f1 e4 5c 3e 45 13 8b 3e 21 26 8b be 19 71 2a bf
       0.21571709 0.2716314 -0.27177528 -0.66578823
000010 bc a3 32 3e 5e 19 fe bc ac 83 89 3e 00 e1 09 bf
       0.17445272 -0.031017955 0.2685827 -0.5385895
000020 fe 2b b9 be 0e 2e 06 bf 1b c8 96 bd 42 85 0b bc
       -0.36166376 -0.52414024 -0.07362386 -0.008515658
000030 23 68 c4 be f8 b9 21 bf b9 e8 47 bd f6 fc 8b bd
       -0.383607 -0.6317439 -0.048805926 -0.06835358
000040 7e f2 10 be 96 be 8e bd 51 31 bd 3d 2f cc de bc
       -0.14155003 -0.06969945 0.09237922 -0.027196972
000050 80 fe 2b 3d 9a e1 b5 3d f9 4c 1e 3f 36 23 6c 3d
       0.041990757 0.08880921 0.618362 0.057650767
000060 10 19 c4 be 87 68 e3 be d8 64 6b be 45 d0 4d be
       -0.3830037 -0.44415686 -0.22987688 -0.2009898
000070 fb e8 91 3e ad 7f 0b bf 9d e3 21 be cc dd f6 3d
       0.28498062 -0.5449169 -0.15809484 0.12054023
000080 f8 3f 5a be 2d 19 1c 3d f9 47 f8 bd 30 b0 38 3d
       -0.21313465 0.038109947 -0.12123103 0.0450899
000090 07 e1 0c bf 3d 3c 91 3e dc cf 87 bd e8 45 61 3c
       -0.55030864 0.2836627 -0.06631443 0.013749577
0000a0 70 c9 9f 3e eb 20 17 3e 06 d8 5b be 32 4a 84 be
       0.31208372 0.14758651 -0.21469125 -0.25837857
0000b0 f8 6e a4 be 9c 88 1a bd be 1a 5c bd f9 fc 14 3d
       -0.32115912 -0.037727937 -0.05373644 0.036374066
0000c0 b3 29 9f be 40 38 d5 3e 4b 7b 83 3d 02 06 90 3e
       -0.310865 0.41644478 0.06420001 0.28129584
0000d0 6a 43 b5 3d 7f f7 74 3d 2d f7 a5 3d 51 c0 1c 3f
       0.08850749 0.059806343 0.08103786 0.6123095
0000e0 31 f3 c7 3e 16 66 10 bf 06 21 ac be df 8c 70 be
       0.39052728 -0.5640577 -0.33618945 -0.23491238
0000f0 43 ad 83 be da 72 d2 be e5 66 ae bd d4 11 38 be
       -0.25718126 -0.4110325 -0.08515719 -0.17975551
000100 2c 26 58 bf 53 88 8f 3b ea 99 4a bc bf 80 e8 be
       -0.84433246 0.004380265 -0.012365798 -0.45410725
000110 72 00 1a 3c d0 26 81 3e b4 aa 93 be a2 7c 63 3e
       0.00939952 0.25224924 -0.28841174 0.22215512
000120 a7 f8 9e be a4 a0 e9 be b3 31 cf be 80 f9 11 bf
       -0.31049082 -0.45630372 -0.40467605 -0.5702133
000130 3d ee 60 3e 48 b3 d9 3d f2 cc ea be 92 c6 7c be
       0.2196588 0.10629898 -0.45859486 -0.24685124
000140 b1 0e 6c 3c 85 78 fd 3e 0a 2e 0d 3f 3d 39 72 3d
       0.0144078 0.49506012 0.55148375 0.059136618
000150 bb ba cc 3b 61 8d 32 3e c5 86 ef bd ae dc f5 be
       0.006247846 0.17436744 -0.11695627 -0.48019928
000160 3e 8c ef be b8 96 0d bf f6 32 07 bf ca 2e c4 be
       -0.46786684 -0.55308104 -0.52812135 -0.38316947
000170 ea 70 71 3e e8 00 48 bd f3 73 dd be cb 80 8e 3c
       0.2357823 -0.04882899 -0.43252525 0.017395398
000180 af a8 d0 3e c5 86 e0 be e8 a7 11 3e 10 3d 4b 3e
       0.40753695 -0.4385282 0.14224207 0.19847512
000190 85 cd 1f 3f b9 01 45 bd d5 dc 24 3e 4e 3e 00 3f
       0.6242297 -0.048097346 0.16099866 0.5009507
0001a0 91 51 4e be 0c 07 0b 3f a6 f9 95 be b6 e2 10 bf
       -0.20148303 0.5430763 -0.2929203 -0.56595933
0001b0 79 d4 06 be a3 7d 97 bd a8 32 8b 3d 21 cb 7c bf
       -0.1316699 -0.0739701 0.06796771 -0.9874745
0001c0 56 0b e8 3e 9d f6 af bd 44 ff 5a 3e 44 6a 63 be
       0.4532115 -0.085919596 0.21386439 -0.22208506
0001d0 9c b1 80 be 34 f7 a2 be 1f 5b 87 be 66 45 5c be
       -0.25135505 -0.31829226 -0.26436707 -0.21510848
0001e0 ac 94 1d 3e f0 d0 eb bd 16 d3 e8 be 7c b9 ad be
       0.15388745 -0.11514461 -0.45473546 -0.33930576
0001f0 48 6f 71 be a1 bc 6e 3e cc bd a8 3e 05 8f e5 3e
       -0.23577607 0.23314144 0.32957304 0.44835678
000200 7e 94 45 3e a8 b0 92 bd 54 30 d9 be 9e f6 ee bd
       0.19294927 -0.07162601 -0.42419684 -0.11668132
000210 47 da 88 be cc e3 0b bf ca 94 1e 3e 8c 78 6a 3e
       -0.26729032 -0.54644465 0.15486446 0.22897547
000220 fd e3 c9 be 86 24 ab be 78 ac 6a 3e cd 2d d4 3e
       -0.39431754 -0.33426303 0.22917354 0.41441193
000230 08 49 d4 3d 40 3e 70 be 78 27 88 be d3 ed b9 3d
       0.10365492 -0.23461246 -0.26592612 0.090785645
000240 ca cb 0e bf a2 65 04 be e7 25 3c 3e e2 6c a9 3e
       -0.5577971 -0.12929395 0.18373834 0.33090883
000250 53 f2 68 be 0e dc 7c 3d 68 01 ae be ba ce c6 be
       -0.2274869 0.061733298 -0.33985448 -0.38829595
000260 08 4a 9c 3e 1c 87 be 3e c5 16 bf bf 27 e9 39 bd
       0.3052523 0.37212455 -1.4928824 -0.045388367
000270 08 77 86 bd 06 28 5a 3e c3 7e 1e bc bc 75 bc be
       -0.06565672 0.2130433 -0.009673777 -0.36808574
000280 c4 64 33 bf 11 c3 85 3e 98 14 39 3e 56 fa 65 be
       -0.7007563 0.26125386 0.18074262 -0.22458777
000290 55 e8 01 bf bc 40 91 3d c9 9b e4 bc 5e aa 75 be
       -0.50745136 0.07092425 -0.027906315 -0.23990771
0002a0 8c 45 3f be 2a 7a 0e 3f 3d 58 c6 3e c4 01 20 be
       -0.18678874 0.5565516 0.38739195 -0.15625674
0002b0 7a 1e 93 be 6c 49 87 3d aa ba 09 3f 2a 4f c0 3e
       -0.2873419 0.06605801 0.5380045 0.37560397
0002c0 ab 79 3e be 64 b4 b9 bd 6e f7 93 3e 8c a9 c2 3c
       -0.186011 -0.0906761 0.2889971 0.023762487
0002d0 da 69 37 3e ef 7e 31 be 79 8c 7a 3d 4f 86 ae 3e
       0.17911473 -0.17333578 0.06116912 0.34086844
0002e0 9a 14 6a be 58 66 a5 be 4a 2f 68 be 0e 31 ca 3e
       -0.22859421 -0.32304645 -0.2267429 0.3949055
0002f0 ec 5e 02 bf 88 a7 97 bd 1c e4 f5 bd a2 6f 09 bf
       -0.5092609 -0.07405001 -0.12006399 -0.53685963

fc1.bias f4 [64]
000000 2a 2b 8d 40 da 99 80 3f 54 84 25 3e 87 80 11 3f
       4.411519 1.0046952 0.1616376 0.5683674
000010 c2 77 df 3f 61 4a 33 40 90 ad 7d 40 c8 84 27 40
       1.7458422 2.8014147 3.9637184 2.6174793
000020 60 71 3f 3e 3a 8e 00 bf 37 d8 55 40 18 7a 4b 40
       0.18695593 -0.5021702 3.3413217 3.179327
000030 51 41 18 bf 27 a0 cd bf 00 7c 77 bc b6 48 53 40
       -0.59474665 -1.60645 -0.0151052475 3.301313
000040 67 8a 70 40 c7 ed 57 bf 06 09 30 c0 90 8c 5c 3e
       3.7584474 -0.84347194 -2.7505507 0.21537995
000050 bc 9a 63 40 bf f7 28 bf 01 7d 80 bf 7f 20 1a c0
       3.5563192 -0.6600303 -1.0038148 -2.4082334
000060 ca 5e b7 be b0 94 57 40 12 37 80 40 b3 30 2e 40
       -0.35814506 3.3684502 4.0067225 2.7217224
000070 c3 e0 92 40 d0 9e ee 3e a1 43 2c 40 95 47 05 c0
       4.5899367 0.4660554 2.6916277 -2.082494
000080 e8 b4 83 40 7c b7 1b 40 38 34 53 bf 08 b0 31 3e
       4.1158333 2.433074 -0.82501554 0.17352307
000090 e5 fe 80 40 a2 b1 01 bf f3 0d fe be 70 ed 36 be
       4.031115 -0.5066167 -0.49620017 -0.17864013
0000a0 a6 de b7 3e 1b e8 47 40 32 6c 25 c0 d8 e7 08 3f
       0.35912055 3.1235416 -2.5847287 0.53478765
0000b0 76 69 7f c0 20 9d b3 3e 32 67 e8 bf 58 23 8d 40
       -3.9908118 0.35080814 -1.8156493 4.4105644
0000c0 2d 51 4c 40 ce 4b 71 40 3e 17 73 c0 cc 8d b6 3e
       3.1924546 3.7702518 -3.7982936 0.35655057
0000d0 74 12 47 bf 71 b8 49 c0 08 77 ad 3e c4 28 6a 40
       -0.7776253 -3.1518824 0.33879876 3.6587381
0000e0 f7 82 c0 bf 06 20 70 40 bf 04 28 40 e2 7e 5b 40
       -1.5039967 3.7519546 2.6252897 3.4296193
0000f0 b5 f6 6c 40 7d 3a 0f bf 4a 72 17 40 58 00 97 be
       3.7025578 -0.5594862 2.3663507 -0.2949245

fc2.weight f4 [64, 64]
000000 73 66 96 bd df be 4b 3c 4f 38 66 bd 58 f4 9b 3d
       -0.073437594 0.012435644 -0.056206044 0.07614964
000010 1f 49 08 be 02 2e b1 bc f9 6f a6 bc 09 4e d6 bd
       -0.13309143 -0.021628384 -0.020317065 -0.10464103
000020 54 c8 54 bd 3a 85 fd bd 74 11 ad 3d 47 de 11 3d
       -0.05194886 -0.123789266 0.084505945 0.03561237
000030 29 be c2 bd 24 b3 84 bd b4 be 81 3d f1 24 73 3c
       -0.095089264 -0.06479481 0.06335202 0.0148403505
000040 65 a1 f7 bd 7c 37 ec bc 32 42 1e bc 96 2a d7 3d
       -0.120913304 -0.02883505 -0.009659337 0.105061695
000050 62 c8 14 bd 9c 22 84 bd 28 a2 55 3d 64 c1 8e 3d
       -0.036323912 -0.06451914 0.052156597 0.0697048
000060 24 de 55 bd 90 cc 12 be 8b 59 f4 bd c2 1f 27 be
       -0.052213803 -0.14335847 -0.119311415 -0.16320708
000070 d0 cf a5 bd 1a bf c6 3d d8 ab 72 3d 89 f1 13 bd
       -0.08096278 0.097044185 0.059245914 -0.036119018
000080 c1 78 7d b8 bb 67 e2 3c 84 28 59 be c0 80 92 3c
       -6.043236e-05 0.027637353 -0.21206862 0.017883658
000090 99 ac 09 bd dc 21 ed bc 6c 89 29 3d fc 02 f0 3d
       -0.033611868 -0.02894681 0.04139082 0.11719319
0000a0 0f 8b 6f bd 3e 76 a3 bd 32 e2 d8 3c 48 5a 31 3d
       -0.058482226 -0.07981537 0.026475046 0.04329899
0000b0 72 8e 01 be b8 3c d7 3d fc 84 0d be dd 9c 98 bd
       -0.12651995 0.10509628 -0.13820261 -0.07451794
0000c0 8e 84 c9 3c aa 4a 8b bd fb fe 6a bd 84 5a b4 3d
       0.02459934 -0.068013504 -0.057372075 0.08806327
0000d0 88 60 7a bd e8 b5 b7 bc 58 ae 81 bc 60 68 08 be
       -0.061127216 -0.022425607 -0.015830204 -0.13321066
0000e0 f1 44 8a bc 62 23 a9 3a f1 ab 9c bd c2 a7 9e bd
       -0.016878577 0.0012904222 -0.07649983 -0.07746841
0000f0 8b 51 a0 3b a0 69 e8 3d da bf 8b b9 a0 36 74 3d
       0.004892533 0.11348271 -0.00026655087 0.059622407
000100 ca 46 c5 3d 16 fd 06 be cc 77 09 3d 9b 7a f5 3c
       0.096326426 -0.13182482 0.033561513 0.02996569
000110 3a 78 b1 bd cf 52 25 3d 98 f8 84 bd 80 ac 01 bc
       -0.086655095 0.040362176 -0.06492728 -0.007914662
000120 a0 c4 b2 bb 01 50 1d be 5c 22 33 bd 48 1b 82 bc
       -0.0054555684 -0.1536255 -0.04373394 -0.01588215
000130 dc 03 2b 3d cb 65 a9 bd b0 4b af 3d 66 22 b4 bd
       0.041751727 -0.082713686 0.08559358 -0.087956235
000140 80 02 21 3b 22 87 a8 3c 02 dd 8c 3d 19 75 d6 bd
       0.002456814 0.020572249 0.068780914 -0.10471553
000150 ed c3 98 bc 16 03 06 bd 46 13 49 bd 99 8a 1d be
       -0.018648112 -0.032717787 -0.049090646 -0.15384902
000160 9e 39 ca 3d 96 64 40 3d a1 72 e8 bb e8 54 c5 3d
       0.09874271 0.046970926 -0.007093743 0.09635335
000170 fa c8 80 3d de cd a6 3d 42 5e 27 bd db 6a bd 3c
       0.06288333 0.08144735 -0.040861376 0.023122242
000180 ae 59 ce bd e8 98 7f bd 8e e9 06 be 24 ee be bd
       -0.10075699 -0.062401682 -0.13175032 -0.093227655
000190 70 a7 cb 3d 32 37 27 bd e6 d8 cc bd f0 3b e8 3d
       0.099440455 -0.040824123 -0.100023076 0.11339557
0001a0 88 23 d6 bc b6 c9 b5 bd 8c 40 aa bd dc bf 00 3d
       -0.02613999 -0.08876364 -0.083130926 0.03143297
0001b0 da 53 81 bd 03 b2 fe bd 58 ee 1c 3d 49 d2 13 be
       -0.063148215 -0.12436297 0.03831324 -0.14435686
0001c0 bc f5 d8 bd da 43 9e bd ad 21 99 3d 3c ca c3 3d
       -0.10593745 -0.077277854 0.07477126 0.095600575
0001d0 e6 49 ad 3d 8a 57 9f 3d 70 8e c7 bc de b6 a1 bd
       0.08461361 0.077803686 -0.024359912 -0.07896207
0001e0 4b d1 0c be eb d5 15 be 00 00 26 bb ee 45 ec bd
       -0.13751714 -0.14632384 -0.002532959 -0.115367755
0001f0 7c d5 73 bd ec f3 0b bd 38 ae be 3c de 25 c8 3d
       -0.059529766 -0.03416817 0.023276433 0.097728476
000200 a7 bd a3 3f c2 f1 25 3d 50 67 9c 3c 3d 15 10 3e
       1.2792252 0.04051376 0.019092232 0.14070602
000210 16 d3 cc bd 99 18 0b be ea 19 a7 bf 55 6c 9c be
       -0.10001199 -0.13583602 -1.3054783 -0.305514
000220 a0 46 0d 3d e4 24 05 3e dc 4c aa 3f 54 a8 9f bf
       0.03449118 0.13002354 1.3304706 -1.2473245
000230 74 9e 00 be 70 fa 07 3e cb b0 ce 3d 26 91 d6 bf
       -0.12560445 0.13279128 0.10092314 -1.6763046
000240 36 d0 97 be bb 74 74 3e 64 e2 6e 3e 86 32 c9 3d
       -0.2965104 0.23872654 0.23328549 0.0982409
000250 ca 65 81 be 96 06 b5 3c 4a 5a 8b 3e 7c 2e 62 3e
       -0.2527297 0.022097867 0.27217323 0.22088045
000260 d6 a0 ba 3d 8e e8 91 be 48 75 ad be 41 d7 5a be
       0.09112708 -0.28497738 -0.3387854 -0.21371175
000270 72 2c a9 3f d8 21 8d bc 1d 3e 7f 3e 4b 37 b0 3e
       1.3216689 -0.017228052 0.24926038 0.34417185
000280 f9 75 67 be d2 c8 9d be a6 25 20 3d a4 65 f1 bd
       -0.22603597 -0.30817276 0.039098404 -0.117869645
000290 19 6c a3 bf f1 22 f3 3d 6e e9 df bd 80 9b ed 3d
       -1.2767364 0.11871899 -0.10933195 0.11601925
0002a0 70 b9 3e 3d 82 37 1f 3e 55 b0 17 3e b3 08 16 3d
       0.046563566 0.15548518 0.14813359 0.03662939
0002b0 c3 7d e8 3e cc 4e a7 bd bc cd 03 3e 5a 2b bf be
       0.4540845 -0.08169326 0.1287145 -0.37337762
0002c0 48 8c 01 be f5 14 e1 be 91 71 d3 3e 78 32 e9 3e
       -0.1265117 -0.439613 0.41297582 0.45546317
0002d0 eb 02 64 3d c5 14 2a 3e be c7 ee 3d ec cd 69 3f
       0.055666845 0.16609485 0.116591915 0.91329837
0002e0 77 f9 94 3d 2b ac bb be 69 33 12 3d 7f e5 2d bf
       0.07274144 -0.3665479 0.03569356 -0.6792831
0002f0 d8 92 82 bf 1b 90 bc bd 24 f5 1d bf 4c dd cb bd
       -1.0201063 -0.092071734 -0.6170218 -0.099543184
000300 c9 a4 bf bf 15 f2 94 3d ae 9b 8a bd 90 65 00 3d
       -1.4972163 0.07272736 -0.06767975 0.031346858
000310 9a 40 36 bd ef 92 a0 3d 61 0f 7c 3f a4 a8 de 3e
       -0.044495203 0.07840525 0.98460966 0.43488038
000320 b0 ac 2f 3c 00 d8 c8 be 56 75 8f bf 24 6b 46 3f
       0.010722324 -0.39227295 -1.1207683 0.77507234
000330 34 6d c7 bc d5 e4 6a 3a 30 d9 1b bd 47 90 94 3f
       -0.024344064 0.000896049 -0.038048923 1.160653
000340 c6 43 4f 3f d3 dd 6f 3c 5a c2 fb 3d 7f ab 11 bc
       0.8096279 0.014640289 0.12292929 -0.0088909855
000350 37 cb f7 3e d2 32 d0 bd 9c 3e c2 3c a1 71 a8 3c
       0.48397228 -0.10165943 0.023711495 0.020561995
000360 f0 07 e6 bc e1 40 79 3f 90 6c f5 3e f4 c3 d7 3e
       -0.028079957 0.9736462 0.4793439 0.42141688
000370 f9 34 fb bf 04 9b 34 3d be 22 46 3e cc 05 e4 bd
       -1.9625541 0.044093147 0.1934919 -0.11133918
000380 0b ee 8b 3f 8a 39 83 3c c1 64 1d 3d 30 d3 b7 bd
       1.093202 0.016018648 0.038426165 -0.08975828
000390 89 b7 d7 3f a5 c5 03 be 9a dd a6 3d c0 1d dd 3c
       1.6852885 -0.12868364 0.08147736 0.026991725
0003a0 e5 f0 ed 3d 15 e5 55 3e e4 a3 29 3e b0 63 2b bd
       0.116182126 0.20888169 0.16566426 -0.041843116
0003b0 bb 0b 3c bf ec e6 15 3d 04 22 18 3e c6 db 3a 3f
       -0.734554 0.036597177 0.14856726 0.729916
0003c0 74 23 b3 3e 8c dd 3d 3f 85 20 e5 bd b0 88 d5 3e
       0.34987986 0.7416618 -0.11187843 0.41705847
0003d0 96 78 b0 bd 28 09 2c be e0 e0 12 bd 75 8e 08 bf
       -0.0861675 -0.16800368 -0.03585899 -0.5334237
0003e0 39 09 31 3e af d1 e4 3e fb c3 c4 be cb 65 12 3f
       0.17288674 0.44691226 -0.3843077 0.57186574
0003f0 92 41 86 3f e7 8e 53 3c ea fe 06 3e a6 40 f3 3d
       1.048876 0.012912489 0.1318318 0.11877565

fc2.bias f4 [64]
000000 00 6c 0a 3d 07 f3 41 3d 79 c3 5c bf bf b4 10 40
       0.033794403 0.04735091 -0.8623577 2.2610319
000010 ad 4e a1 3f 71 47 02 40 31 86 f0 bd be af a8 3f
       1.2602135 2.0356104 -0.11744345 1.3178632
000020 cc ed a0 bf 61 4b ae 3f b3 c0 1a 40 3c d1 08 40
       -1.257257 1.3616754 2.4180114 2.1377707
000030 a0 ec f8 bf 41 f5 13 40 ae 44 b9 3f 01 cd 9d 3c
       -1.9447212 2.311844 1.4474084 0.019262793
000040 de a5 13 40 e8 93 ce 3f 09 db 23 40 b3 85 79 be
       2.3069987 1.6138887 2.5602438 -0.24367408
000050 5b 55 9d bf 65 a5 21 bc e9 e3 68 bc 45 4e ad bf
       -1.2291673 -0.009866093 -0.014214494 -1.3539511
000060 bf e4 02 40 80 fb 0d bd be 5a dd 3d b8 67 1b be
       2.0452116 -0.034663677 0.10808323 -0.15176284
000070 29 f1 12 40 e8 3d 2f be 59 dc dc 3f 7c a6 b9 3f
       2.2959692 -0.17113459 1.7254745 1.4503932
000080 24 12 ce 3f df fd 47 bd f6 15 19 bd b4 23 93 3f
       1.6099286 -0.048826095 -0.03737446 1.1495271
000090 03 b4 21 bf 06 a5 79 3d 69 65 3a 3d 19 be a6 bd
       -0.631653 0.060948394 0.04550687 -0.08141727
0000a0 44 e7 ec bd f3 26 15 40 2b eb 08 be e7 7b 08 3d
       -0.11567548 2.3305023 -0.1337096 0.033321287
0000b0 5c 0e 99 3f be e1 86 bd 4f 2a 8d 3f df 33 a6 3f
       1.1957507 -0.06586026 1.1028537 1.298458
0000c0 3c 95 ec bd 49 35 fc bc d2 db 4d bd 7d 69 c7 bd
       -0.11551902 -0.030787127 -0.050258465 -0.09736917
0000d0 b7 5a 13 40 8a 57 4a bd 38 d4 4c 3d 2e c9 17 40
       2.3024118 -0.04939989 0.050007075 2.371654
0000e0 07 cc 33 3f a9 52 56 3f 28 b9 ca bb 83 d4 22 40
       0.70233196 0.8371988 -0.006186623 2.5442207
0000f0 be ee 52 bc db ae 95 bd 3f f7 dd 3f b5 91 5b 3d
       -0.012874303 -0.07308742 1.7341079 0.053605754

fc3.weight f4 [20, 64]
000000 6d 13 8f 3d 00 d6 92 3d 87 36 67 bd d2 28 09 3f
       0.06986127 0.071697235 -0.056448486 0.5357791
000010 89 60 8f bf 32 4a 9b 3e ac fb 28 3d 3a ee 4a bf
       -1.1201335 0.30330044 0.041255638 -0.79269755
000020 70 a1 cc be d1 fc 98 bd a8 cf 35 bf 25 67 ac 3e
       -0.39966917 -0.07470096 -0.71019983 0.33672443
000030 cd 86 89 be 75 ae c3 3e 3b 39 02 be f2 66 d8 3d
       -0.26860657 0.38219038 -0.12717144 0.1056651
000040 26 3c 8a bf 70 c5 8f 3d 5d 5b f7 3e c5 b5 79 bc
       -1.0799606 0.0702008 0.48311892 -0.015241091
000050 c8 4e 7f be bc 45 f6 3d 36 85 36 bd 07 c4 5c 3e
       -0.24932396 0.120250195 -0.044560634 0.21559153
000060 f1 5c 95 3e 8c 4e a2 3d ea 54 6b bd 59 83 60 bd
       0.2917247 0.07925138 -0.057454027 -0.054812763
000070 36 60 d9 3e 2c 8a 59 bc 37 35 bd be 2f 8f fc bc
       0.42456216 -0.013277572 -0.36954662 -0.030829994
000080 1f bf 27 3e 9c 0b 0f 3c 47 68 de 3b ce 8b 03 bd
       0.163815 0.008730795 0.006787333 -0.03211575
000090 c5 fb 81 be 9a 68 b1 3c e2 7d 96 3d 5d 0f 49 bb
       -0.25387397 0.021656323 0.07348229 -0.0030679323
0000a0 68 cc cc bd d1 e6 0b 3f 9c 6b e1 3d 7f 6d 38 bd
       -0.09999925 0.5464907 0.11006853 -0.0450263
0000b0 f7 9c 01 3f 5c 9f 4d 3d 0b 74 3b bd 68 fe 06 3d
       0.50630134 0.050200805 -0.045764964 0.032957464
0000c0 89 14 4e bd f1 f0 c2 3d 84 ed 2e bb d3 3c 7e bd
       -0.050312553 0.09518612 -0.0026691863 -0.062069725
0000d0 da bf 06 3f 01 7d 00 3e 45 13 49 3d 7c 5f 22 3f
       0.5263649 0.12547685 0.049090642 0.6342695
0000e0 2b c4 3b bb 43 37 88 bd 8f c7 9a bc f6 05 1b 3f
       -0.002865086 -0.06651165 -0.018893985 0.6055597
0000f0 e0 01 9d bd de 8c f0 3b c5 56 cc 3e e2 37 b7 3d
       -0.07666373 0.0073410114 0.3990995 0.08946206
000100 00 5d 69 bd de 00 e9 3d a2 c2 f5 bb ca 64 00 3f
       -0.056973457 0.113771185 -0.0075000087 0.5015379
000110 c3 ee 4b bf 47 70 8d 3e ef c9 de bd b2 1d 09 bf
       -0.79661196 0.27624723 -0.108783595 -0.53560936
000120 7c a1 a1 bd a4 74 43 3e 5d d4 58 bf 00 e5 91 3e
       -0.07892129 0.19087464 -0.8469904 0.28495026
000130 c6 8a b2 bd ac 1e b8 3e 69 1b be ba 66 10 97 bd
       -0.08717875 0.359609 -0.0014504018 -0.07376175
000140 88 ae 3b bf 10 4e 26 3e 87 92 10 3f 1b 68 7b 3d
       -0.7331319 0.16240716 0.56473583 0.06137858
000150 37 03 4e be a3 db 16 bd a6 80 c9 bd 83 79 80 be
       -0.20118414 -0.036830556 -0.09838991 -0.25092706
000160 b0 81 66 3e a0 f5 e7 3d c5 35 dc bb ec 03 c7 3d
       0.2251041 0.11326146 -0.006720277 0.09717545
000170 93 0a 95 3e 6d 96 0e 3e 6b 7d 25 bf f4 c8 9c 3d
       0.2910963 0.1392457 -0.646445 0.07655516
000180 1c 1b 9b 3e d6 33 23 3e d1 fd 56 bc 26 48 31 bd
       0.3029412 0.15937743 -0.013122038 -0.043281697
000190 d4 67 9a 3d c2 ff f6 bd 10 f2 90 3c bd 82 48 bd
       0.07539335 -0.12060501 0.01769355 -0.048952807
0001a0 da 22 74 3d 08 f7 08 3f f7 cf 1f be d8 9b 39 3d
       0.05960355 0.5350194 -0.15606676 0.04531464
0001b0 77 dd 10 be a0 97 3f 3c a1 ee 16 3e 52 4c 84 3d
       -0.14146982 0.011693865 0.14739467 0.064598694
0001c0 c8 0d 71 3d 34 e0 83 3d 25 19 90 bd 90 5e 9e bc
       0.058851033 0.06439248 -0.07036046 -0.0193322
0001d0 37 48 24 3f 34 70 4f bd 8c 6f e2 3d 53 18 be 3e
       0.6417269 -0.050644115 0.11056432 0.37127933
0001e0 f8 2c cd 3e 00 17 2c 3e 40 a2 a1 3d ce 1b 0e 3f
       0.4007337 0.16805649 0.07892275 0.55511177
0001f0 3f e9 7a bd 50 14 2b 3c eb 85 de 3e b0 c3 f2 3d
       -0.061257597 0.010441855 0.43461546 0.11853731
000200 5d 58 99 bb 48 b0 8f bd d1 cc ec bd 08 38 04 3f
       -0.004679723 -0.07016045 -0.11562503 0.51647997
000210 76 b8 0b bf d4 ef b8 3e 25 88 76 3d 9b 39 d4 be
       -0.5457834 0.36120474 0.06018843 -0.414502
000220 d9 d2 d6 be b3 21 72 3d b6 9e 44 bf b7 d1 2e 3e
       -0.4195774 0.05911417 -0.76804674 0.17072187
000230 f1 7f e9 be c3 67 bb 3e 8b 0b 3c be e6 5a 23 3d
       -0.45605424 0.366026 -0.18363778 0.03988161
000240 90 a3 42 bf 43 e7 65 3e 62 3a df 3e b0 e7 95 3d
       -0.76030827 0.224515 0.4359923 0.073195815
000250 72 75 5b bd cb d1 33 bd f1 5c cd bd ae cf 29 be
       -0.0535788 -0.043901246 -0.10027493 -0.1658313
000260 1a 94 8f 3e b8 fb b0 3d 36 96 2c 3d 99 25 60 ba
       0.2804268 0.086417615 0.04213544 -0.00085505244
000270 5b be 91 3e bd b5 2a bd e7 bc 41 bf a2 bf 9e 3d
       0.28465542 -0.041677225 -0.7567887 0.07751395
000280 f8 d0 8a 3e 8b 68 15 3c ca 73 7c 3d f1 e9 35 3d
       0.27112556 0.009119163 0.061633863 0.044412557
000290 9e 88 67 be 00 1f c1 bb b0 e5 0b 3c 17 92 ca 3d
       -0.22610709 -0.005893588 0.0085386485 0.09891146
0002a0 a0 d3 7b bd 2f e3 0d 3f c3 ae b2 3c 80 a5 89 ba
       -0.06148112 0.5542478 0.021811849 -0.0010501593
0002b0 a4 24 5a bd 8b 5e 6c bc d2 ef a7 bd 23 72 5d 3e
       -0.0532576 -0.014426838 -0.08200039 0.21625571
0002c0 e1 ab 00 3e 84 38 c8 bd 54 a2 62 3c 98 e4 a5 3d
       0.12565567 -0.097764045 0.013832647 0.081002414
0002d0 c8 63 e4 3e 4d a5 77 3d 90 78 cb bc 51 ef 03 3f
       0.44607377 0.060460377 -0.024837762 0.5153704
0002e0 39 91 18 3e 18 ca 91 bd 2c 2d a0 3d a8 d7 04 3f
       0.14899148 -0.071186244 0.07821116 0.51891565
0002f0 6b a7 04 bc f2 dc b8 3d 62 f6 13 3f 40 d9 d2 bc
       -0.008096556 0.09026517 0.57797825 -0.025738358
000300 63 4c e2 bd 7c 50 4c bd cd 12 37 be b7 a1 06 3f
       -0.11049726 -0.049881443 -0.17878266 0.5259051
000310 31 b8 c1 be fa e9 db 3e f8 00 1f bd 7d 6c 05 bf
       -0.3783584 0.42951947 -0.038819283 -0.52118665
000320 9c f1 76 be 96 a0 2b 3d 95 1f 6b bf 91 9d 50 3e
       -0.24115604 0.041901194 -0.91845065 0.20372607
000330 5f 72 83 be 32 43 6d 3e 33 06 14 be ee 3a e9 bd
       -0.25673196 0.23170164 -0.1445549 -0.11388193
000340 36 8e 46 bf 13 6c de ba 4d 89 cf 3e 6d 1e 97 bb
       -0.77560747 -0.0016969464 0.4053444 -0.0046117813
000350 31 f7 9b be 08 14 a7 3d 7c c5 62 3c 61 11 91 3e
       -0.3046203 0.081581175 0.013841029 0.28333572
000360 41 70 5d 3e 9c 5c 5d bd 67 a6 ef 3a 87 69 9c bd
       0.21624853 -0.054043397 0.0018283845 -0.07637315
000370 bf e1 86 3e 10 9b de bd c6 60 3d bf 63 76 06 3e
       0.26344106 -0.108694196 -0.7397579 0.13131098
000380 98 b9 a8 3e e9 e3 68 bd cb 1a 04 bd 81 75 28 be
       0.32954097 -0.056857977 -0.032252114 -0.16451074
000390 03 5a f9 3e 06 e4 d1 bd 06 39 ef 3d 01 2e b1 bd
       0.48701486 -0.1024857 0.11680798 -0.08651353
0003a0 83 f9 20 bd 2b 00 0c 3f 17 ec 7e bc 14 26 d7 bd
       -0.039300453 0.54687756 -0.015559218 -0.1050531
0003b0 8a 56 ad 3d bc c3 1a 3d a5 fe bb 3d 00 55 d0 bc
       0.08463772 0.037784323 0.09179429 -0.025431156
0003c0 b3 ca bc 3b 10 c2 c2 bd 3a 3b bb 3d ce e2 f8 bd
       0.0057614683 -0.09509671 0.09142156 -0.121526346
0003d0 f3 dc 09 3f 72 ac c3 bd e0 c5 04 bc 63 34 07 3f
       0.53852767 -0.09554376 -0.008103818 0.5281431
0003e0 18 26 88 3e f1 45 77 3e 3e 38 cc bd 76 05 0d 3f
       0.26591563 0.24147774 -0.09971665 0.5508646
0003f0 a9 f6 c3 bd 81 34 d7 3c c4 f4 d5 3e a0 1b f8 bc
       -0.09568531 0.026270153 0.41788304 -0.03028661

fc3.bias f4 [20]
000000 d0 8a 04 40 b6 43 5a 3f cf 96 32 3f 56 de 0c 3f
       2.0709724 0.8525957 0.69761366 0.5502676
000010 00 89 07 3f b3 32 f0 3e 5a de 12 3f 0f 21 e1 3e
       0.5294342 0.4691368 0.5737053 0.43970534
000020 96 38 cc 3e 05 3c e3 3d df 60 2c 3e af af 42 3e
       0.39886922 0.11095432 0.16833828 0.1901233
000030 ea 44 34 3b 63 a9 7d 3d be 19 0e bd 3a 09 fe bd
       0.0027506896 0.061929118 -0.03469252 -0.124041036
000040 80 ef 39 3b 66 1a 8c be 69 4d 5e be cf b8 4d be
       0.0028371513 -0.2736389 -0.21709217 -0.2009003
