beer/experiments/DQN_0.12/models/dqn_agent_firm_1_episode_4000.pth (torch, 101224 bytes, 24 tensors)

fc1.weight f4 [64, 3]
0.20982556 0.2725577 -0.23865665 -1.0757082 0.13218492 -0.009608473 0.2685827 -0.5385895
-0.36166376 -0.5241926 -0.073619455 -0.008515904 -0.24942379 -0.3513714 -0.3404796 -0.030427435
0.0055173594 -0.106401615 0.062329765 -0.040946353 0.0776576 0.09753176 0.58125365 0.09737231
-0.3830037 -0.44415686 -0.22987688 0.00879032 0.33881846 -0.61431015 -0.10688255 0.1422511
-0.2014735 -0.046001036 -0.16107218 0.064523585 -0.5550215 0.3070572 -0.18951301 0.04727768
0.2880944 0.14799398 -0.21468908 -0.25837857 -0.32115912 -0.103170685 -0.08614625 0.064286835
-0.35666227 0.36171383 0.08555041 0.27393097 0.053918865 0.03878984 0.12764485 0.6104991
0.41425538 -0.5640577 -0.3361875 -0.23491043 -0.49686536 -0.87215835 -0.2680717 -0.17977831
-0.8445264 0.004252011 -0.012348274 -0.45413595 0.0093765445 0.22157265 -0.3126433 0.187505
-0.31049082 -0.45630372 -0.4046755 -0.5196661 0.13205399 0.11757635 -0.2675625 -0.20824663
-0.06917214 0.5113781 0.529122 0.10054253 0.054700512 0.18048766 -0.121157534 -0.48019928
-0.46786684 -0.55308104 -0.48407075 -0.42267054 0.087192155 -0.04884427 -0.43253884 0.017369814
0.36394718 -0.39330557 0.17542279 0.24005184 0.3500378 -0.0023550035 0.48381802 0.2139848
-0.15521444 0.5430763 -0.2929203 -0.56595933 -0.16486767 -0.08778425 0.10292929 -1.249836
0.32979798 -0.25637943 0.21386439 -0.22208506 -0.25135505 -0.31829226 -0.26436707 -0.21510795
0.15388745 -0.11514461 -0.45473546 -0.31212613 -0.07385842 0.15565784 0.36500448 0.43493745
0.2066357 -0.07162601 -0.42419338 -0.1166808 -0.23920365 -0.52786857 0.17951967 0.22897547
-0.39431754 -0.33426303 0.24483815 0.37025526 0.101123266 -0.3655696 -0.49638084 0.010001925
-0.41478366 -0.19313613 0.13961625 0.27795273 -0.25009876 0.0918202 -0.3142873 -0.46962065
0.27757776 0.48335013 -1.7165631 0.01907787 -0.21329537 0.17379959 -0.40165633 -0.368537
-1.1418558 0.15269575 0.18074262 -0.22458777 -0.50745136 0.050524946 -0.016416289 -0.25272807
-0.14420943 0.5534908 0.4109385 -0.40756437 -0.3001717 -0.16268846 0.5191187 0.35204798
-0.06419197 -0.17506212 0.18725279 0.035455674 0.1442018 -0.18869354 0.09537462 0.3408628
-0.2285948 -0.3230437 0.027000878 0.3295177 -0.5614915 -0.07405001 -0.12006399 -0.53685963
00000000: 83dc 563e af8c 8b3e 6962 74be ceb0 89bf
00000010: 7c5b 073e db6c 1dbc ac83 893e 00e1 09bf
00000020: fe2b b9be 7c31 06bf ccc5 96bd 4a86 0bbc
00000030: f368 7fbe f4e6 b3be 5853 aebe f542 f9bc
00000040: f7ca b43b 17e9 d9bd 7f4d 7f3d 5db7 27bd
00000050: f30a 9f3d bbbe c73d 0acd 143f 226b c73d
00000060: 1019 c4be 8768 e3be d864 6bbe 4605 103c
00000070: 9d79 ad3e 6e43 1dbf 3de5 dabd 46aa 113e
00000080: 124f 4ebe 956b 3cbd 1bf0 24be f124 843d
00000090: e415 0ebf 9a36 9d3e b30f 42be 3ea6 413d
000000a0: 1c81 933e bc8b 173e 74d7 5bbe 324a 84be
000000b0: f86e a4be 274b d3bd 726d b0bd d1a8 833d
000000c0: 709c b6be 8e32 b93e 0e35 af3d ae40 8c3e
000000d0: 07da 5c3d 18e2 1e3d 55b5 023e ab49 1c3f
000000e0: 4819 d43e 1666 10bf c520 acbe 5c8c 70be
000000f0: 2365 febe c545 5fbf b240 89be ce17 38be
00000100: e232 58bf 7454 8b3b 6a50 4abc 8284 e8be
00000110: 14a0 193c f1e3 623e c812 a0be 5001 403e
00000120: a7f8 9ebe a4a0 e9be a131 cfbe d608 05bf
00000130: 2939 073e dfcb f03d f4fd 88be 9b3e 55be
00000140: 1faa 8dbd ade9 023f 8a74 073f 3ee9 cd3d
00000150: a50d 603d c2d1 383e 7121 f8bd aedc f5be
00000160: 3e8c efbe b896 0dbf 1fd8 f7be 4668 d8be
00000170: cd91 b23d ee10 48bd bb75 ddbe 244b 8e3c
00000180: 4957 ba3e 595f c9be 08a2 333e 26d0 753e
00000190: 2838 b33e 6756 1abb ffb6 f73e d51e 5b3e
000001a0: 89f0 1ebe 0c07 0b3f a6f9 95be b6e2 10bf
000001b0: 12d3 28be 3bc8 b3bd 97cc d23d a0fa 9fbf
000001c0: 48db a83e 2a44 83be 44ff 5a3e 446a 63be
000001d0: 9cb1 80be 34f7 a2be 1f5b 87be 4245 5cbe
000001e0: ac94 1d3e f0d0 ebbd 16d3 e8be ffce 9fbe
000001f0: 1543 97bd c564 1f3e dee1 ba3e 1fb0 de3e
00000200: 4f98 533e a8b0 92bd e02f d9be 58f6 eebd
00000210: cdf1 74be 6522 07bf 01d4 373e 8c78 6a3e
00000220: fde3 c9be 8624 abbe dab6 7a3e 1992 bd3e
00000230: b719 cf3d f02b bbbe a125 febe 1ddf 233c
00000240: 865e d4be 7ac5 45be 90f7 0e3e d24f 8e3e
00000250: f20c 80be 3b0c bc3d 44ea a0be 1e72 f0be
00000260: ac1e 8e3e ab79 f73e 57b8 dbbf 3149 9c3c
00000270: 1a6a 5abe 85f8 313e e6a5 cdbe e2b0 bcbe
00000280: 5528 92bf 465c 1c3e 9814 393e 56fa 65be
00000290: 55e8 01bf 3ff3 4e3d 747b 86bc 9365 81be
000002a0: a3ab 13be 93b1 0d3f 8866 d23e 47ac d0be
000002b0: 1bb0 99be ce97 26be f7e4 043f a23f b43e
000002c0: 1477 83bd 7c43 33be 32bf 3f3e f839 113d
000002d0: a3a9 133e e138 41be c553 c33d 9285 ae3e
000002e0: c114 6abe fc65 a5be f230 dd3c 8bb6 a83e
000002f0: e8bd 0fbf 88a7 97bd 1ce4 f5bd a26f 09bf

fc1.bias f4 [64]
4.518466 0.86543244 0.1616376 0.56837213 2.0292473 3.029375 3.837507 2.5468302
0.18695593 -0.37024745 3.421472 2.9626873 -0.58498 -1.5790055 -0.0151052475 3.0975049
3.5896647 -0.85224193 -2.69846 0.21537995 3.3539345 -0.6601925 -1.0038948 -2.4515502
-0.35814506 3.0795624 4.177512 2.672965 4.6460814 0.4660554 2.432472 -2.0826602
3.9969816 2.2186208 -0.43611258 0.17352307 3.8920245 -0.5472935 -0.49619567 -0.17864013
0.35912055 2.8682938 -2.5383458 0.53478765 -4.107702 0.35080814 -1.8111881 4.0511665
2.9681118 3.628391 -3.7752085 0.22210178 -0.7518252 -3.1434977 0.33879876 3.707631
-1.4723216 3.5402868 2.7771053 3.1692474 3.57897 -0.5595231 2.5508254 -0.2949245
00000000: 4697 9040 fb8c 5d3f 5484 253e d680 113f
00000010: 30df 0140 48e1 4140 b799 7540 44ff 2240
00000020: 6071 3f3e 1391 bdbe 66f9 5a40 ab9c 3d40
00000030: 40c1 15bf da1c cabf 007c 77bc 853d 4640
00000040: 11bd 6540 872c 5abf 92b3 2cc0 908c 5c3e
00000050: dda6 5640 6002 29bf a07f 80bf 33e6 1cc0
00000060: ca5e b7be 8d17 4540 2eae 8540 dc11 2b40
00000070: b3ac 9440 d09e ee3e 9fad 1b40 4e4a 05c0
00000080: 8cce 7f40 e2fd 0d40 264a dfbe 08b0 313e
00000090: ee16 7940 6d1b 0cbf 5c0d febe 70ed 36be
000000a0: a6de b73e 2092 3740 4274 22c0 d8e7 083f
000000b0: 4b72 83c0 209d b33e 03d5 e7bf 28a3 8140
000000c0: 8bf5 3d40 8f37 6840 049d 71c0 a66e 633e
000000d0: 9e77 40bf 112f 49c0 0877 ad3e d449 6d40
000000e0: 0975 bcbf 0f94 6240 18bc 3140 f3d4 4a40
000000f0: d80d 6540 e83c 0fbf b940 2340 5800 97be

fc2.weight f4 [64, 64]
-0.07343819 0.012435417 -0.05620551 0.07615056 -0.13309665 -0.021629563 -0.02031816 -0.10464513
-0.05194886 -0.12379394 0.084505945 0.035608582 -0.095088944 -0.06479669 0.06335202 0.014839336
-0.1209153 -0.028834678 -0.009659614 0.105061695 -0.036325574 -0.064525366 0.05215552 0.06970056
-0.052213803 -0.14335911 -0.119314194 -0.16321503 -0.08096724 0.097044185 0.05924286 -0.03612182
-6.0447033e-05 0.027636254 -0.21207199 0.017883658 -0.033611663 -0.028945401 0.04139082 0.11719319
-0.058481842 -0.07981494 0.026473708 0.04329899 -0.12651925 0.10509628 -0.13820699 -0.07452224
0.02459872 -0.068017244 -0.057372987 0.08805791 -0.061126895 -0.022425337 -0.015830204 -0.13321096
-0.016879218 0.0012903331 -0.076501034 -0.07747095 0.004892273 0.11348271 -0.00026657566 0.059622407
0.096326426 -0.13182655 0.033561513 0.029964466 -0.08665695 0.040360518 -0.06492728 -0.007914662
-0.0054555684 -0.15362723 -0.04373394 -0.01588215 0.041748088 -0.082715765 0.08559358 -0.087956235
0.002456814 0.020570293 0.06877566 -0.1047145 -0.01864898 -0.03271873 -0.049090303 -0.15385051
0.09874271 0.0469666 -0.0070937374 0.09635335 0.06288333 0.08144735 -0.04086412 0.023120372
-0.10075699 -0.062401682 -0.13175303 -0.093227655 0.099440396 -0.04082683 -0.100023076 0.11339539
-0.02613999 -0.08876318 -0.0831348 0.03143297 -0.063148364 -0.124361545 0.03831261 -0.14436856
-0.105942614 -0.077277854 0.07476386 0.095600575 0.08460694 0.07780238 -0.024359912 -0.07896207
-0.1375278 -0.14632866 -0.002532959 -0.115367755 -0.059529766 -0.03416817 0.023276433 0.097728476
1.2407982 0.0023448602 0.019092232 0.14069459 -0.100176744 -0.1676475 -1.3436677 -0.34385508
0.03449118 0.09159081 1.2920454 -1.2852829 -0.16389269 0.09494412 0.100922614 -1.71448
-0.33479863 0.20104043 0.19547936 0.098240435 -0.2527796 0.022135831 0.27219918 0.22084701
0.09112708 -0.32305974 -0.33901256 -0.25203735 1.2831769 -0.017228052 0.24922176 0.3441836
-0.22608195 -0.34655905 0.00072530034 -0.117869645 -1.314685 0.0803373 -0.10933195 0.11601925
0.046563566 0.15544213 0.11024272 0.036629066 0.45404923 -0.08169326 0.09069824 -0.37341583
-0.13167486 -0.43974736 0.41295186 0.45549792 0.017647404 0.1660608 0.11659162 0.87488544
0.034943547 -0.3666056 -0.0027344308 -0.7176156 -1.0578161 -0.09207044 -0.65541345 -0.099543184
-1.516975 -0.05235281 -0.06767975 0.0313457 -0.7857769 0.09189645 0.9435838 0.4342313
0.010722324 -0.49619362 -1.0159192 0.69069546 -0.09853107 0.019357605 -0.038048923 1.0656016
0.7758632 -0.014307299 0.18448398 -0.008890912 0.44540063 -0.10178661 0.02371461 0.028874112
-0.028079957 0.9340556 0.09138737 0.43751556 -1.9810505 0.044093147 0.14626308 -0.11133667
1.0961826 0.01636911 -0.025568895 -0.08975828 1.6293635 -0.25551537 0.08147736 0.026991725
0.11618188 0.21309885 0.21129118 -0.041843116 -0.68556964 0.036597177 0.1623807 0.627989
0.34101027 0.72269607 -0.13958617 0.4248014 -0.4947787 -0.16621856 -0.03585899 -0.33146858
0.22731224 0.34618965 -0.34867597 0.50355995 1.0179114 0.012912436 -0.004843756 0.11877565
00000000: c366 96bd ebbd 4b3c c037 66bd d3f4 9b3d
00000010: 7d4a 08be 7b30 b1bc 4572 a6bc 3050 d6bd
00000020: 54c8 54bd ad87 fdbd 7411 ad3d 4eda 113d
00000030: febd c2bd 21b4 84bd b4be 813d b020 733c
00000040: 71a2 f7bd b436 ecbc 5c43 1ebc 962a d73d
00000050: 20ca 14bd e025 84bd 07a1 553d 2bbf 8e3d
00000060: 24de 55bd bbcc 12be 005b f4bd d721 27be
00000070: 27d2 a5bd 1abf c63d a4a8 723d 79f4 13bd
00000080: 8288 7db8 6d65 e23c 6629 59be c080 923c
00000090: 62ac 09bd e81e edbc 6c89 293d fc02 f03d
000000a0: a88a 6fbd 0476 a3bd 64df d83c 485a 313d
000000b0: 438e 01be b83c d73d 2286 0dbe 1e9f 98bd
000000c0: 4183 c93c a04c 8bbd f0ff 6abd b557 b43d
000000d0: 3260 7abd 57b5 b7bc 58ae 81bc 7468 08be
000000e0: 4946 8abc 6520 a93a 93ac 9cbd 17a9 9ebd
000000f0: 5c4f a03b a069 e83d 2ec3 8bb9 a036 743d
00000100: ca46 c53d 8afd 06be cc77 093d 0a78 f53c
00000110: 3379 b1bd 1251 253d 98f8 84bd 80ac 01bc
00000120: a0c4 b2bb 7550 1dbe 5c22 33bd 481b 82bc
00000130: 0b00 2b3d e266 a9bd b04b af3d 6622 b4bd
00000140: 8002 213b 0883 a83c 41da 8c3d 8e74 d6bd
00000150: bfc5 98bc 1304 06bd ea12 49bd fd8a 1dbe
00000160: 9e39 ca3d 0d60 403d 9572 e8bb e854 c53d
00000170: fac8 803d decd a63d 2361 27bd ef66 bd3c
00000180: ae59 cebd e898 7fbd 44ea 06be 24ee bebd
00000190: 68a7 cb3d 093a 27bd e6d8 ccbd d83b e83d
000001a0: 8823 d6bc 78c9 b5bd 9442 aabd dcbf 003d
000001b0: ee53 81bd 44b1 febd afed 1c3d 5ad5 13be
000001c0: 71f8 d8bd da43 9ebd cb1d 993d 3cca c33d
000001d0: 6746 ad3d db56 9f3d 708e c7bc deb6 a1bd
000001e0: 16d4 0cbe 2ed7 15be 0000 26bb ee45 ecbd
000001f0: 7cd5 73bd ecf3 0bbd 38ae be3c de25 c83d
00000200: 7ad2 9e3f 3aac 193b 5067 9c3c 3e12 103e
00000210: 7729 cdbd c9ab 2bbe 4efd abbf c60d b0be
00000220: a046 0d3d f693 bb3d be61 a53f 2684 a4bf
00000230: 7cd3 27be 1072 c23d 84b0 ce3d 1574 dbbf
00000240: ba6a abbe 8bdd 4d3e be2b 483e 4832 c93d
00000250: 546c 81be 3456 b53c b15d 8b3e b825 623e
00000260: d6a0 ba3d 1668 a5be 0e93 adbe 0a0b 81be
00000270: 243f a43f d821 8dbc fd33 7f3e d538 b03e
00000280: 0782 67be 3070 b1be 1522 3e3a a465 f1bd
00000290: 9947 a8bf e287 a43d 6ee9 dfbd 809b ed3d
000002a0: 70b9 3e3d 392c 1f3e efc6 e13d 5c08 163d
000002b0: 2479 e83e cc4e a7bd 00c0 b93d 5c30 bfbe
000002c0: c6d5 06be 9126 e1be 6d6e d33e 0637 e93e
000002d0: 4a91 903c d80b 2a3e 96c7 ee3d 7ef8 5f3f
000002e0: f720 0f3d bbb3 bbbe 2334 33bb a8b5 37bf
000002f0: 8566 87bf 6d8f bcbd 2dc9 27bf 4cdd cbbd
00000300: 3d2c c2bf e66f 56bd ae9b 8abd 5964 003d
00000310: ad28 49bf 3534 bc3d b58e 713f 9153 de3e
00000320: b0ac 2f3c 170d febe a409 82bf 6bd1 303f
00000330: a8ca c9bd d793 9e3c 30d9 1bbd a265 883f
00000340: f89e 463f 2969 6abc 5ee9 3c3e 30ab 11bc
00000350: 8d0b e43e 8075 d0bd 2445 c23c 6789 ec3c
00000360: f007 e6bc 451e 6f3f 4d29 bb3d 0a02 e03e
00000370: 1093 fdbf 049b 343d fdc5 153e 7b04 e4bd
00000380: b64f 8c3f 8318 863c dc75 d1bc 30d3 b7bd
00000390: fc8e d03f e9d2 82be 9add a63d c01d dd3c
000003a0: c4f0 ed3d 9636 5a3e b75c 583e b063 2bbd
000003b0: 7e81 2fbf ece6 153d 2047 263e e3c3 203f
000003c0: e698 ae3e 9c02 393f adef 0ebe 927f d93e
000003d0: a253 fdbe 3335 2abe e0e0 12bd 40b6 a9be
000003e0: 8ac4 683e c53f b13e a885 b2be 4ee9 003f
000003f0: ec4a 823f af8e 533c 5fb8 9ebb a640 f33d

fc2.bias f4 [64]
0.033793006 0.047350295 -0.900609 2.2770152 1.0998315 2.011524 -0.11850117 1.1012039
-1.2573303 1.3033351 2.4284923 2.1150546 -1.9449239 2.301243 1.4235071 0.01926176
2.24025 1.6153288 2.5687456 -0.2771393 -1.2294211 -0.009866797 -0.014215158 -1.3859302
2.0111039 -0.034663677 0.10808034 -0.15176335 2.2823985 -0.17114033 1.6479722 1.4793051
1.5615611 -0.052294925 -0.03737468 0.89309305 -0.76195025 0.060944017 0.045503005 -0.081416614
-0.11567783 2.3525293 -0.13372035 0.033320453 1.1135008 -0.065861516 1.0481963 1.1557932
-0.115522966 -0.030787965 -0.052045923 -0.097369134 2.324759 -0.049405843 0.05000355 2.3883648
0.6705059 0.82269263 -0.006186833 2.567071 -0.012874895 -0.073092096 1.7365707 0.05360313
00000000: 896a 0a3d 62f2 413d 508e 66bf 9eba 1140
00000010: 47c7 8c3f cfbc 0040 beb0 f2bd 40f4 8c3f
00000020: 33f0 a0bf afd3 a63f 6b6c 1b40 0e5d 0740
00000030: 44f3 f8bf 9147 1340 7b35 b63f d7ca 9d3c
00000040: 4260 0f40 18c3 ce3f 5466 2440 34e5 8dbe
00000050: ac5d 9dbf 59a8 21bc b2e6 68bc 2966 b1bf
00000060: edb5 0040 80fb 0dbd 3a59 dd3d da67 1bbe
00000070: d112 1240 693f 2fbe c1f0 d23f df59 bd3f
00000080: 3ce1 c73f 3433 56bd 3116 19bd bfa1 643f
00000090: 2c0f 43bf 6fa0 793d 5c61 3a3d c1bd a6bd
000000a0: 80e8 ecbd d78f 1640 fded 08be 077b 083d
000000b0: 3287 8e3f 67e2 86bd 4c2b 863f 08f1 933f
000000c0: 4e97 ecbd 0b37 fcbc 1b2e 55bd 7869 c7bd
000000d0: dac8 1440 c85d 4abd 86d0 4c3d f8da 1840
000000e0: 46a6 2b3f fc9b 523f ebba cabb e44a 2440
000000f0: 39f1 52bc 4fb1 95bd f347 de3f f58e 5b3d

fc3.weight f4 [20, 64]
0.06986129 0.071697235 -0.056400627 0.54130524 -0.96195084 0.29832435 0.040194158 -0.6130308
-0.39964822 -0.01909961 -1.0032244 0.28384846 -0.2683499 0.34360057 -0.002613008 0.1056651
-0.96884525 0.17326152 0.4810223 0.10355042 -0.24889944 0.120250486 -0.04455737 0.14302613
0.25553027 0.07925138 -0.05745098 -0.054809794 0.401899 -0.013277443 -0.19185345 -0.035231993
0.14393805 0.008730076 0.006786956 0.1400975 -0.4512049 0.021657549 0.07347697 -0.0030678862
-0.099994205 0.5534291 0.11006853 -0.045022912 0.35658288 0.050200805 0.07613947 0.06808698
-0.05031023 0.09519128 -0.0042296327 -0.062069714 0.53494143 0.12548402 0.04908877 0.6139929
-0.0028403632 -0.06763464 -0.018894842 0.60117376 -0.076657824 0.0073405188 0.41128936 0.08946206
-0.05697267 0.113771185 -0.0074609676 0.50236756 -0.72720903 0.29442635 -0.10877752 -0.41002595
-0.07891705 0.047217406 -0.81876993 0.29331613 -0.08720853 0.35503128 -0.3170587 -0.07376175
-0.7330312 0.20824619 0.5574241 -0.018875724 -0.2011604 -0.036828995 -0.09838257 -0.120854214
0.21793532 0.113260046 -0.006719923 0.09717832 0.311918 0.13924418 -0.6062509 0.40892875
0.23690057 0.15938132 -0.013121651 -0.046028502 0.14383477 -0.12060501 0.01769355 -0.04895202
0.05960349 0.542448 -0.15608682 0.04531464 -0.06971356 0.011693865 0.07002508 0.058675256
0.05885074 0.06439528 -0.07035469 -0.0193322 0.64285445 -0.050644547 0.11056337 0.39062446
0.40069947 0.18832849 0.07892275 0.5606125 -0.061256774 0.010441855 0.43659878 0.11853731
-0.0046795867 -0.07016045 -0.11566713 0.5120336 -0.5664364 0.34478512 0.060188264 -0.290933
-0.4195477 0.14007674 -0.8136437 0.14466748 -0.45637086 0.31530964 -0.29454762 0.039881453
-0.6926835 0.14574932 0.42094496 -0.0020704197 -0.05380252 -0.04390038 -0.100270085 -0.26407817
0.18743655 0.086417615 0.04213633 -0.0008550023 0.28302816 -0.041679736 -0.65047437 0.30570933
0.1249149 0.009119404 0.06163413 0.05272917 -0.23365189 -0.005893588 0.0085386485 0.09891606
-0.06147919 0.5797663 0.02178739 -0.0010501593 -0.10351987 -0.01442665 -0.09071455 0.21509963
0.12566067 -0.097759515 0.013832793 0.081002414 0.46836197 0.060460214 -0.024838785 0.49576908
0.1489107 -0.08710603 0.07821116 0.5282347 -0.008096061 0.09026517 0.58301306 -0.025738358
-0.110498466 -0.049881443 -0.17874311 0.5374152 -0.38746563 0.44741312 -0.038819283 -0.49907792
-0.24114509 0.114620894 -0.8286802 0.18752415 -0.25644428 0.205007 -0.21655664 -0.11388193
-0.7630999 0.013504796 0.42801964 -0.08771402 -0.3048834 0.08157438 0.013841029 0.509315
0.2190353 -0.054043397 0.001828362 -0.07636675 0.26507375 -0.108696 -0.7485454 0.1211075
0.33493957 -0.056860853 -0.032251075 -0.022322623 0.50736606 -0.1024857 0.116808146 -0.08650705
-0.039297607 0.56331086 -0.015579754 -0.1050531 0.12257463 0.037784323 0.04372485 -0.038614884
0.0057610753 -0.09509232 0.090774186 -0.121526346 0.55282754 -0.09554398 -0.008103818 0.5251635
0.2658278 0.26083463 -0.09971665 0.5496497 -0.09567673 0.026269138 0.44234896 -0.03028661
00000000: 7013 8f3d 00d6 923d 5804 67bd fb92 0a3f
00000010: 6942 76bf f8bd 983e a1a2 243d 96ef 1cbf
00000020: b19e ccbe c976 9cbc a869 80bf 9654 913e
00000030: 2865 89be 6aec af3e 003f 2bbb f266 d83d
00000040: 3e06 78bf 786b 313e 8e48 f63e 3e12 d43d
00000050: 7fdf 7ebe e345 f63d ca81 36bd 7175 123e
00000060: ddd4 823e 8c4e a23d b851 6bbd 3c80 60bd
00000070: b5c5 cd3e a289 59bc 3b75 44be 6c4f 10bd
00000080: 7f64 133e 9808 0f3c 1d65 de3b b875 0f3e
00000090: 5404 e7be 2c6b b13c 187b 963d 970e 49bb
000000a0: c3c9 ccbd 88ad 0d3f 9c6b e13d f269 38bd
000000b0: 0892 b63e 5c9f 4d3d 03ef 9b3d 3071 8b3d
000000c0: 1a12 4ebd a5f3 c23d bb98 8abb d03c 7ebd
000000d0: ecf1 083f e27e 003e 4e11 493d a42e 1d3f
000000e0: 6325 3abb 0884 8abd 5bc9 9abc 86e6 193f
000000f0: c7fe 9cbd bc88 f03b 8594 d23e e237 b73d
00000100: 2d5c 69bd de00 e93d 227b f4bb 299b 003f
00000110: 5f2a 3abf 0dbf 963e c0c6 debd ecee d1be
00000120: 439f a1bd 0a67 413d e89a 51bf 882d 963e
00000130: 639a b2bd a9c6 b53e 8555 a2be 6610 97bd
00000140: efa7 3bbf 7d3e 553e 59b3 0e3f 43a1 9abc
00000150: fefc 4dbe 00da 16bd cd7c c9bd 6a82 f7bd
00000160: 702a 5f3e e2f4 e73d cd32 dcbb 6d05 c73d
00000170: b7b3 9f3e 0796 0e3e 4233 1bbf 1c5f d13e
00000180: 1096 723e db34 233e 31fc 56bc 6288 3cbd
00000190: 6c49 133e c2ff f6bd 10f2 903c ea81 48bd
000001a0: ca22 743d dfdd 0a3f 39d5 1fbe d89b 393d
000001b0: fcc5 8ebd a097 3f3c 4f69 8f3d 7755 703d
000001c0: 790d 713d ace1 833d 1f16 90bd 905e 9ebc
000001d0: 1c92 243f a870 4fbd 0c6f e23d eeff c73e
000001e0: 7b28 cd3e 2fd9 403e 40a2 a13d 4d84 0f3f
000001f0: 62e8 7abd 5014 2b3c e089 df3e b0c3 f23d
00000200: 3857 99bb 48b0 8fbd e3e2 ecbd a214 033f
00000210: fa01 11bf ad87 b03e f887 763d 2cf5 94be
00000220: f5ce d6be 4770 0f3e f44a 50bf b623 143e
00000230: 71a9 e9be 4470 a13e f2ce 96be bc5a 233d
00000240: b553 31bf 4f3f 153e 1986 d73e e1af 07bb
00000250: 0860 5cbd e3d0 33bd 675a cdbd 4135 87be
00000260: 5eef 3f3e b8fb b03d 2597 2c3d 3c22 60ba
00000270: 11e9 903e 5fb8 2abd 7d85 26bf ef85 9c3e
00000280: 62d3 ff3d 8d69 153c 1274 7c3d 8bfa 573d
00000290: 7142 6fbe 001f c1bb b0e5 0b3c 8194 ca3d
000002a0: 9ad1 7bbd 906b 143f 787b b23c 80a5 89ba
000002b0: 3a02 d4bd c15d 6cbc 8dc8 b9bd 1443 5c3e
000002c0: 31ad 003e 2436 c8bd f0a2 623c 98e4 a53d
000002d0: 24cd ef3e 21a5 773d b57a cbbc 72d5 fd3e
000002e0: 0c7c 183e a564 b2bd 2c2d a03d 643a 073f
000002f0: 57a5 04bc f2dc b83d 5840 153f 40d9 d2bc
00000300: 054d e2bd 7c50 4cbd 6f08 37be 0b94 093f
00000310: e561 c6be 5513 e53e f800 1fbd 2487 ffbe
00000320: bdee 76be 5cbe ea3d 6324 54bf 5506 403e
00000330: aa4c 83be 5bed 513e 06c1 5dbe ee3a e9bd
00000340: 845a 43bf 3843 5d3c 6425 db3e 68a3 b3bd
00000350: ad19 9cbe 7810 a73d 7cc5 623c 7862 023f
00000360: ca4a 603e 9c5c 5dbd a6a5 ef3a 2c66 9cbd
00000370: bfb7 873e 029c debd aca0 3fbf 3507 f83d
00000380: 337d ab3e ede6 68bd b419 04bd efdd b6bc
00000390: bee2 013f 06e4 d1bd 1c39 ef3d 9c2a b1bd
000003a0: 87f6 20bd 2435 103f 3942 7fbc 1426 d7bd
000003b0: 6808 fb3d bcc3 1a3d d418 333d a42a 1ebd
000003c0: 67c7 bc3b c3bf c2bd d1e7 b93d cee2 f8bd
000003d0: 1b86 0d3f 90ac c3bd e0c5 04bc 1d71 063f
000003e0: 951a 883e 1e8c 853e 3e38 ccbd d8b5 0c3f
000003f0: 29f2 c3bd 6032 d73c 907b e23e a01b f8bc

fc3.bias f4 [20]
2.2031724 0.8725911 0.6755873 0.6241529 0.5571122 0.46154165 0.54138756 0.47242385
0.45225212 0.1342408 0.18633828 0.12690969 -0.01612506 0.10424617 0.15261947 0.037029028
0.06665269 -0.34863585 -0.2068148 -0.32897204
00000000: c700 0d40 2162 5f3f 4af3 2c3f 7cc8 1f3f
00000010: e89e 0e3f 304f ec3e 6098 0a3f 8ae1 f13e
00000020: 978d e73e 6c76 093e 76cf 3e3e 9df4 013e
00000030: b418 84bc 047f d53d 4748 1c3e c0ab 173d
00000040: 3581 883d 6680 b2be 42c7 53be 066f a8be

fc1.weight f4 [64, 3]
0.2077221 0.28053868 -0.23890243 -1.0105774 0.10008549 -0.017744124 0.2685827 -0.5385895
-0.36166376 -0.52414024 -0.07362386 -0.008515658 -0.18588217 -0.2994088 -0.2609931 -0.014870299
-0.017729586 -0.10673501 0.064907365 -0.040386222 0.07234383 0.09858857 0.5861039 0.091370516
-0.3830037 -0.44415686 -0.22987688 -0.051648322 0.3342255 -0.5884421 -0.1171809 0.14542623
-0.1885957 -0.041306835 -0.15692069 0.06124094 -0.499631 0.31971097 -0.18137686 0.04971167
0.29401365 0.14815073 -0.21469125 -0.25837857 -0.32115912 -0.09734639 -0.08262631 0.05970379
-0.34303898 0.36952564 0.084179424 0.280855 0.05334447 0.040208768 0.12784642 0.61337847
0.41075245 -0.5640577 -0.33618945 -0.23491238 -0.42219925 -0.7734631 -0.18881643 -0.17977738
-0.8445193 0.0042522405 -0.01234903 -0.45411876 0.0093771415 0.22196555 -0.321245 0.18440484
-0.31049082 -0.45630372 -0.40467605 -0.52503747 0.1572639 0.116761416 -0.26469722 -0.21007594
-0.07474026 0.51180005 0.53349346 0.09523351 0.05002008 0.16515349 -0.120731585 -0.48019928
-0.46786684 -0.55308104 -0.42136982 -0.42071593 0.111303665 -0.048844773 -0.43254158 0.01737032
0.36878678 -0.39425287 0.17055285 0.23692845 0.34215665 -0.027881816 0.42412657 0.27735758
-0.19648865 0.5430763 -0.2929203 -0.56595933 -0.16287903 -0.087403946 0.097536914 -1.1853987
0.32415566 -0.22684206 0.21386439 -0.22208506 -0.25135505 -0.31829226 -0.26436707 -0.21510848
0.15388745 -0.11514461 -0.45473546 -0.3373057 -0.106891 0.16266972 0.36612192 0.4395176
0.20505723 -0.07162601 -0.42419684 -0.11668132 -0.34570956 -0.5375791 0.17158072 0.22897547
-0.39431754 -0.33426303 0.24987926 0.38044107 0.1021367 -0.32082093 -0.4859846 0.010584419
-0.42564803 -0.17951965 0.14020571 0.28072107 -0.24877022 0.08698852 -0.34719872 -0.42447472
0.27438432 0.36289394 -1.7008133 0.06489974 -0.18957153 0.1825373 -0.28394884 -0.3485153
-1.0558088 0.18538372 0.18074262 -0.22458777 -0.50745136 0.055264298 -0.0074814972 -0.244595
-0.14358534 0.5551468 0.40724927 -0.4095313 -0.3052094 -0.15086542 0.5223827 0.34446377
-0.08541094 -0.16776155 0.20673385 0.03379494 0.14630306 -0.18821377 0.090057336 0.34086844
-0.22859421 -0.32304645 -0.0004835958 0.35271105 -0.5470336 -0.07405001 -0.12006399 -0.53685963
00000000: 1ab5 543e c4a2 8f3e d7a2 74be 9a5a 81bf
00000010: 9ff9 cc3d 205c 91bc ac83 893e 00e1 09bf
00000020: fe2b b9be 0e2e 06bf 1bc8 96bd 4285 0bbc
00000030: e557 3ebe 1c4c 99be e3a0 85be 8ea2 73bc
00000040: a33d 91bc e397 dabd 27ee 843d 066c 25bd
00000050: 0029 943d cee8 c93d e80a 163f 7720 bb3d
00000060: 1019 c4be 8768 e3be d864 6bbe 318d 53bd
00000070: 9b1f ab3e 24a4 16bf 8afc efbd 9dea 143e
00000080: 3b1f 41be 5b31 29bd d1af 20be c8d7 7a3d
00000090: a2cf ffbe 28b1 a33e dbba 39be 779e 4b3d
000000a0: f588 963e d3b4 173e 06d8 5bbe 324a 84be
000000b0: f86e a4be 8b5d c7bd fc37 a9bd f68b 743d
000000c0: cea2 afbe 7732 bd3e 4366 ac3d 3acc 8f3e
000000d0: bb7f 5a3d f3b1 243d 2cea 023e 5f06 1d3f
000000e0: 254e d23e 1666 10bf 0621 acbe df8c 70be
000000f0: 802a d8be ad01 46bf 1859 41be 9017 38be
00000100: 6b32 58bf 6156 8b3b 9653 4abc 4182 e8be
00000110: 95a2 193c f04a 633e 3a7a a4be 9fd4 3c3e
00000120: a7f8 9ebe a4a0 e9be b331 cfbe db68 06bf
00000130: ca09 213e 9c20 ef3d 6586 87be 261e 57be
00000140: 6c11 99bd 5405 033f 0793 083f c909 c33d
00000150: dbe1 4c3d ff1d 293e 1f42 f7bd aedc f5be
00000160: 3e8c efbe b896 0dbf c9bd d7be 1468 d7be
00000170: 2df3 e33d 7511 48bd 1776 ddbe 344c 8e3c
00000180: 9fd1 bc3e 83db c9be 68a5 2e3e 5f9d 723e
00000190: 282f af3e 6868 e4bc 1e27 d93e d001 8e3e
000001a0: 5234 49be 0c07 0b3f a6f9 95be b6e2 10bf
000001b0: c3c9 26be d700 b3bd 6fc1 c73d 25bb 97bf
000001c0: bbf7 a53e 4949 68be 44ff 5a3e 446a 63be
000001d0: 9cb1 80be 34f7 a2be 1f5b 87be 6645 5cbe
000001e0: ac94 1d3e f0d0 ebbd 16d3 e8be 55b3 acbe
000001f0: abe9 dabd e492 263e 5574 bb3e 7308 e13e
00000200: 86fa 513e a8b0 92bd 5430 d9be 9ef6 eebd
00000210: d800 b1be c99e 09bf dbb2 2f3e 8c78 6a3e
00000220: fde3 c9be 8624 abbe 59e0 7f3e 2cc9 c23e
00000230: 0c2d d13d a442 a4be f9d2 f8be 456a 2d3c
00000240: 8aee d9be 00d4 37be 1692 0f3e acba 8f3e
00000250: 9fbd 7ebe 0a27 b23d 08c4 b1be c054 d9be
00000260: 1a7c 8c3e 3ccd b93e 40b4 d9bf 28ea 843d
00000270: 0a1f 42be 0feb 3a3e be61 91be 9970 b2be
00000280: be24 87bf 3bd5 3d3e 9814 393e 56fa 65be
00000290: 55e8 01bf d15c 623d 5927 f5bb 1d77 7abe
000002a0: 0908 13be 1a1e 0e3f fa82 d03e 16ae d1be
000002b0: 6844 9cbe 777c 1abe dfba 053f 8e5d b03e
000002c0: eeeb aebd afc9 2bbe 0ab2 533e 906c 0a3d
000002d0: 78d0 153e 1cbb 40be fb6f b83d 4f86 ae3e
000002e0: 9a14 6abe 5866 a5be 218b fdb9 8b96 b43e
000002f0: 650a 0cbf 88a7 97bd 1ce4 f5bd a26f 09bf

fc1.bias f4 [64]
4.5064626 0.8975144 0.1616376 0.5683674 2.0802681 2.9942718 3.848548 2.5555289
0.18695593 -0.40694815 3.4093218 2.9849608 -0.5604984 -1.5763338 -0.0151052475 3.1173813
3.6093373 -0.85113007 -2.7003045 0.21537995 3.4534035 -0.66015977 -1.0038148 -2.458676
-0.35814506 3.1027868 4.150365 2.679767 4.6328835 0.4660554 2.4721272 -2.082494
4.0076075 2.2397964 -0.4880418 0.17352307 3.903071 -0.5986018 -0.49620017 -0.17864013
0.35912055 2.876642 -2.5393662 0.53478765 -4.1048775 0.35080814 -1.806685 4.0677958
2.9819076 3.6409063 -3.771981 0.23227036 -0.77282894 -3.1316519 0.33879876 3.7016916
-1.4727725 3.5559204 2.760578 3.2021925 3.589236 -0.5594862 2.5174074 -0.2949245
00000000: f134 9040 81c3 653f 5484 253e 8780 113f
00000010: 1d23 0540 26a2 3f40 9c4e 7640 c98d 2340
00000020: 6071 3f3e 825b d0be 5432 5a40 9909 3f40
00000030: d37c 0fbf 4ec5 c9bf 007c 77bc 2d83 4740
00000040: 62ff 6640 a9e3 59bf cad1 2cc0 908c 5c3e
00000050: 9004 5d40 3b00 29bf 017d 80bf f35a 1dc0
00000060: ca5e b7be 0f94 4640 cacf 8440 4d81 2b40
00000070: 9540 9440 d09e ee3e 5537 1e40 9547 05c0
00000080: 523e 8040 d358 0f40 9de0 f9be 08b0 313e
00000090: eacb 7940 f83d 19bf f30d febe 70ed 36be
000000a0: a6de b73e e71a 3840 fa84 22c0 d8e7 083f
000000b0: 285b 83c0 209d b33e 7441 e7bf 622b 8240
000000c0: 93d7 3e40 9c04 6940 2368 71c0 48d8 6d3e
000000d0: 1ed8 45bf fc6c 48c0 0877 ad3e 84e8 6c40
000000e0: cf83 bcbf 3394 6340 4fad 3040 b9f0 4c40
000000f0: 0bb6 6540 7d3a 0fbf 341d 2140 5800 97be

fc2.weight f4 [64, 64]
-0.073437594 0.012435644 -0.056206044 0.07614964 -0.13309143 -0.021628384 -0.020317065 -0.10464103
-0.05194886 -0.123789266 0.084505945 0.03561237 -0.095089264 -0.06479481 0.06335202 0.0148403505
-0.120913304 -0.02883505 -0.009659337 0.105061695 -0.036323912 -0.06451914 0.052156597 0.0697048
-0.052213803 -0.14335847 -0.119311415 -0.16320708 -0.08096278 0.097044185 0.059245914 -0.036119018
-6.0447615e-05 0.027637353 -0.21206862 0.017883658 -0.033611868 -0.02894681 0.04139082 0.11719319
-0.058482226 -0.07981537 0.026475046 0.04329899 -0.12651995 0.10509628 -0.13820261 -0.07451794
0.02459934 -0.068013504 -0.057372075 0.08806327 -0.061127216 -0.022425607 -0.015830204 -0.13321066
-0.016878577 0.0012904222 -0.07649983 -0.07746841 0.004892533 0.11348271 -0.00026655087 0.059622407
0.096326426 -0.13182482 0.033561513 0.02996569 -0.086655095 0.040362176 -0.06492728 -0.007914662
-0.0054555684 -0.1536255 -0.04373394 -0.01588215 0.041751727 -0.082713686 0.08559358 -0.087956235
0.002456814 0.020572249 0.068780914 -0.10471553 -0.018648112 -0.032717787 -0.049090646 -0.15384902
0.09874271 0.046970926 -0.007093743 0.09635335 0.06288333 0.08144735 -0.040861376 0.023122242
-0.10075699 -0.062401682 -0.13175032 -0.093227655 0.099440455 -0.040824123 -0.100023076 0.11339557
-0.02613999 -0.08876364 -0.083130926 0.03143297 -0.063148215 -0.12436297 0.03831324 -0.14435686
-0.10593745 -0.077277854 0.07477126 0.095600575 0.08461361 0.077803686 -0.024359912 -0.07896207
-0.13751714 -0.14632384 -0.002532959 -0.115367755 -0.059529766 -0.03416817 0.023276433 0.097728476
1.2410289 0.0025045776 0.019092232 0.14070602 -0.10017063 -0.16750754 -1.343581 -0.3437035
0.03449118 0.091751345 1.2921706 -1.2851679 -0.16374001 0.095103055 0.10092314 -1.714327
-0.33464357 0.20120782 0.19563498 0.0982409 -0.25277168 0.022135029 0.27217323 0.22086039
0.09112708 -0.3229017 -0.3389909 -0.2518813 1.283349 -0.017228052 0.24923258 0.34417656
-0.22607589 -0.34641543 0.00088538707 -0.117869645 -1.3144943 0.0805007 -0.10933195 0.11601925
0.046563566 0.15545836 0.11040675 0.03662939 0.45405912 -0.08169326 0.090856485 -0.37341303
-0.13167322 -0.43972403 0.41296118 0.45548967 0.017806325 0.16606812 0.116591915 0.87504894
0.035102658 -0.3665882 -0.0025742298 -0.71748847 -1.0577141 -0.092071734 -0.65526044 -0.099543184
-1.5170346 -0.0057317717 -0.06767975 0.031346858 -0.80312645 0.115999706 0.9491457 0.43356493
0.010722324 -0.48151928 -1.0269722 0.7015285 -0.07857812 0.01575379 -0.038048923 1.0750443
0.7743363 -0.003476046 0.17559084 -0.0088909855 0.3875601 -0.10178742 0.023714572 0.030756708
-0.028079957 0.9232641 0.14739355 0.437789 -1.9683572 0.044093147 0.140675 -0.11133918
1.0977596 0.022431811 -0.021546086 -0.08975828 1.6327907 -0.18778068 0.08147736 0.026991725
0.116182126 0.20747763 0.20686835 -0.041843116 -0.69061744 0.036597177 0.16240808 0.6536282
0.32746282 0.72930187 -0.14372881 0.46342203 -0.38932014 -0.16835733 -0.03585899 -0.34715393
0.217976 0.4379194 -0.35042462 0.5094546 1.0239143 0.012912489 0.019251427 0.11877565
00000000: 7366 96bd dfbe 4b3c 4f38 66bd 58f4 9b3d
00000010: 1f49 08be 022e b1bc f96f a6bc 094e d6bd
00000020: 54c8 54bd 3a85 fdbd 7411 ad3d 47de 113d
00000030: 29be c2bd 24b3 84bd b4be 813d f124 733c
00000040: 65a1 f7bd 7c37 ecbc 3242 1ebc 962a d73d
00000050: 62c8 14bd 9c22 84bd 28a2 553d 64c1 8e3d
00000060: 24de 55bd 90cc 12be 8b59 f4bd c21f 27be
00000070: d0cf a5bd 1abf c63d d8ab 723d 89f1 13bd
00000080: 2289 7db8 bb67 e23c 8428 59be c080 923c
00000090: 99ac 09bd dc21 edbc 6c89 293d fc02 f03d
000000a0: 0f8b 6fbd 3e76 a3bd 32e2 d83c 485a 313d
000000b0: 728e 01be b83c d73d fc84 0dbe dd9c 98bd
000000c0: 8e84 c93c aa4a 8bbd fbfe 6abd 845a b43d
000000d0: 8860 7abd e8b5 b7bc 58ae 81bc 6068 08be
000000e0: f144 8abc 6223 a93a f1ab 9cbd c2a7 9ebd
000000f0: 8b51 a03b a069 e83d dabf 8bb9 a036 743d
00000100: ca46 c53d 16fd 06be cc77 093d 9b7a f53c
00000110: 3a78 b1bd cf52 253d 98f8 84bd 80ac 01bc
00000120: a0c4 b2bb 0150 1dbe 5c22 33bd 481b 82bc
00000130: dc03 2b3d cb65 a9bd b04b af3d 6622 b4bd
00000140: 8002 213b 2287 a83c 02dd 8c3d 1975 d6bd
00000150: edc3 98bc 1603 06bd 4613 49bd 998a 1dbe
00000160: 9e39 ca3d 9664 403d a172 e8bb e854 c53d
00000170: fac8 803d decd a63d 425e 27bd db6a bd3c
00000180: ae59 cebd e898 7fbd 8ee9 06be 24ee bebd
00000190: 70a7 cb3d 3237 27bd e6d8 ccbd f03b e83d
000001a0: 8823 d6bc b6c9 b5bd 8c40 aabd dcbf 003d
000001b0: da53 81bd 03b2 febd 58ee 1c3d 49d2 13be
000001c0: bcf5 d8bd da43 9ebd ad21 993d 3cca c33d
000001d0: e649 ad3d 8a57 9f3d 708e c7bc deb6 a1bd
000001e0: 4bd1 0cbe ebd5 15be 0000 26bb ee45 ecbd
000001f0: 7cd5 73bd ecf3 0bbd 38ae be3c de25 c83d
00000200: 09da 9e3f d723 243b 5067 9c3c 3d15 103e
00000210: 4226 cdbd 1987 2bbe 76fa abbf e8f9 afbe
00000220: a046 0d3d 21e8 bb3d d965 a53f 6280 a4bf
00000230: 76ab 27be 64c5 c23d cbb0 ce3d 116f dbbf
00000240: 6756 abbe 6c09 4e3e 8954 483e 8632 c93d
00000250: 4a6b 81be 8554 b53c 4a5a 8b3e 3a29 623e
00000260: d6a0 ba3d 5f53 a5be 3790 adbe 96f6 80be
00000270: c844 a43f d821 8dbc d336 7f3e e937 b03e
00000280: 7080 67be 5d5d b1be 5219 683a a465 f1bd
00000290: 5941 a8bf 8ddd a43d 6ee9 dfbd 809b ed3d
000002a0: 70b9 3e3d 7a30 1f3e ef1c e23d b308 163d
000002b0: 707a e83e cc4e a7bd f712 ba3d fe2f bfbe
000002c0: 58d5 06be 8223 e1be a66f d33e f135 e93e
000002d0: 92de 913c c30d 2a3e bec7 ee3d 3503 603f
000002e0: cec7 0f3d 73b1 bbbe 69b4 28bb 53ad 37bf
000002f0: 2d63 87bf 1b90 bcbd 26bf 27bf 4cdd cbbd
00000300: 312e c2bf 96d1 bbbb ae9b 8abd 9065 003d
00000310: b299 4dbf 4191 ed3d 36fb 723f 39fc dd3e
00000320: b0ac 2f3c b289 f6be d373 83bf 5f97 333f
00000330: 91ed a0bd 180e 813c 30d9 1bbd 0d9b 893f
00000340: e73a 463f 60ce 63bb 16ce 333e 7fab 11bc
00000350: 476e c63e ec75 d0bd 1045 c23c 7ef5 fb3c
00000360: f007 e6bc 095b 6c3f 56ee 163e e125 e03e
00000370: 21f3 fbbf 049b 343d 1b0d 103e cc05 e4bd
00000380: 6383 8c3f ebc2 b73c 6b81 b0bc 30d3 b7bd
00000390: 49ff d03f 9449 40be 9add a63d c01d dd3c
000003a0: e5f0 ed3d 0475 543e 4cd5 533e b063 2bbd
000003b0: 4ecc 30bf ece6 153d 4e4e 263e 2d54 273f
000003c0: 35a9 a73e 87b3 3a3f a52d 13be a745 ed3e
000003d0: f854 c7be dd65 2cbe e0e0 12bd 29be b1be
000003e0: 1a35 5f3e f936 e03e db6a b3be 9e6b 023f
000003f0: a00f 833f e78e 533c 2bb5 9d3c a640 f33d

fc2.bias f4 [64]
0.033794403 0.04735091 -0.9004773 2.2753778 1.120046 2.0161514 -0.11849929 1.1351252
-1.257257 1.3046174 2.4226701 2.1206968 -1.9448651 2.2989466 1.3843596 0.019262793
2.2464535 1.6547157 2.5710201 -0.2770057 -1.2293617 -0.009866093 -0.014214494 -1.4052106
2.0132267 -0.034663677 0.10808323 -0.15176284 2.2811062 -0.17113459 1.6521099 1.4757656
1.5306195 -0.052289512 -0.03737446 0.91116494 -0.76096207 0.060948394 0.04550687 -0.08141727
-0.11567548 2.3506265 -0.1337173 0.033321287 1.1070828 -0.06586026 1.056212 1.1564163
-0.11551902 -0.030787127 -0.052042983 -0.09736917 2.3192012 -0.049403574 0.050007075 2.383597
0.671009 0.82270366 -0.006186623 2.5612555 -0.012874303 -0.07308742 1.7359518 0.053605754
00000000: 006c 0a3d 07f3 413d ae85 66bf ca9f 1140
00000010: ab5d 8f3f a008 0140 c1af f2bd c84b 913f
00000020: cced a0bf b4fd a63f 070d 1b40 7fb9 0740
00000030: 57f1 f8bf f121 1340 b232 b13f 01cd 9d3c
00000040: e5c5 0f40 b9cd d33f 988b 2440 b1d3 8dbe
00000050: b95b 9dbf 65a5 21bc e9e3 68bc f1dd b3bf
00000060: b5d8 0040 80fb 0dbd be5a dd3d b867 1bbe
00000070: a5fd 1140 e83d 2fbe 5678 d33f e3e5 bc3f
00000080: 57eb c33f 872d 56bd f615 19bd 1b42 693f
00000090: 69ce 42bf 06a5 793d 6965 3a3d 19be a6bd
000000a0: 44e7 ecbd aa70 1640 30ed 08be e77b 083d
000000b0: e4b4 8d3f bee1 86bd f431 873f 7305 943f
000000c0: 3c95 ecbd 4935 fcbc 062b 55bd 7d69 c7bd
000000d0: cb6d 1440 675b 4abd 38d4 4c3d da8c 1840
000000e0: 3fc7 2b3f b59c 523f 28b9 cabb 9ceb 2340
000000f0: beee 52bc dbae 95bd ab33 de3f b591 5b3d

fc3.weight f4 [20, 64]
0.06986127 0.071697235 -0.05640348 0.5372232 -0.9852349 0.29430822 0.04019826 -0.64022034
-0.39966917 -0.019423436 -0.9634984 0.2891458 -0.26835844 0.34794134 -0.07592066 0.1056651
-0.9659348 0.12521765 0.47593373 0.10316156 -0.24890475 0.120250195 -0.044560634 0.15150753
0.25061968 0.07925138 -0.057454027 -0.054812763 0.4038091 -0.013277572 -0.19572231 -0.0573089
0.13397975 0.008730795 0.006787333 0.13557594 -0.45083308 0.021656323 0.07348229 -0.0030679323
-0.09999925 0.5510489 0.11006853 -0.0450263 0.33565974 0.050200805 0.067549676 0.068016656
-0.050312553 0.09518612 -0.0042266543 -0.062069725 0.5314845 0.12547685 0.049090642 0.6151535
-0.002840454 -0.06763352 -0.018893985 0.6015232 -0.07666373 0.0073410114 0.40498573 0.08946206
-0.056973457 0.113771185 -0.007461154 0.50112367 -0.7367302 0.28758872 -0.108783595 -0.42392644
-0.07892129 0.04831374 -0.83323616 0.30092263 -0.087206446 0.3679278 -0.15576464 -0.07376175
-0.75709873 0.20547073 0.556135 -0.018669844 -0.2011757 -0.036830556 -0.09838991 -0.13513552
0.23153281 0.11326146 -0.006720277 0.09717545 0.30929288 0.1392457 -0.6232948 0.38751543
0.27384725 0.15937743 -0.013122038 -0.09201255 0.14371087 -0.12060501 0.01769355 -0.048952807
0.05960355 0.53677994 -0.15608422 0.04531464 -0.0489138 0.011693865 0.10052035 0.058689293
0.058851033 0.06439248 -0.07036046 -0.0193322 0.6387367 -0.050644115 0.11056432 0.38839072
0.40071228 0.18829915 0.07892275 0.55645293 -0.061257597 0.010441855 0.4331922 0.11853731
-0.004679723 -0.07016045 -0.11566803 0.5176437 -0.54967767 0.35286444 0.06018843 -0.33101788
-0.4195774 0.13913484 -0.80888313 0.14522909 -0.45635396 0.3166073 -0.16575554 0.03988161
-0.6826868 0.17120324 0.43413353 -0.0018684034 -0.053803198 -0.043901246 -0.10027493 -0.23499088
0.21728538 0.086417615 0.04213544 -0.00085505244 0.28069368 -0.041677225 -0.66791785 0.28946176
0.16693714 0.009119163 0.061633863 0.08516911 -0.23361975 -0.005893588 0.0085386485 0.09891146
-0.06148112 0.5735987 0.021788571 -0.0010501593 -0.08242734 -0.014426838 -0.048515588 0.21510847
0.12565567 -0.097764045 0.013832647 0.081002414 0.46357948 0.060460377 -0.024837762 0.49933052
0.14891666 -0.08707508 0.07821116 0.52491176 -0.008096556 0.09026517 0.58466566 -0.025738358
-0.11049726 -0.049881443 -0.17874917 0.5333401 -0.38633052 0.44228375 -0.038819283 -0.51829606
-0.24115604 0.113620475 -0.83165 0.18990275 -0.25646716 0.20646195 -0.03404582 -0.11388193
-0.7623779 0.06881321 0.42322403 -0.08745499 -0.3048668 0.081581175 0.013841029 0.47499624
0.22599041 -0.054043397 0.0018283845 -0.07637315 0.2642016 -0.108694196 -0.74779844 0.123117074
0.35026044 -0.056857977 -0.032252114 -0.037213046 0.50732213 -0.1024857 0.11680798 -0.08651353
-0.039300453 0.55593467 -0.015579831 -0.1050531 0.12827207 0.037784323 0.076328486 -0.03859145
0.0057614683 -0.09509671 0.09078276 -0.121526346 0.5456976 -0.09554376 -0.008103818 0.52456427
0.265855 0.26079455 -0.09971665 0.54620683 -0.09568531 0.026270153 0.43308285 -0.03028661
00000000: 6d13 8f3d 00d6 923d 5607 67bd 7687 093f
00000010: 5b38 7cbf 91af 963e eea6 243d 7be5 23bf
00000020: 70a1 ccbe e61d 9fbc d5a7 76bf eb0a 943e
00000030: 4766 89be 5e25 b23e 4a7c 9bbd f266 d83d
00000040: 8147 77bf 0e39 003e 96ad f33e 5e46 d33d
00000050: e3e0 7ebe bc45 f63d 3685 36bd ca24 1b3e
00000060: 3951 803e 8c4e a23d ea54 6bbd 5983 60bd
00000070: 11c0 ce3e 2c8a 59bc 6e6b 48be bdbc 6abd
00000080: fd31 093e 9c0b 0f3c 4768 de3b 6bd4 0a3e
00000090: 98d3 e6be 9a68 b13c e27d 963d 5d0f 49bb
000000a0: 68cc ccbd 8a11 0d3f 9c6b e13d 7f6d 38bd
000000b0: 98db ab3e 5c9f 4d3d 7c57 8a3d 514c 8b3d
000000c0: 8914 4ebd f1f0 c23d bf7f 8abb d33c 7ebd
000000d0: 5e0f 083f 017d 003e 4513 493d b37a 1d3f
000000e0: e926 3abb 7183 8abd 8fc7 9abc 6dfd 193f
000000f0: e001 9dbd de8c f03b 4a5a cf3e e237 b73d
00000100: 005d 69bd de00 e93d b27c f4bb a449 003f
00000110: 5a9a 3cbf d43e 933e efc9 debd e30c d9be
00000120: 7ca1 a1bd a1e4 453d f74e 55bf 8812 9a3e
00000130: 4b99 b2bd 0861 bc3e c480 1fbe 6610 97bd
00000140: 39d1 41bf eb66 523e dd5e 0e3f 80f1 98bc
00000150: 0101 4ebe a3db 16bd a680 c9bd f760 0abe
00000160: f016 6d3e a0f5 e73d c535 dcbb ec03 c73d
00000170: a35b 9e3e 6d96 0e3e 3f90 1fbf 6c68 c63e
00000180: b535 8c3e d633 233e d1fd 56bc 1371 bcbd
00000190: f128 133e c2ff f6bd 10f2 903c bd82 48bd
000001a0: da22 743d 696a 093f 8bd4 1fbe d89b 393d
000001b0: d659 48bd a097 3f3c 9ddd cd3d 2f64 703d
000001c0: c80d 713d 34e0 833d 2519 90bd 905e 9ebc
000001d0: 4084 233f 3470 4fbd 8c6f e23d 26db c63e
000001e0: 292a cd3e 7ed1 403e 40a2 a13d b373 0e3f
000001f0: 3fe9 7abd 5014 2b3c 5ecb dd3e b0c3 f23d
00000200: 5d58 99bb 48b0 8fbd 5ce3 ecbd 4c84 043f
00000210: adb7 0cbf a6aa b43e 2588 763d 2d7b a9be
00000220: d9d2 d6be 5d79 0e3e f712 4fbf efb6 143e
00000230: 3aa7 e9be 5a1a a23e d2bb 29be e65a 233d
00000240: 90c4 2ebf e74f 2f3e c046 de3e 37e5 f4ba
00000250: be60 5cbd cbd1 33bd f15c cdbd 73a1 70be
00000260: 0f80 5e3e b8fb b03d 3696 2c3d 9925 60ba
00000270: 15b7 8f3e bdb5 2abd aafc 2abf 5534 943e
00000280: 92f1 2a3e 8b68 153c ca73 7c3d 246d ae3d
00000290: 043a 6fbe 001f c1bb b0e5 0b3c 1792 ca3d
000002a0: a0d3 7bbd 5dd7 123f f27d b23c 80a5 89ba
000002b0: aacf a8bd 8b5e 6cbc 48b8 46bd 6545 5c3e
000002c0: e1ab 003e 8438 c8bd 54a2 623c 98e4 a53d
000002d0: 4a5a ed3e 4da5 773d 9078 cbbc 40a8 ff3e
000002e0: 9c7d 183e 6b54 b2bd 2c2d a03d 9e60 063f
000002f0: 6ba7 04bc f2dc b83d a6ac 153f 40d9 d2bc
00000300: 634c e2bd 7c50 4cbd 060a 37be fa88 083f
00000310: 1dcd c5be 0473 e23e f800 1fbd 0daf 04bf
00000320: 9cf1 76be dab1 e83d 04e7 54bf de75 423e
00000330: aa4f 83be c36a 533e a173 0bbd ee3a e9bd
00000340: 332b 43bf f1ed 8c3d d2b0 d83e 9a1b b3bd
00000350: 8017 9cbe 0814 a73d 7cc5 623c b532 f33e
00000360: 086a 673e 9c5c 5dbd 67a6 ef3a 8769 9cbd
00000370: 6f45 873e 109b debd b86f 3fbf ce24 fc3d
00000380: 5655 b33e e9e3 68bd cb1a 04bd b56c 18bd
00000390: dddf 013f 06e4 d1bd 0639 ef3d 012e b1bd
000003a0: 83f9 20bd bc51 0e3f 8c42 7fbc 1426 d7bd
000003b0: c159 033e bcc3 1a3d 1c52 9c3d 1112 1ebd
000003c0: b3ca bc3b 10c2 c2bd 50ec b93d cee2 f8bd
000003d0: d7b2 0b3f 72ac c3bd e0c5 04bc d849 063f
000003e0: 261e 883e dd86 853e 3e38 ccbd 36d4 0b3f
000003f0: a9f6 c3bd 8134 d73c 09bd dd3e a01b f8bc

fc3.bias f4 [20]
2.1721182 0.84658134 0.7139746 0.6068634 0.57041746 0.44055793 0.5694516 0.47662586
0.43212348 0.16771759 0.20218447 0.13752824 -0.008160301 0.10233472 0.11616404 0.011368244
0.04603866 -0.33581644 -0.20510322 -0.32575488
00000000: fc03 0b40 8eb9 583f 0ac7 363f 665b 1b3f
00000010: e106 123f cf90 e13e 94c7 113f 4e08 f43e
00000020: 4a3f dd3e 29be 2b3e 7209 4f3e 34d4 0c3e
00000030: c8b2 05bc de94 d13d 6ae7 ed3d df41 3a3c
00000040: 0993 3c3d 22f0 abbe 9406 52be 58c9 a6be

exp_avg f4 [64, 3]
-70.71083 -59.231304 -102.68828 0.16211803 1.3380456 8.090307 0.0 0.0
0.0 6e-45 6e-45 6e-45 0.2279154 0.68374634 0.2279154 -10.362375
-17.274288 -19.624666 11.858867 -0.40908352 -23.685247 9.716733 5.433271 -3.7334106
0.0 0.0 0.0 -0.07207117 -2.3610215 -0.93364775 -17.387722 -25.922739
-25.512756 1.857982 -4.4458857 -15.1236 -0.03305013 -0.31022114 -0.15331726 13.105229
11.9979105 4.4735446 0.0 0.0 0.0 4.29891 -5.2811403 -22.05328
4.0782804 -2.7246497 -17.788721 5.4474125 5.6179323 3.0804808 21.87055 19.855347
4.612835 0.0 0.0 0.0 0.037967507 0.1139025 0.037967615 6e-45
6e-45 6e-45 6e-45 6e-45 6e-45 10.562844 4.377086 -2.4227068
0.0 0.0 0.0 -3.3387804 -11.781031 -19.320318 0.41659975 1.9967216
8.454564 11.378206 7.3795 -3.2830997 -83.266235 -94.68737 -164.76697 0.0
0.0 0.0 -0.21581122 -1.1635722 -2.207999 -6e-45 6e-45 6e-45
10.113416 -4.5198183 -27.568346 0.37043646 0.32859567 -0.762662 -0.7396301 -0.39027476
-0.6560138 0.0 0.0 0.0 15.07826 -3.4184513 -39.66626 -0.048988216
-0.6892041 -0.3361894 0.0 0.0 0.0 0.0 0.0 0.0
0.0 0.0 0.0 -1.9098995 -4.262868 -9.152808 15.381008 13.740595
3.6140733 0.0 0.0 0.0 0.29991773 2.559046 -33.306168 0.0
0.0 0.0 9.119219 8.144646 2.9210513 0.33608705 1.3263535 43.418575
-1.6344266 -2.35867 -12.386502 8.154245 -2.5251114 -18.558592 -2.3222563 -0.071604945
-38.121616 -0.40523225 0.09479632 6.5650887 -0.15511209 -0.4347207 -0.09815019 -0.20741203
-1.0015706 -25.472588 0.0 0.0 0.0 -12.483712 -15.301507 -12.758335
20.47309 17.743694 3.0109525 0.020921005 0.11161874 0.008955872 -11.169821 -3.794208
43.137074 1.8855764 -1.5639005 -5.75217 11.026312 0.12235107 -22.976164 6e-45
6e-45 6e-45 -0.87201005 -3.2744713 -1.8210661 0.0 0.0 0.0
00000000: f26b 8dc2 dbec 6cc2 6660 cdc2 4502 263e
00000010: 1445 ab3f e671 0141 0000 0000 0000 0000
00000020: 0000 0000 0400 0000 0400 0000 0400 0000
00000030: a862 693e 000a 2f3f a862 693e 4acc 25c1
00000040: be31 8ac1 51ff 9cc1 ebbd 3d41 6573 d1be
00000050: 637b bdc1 bd77 1b41 5bdd ad40 33f0 6ec0
00000060: 0000 0000 0000 0000 0000 0000 0d9a 93bd
00000070: fa1a 17c0 8a03 6fbf 0e1a 8bc1 c561 cfc1
00000080: 201a ccc1 5bd2 ed3f b244 8ec0 44fa 71c1
00000090: 935f 07bd 4ed5 9ebe 33ff 1cbe 05af 5141
000000a0: 71f7 3f41 4727 8f40 0000 0000 0000 0000
000000b0: 0000 0000 ac90 8940 1aff a8c0 1e6d b0c1
000000c0: 4681 8240 a960 2ec0 4d4f 8ec1 3451 ae40
000000d0: 1ac6 b340 9926 4540 e3f6 ae41 c0d7 9e41
000000e0: 589c 9340 0000 0000 0000 0000 0000 0000
000000f0: d183 1b3d b745 e93d ee83 1b3d 0400 0000
00000100: 0400 0000 0400 0000 0400 0000 0400 0000
00000110: 0400 0000 6901 2941 1711 8c40 a10d 1bc0
00000120: 0000 0000 0000 0000 0000 0000 94ae 55c0
00000130: 1a7f 3cc1 0390 9ac1 904c d53e 9394 ff3f
00000140: e545 0741 220d 3641 dd24 ec40 4e1e 52c0
00000150: 5088 a6c2 ef5f bdc2 58c4 24c3 0000 0000
00000160: 0000 0000 0000 0000 9efd 5cbe efef 94bf
00000170: db4f 0dc0 0400 0080 0400 0000 0400 0000
00000180: 8dd0 2141 5aa2 90c0 f98b dcc1 d9a9 bd3e
00000190: b13d a83e d13d 43bf 6658 3dbf 18d2 c7be
000001a0: 85f0 27bf 0000 0000 0000 0000 0000 0000
000001b0: 8e40 7141 e8c7 5ac0 40aa 1ec2 dea7 48bd
000001c0: ae6f 30bf 0421 acbe 0000 0000 0000 0000
000001d0: 0000 0000 0000 0000 0000 0000 0000 0000
000001e0: 0000 0000 0000 0000 0000 0000 9677 f4bf
000001f0: 6a69 88c0 e771 12c1 9c18 7641 7ad9 5b41
00000200: fa4c 6740 0000 0000 0000 0000 0000 0000
00000210: d18e 993e 69c7 2340 8439 05c2 0000 0000
00000220: 0000 0000 0000 0000 52e8 1141 7850 0241
00000230: 81f2 3a40 9a13 ac3e f4c5 a93f 9fac 2d42
00000240: e434 d1bf 73f4 16c0 1d2f 46c1 ca77 0241
00000250: 6d9b 21c0 ff77 94c1 d99f 14c0 9da5 92bd
00000260: 897c 18c2 9a7a cfbe 9324 c23d 3515 d240
00000270: b4d5 1ebe b693 debe f802 c9bd d263 54be
00000280: 7733 80bf dcc7 cbc1 0000 0000 0000 0000
00000290: 0000 0000 49bd 47c1 f9d2 74c1 2422 4cc1
000002a0: e3c8 a341 16f3 8d41 72b3 4040 8762 ab3c
000002b0: 5e98 e43d a6bb 123c 96b7 32c1 4ed4 72c0
000002c0: 5d8c 2c42 915a f13f e42d c8bf c711 b8c0
000002d0: c66b 3041 3393 fa3d 2fcf b7c1 0400 0000
000002e0: 0400 0000 0400 0000 0d3c 5fbf f090 51c0
000002f0: b218 e9bf 0000 0000 0000 0000 0000 0000

exp_avg_sq f4 [64, 3]
67188.3 62646.016 214691.56 0.45669833 45.287106 1061.9304 0.0 0.0
0.0 6.5748687e-34 2.762103e-32 1.5771039e-30 0.13915814 1.1586696 0.14411521 4658.153
4721.776 16225.302 4363.768 6507.455 300006.5 1925.9081 2315.7085 42855.008
0.0 0.0 0.0 56.963608 573.49646 85.13361 6385.542 14146.356
15015.638 486.93307 1062.2086 85463.96 1.7702031 45.614883 14.7383175 2846.8513
2804.1318 20516.836 0.0 0.0 0.0 1302.7328 2589.846 183098.28
1213.8354 2167.9666 127903.37 428.79303 466.61823 1700.4205 7841.942 7651.524
56298.566 0.0 0.0 0.0 0.0037003797 0.028726328 0.006980192 1.4137208e-21
7.119623e-22 1.9586007e-17 5.9427464e-24 9.578164e-25 1.058763e-21 2009.0654 677.7464 16222.306
0.0 0.0 0.0 285.69318 1023.3762 111180.21 133.64261 453.15396
4891.707 2619.086 2972.013 50027.41 103338.68 99766.1 434257.34 0.0
0.0 0.0 3.240465 19.917358 3233.429 2.9227208e-23 1.2823934e-23 1.6127618e-20
3565.1528 5546.416 318912.88 37.70654 65.80899 628.296 23.495953 19.609583
89.39409 0.0 0.0 0.0 8053.8086 12804.281 691291.9 0.124499366
13.752171 4.0526476 0.0 0.0 0.0 0.0 0.0 0.0
0.0 0.0 0.0 66.19783 179.02696 14313.246 3808.3413 3811.5566
28863.406 0.0 0.0 0.0 68.941315 301.4893 54205.344 0.0
0.0 0.0 1384.5442 1422.785 9847.201 23.710445 44.663723 40495.824
70.10843 181.0526 16215.415 2147.8672 3217.0745 163262.08 527.9296 761.86346
28632.08 38.825634 1.283417 1537.0873 1.4586934 50.500298 3.1413553 4.0076823
8.185012 5492.768 0.0 0.0 0.0 6645.2456 10215.363 10390.631
7042.8447 7003.7812 57829.574 0.01217173 0.2173595 0.11768198 2758.3093 3143.8967
42351.58 196.36989 387.2638 21609.824 3731.7485 5457.5034 261804.16 7e-43
7e-43 7e-43 121.49737 416.7963 199.32863 0.0 0.0 0.0
00000000: 263a 8347 04b6 7447 e4a8 5148 5dd4 e93e
00000010: ff25 3542 c6bd 8444 0000 0000 0000 0000
00000020: 0000 0000 cc7c 5a08 a56a 0f0b 55e6 ff0d
00000030: 797f 0e3e 494f 943f f092 133e 3991 9145
00000040: 358e 9345 3585 7d46 255e 8845 a45b cb45
00000050: d07c 9248 0fbd f044 56bb 1045 0267 2747
00000060: 0000 0000 0000 0000 0000 0000 bcda 6342
00000070: c65f 0f44 6944 aa42 568c c745 6d09 5d46
00000080: 8d9e 6a46 6f77 f343 adc6 8444 fbeb a647
00000090: 0496 e23f a475 3642 26d0 6b41 9fed 3145
000000a0: 1c42 2f45 ac49 a046 0000 0000 0000 0000
000000b0: 0000 0000 73d7 a244 89dd 2145 92ce 3248
000000c0: bcba 9744 777f 0745 afcf f947 8265 d643
000000d0: 224f e943 758d d444 890f f545 311c ef45
000000e0: 91ea 5b47 0000 0000 0000 0000 0000 0000
000000f0: 1282 723b 7a53 eb3c 18ba e43b ada2 d51c
00000100: 6a2d 571c 27a6 b423 1ce6 e518 0437 9417
00000110: e9fe 9f1c 1822 fb44 c56f 2944 3979 7d46
00000120: 0000 0000 0000 0000 0000 0000 bad8 8e43
00000130: 14d8 7f44 1b26 d947 82a4 0543 b593 e243
00000140: a8dd 9845 60b1 2345 35c0 3945 696b 4347
00000150: 57d5 c947 0ddb c247 2b0a d448 0000 0000
00000160: 0000 0000 0000 0000 c763 4f40 c056 9f41
00000170: dd16 4a45 8855 0d1a 0c0d 7819 3052 981e
00000180: 72d2 5e45 5453 ad45 1cb8 9b48 7fd3 1642
00000190: 349e 8342 f212 1d44 b6f7 bb41 6de0 9c41
000001a0: c6c9 b242 0000 0000 0000 0000 0000 0000
000001b0: 78ae fb45 2011 4846 bec5 2849 86f9 fe3d
000001c0: e408 5c41 4aaf 8140 0000 0000 0000 0000
000001d0: 0000 0000 0000 0000 0000 0000 0000 0000
000001e0: 0000 0000 0000 0000 0000 0000 4a65 8442
000001f0: e706 3343 fca4 5f46 7605 6e45 e838 6e45
00000200: d07e e146 0000 0000 0000 0000 0000 0000
00000210: f4e1 8942 a1be 9643 58bd 5347 0000 0000
00000220: 0000 0000 0000 0000 6a11 ad44 1fd9 b144
00000230: cedc 1946 feae bd41 a7a7 3242 d32f 1e47
00000240: 8437 8c42 770d 3543 a95d 7d46 e03d 0645
00000250: 3111 4945 856f 1f48 7ffb 0344 4377 3e44
00000260: 29b0 df46 734d 1b42 0247 a43f cb22 c044
00000270: 77b6 ba3f 4e00 4a42 f70b 4940 ef3e 8040
00000280: cff5 0241 25a6 ab45 0000 0000 0000 0000
00000290: 0000 0000 f7a9 cf45 749d 1f46 865a 2246
000002a0: c216 dc45 40de da45 93e5 6147 f06b 473c
000002b0: 7d93 5e3e 4003 f13d f364 2c45 597e 4445
000002c0: 946f 2547 b15e 4443 c4a1 c143 a6d3 a846
000002d0: fa3b 6945 078c aa45 0aab 7f48 f401 0000
000002e0: f401 0000 f401 0000 a7fe f242 ed65 d043
000002f0: 2154 4743 0000 0000 0000 0000 0000 0000
