beer/models/dqn_agent_firm_1_episode_2000.pth (torch, 107368 bytes, 24 tensors)

fc1.weight f4 [64, 9]
00000000: e2e6 063e a05d c7bd b6c0 e0bd 2a48 013e
00000010: 32ee 413e c6a5 0dbe 2262 a0be 3e44 4c3e
00000020: f662 49be 9d3b f7be a192 e7be c991 87bd
00000030: dcb1 3d3f 0926 28bf 2df4 7abd 24c0 6ebf
00000040: 68f7 3b3f e903 5d3c 9ff9 75bd 891f 0a3f
00000050: 2897 e7be f93f 883e 6c42 34bd 6ae1 0e3e
00000060: f20e 88be 6921 d13d 3085 a83d bfaf 203e
00000070: 8823 db3e cf8d 353e 056f 023e 14b5 b23d
00000080: 64a2 07c0 bcf8 813e dba6 ed3d 74bc a73d
00000090: d576 553d cc54 033d d79e f8bd 68ca 773e
000000a0: 91c8 353e ae84 e83e 6254 073f d92b 16be
000000b0: 7985 9cbe 2abf 9d3e 1424 ce3d b46d 4b3e
000000c0: 98a2 a83e 055f 40bd 338a 3e3f c597 94be
000000d0: 9208 ac3e 5118 4c3b 7eb5 6a3e 30b6 9fbd
000000e0: 6bde 7ebe 2242 7e3e 4e66 373e 7248 a2be
000000f0: 00a0 4a3d 5ac9 86be 00ec 89bd 7ad6 fa3e
00000100: 5197 c33f 5c9b 83bc 8fcf 0b3e eb12 573d
00000110: 59f2 22be 474b 023f 0a57 c63e 1135 11bd
00000120: c88d 79be 8c10 08bd 6a84 873e 24e0 95be
00000130: 971e 37be c638 bdbe 8996 29bf 98e6 acbe
00000140: d8ef 23be ce28 85bd 636d 1c3f 7e2f 793e
00000150: 9ce3 833d d4a9 033e 75f2 ce3e 19f8 da3c
00000160: 51bd 40bd dffb 2a3e 3cf6 b63d 2e2c 81be
00000170: 90df 21be 969e b5bd 759a 8b3e a095 febd
00000180: 9b4d 23be 10ec d83d 2417 a5be 4c53 84bd
00000190: 8ff9 4dbf e07f 42be 2287 41bf d555 6cbf
000001a0: 2ae9 4c3e a51b 2abf 2c09 c0bd a2ea a8b9
000001b0: d763 d2be a17c e7be f9c1 48be d769 d9bd
000001c0: 5e91 9a3d 387b bd3e a3aa f5bd 13fd e43e
000001d0: ad63 84be e9a5 973e 5541 75be 6520 d2be
000001e0: fb7c 0cbf fb30 7b3e 4dd9 09be 8c8f 093d
000001f0: bc2b 7abf 88b4 c43a 32b0 bebe 452f e5be
00000200: 3112 883e d7a2 ad3d f33d adbe 132b 44be
00000210: bad3 a7bd 2ba5 16bd d1c6 82bd e9eb 803e
00000220: f7c8 373f 5200 4c3e 6511 8cbe ee56 693d
00000230: d4fb bdbf 1ac7 013e 65e8 88bb 21a7 743e
00000240: c247 383d d59c ec3e 5933 9dbe 6c84 97be
00000250: e777 a83d caf5 fa3e fb55 e63e 3277 523c
00000260: 225c 8cbe 821d debe 4953 27bf 574e a63d
00000270: c375 e9bd 4430 4fbe 00d6 a1bf 9d24 d2be
00000280: e553 df3e 6363 483e 608d 603e bfd4 773e
00000290: f629 793d 142e 0a3e 2494 15be 357d 8e3c
000002a0: d92f e33e 13a6 353e bcd4 513e d734 c23e
000002b0: c398 3b3f 078e 0f3e 1940 083f a325 3d3e
000002c0: fde3 03bf cf42 023f dd17 8e3e 9a43 9a3d
000002d0: 2037 023d 0078 293e 00b2 f6bb 2079 2f3c
000002e0: fc57 93bd 70a6 8bbe 0508 8a3e 5b70 2ebe
000002f0: 5436 99bd a52c 15be 4622 213e 7ac0 033e
00000300: fd22 27be c25f 723e 04d7 273f 5c65 b53e
00000310: 61e9 743e 7941 423e caf9 15be 3919 b33e
00000320: 1b42 01bf 3638 3fbf 5862 e93e f616 753e
00000330: ac7d 573e 1530 4bbf b25b 8cbd 5660 b13e
00000340: 2eb4 61be 00ef 23be e52e 143d 6877 343e
00000350: a46a ef3e f611 b93e d811 45be 6ed3 8e3c
00000360: 9e1d 833d 7058 4b3c 5270 24be a8df 5f3d
00000370: 2e45 58be 2b8a fb3e 631d a33d a42a 6b3d
00000380: 3697 0c3e c376 48be d72b 613e 706f 5c3d
00000390: 2aa6 b9be e937 e4bc e233 d4bc 1230 89be
000003a0: 5419 1abd 34b8 cabe a80b 52be 628f c23e
000003b0: ab76 54be f4c9 f53e 4012 8a3e cbea f83e
000003c0: e43a a3bd 59f5 b0bc 0e52 a4be 6ad9 e0be
000003d0: 6995 873e d708 b8be 42ae 4abe 5965 4fbb
000003e0: 5f7f f43e 124c ee3e d892 c53e ffd6 71be
000003f0: 4b44 6e3d 3cb4 32bd 3e28 a3be e7a6 833e
0.13174012 -0.097346544 -0.10974257 0.12625185 0.1893852 -0.13832769 -0.3132487 0.19947907
-0.19666657 -0.4828767 -0.45229056 -0.06619603 0.74099517 -0.6568304 -0.06126802 -0.93261933
0.73424387 0.013489702 -0.06005251 0.5395437 -0.4523251 0.26611307 -0.044008657 0.13953176
-0.26573902 0.102114506 0.082285285 0.15692042 0.42800546 0.17729877 0.12737663 0.08725944
-2.1192865 0.25385082 0.11604091 0.081902415 0.05211528 0.03206329 -0.12139671 0.24198306
0.17752291 0.45413727 0.5286313 -0.14665164 -0.30570582 0.3080991 0.10065475 0.19866067
0.3293655 -0.046965618 0.74429625 -0.2902204 0.3360029 0.0031142423 0.22920796 -0.077984214
-0.24889533 0.24829915 0.1791012 -0.31695896 0.049468994 -0.26325494 -0.067344666 0.48991758
1.5280553 -0.016065292 0.13653396 0.052508276 -0.15912761 0.50896114 0.3873828 -0.035451
-0.24370492 -0.033218905 0.2646821 -0.29272568 -0.17882763 -0.36957377 -0.66245323 -0.3376968
-0.16009462 -0.065019235 0.6110441 0.24334523 0.064398974 0.12857753 0.40419355 0.02672963
-0.047055546 0.16697644 0.08933684 -0.2522902 -0.15807939 -0.088681385 0.2726628 -0.124308825
-0.15947573 0.105919 -0.32244217 -0.064612 -0.8045892 -0.18994093 -0.7559682 -0.9231847
0.2001082 -0.6644843 -0.093767494 -0.00032218272 -0.41091797 -0.45212272 -0.19605245 -0.106158905
0.07547258 0.3700807 -0.11995437 0.4472433 -0.25857297 0.29618767 -0.23950703 -0.4104034
-0.54878205 0.24530403 -0.134618 0.033584163 -0.97722983 0.0015007416 -0.372438 -0.44762626
0.2657638 0.08478325 -0.33836326 -0.19157057 -0.081946805 -0.03677861 -0.063855775 0.25179985
0.71791023 0.19921997 -0.2735702 0.05696767 -1.4842477 0.12673607 -0.004178094 0.2389188
0.04499031 0.46213403 -0.30703238 -0.29593217 0.082259946 0.49015647 0.44987473 0.012845801
-0.27414042 -0.43381888 -0.6536146 0.08120411 -0.113994144 -0.20233256 -1.2643433 -0.4104356
0.43618694 0.19569163 0.2192893 0.2420225 0.060831033 0.1349414 -0.14607292 0.017393688
0.44372442 0.17739134 0.20491308 0.3793094 0.7327997 0.14019023 0.53222805 0.18471389
-0.5151976 0.5088319 0.2775258 0.07532425 0.031790853 0.16549683 -0.0075285435 0.010710031
-0.07194516 -0.2727542 0.26959243 -0.17035048 -0.074810654 -0.14567812 0.1573573 0.12866393
-0.1632194 0.23669341 0.6556246 0.35428894 0.23917152 0.18970288 -0.14646068 0.3498018
-0.50491494 -0.74695146 0.45582843 0.2393454 0.21044034 -0.7937024 -0.06853427 0.3464381
-0.2204139 -0.1600914 0.036177535 0.17623675 0.46761048 0.36146516 -0.19245088 0.017434802
0.064021334 0.012411222 -0.16058472 0.054656655 -0.2112014 0.4912885 0.079645894 0.057413712
0.13729557 -0.19576554 0.2198938 0.053817213 -0.36259586 -0.027858691 -0.025903646 -0.26794487
-0.03762181 -0.3959366 -0.20512259 0.38000017 -0.20748393 0.4800564 0.2696705 0.48616633
-0.07970217 -0.021601366 -0.32093853 -0.43915874 0.26481178 -0.35944244 -0.19793037 -0.0031646101
0.47753426 0.46542412 0.38588595 -0.23617171 0.058170598 -0.043628916 -0.3186664 0.25713274

fc1.bias f4 [64]
00000000: 5511 a33e 9fcb 2abf 65bc 633f dd19 7c3f
00000010: f212 4fbe c4c5 cf3e 4381 873e 2222 3840
00000020: 0994 103f b11d 543f 168e d1bd 2172 aebf
00000030: e7cb 1cbf 6578 51bf c9d3 26c0 ae85 e33e
00000040: ef12 33bf 6763 9dbf c0b2 5b3f c97e d5bf
00000050: ecd5 87be d1a6 a73f bedc df3e f616 b73f
00000060: 0a9f 2c3f 5346 233e 8c6f c2be 06d8 27bf
00000070: 6a11 0a3d fcec a9bf 6190 063d 57b3 45bf
00000080: ab52 603e a06e a03d c482 f13e 7255 dd3f
00000090: 821b 32bd e308 93bf cc58 c43e 3ac2 5c3d
000000a0: 5600 ad3f 25a5 723b 97db 04bf 2b28 83be
000000b0: 9f3d 943f ea6e 623f e011 ee3e 1c95 ae3f
000000c0: 5974 a1bf 5ee6 6f3f 7622 173f c659 6c3f
000000d0: 5ccf 19c0 c2e7 b53f f03d c7bd e0cd 283c
000000e0: 06df 633f 71e6 843f f0e9 11c0 f234 673f
000000f0: d678 f23d 05bc be3f bce1 b63d 0550 9cbf
0.3184916 -0.6671695 0.8895934 0.98476964 -0.20222071 0.4058057 0.26465806 2.8770833
0.56475884 0.82857805 -0.10232179 -1.3628579 -0.6124863 -0.8182433 -2.6066763 0.44437927
-0.69950765 -1.229596 0.85819626 -1.6679317 -0.26530397 1.3097783 0.437231 1.4303882
0.67430174 0.15944795 -0.3797573 -0.65564 0.033708014 -1.3275447 0.032852534 -0.77226776
0.21906535 0.078336 0.4717008 1.7291701 -0.043483265 -1.1487087 0.38348997 0.053896166
1.3515728 0.0037024703 -0.5189757 -0.25616583 1.1581305 0.8845049 0.46498013 1.3639255
-1.2613631 0.9371089 0.5903696 0.92324483 -2.4032812 1.4211352 -0.097286105 0.010302991
0.8901218 1.0382825 -2.2799034 0.90315163 0.11839454 1.4901129 0.08929774 -1.221192

fc2.weight f4 [64, 64]
00000000: 0ecd ebbd ed5d b2bb ff9d e63d 1703 893e
00000010: fdae 46be d119 773d 006a 9939 dbff cd3d
00000020: fa4d 25bd 8660 7ebd 780e 793d f7c7 27be
00000030: e5a0 273d 1a3d 943d 5c5b 493c 8385 43bd
00000040: f408 94bc cf9c 1dbe 23ec c1bd 372b b9bd
00000050: 80d1 60bb 9831 033d 754d c93d 8917 4f3d
00000060: d790 51bc b9f5 0c3c 37a9 d63d d9db 583c
00000070: 4cb6 09be 9a98 113d a9d2 a23d a6b1 7d3d
00000080: 0e01 7bbc 3abb 633c 5efc 8bbd fbc5 dbbd
00000090: e3ee e8bd 65ee 83bd 5bc9 fa3d 4849 afbc
000000a0: 47eb 9fbd 3169 e9bd 6a59 243d eceb 773c
000000b0: fbc4 07be c57a d2bd 74aa 963d cbab 1e3e
000000c0: fb3d de3d 6bee 40bd bca2 d7bd 7bfa 80bc
000000d0: ea50 6bbe 5090 bf3c ce95 57be e44e 583d
000000e0: 9fb7 5e3d 458d 6c3d 36c5 81be 3514 543d
000000f0: 77d0 0abe 76d1 0b3d 3a47 e53d 27de 163e
00000100: 1468 ff3d df13 c6be 3b61 7e3e bd3f 8a3f
00000110: ba71 73bd 0064 2fbe c832 c9bd 85e8 153e
00000120: 750c d6bd ef6c 29be f880 a5bc c45e 86bd
00000130: b826 febc 1bbe c83e 64f5 7fbd a119 f23e
00000140: 1c70 6b3e 4125 2cbe a048 6bbd f5ee be3d
00000150: 043f f93d 694f 93bd 5760 3cbe a8eb ef3d
00000160: b9d5 23be f614 143e c620 1b3e ebc7 273e
00000170: 30fa c93c 6c72 ad3d 7f0f a33d be0d aabd
00000180: 13af 22be b159 113d df11 e4be b1d8 563f
00000190: 5067 febd f724 903e b0b1 273d 3def 81bd
000001a0: 3499 b93d 4e96 f4be 9578 183c 51b2 4f3d
000001b0: aebc 23bd caa7 f3bc 7fd2 debc 257b 8bbd
000001c0: 11bb 64be 6e93 08be ff77 583e 6d47 b93e
000001d0: 66ca febd 94c0 663d 2df0 08be 4823 a53c
000001e0: f121 463e 17b8 0cbe 88b4 8fbe 0800 fcbd
000001f0: a9ce 11be 7885 99bd 5011 0f3d a926 1dbd
00000200: a0b0 603d 2ae6 a5bd ea0f e63d 188d 78bd
00000210: 0ca0 a63d e1c4 66bd 4000 1fbc fa1d eb3c
00000220: 4ee8 d7bd b595 aabd d6e1 9d3d 22ed b03d
00000230: 2c4a f2bd e542 a03c 94dd 72bd 7e24 84bd
00000240: 8390 ce3d a0ba 223c 24fe 68bd 38ae ba3c
00000250: 14e3 1cbd 00be 9a3d 9487 003e 9e9c 953d
00000260: 9694 c6bd c130 23bd b4c1 b03c 9efe 513d
00000270: f088 24bd a02f ad3d 884d af3d 7b3f 1c3c
00000280: 748e 1e3d 1125 d9bd 0cbb 69bd 16ea c8bd
00000290: d074 91bc 00da c8bb 404a 78bb 295a db3d
000002a0: 7d02 e13c 8c98 843d 1588 02bc 73e8 08bd
000002b0: 127d 7bbd 4ef4 cdbd 9f2a 553b daae c93c
000002c0: 6489 d4bd 0e98 7cbd fbba 303c a466 553d
000002d0: 1796 06be dfcc 6fbd 141d 053e 805a a0bb
000002e0: aebe 643d ea3e fdbd 88c7 9b3d 6094 783d
000002f0: bd35 c6bd e927 763d e889 ebbd fe0f 273c
00000300: 6c2c ed3d bf46 6a3e 16ab 313e af42 afbe
00000310: e236 f0bd c61a e1bb 649c 3d3d 80fc 9b3d
00000320: e43d c53e 693e c8bb f6e2 c43d aa30 3f3e
00000330: 27b4 10be f0b6 7c3e b97e 15be e93a cebe
00000340: a27b 0cbf c7a7 1dbe e6be 263d 8cab 8abd
00000350: cac9 d13d 4d1a 093e a6f6 4c3e 3b50 903d
00000360: 3629 d33d 0195 f93b d679 88be 581d 01bf
00000370: 96fe 00be 10c0 883e 428e 053e ba42 02bf
00000380: 7da3 31be c21a 11bd 126d 76bc 2d02 19bf
00000390: 6307 6b3c b31c 9d3d 6290 733e f0b6 1dbd
000003a0: 8dc9 023e 9dc0 cb3e 5229 04be 7a7b 503d
000003b0: c9c0 ab3d 9d44 1e3d 3fe5 de3d ef79 84be
000003c0: a02b 42bd bf35 57bd a059 223e e2b9 5abd
000003d0: 33cb ffbd 4a03 ce3d 3a4a 053c b048 1a3d
000003e0: 24d6 85bd 2560 cd3d bc9d 27be 0930 493d
000003f0: 5dae 0ebe b9e6 cb3c f099 0abd cb57 94bc
-0.115137205 -0.0054433257 0.11260604 0.2676017 -0.1940269 0.060327355 0.0002926141 0.10058566
-0.040357567 -0.06210377 0.060804814 -0.16384874 0.040924925 0.07238217 0.012289848 -0.04773475
-0.018070675 -0.15391849 -0.09468868 -0.09041446 -0.003430456 0.03202972 0.09829227 0.050559554
-0.01279088 0.008603507 0.10481494 0.0132360095 -0.13448447 0.035545923 0.079503365 0.061936997
-0.015320076 0.013899619 -0.068352446 -0.10731121 -0.11373689 -0.064419545 0.12245437 -0.021397248
-0.078085475 -0.11397017 0.040124334 0.015131932 -0.13258736 -0.10277323 0.0735673 0.15495221
0.108516656 -0.047102373 -0.10529086 -0.015744438 -0.22980085 0.023384243 -0.2105324 0.05280961
0.054374333 0.057751913 -0.25345773 0.051777083 -0.13556086 0.034135304 0.11195226 0.14733182
0.12471023 -0.38687035 0.24841778 1.0800701 -0.05943463 -0.1712799 -0.09824139 0.1463948
-0.10451595 -0.16545461 -0.020203099 -0.06561044 -0.031024322 0.3920754 -0.062489882 0.47285178
0.22991985 -0.16811086 -0.057442307 0.09322921 0.121702224 -0.07192881 -0.18396126 0.1171487
-0.15999497 0.14461121 0.15149221 0.16384856 0.024655432 0.0846909 0.0796194 -0.08303402
-0.15887098 0.035485927 -0.44544885 0.83924395 -0.12422049 0.28153202 0.04094094 -0.06344459
0.09062424 -0.47770923 0.009306093 0.050707165 -0.03997486 -0.029743094 -0.027199982 -0.06810597
-0.22336985 -0.1333749 0.21139525 0.36187306 -0.12440948 0.056336 -0.1337287 0.020158425
0.19348885 -0.137421 -0.28067422 -0.123046935 -0.14238991 -0.0749616 0.03492862 -0.038366947
0.054855943 -0.08100541 0.11233504 -0.060681432 0.08135995 -0.056340102 -0.009704649 0.028700817
-0.105423555 -0.083293356 0.077090904 0.086389795 -0.118305534 0.019563148 -0.059293345 -0.06452273
0.10086157 0.00993219 -0.056882992 0.022788152 -0.038302496 0.07555771 0.12551719 0.07305263
-0.09696309 -0.039841417 0.02157674 0.051268212 -0.040169656 0.084563494 0.0855971 0.009536619
0.038710073 -0.10602773 -0.057063147 -0.09810273 -0.017755896 -0.0061295033 -0.0037886053 0.10710556
0.027467007 0.064744085 -0.007967015 -0.033424806 -0.061398573 -0.10056363 0.0032526625 0.024619509
-0.10377768 -0.06166845 0.010786767 0.05209984 -0.13143192 -0.05854499 0.12999374 -0.004893601
0.05584591 -0.123655155 0.07606417 0.060688376 -0.096782185 0.060096655 -0.11500913 0.010196684
0.115807384 0.2287855 0.1735042 -0.34230563 -0.11729218 -0.0068696467 0.046291724 0.0761652
0.3852378 -0.0061109555 0.09613602 0.18670908 -0.14131223 0.2467916 -0.14599122 -0.4027932
-0.5487615 -0.15396033 0.0407094 -0.06771001 0.10243566 0.13388939 0.20015964 0.07046553
0.10310595 0.0076166396 -0.26655453 -0.504354 -0.12597117 0.26709032 0.13042548 -0.50883067
-0.17347522 -0.03542591 -0.015040653 -0.59768945 0.014345023 0.076714896 0.23785546 -0.03850454
0.12772198 0.3979539 -0.12906387 0.050899006 0.0838638 0.038639653 0.10883569 -0.25874278
-0.047404885 -0.05254149 0.15854502 -0.053399928 -0.12489929 0.10059221 0.008135373 0.037666976
-0.06534985 0.10028104 -0.16368765 0.049118076 -0.13933702 0.02489029 -0.033838212 -0.01810827

fc2.bias f4 [64]
00000000: b4b6 a93e d546 e43f 4a9e 823d 3aa7 d13f
00000010: 72d1 633f 725b 063f c008 c83f 61cb 903f
00000020: b3f4 8a3f a883 873d d855 a53d 6f7f 953f
00000030: bf49 d73f b96d 6dbd 7062 7d3d e06a c93e
00000040: 1465 c2be 44d2 883e 9c61 4e3f a37c b23f
00000050: 2b4d 1f3f 9817 853c c8be 293d 2294 af3f
00000060: 7aee 803d 2491 913d ae0e f33c bc93 04bd
00000070: 9988 253d f6d2 fbbd 9b4d 3e3d de34 923d
00000080: 25b9 683d 5a6a 993f bc06 78be 8211 73bd
00000090: 66f1 353d 5137 e9bd 722c fdbd f2fd 773d
000000a0: 0522 7cbd afc8 a43c bae5 55bd a8ca c6bd
000000b0: 08fb 1c3c 8a4d 8f3d cea0 f93f b885 f5bd
000000c0: ad1b b43f 4ac3 033e 795a 13be 7b53 9d3f
000000d0: e15d 81bb 877f 1f3f 4b45 fe3c 2e9c a43f
000000e0: 0bc9 8b3f 5c03 533f 01ed 4f3f bc58 64bd
000000f0: 276f afbd 78bd 973f 32cc 27bf 9f23 3dbd
0.33147204 1.7834116 0.063778475 1.6379158 0.88991463 0.52483284 1.562767 1.1312066
1.0855926 0.06616908 0.08073014 1.1679515 1.681938 -0.057965968 0.061861455 0.39339352
-0.3796774 0.2672292 0.8061769 1.3944286 0.62227124 0.016246602 0.04144171 1.3717082
0.06295486 0.071077615 0.029670086 -0.032367453 0.040413473 -0.12296097 0.04646073 0.0713899
0.056817193 1.1985581 -0.24221319 -0.05934287 0.04441967 -0.11387504 -0.12361993 0.060544915
-0.06155588 0.020115225 -0.052221037 -0.09706622 0.009581335 0.06997211 1.9502199 -0.119883955
1.4070946 0.12867466 -0.14389981 1.2291101 -0.003947959 0.62303966 0.0310389 1.2860162
1.0920728 0.82427 0.81221014 -0.055748686 -0.085661225 1.1854696 -0.6554595 -0.04617655

fc3.weight f4 [20, 64]
00000000: 8915 ef3c 77ec 8bbe 64aa a73d 95e6 963d
00000010: 4542 533e 324c af3d 72c9 c2bc ecaf 4f3e
00000020: 1402 a33d 1212 b83c 387c 6d3d 40ec 983e
00000030: 606d ac3e fca2 afbd b0af b2bd 1be6 463e
00000040: 1cf3 4d3d ac4d c13c 6465 293e bae3 c63e
00000050: 3b4e 613b 3447 69bd 8a61 e33d db2a 9f3e
00000060: a8be 5a3d b889 e0bc b277 af3b c3b8 60be
00000070: d8c4 683d e251 c2bb b4ff 0dbe 9e6d cabd
00000080: c420 f0bc 1333 093e 3975 54bd 8731 79bc
00000090: 52ea af3d c756 f33d c138 eebd 5911 2fbd
000000a0: e2a6 d5bd 3ef9 8c3d 013e c6bc 0018 3dba
000000b0: dbd0 953d d2c2 c0bd f2b4 fe3d a7e9 013e
000000c0: f8fd 503e a9cd 023e b9b1 d43c 160a 613e
000000d0: e95b d1bd d1bb d43d 80ac ab3d fae9 653e
000000e0: 0f32 5d3e 00cd 583e 2d9a 0c3d ee1b db3d
000000f0: 14c7 8a3d ce8b 823e 54c0 e738 d46d 103d
00000100: 4fc2 d83d f661 f8bd 533e c43d 7470 2a3e
00000110: 031b 953e e9b2 da3d 47f6 1cbd 86eb 3a3e
00000120: 9326 d03d 740a 85bd 383e d2bd 146a 643e
00000130: cf88 853e e6cf 3ebc 5084 5abd 8097 bebc
00000140: 9a0c 2fbe 4f0a 693b fb91 083e 6039 d03e
00000150: f8a7 bb3d 121e d2bd 0882 43bd d959 643e
00000160: 57b2 993c 489f e9bc b59c 323d 6481 28be
00000170: 7cb4 833d 8013 8d3e 30fa c43d 8e66 99bd
00000180: efae be3d eedf 293e 0412 b2bc d8f9 d3bd
00000190: 88c4 673d 83d0 82bd 99d4 9cbc fa0e e1bc
000001a0: b738 d93d a348 a9bd 39b8 893d 76f2 e4bd
000001b0: cf89 6c3c 76ef c83d a94b 04bd 2c59 763d
000001c0: bbc2 663e 072d a83d e600 4dbd 4df3 063e
000001d0: 6a89 dfbd da45 123d 4c35 78bd 1fdc 463e
000001e0: b496 483e ec7d 7c3e 37fe bf3d 0a48 933d
000001f0: b8bc 593d f01c 803e a4d4 37be d897 edbc
00000200: 387e ce3d 2c36 a3be 89cf 713c 0631 963d
00000210: de31 8a3e 28cd 0a3e c7c4 a8bc 0aa9 f43d
00000220: 3dfe 393e 6e18 bd3d d6e3 c93d f67a 823e
00000230: be8c 7c3e 0f86 c5bd fc64 92bd 041e 4f3e
00000240: e289 c23d d9f0 a2bd 7e3b 353e 1615 ca3e
00000250: d36d a0bd a2b3 dcbd 2655 e83d 1cc2 8d3e
00000260: d7b4 603d 50e6 ebbc 9250 ebbd ad65 f33c
00000270: 2096 243c 501c 8d3d a916 b3bd 7039 653c
00000280: 4d73 1a3e 2109 3d3e cc97 ef3c b425 cebb
00000290: 5a89 9cbd bffc e33d ee25 2e3c f255 2b3b
000002a0: 5cda 113c 1c0c 1cbd 030c f53b 1040 f83b
000002b0: bca4 efbd 9002 4abd 2014 a63c ef78 b33d
000002c0: cd21 253e 4384 bb3e 054c d43d 0896 123e
000002d0: d1de 983d f6e9 3d3e ca2b d3bd 021f 683e
000002e0: 99d8 4f3e d133 593e ca83 41bd b8a4 5c3d
000002f0: a467 d83d c6fc 6f3e 95e2 41be 0d33 b9bd
00000300: eca5 94bd bdee 10be 141b 1d3b 3e4a 053e
00000310: 4eb8 9a3e d86a 553e 9066 25bc 0923 5b3d
00000320: b952 563e dda8 f3bb e0a4 ea3d eb7c 8a3e
00000330: 06b6 7b3e 9c11 27bd 2005 1b3d a7ad c93c
00000340: 4af6 34be 0232 ed3d 3778 5d3e e4b9 af3e
00000350: 4239 0c3d 60dd 0cbc be91 903d 5c1c 8f3e
00000360: 11f1 9a3d 9c18 073d 6d5e b0bd 4d54 473d
00000370: 6483 dcbd 45e1 523e b804 603d 881c d6bd
00000380: 7e25 553d cd51 843e c276 113c c8c4 04be
00000390: f2a2 af3d 8c9a 293d 24c8 50bd 7061 50bd
000003a0: 66d1 a0bd 90f8 953d 26e1 80bd 0035 2cbc
000003b0: 98b5 9cbd 8069 87ba 2880 c5bc 79d0 89bc
000003c0: 2009 293e eb43 e43d 0729 47bd 60ef e63d
000003d0: 5e31 f53d 8ea0 173e ca19 d7bd 239d 893e
000003e0: b6fe 013e 6058 1d3e 51d2 ea3d 8afd d5bd
000003f0: 00ed 54ba 13f4 853e 05e0 0abf 3c45 a73c
0.029185073 -0.27328846 0.08186796 0.07368199 0.20630749 0.08559455 -0.023777697 0.20281953
0.07959381 0.022469554 0.057979792 0.29867744 0.33677197 -0.08576009 -0.08724916 0.19423716
0.050280675 0.023596607 0.16542584 0.38845617 0.0034378904 -0.05695267 0.111025885 0.31087384
0.05340448 -0.02740942 0.005354845 -0.21945481 0.05682835 -0.0059301713 -0.13867074 -0.09884189
-0.029312499 0.1339839 -0.051869605 -0.015209562 0.08589615 0.11881786 -0.11631919 -0.042741153
-0.10432221 0.06883477 -0.024199488 -0.0007213354 0.07315227 -0.09412159 0.12436856 0.12686788
0.20409381 0.12773766 0.025963651 0.21976504 -0.102226086 0.10387386 0.08382511 0.22452536
0.21601127 0.21171951 0.03432672 0.106986865 0.067762524 0.25497288 0.00011050762 0.03526099
0.105839364 -0.121280596 0.095822 0.1664446 0.2912217 0.10678656 -0.038320806 0.18253908
0.101636074 -0.064961344 -0.102657735 0.2230609 0.2608094 -0.011646247 -0.05334884 -0.0232656
-0.17094651 0.0035559123 0.13336937 0.40668774 0.09162897 -0.10259642 -0.04773143 0.22299899
0.018761797 -0.028518334 0.04360648 -0.16455609 0.06430909 0.2755394 0.09618032 -0.07490264
0.0931071 0.16589329 -0.021737106 -0.10350388 0.05658391 -0.06387427 -0.019144343 -0.027472962
0.106065206 -0.082658075 0.06724591 -0.11179058 0.014437153 0.098112985 -0.032298718 0.060143635
0.22535221 0.08211713 -0.050049685 0.1317875 -0.109148815 0.035711147 -0.060597703 0.19419907
0.19588739 0.2465741 0.093746595 0.07191475 0.05315849 0.25022078 -0.1795221 -0.029003069
0.10082668 -0.31877267 0.014758953 0.07333569 0.2699117 0.13554823 -0.020601643 0.11946304
0.1816339 0.09233175 0.098579094 0.25484437 0.24663064 -0.0964471 -0.071481675 0.20226294
0.09498955 -0.07956094 0.17698476 0.39469212 -0.07833447 -0.1077645 0.11344366 0.27687156
0.054859962 -0.028796345 -0.11489977 0.029711569 0.010045558 0.06890166 -0.087445565 0.013990745
0.15083046 0.18460514 0.029247187 -0.0062911157 -0.07643385 0.11132192 0.01062916 0.0026143757
0.008902159 -0.038097486 0.0074782385 0.007575996 -0.117013425 -0.04931885 0.020273268 0.087633006
0.16126175 0.36624345 0.10366062 0.14315045 0.07464374 0.1854628 -0.103110865 0.22668079
0.20297469 0.21211173 -0.047244824 0.053868026 0.10566643 0.23436269 -0.1893409 -0.0904294
-0.072582096 -0.14153571 0.0023972439 0.13016602 0.30218738 0.20841539 -0.010095254 0.05350021
0.20929994 -0.0074359016 0.11457229 0.2704843 0.24581155 -0.040788278 0.037846684 0.024618937
-0.17672077 0.11581804 0.2162789 0.3432151 0.034234293 -0.008597702 0.07059048 0.27951324
0.07565511 0.032982454 -0.0861176 0.04866438 -0.10767248 0.20593746 0.054692 -0.10454661
0.05203771 0.2584366 0.008878412 -0.12965691 0.08576001 0.041407153 -0.05097212 -0.050874174
-0.078524396 0.073228 -0.06292944 -0.010510683 -0.07651824 -0.0010331124 -0.024108961 -0.01682304
0.16507387 0.11145767 -0.04862311 0.11276126 0.11972307 0.1480734 -0.10502966 0.26877698
0.12694821 0.15365744 0.11465896 -0.10448749 -0.0008122474 0.26162776 -0.54248077 0.020418756

fc3.bias f4 [20]
00000000: de1f 693f 51a7 2c3f 1e08 2d3f 9537 3f3f
00000010: 05a9 b03e 7557 343f ff85 203f 4d84 f93e
00000020: 14f8 8e3e 78af e63e a82a 113e 5367 8c3e
00000030: f9a2 7cbc 8fed 76be 1234 8ebe 3f87 dabc
00000040: bc21 583d a082 8abe 28aa d3be 2141 e7be
0.9106425 0.67442805 0.6759051 0.74694186 0.34503952 0.7044595 0.6270446 0.4873375
0.27923644 0.45055747 0.14176428 0.2742258 -0.015419715 -0.24114059 -0.27774101 -0.026675818
0.052766547 -0.27052784 -0.41340756 -0.45166877

fc1.weight f4 [64, 9]
00000000: e2e6 063e c55d c7bd b6c0 e0bd 2a48 013e
00000010: 32ee 413e c6a5 0dbe 2262 a0be 3e44 4c3e
00000020: f662 49be 6dda 04bf d0fe f0be fdb2 16bd
00000030: 56e1 3c3f b76f 37bf 6a3f 83bd 7e8e 3cbf
00000040: e726 3b3f 441a 5b3c e0ec 89bd 8792 093f
00000050: fab4 d7be 15e7 8b3e dd06 8bbd 00ef c73d
00000060: 8294 97be 16bd df3d 5902 d43d 654f 1d3e
00000070: 826a e53e 7597 373e f679 013e 82b1 893d
00000080: 2ce8 06c0 7bd0 6c3e 9dbc eb3d b90d a03d
00000090: e912 683d 2b7d 3d3d b0a5 d1bd 4486 183e
000000a0: ea6f 3a3e 701a f43e ac14 063f 5071 75be
000000b0: 96e8 8abe 08c7 9c3e a749 f33d 884a 513e
000000c0: 98a1 a43e d376 1ebd 4675 3b3f ca43 93be
000000d0: 7607 a83e adf8 ee3b 7eb5 6a3e 30b6 9fbd
000000e0: 6bde 7ebe 2242 7e3e 4e66 373e 7248 a2be
000000f0: 00a0 4a3d 5ac9 86be 00ec 89bd c9a1 f73e
00000100: ea84 bd3f 7651 07bc 37f2 103e 2a6c 693d
00000110: f64a 1cbe 5955 0b3f a8e8 c83e 74b1 d3bc
00000120: ca69 84be b181 e7bc 4691 8f3e f90a 9fbe
00000130: 650c 5abe 12fc b0be e9d3 23bf 7c11 b6be
00000140: c74b 1ebe 915a 8bbd 4afa 203f b0b0 803e
00000150: dd98 813d 95da 0b3e bc71 c93e 22d9 063d
00000160: 4a54 45bd 664c 333e 7ff6 b63d 2e2c 81be
00000170: fddf 21be be9e b5bd 759a 8b3e a095 febd
00000180: 9b4d 23be 10ec d83d 2417 a5be e54c 73bd
00000190: 9595 48bf 947b 33be 1b13 3ebf 3e1d 68bf
000001a0: cce5 553e c609 2abf f864 a4bd 0eb8 a03c
000001b0: fd07 babe a7d9 e0be ecaf 2cbe 7b7b cfbd
000001c0: ff03 fc3d 2789 c73e 7d76 f6bd 5579 e73e
000001d0: 145f 6ebe 7749 973e 74fa 63be f52d c4be
000001e0: 9721 05bf 5ae1 793e 3ffd 01be c3c5 0a3d
000001f0: 8fd0 72bf 3efa 893c b0e8 bbbe 0b0c debe
00000200: 3258 833e dc1f da3d 18b3 a5be 71ce 72be
00000210: 73c9 c0bd d3b2 76bc 4594 6fbd 4443 953e
00000220: 8f31 3d3f 7485 4e3e 54e5 86be da77 b53d
00000230: 761c bebf cdbe 243e 8835 c23b fee9 763e
00000240: 8133 c73b a154 f43e 6946 9abe 5ecd adbe
00000250: fc8e 313d bc64 fc3e 2dfe d43e 2f4b fbbc
00000260: 4742 85be 0a15 e6be f243 25bf 5153 c03d
00000270: b266 b5bd d045 6cbe 4a85 a1bf 3161 e8be
00000280: 8d58 ec3e 1f4d 3c3e a8a5 5c3e 32a9 7e3e
00000290: 1f72 953d 1cf0 ff3d 8ca2 0fbe e72a 333c
000002a0: 8fa8 e93e 4e70 2b3e eda9 5f3e be95 af3e
000002b0: ae08 283f e4ca 063e 4641 0d3f 4cfb 143e
000002c0: 8c78 0abf 9321 043f 9e19 983e 7959 8f3d
000002d0: 2037 023d 0078 293e 00b2 f6bb 2079 2f3c
000002e0: fc57 93bd 70a6 8bbe 0508 8a3e 5b70 2ebe
000002f0: 5436 99bd 2d75 17be 92da 323e 636f 0a3e
00000300: a3e7 2abe 5412 7a3e 4876 243f ad63 b63e
00000310: 1c26 713e 5f3a 483e fcea 07be 376a bb3e
00000320: 2273 ffbe eae1 3abf da67 f03e 76ee 7e3e
00000330: 5ea8 683e 84d8 46bf 3ffb 51bd 8b54 ad3e
00000340: 9faf 24be a459 21be 7774 283c 11a8 383e
00000350: ac2a f33e 4b8e a63e 0997 5fbe 4fe6 f23c
00000360: 631c 7b3d 7aed 563d 4f4b 22be 4ceb 6e3d
00000370: 063c 52be e6a7 fa3e b341 893d 3d36 7a3d
00000380: 73de 1c3e 1804 42be c290 673e 8c20 763d
00000390: 416b b6be 1f94 b0bc b20b a1bc ee05 86be
000003a0: df34 00bd 6e85 c7be c6fd 8dbe ce09 d43e
000003b0: 9208 3cbe d3ef ec3e 3336 4a3e 433d 053f
000003c0: d926 e7bd ee51 1fbd 433b 8bbe a81d ebbe
000003d0: c105 913e c93c aebe ac2c 6ebe ea27 bebc
000003e0: 8256 fd3e 4acb dd3e a7d4 b33e 0afa 51be
000003f0: d546 6e3d a3b4 32bd 1e28 a3be 83a9 833e
0.13174012 -0.09734682 -0.10974257 0.12625185 0.1893852 -0.13832769 -0.3132487 0.19947907
-0.19666657 -0.5189579 -0.47069407 -0.03679179 0.73781335 -0.7165484 -0.0640858 -0.73654926
0.73106235 0.013372961 -0.067346334 0.5373921 -0.42130262 0.2732474 -0.067884184 0.097623825
-0.2960549 0.10924737 0.1035201 0.15362318 0.44807822 0.1792887 0.1264418 0.0672331
-2.1079206 0.23126404 0.115105845 0.078151174 0.05665866 0.046261948 -0.102366805 0.14894968
0.18206754 0.4767642 0.5237529 -0.23969007 -0.27130574 0.306206 0.118792824 0.20438588
0.32154536 -0.03868754 0.7322582 -0.28762656 0.32818192 0.007292828 0.22920796 -0.077984214
-0.24889533 0.24829915 0.1791012 -0.31695896 0.049468994 -0.26325494 -0.067344666 0.4836562
1.4806187 -0.008259168 0.14154898 0.05698792 -0.1526297 0.54427105 0.39240003 -0.025841452
-0.2586196 -0.028260084 0.28040522 -0.3106306 -0.2129379 -0.34567314 -0.63995224 -0.35560215
-0.15458594 -0.068043835 0.6288191 0.25134802 0.063279845 0.13657601 0.39344585 0.032921918
-0.048176087 0.17509612 0.08933734 -0.2522902 -0.15808101 -0.08868168 0.2726628 -0.124308825
-0.15947573 0.105919 -0.32244217 -0.059399504 -0.78353244 -0.1752761 -0.742479 -0.9066962
0.20888442 -0.66421163 -0.08027071 0.019619014 -0.3633422 -0.43916056 -0.16863984 -0.10130974
0.1230545 0.38971826 -0.120343186 0.45209756 -0.23278457 0.29548237 -0.22263509 -0.38316312
-0.5200438 0.24402371 -0.12694262 0.033880007 -0.94849485 0.016842958 -0.36700964 -0.43368563
0.25653225 0.10650608 -0.323632 -0.23711564 -0.094134234 -0.015057283 -0.05849101 0.29152882
0.73903745 0.20168096 -0.26346838 0.088607505 -1.4852436 0.1608841 0.0059267916 0.24112698
0.006079138 0.47720817 -0.30131844 -0.33945745 0.04334925 0.49295604 0.4160017 -0.030675499
-0.26027128 -0.44937927 -0.645568 0.09390891 -0.08857478 -0.23073506 -1.2618802 -0.4538665
0.4616131 0.18388794 0.21547568 0.2486923 0.072971575 0.12496969 -0.1402685 0.010935522
0.45636413 0.1674206 0.21842165 0.34293932 0.65638244 0.13163334 0.55177724 0.14548987
-0.5409019 0.5161373 0.29707044 0.069994874 0.031790853 0.16549683 -0.0075285435 0.010710031
-0.07194516 -0.2727542 0.26959243 -0.17035048 -0.074810654 -0.14790793 0.1746619 0.13519053
-0.16689925 0.24421054 0.6424298 0.35622922 0.23549694 0.19553517 -0.13273233 0.36604473
-0.49892527 -0.7300097 0.46954232 0.24895653 0.22720477 -0.77674127 -0.051264998 0.33853564
-0.16082619 -0.15756851 0.010281674 0.18032862 0.47493494 0.32530436 -0.21834959 0.029650835
0.06130637 0.05247257 -0.1584904 0.058329865 -0.2053071 0.4895622 0.06701984 0.061086882
0.15319233 -0.18946874 0.22613814 0.060089633 -0.35628703 -0.021555005 -0.019658897 -0.261764
-0.03130042 -0.38968986 -0.27732676 0.4141373 -0.18362644 0.4627672 0.19747238 0.520466
-0.112867065 -0.038896494 -0.2719365 -0.45921063 0.28324702 -0.3403075 -0.23259228 -0.023212392
0.49480063 0.4331916 0.35123178 -0.20505539 0.05817302 -0.0436293 -0.31866544 0.25715265

fc1.bias f4 [64]
00000000: 5511 a33e 1c4c 44bf 6efb 763f 1df9 8d3f
00000010: 1f53 33be ad7e 803e 4381 873e fa3c 3640
00000020: e276 133f c46a 2d3f 168e d1bd dc10 acbf
00000030: 2606 16bf af94 4fbf 99b5 1cc0 aa06 223f
00000040: 3c2d 30bf a37d 89bf b35c 333f 41c1 c8bf
00000050: ecd5 87be 91bf 933f fd82 e83e 6d46 aa3f
00000060: 3aec 083f 8cb2 293e 570a afbe 6397 21bf
00000070: 2812 0a3d dcd0 9ebf de08 113d 8d3f 43bf
00000080: a7ff 7b3e 29d0 af3d d87f a43e 115b e23f
00000090: 6318 32bd cb4c 99bf c14b f83e 7fa6 5e3d
000000a0: b10a 993f fc5f 87bb a3ad 01bf ef31 66be
000000b0: 4151 803f 5fa5 3a3f 47ef d43e 02ab b03f
000000c0: 8d6a a1bf cf61 4a3f e6a7 ee3e 9d9e 4e3f
000000d0: 5317 11c0 a6e7 a13f 7021 1dbd e0cd 283c
000000e0: d595 553f d616 623f 28e8 06c0 a97d 3f3f
000000f0: 6cfe 123e c24e ab3f bce1 b63d e244 9cbf
0.3184916 -0.76678634 0.964774 1.1091648 -0.17512177 0.25096646 0.26465806 2.8474717
0.57603276 0.67741036 -0.10232179 -1.3442645 -0.5860313 -0.8108625 -2.4485838 0.6329142
-0.6881902 -1.0741466 0.7006332 -1.5683976 -0.26530397 1.1542836 0.45412436 1.3302742
0.53485453 0.16572016 -0.34187576 -0.6312162 0.03370872 -1.2407489 0.035408847 -0.76268846
0.24609242 0.08584625 0.32128787 1.7684041 -0.04348029 -1.197656 0.48495296 0.054358
1.1956388 -0.0041313153 -0.50655574 -0.22479986 1.0024797 0.72908586 0.41588804 1.3802187
-1.2610642 0.79055494 0.4661247 0.80710775 -2.2670486 1.2648818 -0.038361967 0.010302991
0.8343175 0.88316095 -2.1079197 0.7480112 0.14354867 1.338341 0.08929774 -1.2208521

fc2.weight f4 [64, 64]
00000000: 0ecd ebbd c748 b2bb c6a1 e63d b800 893e
00000010: fcad 46be f11c 773d 006a 9939 0101 ce3d
00000020: 9249 25bd 245f 7ebd 780e 793d bac7 27be
00000030: 89a6 273d a93f 943d 2661 493c 6185 43bd
00000040: f908 94bc 399a 1dbe 38eb c1bd 0129 b9bd
00000050: 80d1 60bb 2c35 033d de4d c93d 421a 4f3d
00000060: 9589 51bc 5af8 0c3c c9ab d63d a4e1 583c
00000070: 69b4 09be de9b 113d 15d6 a23d 1ab4 7d3d
00000080: b000 7bbc c0c6 633c 73fa 8bbd 7ec4 dbbd
00000090: a1ef e8bd eceb 83bd e7cd fa3d 874d afbc
000000a0: 13e8 9fbd b968 e9bd b65c 243d 1bf7 773c
000000b0: 4fc4 07be 8e79 d2bd c4af 963d 91af 1e3e
000000c0: 503d de3d 38ed 40bd e2a1 d7bd eaf6 80bc
000000d0: 0351 6bbe 7595 bf3c 2a96 57be e44e 583d
000000e0: 3cbd 5e3d 1a92 6c3d 22c5 81be 9e17 543d
000000f0: aacd 0abe 78d4 0b3d 3a47 e53d a4db 163e
00000100: 1468 ff3d daf9 b3be 066f 713e ec09 863f
00000110: 112d 74bd 3775 0fbe c832 c9bd 05d5 0c3e
00000120: 4df0 c6bd 52f9 1dbe f880 a5bc a919 92bd
00000130: 2702 00bd 2de4 b83e aed7 99bd 9f27 ee3e
00000140: 0416 6b3e 2747 3dbe 0328 59bd bdbf c63d
00000150: 773f f93d 6f78 73bd f2ac 3abe c3fe 903d
00000160: c1c1 1fbe b048 143e 57e3 1a3e a1cb 273e
00000170: 30fa c93c 5ea3 133d 0719 a33d c205 aabd
00000180: 56c7 22be d5da 0a3d 7320 d3be d9e3 423f
00000190: cb67 febd 8450 513e f9a4 c6bd 32ec 81bd
000001a0: a80f e23d 4f59 e5be 313f 0c3c e3f6 4e3d
000001b0: 6aaa b8bc 376f b7bc 8d94 89bd 9be1 a0bd
000001c0: 7db9 64be 1580 0dbe b576 773d e274 733e
000001d0: 1069 ffbd c924 843d 2078 08be 4823 a53c
000001e0: 2856 c93d c934 fdbd 4ea0 8ebe 420b bdbd
000001f0: 1177 76be e801 81bd 5011 0f3d 5120 1dbd
00000200: a0b0 603d 2ae6 a5bd 3e11 e63d 188d 78bd
00000210: c0a2 a63d efc4 66bd 4000 1fbc 2222 eb3c
00000220: 4ee8 d7bd 9492 aabd d6e1 9d3d 81ef b03d
00000230: 314a f2bd d345 a03c 94dd 72bd 7e24 84bd
00000240: a38d ce3d beba 223c 24fe 68bd 38ae ba3c
00000250: 14e3 1cbd bebf 9a3d d184 003e 3a9f 953d
00000260: a492 c6bd d533 23bd 89c4 b03c 7500 523d
00000270: f088 24bd a02f ad3d 884d af3d 7742 1c3c
00000280: 748e 1e3d 9c24 d9bd c2ba 69bd 16ea c8bd
00000290: d074 91bc 00da c8bb 404a 78bb 1e57 db3d
000002a0: 4104 e13c 8c98 843d 7388 02bc 60e5 08bd
000002b0: b17d 7bbd 62f1 cdbd 1029 553b 86af c93c
000002c0: e888 d4bd f296 7cbd b9bc 303c a466 553d
000002d0: 9e93 06be 77cd 6fbd 9d1c 053e 805a a0bb
000002e0: 65bd 643d ea3e fdbd 88c7 9b3d 7d97 783d
000002f0: e434 c6bd 632a 763d e889 ebbd 0814 273c
00000300: 6c2c ed3d ddac 533e 6977 e93d 0be4 a9be
00000310: 704a f9bd a1cf 1dbc 649c 3d3d 88ee 983c
00000320: 485a a03e 5d89 84b9 f6e2 c43d 7ac9 593e
00000330: aced 03be 4f59 663e 8e3d 6bbe b945 cebe
00000340: 1019 0dbf 4522 eabd 2a8b 4e3d 78dd 98bd
00000350: cac9 d13d 0e61 0e3e f983 503e 44cc 993d
00000360: ad9e fb3d 96db f83b a122 a2be 96ee 01bf
00000370: e9fd 00be 5f36 823e 0bd9 023e fd15 02bf
00000380: bfff 2bbe 3a61 0dbd 4d4b c4bb 9177 20bf
00000390: b20a 6b3c 8153 c6bc 3f73 0b3e a298 1fbd
000003a0: dbcf f93d 8be7 ad3e 812b 22be fc7e 5f3c
000003b0: 4063 b33d 0e5f 2a3d 2276 923d 957d 5fbe
000003c0: f387 42bd 2dab 1abd 7bf9 da3d d7c6 f7bc
000003d0: e140 f4bd e615 da3d dbe3 cfbc b048 1a3d
000003e0: fa22 abbd d94f da3d 5bf9 16be 728c 633d
000003f0: 647d 56be 76ab d93c f099 0abd 78c4 91bc
-0.115137205 -0.0054408046 0.112613246 0.2675836 -0.19402307 0.060330335 0.0002926141 0.10058785
-0.040353365 -0.062102452 0.060804814 -0.16384783 0.040930305 0.07238705 0.012291228 -0.047734622
-0.018070685 -0.15390863 -0.094686925 -0.09041024 -0.003430456 0.03203313 0.09829305 0.05056215
-0.01278915 0.0086041335 0.10481984 0.013237391 -0.13447727 0.035549037 0.07950989 0.061939336
-0.015319988 0.013902366 -0.06834879 -0.10730837 -0.113738306 -0.06441483 0.12246304 -0.021399273
-0.078079365 -0.113969274 0.04012748 0.015134598 -0.1325848 -0.10277091 0.073577434 0.15496661
0.10851538 -0.04710123 -0.105289236 -0.015742738 -0.22980122 0.023386696 -0.21053377 0.05280961
0.054379687 0.05775652 -0.25345713 0.051780336 -0.13555017 0.034138173 0.11195226 0.14732224
0.12471023 -0.3515156 0.23577508 1.0471778 -0.05961329 -0.14009558 -0.09824139 0.13753136
-0.097138025 -0.1542714 -0.020203099 -0.071338005 -0.031252053 0.36111584 -0.07511841 0.46514603
0.22957617 -0.18484174 -0.053016674 0.0970454 0.12170308 -0.059441026 -0.18230036 0.07079842
-0.15601255 0.14480853 0.15125786 0.16386272 0.024655432 0.03604447 0.07963758 -0.083018795
-0.15896353 0.0339001 -0.41235694 0.7612892 -0.12422141 0.2044087 -0.09699435 -0.06343879
0.110381424 -0.447947 0.008559988 0.05052842 -0.022542197 -0.022391899 -0.06717787 -0.07855531
-0.22336383 -0.1381839 0.060415942 0.23775056 -0.12471211 0.06452329 -0.13327074 0.020158425
0.09830886 -0.123635836 -0.27856678 -0.09230663 -0.24068858 -0.06299192 0.03492862 -0.038360897
0.054855943 -0.08100541 0.112337574 -0.060681432 0.08136511 -0.056340154 -0.009704649 0.0287028
-0.105423555 -0.08328739 0.077090904 0.08639432 -0.11830557 0.019564545 -0.059293345 -0.06452273
0.10085609 0.009932218 -0.056882992 0.022788152 -0.038302496 0.07556103 0.12550665 0.07305761
-0.09695938 -0.039844353 0.02157809 0.051269967 -0.040169656 0.084563494 0.0855971 0.009537331
0.038710073 -0.10602686 -0.05706287 -0.09810273 -0.017755896 -0.0061295033 -0.0037886053 0.10709976
0.027467849 0.064744085 -0.007967102 -0.033421874 -0.061399166 -0.10055806 0.0032525696 0.024619829
-0.10377675 -0.06166739 0.0107871825 0.05209984 -0.13142249 -0.058545556 0.12999196 -0.004893601
0.055844683 -0.123655155 0.07606417 0.060691345 -0.09678057 0.060099017 -0.11500913 0.010197647
0.115807384 0.20671411 0.11399729 -0.33181795 -0.12172401 -0.009632022 0.046291724 0.018668428
0.3131888 -0.00025279346 0.09613602 0.21268263 -0.12883633 0.22495006 -0.229727 -0.4028757
-0.5511637 -0.11432318 0.050425686 -0.07464117 0.10243566 0.13904211 0.20362844 0.07509664
0.122861244 0.007594536 -0.31667045 -0.5075468 -0.12596859 0.25432107 0.12778108 -0.508148
-0.16796778 -0.03451655 -0.005990422 -0.62682444 0.014345812 -0.02420974 0.13618182 -0.03896392
0.121978484 0.33965716 -0.15836908 0.013641115 0.08759165 0.041594557 0.07151438 -0.2182525
-0.047492933 -0.037760902 0.10692116 -0.030246181 -0.11926437 0.10648708 -0.025377205 0.037666976
-0.083562806 0.10659761 -0.14743559 0.05555386 -0.2094627 0.026571017 -0.033838212 -0.017793879

fc2.bias f4 [64]
00000000: ecb3 a93e 2c0c e33f e29f 823d 49ca bd3f
00000010: 87fc 363f e506 b83e 3d27 ba3f 9f6e 893f
00000020: e237 823f 6d87 873d d855 a53d e4d3 933f
00000030: ad37 c93f 156c 6dbd 7062 7d3d 52fc c93e
00000040: 6409 bcbe bfd5 883e 5cb6 223f 0623 a53f
00000050: ba4f 1f3f 9817 853c c8be 293d 299b 9b3f
00000060: 30f2 803d 0e94 913d 0615 033d 2692 04bd
00000070: 7f89 253d cb43 e7bd 8352 3e3d de34 923d
00000080: d8bc 683d 1470 8e3f f606 78be d9b8 72bd
00000090: adf4 353d e38c e6bd 622b fdbd 7c4d 783d
000000a0: c121 7cbd 17ca a43c 91e4 55bd 54c9 c6bd
000000b0: f8fd 1c3c 044e 8f3d 30d6 f93f 5486 f5bd
000000c0: 3252 a23f 4d77 0e3e 3159 13be c519 893f
000000d0: aa5b 81bb 8282 1f3f e351 003d 6c94 8f3f
000000e0: 8c24 6d3f ef9d 263f c2f9 523f bc58 64bd
000000f0: 60ad 97bd 1c83 823f 96ec 26bf 6420 3dbd
0.33145082 1.773809 0.063781515 1.4827358 0.71479076 0.3594276 1.4543225 1.0736884
1.0173304 0.06617627 0.08073014 1.1549039 1.5720116 -0.057964403 0.061861455 0.39450318
-0.36725914 0.26725575 0.6355951 1.2901313 0.6223103 0.016246602 0.04144171 1.2156726
0.062961936 0.07108317 0.03200247 -0.03236594 0.04041433 -0.11292227 0.046465408 0.0713899
0.05682072 1.1127954 -0.24221405 -0.059258316 0.044422794 -0.11257341 -0.1236179 0.06062077
-0.061555628 0.020115895 -0.05221993 -0.09706369 0.009582035 0.06997302 1.951849 -0.11988512
1.2681334 0.13912697 -0.14389493 1.0710989 -0.003947695 0.62308514 0.031328093 1.121717
0.9263389 0.6508474 0.8241235 -0.055748686 -0.074061155 1.0196261 -0.6520475 -0.04617347

fc3.weight f4 [20, 64]
00000000: de15 ef3c 8f60 51be 64aa a73d d43a ea3d
00000010: 9570 503e becd a83d 81ac 93bc 0023 403e
00000020: 9565 783d 6dfa b73c 387c 6d3d 9fe7 893e
00000030: a32a ab3e 79a3 afbd b0af b2bd a6cd 473e
00000040: 49a9 423d 104b c13c d476 2a3e 8710 c73e
00000050: 374d 613b 3447 69bd bc61 e33d bd11 9f3e
00000060: acc2 5a3d b889 e0bc 2c6b af3b 22b6 60be
00000070: d8c4 683d cc2b de3c 14fe 0dbe 9e6d cabd
00000080: 6623 f0bc aa96 0a3e 4779 54bd aa5c 7abc
00000090: c9e9 af3d d253 f33d 1d3b eebd 080f 2fbd
000000a0: f8a9 d5bd 3ef9 8c3d 1944 c6bc 0018 3dba
000000b0: 02d2 953d d2c2 c0bd bbd6 603d 4ae8 013e
000000c0: 7768 583e deba 023e f8af d43c 695b 5d3e
000000d0: 4c60 d1bd 62b7 d43d 80ac ab3d 6fd1 653e
000000e0: 2588 5c3e 07d9 573e 25a1 753d 851c db3d
000000f0: 14c7 8a3d 8222 813e 6dc0 3c3b 156f 103d
00000100: dac6 d83d 06c3 34bd e140 c43d 946d 263e
00000110: e0db 933e 84c4 dc3d dfde bdbc 610d 443e
00000120: a28f 053e fc0c 85bd 383e d2bd 50e8 623e
00000130: 2a4e 843e 7dd2 3ebc 5084 5abd b1e4 c5bc
00000140: 21d3 2bbe 45ac 693b e373 093e 1171 ce3e
00000150: a2a9 bb3d 121e d2bd 0882 43bd 2425 5f3e
00000160: eab1 993c 6a9f e9bc f61e 253d 3a83 28be
00000170: 3bb5 833d 9ebc 3b3e 7bf8 c43d 8e66 99bd
00000180: fcb2 be3d a01f 333e 9310 b2bc d8f4 d3bd
00000190: 88c4 673d aad2 82bd 01d3 9cbc b312 e1bc
000001a0: 2438 d93d 724a a9bd ebb6 893d 15f4 e4bd
000001b0: 6b8d 6c3c 05f4 c83d 22af dcbd 4459 763d
000001c0: 81b0 633e 8ad2 bd3d 1803 4dbd 567d 033e
000001d0: 408d dfbd b363 123d d635 78bd 8ff1 433e
000001e0: f811 4e3e db06 7b3e 9621 c33d 0a48 933d
000001f0: f4bc 593d 7b54 803e 7bdc 37be f49a edbc
00000200: ea81 ce3d 2d9f 48be 18d1 713c 2095 863d
00000210: 3fd7 873e 5bc8 143e 0bea 01bd 1601 0b3e
00000220: a4a8 333e bb1c bd3d d6e3 c93d 7b43 783e
00000230: 2bbc 803e 0289 c5bd fc64 92bd 92dc 4c3e
00000240: 7e64 c33d 98ec a2bd 3e09 333e 06f6 ca3e
00000250: 0867 a0bd a2b3 dcbd 2655 e83d 787f 883e
00000260: 3ab2 603d 50e6 ebbc 0351 ebbd 5967 f33c
00000270: 6793 243c 2e63 be3d 331a b3bd 7039 653c
00000280: 9f71 1a3e b318 293e c796 ef3c c72b cebb
00000290: c988 9cbd 15fa e33d 8e28 2e3c cc59 2b3b
000002a0: 60da 113c 1c0c 1cbd 00ff f43b a63d f83b
000002b0: bca4 efbd 9002 4abd 4ce9 773c f477 b33d
000002c0: 4ddc 2e3e 6c98 bb3e 684a d43d d12c 113e
000002d0: 2ce3 983d 6ee7 3d3e ca2b d3bd 8f11 683e
000002e0: 7748 4f3e 8122 523e 439b 3abd b8a4 5c3d
000002f0: a467 d83d c6f3 6a3e 5e97 44be b834 b9bd
00000300: 3aa5 94bd b2d7 d9bd 381d 1d3b 9b32 0d3e
00000310: 2f2f 963e 1b39 4e3e 9ba0 c8bc 5e8e e23c
00000320: b3d7 513e 29df f3bb 22a5 ea3d faa9 683e
00000330: ffcc 833e 0814 27bd 2005 1b3d e340 bb3c
00000340: 1716 43be 4f2f ed3d 3607 4e3e 9dda b73e
00000350: 2e43 0c3d 60dd 0cbc be91 903d c7ab 8c3e
00000360: 9fee 9a3d 9c18 073d e062 b0bd f455 473d
00000370: e783 dcbd eaf9 6c3e 7202 603d 881c d6bd
00000380: 0f29 553d d8ef 813e 9771 113c c9c8 04be
00000390: 79a3 af3d 9498 293d dccb 50bd 2764 50bd
000003a0: 73d2 a0bd 90f8 953d 90e2 80bd 0035 2cbc
000003b0: c1b3 9cbd 8069 87ba cab9 c5bc a8d3 89bc
000003c0: 1a8e 233e 811e e43d fc2a 47bd ed52 f23d
000003d0: 6330 f53d 32a6 173e ca19 d7bd 7bfb 863e
000003e0: 89ff f73d 37fc 143e 32c2 ea3d 8afd d5bd
000003f0: 00ed 54ba af72 823e 9f80 0abf ea42 a73c
0.029185232 -0.2044699 0.08186796 0.11437002 0.20355447 0.08242367 -0.018026592 0.18763351
0.06064375 0.02245828 0.057979792 0.26934525 0.33430967 -0.08576102 -0.08724916 0.19512042
0.047524724 0.023595363 0.16646892 0.38879797 0.00343783 -0.05695267 0.11102626 0.3106822
0.05340831 -0.02740942 0.005353352 -0.21944478 0.05682835 0.027120493 -0.13866454 -0.09884189
-0.029313754 0.13534036 -0.05187347 -0.015280882 0.08589513 0.11881222 -0.11632369 -0.042738944
-0.104328096 0.06883477 -0.024202393 -0.0007213354 0.073154464 -0.09412159 0.054892283 0.12686267
0.211336 0.12766597 0.025962815 0.21616901 -0.10223445 0.1038654 0.08382511 0.22443174
0.2153631 0.21078883 0.059968133 0.10698799 0.067762524 0.2522164 0.0028801218 0.035262186
0.10584803 -0.0441313 0.09582687 0.16252738 0.2887869 0.1077967 -0.023177562 0.19145729
0.13043073 -0.06496617 -0.102657735 0.22158933 0.25840884 -0.011646864 -0.05334884 -0.0241569
-0.16779758 0.003565566 0.13423114 0.40320638 0.09163214 -0.10259642 -0.04773143 0.21791512
0.018761594 -0.028518397 0.04031273 -0.16456309 0.06431051 0.1833367 0.096177064 -0.07490264
0.09311482 0.17492533 -0.021736419 -0.103494346 0.05658391 -0.06387837 -0.019143583 -0.027474737
0.10606411 -0.082661524 0.06724342 -0.111793675 0.014438014 0.09812168 -0.107755914 0.060143724
0.222353 0.09268673 -0.05005178 0.1284078 -0.10915613 0.03573961 -0.060598217 0.19135116
0.20124042 0.24514334 0.095278904 0.07191475 0.053158715 0.25064453 -0.179552 -0.029004551
0.10083373 -0.1959197 0.0147593245 0.06571412 0.26531407 0.14529555 -0.03171734 0.13574633
0.175448 0.092339955 0.098579094 0.24244492 0.2514356 -0.09645273 -0.071481675 0.20006016
0.09540652 -0.07955283 0.17483994 0.39640826 -0.07832152 -0.1077645 0.11344366 0.2665975
0.05485747 -0.028796345 -0.11490061 0.029712366 0.010044909 0.09296261 -0.087452315 0.013990745
0.15082406 0.16513328 0.0292467 -0.0062918398 -0.07643277 0.11131684 0.010629786 0.0026146052
0.008902162 -0.038097486 0.0074766874 0.0075757084 -0.117013425 -0.04931885 0.015131306 0.087631136
0.17076226 0.36639726 0.10365754 0.14177252 0.074652046 0.18545315 -0.103110865 0.22662948
0.20242487 0.20520975 -0.045558225 0.053868026 0.10566643 0.22944555 -0.19198367 -0.090432584
-0.07258077 -0.10636844 0.0023973715 0.13788836 0.29332873 0.20138972 -0.024490645 0.027655777
0.20492439 -0.0074423742 0.11457278 0.22721091 0.25742337 -0.040790588 0.037846684 0.022858089
-0.19051395 0.11581289 0.20119938 0.35908976 0.034243755 -0.008597702 0.07059048 0.27474806
0.075650446 0.032982454 -0.08612609 0.048665956 -0.10767346 0.2314221 0.054689832 -0.10454661
0.05204111 0.253783 0.00887718 -0.12967218 0.08576102 0.041405275 -0.050975665 -0.050876763
-0.0785264 0.073228 -0.06293213 -0.010510683 -0.07651473 -0.0010331124 -0.024136443 -0.016824558
0.15972176 0.11138631 -0.048624977 0.11832223 0.1197212 0.14809492 -0.10502966 0.2636374
0.12109286 0.14549337 0.11462821 -0.10448749 -0.0008122474 0.25478122 -0.5410251 0.02041765

fc3.bias f4 [20]
00000000: bf34 5c3f 9396 203f 02a9 183f f6fa 2c3f
00000010: da64 a33e e27d 223f 7d6b 123f ce92 d43e
00000020: 7435 673e 0ae2 ae3e 625d 9e3d 1e56 863e
00000030: 2659 8cbd 1a50 88be 131b aabe 4a59 e3bd
00000040: ce51 35b9 40a9 a3be d73c dfbe f3f0 ebbe
0.86017984 0.6272976 0.59632885 0.67570436 0.3191288 0.6347333 0.57195264 0.41518253
0.22578984 0.3415683 0.07732655 0.26237577 -0.06852941 -0.26623613 -0.3322378 -0.11101015
-0.0001729198 -0.31965065 -0.43601105 -0.46082267

exp_avg f4 [64, 9]
00000000: 0000 0000 0000 0000 0000 0000 0000 0000
00000010: 0000 0000 0000 0000 0000 0000 0000 0000
00000020: 0000 0000 4794 683c c256 8abe 0826 83bf
00000030: a769 e5bd ef0a 87bc 7f20 c6be 7554 973d
00000040: a769 e5bd 5a6c c2c0 e987 c4b9 acb1 90be
00000050: 5204 3ebf 4935 dfbc 691b 81b9 14f1 73bf
00000060: 8e31 0bbe 4935 dfbc 0df8 d2bf 95e3 66c1
00000070: 5b8f 9c3f 874c 1643 c5cc 7741 c5f8 76c1
00000080: ddd1 49c1 545d 36c1 c5cc 7741 7ab9 c2c1
00000090: c548 09c0 8626 06c0 1e15 2cc1 dcf3 c0bf
000000a0: c548 09c0 3196 41c1 e876 f6bf dcf3 c0bf
000000b0: f756 2dc1 6336 d540 c8d8 6dbe 221b 4cc1
000000c0: b440 0ac0 7e1c df40 d805 0941 bd1a d43f
000000d0: b440 0ac0 afb9 d741 0000 0000 0000 0000
000000e0: 0000 0000 0000 0000 0000 0000 0000 0000
000000f0: 0000 0000 0000 0000 0000 0000 d33d 773f
00000100: d9d3 d73f a201 d6c0 fbcc 19c0 98cc 893f
00000110: 6261 0841 8ef9 6340 fbcc 19c0 f5fc 0942
00000120: c105 10be 0918 7fbd 9ef6 80bf 82c5 a53c
00000130: 8ae2 0bbe 3487 983d 83fb 89bd 82c5 a53c
00000140: 0d72 e0be ffe8 8140 0d0c 1c3e ece6 1cc1
00000150: a39c a4bf c0bd 8740 a295 0341 8529 b93f
00000160: a39c a4bf 6160 7c41 0000 0000 0000 0000
00000170: 0000 0000 0000 0000 0000 0000 0000 0000
00000180: 0000 0000 0000 0000 0000 0000 0400 0000
00000190: 0400 0000 0400 0000 0400 0000 0400 0000
000001a0: 0400 0000 0400 0000 0400 0000 0400 0000
000001b0: 0400 0000 0400 0000 0400 0000 0400 0000
000001c0: 0400 0000 0400 0000 0400 0000 0400 0000
000001d0: 0400 0000 0600 0000 0400 0000 0600 0000
000001e0: 0400 0000 0600 0000 0400 0000 0400 0000
000001f0: 0400 0000 8600 0000 c285 acbf 253e 1240
00000200: fa30 8841 10df ec3f 9d9f a4bf c565 7ebf
00000210: df50 093f 10df ec3f 753e c341 a459 02c1
00000220: 9080 2bbf abc4 1f41 652d fb40 35c5 0bc1
00000230: 3050 94c1 e7d4 9bbe 652d fb40 8845 c5c2
00000240: d09f 2ec0 f51a 2ac0 7b4e 15c2 9837 fbbf
00000250: d09f 2ec0 f079 2fc2 aa1e a9c0 9837 fbbf
00000260: 3d84 1bc2 7c37 82c0 8345 0ac0 c4f6 a2c1
00000270: 37bb 973f c3f7 84c0 0a64 f9c0 c5e8 f9bf
00000280: 37bb 973f af3b 6ac2 9e8d 2140 8914 113f
00000290: 9d08 0f3e cf1d 75bf d445 2a40 952d f440
000002a0: 96bc 873f cf1d 75bf b553 ce41 e434 15c0
000002b0: 3778 d83e 59a1 a6c1 2616 dbbf 9791 14c0
000002c0: 30a1 1fc1 98a7 0bbe 2616 dbbf 81b5 0dc1
000002d0: 0000 0000 0000 0000 0000 0000 0000 0000
000002e0: 0000 0000 0000 0000 0000 0000 0000 0000
000002f0: 0000 0000 c0c8 c840 8d32 0b3f 911b b8c0
00000300: d7eb d1bf 4b35 d140 d5e1 2841 3048 f23f
00000310: d7eb d1bf 2673 0d42 0400 0000 0400 0000
00000320: 0400 0000 0400 0000 0400 0000 0400 0000
00000330: 0400 0000 0400 0000 0400 0000 ceb0 4940
00000340: 36bb 1740 24bb ea41 7edf 0b40 16fa 4a40
00000350: 4ef0 c440 2adf dc3f 7edf 0b40 52f0 5342
00000360: f822 ec3f 733c 163e f648 5540 e78b 7fbc
00000370: 8da5 f43f ab9e 7940 76d4 5c3e e78b 7fbc
00000380: 058c 0841 0400 0000 0400 0000 0400 0000
00000390: 0400 0000 0400 0000 0400 0000 0400 0000
000003a0: 0400 0000 0400 0000 b01a 25c0 b038 f3bf
000003b0: 5bd0 efc1 df0b 33c0 b01a 25c0 fedb 06c2
000003c0: 34bb 75c0 df0b 33c0 53e4 e9c1 f43e 2bc0
000003d0: 74e6 21c0 ef93 22c2 ea2d 10c0 f43e 2bc0
000003e0: e407 41c2 376a b3c0 ea2d 10c0 4c2f 27c2
000003f0: 0400 0000 0400 0000 0400 0000 0400 0000
0.0 0.0 0.0 0.0 0.0 0.0 0.0 0.0
0.0 0.014195508 -0.27019316 -1.0245981 -0.11201792 -0.016484706 -0.38696668 0.07389156
-0.11201792 -6.0757265 -0.00037485294 -0.28260553 -0.7422534 -0.027247088 -0.0002462522 -0.9528973
-0.13593122 -0.027247088 -1.6481949 -14.430562 1.2231249 150.29893 15.487493 -15.435735
-12.613736 -11.397785 15.487493 -24.340565 -2.1450665 -2.0961013 -10.755156 -1.507442
-2.1450665 -12.099168 -1.9255037 -1.507442 -10.833732 6.662889 -0.23227227 -12.756624
-2.1601992 6.972228 8.563927 1.657066 -2.1601992 26.965666 0.0 0.0
0.0 0.0 0.0 0.0 0.0 0.0 0.0 0.9657871
1.6861526 -6.6876993 -2.403136 1.0765562 8.523775 3.5621066 -2.403136 34.49703
-0.14064695 -0.06227878 -1.0075262 0.02023578 -0.13660637 0.07447663 -0.06737425 0.02023578
-0.43837014 4.059692 0.15238972 -9.806377 -1.2860302 4.241913 8.224031 1.4465796
-1.2860302 15.77353 0.0 0.0 0.0 0.0 0.0 0.0
0.0 0.0 0.0 6e-45 6e-45 6e-45 6e-45 6e-45
6e-45 6e-45 6e-45 6e-45 6e-45 6e-45 6e-45 6e-45
6e-45 6e-45 6e-45 6e-45 6e-45 8e-45 6e-45 8e-45
6e-45 8e-45 6e-45 6e-45 6e-45 1.88e-43 -1.347832 2.285043
17.023914 1.8505573 -1.286121 -0.9937404 0.53639024 1.8505573 24.405497 -8.146885
-0.66993046 9.985515 7.8492913 -8.735646 -18.539154 -0.3043587 7.8492913 -98.6358
-2.7285042 -2.6578953 -37.32664 -1.9626341 -2.7285042 -43.86908 -5.284993 -1.9626341
-38.87914 -4.069273 -2.1604927 -20.370491 1.1854008 -4.1552444 -7.793462 -1.9524161
1.1854008 -58.558285 2.5242686 0.5667196 0.1396813 -0.9574861 2.660512 7.630564
1.0604427 -0.9574861 25.790873 -2.3313532 0.42279217 -20.828783 -1.7116134 -2.321386
-9.976852 -0.1363815 -1.7116134 -8.8568125 0.0 0.0 0.0 0.0
0.0 0.0 0.0 0.0 0.0 6.2745056 0.5437401 -5.753365
-1.6400098 6.5377555 10.555135 1.892828 -1.6400098 35.36245 6e-45 6e-45
6e-45 6e-45 6e-45 6e-45 6e-45 6e-45 6e-45 3.1514163
2.3708014 29.341377 2.1855159 3.171514 6.154334 1.7255604 2.1855159 52.984688
1.8448172 0.14671497 3.3325782 -0.01559732 1.9113022 3.9003093 0.21565422 -0.01559732
8.534184 6e-45 6e-45 6e-45 6e-45 6e-45 6e-45 6e-45
6e-45 6e-45 -2.5797539 -1.9001675 -29.976736 -2.7975996 -2.5797539 -33.714836
-3.839551 -2.7975996 -29.236486 -2.6757174 -2.5296907 -40.644466 -2.2528024 -2.6757174
-48.257706 -5.6067157 -2.2528024 -41.79619 6e-45 6e-45 6e-45 6e-45
