beer/models/dqn_agent_firm_1_episode_1000.pth (torch, 107368 bytes, 24 tensors)

fc1.weight f4 [64, 9]
00000000: e2e6 063e a05d c7bd b6c0 e0bd 2a48 013e
00000010: 32ee 413e c6a5 0dbe 2262 a0be 3e44 4c3e
00000020: f662 49be 2252 5cbd eb3a a8be 4f6b d73d
00000030: 2612 303f 28e9 9abe 7281 eebd 46c7 d0be
00000040: b257 2e3f 537f 7d3d 314e 3c3d 4f58 213f
00000050: 8441 ebbe d5b7 c43e 02b4 263e 2136 ae3d
00000060: a3bb 2cbe 9e80 613e 1d3f 8e3d 335c 003e
00000070: b815 eb3e c53a 3b3e 140f ea3d cd26 da3c
00000080: 5671 08c0 b79f 663e 44d8 d23d 6399 7b3d
00000090: d533 833c e1ba e83c c1f2 b3bd c576 283e
000000a0: f4d0 103e c086 e33e 43b1 e63e 607f 65be
000000b0: c8df 84be 0359 a33e 8ca3 503e 3f09 563e
000000c0: 61f9 a43e a383 22bd 1e3e 253f 856e 94be
000000d0: 5b5f a83e ee82 6f3c 7eb5 6a3e 30b6 9fbd
000000e0: 6bde 7ebe 2242 7e3e 4e66 373e 7248 a2be
000000f0: 00a0 4a3d 5ac9 86be 00ec 89bd 8daf c33e
00000100: 68b3 943f 9588 b3bc 494a df3d eb25 58bd
00000110: 078d 8dbe f7de 143f 6c41 b83e c90d 73bd
00000120: 0564 1ebd 9633 093e d849 8a3e e4eb 4fbe
00000130: 887e 7339 cc44 d7be dc6e 36bf 7bf8 7dbe
00000140: b718 85bd 7809 d7bc 57f6 3c3f d933 8f3e
00000150: 6b38 ac3d d4e6 263e 29a3 a23e 1beb 813d
00000160: 2027 e0bc fc85 593e 3cf6 b63d 2e2c 81be
00000170: 90df 21be 969e b5bd 759a 8b3e a095 febd
00000180: 9b4d 23be 10ec d83d 2417 a5be 389a 933d
00000190: 73bd 03bf 8d08 b6bd 0f8f 1fbf 7a6e 0abf
000001a0: fd70 053e 6205 06bf 5070 1f3d 00c8 503d
000001b0: 23ca 90be 2ae8 dcbe 43c2 c6bd 0937 2ebd
000001c0: 7f7c 503e 3f6a d83e 66f3 81bd 45c8 023f
000001d0: ca2c 08be 1361 833e 5fea 2dbe c284 48be
000001e0: da6d b9be 8998 da3d 07d0 b23d aa49 af3d
000001f0: 8965 4abf 03f1 753b 9bfb cfbc 86c3 a6be
00000200: 2c5f 113e 8c9b 9d3e cfa0 cbbc 89ab 9cbe
00000210: e769 d8bd 6cbc 3e3e e840 1bbd 9178 b03e
00000220: 4b53 3f3f 5a13 093e f679 aabe f60a 243e
00000230: 7fa0 cdbf 0cae 0c3e aa30 82bd 2644 5f3e
00000240: 3edc f03d 48c2 fc3e 6418 59be 5b38 aebe
00000250: 0d98 1e3e 15d1 053f 37d5 d73e 7201 01bd
00000260: 6f78 18be 6bc6 dfbe 960e 13bf cbfe c43d
00000270: a5bf 17bd 861e 4abe b595 8ebf baa8 f2be
00000280: b45c 033f a201 573e e202 813e 1cb5 a73e
00000290: 4203 003e 009d 013e 32f2 01be bc5f b7bd
000002a0: b916 eb3e 1e15 2d3e 0cfc 853e 5766 7e3e
000002b0: 713d b43e 1afa 373e 4365 273f c906 433d
000002c0: c11e f2be 8b9d e63e 7d61 cc3e b913 983a
000002d0: 2037 023d 0078 293e 00b2 f6bb 2079 2f3c
000002e0: fc57 93bd 70a6 8bbe 0508 8a3e 5b70 2ebe
000002f0: 5436 99bd 7b74 00be 2767 893e c180 1a3e
00000300: 8153 2cbe cacb 803e fa11 0e3f c7f8 c03e
00000310: ddb8 6f3e 5b6a 5f3e cb72 27be 7221 e13e
00000320: a34f d3be 09f0 b7be 6be1 e03e 89d1 a53e
00000330: e0c1 153e d5df cfbe 84bd 24bc 2728 b83e
00000340: d393 863d db31 68be 476b 9d3a b1b4 2a3e
00000350: 6a74 ee3e 060b a83e c4e2 68be 05d3 973d
00000360: 5021 243d 88e5 3e3e 9efc 64be dd1d 353d
00000370: 4b26 80be 3794 cc3e 4e4f 56bc e768 403d
00000380: 6aba 413e ec88 15be 878c 853e 4914 cb3d
00000390: d0d8 9ebe c136 b33c 66a1 803c 3edc 6fbe
000003a0: 8ecf 713c 159a b5be 1e55 80be 242b cf3e
000003b0: 4e9e 21be b88a 0f3f 5a85 653e e177 013f
000003c0: b729 08be a0e0 713d cb58 64be b892 8bbe
000003d0: eee8 4d3e 89eb 7bbe 2e9e 90be bf4f 273e
000003e0: 651e 033f 52bb 783e fc4b 9a3e 2cfd 0fbe
000003f0: 4b44 6e3d 3cb4 32bd 3e28 a3be e7a6 833e
0.13174012 -0.097346544 -0.10974257 0.12625185 0.1893852 -0.13832769 -0.3132487 0.19947907
-0.19666657 -0.053789265 -0.3285745 0.10518514 0.6877769 -0.3025601 -0.116457835 -0.40777034
0.6810256 0.061889004 0.045973007 0.63025373 -0.45948422 0.38421503 0.16279605 0.08506418
-0.16868453 0.2202172 0.06945632 0.12535171 0.45915008 0.18284138 0.11428657 0.02662983
-2.1319175 0.22521864 0.10295156 0.061425578 0.016015926 0.028409423 -0.08786536 0.16451557
0.1414221 0.44438744 0.45057115 -0.22411871 -0.25951982 0.31903848 0.20374888 0.20901965
0.3222151 -0.03967632 0.6454791 -0.2899057 0.3288525 0.014618618 0.22920796 -0.077984214
-0.24889533 0.24829915 0.1791012 -0.31695896 0.049468994 -0.26325494 -0.067344666 0.38219872
1.161725 -0.021915713 0.10902841 -0.052770536 -0.27646658 0.5815272 0.35987413 -0.05933932
-0.038669605 0.13398585 0.27009463 -0.20304829 0.00023221422 -0.42044675 -0.7126291 -0.24801819
-0.064988546 -0.026249632 0.73813385 0.27969244 0.084091984 0.16298991 0.31765106 0.06343671
-0.027362406 0.21242517 0.08933684 -0.2522902 -0.15807939 -0.088681385 0.2726628 -0.124308825
-0.15947573 0.105919 -0.32244217 0.07207149 -0.5146095 -0.0888835 -0.62327665 -0.54074824
0.13031383 -0.52351964 0.03892547 0.050971985 -0.28279218 -0.43145877 -0.09705021 -0.042532954
0.20359991 0.4226856 -0.06345253 0.5108684 -0.13298336 0.2566 -0.16983937 -0.19581893
-0.36216623 0.10673625 0.08731084 0.08558972 -0.7906118 0.0037527687 -0.02538853 -0.32571048
0.14196461 0.30782735 -0.024856953 -0.3059962 -0.10567074 0.18626565 -0.037903696 0.34466985
0.7473647 0.13386288 -0.33296174 0.16019806 -1.6064605 0.13738269 -0.06356938 0.2180334
0.11760758 0.49366975 -0.2120071 -0.3402737 0.1548769 0.5227216 0.42154858 -0.03149552
-0.14889692 -0.43706068 -0.5744413 0.096189104 -0.037048 -0.19738206 -1.1139437 -0.47394353
0.5131333 0.20996717 0.25197512 0.32755363 0.12501243 0.12657547 -0.12690046 -0.08953807
0.45915774 0.16902587 0.2616886 0.24843727 0.35203126 0.179665 0.6538889 0.047613893
-0.47289088 0.4504207 0.39918128 0.0011602557 0.031790853 0.16549683 -0.0075285435 0.010710031
-0.07194516 -0.2727542 0.26959243 -0.17035048 -0.074810654 -0.12544434 0.26836511 0.15088178
-0.16828729 0.2515548 0.5549618 0.37689802 0.23410363 0.21817915 -0.16352384 0.4397083
-0.41271695 -0.3592532 0.4392198 0.32386425 0.14624739 -0.40600458 -0.01005495 0.35968134
0.06571164 -0.22675268 0.001201012 0.16670491 0.46573192 0.3282091 -0.22742754 0.07413296
0.04007083 0.18642247 -0.22361991 0.044217933 -0.25029215 0.3995683 -0.013080431 0.046975043
0.18918768 -0.14603013 0.26083776 0.099159785 -0.3102479 0.021876695 0.01570196 -0.2342386
0.014758958 -0.35469118 -0.2506494 0.404626 -0.15783045 0.56071043 0.22414151 0.50573546
-0.13297163 0.05905211 -0.22299497 -0.27260375 0.20108387 -0.24601568 -0.28245682 0.16339014
0.51218253 0.24290207 0.30136096 -0.14061421 0.058170598 -0.043628916 -0.3186664 0.25713274

fc1.bias f4 [64]
00000000: 5511 a33e 4dac 8bbf ee35 9a3f 40b4 c43f
00000010: ceb4 17be 281d d0be 4381 873e 0ea7 3940
00000020: ccea 273f 2df9 4a3d 168e d1bd 3e3d 8bbf
00000030: 73e0 fbbe a33e 58bf 6a99 efbf c1e2 ac3f
00000040: 7567 14bf 9cc9 7dbe d0a8 133d d88d 83bf
00000050: ecd5 87be 24e5 003f 0285 033f 087d 503f
00000060: 9e0c 0fbe 861c 523e ed4f 98be e30b 0dbf
00000070: 6a11 0a3d d7a2 2abf 5a95 af3d f442 1dbf
00000080: 2e01 a93e ba01 1e3e 0db2 a3be 3595 d13f
00000090: 821b 32bd 5ac8 a1bf bb52 2e3f 616f af3d
000000a0: 66e3 093f 9c77 07be 376c c7be a83f 17be
000000b0: 31af ac3e 5c95 a33d fc9f 313e d985 b53f
000000c0: 546c 9dbf 2d92 173e b347 debd 143e 8c3e
000000d0: 701e dfbf c361 173f 21a5 6e3e e0cd 283c
000000e0: 32a2 1f3f 7e8d 5e3e 0456 b1bf 7741 c13d
000000f0: df81 4f3e 4c52 303f bce1 b63d f866 97bf
0.3184916 -1.0911957 1.2047708 1.5367508 -0.14815065 -0.40647244 0.26465806 2.9008212
0.65592647 0.04955404 -0.10232179 -1.0878065 -0.4919468 -0.84470576 -1.8718693 1.35067
-0.5797036 -0.24783939 0.036049664 -1.0277662 -0.26530397 0.5034964 0.5137483 0.8144078
-0.13969657 0.20518693 -0.2974848 -0.5509626 0.033708014 -0.66654724 0.085734084 -0.6143029
0.33008713 0.15430346 -0.3197178 1.6373659 -0.043483265 -1.2639267 0.68094987 0.08566166
0.5386261 -0.13229221 -0.3894975 -0.14770377 0.3372741 0.079874724 0.17346185 1.4181472
-1.2298684 0.14801855 -0.10853519 0.27391112 -1.7431164 0.5913355 0.23305179 0.010302991
0.62356865 0.21733662 -1.3854375 0.094363146 0.20264386 0.68875575 0.08929774 -1.1828299

fc2.weight f4 [64, 64]
00000000: 0ecd ebbd ed5d b2bb ff9d e63d 1703 893e
00000010: fdae 46be d119 773d 006a 9939 dbff cd3d
00000020: fa4d 25bd 8660 7ebd 780e 793d f7c7 27be
00000030: e5a0 273d 1a3d 943d 5c5b 493c 8385 43bd
00000040: f408 94bc cf9c 1dbe 23ec c1bd 372b b9bd
00000050: 80d1 60bb 9831 033d 754d c93d 8917 4f3d
00000060: d790 51bc b9f5 0c3c 37a9 d63d d9db 583c
00000070: 4cb6 09be 9a98 113d a9d2 a23d a6b1 7d3d
00000080: 0e01 7bbc 3abb 633c 5efc 8bbd fbc5 dbbd
00000090: e3ee e8bd 65ee 83bd 5bc9 fa3d 4849 afbc
000000a0: 47eb 9fbd 3169 e9bd 6a59 243d eceb 773c
000000b0: fbc4 07be c57a d2bd 74aa 963d cbab 1e3e
000000c0: fb3d de3d 6bee 40bd bca2 d7bd 7bfa 80bc
000000d0: ea50 6bbe 5090 bf3c ce95 57be e44e 583d
000000e0: 9fb7 5e3d 458d 6c3d 36c5 81be 3514 543d
000000f0: 77d0 0abe 76d1 0b3d 3a47 e53d 27de 163e
00000100: 1468 ff3d 3785 98be ff29 373d f388 633f
00000110: 77e2 87bd ca22 cabd c832 c9bd c17c 303e
00000120: e1b0 c83c cfbb 14be f880 a5bc af5b 35be
00000130: b3a6 39bd 9d47 b73d 4ed7 bfbd d493 d43e
00000140: 2378 533e b732 8ebe 4396 28bd ac40 9f3d
00000150: 043f f93d 6410 efbc 80c8 fdbd dd1c 083e
00000160: 7acb a8bc 0c47 2f3e 17d5 0b3e ec9d 323e
00000170: 30fa c93c ec0a cbbd 7f0f a33d be0d aabd
00000180: feb2 2fbe 7d65 d0bd 9b89 80be 57dd 0c3f
00000190: 5067 febd bb04 a73d 0a08 3abe 3def 81bd
000001a0: 425c e93d 6f88 dfbd 0e21 87bd 2c73 2e3d
000001b0: 1641 df39 da47 9fbc ed72 53be 23a5 cf3e
000001c0: 11bb 64be da8a 943a 22e5 e93d 9a98 6b3d
000001d0: ab0e 33be 5eb5 5b3d dc35 513e 4823 a53c
000001e0: 2ee8 4a3d 5a44 d6bd 981f 95be 0c2c a53d
000001f0: baea 943e 7bf7 90bd 5011 0f3d a926 1dbd
00000200: a0b0 603d 2ae6 a5bd ea0f e63d 188d 78bd
00000210: 0ca0 a63d e1c4 66bd 4000 1fbc fa1d eb3c
00000220: 4ee8 d7bd b595 aabd d6e1 9d3d 22ed b03d
00000230: 2c4a f2bd e542 a03c 94dd 72bd 7e24 84bd
00000240: 8390 ce3d a0ba 223c 24fe 68bd 38ae ba3c
00000250: 14e3 1cbd 00be 9a3d 9487 003e 9e9c 953d
00000260: 9694 c6bd c130 23bd b4c1 b03c 9efe 513d
00000270: f088 24bd a02f ad3d 884d af3d 7b3f 1c3c
00000280: 748e 1e3d 1125 d9bd 0cbb 69bd 16ea c8bd
00000290: d074 91bc 00da c8bb 404a 78bb 295a db3d
000002a0: 7d02 e13c 8c98 843d 1588 02bc 73e8 08bd
000002b0: 127d 7bbd 4ef4 cdbd 9f2a 553b daae c93c
000002c0: 6489 d4bd 0e98 7cbd fbba 303c a466 553d
000002d0: 1796 06be dfcc 6fbd 141d 053e 805a a0bb
000002e0: aebe 643d ea3e fdbd 88c7 9b3d 6094 783d
000002f0: bd35 c6bd e927 763d e889 ebbd fe0f 273c
00000300: 6c2c ed3d f9b3 333d fd98 62be 41ae 26bf
00000310: af16 7cbe f62e 253c 649c 3d3d 3ff0 b0bd
00000320: eea0 933c b884 7a3c f6e2 c43d e3da d03d
00000330: c39c 89be ef37 3a3d 5dba a2bd 8f8d f5be
00000340: 383c e9be bbaf 27be 9c12 623d bdf6 3dbd
00000350: cac9 d13d 249a fb3d 1b49 ec3d c511 33bd
00000360: 9ccc 7f3d d38b d93b df45 efbe 6c50 9fbe
00000370: 96fe 00be 2afa afbd a028 e43c 00d4 aabe
00000380: 20e4 c8bd 054f d5bd 03e8 4abd f943 d3be
00000390: 6307 6b3c 0734 09bd b77a 023d d6e9 8fbd
000003a0: 0fd9 2c3e 4ecd 1f3d 6288 f1bd fc2c 1ebe
000003b0: 014e b53d b494 873d bbfb dd3d 15c8 1cbd
000003c0: 8f16 6fbd c99f e5bd 35df 1a3e bc95 16bd
000003d0: 65b9 c3bc d0e2 043e 1ed1 8ebd b048 1a3d
000003e0: ad18 81bd b98e d43d 9c2d 18be 93de c73c
000003f0: 5a65 71be d39d 683d f099 0abd a2ec ee3c
-0.115137205 -0.0054433257 0.11260604 0.2676017 -0.1940269 0.060327355 0.0002926141 0.10058566
-0.040357567 -0.06210377 0.060804814 -0.16384874 0.040924925 0.07238217 0.012289848 -0.04773475
-0.018070675 -0.15391849 -0.09468868 -0.09041446 -0.003430456 0.03202972 0.09829227 0.050559554
-0.01279088 0.008603507 0.10481494 0.0132360095 -0.13448447 0.035545923 0.079503365 0.061936997
-0.015320076 0.013899619 -0.068352446 -0.10731121 -0.11373689 -0.064419545 0.12245437 -0.021397248
-0.078085475 -0.11397017 0.040124334 0.015131932 -0.13258736 -0.10277323 0.0735673 0.15495221
0.108516656 -0.047102373 -0.10529086 -0.015744438 -0.22980085 0.023384243 -0.2105324 0.05280961
0.054374333 0.057751913 -0.25345773 0.051777083 -0.13556086 0.034135304 0.11195226 0.14733182
0.12471023 -0.29789135 0.044717785 0.8888084 -0.066349916 -0.09869917 -0.09824139 0.1723509
0.024498405 -0.14524768 -0.020203099 -0.17710756 -0.045324992 0.08949206 -0.09367238 0.41519034
0.20651297 -0.27773067 -0.041158926 0.07776007 0.121702224 -0.02918262 -0.12391758 0.1329226
-0.020604838 0.17116946 0.13655506 0.17443055 0.024655432 -0.099141926 0.0796194 -0.08303402
-0.17158124 -0.10175607 -0.25104985 0.5502524 -0.12422049 0.08155199 -0.18167129 -0.06344459
0.1139455 -0.109146945 -0.065981016 0.042590305 0.00042582367 -0.019443441 -0.2064931 0.40555677
-0.22336985 0.0011332885 0.11420657 0.05751858 -0.17486064 0.053639762 0.20430702 0.020158425
0.04953783 -0.10462256 -0.29125667 0.08065042 0.29085332 -0.07078453 0.03492862 -0.038366947
0.054855943 -0.08100541 0.11233504 -0.060681432 0.08135995 -0.056340102 -0.009704649 0.028700817
-0.105423555 -0.083293356 0.077090904 0.086389795 -0.118305534 0.019563148 -0.059293345 -0.06452273
0.10086157 0.00993219 -0.056882992 0.022788152 -0.038302496 0.07555771 0.12551719 0.07305263
-0.09696309 -0.039841417 0.02157674 0.051268212 -0.040169656 0.084563494 0.0855971 0.009536619
0.038710073 -0.10602773 -0.057063147 -0.09810273 -0.017755896 -0.0061295033 -0.0037886053 0.10710556
0.027467007 0.064744085 -0.007967015 -0.033424806 -0.061398573 -0.10056363 0.0032526625 0.024619509
-0.10377768 -0.06166845 0.010786767 0.05209984 -0.13143192 -0.05854499 0.12999374 -0.004893601
0.05584591 -0.123655155 0.07606417 0.060688376 -0.096782185 0.060096655 -0.11500913 0.010196684
0.115807384 0.043872807 -0.22128673 -0.6510964 -0.24618028 0.010081997 0.046291724 -0.08639573
0.018021073 0.015290432 0.09613602 0.10197999 -0.26877412 0.0454635 -0.07945702 -0.47959563
-0.45553756 -0.1637563 0.05519353 -0.046377886 0.10243566 0.12285259 0.11537381 -0.04371812
0.06245099 0.006638983 -0.46732995 -0.31116045 -0.12597117 -0.08592637 0.027851403 -0.33364868
-0.098091364 -0.104154624 -0.04953767 -0.41262797 0.014345023 -0.033496883 0.03185531 -0.070270225
0.16879676 0.039014153 -0.11793591 -0.15446848 0.08852769 0.0662016 0.108390294 -0.03827675
-0.058371123 -0.11212117 0.15124209 -0.03676389 -0.023892114 0.12977147 -0.0697348 0.037666976
-0.06303535 0.10378785 -0.14861149 0.024398124 -0.23573819 0.056791138 -0.033838212 0.02916557

fc2.bias f4 [64]
00000000: b4b6 a93e 25c2 c73f 4a9e 823d ce6a 3e3f
00000010: dd00 dbbc 8bd2 9dbe ce27 933f 6ff1 333f
00000020: 9f04 1c3f a883 873d d855 a53d 88b6 893f
00000030: 3e1d 893f b96d 6dbd 7062 7d3d 37b5 de3e
00000040: f089 aebe 44d2 883e 0b35 69bd cd42 3f3f
00000050: b2d5 203f 9817 853c c8be 293d 02a3 0e3f
00000060: 7aee 803d 2491 913d d6ee 543d bc93 04bd
00000070: 9988 253d 11dc efbd 9b4d 3e3d de34 923d
00000080: 25b9 683d 8b86 113f bc06 78be 25fe 57bd
00000090: 66f1 353d ee29 a8bd 722c fdbd ebf4 bc3d
000000a0: 0522 7cbd afc8 a43c bae5 55bd a8ca c6bd
000000b0: 08fb 1c3c 8a4d 8f3d c9c8 f43f b885 f5bd
000000c0: 220f 1d3f fbc7 3f3e 795a 13be 1d89 c73e
000000d0: e15d 81bb 877f 1f3f 6c9f 803d 89f6 e23e
000000e0: 22b1 763e a2bc cbbd 87fb 493f bc58 64bd
000000f0: 4cc2 5cbd 671e 9e3e 61f4 17bf 9f23 3dbd
0.33147204 1.5606123 0.063778475 0.7438172 -0.02673381 -0.30824694 1.1496522 0.70290273
0.6094455 0.06616908 0.08073014 1.0758829 1.0712049 -0.057965968 0.061861455 0.4349763
-0.34089613 0.2672292 -0.05693535 0.74711305 0.62826073 0.016246602 0.04144171 0.5571748
0.06295486 0.071077615 0.051985584 -0.032367453 0.040413473 -0.11711896 0.04646073 0.0713899
0.056817193 0.5684592 -0.24221319 -0.052732605 0.04441967 -0.082111225 -0.12361993 0.09226402
-0.06155588 0.020115225 -0.052221037 -0.09706622 0.009581335 0.06997211 1.9123775 -0.119883955
0.61351216 0.1872863 -0.14389981 0.38971797 -0.003947959 0.62303966 0.06280407 0.44328716
0.24091008 -0.09948088 0.78899425 -0.055748686 -0.053896233 0.3088257 -0.5935727 -0.04617655

fc3.weight f4 [20, 64]
00000000: 8915 ef3c 0bc3 bebd 64aa a73d b1da 063e
00000010: db08 273e 0f29 703d d97b 14be c9b9 2f3e
00000020: 0c04 3c3d 1212 b83c 387c 6d3d 048b 6c3e
00000030: 541a 943e fca2 afbd b0af b2bd f0ce 623e
00000040: 8768 b8bc ac4d c13c 82c2 273e 5850 a73e
00000050: 7533 83ba 3447 69bd 8a61 e33d de2a 923e
00000060: a8be 5a3d b889 e0bc b277 af3b c3b8 60be
00000070: d8c4 683d 147b cebb b4ff 0dbe 9e6d cabd
00000080: c420 f0bc 0137 403e 3975 54bd 4067 b8bc
00000090: 52ea af3d c756 f33d c138 eebd 5911 2fbd
000000a0: e2a6 d5bd 3ef9 8c3d 013e c6bc 0018 3dba
000000b0: dbd0 953d d2c2 c0bd 2f05 493d a7e9 013e
000000c0: 6af3 6e3e ba9d f93d b9b1 d43c 0e7b 493e
000000d0: e95b d1bd d1bb d43d 80ac ab3d 95d5 5c3e
000000e0: 1028 4a3e 7c12 373e 96dd ab3d ee1b db3d
000000f0: 14c7 8a3d 60e0 663e 2519 e3bd d46d 103d
00000100: 4fc2 d83d 3e0d 3e3d 533e c43d 1adb 373e
00000110: 7f87 923e c8f1 ea3d 158d cabd 3cdf 573e
00000120: 64f0 823e 740a 85bd 383e d2bd d907 453e
00000130: ece6 5a3e e6cf 3ebc 5084 5abd 37c0 deb9
00000140: afec 43be 4f0a 693b b97b ef3d c65e ab3e
00000150: f8a7 bb3d 121e d2bd 0882 43bd c83b 523e
00000160: 57b2 993c 489f e9bc 5143 423c 6481 28be
00000170: 7cb4 833d 0010 32bd 30fa c43d 8e66 99bd
00000180: efae be3d 87d1 393e 0412 b2bc d8f9 d3bd
00000190: 88c4 673d 83d0 82bd 99d4 9cbc fa0e e1bc
000001a0: b738 d93d a348 a9bd 39b8 893d 76f2 e4bd
000001b0: cf89 6c3c 76ef c83d 479c 10bd 2c59 763d
000001c0: 9e22 e13d 3b2a 313e e600 4dbd 92e6 c73d
000001d0: 6a89 dfbd da45 123d 4c35 78bd 4aba 123e
000001e0: 50da 283e 1a1c 7e3e dfd9 083e 0a48 933d
000001f0: b8bc 593d 123d 6c3e 949e ffbd d897 edbc
00000200: 387e ce3d b017 14be 89cf 713c 50c4 2c3e
00000210: 48da 7c3e edde 3c3e c4ce aabd f50e da3d
00000220: 18fa 8f3e 6e18 bd3d d6e3 c93d b591 333e
00000230: c02f 333e 0f86 c5bd fc64 92bd ab8b d5bc
00000240: 0ad6 a6be d9f0 a2bd abfc 283e 8a7e 9b3e
00000250: 6c75 9bbd a2b3 dcbd 2655 e83d bdfe 5d3e
00000260: d7b4 603d 50e6 ebbc 9250 ebbd ad65 f33c
00000270: 2096 243c 3e0e c0bc a916 b3bd 7039 653c
00000280: 4d73 1a3e fca8 043e cc97 ef3c b425 cebb
00000290: 5a89 9cbd bffc e33d ee25 2e3c f255 2b3b
000002a0: 5cda 113c 1c0c 1cbd 030c f53b 1040 f83b
000002b0: bca4 efbd 9002 4abd bbc5 b33a ef78 b33d
000002c0: bcf6 143e 152d d93e 054c d43d d7cd f53d
000002d0: d1de 983d f6e9 3d3e ca2b d3bd 8503 4f3e
000002e0: 3261 393e bed5 433e 6b0d b63d b8a4 5c3d
000002f0: a467 d83d 996f 523e d01c 0dbf 0d33 b9bd
00000300: eca5 94bd 78c8 bc3c 141b 1d3b 426b 603e
00000310: 880a 8c3e cd45 4c3e 1324 13bc 2eb6 883d
00000320: 5d1f 5c3e dda8 f3bb e0a4 ea3d 955f 963d
00000330: 8032 563e 9c11 27bd 2005 1b3d 1604 ba3c
00000340: 783f 4bbe 0232 ed3d ee79 1b3e d185 ad3e
00000350: 4239 0c3d 60dd 0cbc be91 903d e9d8 863e
00000360: 11f1 9a3d 9c18 073d 6d5e b0bd 4d54 473d
00000370: 6483 dcbd effa 803e b804 603d 881c d6bd
00000380: 7e25 553d 4299 1a3e c276 113c c8c4 04be
00000390: f2a2 af3d 8c9a 293d 24c8 50bd 7061 50bd
000003a0: 66d1 a0bd 90f8 953d 26e1 80bd 0035 2cbc
000003b0: 98b5 9cbd 8069 87ba 65e9 edbc 79d0 89bc
000003c0: 5cf9 243e c8cd 8a3d 0729 47bd de02 103e
000003d0: 5e31 f53d 8ea0 173e ca19 d7bd 4edd 843e
000003e0: 66dd e83d 1853 e33d 42ea b83d 8afd d5bd
000003f0: 00ed 54ba b2e2 713e e32f fabd 3c45 a73c
0.029185073 -0.09314545 0.08186796 0.13169362 0.16311972 0.058632907 -0.14500369 0.17160715
0.045902297 0.022469554 0.057979792 0.23099905 0.28926337 -0.08576009 -0.08724916 0.22149253
-0.02251078 0.023596607 0.16382793 0.32678485 -0.0010009842 -0.05695267 0.111025885 0.2854833
0.05340448 -0.02740942 0.005354845 -0.21945481 0.05682835 -0.006301293 -0.13867074 -0.09884189
-0.029312499 0.18770982 -0.051869605 -0.022510171 0.08589615 0.11881786 -0.11631919 -0.042741153
-0.10432221 0.06883477 -0.024199488 -0.0007213354 0.07315227 -0.09412159 0.04907721 0.12686788
0.23335043 0.12188287 0.025963651 0.19675848 -0.102226086 0.10387386 0.08382511 0.2156585
0.19741845 0.17878145 0.083918735 0.106986865 0.067762524 0.2254653 -0.1108878 0.03526099
0.105839364 0.046399347 0.095822 0.17954674 0.28619 0.11471897 -0.098901905 0.21081251
0.25574028 -0.064961344 -0.102657735 0.19241275 0.21377152 -0.011646247 -0.05334884 -0.0004248635
-0.19133256 0.0035559123 0.1169352 0.33470744 0.09162897 -0.10259642 -0.04773143 0.20530617
0.018761797 -0.028518334 0.01185687 -0.16455609 0.06430909 -0.04347229 0.09618032 -0.07490264
0.0931071 0.18146335 -0.021737106 -0.10350388 0.05658391 -0.06387427 -0.019144343 -0.027472962
0.106065206 -0.082658075 0.06724591 -0.11179058 0.014437153 0.098112985 -0.035305288 0.060143635
0.10992931 0.17301266 -0.050049685 0.09760775 -0.109148815 0.035711147 -0.060597703 0.14328876
0.1648953 0.24815407 0.13364361 0.07191475 0.05315849 0.23070171 -0.12481418 -0.029003069
0.10082668 -0.14462161 0.014758953 0.16871762 0.24692643 0.18444414 -0.08340219 0.10647384
0.28120494 0.09233175 0.098579094 0.17536052 0.17498684 -0.0964471 -0.071481675 -0.026067575
-0.32585174 -0.07956094 0.16502635 0.3036998 -0.07590756 -0.1077645 0.11344366 0.21679206
0.054859962 -0.028796345 -0.11489977 0.029711569 0.010045558 -0.023444291 -0.087445565 0.013990745
0.15083046 0.12955087 0.029247187 -0.0062911157 -0.07643385 0.11132192 0.01062916 0.0026143757
0.008902159 -0.038097486 0.0074782385 0.007575996 -0.117013425 -0.04931885 0.0013715544 0.087633006
0.14547247 0.42417207 0.10366062 0.120021515 0.07464374 0.1854628 -0.103110865 0.20216186
0.18103483 0.19124505 0.08889278 0.053868026 0.10566643 0.20550384 -0.5512209 -0.0904294
-0.072582096 0.02304481 0.0023972439 0.21915916 0.27351785 0.19948502 -0.008980769 0.06675373
0.21496339 -0.0074359016 0.11457229 0.073424496 0.20917702 -0.040788278 0.037846684 0.022707026
-0.1984843 0.11581804 0.15183231 0.33891156 0.034234293 -0.008597702 0.07059048 0.26337364
0.07565511 0.032982454 -0.0861176 0.04866438 -0.10767248 0.25191447 0.054692 -0.10454661
0.05203771 0.15097526 0.008878412 -0.12965691 0.08576001 0.041407153 -0.05097212 -0.050874174
-0.078524396 0.073228 -0.06292944 -0.010510683 -0.07651824 -0.0010331124 -0.029041955 -0.01682304
0.16110748 0.06777531 -0.04862311 0.14063594 0.11972307 0.1480734 -0.10502966 0.25950092
0.113703534 0.11099833 0.09029056 -0.10448749 -0.0008122474 0.23621634 -0.12216165 0.020418756

fc3.bias f4 [20]
00000000: c884 1e3f dd8a ea3e 33cd a03e b9e0 a03e
00000010: ead4 27bd c3d0 ae3e 647d 9f3e 7740 b73d
00000020: 1ff9 b63c c315 30bd f439 39be ee42 0cbc
00000030: 151e c5be d91e e9be 6cdb 04bf f3c9 b1be
00000040: e21c debd 3ee0 09bf 9dd6 14bf 3e55 20bf
0.6192136 0.4580907 0.31406555 0.3142145 -0.040974535 0.34143648 0.31150353 0.089478426
0.022335587 -0.042989504 -0.18088514 -0.008560879 -0.38499513 -0.45531347 -0.5189731 -0.34724388
-0.10845353 -0.5385779 -0.58139974 -0.6263007

fc1.weight f4 [64, 9]
00000000: e2e6 063e c55d c7bd b6c0 e0bd 2a48 013e
00000010: 32ee 413e c6a5 0dbe 2262 a0be 3e44 4c3e
00000020: f662 49be af09 6fbd 4dcc 8ebe f08a ef3d
00000030: 3e61 2b3f 04b2 93be d3a2 e1bd 33e7 bbbe
00000040: 78ab 293f b6bd ab3d 7838 ad3d 8d2c 2a3f
00000050: 2442 d2be aed0 ab3e 2f03 633e 8326 073e
00000060: 865d 98bd ddb3 2f3e 0b5e a33d bb9c 193e
00000070: 30b5 eb3e 6868 303e 9859 d73d 90c9 0c3d
00000080: 2233 08c0 a176 603e 391e c03d 5b71 5c3d
00000090: 36c6 043d fa8c 2ebd dbde a8bd 6039 253e
000000a0: 899c 213e bcfa de3e 7b1e f53e c9e1 68be
000000b0: 5d96 61be 196f 9a3e 00f4 553e 0f67 543e
000000c0: 8070 a73e b7c5 48bd e5c7 1e3f ceaa 93be
000000d0: 5ad6 aa3e bcfc 5b3c 7eb5 6a3e 30b6 9fbd
000000e0: 6bde 7ebe 2242 7e3e 4e66 373e 7248 a2be
000000f0: 00a0 4a3d 5ac9 86be 00ec 89bd 9580 ca3e
00000100: 7b15 903f b64f 1dbc accb df3d d797 5ebd
00000110: 5bcc 87be 3588 0c3f 0b64 b83e cc04 7fbd
00000120: 72dd 693d 91cf 233e 75ad 983e 55d3 4dbe
00000130: 7995 c43d 8c05 cabe 4401 1dbf 2ed1 7bbe
00000140: 8c75 5abd 041e d6bc 9032 413f 656e 913e
00000150: 016c b73d 3847 2c3e 6327 973e 9d31 873d
00000160: a331 b3bc e42c 5d3e 7ff6 b63d 2e2c 81be
00000170: fddf 21be be9e b5bd 759a 8b3e a095 febd
00000180: 9b4d 23be 10ec d83d 2417 a5be 5d41 b63d
00000190: 5925 efbe 0cac babd 9ed7 1fbf b656 05bf
000001a0: 5745 083e 69ef d4be 39f1 1a3d 36ee 9c3d
000001b0: 52fe 96be 160e 00bf 7f48 dabd fbe3 9cbd
000001c0: 6adf 433e 85b2 d33e 4b21 8abd a614 f43e
000001d0: d315 bdbd 8b26 953e 670b 13be 0c67 34be
000001e0: 40c4 93be 10bb 023e c917 d73d af4b ed3d
000001f0: bc8f 37bf a57e 323d 871d 37bd 195e bbbe
00000200: 2b2d 333e 7bc0 963e d8da 4c39 5714 91be
00000210: 85a0 19be 5314 313e 251a 12bb c0ad ac3e
00000220: b010 3e3f 0e14 cc3d 650d a3be 5e4f 013e
00000230: fb6b d1bf a1a5 cd3d 2df8 48bd 1833 4d3e
00000240: 49cc 0b3e 6fda e53e 8c4b 4ebe cda7 a3be
00000250: d9f5 313e d042 063f 1aac d13e 63c4 31bc
00000260: ae42 ffbd 73cd dfbe 63b3 12bf 78e3 883d
00000270: 36d1 b2bc b921 53be 3a89 87bf 50fd f7be
00000280: a042 073f 32a7 5a3e ef6a 813e 00f9 ac3e
00000290: 36e8 033e c415 013e 0167 f4bd c312 e2bd
000002a0: f6de e63e 8ca2 2c3e 8098 893e 606d 423e
000002b0: 7882 883e 845a 193e 7311 263f 472c 01bc
000002c0: 78cc f6be bc4a b93e 16bf c93e 29b0 d33b
000002d0: 2037 023d 0078 293e 00b2 f6bb 2079 2f3c
000002e0: fc57 93bd 70a6 8bbe 0508 8a3e 5b70 2ebe
000002f0: 5436 99bd 353c 07be 72d1 8d3e e7f9 1a3e
00000300: 7168 2dbe 4e03 813e 6d23 073f ebf0 c03e
00000310: bfab 6e3e 7570 5f3e e574 6fbe c58e db3e
00000320: 049c ddbe 3580 a2be 7295 b83e 992d 833e
00000330: 96e4 023e 166d babe 47f9 d83c 8402 b63e
00000340: 6c1e df3d 2b88 73be aea5 1dbd 1ae6 1e3e
00000350: 6eb4 ea3e 91b7 ab3e 1dc7 88be c479 ab3d
00000360: a9fb 103d f3c0 563e b3a9 55be 3d3d 533d
00000370: a268 81be ae1d bf3e dca2 47bc 4b7e 5e3d
00000380: cfe2 4f3e 9033 0dbe d2b4 893e 9f9f db3d
00000390: 6c24 9bbe d8f1 f53c 9542 c03c b55d 67be
000003a0: 6a8a b43c 8a45 b1be d6fb 8bbe 80ba ba3e
000003b0: f7ef 22be 2d43 0a3f 9734 4e3e 72d1 003f
000003c0: a703 e1bd c043 1d3d fec6 32be 42fd 77be
000003d0: 5211 163e fecc 80be 32e4 8cbe 9688 453e
000003e0: 5876 ff3e 2ce7 613e b300 9e3e bd0a eebd
000003f0: 339b 6e3d 353c 32bd cc20 a3be 2eb5 833e
0.13174012 -0.09734682 -0.10974257 0.12625185 0.1893852 -0.13832769 -0.3132487 0.19947907
-0.19666657 -0.058358844 -0.27890244 0.11696422 0.66945255 -0.28846753 -0.110173844 -0.36699829
0.66277266 0.08385794 0.08458036 0.6647423 -0.41066086 0.33557647 0.22169183 0.13198285
-0.07439713 0.17158456 0.07976922 0.15001194 0.46036673 0.17227328 0.105151355 0.034371912
-2.128121 0.21920253 0.093807645 0.05381904 0.03241559 -0.042614914 -0.08245631 0.16135168
0.1578237 0.4355067 0.47874817 -0.2274238 -0.22030015 0.30162886 0.2089386 0.20742439
0.32703018 -0.04901668 0.62023765 -0.2884125 0.33366662 0.013426956 0.22920796 -0.077984214
-0.24889533 0.24829915 0.1791012 -0.31695896 0.049468994 -0.26325494 -0.067344666 0.39551225
1.1256555 -0.009601524 0.10927519 -0.054344025 -0.26523098 0.54895335 0.36013827 -0.062260434
0.057095952 0.15997149 0.29819837 -0.20100148 0.09598822 -0.39457357 -0.61330056 -0.24591514
-0.053334758 -0.02613736 0.7546778 0.28404537 0.08956147 0.16824043 0.29522237 0.0660126
-0.021874255 0.21599156 0.08933734 -0.2522902 -0.15808101 -0.08868168 0.2726628 -0.124308825
-0.15947573 0.105919 -0.32244217 0.08899186 -0.46708182 -0.091148466 -0.6243838 -0.52085435
0.13307701 -0.41588905 0.037827704 0.07662623 -0.29490906 -0.50021493 -0.10658359 -0.07660671
0.19128194 0.41347137 -0.067446314 0.47672004 -0.09232678 0.29130968 -0.14359818 -0.17617434
-0.28860664 0.12766671 0.105025835 0.11586701 -0.71703696 0.04357781 -0.044705894 -0.36595228
0.17497699 0.29443726 0.00019536482 -0.2833583 -0.1500264 0.1729291 -0.0022293415 0.3372631
0.74244213 0.09964763 -0.31846157 0.12627932 -1.6361078 0.10041357 -0.049064804 0.20039022
0.13652147 0.44893214 -0.20146006 -0.3196396 0.1737894 0.524457 0.40951616 -0.010850045
-0.1246389 -0.43711433 -0.5730497 0.06684011 -0.021828275 -0.20618333 -1.0588753 -0.4843545
0.52836037 0.21352842 0.25276896 0.33783722 0.1288155 0.12605959 -0.11933709 -0.11038735
0.4509198 0.16858882 0.2687416 0.18987036 0.2666204 0.14975935 0.64870375 -0.007884092
-0.48202872 0.3618983 0.394036 0.006460209 0.031790853 0.16549683 -0.0075285435 0.010710031
-0.07194516 -0.2727542 0.26959243 -0.17035048 -0.074810654 -0.13206561 0.27698857 0.15134393
-0.16934372 0.25197834 0.5278843 0.37683806 0.23307703 0.21820243 -0.23384435 0.42882362
-0.43283093 -0.3173844 0.36051518 0.25620726 0.12782511 -0.3641135 0.026486052 0.35548794
0.108944744 -0.23782413 -0.038488083 0.15517464 0.45840782 0.33538488 -0.2671441 0.08372834
0.03539625 0.20972042 -0.20865516 0.051572073 -0.2527514 0.3732733 -0.012184825 0.05431966
0.20301364 -0.13789201 0.26895767 0.10723805 -0.30301225 0.030022547 0.023469249 -0.2259434
0.022038657 -0.34623367 -0.27340573 0.36470413 -0.15911852 0.5400875 0.20137249 0.5031959
-0.10987025 0.03839469 -0.17458722 -0.24217704 0.14655045 -0.25156397 -0.2751785 0.19290385
0.49894977 0.22060841 0.30859908 -0.11623142 0.05825348 -0.04351445 -0.3186096 0.25724167

fc1.bias f4 [64]
00000000: 5511 a33e bd92 8cbf 8476 9f3f dd9f bf3f
00000010: ad9f 06be dd8b e9be 4381 873e 1d49 3240
00000020: 60f8 353f 05e4 853b 168e d1bd 2279 8abf
00000030: 910a f3be 9512 4bbf 42a8 dfbf 121a ad3f
00000040: b61b 0ebf 6af2 41be ebd9 68bc da80 70bf
00000050: ecd5 87be d82c e73e 16d2 f83e fc11 433f
00000060: 5439 36be a31c 5a3e 7386 8dbe ff0d 0abf
00000070: 0e85 0a3d e3fd 13bf 24c3 d73d eccf 11bf
00000080: b20d ae3e 56ff 2a3e a6f0 b8be 3250 c53f
00000090: a994 31bd e917 9ebf 319a 333f b9dc b03d
000000a0: 60e4 f33e 10d2 37be 7cc2 b8be d0d1 09be
000000b0: 30b2 8e3e dc8a ea3c 5d1a 023e 0874 b83f
000000c0: 3b39 9abf 018d da3d d3ee 22be 8438 673e
000000d0: 2ec7 d3bf 3b78 073f 5bfb 8a3e e0cd 283c
000000e0: a4ff 0f3f a81d 253e 2035 a7bf 0fb9 183d
000000f0: 2803 463e e3fa 1f3f bce1 b63d a2e0 90bf
0.3184916 -1.0982281 1.2458043 1.4970661 -0.13146849 -0.4561452 0.26465806 2.7857125
0.71082115 0.00408602 -0.10232179 -1.0818217 -0.47469 -0.7932523 -1.7473223 1.3523581
-0.55511034 -0.1894013 -0.014212112 -0.9394661 -0.26530397 0.451514 0.48597783 0.76199317
-0.17795306 0.21299987 -0.2764164 -0.53927606 0.033818297 -0.57809275 0.10535267 -0.5695789
0.33994824 0.16698965 -0.361211 1.5415099 -0.043354664 -1.2351047 0.7015715 0.086358495
0.47635174 -0.17951226 -0.3608588 -0.13458943 0.2787032 0.028630666 0.1270537 1.441041
-1.2048715 0.106714256 -0.15911417 0.22580153 -1.654516 0.5291783 0.27144894 0.010302991
0.5624945 0.16124594 -1.3063087 0.03728586 0.19337142 0.624922 0.08929774 -1.1318552

fc2.weight f4 [64, 64]
00000000: 0ecd ebbd 90f4 89bb 044b e73d 96ce 883e
00000010: afa9 44be 2efd 7b3d 006a 9939 897e ce3d
00000020: 06e2 1ebd 66dd 78bd 780e 793d 32e4 26be
00000030: 8300 2f3d 785e 953d beb8 543c 6a42 41bd
00000040: 8dec 92bc 69c3 1cbe 9d65 bfbd a5b7 b7bd
00000050: 80d1 60bb 00bb 083d 7e3d c93d a767 513d
00000060: fa8b 42bc cd54 0d3c a2fa d93d bc5a 633c
00000070: f1a4 09be 9c8b 133d 1e2d a63d 75ee 803d
00000080: 337f 79bc 925a 763c 3a4c 89bd 3414 dbbd
00000090: 09cd e8bd d48e 83bd 787e fd3d 3a0f b3bc
000000a0: d05b 9dbd 3bd5 e7bd 9956 263d 15a8 853c
000000b0: c763 06be d3a8 cfbd d146 a03d a14e 1f3e
000000c0: f8a6 da3d 7f61 3cbd fa4f d5bd 477a 6ebc
000000d0: cb01 6abe 8e5f cb3c 6f5a 54be e44e 583d
000000e0: 5d21 683d 83fd 713d bc2c 81be b218 573d
000000f0: cae8 07be 44b3 113d 3a47 e53d b5c8 163e
00000100: 1468 ff3d 849f 8bbe be95 883d e479 5a3f
00000110: 4a6c 9ebd 7716 b5bd c832 c9bd eebe 473e
00000120: c18a 4e3c 7fa3 09be f880 a5bc de9a 2fbe
00000130: 6bcb 4bbd 155b a83d 9c71 aebd e6d2 cd3e
00000140: bafe 3d3e 0b8f 8bbe 81b5 0bbd 6513 9a3d
00000150: 773f f93d d057 a7bc 14b1 edbd 09e2 dd3d
00000160: 032b f1ba f5ff 2e3e 2006 073e e3cf 283e
00000170: 30fa c93c ea49 adbd eff1 b73d cbc5 95bd
00000180: 5030 33be 1645 c8bd bb3e 5abe 163f f13e
00000190: cb67 febd 0c28 663d 9d70 09be ede8 81bd
000001a0: 9342 033e e666 01be f786 a2bd 5bfd 0b3d
000001b0: 5d14 223c 56ec 65bc cc45 4bbe 229c be3e
000001c0: 45f0 62be 3bbb 213c 638c f83d 86da 743d
000001d0: 60c1 37be 3a07 5e3d 2368 7b3e 4823 a53c
000001e0: a3d0 bc3d fc0a c2bd 9401 97be 6e3e a73d
000001f0: 3d44 8a3e d66f 8cbd 5011 0f3d 74ba 0fbd
00000200: a0b0 603d 2ae6 a5bd 9a11 e63d 188d 78bd
00000210: c0a2 a63d cfba 66bd 4000 1fbc 7d89 eb3c
00000220: 4ee8 d7bd 4e88 aabd d6e1 9d3d 27f9 b03d
00000230: 314a f2bd e961 a03c 94dd 72bd 7e24 84bd
00000240: a38d ce3d beba 223c 24fe 68bd 38ae ba3c
00000250: 14e3 1cbd 7ec5 9a3d b179 003e c6a0 953d
00000260: 598f c6bd 5a3f 23bd b6c7 b03c 0a03 523d
00000270: f088 24bd a02f ad3d be4a af3d 5f5d 1c3c
00000280: 748e 1e3d 5121 d9bd 62b3 69bd 16ea c8bd
00000290: d074 91bc 00da c8bb 404a 78bb 1e57 db3d
000002a0: 7a1c e13c 8c98 843d 3b6b 02bc 84e1 08bd
000002b0: 0f71 7bbd f3dc cdbd 5020 543b 28da c93c
000002c0: e888 d4bd 5e92 7cbd 3f23 313c a466 553d
000002d0: 778b 06be 7fb6 6fbd 2316 053e 805a a0bb
000002e0: a998 643d 4538 fdbd 88c7 9b3d 6d9e 783d
000002f0: cb30 c6bd 6841 763d e889 ebbd 5227 273c
00000300: 6c2c ed3d 556d 3a3d 5288 71be 1aa6 2dbf
00000310: c8df 55be 4c00 8dbb 649c 3d3d fc3d 8dbd
00000320: 1cd9 103c 015e 7e3c f6e2 c43d 5c31 d73d
00000330: b633 88be fac7 6e3d 675d 93bd 4f76 e3be
00000340: b289 e6be fc5c 17be 4c51 823d 2fe2 02bd
00000350: cac9 d13d 4f33 f43d c804 da3d c910 63bd
00000360: 44bb 683d 355c aeba ac4c d1be 3b41 94be
00000370: 39f0 00be 1e00 89bd c984 b73c 9891 97be
00000380: 76ab 79bd cfa8 17bd 0300 64bd 6270 a7be
00000390: 4b5b 6b3c 2cc8 ebbc 3b70 283d 342b 90bd
000003a0: efa3 273e 3ab7 673d c86e dcbd 4ee7 0ebe
000003b0: f423 a83d 2fcd 903d b55d 083e 5edd b6bc
000003c0: 4bdb 6abd 66a5 f4bd aaf4 173e 0085 a0bc
000003d0: 0058 e0bb 4281 053e e7f8 8ebd b048 1a3d
000003e0: 11b5 86bd 04c3 cc3d c706 febd 2577 5d3c
000003f0: a4f9 47be 0df2 5e3d f099 0abd 44b9 913c
-0.115137205 -0.0042100623 0.11293605 0.26720113 -0.19205354 0.061520748 0.0002926141 0.100827284
-0.03878977 -0.060758017 0.060804814 -0.16297987 0.042725097 0.07293409 0.012983499 -0.047182478
-0.017935062 -0.15308918 -0.09345553 -0.08970574 -0.003430456 0.033381462 0.09826182 0.05112424
-0.011874193 0.008626175 0.106435075 0.013876613 -0.13441826 0.036021814 0.08114074 0.06295482
-0.015228081 0.015036242 -0.06703992 -0.10697213 -0.11367232 -0.06423727 0.123776376 -0.021857847
-0.076835275 -0.11319967 0.04060993 0.0163155 -0.13124 -0.101396225 0.07826007 0.15557338
0.10676378 -0.045991417 -0.10415645 -0.01455552 -0.22852246 0.024825837 -0.20737623 0.05280961
0.056672443 0.05907966 -0.25229442 0.052513786 -0.13272396 0.03557135 0.11195226 0.14725001
0.12471023 -0.27270138 0.06669186 0.8534224 -0.07735498 -0.088421755 -0.09824139 0.19506428
0.012606324 -0.13441275 -0.020203099 -0.17148921 -0.04975454 0.082204975 -0.08517763 0.40199965
0.18554202 -0.2725757 -0.034108642 0.075232305 0.12170308 -0.020427614 -0.116060406 0.108341284
-0.0018399659 0.17089827 0.1318593 0.16485552 0.024655432 -0.084613636 0.08981692 -0.07313117
-0.17498899 -0.09778802 -0.21312992 0.47118443 -0.12422141 0.056190535 -0.13421865 -0.06343255
0.12818365 -0.12636909 -0.07935899 0.034177165 0.00989255 -0.014033398 -0.19850844 0.37228495
-0.22161968 0.009871299 0.12136152 0.059778713 -0.1794486 0.05420611 0.24551444 0.020158425
0.09219482 -0.09474751 -0.29493392 0.081662044 0.27005187 -0.068572685 0.03492862 -0.035089925
0.054855943 -0.08100541 0.11233826 -0.060681432 0.08136511 -0.0563305 -0.009704649 0.028752083
-0.105423555 -0.08326779 0.077090904 0.08641272 -0.11830557 0.019577937 -0.059293345 -0.06452273
0.10085609 0.009932218 -0.056882992 0.022788152 -0.038302496 0.075572 0.12546422 0.07306056
-0.0969531 -0.03985534 0.021579605 0.05127243 -0.040169656 0.084563494 0.08559178 0.009543746
0.038710073 -0.10602058 -0.05705584 -0.09810273 -0.017755896 -0.0061295033 -0.0037886053 0.10709976
0.027479399 0.064744085 -0.007960136 -0.033418193 -0.061387118 -0.10051908 0.0032367893 0.024640158
-0.10377675 -0.061663024 0.010811626 0.05209984 -0.13139139 -0.05852365 0.12996726 -0.004893601
0.05580965 -0.12364248 0.07606417 0.06069796 -0.09677275 0.06012097 -0.11500913 0.010202246
0.115807384 0.045514423 -0.23587158 -0.67831576 -0.20886147 -0.004303014 0.046291724 -0.06896588
0.008840825 0.015525342 0.09613602 0.105074614 -0.26601952 0.05829618 -0.071955495 -0.444262
-0.45026928 -0.14781564 0.063631624 -0.031953987 0.10243566 0.11923849 0.10645443 -0.05543593
0.056819215 -0.0013302626 -0.40878808 -0.28956017 -0.12591638 -0.066894755 0.022402184 -0.29603267
-0.060954534 -0.037026223 -0.055664074 -0.3270293 0.014365028 -0.028781973 0.041122656 -0.0703949
0.1637113 0.056571223 -0.10763317 -0.13955423 0.082099825 0.07070386 0.13316996 -0.022322353
-0.05733804 -0.1194561 0.14839426 -0.01959467 -0.006846428 0.13037589 -0.06981068 0.037666976
-0.065775044 0.09998134 -0.124036364 0.013517176 -0.19528824 0.054430056 -0.033838212 0.017788537

fc2.bias f4 [64]
00000000: 060d a93e d3e6 b83f 3ca5 823d e8e1 203f
00000010: 011e c1bd ef6d b9be 70d3 8f3f b229 283f
00000020: 79ab 0c3f 1241 8e3d d855 a53d a2e6 813f
00000030: 47cf 7d3f 83d2 6cbd 7062 7d3d 7e10 d73e
00000040: 9cb1 a6be daa7 8b3e 2be8 d6bd 7b1f 243f
00000050: d4cb 203f 9817 853c c8be 293d 59e2 fa3e
00000060: 1528 823d bba7 913d 378b 623d dc46 fbbc
00000070: 88b2 253d efe2 edbd 6456 443d de34 923d
00000080: 6ed7 683d 3792 fa3e 107b 76be f799 33bd
00000090: 250a 363d 4b0e a8bd 9f74 fbbd 81e6 be3d
000000a0: 21d9 7bbd bb17 a53c 7bff 52bd 32bc c6bd
000000b0: 392c 1e3c 1154 8f3d e1fd f03f ea71 f5bd
000000c0: fcad 0e3f aa51 223e e04e 13be 18b4 a53e
000000d0: 6aac 7fbb 7d8c 1f3f 6c9f 803d 3c6b c13e
000000e0: 921b 3c3e ae51 28be e8ba 493f bc58 64bd
000000f0: 67c2 5cbd 7c4b 703e 9939 0fbf 5064 38bd
0.3301775 1.4445442 0.06379172 0.62844706 -0.09429551 -0.36216685 1.1236401 0.6568862
0.54949147 0.06946005 0.08073014 1.0148509 0.99144405 -0.057817947 0.061861455 0.4200477
-0.3255738 0.27276498 -0.10493501 0.64110535 0.6281102 0.016246602 0.04144171 0.49000815
0.06355301 0.0711207 0.055308547 -0.030673437 0.040453464 -0.1161555 0.04793395 0.0713899
0.056846075 0.48939678 -0.24070382 -0.043848004 0.04444327 -0.08205851 -0.12278103 0.09321309
-0.061486367 0.020152917 -0.051513176 -0.09703864 0.009654098 0.06998456 1.8827478 -0.11984618
0.5573423 0.15851465 -0.14385557 0.32363963 -0.003901268 0.62323743 0.06280407 0.37777126
0.18369892 -0.16437408 0.7880082 -0.055748686 -0.053896334 0.23466295 -0.5594726 -0.04501754

fc3.weight f4 [20, 64]
00000000: c789 eb3c 9d0b 98bd 64aa a73d a433 163e
00000010: a1c0 1e3e a87d 843d 83a9 60be c2bf 2c3e
00000020: 8bc5 973d f6ed 883c 387c 6d3d 4ccd 4f3e
00000030: 267b 863e cf03 afbd b0af b2bd b590 693e
00000040: fbcc b9bd c6f2 c03c 7c1f 223e af23 953e
00000050: 9330 5f3b 3447 69bd bc61 e33d 35c2 903e
00000060: d7e3 5c3d b889 e0bc 8094 983b d034 60be
00000070: d8c4 683d 6421 18bc 4f37 0bbe 9e6d cabd
00000080: fad3 f0bc 218f 393e fff4 55bd ca2a a2bc
00000090: 64e2 af3d ed40 f33d 1d3b eebd 5ed9 2abd
000000a0: 2eb1 d5bd 3ef9 8c3d 1122 d1bc 0018 3dba
000000b0: 7d01 963d d2c2 c0bd 8cc1 873b 18e2 013e
000000c0: 68d7 663e 9e50 c13d af70 d43c e4e1 443e
000000d0: 056b d1bd 3901 c83d 80ac ab3d 02cd 573e
000000e0: 92af 3f3e 3569 2e3e d196 833d 851c db3d
000000f0: 14c7 8a3d 3e1d 613e 5eaa 37be 37b2 113d
00000100: 51d0 db3d 3015 ca3c 175a c43d a781 313e
00000110: 7a14 8c3e d776 bb3d ec66 0fbe 03e4 5e3e
00000120: 49f0 383e 5b83 87bd 383e d2bd ed4c 313e
00000130: 5fcb 513e 5a8e 43bc 5084 5abd 745b 613c
00000140: e61a 0cbe 3427 0b3c 10a0 cf3d 028a 993e
00000150: bc6e bf3d 121e d2bd 0882 43bd b609 4a3e
00000160: 67e6 943c 6a9f e9bc be75 673c 568f 28be
00000170: c3b6 833d c37c e13b 5bee c43d 8e66 99bd
00000180: 5abe be3d 8546 303e bedc aebc 78fd c8bd
00000190: 88c4 673d 53ed 82bd 385d 9abc 1b00 eabc
000001a0: 4030 d93d 244f a9bd d65c 833d 29f8 e4bd
000001b0: 9d66 6e3c 83f9 c83d 6d74 b0bd 5f09 763d
000001c0: d800 d63d 85d3 3c3e 9d22 4dbd 817e c03d
000001d0: 4096 dfbd 93f4 4e3d d635 78bd 3bb0 0d3e
000001e0: 531a 213e 723a 6f3e 5685 173e 0a48 933d
000001f0: f4bc 593d 5aad 673e 64d6 d9bd 7cd4 edbc
00000200: 1459 cf3d 1d62 dbbd d29e 723c 1d59 243e
00000210: 1a10 6a3e 4d1d 203e 9221 a4bd 3718 f23d
00000220: c8e9 603e e5d5 bd3d d6e3 c93d e020 1f3e
00000230: f7ec 223e c68f c5bd fc64 92bd c9d5 80bd
00000240: 47d1 1abe fc49 9dbd 9904 193e 2d67 8c3e
00000250: 90fe 90bd a2b3 dcbd 2655 e83d 7023 533e
00000260: 5433 603d 50e6 ebbc 29eb e7bd 9762 f53c
00000270: 6552 243c 5ed9 7dba 8826 b3bd 7039 653c
00000280: 085b 1a3e 626e 0a3e 28ed ec3c e1a8 d9bb
00000290: 707d 9cbd 6be6 e33d 553b 323c bb1e 2f3b
000002a0: 42d9 113c 1c0c 1cbd 3552 dc3b eda6 f73b
000002b0: bca4 efbd 9002 4abd fefd efbd 6343 b33d
000002c0: ddb6 123e 9e9a cb3e 8a3a d43d f4f1 ee3d
000002d0: 4ee8 983d 6bf1 383e ca2b d3bd 5369 493e
000002e0: 7a09 333e 6889 303e 0b01 df3d b8a4 5c3d
000002f0: a467 d83d e696 4b3e 73a9 aabe 8d3d b9bd
00000300: 426e 93bd 282c 973b 5bba 1f3b 230c 523e
00000310: ef26 873e 37dc 463e d9c8 8abd cd8f 8c3d
00000320: f4c0 673e 45fb 31bc 22a5 ea3d 3152 523d
00000330: f3ce 3e3e eb2f 28bd 2005 1b3d 1867 a0bc
00000340: 539f 56be 276d e53d 6dc0 0f3e fbbb 963e
00000350: e7bb 1c3d 60dd 0cbc be91 903d 2957 813e
00000360: 42f8 993d 9c18 073d 8c4d b4bd 5266 473d
00000370: e783 dcbd f109 223e a809 5e3d 881c d6bd
00000380: b7a1 553d 5fc0 fc3d ca51 073c 3c69 0cbe
00000390: 79a3 af3d 9a5e 293d 9f46 51bd 6e5e 57bd
000003a0: 4eda a0bd 90f8 953d 0890 83bd 0035 2cbc
000003b0: 9f69 9cbd 8069 87ba 43ce 0cbe 9d6c 8bbc
000003c0: 0215 1f3e 02b8 913d b651 47bd afac 083e
000003d0: 6e25 f53d b717 223e ca19 d7bd 6373 803e
000003e0: c7a6 d23d eaac c63d bd46 b33d 8afd d5bd
000003f0: 00ed 54ba 9308 683e ee4b e2bd 0804 a73c
0.02875222 -0.0742409 0.08186796 0.14668137 0.1550317 0.064692795 -0.21939664 0.16870025
0.07410725 0.016715031 0.057979792 0.20293158 0.2626583 -0.08545648 -0.08724916 0.22809108
-0.090723 0.023553263 0.15832323 0.29128787 0.0034056052 -0.05695267 0.11102626 0.28273168
0.053928223 -0.02740942 0.0046563745 -0.21895146 0.05682835 -0.009285305 -0.13595317 -0.09884189
-0.029397953 0.18121006 -0.0522356 -0.019795794 0.085881025 0.11877618 -0.11632369 -0.041711204
-0.10434185 0.06883477 -0.02552894 -0.0007213354 0.073245026 -0.09412159 0.0041429456 0.12683904
0.22543108 0.09439205 0.025932638 0.19226795 -0.102254905 0.09765858 0.08382511 0.21074298
0.18719319 0.17032321 0.0642525 0.10698799 0.067762524 0.21983811 -0.17936084 0.03557035
0.107330926 0.024668306 0.09587496 0.17334615 0.27359372 0.09153526 -0.14004105 0.21766667
0.18060412 -0.06616851 -0.102657735 0.17314501 0.20487736 -0.011935795 -0.05334884 0.013754714
-0.13682136 0.0084932335 0.101379514 0.29988104 0.09347293 -0.10259642 -0.04773143 0.19730267
0.01817627 -0.028518397 0.014127193 -0.16460928 0.064313434 0.006881328 0.09615775 -0.07490264
0.093136504 0.17214401 -0.021345492 -0.0981397 0.05658391 -0.06392922 -0.018843278 -0.028564503
0.10604906 -0.08267048 0.064141914 -0.11180145 0.014550832 0.098132156 -0.086159565 0.06006753
0.1044938 0.18440063 -0.050081838 0.09399129 -0.1091733 0.050526213 -0.060598217 0.13836758
0.15732698 0.23362139 0.14796957 0.07191475 0.053158715 0.22624722 -0.10636595 -0.029031985
0.10124412 -0.10712073 0.0148083735 0.16049619 0.22857705 0.15636177 -0.080142155 0.11821025
0.2196418 0.09269313 0.098579094 0.15539885 0.15910707 -0.09646563 -0.071481675 -0.06290776
-0.15118895 -0.07680127 0.1494316 0.27422467 -0.07079804 -0.1077645 0.11344366 0.20618987
0.05473645 -0.028796345 -0.1132415 0.029954238 0.01002941 -0.00096835743 -0.08747584 0.013990745
0.15073788 0.1351867 0.028921679 -0.0066424464 -0.07641113 0.11127933 0.010878404 0.0026721198
0.008901896 -0.038097486 0.006723667 0.007557741 -0.117013425 -0.04931885 -0.11718367 0.08753087
0.1432757 0.397664 0.10362728 0.11667243 0.074661836 0.18060844 -0.103110865 0.19669084
0.17484084 0.17239916 0.10888871 0.053868026 0.10566643 0.19881782 -0.33332404 -0.09044943
-0.071987644 0.004613418 0.002437255 0.20512442 0.2639689 0.19419943 -0.0677659 0.06863365
0.226322 -0.01086313 0.11457278 0.051347915 0.18633632 -0.041061323 0.037846684 -0.019580409
-0.20959215 0.1120246 0.14038248 0.29440293 0.038265135 -0.008597702 0.07059048 0.2526181
0.075180545 0.032982454 -0.088038534 0.048681565 -0.10767346 0.15824105 0.054208428 -0.10454661
0.052156176 0.123413794 0.008259246 -0.13712019 0.08576102 0.041349985 -0.05109274 -0.05258029
-0.07854138 0.073228 -0.06423956 -0.010510683 -0.07637333 -0.0010331124 -0.13750558 -0.017019564
0.15535358 0.07115175 -0.04866191 0.13347124 0.1197003 0.15829359 -0.10502966 0.25088033
0.102857165 0.097009495 0.08753727 -0.10448749 -0.0008122474 0.22659521 -0.11049639 0.020387664

fc3.bias f4 [20]
00000000: 8d9f 0f3f 1c84 dc3e 5839 8b3e 89fa 6d3e
00000010: 7ebd aabc f7bb 893e e769 9c3e 7172 9b3d
00000020: 0b2a a23c cafa 82bd 74a6 41be bf5d 7ebd
00000030: 3846 c7be 7449 efbe 9099 0bbf ab6f ccbe
00000040: 13e0 d6bd a369 0dbf 4b8c 16bf a54b 2abf
0.5610283 0.4306954 0.27192187 0.23240103 -0.02084231 0.26901218 0.30549547 0.07590187
0.019795438 -0.063954905 -0.18911153 -0.062101122 -0.3892076 -0.46735728 -0.5453119 -0.39928946
-0.104919575 -0.55239314 -0.5880782 -0.66521674

exp_avg f4 [64, 9]
00000000: 0000 0000 0000 0000 0000 0000 0000 0000
00000010: 0000 0000 0000 0000 0000 0000 0000 0000
00000020: 0000 0000 36ed 35bf b7eb 29be 3d4c febe
00000030: 03d8 1dbf e772 1fbf da0e c140 3e52 8ebe
00000040: 03d8 1dbf 4ea0 993f 5513 9cbe a3f0 dcbd
00000050: 39d0 b7bf fd5e ffbd 9097 23be a8ec 363f
00000060: f2da eabb fd5e ffbd dfad 6bc0 8721 6541
00000070: f949 3741 15f6 4a43 0d32 0e41 6305 6241
00000080: 3245 bf41 075c 4f41 0d32 0e41 7ad6 b043
00000090: b0b4 46c1 9f2d 6fc1 5b92 08c3 4b1f 603e
000000a0: b0b4 46c1 27c2 01c3 136d 8cc1 4b1f 603e
000000b0: e34e 1bc3 fd58 6940 0783 6440 b759 b141
000000c0: 7fcc 24c0 5bff 6340 28ee 8242 0431 9140
000000d0: 7fcc 24c0 938c 1242 0000 0000 0000 0000
000000e0: 0000 0000 0000 0000 0000 0000 0000 0000
000000f0: 0000 0000 0000 0000 0000 0000 9397 ad3f
00000100: b7b5 7d40 627e 1a42 b132 7f40 95c8 973f
00000110: 14f5 7d41 26be 6a40 b132 7f40 485f f941
00000120: 4719 913e e5eb 4b3e d516 6740 1e68 993d
00000130: e23c 7e3e 99a7 4c3f d0ec c93d 1e68 993d
00000140: 073c 3140 d2af 7640 0ae4 5e40 3988 c841
00000150: 410f d3bf 18e1 7240 9fe4 5642 0eb4 8340
00000160: 410f d3bf 6719 1842 0000 0000 0000 0000
00000170: 0000 0000 0000 0000 0000 0000 0000 0000
00000180: 0000 0000 0000 0000 0000 0000 a195 52bd
00000190: df50 c7bd bc6e 5140 fa7a 0e3c 2691 53bd
000001a0: 51ac 4f40 eeb1 b2bc fa7a 0e3c da18 ba3f
000001b0: e65a 12c1 7453 24c1 b9ce d1c2 a26c 3abf
000001c0: e65a 12c1 bb96 b9c2 f20a 32c1 a26c 3abf
000001d0: b8d7 efc2 9b02 f83c 6fe9 a33c e3c2 2d3d
000001e0: 29d1 213b bb08 e63c a73d 2e3c 0209 053d
000001f0: 29d1 213b 836a 833f 7f96 c43e fb88 a43e
00000200: fdb1 c140 6041 fd3e de2d e43e 426f 8e3f
00000210: aa16 823e 6041 fd3e 25ab ad40 418a a1c0
00000220: f416 2bc0 f7d3 1742 677b a340 aa76 a9c0
00000230: eca1 b9c1 81b5 c0bf 677b a340 bb30 ccc1
00000240: 26dc 3dc1 3b68 90c1 0f43 32c3 578e ab3c
00000250: 26dc 3dc1 31b0 36c3 2d39 a5c1 578e ab3c
00000260: 2d32 57c3 b7e5 2940 0978 1a40 08e6 1042
00000270: 2a4f 0140 85b5 2c40 eaae 8640 53e9 2440
00000280: 2a4f 0140 d6d6 1842 3fcd 6f40 7d48 4840
00000290: 5132 db41 b856 5abf 0204 6f40 e3e8 2942
000002a0: 7986 6b40 b856 5abf 7f16 0342 9c47 95bf
000002b0: 055e a03f 61b7 bf40 6630 dd3f 41ad 8dbf
000002c0: a3e4 9440 bfb8 f83f 6630 dd3f 2dd0 a5c0
000002d0: 0000 0000 0000 0000 0000 0000 0000 0000
000002e0: 0000 0000 0000 0000 0000 0000 0000 0000
000002f0: 0000 0000 c7d5 6640 001a 4640 d095 9641
00000300: ce71 22c0 db50 6340 9442 6d42 9660 8140
00000310: ce71 22c0 c76f ed41 c124 9e3f 6e8a 2e40
00000320: aefd a141 f560 493f c124 9e3f ec5f b941
00000330: 3c51 5c40 f560 493f a301 fa41 ab6c 3cbe
00000340: 5830 0cbf b4b5 7a3f 8824 2dbf 5e99 40bc
00000350: 274d 1141 76f2 febd 8824 2dbf 7bfd 0fc0
00000360: 29f5 2340 4eac e93f 87bd ba41 4bbb 1abf
00000370: 2478 1a40 9cc0 0042 eb5d 0e40 4bbb 1abf
00000380: c7f8 ef41 0400 0000 0400 0000 0400 0000
00000390: 0400 0000 0400 0000 0400 0000 0400 0000
000003a0: 0400 0000 0400 0000 09d5 45c1 b414 8dc1
000003b0: a6fa 21c3 a91a e7bc 09d5 45c1 dd85 19c3
000003c0: 9d06 a0c1 a91a e7bc 921c 3dc3 30ce 4bc1
000003d0: 376f 8dc1 ff93 28c3 bc58 13be 30ce 4bc1
000003e0: 257b 1dc3 6210 a2c1 bc58 13be dbe9 45c3
000003f0: 0400 0000 0400 0000 0400 0000 0400 0000
0.0 0.0 0.0 0.0 0.0 0.0 0.0 0.0
0.0 -0.7106508 -0.16593824 -0.4966754 -0.6165773 -0.622847 6.033063 -0.2779712
-0.6165773 1.2002046 -0.304835 -0.10788085 -1.436042 -0.124692895 -0.15975785 0.7145486
-0.0071672136 -0.124692895 -3.6824872 14.320685 11.45556 202.96126 8.887219 14.126315
23.908787 12.959968 8.887219 353.6756 -12.419113 -14.948638 -136.5717 0.21886937
-12.419113 -129.7584 -17.553259 0.21886937 -155.30815 3.6460564 3.5704973 22.168806
-2.5749815 3.5624607 65.46515 4.5372334 -2.5749815 36.63728 0.0 0.0
0.0 0.0 0.0 0.0 0.0 0.0 0.0 1.3561882
3.964216 38.62342 3.987469 1.1858088 15.872334 3.6678557 3.987469 31.171524
0.28339598 0.19914205 3.6107686 0.07490562 0.24827912 0.79943234 0.098596215 0.07490562
2.7692888 3.8544812 3.4826684 25.066515 -1.648903 3.7949886 53.723263 4.1157293
-1.648903 38.024807 0.0 0.0 0.0 0.0 0.0 0.0
0.0 0.0 0.0 -0.05141223 -0.09732222 3.2723837 0.008696312 -0.051652096
3.2448924 -0.02181336 0.008696312 1.4538834 -9.147192 -10.270374 -104.903755 -0.7282201
-9.147192 -92.794395 -11.127672 -0.7282201 -119.921326 0.03027468 0.02000877 0.042422187
0.002469132 0.028080335 0.010634816 0.032479294 0.002469132 1.026688 0.3839607 0.32135758
6.052977 0.4946394 0.44566244 1.1127703 0.25407916 0.4946394 5.4271417 -5.0481267
-2.673276 37.956997 5.108814 -5.2957354 -23.204063 -1.5055391 5.108814 -25.523794
-11.866247 -18.050894 -178.26195 0.020941896 -11.866247 -182.68825 -20.652918 0.020941896
-215.196 2.6546457 2.4135764 36.22464 2.0204568 2.698579 4.208852 2.576741
2.0204568 38.2098 3.7469022 3.1294243 27.399569 -0.8528857 3.7346196 42.47743
3.6800826 -0.8528857 32.77197 -1.1662478 1.2528692 5.991135 1.7280395 -1.1068498
4.6529098 1.943138 1.7280395 -5.181662 0.0 0.0 0.0 0.0
0.0 0.0 0.0 0.0 0.0 3.606798 3.095337 18.82315
-2.538196 3.55181 59.315018 4.0430403 -2.538196 29.679579 1.2354966 2.727199
20.248867 0.7866357 1.2354966 23.171837 3.4424582 0.7866357 31.2508 -0.18400829
-0.54761267 0.97933507 -0.6763387 -0.011755316 9.081336 -0.124485895 -0.6763387 -2.2498462
2.5618384 1.8255708 23.342543 -0.60442036 2.4135828 32.188095 2.2244823 -0.60442036
29.996473 6e-45 6e-45 6e-45 6e-45 6e-45 6e-45 6e-45
6e-45 6e-45 -12.364511 -17.635109 -161.9791 -0.028210955 -12.364511 -153.5229
-20.00323 -0.028210955 -189.1116 -12.737839 -17.679304 -168.57811 -0.14389318 -12.737839
-157.48103 -20.258 -0.14389318 -197.9135 6e-45 6e-45 6e-45 6e-45
